result/experiment_07.11.2022_12.08.41/67/fold_3_optim_dict.pt (torch, 59548 bytes, 92 tensors)

first_h.0.weight f4 [32, 3]
000000 58 23 04 bf fd 40 37 3d fb 46 1f 3f 65 8d a2 be
       -0.5161643 0.044739712 0.6221768 -0.317485
000010 f4 cf 99 3e 02 bb e1 3e b7 cf 41 3e 28 c1 54 3d
       0.30041468 0.44087988 0.18926893 0.05194202
000020 7c 95 ea 3e d1 6c f2 3e d8 63 6f 3d 16 0a 00 3f
       0.45817173 0.47348645 0.058444828 0.5001539
000030 8a 87 6e 3e 94 26 02 3f 74 c9 4c 3f 24 88 df 3d
       0.23293892 0.50840116 0.79994893 0.10914639
000040 8e 15 c9 3d d6 4c 3a 3f d6 2a 70 be a2 3c 59 3f
       0.09818564 0.7277349 -0.2345384 0.84858143
000050 69 50 61 3f 73 aa 80 3e 1c bd 14 3f bd eb 2e 3e
       0.8801332 0.25130042 0.5810106 0.17082115
000060 bd 1f 0c 3f 91 56 dc be 25 16 d9 3c ee 19 8d be
       0.5473593 -0.43034795 0.026499817 -0.27558845
000070 61 b7 a5 3d 67 f5 0d 3f 0a 53 06 bf ea ef 15 bf
       0.080916174 0.5545258 -0.5247046 -0.58569205
000080 b5 bb 94 be 3f 5e f9 be e0 66 e9 3e fb c7 f5 be
       -0.2904946 -0.48704717 0.455863 -0.48004135
000090 7d 72 51 3e ab 43 48 3f 71 6b 28 3f af 50 1c 3e
       0.2045383 0.78228253 0.6578894 0.15265153
0000a0 2c fb b0 3e 23 85 75 3f b7 4e 43 3d 48 af d2 be
       0.3456663 0.95906276 0.04768249 -0.41149354
0000b0 88 de c0 be f2 0b e2 be 27 79 ab 3d 7b ce cc be
       -0.37669778 -0.4414974 0.08372717 -0.40001282
0000c0 63 6b 7a 3e 87 b5 24 bd 5f 94 37 3e 55 0a cc 3e
       0.24455027 -0.04021218 0.17927693 0.39851633
0000d0 4e 7c a3 3d 6a f1 23 be 67 25 4e 3d c8 c8 12 3e
       0.079826936 -0.16010061 0.05032864 0.14334404
0000e0 47 dc b0 be 6f d3 60 3e 41 c0 80 3f 38 56 25 3f
       -0.34543058 0.21955656 1.0058671 0.64584684
0000f0 ba f6 43 3f 76 ce f9 3b 3a d0 ad bc c3 03 9d be
       0.7654835 0.007623489 -0.021217454 -0.30666932
000100 bb a8 fb 3e 0c 77 0d 3f d9 1d 8d 3e 3b e4 17 3f
       0.4915217 0.55259776 0.27561834 0.5933263
000110 c5 81 60 3e 83 4e 8a 3e 63 0b 80 3f 62 84 c5 bd
       0.21924503 0.27013025 1.0003475 -0.09644391
000120 d1 49 79 3e a0 73 80 3f be 72 17 3f 5b 4c 30 bf
       0.24344565 1.0035286 0.5915946 -0.6886651
000130 3c 54 c8 3d 80 fc b7 3d 1a ed 89 be 95 12 4f 3f
       0.097816914 0.089837074 -0.26938707 0.8088773
000140 67 b4 aa 3e c5 25 77 bf 07 df 80 3d 22 0a 84 bd
       0.3334076 -0.96542007 0.06292539 -0.06447245
000150 e3 43 8e 3e b2 6b 8d 3f 46 7b 57 3f 23 e0 e6 bd
       0.27786168 1.1048491 0.84172475 -0.112732194
000160 25 eb 07 bf 0c 00 95 3d 3d 6b cd be d4 dd bc b9
       -0.5309318 0.072753996 -0.4012088 -0.0003602343
000170 b2 b3 8d be cd 15 91 bd 22 b8 d4 3e 22 7f 2a 3f
       -0.2767616 -0.07084236 0.41546732 0.6660024

first_h.0.bias f4 [32]
000000 61 08 f3 3e bd be a0 be db 7c c0 3e 1b 4a c0 3e
       0.4746733 -0.31395522 0.37595257 0.37556538
000010 94 50 6d 3e 56 27 0c 3f 6f 2f 3c 3d 77 19 8e bd
       0.2317527 0.5474752 0.045943674 -0.06938451
000020 f6 2c a7 be 45 a5 03 be 43 17 52 3e 89 c1 d0 be
       -0.3265149 -0.12856014 0.20516686 -0.40772656
000030 7e 3e f4 3d 39 b7 1f be 6a 03 ed be 2b 8e 90 bd
       0.11925982 -0.15597238 -0.46291667 -0.070583664
000040 88 70 63 be ff ee 03 3f 78 76 8d be d0 5a 10 3f
       -0.22210896 0.51536554 -0.27629447 0.5638857
000050 38 19 aa 3e 89 c4 10 3f 14 11 14 bb 45 cb 9a bc
       0.33222365 0.5654989 -0.0022593187 -0.018895755
000060 d1 4c fb be 32 cf 64 3e 75 4e bf 3e 1a 91 5a bd
       -0.49082044 0.22344664 0.37364545 -0.053361036
000070 0e 9c 96 bc 49 47 28 bd 3b c1 99 3e 6b 4d ab be
       -0.01838496 -0.041083608 0.30030236 -0.33457503

first_h.1.weight f4 [32]
000000 e5 ab b0 3f 00 57 9a 3f 6e 01 6a 3f 66 70 45 3f
       1.3802458 1.20578 0.9140843 0.7712463
000010 63 2e 87 3f e4 df 69 3f 89 f4 80 3f b4 dc 69 3f
       1.0561031 0.91357255 1.0074626 0.9135239
000020 1b 3b 28 3f b6 53 03 40 6e 4d 85 3f dd 35 b1 3f
       0.6571519 2.0519843 1.0414255 1.3844563
000030 70 8f 5b 3f e5 09 a4 3f 82 dc 18 3f 8d c7 82 3f
       0.85765743 1.281552 0.5971147 1.0217148
000040 75 90 6d 3f 88 b8 6c 3f 6e 0c 34 3f 25 07 7d 3f
       0.9279855 0.9246907 0.70331466 0.98839027
000050 1e 75 55 3f 17 20 ab 3f e0 d8 67 3f ee 96 f9 3e
       0.8338183 1.3369168 0.905653 0.48747963
000060 54 52 53 3f f3 fc c8 3f 29 c4 84 3f 00 db dc 3f
       0.825475 1.5702194 1.0372363 1.7254333
000070 2e e0 4d 3f 79 75 b1 3f 8b 71 af 3f 5c ec 91 3f
       0.80420196 1.3863975 1.3706526 1.1400256

first_h.1.bias f4 [32]
000000 6c 43 52 3d a9 c0 04 bd 64 02 3d 3d b4 f0 c8 bd
       0.05133383 -0.032410298 0.046144858 -0.098115355
000010 11 89 97 be ba 1a 21 be de eb 25 3e 49 85 e5 bd
       -0.2959676 -0.15732852 0.16203257 -0.11207063
000020 09 c8 96 be c1 5f 4f bd 9d 07 c2 3c f3 8f 73 3d
       -0.2944949 -0.050628427 0.02368527 0.059463453
000030 de f5 ea 3d 04 6b c4 bd d7 45 06 be 8d 7e a3 bc
       0.11472677 -0.09590724 -0.1311258 -0.019957805
000040 1f 05 d0 bd 29 51 bb bd 88 72 c5 bd df f4 80 3e
       -0.10157227 -0.091463394 -0.09640986 0.25186822
000050 fd 93 ed bc cd 52 05 bd 76 fe 75 be 96 ee 03 be
       -0.02900123 -0.032549668 -0.2402285 -0.12883982
000060 50 fd 4f 3c 49 d1 32 bd ac f5 19 3d 43 29 94 bd
       0.012694672 -0.04365662 0.037587807 -0.072344325
000070 f8 21 e8 bd ae 82 61 3d 37 74 74 3d 95 2f fb bc
       -0.11334604 0.055056266 0.059681144 -0.030662337

first_h.1.running_mean f4 [32]
000000 c6 ff 5c c9 68 f1 07 c9 41 33 a2 48 6e 78 4a 49
       -905212.4 -556822.5 332186.03 829318.9
000010 57 c6 c6 48 0a e8 3a 48 48 bb c9 c8 d5 c0 d3 48
       407090.72 191392.16 -413146.25 433670.66
000020 f7 76 6a 49 6e 06 ec c8 3a b2 60 c9 1e 96 50 c9
       960367.44 -483379.44 -920355.6 -854369.9
000030 43 05 b0 48 38 bd 82 48 94 66 a3 47 0a 12 3d c9
       360490.1 267753.75 83661.16 -774432.6
000040 7b d4 d0 48 b1 7f 2a 49 ce 78 ac 47 55 d8 b9 48
       427683.84 698363.06 88305.61 380610.66
000050 39 e7 a3 49 12 4b 03 c9 6a a5 eb 48 29 50 e7 48
       1.3426951e+06 -537777.1 482603.3 473729.28
000060 10 b8 d0 48 79 65 93 c9 62 e1 e6 c8 47 bc ce c9
       427456.5 -1.2074711e+06 -472843.06 -1.6935769e+06
000070 9e ef ed 48 00 47 41 c8 e6 e8 2b c9 bc e5 f1 c7
       487292.94 -197916.0 -704142.4 -123851.47

first_h.1.running_var f4 [32]
000000 08 01 b2 55 9e b5 06 55 34 d3 3f 54 e1 17 95 55
       2.4464687e+13 9.257162e+12 3.2955286e+12 2.0491224e+13
000010 6d b5 8f 54 5d 8f 7e 53 09 5a 94 54 d4 fc a1 54
       4.937793e+12 1.0933269e+12 5.0973256e+12 5.565852e+12
000020 84 62 c8 55 42 0a cb 54 00 03 b8 55 e1 93 9e 55
       2.754068e+13 6.9764037e+12 2.5290378e+13 2.1794747e+13
000030 8a e9 61 54 58 23 f9 53 9e b5 42 52 d2 49 82 55
       3.881143e+12 2.1400797e+12 2.0906767e+11 1.7906696e+13
000040 7a 95 9e 54 96 e5 53 55 72 e1 58 52 fc eb 7c 54
       5.448901e+12 1.4561439e+13 2.3287382e+11 4.3451637e+12
000050 36 d4 43 56 32 4e fb 54 40 27 ca 54 50 f7 c2 54
       5.382905e+13 8.6347895e+12 6.945935e+12 6.698983e+12
000060 2d ac 9e 54 79 5a 1e 56 8b 49 c2 54 c6 c6 9b 56
       5.4519477e+12 4.3527854e+13 6.67566e+12 8.563901e+13
000070 f3 42 ce 54 38 27 88 53 3d 71 57 55 f6 27 d5 52
       7.087092e+12 1.1695471e+12 1.4805085e+13 4.5774923e+11

first_h.3.weight f4 [32, 32]
000000 8f 1c 5e 3d 79 e6 c0 3d 07 47 09 3e f3 32 5a 3e
       0.054226454 0.09418959 0.13406001 0.21308498
000010 96 1d bb bd 5c 8d c4 3d e7 74 c8 3d b9 88 6f bc
       -0.091365024 0.09597275 0.09787922 -0.01462
000020 6e 0f dc 3c ea 14 a2 3c 1b 4c a2 bd c7 cb a6 bd
       0.026862826 0.019785363 -0.07924672 -0.08144336
000030 cf 8f 4c 3d 54 7a 34 3e 78 08 70 3e cf f3 ad 3d
       0.049941834 0.1762479 0.2344073 0.084937684
000040 15 3f 7b bd 61 50 83 3b c6 b2 c1 3d 91 df cf 3d
       -0.061339457 0.0040073846 0.094579265 0.10150064
000050 8a f5 b2 3d 85 d0 fb bb 7e a5 cd 3d 9b 41 5a 3e
       0.08738239 -0.0076847696 0.10041331 0.21314089
000060 7d 32 7f bd e7 0c 32 3c c7 4e 3c bd 77 78 43 bc
       -0.06230401 0.010867334 -0.045973565 -0.0119305765
000070 9a d9 60 3e bd d5 0f 3e b8 67 4e 3d 34 a3 61 3d
       0.21958008 0.14046378 0.050391883 0.055087283
000080 68 07 71 3e 5f 44 1b 3e a3 39 a6 bd 4f 9e 16 bc
       0.23537982 0.151628 -0.08116462 -0.009193017
000090 7b 00 7c 3c 77 d5 43 bd 57 99 33 be d4 1a 09 be
       0.015380974 -0.047810998 -0.17538963 -0.1338914
0000a0 8c d8 4c be 1a c0 55 3e 5d 51 0d be 6c cb e1 3d
       -0.20004481 0.20874062 -0.13800569 0.11025128
0000b0 cd 7a 20 be b0 16 6b 3d ae 2f 32 bd f9 66 a4 3c
       -0.15671845 0.057394683 -0.043502502 0.020068632
0000c0 d5 58 cc 3d e5 82 2c be 62 ed df bd 56 84 3d bd
       0.09977881 -0.16846807 -0.10933949 -0.046268784
0000d0 ff 4d a5 3d 37 47 89 3e 66 29 85 bd 7b e8 bb 3d
       0.08071517 0.26812145 -0.06502037 0.091752015
0000e0 4d e9 bd bd e7 13 5b 3c 64 9f 64 bd 67 be a4 3d
       -0.09273014 0.013371444 -0.05581607 0.08044129
0000f0 47 25 5a bd 04 df 99 3d fb 56 34 bd f3 9e af bc
       -0.053258207 0.0751324 -0.044028264 -0.021438098
000100 f6 09 2c 3d 4f bf dc bc c9 f8 83 3d 5e 24 cb 3d
       0.042001687 -0.026946692 0.064439364 0.09919046
000110 9c a5 22 3d 6c 51 ba bd 74 d7 79 3c 7d 05 79 bd
       0.03970872 -0.09097561 0.015249122 -0.06079625
000120 4b 66 65 3d 29 36 b9 bc be 87 37 3e ad 0e 34 3d
       0.056005757 -0.022608833 0.17922875 0.04395931
000130 93 e7 cd 3a 00 fd da 3d d6 03 c2 bd a3 54 37 3d
       0.0015709273 0.10692787 -0.09473388 0.04475845
000140 4f be 23 bd 02 0e 34 3e 06 dd 9f bd fb 5f 2f 3e
       -0.039976414 0.17583469 -0.07805829 0.17126457
000150 14 8e b4 bd 72 3e 1b 3e f8 c9 15 3e 0f 24 83 bd
       -0.08816162 0.1516054 0.14627826 -0.06403362
000160 16 01 7a 3e 22 c5 a7 3d 91 91 cb 3d 76 79 c1 3d
       0.24414477 0.08191897 0.09939874 0.09446995
000170 b6 c6 5d 3c a9 85 e7 3d ab 65 24 be db ff 33 be
       0.013536146 0.113047905 -0.16054408 -0.1757807
000180 1b 38 a2 3e 5d 84 1b ba 38 3b 0d be e0 cb dc 3c
       0.3168343 -0.00059325044 -0.13792121 0.026952684
000190 e3 3b 6b 3e fa 59 93 3d a9 14 c8 bd 23 c0 00 3e
       0.22972064 0.07194896 -0.097695656 0.12573294
0001a0 f4 2f e6 3c bb ce 43 3e fd 5f f8 bd c3 f4 a6 3e
       0.028099038 0.1912183 -0.12127683 0.32608613
0001b0 fd bb 4b bd 67 53 7d 3e 68 b0 cb 3d 8d 1a 81 bd
       -0.049739826 0.24738847 0.09945756 -0.06303892
0001c0 3d 2c fb 3d d5 ba 0f 3e ce 06 bb 3d 1a 85 63 bd
       0.12264297 0.14036115 0.09132157 -0.055546857
0001d0 b3 d2 8c bd a0 96 5c 3d a1 ac 45 3e 9a 87 8c bc
       -0.06876125 0.053854585 0.19304134 -0.017154504
0001e0 24 82 5f bd b2 c7 08 3e 98 ea 3a be d4 48 09 3e
       -0.05456747 0.13357428 -0.18253553 0.13406688
0001f0 ea f3 16 3d cc b8 9a 3e bc e9 a5 3e 7a f8 0f bd
       0.03685371 0.30219114 0.32404888 -0.035149075
000200 dc 4d b2 be 73 10 12 bf 5f bc 61 3e 9f 15 51 3e
       -0.34825027 -0.5705635 0.22044514 0.20418404
000210 95 f7 8e 3e 30 0a fa 3e 93 d4 b4 be d8 fc c7 3e
       0.27923265 0.48835897 -0.3531843 0.39060092
000220 b2 88 81 3e bc 40 38 bf c9 ef 55 be 53 26 e8 be
       0.25299603 -0.71973777 -0.20892252 -0.4534174
000230 d7 45 05 3e 6b 9e a5 3e 0d 0d b6 3d 80 d8 f0 be
       0.13014923 0.32347426 0.08889208 -0.47040176
000240 b7 bb 28 3e d5 55 82 3e 89 94 14 bd 77 e8 81 be
       0.16477858 0.2545611 -0.036274467 -0.2537267
000250 af 61 42 3e 39 3d 26 bf be bc df 3e 57 e1 90 3e
       0.18982576 -0.6493717 0.43698686 0.2829692
000260 fc d4 f3 3d a9 a8 a9 be ad 38 87 be 01 af f7 be
       0.11905858 -0.3313649 -0.26410428 -0.48375705
000270 6a d5 c0 3e 6a 80 a4 be 04 5b d9 be 34 97 d0 be
       0.37662822 -0.32129222 -0.42452252 -0.4074036
000280 7f ae 57 3c a2 40 de bd 21 5b 0d be 5f bc 91 be
       0.013164162 -0.108521715 -0.13804294 -0.28464028
000290 50 dc 10 be d0 31 3a 3b b9 a3 67 3c 76 01 12 bd
       -0.14146543 0.0028411038 0.014138156 -0.035645925
0002a0 b5 90 83 be bb 0b be bb 92 81 ba 3d 6e c0 5c 3d
       -0.2569634 -0.005799738 0.09106745 0.053894453
0002b0 df 99 81 bd 0b ed 69 be 2f f7 61 be b0 cd 55 be
       -0.06328177 -0.22844331 -0.2206695 -0.20879245
0002c0 d9 27 b9 bd b7 93 77 bc d8 47 92 bd 38 02 6b be
       -0.090408035 -0.015110902 -0.07142609 -0.22950065
0002d0 94 2f 16 bd 5d 7a 3d be fa c1 ca bd b7 d7 3b be
       -0.036666468 -0.18503709 -0.09900279 -0.18344007
0002e0 9c 7b ed bb c2 f9 0c bb cd 6a 9b bd 3f 4c dd bb
       -0.0072474014 -0.0021511172 -0.0758873 -0.006753474
0002f0 ea df a9 bd 66 e0 b1 3c bc 66 a6 3d 22 5b 5a bd
       -0.08294661 0.021713447 0.08125064 -0.053309567
000300 ae 56 17 bf 62 f3 33 bf c2 e0 b3 bc 33 47 59 be
       -0.5911664 -0.7029325 -0.021957759 -0.21218567
000310 aa b0 5d be 26 ba 73 bd c1 7b 50 be 82 12 d8 bd
       -0.21649423 -0.059503697 -0.20359708 -0.10550405
000320 f1 00 89 3d be a9 1c bf 7f b5 12 bd 87 f5 b9 be
       0.06689633 -0.61196506 -0.03581762 -0.36320135
000330 a9 25 d6 bd 17 93 b9 be a1 98 b0 bd 63 ce a1 bd
       -0.10456402 -0.36245033 -0.08622862 -0.07900693
000340 23 48 c9 bd 39 a3 4a be a4 c8 8d bd 2d 93 19 be
       -0.09828212 -0.19788827 -0.06923035 -0.1499755
000350 45 ee 6b be 86 58 14 bf 42 e8 e3 bd c0 13 dc bd
       -0.23040111 -0.57947576 -0.11128284 -0.107459545
000360 72 5d 4e be b4 e0 f0 be e6 94 96 be e0 4c 24 bf
       -0.20152834 -0.47046435 -0.29410475 -0.641798
000370 68 88 a1 bd b3 9d b5 be 3d 37 c1 be 27 cf 30 bf
       -0.078873456 -0.35471877 -0.37737456 -0.6906609
000380 6d 9d 76 bf ad c7 8f bf 27 6c a8 bd b2 4a de 3d
       -0.9633396 -1.1232811 -0.082237534 0.10854091
000390 d1 62 c3 3c 3c 47 ba bd 63 0b 86 3e c2 08 24 bd
       0.02385083 -0.09095618 0.26180562 -0.040047415
0003a0 61 81 fd bd c6 36 7d bf c0 28 84 be fc ca 71 bf
       -0.12378193 -0.989117 -0.2581234 -0.94450355
0003b0 c0 c4 f4 3d 23 58 24 be c5 7d 28 bd 17 aa 77 be
       0.119515896 -0.16049246 -0.04113557 -0.24185978
0003c0 ec 86 44 bc b4 48 d5 3d e1 29 e3 3d e5 b5 37 3e
       -0.0119950585 0.10414258 0.11091972 0.17940481
0003d0 28 6c f6 bd 2e 8d 9c bf e2 ff 50 be cd a3 9f 3d
       -0.12032348 -1.2230585 -0.20410112 0.077949144
0003e0 5f c1 ec 3c 9d be 6b bf 97 c3 b6 be dc 19 30 bf
       0.0289008 -0.9208773 -0.35696098 -0.6878946
0003f0 7a c6 93 3d 93 5e 7e bf 15 86 5c bf d3 5b 9a bf
       0.07215591 -0.9936306 -0.8614209 -1.2059273

first_h.3.bias f4 [32]
000000 30 c0 d2 3d a8 b3 7b be ae 7c 9b 3b c0 74 8a 3d
       0.10290563 -0.24580252 0.0047450876 0.067605495
000010 1a e5 15 3e 44 54 47 be 7c ae 52 3f 26 b0 9f be
       0.14638177 -0.19465739 0.8229749 -0.31189078
000020 27 b0 dd bd 74 3f b0 bd 4b cf 02 3e 25 80 61 be
       -0.10824614 -0.08605853 0.12774388 -0.2202154
000030 bc 98 9e 3d 57 c6 90 bc 8c 59 1b 3e cd 3c 9c bd
       0.077439755 -0.0176727 0.15170878 -0.07628784
000040 78 2a fa bd 7f 89 31 be aa 22 d2 bd 0a c3 8c be
       -0.122151315 -0.17337607 -0.10260518 -0.27492553
000050 38 b9 e0 3c 08 99 79 3d f7 e9 1e bd ee 7f 41 3e
       0.02743207 0.060936958 -0.038797345 0.18896458
000060 1b da d3 bd be bc 6d bc d9 1f 0d bf 34 01 84 bc
       -0.10344335 -0.014510332 -0.5512672 -0.016113855
000070 2d eb 5f be 99 4f 67 be a1 6d d6 3c b5 44 85 3e
       -0.21867056 -0.22588958 0.026175322 0.26028982

first_h.4.weight f4 [32]
000000 80 be 91 3a b7 a2 30 3f 8b e6 8b 3c 04 b6 89 3f
       0.0011119395 0.68998283 0.017077705 1.0758672
000010 48 95 2c 3f d6 f4 3c 3f 1b a0 81 3f bf db 63 3f
       0.67415285 0.7381109 1.0126985 0.8900718
000020 f2 1a df 3e d5 61 fe 3c 12 59 79 b8 b8 df 20 3f
       0.43575245 0.03105251 -5.944918e-05 0.6284137
000030 21 4d 22 3f 01 92 6b 3f 17 64 79 3c 4b e4 f7 3e
       0.6339894 0.9201966 0.015221617 0.4841636
000040 db 75 a0 3d 50 77 dd 3b ae 76 48 3b 9e f6 f2 3c
       0.07834979 0.006758608 0.0030588317 0.029658612
000050 7c 0b e1 3e d9 6c 13 3f 0d 65 fc 3e 13 1b 1c 3f
       0.43954074 0.57587963 0.49295846 0.6097881
000060 13 23 aa ba 22 41 bc 3e 07 9f 72 3f 23 f2 60 3f
       -0.0012980424 0.36768442 0.94773906 0.8786947
000070 32 2a b8 3d 5b 6b 81 3f 13 3b 83 bc dd 8a 1e 3e
       0.08992423 1.0110887 -0.01601938 0.1548266

first_h.4.bias f4 [32]
000000 e8 ce 87 be 04 ab 99 be 21 a0 fc be d5 ff 33 3e
       -0.26525044 -0.30013287 -0.4934092 0.17578061
000010 a4 62 22 be 18 fb 8b be bf fb af be 82 f6 40 be
       -0.15857941 -0.27340007 -0.34371755 -0.18844035
000020 31 eb 0e be 61 6e 16 3f d0 c0 ed bd bd a5 a4 be
       -0.13956906 0.58762175 -0.11609042 -0.32157698
000030 1a 92 6b be 24 cc fa be 58 b0 2e bf a1 5a 87 bc
       -0.23004952 -0.48983872 -0.6823783 -0.016522707
000040 e5 45 65 be f6 7a 9e be 76 7e 87 be 53 0c db be
       -0.22389944 -0.30953187 -0.2646367 -0.4278284
000050 c7 c9 9f be 92 6a 85 be 02 4e dc be 82 ff 8f 3c
       -0.3120863 -0.2605787 -0.43028265 0.01757789
000060 76 94 98 bd 3d c7 2c be f9 ad 48 be e1 6d d2 be
       -0.07450192 -0.16872878 -0.19597615 -0.41099456
000070 0a d3 c3 be 0d 67 16 3e c1 ff 88 bf 3e e4 fd be
       -0.38246948 0.14687748 -1.070305 -0.49588197

first_h.4.running_mean f4 [32]
000000 93 bb f8 3e 57 d3 13 be cc ee 98 3e 1e a8 45 3f
       0.48580608 -0.14436089 0.29869688 0.7720965
000010 ba 1e 91 bf b7 84 28 bf d7 ce c7 bf ba 57 69 c0
       -1.1337502 -0.65827507 -1.5609998 -3.6459794
000020 ee f4 1e 40 a8 20 10 40 7a d1 43 3e ff 9d 54 bf
       2.4836993 2.2519932 0.19122878 -0.8305358
000030 1d a6 5c be 01 80 3b bd 3c 63 8e 3e eb f7 41 3f
       -0.21547742 -0.04577637 0.27810085 0.7576892
000040 7a e8 e2 3f e1 25 9c 3e 4a 34 b0 bd 40 cb 6c be
       1.7727196 0.3049765 -0.08603723 -0.23124409
000050 f9 ec e8 bf 87 fd a0 bd 69 66 76 bf ee 35 91 3f
       -1.8197318 -0.078608565 -0.96250015 1.1344583
000060 e9 b7 ea 3e 52 dd 1a bf 47 a6 9a c0 a1 a4 33 bf
       0.45843437 -0.6049396 -4.8327975 -0.7017308
000070 d9 44 07 bf ad 19 4c be 67 3b 51 3f 80 a1 23 c0
       -0.5283943 -0.1993167 0.81731266 -2.5567322

first_h.4.running_var f4 [32]
000000 bb 89 92 3f 89 9e 01 3f f1 c6 a1 3e 7f 83 2e 3f
       1.1448282 0.5063253 0.31597093 0.681694
000010 2d e6 41 41 0d 78 2f 40 0e 75 35 40 5b 27 20 40
       12.118695 2.7417023 2.8352695 2.502402
000020 1e d8 44 41 5a 8e b7 3f 3b 21 88 3e 88 58 34 40
       12.302763 1.4340317 0.26587853 2.8179035
000030 03 24 de 40 e0 30 1c 40 4c 45 9f 3e 68 18 97 40
       6.941896 2.440483 0.31107557 4.7217293
000040 f6 6a 96 41 c1 0a d3 3e 05 32 0e 3f a6 c0 ac 3e
       18.802227 0.41219142 0.55545074 0.3374073
000050 a4 59 9f 40 af 6f 7d 3f 9d 16 25 40 39 34 3a 41
       4.9796925 0.9899854 2.5795052 11.63775
000060 f4 2c a5 3f 56 1c 19 40 95 43 c9 40 41 62 e9 40
       1.2904344 2.3923545 6.2894998 7.293244
000070 f6 45 0c 3e 9f f4 6e 41 4c 55 20 41 53 c8 38 41
       0.13698563 14.934722 10.020824 11.548907

nns.0.0.weight f4 [32, 32]
000000 42 d0 a7 3d dc 9a 28 bf ea d8 f6 3d 02 59 b6 be
       0.08194019 -0.65861297 0.12053092 -0.35614783
000010 2b b1 00 3e d6 0e a5 be 8e 45 1b bf a2 4f 27 bf
       0.12567584 -0.3223788 -0.6065301 -0.65355885
000020 d1 28 de be 03 b1 1b bf 52 3b bb 3d c2 a9 c2 bd
       -0.43390515 -0.60816973 0.09142174 -0.09505035
000030 59 18 cf be a5 be 38 be 63 45 b9 bd 60 47 fa 3e
       -0.40448263 -0.18041475 -0.090464376 0.4888258
000040 42 41 ba bd 89 36 6b 3e c9 4b 4c 3e ab 41 95 bd
       -0.09094478 0.22970022 0.19950785 -0.07287916
000050 74 18 e5 bc 68 98 1a bf 3f c5 77 be 24 15 84 3e
       -0.027965762 -0.60388803 -0.24196337 0.2579738
000060 8e 3b 2e 3e 05 05 5c be 8e eb a8 bf 20 ed 19 3e
       0.17014906 -0.2148629 -1.3196886 0.15031862
000070 28 18 4b 3c 22 28 af bf f1 6d 81 3e 52 8d 9c be
       0.012395896 -1.3684123 0.2527919 -0.3057657
000080 16 a2 0e be 8d ad 63 be 55 9c 20 be 3b ec d9 be
       -0.13929018 -0.22234173 -0.15684636 -0.42563042
000090 df 62 0c 3e 57 ca e0 3d 57 51 8a 3d db 80 09 3e
       0.13709591 0.10976093 0.067537956 0.1342806
0000a0 6a b2 10 bf 5e 4d 33 bf 5b 5a 4d be 29 4f 60 be
       -0.5652224 -0.7003993 -0.20053999 -0.21905197
0000b0 39 49 35 be 8d 5c df bc 07 89 88 be a0 ca 3b bf
       -0.17703713 -0.027265811 -0.26667044 -0.73356056
0000c0 ba 66 41 be fa d6 9c be d0 17 86 be 3c ba 87 be
       -0.18886843 -0.30632764 -0.26190042 -0.26509273
0000d0 5a 64 25 3b 91 f4 ee be 81 c6 09 3e 4b 60 00 bf
       0.0025236816 -0.46670964 0.1345463 -0.5014693
0000e0 33 18 43 bd 6e de 76 bd 91 d1 89 3e 79 c5 3b 3e
       -0.0476305 -0.06027072 0.269177 0.18337049
0000f0 f7 20 c7 bc 86 da 82 be a3 b7 1a bd 0e 8e c5 3e
       -0.024307711 -0.25557345 -0.037772786 0.38584942
000100 76 f6 0f be 37 77 00 be d5 2a 0c be da 5f 7d 3f
       -0.14058861 -0.12545477 -0.13688214 0.9897438
000110 6a 3d 76 be de a9 ef bb e1 cd d3 be a8 96 27 bf
       -0.24046865 -0.007313951 -0.4136801 -0.6546426
000120 7b d9 1b 3e a6 a9 6b 3e 49 f9 03 bd 26 ad 29 be
       0.15219681 0.23013934 -0.03222016 -0.16569957
000130 17 24 3f be 8a 84 92 bd a1 64 a6 be 42 ec 8f 3e
       -0.18666111 -0.07154186 -0.3249865 0.28109938
000140 ab 92 b1 be c9 d2 68 bd aa ad 3a be 76 79 41 be
       -0.3468221 -0.056841645 -0.1823031 -0.1889399
000150 d8 b9 d4 bb 90 6f 12 be 60 09 5a be 97 70 c9 3d
       -0.006491881 -0.1430037 -0.21292639 0.09835928
000160 5e d1 69 3d c2 43 38 be d3 98 e1 be b4 92 62 3d
       0.057084434 -0.17994598 -0.44061908 0.05531569
000170 d0 55 eb bd 51 85 d5 3e d2 24 3d 3a 70 59 30 be
       -0.11490977 0.41703275 0.00072152645 -0.17221618
000180 c6 35 fa b8 b5 d1 bf bd a8 ac 01 be 8c ee 82 be
       -0.00011930945 -0.0936617 -0.1266352 -0.25572622
000190 a0 d6 99 3d 0f f2 89 bd 2e 31 cb be 50 32 5e be
       0.075116396 -0.06735622 -0.3968596 -0.2169888
0001a0 7e 6c c8 be 58 3e 11 bf 6b d2 17 be 38 ac 1c bd
       -0.39145273 -0.56735754 -0.14826362 -0.038250178
0001b0 6d ac d9 be 4a 75 0d be 82 a4 96 bd 7f 8b f0 3d
       -0.42514363 -0.13814273 -0.07355596 0.11745357
0001c0 35 79 02 bc 62 3b 56 3b df 5c 24 be a3 f2 10 bd
       -0.007963468 0.0032689204 -0.16051053 -0.035387646
0001d0 56 ad 4a bd 27 b6 cb bd 5e 72 15 3d d4 b7 fe 3d
       -0.049481712 -0.09946852 0.036486022 0.12437406
0001e0 8d 2a 1d 3d 14 38 57 be d9 e2 4e bf c0 6d 41 bd
       0.038370658 -0.21017486 -0.8081489 -0.047223806
0001f0 7c c2 1f 3e 15 23 e5 be 1a b3 f8 bd 49 d7 ff 3c
       0.15601534 -0.44753328 -0.12143536 0.031230586
000200 43 b7 9a 3c 4d 67 09 bf fa 50 8f 3d ce c6 38 bf
       0.018886214 -0.5367325 0.06997867 -0.7217835
000210 af fe 5f bd a7 28 98 be 3d 09 b4 be 86 e9 78 bf
       -0.054686245 -0.29718515 -0.35163298 -0.9723133
000220 3d e4 26 bf 94 ce e0 be 77 9e 22 3d 18 58 71 3c
       -0.65192014 -0.43907607 0.039701905 0.014730476
000230 91 dd db be f5 c9 fc 3d cb 7f c1 3d 6c 91 05 3f
       -0.4294248 0.12343208 0.09448203 0.5217502
000240 60 c9 65 be 5c 96 39 bc 09 c4 0a 3e 55 e1 d2 bd
       -0.224401 -0.011327352 0.13551344 -0.10296885
000250 db 6f 11 be 53 b4 26 bf 58 e5 7a be 45 4d a7 3e
       -0.14202826 -0.651189 -0.2450155 0.3267614
000260 53 67 89 3d 28 99 8e bc 3d c8 8f bf ba 44 7e 3d
       0.06709161 -0.017407015 -1.1232983 0.06207726
000270 c4 98 e5 bd 08 d1 e1 bf 80 17 eb 3c 06 12 0c bd
       -0.11210778 -1.7641916 0.02869773 -0.034196876
000280 2a 08 11 be 8e 72 1d be 2a b5 cd 3c 5d 93 6b bf
       -0.1416327 -0.1537573 0.0251108 -0.92021734
000290 19 91 25 3f 24 0e d5 3d e9 29 a3 3f a3 5e 29 3f
       0.64674526 0.10403088 1.2747165 0.6616003
0002a0 0d 08 45 be 13 02 15 3e 06 a6 31 3e 7c ca 03 be
       -0.19241352 0.14551573 0.17348489 -0.1287021
0002b0 25 64 4e 3d 70 26 97 3c 9d 99 ff bb 56 fa 83 3e
       0.050388474 0.018450946 -0.0078002946 0.2577693
0002c0 8c 39 ca be 78 70 95 bd 07 5e 57 bc 5d 2d 39 be
       -0.3949703 -0.07296842 -0.013144976 -0.18083711
0002d0 11 9d 81 3d 96 a9 94 be 7e bd c2 bd 1c 8e 23 3e
       0.06328786 -0.29035634 -0.09508799 0.15972179
0002e0 b4 df aa 3b ee c6 a5 3d cb f6 1e 3f 91 86 3a 3d
       0.005214656 0.080945835 0.62095326 0.04553849
0002f0 04 ec 0e 3e b6 ab 0f be 31 73 5e bd 9c 24 1b 3f
       0.1395722 -0.14030346 -0.054309074 0.60602736
000300 fe bf 20 be 4e e5 00 bf 43 cc 76 bd 20 03 cc be
       -0.15698239 -0.5034989 -0.060253393 -0.39846134
000310 10 39 0d be 51 75 70 bc 78 5b 5a be 62 57 ba be
       -0.13791299 -0.014676408 -0.21323955 -0.36394793
000320 65 ac b7 be f1 1d 40 bf 67 ae 87 ba f9 4d 64 3c
       -0.35873714 -0.75045687 -0.0010351659 0.013934606
000330 5d fe d6 be 1d 25 00 be ec 52 5b be 43 93 a9 bd
       -0.4199094 -0.12514158 -0.21418351 -0.08280041
000340 01 1f 77 be 48 4f 1e be b7 f5 0e bb fa b2 f8 bd
       -0.24132921 -0.15459931 -0.0021813938 -0.12143512
000350 9b 4c 6f be a7 79 f2 be 39 ac 04 3a 26 d9 30 3e
       -0.23369066 -0.47358438 0.00050610636 0.17270336
000360 8d 52 2b 3c 4e c7 5f be 19 4e 3c bf 82 73 96 3d
       0.010456693 -0.21853372 -0.7355667 0.0734625
000370 cb 4e 44 be 4a bc bf bf ec ab 37 3d d8 78 27 be
       -0.19170682 -1.4979336 0.04484169 -0.16354692
000380 6f 4c dc 3c 2a 9a b9 be 62 01 0a 3e 3c cb ee be
       0.026891915 -0.3625043 0.1347709 -0.4663943
000390 b8 44 1a bd af 1a 29 bd df e3 e0 bd 6a 9f 51 bc
       -0.03766319 -0.041285213 -0.10980963 -0.012794355
0003a0 38 be bc be b5 48 da be 2a ff e4 bd 5b 1c 86 be
       -0.36863875 -0.42633596 -0.11181481 -0.26193509
0003b0 91 e7 de be 52 ea 78 3e 53 f9 84 bd 0d 29 cf 3c
       -0.43536046 0.24308136 -0.06492867 0.02528813
0003c0 51 4c 8c be 15 37 a9 3d 5a d0 ac 3c b6 3a f6 3d
       -0.27401975 0.08262459 0.021095444 0.12022917
0003d0 e4 c1 a2 3d 9f 6e 21 be 23 d3 46 3d 9b 2b 1f be
       0.07947138 -0.15764855 0.0485412 -0.15543978
0003e0 d3 b0 14 3e 27 30 b2 bd 05 e0 0e bd 30 a3 47 bd
       0.14520578 -0.087005906 -0.03488161 -0.048739612
0003f0 57 ec 72 3d 58 69 21 bf 5b 39 8d 3d f6 5f af bb
       0.059307422 -0.63051367 0.06895705 -0.0053520156

nns.0.0.bias f4 [32]
000000 cf f2 86 be b0 9c 25 3d 74 21 b2 3c 18 2a 92 be
       -0.26357123 0.040432632 0.021744467 -0.2854774
000010 b8 e2 a8 3d cf 1d 80 bd 22 25 65 bf c9 6d c8 3c
       0.08246368 -0.062556855 -0.89509785 0.024466412
000020 39 02 07 3e cd 0a 4d 3f 61 39 b4 3e e1 2d 8b be
       0.13184442 0.80094606 0.35200027 -0.2718344
000030 a7 d9 41 be 80 2d ec be 9e a1 37 3e 29 be d0 be
       -0.18930684 -0.46128464 0.17932746 -0.4077008
000040 f6 4e 4f 3e a6 81 ea bd 51 ba 58 3e d3 70 e2 3d
       0.20244965 -0.1145051 0.21164824 0.11056676
000050 01 41 47 be ab 44 5c be 21 27 23 bf d0 eb 05 be
       -0.19458391 -0.2151057 -0.6373158 -0.13078237
000060 89 e6 0e 3e bc 7f 3f 3d d4 93 5c be ec 68 11 3e
       0.1395513 0.046752676 -0.21540767 0.14200181
000070 c7 55 e7 bd 7b d6 85 bb 52 cc 24 3e 8f 4b 06 be
       -0.112956576 -0.004084406 0.16093567 -0.13114761

nns.0.1.weight f4 [32]
000000 c3 8e 10 40 1c d6 55 3f bd b1 28 3f ea 71 40 3f
       2.2587135 0.8352983 0.6589621 0.7517382
000010 51 72 17 40 4a 78 2c 3f c0 0b 29 40 6a 45 64 3f
       2.3663523 0.67371047 2.6413422 0.8916842
000020 de 03 63 3f 84 34 26 40 3e 17 97 3f 6a 49 8d 3f
       0.88677776 2.5969553 1.1803968 1.1038029
000030 e0 3f 0d 3f 9d 82 07 40 6d 8f 94 3f 79 a7 20 40
       0.5517559 2.117347 1.160627 2.5102217
000040 59 c7 8f 3f 00 32 33 3f f5 e1 79 3f 3b 2f 87 3f
       1.1232711 0.6999817 0.9761041 1.0561289
000050 7f 10 f4 3f 5f ba f5 3e 89 4a c8 3f c5 62 7d 3f
       1.9067534 0.47993752 1.5647746 0.98978835
000060 14 2b 77 3f 25 29 c4 3f bc 90 a0 3f 54 e5 7b 3f
       0.96550107 1.5325056 1.254417 0.983968
000070 63 e7 ae 3f a1 e6 23 3f eb 5d 30 3f a8 c0 09 3f
       1.3664364 0.64023787 0.6889331 0.53809595

nns.0.1.bias f4 [32]
000000 2e 7c 9c 3e 16 16 3e bf 91 48 fe 3e 9f e0 fd be
       0.30563492 -0.7425245 0.4966474 -0.49585435
000010 77 54 f6 3e c4 bc de be 19 eb c2 3e 9b df 1c 3f
       0.48111317 -0.43503392 0.3806999 0.61278695
000020 2a 6e a4 be 13 60 1f 3f b6 24 1d 3f 2e d5 76 bf
       -0.32115299 0.6225597 0.6138414 -0.96419036
000030 bb 15 e1 bc 78 f3 7a 3d cb 4c 6a bf ac ae a3 3e
       -0.027476182 0.061267346 -0.91523427 0.31969202
000040 f1 5b b2 3e 76 08 13 bf 83 40 cc be 17 ac e6 bd
       0.3483577 -0.57434785 -0.3989297 -0.11263292
000050 d4 e8 b7 3e 1d 93 e5 be 14 39 32 3e a6 a5 41 bd
       0.3591982 -0.448388 0.17404586 -0.047277115
000060 9e 88 c6 be 3f 54 2f bf e9 d9 9f be 9d 3d 82 be
       -0.38776106 -0.68487924 -0.3122094 -0.25437632
000070 c7 ea 21 3f f2 18 13 bf 74 34 67 be 21 e3 0b bf
       0.63248867 -0.5745994 -0.22578603 -0.54643446

nns.0.1.running_mean f4 [32]
000000 a5 ae 46 c0 94 5e c6 bf 55 06 36 3f 1b f3 f9 bf
       -3.1044095 -1.5497613 0.7110341 -1.9527315
000010 1d ea 4f c0 fd d1 06 3f 76 19 76 c0 7f f7 bd bf
       -3.2486641 0.52664167 -3.845304 -1.4841155
000020 10 a6 89 bd fa 4c 30 c0 35 c4 64 bf cd 6d bc bf
       -0.06721127 -2.7546983 -0.8936189 -1.4721009
000030 82 5c e7 3e c1 04 f8 bf 63 5a 51 3f 85 0b a9 c0
       0.45187765 -1.9376451 0.81778544 -5.282656
000040 c1 10 73 bf e8 c4 93 bf 29 d4 bd 3f 62 c0 22 3f
       -0.9494744 -1.1544466 1.4830371 0.635748
000050 19 c1 18 c0 07 9d 8c bf 1c b4 1e 3f c3 73 3c 3f
       -2.3867857 -1.0985421 0.61993575 0.7361414
000060 fa a7 6c bf c2 14 ae 3f 29 3a a7 3f b4 6e e3 3e
       -0.9244381 1.3600085 1.3064624 0.44420397
000070 fa fd c8 3f 17 4d e8 be f7 4e 67 3f e0 40 e0 3e
       1.5702507 -0.45371315 0.90354866 0.43799496

nns.0.1.running_var f4 [32]
000000 99 a5 cd 42 7b db 7d 42 3d 5b 03 42 9e 77 12 42
       102.82343 63.464336 32.8391 36.616814
000010 aa ef 1d 43 0e 5a f4 41 de 7e d3 42 76 57 15 42
       157.93619 30.543972 105.74779 37.33541
000020 e8 fb 1d 40 26 6d 36 43 b6 2e d4 41 22 1e 2b 42
       2.4685001 182.42636 26.522808 42.779427
000030 7d 1e 8b 41 74 1d cb 41 7c 8d e7 41 60 eb a7 43
       17.389887 25.389381 28.944084 335.83887
000040 75 eb 70 41 96 ef 96 41 ba 79 4c 42 87 53 85 41
       15.057485 18.866985 51.118874 16.665785
000050 16 24 69 42 39 fa a7 41 23 74 ae 41 51 e3 2c 41
       58.28524 20.997179 21.806707 10.805497
000060 2d 15 79 41 73 37 ab 42 1b 18 d0 41 c2 60 3a 40
       15.56767 85.6083 26.01177 2.9121556
000070 f2 a8 3b 42 05 ff 08 40 b4 7b 63 41 88 b4 3b 41
       46.914986 2.1405652 14.217701 11.731575

nns.0.3.weight f4 [32, 32]
000000 dc ce 95 bd 7c 9b 23 bd 7f ca 57 3e ad d1 f0 bd
       -0.07314846 -0.039943203 0.2107334 -0.117587425
000010 77 19 64 3e 28 cb b5 3d a0 89 8e bc 01 15 90 3d
       0.22275339 0.088766396 -0.01739961 0.07035256
000020 2f de 66 3d 18 97 84 bd 66 ed 20 3e 2a b8 2b 3d
       0.056364235 -0.06474131 0.1571556 0.04192368
000030 93 07 99 3e f1 14 28 3e 74 3d e0 3d 5d 4a eb 3d
       0.2988859 0.16414239 0.10949221 0.11488793
000040 60 b5 75 3e 8b a5 04 3f 7b 56 61 3e 5d 86 69 bd
       0.2399497 0.518151 0.22005646 -0.057012904
000050 89 20 ef bc 71 2e 8a 3e 53 c8 0f 3e 7e 73 36 3e
       -0.029190319 0.26988557 0.14041261 0.17817494
000060 d3 9e b2 bd 0e 86 3c 3e 04 46 d2 3e 0e 13 6c 3e
       -0.087216996 0.18410513 0.41069043 0.23054144
000070 eb 76 06 3e 1d ee 22 3e b0 00 3f 3e 2d 1a e2 3e
       0.13131301 0.15911146 0.18652606 0.44160596
000080 a2 0c fa be 21 f2 39 be 84 93 67 bf e7 46 45 bb
       -0.48837763 -0.18158771 -0.90459466 -0.0030102076
000090 cc 9d ab be 1f 21 f5 3c c0 05 2a 3e d4 2f b3 3e
       -0.33518827 0.02992302 0.16603756 0.34997427
0000a0 13 15 11 be 98 c2 fd 3d 27 5f 23 bf e4 e4 20 3d
       -0.14168195 0.123906314 -0.63817066 0.039280787
0000b0 f5 c2 da be ac 89 e9 bd 9a 0c 0c be 0f 3c f2 bd
       -0.42726865 -0.11403212 -0.13676682 -0.118278615
0000c0 f4 f2 a4 3c cd 3b fb bd 41 19 02 be c8 ab 69 bd
       0.02013538 -0.122672655 -0.12704946 -0.05704859
0000d0 d6 18 f3 3e ac bf f8 be 55 09 dc be 74 80 74 be
       0.47479886 -0.48583734 -0.4297587 -0.23877126
0000e0 aa 9a 15 3c a3 2b 84 bd eb 50 ab be fa e4 4a be
       0.009131113 -0.064536355 -0.33460173 -0.1981391
0000f0 29 17 f2 be c0 75 bd be 30 f4 23 bf b6 3a b8 be
       -0.47283295 -0.370039 -0.64044476 -0.35982293
000100 2a ea b3 3d f8 55 fe 3d 37 6d b0 be 10 a9 88 3d
       0.087848976 0.12418741 -0.34458324 0.06672871
000110 77 58 32 3e 1b 6a 94 3f 40 9c ba 3e 8f 2a 3b bc
       0.17416559 1.1594881 0.36447334 -0.011423721
000120 9f c6 9c bd 28 b1 cf 3e 50 73 cf 3c 91 77 13 3e
       -0.076550715 0.40564847 0.02532354 0.1440108
000130 55 c4 1b 3e c0 93 ad bd 9a 70 51 3f f5 a9 8b bd
       0.15211613 -0.08475447 0.8181244 -0.06819526
000140 4b 54 41 3e 0d 7f 20 3e df e8 9c 3e 88 f9 45 3f
       0.18879811 0.15673466 0.30646417 0.7733388
000150 f8 de 47 be 0e 7b 50 3e 3f 12 87 be 10 cb c2 bc
       -0.1951865 0.20359442 -0.26381108 -0.023778468
000160 b1 c5 c1 3d 4e b6 29 3f f5 d7 87 be 44 81 56 be
       0.09461535 0.662938 -0.2653195 -0.20947748
000170 f6 9c 39 bd 88 4d c4 3d e1 10 8f 3e 4c 75 69 be
       -0.045315705 0.095851004 0.27942565 -0.22798651
000180 79 59 09 3f 53 b1 e6 bb eb 9e f0 3e e6 da 76 3b
       0.5365215 -0.0070401817 0.46996245 0.0037667095
000190 64 76 93 3f a5 ba 96 be 02 ef e1 3e f0 c8 e1 3e
       1.1520505 -0.29439273 0.4412766 0.44098616
0001a0 55 85 74 be 6f 3c 86 3f 5c 93 71 3f c7 ac 22 3f
       -0.23878987 1.0487193 0.9436548 0.6354489
0001b0 14 fa b1 3a 01 f4 a4 3e 3f 66 8a be 69 80 94 3f
       0.0013578557 0.3221741 -0.27031133 1.1601688
0001c0 31 5b d2 3e 99 07 5d be fa ee 91 be ae 81 dc be
       0.410852 -0.2158493 -0.28502637 -0.43067688
0001d0 f7 e3 67 3f 83 3e 69 be 58 ef 34 bf 6a e0 01 bf
       0.9058222 -0.22777753 -0.7067771 -0.50733054
0001e0 a4 fa 01 bc 62 a2 cd be 09 15 f8 be 97 d6 da be
       -0.007933293 -0.4016295 -0.4845355 -0.42741844
0001f0 f1 10 0e bf bc 65 6a be 96 20 d8 be 52 dd af be
       -0.554946 -0.22890371 -0.4221236 -0.34348541
000200 7b 8c 43 3d 84 e3 35 be c6 26 04 3e 1b 4b 23 3e
       0.047741394 -0.17762572 0.12905416 0.15946619
000210 9c ca b6 bc 05 4e ae bd 7a 73 c2 bd c1 52 dd 3d
       -0.022313409 -0.08510975 -0.09494682 0.108068
000220 52 be cc 3c 4a c8 15 3d 5a 25 80 3e 3f 21 7e 3c
       0.024993096 0.036567964 0.25028497 0.015510856
000230 4f 2b 23 3d 7a b8 1d bd 48 77 9f bd 29 10 87 bc
       0.039836224 -0.03850601 -0.07786423 -0.016487198
000240 0a c3 8c 3d 2e 08 8c bd 52 92 9d bd 76 33 41 be
       0.06873138 -0.06837498 -0.07693924 -0.18867287
000250 57 0e cf bd c7 fb af bd 90 f0 6e be 61 e3 72 be
       -0.10110157 -0.085929446 -0.23333955 -0.2371955
000260 4f 8a 6c be 0e d2 15 3d a2 b3 c5 bc 0b eb 00 3d
       -0.23099636 0.036577277 -0.024133507 0.031474154
000270 d7 04 4f be f5 b4 11 be 64 cb 77 3d 9b 2e 10 bd
       -0.2021669 -0.14229186 0.060496703 -0.035200696
000280 90 9c b4 be 5b a4 81 bd 71 42 9d bd 75 8d 11 3e
       -0.35275698 -0.063301764 -0.07678688 0.14214118
000290 41 04 48 3f 09 09 a4 3d 5f c0 d9 3e a1 1d 87 3e
       0.7813149 0.08009536 0.4252958 0.26389793
0002a0 fa f3 e4 3d 19 eb bf 3e 6f 48 f5 bd 56 f6 27 be
       0.11179347 0.37484053 -0.11976706 -0.16402563
0002b0 9e c6 da 3c 2c 96 0e 3f 38 4e 0c be 18 af 3c 3f
       0.026706036 0.55697894 -0.13701713 0.7370467
0002c0 fa 97 a5 3e 71 da a6 bd a7 35 9f bd 4e 7f 91 3d
       0.3234251 -0.08147133 -0.07773905 0.071043596
0002d0 c0 62 d9 3e 9d 36 71 be 85 e3 cf bb fa c9 69 be
       0.42458153 -0.2355599 -0.006344261 -0.22830954
0002e0 a1 d5 1f bd ed da d5 bd 88 4b ea 3d 60 9f f3 3d
       -0.03902209 -0.104421474 0.11440188 0.11895633
0002f0 09 1e 66 be 33 6e 7a 3e 19 83 60 be d4 4f d9 3d
       -0.22472395 0.244561 -0.2192501 0.10610929
000300 47 e8 80 bc 13 9e 69 be a4 c0 e1 be 16 2a f9 bc
       -0.015735758 -0.22814207 -0.44092286 -0.030415576
000310 cc b7 a7 be 7b 61 26 3d eb bc bb 3d 52 e0 4b 3e
       -0.32757413 0.04062031 0.091668926 0.1990979
000320 8b 45 3f be a4 55 04 3d 28 49 6f bc 9a 7d 96 3d
       -0.18678872 0.032308236 -0.014604844 0.07348175
000330 26 54 d6 be 51 35 be bd ac cc 54 be 27 db 65 3c
       -0.41861075 -0.09287513 -0.20781201 0.014029301
000340 35 13 34 3e 47 23 d6 be c1 f7 5f be 46 81 e5 be
       0.17585452 -0.4182379 -0.21871854 -0.4482519
000350 c8 40 e1 3d 01 50 a5 be 70 7a 71 be bf 81 6b 3d
       0.10998684 -0.322876 -0.23581862 0.057496782
000360 fa 05 3a bd 80 7e 97 be d4 96 30 be a0 1f 68 be
       -0.045415856 -0.295887 -0.17245036 -0.22668314
000370 9c 17 89 be 3d 09 e9 bd 03 25 a5 bd 5e c0 61 be
       -0.26775825 -0.11378715 -0.080637 -0.22046039
000380 14 4d 15 3e 70 e2 56 3e 05 7c 2e 3e 6b 29 b5 3d
       0.14580184 0.20984817 0.17039497 0.088457905
000390 14 9d 44 3d 48 e6 b1 3e 35 7c d2 bc 3f 63 46 3e
       0.048001364 0.34746003 -0.025693992 0.19373797
0003a0 d7 c8 9f bd 24 94 7e 3d 4c 92 7a 3d e0 74 83 3d
       -0.07801979 0.062152997 0.061174676 0.064187765
0003b0 fc 29 6a be 73 1b 10 3e 3b 94 19 3f 19 54 e4 3d
       -0.22867578 0.14072971 0.59991807 0.11148853
0003c0 cc ea ce 3d c3 88 9a 3e 1f 1c f0 3e 26 cf c1 3d
       0.10103378 0.30182466 0.46896455 0.094633386
0003d0 4a 63 86 3e 76 78 8d 39 24 f0 16 be 4e 86 44 bc
       0.26247627 0.00026983366 -0.14740044 -0.011994911
0003e0 bd bf d7 bc 55 26 38 3f 7d eb e4 3d 95 03 cd 3e
       -0.026336545 0.7193349 0.11177728 0.40041795
0003f0 03 bd dd bb b1 6d 99 bd a7 e1 ad 3e f5 07 71 3d
       -0.0067669167 -0.07491625 0.33961222 0.05884548

nns.0.3.bias f4 [32]
000000 f8 ae 0b 3d 70 07 8c 3e d5 e7 ca bd 2a 2d e9 3d
       0.03410241 0.27349424 -0.099075 0.113855675
000010 85 f3 3d 3c 70 fe cd be d6 51 97 3e 6d 91 20 bd
       0.011593704 -0.40233183 0.29554623 -0.03920119
000020 b5 33 97 3f 57 22 29 3d cc 76 df 3d cc b7 90 be
       1.1812655 0.041292515 0.109113306 -0.28265226
000030 13 04 d3 3d 8e bb 1c be 33 4f 15 bd de 4e fa bd
       0.103035115 -0.15305921 -0.036452483 -0.12222074
000040 40 ea a0 3e 3a d6 cf bc 28 15 08 bc 28 b1 a8 3e
       0.3142872 -0.025370706 -0.008305825 0.3294766
000050 73 65 b1 3d 76 9d 8c 3e a4 51 a4 bd 8d e7 10 be
       0.08661928 0.27463883 -0.08023384 -0.1415083
000060 6e 58 c8 3d 9c cf 13 3e 02 24 ca 3d e9 e6 30 be
       0.097824916 0.14434665 0.09870149 -0.17275585
000070 6d b0 7a bc b7 bf e5 be 93 b0 49 3e 63 23 b9 be
       -0.015300852 -0.4487283 0.19696264 -0.3615981

nns.0.4.weight f4 [32]
000000 c2 47 39 3e f9 3a 45 3f 62 c4 17 3f 34 23 c4 3e
       0.1809378 0.7704311 0.5928403 0.38308108
000010 c7 e5 31 3f 22 d5 27 3f 77 d4 10 3f 38 7d c6 3e
       0.6949124 0.6555959 0.56574196 0.3876741
000020 90 37 ea 3f 40 86 0f 3f 2f 68 41 3e d3 67 3f 3f
       1.8298206 0.56064224 0.18887399 0.747678
000030 10 b1 26 3f 9c ed 18 3f 06 c5 88 3e 7f fe 16 3f
       0.65113926 0.59737563 0.26712817 0.5898208
000040 ba 71 11 3f dc fe 50 3f 12 ea 03 3f a9 8a 08 3f
       0.5681416 0.81638885 0.5152904 0.5333658
000050 51 38 51 3f 24 77 37 3f 6a a4 4a 3f d1 4a 25 3e
       0.81726557 0.7166617 0.79157126 0.16141821
000060 40 7d 37 3f f6 af d1 3e 96 34 1a 3f f7 e2 ce 3e
       0.7167549 0.4095456 0.6023649 0.40407535
000070 cb be 41 3f 5b 39 23 3f f6 bf 20 3f 1f 0f 7e 3f
       0.7568175 0.6375939 0.6279291 0.9924182

nns.0.4.bias f4 [32]
000000 b2 52 03 bf 1d 13 5b be 96 2d 8e bf a7 22 f1 be
       -0.5129806 -0.2139401 -1.1107662 -0.4709675
000010 20 c9 ae be 05 ce 06 bf e2 c3 87 be 3f 54 30 bf
       -0.3413782 -0.5265811 -0.26516634 -0.6887855
000020 d9 6d 09 3d 43 00 f8 be ee 7b 83 bf 84 16 9b be
       0.033552025 -0.484377 -1.0272195 -0.30290616
000030 6a bf 08 bf 1e 46 01 bf af d3 4e be 13 63 cd be
       -0.53417075 -0.50497615 -0.20197938 -0.4011465
000040 5f 38 99 be 2e 1a d1 be 1f cd d2 be 01 a5 68 bf
       -0.2992582 -0.40840286 -0.4117212 -0.90876776
000050 d2 cf 75 be db 2f 33 bf 38 24 ed be 62 71 9b bf
       -0.24005058 -0.69994897 -0.46316695 -1.2143977
000060 67 88 89 be 24 4c 16 bf dc f1 86 be ae 60 90 be
       -0.2686188 -0.5870993 -0.263564 -0.2819876
000070 02 72 93 be 65 c4 84 bd c5 f8 ee bd fa 04 b4 bd
       -0.2879792 -0.06482772 -0.11668543 -0.08790012

nns.0.4.running_mean f4 [32]
000000 e3 bf 84 3f 30 11 a9 bf 65 f3 4f 3f a1 c6 a0 40
       1.0371059 -1.320837 0.81230766 5.0242467
000010 b5 d5 24 bd ba 04 fa 3f 0e 2a b0 be 0a 28 90 3f
       -0.04024287 1.9532692 -0.34407085 1.1262219
000020 2b 6e 33 41 b1 94 ff 3f f8 e0 3f 3c b7 b5 ea 3f
       11.214396 1.9967252 0.011711352 1.8336705
000030 f8 8b 0b 40 bd b0 d8 3f 62 92 d0 be b1 e5 41 bd
       2.180418 1.6928936 -0.4073668 -0.04733819
000040 c9 03 21 3f d5 e5 11 bf 15 14 0f 40 6f f5 17 40
       0.628964 -0.5699132 2.2356007 2.374355
000050 ce d1 e2 bf 14 36 e1 be ca b3 56 3e a4 e7 b2 3f
       -1.7720277 -0.4398657 0.20967022 1.3976941
000060 d8 dc 99 bd 2a 7a 06 40 13 82 b5 be c9 24 87 3f
       -0.07512826 2.1012063 -0.354508 1.0558101
000070 ff 99 6d be 9d 02 e0 40 08 a0 50 40 4a 4b 90 c0
       -0.23203276 7.000319 3.2597675 -4.5091906

nns.0.4.running_var f4 [32]
000000 b9 5d 72 40 8d 4d 18 41 be d1 2b 41 4b 57 08 42
       3.7869704 9.518933 10.738707 34.085247
000010 6b eb 5e 3f 9a a0 1f 40 c6 46 af 40 a4 0b ea 40
       0.8707797 2.4941773 5.4773893 7.313921
000020 34 ba 02 42 69 8b 12 40 c4 dd e9 3f e3 c0 d8 40
       32.68184 2.289759 1.8270802 6.7735457
000030 63 09 55 40 23 b4 49 40 56 8c a2 3e 6a 27 d9 3f
       3.328698 3.1516197 0.31747693 1.6965153
000040 bc 33 55 40 9b 74 0f 40 e5 b3 52 41 81 10 8b 41
       3.3312826 2.241492 13.16892 17.383059
000050 89 77 c7 40 16 59 37 41 1c 22 c6 3e da 26 76 41
       6.2333417 11.4592495 0.38697898 15.384485
000060 7a c6 2c 40 ae 06 89 40 7c 01 55 40 1a 26 5a 40
       2.699614 4.2820654 3.3282156 3.4085755
000070 ba 62 85 3f 34 77 bf 41 f6 1f a7 41 82 b1 90 41
       1.0420754 23.933205 20.890606 18.086674

nns.1.0.weight f4 [32, 32]
000000 34 8d 00 bd 26 99 78 3e a2 7d 25 be c7 30 47 3f
       -0.03138466 0.24277171 -0.16161206 0.77808803
000010 6b a7 9f bc 0c fe 50 be 11 3e 0e be cb d5 42 be
       -0.01948901 -0.20409411 -0.13890864 -0.19026868
000020 f6 67 f1 3f e2 5a 3b 3e 31 bf 24 3d 18 1b 68 3e
       1.8859851 0.18296388 0.040221397 0.22666585
000030 94 4f fe bd 85 46 d1 bd ec 09 cb bd c5 c7 28 3e
       -0.12417522 -0.10218529 -0.09914002 0.16482456
000040 e7 04 f5 bd 88 75 b6 3d df c6 93 3c 89 54 86 be
       -0.11963826 0.08909136 0.018039165 -0.2623637
000050 4b a9 07 be c8 ab a9 bc c4 64 03 be 59 da 0d 3d
       -0.13248174 -0.020711794 -0.12831408 0.03463206
000060 85 c3 ea bd a6 b0 b8 bd 1a 24 03 be 59 06 f7 3c
       -0.11463074 -0.09018068 -0.1280674 0.030154394
000070 32 15 bf bc c4 59 4e 3f a7 01 79 be 8f 3c a3 3e
       -0.023325536 0.8060572 -0.24317037 0.3188214
000080 c4 bf 48 3e dc cc d3 3e 56 fd ae 3c 02 0a ca 3f
       0.19604403 0.41367233 0.021361034 1.5784304
000090 2a c6 f9 bd 94 f6 2f 3e f8 6a d0 be ff a6 52 be
       -0.12196 0.17183906 -0.4070661 -0.20571516
0000a0 bf 3f 28 40 72 a9 03 be 1c fe 85 be ac 21 dd 3f
       2.6288908 -0.12857607 -0.26170433 1.7275901
0000b0 88 e3 39 be 9f f0 64 bd c2 b9 ef bd 1d d3 89 3d
       -0.18153203 -0.055893537 -0.11705352 0.0672972
0000c0 1d b9 9a 3e 81 b3 b3 3e 8c c6 13 3e d1 ec 4f 3e
       0.30219355 0.35097888 0.14431208 0.20305182
0000d0 2b f6 5f be 36 24 10 3e af e0 62 3f 43 d1 bd 3d
       -0.2187125 0.14076313 0.8862409 0.09268429
0000e0 10 2d b5 bc e3 c0 85 be 67 28 da be 3f 9f bf 3d
       -0.022116214 -0.26123723 -0.4260895 0.09356546
0000f0 e8 82 70 be b8 56 d9 3f 0a 7c 49 be 84 c4 19 3f
       -0.23487437 1.697959 -0.19676223 0.60065484
000100 25 96 d3 bd 97 96 d4 3e 1a 77 2f be dd 18 2c 3f
       -0.10331372 0.4152114 -0.17135277 0.6722544
000110 20 66 65 bd eb 26 7a be 35 77 92 3e 85 1b 9a be
       -0.056005597 -0.24428909 0.28606573 -0.3009912
000120 c3 91 c2 3f 6d 5b ee bd af 37 87 3e ba d6 a2 3f
       1.5200733 -0.11638532 0.2640967 1.2721779
000130 e1 52 d2 bd f0 8f da 3c 8c e3 2b 3d ed 88 45 3e
       -0.10269714 0.026679963 0.041965052 0.19290514
000140 a1 ef 09 3e 7d 2c 80 3b b8 21 b5 be 5e 25 08 bf
       0.13470317 0.0039115534 -0.35377288 -0.5318202
000150 74 b5 27 3f 56 34 fb bd 2c 62 8d bd 65 5d 57 bd
       0.6551125 -0.12265842 -0.069034904 -0.052579302
000160 03 2e 28 3e db 4c 21 bd 2c b6 d5 3b c3 f9 be be
       0.16423802 -0.039379936 0.0065219607 -0.37299928
000170 22 f9 11 3e 7c 01 99 3f 05 38 86 be 92 5c 4a 3e
       0.14255193 1.1953578 -0.26214615 0.19761875
000180 64 c5 90 bd 5f 2a a0 3e 84 64 db bd 63 ff 85 3e
       -0.07068899 0.31282327 -0.10712531 0.26171407
000190 3e 68 03 be 79 cb e0 bd 4d 17 91 3e aa 73 76 bd
       -0.12832734 -0.10976309 0.2833809 -0.0601689
0001a0 14 97 d5 3f 9e 22 94 3d e3 60 37 be 1f 10 8e 3e
       1.668673 0.07233165 -0.17908053 0.27746674
0001b0 45 e6 0f be ee b1 ea 3d 4a e6 24 be 0f 59 f4 3d
       -0.14052685 0.11459719 -0.16103473 0.11931049
0001c0 74 34 17 3e 0e ca 80 3e c4 4a 9a bd 36 f9 86 be
       0.14766103 0.25154155 -0.07533792 -0.26362008
0001d0 12 05 1a 3f eb 78 a1 be da ee 83 3c cc 88 71 bd
       0.60163987 -0.31537566 0.016105104 -0.05896835
0001e0 c4 6c 2f bd 68 3a 12 3d d7 1d 63 bd 2a f1 14 be
       -0.042828336 0.03570023 -0.05544838 -0.14545122
0001f0 e5 00 b4 bc df 7a 89 3f 07 60 a1 be d1 fe 13 3f
       -0.021973083 1.0740622 -0.31518576 0.57810694
000200 07 4c 37 be ef d7 d5 be 1a 9a 78 3d ac 19 36 3e
       -0.17900096 -0.41766307 0.060693838 0.1778323
000210 91 f5 02 3e bd 02 1e bd a8 09 61 be f4 c8 bb bd
       0.12788989 -0.03857683 -0.2197634 -0.09169188
000220 b7 cf 84 be 38 61 31 bd 73 ad ef 3e cb 5a 2b 3c
       -0.25939724 -0.043305606 0.4681202 0.010458658
000230 ba 26 b7 3d 94 6f 8d 3d d3 8f d0 bd 0f 3a 15 bd
       0.089429334 0.069060475 -0.10183682 -0.036432322
000240 1c d4 bc bd 93 e1 94 3e 51 e9 54 3e 79 2a ae 3e
       -0.09220144 0.2907835 0.20792128 0.3401678
000250 33 de 11 bf d2 7a 4b be 7d b9 e8 bd 8c 87 63 3e
       -0.56979674 -0.19871071 -0.11363504 0.22219676
000260 f9 9e 5a 3d 83 89 1e be b8 32 08 3d b2 f0 9a be
       0.053374264 -0.15482144 0.033251494 -0.3026176
000270 69 d3 3f bd 58 6a 95 be 26 9a 2a 3e c8 9f d5 be
       -0.046832476 -0.29182696 0.16660365 -0.41723466
000280 76 7a 49 be 84 91 b2 3e 98 54 aa be 36 91 2e 3f
       -0.19675621 0.34876645 -0.33267665 0.68190324
000290 64 86 15 3c 70 0b 9e be 8f 41 d5 3d 37 9a d1 be
       0.0091262795 -0.308681 0.10412895 -0.4093797
0002a0 3f 53 24 40 f3 c6 71 be a0 e9 84 be 79 f6 67 3f
       2.567581 -0.2361105 -0.25959492 0.9061046
0002b0 79 ed 25 bd 3f 21 10 be f6 d1 66 be 06 d7 73 bd
       -0.040509675 -0.14075182 -0.22541031 -0.059531234
0002c0 91 b2 12 3f cf 52 89 3d 6d ed e8 be 33 58 c2 be
       0.5730372 0.067052476 -0.45493641 -0.37957916
0002d0 eb c0 cc 3e 16 6c d2 be 9f 71 be 3d 1a 8a dd bc
       0.39990935 -0.41098088 0.09299015 -0.027043391
0002e0 97 34 bc 3d 27 8d 27 bd 82 8c 0b 3e e8 b8 35 be
       0.09189718 -0.040906098 0.13627818 -0.17746317
0002f0 39 8e 39 3d c8 8c 69 3f 9b d2 ba be 90 9a 0c 3f
       0.04530165 0.9123044 -0.36488804 0.54923344
000300 6d d8 00 3c 30 0d c8 3e b0 85 fe bd ef ae 15 bf
       0.0078641 0.3907256 -0.124278426 -0.5847005
000310 40 67 fa bd 64 01 af be 6e 7b 3c be fc 65 bb 3d
       -0.122267246 -0.34180748 -0.1840646 0.09150311
000320 90 91 b3 be b0 14 a3 3d 82 33 75 3f 32 7e b8 be
       -0.35071993 0.0796293 0.9578172 -0.3603378
000330 b0 4c d0 3e b9 98 46 3e 9c 89 c7 3d 3b 1b 19 3e
       0.40683508 0.19394197 0.09743044 0.14951794
000340 19 d3 ea bb 99 3f 88 3e 2d 87 4e be f8 0a 6c be
       -0.007166278 0.2661102 -0.20168753 -0.23051059
000350 d4 94 d8 3e fa 03 92 3f ca 19 8a bd 43 f1 1b 3f
       0.42301047 1.1407464 -0.067432 0.6091501
000360 cd 17 d3 3d 6c eb fe bd 4d fc 4a bd ff c2 c5 3e
       0.10307274 -0.12447247 -0.04955702 0.38625333
000370 d0 90 4d be 1c 14 ab bf 2f 23 e2 3e 6b a3 75 bf
       -0.20074773 -1.3365512 0.44167468 -0.9595248
000380 4e 66 27 be c7 e2 ae bd 42 e5 8d be 8f eb c3 3d
       -0.1634762 -0.08539348 -0.27713972 0.095664136
000390 be a1 cf 3c 4e 72 b0 bd 94 dd 2f 3e d9 b8 fe be
       0.02534568 -0.08615552 0.17174369 -0.49750403
0003a0 c4 b5 c6 3d d4 66 05 be 6b 2a 67 3e 01 93 69 3e
       0.09702638 -0.13027507 0.22574775 0.22809984
0003b0 92 83 00 be a5 d8 8e 3c 58 16 06 3f 4b 88 31 be
       -0.1255019 0.017437289 0.52377844 -0.17337148
0003c0 5f ff 81 3b 75 cb d9 bd 54 79 24 3e 03 b6 0b 3e
       0.00396721 -0.106345095 0.16061908 0.1364365
0003d0 c6 96 19 bd 76 db 26 be 4c 7a a0 bd 5e 65 68 3d
       -0.037497304 -0.16294655 -0.07835826 0.056737296
0003e0 83 77 87 3d 90 e1 b9 be b5 0d fc 3b cb 17 98 bd
       0.06614592 -0.36304903 0.0076920637 -0.07426413
0003f0 79 ab 8a 3c e9 fc 15 3f 09 67 13 be 5a 95 f4 bd
       0.016927468 0.58589035 -0.14394774 -0.11942549

nns.1.0.bias f4 [32]
000000 fe 77 8d 3b df d1 9a bd 7b 0f 80 3d 6a 8e 07 be
       0.0043172827 -0.07559561 0.06252953 -0.1323792
000010 44 eb 71 bc ee a1 b2 3d 82 25 f6 bd cd 58 00 bd
       -0.014765564 0.08722292 -0.12018873 -0.031334687
000020 a1 78 85 be 90 77 1a 3e 2f c7 34 be 5b ce b5 bc
       -0.26068595 0.15084672 -0.17654108 -0.022193125
000030 32 46 a1 3e d5 1e e8 bd b2 6d 82 3d 05 e9 f2 bd
       0.31498867 -0.11334006 0.06368579 -0.11860851
000040 7b d5 ee bd 29 ce cc 3d 9f 6b 81 bd 56 7f 9d 3d
       -0.11661812 0.100002594 -0.06319355 0.07690303
000050 5f e8 99 bd 11 bf a0 3d cf b4 88 3d ef 59 c2 3d
       -0.075150244 0.07848943 0.066751115 0.0948981
000060 34 00 92 be e4 82 ef bd 94 3a 68 be 7c 3e de 3c
       -0.2851578 -0.11694887 -0.22678596 0.027129404
000070 64 6f 0b be b8 d9 9c bc a3 df 0d be e9 5d 47 3d
       -0.13616711 -0.019146785 -0.13854842 0.048673544

nns.1.1.weight f4 [32]
000000 8d ab 81 3f 73 76 aa 3f fe b2 57 3f e7 b5 6a 3f
       1.0130478 1.3317398 0.84257495 0.9168381
000010 b1 7b 97 3f e8 8d 9e 3f f3 60 a7 3f 4e 22 83 3f
       1.1834623 1.2387056 1.3076462 1.0244844
000020 ed a5 1f 3f 3f 76 a0 3f 56 13 fe 3d a5 dc db 3f
       0.6236256 1.2536086 0.12406032 1.717671
000030 16 4f 3f 40 f1 e9 6c 3f e0 ff 72 3f d9 5b 75 3f
       2.989202 0.92544466 0.94921684 0.95843273
000040 f4 de 3d 3f 63 c7 ea 3e 61 6c 98 3f 66 65 97 3f
       0.74168324 0.45855245 1.1908075 1.1827819
000050 66 4e 2d 3f 5e 12 8e 3f 2b b5 f6 3e 61 9b c0 3e
       0.6769775 1.1099355 0.48185095 0.37618545
000060 d3 ad a4 3f e6 de 65 3f 97 86 38 3f 12 d1 dd 3f
       1.2865547 0.8979324 0.7208037 1.7329428
000070 b2 05 09 3f 4e b2 f8 3e 82 25 8f 3f e8 49 b8 3f
       0.53524315 0.48573536 1.1183321 1.4397554

nns.1.1.bias f4 [32]
000000 a4 a8 57 3e 53 98 54 3e 99 b4 49 3f f0 60 44 3e
       0.21060425 0.20761232 0.78791195 0.19177604
000010 af 67 e7 be 7f a0 12 3e b7 0f ee be 53 09 e2 3c
       -0.45196292 0.14319037 -0.46496364 0.027592337
000020 b8 a3 6d 3e 1b bc 08 bf 6f 93 96 bf 2b b4 9d 3e
       0.23206985 -0.53412026 -1.1763743 0.3080152
000030 63 1a f0 3e 9c 34 15 bd 05 f0 8a 3e c5 3f 37 bf
       0.4689513 -0.036427125 0.27136245 -0.7158168
000040 39 43 ce be bd 5b 75 3e d0 9a e3 be e1 5b 03 3f
       -0.40285662 0.23960777 -0.4445405 0.5131207
000050 ab 6f b4 3e 95 86 05 3f 0e a0 54 bf 93 57 95 be
       0.35241446 0.5215848 -0.83056724 -0.29168376
000060 ab 8a 0b 3e 3a e7 be be 4b d3 a6 3d 5e 05 4d 3f
       0.13627116 -0.37285787 0.0814577 0.80086315
000070 db f4 3f be 3f 57 78 bf 11 80 4a 3e cd 15 4e 3e
       -0.18745749 -0.97008127 0.19775416 0.20125504
