result/experiment_07.12.2022_10.47.55/0/fold_0_state_dict.pt (torch, 59548 bytes, 92 tensors)

first_h.0.weight f4 [32, 3]
000000 d7 25 a4 be db bf 81 3d c4 cb 23 3f e3 5f dd be
       -0.3206012 0.06335422 0.63982797 -0.43237218
000010 67 18 45 3d 16 bf 33 3e 03 cf 49 3e bf 8d 0d bf
       0.048118975 0.17553362 0.19707875 -0.5529441
000020 12 cd fb bc 4c 6f 12 3f 9c 34 65 3c 23 77 ee 3e
       -0.030737434 0.57201076 0.013989594 0.4657527
000030 47 cb 6f be 96 c2 39 3a 44 5f b4 3e 1f 02 8e 3d
       -0.23417388 0.00070861855 0.35228932 0.06933998
000040 02 b8 c4 be dd 4f bc 3e 59 1e 7f be 3a 13 8a 3f
       -0.38421637 0.3677968 -0.2491392 1.0787117
000050 47 0f 42 3f bb 2d 66 3e 4e 3f e4 3e a6 56 dd 3c
       0.7580456 0.22478382 0.44579548 0.027018856
000060 ae 72 03 3f d3 9a 97 be 10 67 1f 3e 2f d1 b4 bd
       0.5134686 -0.2961031 0.15566659 -0.08828961
000070 97 71 43 be 32 42 7a 3e b2 22 80 3e e4 ca b9 be
       -0.190863 0.24439314 0.2502647 -0.36287606
000080 ca 75 b8 be 10 f9 7a be 7b d8 01 3f b1 77 da be
       -0.36027366 -0.24509072 0.5072095 -0.42669442
000090 f7 9d 1e 3f 07 c9 cf bd 95 4d 3a 3d 37 55 94 bd
       0.61959785 -0.10145765 0.045484144 -0.07242816
0000a0 29 83 3e be 2c 30 e6 3e db 9e 3e 3d 1e d1 d7 be
       -0.18604721 0.44958627 0.046538215 -0.4215173
0000b0 91 03 c6 be 4b 03 43 3e 91 73 8d 3e a9 e7 28 be
       -0.38674596 0.19044225 0.27627233 -0.16494621
0000c0 63 7d 6b 3e d5 ef 94 3d 4f e3 49 3e 6c 46 68 3e
       0.2299705 0.07272307 0.19715618 0.22683114
0000d0 07 4c 6b 3e 55 6c ab bc da 61 6f bd 4a 78 34 3e
       0.22978221 -0.02092568 -0.058442928 0.17624012
0000e0 e3 c6 9f be 34 33 5b 3d f2 68 c5 3e 15 55 8f bd
       -0.31206426 0.053515628 0.3855663 -0.0699865
0000f0 ab ec fa 3e 24 68 63 3d af dd 4e be 81 1a a3 be
       0.49008688 0.055519238 -0.20201753 -0.31856158
000100 1e 4f 83 3e 0d 6a 96 3e 63 f7 ee be 4b 85 12 3e
       0.256463 0.29377785 -0.46673116 0.1430866
000110 09 1d 37 be 56 0e 22 3e 5f 6d 29 3f 54 1f 1f bf
       -0.1788217 0.15825781 0.6618251 -0.6215718
000120 64 e6 f0 3d 67 a6 c3 3e ae 41 4b 3d 78 32 c5 be
       0.117626935 0.38212892 0.049623184 -0.38515067
000130 42 7d d7 bd 23 fd 2a be 78 67 d6 3e 8c 81 6c 3f
       -0.10521938 -0.16698126 0.41875815 0.9238517
000140 0e 74 42 bc 72 da 26 bf 68 7a 9d bd d2 b5 58 be
       -0.01186849 -0.6517707 -0.07689363 -0.21163109
000150 ac 69 9a 3e 60 24 38 3f e1 ee cf 3e 6b 19 dd bd
       0.30158746 0.71930504 0.40611938 -0.10795864
000160 25 a7 00 bf 04 54 c3 3d 6f 37 8f be da 53 82 3d
       -0.5025504 0.09537509 -0.2797198 0.0636365
000170 f2 dc 5a be 8a d6 f0 bd ce e7 8a 3e 44 ef 03 3f
       -0.21373346 -0.1175967 0.27129978 0.51536965

first_h.0.bias f4 [32]
000000 63 37 f3 3e dd a7 a0 be 9c 80 c0 3e 79 4a c0 3e
       0.47503194 -0.3137807 0.3759812 0.37556818
000010 b3 50 6d 3e 75 24 0c 3f bd 31 3c 3d 63 1a 8e bd
       0.23175316 0.5474313 0.04594587 -0.069386266
000020 e6 2e a7 be c5 5b 03 be 34 16 52 3e 8e 79 d1 be
       -0.32652968 -0.12827976 0.20516282 -0.4091305
000030 8b 3f f4 3d d8 47 20 be b2 7b ec be c9 7d 90 bd
       0.11926182 -0.15652406 -0.46188122 -0.070552416
000040 7f 77 63 be 00 f0 03 3f c9 cf 8a be f9 53 10 3f
       -0.22213553 0.51538086 -0.27111652 0.5637813
000050 12 19 aa 3e 32 cb 10 3f 64 02 14 bb 6d d1 9a bc
       0.33222252 0.5656005 -0.0022584433 -0.01889869
000060 87 4b fb be 9f d0 64 3e 9d 4f bf 3e 01 7f 5a bd
       -0.4908106 0.22345208 0.37365428 -0.053343777
000070 1a a0 96 bc 1f 73 28 bd 20 bf 99 3e 40 e3 ab be
       -0.01838689 -0.041125413 0.3002863 -0.33571815

first_h.1.weight f4 [32]
000000 a7 c3 88 3f 90 66 6e 3f be 55 84 3f 0d df 77 3f
       1.0684708 0.9312525 1.0338666 0.96824723
000010 10 57 71 3f 54 7b 6d 3f bf 46 8e 3f d5 13 74 3f
       0.9427347 0.9276631 1.111534 0.9534276
000020 50 4c 6c 3f 8c ff 64 3f 74 fb 86 3f cd 36 86 3f
       0.92303944 0.89452434 1.0545487 1.0485474
000030 33 fc 7d 3f 70 0f 5c 3f d3 1c 61 3f f9 67 84 3f
       0.9921295 0.85961056 0.8793461 1.034423
000040 8f 1f 76 3f 92 f9 6f 3f cb 74 75 3f d9 9a 63 3f
       0.96141905 0.9374019 0.95881337 0.88908154
000050 f0 ad 86 3f 08 ac 71 3f 96 63 85 3f a5 92 88 3f
       1.0521832 0.94403124 1.0421016 1.0669752
000060 1c 9c 87 3f 34 ac 7b 3f 31 3b 86 3f b9 4e 83 3f
       1.0594516 0.98309636 1.0486814 1.0258399
000070 2b 14 65 3f f7 d5 86 3f 00 61 86 3f 96 f6 72 3f
       0.894839 1.0534047 1.0498352 0.9490751

first_h.1.bias f4 [32]
000000 d2 85 b6 3d b7 f2 c1 bd ae a2 06 bd c7 af d8 be
       0.08912243 -0.09470122 -0.032869987 -0.42321607
000010 c0 31 f3 bd 59 b3 7e be e9 e4 93 be 54 00 25 be
       -0.118747234 -0.24873103 -0.28885582 -0.16113406
000020 70 d6 d1 bd fe f7 1a be ab 9b 04 be be 69 4b 3d
       -0.10245979 -0.15133664 -0.12950008 0.04966139
000030 f0 08 b1 bd 61 90 08 be 14 60 9f bd ca a6 98 bd
       -0.08644283 -0.13336326 -0.07781997 -0.074536875
000040 41 d7 5f be ca 4d 19 be 0b dc 7b bd e7 02 1e bf
       -0.21859457 -0.1497108 -0.061489146 -0.6172318
000050 75 05 9a bc 4b 93 76 bd 5f 48 2a 3e 7c a3 0e bf
       -0.01880143 -0.060199063 0.1662917 -0.5571821
000060 7b 86 b9 bd 1a 0c 95 bd b9 cd 8c 3c f5 5a 64 bd
       -0.09058853 -0.07277699 0.01718794 -0.055750806
000070 67 c0 33 be 6d 5f 8b 3d ff e4 81 3d 34 22 0c bd
       -0.17553864 0.068053104 0.06342506 -0.034212306

first_h.1.running_mean f4 [32]
000000 f1 0d c8 c8 a8 53 07 c9 66 13 76 48 fe 9d 32 49
       -409711.53 -554298.5 251981.6 731615.9
000010 c0 ec 8f c8 e4 c2 ad 47 d5 2a 9c c8 0f 31 8d 48
       -294758.0 88965.78 -319830.66 289160.47
000020 22 a3 20 49 90 a0 dc c7 2b 93 9c 48 0d 41 99 c8
       657970.1 -112961.125 320665.34 -313864.4
000030 dc ec 41 49 6f 56 b5 c7 3a 00 69 47 44 65 6f 48
       794317.75 -92844.87 59648.227 245141.06
000040 2a 7c 90 48 9a 13 8e 48 f1 55 92 c7 b3 6f 86 47
       295905.3 290972.8 -74923.88 68831.4
000050 9b 63 19 49 cf 43 c7 c8 6d d1 12 c9 a0 28 46 48
       628281.7 -408094.47 -601366.8 202914.5
000060 e0 6e 14 48 ad f1 f1 c8 e2 83 03 49 4b 3d 4c c9
       151995.5 -495501.4 538686.1 -836564.7
000070 9f 65 bf 48 5c 44 07 c8 1c 36 af c8 52 30 13 c8
       391980.97 -138513.44 -358832.88 -150721.28

first_h.1.running_var f4 [32]
000000 4a 0c b6 54 73 83 26 55 aa a7 09 54 39 20 91 55
       6.255122e+12 1.1442719e+13 2.3648938e+12 1.9945948e+13
000010 b9 fa 3c 54 59 41 89 52 f5 c5 5d 54 ad 28 35 54
       3.246641e+12 2.9475344e+11 3.8100358e+12 3.112286e+12
000020 36 9f 6a 55 3b 62 dd 52 f4 ec 5e 54 4e 96 55 54
       1.6123095e+13 4.754179e+11 3.8298326e+12 3.669399e+12
000030 f8 f3 aa 55 7d 80 95 52 13 e2 f6 51 d9 38 02 54
       2.3495602e+13 3.210529e+11 1.3254436e+11 2.237198e+12
000040 bd ca 3d 54 93 87 37 54 46 b1 42 52 dd 49 24 52
       3.2606008e+12 3.1530143e+12 2.0904945e+11 1.7640346e+11
000050 6f ec 55 55 6c 8a b4 54 2d e6 43 55 5c 82 b2 53
       1.4700716e+13 6.2033316e+12 1.3462085e+13 1.5333825e+12
000060 7e 12 48 53 dd f9 04 55 95 39 1d 55 09 99 bd 55
       8.593037e+11 9.138043e+12 1.0804415e+13 2.6058122e+13
000070 1b 82 a6 54 6f 55 26 53 31 8c 8b 54 6b 01 45 53
       5.721179e+12 7.143979e+11 4.79482e+12 8.4613235e+11

first_h.3.weight f4 [32, 32]
000000 b4 8a 0a 3e e6 f1 05 3e 83 c2 d9 3b 65 02 0b 3e
       0.13529474 0.13080558 0.006645502 0.13575132
000010 f2 c8 85 bd 90 4d 71 3c fa 97 4a ba b3 2a e3 bd
       -0.06532468 0.014727965 -0.0007728335 -0.110921286
000020 b5 e5 8d bd a3 93 12 3d e3 f5 48 be 38 0d b1 bb
       -0.06928579 0.03578533 -0.19625048 -0.005403187
000030 46 6e 8b bd e9 d5 41 3e cb 5f c5 3d e7 3e 17 bd
       -0.06808142 0.18929256 0.09637412 -0.036925223
000040 9d c9 16 be 33 0f b8 bd 6a fe 0d 3e 1a d8 25 3d
       -0.14725347 -0.08987274 0.13866583 0.040489294
000050 63 f6 36 bd 1c 67 13 3d 51 0e 40 3e 19 14 0e 3e
       -0.044668566 0.035987005 0.18755461 0.13874854
000060 43 8d 3f be dd 91 42 3d 40 33 3a be d6 0b 30 3d
       -0.18706231 0.047502387 -0.18183613 0.042980038
000070 ce 9e 06 3e d8 47 61 3e 69 a3 03 3e c5 c3 d2 3d
       0.13146517 0.22000062 0.12855305 0.10291246
000080 8f b9 f4 3d 1d 60 40 3c 7a 00 2c 3d d9 12 ee 3d
       0.11949455 0.011741665 0.041992642 0.11624689
000090 2c 8b 99 bd d4 a9 9e 3d 41 85 50 bd 2e 2a 11 bc
       -0.07497248 0.07747236 -0.05090833 -0.008860154
0000a0 43 5a 9a bd 97 3d 4f 3d 86 9f 9b bc 0b db a4 bb
       -0.07536747 0.050595846 -0.018996965 -0.005030995
0000b0 7a 1f 09 bd c1 49 18 bd 33 88 ff bd d3 a6 0d 3e
       -0.033477284 -0.037179712 -0.1247715 0.1383317
0000c0 47 b9 66 3e 16 c7 31 bd 3a 82 44 be 0d 8b 9f 3d
       0.22531615 -0.043402754 -0.19190302 0.07790194
0000d0 00 50 50 3e e4 06 04 3e 0c 88 05 be 20 83 5e 3e
       0.20343018 0.12893254 -0.13040179 0.21729708
0000e0 77 e3 f9 3c de b0 08 be da e1 86 3d 50 b4 a8 bd
       0.030503972 -0.1334872 0.065860465 -0.08237517
0000f0 22 a9 92 3d 98 32 21 bd c1 fc 21 be e1 4c 20 be
       0.07161166 -0.03935489 -0.15819074 -0.15654327
000100 d7 be 7e bc 94 a0 78 bd 43 ab 80 bd d4 ce 1d bd
       -0.015548429 -0.060700014 -0.062826656 -0.038527325
000110 b9 a2 83 3b 01 9c 21 be 88 7f f1 bd 3b 61 4a be
       0.004017201 -0.15782167 -0.11791903 -0.19763653
000120 eb b7 a3 bd 37 c2 74 bd 6e 17 50 3d 73 b8 61 bc
       -0.07994064 -0.05975553 0.050803594 -0.013776886
000130 36 d8 01 be 5e ab 86 3d d0 bf d0 bd 60 96 a6 bd
       -0.12680134 0.065756544 -0.10192835 -0.081341505
000140 76 4a 36 be f9 6c 1e 3d 3f 00 9d bd d9 89 29 3d
       -0.17801842 0.038678143 -0.076660626 0.041391227
000150 3c 9b 5c be 74 c1 f1 3d 88 06 b3 3d eb a0 49 be
       -0.21543592 0.118044764 0.0874148 -0.19690292
000160 b2 a1 ed 3d 97 50 52 3d ad c4 df bc 47 72 30 3d
       0.116031066 0.051346388 -0.027315462 0.043077733
000170 dc f7 fc bd 3d 54 5f 3d 99 b1 5f be 18 41 57 be
       -0.12351963 0.054523695 -0.21845092 -0.21020925
000180 1e 9a 55 3e a5 20 aa bd 17 3b 4a be 54 dc d3 bc
       0.20859572 -0.08307008 -0.19749103 -0.025861897
000190 d6 b2 71 3d 33 1b 7b 3c 6a 1e e0 bd 76 48 92 3d
       0.059008442 0.015326309 -0.10943301 0.07142727
0001a0 f6 4a 92 bc 80 27 8b 3d 74 72 1b be de cc 5f 3e
       -0.01785801 0.067946434 -0.15180379 0.21855494
0001b0 55 68 de bd bf 0a 74 3d 5d 5e 2d bd ba 87 bc bd
       -0.108597435 0.05958056 -0.04232632 -0.09205575
0001c0 61 06 89 3d 32 4c af 3d 49 88 90 bd 2b f7 89 bd
       0.0669067 0.08559455 -0.07057244 -0.06736597
0001d0 70 74 00 be 7e 55 ff bc e6 c6 02 3d 25 e6 7f bd
       -0.12544417 -0.031168696 0.031927966 -0.062475342
0001e0 2e b7 e5 bd 04 42 2b 3d c1 4f 5a be b6 de a3 3d
       -0.112165794 0.041811004 -0.21319486 0.08001463
0001f0 72 d6 87 bc c3 1d 47 3e 3d a4 5d 3e 7a bc ee bd
       -0.016581748 0.19444947 0.21644683 -0.11657043
000200 b0 fa 70 3e a4 1a 31 3d 06 76 e5 3d 9c 9c 36 3e
       0.2353313 0.043238297 0.11204152 0.17833179
000210 39 72 98 3c 2a 4e a8 3e 98 df 14 3e 1c fc 8b 3e
       0.018609153 0.32872134 0.14538419 0.27340782
000220 44 25 d9 3d 9f 25 72 bd 3d d6 3c 3e f1 d5 f0 3d
       0.10602811 -0.05911791 0.184411 0.11759556
000230 0e b7 0a 3d f1 11 63 3e 3d ce 1b 3d 74 8e 93 bd
       0.03386598 0.22174813 0.03803848 -0.07204905
000240 c4 cd ad 3d 6f 9f 1f 3e a3 39 f6 bc 20 5d 64 3e
       0.08486512 0.15588163 -0.03005678 0.2230115
000250 df 92 a5 3d 9f 60 fd bc d1 f7 8f 3e 92 23 83 3e
       0.08084654 -0.030929862 0.28118756 0.25613075
000260 e3 7a 16 3d 8f 7f 90 3e b6 cd 9a 3d 03 2b 5b 3e
       0.036738288 0.2822232 0.075587675 0.21403126
000270 8d c5 97 3e 83 4d 84 3e 94 3f 16 3e 94 86 5a 3e
       0.29642907 0.25840387 0.1467269 0.213404
000280 97 69 2c 3e 08 f0 1d 3d c4 44 8e 3d cf a9 f7 bc
       0.16837154 0.03855899 0.0694671 -0.030232338
000290 d1 2c 61 3d c4 2b 6c 3e 00 cd 8a 3e 43 59 40 3e
       0.05497438 0.2306357 0.27109528 0.1878405
0002a0 47 79 3a bd 5e 75 88 3d 82 33 7d 3e 19 94 4f 3e
       -0.045525815 0.06663011 0.2472668 0.20271339
0002b0 fc 7b 20 3e f0 71 4c bc 36 d7 4b bc a7 38 5c bd
       0.15672296 -0.012478337 -0.012441447 -0.053764965
0002c0 d5 ea 16 3e 42 b0 58 3e 26 7d 53 3e 18 0f 57 3d
       0.14738019 0.21160987 0.20653209 0.05250463
0002d0 4a b0 28 3e 92 6e 19 bd 44 20 2c 3e 46 db 9d 3d
       0.16473499 -0.037458964 0.16809183 0.07707839
0002e0 ca b7 55 3e b5 73 ce 3d bb 2d 8d 3d d5 9b 3b 3e
       0.20870891 0.10080663 0.06893488 0.18321164
0002f0 75 7a 15 3e 91 e7 33 3e 5f 59 6e 3e 17 ff e5 3d
       0.14597495 0.17568804 0.2327628 0.11230295
000300 a4 1c 62 be 97 d6 5a be 58 20 b8 3b 98 40 43 be
       -0.22081238 -0.21370922 0.00561909 -0.1906761
000310 da 24 53 be 04 b6 a4 bc 76 13 94 bd 92 88 b7 bd
       -0.20619527 -0.020106323 -0.072302744 -0.089615956
000320 ef 10 8b 3d 75 a8 b6 bd 09 d0 28 3d a6 29 b7 b8
       0.06790339 -0.089188494 0.041214023 -8.7338776e-05
000330 71 5e c1 bd 70 06 69 be 2e 5f 70 bd 34 34 1d bb
       -0.094418414 -0.22756362 -0.05868452 -0.0023987414
000340 a8 00 99 bd 97 c7 33 be f3 f6 10 be 59 b2 d9 3d
       -0.07470828 -0.17556606 -0.14156704 0.1062972
000350 9c f1 50 be 19 09 b1 bd 48 6f 33 bd 5d 48 e6 bd
       -0.20404667 -0.08644313 -0.043807298 -0.11244271
000360 5e d3 37 be cc 92 2f 3c 58 2e 75 be 58 84 40 be
       -0.17951724 0.010716151 -0.2394346 -0.18800485
000370 6e 80 7d bd 44 40 51 3c 4c f2 89 bc 6f 40 47 be
       -0.06189006 0.01277167 -0.016839169 -0.19458173
000380 83 f2 ca 3c 83 8d 4d 3d f8 5e 52 bd 02 3a 3f 3e
       0.024773842 0.050183784 -0.0513601 0.18674472
000390 31 63 83 3d 81 b4 46 bc d5 05 51 3e c6 9c a4 3c
       0.06415404 -0.012127996 0.20412381 0.020094287
0003a0 0b 31 d6 bd c5 5b 8d 3c 6d 57 0e 3e c9 2a e1 3c
       -0.10458573 0.017255673 0.13900538 0.027486222
0003b0 f1 e0 10 3e 0e 2c 88 bc 21 27 a7 bc a1 30 23 3e
       0.14148308 -0.01662257 -0.0204044 0.15936519
0003c0 69 63 5b 3d 6b 19 31 3e f9 2f 37 3e 4d 1c 26 3e
       0.0535616 0.17294852 0.17889394 0.16221733
0003d0 c2 de fd bd a1 b7 86 bd 1a 87 c0 bc e2 23 28 3e
       -0.12396003 -0.06577993 -0.023501921 0.16419938
0003e0 a8 49 42 3d b9 f0 12 3e 3a bb 6c 3b 64 e7 d9 3d
       0.047433525 0.14349641 0.0036122338 0.106398374
0003f0 76 c1 05 3e aa eb 4f bc e2 82 e4 3d b9 41 67 bc
       0.1306208 -0.012690464 0.111577764 -0.014114791

first_h.3.bias f4 [32]
000000 cc a5 f9 3d a3 63 d7 bd 9f c1 2f 3e 7f 81 2d 3e
       0.12189826 -0.10517051 0.17163704 0.1694393
000010 72 d8 5f 3e e9 b6 21 bd f7 bd be be ac 65 21 3e
       0.21859911 -0.039481077 -0.37254307 0.15761441
000020 1a d5 5c be b1 4f aa be 19 1d 57 bc ea 7c 55 be
       -0.21565667 -0.33263925 -0.013129496 -0.20848432
000030 d6 16 c2 3d 92 c2 8c 3c e0 88 d0 bb 79 8b 49 3d
       0.09477012 0.017182622 -0.006363973 0.049205277
000040 45 bd 36 3e 20 ae aa bd e7 52 8d bd 66 89 54 be
       0.17845638 -0.08333993 -0.06900578 -0.20755538
000050 b8 32 c7 bd 24 f9 f1 bc e7 a1 fa bd 9a f2 51 3d
       -0.09726471 -0.029537745 -0.12237912 0.051256754
000060 30 bd 6b bd 62 52 b3 3d 38 6b 8e be fe 5d 42 bd
       -0.05755347 0.08755948 -0.27816176 -0.04745292
000070 34 0e 58 be ff 60 a9 bd dc be 8f bd 79 6f 01 bc
       -0.21099168 -0.08270454 -0.070188254 -0.007900112

first_h.4.weight f4 [32]
000000 13 77 38 3f dc a0 08 3f 60 e3 3a 3f a4 91 39 3f
       0.7205669 0.5337045 0.73003197 0.72487855
000010 69 c7 1c 3f c7 00 55 3f 71 75 64 3f 0c 29 54 3f
       0.61241776 0.8320431 0.892417 0.8287513
000020 15 ae 5e 3f 22 cd 6c 3f 5e 44 62 3f 10 15 76 3f
       0.8698438 0.9250051 0.8838557 0.9612589
000030 53 2b 61 3f ef a2 17 3f 5b 01 1a 3f b9 63 12 3f
       0.8795673 0.5923299 0.6015832 0.57183415
000040 8c 24 1b 3f 4e ef 13 3f 8d 77 37 3f c7 45 0f 3f
       0.6060264 0.57787025 0.71666795 0.55965847
000050 aa 86 61 3f 40 37 39 3f 10 39 71 3f c8 ec 31 3f
       0.88096106 0.7234993 0.94227695 0.69501925
000060 d6 4c 50 3f 0a 62 55 3f 24 aa 3f 3f 5a 5d 0c 3f
       0.8136724 0.8335272 0.7486899 0.54829943
000070 83 3a 20 3f ab a2 45 3f bf ab 51 3f 72 9a 14 3f
       0.6258928 0.77201337 0.8190269 0.58048165

first_h.4.bias f4 [32]
000000 a3 e0 cc be 70 5f ed be f7 df 63 be a0 23 44 be
       -0.40015134 -0.46361876 -0.22253405 -0.19154215
000010 33 2f cc be 3c 3a bc be 13 8f b9 bd 04 10 3a be
       -0.3987976 -0.3676318 -0.09060492 -0.18170172
000020 8a c2 e9 bd 37 38 8d 3c ef 08 d4 bd a6 0d 0a be
       -0.114140585 0.01723872 -0.103532664 -0.13481769
000030 b5 30 47 bd fa 11 d5 be e3 77 9f be 87 6c 78 bd
       -0.048630435 -0.41615278 -0.31146154 -0.060650375
000040 c8 ed 80 bd 18 ca 12 bf 6c 81 97 be 30 78 f2 be
       -0.06295353 -0.5733962 -0.2959093 -0.4735732
000050 a5 c1 f8 bd 14 3b 3e be 1e eb aa be e0 1b c8 be
       -0.1214631 -0.18577224 -0.33382505 -0.39083767
000060 e1 56 30 be d6 18 83 bd 3a b2 f5 be 38 69 1b bf
       -0.17220642 -0.064012215 -0.4798754 -0.60707426
000070 07 a4 f9 be 80 c7 a1 be 38 45 85 be d8 53 ae be
       -0.48757955 -0.3159752 -0.26029372 -0.34048343

first_h.4.running_mean f4 [32]
000000 2b 25 89 3e 30 72 99 bd ae e6 c8 bd f1 ae 4f 3e
       0.2678617 -0.07492483 -0.09809624 0.20281579
000010 c5 5f 82 3f 53 55 22 3f 14 80 55 bf 15 12 d4 3e
       1.0185477 0.63411444 -0.83398557 0.41420045
000020 b2 ca 3f bf 95 ce 77 bf b5 8e 4c bf 3a 27 81 bf
       -0.74918664 -0.96799594 -0.79905254 -1.0090096
000030 c4 90 db be f6 fb 37 3f 51 37 0e 3f 33 a5 31 3f
       -0.42883885 0.71868837 0.55553156 0.693927
000040 c6 ce 86 3b f9 5b a9 3d b9 da 98 3e 8d 77 ca b9
       0.004114005 0.082694955 0.29854372 -0.00038617515
000050 3c 55 2b bf 0d 77 99 be 78 b7 6c bc 4f 2a e4 be
       -0.6692693 -0.2997364 -0.014448039 -0.4456353
000060 07 ef 36 be 02 fe a0 be ac bd 44 3f 26 42 23 3f
       -0.17864619 -0.31443793 0.76851916 0.6377281
000070 67 2f 24 bf c4 fa 17 bd 84 4b 91 be fa ce 09 3f
       -0.6413483 -0.037104383 -0.28377926 0.53831446

first_h.4.running_var f4 [32]
000000 aa 68 de 3e de 81 59 3f ae 39 b7 3f 08 7e 84 3f
       0.43439227 0.84963787 1.4314477 1.0350962
000010 9b f6 83 40 61 72 30 40 85 08 c0 3f 4c 99 6b 3f
       4.123853 2.7569811 1.50026 0.9203079
000020 9a 31 4e 40 4c a9 db 40 f0 45 e7 40 80 1c da 3f
       3.2217774 6.864416 7.2272873 1.7039948
000030 e8 a3 aa 40 fd 73 57 40 3b 42 5e 40 79 4e 59 3f
       5.332508 3.3664544 3.4727924 0.84885365
000040 99 d6 95 3f b0 dd 81 3e 73 aa 55 40 42 bd a9 3f
       1.1706115 0.25364447 3.3385284 1.3260882
000050 30 23 ba 40 25 69 5f 3f 8b e5 73 40 0e 8a 32 41
       5.8167953 0.8726981 3.8108852 11.158705
000060 c4 23 b5 3f 60 e6 2e 40 cd 37 eb 40 2a 0a c4 3e
       1.415154 2.732811 7.3505616 0.38289005
000070 9a ed 77 41 39 c7 8c 3f 13 9b fc 40 31 68 fb 3f
       15.495508 1.0998298 7.89393 1.9641172

nns.0.0.weight f4 [32, 32]
000000 2a 47 cf be ed 00 0d be 53 7b 92 bd 86 b3 1b be
       -0.4048398 -0.13769884 -0.071524285 -0.15205202
000010 c2 cd ca be d2 b0 97 be b7 a1 3e bd 4b 40 b5 bd
       -0.39610106 -0.2962709 -0.046540942 -0.088501535
000020 7c 49 b3 bd 2c 8b 30 be 98 dc 6f 3d 15 77 a2 3e
       -0.087542504 -0.1724059 0.058559984 0.31731477
000030 c4 ac af bb 1f 1a db be c6 d0 98 be 11 81 6a bd
       -0.0053611714 -0.42793366 -0.29846781 -0.057251994
000040 eb f5 b5 3e 71 e8 2f be ed 04 0f be 2f 48 ce bd
       0.35539183 -0.17178513 -0.13966723 -0.10072362
000050 14 29 15 3e 9b 93 dd 3d d1 89 40 3e ed 76 4e be
       0.14566451 0.10819169 0.18802573 -0.20162554
000060 03 01 ca bd c7 3b 54 be 37 18 e6 be c1 eb 12 be
       -0.09863474 -0.20725928 -0.4494035 -0.14347745
000070 87 38 a7 be e3 53 81 be a6 0f 95 be d4 a8 d2 bc
       -0.32660314 -0.25259313 -0.291135 -0.02571527
000080 32 62 82 3e 2e 09 99 3d 27 e0 7c bb be 03 03 3e
       0.25465542 0.07472454 -0.0038585754 0.12794396
000090 bd 86 02 3e d1 8f bd 3e 85 90 4d be f7 29 9f bd
       0.12746711 0.37023786 -0.20074661 -0.07771676
0000a0 41 52 46 be 7c 81 9f be 6e ea 22 be f4 f4 c5 be
       -0.19367315 -0.31153476 -0.1590974 -0.38663447
0000b0 cd c9 dd 3c 9f 3a d6 3d c5 19 7f 3d 56 30 6a bd
       0.027073765 0.104604 0.062280435 -0.057175003
0000c0 5d e3 8a 3d 45 4d 12 3d 7f 25 08 3e 4e 14 a0 bd
       0.06781647 0.03571822 0.13295554 -0.07816373
0000d0 8b 18 b6 bb 3b 2e 1c be 7d 43 53 3e 76 a3 8c 3d
       -0.005557125 -0.1525201 0.20631213 0.06867115
0000e0 c9 da a1 3d 32 98 fb bd 81 f0 9e 3e a0 02 9c 3e
       0.07903058 -0.12284888 0.31042865 0.30470753
0000f0 db 86 90 3e 8b d1 80 3e 20 8c 57 3e e7 4f 96 3e
       0.28227887 0.2515987 0.21049547 0.29357836
000100 df 14 b4 bd bb ed 6a 3d d4 1e 23 be 90 e1 d8 bd
       -0.08793043 0.057355624 -0.15929729 -0.10589898
000110 74 c8 ce bd 21 9b 2f bb 5d 73 f1 be 4c 45 75 be
       -0.10096827 -0.0026795345 -0.47158328 -0.23952216
000120 a7 6a 51 be b6 6a 24 bf 78 b0 d5 be e4 f0 25 bf
       -0.20450841 -0.6422533 -0.41736197 -0.64820695
000130 e5 bf 3d bf 83 13 a0 bd 0b 86 65 be 08 e2 2a 3c
       -0.7412093 -0.078162216 -0.22414415 0.010429867
000140 df e8 b8 3d 7c 15 8e 3c 3e 18 6e bc ae fa 11 be
       0.09028792 0.017344229 -0.014532147 -0.14255783
000150 0f 00 4a 3d 1b 25 ca bd 85 2b 0c be 45 46 af bd
       0.049316462 -0.098703586 -0.13688476 -0.08558325
000160 cf 35 4d bd 2b c2 02 bf 92 8d 55 3d 43 a2 af 3c
       -0.050100144 -0.51077527 0.052136965 0.021439677
000170 c1 d6 35 bd 31 9e 52 3e 59 68 82 3d f9 60 10 bd
       -0.04439426 0.20568158 0.06367559 -0.03524873
000180 55 f2 80 3d bf d2 9f 3d 58 dc ff bd 80 f8 bb bd
       0.06296221 0.078038685 -0.12493199 -0.09178257
000190 a7 51 28 3e 02 7d bd 3d 35 8f 15 bc 73 f6 25 3e
       0.16437398 0.09252359 -0.0091283815 0.16207294
0001a0 b6 47 c8 bd c0 4a 3f 3c 08 d9 01 be fe 64 00 3e
       -0.09779303 0.011675537 -0.12680447 0.12538525
0001b0 8d 96 0f be 3c f1 98 bc 60 8f 5f 3b ab 1f 03 3d
       -0.14022274 -0.018669717 0.0034112558 0.032012623
0001c0 f2 ab e7 3d 01 7d a1 3d 64 a8 e6 bd fe 66 ad bb
       0.11312093 0.07885171 -0.11262587 -0.0052918186
0001d0 e8 97 75 3d 3e bc 47 3e df 2c 0e 3e ca 67 8d 3d
       0.059959322 0.19505402 0.13884304 0.06904562
0001e0 08 4a d4 ba 53 4b f6 bd 65 7e b8 bc b6 3f 3f 3d
       -0.001619638 -0.12026086 -0.022521207 0.04669162
0001f0 d7 95 4e 3e db a5 48 3e ec a5 c9 bd b3 5d 4d 3e
       0.20174347 0.19594519 -0.098461 0.20055275
000200 d4 b2 2d be c4 de 2a be 87 7b b2 bc f1 11 5e be
       -0.16962749 -0.16686541 -0.021787418 -0.21686532
000210 60 c2 89 be 9a b2 14 be 4b 65 31 be 62 d3 97 be
       -0.2690611 -0.14521256 -0.17323796 -0.2965346
000220 3a 8b c0 bd 87 f7 1a 3d f3 19 c7 bd 34 c2 66 3e
       -0.09401555 0.037833717 -0.09721746 0.2253502
000230 f2 e8 02 3e 71 19 f6 bd af 22 bf ba 2a b6 86 be
       0.12784174 -0.12016571 -0.001458248 -0.26310855
000240 b0 09 18 3d 7e a8 07 be e8 1a 80 bd ad c2 33 be
       0.037118614 -0.13247868 -0.06255132 -0.17554732
000250 cd 67 01 3e 2d 33 15 3e cd 15 69 3d 78 5e 25 be
       0.12637253 0.14570303 0.056905556 -0.16149318
000260 ab e9 b7 bd 3b 98 b8 3d 72 e3 7d be eb aa 32 be
       -0.089801155 0.09013411 -0.24793795 -0.17448013
000270 d6 3a 76 be 0c 4b a4 be c5 f6 34 be 8d 86 86 be
       -0.24045882 -0.32088506 -0.1767226 -0.2627453
000280 e8 9d 18 be 1f 9e 49 be b4 bd 1b 3e cb 92 04 be
       -0.14903986 -0.19689225 0.15209085 -0.12946622
000290 e2 93 cc 3d 47 a4 c0 3d ca ef 97 3b b0 70 30 be
       0.09989144 0.094063334 0.0046367394 -0.17230487
0002a0 12 dc 36 bd 42 54 44 3d 0d ab c9 3d 34 e3 09 be
       -0.04464347 0.047931917 0.098470785 -0.13465577
0002b0 a4 5b 04 3e f8 3b b6 bd 3a 29 1c bc d4 47 be 3c
       0.12925583 -0.08898157 -0.009531314 0.02322761
0002c0 6d bf fa bd 33 43 93 bd 3f e8 b5 bd 3f 65 3c be
       -0.12243543 -0.071905516 -0.08882188 -0.18397997
0002d0 59 f3 3e 3e b7 3f 73 bd 6d 73 21 be 74 a1 3b bd
       0.18647517 -0.059386935 -0.15766688 -0.04580827
0002e0 56 21 36 3e b4 43 34 3e 60 0d 2d 3d f6 4c 85 bd
       0.17786154 0.17603952 0.042249084 -0.0650882
0002f0 7f bb fd 3c 32 3e ef bd 3b e3 67 bd 6a dd 96 bc
       0.030973194 -0.11681785 -0.05661319 -0.018416125
000300 f1 d4 ae 3d 09 2c 8a be 82 a1 15 bd f2 23 2c be
       0.08536709 -0.2698672 -0.03653098 -0.16810587
000310 27 cb f1 bd b4 57 87 bc 3c 89 b9 be c8 8d 38 be
       -0.11806326 -0.016521312 -0.36237514 -0.18022835
000320 ae 71 90 3c d3 0b d7 be 7a a2 26 be 15 2b 14 be
       0.017632332 -0.4200121 -0.16272917 -0.1446956
000330 9e 40 9c be d8 a2 08 be bd 03 2b be cf e4 8b be
       -0.3051805 -0.1334337 -0.16700645 -0.27323005
000340 ad 72 a1 be a0 7e c5 3d 6d 04 8d bc 69 ed e4 bd
       -0.31532803 0.096432924 -0.017214024 -0.11178095
000350 0f 11 70 be e3 f3 fb bc fa 6c 47 3e 29 79 c0 3d
       -0.23444007 -0.030755943 0.19475165 0.093981095
000360 7b 9d 3a bd 90 18 96 be 6a 3b de bc d7 1d f1 3d
       -0.04556034 -0.29315615 -0.02712794 0.117732696
000370 3f 47 ba 3d 22 1b 75 be 8d 07 6d 3e 68 9c 5b be
       0.0909562 -0.23936132 0.23147412 -0.21446383
000380 5c f2 1a be a1 19 15 be 11 71 1e 3e 2a b2 4d 3c
       -0.15131515 -0.14560558 0.15472819 0.012554685
000390 c6 c0 90 be bd f6 0a bc 98 0d cb bc ca 29 8c be
       -0.28272074 -0.008481679 -0.024786755 -0.27375633
0003a0 22 17 c3 bd 09 34 e5 3d 68 b4 f0 bd 3a a5 cc bd
       -0.095258966 0.111915655 -0.1175316 -0.09992452
0003b0 82 00 14 be 1b a2 e3 3c 62 af 57 be a9 b1 22 3e
       -0.14453319 0.027787259 -0.21062997 0.15888084
0003c0 c8 e7 47 bd 55 e5 bd bd 5b cc ba 3a 42 61 8a bd
       -0.04880503 -0.09272257 0.0014251577 -0.06756832
0003d0 5a 8c bf 3d f2 74 48 3e e1 e4 4b be 41 33 64 be
       0.09352942 0.19575861 -0.19911529 -0.22285177
0003e0 3d a5 2d 3e 67 ea 0b be 8c 04 1e be 5a 7d 75 be
       0.16957565 -0.13663636 -0.15431422 -0.23973599
0003f0 06 14 cd bd ca 5f f2 bd de d2 e9 bd d1 f3 20 be
       -0.10013585 -0.118346766 -0.11417173 -0.15718009

nns.0.0.bias f4 [32]
000000 64 39 53 be b7 c0 e1 3d 77 ee 6b bb 7f 75 59 bd
       -0.20627362 0.110230856 -0.003600029 -0.05309057
000010 9a e6 82 3e f6 a9 8b 3c 0d 7a b6 3c ab 56 78 3e
       0.2556656 0.017048817 0.022274995 0.24251811
000020 f8 5b 31 3c e5 a6 4e be d2 b8 9c 3c ad 2f bf bd
       0.01082515 -0.20180853 0.019131098 -0.09335265
000030 54 83 98 3c 85 3d 45 3e c8 67 36 3e 15 2c 48 3e
       0.01861731 0.19261749 0.17813027 0.19548066
000040 36 f5 3b be cb 6a 38 be 70 0d 8d 3d f4 5a be 3a
       -0.1835526 -0.18009488 0.068873286 0.0014522956
000050 bb d0 8a 3e 6f 34 72 be 21 97 32 3e cc cf 52 be
       0.27112374 -0.23652814 0.17440464 -0.2058708
000060 ca 87 0f 3d 85 ce be bd cf 6c 07 be ef f4 ab 3d
       0.035041608 -0.09316734 -0.13225101 0.08396327
000070 cb 72 2d 3e a9 c0 bc 3e b4 a4 42 3e 00 62 e2 be
       0.16938321 0.36865738 0.19008142 -0.44215393

nns.0.1.weight f4 [32]
000000 52 2b 7c 3f f7 fd 88 3f 6c e8 a6 3f ed ec 7a 3f
       0.985036 1.0702504 1.303968 0.9801777
000010 80 9d 85 3f e7 37 77 3f ac d0 90 3f 86 c8 57 3f
       1.043869 0.96569675 1.1313682 0.8429035
000020 73 b7 89 3f 7e 0c 6d 3f 11 84 5d 3f 2c 40 86 3f
       1.0759109 0.92597187 0.8652964 1.0488334
000030 9d fd 59 3f c2 a2 78 3f bb 0d 6c 3f 82 fb 83 3f
       0.8515261 0.9712335 0.9220845 1.0311129
000040 6e 27 81 3f d2 52 78 3f 4b 1b 87 3f dd 5c 5e 3f
       1.0090158 0.97001374 1.0555204 0.8686045
000050 04 cb 5e 3f 5e fc 8b 3f 38 47 80 3f 09 a8 7a 3f
       0.8702853 1.0936391 1.0021734 0.9791265
000060 84 d8 8c 3f 04 d1 69 3f 54 60 7b 3f d3 89 67 3f
       1.1003575 0.9133456 0.9819386 0.9044468
000070 c3 52 7d 3f 67 41 95 3f 74 47 3f 3f 6f 65 99 3f
       0.9895441 1.1660584 0.74718404 1.198408

nns.0.1.bias f4 [32]
000000 28 96 27 3e a4 53 91 be ba 7b 34 be 50 2e 62 be
       0.16365874 -0.28384125 -0.17625323 -0.2208798
000010 0a 47 db 3d 4d 80 0e bc 51 6a ba be b6 13 62 bd
       0.10706909 -0.0086975815 -0.36409238 -0.05519458
000020 4d 3b 52 be 9d bd 3c 3d 83 bd c4 3d 9e 2d cc 3d
       -0.20530434 0.046079267 0.09606459 0.09969638
000030 97 51 0a be ac 4f cd bb 91 d5 fd bd 17 bb 7d bd
       -0.13507687 -0.006265601 -0.1239425 -0.061946
000040 c1 b7 c0 3d ca a0 87 bb 13 49 c0 be d9 fd 62 3d
       0.09410048 -0.0041390406 -0.3755575 0.05541787
000050 7c 70 f0 bd 10 28 4c be e1 d0 58 be 3d ea ea be
       -0.11740205 -0.19937158 -0.21173431 -0.45881835
000060 bc 62 10 be 66 04 00 be d5 99 f2 be f3 31 7c be
       -0.14100164 -0.12501678 -0.4738299 -0.24628429
000070 50 7e f5 3d 3d cf 49 3b 53 d1 5a be c5 51 58 3d
       0.11986983 0.003079369 -0.21368913 0.052812357

nns.0.1.running_mean f4 [32]
000000 39 b1 43 bf 9a 6f 4d 3e 18 b7 83 bf 14 bc 85 3d
       -0.76442295 0.20062104 -1.0290251 0.06530014
000010 8a f2 4b be ad c8 98 bd f8 c9 69 bf 9b fd c5 bd
       -0.1991674 -0.07460151 -0.91323805 -0.09667512
000020 24 b7 b4 3e 2e a7 1a bf 41 9e ed be 71 24 7f 3e
       0.35295975 -0.60411346 -0.464098 0.24916245
000030 3a b7 99 be bb 94 06 3e 70 5f b5 3c a5 f3 e3 be
       -0.30022603 0.13142674 0.022140235 -0.44521824
000040 83 fa be be 72 6f 1b bf a9 58 fd 3e b2 e3 39 be
       -0.373005 -0.6071693 0.49481705 -0.18153265
000050 ff d2 43 bd cc 1c 47 3a f2 48 00 3f d5 97 18 3d
       -0.047808643 0.00075955386 0.50111306 0.037254173
000060 ee cf 39 3e b2 90 94 3d f3 d1 0c 3d 2f 58 8e 3e
       0.18145725 0.07254161 0.03437991 0.27801654
000070 30 ba 29 3f f3 f3 17 bf 09 eb 59 3e 76 02 27 bf
       0.66299725 -0.5935661 0.21281065 -0.6523813

nns.0.1.running_var f4 [32]
000000 91 2f 58 42 a2 58 00 42 16 74 09 41 3a 07 18 41
       54.04645 32.086555 8.590841 9.501764
000010 00 14 54 42 ad b9 bb 40 5e 0e 42 42 42 42 97 41
       53.01953 5.8664155 48.51403 18.907352
000020 eb 21 01 42 6b d4 38 41 b0 07 6e 42 b2 d2 d1 41
       32.283123 11.55186 59.507507 26.227879
000030 4a 23 83 41 3f 81 16 40 35 cf 3b 40 90 6d e5 41
       16.392231 2.3516386 2.934522 28.678497
000040 a8 aa 9c 40 e6 44 40 41 3d e8 32 42 41 f4 04 41
       4.895832 12.016821 44.726795 8.309632
000050 b1 82 98 40 19 b1 b7 41 53 7a 8a 41 61 eb 97 41
       4.7659535 22.961473 17.309729 18.989931
000060 d6 88 0e 41 ad 56 0f 41 26 29 0d 41 bd 6f 4f 41
       8.908407 8.958661 8.822546 12.96478
000070 02 d7 b8 40 ec ae 0b 42 a3 43 25 42 89 de 38 41
       5.776246 34.920822 41.31605 11.55433

nns.0.3.weight f4 [32, 32]
000000 b5 d7 d0 3d df a0 67 be c6 1c 19 be 72 44 6f be
       0.10197393 -0.22619961 -0.14952382 -0.23365954
000010 a0 81 4d 3e 3d 57 a5 bc 38 d0 e8 bd e8 c6 01 be
       0.2006898 -0.0201832 -0.113678396 -0.12673533
000020 26 de 29 be 87 40 b0 3d 29 ce f5 3d fb 89 85 3c
       -0.16588649 0.086060576 0.120022126 0.016301146
000030 f5 cf 12 3e f3 25 c3 3c 8d 32 cf bd 36 25 71 3c
       0.14337142 0.023821807 -0.10117064 0.014718344
000040 4c aa a4 3d e8 52 d6 3d 21 f4 fd bc d4 c9 32 be
       0.08040294 0.10465032 -0.031000199 -0.17459804
000050 39 c9 e0 3d 82 dd 77 bd 8c 83 05 be d1 f2 9c bd
       0.1097588 -0.06051398 -0.13038462 -0.07663501
000060 90 74 78 be ff 8e 0e 3d c7 30 72 3d 77 b9 9f 3d
       -0.24263215 0.03480434 0.05912855 0.077990465
000070 c5 78 50 be 59 ab 8e bd 3c f8 d3 bd b8 92 ff bb
       -0.2035857 -0.06966276 -0.10350081 -0.0077994727
000080 fe 3e 26 be 94 79 4e 3d 7b 5d b3 bd 20 e0 07 3e
       -0.16234967 0.050408915 -0.08758064 0.1326909
000090 c0 09 01 be c3 7c f8 bc 57 e2 78 3e 45 42 ba bc
       -0.12601376 -0.030332929 0.24305092 -0.022736678
0000a0 3b 47 a5 3d 97 0b 42 3c be 9a 81 bd df 99 f4 bd
       0.08070227 0.011843584 -0.06328343 -0.11943411
0000b0 84 70 3c 3d 4d 1f 0e 3d 03 9d 1c 3e ce 2f 33 be
       0.04600574 0.03469782 0.1529427 -0.17498705
0000c0 15 25 44 3d 41 8b 88 3e 7d e9 8e 3d 33 0f ea 3d
       0.047886927 0.26668742 0.06978128 0.1142868
0000d0 d5 5d 06 be 1c 8b 7f bd fa 7e de bd e0 db c7 bd
       -0.13121732 -0.062388524 -0.108640626 -0.09758735
0000e0 17 db 35 3e 28 dc 7d 3e 90 45 23 3e ad 43 e5 3d
       0.17759357 0.24791014 0.15944505 0.11194549
0000f0 db 9e ec bd fe 36 f6 3c b0 36 2b bd d2 5a 46 be
       -0.11553737 0.03005552 -0.0418002 -0.19370583
000100 a8 12 22 be 1d 30 39 be f9 c1 1f 3e c9 4b 3b 3d
       -0.1582743 -0.1808476 0.15601338 0.04572657
000110 25 05 03 be 4b cb 18 3e d8 d3 43 bd 95 53 f9 3c
       -0.12794931 0.149213 -0.04780945 0.030435363
000120 6d f9 94 bd b0 44 3c 3e 3d a5 68 bc ea 3f 5e be
       -0.07274137 0.18385577 -0.014199552 -0.21704069
000130 c0 a7 31 3e 76 33 9d bd a4 f5 5f bb e5 82 7f bd
       0.17349148 -0.07675831 -0.0034173513 -0.06238069
000140 bc 5e 86 3d 89 e7 9f 3d 3f 56 19 be 93 d0 0d 3d
       0.06561038 0.07807834 -0.14974307 0.03462274
000150 28 55 aa bd 14 03 92 be af ed 69 be 44 6b bd bc
       -0.083170235 -0.28517973 -0.22844575 -0.023122437
000160 41 2e 5e bd 6a 75 29 be 6a da a5 bd 15 f3 fd bd
       -0.05424333 -0.16548696 -0.080983 -0.1239988
000170 09 d1 83 3e 9c f2 c8 3e 81 08 7e 3e 75 38 0e be
       0.2574542 0.39247596 0.24807931 -0.13888724
000180 7f d0 05 3e 7b 7a 31 3d 1f c3 7f 3e 4f 9f ad bd
       0.13067816 0.043329697 0.24976777 -0.08477651
000190 7b ff e2 3d 63 50 b7 3d c4 6d bc 3d 07 07 10 bc
       0.11083885 0.089508794 0.09200624 -0.008790738
0001a0 c2 3c 37 be 00 5f 9a 3e 23 4d 5d 3d 7e 94 aa be
       -0.17894271 0.30150604 0.05402864 -0.33316416
0001b0 94 9a f7 bc 88 b7 6c 3d 22 c4 20 3e 89 a4 12 3e
       -0.030225076 0.057792217 0.15699819 0.14320578
0001c0 b4 b4 68 3e c3 0a 6b 3d d2 41 a7 3d 8e f7 89 3c
       0.22725183 0.05738331 0.08166851 0.016841676
0001d0 3c 09 95 3d 5e a2 65 3d d1 90 23 be 9d 2e 99 bc
       0.07277152 0.05606305 -0.15973212 -0.018698985
0001e0 d5 ec b4 3c 4c ce e3 bc 77 55 45 3d 65 11 f7 bd
       0.022085587 -0.027808331 0.04817721 -0.120638646
0001f0 f0 67 1d be 9e 04 85 3e cd 9d 03 be 42 e0 0a 3d
       -0.1537168 0.25980085 -0.12853165 0.033905275
000200 e0 08 5e be e4 69 dc bd bc a9 b3 bc a3 f2 fc 3d
       -0.21683073 -0.107623845 -0.021931522 0.12350967
000210 c3 62 46 be 29 ac 74 3a 46 99 14 be 61 eb 5f bd
       -0.19373612 0.0009333515 -0.14511594 -0.054667834
000220 36 cc af 3d 8a 04 06 bd 76 e8 f2 bc a6 19 57 3d
       0.08583872 -0.032719173 -0.029651862 0.052514695
000230 ed 15 dd 3d aa 63 25 be ce d1 a7 bc 54 18 51 be
       0.10795198 -0.161513 -0.020485785 -0.20419437
000240 c7 ff 38 bd 33 20 8c bd bf aa cd 3b 38 7f d4 bd
       -0.045165803 -0.06842079 0.006276458 -0.103758276
000250 6a 1b 5f bd 58 74 04 bd 6e 68 3f be ff 24 5c be
       -0.054469503 -0.032337517 -0.1869218 -0.21498488
000260 34 e8 3c be 85 e7 93 3d 76 54 f8 bc 9a ce 1b 3d
       -0.18447953 0.07221893 -0.030313712 0.038038827
000270 fd 1d 5f be 9d 95 38 be 5e 02 1c be 10 7d 37 3e
       -0.21788783 -0.18025823 -0.15235278 0.17918801
000280 53 ae 0c be 47 5b 13 be 3b f2 d4 3d 1d c8 59 be
       -0.13738374 -0.14390288 0.10397764 -0.21267743
000290 94 cc 15 3e cc 27 cb 3c 04 0b 0c be 06 8e 00 3c
       0.14628822 0.02479925 -0.13676077 0.007846361
0002a0 21 d7 21 bc cd 21 37 be 08 d0 9e bd c4 6f 82 3c
       -0.009877951 -0.17883988 -0.077545226 0.015922435
0002b0 1b c8 12 3d 38 46 48 3d ea 4a e0 3d ec 4c 03 3e
       0.035835367 0.04889509 0.10951789 0.12822312
0002c0 dc 0e 7b bd 2a 11 ae bd 51 9c 13 be af b4 77 3d
       -0.061293468 -0.084993675 -0.14415099 0.060475048
0002d0 09 83 06 3c e2 a0 2d be 87 37 2a bd b0 40 51 be
       0.008209952 -0.16955903 -0.04155686 -0.20434833
0002e0 4c 70 f7 bd a8 a7 25 3c 7c d3 8c 3d eb c7 e4 3d
       -0.12081966 0.010110773 0.06876275 0.11170944
0002f0 fd 2b 59 be 73 6f 8a 3d 32 cb 07 be 36 83 c2 3d
       -0.21208186 0.067595385 -0.13261107 0.09497683
000300 89 6e 6c 3d 76 77 8d 3d 84 2f e7 bd ce 10 1e 3d
       0.057722602 0.06907551 -0.1128836 0.038590245
000310 03 5f 85 bd 21 a7 f6 3d 5e 9a 2c 3e 12 28 c8 3c
       -0.06512263 0.12043596 0.16855761 0.02443317
000320 2c d2 f4 3d 98 a4 c9 bd 67 56 4e bd 89 9b c1 bd
       0.119541496 -0.09845847 -0.05037537 -0.09453494
000330 ae 13 11 be ee 70 38 bd d2 b0 7e bd d0 4c 97 bd
       -0.14167663 -0.045029573 -0.062180348 -0.07387698
000340 f4 9c 6a 3e 6e 5a c6 bd c7 da bd 3d 6c f5 91 bd
       0.22911435 -0.09685217 0.09270244 -0.07126889
000350 f1 5d 92 bd 12 10 9c 3d 4a ca 76 3e 6a bd 20 3e
       -0.07146824 0.07620253 0.24100605 0.15697256
000360 9e b9 12 3e 85 d8 fe bd eb 50 50 3e a9 66 29 3c
       0.1432862 -0.124436416 0.20343368 0.0103394175
000370 7c ca 22 3d 10 b7 17 3e 59 f7 1f 3e bf 30 38 3d
       0.039743885 0.14815927 0.156217 0.044968363
000380 42 c8 6a 3e a4 a4 f0 3d 10 0c 42 be 01 41 d0 3b
       0.22927955 0.11750153 -0.18949914 0.0063554053
000390 80 9c 01 be a7 a0 ab bc 50 f1 4a be 23 d8 ae bc
       -0.12657356 -0.020950628 -0.19818616 -0.021343296
0003a0 b2 54 e1 bd 64 21 00 3e 6d f2 1d bd ca 25 0b be
       -0.110024825 0.12512738 -0.038561273 -0.13588634
0003b0 f6 d6 96 bd 5b 5d b5 3d 42 61 97 bc 1c 17 2c bd
       -0.07365219 0.08855697 -0.018478993 -0.042014226
0003c0 58 fd 8d bd d9 0c 24 3c dc 54 02 be 8e a2 c5 bd
       -0.06933087 0.010012829 -0.12727684 -0.096501455
0003d0 3c 56 f3 3d 45 98 5d be db 86 03 be b7 3d 19 be
       0.11881682 -0.21640117 -0.12844412 -0.14964949
0003e0 90 89 49 be ec 8a 09 3c 18 68 29 3e a3 e9 ed 3d
       -0.19681382 0.008394938 0.16543615 0.11616828
0003f0 fb 26 be bd b8 8f 35 be ea 44 37 3d 9b c1 ee bd
       -0.09284779 -0.17730606 0.044743456 -0.11658021

nns.0.3.bias f4 [32]
000000 34 03 8a bc a2 fa 95 be ce 47 8b be 05 db b0 bd
       -0.01684723 -0.2929278 -0.2720322 -0.08635525
000010 6a 79 8e be 87 9e 28 be 46 80 58 3e d1 9c 79 3e
       -0.27827007 -0.16466723 0.21142682 0.24376227
000020 92 96 f3 3d 55 0f a8 bd 36 92 9d 3e 16 1e b7 be
       0.118939534 -0.08206049 0.30775613 -0.3576514
000030 b9 d8 48 3e 70 c4 34 bd fe 99 12 be 6c 39 49 bd
       0.19613923 -0.04413265 -0.14316556 -0.049127027
000040 34 d5 89 3e dd 7f 5b 3e 0b 6b 44 be 12 49 95 3e
       0.26920474 0.21435495 -0.19181459 0.2915731
000050 42 ba 2c 3d ad 03 8c bd 2f 31 4c 3e f1 28 13 be
       0.042169817 -0.068366386 0.19940637 -0.14371087
000060 27 0e ba 3d bd 02 a1 3e 95 f0 d5 3c e4 54 34 3c
       0.090847306 0.31447402 0.026115695 0.011006568
000070 8b ab 98 bd d9 3c a7 bb af 96 2c 3d 88 79 92 3e
       -0.07454594 -0.005103689 0.04213589 0.28608346

nns.0.4.weight f4 [32]
000000 97 9f 63 3f 12 52 66 3f b7 3a 60 3f f7 fb 67 3f
       0.8891539 0.8996898 0.8758959 0.9061884
000010 a0 bc 5d 3f 4f 0f 78 3f 13 18 34 3f f9 d4 66 3f
       0.86615944 0.9689836 0.70349234 0.9016872
000020 fd 4e 6b 3f a7 63 53 3f 55 b2 4f 3f 74 75 5e 3f
       0.919174 0.8257393 0.8113149 0.8689797
000030 94 52 41 3f f0 b4 2c 3f 04 82 53 3f 80 b5 27 3f
       0.7551663 0.6746359 0.82620263 0.6551132
000040 b2 3e 63 3f 72 19 56 3f d4 0f 26 3f 77 45 00 3f
       0.8876754 0.83632576 0.648679 0.50105995
000050 9f ae 5e 3f a4 b8 39 3f c2 70 63 3f 3c 49 58 3f
       0.869852 0.72547364 0.8884393 0.84486747
000060 e8 5a 4e 3f 64 bc 65 3f 02 13 45 3f 6b 68 2b 3f
       0.8060746 0.89740586 0.7698213 0.66956204
000070 b9 52 1c 3f 87 7f 58 3f 18 72 4c 3f bd 0c 72 3f
       0.61063725 0.8456959 0.79861593 0.9455069

nns.0.4.bias f4 [32]
000000 84 3f 0e be d5 14 2b be a3 e5 38 bd 94 26 c6 be
       -0.13891417 -0.16707166 -0.045140874 -0.38701308
000010 e9 c3 46 be 23 72 34 be cc 7c 58 be 26 52 b8 bd
       -0.19410671 -0.17621665 -0.21141356 -0.090000436
000020 fa 15 2d be a6 b3 c4 be 88 dd a0 be ec 67 5b bc
       -0.16902915 -0.3841831 -0.31419015 -0.013391476
000030 6a 16 56 be db 0a 31 be 32 e5 2b be b1 60 b1 be
       -0.20906988 -0.17289297 -0.1678665 -0.34644082
000040 f2 3c 12 be d3 90 7a bd b7 90 43 bd aa a8 9d be
       -0.14281061 -0.06117327 -0.047745433 -0.30792743
000050 0a f8 5c be 11 48 75 be 4f 89 c0 bd 17 6a 1b be
       -0.21578994 -0.23953272 -0.094011895 -0.15177189
000060 df 31 c1 bd cc 90 81 3d 24 8e 55 be 08 93 bd be
       -0.0943334 0.06326446 -0.20855004 -0.37026238
000070 c0 6f ae be c5 48 05 be e1 81 c4 bd 3a b0 4c bd
       -0.34069633 -0.1301604 -0.09595085 -0.04997275

nns.0.4.running_mean f4 [32]
000000 68 c2 93 bd f9 8d a8 be 95 3f 8d be 3d 76 a8 3d
       -0.072148144 -0.32920817 -0.27587572 0.08225677
000010 06 5c 01 bf 68 36 86 be 0f 95 96 3e 05 c5 f5 3d
       -0.5053104 -0.26213384 0.29410598 0.12000469
000020 90 b7 c6 bb c9 14 3e bd 19 43 76 3e 16 9e 84 be
       -0.006064363 -0.04640654 0.24049033 -0.2590186
000030 b8 d7 12 bc 96 09 7a 3e 64 ee 38 be 2a 2c 08 3d
       -0.008962564 0.24417719 -0.18059689 0.033245243
000040 c1 d8 bf 3e 9a 49 80 3e 96 1d 0c be 77 b5 06 3f
       0.37470058 0.25056154 -0.13683161 0.52620643
000050 83 cc 14 3e 17 71 86 3e fc 68 50 3e b1 e8 1a be
       0.1453114 0.26258156 0.20352548 -0.15127827
000060 29 b0 0e bd a7 75 11 3f ac 9f de bc 81 8e a1 3e
       -0.03483597 0.5682015 -0.027175747 0.31554034
000070 1e 48 b7 bd f7 bc 47 be ae 81 8a 3e ba 62 23 bc
       -0.08949302 -0.19505678 0.27052063 -0.009972269

nns.0.4.running_var f4 [32]
000000 67 6c cb 3f de b2 6a 3e e6 c6 bc 3f e5 85 51 3f
       1.5892457 0.22919795 1.4748199 0.8184493
000010 3f cd e7 3e e4 1d a4 3f bf 47 94 3f 00 73 0c 3f
       0.45273778 1.2821622 1.1584395 0.54862976
000020 53 59 6d 3f 80 6e b6 3f c3 d8 a6 40 1a 17 d4 3f
       0.9271442 1.4252472 5.21396 1.656955
000030 54 e9 53 40 5f 06 04 3f a0 e5 88 3f 52 38 f7 3f
       3.3111162 0.5157222 1.0695076 1.9314063
000040 ab f1 b8 40 f1 47 83 3f ed a7 5c 3f 3a c1 db 3d
       5.7795005 1.025633 0.86193734 0.107302144
000050 0a a1 a1 3f 80 87 c2 3e 71 85 ff 3f 40 e5 04 3f
       1.262727 0.37994003 1.9962598 0.5191231
000060 87 85 7c 40 d4 2d 45 3f 7b 58 c9 3f e8 2e 52 3f
       3.9456499 0.77023053 1.5730127 0.82102823
000070 cf 25 1a 40 ea 58 09 40 5e 06 1f 3f a1 fe fb 3f
       2.4085577 2.146052 0.6211909 1.9687082

nns.1.0.weight f4 [32, 32]
000000 26 69 1c 3e 26 b0 2a 3e 6c 16 9b bd bb 5d 95 3d
       0.15274486 0.16668758 -0.07572636 0.07293268
000010 2f a4 09 bd d8 ca d3 bc 7f fe a0 3d 6c d5 99 3d
       -0.033603843 -0.02585356 0.07861041 0.0751141
000020 a3 8c 2f bd 0e 8f 6e 3e 07 e9 b6 3e cb 54 99 3c
       -0.04285873 0.23296759 0.3572466 0.01871719
000030 15 44 30 3b 84 03 41 3d 41 9d d4 3c c6 ac 6b 3e
       0.0026896049 0.047122493 0.02595389 0.23015127
000040 80 6c fd 3d c8 d5 64 3e c6 8c db 3d 66 1b 14 bd
       0.1237421 0.22347176 0.1072021 -0.03615894
000050 c6 f4 7d bc ec de c2 3e 8a 2b 8e 3d c5 c4 d0 3c
       -0.015500253 0.380607 0.06941898 0.025484452
000060 55 58 87 be 9b d5 ed 3d 61 65 1c 3e 71 d7 9b 3e
       -0.2643458 0.11613008 0.15273048 0.30437806
000070 d0 ec ff 3c 65 c7 d9 3d 69 10 d9 3c f6 d4 ea 3d
       0.03124085 0.106337346 0.026497083 0.114664
000080 26 f1 01 3e 1a fd c2 3d d2 d1 70 3e 7c 68 35 3e
       0.12689647 0.095209315 0.2351754 0.17715639
000090 c1 95 59 be ca 70 ab 3d 0f 04 b5 3d ac 37 bc 3d
       -0.21248533 0.08371122 0.08838665 0.09190306
0000a0 9f e8 b6 bd 23 08 d4 bd 61 94 03 be 68 91 a8 3e
       -0.08931088 -0.103531145 -0.12849571 0.32923436
0000b0 65 7b f8 bd 65 9d 96 be 87 9f 26 be b0 9f 07 3e
       -0.12132911 -0.29416957 -0.16271792 0.1324451
0000c0 0b 59 25 bd 7d 97 93 3d e4 43 cb bc d0 e4 32 be
       -0.04036812 0.072066285 -0.024812646 -0.17470098
0000d0 11 87 dc bc 69 0d 51 be 51 26 6e bd bc 1f 2f bd
       -0.026919873 -0.20415272 -0.05814201 -0.042754874
0000e0 ee fc 87 3d 2c 85 39 be 08 7c 00 be f5 e9 cd bd
       0.066400394 -0.18117207 -0.12547314 -0.100543894
0000f0 6b 42 61 be d7 d2 ef 3d 55 ad b7 3d de de ff 3d
       -0.21997993 0.117101364 0.08968607 0.124936804
000100 86 1b e7 bc 70 a9 21 3e e5 30 21 3d c2 80 9b 3e
       -0.028211366 0.15787292 0.03935327 0.30371672
000110 95 41 7c be af a3 07 be ee e9 3e bd 41 a3 28 be
       -0.24634393 -0.13246034 -0.04660981 -0.16468526
000120 b8 13 8f bd ca c9 12 3c 7f 3b bb 3e 54 8e 41 be
       -0.06986183 0.008959243 0.3656883 -0.1890195
000130 b6 79 56 3d 5a 67 77 3e 1e e7 3f 3e fb 17 31 3d
       0.052362166 0.24160519 0.18740508 0.04323576
000140 be 03 03 3e 58 03 8f bc e8 2c 20 bd 3a ef b4 3d
       0.12794396 -0.01745765 -0.039105326 0.08834691
000150 d9 48 a1 3e 27 53 35 3e 63 64 4c be 46 f9 a0 bc
       0.3150089 0.17707501 -0.1996017 -0.019650113
000160 dc 3a 2a be c4 b0 36 3c f4 c7 db 3c 5f 0f 35 3e
       -0.16624016 0.011150543 0.026828744 0.17681645
000170 2b 1b 5d 3e f8 3d 89 bc 5d b4 32 3e 6e 67 1a 3e
       0.21592395 -0.016753182 0.17451616 0.15078518
000180 6d 93 58 bc a0 ae 27 3e c1 3d c5 bc e8 4f 1f bd
       -0.013218743 0.16375208 -0.024077298 -0.038894564
000190 6f 20 c5 bd 93 d8 88 3d aa f3 35 3e 9f bf c1 3d
       -0.09625327 0.06681933 0.17768732 0.09460377
0001a0 eb 2b 45 3d aa 75 11 3e 31 42 53 3e c2 ac df 3c
       0.048137587 0.14205042 0.20630719 0.027304057
0001b0 0b 87 11 be 34 c1 14 3e 7e b8 12 bd dc b2 52 3e
       -0.14211671 0.14526826 -0.035820477 0.20576042
0001c0 ab 37 7e bc d3 d8 0a 3e 69 8b 93 3d 02 87 da bc
       -0.015516202 0.13559274 0.07204325 -0.026675705
0001d0 59 12 60 3e 79 ea 30 3e 5e dc c2 3d 00 45 de 3d
       0.21881999 0.17276944 0.09514688 0.108530045
0001e0 47 68 d8 bd c6 93 90 3d 78 f8 30 3d 00 84 ea bc
       -0.10566764 0.070594355 0.04320571 -0.028627396
0001f0 23 a6 7a bd d6 b6 4b 3e 86 a0 4c 3e 6b 85 3d bd
       -0.061193597 0.19893965 0.1998311 -0.046269815
000200 f3 23 0f 3e 09 ef f7 bd 42 f4 e2 bd 71 ca ba 3d
       0.13978557 -0.12106139 -0.11081745 0.09120644
000210 49 f2 c6 3d c0 68 82 bc 87 ed 90 bd 86 f3 16 be
       0.09714181 -0.01591909 -0.07076555 -0.14741334
000220 3f 68 4e be 8f a4 6c bd 31 79 ee 3d 73 fb 82 bc
       -0.20156954 -0.057774123 0.11644209 -0.015989041
000230 90 92 4c 3e 4b b9 9d 3d 8d 3b 9e 3d d0 55 3f be
       0.19977784 0.077013575 0.07726202 -0.18685079
000240 fa 17 2a be c7 7b 36 3e ef cc ce bc d5 b8 72 3d
       -0.16610709 0.17820655 -0.025244204 0.0592583
000250 b5 16 7f be a4 a8 05 be bf b4 c6 3b 9c 25 80 3c
       -0.24911006 -0.13052613 0.006064027 0.015642934
000260 68 4c 85 bd fe 81 ee bd 6f f7 f4 3d d4 04 d3 bd
       -0.06508714 -0.11645888 0.11961257 -0.10303655
000270 85 17 3e be 03 64 14 3d 3b c9 2a be 22 fc 1f b9
       -0.1856366 0.03622819 -0.16678326 -0.00015257348
000280 69 61 03 be 00 b9 0a 3e 04 bf 44 be e6 7d f7 3d
       -0.12830128 0.13547134 -0.19213492 0.1208456
000290 92 cd af bc d5 6d c6 bd be 18 b1 bd de 8f 7d be
       -0.021460328 -0.096889175 -0.08647297 -0.24761912
0002a0 a6 44 dd 3d e2 80 f1 3c 80 e5 50 3e 04 ec c4 be
       0.10804109 0.029480401 0.20400047 -0.38461316
0002b0 e0 b4 6e bc 93 e5 ef 3d 90 02 a7 3c 80 f7 ee 3d
       -0.014569491 0.1171371 0.020386964 0.11668301
0002c0 3d 52 a6 3d 39 79 3f bc 14 d0 e8 bd 7c 51 9e 3d
       0.081211545 -0.011686617 -0.11367813 0.07730386
0002d0 02 e7 02 3e 0b 41 4b 3e 8c 69 95 3e 5d de be 3d
       0.12783435 0.1984903 0.29182088 0.09319756
0002e0 ee 40 c0 bd 24 e1 c7 3d 3c 14 5b 3e b8 35 40 3e
       -0.09387384 0.09759739 0.21394438 0.18770492
0002f0 24 3d 01 3c 2a c2 a2 3d d7 ac ed bc ee 48 4e bb
       0.007888112 0.0794719 -0.02901308 -0.0031476575
000300 f4 bb c1 bd 48 70 be bd 40 6e ce be 93 8d bb 3c
       -0.09459677 -0.0929876 -0.4031849 0.022894656
000310 50 50 90 bc f1 08 4f be f0 6d db bd 99 e2 dc 3d
       -0.017616421 -0.20218255 -0.10714328 0.107854076
000320 12 fb a9 3c 25 27 a8 be 58 9c 8e 3d be 52 41 be
       0.020749602 -0.32842365 0.06963414 -0.1887922
000330 5b 7a 04 3e 1e bf 2e bd 46 f7 b7 bd e9 5c 83 bb
       0.129373 -0.042662732 -0.089827105 -0.0040088785
000340 55 d3 67 bd 8c 24 d9 bd 04 2a bf be 10 70 85 bd
       -0.056598026 -0.10602674 -0.37336743 -0.06515515
000350 92 8b a5 be fd 46 08 be 2e 73 4a be 86 77 56 3d
       -0.32333046 -0.1330833 -0.197705 0.05236008
000360 f2 ea a7 bd 7a ed c3 be b5 9d e5 bc b7 55 35 be
       -0.08199109 -0.38267118 -0.028029302 -0.17708479
000370 05 a4 1e be 5b 11 86 bd d0 4b 49 bd ed 8d 36 bd
       -0.15492256 -0.06546279 -0.049144566 -0.044568945
000380 3a 3b c2 3c 30 c7 47 be ab 69 eb bd 69 c6 62 be
       0.023709882 -0.19509578 -0.11494764 -0.22146
000390 74 1f 4b 3d f0 6f cf bd ce 94 e1 37 ad ac a8 bd
       0.049590543 -0.10128772 2.6891383e-05 -0.0823606
0003a0 81 ce 27 be 1e 9b 62 be da 1a b3 3d 57 89 ad 3d
       -0.16387369 -0.22129485 0.08745356 0.08473461
0003b0 3d 11 30 be d1 63 0b be 1b 81 db 3d d6 c9 73 be
       -0.17194076 -0.13612296 0.10717984 -0.23807463
0003c0 03 3b 70 bc 95 2a 18 be d6 02 08 be c6 c6 e0 3d
       -0.014662507 -0.14859994 -0.13282332 0.10975413
0003d0 d5 23 0e be ee c0 a0 3c 6c 1b 6a be b7 34 b7 bc
       -0.13880856 0.019623246 -0.22862023 -0.022364004
0003e0 de 96 a4 bd 6c 58 13 be 02 fa 9d bd 64 0f 6c 3d
       -0.08036588 -0.14389199 -0.07713701 0.057631865
0003f0 df 11 8e 3d e8 9c c2 3d f5 e1 3c 3d a3 64 57 be
       0.069370024 0.09502584 0.046113927 -0.21034484

nns.1.0.bias f4 [32]
000000 4b 9b 44 bc e0 e5 5d be a5 fa ac bd ad 04 80 bd
       -0.011999915 -0.21669722 -0.08446244 -0.06250892
000010 16 51 3d be 0e d5 2a 3e 38 95 7f bd 03 c8 2e 3d
       -0.18487963 0.16682836 -0.062398165 0.042671215
000020 36 1a 21 be 48 a8 9d 3e c6 85 24 be 78 5f 2d 3e
       -0.15732655 0.3079245 -0.16066656 0.1693095
000030 18 34 d0 3e 16 3b 96 bd f2 43 88 bd a7 94 8d 3d
       0.40664744 -0.073354885 -0.066535845 0.06913119
000040 6f 59 e6 bd cd 16 36 3d 73 20 f7 3d 6d ab 42 3d
       -0.11247527 0.04445534 0.12066736 0.047526766
000050 df 11 be bd 6e 4e df 3d e6 a5 73 3d 6f 7a 94 3d
       -0.092807524 0.10903631 0.059484385 0.07249915
000060 7a 85 d2 bd 78 63 17 be d1 e8 be 3d 9c 65 20 3e
       -0.10279365 -0.14784038 0.0932175 0.15663761
000070 f7 06 15 bd e2 d9 96 bd b4 d1 1c bd a2 e9 23 3e
       -0.036383595 -0.073657766 -0.038285926 0.16007093

nns.1.1.weight f4 [32]
000000 fd 9d 90 3f c2 43 72 3f d1 a2 8a 3f 38 fb 8c 3f
       1.1298214 0.9463464 1.0830938 1.1014166
000010 10 f9 75 3f 5a d0 88 3f c8 72 86 3f ce cf 81 3f
       0.96083164 1.0688584 1.0503778 1.0141542
000020 00 cb 64 3f 2d 5b 85 3f b5 c5 5f 3f 53 41 71 3f
       0.89372253 1.041845 0.8741105 0.942403
000030 7c d1 71 3f 40 76 77 3f 18 a2 78 3f 98 be 87 3f
       0.9446027 0.9666481 0.97122335 1.060504
000040 01 d9 4a 3f b0 be 78 3f 3f fa 66 3f b0 95 68 3f
       0.7923737 0.97165966 0.90225595 0.90853405
000050 e0 e5 71 3f 9c 20 6f 3f 96 9b 82 3f f2 f1 68 3f
       0.94491386 0.9340913 1.0203731 0.9099418
000060 35 6c 8c 3f 1e 6c 59 3f 7d ad 78 3f 21 81 6f 3f
       1.0970522 0.849306 0.9713972 0.9355641
000070 26 cf 66 3f f2 e3 71 3f db f8 8c 3f 88 ec 7d 3f
       0.90159833 0.9448844 1.1013445 0.99189043
