result/experiment_07.11.2022_19.19.59/108/fold_4_state_dict.pt (torch, 59548 bytes, 92 tensors)

first_h.0.weight f4 [32, 3]
00000000: 2c9c 02bf 983d b1bd e196 023f 23c8 2abf
00000010: db5c 11bc 7d8d b63e d3f3 9b3e e006 2340
00000020: a49a 8c40 77a9 663e 7e90 2e3f d408 813f
00000030: 8834 e5be 0f57 91be 4260 a43d 1006 e2bd
00000040: 0062 ef3f 908d 3d40 6527 813e 8702 bc3f
00000050: b1a9 a33f 686f 87be cee6 3f40 282a 3f40
00000060: 9d0e e33e 9480 dc3e d1ac 123f baa9 f8bd
00000070: f475 e5be 9dda 7e3d 117d a53e d78b 2440
00000080: 4600 2e40 37a8 89be 4c20 c73e e39c 09bf
00000090: 7506 a1be 12f3 5e3f 9f38 5e3f f45e 76be
000000a0: 0418 323f 2da5 e13f 1dda 633d 8f79 cebe
000000b0: f6da d2be 4d82 aa3e 1c83 3440 fffa 2140
000000c0: 35f6 9f3e 6fe1 303f 8331 1b3f 7b4e 9bbe
000000d0: 64ad 0a40 45e2 db3f a857 5cbd 772e fa3d
000000e0: bc1d babe 1b83 96bd 5edb b73e f6e6 41bd
000000f0: 7941 4e3f 37d4 cd3e 9b2c 493e 925d dcbe
00000100: 45bb 453e 3504 7a3e 9a2a 1bbf af3d 2d3d
00000110: 0e25 77be bcdc 9e3e ebfd ae3f d319 223e
00000120: f609 36be 6abb 4b40 1bc8 4940 fcc6 6cbe
00000130: 5767 c0be 9d8e bdbe f5f9 97be 7de4 4940
00000140: dfe5 2840 acf3 cabe 82f8 c4be d57f e4be
00000150: de87 78be 81f2 3140 efc3 3f40 b32d 80bd
00000160: 42da 1ebf 100b a2bc 6a1a 1bbf 3701 8dbd
00000170: 628c 40be 225c 0dbe ec43 6a3e e0e8 f13e
-0.5101955 -0.08654326 0.5101147 -0.66711634 -0.008872236 0.35654822 0.3045946 2.5472946
4.393877 0.22525583 0.6818923 1.0080819 -0.4476664 -0.28386733 0.08026172 -0.110363126
1.8701782 2.9617653 0.25225368 1.4688271 1.2786161 -0.26452184 2.9984622 2.986948
0.44347087 0.43066847 0.57294947 -0.12141748 -0.44816554 0.062220205 0.3232198 2.5710351
2.7187667 -0.2688615 0.38891828 -0.53755015 -0.3145024 0.87089646 0.86805147 -0.24059659
0.69567895 1.7628533 0.05562793 -0.40327117 -0.4118268 0.33302537 2.8205023 2.5309446
0.3124253 0.69093984 0.60622424 -0.30333313 2.166833 1.7178427 -0.053794533 0.12215894
-0.3635081 -0.07349225 0.3590955 -0.047339402 0.80568653 0.4020097 0.19645922 -0.43040138
0.19309719 0.24415667 -0.6061188 0.042295154 -0.24135229 0.31027782 1.367124 0.15830164
-0.17777237 3.1833138 3.1528385 -0.23122782 -0.37578842 -0.37022868 -0.2968289 3.1545708
2.6390302 -0.39639032 -0.38470846 -0.44628778 -0.24270579 2.7804263 2.9963338 -0.062587164
-0.62051785 -0.019780666 -0.6058718 -0.06884997 -0.18803552 -0.13804677 0.22877473 0.47247982

first_h.0.bias f4 [32]
00000000: 3b07 f33e 82c9 a0be d87d c03e 564a c03e
00000010: 6451 6d3e fb2a 0c3f cb2c 3c3d 9c1d 8ebd
00000020: 252d a7be cc9a 03be ac16 523e beb3 d0be
00000030: 893f f43d d0b8 1fbe 63fb ecbe 8e94 90bd
00000040: bf71 63be e8ee 033f 24b9 8dbe 205b 103f
00000050: 4419 aa3e 80c2 103f 4d1c 13bb 98c1 9abc
00000060: 454d fbbe 82d3 643e 104e bf3e d18f 5abd
00000070: 759d 96bc f51c 26bd 05c6 993e 201a abbe
0.47466454 -0.31403738 0.3759601 0.37556714 0.2317558 0.54753083 0.045941155 -0.06939241
-0.3265163 -0.12852019 0.20516461 -0.40762132 0.11926181 -0.15597844 -0.46285543 -0.070595846
-0.2221136 0.51536417 -0.27680314 0.56389046 0.332224 0.56546783 -0.0022447289 -0.01889114
-0.4908239 0.22346309 0.37364244 -0.05335981 -0.018385628 -0.04055496 0.3003389 -0.3341837

first_h.1.weight f4 [32]
00000000: 8fe7 8d3f 2e74 c73f 3ef3 a73f 2ee2 a13f
00000010: e8bd 823f 7018 9f3f 59ae cc3f 8391 913f
00000020: 4b17 be3f 6755 5a3f 5627 7b3f 1f0f 873f
00000030: 48ee a23f d0ac a63f 2a81 2a3d c919 aa3f
00000040: c34d a93f 135c 7b3f 78eb 8a3f 6c04 513f
00000050: b3a2 ab3f ae54 623f f853 923f bfa9 b43f
00000060: 0c6d b93f 336f 883f a2d4 953f c353 8b3f
00000070: 27b8 833f 38f3 853f 9d85 b23f 5505 5e3f
1.1086291 1.558233 1.3121107 1.264715 1.0214205 1.2429333 1.5990707 1.1372532
1.4850858 0.85286564 0.98106897 1.055149 1.2728968 1.3021488 0.041627087 1.3289119
1.3226856 0.9818737 1.0853109 0.8164737 1.3409027 0.8841046 1.1431875 1.4114302
1.4486403 1.0658935 1.1705515 1.0884937 1.0290574 1.046485 1.3947026 0.86726886

first_h.1.bias f4 [32]
00000000: f3f1 24bf 9860 f6bc fbe0 223f 9591 35be
00000010: c023 13bf be21 483e 86bd 28be c50d 57be
00000020: 18f4 2fbe d4ff 08bf d8f3 0cbe 799b 0ebf
00000030: c160 2f3e 65f9 f93c 6a09 dbbe 4224 65be
00000040: 4dda 17be 9889 acbe e619 13bf 9d66 fabe
00000050: d8f2 1dbe 4aa9 08bf 10ce 25bf a709 42be
00000060: beda af3d 0b4b 11bf 30cd f03c b008 1cbf
00000070: c9b7 b5be c7ac 13bf 4a1f f7be 7928 04bf
-0.64431685 -0.030075356 0.6362454 -0.17731316 -0.57476425 0.19544122 -0.16478547 -0.21001346
-0.17182958 -0.5351536 -0.13764894 -0.5570598 0.17126752 0.030514428 -0.4278062 -0.22377113
-0.14829369 -0.33698726 -0.5746139 -0.48906413 -0.15424669 -0.53383315 -0.6476755 -0.18948995
0.08586644 -0.5675513 0.029394716 -0.60950756 -0.3549178 -0.5768551 -0.4826606 -0.51624256

first_h.1.running_mean f4 [32]
00000000: 470b 1fc9 4ac4 51c9 8319 be48 79ba a548
00000010: 9b8d 0bc9 5ff3 2bc8 e65c 9e48 09c0 a5c8
00000020: 3e19 1049 5967 17c8 098d c948 8da0 a7c8
00000030: ab1e c4c8 9f4a 97c8 86b6 8a47 e5d8 cf48
00000040: a9de c448 b5f5 bcc8 5b29 86c7 d245 b7c7
00000050: 45fe 7d49 602b 06c9 b6f2 3cc9 a977 c148
00000060: a0ba 67c8 a12a 90c8 ff05 bbc8 f723 f7c8
00000070: 1c4b 97c8 d918 9cc7 4b29 3dc9 fe20 2cc8
-651444.44 -859204.6 389324.1 339411.78 -571609.7 -176077.48 324327.2 -339456.28
590227.9 -155037.39 412776.28 -343300.4 -401653.34 -309844.97 71021.05 425671.16
403189.28 -386989.66 -68690.71 -93835.64 1.0403563e+06 -549558.0 -773931.4 396221.28
-237290.5 -295253.03 -383023.97 -506143.72 -309848.88 -79921.695 -774804.7 -176259.97

first_h.1.running_var f4 [32]
00000000: 1230 5055 b851 b555 aaaf 9454 6311 6754
00000010: c848 2055 b7fb 7e53 7d89 4e54 6466 6254
00000020: b3ad 2b55 3fa7 3c53 6d20 a754 5d42 6754
00000030: 154d 9e54 03b7 3c54 4c66 1e52 40c1 b154
00000040: a4ad 9f54 80f2 9254 dc20 1452 e83b 8a52
00000050: 8be2 0456 cd28 1455 57ea 9255 5004 9a54
00000060: 0823 df53 b30c 2b54 d14b 9054 8156 fb54
00000070: 2f71 3c54 2282 4852 b746 9355 29de 7353
1.4306555e+13 2.4920323e+13 5.1088185e+12 3.9697166e+12 1.1014653e+13 1.0951448e+12 3.5482797e+12 3.8895218e+12
1.1797658e+13 8.102598e+11 5.7424284e+12 3.9730033e+12 5.4391844e+12 3.242097e+12 1.7008027e+11 6.1076113e+12
5.486504e+12 5.0490696e+12 1.5905161e+11 2.9685527e+11 3.6527132e+13 1.0181435e+13 2.0191897e+13 5.2919785e+12
1.9167309e+12 2.9386099e+12 4.957978e+12 8.6359047e+12 3.237411e+12 2.1529418e+11 2.024149e+13 1.0474043e+12

first_h.3.weight f4 [32, 32]
00000000: 2ed4 483e a47b 743e 45b5 533e d68e 893e
00000010: f919 143d 10de 103e a51c 1d3e 8444 363d
00000020: 4267 a93d 80e1 1f3e 93bc 16bc f89b 243d
00000030: 4edc c93d aa98 a73e 9174 893e 3627 1c3e
00000040: e531 9d37 f985 8d3d 640b 823e 55dd 483e
00000050: f7ca 173e 67e5 fa3d 142b 703e c477 843e
00000060: fd13 bf3c 15d4 0e3e 17cb f8bd 927f fc3d
00000070: 0806 933e 4c59 833e 1c50 3d3e 30e6 383e
00000080: a261 91be a808 00be 7607 febe a070 6ebe
00000090: 020e f0be 8c40 0dbe 368f cebe 4bd2 23be
000000a0: 2948 efbe 80d9 95be f86d e2bd 3aa8 e0be
000000b0: 7125 94be cda9 75be 1be2 9cbd dcc8 d1bd
000000c0: 5209 0ebe 6740 80be fede 04bf 02c8 cdbd
000000d0: 4962 34be 0cdd 5fbe 167b 15bf 3e35 2dbe
000000e0: 744e 98bd e5b6 11bf 1ef8 2bbd 2ae8 09bf
000000f0: a39c f7bd 1d46 e7be fcfe 00bf 8ff8 0cbf
00000100: 0066 a9be 0899 cbbe c9c5 633e 10be 863e
00000110: b4a1 9fbe 6667 4a3e 7a72 433e 177b 1d3e
00000120: c1ad 893e c2e9 d1be 8496 d13e 1ed1 9ebe
00000130: a240 5e3e a9e6 98be 43bb 7a3e 364b 7d3e
00000140: 2d8c 3b3e 4199 c73e cf5b 02bf 481b a9be
00000150: 47a7 7b3d 2517 5ebe 359b 69be ee2e cb3d
00000160: 785e f63e 8ea9 92be 5df8 66be ba12 84be
00000170: 4d4d 3f3e 9114 5fbe 20c4 04bf ebfa 01bf
00000180: 34e7 023f 2b7c d23e 53c5 b0bd 41b9 b73d
00000190: 317e bc3e f862 143e 4385 3c3b 075d 4c3e
000001a0: d83e c43d 6fb2 d93e d0ef 94bc 6aee 003f
000001b0: 009d ad3c 4982 233f c544 32be 6516 cc3c
000001c0: ce8d 393e f540 613e 788b 9f3e eba3 723d
000001d0: a7d3 29bc c7e1 993e e38a b13e 0e7c 523d
000001e0: ae75 db3c 33d7 b93e 6a11 b9bd 3c6e d13e
000001f0: e775 dd3d c4e9 f13e 7e0c 283f a710 643e
00000200: a339 a73d 3c4c fbbc 621f 09bd 2c18 efbd
00000210: 55b9 89bd a776 5f3d 58b2 c1bd c5d1 073d
00000220: 3499 eabd 9f48 09be 0b2f a93b 44af 23bd
00000230: 2933 08be 4009 293e 8b17 d7bd 3a4d 73be
00000240: 0ee1 3dbe d43c adbd c32a 3fbe b71d d43c
00000250: 0281 7dbd 6c2a 08be aba5 ea3d 73fb 37bd
00000260: 769d f6bd 44ea 2e3e 9c4a 4dbd 83e6 973d
00000270: 9e4d 533d b49f cc3d aa9e a43c ef96 bf3d
00000280: 64fa ecbc 7d36 05bf 5933 b13f fdc3 1d3f
00000290: 3360 79bd 944d 51be 8715 5e3f 1143 123f
000002a0: ba34 063f 8c0d fc3b 1521 123f 49d0 703b
000002b0: a8c8 693e 815c 19bf 1ade da3c 36b1 673f
000002c0: 2be9 5d3f 5625 76bd aff4 453d 625b 1bbe
000002d0: d505 813f bfa8 34be 6f03 3cbd 2393 813f
000002e0: c84f 413f 209b 09bd 6400 533e 7cdc f83b
000002f0: a770 293f da26 75bc 9d11 8cbe 30da 5cbd
00000300: e68a 4bbe aab9 29be d1a7 343e 7db8 1fbd
00000310: 99d1 28be 8118 0d3e f9b6 af3d 3f68 963d
00000320: def9 6b3e d275 8ebd c06f 5a3e f025 733c
00000330: 6fef 983d c2d6 67be ebee 6bbd fe88 313e
00000340: 6f09 ac3d 7abe 7fbc 996d 80bd 11e9 7f3e
00000350: aa55 1abd 6879 4cbd 8739 c3bc 1014 173d
00000360: d5d9 dabb 80d1 473d a64a 8cbd 5ebe 2dbe
00000370: d023 ca3d cff5 e83c df00 183b 2e88 27be
00000380: 9efe adbd d4fc 9d3e e40e 8abf 0d0b 4cbf
00000390: 100e 63bd b500 33bf 705b 32bf d462 8d3c
000003a0: c87f 7abf 8761 efbd d7cf 2ebd 6dfd c0bd
000003b0: 4a6b 3bbf e5e9 9d3e 731e b5be c27f ddbe
000003c0: dc2d 6bbf 8f4b 003e 6fcc 953d 08d3 a13d
000003d0: 7306 a2bf 1af7 2bbe 62c6 24be cf88 83bf
000003e0: b565 1cbe 2e59 0f3d 4c8b f2bd ad3a 3ebd
000003f0: 5ccc 2bbe 5dca 0cbe 06f1 a33e 5b81 18be
0.1961219 0.2387529 0.20674618 0.26866788 0.036157582 0.1414721 0.15342958 0.044498935
0.08271648 0.15613365 -0.009200233 0.040187806 0.09856473 0.3273366 0.26846746 0.15249333
1.8739092e-05 0.06910319 0.25399315 0.19615681 0.14823519 0.12250786 0.23453933 0.25872624
0.02332496 0.1394809 -0.12148111 0.123290196 0.2871554 0.25654066 0.1848759 0.1805656
-0.283948 -0.12503302 -0.49615067 -0.2328515 -0.46885687 -0.13794154 -0.40343636 -0.15998189
-0.4673474 -0.29267502 -0.11056131 -0.43878347 -0.28934816 -0.23990555 -0.07660314 -0.10243389
-0.13870743 -0.25049135 -0.5190276 -0.10047914 -0.17615618 -0.21861666 -0.5839094 -0.16914842
-0.07436839 -0.569197 -0.04198467 -0.5386988 -0.12090423 -0.4517068 -0.50389075 -0.5506677
-0.33085632 -0.3976519 0.22243418 0.2631688 -0.31178057 0.19766006 0.19086638 0.15378986
0.26890376 -0.40998656 0.40935147 -0.3101892 0.21704343 -0.2986348 0.24485497 0.24735722
0.18315192 0.3898411 -0.5092134 -0.33028626 0.061438825 -0.21688516 -0.22813113 0.099210605
0.4811895 -0.28644985 -0.2255568 -0.25795537 0.18681832 -0.21785189 -0.51861763 -0.50773495
0.5113404 0.41110358 -0.086313866 0.08970881 0.36815026 0.14490879 0.0028765954 0.19957362
0.09582299 0.42518947 -0.018180758 0.5036379 0.021193027 0.63870674 -0.17409046 0.024913022
0.181205 0.21997435 0.31161094 0.059238356 -0.010365403 0.30055067 0.34676275 0.05138784
0.026789512 0.36296996 -0.090365246 0.40904415 0.10813504 0.47248662 0.6564406 0.22271977
0.0816529 -0.030676 -0.033477195 -0.11674532 -0.067248024 0.054556515 -0.094578445 0.033159036
-0.114550024 -0.13406609 0.0051630787 -0.03996207 -0.13300766 0.16507435 -0.10502537 -0.23759928
-0.18542883 -0.08458868 -0.18668656 0.025893075 -0.06189061 -0.13297433 0.1145738 -0.044917535
-0.12041752 0.17081553 -0.05011998 0.074170135 0.051587693 0.099913985 0.020095188 0.0935496
-0.02892799 -0.5203627 1.3843795 0.6162718 -0.06088276 -0.2043975 0.867516 0.57133585
0.52424204 0.0076920446 0.5708173 0.0036745241 0.2283045 -0.59906775 0.026717234 0.9050478
0.8668391 -0.0600942 0.04832905 -0.15171579 1.0079905 -0.17642497 -0.045901712 1.0123028
0.7551236 -0.033595204 0.20605618 0.007594643 0.6618752 -0.014962876 -0.27357188 -0.053919017
-0.19877204 -0.16574731 0.17642142 -0.0389943 -0.16486205 0.13778879 0.08579821 0.07344102
0.23044536 -0.06956066 0.21331692 0.014840588 0.07467543 -0.22640517 -0.057600897 0.17337415
0.08400237 -0.015609378 -0.06270904 0.24991252 -0.037679352 -0.04992047 -0.023831142 0.036884367
-0.0066787996 0.04878378 -0.068501756 -0.1696715 0.09870112 0.028437523 0.0023193879 -0.16360542
-0.0849583 0.30856955 -1.0785794 -0.7970436 -0.055433333 -0.69922954 -0.6967077 0.017259039
-0.9785123 -0.11688524 -0.04267868 -0.09423337 -0.73210585 0.3084251 -0.35374793 -0.43261534
-0.9186685 0.12528823 0.07314383 0.07901579 -1.2658218 -0.1679348 -0.16091302 -1.0276126
-0.15273173 0.034997158 -0.11842975 -0.046442676 -0.16777176 -0.1374907 0.32019824 -0.14893095

first_h.3.bias f4 [32]
00000000: f7ae 713e 80d3 91be ab1b ec3d 45ba 343d
00000010: 5298 ff3d cc96 d5bb e5be 2cbd 3aa4 82bc
00000020: 5d75 bcbd f858 24be 2975 98be c05e 9bbd
00000030: 8730 0b3d 7a15 103d e1d2 963d 8911 d23e
00000040: b0c7 203e e4e2 02be 7af5 ac3e d158 3bbe
00000050: 20ce cbbd 66a4 11bf ae95 16bd 2e84 2f3e
00000060: da16 333e 13ac 69be add1 903d 5f19 98bc
00000070: 7220 56be f926 a23b e1c3 7c3d ef21 88bc
0.236019 -0.28481674 0.11528715 0.044122953 0.12480225 -0.0065182205 -0.04217424 -0.01594745
-0.09202073 -0.16049564 -0.29776886 -0.075864315 0.033981826 0.03517673 0.07364441 0.41029003
0.15701175 -0.12781864 0.33781034 -0.182956 -0.099514246 -0.5689148 -0.03676384 0.17140266
0.17489186 -0.22819547 0.070712425 -0.018566785 -0.20910814 0.0049484936 0.061710242 -0.016617743

first_h.4.weight f4 [32]
00000000: e7b2 a03b 569b de3e b501 18bb a4a1 653e
00000010: 3ac3 133f 3d35 053f b9dc fc3a 75c6 3c3f
00000020: 62da 47bd 36fe 61be ba50 6a3f d83a 2a3f
00000030: 7b8b 7d3c 14cf ca3c 22b6 423e 95ad 7e3f
00000040: ec03 4db9 1b1f b2bc 736d 513f d303 b43c
00000050: 41cf ce3b a965 783b 2a4f 973c ccd3 c23c
00000060: 5f84 c4bc fc5f f73e 8d69 a73c b163 433c
00000070: ea34 403e c168 0e3f e31d 333f 7d6b c03c
0.0049041393 0.43477887 -0.0023194377 0.22424942 0.5771977 0.5203436 0.0019291855 0.7374032
-0.04879225 -0.2206963 0.9152943 0.6649604 0.015475149 0.024756946 0.1901479 0.99483615
-0.00019551784 -0.021743348 0.8180763 0.02197448 0.0063113277 0.003790239 0.018470366 0.023782633
-0.0239889 0.48315418 0.020436073 0.011925624 0.18770185 0.5562859 0.6996748 0.023488754

first_h.4.bias f4 [32]
00000000: f779 9dbe a19c 8ebd 68ad 98be b8ce a6bf
00000010: afbb 90be 2d4e 0ebe 51b0 88be ca72 aebd
00000020: b439 83be af38 33be 1917 d53d fc4b a8be
00000030: 98e6 5cbf a6c4 d9be 72b6 8ebf 236b c33d
00000040: abcb 99be 7b04 32bf 0ce5 83bd 9740 5fbf
00000050: 0295 07bf b95b b6be 7895 81bf 93f5 76bf
00000060: 3532 86be 406f 0abc aaad 53bf f6b5 39bf
00000070: 674a 96bf 9214 81be d656 efbe 9ee5 60bf
-0.30757114 -0.06963468 -0.29819798 -1.3031836 -0.2826819 -0.13897009 -0.2669702 -0.08517988
-0.25629961 -0.17502092 0.10404796 -0.3287047 -0.8628936 -0.42532843 -1.1149428 0.09541919
-0.300382 -0.69538087 -0.064401716 -0.8720793 -0.5296174 -0.35616854 -1.0123739 -0.96468467
-0.2621018 -0.008449376 -0.82686865 -0.72543275 -1.1741456 -0.25211006 -0.46745938 -0.8785037

first_h.4.running_mean f4 [32]
00000000: 59b1 5e3f ca8e b1bf b3c5 3f3f 2fc1 ea3e
00000010: e045 1cbe f782 1b40 ae26 563e 28f4 2fc0
00000020: d1ca 0d3f 6856 983f 8258 30c0 8902 50bf
00000030: 87e2 ae3e 1240 d83f 402d a93e 82d1 b9bf
00000040: e8bf 163f 25ab b43e 9f78 f4bf 847d d03e
00000050: 915c d03d 2d6d c43e 4952 943e 5687 363f
00000060: 7e92 093f 1c1c 253e bb01 6d3f a788 df3e
00000070: 49fb 583f 24eb 3dbf 8128 75be cadd 0a3f
0.8698936 -1.3871701 0.7491104 0.45850512 -0.1526103 2.4298685 0.20913193 -2.749277
0.553876 1.1901369 -2.755402 -0.8125387 0.34157202 1.6894553 0.33042336 -1.4517062
0.58886576 0.35286823 -1.9099311 0.4072076 0.10173906 0.38364545 0.2896903 0.71300256
0.53739154 0.16124004 0.92580765 0.43658945 0.8475843 -0.7418692 -0.23941232 0.54244673

first_h.4.running_var f4 [32]
00000000: 0651 2340 39ff 0b41 0a7f b340 d135 1d3e
00000010: ca50 a43f 2c55 c142 aee1 ac3f 3d30 ae42
00000020: 613b 0840 88ca e340 632f af42 2b1c db40
00000030: cdd8 8f3f f000 8441 9ea0 a03f e299 2741
00000040: fb76 1140 6eb8 1840 6510 a642 41b5 523f
00000050: 9a02 c13e 6c4e 6c41 05e6 5940 db0f ef3f
00000060: 4818 513f 5018 a240 6cf3 0241 2078 c93f
00000070: 550e 4f42 ae7b 8b40 1701 8140 0a5c 2d40
2.5518203 8.74981 5.6092577 0.1535256 1.2837155 96.66635 1.3506372 87.094215
2.1286242 7.118473 87.59255 6.8471885 1.1238037 16.500458 1.2549016 10.475069
2.272887 2.3862567 83.03202 0.8230782 0.37697297 14.769146 3.4046643 1.8676714
0.81677675 5.065468 8.184429 1.5739784 51.763996 4.3588476 4.031383 2.7087426

nns.0.0.weight f4 [32, 32]
00000000: 88f0 b73d 8a04 44bf 5df9 f13d 80c9 a53e
00000010: 01d2 b3be ca95 a13d 470c ab3d 46d9 dbbf
00000020: 0587 c33d 677e 9c3c 9f92 d3bf be0c d7be
00000030: 2c45 d83e 12cb 07bd 1df7 c13e 0793 03bf
00000040: a430 543d f7a3 623e 346d d8bf d20a c63d
00000050: 0ac4 cd3e 7ff6 ff3d f1a9 db3e ad36 0b3e
00000060: 31d4 bcbd a03a 973d b016 2e3e 835f 723e
00000070: 8452 eb3d bc8d 05bf c61d 44be 9823 a63e
00000080: 481d 573d 705e d9be 21be 7a3c 5c03 163e
00000090: 1eb5 85be e989 d2bd d1ce 0dbe 425b 13bf
000000a0: bb2b 10be 3ed8 a6be 39f5 d5bf 8f1a 1bbf
000000b0: 67e7 2b3e 77a2 41be a535 14be 477e 76bf
000000c0: af58 83bd 1989 44be 0001 dcbf 1365 1ebe
000000d0: 28ab ad3b 1859 16be 7f5e a93d 747f 91bd
000000e0: 8cf8 44bc bcae 55be 15d2 843d 8475 813d
000000f0: bbac 843e e20a 66be 29b0 7f3d 78a2 bb3d
00000100: 08fc c737 419a 1cbf bbdf 73bd d5d3 06bd
00000110: 8f0c ccbd 1611 eabe c4e4 42be 6f41 28bf
00000120: 0266 08be bbff 993d ee1a 65bf d02d f5be
00000130: a828 40be dedd 46be 1c7f 9ebd 8427 eebe
00000140: 3bd8 5fbe 8189 ac3d e597 69bf f9e5 cbbd
00000150: 64db 913c e87e 72be 8db5 bfbd dd4a a6bb
00000160: 0b11 08be 878f bebe c08f 803d 14fb cf3d
00000170: 15a2 d1bd 4ec5 52bd fd6e 3f3d 6be5 c83b
00000180: 552d 1d3e 59d5 2fbe 01f1 1e3e b598 673e
00000190: 34a7 153a 7297 853f 5734 3c3e 9af4 b1bd
000001a0: 187a cf3d 8e6a 2fbd 2c3f cebe 5513 113e
000001b0: 3966 fd3e fea4 4f3e b09a 7a3e c068 e5be
000001c0: 8a69 db3e afed dc3e 3a82 9dbe 62f7 2b3e
000001d0: 068a ca3e 8ec4 fe3e 6d88 193f ace8 b63e
000001e0: d757 713e e61f 9f3d ca68 2c3f adff a03e
000001f0: d8ce 1a3f ba97 03be d20d 013e 3f70 543f
00000200: 6e10 96bd b7a6 073f 84ad 533e 1618 6e3e
00000210: 9010 55bc 936c 8b3e 2fe0 b63d 7a44 06be
00000220: fa61 993d 4ff7 fbbe 7b5a 963e 9b91 33bf
00000230: e12f c53e 387f 38bd 2d23 a43e c2ae a83f
00000240: e447 483e a9ed 443e e816 0b3e 18a9 3a3d
00000250: 5f88 1c3f ddf8 8a3f 0afe 743e 1fb1 0e3e
00000260: f188 eabd a9ec 1d3f afa9 283e 0e43 0e3e
00000270: 651c f3be f8b6 86be 4722 40bc 99b0 b8b9
00000280: e801 78bd 102e 8bbe e4fa 583e e2f0 f8ba
00000290: d1b1 d13d 08ea eb3e 2e96 8c3d a30f 69be
000002a0: eeb9 8c3d d660 1f3e 020f 84bd 973e f8bd
000002b0: 9690 5e3e b293 cd3b b37c 683e e2f9 5cbe
000002c0: 8634 d8bc fdc8 a63d 8a1c 14be 72b6 0dbd
000002d0: d72f 8d3e a86c b43a a54a a03c b610 da3d
000002e0: 737b 523e 9839 ab3e d124 5f3e 1613 8f3d
000002f0: f40a 363e af61 733c 2a1d a03d 5331 153e
00000300: dd81 fbbd d43f 49bf fc90 21be 4735 9bbd
00000310: 07d4 13be b7d3 91be 701f 80bd cd92 d4be
00000320: 437b 873e 61b5 2bbe 297a 33bf b333 b5bd
00000330: 7fde 073e 1099 12be d982 12be 4f63 30bf
00000340: 64fd f13c 1c50 3ebd e13b 11bf 6ee0 f1bc
00000350: 420c 3d3d 3de6 913d 21e0 223e 5ecf fb3d
00000360: 4b7f 5dbc 815f 49bf 446a d33d 9ecc a73d
00000370: acad b6be 41c9 84be 6f88 ac3d 4a3c 3bbe
00000380: f837 68bd aade b3be 44b3 e53e 25fc a63e
00000390: 4a22 85be 993f 833e 5606 893e b6a9 97bf
000003a0: 9951 8c3e 9b87 5abe ad2e 7dbf 8ce9 82be
000003b0: c984 843e 96a5 b23e 3bf7 8d3e 014c 03bf
000003c0: f2e1 4d3e ecd2 aa3e 5cee 3fbf a7a6 ea3d
000003d0: c4ae 153f d8a0 bd3e c3c9 7f3e ba06 3a3d
000003e0: 220d 703e 3ba3 1d3e 7100 b03e 9f65 09bd
000003f0: aff5 c83d c900 91be 72da 2a3d d46c 173e
0.089814246 -0.76569426 0.118151404 0.32380295 -0.35121158 0.07889898 0.08351951 -1.7175682
0.09547237 0.019103242 -1.652912 -0.4200191 0.42240274 -0.033152647 0.37883845 -0.5139622
0.0518042 0.2213286 -1.6908326 0.096700326 0.40188628 0.12498187 0.42903093 0.13595076
-0.0922016 0.07384229 0.17000842 0.23669247 0.11490348 -0.52169394 -0.19151983 0.3244903
0.05251816 -0.42454863 0.015304119 0.14649719 -0.26114744 -0.102802105 -0.13848425 -0.57561123
-0.14079182 -0.32586855 -1.6715461 -0.605874 0.16787492 -0.18909632 -0.14473589 -0.96286434
-0.064133994 -0.19192924 -1.7187805 -0.15468244 0.0052999444 -0.14682424 0.08269977 -0.07104388
-0.012022149 -0.20867437 0.064853825 0.063212425 0.25913033 -0.22465089 0.06242386 0.09161848
2.384001e-05 -0.6117287 -0.059539538 -0.032916863 -0.09963333 -0.4571616 -0.1903258 -0.65724844
-0.13320163 0.0751948 -0.89494216 -0.47886515 -0.18765509 -0.19420573 -0.07739088 -0.46514523
-0.21859829 0.08424664 -0.912474 -0.09955973 0.017804809 -0.23681223 -0.093608 -0.0050748424
-0.13287751 -0.37218878 0.06277418 0.10155311 -0.10235993 -0.051457696 0.046736706 0.0061308644
0.15349324 -0.1717123 0.15521623 0.22616847 0.0005708814 1.0436842 0.18379341 -0.08689232
0.101307094 -0.042826228 -0.4028257 0.14167531 0.49492052 0.20277783 0.24473071 -0.4480648
0.42853957 0.43150088 -0.30763417 0.16793588 0.3955843 0.49759334 0.59973794 0.3572439
0.23568664 0.07769756 0.67347395 0.31445065 0.6047187 -0.12850848 0.12602928 0.82983774
-0.073273525 0.5298876 0.2067166 0.23251376 -0.013004437 0.27231273 0.089294784 -0.13112059
0.07489391 -0.4921212 0.29365906 -0.7014405 0.3851309 -0.0450432 0.32058087 1.3178332
0.19558674 0.19231285 0.13582957 0.045571417 0.61145586 1.0857197 0.23925033 0.13934754
-0.11451901 0.6168924 0.16470979 0.13892767 -0.474826 -0.2631147 -0.011726922 -0.0003522679
-0.060548693 -0.2718358 0.21189457 -0.0018992687 0.10238994 0.4607699 0.06864582 -0.22759871
0.06871401 0.15564284 -0.06448175 -0.12121313 0.21734843 0.00627371 0.22703819 -0.21579698
-0.026392233 0.08143804 -0.14464012 -0.03459782 0.2757556 0.0013765292 0.019566843 0.106477186
0.20554905 0.33442378 0.21791388 0.06986062 0.17777616 0.014854833 0.078180626 0.14569597
-0.12280629 -0.7861302 -0.15777963 -0.07578521 -0.14436351 -0.28481838 -0.06255996 -0.4151825
0.2646123 -0.1676841 -0.70108277 -0.088477515 0.1326847 -0.14316201 -0.14307727 -0.6890153
0.029539771 -0.046463117 -0.5673199 -0.029525962 0.046154268 0.071239926 0.15905811 0.122954115
-0.013519119 -0.7866135 0.10323003 0.081933245 -0.35679376 -0.25934795 0.0842446 -0.18284717
-0.056694 -0.35130817 0.4486333 0.32614246 -0.26002723 0.2563446 0.26762646 -1.1848667
0.27406004 -0.21340792 -0.98899347 -0.25568807 0.25882557 0.34891957 0.27727684 -0.5128785
0.20105723 0.33364046 -0.7497308 0.11457568 0.58469796 0.37036777 0.2497931 0.04541657
0.2344251 0.15394299 0.34375337 -0.03354418 0.098124854 -0.28320912 0.041712232 0.14787608

nns.0.0.bias f4 [32]
00000000: 1fa6 90be ac6f c7be 6181 5cbd 0e95 733d
00000010: bf58 36bc 5601 a9bd 18dc c5bd d6cd 82be
00000020: 6a1e 363e 7756 04bd 71c0 c73c 926b d3bd
00000030: 2398 f73c 4402 8fbe d03a 893e bf76 9b3f
00000040: 5257 083d 1828 39be 1c84 a83e d255 05bd
00000050: a689 72be 5880 e2bd 9876 3e3e fadd c6be
00000060: bdaa 01bd bae9 72bc 483b 67be e782 473d
00000070: 09d8 093e 4019 a3be 6cbc f13d e2d6 88bf
-0.2825174 -0.38952386 -0.053834323 0.05946832 -0.011129557 -0.08252208 -0.0966112 -0.25547665
0.1778504 -0.03230902 0.024383755 -0.10323252 0.030223912 -0.27931416 0.26802683 1.2145613
0.0332864 -0.18081701 0.3291329 -0.032552548 -0.23685321 -0.11059636 0.18599927 -0.3884123
-0.03165697 -0.014826233 -0.22581208 0.048708823 0.13461317 -0.31855202 0.11803517 -1.0690577

nns.0.1.weight f4 [32]
00000000: da05 cb3f b6b6 1540 57c5 2240 8341 a43f
00000010: 8516 0e3f 4b6a 5c3f 614a c53f 0eda 733f
00000020: cbeb 1f3f 7218 4c3f 3497 8e3f a493 033f
00000030: 08c1 793f cb11 6f3f e2a7 7f3f b286 1a40
00000040: b952 e83d b1ae 633f 4ef9 cb3f 1d42 153f
00000050: c21d 0840 14c0 353f 54b5 883f 6279 5b3f
00000060: f01f 583f 54e7 5c3f 8bc1 383f 2bfd c33d
00000070: 366d 3c3f 51fa 2f40 d465 4f3f 1b27 d83f
1.5861161 2.3392768 2.5432947 1.2832493 0.5550311 0.8609969 1.5413324 0.952546
0.62469167 0.797248 1.1139894 0.51397157 0.9756017 0.93386525 0.99865544 2.4144711
0.11343903 0.8893843 1.5935457 0.58304006 2.1268163 0.7099621 1.0680337 0.8573209
0.8442373 0.8629048 0.72170323 0.09569772 0.7360414 2.749653 0.8101475 1.6886934

nns.0.1.bias f4 [32]
00000000: 5cd4 0c3f ce99 6d3d 7b97 103e 7089 e4bd
00000010: 077b 28bf 89bb 87bf 81e2 c33e 2190 0f3f
00000020: f637 0dbf dbd3 57bf 0bfa 8bbf 1d04 10bf
00000030: 7a0a 4fbf 40b1 99bf d4d4 0bbf 1eb4 b03e
00000040: 7d5b 4d3e 9faf 17bf 5172 d83e 9fd1 06bf
00000050: 5a8f b73e a3d5 d5be 4f0c e9be 583b bbbe
00000060: 577a bfbe 3ed4 84bf 9cae 4cbf 5d80 c43e
00000070: 78b7 0fbf 19f7 893e 2bf9 16bf 61e6 c83e
0.55011535 0.058008008 0.14120285 -0.111590266 -0.65812725 -1.0604106 0.38258746 0.560793
-0.55163515 -0.8430764 -1.0935682 -0.56256276 -0.8087536 -1.2007217 -0.54621625 0.34512419
0.20054431 -0.5925235 0.42274716 -0.52663606 0.35851556 -0.41764554 -0.45517203 -0.36568713
-0.37398025 -1.0377271 -0.7995393 0.38379183 -0.56139326 0.26946333 -0.5897395 0.39238265

nns.0.1.running_mean f4 [32]
00000000: ec99 d7bf 2a97 fdbf fda7 80bf 3e60 4fbe
00000010: 1e6f 703f 24f3 e2bd ff49 8ebf 6f83 8ebf
00000020: 10a0 1ebe 00aa 273f 3445 b43e 7eeb fd3e
00000030: 2cd6 4a3e 2a0d 81be 8cf8 78be e23e e0be
00000040: 0bc7 c33e 4fb1 04bf 8569 5ebf 657e 493e
00000050: 65bc abbf 9969 4abe b63f 92ba 7d59 02bf
00000060: b202 c5be 54b3 3d3f d934 0e3f 3b0a 043f
00000070: a1a2 2dbe 041b 0ac0 ab0b 7c3c dcad 0bc0
-1.6843848 -1.9811757 -1.0051266 -0.20251557 0.9391955 -0.11081532 -1.1116332 -1.113386
-0.15490746 0.65493774 0.35209048 0.4959373 0.19808263 -0.25205356 -0.24313563 -0.43797976
0.38237795 -0.5183305 -0.8687976 0.19677122 -1.3416868 -0.19766845 -0.0011157903 -0.509178
-0.3847862 0.7410176 0.5554939 0.5157811 -0.16956569 -2.157899 0.015383641 -2.1824865

nns.0.1.running_var f4 [32]
00000000: 0102 c841 03dc ea41 f14e 4f41 b749 fc40
00000010: d6ee 5041 0f49 5340 39a2 6c41 7b13 2e41
00000020: e396 dc40 55b0 1841 30da 0240 bf7f 0a41
00000030: 7b36 4e3f 847f 4741 0d4d 4940 8a10 0342
00000040: 535d 5840 eb18 e33f cfe0 9a41 d509 643f
00000050: a42a 7041 3a66 bb3f 7b18 cb40 cde4 1c40
00000060: 1cd0 4e40 bc89 dc40 2cd7 1f41 63b9 3340
00000070: a8c5 8e3f fd9d 2d42 e6c8 0d40 bf97 7a41
25.000978 29.357428 12.956773 7.8839984 13.05831 3.3013341 14.789605 10.879756
6.893419 9.54305 2.044567 8.656188 0.8055188 12.468632 3.1453278 32.76615
3.380696 1.7741979 19.35977 0.890775 15.01041 1.4640572 6.3467383 2.451465
3.231452 6.8918133 9.990032 2.80819 1.115407 43.404285 2.2153869 15.662047

nns.0.3.weight f4 [32, 32]
00000000: 20a0 253e 30e1 4f3e 2ec8 a23d 8b40 05bf
00000010: e7c3 9dbd bf3b 14bd bfad 803e 8ffe 27be
00000020: 001d bcbe 2024 1fbe b875 a2bd 6e62 2abd
00000030: 3a38 06be 7ea9 ecbd 572e e9bd f34d 2ebc
00000040: 9a0b 5f3d d927 77bc 5600 643e e2b2 86be
00000050: bd48 6bbc 0bfd 1ebe b5c9 edbe 0e2f ebbd
00000060: 8412 c0be 4990 01be 75ee 5bbe b876 fcbd
00000070: 530a d0be da04 8a3e 3b19 96be 6111 d23e
00000080: 7a57 39bd 78a9 e1be 85e7 d1be 326c 0b3f
00000090: 32a8 f43e b78d 573e 8573 3cbb 9b71 a83e
000000a0: 3a29 653d 57a4 123f 6229 7f3f b9eb 0c3d
000000b0: e338 1d3f 8db3 ba3e d9da a73e 7ba4 10bf
000000c0: c4ce 8abe fa85 fe3e 83a1 43be a50e 883f
000000d0: efe5 5ebd a14c b13e 3f57 b63e a458 3b3e
000000e0: c594 d13e 507d 6b3f 16c8 b53e 2d65 a3be
000000f0: f4b4 db3d b32c 2bbf f41b 833e 4dfb 04bf
00000100: 21c5 483e b179 6e3d 0121 363d ec79 373b
00000110: 72f3 bcbe 7935 7d3d 7d78 aa3e d6e1 23be
00000120: 3299 e43d 61d7 e83d 7529 1a3e d649 c6bd
00000130: e47c 2e3d 5b0c 9fbe 0465 123b 40c1 f23e
00000140: e4c3 25bb d625 1f3e 3028 4a3d 0e8e 703d
00000150: 8f87 dc3e ac4d 6fbe 072c a6be 6f90 f7bc
00000160: 4ece 323b 4d8d 20be 09d0 9cbe acc2 6bbe
00000170: bf69 0dbb 6fdb 453f a4d4 91be 52f6 66bd
00000180: 6672 5d3f 3360 c33f d341 0e40 aaaa d9be
00000190: 0940 20be 47bb 42bd aaa1 323f fe23 b43e
000001a0: eb99 d1be ea6b 6b3e e22e 71be 54b6 473e
000001b0: 3867 9ebe 1430 0cbe e680 623e d6ac c43f
000001c0: 0bc5 9abd 9fb7 87be c3fc 833f 162c 8a3d
000001d0: 9363 8b3f f834 bbbe 4607 0dbf f1e9 ddbe
000001e0: c27c 3cbe a0bd 7e39 af5f 403c 8cf9 413d
000001f0: 2568 6bbe 3843 d23f 25d4 62be 6a00 963f
00000200: 22b3 9e3e 2339 43be 7684 053e b175 483f
00000210: 917f 9d3e f3a6 a13e 1d9d 86bd cd64 3e3f
00000220: 024c c43d 01d4 ea3a 7732 0d3f 6916 4c3f
00000230: 23de 153f 7845 123f 2791 25be f1ba b6bd
00000240: ed74 1c3f b31b e3bd 6bdb b63c 8968 813e
00000250: fbe5 dcbd ba2f d13e 15c6 c23e 4fb8 603e
00000260: e44b 8abe 8700 1c3f 096d 6c3e 5145 953e
00000270: 5d78 60be 313a 24be 1513 173f f5da 8d3d
00000280: 0fc8 c53e da02 893d 8b6f 8f3e 188f 23be
00000290: b1ac a83d b28b 7e3d cdc3 693e 6323 9d3e
000002a0: 7f2e 2b3e 7201 4bbf 6f5d 47be a06e 01bf
000002b0: a00e d13d 740c 323e 8138 fa3c 9a34 2c3f
000002c0: d7a4 d9be 1584 f9bc a2fc af3c 6720 fb3d
000002d0: d06c 053f 2629 2ebe 9e5e 55bd d1ca 9abe
000002e0: c1fb 7bbc 7e91 27bd 3aab 4bbe 2b6b db3d
000002f0: 4ccf c8bd d445 013f 8b91 90be 5a69 4a3e
00000300: 65b8 ff3e a5cc 733e d7c0 513e 2bde 693e
00000310: e18d ae3e 50b2 873e 44e4 bf3e eb85 eb3e
00000320: 7761 b43d b4bc 31bd b352 343e dffb b4be
00000330: dfcc 023e 4ce3 9c3e aef6 a43d d0e6 163f
00000340: e9de 2b3e d229 853d 1150 4f3e 327c 0dbf
00000350: fe64 233f e510 483d ec6a 8d3e 3a54 883d
00000360: fa37 663d 8c3e ac3c 03bb 393f ea79 4e3d
00000370: 8904 143e c4da 2d3f 6a62 133e 4291 b93e
00000380: eacb a7bd 7679 1d3e ff7a a43b e533 b8be
00000390: 52d5 55bf 9bce c0bd 74e6 53bd 9ebc 75bd
000003a0: e1a1 88be af9a e53d cecb 2bbf 9852 4cbe
000003b0: 7d02 44bf aaf7 24bf b18a aabe 5bb2 d4bd
000003c0: 493f 14be d1e0 d2be 38a6 6cbe 45b8 dabd
000003d0: c6ef 2dbe dc5c c8be 9449 c6be 8cf8 4bbe
000003e0: fc24 09bf 6238 1ebf ab4b e1be 5252 91be
000003f0: e1e9 84be bfa8 48be 4c71 383b 5716 52be
0.16174364 0.20300746 0.079483375 -0.5205161 -0.07703381 -0.03618979 0.25132558 -0.164057
-0.36740875 -0.15541124 -0.07932609 -0.041597776 -0.13107386 -0.115557656 -0.11385792 -0.010638702
0.054454423 -0.015085184 0.22265753 -0.26308352 -0.014360604 -0.15526216 -0.46442953 -0.11483584
-0.37514126 -0.12652697 -0.21477683 -0.12327331 -0.40632877 0.26956826 -0.29316124 0.41028884
-0.04524944 -0.44074607 -0.40996948 0.5446197 0.47784573 0.21050154 -0.0028755378 0.32899174
0.05594752 0.5728201 0.9967252 0.03440449 0.6141493 0.3646511 0.32784155 -0.5650098
-0.27110875 0.4971159 -0.1910458 1.0629469 -0.0544185 0.34628776 0.35613438 0.18295532
0.40933815 0.91988087 0.35504216 -0.31913128 0.107278734 -0.6686508 0.25607264 -0.51945955
0.19606449 0.058221523 0.04446507 0.0027996255 -0.36904484 0.061818574 0.3329505 -0.16004118
0.11162032 0.11369205 0.15054877 -0.09682052 0.042599574 -0.31064114 0.0022338042 0.47413063
-0.0025293762 0.15541777 0.049354732 0.058729224 0.43072173 -0.23369473 -0.32455465 -0.030220238
0.0027283612 -0.15678902 -0.30627468 -0.2302348 -0.0021577922 0.77287954 -0.28482544 -0.056387253
0.86502683 1.5263733 2.2227676 -0.4251302 -0.15649427 -0.047541883 0.6977793 0.3518371
-0.40937743 0.22990385 -0.2355304 0.19503146 -0.30938125 -0.13690215 0.22119483 1.5365245
-0.07557114 -0.2650728 1.0311512 0.0674669 1.0889763 -0.3656385 -0.55089223 -0.43342546
-0.18406966 0.00024293968 0.011741563 0.047357127 -0.22988947 1.6426764 -0.22151239 1.1718876
0.30996042 -0.19064765 0.13038811 0.7830458 0.30761388 0.31572685 -0.06572936 0.7437256
0.0958481 0.0017915965 0.5515513 0.79721695 0.5854208 0.5713725 -0.16168652 -0.08922375
0.61115915 -0.110892676 0.022321424 0.25275066 -0.10786053 0.40856725 0.3804175 0.21945308
-0.27011025 0.60938305 0.23088469 0.29154447 -0.21920915 -0.16037823 0.5901349 0.06926528
0.38629195 0.06689997 0.28014788 -0.15972555 0.08236063 0.062144943 0.22828598 0.3069106
0.16716956 -0.7929908 -0.19469236 -0.50559425 0.102078676 0.17387563 0.030544521 0.67267764
-0.42508575 -0.03045849 0.02148277 0.1226204 0.5211916 -0.17007884 -0.052092187 -0.30232862
-0.015379847 -0.040910237 -0.19889536 0.107138 -0.09805164 0.50497174 -0.2823604 0.19766751
0.4994537 0.23808534 0.20483719 0.22838657 0.3409262 0.2650323 0.3747884 0.4600061
0.088076524 -0.043392852 0.17609672 -0.35348412 0.12773465 0.30642164 0.08054863 0.5894594
0.16784252 0.06502117 0.20245387 -0.5526763 0.63825977 0.048844237 0.27620637 0.0665669
0.056205727 0.021025918 0.7255098 0.050409235 0.14454855 0.67911935 0.1439301 0.36243635
-0.081931904 0.15378365 0.005019545 -0.35977092 -0.83528626 -0.09414407 -0.05173345 -0.059994332
-0.26686004 0.11211144 -0.67107856 -0.19953382 -0.76566297 -0.64440405 -0.33308938 -0.10385581
-0.14477266 -0.41187146 -0.23110282 -0.10679678 -0.16985998 -0.39133346 -0.3872801 -0.19919032
-0.5357206 -0.61804783 -0.44003043 -0.28383118 -0.25959685 -0.19595622 0.0028143702 -0.20516334

nns.0.3.bias f4 [32]
00000000: 38fa 413e 255d 8f3b 1158 febc 5714 973f
00000010: 0a3a 333e c327 6b3d f933 863e 8d49 56bc
00000020: 28e7 ef3c ecb4 013e 3e40 253d 9950 26be
00000030: 34f7 3c3e b573 d8bd b172 d4bd 81f4 4abe
00000040: e931 9b3c 1552 b73e 63df 03be 1ce1 5e3e
00000050: 69b5 f5bd 0fe7 a83c c0e9 9e3e 0e0d 55be
00000060: 2ee2 4fbd 615f b43e 764e ab3d 71fc 04be
00000070: d91e 64bc b956 eabd 673e 06be ee67 213e
0.18943107 0.0043751174 -0.031047853 1.1803082 0.17502609 0.057410967 0.26211527 -0.013079059
0.029285029 0.12666672 0.04034447 -0.16241683 0.18453676 -0.10568944 -0.10373438 -0.19819833
0.018944697 0.3580481 -0.12878184 0.2176556 -0.11997492 0.02061799 0.31037712 -0.20805761
-0.05075281 0.35229018 0.083645746 -0.12986924 -0.01392337 -0.11442322 -0.13109742 0.15762302

nns.0.4.weight f4 [32]
00000000: 1712 ad3e 164f a5bd 49c6 033f d9c5 b93f
00000010: df44 adbc 38fb ad3e 7bde 8ebb 7ed3 ca3e
00000020: c852 5c3e e345 073b e459 383f 7f81 603e
00000030: 3f26 4a3f c0ec c83e 6099 89bd 9e94 373f
00000040: 0eee db3e 8d42 813e a2fa 33bc 65e4 6a3f
00000050: dac7 233f 1971 373f 6867 dd3e 4dce 423f
00000060: 5d70 093f 8674 c03a a53b ca3e 2028 c33e
00000070: 367f 073b 5213 603e ab2c 023e e42e 423f
0.33802864 -0.08071725 0.51474434 1.4513503 -0.021151004 0.33980727 -0.004360018 0.3961448
0.21515954 0.002064102 0.7201216 0.21924399 0.7896461 0.39243126 -0.06718707 0.71711147
0.4295506 0.25246087 -0.0109850485 0.9175475 0.63976824 0.7165695 0.43242955 0.7609604
0.5368708 0.0014683164 0.3949863 0.3811655 0.002067519 0.2188237 0.12712352 0.758528

nns.0.4.bias f4 [32]
00000000: 2e6a c9be 0d6d 3fbe b59d 37bf fa92 123e
00000010: 0aa6 01bf b3a3 05bf d0bd f3be d46d a5be
00000020: 3464 6ebe 3ce7 09bf a82c b3be 9ce2 45bf
00000030: 8c75 9ebe 05b1 13bf 4278 3cbf 915a c2be
00000040: 8b49 05be c66c cbbd b96d 9cbd df2a c6be
00000050: ba8e bcbe cae7 d5be 8810 5bbe c20a 19bf
00000060: f626 cabe ee72 08bf 9120 a5be af19 a5be
00000070: 6fc6 0abf 36e1 e4be 6e5d 07be 187e 1f3e
-0.3933882 -0.18693943 -0.71725017 0.1431388 -0.5064398 -0.5220291 -0.47605753 -0.32310355
-0.23280412 -0.5386846 -0.34995008 -0.77298903 -0.30949056 -0.57691985 -0.73621 -0.37959722
-0.13016336 -0.09932856 -0.076381154 -0.38704583 -0.36827642 -0.41778404 -0.21393025 -0.5978204
-0.3948285 -0.5330037 -0.3225141 -0.32246158 -0.54209036 -0.44703072 -0.13219234 0.15575445

nns.0.4.running_mean f4 [32]
00000000: 7011 733f c2e1 c1bf 6c95 be3f 1ee9 1b41
00000010: cef1 ab3f 002d 1340 c2a3 6740 0ed1 a4bf
00000020: 11a1 f4bf 284e 6f40 a815 223e e783 2140
00000030: 2418 7f3e 0bb0 3840 0581 3a40 aab3 4bbe
00000040: 8a73 cb40 a700 dc40 207c f23f d312 be3e
00000050: c754 a33e 179e 533d 4841 62bf 7a8e cd3f
00000060: 8c0e e3bd 5512 e53f b4b9 47bf bd89 29bf
00000070: 5b5a eb3f 42ec 2940 de5f 0340 0593 bdc0
0.9494848 -1.5147021 1.488935 9.744413 1.3433168 2.2996216 3.61937 -1.2876298
-1.9111654 3.7391453 0.15828574 2.5236757 0.24911553 2.8857448 2.9141247 -0.19892755
6.357854 6.8750796 1.894413 0.37123737 0.31900617 0.051664438 -0.8838086 1.6059105
-0.11086759 1.789622 -0.78017735 -0.66225797 1.8386949 2.655045 2.0527263 -5.9241967

nns.0.4.running_var f4 [32]
00000000: 6fcb 7a40 f220 b141 1568 ed3f 0bcc c141
00000010: e3e9 a041 1040 3640 ed03 8840 4ab1 5641
00000020: 4a8b 1841 db67 4540 1ee6 ba3f 1d94 1a40
00000030: dd64 7e40 941f 3540 ab43 0340 4311 8f40
00000040: 62b2 8141 409d 3141 acb5 703f af48 b040
00000050: fa98 6c40 1fbe 1040 840b 1d41 6aec 2040
00000060: 517b 1640 7ed7 0d40 7a5f ec40 ff2c 0440
00000070: 1042 0540 c2b0 2e41 dfa8 1240 6cd0 3042
3.9186666 22.141087 1.8547388 24.22463 20.114202 2.84766 4.250479 13.418283
9.534006 3.0844638 1.4601476 2.41529 3.9749062 2.8300524 2.0510051 4.470857
16.212101 11.100891 0.9402721 5.5088725 3.696837 2.261604 9.815311 2.5144296
2.3512766 2.2162776 7.386655 2.0652463 2.0821571 10.918154 2.291557 44.203537

nns.1.0.weight f4 [32, 32]
00000000: 2777 0c3e a274 923e d968 f73e 0186 8bbf
00000010: 4793 b7be facb d53e 5187 b63e 39a0 293e
00000020: bef3 d8bd 064d 5f3f 8a21 df3e 2bb5 c03e
00000030: 29a4 d83e 6247 b83e fb21 043f 4f5d f63e
00000040: fe74 c33c db81 353f fc8f b03d d7c6 dc3d
00000050: cf04 843e e79d 9e3e 1984 a5be 04ab f43e
00000060: 53d3 f8bd 3064 2d3e 05c1 053f d9c3 22bd
00000070: 30d0 973e ec26 473f bbd8 cc3e e052 fc3d
00000080: bfe4 f3bd 918b 2c3d acfb 50be 3c22 3240
00000090: bdd3 a43e 5f04 87be 4d20 9cbc d756 8a3d
000000a0: 57af 8ebd 3cae 93be e582 203d 47f6 8cbe
000000b0: c66a 633c 0c1b bcbe 2f7a aebd aa72 793e
000000c0: 3bb9 893f e9ac d53c 5031 5cbe 5e55 29be
000000d0: 4867 883d e2d6 5cbd 3b4e 943e f99e 95be
000000e0: 37f2 f0ba 40d0 c0be d466 753e 153d 9e3c
000000f0: 6e63 4b3e fdfc 633d 0f81 2b3e f8cb 133f
00000100: 5217 003e 8271 aabe 76b6 8e3d 0b94 47bc
00000110: 7fe0 2bbe bfd7 89be 2e38 4cbe 6eb4 4abd
00000120: ef75 21be c4a9 51be e02b 543e e9bc c83d
00000130: 37d5 193b 6438 df3d abec 5a3d 2ed2 86bd
00000140: e4f0 403d a9ac 2abe 2bef 80be 5436 95bd
00000150: 921f 5c3e 61cf a83e 5e80 73be 2634 22be
00000160: 5046 393d 5476 65be 694c 04be 17d2 d33b
00000170: e493 41be 924b bfbd 0ac9 263e ece7 7bbe
00000180: 489a 22bd bbe4 f9bd 1a15 a33d 2886 1cbf
00000190: 081e d93d 3047 eb3e f5ea cc3e 3786 aabd
000001a0: 5167 59bd c359 f03c 4666 263e 6bff 3e3e
000001b0: 827c 353d 1568 163e b21b 023e ba4e b0bc
000001c0: 6028 f1bd bb57 073e b471 153e f01b bdbd
000001d0: 3a0b e6bc d450 8c3d f3b5 dcbd 99fb a63e
000001e0: 517e 9ebc 7742 133e 2dc1 5d3e f3cf 05be
000001f0: a188 7f3c 6063 1c3f a960 8e3e 9533 30bf
00000200: 2c72 293d 5d23 883e bdbd 463e a032 9fbf
00000210: 16bc 30be 68d1 373f c1a5 343b 169f f23d
00000220: d7b5 b4bd a645 a73e 6748 1e3e aed4 3b3d
00000230: a0a0 fd3e ba27 f23d d74f 813e 7c1d 973d
00000240: 1b9a b8be bfa4 9b3e de76 3f3e d951 233e
00000250: 6835 f1bc b8a5 5ebd 963e 1f3d eee7 ab3e
00000260: 43c5 a23c eed2 4c3e f7f8 ce3e 60d7 16bd
00000270: 2620 0a3f a9e3 0f3f 02d0 16be 0761 ca3d
00000280: ed4a 0cbe 1675 5f3f 5e0b ee3d 25e1 2a3f
00000290: 05b2 1f3e 4a2c 2d3e 94fa ad3e 9212 413e
000002a0: abbb 853e 4218 993d d2d6 00bd 831f cc3c
000002b0: 65d2 31bd 7ed2 b53d fa3b c3bd aee9 96bd
000002c0: c5fe fc3e 02f3 0a3e ceef aa3e c12f 90be
000002d0: 26be 74be 8687 c6bb 8d50 a3be 95c0 853e
000002e0: da0e 933c 9079 943e 9401 9a3e e91e 573d
000002f0: c5a7 353e d30b a83e fe50 5b3e 613a 5cbe
00000300: 2345 03be 2d3e 3d3d 3817 a13e f8e6 cd3f
00000310: 808b 6dbe f1ce 37bd c734 063f 126e 173e
00000320: 5fe7 443d 5134 6c3e 1ee6 063e 90f2 863d
00000330: d332 1e3f 9f6d 173d 2d09 663d de81 123d
00000340: e94f 283e fb63 093f 18df 703e d57f 0a3e
00000350: 3e14 c73d 8547 08bd bdf3 ef3e a144 0d3f
00000360: 8acf 8ebb 7a07 0d3d c67b 133d 2e55 93be
00000370: 3988 183e 0361 363f 5a9f f33d 2f76 263f
00000380: 0ba4 fd3d 7c29 5dbe 5f0c 3fbe b83e 35bf
00000390: c2c0 503f 7498 abbe 7596 b7bd 4f0d 463d
000003a0: b4df 8fbe 6b53 e2be b65d 8c3e 1212 973d
000003b0: 68d4 0fbe 1186 46be 4086 153e fe08 d53d
000003c0: 8ef9 b73e b7c9 08bf 0060 db3c e7f3 b83e
000003d0: 2cb0 6bbd 773f 763e 3539 84be d418 f1bd
000003e0: e5b6 6c3c 944b 50be 9d98 50be 2736 1ebc
000003f0: 1f6b 9abd 26e1 c1be 1f59 f23d 6307 82bf
0.13717328 0.2860461 0.4832218 -1.090027 -0.3585455 0.41757184 0.35650113 0.16565026
-0.10593365 0.87226903 0.43580276 0.3763822 0.42312744 0.3599196 0.5161435 0.48118064
0.023859497 0.7090127 0.08621213 0.10780113 0.2578492 0.30979845 -0.32327345 0.47786725
-0.12149682 0.1693275 0.5224765 -0.039737556 0.29651022 0.77793765 0.40009102 0.12320495
-0.11908864 0.04212529 -0.20408505 2.7833395 0.32192793 -0.26370522 -0.019058371 0.06754845
-0.06967037 -0.28843868 0.03918733 -0.27531645 0.013880437 -0.36739385 -0.085193984 0.24360147
1.0759653 0.026083427 -0.21503186 -0.16536471 0.06660324 -0.053915866 0.28965935 -0.2922285
-0.0018382733 -0.37658882 0.23965007 0.019316236 0.19862148 0.05566119 0.1674845 0.57733107
0.12508896 -0.33289725 0.069683954 -0.012181292 -0.16784857 -0.26922414 -0.19943306 -0.049488477
-0.15767644 -0.20474917 0.20719862 0.09801657 0.0023473033 0.108994275 0.05344836 -0.06583057
0.04710473 -0.16667427 -0.2518247 -0.07285753 0.21496418 0.32970718 -0.23779437 -0.15840206
0.04523307 -0.2240842 -0.12919773 0.0064642536 -0.18904072 -0.09340586 0.16287628 -0.2460019
-0.039697915 -0.1220183 0.07963009 -0.61142206 0.10601431 0.4595275 0.40023008 -0.08326381
-0.053077046 0.029339677 0.16249952 0.18652122 0.044308193 0.14688142 0.12705877 -0.021521915
-0.11775279 0.1321706 0.14594156 -0.09233844 -0.028081525 0.06851354 -0.107768916 0.3261383
-0.019347342 0.14380823 0.21655722 -0.13067608 0.01559654 0.61089134 0.2780812 -0.6882871
0.04136865 0.2658948 0.19408317 -1.2437325 -0.17259249 0.71803904 0.0027564617 0.118467495
-0.08823746 0.32670325 0.15457307 0.045857124 0.4953661 0.118239835 0.25256225 0.073786706
-0.36055073 0.3039913 0.18697688 0.15949191 -0.029444411 -0.05435726 0.038878046 0.33575386
0.019869452 0.20002338 0.4042432 -0.03682649 0.53955305 0.56206757 -0.14727786 0.09881788
-0.13700457 0.87288034 0.11623262 0.66749793 0.15595253 0.16911426 0.33980238 0.1885474
0.26119742 0.0747533 -0.03145487 0.02491737 -0.04341354 0.08878039 -0.09532924 -0.073687896
0.49413124 0.13569263 0.3338608 -0.28161433 -0.23900661 -0.006058636 -0.31897393 0.2612349
0.017951418 0.28998995 0.3007933 0.052519713 0.1773978 0.3282152 0.21417615 -0.21506645
-0.12819342 0.046201874 0.31463027 1.6086111 -0.23197746 -0.04487509 0.5242428 0.14788082
0.048072215 0.23066832 0.1317372 0.06589234 0.617963 0.036969777 0.056161094 0.035768382
0.16436733 0.53668183 0.23522604 0.13525327 0.09720658 -0.03327133 0.46865645 0.55182844
-0.0043582367 0.03443096 0.03600671 -0.28775924 0.14895715 0.7124178 0.11895628 0.65024084
0.12384804 -0.21597856 -0.18657063 -0.70798826 0.81544125 -0.3351475 -0.08964244 0.048352536
-0.2810036 -0.44204268 0.27415246 0.073764935 -0.1404587 -0.1938708 0.14601994 0.10402106
0.35932583 -0.5343279 0.026779175 0.36123583 -0.057541057 0.24047647 -0.25824896 -0.11772314
0.014447902 -0.20341331 -0.20370717 -0.009656466 -0.07539963 -0.37867087 0.11833405 -1.0158504

nns.1.0.bias f4 [32]
00000000: 356d c63d 2da4 75be 9f44 12be 9292 0cbe
00000010: 0360 67be e0ae 833d d231 82bb 27dd 04bd
00000020: 36ad 5dbe 45f7 e4bc 9f51 5fbe 73f7 0a3e
00000030: 2d9e 0f3e 53ce 62bd 2ebe 083e 4753 1abd
00000040: 338c 9cbd 5279 293e bde2 e93c 50a5 f13d
00000050: 1d56 b13d 4cc7 413d 4f5a a23d d412 e13d
00000060: 5e47 9ebd d007 6cbd 8415 33be ec62 b2bd
00000070: ce8b 9c3c 744f 8cbd 6128 4abe b22f d93d
0.09688798 -0.2398841 -0.1428399 -0.13727787 -0.2259522 0.06429839 -0.003973224 -0.03243747
-0.21648106 -0.027949939 -0.2180848 0.13570957 0.14025183 -0.055372547 0.13353798 -0.037677076
-0.076439284 0.16550186 0.0285505 0.11799109 0.08659003 0.047309205 0.07927381 0.10989919
-0.07728456 -0.057624638 -0.17488676 -0.08710274 0.019109633 -0.06851092 -0.19741966 0.106048

nns.1.1.weight f4 [32]
00000000: aadd 4c3f 063d ec3f 94f1 613f 22c3 373f
00000010: 1ed9 7d3f ab2b 6b3f 06e3 593f 8d78 c53f
00000020: a84b da3f e37b a03f 3a96 0540 6eba 373f
00000030: 1b4e a63f 7292 8e3f 3965 b63f 4710 413f
00000040: 19b2 d03e db0b b33f 019e 493f 11ee 3a3f
00000050: 3d03 c33f a19c 583f e620 ab3f 66ca 8e3f
00000060: f21c e83f 0c95 743e 408d 543f 46d1 f63f
00000070: ed1f a83f beb0 a23f 6e68 643f 920c 123f
0.8002573 1.8456123 0.88259244 0.71782124 0.9915942 0.9186351 0.85112035 1.5427414
1.7054338 1.2537807 2.087294 0.71768844 1.2992586 1.1138442 1.4249641 0.7541546
0.40760878 1.3987993 0.7875672 0.7301951 1.5235363 0.84613997 1.3369415 1.1155517
1.8133833 0.23884982 0.8302803 1.9282615 1.3134743 1.2710187 0.8922185 0.5705043

nns.1.1.bias f4 [32]
00000000: d84b 983e 4c51 52bf 03a4 13bf 5824 38bf
00000010: 32e5 053f 3429 79bf 7a49 5dbf 5953 1c3f
00000020: 22f2 49be 24d2 013f a4fe 4c3f c6de c6be
00000030: f628 6cbf 6274 17bf b77b 313f 3e69 0dbf
00000040: 2ac9 adbf 96a9 1c3f 3104 20bf 66ad 87bf
00000050: a8ff 6b3e 4023 9dbf 4c6c a6be 52e0 acbf
00000060: d603 063f 873f 5dbf 7adf 95bf ca1c 77be
00000070: b075 aa3e 3ded 3cbf 0289 a7bf 006d 57bf
0.29745364 -0.821553 -0.5767214 -0.71930456 0.5230285 -0.97328496 -0.8644024 0.6106468
-0.19721273 0.50711274 0.8007605 -0.38841838 -0.9225 -0.5916196 0.693294 -0.5523871
-1.3577015 0.6119627 -0.62506396 -1.0599792 0.23046744 -1.2276382 -0.325045 -1.3505957
0.52349603 -0.8642506 -1.1708825 -0.24132076 0.33292913 -0.73799497 -1.3088686 -0.84150696

nns.1.1.running_mean f4 [32]
00000000: 3b86 ebbf f571 dc40 44ca 0dbf b17e 19c0
00000010: f567 2ec0 9b65 b13f 398c 9440 e81e 46c0
00000020: 704d 2cc0 04dd 76c0 7195 b140 fe16 04bf
00000030: 29c7 b940 852a 08c0 14bd 33c0 f053 03c0
00000040: a459 cd3f cc44 50c0 7297 f53f 2816 0a40
00000050: 8e45 2740 ea8a ff3f 482c 2bc0 330a 5540
00000060: 90fa 6fc0 b6a3 6a40 3cfc 0040 792b c8be
00000070: cee3 25c0 2e02 adbf 1b41 0e40 6be9 1540
-1.8400339 6.888911 -0.5538676 -2.3983576 -2.725095 1.3859133 4.642117 -3.0956364
-2.6922264 -3.8572397 5.5494924 -0.51597583 5.8055615 -2.1275952 -2.8084154 -2.0519981
1.6042981 -3.254199 1.9186842 2.1576023 2.6136203 1.9964268 -2.6745777 3.3287475
-3.7496681 3.6662421 2.0153952 -0.39095667 -2.592029 -1.351629 2.2227237 2.3423717

nns.1.1.running_var f4 [32]
00000000: 6153 7541 0654 df42 d191 133f 41c0 1741
00000010: f3b3 a441 219c e040 7c5e 2642 7402 8641
00000020: eb39 c641 8903 d441 40a7 8342 857a 613f
00000030: 488d 6142 63cc 1741 1137 6d41 30eb 1741
00000040: 0173 f140 a8d6 a341 01a5 5841 7c34 f640
00000050: 9863 da41 004a 1641 2ac5 f841 6079 2442
00000060: 2e70 5b42 7950 c741 c1d5 2a41 391a 1e42
00000070: 10b5 3d41 030b 4540 5202 3241 6631 2541
15.332856 111.66411 0.57644373 9.484437 20.587866 7.0190587 41.59227 16.751198
24.77828 26.501726 65.82666 0.88077575 56.38797 9.487399 14.825944 9.494919
7.5452886 20.479813 13.540284 7.693907 27.29863 9.393066 31.096272 41.11853
54.85955 24.914293 10.677186 39.525608 11.856705 3.078797 11.1255665 10.32456
