result/experiment_07.11.2022_19.19.59/79/fold_1_state_dict.pt (torch, 43151 bytes, 66 tensors)

first_h.0.weight f4 [32, 3]
0.41052672 2.5520496 3.137451 -2.5241358 0.80730104 1.3128067 -0.68284744 1.7629799
2.2026396 2.2596004 0.72882116 0.8971699 -0.87718326 -0.56768525 -0.24535169 -2.3891218
5.6284156 5.905602 -0.8511392 2.3754618 2.029497 -0.51614374 0.7011799 0.4138902
-1.8456302 5.9098444 3.9431252 -0.74006015 0.23104076 0.6761996 -2.8443668 3.1194296
1.7137367 1.34504 -0.8018287 -2.030137 -2.3619294 3.9665384 0.054660533 1.7430015
2.4274747 3.144335 1.1667842 1.4422358 0.8431533 -3.5490673 2.7753153 0.5158777
4.976452 -1.2105559 -1.4265947 -0.43597504 1.7886108 0.42122227 2.8875103 -2.717341
-3.7187846 -1.260553 5.8628864 4.4845915 -1.1554236 2.363729 1.5696571 -0.84813505
-0.49607366 -0.47401878 1.8420289 -3.0795553 -3.34109 2.430552 2.9592183 -6.565671
-1.815005 6.358096 3.4627483 -0.014498938 -0.6430039 -0.73973835 1.4633108 2.197734
-1.2278832 -1.2215296 -2.6780107 -0.28776497 1.3391038 0.31725538 -0.2826172 -1.0134271
-0.06035755 1.7044884 1.3610818 2.6610672 2.479226 -0.65767354 -0.34837472 -0.14267229
00000000: 8f30 d23e c854 2340 ffcb 4840 718b 21c0
00000010: 48ab 4e3f 0d0a a83f 17cf 2ebf 53a9 e13f
00000020: 0cf8 0c40 4b9d 1040 0694 3a3f edac 653f
00000030: 158f 60bf d253 11bf 793d 7bbe 5fe7 18c0
00000040: fb1b b440 b1fa bc40 42e4 59bf 9107 1840
00000050: 47e3 0140 ff21 04bf 8780 333f 6be9 d33e
00000060: 9c3d ecbf 721d bd40 2a5c 7c40 9574 3dbf
00000070: f395 6c3e 6b1b 2d3f 1b0a 36c0 bca4 4740
00000080: b95b db3f 452a ac3f a544 4dbf c4ed 01c0
00000090: da29 17c0 c4db 7d40 b9e3 5f3d ac1a df3f
000000a0: bf5b 1b40 c93c 4940 2f59 953f 2f9b b83f
000000b0: e5d8 573f eb23 63c0 c49e 3140 9010 043f
000000c0: 183f 9f40 7ff3 9abf a89a b6bf 1f38 dfbe
000000d0: 33f1 e43f 72aa d73e f8cc 3840 eae8 2dc0
000000e0: 9100 6ec0 cd59 a1bf c49c bb40 c681 8f40
000000f0: ece4 93bf 5647 1740 86ea c83f 611f 59bf
00000100: 5efd fdbe 97b2 f2be 9ac7 eb3f 6f17 45c0
00000110: 6bd4 55c0 2a8e 1b40 d563 3d40 fa19 d2c0
00000120: 1552 e8bf 8675 cb40 ab9d 5d40 f48c 6dbc
00000130: e79b 24bf 7e5f 3dbf c54d bb3f ada7 0c40
00000140: 472b 9dbf 155b 9cbf 8764 2bc0 ee55 93be
00000150: c167 ab3f 4c6f a23e 34b3 90be fbb7 81bf
00000160: 7a39 77bd ad2c da3f ee37 ae3f ed4e 2a40
00000170: a4ab 1e40 4b5d 28bf 2c5e b2be af18 12be

first_h.0.bias f4 [32]
0.4746481 -0.3146766 0.37576082 0.37558883 0.23173557 0.5472495 0.04595542 -0.069090284
-0.3265052 -0.12759933 0.20587888 -0.40567866 0.11922853 -0.15616551 -0.46254018 -0.07030167
-0.22225258 0.51538205 -0.26002273 0.5662266 0.33228794 0.5657486 -0.0024870355 -0.018780751
-0.4904385 0.22344525 0.37465462 -0.05418341 -0.01842128 -0.0352738 0.29904485 -0.34030566
00000000: 1305 f33e 4b1d a1be b963 c03e 2e4d c03e
00000010: 174c 6d3e 8b18 0c3f c03b 3c3d 357f 8dbd
00000020: b12b a7be 66a9 02be ead1 523e 1db5 cfbe
00000030: 162e f43d dae9 1fbe 11d2 ecbe 52fa 8fbd
00000040: 2e96 63be 14f0 033f b321 85be 3af4 103f
00000050: a521 aa3e e6d4 103f 88fd 22bb 17da 99bc
00000060: c11a fbbe d5ce 643e bbd2 bf3e 6cef 5dbd
00000070: 39e8 96bc 437b 10bd 681c 993e 8b3c aebe

first_h.1.weight f4 [32]
-1.2859873 -1.4433454 0.9810144 -0.13378763 0.35112777 3.396608 2.282643 0.36328924
2.709659 0.20553383 5.4038796 1.769867 3.9826853 -1.1523724 3.5824018 3.018725
1.334595 0.49369544 6.441788 2.830853 1.6014805 1.2782114 -3.7947688 0.56428295
6.018288 0.7306733 0.61582994 -1.7312468 -0.33630124 -1.309376 -1.3224219 0.7163876
00000000: 3b9b a4bf 8bbf b8bf c223 7b3f a0ff 08be
00000010: 05c7 b33e 0762 5940 d316 1240 0c01 ba3e
00000020: 0e6b 2d40 7677 523e 95ec ac40 008b e23f
00000030: 51e4 7e40 f080 93bf 1246 6540 ca32 4140
00000040: 02d4 aa3f a6c5 fc3e 2123 ce40 b22c 3540
00000050: 50fd cc3f 6e9c a33f 7edd 72c0 d974 103f
00000060: d195 c040 680d 3b3f 08a7 1d3f 7f99 ddbf
00000070: ad2f acbe a299 a7bf 1f45 a9bf 2e65 373f

first_h.1.bias f4 [32]
-3.0653741 1.5347009 2.2130947 -1.3265444 -0.7261307 4.409524 -1.5919327 -0.6694104
-4.315877 -0.745678 1.4783747 -4.0413685 -3.262819 -1.4355499 2.5740376 0.67275393
2.4265397 -0.9921899 2.213321 -1.4251229 -1.2695876 -0.84713995 -1.6343404 -10.204538
-2.5323 -0.5092731 -10.869572 4.133046 -1.2075173 2.0939858 -0.8782629 -1.4454803
00000000: 172f 44c0 1471 c43f 58a3 0d40 35cc a9bf
00000010: b4e3 39bf d21a 8d40 73c4 cbbf 7b5e 2bbf
00000020: aa1b 8ac0 c1e4 3ebf 623b bd3f e452 81c0
00000030: 07d2 50c0 19c0 b7bf 08bd 2440 9a39 2c3f
00000040: 6d4c 1b40 2800 7ebf 0da7 0d40 6d6a b6bf
00000050: d981 a2bf 2ade 58bf 1132 d1bf ca45 23c1
00000060: 3411 22c0 b95f 02bf c4e9 2dc1 ea41 8440
00000070: ed8f 9abf dd03 0640 d6d5 60bf 8005 b9bf

first_h.1.running_mean f4 [32]
462581.03 -2.8438218e+06 -769296.9 2.5458165e+06 -988294.94 -2.6916112e+06 -958900.2 -581507.2
-2.0792985e+06 -833787.06 -3.2045842e+06 1.515374e+06 -2.6610495e+06 1.9638246e+06 1.3145911e+06 -3.998558e+06
5.6067415e+06 -491172.66 3.2531772e+06 -1.4201101e+06 -1.3017296e+06 -955568.7 2.0752755e+06 2.738371e+06
-2.0447949e+06 -16348.915 1.6486642e+06 -1.3762781e+06 1.508715e+06 -1.1417715e+06 1.5335276e+06 -740979.5
00000000: a1de e148 b792 2dca 0ed1 3bc9 6262 1b4a
00000010: 6f48 71c9 6d48 24ca 431b 6ac9 33f8 0dc9
00000020: 14d2 fdc9 b18f 4bc9 a197 43ca 70fb b849
00000030: e66a 22ca 85b9 ef49 f978 a049 780d 74ca
00000040: ab1a ab4a 95d4 efc8 e58e 464a 715a adc9
00000050: 0de7 9ec9 0b4b 69c9 5c54 fd49 0c23 274a
00000060: d79b f9c9 a973 7fc6 c240 c949 b100 a8c9
00000070: 582b b849 5c60 8bc9 bd32 bb49 38e7 34c9

first_h.1.running_var f4 [32]
5.6398504e+12 2.1321125e+14 1.5603854e+13 1.7086298e+14 2.5749285e+13 1.9101223e+14 2.424294e+13 8.915086e+12
1.139919e+14 1.8328142e+13 2.7074202e+14 6.054172e+13 1.8668879e+14 1.0166704e+14 4.5558073e+13 4.2151504e+14
8.2875105e+14 6.3607433e+12 2.7901753e+14 5.3174916e+13 4.467523e+13 2.4072128e+13 1.13547435e+14 1.9769424e+14
1.1024025e+14 7.0349005e+09 7.165683e+13 4.9933554e+13 6.00085e+13 3.4369213e+13 6.1994464e+13 1.4474553e+13
00000000: 2924 a454 1dea 4157 e310 6355 2366 1b57
00000010: c859 bb55 80b9 2d57 ff63 b055 49bb 0155
00000020: 9d59 cf56 d35a 8555 0a3d 7657 df3f 5c56
00000030: dfca 2957 68ee b856 43bd 2556 cfae bf57
00000040: a96f 3c58 3b1f b954 d5c3 7d57 0073 4156
00000050: 0d87 2256 d525 af55 a58a ce56 47cd 3357
00000060: 9e86 c856 08a8 d14f d057 8256 3fa8 3556
00000070: 454f 5a56 a611 fa55 d888 6156 e9a1 5255

first_h.3.weight f4 [32, 32]
0.5944389 0.6273655 0.6719208 0.7557397 0.44685844 0.64947796 0.6442308 0.5269945
0.5682213 0.5581025 0.44328856 0.4718402 0.6051409 0.71366477 0.7576114 0.64735365
0.4863372 0.5451078 0.65488595 0.6416919 0.6309733 0.52831924 0.6321347 0.7545549
0.46554098 0.5491247 0.4941268 0.50918657 0.7605551 0.6804042 0.59043777 0.59068364
-2.121724 -2.6220098 0.4205805 0.6318949 -0.66451246 0.04714542 0.45821863 0.51984334
-0.23229109 -0.5545869 0.6602639 -2.5470333 0.55518657 -1.2003436 -3.356856 0.7772842
0.39126152 0.4715017 -2.9872198 0.05744796 0.7080254 -0.5483491 -0.9249445 -0.050748706
0.6125803 -0.72692597 -0.21001258 -3.2194645 0.59393704 -2.3423843 -0.57415915 -0.7851046
0.2846937 0.80054504 0.65833706 0.78356344 0.65096694 0.56995463 0.8184202 0.45093828
0.5470003 0.6433034 0.67649215 0.68521893 0.7305802 0.62644106 0.41761786 0.96517175
0.53099036 0.68220603 1.1731546 0.5685968 0.50639075 0.87191284 0.8492403 0.72358507
0.74937266 0.7042781 0.928675 0.18705091 0.6331438 0.33018893 0.081509665 0.43464395
-0.45208055 -0.7485003 -0.74037266 -0.561595 -0.6009431 -0.5205691 -0.64539003 -0.46526098
-0.55468273 -0.59274185 -0.68629056 -0.44242024 -0.64326435 -0.6058717 -0.6886434 -0.62675554
-0.46830177 -0.45112163 -0.7203045 -0.6099643 -0.6616138 -0.6930323 -0.62892836 -0.59801906
-0.64673823 -0.6174849 -0.7479253 -0.5814899 -0.5533427 -0.46628863 -0.44430268 -0.77827007
0.56752443 0.37157395 0.44416067 0.6078786 0.49138114 0.79708874 0.70517975 0.7565436
0.54661614 0.42187205 0.93687695 0.55299485 0.73925996 0.6315852 0.6380636 0.59684324
0.61482865 0.6162852 0.4486301 0.7613874 0.688379 0.4079383 0.63777375 0.71441066
0.7927953 0.7474394 0.73005146 0.56539255 0.74856985 0.58546776 0.47430757 0.6435282
-0.7086977 -2.2174659 -0.33124155 0.61694837 -0.868868 -0.81186765 1.0252913 0.52827114
0.14309229 -0.732148 1.9014207 -2.7928016 0.7900107 -0.08171287 -1.7774099 1.9674914
-0.8325214 0.84088135 1.4989134 -2.5239213 0.94673365 -0.6992892 -0.45650887 -0.07172856
0.730042 -0.8740576 -0.2770474 -3.2837193 0.78700817 -3.0456386 -0.6484801 -0.7085546
-0.652717 -0.6637422 0.5188091 0.52093655 -0.5609304 0.70106214 0.68606645 0.7806569
0.7166523 -0.4801081 1.0501292 0.07525253 0.8208492 -0.6903924 -0.12739067 0.85599595
0.7272665 0.5433618 -0.29645422 1.0822413 0.50486314 -0.38967612 -0.5237702 0.60900044
0.8137195 -0.33502963 0.479672 -0.6519479 0.6308054 -0.45469597 -0.49048752 -0.5037995
-0.8112689 -2.234855 -0.7690626 0.8804551 -0.910362 -1.0009083 1.0001942 0.37117496
0.12789871 -0.92798704 1.7405654 -2.366756 0.81051815 -0.431106 -1.4800287 2.0962226
-0.8903469 0.8003836 1.514502 -2.1171403 0.6731347 -0.9748807 -1.0262761 0.07997709
0.6397094 -0.8617379 -0.33740857 -2.9564855 0.77175033 -2.829131 -0.71592426 -0.9013991
00000000: 262d 183f 079b 203f 0003 2c3f 2878 413f
00000010: a1ca e43e 3044 263f 4fec 243f 1de9 063f
00000020: f376 113f cedf 0e3f b8f6 e23e 0a95 f13e
00000030: 84ea 1a3f bcb2 363f d2f2 413f f8b8 253f
00000040: 3101 f93e 2f8c 0b3f 9ba6 273f ec45 243f
00000050: 7787 213f ee3f 073f 94d3 213f 832a 413f
00000060: 635b ee3e 7093 0c3f 30fe fc3e 0d5a 023f
00000070: bdb3 423f f82e 2e3f ee26 173f 0b37 173f
00000080: 53ca 07c0 02cf 27c0 5456 d73e ddc3 213f
00000090: 7d1d 2abf 8e1b 413d a29b ea3e 7414 053f
000000a0: b7dd 6dbe 68f9 0dbf 0e07 293f 9802 23c0
000000b0: b520 0e3f dca4 99bf bbd6 56c0 19fc 463f
000000c0: 6e53 c83e ac68 f13e 9c2e 3fc0 8d4e 6b3d
000000d0: 2741 353f 9b60 0cbf 2ac9 6cbf e0dd 4fbd
000000e0: 10d2 1c3f d217 3abf 8a0d 57be b50b 4ec0
000000f0: 420c 183f a0e9 15c0 18fc 12bf 9dfc 48bf
00000100: 5fc3 913e 85f0 4c3f c788 283f 9d97 483f
00000110: c5a5 263f 8ce8 113f fc83 513f 62e1 e63e
00000120: 3608 0c3f 88af 243f 972e 2d3f 826a 2f3f
00000130: 4e07 3b3f 715e 203f 02d2 d53e 7f15 773f
00000140: fcee 073f 0ea5 2e3f ee29 963f 8f8f 113f
00000150: d3a2 013f ae35 5f3f d067 593f df3c 393f
00000160: e3d6 3f3f 924b 343f a5bd 6d3f 468a 3f3e
00000170: b615 223f 860e a93e 8aee a63d a789 de3e
00000180: 1a77 e7be b79d 3fbf 1089 3dbf b1c4 0fbf
00000190: 68d7 19bf 0444 05bf 4838 25bf b036 eebe
000001a0: b0ff 0dbf eebd 17bf bdb0 2fbf e884 e2be
000001b0: f9ac 24bf 681a 1bbf ef4a 30bf 0d73 20bf
000001c0: 40c5 efbe 6af9 e6be e065 38bf 9f26 1cbf
000001d0: 865f 29bf 916a 31bf 7301 21bf c717 19bf
000001e0: a390 25bf 7e13 1ebf 0878 3fbf 86dc 14bf
000001f0: dea7 0dbf 62bd eebe a47b e3be b53c 47bf
00000200: 4849 113f f13e be3e 0769 e33e ef9d 1b3f
00000210: 4f96 fb3e 020e 4c3f a986 343f d7ac 413f
00000220: 09ef 0b3f 9dff d73e 2bd7 6f3f 1291 0d3f
00000230: 2440 3d3f 91af 213f 2358 233f b8ca 183f
00000240: 6965 1d3f dec4 1d3f d8b2 e53e 49ea 423f
00000250: 9b39 303f 4add d03e 2445 233f 9ee3 363f
00000260: a2f4 4a3f 3058 3f3f a7e4 3a3f 91bd 103f
00000270: 46a2 3f3f 37e1 153f 71d8 f23e 44be 243f
00000280: 366d 35bf f6ea 0dc0 7e98 a9be 54f0 1d3f
00000290: 226e 5ebf 8fd6 4fbf bf3c 833f c73c 073f
000002a0: c986 123e 0d6e 3bbf c161 f33f 43bd 32c0
000002b0: 243e 4a3f 1459 a7bd 2b82 e3bf c2d6 fb3f
000002c0: 1f20 55bf 0044 573f 65dc bf3f ed87 21c0
000002d0: 235d 723f 9e04 33bf 88bb e9be 6ce6 92bd
000002e0: 08e4 3a3f 3dc2 5fbf 28d9 8dbe 7528 52c0
000002f0: 5e79 493f beeb 42c0 cb02 26bf d663 35bf
00000300: 7618 27bf 02eb 29bf acd0 043f 195c 053f
00000310: 2299 0fbf cf78 333f 0da2 2f3f 21d9 473f
00000320: 8676 373f bbd0 f5be a26a 863f 001e 9a3d
00000330: 2c23 523f 8ebd 30bf b372 02be 8d22 5b3f
00000340: 232e 3a3f c219 0b3f d9c8 97be e286 8a3f
00000350: b63e 013f a183 c7be ce15 06bf 74e7 1b3f
00000360: ec4f 503f 0189 abbe 9297 f53e 0fe6 26bf
00000370: 767c 213f e9cd e8be 2e21 fbbe 01f9 00bf
00000380: 52af 4fbf dd07 0fc0 49e1 44bf 8165 613f
00000390: 7c0d 69bf c31d 80bf 5d06 803f a50a be3e
000003a0: e1f7 023e 8f90 6dbf d9ca de3f ee78 17c0
000003b0: 1e7e 4f3f edb9 dcbe 9571 bdbf 8328 0640
000003c0: c6ed 63bf f1e5 4c3f 34db c13f 3a7f 07c0
000003d0: 8e52 2c3f c891 79bf 045d 83bf 07cb a33d
000003e0: ffc3 233f db9a 5cbf d1c0 acbe 0f37 3dc0
000003f0: 6e91 453f 7b10 35c0 d046 37bf 17c2 66bf

first_h.3.bias f4 [32]
0.6910861 0.44693768 -0.8569654 0.7104049 0.54054666 -1.8788323 0.5020456 -0.83713996
0.68516546 0.022293037 -0.59830195 -0.26224837 0.41952133 0.7553536 -2.2016797 -0.67385644
-0.1391386 0.5369118 -0.7729357 -0.5679 0.49188963 -0.60296136 1.9300829 -0.38391337
0.7087181 -0.8196704 0.5353386 0.3750315 0.18648168 2.365439 -0.7740305 1.2696412
00000000: 05eb 303f 04d5 e43e 1662 5bbf 18dd 353f
00000010: 4461 0a3f 947d f0bf 0f86 003f ce4e 56bf
00000020: 0167 2f3f e39f b63c 512a 19bf 6b45 86be
00000030: 80cb d63e db5e 413f 52e8 0cc0 db81 2cbf
00000040: 597a 0ebe 0d73 093f 1ddf 45bf e561 11bf
00000050: f5d8 fb3e ad5b 1abf f50c f73f 4b90 c4be
00000060: 8d6e 353f ebd5 51bf f30b 093f 2104 c03e
00000070: 0ef5 3e3e 5a63 1740 dd26 46bf 9a83 a23f

first_h.4.weight f4 [32]
-0.24604072 1.2905828 -0.69259083 0.11665782 -0.13402271 0.52402186 -0.01755579 0.70423174
0.21789815 -0.64216155 0.0019888198 2.8545105 -0.0074968836 -0.79238266 -0.04668893 -0.008524209
0.0020448829 1.4514914 1.0831761 -1.9821097 -0.008481656 0.057700776 -0.10617432 -0.9060238
-0.28906223 -0.38043538 1.0972382 0.26951128 -0.17491849 -2.582606 2.359935 1.1164045
00000000: 19f2 7bbe d131 a53f a24d 31bf 4cea ee3d
00000010: 403d 09be 4c26 063f 29d1 8fbc 8848 343f
00000020: b120 5f3e b364 24bf dc56 023b 4db0 3640
00000030: 6ba8 f5bb 97d9 4abf e43c 3fbd 20a9 0bbc
00000040: 7103 063b 78ca b93f 84a5 8a3f c5b5 fdbf
00000050: a5f6 0abc a657 6c3d ec71 d9bd 2df1 67bf
00000060: f7ff 93be 6dc8 c2be 4d72 8c3f 62fd 893e
00000070: d51d 33be 6b49 25c0 2d09 1740 58e6 8e3f

first_h.4.bias f4 [32]
-1.2215823 -1.0386461 -0.65600103 -0.80895144 -0.5590948 -2.471322 -0.6136548 -2.350671
-0.7558009 -3.0094054 -0.72589797 -3.7475715 -0.5838479 -2.4798522 -2.7221367 -0.66307485
-0.9147274 -1.3000135 -4.2869964 -2.9255114 -0.88869447 -0.74170655 -2.8374655 -0.9285988
-1.2238327 -0.85346454 -1.0028646 -0.98791516 -2.8103354 -1.8046247 -1.8425843 -1.7164171
00000000: cf5c 9cbf 5bf2 84bf afef 27bf 7117 4fbf
00000010: d620 0fbf 242a 1ec0 7b18 1dbf 6571 16c0
00000020: 2b7c 41bf 199a 40c0 73d4 39bf 36d8 6fc0
00000030: 0e77 15bf e6b5 1ec0 7d37 2ec0 46bf 29bf
00000040: 932b 6abf d866 a6bf 132f 89c0 943b 3bc0
00000050: 7b81 63bf 7be0 3dbf 0999 35c0 a7b8 6dbf
00000060: 8da6 9cbf a77c 5abf de5d 80bf 02e8 7cbf
00000070: 89dc 33c0 f1fd e6bf cdd9 ebbf 8eb3 dbbf

first_h.4.running_mean f4 [32]
16.407593 -32.748978 14.053057 -15.08037 16.795643 -26.282057 4.8325214 -24.892221
-14.629185 52.45104 4.199818 -21.299824 -23.546284 16.160046 -31.36484 15.478325
-8.641884 -24.403948 -10.362242 42.7558 -4.1086245 -14.799331 27.155376 33.193306
3.0486023 23.592949 -12.649719 -14.333286 45.887604 -22.344452 -41.399258 9.416792
00000000: c042 8341 f4fe 02c2 52d9 6041 3249 71c1
00000010: 7a5d 8641 a741 d2c1 04a4 9a40 4523 c7c1
00000020: 2411 6ac1 ddcd 5142 e964 8640 0a66 aac1
00000030: ca5e bcc1 c647 8141 31eb fac1 38a7 7741
00000040: 2845 0ac1 493b c3c1 becb 25c1 f005 2b42
00000050: da79 83c0 0fca 6cc1 363e d941 f2c5 0442
00000060: 4d1c 4340 5cbe bc41 4065 4ac1 2455 65c1
00000070: e88c 3742 70c1 b2c1 d798 25c2 2eab 1641

first_h.4.running_var f4 [32]
85.799774 2153.463 115.19483 87.82696 50.975555 202.02434 39.34472 131.05838
99.58121 429.31216 19.59343 1037.1381 155.61002 49.96819 424.28778 99.6328
49.13509 548.37604 43.420105 1766.3667 34.28763 14.2018585 311.6833 146.32521
50.402 3148.2305 74.29043 98.362076 441.46677 553.0006 1338.6984 160.76593
00000000: 7c99 ab42 6897 0645 c163 e642 67a7 af42
00000010: f8e6 4b42 3b06 4a43 fe60 1d42 f20e 0343
00000020: 9429 c742 f5a7 d643 58bf 9c41 6ba4 8144
00000030: 2a9c 1b43 6ddf 4742 d624 d443 fe43 c742
00000040: 558a 4442 1118 0944 30ae 2d42 bccb dc44
00000050: 8826 0942 d03a 6341 76d7 9b43 4153 1243
00000060: a69b 4942 b0c3 4445 b394 9442 62b9 c442
00000070: bfbb dc43 0a40 0a44 5956 a744 14c4 2043

nns.0.0.weight f4 [32, 32]
-2.0212526 0.024816984 -0.67736226 -0.55658275 -0.6542286 -0.64442974 -0.89640456 -0.33264753
-0.69466144 -1.7384712 -0.8280927 -0.4152833 -0.17535058 -0.89105964 -1.6324004 -0.4823899
-0.5527774 -0.50094825 -0.8031309 -0.76138395 -0.6054443 -0.36298037 -0.9098784 -1.1913172
-0.5864584 -0.4450065 -0.45893168 -0.25763983 0.308626 -3.689645 -0.35509807 -1.4344003
0.6758976 0.33732763 1.0216844 0.5727709 0.6849026 2.5376039 0.22000068 0.36731723
-0.45774233 -1.550228 0.64501375 -0.42806607 -0.1492476 0.14011787 -3.641187 0.4932006
-0.22404347 0.5684117 0.6767425 0.5870443 -0.6139864 -0.75749695 -0.43726993 0.7211282
-0.30897075 -0.36224702 0.6056783 0.7610125 0.5737736 1.3500209 -0.1380588 0.9012996
0.4813523 -0.06173538 1.7348396 0.53247887 0.53917015 1.2506698 -0.19253686 1.4543499
0.59940815 0.28957605 0.53751594 0.35905522 0.042833216 1.9963163 0.8866506 0.32496995
0.66590106 0.82839453 0.44937396 0.87665147 -0.27142116 -0.36293763 2.0834053 0.33934775
0.76050967 0.39009568 -0.22215171 0.38626546 0.8284781 1.4943357 0.8160821 0.5866687
-0.5830702 -0.59337515 -0.7568884 -0.7053194 -0.48442513 -0.61867106 -0.67148113 -0.47533822
-0.7279024 -0.63012856 -0.7801776 -0.56361663 -0.7315066 -0.690847 -0.6045273 -0.586284
-0.5644308 -0.57095957 -0.76069325 -0.65591145 -0.5970368 -0.42403132 -0.48965946 -0.58209336
-0.6275385 -0.72217613 -0.5668722 -0.5459422 -0.44980127 -0.4672513 -0.738265 -0.4449504
-2.1652668 -1.1293094 -1.1228681 -1.133389 -0.27284285 -0.28912312 -1.0370158 0.04967166
-0.8383548 -3.0190144 -1.1194509 -0.79083973 0.28312707 -0.26153758 0.5457558 -1.2655333
-0.5194951 0.9977211 -0.974876 -0.5491045 -0.46624285 0.21495059 -1.8714024 -1.1166626
-0.8669252 0.18339588 -0.08277769 0.054738507 -1.260095 -4.5385537 0.3983959 -1.518502
0.9068486 0.80091786 1.4689251 -0.5377783 1.1601921 1.0432944 0.78359866 0.15253206
-0.56240195 -1.2882669 0.95148444 -0.6340908 -0.3803656 0.40481916 -3.0422692 0.6090301
-0.6021219 0.95597214 1.0798879 -1.7858934 -0.2624396 -0.54096967 -0.28742853 0.87617755
-0.22612134 -0.35143614 0.13936026 0.53594834 -0.22419006 -4.11499 -0.3550977 0.99777377
-0.7196565 -0.5037916 -0.26218915 -0.73415434 -0.6709917 -0.5949917 -0.8064693 -0.70314616
-0.45446405 -1.9116503 -0.6142317 -0.5197846 -0.3142784 -0.7381198 -2.0286388 -0.77310205
-0.6321073 -0.32831052 -0.59326667 -0.6590777 -0.6965891 -0.42748076 1.2354525 -0.8498803
-0.66687113 -0.6108791 -0.49829745 -0.46666393 -0.595271 -4.4010806 -0.46554387 -0.8614947
0.5368302 0.16916522 1.2483681 0.55342144 0.5977822 0.77386034 0.9514834 0.58038884
0.28696048 0.30481493 0.98816204 0.3771952 -0.435286 1.0153332 -0.7435857 0.9670787
0.15471044 0.7380795 1.1660999 0.84615535 0.20762183 0.114982985 1.2318275 -0.27718663
1.68688 0.010640544 -0.44414684 -0.077011764 0.9638806 0.4811696 -0.9541992 0.67518705
00000000: 345c 01c0 fd4c cb3c 9d67 2dbf 357c 0ebf
00000010: 877b 27bf 59f9 24bf c57a 65bf c750 aabe
00000020: 55d5 31bf 3986 debf e2fd 53bf 03a0 d4be
00000030: 1a8f 33be 7c1c 64bf 7ff2 d0bf cffb f6be
00000040: d282 0dbf 253e 00bf fd99 4dbf 0fea 42bf
00000050: 66fe 1abf 90d8 b9be caed 68bf 157d 98bf
00000060: 2322 16bf e4d7 e3be 18f9 eabe 5ee9 83be
00000070: 3a04 9e3e 2523 6cc0 6acf b5be 6e9a b7bf
00000080: a007 2d3f 35b6 ac3e 8ec6 823f 1da1 123f
00000090: c755 2f3f 1a68 2240 dc47 613e 0111 bc3e
000000a0: 345d eabe df6d c6bf 9f1f 253f 7a2b dbbe
000000b0: 5dd4 18be 0f7b 0f3e 3509 69c0 ca84 fc3e
000000c0: a76b 65be 6e83 113f ff3e 2d3f 8948 163f
000000d0: 362e 1dbf 52eb 41bf d8e1 dfbe dc9b 383f
000000e0: 6a31 9ebe 7178 b9be bc0d 1b3f b7d1 423f
000000f0: d4e2 123f 7ccd ac3f 495f 0dbe 92bb 663f
00000100: cf73 f63e 3dde 7cbd 390f de3f 8950 083f
00000110: 0e07 0a3f f315 a03f 6228 45be 2328 ba3f
00000120: d072 193f 5043 943e a59a 093f 16d6 b73e
00000130: e271 2f3d 4b87 ff3f 89fb 623f 7662 a63e
00000140: 7e78 2a3f aa11 543f 5814 e63e 3b6c 603f
00000150: b7f7 8abe f6d2 b9be 8356 0540 fdbe ad3e
00000160: c3b0 423f 9fba c73e bd7b 63be 96c4 c53e
00000170: 2417 543f 6446 bf3f c2ea 503f ec2f 163f
00000180: 1744 15bf 6fe7 17bf 70c3 41bf d08f 34bf
00000190: 9206 f8be 3a61 1ebf 30e6 2bbf 885f f3be
000001a0: d057 3abf 1b50 21bf b8b9 47bf 2e49 10bf
000001b0: 0444 3bbf 59db 30bf 4dc2 1abf b516 16bf
000001c0: 897e 10bf 682a 12bf cbbc 42bf d0e9 27bf
000001d0: 67d7 18bf a21a d9be a5b4 fabe 1204 15bf
000001e0: 5da6 20bf 89e0 38bf 891e 11bf dec2 0bbf
000001f0: 5a4c e6be 903b efbe effe 3cbf 8ad0 e3be
00000200: bb93 0ac0 368d 90bf 24ba 8fbf e412 91bf
00000210: 0fb2 8bbe f207 94be efbc 84bf 8374 4b3d
00000220: 6c9e 56bf 8837 41c0 2b4a 8fbf 7974 4abf
00000230: 08f6 903e 41e8 85be a7b6 0b3f fffc a1bf
00000240: a2fd 04bf a66a 7f3f 7991 79bf 1d92 0cbf
00000250: 62b7 eebe 021c 5c3e 1d8a efbf cdee 8ebf
00000260: cfee 5dbf 21cc 3b3e 5987 a9bd 7c35 603d
00000270: cb4a a1bf d53b 91c0 8cfa cb3e 465e c2bf
00000280: 3b27 683f f408 4d3f bd05 bc3f d7ab 09bf
00000290: 2d81 943f ac8a 853f ec99 483f 5d31 1c3e
000002a0: 93f9 0fbf eee5 a4bf 7c94 733f c653 22bf
000002b0: 48bf c2be 7544 cf3e 8ab4 42c0 66e9 1b3f
000002c0: a924 1abf 97ba 743f c439 8a3f 2898 e4bf
000002d0: 7c5e 86be fd7c 0abf d529 93be 2c4d 603f
000002e0: 5a8c 67be 70ef b3be 75b4 0e3e e933 093f
000002f0: 1492 65be 00ae 83c0 5ecf b5be 1a6e 7f3f
00000300: 693b 38bf 7cf8 00bf a83d 86be 8af1 3bbf
00000310: 1dc6 2bbf 6051 18bf c674 4ebf 6301 34bf
00000320: 83af e8be f5b0 f4bf 4a3e 1dbf 9b10 05bf
00000330: 19e9 a0be 6bf5 3cbf 38d5 01c0 04ea 45bf
00000340: c9d1 21bf 5118 a8be 53e0 17bf 51b9 28bf
00000350: aa53 32bf c2de dabe 4f23 9e3f c191 59bf
00000360: 11b8 2abf 9362 1cbf d820 ffbe 93ee eebe
00000370: ae63 18bf a7d5 8cc0 c45b eebe eb8a 5cbf
00000380: b46d 093f a639 2d3e 87ca 9f3f 07ad 0d3f
00000390: 4108 193f b61b 463f 6b94 733f 5d94 143f
000003a0: 7cec 923e b410 9c3e 30f8 7c3f bb1f c13e
000003b0: cedd debe 70f6 813f a25b 3ebf 7892 773f
000003c0: 6a6c 1e3e c7f2 3c3f c342 953f a39d 583f
000003d0: d19a 543e 337c eb3d 86ac 9d3f 68eb 8dbe
000003e0: afeb d73f ad55 2e3c 3767 e3be 58b8 9dbd
000003f0: e1c0 763f dd5b f63e 6646 74bf 0fd9 2c3f

nns.0.0.bias f4 [32]
3.0548794 0.015412715 -1.6345106 0.049603604 1.9453325 -0.47839648 0.42421916 0.4131261
0.4899735 3.598943 3.6927648 -3.0978756 0.568337 0.3480452 0.24039957 -0.3075544
7.059175 -2.202176 -0.9516084 -1.345768 1.6594051 1.3483315 0.4482946 2.8470178
3.0741067 3.8543744 -3.390316 -0.5888271 6.231415 3.750933 1.3693147 -0.6688412
00000000: 2583 4340 9d85 7c3c a537 d1bf 262d 4b3d
00000010: a800 f93f 62f0 f4be 4133 d93e 4485 d33e
00000020: cedd fa3e 1555 6640 4256 6c40 9843 46c0
00000030: 897e 113f fb32 b23e 4e2b 763e c577 9dbe
00000040: c3e4 e140 74f0 0cc0 9c9c 73bf 2042 acbf
00000050: 6367 d43f 2096 ac3f df86 e53e 8a35 3640
00000060: 2abe 4440 12ae 7640 f0fa 58c0 5fbd 16bf
00000070: c067 c740 490f 7040 b445 af3f 2d39 2bbf

nns.0.1.weight f4 [32]
7.94937 -3.340747 -0.500087 0.35556144 3.988004 0.8315041 5.8367968 -0.04960902
-0.009350315 -1.9550804 -6.136663 -0.1844487 0.21877848 0.3052625 2.3842053 4.461618
1.4932054 4.0461154 0.03138506 -0.3087472 7.742476 -1.2062835 0.6428604 1.8843174
-0.98069966 1.9806567 3.0726452 0.26968706 -6.388737 1.4861729 1.627391 0.40432248
00000000: 3d61 fe40 cdce 55c0 b405 00bf 260c b63e
00000010: 753b 7f40 74dd 543f 0ac7 ba40 d432 4bbd
00000020: 1032 19bc 1340 fabf 8b5f c4c0 1fe0 3cbe
00000030: 7707 603e 5e4b 9c3e d296 1840 93c5 8e40
00000040: 5b21 bf3f c779 8140 9f8d 003d 1d14 9ebe
00000050: 5dc2 f740 7f67 9abf 8092 243f 5031 f13f
00000060: 220f 7bbf 2986 fd3f 38a6 4440 6c14 8a3e
00000070: 8970 ccc0 ea3a be3f 594e d03f 5b03 cf3e

nns.0.1.bias f4 [32]
5.1661825 -2.8140578 -1.8321755 -0.527786 3.7801957 -11.217365 4.971508 -2.4657607
-0.41977048 -10.202268 2.408125 -7.11078 -0.84169745 -0.49244845 -6.1659465 -6.738124
-1.6852766 -6.5068316 -1.8225913 -9.864436 4.438325 -6.707208 -10.982404 -1.045701
-1.9587718 -2.5866668 -2.0620856 -0.9951694 -7.6579247 5.769503 -10.869684 -0.5362081
00000000: 5e51 a540 8619 34c0 ba84 eabf fc1c 07bf
00000010: baee 7140 547a 33c1 9816 9f40 06cf 1dc0
00000020: 28ec d6be 7d3c 23c1 b81e 1a40 828b e3c0
00000030: 7c79 57bf 3422 fcbe 6f4f c5c0 b69e d7c0
00000040: 25b7 d7bf f737 d0c0 ac4a e9bf bbd4 1dc1
00000050: c206 8e40 73a1 d6c0 edb7 2fc1 88d9 85bf
00000060: 09b9 fabf f38b 25c0 36f9 03c0 6cc3 7ebf
00000070: b80d f5c0 c59f b840 3aea 2dc1 ef44 09bf

nns.0.1.running_mean f4 [32]
3.0549111 0.015412582 -1.6345193 0.0496035 1.9453193 -0.47839412 0.42422292 0.41312438
0.48996815 3.598932 3.6928034 -3.0978951 0.5683363 0.34804413 0.2404013 -0.30755585
7.059117 -2.2021556 -0.95160264 -1.3457764 1.6594163 1.34834 0.44829625 2.8470106
3.0741343 3.8544242 -3.3903227 -0.5888284 6.231441 3.7509625 1.3693084 -0.66884196
00000000: aa83 4340 0e85 7c3c ee37 d1bf 0a2d 4b3d
00000010: 3900 f93f 13f0 f4be bf33 d93e 0a85 d33e
00000020: 1bdd fa3e e754 6640 e456 6c40 ea43 46c0
00000030: 7d7e 113f d732 b23e c22b 763e f677 9dbe
00000040: 49e4 e140 1ef0 0cc0 3b9c 73bf 6742 acbf
00000050: c167 d43f 6896 ac3f 1687 e53e 6c35 3640
00000060: 9ebe 4440 e3ae 7640 0cfb 58c0 75bd 16bf
00000070: f767 c740 c50f 7040 7f45 af3f 3a39 2bbf

nns.0.1.running_var f4 [32]
1.00637e-09 1.8203016e-14 7.738612e-11 1.9322942e-14 1.7490902e-10 5.797811e-12 1.39837066e-11 3.4783957e-12
2.8982514e-11 1.3717145e-10 1.5233093e-09 3.8749529e-10 3.0060967e-12 1.7099508e-12 3.0023273e-12 2.3538402e-12
3.3817835e-09 4.1320927e-10 3.3495044e-11 9.1326426e-11 1.2480024e-10 9.3437987e-11 2.9959984e-12 1.0794237e-10
8.1730717e-10 2.510396e-09 6.9629004e-11 4.1261976e-12 7.531638e-10 8.708691e-10 5.5261597e-11 3.0578383e-12
00000000: 7f50 8a30 4cf5 a328 832c aa2e ac0b ae28
00000010: 8350 402f 0afe cb2c 0401 762d 35c5 742c
00000020: d2ee fe2d 55d2 162f ae5c d130 1d07 d52f
00000030: 0689 532c 78a7 f02b 1f45 532c 04a3 252c
00000040: f764 6831 092a e32f 1150 132e 35d4 c82e
00000050: 2538 092f e978 cd2e 1cd3 522c 275e ed2e
00000060: e1a8 6030 5a83 2c31 a51d 992e 7c2d 912c
00000070: 3107 4f30 f761 6f30 070b 732e 1e2d 572c

nns.0.3.weight f4 [32, 32]
3.4915047 -2.2150993 0.09184707 0.33365723 0.3807148 -0.6945378 1.4900547 0.007826371
-0.6248056 0.49133858 -0.25709522 0.24853292 0.7756699 0.69375736 -0.7677645 -4.1563616
-1.2979119 -2.839535 -0.05988494 -0.79481333 -0.9933875 -1.7499392 -0.35078374 -0.6369611
-0.8041357 -0.5734816 -2.1945586 -0.43284807 -2.2022529 0.48699218 -3.186401 0.65568274
-0.5178647 -3.6736205 1.3869152 0.60411876 -0.10209911 -3.2591949 0.29431415 1.3993515
-0.8324455 -3.725429 -2.8717928 -2.4873388 0.6453354 -0.7046928 -0.068083815 -0.0683076
0.31182012 -3.8825731 -0.34004754 -4.3920794 1.0573487 -2.606341 -5.1631336 1.7521899
-0.30401376 2.239977 -0.03875465 -0.026687156 -4.3754416 0.92809707 -4.262125 -0.4035156
1.8729544 1.9502343 -0.9018656 -0.5898586 1.6617745 -0.74680996 1.6588618 -0.59751284
-0.6192189 -1.6968198 3.1219683 0.9884841 0.7336606 -0.67261213 -1.6388783 5.895975
-1.3816128 5.583326 -0.9050301 -0.48973832 1.6115854 6.603575 2.5421562 0.28429043
-0.2970594 -0.3806054 -1.5542269 0.5742713 5.450491 -0.6950657 6.234713 -0.7586149
1.8591104 -0.7314449 -0.24216942 -0.5403417 1.9022406 -0.8285563 1.7895098 0.47910374
-0.94008803 -0.39161342 4.5204206 -0.55650824 0.6887256 -0.6947325 -0.741144 7.0243263
-0.6334979 4.4367166 -0.79922074 -0.7353807 3.1031704 1.6446575 -0.035249297 -0.6270271
-0.8742106 -0.45198143 -0.56320816 -0.55080754 4.9337726 1.3980076 2.5220542 -0.37697354
-0.28629896 -0.6423316 -0.22963409 -0.4708622 2.6951263 -0.64745927 -1.5209724 0.5715518
-0.52175796 -0.70040315 -0.50401765 -0.6162189 -0.44826645 0.3966945 -1.2828207 -3.2614348
-3.0872345 1.0876544 -0.5978703 -0.7404106 0.14251968 -0.629508 -0.83508575 -0.5126706
-0.7815336 -1.1947317 -2.7845979 0.7785547 -0.27174896 -0.06807067 -2.7851024 -0.52569973
2.404572 -0.06809416 -0.865345 0.49602118 2.0534756 2.5062008 2.7760406 0.026108675
0.4875523 0.81760436 -3.668382 -0.67273706 0.6933118 -0.8042146 -3.5762053 -4.0085263
-4.679242 -3.454425 0.4393971 1.73315 1.5777923 3.3562593 2.4060812 -0.41152847
0.4080939 -0.7790893 -4.2838206 -0.4675355 0.9128359 2.9896424 -4.3823857 0.7289735
1.0148412 0.57733923 0.6240061 -0.5292571 -1.1397328 1.0049306 -0.21189813 -0.12589712
-0.8280282 0.2709981 -3.3880649 0.20626658 0.4853035 -0.0904248 0.7926904 -3.1441724
0.9705262 -4.0831785 0.6720229 -0.2309498 1.5866058 -2.7603476 -0.27865955 -0.16227575
1.4403595 0.8206353 1.0367709 0.5343802 -4.16858 -0.17695108 -1.9802305 0.5633299
-0.21842496 0.12571192 -0.7469591 -0.34353754 -0.21638045 -0.21041837 -1.2131596 0.11080367
-0.022269208 0.79843277 -0.030640747 -0.36527473 0.7035135 -0.2771995 1.7648267 0.7770997
1.5715197 1.3256947 0.06716847 -0.5087331 0.48763084 -0.16474426 0.16111329 0.67207193
-0.4656916 2.1693425 1.8007674 0.88467896 0.270443 0.77292776 1.3660014 -0.3280641
00000000: d074 5f40 30c4 0dc0 511a bc3d 1fd5 aa3e
00000010: 0ded c23e 3bcd 31bf 1dba be3f 2e3a 003c
00000020: 43f3 1fbf bb90 fb3e fca1 83be 6a7f 7e3e
00000030: 4d92 463f 159a 313f 378c 44bf ea00 85c0
00000040: fa21 a6bf f1ba 35c0 e949 75bd e378 4bbf
00000050: a54e 7ebf 02fe dfbf ed99 b3be e20f 23bf
00000060: d6db 4dbf b1cf 12bf a673 0cc0 439e ddbe
00000070: b6f1 0cc0 0a57 f93e feed 4bc0 d3da 273f
00000080: c892 04bf 991c 6bc0 7086 b13f 87a7 1a3f
00000090: 5719 d1bd a696 50c0 58b0 963e f31d b33f
000000a0: 261b 55bf 6e6d 6ec0 74cb 37c0 8f30 1fc0
000000b0: b334 253f bf66 34bf 876f 8bbd dbe4 8bbd
000000c0: e3a6 9f3e 147c 78c0 b61a aebe ea8b 8cc0
000000d0: 3457 873f 4ace 26c0 6438 a5c0 c247 e03f
000000e0: b1a7 9bbe c85b 0f40 32bd 1ebd 069f dabc
000000f0: 9e03 8cc0 c597 6d3f 5463 88c0 9999 cebe
00000100: f8bc ef3f 47a1 f93f aae0 66bf f900 17bf
00000110: 07b5 d43f f02e 3fbf 9555 d43f 9af6 18bf
00000120: 2185 1ebf 6431 d9bf 54ce 4740 4b0d 7d3f
00000130: 2ed1 3b3f 4f30 2cbf c4c6 d1bf d4ab bc40
00000140: b0d8 b0bf 9baa b240 0db0 67bf fbbe fabe
00000150: 6e48 ce3f 7d50 d340 b0b2 2240 848e 913e
00000160: 2b18 98be b6de c2be e8f0 c6bf 7203 133f
00000170: 6c6a ae40 d3ef 31bf c582 c740 9634 42bf
00000180: 54f7 ed3f f93f 3bbf 43fb 77be d553 0abf
00000190: 9f7c f33f 441c 54bf a80e e53f 164d f53e
000001a0: 9ca9 70bf 8e81 c8be 49a7 9040 5377 0ebf
000001b0: 5250 303f fdd9 31bf 9dbb 3dbf 48c7 e040
000001c0: eb2c 22bf 95f9 8d40 bb99 4cbf e941 3cbf
000001d0: 589a 4640 2384 d23f 9161 10bd d984 20bf
000001e0: 44cc 5fbf 1c6a e7be 692e 10bf b901 0dbf
000001f0: 77e1 9d40 eaf1 b23f 5669 2140 ad02 c1be
00000200: c795 92be d86f 24bf 3325 6bbe da14 f1be
00000210: f37c 2c40 e4bf 25bf 39af c2bf 3851 123f
00000220: ee91 05bf 9f4d 33bf 4d07 01bf 86c0 1dbf
00000230: 2e83 e5be 8b1b cb3e 7833 a4bf 59bb 50c0
00000240: 4095 45c0 4238 8b3f 070e 19bf 8d8b 3dbf
00000250: aef0 113e 7027 21bf 2ec8 55bf 613e 03bf
00000260: 9612 48bf f8ec 98bf da36 32c0 5c4f 473f
00000270: ae22 8bbe a368 8bbd 1e3f 32c0 4294 06bf
00000280: 82e4 1940 f374 8bbd 4087 5dbf 7df6 fd3e
00000290: 256c 0340 9865 2040 a6aa 3140 dce1 d53c
000002a0: 74a0 f93e 854e 513f c5c6 6ac0 7f38 2cbf
000002b0: e27c 313f 02e1 4dbf 8ce0 64c0 d945 80c0
000002c0: 5abc 95c0 4d15 5dc0 a8f8 e03e dcd7 dd3f
000002d0: 19f5 c93f f4cc 5640 3cfd 1940 dcb3 d2be
000002e0: aff1 d03e 6572 47bf 0f15 89c0 d060 efbe
000002f0: 9daf 693f 4d56 3f40 813c 8cc0 029e 3a3f
00000300: 51e6 813f 81cc 133f ddbe 1f3f 657d 07bf
00000310: c4e2 91bf 91a1 803f d3fb 58be 2deb 00be
00000320: a8f9 53bf 43c0 8a3e 0ed6 58c0 8c37 533e
00000330: b379 f83e a330 b9bd c2ed 4a3f 1f3a 49c0
00000340: 6874 783f 66a9 82c0 b109 2c3f 1b7e 6cbe
00000350: e615 cb3f 89a9 30c0 77ac 8ebe 9d2b 26be
00000360: b35d b83f 2815 523f e9b4 843f 24cd 083f
00000370: 0265 85c0 aa32 35be 3178 fdbf 6336 103f
00000380: cbaa 5fbe a0ba 003e b638 3fbf 27e4 afbe
00000390: d692 5dbe ea77 57be d048 9bbf 09ed e23d
000003a0: ea6d b6bc 1766 4c3f 4e02 fbbc 4a05 bbbe
000003b0: 7619 343f 18ed 8dbe d7e5 e13f 02f0 463f
000003c0: 8f27 c93f 5db0 a93f 9f8f 893d 553c 02bf
000003d0: c0aa f93e b8b2 28be e2fa 243e e80c 2c3f
000003e0: 216f eebe 82d6 0a40 8c7f e63f 527a 623f
000003f0: 8177 8a3e 98de 453f 22d9 ae3f 05f8 a7be

nns.0.3.bias f4 [32]
3.2777188 0.64134413 -4.6812267 -1.3594568 3.051873 -1.924152 1.5721666 -0.27322677
3.4700174 3.1478882 -0.7218984 -0.42419094 1.017939 2.9041116 -3.2160869 -3.3292983
-2.9865444 4.641455 -4.5437503 3.5050938 1.6211839 3.835309 -0.17976719 -3.4982777
-0.09849078 -0.92318153 -3.0506766 -0.24670106 0.7025489 3.9821332 0.9048621 -6.3179026
00000000: 25c6 5140 212f 243f 9ccc 95c0 ae02 aebf
00000010: e351 4340 9d4a f6bf c13c c93f 61e4 8bbe
00000020: c414 5e40 0077 4940 55ce 38bf 8e2f d9be
00000030: d34b 823f f7dc 3940 5ed4 4dc0 3913 55c0
00000040: 8b23 3fc0 cd86 9440 6766 91c0 7553 6040
00000050: f482 cf3f b475 7540 e414 38be c8e3 5fc0
00000060: 89b5 c9bd a055 6cbf 493e 43c0 349f 7cbe
00000070: 3fda 333f 45db 7e40 0ba5 673f 422c cac0

nns.0.4.weight f4 [32]
1.6500784 -0.04270694 -0.31807116 -0.9248011 0.5981905 0.23164847 1.294257 -0.6690256
-1.7805024 0.5122697 0.011227311 -1.8420522 -0.0771075 1.2675515 -0.48511687 -0.3795863
0.3865214 -0.76983553 0.80806136 -0.48057225 0.5555997 0.2587745 -0.07043702 -0.70202583
0.36413425 -0.014322835 0.8629859 0.10582367 -0.89745885 0.24182996 -2.380054 0.28893182
00000000: c535 d33f 79ed 2ebd 39da a2be c4bf 6cbf
00000010: 0323 193f 4235 6d3e 37aa a53f 4345 2bbf
00000020: 81e7 e3bf 1b24 033f c1f2 373c 5ec8 ebbf
00000030: 89ea 9dbd 213f a23f 3d61 f8be 2359 c2be
00000040: 22e6 c53e f113 45bf 1cdd 4e3f 910d f6be
00000050: c83b 0e3f 177e 843e 4941 90bd f7b7 33bf
00000060: ce6f ba3e 53aa 6abc a5ec 5c3f 15ba d83d
00000070: ddbf 65bf 46a2 773e ce52 18c0 dfee 933e

nns.0.4.bias f4 [32]
-2.159747 -3.9346704 -6.088225 -2.6172087 -1.643562 -4.448221 -3.5925765 -2.3767543
-1.2262763 -2.7507288 -0.819995 -0.8057925 -1.3224597 -4.1507583 -2.5740926 -8.351437
-0.77417564 -4.5299325 -2.191349 -6.559354 -2.484834 -2.7347298 -1.1918619 -5.0875044
-5.970767 -0.8787707 -0.7668936 -0.8124753 -3.401445 -1.9731909 -1.7113796 -8.8698845
00000000: 4b39 0ac0 a4d1 7bc0 bdd2 c2c0 5980 27c0
00000010: 3d60 d2bf d457 8ec0 c6ec 65c0 be1c 18c0
00000020: 9ff6 9cbf f10b 30c0 31eb 51bf 6b48 4ebf
00000030: 5c46 a9bf 03d3 84c0 efbd 24c0 7c9f 05c1
00000040: 6030 46bf 35f5 90c0 103f 0cc0 3ae6 d1c0
00000050: 8507 1fc0 d005 2fc0 ee8e 98bf d6cc a2c0
00000060: 8610 bfc0 1ef7 60bf 2453 44bf 62fe 4fbf
00000070: 46b1 59c0 8591 fcbf 7d0e dbbf 0ceb 0dc1

nns.0.4.running_mean f4 [32]
27.662428 1.9559472 30.250216 57.16188 3.2632523 46.943497 -1.0780525 -1.7050908
26.018398 70.89662 -17.350851 -9.526989 14.478671 60.564426 60.602444 143.55225
-1.1879852 110.00286 -16.035988 89.84241 -2.6016748 5.9138126 8.301296 -100.654526
-135.36662 -12.307141 5.6384764 -1.7610105 20.948616 48.746628 -13.758203 81.95459
00000000: a74c dd41 7a5c fa3f 7100 f241 c4a5 6442
00000010: 20d9 5040 24c6 3b42 a0fd 89bf 6a40 dabf
00000020: ae25 d041 12cb 8d42 8bce 8ac1 8c6e 18c1
00000030: a3a8 6741 f941 7242 e768 7242 608d 0f43
00000040: e60f 98bf 7701 dc42 b449 80c1 50af b342
00000050: d781 26c0 f43d bd40 1cd2 0441 1e4f c9c2
00000060: db5d 07c3 0dea 44c1 666e b440 cb68 e1bf
00000070: c496 a741 8cfc 4242 9921 5cc1 c0e8 a342

nns.0.4.running_var f4 [32]
5.47773e-08 2.4922434e-10 7.336154e-08 2.2330228e-07 4.587494e-10 7.352199e-08 4.1920554e-11 1.5616185e-10
3.304048e-08 2.4605663e-07 1.3167497e-08 3.8999244e-09 1.0189282e-08 2.270688e-07 2.5816087e-07 1.072988e-06
7.492202e-11 8.8925566e-07 1.28091875e-08 3.101327e-07 2.4304736e-10 1.5236273e-09 4.5925685e-09 5.8270257e-07
7.7968554e-07 7.2603115e-09 1.1903202e-09 1.5072754e-10 1.6365787e-08 1.3689726e-07 7.913426e-09 4.755935e-07
00000000: 4744 6b33 3503 892f ef8a 9d33 ddc4 6f34
00000010: 3d33 fc2f 24e3 9d33 595e 382e a7b3 2b2f
00000020: 64e8 0d33 c419 8434 4437 6232 1900 8631
00000030: f00c 2f32 32d0 7334 5c99 8a34 9603 9035
00000040: 59c1 a42e 2fb5 6e35 670f 5c32 5080 a634
00000050: e09d 852f df67 d130 a9cc 9d31 046b 1c35
00000060: 954b 5135 6076 f931 ab98 a330 08ba 252f
00000070: bf94 8c32 08fe 1234 9ef3 0732 1355 ff34

nns.1.0.weight f4 [32, 32]
-0.5895618 -0.9812247 0.5926932 -0.74236417 0.5786422 0.47129428 -0.46483842 0.7845117
-0.7237056 1.0285404 0.5322522 -0.3130832 0.8258971 -0.2239585 0.5420541 0.966648
0.57923126 0.969723 0.8305689 0.71726567 -0.75351334 0.2802796 0.58820075 -0.69835514
2.0973365 -0.3277177 0.7380494 -0.07028451 0.05602574 -0.0059737046 0.47392967 1.645273
0.859992 -3.6739423 -4.075227 -1.4613538 -1.0695847 -3.0930066 2.870767 -2.3758326
-0.4766737 3.7018836 0.13682719 -0.5796667 -0.18128751 -1.3574686 -0.62113756 1.4483323
-0.90809494 -1.7309241 -1.8316308 1.3109847 -0.21390992 3.0595078 0.8508762 -1.1834292
-4.032074 -0.44963026 -0.28514916 -0.5340178 0.9364082 -0.3501264 -0.73720014 4.752641
0.6859279 0.80736405 0.7778049 1.7232637 2.0100503 -0.5959712 0.47206482 3.5775344
0.46102074 -0.73199785 -0.4226643 -0.22209434 -0.3417571 -1.520402 -0.4145911 2.4118807
-0.5793745 -0.44073898 0.8703083 -0.98214215 0.75937355 -3.5351827 -0.71140504 -1.2177318
0.04040627 -0.4591808 -0.8377904 -0.46580338 -0.059784964 0.6034216 0.20086811 -3.1865144
1.5269767 -4.073176 1.9515879 0.24151868 2.2759576 3.6130712 -1.8383973 -3.1589177
-1.1254667 -0.40989283 -0.26352286 2.1142817 -1.4573562 -0.31035122 1.2003598 4.704905
0.6676517 -0.38455427 -0.14381823 -0.6743113 0.81472254 3.1282926 0.10197409 -0.37250575
4.5250964 0.68465436 0.12816364 0.53074896 -1.7478244 -1.3742827 1.5580648 1.3668491
3.0185826 5.507743 -1.2908574 0.40252492 3.3442721 -3.1155705 0.043226022 -1.2873298
-0.17020293 3.0683205 0.20505112 0.73518246 1.0008138 2.0015378 0.020568114 -3.102776
0.9267293 -1.4297264 -1.3343717 1.60134 0.5019382 -2.3643675 0.45872468 1.3397541
-0.81219506 0.1498462 1.0626875 0.74394083 1.7245884 0.25489974 -1.0847838 -0.9015731
2.3326907 3.5104475 -4.3807683 0.5802743 0.05567131 0.79177636 -2.7453823 -2.1241562
-0.087976076 -0.944414 -0.70006233 0.024157135 -1.0872866 1.7135342 -0.59246033 3.1168108
0.5399171 -1.0308568 -1.4269775 -0.81934816 0.5703546 -3.4140177 -0.76391983 5.2388716
1.05227 -0.30268934 -0.24744917 -0.565963 1.2589208 0.35708448 0.18406798 -0.5974824
-0.71045077 -3.5714352 -0.7087332 -0.40230754 -0.19819726 -1.190401 0.26431006 -1.8021142
-0.6235715 1.3625964 0.4323699 -0.117171295 0.6447319 -1.0488333 0.5024105 1.9856503
0.50628835 -1.3140564 -0.4051391 2.8516219 -0.74514544 0.5892017 0.8697393 -3.1085427
-0.9722612 -0.27829567 1.1997373 -0.10838245 -0.095294364 -1.0250503 -0.82049674 2.6277096
-0.5349164 -0.73467404 0.5151787 -0.8165718 -0.8342799 0.50012356 -0.13603473 0.648082
-0.46988276 0.559942 0.4819506 0.69162613 0.5670043 -0.74926925 0.7610016 0.35451913
0.5825647 0.5769941 1.1271251 0.92376226 -0.7009549 0.6640261 0.42312855 -0.547882
0.4075006 -0.9092492 0.43118608 -0.17593396 -0.6197897 -0.33800933 -0.3669905 0.7314716
00000000: 86ed 16bf 8b31 7bbf beba 173f 940b 3ebf
00000010: e521 143f 7c4d f13e 4dff edbe c2d5 483f
00000020: c544 39bf 36a7 833f ae41 083f 714c a0be
00000030: fe6d 533f 6155 65be 0fc4 0a3f 3e76 773f
00000040: 8048 143f c43f 783f 2aa0 543f b99e 373f
00000050: 40e6 40bf cf80 8f3e 5394 163f 67c7 32bf
00000060: c33a 0640 9dca a7be cef0 3c3f 53f1 8fbd
00000070: 3f7b 653d 11bf c3bb e9a6 f23e 4e98 d23f
00000080: 7028 5c3f df21 6bc0 4268 82c0 a40d bbbf
00000090: 27e8 88bf d2f3 45c0 a6ba 3740 a40d 18c0
000000a0: 930e f4be a9eb 6c40 6d1c 0c3e 0965 14bf
000000b0: 6fa3 39be 88c1 adbf df02 1fbf f462 b93f
000000c0: e978 68bf ec8e ddbf e172 eabf 59ce a73f
000000d0: 340b 5bbe face 4340 06d3 593f 9c7a 97bf
000000e0: c006 81c0 f035 e6be 12ff 91be 64b5 08bf
000000f0: 73b8 6f3f c443 b3be 26b9 3cbf a315 9840
00000100: f998 2f3f 69af 4e3f 391e 473f e893 dc3f
00000110: aaa4 0040 9291 18bf 7bb2 f13e 53f6 6440
00000120: e90a ec3e 3664 3bbf 7567 d8be b36c 63be
00000130: c9fa aebe 889c c2bf 4945 d4be 415c 1a40
00000140: e351 14bf 8aa8 e1be 86cc 5e3f ab6d 7bbf
00000150: 4e66 423f 6f40 62c0 a41e 36bf a3de 9bbf
00000160: 0c81 253d bf19 ebbe 6f79 56bf c87d eebe
00000170: 14e1 74bd d779 1a3f 5fb0 4d3e daef 4bc0
00000180: f973 c33f 7557 82c0 a2cd f93f ac50 773e
00000190: 4aa9 1140 8f3c 6740 9a50 ebbf b52b 4ac0
000001a0: 4b0f 90bf 79dd d1be 78ec 86be 6450 0740
000001b0: a68a babf 5be6 9ebe 64a5 993f 958e 9640
000001c0: 39eb 2a3f 4ce4 c4be 1645 13be aa9f 2cbf
000001d0: a891 503f f235 4840 cbd7 d03d 13b9 bebe
000001e0: 97cd 9040 8245 2f3f 543d 033e 2adf 073f
000001f0: b6b8 dfbf 7fe8 afbf ab6e c73f e9f4 ae3f
00000200: 7530 4140 6e3f b040 d13a a5bf bf17 ce3e
00000210: 8e08 5640 8265 47c0 c50d 313d 39c7 a4bf
00000220: ad49 2ebe 5d5f 4440 ecf8 513e eb34 3c3f
00000230: ab1a 803f 3219 0040 767e a83c e293 46c0
00000240: 223e 6d3f 4601 b7bf b1cc aabf b6f8 cc3f
00000250: 067f 003f cc51 17c0 f6dd ea3e 107d ab3f
00000260: 04ec 4fbf 4871 193e 2506 883f e872 3e3f
00000270: 50bf dc3f 3882 823e 32da 8abf 7fcd 66bf
00000280: ce4a 1540 2cab 6040 412f 8cc0 db8c 143f
00000290: 9907 643d dbb1 4a3f 58b4 2fc0 2df2 07c0
000002a0: cd2c b4bd 1ec5 71bf 4937 33bf 2fe5 c53c
000002b0: 352c 8bbf 1755 db3f 7bab 17bf d479 4740
000002c0: 0238 0a3f 1ef3 83bf 33a7 b6bf cdc0 51bf
000002d0: c202 123f 447f 5ac0 4090 43bf d6a4 a740
000002e0: c9b0 863f 19fa 9abe 5163 7dbe f3e2 10bf
000002f0: 5124 a13f c7d3 b63e 517c 3c3e 9bf4 18bf
00000300: 1ae0 35bf 6592 64c0 8a6f 35bf 41fb cdbe
00000310: 39f4 4abe 0f5f 98bf a653 873e aeab e6bf
00000320: 62a2 1fbf 8f69 ae3f 965f dd3e 81f7 efbd
00000330: 260d 253f 2b40 86bf f99d 003f ca29 fe3f
00000340: 1d9c 013f 0033 a8bf 646e cfbe f980 3640
00000350: dac1 3ebf ecd5 163f 3ca7 5e3f 5df2 46c0
00000360: 1ce6 78bf c57c 8ebe fe90 993f 9ef7 ddbd
00000370: b129 c3bd d934 83bf 130c 52bf 652c 2840
00000380: 48f0 08bf 9913 3cbf c0e2 033f d90a 51bf
00000390: 5e93 55bf 1908 003f b04c 0bbe b4e8 253f
000003a0: 7994 f0be 5c58 0f3f 3bc2 f63e 690e 313f
000003b0: 3227 113f 1cd0 3fbf 00d1 423f 8883 b53e
000003c0: f622 153f e3b5 133f a345 903f af7b 6c3f
000003d0: c871 33bf 9dfd 293f 4ea4 d83e ff41 0cbf
000003e0: eba3 d03e 8ec4 68bf 6cc4 dc3e 0828 34be
000003f0: 8aaa 1ebf 8f0f adbe 2ee6 bbbe b941 3b3f

nns.1.0.bias f4 [32]
-1.3982558 -1.7137846 -2.0966017 -1.2009782 0.6059321 -1.481522 4.050362 0.32626298
0.8961995 0.13370779 6.4774427 -4.7708616 2.5726602 -1.4297062 -0.35125023 4.685075
0.82069486 -6.284079 -1.7176936 2.4654415 -8.655192 7.6588044 0.43866536 -0.52099454
3.842054 -2.5650954 -0.39910087 -2.7332008 1.0079682 -0.026517935 8.968762 -2.3460515
00000000: 0cfa b2bf 4b5d dbbf b92e 06c0 a7b9 99bf
00000010: 5e1e 1b3f 83a2 bdbf 919c 8140 f10b a73e
00000020: 556d 653f b2ea 083e 3647 cf40 e6aa 98c0
00000030: 77a6 2440 9d00 b7bf 12d7 b3be 22ec 9540
00000040: 0f19 523f 2d17 c9c0 62dd dbbf cbc9 1d40
00000050: ab7b 0ac1 ed14 f540 bf98 e03e e65f 05bf
00000060: 36e4 7540 862a 24c0 f356 ccbe c3ec 2ec0
00000070: 1a05 813f 243c d9bc 0d80 0f41 b525 16c0

nns.1.1.weight f4 [32]
-0.8362488 1.5252267 3.172509 2.53686 4.7591567 -4.7526493 -0.06489273 -0.0399569
-5.9888663 0.007073377 -6.9356947 -0.01926763 2.066914 1.010815 3.388004 2.438855
-5.2126937 -4.6744757 -7.1718774 2.57751 -1.7582539 1.2322048 -0.9726605 -0.021000328
-2.002243 -2.7512424 -0.0035155688 -3.9203653 4.6792207 -0.32190445 3.702145 1.6394424
00000000: 6714 56bf a13a c33f 630a 4b40 ea5b 2240
00000010: 034b 9840 b415 98c0 7be6 84bd d9a9 23bd
00000020: cba4 bfc0 c9c7 e73b 36f1 ddc0 26d7 9dbc
00000030: 5248 0440 6362 813f 0fd5 5840 3316 1c40
00000040: 63ce a6c0 4e95 95c0 0580 e5c0 edf5 2440
00000050: 770e e1bf e3b8 9d3f 4700 79bf e108 acbc
00000060: c024 00c0 5b14 30c0 7565 66bb 44e7 7ac0
00000070: 2dbc 9540 a9d0 a4be f2ef 6c40 40d9 d13f

nns.1.1.bias f4 [32]
-4.2251873 -5.01779 -2.752776 3.614679 -3.8521078 4.447012 -4.0644536 -1.9087834
-4.7153087 -1.1297829 -1.9792302 -2.111394 7.1790133 -5.6184473 -3.0622277 -3.1139483
-3.9839385 -2.5254345 -2.449139 -6.7756114 -2.6781151 -0.6348985 -5.6294723 -1.2057501
-1.1483455 -2.950461 -1.5797911 -4.404471 -3.9206302 -2.3378544 -2.699497 1.7720518
00000000: bc34 87c0 bc91 a0c0 7b2d 30c0 e756 6740
00000010: ef88 76c0 ec4d 8e40 0110 82c0 0453 f4bf
00000020: cfe3 96c0 ba9c 90bf 6a57 fdbf 1421 07c0
00000030: 7aba e540 52ca b3c0 8afb 43c0 ee4a 47c0
00000040: d9f8 7ec0 b8a0 21c0 b2be 1cc0 cfd1 d8c0
00000050: 3d66 2bc0 b588 22bf a324 b4c0 0556 9abf
00000060: fcfc 92bf 5ad4 3cc0 9836 cabf 6df1 8cc0
00000070: 9beb 7ac0 689f 15c0 8fc4 2cc0 98d2 e23f

nns.1.1.running_mean f4 [32]
-1.3982685 -1.7137758 -2.0965865 -1.2009796 0.6059314 -1.4815314 4.050343 0.32626328
0.8961939 0.13370691 6.477501 -4.770831 2.5726578 -1.4296963 -0.35125443 4.6850605
0.82069373 -6.28414 -1.7176824 2.465437 -8.655249 7.6587276 0.43866155 -0.5209962
3.8420432 -2.5651026 -0.39910114 -2.7331772 1.0079789 -0.026517883 8.968756 -2.346053
00000000: 76fa b2bf 015d dbbf 792e 06c0 b3b9 99bf
00000010: 521e 1b3f d2a2 bdbf 699c 8140 fb0b a73e
00000020: f76c 653f 77ea 083e b047 cf40 a6aa 98c0
00000030: 6da6 2440 4a00 b7bf 9fd7 b3be 04ec 9540
00000040: fc18 523f ad17 c9c0 04dd dbbf b8c9 1d40
00000050: e67b 0ac1 4c14 f540 3f98 e03e 0260 05bf
00000060: 09e4 7540 a42a 24c0 fc56 ccbe 60ec 2ec0
00000070: 7405 813f 083c d9bc 0680 0f41 bb25 16c0

nns.1.1.running_var f4 [32]
1.7700491e-10 8.6323226e-11 2.5341548e-10 1.7679002e-11 4.5696953e-12 9.75497e-11 3.997201e-10 1.7417453e-13
3.3043856e-11 7.9651075e-13 3.3562975e-09 1.0854236e-09 6.830997e-11 9.7852886e-11 1.7764387e-11 1.7266817e-10
3.0374707e-12 3.7384607e-09 1.3433155e-10 9.543106e-11 3.1852556e-09 5.98924e-09 1.4478218e-11 2.0461501e-12
1.3240348e-10 9.792143e-11 5.483465e-13 5.7601074e-10 1.1515131e-10 3.4837275e-15 1.3103613e-10 6.3801936e-11
00000000: 749e 422f a8d3 bd2e 0f51 8b2f 9381 9b2d
00000010: 28c8 a02c 9983 d62e 9abf db2f 641a 442a
00000020: 1354 112e a632 602b 9ca4 6631 f32d 9530
00000030: 1837 962e 472e d72e d841 9c2d c5d9 3d2f
00000040: 35be 552c d973 8031 f8b2 132f e9da d12e
00000050: 9ce3 5a31 eac9 cd31 19b4 7e2d 2afc 0f2c
00000060: 4494 112f dd54 d72e 8858 1a2b 2755 1e30
00000070: 6d38 fd2e 6e07 7b27 6413 102f 4c4d 8c2e
