result/experiment_07.12.2022_12.13.21/13/fold_3_optim_dict.pt (torch, 67074 bytes, 40 tensors)

first_h.0.weight f4 [64, 3]
0	0xbf66c1b0	-0.90139294
1	0xbf080628	-0.53134394
2	0xbbf1bcab	-0.0073772273
3	0xbf9afcb5	-1.210837
4	0xbf1f348e	-0.6218957
5	0xbefc9585	-0.49332824
6	0xbf284753	-0.6573383
7	0xbfc5359f	-1.5406989
8	0xbfbbde6a	-1.467725
9	0x3f52b4d6	0.82307184
10	0x3e11a32a	0.14222398
11	0x3f44a788	0.7681813
12	0xbf2a1435	-0.66437083
13	0xbed65ca2	-0.41867548
14	0xbd82fec9	-0.06396253
15	0x3f1a4791	0.6026545
16	0x3e21a40b	0.15785234
17	0x3f68ccb8	0.90937376
18	0x40233fb2	2.5507627
19	0x3eb08cbf	0.3448238
20	0x3ebe852f	0.37210986
21	0xbf1bf8e5	-0.6092666
22	0x3fdd085d	1.7268177
23	0x3f7b491e	0.9815844
24	0x3f00aa22	0.502596
25	0xbfb82109	-1.4385082
26	0xbf65633c	-0.89604545
27	0x3f4d4c99	0.80195004
28	0xbfafb40a	-1.3726819
29	0xbf87450a	-1.0567944
30	0x3fc265a9	1.5187274
31	0xbe1f0e2e	-0.15532753
32	0xbe06b29f	-0.13154076
33	0x3f11c44b	0.56940144
34	0xbef88356	-0.485377
35	0xbfb6fb07	-1.4295357
36	0x3f6675b3	0.90023345
37	0xbdfbcf36	-0.12295382
38	0x3d4020fc	0.046906456
39	0xbf411cd7	-0.7543463
40	0xbf781987	-0.9691395
41	0xbeabdf07	-0.33568594
42	0xbed6a308	-0.41921258
43	0xbf1f0220	-0.6211262
44	0xbf1b16a8	-0.60581446
45	0xbf165576	-0.58724153
46	0x3efb34e8	0.49063802
47	0x3cf074e9	0.029352622
48	0x3f090d50	0.5353594
49	0x3e9f48d2	0.31110245
50	0x3ec2027c	0.3789252
51	0x3e206b44	0.15665919
52	0x3f1e47d9	0.6182838
53	0x3e2ac285	0.16675766
54	0x3f149d1c	0.5805223
55	0xbecb8085	-0.3974649
56	0xbf622119	-0.88331753
57	0xbef6ec58	-0.4822719
58	0x3f12bec0	0.5732231
59	0x3dd3de12	0.10345091
60	0x3f872d50	1.0560703
61	0x3c9a06b8	0.018802032
62	0xbd5eadde	-0.05436503
63	0xbf3a79a3	-0.7284185
64	0xbe357a03	-0.17722325
65	0xbe356fb3	-0.17718391
66	0xbeacc626	-0.33744925
67	0xbf168118	-0.5879073
68	0xbf776b7c	-0.96648383
69	0x3f47e43b	0.7808263
70	0x3f221774	0.63317037
71	0xbee0d72c	-0.43914163
72	0x3fa6c232	1.3028014
73	0xbe80b149	-0.25135258
74	0xbf342c32	-0.70379937
75	0xbe565f92	-0.20934895
76	0xbf04e5f9	-0.5191341
77	0xbf14221b	-0.5786454
78	0xbf0dedf6	-0.55441225
79	0x3fb4869e	1.4103582
80	0x3f039cd6	0.5141119
81	0x3f0d5f57	0.552236
82	0xbf80cd84	-1.0062718
83	0xbf9e9640	-1.2389603
84	0xbf0398c0	-0.51404953
85	0x3fa21ec5	1.266564
86	0x3f43cb94	0.7648251
87	0x3f1f38a4	0.621958
88	0xbf1298fc	-0.57264686
89	0x3e4a016f	0.1972711
90	0x3ef91616	0.48649663
91	0xbf2beb55	-0.67155963
92	0xbf7298a6	-0.94764173
93	0xbf6a4f92	-0.91527665
94	0xbeed6f56	-0.46374005
95	0xbe7cf225	-0.24701746
96	0x3f35acf2	0.7096702
97	0xbe93012c	-0.28711832
98	0x3e313c90	0.17308259
99	0x3fa8fa47	1.3201379
100	0x3eb34b58	0.3501842
101	0x3ef50498	0.47855067
102	0x3f0b8668	0.5450196
103	0x3dcaa9df	0.098956816
104	0xbe8f55b7	-0.27995083
105	0x3f0c73d0	0.54864216
106	0xbeb439bc	-0.35200298
107	0xbf72f86f	-0.9491033
108	0x3f18587e	0.5951003
109	0xbfcc8914	-1.5979333
110	0xc01225a5	-2.2835476
111	0xbf634c65	-0.88788444
112	0xbf7af22f	-0.9802579
113	0xbe7413f7	-0.23835741
114	0xbf355a14	-0.70840573
115	0x3e26eceb	0.16301315
116	0xbd7feaf4	-0.062479928
117	0x3f333262	0.69998753
118	0xbe03461e	-0.12819716
119	0xbebca7f0	-0.36846876
120	0xbf7242c6	-0.9463314
121	0xbe9488e7	-0.29010698
122	0xbeb8d7d4	-0.36102164
123	0x3e98d278	0.29848075
124	0xbf30c5b4	-0.6905167
125	0xbf2b259a	-0.6685425
126	0x3f258a8b	0.64664525
127	0xbec5f016	-0.38659734
128	0xbd84e718	-0.0648939
129	0x3f1113e7	0.56670994
130	0xbec8b878	-0.39203238
131	0xbe196e4c	-0.14983481
132	0xbf9fd4b6	-1.2486789
133	0xbf246e14	-0.64230466
134	0xbf24326d	-0.64139444
135	0xbe18b3e5	-0.14912374
136	0xbf15f620	-0.5857868
137	0xbf270dcd	-0.65255433
138	0xbf3d578a	-0.739617
139	0xbf634234	-0.8877289
140	0xbeeb1140	-0.45911598
141	0x3e84b85f	0.25921914
142	0x3f978406	1.1837165
143	0x3ed5894d	0.41706315
144	0xbf8b086a	-1.0861943
145	0xbe8f6421	-0.2800608
146	0x3cfe5a87	0.031049026
147	0x3f808867	1.0041627
148	0x3e434939	0.19070901
149	0xbdeaad1f	-0.114588015
150	0xbf313bf4	-0.69232106
151	0xbde48e48	-0.111599505
152	0xbf641242	-0.8909036
153	0x3f06c5f9	0.5264583
154	0xbf86cb27	-1.0530747
155	0xbf72bfd9	-0.94823986
156	0xbf1e8c14	-0.6193249
157	0x3f8de9a7	1.108693
158	0x3f1b97e4	0.6077864
159	0xbf2e1f47	-0.68016475
160	0xbec264ee	-0.37967628
161	0xbf2a091e	-0.6642016
162	0xbeb5e5f1	-0.35526994
163	0xbf2cf7da	-0.6756569
164	0xbf71ce32	-0.94455254
165	0xbf1b7b3f	-0.60734934
166	0xbe35afa2	-0.1774278
167	0xbdaa6769	-0.08320505
168	0xbec1b7bb	-0.37835488
169	0xbec3763e	-0.3817615
170	0xbf7c9393	-0.9866268
171	0x3f376c94	0.7165005
172	0xbe857b2f	-0.26070544
173	0xbc30b285	-0.01078475
174	0xbf2536c3	-0.64536685
175	0xbd69a106	-0.05703833
176	0x3e6de8d5	0.2323335
177	0x3f07487d	0.52844983
178	0xbf802315	-1.0010706
179	0xbf0f0a9d	-0.5587557
180	0x3fb30153	1.3984779
181	0x3f745bde	0.9545268
182	0xbe264bf6	-0.16239914
183	0x3f9ac520	1.2091408
184	0x3ceafad6	0.028684061
185	0xbec6daf3	-0.3883892
186	0x3f20c266	0.6279663
187	0x3edd2316	0.4319083
188	0x3ef54172	0.47901493
189	0xbef72fc3	-0.48278627
190	0xbf89405b	-1.0722765
191	0xbf8369b5	-1.0266634

first_h.0.bias f4 [64]
0	0x3e1a9dd5	0.1509927
1	0xbd7f171e	-0.062277906
2	0xbc9e95ec	-0.019358598
3	0x3db8f5b5	0.0903124
4	0x3e140f80	0.14459038
5	0xbe97b274	-0.29628336
6	0xbe39a694	-0.18129951
7	0xbedd534b	-0.4322761
8	0xbd50e28b	-0.0509973
9	0xbd86ec9c	-0.065880984
10	0x3eb69b72	0.3566547
11	0x3e20cc8c	0.15703028
12	0xbe6772ce	-0.22602388
13	0x3eb76d1e	0.35825437
14	0xbe2cc416	-0.16871676
15	0xbda185be	-0.078868374
16	0xbeba8754	-0.36431372
17	0x3eae626d	0.34059468
18	0xbde58212	-0.112064496
19	0x3ea89c68	0.32931828
20	0xbf04d1b3	-0.51882476
21	0x3f05b9f7	0.52236885
22	0x3f01714b	0.50563496
23	0xbee2bc48	-0.44284272
24	0x3f1106a4	0.5665076
25	0x3e97651b	0.29569325
26	0x3dbfb32e	0.09360348
27	0x3ea71ebe	0.32640642
28	0xbe420e62	-0.18950799
29	0x3ec41edd	0.38304797
30	0xbf02ca16	-0.5108961
31	0xbf0c55d2	-0.5481845
32	0x3f0291a5	0.51003486
33	0xbee60051	-0.44922116
34	0xbee22acc	-0.44173276
35	0x3df70308	0.12061125
36	0x3c61e491	0.013787405
37	0x3e8226dd	0.25420275
38	0xbe1d3b7d	-0.15354724
39	0x3edfcc0f	0.43710372
40	0x3e14957b	0.14510147
41	0x3d25050f	0.040288027
42	0xbe957d44	-0.29197133
43	0x3f0acd1f	0.5421924
44	0xbe1afbbb	-0.1513509
45	0x3c34b879	0.01103031
46	0xbea1142e	-0.31460708
47	0xbdc73a1a	-0.09727879
48	0x3ed85c7e	0.42258066
49	0x3ef76be6	0.48324507
50	0xbed08cc3	-0.40732393
51	0xbc820e6b	-0.015876016
52	0xbe535281	-0.20636941
53	0xbe8ebd18	-0.27878642
54	0xbd89f8a6	-0.06736879
55	0x3aba0bf1	0.0014194233
56	0xbe26c09e	-0.16284415
57	0xbd27a066	-0.040924452
58	0xbefc896e	-0.493236
59	0x3db40724	0.087904245
60	0x3e19076d	0.14944239
61	0x3eed7017	0.4637458
62	0x3f0915bb	0.53548783
63	0xbf0e94d7	-0.5569586

first_h.1.weight f4 [64]
0	0x3c77b65c	0.015119161
1	0x3eec011a	0.4609459
2	0x4015fd8e	2.3436007
3	0x3ec3d2c4	0.3824674
4	0x3e213a01	0.15744783
5	0xbdefd57d	-0.117106415
6	0x3f0540d3	0.5205204
7	0x3e1d5638	0.15364921
8	0x401d86b8	2.4613476
9	0xbf9e866f	-1.2384776
10	0x3f5e0875	0.86731654
11	0x3f582072	0.8442451
12	0xbf3b1f3d	-0.7309454
13	0x3e009e6e	0.12560436
14	0x3eb84988	0.359936
15	0x3fe4fe91	1.7890188
16	0xbe7c7db9	-0.24657334
17	0xbf0bc2ea	-0.5459429
18	0xbf012b85	-0.5045703
19	0x3fe0a37a	1.7549889
20	0x3e8c7da4	0.27439606
21	0x3f04364b	0.51645344
22	0x3e869022	0.2628184
23	0x3ed1ccb3	0.40976486
24	0x3f827f3b	1.0195078
25	0x3d99e2ac	0.07513937
26	0x3e1d3b12	0.15354565
27	0xbd36b141	-0.044602636
28	0xbd791781	-0.06081343
29	0x400f3f95	2.2382557
30	0xbeac5286	-0.3365671
31	0x3e1d8edb	0.15386526
32	0x3f8fee5e	1.1244619
33	0x3f08ab65	0.5338653
34	0xbf40b664	-0.75278306
35	0x3fe1cd01	1.7640687
36	0x3f93d82c	1.1550345
37	0x3e97a76d	0.29619923
38	0x3d10419d	0.035218824
39	0x3fc25811	1.5183126
40	0x3e55d46d	0.20881815
41	0xbdb4b88e	-0.088242635
42	0xbf1e2fe5	-0.6179183
43	0xbf1697a7	-0.58825153
44	0x3ca33988	0.019924894
45	0x3e772227	0.24134122
46	0x3dc599ef	0.09648501
47	0xbeffe115	-0.4997641
48	0x3cede418	0.029039428
49	0x3f8ac93d	1.0842663
50	0x3f8d5143	1.1040424
51	0x3e80ea54	0.25178778
52	0x3d384c39	0.044994567
53	0xbc4525a8	-0.012032904
54	0x3e1e8412	0.15480068
55	0x3fe1a614	1.7628808
56	0x3e1b3b24	0.15159279
57	0x3f7cd96f	0.9876928
58	0x3e241066	0.1602188
59	0xbcd21a0b	-0.025647184
60	0x3d8f494c	0.06996402
61	0xbf12130d	-0.5706032
62	0x3f666bb4	0.9000809
63	0xbbbf1587	-0.0058314237

first_h.1.bias f4 [64]
0	0xbf330447	-0.699284
1	0xbf604045	-0.8759807
2	0x3feb5acc	1.8387084
3	0xbff07508	-1.8785715
4	0xbf50130d	-0.8127907
5	0xbfb43198	-1.4077635
6	0xbffeec98	-1.9915953
7	0xbffaeed6	-1.9604137
8	0xbe9ada06	-0.30244464
9	0x4035493c	2.8325949
10	0xc014d7e5	-2.3256772
11	0xbf22b495	-0.63556796
12	0xc003852c	-2.0550032
13	0xbf7387d1	-0.95129114
14	0xbf7f449d	-0.9971407
15	0x3faaaa4b	1.3333219
16	0xbfcf2865	-1.6184202
17	0xbfcaa79c	-1.58324
18	0xc004b26d	-2.0733902
19	0x3fe71e2d	1.8056084
20	0xc0152a30	-2.3307
21	0xbf0e1dea	-0.55514395
22	0xbf3f9f19	-0.7485214
23	0xc0036966	-2.053308
24	0xc0075862	-2.1147695
25	0xbf676607	-0.90390056
26	0xbfd77f79	-1.6835777
27	0xbf14cc41	-0.58124167
28	0xbfd41260	-1.6568108
29	0x3e657a46	0.22409925
30	0xbfbc4947	-1.4709862
31	0xbf5c3931	-0.8602477
32	0xc0124c71	-2.2859156
33	0xc01ad5ed	-2.419307
34	0xbfbfea30	-1.4993343
35	0x3f90c771	1.1310865
36	0x3fa7cd40	1.3109512
37	0xbf587cf6	-0.84565675
38	0xbf63120e	-0.88699424
39	0xbfa5df8c	-1.2958846
40	0xbf42c5f4	-0.760833
41	0xbf772f13	-0.96556205
42	0xbff74ea4	-1.9320874
43	0xc005252a	-2.0803933
44	0xbf665875	-0.89978725
45	0xbf4e8684	-0.80674005
46	0xbf552ae0	-0.8326855
47	0xc003d67b	-2.0599658
48	0xbf65288f	-0.8951501
49	0xc000bcb3	-2.0115173
50	0xbf384ef9	-0.719955
51	0xbf83ddb5	-1.0302035
52	0xbfe556d8	-1.7917128
53	0xbf68935d	-0.9084986
54	0xbf602875	-0.8756173
55	0x3fe7d720	1.8112526
56	0xbf3214a1	-0.6956273
57	0xbfb8b9d4	-1.443171
58	0xbf52252f	-0.8208799
59	0xbf2316d6	-0.6370672
60	0xc01e3c2f	-2.4724233
61	0xc0036cb7	-2.0535104
62	0xbff96dfc	-1.948669
63	0xbf52583b	-0.8216588

first_h.1.running_mean f4 [64]
0	0xc99d21a6	-1.2872208e+06
1	0xc9d31312	-1.7291222e+06
2	0xc9652e82	-938728.1
3	0x498fb3b3	1.1772064e+06
4	0xc967a0a0	-948746.0
5	0x49521ca8	860618.5
6	0x4a5e49d6	3.6419735e+06
7	0xc954687d	-870023.8
8	0x492f36cc	717676.75
9	0x498bc913	1.1451224e+06
10	0x4a0476fe	2.1703035e+06
11	0x494682fa	813103.6
12	0x499cedb7	1.2855589e+06
13	0xc9837fcc	-1.0772415e+06
14	0xc9122844	-598660.25
15	0xc94cbc6a	-838598.6
16	0x493aa637	764515.44
17	0x485a7a91	223722.27
18	0x494a63e2	828990.1
19	0xc92823f2	-688703.1
20	0x49b81597	1.5080189e+06
21	0xc97df4e4	-1.04020625e+06
22	0xc8eb4dce	-481902.44
23	0x49881ce1	1.1150361e+06
24	0x49e3193a	1.8603912e+06
25	0xc891fae7	-298967.22
26	0xc9414918	-791697.5
27	0x494086b1	788587.06
28	0xc933369a	-734057.6
29	0x4958d837	888195.44
30	0x49299baf	694714.94
31	0xc99f8d4c	-1.3070495e+06
32	0x49778206	1.0137924e+06
33	0x49e62129	1.8852211e+06
34	0x493e03df	778301.94
35	0x493f47cb	783484.7
36	0x494f730f	849712.94
37	0xc99ac70a	-1.2679372e+06
38	0xc976fa76	-1.0116234e+06
39	0x497411b4	999707.25
40	0xc9a4f71c	-1.3513955e+06
41	0x48d01e38	426225.75
42	0x496171fa	923423.6
43	0x4945939c	809273.75
44	0xc9d9abdc	-1.7831635e+06
45	0xc84ff960	-212965.5
46	0xc980ee86	-1.0562088e+06
47	0x48b4c195	370188.66
48	0xc9bd587b	-1.5511194e+06
49	0x49aeeec9	1.4330491e+06
50	0xc9715f91	-988665.06
51	0x493789ef	751774.94
52	0xc957ead2	-884397.1
53	0xc96d229e	-971305.9
54	0xc8f7bb05	-507352.16
55	0xc953c0be	-867339.9
56	0xc903e9ba	-540315.6
57	0x497932af	1.02071494e+06
58	0xc961001c	-921601.75
59	0x49383c27	754626.44
60	0x49f3c8a0	1.997076e+06
61	0x49d2c6ec	1.7266855e+06
62	0x495ae387	896568.44
63	0xc92852e9	-689454.56

first_h.1.running_var f4 [64]
0	0x55f83d50	3.4117777e+13
1	0x565ff78b	6.156357e+13
2	0x55840399	1.8143873e+13
3	0x55cfd348	2.8563294e+13
4	0x5586da9b	1.8534183e+13
5	0x555ded35	1.5250679e+13
6	0x57786157	2.7309696e+14
7	0x5562d2b4	1.5587162e+13
8	0x551a5717	1.0606177e+13
9	0x55c476e1	2.7001858e+13
10	0x56b079b3	9.701837e+13
11	0x55461c99	1.3614133e+13
12	0x55f799ea	3.4030053e+13
13	0x55adda94	2.3894287e+13
14	0x54d6c4d2	7.379401e+12
15	0x5552b925	1.4480789e+13
16	0x552f2195	1.2034923e+13
17	0x536ff0dd	1.0305382e+12
18	0x554decf8	1.4151104e+13
19	0x550e2001	9.766757e+12
20	0x562a594d	4.682513e+13
21	0x55a21baa	2.2279962e+13
22	0x548b2961	4.7815574e+12
23	0x55ba45d0	2.5601126e+13
24	0x5681a197	7.126551e+13
25	0x53d63de4	1.8403227e+12
26	0x553bd185	1.2906785e+13
27	0x553a58cc	1.2805659e+13
28	0x55217770	1.1095897e+13
29	0x556c633b	1.6244433e+13
30	0x55109f11	9.938304e+12
31	0x55fff208	3.5176873e+13
32	0x5599ff02	2.1165066e+13
33	0x56851dad	7.318125e+13
34	0x5535822b	1.2473167e+13
35	0x5537f0a1	1.2640258e+13
36	0x55585b70	1.4867952e+13
37	0x55f0dad9	3.3102842e+13
38	0x559952a5	2.107253e+13
39	0x5595bde2	2.0580347e+13
40	0x5608cdd3	3.7604397e+13
41	0x5459c0e4	3.7409763e+12
42	0x557f820f	1.7558379e+13
43	0x55443e36	1.3485717e+13
44	0x566e2f52	6.547175e+13
45	0x535969d4	9.337834e+11
46	0x55a7217a	2.2970278e+13
47	0x54243c42	2.8215424e+12
48	0x56343aef	4.9541303e+13
49	0x5619c6b7	4.226969e+13
50	0x55927076	2.0126464e+13
51	0x55295aae	1.1637933e+13
52	0x556a5fca	1.6106071e+13
53	0x558d5785	1.942588e+13
54	0x549a3f7c	5.2999204e+12
55	0x55616a04	1.5490341e+13
56	0x54aef1e5	6.011061e+12
57	0x559bdc3c	2.1421275e+13
58	0x557e7fb3	1.7489026e+13
59	0x552aa3c3	1.172627e+13
60	0x5695616a	8.212281e+13
61	0x565f5704	6.1391206e+13
62	0x5570d421	1.6549617e+13
63	0x550e6c79	9.787284e+12

first_h.3.weight f4 [64, 64]
0	0x3f89adbd	1.0756146
1	0x3f481ba4	0.78167176
2	0xbe01244d	-0.12611504
3	0xbc971841	-0.018444182
4	0x3f398f0e	0.7248391
5	0xbe65ab37	-0.22428595
6	0xbf0575fb	-0.5213315
7	0x3dcdb497	0.100442104
8	0xbdf55de4	-0.11980799
9	0x3f5a3d74	0.8525002
10	0xbec14527	-0.37748072
11	0x3ed6684d	0.4187645
12	0x3e513b87	0.20432864
13	0x3f625e10	0.8842478
14	0x3f7df9e6	0.9920944
15	0x3e8cee0f	0.27525374
16	0xbeac809a	-0.33691865
17	0xbea74d41	-0.32676128
18	0x3e1f64f3	0.15565853
19	0x3f7e0143	0.99220675
20	0xb98bc7af	-0.00026660922
21	0x3f69cc6c	0.9132755
22	0x3f536025	0.8256858
23	0xbed720b8	-0.4201715
24	0xbef9172e	-0.48650497
25	0x3f67beb9	0.90525395
26	0x3e96d276	0.29457444
27	0x3f592ef8	0.84837294
28	0x3ec41c0c	0.38302648
29	0xbecb6f51	-0.39733365
30	0x3f279845	0.6546672
31	0x3f3aaadc	0.7291696
32	0xbefc51ff	-0.49281308
33	0xbdb792fa	-0.089635804
34	0xbec10992	-0.37702614
35	0xbe1b4ecd	-0.15166779
36	0x3decfc56	0.11571567
37	0x3f5fc355	0.8740743
38	0x3f685567	0.90755314
39	0xbf2470d3	-0.64234656
40	0x3f4ccfba	0.80004466
41	0x3e964ab0	0.29353857
42	0x3ec380c1	0.3818417
43	0x3ea57dc1	0.32322505
44	0x3f5c68a6	0.8609718
45	0x3f58f6e2	0.84751713
46	0x3f3d949d	0.7405489
47	0x3e73c47e	0.23805425
48	0x3f52ffeb	0.8242175
49	0xbeee7405	-0.4657289
50	0x3d8678bf	0.06565999
51	0x3f01a3ef	0.5064077
52	0x3eae6edb	0.3406895
53	0x3f2f54fb	0.68489045
54	0x3f4d58db	0.8021371
55	0x3f1dd03e	0.6164588
56	0x3f655cb2	0.89594567
57	0xbf3396b1	-0.7015181
58	0x3f4f0548	0.80867434
59	0x3f827b85	1.0193945
60	0x3b1f0a2c	0.0024267538
61	0x3ea3f249	0.32020786
62	0xbf145c8f	-0.57953733
63	0x3f65e8c0	0.89808273
64	0xbf1bd6d7	-0.60874695
65	0xbf1f252f	-0.6216611
66	0x3f5e7a82	0.8690568
67	0x3f023deb	0.5087573
68	0xbf2290b5	-0.63502055
69	0x3f206e5c	0.62668395
70	0x3f0041d0	0.5010042
71	0x3f1600ac	0.58594775
72	0x3e8080f1	0.25098374
73	0x3df2828d	0.11841307
74	0x3f10a450	0.5650072
75	0xbfcbfea0	-1.593708
76	0x3f16c85f	0.5889949
77	0xbf2ee06e	-0.683112
78	0xbf0b70a0	-0.5446873
79	0x3f4dd294	0.8039944
80	0x3f170c53	0.5900318
81	0x3f05b6b4	0.5223191
82	0xbf817283	-1.0113071
83	0x3f65c547	0.89754146
84	0x3f0c8dbd	0.54903775
85	0xbefb0c94	-0.49033034
86	0xbf03b31e	-0.51445186
87	0x3ef54eef	0.47911784
88	0x3ec69104	0.38782513
89	0xbef52679	-0.47880915
90	0x3efae240	0.4900074
91	0xbf1e1646	-0.61752737
92	0x3f1b5bcd	0.6068695
93	0xbff6b18c	-1.9272933
94	0xbf7bfaa3	-0.98429316
95	0xbf186d45	-0.5954173
96	0x3ec68bd8	0.38778567
97	0x3f055ac3	0.52091616
98	0x3f0a33bc	0.5398519
99	0xbfedaaa6	-1.8567703
100	0x3e67af2c	0.22625417
101	0xbf1c45d2	-0.6104404
102	0xbeeb7741	-0.4598942
103	0x3eaf5aca	0.34248954
104	0xbf213d19	-0.6298385
105	0xbf0bcd28	-0.5460992
106	0x3f2d33f3	0.67657393
107	0x3f1209d7	0.57046264
108	0xbefc3c20	-0.49264622
109	0xbf0bd523	-0.54622096
110	0xbf191df1	-0.5981131
111	0x3f314a67	0.69254154
112	0xbf0fcf1d	-0.56175405
113	0x3f08b540	0.53401566
114	0x3f30b819	0.6903091
115	0xbf9f0607	-1.2423714
116	0x3efda7c9	0.49542072
117	0xbf27b3a6	-0.65508497
118	0xbf283286	-0.6570209
119	0x3f5b454b	0.8565261
120	0xbf0e6443	-0.5562174
121	0x3efb25e5	0.4905235
122	0xbf164249	-0.58694893
123	0xbeb12a8a	-0.34602767
124	0x3f2ee171	0.68312746
125	0x3f09ff4a	0.53905165
126	0x3ef8f3b2	0.48623425
127	0xbf118502	-0.5684358
128	0xbed02f8c	-0.40661275
129	0xbe7e50a2	-0.24835446
130	0xbf483b91	-0.7821589
131	0xbf6478f9	-0.8924709
132	0xbe555fb2	-0.20837286
133	0xbf3275d4	-0.6971104
134	0xbf69b07d	-0.91284925
135	0xbf3cc141	-0.7373238
136	0xbf69c078	-0.9130931
137	0xbe554ae5	-0.20829351
138	0xbf54241b	-0.8286759
139	0xbe7ab862	-0.24484399
140	0xbf76d44c	-0.9641769
141	0xbdb0a20d	-0.08624659
142	0xbeea8c11	-0.45809987
143	0xbf6275e6	-0.8846115
144	0xbf3d7f30	-0.740222
145	0xbf6aadf7	-0.916717
146	0xbea80c1d	-0.32821742
147	0xbf3ce451	-0.73785883
148	0xbf726f4e	-0.9470109
149	0xbed85f40	-0.4226017
150	0xbeb34f36	-0.3502137
151	0xbf44d763	-0.76891154
152	0xbf4dcecd	-0.8039368
153	0xbe88eb81	-0.26742175
154	0xbf5c1d0a	-0.8598181
155	0xbed2ce42	-0.41172987
156	0xbf77f118	-0.96852255
157	0x3b92b297	0.004476856
158	0xbd9cfbbe	-0.076652035
159	0xbe8af58e	-0.27140468
160	0xbf5049b7	-0.8136248
161	0xbf514994	-0.81752896
162	0xbf64e92e	-0.89418304
163	0xbe928a57	-0.2862117
164	0xbf8951e5	-1.0728117
165	0xbe9de23b	-0.30836663
166	0xbde725b8	-0.11286491
167	0xbf35d655	-0.7103017
168	0xbef7ffd5	-0.48437372
169	0xbe0f55ee	-0.13997623
170	0xbf49ef72	-0.7888099
171	0xbf6b5973	-0.91933364
172	0xbdf6771c	-0.12034437
173	0xbeaca4d0	-0.33719492
174	0xbe97af43	-0.29625902
175	0xbf7713e2	-0.96514714
176	0xbe695243	-0.22785287
177	0xbf6183f3	-0.88091964
178	0xbf4dc439	-0.80377537
179	0xbea96d9b	-0.33091435
180	0xbf553040	-0.8327675
181	0xbe8fe7cc	-0.28106534
182	0xbe939837	-0.28827068
183	0xbf6bb4e6	-0.92072904
184	0xbe3fa4af	-0.18715166
185	0xbf423d7c	-0.7587507
186	0xbe87b4a7	-0.26505014
187	0xbed90be5	-0.42391887
188	0xbf3b2acb	-0.7311217
189	0xbf490a24	-0.785311
190	0xbf4df6fb	-0.8045499
191	0xbef42846	-0.47686976
192	0xbdf54cf1	-0.11977566
193	0xbe399a12	-0.1812518
194	0x400dcd00	2.2156372
195	0x3f5763d9	0.8413673
196	0xbe82301f	-0.25427338
197	0x3f1e1009	0.6174322
198	0xbe374d28	-0.17900527
199	0x3f1c1545	0.60969955
200	0xbf39da80	-0.7259903
201	0x3f442aeb	0.7662799
202	0xbe81093c	-0.25202358
203	0xc00301c2	-2.0469823
204	0x3f15b802	0.584839
205	0xbe8fe38a	-0.28103286
206	0xbcc04259	-0.023469137
207	0x4017bdeb	2.3709667
208	0x3f3c8df3	0.736541
209	0x3f333d01	0.7001496
210	0xbf59cd0f	-0.8507852
211	0x4003dada	2.0602326
212	0x3fa8cee5	1.3188139
213	0xbe226066	-0.15857086
214	0xbe0ebaef	-0.13938497
215	0x3c136fb0	0.008998796
216	0xbf0b3a08	-0.54385424
217	0xbe99da04	-0.30049145
218	0x3f46ddd7	0.7768225
219	0xbe1468b4	-0.14493066
220	0x3f237a95	0.6385892
221	0xbff2bded	-1.8964211
222	0xbfbd39cf	-1.4783267
223	0xbdc15c3f	-0.09441423
224	0xbf27879f	-0.65441316
225	0x3e8c5383	0.27407464
226	0x3f60c203	0.8779604
227	0xbfdca42b	-1.72376
228	0xbf60d050	-0.8781786
229	0xbeceea45	-0.40413108
230	0xbebb39c0	-0.36567497
231	0xbf3ffbec	-0.7499378
232	0x3d0e086d	0.034676004
233	0xbdaef366	-0.08542518
234	0x3f0277ad	0.5096386
235	0x3f2b1cd2	0.6684085
236	0xbe9ef7f4	-0.31048548
237	0x3cd774cf	0.026300816
238	0xbea13c7e	-0.31491464
239	0x3efecfb2	0.49767834
240	0xbe9129f2	-0.28352314
241	0xbeff0535	-0.4980866
242	0x3f4b5acf	0.7943544
243	0xbfcf9553	-1.6217445
244	0x3f31424e	0.692418
245	0xbee7b4ab	-0.45255026
246	0xbed8822d	-0.42286816
247	0x400aee83	2.1708076
248	0xbeedf95e	-0.46479315
249	0xbf0d8022	-0.5527364
250	0xbe901f52	-0.28148896
251	0x3e3e6f49	0.1859714
252	0x3f9cbfeb	1.2246069
253	0x3f1a6d8f	0.60323423
254	0xbe878161	-0.26465896
255	0xbe16a412	-0.14711025

first_h.3.bias f4 [64]
0	0x3f699a3c	0.9125097
1	0x3f0635ba	0.5242573
2	0x3f8a6494	1.0811944
3	0xbf1be045	-0.60889083
4	0x3e8233a6	0.2543003
5	0x3d8ee719	0.06977672
6	0xbe7528b7	-0.23941313
7	0x3efdf220	0.4959879
8	0xbf467d0a	-0.77534544
9	0xbe9bdc06	-0.30441302
10	0xbe4a58b8	-0.19760406
11	0xbd8918b4	-0.06694165
12	0x3f1ada23	0.604891
13	0xbef26db8	-0.47349334
14	0x3ebebf87	0.372555
15	0x3f991f56	1.1962688
16	0x3f560815	0.8360608
17	0xbe23b0a8	-0.15985358
18	0x3e2b946a	0.16755834
19	0xbf393180	-0.72341156
20	0xbee9ba00	-0.4564972
21	0x3f3a92e3	0.7288038
22	0xbf6a22c1	-0.9145928
23	0xbf1f8fd7	-0.6232886
24	0xbebe7f3b	-0.37206444
25	0xbf998e36	-1.1996524
26	0x3e9882cb	0.29787287
27	0xbdd7be40	-0.10534334
28	0xbf646873	-0.89221877
29	0xbf21d9f2	-0.63223183
30	0x3ed66640	0.41874886
31	0x3eb03e74	0.34422648
32	0xbfbe6796	-1.4875362
33	0xbefbd018	-0.491822
34	0xbebce380	-0.3689232
35	0xbeb1d8db	-0.3473576
36	0x3ebdadcb	0.37046656
37	0xbe858a6f	-0.2608218
38	0x3f3179d4	0.6932652
39	0xbf47fe17	-0.78122085
40	0xbbeb83d7	-0.0071873474
41	0xbf08d7d3	-0.5345432
42	0x3eac1d9e	0.33616346
43	0x3f1805d4	0.59383893
44	0xbd9754b7	-0.07389205
45	0xbf6d0b22	-0.9259511
46	0x3f1ab49a	0.60431826
47	0xbea54648	-0.32280183
48	0x3f4cb041	0.7995644
49	0xbfe1a752	-1.7629187
50	0x3e2ba5df	0.16762494
51	0xbf76de43	-0.96432894
52	0x3fb6e9c7	1.4290093
53	0xbf9a4309	-1.2051708
54	0x3ddd98d9	0.10820169
55	0xbf3c51cb	-0.73562306
56	0x3f57606d	0.8413151
57	0x3ebd2a42	0.36946303
58	0x3f3e1e9a	0.74265444
59	0x3e5979f7	0.21237932
60	0x3d7994c9	0.06093291
61	0x3f7907ba	0.97277415
62	0x3f238e48	0.6388898
63	0xbe43580b	-0.19076554

first_h.4.weight f4 [64]
0	0x399a222a	0.00029398623
1	0xbc41efc2	-0.011836948
2	0x3ddbc3eb	0.10730728
3	0x3d5001c4	0.050782934
4	0x3e0425a5	0.12904985
5	0x3db3e2d0	0.087834954
6	0x3e71c0aa	0.23608652
7	0x3dea0a54	0.11427751
8	0x3e558d23	0.2085462
9	0x3d9fa6e6	0.07795505
10	0xbc305bf1	-0.010764108
11	0x3f1fab62	0.62370884
12	0x3e9269cb	0.2859634
13	0x3e176c34	0.1478737
14	0x3e0baa33	0.13639145
15	0x3e9a066e	0.3008303
16	0x3eb3dec4	0.35130894
17	0x3eb66418	0.3562324
18	0x3c8edbd0	0.0174388
19	0x3ebd4343	0.3696538
20	0x3eace4f7	0.33768436
21	0x3ec9609d	0.39331523
22	0x3c874d60	0.016516387
23	0x3d1b15c8	0.03786257
24	0x3b93da36	0.0045120968
25	0x3f180cd5	0.5939458
26	0x3e42746d	0.18989725
27	0x3e206034	0.15661699
28	0x3de34511	0.11097158
29	0x3e26e365	0.16297682
30	0x3f17701e	0.5915545
31	0x3f5420f5	0.8286279
32	0x3ec2b46a	0.3802827
33	0x3ea59978	0.3234365
34	0x3ed466dd	0.41484728
35	0x3eac1410	0.33609056
36	0x3e352772	0.17690828
37	0x3c9bcdf8	0.019019112
38	0x3f115b91	0.56780344
39	0x3e12b646	0.14327344
40	0x3e081c6e	0.13292095
41	0xbbd2c60d	-0.006432301
42	0x3e1042a3	0.1408792
43	0xbca2f437	-0.019891841
44	0x3e0c911a	0.13727227
45	0x3f36b385	0.71367675
46	0x3e073dc0	0.1320715
47	0x3f8248d0	1.0178471
48	0x3f71a77d	0.9439619
49	0x3e355a9b	0.17710344
50	0x3e59c048	0.21264756
51	0x3dfef63e	0.12449311
52	0x3e36deef	0.1785848
53	0x3ea8685a	0.32892114
54	0x3e58bbae	0.21165344
55	0x3dfe0f06	0.12405209
56	0x3dc24afd	0.09486959
57	0x3e075e18	0.13219488
58	0xbdbf6c53	-0.09346833
59	0x3f032194	0.5122311
60	0x3df0ccb0	0.11757791
61	0xbcbbd884	-0.022930391
62	0x3e0de2a6	0.13855991
63	0x3e729695	0.23690255

first_h.4.bias f4 [64]
0	0xbfa0dfc2	-1.2568285
1	0xbf977525	-1.1832625
2	0xbf659928	-0.8968682
3	0xbf86e37e	-1.0538175
4	0xbf7bc158	-0.98341894
5	0xbee127ca	-0.4397567
6	0xbf0efee4	-0.5585768
7	0xbf96c00a	-1.1777356
8	0xbf2c0dd3	-0.67208594
9	0xbf3fe49a	-0.74958193
10	0xbf67a0f2	-0.9047996
11	0xbf64cfda	-0.89379656
12	0xbf47e0a7	-0.7807717
13	0xbdbbcb24	-0.091696054
14	0xbf4a028c	-0.78910136
15	0xbf067625	-0.52524024
16	0xbf3971be	-0.7243918
17	0xbf2f350f	-0.68440336
18	0xbec475c1	-0.3837109
19	0xbf0b240f	-0.54351896
20	0xbf34de8a	-0.7065207
21	0xbe8429f8	-0.2581327
22	0xbe795a1d	-0.24350782
23	0xbf5ff1b2	-0.8747817
24	0xbf91ea3e	-1.139961
25	0xbf62b5f4	-0.8855889
26	0xbf6f04ad	-0.9336651
27	0xbf3e23a9	-0.74273163
28	0xbf220230	-0.6328459
29	0xbf12447c	-0.5713575
30	0xbf6dd5ed	-0.9290455
31	0xbf0029f0	-0.5006399
32	0xbf9764d8	-1.182765
33	0xbf3d1c3f	-0.73871225
34	0xbf3479d0	-0.7049837
35	0xbf71a437	-0.94391197
36	0xbf4e7af7	-0.8065638
37	0xbf5a8d7d	-0.85372144
38	0xbf892a7d	-1.0716091
39	0xbf51b5e6	-0.8191818
40	0xbf1fd05c	-0.62427306
41	0xbf554197	-0.8330321
42	0xbf99051d	-1.1954685
43	0xbf8e6b13	-1.1126426
44	0xbd965c08	-0.07341772
45	0xbf433320	-0.76249886
46	0xbf4e2a1d	-0.8053301
47	0xbf8beee0	-1.0932274
48	0xbe94e946	-0.29084224
49	0xbfb78a77	-1.4339131
50	0xbf5a0d6b	-0.85176724
51	0xbf45b0f1	-0.77223116
52	0xbf8ae57a	-1.0851281
53	0xbde57f7d	-0.11205957
54	0xbf4b4f7d	-0.79418164
55	0xbf5ce8fe	-0.8629302
56	0xbf660a1b	-0.8985917
57	0xbf563841	-0.83679587
58	0xbf9445cd	-1.1583802
59	0xbf0d9087	-0.55298656
60	0xbf3d57c2	-0.7396203
61	0xbf700103	-0.93751544
62	0xbf949dee	-1.1610696
63	0xbf86ebc6	-1.0540702

first_h.4.running_mean f4 [64]
0	0x40c63f46	6.195224
1	0x40a29b04	5.081423
2	0xc10ea55d	-8.915372
3	0x415c9909	13.787362
4	0x4101b4af	8.106612
5	0x4098ec3c	4.778837
6	0xc0cda08f	-6.4258494
7	0x3fc804a2	1.5626414
8	0xc0a4d126	-5.150531
9	0x410f8686	8.970343
10	0xc03065ea	-2.7562203
11	0x41250545	10.3137865
12	0x41334344	11.203922
13	0x40cf83f7	6.484859
14	0xc0d15d44	-6.542635
15	0x41475a68	12.459572
16	0xc0e37d21	-7.1090245
17	0xc10fe06e	-8.992292
18	0x3f94a9dc	1.1614337
19	0x413c8cc8	11.78437
20	0xc1181530	-9.505173
21	0xc0d3248b	-6.598211
22	0x414e227e	12.883421
23	0xc11f44fa	-9.95434
24	0x414ccda0	12.800201
25	0x4128ccfd	10.550046
26	0x40df43a7	6.9770083
27	0xc0b81f2f	-5.7538066
28	0x40a8b1b4	5.2716923
29	0xc0d90b8c	-6.7826595
30	0x411a1c48	9.631905
31	0x3fbf4e91	1.4945852
32	0x4132a7fd	11.166013
33	0xc12295a7	-10.161536
34	0x415a8b91	13.659074
35	0x418545b9	16.659044
36	0xc0ec4bb7	-7.3842425
37	0xc1116898	-9.088036
38	0x40f9f16a	7.8107195
39	0xc10c4cc0	-8.768738
40	0xbf80a547	-1.0050439
41	0xbff97082	-1.948746
42	0x41251120	10.316681
43	0x41465449	12.395577
44	0x41044763	8.267428
45	0x41589315	13.535909
46	0x411201e7	9.125464
47	0xc0888606	-4.2663603
48	0x4057c757	3.3715417
49	0x41707836	15.029348
50	0x410f8846	8.97077
51	0xc120d50e	-10.052015
52	0x4189d649	17.229631
53	0xc0e410a7	-7.1270328
54	0xc0722076	-3.7832313
55	0xc121cecc	-10.1129875
56	0xbfd956f2	-1.6979659
57	0xc104e1d2	-8.305132
58	0x41811458	16.134933
59	0x4109f5bc	8.622494
60	0xc10b113e	-8.6917095
61	0xc0d85c5a	-6.7612734
62	0x4156c9a3	13.424228
63	0xc0f5d28f	-7.681953

first_h.4.running_var f4 [64]
0	0x41be56ab	23.792318
1	0x42656187	57.34524
2	0x423d2ac8	47.29178
3	0x43a8eeb8	337.865
4	0x42a1d2b6	80.911545
5	0x407cca72	3.9498563
6	0x43231686	163.08798
7	0x42aa6d80	85.21387
8	0x415f7489	13.965951
9	0x4406e1ef	539.5302
10	0x416a1312	14.629656
11	0x431b11cb	155.0695
12	0x42a87e08	84.246155
13	0x4340de5c	192.86859
14	0x428214fe	65.041
15	0x42311f0a	44.28031
16	0x42274f1b	41.82725
17	0x42342e29	45.04508
18	0x4279a4ca	62.410927
19	0x435123b7	209.13951
20	0x42184e96	38.076744
21	0x42a7ab0f	83.8341
22	0x42971eff	75.56054
23	0x4215ec92	37.481026
24	0x4306bf5e	134.74753
25	0x42e6892d	115.26792
26	0x43394346	185.26279
27	0x416fbecc	14.984081
28	0x42f2227e	121.06737
29	0x42d3f41d	105.97678
30	0x42c02406	96.07036
31	0x43585543	216.33305
32	0x4291cb14	72.89664
33	0x41aaf02d	21.367273
34	0x4366872e	230.52805
35	0x430f7c60	143.48584
36	0x40d786da	6.7352114
37	0x42049918	33.149506
38	0x42e0d892	112.42299
39	0x42191514	38.270584
40	0x43887122	272.88385
41	0x41b85add	23.044367
42	0x4170c20f	15.047378
43	0x436f50bd	239.31538
44	0x43076358	135.38806
45	0x43105790	144.34204
46	0x4292a6ba	73.32564
47	0x42fe5bc8	127.17926
48	0x430f8261	143.5093
49	0x43636698	227.40076
50	0x435723b0	215.1394
51	0x425e4851	55.57062
52	0x436aca26	234.78964
53	0x42846e25	66.215126
54	0x41566cd0	13.401566
55	0x42245c2d	41.090015
56	0x4130e9ad	11.05705
57	0x425454d6	53.082848
58	0x42a5c9e4	82.89432
59	0x42fd702a	126.71907
60	0x41526abf	13.151061
61	0x41b879d1	23.05948
62	0x42094610	34.31842
63	0x429f7f7f	79.749016

nns.0.0.weight f4 [64, 64]
0	0x3dfa56ad	0.12223563
1	0x3e3b30fd	0.18280406
2	0x3f2ddad5	0.67912036
3	0x3e835ddb	0.25657544
4	0x3e964f7b	0.29357514
5	0x3f6666e8	0.9000077
6	0x3f8619a9	1.0476581
7	0x3e71a4a5	0.23597963
8	0x3f27753d	0.65413266
9	0x3f85ade8	1.0443697
10	0x3f7152bf	0.94266886
11	0x3dc6b607	0.09702688
12	0x3e83d921	0.25751594
13	0xbc55addd	-0.0130419405
14	0x3f4653e9	0.77471787
15	0x3eebf16e	0.46082634
16	0x3f77cb63	0.9679472
17	0x3f7ecaf8	0.99528456
18	0x3e1382ac	0.14405316
19	0xbd86e110	-0.06585896
20	0x3f7c300e	0.98510826
21	0x3f77cdd2	0.9679843
22	0x3d7bdfd0	0.06149274
23	0x3f3263d5	0.6968358
24	0x3dcde166	0.10052757
25	0x3e2e355e	0.17012545
26	0x3ee6e027	0.4509289
27	0x3f631b7b	0.88713807
28	0x3eebe81b	0.4607552
29	0x3f53e707	0.82774395
30	0x3db6828f	0.08911621
31	0x3f7fb9ca	0.99892867
32	0x3e26f819	0.16305579
33	0x3f7d2bff	0.9889526
34	0x3df1ded8	0.11810082
35	0x3e58a5b3	0.21156959
36	0x3f55cd1c	0.835161
37	0x3f444d18	0.76680136
38	0x3ccd6890	0.025074273
39	0x3f55d2e7	0.83524936
40	0x3f546f8c	0.8298271
41	0x3f7addd8	0.97994757
42	0x3ebdd14d	0.37073746
43	0x3eb2b500	0.34903717
44	0x3ddd7a95	0.10814396
45	0x3e6ca6a2	0.2311044
46	0x3eb6bf8b	0.3569301
47	0x3f89e7f4	1.0773911
48	0x3f78156d	0.96907693
49	0x3e59896a	0.21243826
50	0x3ea7140e	0.32632488
51	0x3f5336f8	0.8250575
52	0x3db7c6e5	0.08973483
53	0xbe11359b	-0.14180605
54	0x3f85bc76	1.0448139
55	0x3f41ca63	0.7569944
56	0x3f274fad	0.6535595
57	0x3f2a6464	0.66559434
58	0x3f8448e8	1.0334749
59	0x3d04ad92	0.032392092
60	0x3f8a5b65	1.0809141
61	0x3f332b34	0.699878
62	0x3f878474	1.0587296
63	0x3f88eaec	1.0696692
64	0xbf15d1fe	-0.5852355
65	0xbf57cd96	-0.84298074
66	0x3f4a363c	0.78989005
67	0x3dee7135	0.11642686
68	0x3ed3c1e9	0.4135888
69	0xbf2e2816	-0.68029916
70	0x3e16b9b4	0.14719278
71	0xbe40e34f	-0.18836711
72	0x3f341c38	0.7035556
73	0xbf07c8c4	-0.5304072
74	0x3f4799e2	0.7796918
75	0xbf2ac0ae	-0.66700256
76	0x3e9b128a	0.30287582
77	0xbf26a47d	-0.6509474
78	0xbefb5065	-0.49084774
79	0xbe68e216	-0.22742495
80	0x3ec5a3d6	0.3860156
81	0x3e7133b3	0.23554878
82	0xbf0a7090	-0.54078007
83	0xbf341752	-0.70348084
84	0x3eaff69a	0.3436783
85	0xbf1f1f1b	-0.6215684
86	0xbf2dee1e	-0.67941463
87	0xbf23856a	-0.6387545
88	0xbf27bf06	-0.65525854
89	0xbf325f27	-0.6967644
90	0x3ecc95a2	0.3995791
91	0xbf0abf93	-0.5419857
92	0x3c34b7dd	0.011030165
93	0x3ec3c968	0.38239598
94	0xbf1199de	-0.5687541
95	0xbf311ef1	-0.6918784
96	0xbf056194	-0.5210202
97	0xbf10e678	-0.5660167
98	0xbf1e8cf5	-0.61933833
99	0xbf32fdb7	-0.6991839
100	0x3f402557	0.75056976
101	0xbf0ce6f1	-0.5503989
102	0xbf269f03	-0.6508638
103	0x3f4078d3	0.75184363
104	0x3e9dbc86	0.30807894
105	0x3f82236e	1.0167062
106	0xbf30536e	-0.68877304
107	0x3d9cc28e	0.07654296
108	0xbf2adcd9	-0.66743237
109	0xbf2c1ebd	-0.672344
110	0xbf2d9f9f	-0.6782169
111	0xbd25fbd7	-0.040523376
112	0xbf1ab014	-0.60424924
113	0xbeff2d00	-0.4983902
114	0x3ec0023c	0.37501705
115	0xbef61818	-0.48065257
116	0xbf11ed8d	-0.570031
117	0xbda02904	-0.07820323
118	0xbedf5b4d	-0.43624344
119	0x3f4e9d24	0.8070853
120	0x3f46619a	0.7749268
121	0x3f427caf	0.759715
122	0xbf06a606	-0.5259708
123	0xbf2c1a59	-0.67227703
124	0xbf154470	-0.5830755
125	0xbee6864a	-0.4502433
126	0xbf1bc596	-0.6084837
127	0xbf30c1f5	-0.69045955
128	0xbf1cafd3	-0.61205786
129	0xbf229772	-0.6351234
130	0xbe20804d	-0.15673943
131	0xbf6dc260	-0.9287472
132	0xbf6b13ba	-0.91826975
133	0x3f0ebcb2	0.55756676
134	0xbbeaafb1	-0.0071620573
135	0xbf3a88e6	-0.7286514
136	0x3dc59099	0.096467204
137	0x3e950e88	0.2911265
138	0xbe36d085	-0.17852981
139	0xbf313d9e	-0.69234645
140	0xbf4e1ed6	-0.805158
141	0xbf17d6f9	-0.593124
142	0x3e94d402	0.29068
143	0xbf4478d9	-0.767469
144	0x3e29de20	0.1658864
145	0x3dbb48fd	0.09144781
146	0xbf34afa4	-0.70580506
147	0xbf14cafb	-0.58122224
148	0x3d9adfb7	0.075622015
149	0x3de7d379	0.11319632
150	0xbf1a0387	-0.6016163
151	0x3ece05ed	0.40238896
152	0xbf48bee3	-0.7841627
153	0xbf205e49	-0.6264387
154	0xbf574ea4	-0.8410437
155	0x3eb0f157	0.34559128
156	0xbf51722c	-0.8181484
157	0x3a23ab8b	0.00062435184
158	0xbf35b07d	-0.70972425
159	0xbda49156	-0.08035533
160	0xbf472adb	-0.7779977
161	0x3eaf4e33	0.3423935
162	0xbf239658	-0.6390128
163	0xbf280698	-0.6563506
164	0xbe26ff2a	-0.16308275
165	0x3ee666e9	0.4500039
166	0xbf555672	-0.8333503
167	0xbe9b2a4a	-0.30305701
168	0x3de7a867	0.11311417
169	0xbe8e5fa2	-0.27807337
170	0xbf2f45b4	-0.68465734
171	0xbf3ceafd	-0.73796064
172	0xbf3777ef	-0.7166738
173	0xbf1a2291	-0.60208994
174	0xbf67ba81	-0.9051896
175	0x3cf7c643	0.030245906
176	0x3e3c2c45	0.18376262
177	0xbf14dcc8	-0.58149385
178	0xbf3fae7e	-0.7487563
179	0x3ef52b44	0.47884572
180	0xbf442039	-0.7661167
181	0xbf6b225b	-0.918493
182	0x3e176133	0.14783172
183	0xbe9dd397	-0.30825493
184	0xbe8e8fb9	-0.27844027
185	0xbe6f2b7d	-0.23356433
186	0x3f065950	0.5248003
187	0xbf10cdf9	-0.5656429
188	0x3e8b54a5	0.27213016
189	0x3e7fd00d	0.24981709
190	0x3f1e3571	0.61800295
191	0x3e776d32	0.24162748
192	0xbf4638c5	-0.77430373
193	0xbf6f770b	-0.9354102
194	0xbe0f99a4	-0.14023453
195	0xbf4f6ba9	-0.8102365
196	0xbf82ed48	-1.0228662
197	0xbe5ec17c	-0.21753496
198	0x3e985a64	0.29756463
199	0xbf5e2fbf	-0.86791605
200	0x3c42321f	0.01185277
201	0xbe5d2fda	-0.21600285
202	0xbefdf088	-0.49597573
203	0xbf5a1529	-0.8518854
204	0xbf792d5f	-0.97334856
205	0xbf5d147d	-0.8635939
206	0xbef9cb6b	-0.48788008
207	0xbf4f3af5	-0.80949336
208	0x3e2b7773	0.16744785
209	0x3e96b4f4	0.2943493
210	0xbf81f04a	-1.0151455
211	0xbf4a5e41	-0.7905007
212	0x3e78c66f	0.24294446
213	0xbe6b83c6	-0.22999486
214	0xbf6e21a6	-0.93020093
215	0xbebaefa6	-0.36510962
216	0xbf38d3b5	-0.7219804
217	0xbf83e62d	-1.0304619
218	0xbf68c7ac	-0.90929675
219	0xbe9601f4	-0.29298365
220	0xbf738b43	-0.9513437
221	0x3e66fb17	0.2255672
222	0xbf5cc470	-0.8623724
223	0x3e1ad478	0.15120113
224	0xbf5ae740	-0.8550911
225	0x3d26d8c3	0.040734064
226	0xbf51310a	-0.8171545
227	0xbf6be4c9	-0.92145973
228	0xbec8ace2	-0.391944
229	0xbeb0a9dc	-0.34504592
230	0xbf60b85d	-0.87781316
231	0xbf0029d2	-0.5006381
232	0x3d8d8d8c	0.069117635
233	0xbf0409c5	-0.5157741
234	0xbf5bd699	-0.85874325
235	0xbf7ea200	-0.9946594
236	0xbf741619	-0.9534622
237	0xbf4bee4c	-0.7966049
238	0xbf6d2a84	-0.92643
239	0x3e58dbd1	0.21177603
240	0x3dce37de	0.100692496
241	0xbf543722	-0.82896626
242	0xbf79ecd9	-0.97627026
243	0xbecb532b	-0.3971189
244	0xbf79e2e6	-0.97611845
245	0xbf2e59d5	-0.6810582
246	0x3d9659fb	0.07341381
247	0xbee70d55	-0.4512736
248	0xbeb0e4cf	-0.34549567
249	0xbf0b5701	-0.5442963
250	0xbc8b0788	-0.016971365
251	0xbf82e7eb	-1.0227026
252	0xbcfa42de	-0.030549463
253	0xbeb58e73	-0.35460243
254	0x3da13643	0.07871678
255	0xbd91f1ba	-0.07126184

nns.0.0.bias f4 [64]
0	0x3e9997f5	0.29998747
1	0xbf216802	-0.6304933
2	0xbf21e071	-0.63233095
3	0xbefc475f	-0.49273202
4	0x400e2112	2.2207685
5	0xbefa417b	-0.48878083
6	0x3f8650aa	1.0493367
7	0x3ea86062	0.32886034
8	0xbfbe3751	-1.4860631
9	0xc00c6e94	-2.1942492
10	0x3de5285c	0.111893386
11	0xbf1af68b	-0.60532445
12	0xbed87614	-0.42277586
13	0x3df4705e	0.11935495
14	0x3f4b8e69	0.79514176
15	0x3efc273c	0.49248683
16	0xbf2624d5	-0.6489995
17	0x3d09a194	0.03360136
18	0x3d8f0afd	0.06984518
19	0xbf19167d	-0.5979994
20	0x3f00ea4d	0.50357515
21	0x3def03f8	0.11670679
22	0xbe60820b	-0.21924607
23	0x3e9b8f88	0.30382943
24	0x3ef7d9bb	0.48408303
25	0x3eb045fd	0.34428397
26	0x3ee7aeab	0.4525045
27	0x3f0b92fb	0.5452115
28	0x3f2d2fcd	0.67651063
29	0xbf3bab30	-0.73308086
30	0xbf13dd90	-0.5775995
31	0xbe8aa852	-0.27081543
32	0xbef2cae1	-0.4742041
33	0xbf7e1e30	-0.9926481
34	0xbf5673a9	-0.83770233
35	0xbf193245	-0.5984233
36	0xbf5b487e	-0.8565749
37	0x3e6642e0	0.22486448
38	0x3e824e64	0.25450432
39	0xbe00de39	-0.12584771
40	0x3efe9fa7	0.4973118
41	0x3f2b548d	0.6692589
42	0x3eb2e26f	0.3493838
43	0x3ef2c7e0	0.47418118
44	0x3e87e60c	0.265427
45	0x4054dc08	3.3259296
46	0xbe4ee97e	-0.20206258
47	0xbe02ce1f	-0.12773941
48	0xbeb707b2	-0.3574806
49	0xbee83b4d	-0.45357743
50	0xbfbbe9a1	-1.4680673
51	0xbee817e7	-0.45330736
52	0xbd56de19	-0.052457903
53	0x3d90dc61	0.07073284
54	0x3f7ce843	0.98791903
55	0xbe0dfb00	-0.1386528
56	0xbe7bf99a	-0.24606934
57	0xbd5791f9	-0.052629445
58	0xbde75250	-0.11294997
59	0xbeb694e0	-0.35660458
60	0xbf2d9ff3	-0.6782219
61	0x3ec19987	0.37812445
62	0xbbe1c3b7	-0.006889786
63	0x3e56575d	0.20931764

nns.0.1.weight f4 [64]
0	0x3f6d2538	0.92634916
1	0x3fad1bd9	1.3524123
2	0x3f972803	1.1809086
3	0x3ebd26c6	0.36943644
4	0x3fe37b00	1.7771912
5	0x3fd4604a	1.6591885
6	0x3fc76338	1.5577154
7	0x3e11c998	0.14237058
8	0x4022b5a5	2.5423367
9	0x3f27f950	0.65614796
10	0x3f3637ad	0.71178705
11	0x3fdfb70a	1.7477734
12	0x3f45b260	0.77225304
13	0x3fb2ca42	1.3967974
14	0x3f5fa332	0.8735839
15	0x3f63c0ef	0.8896627
16	0x3f0506c2	0.51963437
17	0x3fb80135	1.4375368
18	0x3f8be75d	1.0929981
19	0x3eaa5c8f	0.33273742
20	0x3f903312	1.1265585
21	0x4004ed01	2.0769656
22	0x400dcac9	2.215502
23	0x3fa66cb2	1.3001921
24	0x3e6004be	0.21876809
25	0x3f00fc70	0.5038519
26	0x3f70e14e	0.9409379
27	0x3e2c9ace	0.16855928
28	0x3fa7a053	1.3095802
29	0x3fb9c583	1.4513401
30	0x3ea7596f	0.3268542
31	0x3fb70ccd	1.4300781
32	0x3fa89aa8	1.3172197
33	0x3f0de523	0.5542776
34	0x3f951022	1.1645548
35	0x3f70273e	0.9380988
36	0x3fa1be6f	1.2636241
37	0x3de3a47d	0.11115358
38	0x3d9c03db	0.07617923
39	0x3ea7be7f	0.32762524
40	0xbe0ef4ae	-0.13960525
41	0x3f476c82	0.77899945
42	0x3f093dd6	0.5360998
43	0x3f83f4e1	1.0309106
44	0x3f60b29a	0.87772524
45	0x40174952	2.36385
46	0x3fbd57f0	1.4792461
47	0x3f64195f	0.89101213
48	0x40027575	2.038419
49	0x3f8383c6	1.0274589
50	0xbcd120e5	-0.02552838
51	0x3fb4b8b9	1.4118873
52	0x3fcca611	1.598818
53	0x3f635d21	0.8881398
54	0x3fa3142a	1.2740529
55	0x3fd91456	1.6959331
56	0xbeecf224	-0.4627849
57	0x3f7574f9	0.9588161
58	0x3ea2ca31	0.31794885
59	0x3fc19209	1.5122691
60	0x3ede4cbc	0.4341792
61	0x3f854e8e	1.0414598
62	0x3f43e18c	0.7651603
63	0x3f3a0cc7	0.72675747

nns.0.1.bias f4 [64]
0	0xbf26c6b7	-0.65146965
1	0x3f4bc42e	0.7959622
2	0x3f332294	0.6997464
3	0x3eced144	0.40394032
4	0xbf2ec7f3	-0.6827385
5	0xbf7273e3	-0.9470808
6	0xbf2930b1	-0.6608992
7	0xbf1e3c28	-0.6181054
8	0x3f08987a	0.5335766
9	0xbf916215	-1.1358057
10	0xbf9944eb	-1.1974157
11	0x3f840fd0	1.0317326
12	0xbe857603	-0.26066598
13	0xbf1caff7	-0.61206
14	0xbeb2d371	-0.34926942
15	0x3f8fb62f	1.1227473
16	0xbe6df118	-0.23236501
17	0xbf3a8240	-0.72854996
18	0x3f749c1d	0.9555071
19	0xbe2c7073	-0.16839771
20	0xbe9d69c2	-0.3074475
21	0xbe956f8a	-0.2918666
22	0x3eac5992	0.33662087
23	0xbfb492a3	-1.410725
24	0xbf576db9	-0.841518
25	0xbf7230bd	-0.9460562
26	0xbf938054	-1.1523538
27	0x3dfc3857	0.123154335
28	0xbf9ef857	-1.2419537
29	0x3f2787df	0.654417
30	0xbe82a29c	-0.25514686
31	0xbfa84a38	-1.314765
32	0xbf2569d0	-0.6461458
33	0x3ec26f94	0.37975752
34	0x3e89462e	0.26811355
35	0x3efe6709	0.49687985
36	0xbeb30a5b	-0.34968838
37	0xbfd3094d	-1.6487213
38	0xbf280e22	-0.65646565
39	0xbf455ec4	-0.77097726
40	0xbf88ece9	-1.0697299
41	0x3f8e7301	1.1128846
42	0xbf10ef29	-0.5661493
43	0xbfc30d35	-1.5238405
44	0xbe25447b	-0.16139404
45	0xbed86459	-0.4226406
46	0xbfbcd52f	-1.4752558
47	0xbe86cdc3	-0.2632886
48	0xbfade794	-1.3586297
49	0x3dba3b48	0.09093338
50	0xbf4b1a9c	-0.7933748
51	0xbee44b83	-0.4458886
52	0x3f5c49d7	0.8605017
53	0xbf8ef10c	-1.1167312
54	0xbedb0767	-0.42779085
55	0xbf2c0acb	-0.6720397
56	0xbfb1a0f8	-1.3877249
57	0x3e66718f	0.22504257
58	0xbe4cedd2	-0.20012596
59	0xbfd91fd3	-1.6962837
60	0xbf32e8ef	-0.6988668
61	0xbe6b8c5e	-0.23002765
62	0xbf8df5ce	-1.1090639
63	0xbf290880	-0.66028595

nns.0.1.running_mean f4 [64]
0	0x3ea9251b	0.33036122
1	0xbf284907	-0.6573643
2	0xbf3a50c0	-0.72779465
3	0xbf00e0da	-0.50343096
4	0x3ff81adc	1.9383197
5	0xbeedf17e	-0.46473306
6	0x3f889245	1.0669638
7	0x3ea4d5a0	0.32194233
8	0xbfbbbacb	-1.466638
9	0xc00e9d6c	-2.2283583
10	0x3e0da0de	0.13830897
11	0xbf1ff55c	-0.62483764
12	0xbee8d832	-0.45477444
13	0x3db9c9a3	0.09071662
14	0x3f429268	0.7600465
15	0x3eec2fd3	0.46130237
16	0xbf1b220a	-0.60598814
17	0x3f465777	0.7747721
18	0x3e0ad2dd	0.13557
19	0xbf191514	-0.5979779
20	0x3f0d9793	0.5530941
21	0x3e0a3f68	0.1350075
22	0xbe414f9c	-0.18878025
23	0x3eb8b9a7	0.36079141
24	0x3ef52d1c	0.47885978
25	0x3eb88282	0.3603707
26	0x3ed9ac95	0.42514482
27	0x3f03db84	0.5150683
28	0x3f3e0371	0.74224
29	0xbf387f06	-0.7206882
30	0xbf0c8cbc	-0.54902244
31	0xbe68a76f	-0.22720121
32	0x3ca4f898	0.02013807
33	0xbf7fc446	-0.99908864
34	0xbf5c6295	-0.86087924
35	0xbf20dc8a	-0.62836516
36	0xbf62d7b6	-0.886104
37	0x3e67488e	0.22586271
38	0x3e89ed50	0.26938868
39	0xbe1a8601	-0.15090181
40	0x3f06efcf	0.5270967
41	0x3f2900fb	0.6601712
42	0x3eb89e70	0.36058378
43	0x3f0a04ea	0.5391375
44	0x3e6e7863	0.23288111
45	0x4020e841	2.5141757
46	0xbe6270cc	-0.22113341
47	0xbe1257fe	-0.14291379
48	0xbea19cec	-0.31565034
49	0xbed96bc1	-0.42465022
50	0xbfbdd94b	-1.4831938
51	0xbf37bd4b	-0.71773213
52	0xbd4918a0	-0.04909575
53	0x3d61b7a6	0.05510678
54	0x3f8388ff	1.0276183
55	0xbd741457	-0.05958971
56	0xbe603a99	-0.21897353
57	0xbdaf84b9	-0.08570237
58	0xbda18d66	-0.07888298
59	0xbeac9cd6	-0.33713406
60	0xbf2b5417	-0.66925186
61	0x3ea984a2	0.33109003
62	0x3c283398	0.010266207
63	0x3e6959d9	0.2278818

nns.0.1.running_var f4 [64]
0	0x3d9a4b1c	0.07533857
1	0x3d97dad7	0.07414787
2	0x3db51b8e	0.08843146
3	0x3e13964c	0.14412802
4	0x3e4daf09	0.20086302
5	0x3e8c1e0a	0.27366668
6	0x3eabd8a0	0.3356371
7	0x3d6bc276	0.0575585
8	0x3dc45a5a	0.09587546
9	0x3cfd0baa	0.03088935
10	0x3db437c5	0.087997
11	0x3de1cc92	0.11025347
12	0x3e089e95	0.13341744
13	0x3d4acf26	0.04951396
14	0x3e29e2b6	0.1659039
15	0x3dc1cb92	0.09462656
16	0x3e12ef8c	0.14349192
17	0x3cec56af	0.028849928
18	0x3db784c6	0.089608714
19	0x3d6157be	0.055015318
20	0x3e4aa2e0	0.19788694
21	0x3ed943f4	0.42434657
22	0x3e7f9213	0.24958067
23	0x3ed29de9	0.411361
24	0x3d5da54c	0.054112718
25	0x3d5fd4c1	0.054646257
26	0x3d8ee2f0	0.06976879
27	0x3e106e46	0.14104566
28	0x3eac15c8	0.33610368
29	0x3d8dec00	0.06929779
30	0x3d9f8b24	0.07790211
31	0x3e2ddddf	0.16979168
32	0x3d3eb0c6	0.046555303
33	0x3e127c0f	0.14305137
34	0x3dd6d67f	0.10490131
35	0x3df25f67	0.11834603
36	0x3dae5329	0.08511955
37	0x3d58d3eb	0.052936476
38	0x3d602927	0.054726746
39	0x3d5be718	0.053687185
40	0x3de31660	0.11088252
41	0x3c82a13d	0.015946025
42	0x3ccc5957	0.024944944
43	0x3ea7b9be	0.32758898
44	0x3df3518e	0.1188079
45	0x3cd750d7	0.026283665
46	0x3ec0de5f	0.37669656
47	0x3c900f39	0.017585384
48	0x3ee7d26b	0.45277724
49	0x3e170d36	0.14751133
50	0x3c180885	0.009279375
51	0x3d42ea06	0.047586463
52	0x3de888bf	0.11354207
53	0x3d86e548	0.06586701
54	0x3e0da3fa	0.13832083
55	0x3e1a385f	0.15060566
56	0x3dbe5498	0.09293479
57	0x3db9a28c	0.090642065
58	0x3d0ecd50	0.03486377
59	0x3ebd44be	0.3696651
60	0x3bedc2a6	0.00725587
61	0x3e18044c	0.14845389
62	0x3d9b255d	0.07575486
63	0x3ccab4db	0.024744442

nns.0.3.weight f4 [64, 64]
0	0x3f641b1a	0.89103854
1	0xbf5870cb	-0.8454711
2	0xbf837b66	-1.0272033
3	0xbf429447	-0.76007503
4	0xbcc509d6	-0.024052542
5	0xbe093f51	-0.1340306
6	0xbf6561d6	-0.8960241
7	0x3f26de7c	0.65183234
8	0xbdc12cea	-0.09432395
9	0x3e403d02	0.18773273
10	0xbf4be28f	-0.79642576
11	0xbf7e4e7a	-0.99338496
12	0x3ef6afbb	0.48180947
13	0xbeb6d825	-0.3571178
14	0x3f0398c7	0.51404995
15	0xbf849d9e	-1.0360601
16	0xbeeda207	-0.4641268
17	0xbf440c99	-0.7658172
18	0xbf385737	-0.7200808
19	0x3e26fae8	0.1630665
20	0xbe81e1cb	-0.2536758
21	0xbf806af4	-1.003264
22	0xbf60da65	-0.87833244
23	0xbf6f72fb	-0.9353482
24	0x3d2e713b	0.042588454
25	0x3e9d087f	0.30670545
26	0xbf7a8044	-0.9785197
27	0xbf7ad930	-0.9798765
28	0xbf25506a	-0.6457583
29	0xbf909a87	-1.1297158
30	0x3f24b0d2	0.64332306
31	0xbf603b36	-0.8759035
32	0xbf67f33f	-0.9060554
33	0xbf4a8326	-0.79106367
34	0xbed797b5	-0.4210793
35	0xbea2be8e	-0.31786007
36	0x3e03f3c2	0.12885955
37	0xbf77015b	-0.96486443
38	0xbf4639af	-0.7743177
39	0x3e67e1da	0.2264475
40	0xbf40ccad	-0.7531231
41	0x3e0a09ce	0.13480303
42	0xbf2ed801	-0.68298346
43	0xbf689287	-0.90848583
44	0x3f0edadd	0.5580271
45	0xbed4e7f8	-0.41583228
46	0xbf8398bb	-1.0280985
47	0xbf447191	-0.7673579
48	0xbf8134ff	-1.0094298
49	0xbe334d10	-0.17509866
50	0x3f541946	0.82851064
51	0x3dbebce6	0.09313373
52	0xbf78f7be	-0.97253025
53	0x3ed1b747	0.40960142
54	0x3ea3c361	0.31985
55	0xbe0c86da	-0.13723317
56	0xbf74f451	-0.956853
57	0xbe97c348	-0.29641175
58	0x3f07efde	0.53100383
59	0xbf7f3965	-0.9969695
60	0xbeeea5df	-0.46610925
61	0xbeaa35c5	-0.33244148
62	0xbe6911f4	-0.22760755
63	0xbef4d81b	-0.47821125
64	0xbf13c419	-0.57721096
65	0xbf1f62ae	-0.6225995
66	0x3e8b40fa	0.2719801
67	0x3e519ccf	0.20469974
68	0x3edb5a17	0.4284217
69	0x3ec071f9	0.37586954
70	0x3d1b6d3c	0.03794597
71	0xbe3e4b2e	-0.18583366
72	0x3e81c4d6	0.25345486
73	0xbf065c46	-0.5248455
74	0xbf706175	-0.9389871
75	0xbf2dd94d	-0.679097
76	0x3f361420	0.7112446
77	0x3eed6852	0.46368653
78	0x3f3d48c8	0.7393918
79	0xbf19502b	-0.5988795
80	0xbf177c05	-0.59173614
81	0x3eef503f	0.4674091
82	0xbf3dc162	-0.74123204
83	0xbefdaa88	-0.49544168
84	0xbf4342b6	-0.7627367
85	0xbf43f563	-0.76546305
86	0xbf3d630b	-0.7397925
87	0x3c1cc8de	0.009569375
88	0x3c89ca15	0.016819993
89	0xbf063e69	-0.5243898
90	0xbf5f0640	-0.8711891
91	0x3ea24273	0.31691322
92	0x3e2d77a1	0.16940166
93	0x3df9c4a4	0.12195709
94	0xbee5fe9c	-0.44920814
95	0xbf901397	-1.1255978
96	0x3eb5d3d0	0.35513163
97	0x3e8c327a	0.2738226
98	0x3ecf1880	0.4044838
99	0x3ee95ecc	0.45580137
100	0x3f15e108	0.58546495
101	0xbf6fec97	-0.9372038
102	0xbf125584	-0.57161736
103	0xbeb7cde2	-0.35899264
104	0xbf556bdd	-0.8336771
105	0xbed57fa8	-0.41698956
106	0x3ec59b4b	0.38595042
107	0xbf42ec30	-0.76141644
108	0x3f42f699	0.7615753
109	0xbe140e4a	-0.14458576
110	0xbefd5398	-0.4947784
111	0x3e8f13b1	0.2794471
112	0x3cd0dc43	0.025495654
113	0xbf15e37f	-0.58550256
114	0x3f150de1	0.582243
115	0x3f0bb3b5	0.54571086
116	0x3f08049c	0.53132033
117	0xbef0f4a1	-0.47061637
118	0xbe8425ea	-0.25810176
119	0x3e96003e	0.2929706
120	0xbe873f85	-0.2641565
121	0x3f12612c	0.5717952
122	0xbf0d96fd	-0.55308515
123	0xbf83d0f1	-1.0298139
124	0x3ee676e5	0.45012584
125	0x3f003c7c	0.5009229
126	0xbf425b31	-0.759204
127	0xbf15fa59	-0.58585125
128	0xbf38ad64	-0.72139573
129	0xbf02ffb9	-0.5117145
130	0xbf06384d	-0.5242966
131	0x3f183971	0.5946265
132	0xbf241ee5	-0.6410964
133	0xbf0a281c	-0.5396745
134	0xbf03ea72	-0.5152961
135	0x3f16a121	0.58839613
136	0xbf178887	-0.591927
137	0xbf19be32	-0.6005584
138	0xbf0b99eb	-0.54531735
139	0xbf2a7808	-0.66589403
140	0x3f27d764	0.65563035
141	0xbf2b6358	-0.6694846
142	0x3f08df13	0.53465384
143	0xbf02b526	-0.5105766
144	0xbf33ce3d	-0.7023657
145	0xbf244323	-0.6416494
146	0xbf3868f1	-0.7203513
147	0x3f1265ee	0.5718678
148	0xbf37d60a	-0.7181097
149	0xbf027d6b	-0.5097262
150	0xbf11d0ff	-0.5695953
151	0xbf03f68b	-0.5154807
152	0x3efbe7f1	0.49200395
153	0xbf22a44e	-0.6353196
154	0xbf2d770b	-0.6775977
155	0x3f3685d1	0.7129794
156	0xbf21169e	-0.62925136
157	0xbf233647	-0.63754696
158	0x3f059f51	0.5219622
159	0xbf1f1cb1	-0.62153155
160	0xbef9dd08	-0.48801446
161	0xbf21639b	-0.6304261
162	0x3f3f19d5	0.7464879
163	0x3f1bd5f1	0.60873324
164	0xbf374600	-0.71591187
165	0xbf2e5023	-0.6809103
166	0xbf0f5f68	-0.56004953
167	0xbf341efe	-0.7035979
168	0x3f1cb53e	0.61214054
169	0xbf079a88	-0.5297017
170	0xbf02ac6c	-0.51044345
171	0xbf0f46c6	-0.55967367
172	0x3f0b21dd	0.54348546
173	0xbef49a94	-0.47774184
174	0xbf06b7f4	-0.5262444
175	0xbf217e07	-0.6308293
176	0xbf30c5b6	-0.6905168
177	0xbf35d279	-0.7102428
178	0xbf17aba2	-0.59246266
179	0xbf368f26	-0.7131218
180	0xbf2332a3	-0.6374914
181	0xbf3757ae	-0.71618164
182	0xbf071c57	-0.5277762
183	0xbf1a507a	-0.6027905
184	0xbf168f4a	-0.5881239
185	0xbf1998a3	-0.5999853
186	0x3f30b348	0.6902356
187	0xbf067f04	-0.5253756
188	0xbf0b1679	-0.54331166
189	0xbf1e51e5	-0.6184371
190	0xbf0452f4	-0.51689076
191	0x3f2db11e	0.67848384
192	0xbea625e4	-0.32450783
193	0xbf41d922	-0.75721943
194	0x3e2a4eaa	0.1663157
195	0x3e9962e1	0.2995825
196	0xbdcfe60d	-0.101513006
197	0xbf55995a	-0.8343712
198	0xbf14c524	-0.5811331
199	0xbead0712	-0.33794457
200	0x3ebb03eb	0.36526427
201	0xbf17820e	-0.5918282
202	0xbf17bac9	-0.59269387
203	0xbedc569a	-0.43034822
204	0x3f629c02	0.885193
205	0x3f4407da	0.7657448
206	0x3f6d711e	0.9275073
207	0xbf64f0c3	-0.89429873
208	0xbedd4a0a	-0.4322055
209	0x3ecdb0bf	0.4017391
210	0xbf3b3f7a	-0.7314373
211	0xbec26e6a	-0.37974864
212	0xbf5294c8	-0.8225827
213	0xbf326a9b	-0.6969392
214	0xbf2951d7	-0.661405
215	0xbf3528ec	-0.70765567
216	0xbe94da69	-0.29072884
217	0xbf135237	-0.57547325
218	0xbf36d348	-0.7141614
219	0x3e8e24e5	0.27762523
220	0xbf48fb8a	-0.7850882
221	0x3e8974ff	0.26847073
222	0xbefc8857	-0.4932277
223	0xbf21fe72	-0.6327888
224	0x3ef6b7c4	0.48187077
225	0x3e07dfe8	0.13269007
226	0x3f34286e	0.7037419
227	0x3f2cddef	0.67526144
228	0x3f2a132e	0.66435516
229	0xbf532922	-0.8248464
230	0xbee86bcc	-0.45394742
231	0xbeba7ee4	-0.36424935
232	0xbebf6650	-0.37382746
233	0xbe7266c9	-0.23672022
234	0x3ec4a890	0.38409853
235	0xbf1261cb	-0.5718047
236	0x3f4e06c6	0.80479085
237	0x3ea3fa3c	0.3202685
238	0xbf4f3c30	-0.80951214
239	0x3f31eacc	0.69498897
240	0xbf1f894a	-0.6231886
241	0xbf0506d6	-0.51963556
242	0x3ec3a576	0.38212174
243	0x3eea18a5	0.45721927
244	0x3f38fa1b	0.7225663
245	0xbf130fae	-0.574458
246	0xbe74231d	-0.2384152
247	0xbf5646c2	-0.8370172
248	0xbf5906b4	-0.84775853
249	0x3f2a0048	0.6640668
250	0xbef2e4e7	-0.47440264
251	0xbf4c5d93	-0.7983028
252	0x3eb6858d	0.35648766
253	0x3f56bf0a	0.8388525
254	0xbf2eb4b2	-0.6824447
255	0xbebe9530	-0.37223196
