result/experiment_08.04.2022_13.23.59/52/fold_0_state_dict.pt (torch, 61084 bytes, 92 tensors)

first_h.0.weight f4 [32, 3]
00000000: 1d4f f2be b3b6 b0bd 4988 fc3e a5d0 1bbf
00000010: 7912 803c 8f95 703e f51b bd3c 1253 e2be
00000020: 52ce babd 8334 1a3f af66 c7be ad0c 263e
00000030: e91d f4be 0b1c 97be 2b47 363d 6caf dc3d
00000040: ee3f 0cbf 9bd7 583e 5e1c d23e d51f 163f
00000050: 49d4 183f 2cec 833d d15d 1d3f 8e47 b13e
00000060: 5128 183f b37b 1abf 26e9 39be e591 7abe
00000070: 933b 9dbe a651 c83d 933d 383f ba9c 76be
00000080: f120 2cbe 3776 b5be eed9 593e 9879 54bf
00000090: 3ed3 4f3f b5ec 9ebe 3563 3dbe b720 d33e
000000a0: b1d6 a43c 843c 2c3f 60b0 aebd ec7c 8fbe
000000b0: 9b50 a0bd a1d0 493e bf20 98be 7937 2fbf
000000c0: cb4b 30be 252f 18bf 6b64 8abe 934d 9c3e
000000d0: 78d1 c63d 3246 febd b7e0 f9bc c975 ce3d
000000e0: f94e d7be 75c6 7d3d c649 b43e a85e 83be
000000f0: 91fe 8b3d 379a 40bf 459e 52bf f44b 98be
00000100: e3ed 743e ae23 9e3e 7057 efbe d3cc 1fbe
00000110: 7f07 f9be 6043 d93e fe9a 9c3e 8ae5 49bf
00000120: 39a1 68be 93cc 8e3e 0b0d fe3c 8167 a23e
00000130: 4a04 4abf 2a17 58bf 8161 213f 6225 843e
00000140: 9d76 4bbf c9b3 13bf fa3c ccbe 3dda 09bf
00000150: bdd9 7a3e 11ee 0f3f f4f8 ac3d f7fc 0bbd
00000160: 54b3 39bf dabe 7bbe dc0e febd 4e50 39be
00000170: 4697 09bf 63ae 43be 0333 283e b0a2 9f3e
-0.47325984 -0.08628597 0.49322727 -0.6086524 0.015633808 0.23494552 0.02308462 -0.44204003
-0.09121384 0.60236377 -0.3894553 0.16215773 -0.4767907 -0.29513583 0.044501465 0.107756466
-0.5478505 0.21175997 0.41037267 0.5864232 0.5969892 0.064415306 0.6147128 0.34624904
0.5943652 -0.60345 -0.18155345 -0.24469717 -0.30709514 0.09781198 0.71968955 -0.24083224
-0.16809441 -0.35441753 0.2127454 -0.8299804 0.81181705 -0.31039968 -0.18494876 0.41235897
0.020121904 0.6727984 -0.085297346 -0.28024995 -0.07827874 0.19708492 -0.29712483 -0.6844402
-0.17216413 -0.59446937 -0.27029738 0.30527934 0.09707922 -0.124157324 -0.03050266 0.100810595
-0.4205244 0.06195684 0.35212535 -0.25658154 0.06835664 -0.75235313 -0.8227275 -0.29745448
0.23918872 0.30886596 -0.46746397 -0.15605478 -0.48638532 0.42434216 0.30587 -0.78865874
-0.22717752 0.27890453 0.031012079 0.31719592 -0.78912795 -0.84410346 0.63039404 0.2580977
-0.79477865 -0.57696205 -0.3989027 -0.5384863 0.24497123 0.56222636 0.084459215 -0.034176793
-0.7253926 -0.24584523 -0.12405178 -0.1809704 -0.5374645 -0.19109492 0.1642571 0.31178808

first_h.0.bias f4 [32]
00000000: 4c03 f33e 8fd6 a0be 777e c03e 2f4a c03e
00000010: d84c 6d3e 4035 0c3f b02c 3c3d f21c 8ebd
00000020: 412d a7be e291 03be 1716 523e 35b0 d0be
00000030: dd3f f43d feb3 1fbe f1be ecbe f3a3 90bd
00000040: 5e75 63be 34ef 033f adb6 8dbe 6d5b 103f
00000050: bf18 aa3e 22c0 103f 4f58 12bb 27dc 9abc
00000060: e44c fbbe f1d0 643e 214e bf3e e889 5abd
00000070: 5c9d 96bc 787b 25bd e2c3 993e 74d6 aabe
0.47463453 -0.31413695 0.37596485 0.37556598 0.23173845 0.54768753 0.045941055 -0.06939115
-0.32651713 -0.12848619 0.20516239 -0.40759435 0.119262435 -0.15596005 -0.46239427 -0.07062521
-0.22212741 0.5153687 -0.27678433 0.56389505 0.33222005 0.5654317 -0.0022330468 -0.018903805
-0.490821 0.2234533 0.37364295 -0.053354174 -0.018385582 -0.040400952 0.3003226 -0.3336674

first_h.1.weight f4 [32]
00000000: 2eae a03f 64c6 a83f 4f36 733f ff92 133f
00000010: 3683 a23f 002c 143f 13bd 7d3f 8dd3 723f
00000020: 5b88 8e3f 9495 923f 6877 6c3f 5344 9a3f
00000030: 8e66 753f f9a9 f43f 6231 573f f7c0 833f
00000040: 30f0 3d3f 1162 813f 4c15 a13f 89ec 2f3f
00000050: b571 493f 5c16 923f a782 703f 82fb 373f
00000060: 119e 723f c386 e3bd a8ca 703f 8eaf a63f
00000070: 1a02 303f 039d 9c3f 7cbd 9b3f e726 5b3f
1.2553155 1.3185544 0.95004743 0.57646173 1.2696292 0.5787964 0.9911663 0.9485405
1.1135362 1.1451898 0.923697 1.2052101 0.9585961 1.9114372 0.8405973 1.0293263
0.7419462 1.0108052 1.2584624 0.687203 0.7868913 1.1413074 0.9394936 0.71868145
0.9477244 -0.11109688 0.9405923 1.3022325 0.68753207 1.2235416 1.2167201 0.85606235

first_h.1.bias f4 [32]
00000000: 2dab b83e 1e39 753e dc15 64bf 8d8f 89bf
00000010: d8cc 9d3e 0e6b 70be 8c35 10bf c5b4 99be
00000020: be1a aabe d81c dcbc 004d 42bf 5376 453f
00000030: 94bc 1ebf 133d c4bb e1a7 88bc d517 5ebc
00000040: 9dcb ecbe 1123 01bf efa9 e33e a503 77bf
00000050: 0f07 05bf 9f3d b43d 96f0 203e 8701 7dbe
00000060: cc07 c0be ff88 063f 5330 a8be d5d4 083f
00000070: 3fdb bcbf dab2 233f 4dbb fb3e be42 a4bd
0.36068097 0.2394757 -0.89095855 -1.0746933 0.30820346 -0.23478338 -0.56331706 -0.3002073
-0.33223528 -0.026869223 -0.7589874 0.77133673 -0.620065 -0.005988726 -0.016681613 -0.013555487
-0.46249095 -0.5044413 0.44465587 -0.96489936 -0.51963896 0.08800816 0.15716776 -0.24707614
-0.3750595 0.5255279 -0.32849368 0.53449756 -1.4754409 0.6394478 0.49166337 -0.080205426

first_h.1.running_mean f4 [32]
00000000: 8ee4 24c9 c3fb 53c9 550a fc46 5fed 5149
00000010: 4158 26c9 6620 1648 1c6b 0e49 db2b b747
00000020: 5eba 4e49 6ea0 aac8 4edf 7a49 64e3 f8c8
00000030: 4174 8d49 4ea9 0f49 b4d9 edc7 ed5f 8948
00000040: 23dc 6fc8 714c d448 8a6f 43c7 f979 ac47
00000050: b90b bf47 8fd2 cdc8 0843 23c9 56d4 1349
00000060: 2c49 9ec8 0bfb dc48 4b9f 5b49 dad1 49c9
00000070: 01c2 aa48 af52 5bc7 0b7a 41c8 031d 85c8
-675400.9 -868284.2 32261.166 859861.94 -681348.06 153729.6 583345.75 93783.71
846757.9 -349443.44 1.0275729e+06 -509723.12 1.1587921e+06 588436.9 -121779.41 281343.4
-245616.55 434787.53 -50031.54 88307.945 97815.445 -421524.47 -668720.5 605509.4
-324169.38 452568.34 899572.7 -826653.6 349712.03 -56146.684 -198120.17 -272616.1

first_h.1.running_var f4 [32]
00000000: 7d90 5055 5c53 ac55 8f65 fb50 e701 a955
00000010: 833f 5455 b6df 2c53 58bb 1b55 ed09 8152
00000020: 88ee a355 414c 5f54 0c46 f155 ee70 ed54
00000030: fb78 1956 ef4b 1e55 29f1 d852 d9c1 1054
00000040: b2a1 dc53 e7e3 ac54 1d83 9151 d049 6452
00000050: 49e4 8b52 0985 a254 6863 4c55 f79e 2755
00000060: 1a2d 4054 1549 bb54 d5fa b855 3230 9c55
00000070: e09b 5f54 a29c b751 b1a9 8e53 4ae9 0754
1.4332437e+13 2.3684253e+13 3.3741896e+10 2.3228204e+13 1.4585578e+13 7.424876e+11 1.0701809e+13 2.7710865e+11
2.253061e+13 3.8362281e+12 3.3160394e+13 8.158415e+12 4.218622e+13 1.0878061e+13 4.6587947e+11 2.48691e+12
1.8952112e+12 5.9404635e+12 7.812125e+10 2.4512273e+11 3.0041522e+11 5.5841333e+12 1.4045457e+13 1.1518824e+13
3.3015616e+12 6.43508e+12 2.5423432e+13 2.1466351e+13 3.8415714e+12 9.857586e+10 1.2254646e+12 2.334938e+12

first_h.3.weight f4 [32, 32]
00000000: 305b 54bc 5387 263d 8b1d 3dbe 273a b5bd
00000010: b434 9fbc 00e4 c9be 3f9d 04be a065 b3be
00000020: bbbd a9be c94e 79bd 6dc6 6cbe e0b3 073d
00000030: fad5 4bbe 399a b3be a5d0 353e 97a6 bd3d
00000040: af9a 06bf ad24 88be 948b 3c3e 4ce8 1bbe
00000050: 63a4 c6be 4188 77bd 9d30 223e e716 8bbe
00000060: c741 e7be 6e48 d93d d5fc f3be e03e 703d
00000070: 4875 1c3e 5e16 633e f7d0 183e 20ef c13d
00000080: 6174 f73e 3644 c73e 723f 6ebe 2bc2 0fbe
00000090: b843 e03e 34ae 66be d9eb 9bbe 292b 96be
000000a0: bc78 bbbe 6389 9a3e 3c8a 8abe 7e1f 153f
000000b0: abd9 96be 0e11 2abf 3a10 443e 2fa1 183e
000000c0: 0ca0 a3bd c384 9cbe 12a4 b73e 8095 38be
000000d0: 9b57 d2bd e3b4 f13e b22e a23e 8732 b5bd
000000e0: 9295 84be c785 95be 9cc4 75be 2327 e13e
000000f0: eb1a 1ebe 3a25 fe3e 4489 c53e a232 863e
00000100: bd7d fd3c f9fa 22bd e811 e5bd 8114 8cbd
00000110: aaff debc bfc1 49be 6506 3abe 114b 88be
00000120: 0dae 1abe 02d7 68bd 8b5a f8bc 3535 6ebc
00000130: 5186 46be 8336 31bd 04cf d2bd b047 83bd
00000140: 92b0 73be ee99 90bc 6d4d cabd 9e4d a2bc
00000150: 0e5c 9bbe 54d3 013e dea0 a03d 706d 83be
00000160: 25a0 bd3c 2a3b c5bb 54ef 04be 3d38 083d
00000170: 3d9f 4dbe 3281 6c3d dee4 5fbe 71fa 7bbe
00000180: c487 1e3e 4d73 0abe 51b3 89be f34a b0bd
00000190: c607 0ebc e0ef 43bd f719 2cbe 1433 473c
000001a0: 09fc aabd c4d8 593d ba16 5fbe 1af7 133e
000001b0: eaae 30be dfb1 213c e2b9 99bd edc5 e2bd
000001c0: 5168 bf3b 1f2f e13c 592a 0fbe ee46 0cbe
000001d0: 4a7b 40be e4c2 9cbd dd0d e3bc 311f e9bd
000001e0: 5442 2fbe 81a6 21bc cafc 8dbe 47a8 533c
000001f0: 8813 b0bd a8d2 f73d 767e 123e e0a9 28be
00000200: ef60 d63d ff52 e7bc c6a6 65be 4bdf 9bbe
00000210: 8aef 08bd 55fa cd3d e329 8fbe c6e7 0cbe
00000220: 67fa 9fbe 8125 d2bd bbf1 31be c7d8 e4bb
00000230: 1d3b a9be a837 4e3e 93f6 423b 7970 d6be
00000240: 3d5f bebe 0e0a 8cbe 33ab d8bd 20af 87be
00000250: 344f 7ebe 4f0a dbbd 5009 283e 7ec9 58be
00000260: b8be 93be 69e3 603e ea0b 82be 8d9d e53d
00000270: 148d 1cbe f0d7 053e 4916 983c 3714 163e
00000280: 2613 f83d c100 3f3d b044 6d3c c337 11be
00000290: 21a7 863e 1afd cebc ac92 7b3e d556 b13d
000002a0: 6b8c 18be 8074 603d b312 9c3e 07e9 d73e
000002b0: b241 1f3e 2fcf 1fbf 04aa db3c 80f4 25bc
000002c0: 074f b2bd 139a 253e a0bf d43e 7959 02bd
000002d0: 6125 43bc fc05 19bd dd99 8e3e dfd2 49be
000002e0: 9142 dc3d 7197 a73e d6d0 85bd 8fc4 b83e
000002f0: cd46 773e 3efe ae3e 0462 d63e 3f9c 753e
00000300: 6de6 d0be 1f4d bdbe d002 2abb 8591 50be
00000310: 23a9 9fbe 6fff 76be 676e 8abd 907e babd
00000320: 6b7e 653d 3257 11be 93f4 6f3d 17a8 04be
00000330: e5d3 afbd 2f59 0bbf 6c6c 90be b898 9c3d
00000340: 154d d3bd 2391 2cbe 6a7d 82be 64b1 c63d
00000350: 0210 65be c76a 6ebe 44f9 29be 4d8c 0fbe
00000360: 3079 36be 0455 13be ab39 7bbe 1dde a7be
00000370: c0fb 46bd dd4d 09be c8a2 1abe 8db2 96be
00000380: 317f 7abd f435 b33c 73f2 c2bd 5516 023e
00000390: 49ca b53e 9433 e2bd e3ff 313e 4f76 debc
000003a0: fcd3 20be 9d13 e9bc ff53 123e c01c a43e
000003b0: e6f5 f93d 74bc f5be 645d ad3b de51 123e
000003c0: 029a 4abd cd15 123e d447 ed3e 0852 de3d
000003d0: 2db0 5bbe ad14 a1bd 7d19 403e 6a89 193d
000003e0: 281e 2cbc de48 b63e 7aa9 8cbd 7f0f ac3e
000003f0: 50da 153e 0456 5c3e e1dd c23e 2ed3 413e
-0.012961194 0.0406564 -0.18468301 -0.08848982 -0.01943431 -0.39431763 -0.1295061 -0.3503847
-0.33152565 -0.06086615 -0.23122568 0.033130527 -0.19905844 -0.350786 0.17755373 0.0926029
-0.5257978 -0.2659048 0.1841262 -0.15225333 -0.38797292 -0.060432676 0.15838857 -0.2716591
-0.45167372 0.10609518 -0.47653833 0.058653712 0.15279114 0.22176501 0.14923464 0.094694376
0.48330978 0.38919228 -0.2326639 -0.14038913 0.43801665 -0.2252739 -0.30453375 -0.29329804
-0.3661555 0.30182943 -0.2705859 0.5825118 -0.29462942 -0.66432273 0.19146815 0.14905237
-0.07989511 -0.3057004 0.35867363 -0.1802578 -0.10270616 0.47208318 0.3167625 -0.08847528
-0.25895363 -0.29203627 -0.24000782 0.4397517 -0.15439956 0.49637777 0.38581288 0.26210505
0.030943746 -0.039790127 -0.11185056 -0.06839848 -0.02722152 -0.19702815 -0.18166502 -0.2661977
-0.15105458 -0.056845672 -0.030316612 -0.014539053 -0.19387175 -0.043264877 -0.10293391 -0.06410158
-0.23797825 -0.017651524 -0.09878049 -0.019812401 -0.3034367 0.12678272 0.07843183 -0.25669432
0.023147652 -0.006019016 -0.12981921 0.033256758 -0.20080276 0.057740398 -0.2186465 -0.24607255
0.15481478 -0.13520546 -0.2689462 -0.086080454 -0.0086688455 -0.047836185 -0.1680678 0.012158174
-0.08348853 0.05318524 -0.21786013 0.1444973 -0.17254224 0.009869068 -0.075061575 -0.110729076
0.005841293 0.02748829 -0.13980998 -0.13698933 -0.18797031 -0.0765436 -0.027716571 -0.113829024
-0.17115146 -0.009866358 -0.27731925 0.012918538 -0.08597475 0.12100726 0.14306054 -0.16471052
0.10467707 -0.028237818 -0.224269 -0.30443797 -0.033431567 0.10057513 -0.27961645 -0.1376029
-0.3124573 -0.102610596 -0.17377369 -0.0069838497 -0.33052912 0.20138419 0.002974902 -0.41882685
-0.37182036 -0.2735142 -0.10579529 -0.26500797 -0.24834901 -0.106953256 0.16409802 -0.21170613
-0.28856444 0.2196175 -0.25399715 0.11211691 -0.15288192 0.13070655 0.018565314 0.14656149
0.12113027 0.04663158 0.014481708 -0.14181428 0.26299384 -0.025267173 0.2456767 0.0865914
-0.14897315 0.054798603 0.30483016 0.42169973 0.15552405 -0.6242551 0.026814468 -0.010129094
-0.087064795 0.16172056 0.41552448 -0.03182361 -0.011910767 -0.037359223 0.27851763 -0.19709347
0.10754884 0.32732728 -0.06533973 0.36087462 0.24148102 0.34178346 0.41871655 0.23985384
-0.408008 -0.369729 -0.0025941618 -0.20368011 -0.3118373 -0.24120878 -0.06759339 -0.09106171
0.056028765 -0.14193419 0.058582854 -0.12954746 -0.085853375 -0.5443296 -0.2820772 0.07646316
-0.103174366 -0.1685224 -0.25486308 0.09701803 -0.22369388 -0.2328292 -0.16598994 -0.14018364
-0.17819667 -0.143879 -0.24533717 -0.32786646 -0.04857993 -0.13408609 -0.15101159 -0.29433098
-0.061156455 0.021876313 -0.095189 0.12703831 0.35505894 -0.11044994 0.1738277 -0.027156023
-0.15705866 -0.028451735 0.14289854 0.32053185 0.122051045 -0.4799534 0.005290674 0.14289042
-0.04946328 0.14266129 0.46343863 0.1085549 -0.21453924 -0.07865272 0.18759723 0.037484564
-0.010505237 0.35602468 -0.068682626 0.33605573 0.14634061 0.21517187 0.38059905 0.18928215

first_h.3.bias f4 [32]
00000000: d9eb c23d a311 22bd 3e91 ad3d a10a 2f3e
00000010: 1bb0 c23d 154c a73d 3586 1abe 65ed 753e
00000020: 6330 bcbe cbad 38bd 54ff bebc d0ab 8cbe
00000030: 49b8 61bc 27cc 233c 1c6c 69bd 2fa0 863d
00000040: 7d8a a83d b727 96be f8db 57bd 16d9 98bd
00000050: 35ff 6f3d 7d86 b33d 9189 51be b43b 523d
00000060: e52d 09bb 0f9f 9dbe c494 33bd b4d0 38be
00000070: 99ab a7be 9f47 e6bc ce58 c9bd 57fb e0be
0.095176406 -0.0395676 0.084749684 0.17093898 0.09506246 0.08168808 -0.15090258 0.2401634
-0.36755666 -0.045087617 -0.02331511 -0.27474833 -0.013776847 0.009997404 -0.056987867 0.06573521
0.082295395 -0.29327175 -0.052700013 -0.07463281 0.058592994 0.08765886 -0.20462634 0.05132647
-0.0020931896 -0.30785415 -0.043843046 -0.18048364 -0.32748106 -0.028110323 -0.09831391 -0.43941757

first_h.4.weight f4 [32]
00000000: 2a70 733f 5ed2 883f cadc 263f 41b8 bf3e
00000010: 0f00 6a3f d56d 5c3f 495b 563e 9b39 653f
00000020: b449 733e 4c09 3b3f f47d 323f 6626 333f
00000030: 29f2 0b3f b3cf 6f3f 68fd 743f 2eba 1e3f
00000040: 4101 c23e 488c 753f 9182 573f b288 6d3f
00000050: 80ef 333f 1c0c 283f b6bd 703f ad53 573f
00000060: b02b 363f fb9a 083f cf23 603f a1a8 543f
00000070: 5430 1a3f 962b 383f bfde 6f3f 6123 633f
0.95093024 1.0689199 0.6518065 0.37445262 0.9140634 0.8610509 0.2093326 0.89541024
0.23758584 0.7306106 0.6972344 0.69980466 0.5466638 0.936763 0.9569917 0.6200284
0.37891582 0.9591718 0.84183604 0.92786705 0.70287323 0.6564348 0.94039476 0.84112054
0.7116041 0.5336148 0.8755464 0.8306981 0.6022999 0.71941507 0.9369926 0.8872586

first_h.4.bias f4 [32]
00000000: b546 a6be f23e b7be cb0e 6ebe eec1 07bf
00000010: 877f a5be 91a2 81bf 3a3b edbe 4e94 25bf
00000020: 3343 f3be a3ca 0dbe 03bd 7ebe 90f6 f7bc
00000030: 12c2 b5be ff60 70be f808 debe dabb acbe
00000040: 6908 53be 6ec3 e0be 4e05 a1be b1de 9abe
00000050: b9e2 65be 3a40 3ebe 6377 dfbe 20b5 b9be
00000060: e42b 5abe 0957 8fbe 4bfe d8be dd4e 1fbf
00000070: 8897 3fbf 7dd0 25be 16e2 b6be 3755 06bf
-0.3247582 -0.3579021 -0.2324783 -0.5303029 -0.32323858 -1.0127736 -0.4633425 -0.6467942
-0.47512206 -0.13846831 -0.2487679 -0.030268937 -0.35499626 -0.23474501 -0.43366218 -0.3373707
-0.20608677 -0.438991 -0.3144936 -0.30248025 -0.22449769 -0.18579188 -0.43645772 -0.36271
-0.21305805 -0.2799609 -0.4238151 -0.6222971 -0.74840593 -0.16192813 -0.35719365 -0.5247378

first_h.4.running_mean f4 [32]
00000000: 3438 333e a4fd fd3f aed2 a8be 71ed 353e
00000010: f59e 003d 9b6d f43f d415 01c0 540b e33f
00000020: 2a0a b43f 35ab 13c0 b2ec 15bf d613 db3f
00000030: 3039 10c0 57d7 84bf 5a0c 583e 7f14 04c0
00000040: 7574 073f cb41 ee3e 38ea d6be e6c0 9bbe
00000050: 294c 8dbe eb93 b9be 0382 bd3e ee63 9a3e
00000060: 37e8 17bf 1fd9 0ec0 c724 f53e cca3 a23f
00000070: f607 0240 563f dabe 16f5 413e b6bf 2540
0.17501909 1.984303 -0.32973236 0.17766358 0.031401593 1.9095949 -2.0169573 1.7737832
1.4065602 -2.3073246 -0.58564293 1.7115428 -2.2534904 -1.0378217 0.21098462 -2.063751
0.52912074 0.4653457 -0.4197557 -0.30420607 -0.27597168 -0.36245665 0.37013254 0.30154365
-0.59338707 -2.232002 0.4787962 1.2706237 2.031736 -0.42626446 0.18941149 2.589826

first_h.4.running_var f4 [32]
00000000: cdb8 2641 3e8f 8241 2ed7 3140 c71d 0740
00000010: 56c3 b740 9967 af3f 4059 2740 7bdc 723f
00000020: 2c9a 9340 2992 0641 07f8 c940 6025 dc3e
00000030: 4442 ff3f 9db4 1941 ca3d ee40 06c9 2b40
00000040: 9bfe 353f 9f15 a041 6546 c63f 9fd5 0e40
00000050: 1c11 b13f 31aa b93f 108b 093f aaa9 6840
00000060: 3125 4740 3acd 5240 6dbd 1341 0798 a23f
00000070: ed02 813f 493c a13f ff51 5c40 7112 b240
10.420117 16.319942 2.7787585 2.1111925 5.7425947 1.370349 2.6148224 0.94867676
4.61257 8.410684 6.311527 0.42997265 1.9942098 9.606595 7.4450426 2.6841445
0.7109162 20.010557 1.5490233 2.2317884 1.3833346 1.4505063 0.5372782 3.6353555
3.111645 3.293776 9.233747 1.2702645 1.0079018 1.2596523 3.4425046 5.564751

nns.0.0.weight f4 [32, 32]
00000000: aaea afbd 6d03 233f 3949 c2bd bde1 0cbe
00000010: 8689 cbbd b37e 293d 0f4f 283e 8c2c ea3d
00000020: efc7 0f3e ee8b 6abe 65c2 3e3d 323b 5f3e
00000030: aab5 273d 94b8 1fbf be99 83bd 045c 9bbe
00000040: 82d2 6c3e 6f84 f73d a348 7c3d 1898 4bbe
00000050: 2e14 223e 2d09 d73d 6dff 293e 1334 aebb
00000060: d21e b6bd b54e 9cbe e01f c7bc 1e3c 1d3e
00000070: f59b d23e d923 0cbe a6a6 90bd 3153 2a3e
00000080: 8f05 d73d 2176 b6bd c833 b63d d8a1 533e
00000090: 4c5d 28bd ed3f b93e d390 b73a ce5d 7d3c
000000a0: 737e dfbd 8383 3fbe 88de 3bbd 0e24 adbe
000000b0: 0323 0abd 8788 19be 6515 95bd 9bf1 45be
000000c0: 5842 613e 18fe 9abd 7798 33bd 3c89 44be
000000d0: 898c de3d 0df4 b0bd be5d 513e 751c e23c
000000e0: d6d2 0b3e dce2 d5bd 271d 393e 9e93 3a3e
000000f0: 13bc 823c 5975 0d3e dd54 243e 2a3b 703e
00000100: 6bf7 9fbd 7f99 80bd 9f79 19bc a716 983d
00000110: 6870 9ebd 5ac2 22bb 94db 35be 8448 57be
00000120: 917a 0d3d 5631 523e baab 163e 1c42 8cbe
00000130: 5ba6 7bbd badc dfbd d2ce 46be 2557 a13e
00000140: 6b0d c3bd 5358 633c 2a44 383d f870 23bd
00000150: b23f 703e 4269 95bc 8bb6 15be a1e2 8abc
00000160: 9734 eb3d f381 13bc 0596 e53d e3d9 ab3d
00000170: d970 16be ebb1 8f3e d9b0 fd3d 73de ddbc
00000180: 1ce6 6dbd 0f5e a9be 5ae5 67be b084 40be
00000190: a7b9 b13c 9efe 12bd 77e8 77be 9f17 523c
000001a0: 1f66 b0be a0cc fcbd 6ef0 d7be ae94 99be
000001b0: b1c8 f0be 1101 e7bd 1174 0fbe e86e b1be
000001c0: 8369 b1bc d1a0 6ebd b578 74be e6d4 05be
000001d0: 03b4 00be a629 c2bc a916 bd3c 6869 94bd
000001e0: d87b cfbd 2b5d f3be 0a15 31be 3144 c3bd
000001f0: eea8 26be a10b 1dbe 26c2 76be 4ec2 6b3d
00000200: f644 47be ada9 b9be 79aa b33d 38ac d3bd
00000210: 9960 91be b8c6 0fbe aea1 8fbe a22d 9dbe
00000220: 4ce6 c0be 3e93 fabd 670e a2bd eea1 00be
00000230: bd9a 41bd 419b 483d 1f95 f83c f7b3 1dbe
00000240: 49a9 eabd eefb 30be 9e19 8f3c 1f04 0ebe
00000250: c6fd ac3d afb3 523e c7a0 64be 8b6e 3fbe
00000260: 94a8 03bc 2b37 0ebe 3ad0 38be c0ea 4ebe
00000270: 2a09 06bf ddcd a43d be6b 7ebe 94e4 95be
00000280: bd02 18be 1021 80be 0ef7 363e 811a e9bd
00000290: 1c86 cc3d a716 c13d 6959 efbd 485d 32be
000002a0: ec29 2cbe 078e 60be dc4e 6f3d 2dca 86be
000002b0: 8b7a 2abe 5b95 c1bd e63c a4bb f48b 463d
000002c0: 1133 87bd 9f52 92bd 674e c1bd 9b3e 42be
000002d0: bae8 5a3e bfdf d2ba c4bb 34be d256 3bbd
000002e0: ecb8 483e 6310 58be ed27 2b3d c1a3 85bd
000002f0: 658e 11bc c91a 05bc 3cdb 68bd cf6e 8ebc
00000300: 01c3 dcbd a7a5 a1be 098b 1a3d 895d 00be
00000310: efde 123d dd72 d03d 1a73 98be 348d 10bd
00000320: 3104 3abe d51a 22be 79d4 9a3b a70e 0cbe
00000330: 531c 23be ddf6 f1bd bc5c 84bc ee96 45be
00000340: 496a 4bbe a9e2 9dbd 4ab3 053e d744 863b
00000350: e6b0 14be 039f 023b 82b8 ee3d 228b 773e
00000360: c6e2 dd3c 37ba 66be 4842 1a3e a4bb 3b3e
00000370: f947 20be c19d 86bd f4cd 2d3e ad55 d6bd
00000380: 5c28 4bbe a5e9 db3d cd47 6f3e 446a a33d
00000390: e6c0 4fbe 2fa3 8bbd f978 fc3b 5d13 a0be
000003a0: d30f 943e dbd6 a83e bd7c a13d c30b 893d
000003b0: 35ae 74be 4268 2e3f 2f9a 26be 44f4 d73e
000003c0: f219 67bd d884 27be 7cca f63d 2674 f4bd
000003d0: e970 1e3e 8a72 6a3e 1fd0 7dbe 2c3b 77be
000003e0: f6cf 7a3e 8101 803e d824 21be bbe2 85be
000003f0: bf5f c1be 424d cfbb f278 44be 6e26 5ebe
-0.085896805 0.636771 -0.09486622 -0.13757987 -0.0993834 0.041380595 0.16436408 0.11434278
0.14041112 -0.22904941 0.046572108 0.21799925 0.040944733 -0.6239102 -0.06425808 -0.3034364
0.23127177 0.120858066 0.06159271 -0.19882238 0.1582801 0.10499797 0.16601343 -0.0053162663
-0.08892597 -0.305288 -0.024307191 0.15354964 0.4113461 -0.1368555 -0.07063036 0.16633298
0.10499107 -0.0890925 0.08896595 0.20667207 -0.0411046 0.36181584 0.0014004953 0.015464259
-0.1091279 -0.18702511 -0.04586652 -0.3381657 -0.033724796 -0.14993487 -0.07279471 -0.19330446
0.21997964 -0.07567996 -0.043846574 -0.19192976 0.10866649 -0.08640299 0.20445916 0.02760146
0.13654646 -0.104436606 0.18077527 0.18220374 0.015958821 0.13814296 0.16047998 0.2346007
-0.07810863 -0.06279277 -0.009367376 0.074261956 -0.077362835 -0.002483508 -0.17759544 -0.21023756
0.034540717 0.20526633 0.14713946 -0.27394187 -0.061437946 -0.10930772 -0.19414833 0.31511799
-0.09524044 0.013876039 0.04498688 -0.039902657 0.23461798 -0.018238667 -0.14620416 -0.016953768
0.1148464 -0.00900315 0.112102546 0.08391168 -0.14691485 0.28065428 0.12387247 -0.027083611
-0.058080778 -0.33079574 -0.22646084 -0.18800616 0.021694971 -0.035887353 -0.24209772 0.0128230145
-0.34452912 -0.123437166 -0.4217562 -0.29996246 -0.47028115 -0.112795 -0.1400912 -0.34654927
-0.021656757 -0.058258835 -0.23874171 -0.13069496 -0.12568669 -0.0237015 0.023082094 -0.07246667
-0.10131043 -0.4753202 -0.17293182 -0.09534491 -0.16275379 -0.15336467 -0.24097499 0.05755835
-0.194599 -0.36262265 0.087727495 -0.103355825 -0.2839401 -0.14040649 -0.2805304 -0.30698878
-0.37675703 -0.122351155 -0.07912903 -0.12561771 -0.04726671 0.048976187 0.030344544 -0.15400682
-0.1145807 -0.17283604 0.01746827 -0.1386876 0.08446841 0.20576356 -0.22326957 -0.18694513
-0.008035798 -0.13888232 -0.18048182 -0.20206738 -0.52357733 0.08047078 -0.24845788 -0.29275954
-0.14844795 -0.25025225 0.17867681 -0.11382008 0.09986517 0.09428149 -0.116869755 -0.17418396
-0.16812867 -0.21929179 0.058424816 -0.26326123 -0.16648309 -0.094523154 -0.0050121425 0.048473313
-0.06601537 -0.07144665 -0.09438782 -0.18969195 0.2137784 -0.001608841 -0.17649752 -0.045737095
0.19601792 -0.21100001 0.041786123 -0.06525374 -0.008884047 -0.008124062 -0.056849703 -0.017386822
-0.107793815 -0.31571695 0.03773025 -0.12535681 0.035857137 0.101781584 -0.29775316 -0.03529091
-0.18165661 -0.15830548 0.0047250357 -0.13677464 -0.15928774 -0.118146636 -0.0161575 -0.19295856
-0.19864763 -0.077092476 0.13056675 0.004097562 -0.14520606 0.0019931204 0.11656286 0.24174169
0.027085673 -0.22531973 0.15064347 0.18333298 -0.15652455 -0.06573058 0.16973096 -0.1046556
-0.19839615 0.107379235 0.23367234 0.07979253 -0.20288429 -0.06818234 0.0077048508 -0.31264773
0.28918323 0.32976422 0.0788512 0.066916965 -0.2389458 0.68127835 -0.16269754 0.42178547
-0.056421228 -0.1635927 0.120503396 -0.11936216 0.1547276 0.22895256 -0.24786423 -0.24143666
0.24493393 0.25001147 -0.15736711 -0.26149544 -0.3776836 -0.0063263485 -0.19186762 -0.21694347

nns.0.0.bias f4 [32]
00000000: 053c f23d b696 ac3d 69d8 6dbd ab13 a8bb
00000010: 9396 4a3d 8dcb 19be a9ec 96bd e20f b1bc
00000020: d4b3 31bd 292e 84bd ac74 db3d cbc2 67bd
00000030: 4957 593e f608 bcbd 4a4f cb3d 8e6a f13c
00000040: 75b8 52bd 050f 89bd fc15 d03d 8e8a 57bc
00000050: e89f fc3e c648 a7be b0bd 8f3e 0000 91bd
00000060: a639 043f 9f81 0dbd ac5e 1dbe f777 ce3c
00000070: 1446 623e 6a8a 83bd 51a5 63bd 34a4 34bc
0.11827854 0.08427183 -0.058067713 -0.0051292977 0.049460005 -0.15019055 -0.07369358 -0.021614019
-0.043384388 -0.06454117 0.10715613 -0.056582253 0.21224703 -0.09181397 0.099272326 0.029469755
-0.051445443 -0.06692318 0.10160443 -0.013155593 0.4934075 -0.3267271 0.28074408 -0.07080078
0.51650465 -0.034547444 -0.15368146 0.025203688 0.22097045 -0.06422885 -0.05557758 -0.011025477

nns.0.1.weight f4 [32]
00000000: 37d0 b93f c7d2 873f eae9 1e3f c342 853f
00000010: 822b 183f 1141 263f 576a 813f fabd ad3f
00000020: e6a4 683f d7a8 873f 28fe 4e3f b49c f73e
00000030: 660b c03e 9aa4 043e b5ba 803f f757 163f
00000040: bc25 613f 102e 2b3f c096 833f d286 8d3f
00000050: b03c 563f cdbe 783f 477f 943f 023e 8b3f
00000060: 1f16 853f b590 603f a335 583f 45a4 403f
00000070: 1c61 723f 2a16 b43f 692a 833f 6b4c 043f
1.4516667 1.0611199 0.62075675 1.0410999 0.5944139 0.64943033 1.0110577 1.3573601
0.90876615 1.0598401 0.8085656 0.48361742 0.37508696 0.12953416 1.0056978 0.58727974
0.87948203 0.6686716 1.028038 1.1056769 0.8368635 0.9716614 1.1601342 1.0878298
1.0397376 0.87720805 0.84456843 0.75250655 0.9467943 1.4069264 1.0247318 0.51679105

nns.0.1.bias f4 [32]
00000000: ec64 82be 0957 2cbd 97c6 183d 1d20 113f
00000010: f00b 7bbe 0a9f 9bbe de86 32be 53a8 6a3d
00000020: 99d9 02be d826 08bf 6eb0 6d3f 3323 b33c
00000030: b121 d4be ae65 8ebe 94a0 aebe e924 b6be
00000040: a4c2 5cbf 7355 e3be f26f e43e f22c 85be
00000050: 3a27 acbe 94f6 9d3b cc00 70be 4b48 78bf
00000060: 6cbe 453e 569f c33d 4a5c d6be 9eec 17be
00000070: 9117 86be 32f0 ff3d 71f1 223f 96e6 14bf
-0.25467622 -0.04207519 0.037298765 0.56689626 -0.24516273 -0.30394775 -0.1743426 0.057289433
-0.1277832 -0.5318427 0.92847335 0.02186737 -0.41431955 -0.2781195 -0.34106886 -0.35575035
-0.862345 -0.4440113 0.44616657 -0.26010853 -0.33623677 0.004820654 -0.23437804 -0.9698531
0.19310921 0.09551875 -0.41867286 -0.14836356 -0.26189855 0.124969855 0.6364966 -0.58164346

nns.0.1.running_mean f4 [32]
00000000: 67a3 9ebd 3694 56be 6a33 7dbe 13ca d7be
00000010: cd74 f5bd 54c0 d6be aed5 9ebe 1f2d bf3e
00000020: 975e 0fbe 8759 35be 71b1 ecbe c0d8 cfbe
00000030: d742 68bd 90e3 d3bb d05c 483d ac2f 8cbe
00000040: 55ba 903e 7be4 73be 34a1 72be 58a2 84be
00000050: 1340 a13e 3925 32bd 2ed4 09bd ee92 613d
00000060: c731 923e 3bb7 5bbe ea4c 7f3b cba4 29be
00000070: 83d8 dd3d 82b8 12bf 2a1d 6fbe 07bf 3abe
-0.0774601 -0.20954975 -0.24726644 -0.42146358 -0.119851686 -0.4194361 -0.310224 0.37339112
-0.14000927 -0.17709933 -0.46229127 -0.40595055 -0.05670437 -0.0064663365 0.048916638 -0.2738012
0.2826716 -0.23817627 -0.23694307 -0.25905108 0.31494197 -0.04349253 -0.033649616 0.055071764
0.28553602 -0.21456616 0.0038955756 -0.1656677 0.10832312 -0.57312787 -0.23350969 -0.18236934

nns.0.1.running_var f4 [32]
00000000: 5817 2241 4322 a540 3f5d 4040 df5b 5841
00000010: 95e6 6b40 5545 9640 d267 a540 0544 a141
00000020: 8649 093e e3d8 a63f b481 ba41 1818 c140
00000030: 2991 6340 f97f ca3f 9e94 e03d a85c b040
00000040: 81f4 0d41 65b6 3f40 4a78 6841 ab23 ba40
00000050: eca7 8c40 4a80 9540 d451 4741 721f 1440
00000060: ee13 f940 5c63 cc3f 1993 4140 8774 7b40
00000070: af75 f93f cf70 c841 559c 3f40 ab1c 0240
10.130699 5.1604323 3.0056913 13.522429 3.6859486 4.6959634 5.1689234 20.158213
0.13406953 1.3034939 23.313332 6.034191 3.5557349 1.5820304 0.109658465 5.5113106
8.872193 2.9955075 14.529367 5.816854 4.3954983 4.6719103 12.457478 2.3144193
7.783683 1.5967822 3.0246031 3.9289873 1.9489039 25.055082 2.9939167 2.0329998

nns.0.3.weight f4 [32, 32]
00000000: d757 0cbf c698 90be 0053 60be 2217 f3bd
00000010: 984c aa3d aaf8 f8bc 4ecc d3bd 1dd8 62be
00000020: 5de2 20bd f2fb 72be 04cf a43e 08b3 e93c
00000030: 496f 783e 7ec6 59bb 8678 58bd f425 c93d
00000040: 8a42 1d3e 1ad3 ed3d 7025 363b 058f 3dbe
00000050: 2b5b 51bc 9bc7 c0bc 8267 05be d530 90bd
00000060: 2d28 0dbe cb0e 193e b351 d93d 9091 3f3e
00000070: 62a3 77bd f6e7 a73d 5110 063d 9860 493d
00000080: 4ccb f6be c454 abbd 51b9 1a3c e8a5 da3d
00000090: 8226 babd 720b 09be 5596 663e c1b4 65be
000000a0: 87b2 f0bb 38fa cb3d 0719 b93e bdf4 453d
000000b0: 32c2 f2bd e0fc 61be 8dfe 2e3e d392 9cbe
000000c0: 0f68 4a3d 029e 173e 18ef 8b3d add7 1d3e
000000d0: 81aa 303e 1893 85be bdeb 18be 0ab9 5fbe
000000e0: 3739 293e 2fba 4f3e 63af 573d 3d3d f93c
000000f0: d28a e0bd 2396 8a3e a175 94bd e8b7 6cbd
00000100: ef24 0b3f 71ac 183e 3b5d 8a3e 61de c23e
00000110: c04e b4bb dcf5 60be d245 353e e4f9 3a3d
00000120: 149c ae3d be77 bf3e ac33 62bd 4c2f 87be
00000130: 980d 0abe 412b c53d 474a e03d c0c6 603e
00000140: ef9d e33e 38da 83be 2bb3 9c3e f9fb 573e
00000150: 8703 cfbd 716e 7abd 59e0 8f3e 997a 0d3f
00000160: ae78 943e ab9a 6abe a6ba 3c3e 593f 813d
00000170: 15e5 e9ba 1885 8e3e 718e bc3e 184a 8a3e
00000180: bc8a eabe 33fb b43d bcaf 66be d486 3bbc
00000190: c623 e4bd 95fe b83c 9b1d c73d 3c1a b33e
000001a0: 6bf8 f13c 94cf da3e 4cc9 de3e 5922 33be
000001b0: c803 2fbd e1f3 b93d 5d5c 223e 7b35 3c3e
000001c0: 90d5 3e3e a92a 05be ccc2 363e 7cd4 083d
000001d0: 11dd b43c 6b3a 623d b046 b2bd 2e9f 133e
000001e0: 25e4 083e 9b4f d2bc c0e8 2b3e 1f26 5ebd
000001f0: 74af dfbd 36b6 e63e 4e51 943e 05ff 68bb
00000200: 47be 94be 9bdf f8bd d7e5 fa3b 747b 2e3e
00000210: 3270 50be 8b73 8d3c 407e 49be ef3c 1dbc
00000220: f04e 8b3d 98f7 7dbd 6ec7 8e3e cadd 9abd
00000230: d3df 593e 7ff9 81bb bdc2 72bd 1d3e 08be
00000240: 1a6e 3cbd 6e1e 2e3d b372 0ebd 7428 4dbe
00000250: 4302 a5bb 1a9d 27be 4789 8dbe 31bf 25be
00000260: a1df 3abe 2c7c 013e 7e96 7dbd 5678 ed3d
00000270: 955c 2dbe cdf3 6dbb 085f 263e 68c9 d9bc
00000280: e623 04bf 2688 2ebe 7eff 9f3c ea69 9ebc
00000290: e927 863e ba80 37bc 45d7 d2bd c807 f8bd
000002a0: 8234 6e3d 6a0d b0be 8fd1 533e e8a5 a73d
000002b0: c21f 7abb 8d56 68be 300e 5bbd c506 023c
000002c0: 9ea1 8dbd e362 ee3c eadc dcbd ce39 e63c
000002d0: 71ed 2bbd db76 91be 68c4 88bd 5ced 79be
000002e0: f8b9 90bc cc5b 223e 9334 e13d b054 503e
000002f0: ee1d f7bd 4537 6b3e 688d 103e d582 893c
00000300: 6eba e2bd acdc 833d d270 6d3d cc2f ff3d
00000310: 84cd 22be 352f 3f3d aafe 143e 60d5 09bf
00000320: c9d0 b23d 8234 e13a 4dff fc3e 1a8f 26bc
00000330: 4542 9ebd 5169 94be 475f a03d a33a 5ebe
00000340: e337 8dbd 89aa 2abe 7f8d 0c3e 819f 73bd
00000350: 6a0c e6bd 9d91 27be 22f8 a23e 431a 933d
00000360: 2a52 603e 8e62 6abd a39b 7abe 6fc5 353d
00000370: b955 933d ab4e 413f 2b80 383f 3f0f 9cbd
00000380: 976f 5dbe 6ca2 963d 7b8f 3dbe e47f a43e
00000390: eebb 3fbe 71c0 783b c1b8 7dbe 2c74 613d
000003a0: 6a37 14be 969d d0bd 4f92 933b e10a 30be
000003b0: ccb5 0cbe c326 a5be e996 d5bd a30e febe
000003c0: bbde afbd f169 93bd 2688 eabd 9110 53be
000003d0: fbef a43d f07e a3be 50f7 6abe 6c79 06be
000003e0: 14c3 00be 8088 7d3c 5fac 333e 9c1c 4c3e
000003f0: cce3 003d de2b 08be afa6 9e3e d6ed 7abe
-0.5482153 -0.28241557 -0.21906662 -0.118696466 0.0831539 -0.03039201 -0.103417024 -0.22152753
-0.039278377 -0.23728922 0.3218919 0.028527752 0.24261202 -0.0033229883 -0.052849315 0.09821692
0.15357414 0.1161253 0.002779331 -0.18511589 -0.012778084 -0.02353268 -0.13027766 -0.07040564
-0.13784857 0.1494705 0.10611286 0.18707871 -0.06045855 0.0819854 0.032730404 0.049164385
-0.48201978 -0.08365777 0.009443597 0.10676175 -0.09089376 -0.13383272 0.22518285 -0.22432233
-0.007345501 0.09959835 0.36151907 0.048329104 -0.11853446 -0.2206912 0.17089291 -0.30580768
0.049415644 0.14806369 0.06832713 0.15414305 0.17252542 -0.26088786 -0.14933677 -0.2184793
0.16525732 0.20285867 0.052657496 0.030424709 -0.10963978 0.2706767 -0.072489984 -0.057792574
0.5435323 0.14909531 0.27024254 0.38060287 -0.005502552 -0.21968788 0.17702416 0.04564847
0.08525863 0.37396044 -0.05522506 -0.26403272 -0.13481748 0.09627391 0.10951667 0.21950817
0.4445643 -0.25752425 0.30605444 0.21092214 -0.10108095 -0.06114048 0.2810085 0.55265194
0.2899832 -0.22910564 0.18430576 0.06310911 -0.0017844761 0.27835917 0.36827424 0.27009654
-0.4580897 0.08836975 -0.22527975 -0.01144572 -0.11139636 0.022582332 0.09722444 0.34980953
0.0295374 0.42736495 0.43512952 -0.17493571 -0.042728215 0.09079719 0.15855546 0.18379776
0.18636155 -0.13004555 0.17847747 0.033405766 0.022078069 0.055231493 -0.08704889 0.14416191
0.1336828 -0.025672724 0.16788006 -0.054235574 -0.10922137 0.4506089 0.2896828 -0.0035552394
-0.2905142 -0.12152024 0.0076567936 0.17039281 -0.20355299 0.01726701 -0.19677067 -0.009597047
0.068021655 -0.062003702 0.27886528 -0.07561834 0.21276788 -0.00396651 -0.05926775 -0.13304944
-0.04600344 0.04250949 -0.034777354 -0.20034963 -0.00503567 -0.16368523 -0.27643797 -0.16186215
-0.1824937 0.12645024 -0.0619111 0.11595218 -0.16929848 -0.0036308647 0.16247189 -0.026585296
-0.51617277 -0.17044124 0.019531008 -0.019337613 0.26202324 -0.011200124 -0.10294966 -0.12110859
0.058155544 -0.34385234 0.20685409 0.08185941 -0.0038165902 -0.22689267 -0.053480327 0.007936184
-0.06915592 0.029099887 -0.107843235 0.028103735 -0.04197449 -0.28410992 -0.066780865 -0.24406952
-0.017666802 0.1585533 0.10996356 0.20344806 -0.120662555 0.22970302 0.14116442 0.016786018
-0.11070715 0.06438574 0.057968922 0.124602884 -0.1589871 0.04667588 0.14550272 -0.5384121
0.08731229 0.0017181786 0.4941353 -0.010165954 -0.07727484 -0.289866 0.07830673 -0.21702056
-0.06895425 -0.16666616 0.13725851 -0.059478287 -0.112328365 -0.16364141 0.31829935 0.071827434
0.21906343 -0.057222895 -0.24473433 0.04437774 0.07194085 0.7551066 0.7207057 -0.076200955
-0.216246 0.07355198 -0.18511765 0.32128823 -0.18724033 0.00379565 -0.2477751 0.05504243
-0.14474264 -0.10186307 0.0045035253 -0.1719165 -0.13741225 -0.32256135 -0.104291745 -0.49620542
-0.08587404 -0.07197941 -0.114517495 -0.20611788 0.08053585 -0.31932783 -0.22945905 -0.13132256
-0.12574416 0.015474439 0.17546223 0.19932789 0.031467244 -0.13297984 0.30986544 -0.2450479

nns.0.3.bias f4 [32]
00000000: c780 d63b 1593 55bd 68f0 80be dac3 943c
00000010: 17bb 1a3e cbf2 6a3d 9303 323d c2c4 a03e
00000020: 309d 6a3e 0595 933d 1839 3abe b4d8 f3bd
00000030: 316b 733e 41a6 05bd cb8e 62bd 06de 1abe
00000040: c509 3d3e e1f0 363d 937d 3ebe 4c19 40be
00000050: 0477 cdbc b75e a2be 321d e73e 8752 34be
00000060: a6f5 003a c635 babd 6714 c83d 5813 b6be
00000070: 7910 cfbe 05db dabe ee06 82be 3bd1 303e
0.006546113 -0.05214222 -0.25183415 0.018159796 0.15110432 0.05736045 0.04346044 0.31400114
0.22911525 0.072061576 -0.18185842 -0.11906567 0.23771359 -0.032629255 -0.05531196 -0.15123758
0.18460758 0.044663314 -0.1860259 -0.1875965 -0.025081165 -0.31712887 0.45139462 -0.17609607
0.0004919417 -0.09092288 0.097695164 -0.35561633 -0.40442255 -0.42745224 -0.25395912 0.17267315

nns.0.4.weight f4 [32]
00000000: da44 4d3f 9746 293f 31e1 f93e 8630 dd3e
00000010: f148 173f 21b6 1a3f e6a4 533f f486 333f
00000020: 7610 133f 2118 113f 2137 463f ac24 253f
00000030: edd3 443f 4a2e 233f 7d64 323f f3b1 683f
00000040: cefa 523f 0bfa 4a3f 031f 843e 0543 523f
00000050: 5b16 4f3f 27c2 463e cbce 6e3f 4f1f 4d3f
00000060: db21 193f ba85 0a3f 8ed5 623f 9649 193f
00000070: 6156 e43e f3bb fcbd 942e 303f 6e26 3d3f
0.80183184 0.66123337 0.4880462 0.43201083 0.59095675 0.60434157 0.8267349 0.701278
0.5744699 0.5667744 0.7742787 0.6450908 0.76885873 0.63742507 0.6968458 0.9089653
0.8241395 0.79287785 0.2580491 0.82133514 0.80893487 0.1941 0.9328429 0.801259
0.59817284 0.541103 0.8860711 0.5987791 0.44597152 -0.12340536 0.6882107 0.73886764

nns.0.4.bias f4 [32]
00000000: 954a b0be 09d8 bbbe 7ae3 d3be 7ad8 10bf
00000010: 5ac2 5abe 5660 88be 8828 4fbf 9396 a3be
00000020: 49b6 b2be 2c2e e7be aaad bfbe 90d9 0cbe
00000030: ebb8 87be 5c20 49be 79b5 93be 83d0 fbbe
00000040: ff51 8cbe e5ad 98be f664 cabd 4a6d cebe
00000050: ccd3 e1be 4e40 f5be 169f 16be 530b c8be
00000060: cfd8 49be ab5a f9be bc74 02bf def6 8cbe
00000070: 8239 6cbf 0c69 07bf e2fb e9bd 2d83 a4be
-0.34431902 -0.3668826 -0.41384488 -0.5658032 -0.21363202 -0.26635998 -0.8092122 -0.31950817
-0.34904698 -0.45152414 -0.37437183 -0.13754869 -0.2650827 -0.1964125 -0.2884939 -0.4918252
-0.27406308 -0.2982017 -0.09882538 -0.40317756 -0.441069 -0.47900623 -0.14709124 -0.3907114
-0.19711612 -0.48701987 -0.5095937 -0.27532095 -0.9227525 -0.52894664 -0.11424996 -0.3213133

nns.0.4.running_mean f4 [32]
00000000: 5a86 543e c10f da3e 68a0 053f 6721 663f
00000010: d74d 0d3f 7b29 9a3e ac51 a83f 21ae 073f
00000020: bb38 ae3e 9651 923f dfb5 dc3e aa33 29be
00000030: cc1b 9f3e 30f7 ef3d 649d cdbd 1c49 803f
00000040: fc2f ae3e eee9 cb3f a7a8 9f3e 14f3 2b3f
00000050: ad32 ed3e 72f2 443f db82 c33e dbdc 113d
00000060: 7a1f 0cbe 0e74 723f 5dea c43e f7e1 5e3e
00000070: 0872 6e3e 74f5 3a3f 3e58 273e 8879 073f
0.20754376 0.42590144 0.52197886 0.8989472 0.551969 0.30109772 1.3149924 0.53000075
0.34027657 1.1431148 0.43107507 -0.16523615 0.31075895 0.11717069 -0.100397855 1.0022311
0.34020984 1.5930765 0.3118336 0.6716778 0.46327725 0.7693244 0.38185772 0.035611015
-0.13683882 0.94708335 0.38460055 0.21765886 0.23285687 0.7303078 0.16342255 0.52919817

nns.0.4.running_var f4 [32]
00000000: de4b 683d 3f31 143f 37ce 8c3f fe6d 533f
00000010: 03c8 633e 70da fe3e fb60 bc3f 5ecd f13d
00000020: 4d10 4f3e 96ee 6b3e 7d14 d43d b1ff 523f
00000030: 73ff b03e c303 843e d68b ff3e 6b7a 133f
00000040: 75b5 303f cc78 1f40 5b48 2f3e da38 dd3e
00000050: e767 aa3e df35 953d b479 913e 14f4 143f
00000060: ab6b 943f 5b71 d83e 7585 233f aef8 593f
00000070: 0772 eb3e 7e73 f33d b76a 913f 8bb9 d23f
0.056712978 0.57887644 1.1000432 0.8258971 0.22244267 0.4977603 1.4717096 0.11806749
0.20221062 0.23040232 0.1035547 0.82421404 0.34569892 0.2578412 0.49911374 0.5760867
0.6902688 2.4917479 0.17117445 0.43207437 0.33282396 0.07285666 0.28413165 0.58184934
1.1595358 0.42273983 0.63875514 0.8514508 0.45985433 0.11887263 1.1360692 1.6462873

nns.1.0.weight f4 [32, 32]
00000000: c6e3 403e 48fb 263d a9d2 053f e2f9 1e3e
00000010: 0a8b 663d bc9d 68be b538 c23e 13bd 193d
00000020: fae0 dcbd f682 513e d7bf 983e f77b db3d
00000030: 09e7 a4bd f2f4 09be d74f bfbd ed73 2c3f
00000040: 12a4 373d 41da e83e 086a 9e3d e0aa 47bd
00000050: 82e6 c63d 08a2 933e f393 9dbd 0936 fc3d
00000060: 9353 22be 802c 1f3e 3d76 083e cd82 313e
00000070: 9267 603e 066b 74be f6bb 8bbe 8c5f b63d
00000080: 8f88 b93d 31ce 213e ab7a 47bd 440c 853e
00000090: 05fc 09bd 24e7 fc3d 5a8b d83d 4081 d73c
000000a0: c3b5 66bd 847c 973c 1ceb 383d e602 753e
000000b0: 69b3 8ebd 0b2f 64be 28d6 e5bd d7c8 673e
000000c0: 24bf 153e b360 873e da01 ba3d bfa0 92bc
000000d0: 3945 983d 951e 66bd 5c46 903c 8d77 a6bd
000000e0: 5c25 b73d 8b00 63bd 34b0 cdbd 37d0 953b
000000f0: 8e45 153b 711b 61bd 9f1e 3f3e 2eea 9e3e
00000100: 7dbf 43bd d2ab 063e fd09 e53e 06e6 7a3e
00000110: 52ee 76be 9e54 5cbe 7713 f13d aeef 81be
00000120: 159f 04be 398d e9bc 1189 423e fdc7 ac3c
00000130: 047e 58bd 7285 d5bd c5d7 d33d 3ea2 023f
00000140: b7fb 49bd d51c 383e 892e 593d 1477 52bb
00000150: 9e0d 703e 94ff 503e 4d24 0cbe df7c 1abe
00000160: f2c1 933c 739d 45bd 8036 97bd d981 0e3e
00000170: 2d36 8d3e 4af8 2b3e 3469 0fbe ecbf 90bd
00000180: 8b84 b6bd cecd 2d3e 1f3c 78bd 3282 55bd
00000190: c324 dbbd 3d80 d4bd 0ef9 873e e5e0 c2bd
000001a0: 17dc abbd 62ed 683d d573 5b3e 17ac 8d3d
000001b0: 16bc 2abe 1665 4a3e 11ce cebd ebab 113e
000001c0: 978a 7dbe ac93 2c3e c217 59bb d17b e8bd
000001d0: 7c52 063e 67f0 ba3d 6dd0 26bc 5ffe 923d
000001e0: e8bd 98bd a453 c63c 4de8 833d 209f f5bc
000001f0: eff2 f7bd 4a52 603e a990 2fbe 7c40 30be
00000200: 0f41 433d 9afa 473d f0ae 13bc 2bc9 903e
00000210: 9a33 163d 4c29 edbc f175 c83e 5176 19bd
00000220: d200 18be b6b8 bd3d fc97 893e 81fe 1fbe
00000230: 4aad 993d a058 d7bc 828e 563d 46ea c23d
00000240: 4a3a d9bd ea96 cb3e 706d f03d 1d7c 6e3e
00000250: 5ced e93d 201e 07bc 732b c23d 5c11 ec3d
00000260: 6f33 52bd 9d8e 823e c75b 3f3e f60d e7bd
00000270: 481e 903d 9620 3d3d f05f c9be cf2e d7be
00000280: 680e 0bbe afe9 c23d 1adb d53e 3391 223e
00000290: 318f b83d b918 46bd 342b 393e 17d1 8bbe
000002a0: 7962 ee3d b7fa dc3c 2ae0 313e 3741 25be
000002b0: 91eb afbd bd36 9ebc e83f 08bd 018b 81be
000002c0: a963 cbbd 01ec ae3c c70d c23d 930b 513d
000002d0: 98e9 0e3d 3e71 da3d 8ca3 f63d 4092 953d
000002e0: 8074 58bc 186e d33d 8e2b 263e 05e2 9f3e
000002f0: 3516 3fbd 6ad9 c03e 11a1 173d 2a4d 053d
00000300: 9059 2a3e 011b 12be 2c17 2abf 23ba 62be
00000310: fc9a c4bc b13c c0bd 84fd b1be 1d7c 1d3e
00000320: 19af 583e 792b 36be 530a 5cbd eee8 0a3e
00000330: f981 093e 4a44 1bbe 366f 073e affa a6be
00000340: b357 653d a545 82be d3d9 76bd 3ff3 3bbd
00000350: e61d 39be f158 8dbe b62a ce3e 815e bc3e
00000360: bf2c d13e 01ee 5bbe 072c d33d d149 6abf
00000370: e8df e139 4a53 2c3b 80eb 383f 8ca0 26be
00000380: f265 433c fa7b 54be c631 6ebd e3b0 5abe
00000390: 0e4c 833d bd22 cdbd 3a2a 733c f86e 3fbc
000003a0: 6a38 883d c1f1 87be d56c db3d b2b7 a63e
000003b0: e4d3 debc eb12 0abe ab74 353e 7ee7 60be
000003c0: ad4f 503d cb77 66be 35f5 203e 2a7e 9a3d
000003d0: b41b f9bd 895b 3ebd 6b40 7ebe 279b 153c
000003e0: 11d2 a03e 6127 10be 5626 f9bc 349b 013d
000003f0: c572 ad3d 44f4 b8bc 18be 9abd 283c 07be
0.18836889 0.040766984 0.52274567 0.1552501 0.05628494 -0.22716421 0.3793389 0.03753383
-0.107850984 0.20460114 0.29833862 0.10717004 -0.08051879 -0.13472345 -0.093414 0.6736439
0.044834204 0.45479015 0.077350676 -0.048746943 0.097119346 0.28834558 -0.07694235 0.12314994
-0.15852194 0.15544319 0.13326354 0.17335053 0.21914509 -0.23868951 -0.2729184 0.08904943
0.090592496 0.15801312 -0.04870097 0.2598592 -0.03368761 0.12348774 0.10573454 0.026306748
-0.056325685 0.01849199 0.045146093 0.23926887 -0.069678135 -0.2228357 -0.11222488 0.22635208
0.14623696 0.26440963 0.090823844 -0.017898915 0.07435078 -0.05618151 0.017611675 -0.08128271
0.089426726 -0.05542044 -0.10043374 0.0045719403 0.0022777054 -0.05495781 0.18664025 0.3103804
-0.04779004 0.13151482 0.44734183 0.2450181 -0.2411435 -0.21516654 0.11771291 -0.25378174
-0.1295131 -0.028509723 0.18997599 0.021091456 -0.052854553 -0.10425843 0.10343889 0.5102881
-0.04931232 0.17979749 0.053022895 -0.0032114433 0.23442695 0.20409995 -0.13685723 -0.15086697
0.018036816 -0.04824586 -0.07383442 0.1391672 0.27580395 0.16793934 -0.14004976 -0.07067856
-0.08911999 0.1697304 -0.06060421 -0.052126117 -0.10700371 -0.10376022 0.265572 -0.095155515
-0.08391588 0.05686701 0.21430905 0.06917589 -0.16673312 0.19765124 -0.10097898 0.14225738
-0.24759899 0.16853207 -0.0033125733 -0.11351741 0.13117403 0.09127884 -0.0101815285 0.07177424
-0.07458097 0.024209805 0.06440792 -0.029983103 -0.12106883 0.21906391 -0.17145027 -0.17212099
0.047669467 0.048822977 -0.009013876 0.2827848 0.036670305 -0.028950356 0.39152482 -0.03746635
-0.14844063 0.092637464 0.26873767 -0.1562443 0.075037554 -0.026287377 0.052382 0.0951734
-0.10606821 0.39763576 0.117396235 0.23289533 0.11422226 -0.008246928 0.094809435 0.115267485
-0.051318582 0.2549943 0.18687354 -0.1128196 0.07037026 0.046173654 -0.39331007 -0.420279
-0.13579714 0.09517228 0.41768724 0.15875702 0.090116866 -0.04836342 0.18082887 -0.2730796
0.11639876 0.026975019 0.17370668 -0.16138159 -0.085898526 -0.01931321 -0.03326407 -0.25301364
-0.09931118 0.02135277 0.09475284 0.05103643 0.03489074 0.106661305 0.12042913 0.073032856
-0.0132113695 0.10323733 0.16227552 0.31227127 -0.046652038 0.37665874 0.03701884 0.032544293
0.16635728 -0.14268114 -0.6644161 -0.22141318 -0.023999684 -0.09386576 -0.3476373 0.15379377
0.21160544 -0.17790021 -0.053720783 0.13565418 0.13428487 -0.15162769 0.13226017 -0.3261313
0.05599184 -0.2544376 -0.060266327 -0.045886274 -0.18077812 -0.2760692 0.4026696 0.3679085
0.4085445 -0.2147751 0.10311132 -0.91518885 0.00043082167 0.0026294761 0.72234344 -0.16272181
0.011926161 -0.20750418 -0.058152936 -0.2135654 0.06410991 -0.100163914 0.014841611 -0.011684172
0.06651385 -0.2655163 0.107141174 0.32562023 -0.027200647 -0.13483779 0.17720287 -0.21963307
0.050857235 -0.22506635 0.15718539 0.07543595 -0.12163487 -0.046474013 -0.24829261 0.0091312295
0.31410268 -0.14077522 -0.030413788 0.031642154 0.08469156 -0.022577412 -0.07555789 -0.13206542

nns.1.0.bias f4 [32]
00000000: 7e6f 52bd fa52 06be 070a 37be 66cd eebd
00000010: a69e 74bd fa8e 033e 3279 5dbd 4c29 6bbb
00000020: 96a8 2ebe c216 303e ff6f 8dbe c38c 903d
00000030: bbf9 a03d 22b6 0dbd 7cb0 20bb eb7f fbbd
00000040: 313b f5bd 68bb 1b3e 7e0b c8bd 60be 253d
00000050: 8445 15bd 157b 08bd 4c47 943d d317 163e
00000060: 7d8d 02be e575 3fbc a31b 3abe cce8 e7bd
00000070: c35c c5bd dc7e a9bd b54d 99bd dd0d 4a3d
-0.05137586 -0.1311759 -0.17874919 -0.116602704 -0.05972161 0.1284751 -0.05407066 -0.003588277
-0.17056498 0.17196181 -0.2762451 0.07058098 0.07860132 -0.034597524 -0.0024519255 -0.12280258
-0.119741805 0.15208209 -0.09767817 0.04046476 -0.03644325 -0.033320505 0.07240161 0.14657526
-0.12749286 -0.011685823 -0.18174605 -0.11323699 -0.096368335 -0.0827615 -0.074855246 0.049329627

nns.1.1.weight f4 [32]
00000000: 10e1 043f 6cb5 963f e7f9 793f 3862 4b3f
00000010: ca18 333f b81d 843f bd10 3c3f f650 6b3f
00000020: 038a a33f 2b16 7e3f d542 a93f b49b 6e3f
00000030: 3e5a b63f 35ef 833f 0c56 7a3f d49a 7f3f
00000040: 191b 673f 5da7 8b3f 04db 853f 3bb9 623f
00000050: 40e5 633f 9ae7 563f ac93 753f d2b1 983f
00000060: f83d 173f da59 713f 0349 953f eaaf 473f
00000070: 021f 8a3f 59e6 7b3f 1f2f 683f 4059 5a3f
0.5190592 1.1774116 0.97646946 0.79446745 0.699597 1.032157 0.7346304 0.9192041
1.2776493 0.99252576 1.322352 0.93206334 1.424629 1.0307375 0.9778755 0.99845624
0.9027572 1.091045 1.0457463 0.8856389 0.8902168 0.83947146 0.95928454 1.1929266
0.5907893 0.9427773 1.1662906 0.780028 1.0790713 0.9839836 0.906969 0.85292435

nns.1.1.bias f4 [32]
00000000: f5a6 36bf 441c d2be 1f21 0abf b100 8bbe
00000010: 0735 c3be dad9 e63d fbc1 d13e 833f a73c
00000020: 7493 01bf e2e2 c73e 80b3 61be 1128 773e
00000030: 2227 00bd ffc3 c3be c792 53be a593 f2be
00000040: 9f69 06bf 20df 9bbe a06a 0fbf 7ffc 70bf
00000050: 5a44 f93e ced6 26bf c604 63bd 7756 7dbf
00000060: 4074 8f3e 7c87 863e a151 6fbf c50c 68be
00000070: 185d 0c3d cfa7 b03c d1c4 5fbd 65a9 00bd
-0.71348506 -0.4103719 -0.5395679 -0.27148965 -0.38126394 0.11272021 0.40968308 0.020416027
-0.5061562 0.39040285 -0.2204113 0.24136378 -0.03128732 -0.3823547 -0.2066146 -0.4737827
-0.52504915 -0.30443668 -0.5602207 -0.9413528 0.4868496 -0.65171516 -0.055424474 -0.9896006
0.2801838 0.2627524 -0.9348393 -0.22661121 0.03426847 0.021564392 -0.054631058 -0.031411547

nns.1.1.running_mean f4 [32]
00000000: a1d7 3d3e bd1d f03c d31f 8abc 9860 5fbe
00000010: c50f 4dbe 66d6 bf3e 1a5c 14bf a6b4 d9bd
00000020: 6c5f 8a3d cb9b 2a3d 77a4 b9bd eec2 75bd
00000030: 751f 7ebe 0658 20be 2627 debd 1ade 143d
00000040: 9d93 8f3e 24b3 cf3e ede1 85be 9eb4 273e
00000050: a2b5 ddbe 7004 c8bd 8091 043e e6d8 b33e
00000060: 2809 19bf 97b0 e6bd 1216 6bbe 2903 9ebe
00000070: 97a1 aa3c 4c05 3dbe b362 3e3c 6b93 913e
0.18539287 0.029311055 -0.016860878 -0.21814191 -0.20025547 0.3746826 -0.57953036 -0.10630159
0.067564815 0.041652482 -0.09064572 -0.060000353 -0.24816687 -0.15658578 -0.10847311 0.036344625
0.28042307 0.4056636 -0.2614893 0.16377494 -0.43302637 -0.097664714 0.12946129 0.35126418
-0.59779596 -0.112641506 -0.22957638 -0.30861786 0.020829005 -0.18459052 0.011620211 0.28432783

nns.1.1.running_var f4 [32]
00000000: e14b eb40 7b6c 5b40 aa0e 6540 64ce a63f
00000010: b290 1440 a7ec ef40 4e85 1942 0f8d a03f
00000020: 8afc f640 f85f fd3f a98d 8940 150e 0240
00000030: 5e7b 7441 ff94 0f40 286f 853f 9314 5740
00000040: f542 a441 7650 0041 3cbf 4040 b9ef 1440
00000050: 4e47 9b41 231c f43e 3ec3 e93e e8f8 ac40
00000060: 68ae da41 6b08 953f b562 453e 2677 9240
00000070: 4ac0 c63f 8fbf 893f 41cb 9f3f 68ec d540
7.3530126 3.4284961 3.57902 1.3031735 2.3213315 7.497638 38.38018 1.2543048
7.7183275 1.9794912 4.2985425 2.0321095 15.280119 2.243469 1.0424547 3.3606308
20.532694 8.019644 3.011672 2.3271315 19.409817 0.47677717 0.4565677 5.405384
27.33516 1.1643194 0.19275935 4.5770445 1.5527432 1.0761584 1.2483903 6.685108
