result/experiment_07.08.2022_12.47.40/0/fold_0_state_dict.pt (torch, 26754 bytes, 40 tensors)

first_h.0.weight f4 [32, 3]
-0.240659 0.122456536 0.68246365 -0.44706228 0.018527094 0.14493687 0.040030405 -0.47160542
0.040137403 0.5606156 -0.2960458 0.23630096 -0.30491063 -0.03663215 0.30511564 -0.053456545
-0.43455014 0.3069495 0.33132005 0.3544583 0.41585305 0.36015713 0.32175526 -0.005676409
0.20031998 -0.5863678 -0.15365162 -0.0094904415 -0.035132688 0.3887776 0.5130651 -0.23612288
-0.17875269 -0.23781829 0.5877395 -0.3578137 0.5967472 -0.34950384 -0.08453119 -0.15203167
-0.27786428 0.34359777 0.017263332 -0.48054832 -0.43280604 0.09567183 0.13875273 -0.28508824
0.21570945 -0.3672119 0.022734903 0.3946833 0.10292096 -0.083669975 0.05404047 0.105526805
-0.35677445 0.05426578 0.46268678 0.039529637 0.43408808 -0.45205715 -0.4817425 -0.29331997
0.28374833 0.32089674 -0.29875788 0.28943777 -0.035402793 0.11180036 0.6204794 -0.57859117
-0.017884132 0.6497481 0.35370186 -0.37638274 -0.057816893 -0.12263199 0.49286613 0.5428279
-0.25112617 -0.7844955 0.106148675 -0.04432421 0.5464671 0.55993867 0.27467886 -0.06066702
-0.6371594 -0.014304073 -0.2734992 0.05020306 -0.22426784 -0.116453014 0.2813993 0.5182922
00000000: 506f 76be 7eca fa3d f0b5 2e3f 59e5 e4be
00000010: 22c6 973c 556a 143e ecf6 233d 4476 f1be
00000020: 1e67 243d 8184 0f3f 5193 97be e1f8 713e
00000030: 3f1d 9cbe 980b 16bd 1e38 9c3e 40f5 5abd
00000040: 5b7d debe 7c28 9d3e c8a2 a93e 8f7b b53e
00000050: b1ea d43e 8466 b83e 1bbd a43e 2c01 babb
00000060: ae20 4d3e 331c 16bf da56 1dbe cc7d 1bbc
00000070: 4be7 0fbd dc0d c73e 3c58 033f 32ca 71be
00000080: f20a 37be a386 73be 1976 163f 5b33 b7be
00000090: 6dc4 183f 2bf2 b2be b01e adbd 31ae 1bbe
000000a0: 3a44 8ebe 0cec af3e d56b 8d3c 6e0a f6be
000000b0: c198 ddbe 98ef c33d 3215 0e3e 16f7 91be
000000c0: f0e2 5c3e 3303 bcbe 8c3e ba3c ee13 ca3e
000000d0: 39c8 d23d 2a5b abbd 8a59 5d3d 701e d83d
000000e0: 24ab b6be cb45 5e3d 48e5 ec3e d4e9 213d
000000f0: cb40 de3e 0974 e7be f4a6 f6be 092e 96be
00000100: 7647 913e 944c a43e cbf6 98be 3031 943e
00000110: 8502 11bd 96f7 e43d bdd7 1e3f 8d1e 14bf
00000120: be81 92bc e455 263f 6918 b53e 3db5 c0be
00000130: 68d1 6cbd 7b26 fbbd f358 fc3e c5f6 0a3f
00000140: 9c93 80be b2d4 48bf 7a64 d93d 4e8d 35bd
00000150: 45e5 0b3f 2458 0f3f b5a2 8c3e fb7d 78bd
00000160: e11c 23bf a15b 6abc 1608 8cbe b9a1 4d3d
00000170: 78a6 65be eb7e eebd 9213 903e ccae 043f

first_h.0.bias f4 [32]
0.4746662 -0.31404182 0.37595636 0.37556708 0.23174106 0.54767454 0.04593684 -0.06939481
-0.32651696 -0.12850194 0.20516579 -0.40764487 0.11926319 -0.15597823 -0.4627209 -0.07058856
-0.22211155 0.51536304 -0.27698773 0.5639404 0.33222416 0.56548244 -0.0022444674 -0.018900067
-0.49081254 0.22346719 0.37364236 -0.053358037 -0.018385021 -0.04065076 0.3003671 -0.33417425
00000000: 7307 f33e 17ca a0be 5a7d c03e 544a c03e
00000010: 874d 6d3e 6634 0c3f 4528 3c3d de1e 8ebd
00000020: 3b2d a7be 0396 03be fb16 523e d4b6 d0be
00000030: 4240 f43d c2b8 1fbe c1e9 ecbe bc90 90bd
00000040: 3671 63be d5ee 033f 56d1 8dbe 665e 103f
00000050: 4919 aa3e 75c3 103f ea17 13bb 50d4 9abc
00000060: c84b fbbe 95d4 643e 0d4e bf3e f58d 5abd
00000070: 2f9c 96bc 6981 26bd b7c9 993e e318 abbe

first_h.1.weight f4 [32]
0.9157896 0.7689918 1.050804 0.9700102 0.9499582 0.92748255 1.1132934 0.9397941
1.044278 0.94988245 1.0795004 0.9610787 1.0576037 0.8790363 1.0392042 0.79728293
0.9404149 0.892027 1.1173031 0.94443595 1.0825945 0.94250286 0.82393444 1.0358163
1.0180117 0.8656639 1.0653659 0.95017624 0.93360144 0.9197426 0.7779391 0.88423324
00000000: 3071 6a3f a6dc 443f bf80 863f 9752 783f
00000010: 7630 733f 7f6f 6d3f 6680 8e3f 5996 703f
00000020: e7aa 853f 7f2b 733f 122d 8a3f 4109 763f
00000030: 8f5f 873f 8608 613f a504 853f bc1a 4c3f
00000040: 08bf 703f e25b 643f ca03 8f3f 8ec6 713f
00000050: 7592 8a3f de47 713f 5eed 523f a195 843f
00000060: 354e 823f 269c 5d3f e95d 883f c03e 733f
00000070: 8100 6f3f 4074 6b3f 0427 473f 1c5d 623f

first_h.1.bias f4 [32]
0.04776736 -0.10911031 -0.14196767 -0.2989544 0.18046968 -0.062495407 -0.081565574 -0.21186458
-0.23185037 -0.019334303 -0.1539051 0.10142031 -0.21426332 -0.12729694 -0.14527239 -0.1769002
-0.2485746 -0.36920014 -0.15332155 -0.31853828 -0.1180973 0.058269434 -0.19445904 -0.29799026
0.11354878 -0.19530144 -0.16534473 -0.0180352 -0.29752922 0.07302935 0.12526429 -0.13905294
00000000: b5a7 433d 3a75 dfbd f95f 11be 8d10 99be
00000010: 0bcd 383e 2ffb 7fbd da0b a7bd 07f3 58be
00000020: 2f6a 6dbe f962 9ebc 4c99 1dbe 74b5 cf3d
00000030: d867 5bbe 215a 02be 49c2 14be 5325 35be
00000040: 578a 7ebe cd07 bdbe 5300 1dbe 7317 a3be
00000050: ffdc f1bd eeab 6e3d 4520 47be 2e92 98be
00000060: 438c e83d 1afd 47be 2150 29be 8ebe 93bc
00000070: c055 98be 6990 953d 4845 003e e563 0ebe

first_h.1.running_mean f4 [32]
-256341.06 -414869.1 33211.63 493984.16 -282226.28 -49468.242 314753.66 333363.94
172342.88 -31277.898 466009.16 -225413.39 549277.6 -140750.14 17811.695 87228.125
180849.5 344571.53 50003.293 51747.465 411119.4 -274801.7 -278019.6 122631.15
-34761.06 -349534.62 457541.22 -714281.94 499440.66 -36582.68 -253880.62 -108665.43
00000000: 4455 7ac8 a392 cac8 a1bb 0147 0534 f148
00000010: 49ce 89c8 3e3c 41c7 35b0 9948 7ec6 a248
00000020: b84d 2848 cc5b f4c6 258b e348 5921 5cc8
00000030: da19 0649 8973 09c8 6427 8b46 105e aa47
00000040: 609c 3048 713f a848 4b53 4347 7723 4a47
00000050: edbd c848 362e 86c8 73c0 87c8 9383 ef47
00000060: 0fc9 07c7 d4ab aac8 a768 df48 9f62 2ec9
00000070: 15de f348 aee6 0ec7 28ee 77c8 b73c d4c7

first_h.1.running_var f4 [32]
1.7622101e+12 4.386264e+12 4.2566672e+10 6.1052027e+12 2.0295093e+12 6.2291202e+10 2.5494422e+12 2.8323792e+12
7.352164e+11 3.4462826e+10 5.486981e+12 1.3046657e+12 7.654603e+12 5.0452932e+11 8.361124e+09 1.9258556e+11
8.033738e+11 2.959145e+12 6.3653687e+10 6.899931e+10 4.333366e+12 1.9321192e+12 1.9798141e+12 4.059915e+11
3.878777e+10 3.1132075e+12 5.3379654e+12 1.2911083e+13 6.3279575e+12 3.2707473e+10 1.6415556e+12 3.016554e+11
00000000: f425 cd53 6d50 7f54 be92 1e51 4eaf b154
00000010: 1744 ec53 850d 6851 a665 1454 bddd 2454
00000020: 502e 2b53 5062 0051 32b1 9f54 11e2 9753
00000030: 3dc7 de54 95f0 ea52 502e f94f fa5b 3352
00000040: cf0c 3b53 b23e 2c54 e320 6d51 6f85 8051
00000050: 2f3c 7c54 a4ed e053 0f7b e653 f50d bd52
00000060: e67e 1051 6836 3554 f15a 9b54 88e1 3b55
00000070: f52a b854 8eb0 f350 2b1a bf53 2078 8c52

first_h.3.weight f4 [32, 32]
-0.060808435 -0.029827064 0.13058388 0.21340531 -0.19903196 -0.03373259 0.09428521 -0.015817666
0.025591137 -0.09493919 -0.08150809 -0.19057947 0.05053514 0.048702218 0.14411797 0.08299691
-0.060894582 0.0054936223 0.08585917 0.1003908 0.08585401 -0.1163399 -0.036296595 0.21348932
-0.06253745 -0.12111922 -0.047371898 -0.1305911 0.2178753 0.025006395 -0.0635764 -0.070859976
0.1715814 0.093518645 -0.0827473 -0.010901963 0.0011146454 -0.047919147 -0.17740498 -0.13527824
-0.2015659 0.12933114 -0.14436868 0.043499533 -0.15870355 0.049112704 -0.041329842 0.013495518
0.09836488 -0.17012134 -0.09853915 -0.048941962 0.07858539 0.19970456 -0.062000763 0.08973453
-0.09640618 -0.048746224 -0.058686156 -0.022917256 -0.05484627 0.01347254 -0.10387524 -0.07987763
-0.104096696 -0.14375089 -0.02405608 -0.072316185 -0.11681477 -0.21903954 -0.076752044 -0.21972048
-0.09502369 -0.16971111 0.07222811 -0.111959234 -0.12797374 -0.02046245 -0.16535264 -0.12563054
-0.23986942 -0.03505498 -0.13550998 0.011423021 -0.19808279 0.007239058 0.062524825 -0.22710748
0.023179987 -0.028900778 -0.0046256585 -0.047040634 -0.1180626 -0.031671558 -0.30962577 -0.29237533
0.12665321 -0.14759736 -0.19610871 -0.02422754 -0.027930882 0.01636226 -0.10790251 0.07286233
-0.016533501 -0.018789044 -0.15028697 0.13132295 -0.107294515 -0.019295733 -0.08907814 -0.0906358
0.06841247 0.086896844 -0.12502503 -0.06586892 -0.124120556 -0.11363445 -0.013193854 -0.060688075
-0.11174831 -0.02758953 -0.21191078 -0.0055368007 -0.015257861 0.117253326 0.14128534 -0.18833214
-0.035156846 -0.16369508 0.13106951 0.048336625 -0.16985299 0.08284501 0.06973134 0.19900528
0.048798148 -0.2402802 0.16917098 -0.14389673 0.034429602 0.038094442 -0.036091153 -0.07300377
-0.02062904 0.07705759 -0.11028762 0.10827496 0.103842154 -0.23656781 0.0043469956 0.12109123
0.041686755 0.07085137 0.10821949 -0.020261673 0.21766095 -0.013168806 -0.12232587 -0.0039697136
0.1420012 0.05547254 0.18536638 -0.019560996 0.09232062 0.27156267 0.25875348 0.1767932
0.016199999 0.12083198 0.24589562 0.17538056 0.16097668 0.05936929 -0.060052317 -0.04603336
0.16020837 0.27645147 0.095398016 0.05981361 0.17281345 -0.033592362 0.12174915 0.07998983
0.3928254 0.1447602 0.1194911 0.20135838 0.27134377 0.14887871 0.19982205 0.13887578
-0.10567756 -0.07637786 9.346139e-05 -0.21707901 -0.074041314 0.11288424 -0.08897529 -0.10224347
0.052736066 0.02905907 0.036338113 0.112357095 -0.10433804 -0.117871106 -0.09635169 -0.0045360243
-0.09611743 -0.18926832 -0.13619117 0.089853995 -0.2123686 0.03900069 0.092271246 -0.14286488
-0.13890448 0.18697765 -0.24319442 -0.05981203 -0.075603195 0.11857426 0.09025291 -0.05676679
0.09457752 0.13908108 -0.06722804 0.24975896 0.17925642 0.10042617 0.14365932 0.055121835
-0.017655453 0.13796274 0.11389649 0.103655465 0.150932 0.08643355 0.02040996 0.19820432
0.14323556 0.30054453 0.18795045 0.20321265 -0.15086824 0.028743569 -0.031479396 0.22022547
0.21319099 0.2185231 -0.013899807 0.20826596 0.18076245 0.05980952 0.1796791 0.074319944
00000000: 4412 79bd e357 f4bc c8b7 053e ec86 5a3e
00000010: 09cf 4bbe 2f2b 0abd 9b18 c13d 0d94 81bc
00000020: 81a4 d13c 7a6f c2bd b7ed a6bd 4427 43be
00000030: effd 4e3d fa7b 473d a993 133e 49fa a93d
00000040: 996c 79bd d803 b43b efd6 af3d b199 cd3d
00000050: 3ad4 af3d 9d43 eebd bdab 14bd f29c 5a3e
00000060: a213 80bd 5b0d f8bd 0909 42bd acb9 05be
00000070: b41a 5f3e 36da cc3c 5834 82bd 091f 91bd
00000080: 09b3 2f3e b486 bf3d 6b77 a9bd 269e 32bc
00000090: 4b19 923a de46 44bd a7a9 35be 6186 0abe
000000a0: 4b67 4ebe 626f 043e 62d5 13be 912c 323d
000000b0: 2f83 22be 672a 493d 7b49 29bd 4e1c 5d3c
000000c0: 8773 c93d 4a34 2ebe e5ce c9bd 5e77 48bd
000000d0: 60f1 a03d 5a7f 4c3e 83f4 7dbd bdc6 b73d
000000e0: 9a70 c5bd 1faa 47bd e560 70bd f8bc bbbc
000000f0: 7ba6 60bd eebb 5c3c 8bbc d4bd e296 a3bd
00000100: a630 d5bd 6f33 13be 4211 c5bc 821a 94bd
00000110: 953c efbd e74b 60be 2d30 9dbd 68fe 60be
00000120: c89b c2bd c0c8 2dbe 55ec 933d e24a e5bd
00000130: 8c0b 03be dea0 a7bc 3452 29be 4ba5 00be
00000140: 54a0 75be d095 0fbd 21c3 0abe 9f27 3b3c
00000150: 37d6 4abe 9f35 ed3b 040d 803d dd8e 68be
00000160: f5e3 bd3c 53c1 ecbc d692 97bb aead 40bd
00000170: ceca f1bd 09ba 01bd 4587 9ebe 38b2 95be
00000180: 61b1 013e c323 17be b9d0 48be d578 c6bc
00000190: 4ecf e4bc 250a 863c fefb dcbd d838 953d
000001a0: 4471 87bc 7beb 99bc d4e4 19be 8679 063e
000001b0: 3abd dbbd 1612 9ebc 9a6e b6bd 439f b9bd
000001c0: d61b 8c3d f9f6 b13d 9006 00be 49e6 86bd
000001d0: eb32 febd 2eb9 e8bd 092b 58bc 0f94 78bd
000001e0: 4cdc e4bd 7003 e2bc 24ff 58be 0d6e b5bb
000001f0: 1cfc 79bc 8322 f03d 1bad 103e 24da 40be
00000200: a000 10bd af9f 27be 1637 063e a0fc 453d
00000210: f1ed 2dbe a5aa a93d 4ecf 8e3d 0ac8 4b3e
00000220: 91e0 473d 030c 76be 283b 2d3e aa59 13be
00000230: 0e06 0d3d eb08 1c3d 51d4 13bd 0083 95bd
00000240: 3cfe a8bc 5fd0 9d3d 7ade e1bd 43bf dd3d
00000250: 32ab d43d d53e 72be 3e71 8e3b aefe f73d
00000260: bbbf 2a3d 861a 913d 2ea2 dd3d cffb a5bc
00000270: 83e2 5e3e fac1 57bc fc85 fabd 5f14 82bb
00000280: c368 113e 2d37 633d afd0 3d3e 623e a0bc
00000290: 9812 bd3d 430a 8b3e 567b 843e 4709 353e
000002a0: dcb5 843c c276 f73d 10cc 7b3e f696 333e
000002b0: 12d7 243e 362d 733d 6bf9 75bd 7a8d 3cbd
000002c0: aa0d 243e 0c8b 8d3e 0960 c33d 1eff 743d
000002d0: 02f6 303e 2598 09bd 9e57 f93d b5d1 a33d
000002e0: 6920 c93e 053c 143e c0b7 f43d e430 4e3e
000002f0: 92ed 8a3e a973 183e 279e 4c3e 7435 0e3e
00000300: 7a6d d8bd ff6b 9cbd b400 c438 f649 5ebe
00000310: f9a2 97bd da2f e73d ad38 b6bd 0665 d1bd
00000320: c601 583d 490d ee3c 46d7 143d 7a1b e63d
00000330: 2faf d5bd 6866 f1bd 0954 c5bd eea2 94bb
00000340: 37d9 c4bd 8ecf 41be b375 0bbe 5f05 b83d
00000350: 2777 59be 30bf 1f3d b5f8 bc3d 2c4b 12be
00000360: fa3c 0ebe 1277 3f3e f507 79be 76fd 74bd
00000370: d9d5 9abd 10d7 f23d 85d6 b83d 4b84 68bd
00000380: dcb1 c13d 456b 0e3e dbae 89bd d0c0 7f3e
00000390: ff8e 373e 3cac cd3d 6e1b 133e 6fc7 613d
000003a0: 2ba2 90bc 1b46 0d3e 9042 e93d 5149 d43d
000003b0: eb8d 1a3e 1304 b13d ca32 a73c 13f6 4a3e
000003c0: 58ac 123e f9e0 993e 1576 403e fa16 503e
000003d0: 347d 1abe a277 eb3c 8af0 00bd c982 613e
000003e0: bd4e 5a3e 85c4 5f3e 04bc 63bc ac43 553e
000003f0: cb19 393e d4fa 743d ccfd 373e 0e35 983d

first_h.3.bias f4 [32]
0.14629331 -0.10082588 0.11903965 0.16997187 0.06323756 0.08632434 -0.11245388 -0.0016569667
-0.1334951 0.14829007 0.049574047 -0.069601625 0.14244775 0.016903184 0.11617503 0.055307284
-0.11359507 -0.12738018 -0.21838315 -0.0671583 -0.07414025 -0.070479356 -0.10148587 0.053197157
0.15343942 -0.12332316 0.21864139 0.029904414 -0.072059736 0.008793608 0.014115251 -0.1206319
00000000: eacd 153e cd7d cebd 0fcb f33d 1b0d 2e3e
00000010: b282 813d d1ca b03d 384e e6bd 942e d9ba
00000020: f1b2 08be 5ad9 173e 280e 4b3d 4c8b 8ebd
00000030: d3dd 113e 8c78 8a3c 2ded ed3d e489 623d
00000040: 88a4 e8bd f36f 02be d59f 5fbe 4a8a 89bd
00000050: d8d6 97bd 7b57 90bd d3d7 cfbd 43e5 593d
00000060: 391f 1d3e da90 fcbd 87e3 5f3e 1afa f43c
00000070: 0e94 93bd 1113 103c a743 673c dc0d f7bd

first_h.4.weight f4 [32]
0.7053782 0.8629163 0.8789639 0.89199907 0.92627597 1.0624286 0.9260232 0.88798463
0.936491 0.97162145 0.9397616 0.8100411 0.965092 0.8719697 0.8634048 0.9796297
0.87660646 0.8343817 0.96177393 0.8845687 0.924536 0.867276 0.7710457 1.0139405
0.89858913 0.9596838 0.9367625 0.9211637 0.81783354 0.9386364 0.9620223 0.7947682
00000000: aa93 343f 15e8 5c3f c703 613f 0d5a 643f
00000010: 6c20 6d3f a9fd 873f db0f 6d3f f652 633f
00000020: e0bd 6f3f 2fbc 783f 3794 703f db5e 4f3f
00000030: 4510 773f 6839 5f3f 1908 5d3f 03c9 7a3f
00000040: 4869 603f 0a9a 553f d136 763f 1873 623f
00000050: 64ae 6c3f cd05 5e3f 4063 453f cdc8 813f
00000060: f009 663f d6ad 753f abcf 6f3f 62d1 6b3f
00000070: 8a5d 513f 7a4a 703f 1847 763f ee75 4b3f

first_h.4.bias f4 [32]
-0.16019163 -0.062376622 -0.07306539 -0.056615725 -0.05300235 -0.034781702 -0.11982341 -0.18020678
-0.1245152 0.045084402 -0.10344691 -0.16214904 0.03555078 -0.11039134 -0.15326399 -0.00940381
-0.14777945 -0.24439862 -0.09960162 -0.17277253 -0.12719797 -0.07666358 -0.41144374 -0.18504505
-0.068937585 0.050984666 -0.25947 -0.28436804 -0.310317 0.0050852187 -0.22465162 -0.33514515
00000000: 4609 24be a17e 7fbd 4fa3 95bd e4e5 67bd
00000010: fe18 59bd 4277 0ebd fa65 f5bd 2088 38be
00000020: d301 ffbd 6caa 383d f9db d3bd 660a 26be
00000030: b29d 113d db14 e2bd 3cf1 1cbe 7012 1abc
00000040: 7f53 17be a243 7abe effb cbbd 48eb 30be
00000050: 2f40 02be cc01 9dbd c1a8 d2be 737c 3dbe
00000060: 262f 8dbd 4cd5 503d 40d9 84be b098 91be
00000070: dfe1 9ebe e8a1 a63b 130b 66be 2598 abbe

first_h.4.running_mean f4 [32]
0.1140345 -0.24384965 -0.44597656 -0.015891366 0.042242136 0.93017113 -0.44074357 0.58945566
-0.6648207 -0.3403092 -0.43861845 -0.34023103 -0.43050113 0.59861624 0.7092235 0.41559657
-0.44270408 0.45570838 -0.030415298 -0.37804386 -0.31961346 -0.49391988 0.013456612 0.50430864
-0.35645086 -0.49190205 0.8485984 0.76708794 0.6204287 -0.43705517 0.4968909 -0.007422874
00000000: ec8a e93d b9b3 79be 0a57 e4be 9c2e 82bc
00000010: 1706 2d3d b21f 6e3f 24a9 e1be 91e6 163f
00000020: b031 2abf 023d aebe 9992 e0be c332 aebe
00000030: a56a dcbe ea3e 193f ac8f 353f 13c9 d43e
00000040: 1caa e2be 9c52 e93e 8129 f9bc f78e c1be
00000050: 60a4 a3be 11e3 fcbe 1f79 5c3c 5f1a 013f
00000060: ba80 b6be 96da fbbe bf3d 593f e05f 443f
00000070: 6ad4 1e3f b2c5 dfbe 7c68 fe3e 953b f3bb

first_h.4.running_var f4 [32]
1.413804 1.0989325 1.6701127 1.3212459 1.331657 4.144137 1.8359241 1.1476262
5.222524 2.4209285 4.367653 0.6537547 6.8740363 4.623483 6.586037 1.4143817
1.1902457 1.4317108 1.1792717 2.313874 2.1383107 3.2742817 7.0324283 0.5555598
1.8344896 1.0352341 2.770541 0.8309319 1.7916844 3.7535856 1.3009096 4.224011
00000000: 88f7 b43f d2a9 8c3f 41c6 d53f 961e a93f
00000010: bd73 aa3f c59c 8440 90ff ea3f 6ae5 923f
00000020: eb1e a740 7ef0 1a40 d0c3 8b40 785c 273f
00000030: 1bf8 db40 93f3 9340 d1c0 d240 760a b53f
00000040: f959 983f 4d42 b73f 60f2 963f 8316 1440
00000050: 15da 0840 d58d 5140 a709 e140 2b39 0e3f
00000060: 8ed0 ea3f 8d82 843f 8b50 3140 f4b7 543f
00000070: ea55 e53f bf3a 7040 3584 a63f 192b 8740

nns.0.0.weight f4 [32, 32]
-0.058941524 -0.14603116 -0.17637777 -0.17693739 -0.018318988 0.09885277 -0.039657112 0.108667895
-0.15026695 -0.011167388 -0.0049411557 0.04761089 0.101704225 -0.06518444 0.010062935 0.010862562
-0.03822455 0.16072549 0.10035377 -0.086546876 0.10464156 0.036984213 0.13481323 0.060891453
-0.1720232 -0.09798298 -0.008294187 0.23462851 -0.028521769 -0.09805417 -0.0019295779 0.22846992
-0.050741896 0.03314681 -0.022515174 0.08472393 -0.13683274 0.069121525 -0.1650814 -0.20765918
-0.19367585 -0.23182301 -0.12815127 -0.24206029 0.07318207 -0.18403056 -0.21238726 -0.26728496
0.034838866 -0.2541867 -0.14344627 -0.19879776 0.00396433 -0.15686251 0.016892463 -0.14492598
0.049218666 -0.10144618 0.013631811 0.010813548 -0.0063389717 0.058871433 0.042368323 0.06358884
0.037147768 -0.03936625 -0.052357595 0.018813023 0.022599518 0.14748065 -0.17140645 -0.091818616
0.06463996 0.08596531 0.010293857 -0.15625529 -0.1427014 0.06971006 -0.08187669 0.10274508
-0.125012 0.15327968 -0.08400834 -0.019402266 0.13708813 -0.108661056 -0.002271997 0.099622436
0.086900644 -0.11252362 0.20561783 0.20927039 0.09225979 0.17078851 0.20486042 0.116605096
0.08752988 0.07686149 -0.097393006 -0.043899633 0.19159849 0.10895659 0.0018983169 0.18671332
-0.07401313 0.030122751 -0.12856747 0.0734665 -0.1221363 0.003972763 0.029352486 0.08411209
0.09353422 0.11457234 -0.08898212 0.0049514384 0.04904643 0.19273755 0.17009667 0.08816852
0.02047107 -0.085458286 -0.0024311016 0.07192943 0.23105592 0.1936254 -0.08258212 0.225178
-0.0075543504 -0.17398708 -0.07305245 -0.23618852 -0.05756416 0.016418394 -0.107841514 -0.16425839
-0.11839887 -0.046236876 -0.1109069 0.027554613 0.04294692 0.02389101 0.117517434 -0.17817414
0.003613474 -0.0009318572 0.030029586 -0.23230474 0.1528839 0.13028309 -0.07917327 -0.07729163
-0.11452201 0.13958223 -0.07164095 -0.048142858 -0.1532274 -0.21761876 -0.103467464 -0.19080837
-0.15625554 -0.10432398 0.16752546 -0.13106409 0.08710146 0.22674657 -0.026358588 0.0066029425
-0.05418679 0.028841896 0.06395356 -0.12037736 0.10745637 0.08110501 0.1892876 0.06599607
-0.078672685 0.19978525 0.04616929 -0.079392396 0.17332883 -0.057230923 0.091590196 0.13043492
0.1901806 0.09820556 0.20348714 0.16213441 0.26490635 -0.054738913 0.115103774 0.16955315
-0.012612844 -0.12189785 0.025056375 -0.08564916 0.054820694 0.20200868 -0.045624897 0.15739536
0.18359064 -0.13635345 0.07742514 0.08338475 -0.07094135 0.105969 0.10008375 -0.15903105
-0.0014015127 0.22426012 0.23656671 0.009411061 -0.030392453 0.0914752 0.36605212 0.21521285
0.036528863 0.018102584 0.23249975 0.29162407 0.19108869 -0.056301717 0.1761265 0.047823545
-0.11427335 -0.10294105 0.123108014 -0.005736713 -0.19628802 0.007874333 -0.05498156 -0.2544658
-0.13289468 0.13084424 -0.14195678 -0.14262573 -0.15466973 0.036659658 -0.20018288 0.11822317
-0.053587206 -0.09733635 -0.002792114 -0.0032602046 0.09656469 0.17874558 -0.16844381 -0.21600153
0.15022692 -0.06423326 -0.14056285 -0.23933247 -0.07623778 -0.09534474 -0.12228503 -0.13606635
00000000: ab6c 71bd 3189 15be 609c 34be 132f 35be
00000010: b411 96bc 5273 ca3d 7f6f 22bd 468d de3d
00000020: 94df 19be 6cf7 36bc 6be9 a1bb a303 433d
00000030: 4e4a d03d 6b7f 85bd 02df 243c e3f8 313c
00000040: 5991 1cbd 3995 243e 4786 cd3d 7d3f b1bd
00000050: 504e d63d c27c 173d 7b0c 0a3e 5169 793d
00000060: da26 30be 4dab c8bd 57e4 07bc 7542 703e
00000070: 7ca6 e9bc a0d0 c8bd e4e9 fcba 05f4 693e
00000080: bcd6 4fbd f3c4 073d be71 b8bc bd83 ad3d
00000090: e21d 0cbe 968f 8d3d 190b 29be 9ca4 54be
000000a0: f652 46be 0363 6dbe 163a 03be a7de 77be
000000b0: 7be0 953d 8272 3cbe 0c7c 59be 93d9 88be
000000c0: 33b3 0e3d c224 82be 94e3 12be a491 4bbe
000000d0: 36e7 813b 91a0 20be 1062 8a3c 7a67 14be
000000e0: 8399 493d 04c3 cfbd f657 5f3c 4f2b 313c
000000f0: 26b7 cfbb 2c23 713d 688a 2d3d de3a 823d
00000100: 4228 183d 813e 21bd eb74 56bd c51d 9a3c
00000110: a022 b93c 2b05 173e 2c85 2fbe 660b bcbd
00000120: f561 843d 950e b03d 91a7 283c 6301 20be
00000130: 5120 12be 26c4 8e3d f7ae a7bd 036c d23d
00000140: 2503 00be 59f5 1c3e 910c acbd 80f1 9ebc
00000150: d560 0c3e b089 debd c9e5 14bb d906 cc3d
00000160: f7f8 b13d c972 e6bd 7b8d 523e fa4a 563e
00000170: b3f2 bc3d 2fe3 2e3e eec6 513e a7ce ee3d
00000180: de42 b33d 8f69 9d3d fc75 c7bd 1ad0 33bd
00000190: 6532 443e a224 df3d f2d0 f83a c731 3f3e
000001a0: 3294 97bd fdc3 f63c 31a7 03be 9b75 963d
000001b0: 9922 fabd f42d 823b a074 f03c f642 ac3d
000001c0: de8e bf3d e7a4 ea3d 423c b6bd ad3f a23b
000001d0: e9e4 483d fe5c 453e d22d 2e3e b291 b43d
000001e0: f2b2 a73c c104 afbd 1e53 1fbb bd4f 933d
000001f0: ec99 6c3e bd45 463e d120 a9bd 1095 663e
00000200: 7c8a f7bb ab29 32be 869c 95bd 67db 71be
00000210: 66c8 6bbd de7f 863c 03dc dcbd 5a33 28be
00000220: 1b7b f2bd e162 3dbd 2823 e3bd 36ba e13c
00000230: 1ce9 2f3d 14b7 c33c fbac f03d 4873 36be
00000240: 09d0 6c3b e147 74ba 9b00 f63c 4be1 6dbe
00000250: 998d 1c3e ee68 053e 9825 a2bd 134b 9ebd
00000260: 848a eabd a5ee 0e3e 7eb8 92bd 7231 45bd
00000270: a5e7 1cbe 74d7 5ebe c0e6 d3bd 4563 43be
00000280: 7401 20be d0a7 d5bd cb8b 2b3e aa35 06be
00000290: 4062 b23d 4130 683e f7ed d7bc 7f5d d83b
000002a0: f8f2 5dbd d745 ec3c 16fa 823d 6888 f6bd
000002b0: 1612 dc3d 621a a63d 9cd4 413e f328 873d
000002c0: 251f a1bd 8194 4c3e 021c 3d3d 7b98 a2bd
000002d0: 1d7d 313e f96a 6abd a493 bb3d bb90 053e
000002e0: b4be 423e ff1f c93d ef5e 503e 9006 263e
000002f0: cea1 873e e935 60bd 87bb eb3d 579f 2d3e
00000300: 1aa6 4ebc 94a5 f9bd 0743 cd3c d468 afbd
00000310: aa8b 603d 5ddb 4e3e 2ce1 3abd 402c 213e
00000320: 2fff 3b3e 3da0 0bbe 1291 9e3d a0c5 aa3d
00000330: b349 91bd 4606 d93d b6f8 cc3d 09d9 22be
00000340: f6b2 b7ba 72a4 653e 8b3e 723e da30 1a3c
00000350: 98f9 f8bc 5a57 bb3d 2f6b bb3e c260 5c3e
00000360: 4a9f 153d df4b 943c 6a14 6e3e c04f 953e
00000370: c1ac 433e a19c 66bd 815a 343e 9fe2 433d
00000380: 2508 eabd c2d2 d2bd 0e20 fc3d 09fb bbbb
00000390: baff 48be 5903 013c 5834 61bd 5749 82be
000003a0: 8b15 08be 08fc 053e 1e5d 11be 7b0c 12be
000003b0: be61 1ebe 7028 163d befc 4cbe fd1e f23d
000003c0: 427e 5bbd 4858 c7bd e6fb 36bb 28a9 55bb
000003d0: b5c3 c53d 1509 373e 897c 2cbe 812f 5dbe
000003e0: 16d5 193e ba8c 83bd b5ef 0fbe 9213 75be
000003f0: 8e22 9cbd 1a44 c3bd 9370 fabd fa54 0bbe

nns.0.0.bias f4 [32]
-0.013747815 0.025661584 0.10618504 -0.06458323 -0.0942977 -0.066632606 -0.017234148 0.024078287
0.031706538 -0.057218477 0.18741103 -0.20943706 0.015211283 -0.01451408 0.08756118 0.14763325
-0.039260656 -0.21398924 0.20735364 0.17813526 0.09300762 -0.15182033 0.23790406 -0.06502237
0.16680582 -0.10632537 -0.043509908 -0.11424501 0.11218103 0.010249461 0.107296266 -0.09879684
00000000: 843e 61bc 3e38 d23c 8b77 d93d 3644 84bd
00000010: 271f c1bd ad76 88bd a12e 8dbc d43f c53c
00000020: b7de 013d ec5d 6abd ade8 3f3e ab76 56be
00000030: bf38 793c 77cc 6dbc 4753 b33d 2c2d 173e
00000040: c8cf 20bd ff1f 5bbe 8354 543e 1769 363e
00000050: c77a be3d ca76 1bbe 1f9d 733e 732a 85bd
00000060: 25cf 2a3e 1ec1 d9bd 7237 32bd 4af9 e9bd
00000070: 2bbf e53d 5bed 273c 25be db3d ff55 cabd

nns.0.1.weight f4 [32]
1.0235119 0.89251107 0.9597256 1.0050615 0.9064773 1.0256637 1.0371503 0.8910438
0.8811494 1.0352045 0.9080659 0.8868847 0.9372167 0.9147245 0.9787233 0.8998747
1.1070633 0.9866229 0.91481864 0.9125737 1.0747944 1.0721785 1.0895544 1.1040391
1.1298685 0.8738642 0.8944082 0.868007 1.1193129 0.86394775 0.96296656 0.92112935
00000000: 7002 833f 9b7b 643f 94b0 753f dba5 803f
00000010: e50e 683f f348 833f 57c1 843f 721b 643f
00000020: 0293 613f 9581 843f 0277 683f e00a 633f
00000030: 6fed 6f3f 632b 6a3f 9c8d 7a3f 305e 663f
00000040: 40b4 8d3f 5293 7c3f 8e31 6a3f 6e9e 693f
00000050: dd92 893f 253d 893f 8576 8b3f 2751 8d3f
00000060: 889f 903f 90b5 5f3f f0f7 643f b535 5e3f
00000070: a545 8f3f ae2b 5d3f fa84 763f 22cf 6b3f

nns.0.1.bias f4 [32]
-0.106039345 -0.0019550254 -0.124219544 -0.07934134 -0.092742145 -0.14934957 -0.16693982 -0.051909365
-0.16577214 0.033657134 -0.033317033 -0.07474318 -0.14911212 -0.02767658 0.046453547 -0.10773603
-0.00780675 -0.057404444 0.039883547 -0.15752307 -0.06341021 -0.096241556 -0.10662522 -0.15898953
-0.05741421 -0.07822378 0.04355043 -0.07857566 -0.027690768 -0.0049610487 0.018652176 -0.06545746
00000000: 282b d9bd e21f 00bb d166 febd b67d a2bd
00000010: 98ef bdbd 18ef 18be 46f2 2abe ea9e 54bd
00000020: 2cc0 29be 10dc 093d 7177 08bd f412 99bd
00000030: d9b0 18be ffb9 e2bc 1346 3e3d b5a4 dcbd
00000040: c4cf ffbb ec20 6bbd ee5c 233d ba4d 21be
00000050: 36dd 81bd 4b1a c5bd 535e dabd 27ce 22be
00000060: 2a2b 6bbd ca33 a0bd f061 323d 47ec a0bd
00000070: c0d7 e2bc 4b90 a2bb 73cc 983c 900e 86bd

nns.0.1.running_mean f4 [32]
-0.16003582 -0.9159475 0.5077276 0.3991771 -0.68519014 0.79884726 0.7156458 -0.69303
0.27224383 -1.2577956 -0.8387839 -0.8424693 0.37227398 0.94916403 -0.44380566 -0.5418061
0.37128744 -0.8586556 -0.3411517 0.87925184 0.2874148 0.010260956 0.52010536 0.33526012
0.9551449 -0.13587423 0.31706926 -1.0951715 0.5119377 -0.84549934 -0.5103893 -1.3547966
00000000: 6ee0 23be 897b 6abf 70fa 013f f160 cc3e
00000010: 9f68 2fbf 4181 4c3f 9034 373f 6a6a 31bf
00000020: 8b63 8b3e 72ff a0bf 8bba 56bf 11ac 57bf
00000030: b29a be3e 6afc 723f 7f3a e3be ceb3 0abf
00000040: 6319 be3e dad0 5bbf 70ab aebe a616 613f
00000050: 0828 933e 921d 283c a025 053f 37a7 ab3e
00000060: 6084 743f 9d22 0bbe e756 a23e 942e 8cbf
00000070: 590e 033f a572 58bf e0a8 02bf fa69 adbf

nns.0.1.running_var f4 [32]
4.7532625 36.645916 21.21455 17.930832 9.678426 47.96944 71.752014 35.381927
15.698623 31.128725 75.78499 32.68993 17.09937 38.16685 14.716362 41.152
18.222858 8.409188 81.906364 47.541805 13.615674 17.20351 21.696062 21.058773
45.35121 24.873083 23.916243 52.763504 33.8413 24.995312 19.057964 35.728546
00000000: ba1a 9840 6b95 1242 66b7 a941 5872 8f41
00000010: d5da 1a41 b5e0 3f42 0881 8f42 1887 0d42
00000020: 8f2d 7b41 a107 f941 ea91 9742 7dc2 0242
00000030: 82cb 8841 dbaa 1842 3876 6b41 a69b 2442
00000040: 6ac8 9141 098c 0641 0fd0 a342 cf2a 3e42
00000050: cdd9 5941 caa0 8941 8991 ad41 5e78 a841
00000060: a467 3542 13fc c641 7754 bf41 d40d 5342
00000070: 7e5d 0742 66f6 c741 b676 9841 08ea 0e42

nns.0.3.weight f4 [32, 32]
0.001784881 -0.21484 -0.17980547 -0.33120278 0.22153524 -0.025401732 -0.21523339 -0.07195741
-0.16938232 -0.032052886 0.04955833 0.039901316 0.0498987 0.13838358 -0.11198038 0.0019106759
0.07705563 0.15361834 -0.0347724 -0.2795014 -0.09521956 -0.12369704 -0.16182545 -0.062119775
-0.19663048 0.023404656 0.11809658 0.08738693 -0.24472216 0.009587535 -0.07415626 0.0053469567
-0.20182759 -0.09111597 -0.07605905 -0.06167016 -0.17987818 -0.15923233 0.067348816 0.017297922
-0.049715858 0.056602757 -0.05967643 -0.096236415 -0.047622453 0.014331564 0.13734919 -0.17738304
0.058451623 0.1366777 -0.06776659 -0.011766279 0.013520216 -0.1735624 -0.21491994 -0.18909064
0.11185472 0.17832209 0.08684524 0.09405073 -0.21475455 -0.03954098 -0.06196823 -0.11586816
-0.028329749 0.026870385 -0.015159884 0.1127908 -0.018620098 0.16641341 0.14296883 0.11900209
0.10056899 0.23268975 0.1672311 -0.07447779 0.21345359 -0.03238842 -0.052828 -0.07998382
0.15352818 0.10398133 0.046297185 0.1364953 -0.057389192 -0.12276979 -0.09617869 0.12023047
-0.017552868 0.0680915 -0.118772455 -0.060973354 0.062571034 0.14619847 0.1816455 -0.018694744
0.0109908795 0.11826166 0.19848569 -0.023534747 0.013098943 0.0782574 0.097626254 0.005418174
-0.05924646 0.17304805 -0.17337388 -0.15452003 -0.060426075 -0.008136388 0.1425353 -0.033032004
0.2832248 0.023577075 0.16913755 0.041997783 0.041850273 0.18167008 -0.0022842868 0.077712074
0.10465051 0.025084281 0.14789635 -0.022353645 -0.035070047 -0.086314544 -0.069464445 0.0941118
-0.179972 -0.18756954 -0.011778639 -0.0045141727 -0.16674885 -0.16054012 -0.271587 0.045714896
-0.07836416 -0.10252629 0.019253967 -0.06987188 -0.0460353 -0.213623 0.03269762 -0.4146242
-0.05479351 0.053317904 -0.09893402 -0.2549327 -0.21893288 -0.12196558 -0.2649743 -0.14050637
-0.14949152 0.15827584 -0.028024817 0.121950485 -0.30630282 -0.1359985 0.11519626 -0.07500469
-0.17429602 -0.102889985 0.05663008 -0.1870081 0.07424087 -0.061398745 -0.11198361 0.03189248
0.013476023 -0.23226343 -0.19316085 0.05270088 0.049933888 -0.14580293 0.012082504 0.014032368
-0.19797894 -0.04399982 -0.121804334 0.08119956 -0.038578983 -0.1326875 -0.010144545 -0.23678137
-0.119281285 -0.101547025 -0.031016745 0.17523181 -0.22554982 0.11175205 -0.116795056 0.06348102
0.09709799 0.018119927 -0.15294297 -0.033773746 -0.09407204 0.16356061 0.12041089 0.010016043
0.068823636 -0.09274371 0.008790612 -0.12420992 -0.041998383 -0.13639359 0.05231921 -0.110514835
0.31250724 -0.061844822 0.036937635 -0.09546592 -0.013609558 0.024787428 0.23950595 0.19564316
0.1364164 -0.121764526 0.12959383 0.007909604 0.13622126 0.06547304 0.22539651 0.045021866
0.08079564 0.10423396 -0.1704193 -0.012854271 -0.19921246 -0.042049877 -0.28238723 0.025253689
-0.11359069 -0.06939698 -0.02176737 -0.1058306 -0.18406224 0.061203852 -0.0030775312 -0.06281792
-0.035124127 -0.0841196 -0.11544821 -0.19981265 -0.066398434 -0.19678777 -0.09304341 -0.056740377
-0.15584934 0.080503695 0.22182395 0.22105783 -0.08334017 -0.10073451 0.19226722 -0.1489208
00000000: abf2 e93a 04ff 5bbe ed1e 38be 6993 a9be
00000010: 22da 623e 4b17 d0bc 2466 5cbe 685e 93bd
00000020: 8f72 2dbe e349 03bd adfd 4a3d 906f 233d
00000030: 9462 4c3d 6db4 0d3e f855 e5bd a56f fa3a
00000040: 58cf 9d3d 204e 1d3e 816d 0ebd cf1a 8fbe
00000050: 7902 c3bd e054 fdbd 92b5 25be 4e71 7ebd
00000060: 8059 49be 1fbb bf3c 9fdc f13d ebf7 b23d
00000070: 7298 7abe 0915 1d3c 3ddf 97bd 8635 af3b
00000080: e4ab 4ebe 029b babd d9c4 9bbd da99 7cbd
00000090: fc31 38be cd0d 23be 2dee 893d 5fb4 8d3c
000000a0: dba2 4bbd 4bd8 673d 466f 74bd 9917 c5bd
000000b0: c30f 43bd f0ce 6a3c 44a5 0c3e e6a3 35be
000000c0: f86a 6f3d 3df5 0b3e 36c9 8abd 5ac7 40bc
000000d0: e583 5d3c 57ba 31be f913 5cbe faa0 41be
000000e0: 1614 e53d 119a 363e ebdb b13d ab9d c03d
000000f0: 9ee8 5bbe b9f5 21bd 66d2 7dbd 494c edbd
00000100: ca13 e8bc 481f dc3c 2961 78bc ddfe e63d
00000110: 2d89 98bc 4768 2a3e 6c66 123e 5eb7 f33d
00000120: 1df7 cd3d 3946 6e3e a13e 2b3e d087 98bd
00000130: 9493 5a3e b8a9 04bd 2c62 58bd 8fce a3bd
00000140: 7e36 1d3e 2af4 d43d 1ea2 3d3d 6dc5 0b3e
00000150: ee10 6bbd ba6e fbbd 55f9 c4bd 653b f63d
00000160: 08cb 8fbc 8e73 8b3d f93e f3bd 32bf 79bd
00000170: 3e25 803d 0db5 153e 4701 3a3e b825 99bc
00000180: 1713 343c 2b33 f23d d53f 4b3e f1cb c0bc
00000190: f39c 563c 6a45 a03d 46f0 c73d f08a b13b
000001a0: 6bac 72bd 8233 313e ec88 31be 803a 1ebe
000001b0: 5581 77bd 7c4e 05bc c6f4 113e 914c 07bd
000001c0: d702 913e b624 c13c 6532 2d3e de05 2c3d
000001d0: 316b 2b3d b907 3a3e f9b3 15bb 8227 9f3d
000001e0: 0253 d63d 8d7d cd3c 2472 173e fe1e b7bc
000001f0: 9ca5 0fbd aec5 b0bd 6043 8ebd b0bd c03d
00000200: 944a 38be 3b12 40be 31fb 40bc a0eb 93bb
00000210: 36c0 2abe a164 24be 740d 8bbe 8b3f 3b3d
00000220: 647d a0bd 4ef9 d1bd 7fba 9d3c fd18 8fbd
00000230: 838f 3cbd fdbf 5abe f1ed 053d a049 d4be
00000240: 296f 60bd e063 5a3d eb9d cabd 8a86 82be
00000250: f12f 60be 17c9 f9bd b6aa 87be e7e0 0fbe
00000260: 4e14 19be 1013 223e 4d94 e5bc 2dc1 f93d
00000270: b9d3 9cbe 3143 0bbe 04ec eb3d 0f9c 99bd
00000280: a87a 32be fcb7 d2bd f1f4 673d 0d7f 3fbe
00000290: 990b 983d 407d 7bbd aa57 e5bd b0a1 023d
000002a0: 8aca 5c3c 77d6 6dbe f5cb 45be e1dc 573d
000002b0: 7a87 4c3d 5d4d 15be b2f5 453c 04e8 653c
000002c0: feba 4abe 2839 34bd 8d74 f9bd f44b a63d
000002d0: ff04 1ebd 3bdf 07be 4e35 26bc d176 72be
000002e0: bf49 f4bd e3f7 cfbd d416 febc f86f 333e
000002f0: 88f6 66be 42de e43d 3f32 efbd 5602 823d
00000300: 50db c63d 3e70 943c 159d 1cbe 5756 0abd
00000310: d7a8 c0bd 6f7c 273e fc99 f63d 541a 243c
00000320: 68f3 8c3d 6af0 bdbd 8006 103c c561 febd
00000330: 7f06 2cbd c3aa 0bbe ab4c 563d 9a55 e2bd
00000340: f300 a03e ff50 7dbd eb4b 173d a383 c3bd
00000350: a0fa 5ebc 010f cb3c 0c41 753e ae56 483e
00000360: beb0 0b3e ae5f f9bd 3fb4 043e 4997 013c
00000370: 967d 0b3e bb16 863d 58ce 663e d968 383d
00000380: 2f78 a53d 9d78 d53d 6682 2ebe b89a 52bc
00000390: 5afe 4bbe 7e3c 2cbd 0f95 90be d3e0 ce3c
000003a0: 3ca2 e8bd 0120 8ebd 7c51 b2bc b7bd d8bd
000003b0: d07a 3cbe e4b0 7a3d 68b0 49bb afa6 80bd
000003c0: 51de 0fbd e646 acbd 1c70 ecbd b09b 4cbe
000003d0: e7fb 87bd bc82 49be 8b8d bebd 9968 68bd
000003e0: f896 1fbe 1fdf a43d d125 633e fc5c 623e
000003f0: 40ae aabd e54d cebd b3e1 443e b27e 18be

nns.0.3.bias f4 [32]
0.12436452 -0.14174877 -0.013895235 -0.14533843 -0.04983388 -0.18071173 0.22515523 0.069965035
0.023363138 -0.0075237197 0.041825615 -0.2984814 0.07265384 -0.057873353 -0.12124101 -0.1308565
0.07290388 0.026676238 0.08375669 0.21307437 -0.13522685 -0.090273954 0.2065858 -0.1402487
-0.079419605 0.17943507 0.19741021 -0.16730848 -0.027581042 -0.083479285 0.08120657 -0.11971942
00000000: d3b2 fe3d 9726 11be d7a8 63bc 99d3 14be
00000010: 9c1e 4cbd 7f0c 39be 188f 663e d449 8f3d
00000020: 0d64 bf3c 8989 f6bb 5651 2b3d 8ed2 98be
00000030: 89cb 943d 9c0c 6dbd 354d f8bd 3fff 05be
00000040: a14e 953d 2088 da3c a188 ab3d 2b30 5a3e
00000050: e878 0abe 8de1 b8bd 3a8b 533e 5b9d 0fbe
00000060: bfa6 a2bd d4bd 373e e725 4a3e ea52 2bbe
00000070: a3f1 e1bc 30f7 aabd a14f a63d 752f f5bd

nns.0.4.weight f4 [32]
0.8790531 0.89472973 0.90297127 0.8343825 0.9063692 0.96564 0.934446 0.9032544
0.91511315 0.7870288 0.92875266 0.9472479 0.6088183 0.9405148 0.92960936 0.5992927
0.93273795 0.9537489 0.9299364 0.70476705 0.9475565 0.83369845 0.94467455 0.9155322
0.94386655 0.9285432 0.8566098 0.8413115 0.6713542 0.95358133 0.93729216 0.9735563
00000000: a009 613f 020d 653f 2029 673f 179a 553f
00000010: d007 683f 2f34 773f da37 6f3f ae3b 673f
00000020: db44 6a3f b87a 493f bcc2 6d3f d77e 723f
00000030: 84db 1b3f 94c5 703f e1fa 6d3f 3f6b 193f
00000040: eac7 6e3f e328 743f 5010 6e3f 9d6b 343f
00000050: 1093 723f 436d 553f 31d6 713f 5160 6a3f
00000060: 3da1 713f 02b5 6d3f c84a 5b3f 3160 573f
00000070: dedd 2b3f e81d 743f 61f2 6f3f fc3a 793f

nns.0.4.bias f4 [32]
-0.14652713 -0.12904692 -0.018628316 -0.116224065 -0.103649564 -0.08472777 -0.034724344 -0.12212296
-0.093520224 -0.17900671 0.0059132664 0.040308055 -0.19592896 0.009788928 -0.09296065 -0.16032964
0.021244647 0.039240804 0.0057978276 -0.23290202 -0.07270963 -0.11723572 -0.09351548 -0.018952193
-0.017093893 -0.029773014 0.10982943 -0.13481182 -0.2668618 -0.10332867 -0.0033433023 -0.07148544
00000000: 350b 16be e024 04be 699a 98bc e206 eebd
00000010: 3946 d4bd c185 adbd 1d3b 0ebd 9a1b fabd
00000020: 8887 bfbd 894d 37be 13c4 c13b 0f1a 253d
00000030: 9aa1 48be bd61 203c 2762 bebd 742d 24be
00000040: 4109 ae3c f7ba 203d b4fb bd3b de7d 6ebe
00000050: c9e8 94bd 4819 f0bd 0b85 bfbd a141 9bbc
00000060: 7e08 8cbc 89e6 f3bc 41ee e03d 1c0c 0abe
00000070: 1ca2 88be fb9d d3bd 4e1b 5bbb f566 92bd

nns.0.4.running_mean f4 [32]
-0.09467271 -0.2601387 0.18022679 0.05375644 -0.4056151 -0.4595637 0.38846636 -0.09850551
-0.13091108 0.15790787 -0.073184885 -0.37944224 0.20598076 -0.1475415 -0.28427345 0.09444546
-0.13849917 -0.14966905 -0.052518856 0.43360892 -0.26384288 0.064598 0.38983035 -0.3217836
-0.012637235 0.3775096 0.48524997 0.05316601 0.10921767 0.007302862 0.2436291 -0.3839994
00000000: c4e3 c1bd e630 85be 5f8d 383e b62f 5c3d
00000010: c8ac cfbe ef4b ebbe 10e5 c63e 42bd c9bd
00000020: 8e0d 06be 9ab2 213e f5e1 95bd 4146 c2be
00000030: 9fec 523e 1e15 17be 4a8c 91be 9f6c c13d
00000040: bad2 0dbe d842 19be 031e 57bd fd01 de3e
00000050: 6a16 87be f54b 843d d897 c73e d2c0 a4be
00000060: 680c 4fbc f048 c13e af72 f83e 9ac4 593d
00000070: 84ad df3d d94c ef3b e879 793e 929b c4be

nns.0.4.running_var f4 [32]
3.1263793 1.2273908 0.66159046 0.8769328 5.964782 2.2004552 1.2122811 2.176732
0.70670307 0.84306145 1.3934656 1.8608129 1.892386 0.7438227 1.0252401 0.6902017
1.7911284 1.7345071 2.4265277 0.51007634 0.9062267 0.30297837 0.9328138 1.672436
1.384661 0.7388068 1.0721341 0.6902546 0.95612484 1.0731578 2.0834064 5.030949
00000000: 9916 4840 241b 9d3f fe5d 293f ab7e 603f
00000010: 7fdf be40 42d4 0c40 072c 9b3f 944f 0b40
00000020: 7eea 343f e0d2 573f 155d b23f 1e2f ee3f
00000030: b439 f23f 2a6b 3e3f 113b 833f 0fb1 303f
00000040: b243 e53f 5404 de3f 3b4c 1b40 5d94 023f
00000050: 79fe 673f fb1f 9b3e e3cc 6e3f 6212 d63f
00000060: 923c b13f 7122 3d3f b13b 893f 87b4 303f
00000070: 99c4 743f 3c5d 893f 8856 0540 89fd a040

convs.0.nn.0.weight f4 [32, 32]
-0.058941524 -0.14603116 -0.17637777 -0.17693739 -0.018318988 0.09885277 -0.039657112 0.108667895
-0.15026695 -0.011167388 -0.0049411557 0.04761089 0.101704225 -0.06518444 0.010062935 0.010862562
-0.03822455 0.16072549 0.10035377 -0.086546876 0.10464156 0.036984213 0.13481323 0.060891453
-0.1720232 -0.09798298 -0.008294187 0.23462851 -0.028521769 -0.09805417 -0.0019295779 0.22846992
-0.050741896 0.03314681 -0.022515174 0.08472393 -0.13683274 0.069121525 -0.1650814 -0.20765918
-0.19367585 -0.23182301 -0.12815127 -0.24206029 0.07318207 -0.18403056 -0.21238726 -0.26728496
0.034838866 -0.2541867 -0.14344627 -0.19879776 0.00396433 -0.15686251 0.016892463 -0.14492598
0.049218666 -0.10144618 0.013631811 0.010813548 -0.0063389717 0.058871433 0.042368323 0.06358884
0.037147768 -0.03936625 -0.052357595 0.018813023 0.022599518 0.14748065 -0.17140645 -0.091818616
0.06463996 0.08596531 0.010293857 -0.15625529 -0.1427014 0.06971006 -0.08187669 0.10274508
-0.125012 0.15327968 -0.08400834 -0.019402266 0.13708813 -0.108661056 -0.002271997 0.099622436
0.086900644 -0.11252362 0.20561783 0.20927039 0.09225979 0.17078851 0.20486042 0.116605096
0.08752988 0.07686149 -0.097393006 -0.043899633 0.19159849 0.10895659 0.0018983169 0.18671332
-0.07401313 0.030122751 -0.12856747 0.0734665 -0.1221363 0.003972763 0.029352486 0.08411209
0.09353422 0.11457234 -0.08898212 0.0049514384 0.04904643 0.19273755 0.17009667 0.08816852
0.02047107 -0.085458286 -0.0024311016 0.07192943 0.23105592 0.1936254 -0.08258212 0.225178
-0.0075543504 -0.17398708 -0.07305245 -0.23618852 -0.05756416 0.016418394 -0.107841514 -0.16425839
-0.11839887 -0.046236876 -0.1109069 0.027554613 0.04294692 0.02389101 0.117517434 -0.17817414
0.003613474 -0.0009318572 0.030029586 -0.23230474 0.1528839 0.13028309 -0.07917327 -0.07729163
-0.11452201 0.13958223 -0.07164095 -0.048142858 -0.1532274 -0.21761876 -0.103467464 -0.19080837
-0.15625554 -0.10432398 0.16752546 -0.13106409 0.08710146 0.22674657 -0.026358588 0.0066029425
-0.05418679 0.028841896 0.06395356 -0.12037736 0.10745637 0.08110501 0.1892876 0.06599607
-0.078672685 0.19978525 0.04616929 -0.079392396 0.17332883 -0.057230923 0.091590196 0.13043492
0.1901806 0.09820556 0.20348714 0.16213441 0.26490635 -0.054738913 0.115103774 0.16955315
-0.012612844 -0.12189785 0.025056375 -0.08564916 0.054820694 0.20200868 -0.045624897 0.15739536
0.18359064 -0.13635345 0.07742514 0.08338475 -0.07094135 0.105969 0.10008375 -0.15903105
-0.0014015127 0.22426012 0.23656671 0.009411061 -0.030392453 0.0914752 0.36605212 0.21521285
0.036528863 0.018102584 0.23249975 0.29162407 0.19108869 -0.056301717 0.1761265 0.047823545
-0.11427335 -0.10294105 0.123108014 -0.005736713 -0.19628802 0.007874333 -0.05498156 -0.2544658
-0.13289468 0.13084424 -0.14195678 -0.14262573 -0.15466973 0.036659658 -0.20018288 0.11822317
-0.053587206 -0.09733635 -0.002792114 -0.0032602046 0.09656469 0.17874558 -0.16844381 -0.21600153
0.15022692 -0.06423326 -0.14056285 -0.23933247 -0.07623778 -0.09534474 -0.12228503 -0.13606635
00000000: ab6c 71bd 3189 15be 609c 34be 132f 35be
00000010: b411 96bc 5273 ca3d 7f6f 22bd 468d de3d
00000020: 94df 19be 6cf7 36bc 6be9 a1bb a303 433d
00000030: 4e4a d03d 6b7f 85bd 02df 243c e3f8 313c
00000040: 5991 1cbd 3995 243e 4786 cd3d 7d3f b1bd
00000050: 504e d63d c27c 173d 7b0c 0a3e 5169 793d
00000060: da26 30be 4dab c8bd 57e4 07bc 7542 703e
00000070: 7ca6 e9bc a0d0 c8bd e4e9 fcba 05f4 693e
00000080: bcd6 4fbd f3c4 073d be71 b8bc bd83 ad3d
00000090: e21d 0cbe 968f 8d3d 190b 29be 9ca4 54be
000000a0: f652 46be 0363 6dbe 163a 03be a7de 77be
000000b0: 7be0 953d 8272 3cbe 0c7c 59be 93d9 88be
000000c0: 33b3 0e3d c224 82be 94e3 12be a491 4bbe
000000d0: 36e7 813b 91a0 20be 1062 8a3c 7a67 14be
000000e0: 8399 493d 04c3 cfbd f657 5f3c 4f2b 313c
000000f0: 26b7 cfbb 2c23 713d 688a 2d3d de3a 823d
00000100: 4228 183d 813e 21bd eb74 56bd c51d 9a3c
00000110: a022 b93c 2b05 173e 2c85 2fbe 660b bcbd
00000120: f561 843d 950e b03d 91a7 283c 6301 20be
00000130: 5120 12be 26c4 8e3d f7ae a7bd 036c d23d
00000140: 2503 00be 59f5 1c3e 910c acbd 80f1 9ebc
00000150: d560 0c3e b089 debd c9e5 14bb d906 cc3d
00000160: f7f8 b13d c972 e6bd 7b8d 523e fa4a 563e
00000170: b3f2 bc3d 2fe3 2e3e eec6 513e a7ce ee3d
00000180: de42 b33d 8f69 9d3d fc75 c7bd 1ad0 33bd
00000190: 6532 443e a224 df3d f2d0 f83a c731 3f3e
000001a0: 3294 97bd fdc3 f63c 31a7 03be 9b75 963d
000001b0: 9922 fabd f42d 823b a074 f03c f642 ac3d
000001c0: de8e bf3d e7a4 ea3d 423c b6bd ad3f a23b
000001d0: e9e4 483d fe5c 453e d22d 2e3e b291 b43d
000001e0: f2b2 a73c c104 afbd 1e53 1fbb bd4f 933d
000001f0: ec99 6c3e bd45 463e d120 a9bd 1095 663e
00000200: 7c8a f7bb ab29 32be 869c 95bd 67db 71be
00000210: 66c8 6bbd de7f 863c 03dc dcbd 5a33 28be
00000220: 1b7b f2bd e162 3dbd 2823 e3bd 36ba e13c
00000230: 1ce9 2f3d 14b7 c33c fbac f03d 4873 36be
00000240: 09d0 6c3b e147 74ba 9b00 f63c 4be1 6dbe
00000250: 998d 1c3e ee68 053e 9825 a2bd 134b 9ebd
00000260: 848a eabd a5ee 0e3e 7eb8 92bd 7231 45bd
00000270: a5e7 1cbe 74d7 5ebe c0e6 d3bd 4563 43be
00000280: 7401 20be d0a7 d5bd cb8b 2b3e aa35 06be
00000290: 4062 b23d 4130 683e f7ed d7bc 7f5d d83b
000002a0: f8f2 5dbd d745 ec3c 16fa 823d 6888 f6bd
000002b0: 1612 dc3d 621a a63d 9cd4 413e f328 873d
000002c0: 251f a1bd 8194 4c3e 021c 3d3d 7b98 a2bd
000002d0: 1d7d 313e f96a 6abd a493 bb3d bb90 053e
000002e0: b4be 423e ff1f c93d ef5e 503e 9006 263e
000002f0: cea1 873e e935 60bd 87bb eb3d 579f 2d3e
00000300: 1aa6 4ebc 94a5 f9bd 0743 cd3c d468 afbd
00000310: aa8b 603d 5ddb 4e3e 2ce1 3abd 402c 213e
00000320: 2fff 3b3e 3da0 0bbe 1291 9e3d a0c5 aa3d
00000330: b349 91bd 4606 d93d b6f8 cc3d 09d9 22be
00000340: f6b2 b7ba 72a4 653e 8b3e 723e da30 1a3c
00000350: 98f9 f8bc 5a57 bb3d 2f6b bb3e c260 5c3e
00000360: 4a9f 153d df4b 943c 6a14 6e3e c04f 953e
00000370: c1ac 433e a19c 66bd 815a 343e 9fe2 433d
00000380: 2508 eabd c2d2 d2bd 0e20 fc3d 09fb bbbb
00000390: baff 48be 5903 013c 5834 61bd 5749 82be
000003a0: 8b15 08be 08fc 053e 1e5d 11be 7b0c 12be
000003b0: be61 1ebe 7028 163d befc 4cbe fd1e f23d
000003c0: 427e 5bbd 4858 c7bd e6fb 36bb 28a9 55bb
000003d0: b5c3 c53d 1509 373e 897c 2cbe 812f 5dbe
000003e0: 16d5 193e ba8c 83bd b5ef 0fbe 9213 75be
000003f0: 8e22 9cbd 1a44 c3bd 9370 fabd fa54 0bbe

convs.0.nn.0.bias f4 [32]
-0.013747815 0.025661584 0.10618504 -0.06458323 -0.0942977 -0.066632606 -0.017234148 0.024078287
0.031706538 -0.057218477 0.18741103 -0.20943706 0.015211283 -0.01451408 0.08756118 0.14763325
-0.039260656 -0.21398924 0.20735364 0.17813526 0.09300762 -0.15182033 0.23790406 -0.06502237
0.16680582 -0.10632537 -0.043509908 -0.11424501 0.11218103 0.010249461 0.107296266 -0.09879684
00000000: 843e 61bc 3e38 d23c 8b77 d93d 3644 84bd
00000010: 271f c1bd ad76 88bd a12e 8dbc d43f c53c
00000020: b7de 013d ec5d 6abd ade8 3f3e ab76 56be
00000030: bf38 793c 77cc 6dbc 4753 b33d 2c2d 173e
00000040: c8cf 20bd ff1f 5bbe 8354 543e 1769 363e
00000050: c77a be3d ca76 1bbe 1f9d 733e 732a 85bd
00000060: 25cf 2a3e 1ec1 d9bd 7237 32bd 4af9 e9bd
00000070: 2bbf e53d 5bed 273c 25be db3d ff55 cabd

convs.0.nn.1.weight f4 [32]
1.0235119 0.89251107 0.9597256 1.0050615 0.9064773 1.0256637 1.0371503 0.8910438
0.8811494 1.0352045 0.9080659 0.8868847 0.9372167 0.9147245 0.9787233 0.8998747
1.1070633 0.9866229 0.91481864 0.9125737 1.0747944 1.0721785 1.0895544 1.1040391
1.1298685 0.8738642 0.8944082 0.868007 1.1193129 0.86394775 0.96296656 0.92112935
00000000: 7002 833f 9b7b 643f 94b0 753f dba5 803f
00000010: e50e 683f f348 833f 57c1 843f 721b 643f
00000020: 0293 613f 9581 843f 0277 683f e00a 633f
00000030: 6fed 6f3f 632b 6a3f 9c8d 7a3f 305e 663f
00000040: 40b4 8d3f 5293 7c3f 8e31 6a3f 6e9e 693f
00000050: dd92 893f 253d 893f 8576 8b3f 2751 8d3f
00000060: 889f 903f 90b5 5f3f f0f7 643f b535 5e3f
00000070: a545 8f3f ae2b 5d3f fa84 763f 22cf 6b3f

convs.0.nn.1.bias f4 [32]
-0.106039345 -0.0019550254 -0.124219544 -0.07934134 -0.092742145 -0.14934957 -0.16693982 -0.051909365
-0.16577214 0.033657134 -0.033317033 -0.07474318 -0.14911212 -0.02767658 0.046453547 -0.10773603
-0.00780675 -0.057404444 0.039883547 -0.15752307 -0.06341021 -0.096241556 -0.10662522 -0.15898953
-0.05741421 -0.07822378 0.04355043 -0.07857566 -0.027690768 -0.0049610487 0.018652176 -0.06545746
00000000: 282b d9bd e21f 00bb d166 febd b67d a2bd
00000010: 98ef bdbd 18ef 18be 46f2 2abe ea9e 54bd
00000020: 2cc0 29be 10dc 093d 7177 08bd f412 99bd
00000030: d9b0 18be ffb9 e2bc 1346 3e3d b5a4 dcbd
00000040: c4cf ffbb ec20 6bbd ee5c 233d ba4d 21be
00000050: 36dd 81bd 4b1a c5bd 535e dabd 27ce 22be
00000060: 2a2b 6bbd ca33 a0bd f061 323d 47ec a0bd
00000070: c0d7 e2bc 4b90 a2bb 73cc 983c 900e 86bd

convs.0.nn.1.running_mean f4 [32]
-0.16003582 -0.9159475 0.5077276 0.3991771 -0.68519014 0.79884726 0.7156458 -0.69303
0.27224383 -1.2577956 -0.8387839 -0.8424693 0.37227398 0.94916403 -0.44380566 -0.5418061
0.37128744 -0.8586556 -0.3411517 0.87925184 0.2874148 0.010260956 0.52010536 0.33526012
0.9551449 -0.13587423 0.31706926 -1.0951715 0.5119377 -0.84549934 -0.5103893 -1.3547966
00000000: 6ee0 23be 897b 6abf 70fa 013f f160 cc3e
00000010: 9f68 2fbf 4181 4c3f 9034 373f 6a6a 31bf
00000020: 8b63 8b3e 72ff a0bf 8bba 56bf 11ac 57bf
00000030: b29a be3e 6afc 723f 7f3a e3be ceb3 0abf
00000040: 6319 be3e dad0 5bbf 70ab aebe a616 613f
00000050: 0828 933e 921d 283c a025 053f 37a7 ab3e
00000060: 6084 743f 9d22 0bbe e756 a23e 942e 8cbf
00000070: 590e 033f a572 58bf e0a8 02bf fa69 adbf

convs.0.nn.1.running_var f4 [32]
4.7532625 36.645916 21.21455 17.930832 9.678426 47.96944 71.752014 35.381927
15.698623 31.128725 75.78499 32.68993 17.09937 38.16685 14.716362 41.152
18.222858 8.409188 81.906364 47.541805 13.615674 17.20351 21.696062 21.058773
45.35121 24.873083 23.916243 52.763504 33.8413 24.995312 19.057964 35.728546
00000000: ba1a 9840 6b95 1242 66b7 a941 5872 8f41
00000010: d5da 1a41 b5e0 3f42 0881 8f42 1887 0d42
00000020: 8f2d 7b41 a107 f941 ea91 9742 7dc2 0242
00000030: 82cb 8841 dbaa 1842 3876 6b41 a69b 2442
00000040: 6ac8 9141 098c 0641 0fd0 a342 cf2a 3e42
00000050: cdd9 5941 caa0 8941 8991 ad41 5e78 a841
00000060: a467 3542 13fc c641 7754 bf41 d40d 5342
00000070: 7e5d 0742 66f6 c741 b676 9841 08ea 0e42
