result/experiment_08.04.2022_13.23.59/84/fold_2_state_dict.pt (torch, 78057 bytes, 118 tensors)

first_h.0.weight f4 [32, 3]
000000 1b 47 ee be ad f9 9b bd fa 26 00 3f 17 6b a8 be
       -0.46538624 -0.07615981 0.50059474 -0.32894203
000010 a0 eb 1a 3e 83 c5 8e 3e 31 66 eb bd 05 20 54 be
       0.15128946 0.27885064 -0.11494101 -0.2071534
000020 50 20 81 3e 87 da 24 3f 3c 05 5e be 40 31 8f 3e
       0.25219965 0.64395946 -0.21681684 0.27967262
000030 11 ba 7a be 24 80 77 3d af b5 dd 3e f6 3e 78 3d
       -0.24485041 0.06042494 0.43302676 0.06060692
000040 6a 87 bd be 9b 24 b1 3e 8a 5e da 3e 39 e7 01 3f
       -0.37017375 0.3459824 0.42650253 0.5074344
000050 d3 2e 07 3f c2 42 86 3e e7 8a 9e 3f e4 4b 3d 3f
       0.52805823 0.26222807 1.238614 0.73943925
000060 8d 25 e0 3e 04 e4 1a bf 31 4b 1c bf 42 17 8c bd
       0.4377865 -0.60504174 -0.61052233 -0.068403736
000070 69 77 bc be f5 d0 57 3d 1b df 8c be 3c 31 67 3e
       -0.36809853 0.05268951 -0.27513966 0.22577375
000080 b2 0d b9 3e 04 84 09 be f4 18 c8 3e a9 d9 0a bf
       0.3614326 -0.13429266 0.39081538 -0.54238373
000090 d6 c3 4d 3f 05 cd 64 be 49 b7 e6 3c c1 53 d9 bd
       0.80376947 -0.22343834 0.028163569 -0.10611678
0000a0 a5 bc 8b be be 8e b5 3e 87 19 ad bd f5 a5 97 be
       -0.27292362 0.35460466 -0.084521346 -0.29618803
0000b0 2b 9e 85 be d6 77 1c 3e 31 38 35 3e 31 d3 9f be
       -0.26097235 0.15280089 0.17697217 -0.31215814
0000c0 28 50 6c 3e bd 58 79 be f3 ec c3 bd 03 3d 5f 3e
       0.23077452 -0.24350257 -0.09566679 0.21800618
0000d0 00 e2 ca be d3 ea 45 bf 05 13 a2 bd 00 aa 85 3e
       -0.3962555 -0.7731144 -0.07913784 0.26106262
0000e0 db 55 68 be 71 b1 b2 bd 38 38 47 3e f5 64 4f be
       -0.22689001 -0.087252505 0.1945504 -0.20253356
0000f0 4d 0e 98 be 82 ef 4f 3e 66 6a 02 3e 42 d3 55 be
       -0.2969841 0.20306209 0.127359 -0.2088137
000100 43 1d bb 3e 99 76 ce 3e 51 bb d0 be bb de 7b 3e
       0.36545762 0.40324858 -0.4076791 0.24596684
000110 9d 6c 92 bd b2 94 73 3e 4e 3a 01 3f 3a 0e 24 bf
       -0.071496226 0.23787192 0.5047959 -0.6408421
000120 18 f3 fc 3d 4e b7 db 3e 93 4d cd 3d 01 ff 32 be
       0.12351054 0.42913288 0.10024562 -0.17480089
000130 46 ed dc bd f5 41 25 be 69 66 25 3f 20 b8 33 3f
       -0.10787444 -0.16138442 0.6460939 0.7020283
000140 1f 51 e1 bd 93 db 04 bf 92 b9 72 be 1a 03 be be
       -0.11001801 -0.51897544 -0.23703602 -0.3711174
000150 ac 46 31 3f d0 63 00 3f 1d b6 6a 3e 7d af 49 3d
       0.6924846 0.501523 0.22921033 0.049239624
000160 74 8d 1e bf 74 85 a8 bc ef da 2d be 88 24 55 bd
       -0.6193459 -0.020571448 -0.16978048 -0.052036792
000170 af 13 a8 be 82 7d 23 bd f0 3f c1 3e b4 48 1f 3f
       -0.32827517 -0.039914615 0.37744093 0.6222031

first_h.0.bias f4 [32]
000000 eb 0b f3 3e 1a c8 a0 be 69 83 c0 3e 06 4a c0 3e
       0.4747003 -0.31402665 0.37600258 0.37556475
000010 96 53 6d 3e c7 1a 0c 3f fe 2d 3c 3d 55 1c 8e bd
       0.23176417 0.5472836 0.0459423 -0.06938998
000020 8b 2d a7 be cd 8c 03 be bb 18 52 3e 96 9f d0 be
       -0.32651934 -0.1284668 0.20517246 -0.40746754
000030 83 40 f4 3d fd c7 1f be 93 be eb be 6b 95 90 bd
       0.11926367 -0.15603633 -0.46043834 -0.07059749
000040 c3 6d 63 be 5a ee 03 3f cd 84 8c be ee 58 10 3f
       -0.2220984 0.5153557 -0.2744507 0.56385696
000050 47 19 aa 3e b7 b0 10 3f 0a 1b 16 bb 27 ca 9a bc
       0.3322241 0.56519645 -0.00229043 -0.018895222
000060 3e 4f fb be 6a db 64 3e 74 4f bf 3e e6 97 5a bd
       -0.49083894 0.22349325 0.37365305 -0.053367518
000070 3f a3 96 bc 83 d0 23 bd 5d 46 9a 3e 93 c8 a9 be
       -0.018388389 -0.039993774 0.30131808 -0.33160838

first_h.1.weight f4 [32]
000000 e7 d4 6f 3f 4a 46 85 3f 04 ef 6f 3f 36 85 84 3f
       0.9368424 1.0412076 0.93724084 1.0353153
000010 6f 93 61 3f 8d d0 87 3f 93 74 70 3f 37 f3 87 3f
       0.8811559 1.061052 0.9392788 1.0621098
000020 6f 42 8a 3f 0d 82 5d 3f aa b8 6c 3f 13 7e 6c 3f
       1.0801524 0.86526567 0.92469275 0.92379874
000030 45 ce 6b 3f 26 ca 44 3f 45 93 86 3f 9a f7 5d 3f
       0.9211162 0.76870954 1.0513693 0.86705935
000040 a6 79 88 3f 46 95 87 3f 08 d5 84 3f f6 11 88 3f
       1.0662124 1.059243 1.0377512 1.0630481
000050 ac 30 6f 3f 19 27 85 3f a2 58 7a 3f 93 75 64 3f
       0.9343364 1.0402557 0.9779149 0.89241904
000060 41 b5 69 3f 59 19 7c 3f bb 9a 6e 3f b1 84 6c 3f
       0.91292197 0.9847618 0.9320485 0.9238997
000070 b7 5a 81 3f e3 00 6f 3f 2f 7b 6c 3f 73 d3 85 3f
       1.0105809 0.9336073 0.92375463 1.0455154

first_h.1.bias f4 [32]
000000 d9 0c 3f bd e3 ee 8f 3d 75 92 b4 bd 38 65 b3 bd
       -0.04664311 0.07027986 -0.08816997 -0.0875954
000010 09 2f c0 bd c5 1d fa bc bd cb 64 be 1c c2 50 3c
       -0.09383971 -0.030531773 -0.22343345 0.012741592
000020 c5 ef 39 3d 2a d9 59 be e2 45 05 be 79 63 b5 bd
       0.045394678 -0.21274248 -0.1301494 -0.088568635
000030 0f 92 41 be b3 69 6e be 27 9c d5 3d 0c 26 11 be
       -0.18903373 -0.23282509 0.10430174 -0.1417467
000040 b8 de 35 3d b1 d8 7a 3d 4b b5 89 3d 59 f1 c4 3f
       0.044401854 0.06124181 0.06724032 1.5386153
000050 73 71 14 be c2 bc c7 3d 7c ec 46 3e 9b b4 89 bf
       -0.14496402 0.097527996 0.19426149 -1.0758241
000060 e5 de 0e be b2 90 59 3e df 98 f5 bd 7b 5e ad bd
       -0.13952215 0.21246603 -0.119920485 -0.08465286
000070 d8 30 5c be f4 c5 7f bd fa 8f 9c bd c5 bc 86 3d
       -0.21503007 -0.062444642 -0.07644649 0.06578974

first_h.1.running_mean f4 [32]
000000 95 e8 2b c9 e2 01 f3 c8 50 b8 29 c8 e2 0e 6e 49
       -704137.3 -497679.06 -173793.25 975086.1
000010 92 e1 b5 c8 cf 3c b3 47 2a 6b 1d 49 a6 27 c2 48
       -372492.56 91769.62 644786.6 397629.2
000020 c6 8e 20 49 ac 38 ca c7 be 4a cb c8 11 9e 46 c8
       657644.4 -103537.34 -416341.94 -203384.27
000030 82 13 94 49 e1 93 1c c8 54 d9 f9 c7 4e b0 61 48
       1.2130402e+06 -160335.52 -127922.66 231105.22
000040 39 b0 aa 48 93 28 a1 48 72 f6 e9 c7 04 41 01 c8
       349569.78 330052.6 -119788.89 -132356.06
000050 8e 59 db c8 e7 51 9a c8 a3 86 16 c9 c1 a8 af 48
       -449228.44 -316047.22 -616554.2 359750.03
000060 f9 9f 36 48 d7 72 81 c8 d3 4c 6e 49 e0 bf 3f c9
       187007.89 -265110.72 976077.2 -785406.0
000070 d7 03 80 49 c4 63 91 47 3e d0 7a c8 05 04 6c c7
       1.0486989e+06 74439.53 -256832.97 -60420.02

first_h.1.running_var f4 [32]
000000 5b 41 41 55 97 14 c1 54 b4 5c 3c 53 0c 4b b9 55
       1.3280403e+13 6.634193e+12 8.0900915e+11 2.5466497e+13
000010 3e 3a 58 54 d6 12 52 52 4b 11 22 55 f3 70 76 54
       3.7147603e+12 2.2556479e+11 1.1137197e+13 4.2338277e+12
000020 99 b5 28 55 da b2 85 52 7f 21 87 54 5b f7 80 53
       1.1593619e+13 2.8711564e+11 4.6430604e+12 1.1078115e+12
000030 46 6d 0f 56 14 5a 20 53 45 16 cc 52 eb 8a a6 53
       3.9424872e+13 6.88706e+11 4.3827347e+11 1.4305905e+12
000040 4d 89 3e 54 ba d6 29 54 f1 f9 b2 52 a4 74 da 52
       3.2733892e+12 2.917808e+12 3.8434875e+11 4.691299e+11
000050 d4 51 9d 54 3d bd 1b 54 23 31 14 55 41 ca 49 54
       5.4054617e+12 2.6755793e+12 1.0183673e+13 3.4667267e+12
000060 e7 11 5a 53 1c 21 db 53 2c b6 b9 55 3f 6e 70 55
       9.366032e+11 1.8823066e+12 2.552401e+13 1.6522268e+13
000070 f6 4d d6 55 38 41 0a 52 20 b0 cd 53 b0 2a b6 51
       2.945379e+13 1.4844992e+11 1.7668464e+12 9.780003e+10

first_h.3.weight f4 [32, 32]
000000 27 8d a0 3d de 41 11 3e cd 02 08 3e 8d 15 e3 3d
       0.07839423 0.14185283 0.13282318 0.11088095
000010 84 ee 8a bd cd 3e 1c bc 14 89 98 3c 48 47 00 be
       -0.067837745 -0.009536457 0.018620051 -0.12527192
000020 c5 6e a4 bd f9 a8 d9 3c 81 59 1c be d2 51 74 bd
       -0.0802894 0.02656983 -0.15268518 -0.059648342
000030 ba ce ee bc f5 23 43 3e 16 fa 90 3e f4 96 17 3c
       -0.02915131 0.19056685 0.283158 0.009252299
000040 bd 50 2f be 93 6f d6 bd 15 de 12 3e 45 04 54 3e
       -0.17120643 -0.104705 0.1434253 0.20704754
000050 a9 21 35 3c b8 55 31 3d 4e 07 1f 3e ae 16 3d 3e
       0.0110553885 0.04329464 0.1553013 0.18465683
000060 ca 0a 13 be 5e 52 8f 3d 67 59 04 be 48 02 fd 3b
       -0.14359584 0.06998132 -0.1292473 0.007721219
000070 35 8c 02 3e 2f 4c cc 3c 12 78 94 3d 36 ff d1 3d
       0.12748797 0.02493867 0.07249464 0.10253756
000080 d4 8b 3a 3e 87 31 57 3e ad a6 38 3d 1c 25 65 3d
       0.18217403 0.21014987 0.04508083 0.055943593
000090 13 4f 14 3c 17 42 5e 3c 21 2a bf bd 15 fd 9a bd
       0.009052056 0.013565562 -0.09334207 -0.07567803
0000a0 be cb 0f be 44 39 bd 3c 94 25 f1 bb 4e 34 20 3d
       -0.14042565 0.023098595 -0.007359216 0.03911238
0000b0 17 88 9b bd f0 94 c7 bc f0 ad 9c 3d 94 39 c5 3d
       -0.075943165 -0.024363011 0.076503634 0.09630123
0000c0 8d e0 1f 3e 90 7a e4 bd be 1e b2 3b 7e f5 40 3e
       0.15613003 -0.111561894 0.0054357937 0.18843648
0000d0 77 a6 54 3e ae 55 af 3e c3 86 c6 3d 62 1d 6e 3e
       0.20766626 0.34245056 0.096936725 0.23253396
0000e0 b5 fb 67 bc c9 f0 09 3e 8d 2f a0 3c ac ff fe bc
       -0.014159133 0.13470758 0.019553924 -0.031127773
0000f0 5c da bb 3c e4 4e aa be 6b 16 e6 bd d4 c3 0f 3d
       0.02293127 -0.33263314 -0.11234745 0.035098866
000100 46 cc 77 3e cd f1 a3 3e 44 29 b9 3d af e6 c5 bd
       0.24199018 0.32020417 0.09041074 -0.0966314
000110 4b 77 6f 3e 92 13 60 be c7 d7 06 be fd c9 87 be
       0.2338535 -0.21882465 -0.1316825 -0.26521292
000120 94 d8 19 be 1f ba 45 3d e7 4f 37 3d 0b f7 67 3e
       -0.15024024 0.048273202 0.044753935 0.22652833
000130 bf 87 18 be 23 0a 6a 3e 2e 5b 94 3e 86 27 c7 bd
       -0.14895533 0.2285543 0.28975815 -0.09724335
000140 b2 b8 81 be 26 8c 0f bd d7 38 9d 3e d5 6b 18 3f
       -0.25336224 -0.035045765 0.30707428 0.5953954
000150 3a c5 67 be 63 60 04 3f 7e cf 07 3f 31 0e 4a bd
       -0.2263383 0.51709574 0.5305098 -0.04932994
000160 5d c4 b4 3d 14 46 fa 3e 8e 52 77 bd 46 fd 86 3e
       0.08826516 0.4888159 -0.060381465 0.26365107
000170 0e fc 1f be 1f 7e 3a bd 22 14 cb 3c 11 0d 2f 3e
       -0.15623495 -0.045530435 0.024789874 0.17094828
000180 55 14 c8 3d 17 35 47 be b6 bf 98 bd 41 db c7 3d
       0.09769503 -0.19453846 -0.07458441 0.09758616
000190 c7 00 5f bd b3 d3 0d 3e fd f4 66 3c 94 19 47 3e
       -0.0544441 0.13850288 0.014096496 0.19443351
0001a0 72 3d d7 3d d4 8b 42 bd e6 f5 e8 bc 3e e6 db 3d
       0.10509767 -0.04749663 -0.028437566 0.107372746
0001b0 ba f0 70 3c 80 d5 64 bd 38 f6 1c be 0a 0b 00 3d
       0.014705831 -0.055867672 -0.153283 0.031260528
0001c0 c6 83 42 3e ea 8e 55 3e 20 0a 3a be 21 e2 71 3d
       0.1899558 0.20855299 -0.18167925 0.059053544
0001d0 6f c5 0d bb 72 8f 11 be 5d bb 9d bd 54 ac 81 3d
       -0.0021632572 -0.14214876 -0.07701752 0.06331697
0001e0 e7 18 37 3c 40 bc 8c bd 03 6c b8 bd 88 41 02 bd
       0.011175371 -0.06871843 -0.090049766 -0.031800777
0001f0 4d bc da 3d c3 70 ac 3d 96 b0 d7 3d fd 1f 69 be
       0.10680447 0.08419945 0.10531728 -0.22766109
000200 4b 64 06 3e f4 fc 3e 3d fb a0 15 3e 9a 74 97 be
       0.13124196 0.046627954 0.1461219 -0.29581147
000210 bd 53 51 bc 37 e9 07 be 4b 61 67 be 92 08 23 be
       -0.012776312 -0.13272558 -0.22595708 -0.15921238
000220 32 4f 9b be 7d b2 dd bd f2 3d 03 be b1 76 72 3c
       -0.3033386 -0.108250596 -0.12816599 0.014798806
000230 9a 6f 83 be 1d 63 45 3e 64 57 80 3d ea 05 b2 be
       -0.25671083 0.1927609 0.062666684 -0.34770137
000240 0d b6 c0 be e1 a7 8d be af 14 12 bd 53 be b7 3e
       -0.37638894 -0.27667144 -0.035664257 0.35887393
000250 c8 8f 46 be 05 ad ec bc 46 9f 6e 3e f4 9e d1 bd
       -0.19390786 -0.028891096 0.23302945 -0.10235396
000260 c9 90 81 be ce de 9d 3e 34 d7 42 be 28 9b 03 3e
       -0.25305775 0.3083405 -0.19027406 0.12852156
000270 62 85 e2 bd 3b 87 51 be 76 e8 28 3d c2 47 4f 3e
       -0.11060597 -0.20461743 0.041237317 0.20242217
000280 96 20 de bc ce da a3 bd 8b bb 47 3d 97 3e f2 bd
       -0.027115148 -0.08000718 0.04876284 -0.11828344
000290 fa 9d 8f bd c5 8d 1c 3e ef 3d 4e 3e c5 b6 02 3e
       -0.070125535 0.15288456 0.20140813 0.12765034
0002a0 36 79 cc bd 51 bc 90 bd 0e 6f 5b 3e 38 0d 21 3c
       -0.09984057 -0.070671685 0.21429083 0.009829812
0002b0 85 85 09 3e 4d 5e 08 be a8 62 b0 bd f5 96 9a bd
       0.1342984 -0.13317223 -0.08612567 -0.07548324
0002c0 de aa 97 3d ce 35 1a 3e 85 1d a2 3d b4 4d 29 3d
       0.07405637 0.15059587 0.07915787 0.04133387
0002d0 99 2f 1d 3e 38 51 26 be 5a 37 5a bb f7 b5 e3 bb
       0.15350188 -0.1624192 -0.0033297152 -0.006949182
0002e0 46 c3 3e 3e 97 ac 12 3c e7 66 80 3d 1e 2c 5d 3c
       0.18629178 0.008952281 0.06269627 0.013499288
0002f0 1a 03 b3 3d 31 3b ec 3b 57 ae 18 3d d3 0f b9 bc
       0.08740826 0.0072092046 0.03727564 -0.022590553
000300 af ac e0 bd 9c aa 8a bd 1c 34 79 3c 3f f7 67 be
       -0.10970437 -0.067708224 0.015210178 -0.2265291
000310 bc a1 9c bd 42 22 58 bd ad a4 d3 bd ac c1 bd bd
       -0.07648036 -0.052767046 -0.10334144 -0.092654556
000320 6b 8d 1d 3d 37 3a 87 3c cb ff 1f 3d 46 68 d1 3d
       0.038464945 0.016507251 0.039062303 0.10224967
000330 1b 38 ea bd 67 ae 1e be e7 e7 22 bd 30 21 86 bc
       -0.114364825 -0.15496217 -0.03977194 -0.016373247
000340 ef 68 ea bd 71 67 58 be 1d d8 f7 bb 20 b3 a3 3d
       -0.11445796 -0.2113321 -0.0075636045 0.0799315
000350 08 13 4a be f3 ab 59 3d 21 83 9c 3d af 09 32 be
       -0.19733822 0.0531425 0.07642198 -0.17386506
000360 21 8c 47 be 2a be 1b 3e 86 b0 81 be 59 31 aa bd
       -0.19487049 0.1520926 -0.2532999 -0.083101936
000370 65 18 b1 bd ee fe c0 3d 54 ad b2 3d 73 bd 76 bd
       -0.08647231 0.09423624 0.08724466 -0.060239267
000380 fb 32 04 3e 56 7c 90 3e a3 38 46 3d cd d8 11 bd
       0.12910073 0.2821986 0.048393857 -0.035607148
000390 06 73 50 3e 84 af 6c be b1 f8 44 3d a6 20 48 be
       0.20356378 -0.23113829 0.048088733 -0.19543704
0003a0 7e d5 a3 be df 8d 43 3d c7 12 b7 3b fd 08 08 3e
       -0.3199882 0.04774272 0.005586955 0.13284679
0003b0 8d f0 6d 3c 5d 53 8e 3d f5 01 6f 3e b2 ab 3f 3d
       0.014522684 0.06949494 0.2334059 0.0467946
0003c0 35 90 30 be 9e 83 39 bd 0b 0d cf 3e fd 76 1d 3f
       -0.1724251 -0.045291536 0.40439638 0.61509687
0003d0 9d e6 82 be 76 44 28 3e 76 dc 25 3e e9 82 83 3d
       -0.2556657 0.16432366 0.1619738 0.064214535
0003e0 dd a0 ba bd a5 22 cd 3e 2a 09 05 be 9d b0 5a 3e
       -0.091127135 0.40065494 -0.12991777 0.21356435
0003f0 34 74 5c bd c4 13 fd bd 43 0a 5c 3e 91 5e 50 3e
       -0.053821757 -0.123572856 0.2148829 0.20348574

first_h.3.bias f4 [32]
000000 78 45 c8 3d ce e8 51 be fd c5 1e 3d dd 55 4a 3d
       0.09778875 -0.20498964 0.038763035 0.04939829
000010 e9 d9 56 be 3a 90 8e 3c f5 ff 43 bd b9 72 c3 3d
       -0.20981564 0.017402757 -0.04785152 0.09543366
000020 18 77 7b bd 24 27 64 be f8 2b a0 bc 47 73 a1 bd
       -0.061392874 -0.22280556 -0.019552216 -0.078833155
000030 f2 7e df 3d f4 89 13 be 3e b7 9a bd f3 75 d9 bc
       0.10912885 -0.14408094 -0.07554482 -0.0265455
000040 3d ec e5 3c 06 aa 40 bd dc b5 c9 bd b4 da 2f be
       0.028066749 -0.047037147 -0.0984914 -0.17173272
000050 b2 7f 95 bd 3b 4a cd 3d 6f 2e 21 bd 5b 21 4c 3e
       -0.072997466 0.10023924 -0.039350923 0.19934599
000060 54 09 7c bd 7a c4 88 3c 1c dc e7 bd a5 62 82 be
       -0.061532333 0.01669525 -0.113212794 -0.25465885
000070 8e a0 4a bd e1 b9 05 bd 0f 4a 66 be 41 06 48 bd
       -0.049469523 -0.03264797 -0.22489189 -0.04883409

first_h.4.weight f4 [32]
000000 81 3b 49 3f b7 af 03 3f 66 47 42 3f 5d 0d 81 bc
       0.7860642 0.51439995 0.75890195 -0.015753442
000010 52 39 38 3f 99 ca 0b be f0 f4 39 3f b0 c7 75 3f
       0.71962464 -0.13651504 0.7263937 0.96007824
000020 a5 cb 30 3f d0 26 11 3f e4 59 39 3f 74 08 2b 3f
       0.69060737 0.5669985 0.7240279 0.66809773
000030 71 3f bc 3e 97 fa 24 3f 02 93 43 3f b6 28 b6 3e
       0.36767152 0.6444487 0.7639619 0.35577935
000040 fc 2c 1d 3f 33 4f 52 3f 5b 5a 30 3f fe aa 69 3f
       0.61396766 0.821521 0.6888787 0.9127654
000050 af 7f 1e 3f e9 53 24 3f 2e a5 4e 3f f7 11 62 3f
       0.6191358 0.64190537 0.80720794 0.8830866
000060 33 43 3b 3f f5 37 2c 3f 2c 97 3c 3f b5 e0 46 3f
       0.7314941 0.67272884 0.7366817 0.77686626
000070 e4 b4 47 3f f1 19 1b 3b 14 47 5d 3f 6e 91 69 3f
       0.7801039 0.0023666585 0.8643658 0.91237533

first_h.4.bias f4 [32]
000000 08 7f 0a bf 28 3c 16 bf b6 5d 41 bf 0b f6 a9 be
       -0.54100084 -0.5868554 -0.75533617 -0.33195528
000010 8b 6f d4 be 49 e2 eb be 03 bd 8c be dd ea 55 bf
       -0.4149135 -0.4607108 -0.27487954 -0.835615
000020 25 f9 7b be 52 8f 54 3c 12 38 74 be e0 17 7e be
       -0.2460676 0.012973623 -0.23849514 -0.24813795
000030 7b d4 ae be 69 e2 c0 be f4 1c db be 37 1d a8 be
       -0.34146485 -0.37672737 -0.42795527 -0.3283479
000040 09 40 89 be 88 64 bd be d9 3e 8f be a5 cf 61 be
       -0.26806667 -0.36990762 -0.27977636 -0.22051866
000050 49 aa 8b be ea 96 8d be 49 f9 13 bf 9d 5a c7 be
       -0.27278355 -0.276542 -0.57802254 -0.3893632
000060 01 c9 87 be dc a1 87 be 60 21 05 bf 58 69 ad be
       -0.2652054 -0.26490676 -0.5200405 -0.33869433
000070 09 f5 19 bf a6 31 7b be d1 4c 00 bf dd 96 1f bf
       -0.6013952 -0.24530658 -0.5011721 -0.62339574

first_h.4.running_mean f4 [32]
000000 4f 7b 24 3f d3 52 ab 3e df 69 cf 3f 08 8f be 3d
       0.64250654 0.33461627 1.6204184 0.09304625
000010 5b 48 f3 3d 7f d8 39 3e 7f c4 fd bd 58 8e be 3f
       0.11879035 0.18148993 -0.12390994 1.488719
000020 fe fb da be 72 7c c3 bf cc a4 87 bf 22 d2 1c bf
       -0.4277038 -1.5272353 -1.0597167 -0.6125814
000030 79 71 4e 3f ff 19 c0 3e 31 11 c9 3e 3c 94 90 3f
       0.80641896 0.37519833 0.39270929 1.1295238
000040 ce c3 3b bf 88 c5 1c 3e 76 97 a8 be f1 e8 ae be
       -0.7334565 0.15309727 -0.32928056 -0.34162095
000050 e2 4b 06 bf a9 ed 07 bf 1b 27 99 3f 15 dd fe 3e
       -0.5245954 -0.53097016 1.1965059 0.49778047
000060 9f c6 37 bf f3 3a de be 4f 24 a3 3f 09 c6 c3 be
       -0.71787447 -0.4340435 1.2745456 -0.38237026
000070 0b 2f 10 3f 4f 15 01 3f e4 fc 54 3e c9 c9 b9 3f
       0.5632178 0.5042314 0.20799595 1.4514705

first_h.4.running_var f4 [32]
000000 40 a3 84 3e 8a 3f 3c 3e 7a 04 72 40 03 24 b6 3f
       0.259058 0.18383613 3.7815232 1.422974
000010 9d 55 21 41 19 ba 2c 3f c1 b2 fb 3f 7b b5 1f 40
       10.083402 0.6747146 1.9663926 2.4954517
000020 04 45 57 40 db d3 57 41 f5 5c 88 41 30 0d 92 40
       3.3635874 13.489223 17.04539 4.56411
000030 ea a9 38 3f 74 bb 59 41 26 3f 1e 41 56 41 d9 3f
       0.7213427 13.608265 9.890417 1.6973064
000040 62 f0 47 40 c8 b6 85 40 97 ec 60 40 6d f7 83 40
       3.1240468 4.178562 3.5144403 4.1239533
000050 f6 0a 25 3f 02 38 8e 3f 29 9f 47 40 c1 cb 2a 41
       0.6446985 1.1110842 3.1190894 10.674745
000060 2f 5f d1 3f da b3 48 40 63 fa 23 40 89 e7 a3 41
       1.6357173 3.1359773 2.5621574 20.488054
000070 60 d3 04 40 14 c7 43 3e 3a 74 4b 40 1a d1 05 41
       2.0754013 0.19118911 3.178969 8.36355

nns.0.0.weight f4 [32, 32]
000000 83 50 20 3e 1c 02 8b bd 15 e7 d9 3e 64 ad c9 be
       0.15655713 -0.06787512 0.42559114 -0.393901
000010 52 68 29 be dd 6f 27 be c4 3b 4d bd 44 c3 4a bd
       -0.16543701 -0.16351266 -0.050105825 -0.049502626
000020 64 6d 2c be 9d e2 0d be cf bb 54 bc 7f 43 d4 3d
       -0.16838604 -0.13855977 -0.01298423 0.10364436
000030 b8 ef 93 3d 34 4b 60 be f6 f4 14 be a0 d7 de be
       0.07223457 -0.21903688 -0.1454657 -0.43523884
000040 ce 77 cf 3d 70 a2 bb bb 57 b6 36 bc 3e 79 79 3e
       0.10130273 -0.005726151 -0.011151872 0.24362656
000050 68 58 a0 bb f0 bd 3e 3d 18 f5 ae bc cd 12 b4 bd
       -0.0048933513 0.046567857 -0.021357104 -0.087926485
000060 26 26 4a be 3d 3a 25 bd 7e d1 f8 bd 66 55 5c 3d
       -0.19741115 -0.040338743 -0.121493325 0.05379238
000070 a2 7f 49 be d1 69 8c be 6f da 2b be 6e af d4 3e
       -0.19677594 -0.27424482 -0.16782545 0.41540092
000080 04 09 ce 3d 0d 14 74 3e 8f 53 86 3d cf 20 81 3c
       0.10060313 0.23835774 0.06558906 0.015762715
000090 34 b3 c1 bd 74 66 89 3d b4 b3 56 be 8d dc 81 3d
       -0.094580084 0.067089945 -0.20966989 0.06340895
0000a0 db d3 63 be 11 2e 98 bf 7a ba 38 be 73 7a 22 be
       -0.22248785 -1.1889058 -0.18039885 -0.15867023
0000b0 9c 10 f2 bd 63 cf b4 bd ed c4 29 be 93 7b 3a bd
       -0.11819574 -0.088286184 -0.16579027 -0.045528006
0000c0 94 3e f4 bb 5b 96 38 be 8d 87 87 bd 03 c4 61 be
       -0.007453749 -0.18026106 -0.06617651 -0.22047429
0000d0 96 0f 66 bd 03 15 23 be bd f3 2d 3e 72 ef 17 be
       -0.056167208 -0.15925984 0.1698751 -0.14837435
0000e0 cf 86 f2 3a 59 93 8f be a7 27 86 3d 48 54 2b 3d
       0.0018503311 -0.28042105 0.06550532 0.041828424
0000f0 b1 1f cf 3d 61 5d bd bc 62 d7 06 3d 27 48 8d 3d
       0.101134665 -0.023115816 0.03292025 0.068985276
000100 b7 21 32 bb 85 91 22 3d 56 05 0e bd 1a e1 c5 3d
       -0.002718074 0.03968956 -0.034673057 0.09662075
000110 35 c1 73 bc 61 d0 ef 3d d8 30 8d be ca f3 31 be
       -0.014877607 0.11709667 -0.27576327 -0.17378154
000120 2f a6 87 bb e9 68 74 bd 86 d3 16 bd 89 8e 5f be
       -0.0041396837 -0.059670363 -0.03682282 -0.21831717
000130 0c d8 c9 bd 31 52 de 39 0f bb 13 be 2a 09 4b 3e
       -0.09855661 0.00042404377 -0.14426826 0.19827715
000140 8a 9b 37 be 6a 9a b3 3d 95 ff 2e be f0 cd 35 be
       -0.17930427 0.087696865 -0.17089684 -0.1775434
000150 f9 9e ca 3c 55 32 44 be 33 9a a1 bd db 3a 31 3d
       0.024734007 -0.19159825 -0.07890739 0.04326902
000160 30 ee aa 3c 50 15 2f be 79 bf 05 3e e0 ec 14 3e
       0.02086553 -0.17097974 0.13061322 0.14543486
000170 48 03 a2 3c e0 38 3f 3e d0 04 0e 3e e0 bc 81 3d
       0.019776955 0.1867404 0.13869023 0.06334853
000180 7d ed 4a bd 1e 1b bc bd 6b d8 67 be 06 d1 5a be
       -0.049542893 -0.0918486 -0.2264115 -0.21368799
000190 00 ce 3d 3d a3 b2 dc bc 4f 7d 1b be e0 dc 36 3d
       0.046339035 -0.02694065 -0.1518452 0.044644237
0001a0 23 f0 53 be 69 cd 64 bc 09 41 8b be 12 d1 3c bd
       -0.20697074 -0.013964989 -0.27198055 -0.046097822
0001b0 d9 24 74 be da db 06 be de 87 ea bd 29 b8 17 be
       -0.23842181 -0.13169804 -0.11451696 -0.14816345
0001c0 42 11 38 bd d5 b4 34 bd ea 94 72 be 9a 67 b3 bd
       -0.044938333 -0.044117767 -0.23689619 -0.08759995
0001d0 a7 05 99 bd 7d 9d 7e 3d 8e 01 b9 3c 8b 6f 2c bd
       -0.07471781 0.06216191 0.02258375 -0.042098563
0001e0 c2 1a e9 bd 7e 84 7e be a2 fa 08 be c5 93 85 bd
       -0.11382057 -0.2485523 -0.13376859 -0.065223254
0001f0 4c 48 a0 3d 4e d1 2c 3d 6c a3 59 be be fc c3 3d
       0.078262895 0.042191796 -0.21253747 0.09569691
000200 fd a7 ad 3e 9d fc 04 be c3 b6 db 3e 29 25 a3 be
       0.33917227 -0.1298699 0.42912874 -0.31864288
000210 70 a9 09 3e 42 23 56 bd 45 59 85 be 0d 05 1f 3e
       0.13443542 -0.05227972 -0.2604467 0.1552927
000220 a1 bd 02 be 35 39 cc be 22 16 75 be 58 53 a5 3d
       -0.1276765 -0.39887396 -0.23934224 0.08072537
000230 e1 8c 83 bd 53 41 97 3e 46 30 c7 3e d6 c9 b3 be
       -0.06423355 0.29542026 0.38904017 -0.35114926
000240 83 1c d1 bd a8 f5 24 3e 67 15 95 bd 6d ba cf be
       -0.10210516 0.16109335 -0.07279473 -0.4057192
000250 16 64 58 3d 42 a6 e6 3d ae 80 43 3e ff 79 1b 3e
       0.052829824 0.1126218 0.19092056 0.15183257
000260 df 6e bf be 0d 3c f9 bd 43 33 b0 3e 19 d3 47 3e
       -0.37389275 -0.12169657 0.3441411 0.19514121
000270 76 e3 1b 3e fe d0 de be da a6 41 3e 13 e0 88 bd
       0.15223488 -0.43518823 0.18911305 -0.06683364
000280 f5 d6 25 3e 5a 32 ed bd be 3a 81 3e 2c c4 87 be
       0.16195281 -0.115818694 0.2524013 -0.26516855
000290 6b e7 52 3e 31 91 b2 3d ee b6 28 3b f1 3e e8 3c
       0.20596091 0.08719099 0.00257438 0.028350325
0002a0 69 77 17 bd 4c b2 80 be a1 64 56 3d b1 22 08 be
       -0.036979113 -0.2513603 0.05234206 -0.13294484
0002b0 96 b5 6a bc ba 9a f4 3c f3 0c 7b 3e 58 5a d3 bd
       -0.01432552 0.029858936 0.24516658 -0.10319966
0002c0 87 f5 03 bd 67 ed 0f 3e e7 48 d4 3a b2 f1 de bd
       -0.032216575 0.14055406 0.0016196043 -0.108859435
0002d0 c4 a1 35 3e 85 8c 72 bc 48 b2 fd 3c 19 1c 95 3d
       0.1773749 -0.01480401 0.0309688 0.0728075
0002e0 c1 76 0d 3e 4f 02 d0 3d 31 e7 80 3e 15 36 0c 3e
       0.13814832 0.1015669 0.25176385 0.13692506
0002f0 9f ef 75 3e c3 aa 85 be 68 5b 87 bb 6e 81 0a 3e
       0.2401719 -0.26106843 -0.0041307695 0.13525936
000300 0e b6 dc bd 9c e2 68 be c2 b4 b5 bc c4 f0 2a be
       -0.10776912 -0.22742695 -0.022180919 -0.16693407
000310 71 e5 ed bd 0f 0c 4b 3d 59 76 67 be 8f d7 a6 bd
       -0.11616028 0.049572047 -0.2260374 -0.08146583
000320 10 a3 e7 3d c3 2d db bd 66 4e 9a bc 67 6c 44 3d
       0.113103986 -0.10702088 -0.018836211 0.047954943
000330 9f 0a 1c be 0d 69 e8 bd 0d 62 1e be 3c 08 75 be
       -0.15238427 -0.11348162 -0.15467091 -0.23928922
000340 16 9b 92 bd 3c e8 c8 bd d9 55 6e 3d 0f 6f ca bc
       -0.071584865 -0.0980992 0.05818734 -0.02471116
000350 9a 10 25 be e3 51 54 3b 97 46 f0 3d 26 51 cb 3d
       -0.16119614 0.003239744 0.11732214 0.09927587
000360 23 00 eb bc 19 fd 0c be 52 b4 01 3d 11 e2 9c 3d
       -0.028686589 -0.13768424 0.031666107 0.07660306
000370 2e bc 10 be aa 67 2f be 24 84 a9 3d 0b 02 4b be
       -0.14134285 -0.17129388 0.08277157 -0.19824998
000380 01 c7 6b be c6 2c 24 be f5 64 b0 3d f8 28 70 be
       -0.23025133 -0.16032705 0.08613006 -0.23453128
000390 b8 26 86 be 31 64 28 be ce 16 fc bd e1 70 81 be
       -0.26201415 -0.1644447 -0.12309037 -0.25281432
0003a0 b3 d8 36 be 13 26 84 bd 5b d0 56 be 3a e3 06 be
       -0.17856102 -0.064525746 -0.20977919 -0.13172618
0003b0 be cd ba be a8 d0 48 3d 2d 31 45 be 1d 0b fa bd
       -0.36485094 0.049027115 -0.1925704 -0.12209151
0003c0 d9 27 0c be ba e0 b1 bd bb 1d 93 bc fe 60 c3 bd
       -0.13687076 -0.08685441 -0.017958513 -0.09539984
0003d0 11 7f aa 3b 81 e8 00 3e ca 16 27 be 10 3c 57 be
       0.005203136 0.12588693 -0.16317287 -0.21019006
0003e0 90 f6 ca 3d 54 84 5b be b1 95 11 be f9 57 6a be
       0.09910309 -0.21437198 -0.14217259 -0.22885121
0003f0 ac 3d c1 bd 1e 5d be be 2a 1d e6 bd db ea 94 be
       -0.09435591 -0.37180418 -0.11236031 -0.2908543

nns.0.0.bias f4 [32]
000000 0d 2b cd bd 73 52 f5 3e dc 16 97 39 8d e4 59 3d
       -0.10017977 0.47914466 0.00028817996 0.05319648
000010 cd 36 bd bd cc 64 1a bd 18 ae 82 3d 95 25 4b bd
       -0.09238968 -0.037693784 0.06380862 -0.049596388
000020 0a d3 83 3d 8b 55 9e 3d ee 76 f6 bc 7c 22 8d be
       0.06436737 0.0773116 -0.030086007 -0.27565372
000030 57 94 6a 3e f2 dc 12 be 7d 9e 4f 3d d8 4b c4 39
       0.2290815 -0.14342096 0.050688256 0.0003744054
000040 1c 91 fa 3b 4e 9d 2b bd 72 40 ca 3d 15 60 1b 3e
       0.007646693 -0.041898064 0.09875573 0.15173371
000050 ca 67 2f bf 1a 39 1c be f2 b2 73 3e 03 78 a0 bd
       -0.68517745 -0.15256158 0.23798731 -0.078353904
000060 a9 7f e0 3b b9 dd 9a bd cf 08 2b bd a0 07 dc bd
       0.006851156 -0.075618215 -0.041756447 -0.10743642
000070 10 4e 0d bd ef 3c 03 3e 79 83 c9 3e ff 6d a0 be
       -0.034498274 0.12816213 0.39358118 -0.3133392

nns.0.1.weight f4 [32]
000000 94 a8 1c 3f a4 29 ad 3f 98 d7 5f 3e c9 e9 66 3f
       0.6119473 1.3528333 0.21859586 0.9020048
000010 32 ca 5a 3f 1a 25 93 3f f5 bb 63 3f 74 5b 3d 3f
       0.85464776 1.1495697 0.88958675 0.7396767
000020 56 a5 74 3f af 01 0b 3f 06 ce 9b 3f 9a 27 3e 3f
       0.9556478 0.54299444 1.2172248 0.7427918
000030 d1 f0 49 3f c4 32 4f 3f 3e 68 6d 3f 02 ce 86 3f
       0.7888308 0.8093684 0.92737186 1.0531619
000040 db 0e 7e 3f e1 4a 65 3f f7 17 83 3f 2f 89 7d 3f
       0.9924142 0.8956738 1.0241688 0.9903745
000050 52 c1 f5 3f 7c 3b ab 3f 3b 92 76 3f d8 ce 29 3f
       1.9199622 1.3377528 0.9631688 0.66331244
000060 f5 1c 6c 3f ad 6e 18 3f 1e 63 57 3f 7a ad 91 3f
       0.92231685 0.5954388 0.84135616 1.1381066
000070 1d af 82 3f 39 34 48 3f 76 bd 81 3f 4a c1 85 3f
       1.020969 0.78204685 1.0135944 1.0449612

nns.0.1.bias f4 [32]
000000 05 06 95 be 29 fe 1e be 08 d2 d1 bd c2 34 69 be
       -0.29106155 -0.15526642 -0.102451384 -0.22774032
000010 d3 7c b0 be de 1f 05 bf de 52 3e be c5 a6 9c be
       -0.34470233 -0.5200175 -0.18586299 -0.30595985
000020 87 fb e7 be 0b 43 b4 3d 73 ea f5 3e 4f 04 72 be
       -0.45309088 0.0880185 0.48030433 -0.23634456
000030 0c c2 97 be b9 34 df be d6 c6 49 bd ae cd bf be
       -0.29640234 -0.43594912 -0.04926189 -0.3746161
000040 63 11 04 be 16 c7 55 be 88 f9 d7 be a4 ac 4f be
       -0.12897258 -0.20876727 -0.42182565 -0.20280701
000050 35 b4 59 be c7 fc 55 bf 8b 5a 55 3d 89 d5 a8 be
       -0.2126015 -0.8358883 0.0520883 -0.32975414
000060 65 58 de be 00 62 d6 3d 38 61 79 3e 7e 17 7d be
       -0.43426815 0.10467911 0.24353492 -0.24715993
000070 82 31 cf 3d f9 5d a7 be 64 79 49 bf 3b fc 01 bf
       0.10116865 -0.32688883 -0.7870085 -0.507755

nns.0.1.running_mean f4 [32]
000000 ff f7 27 be 6f 39 6a 3e 44 74 6a 3b 57 16 1d 3d
       -0.16403197 0.22873472 0.0035774866 0.038351383
000010 bb ce 51 be 13 23 ca bd 63 05 b3 3c c7 64 96 bd
       -0.20489018 -0.09869971 0.021853155 -0.073434405
000020 d8 03 3e 3c 7a 55 19 bc 01 5b 8f be 5e b9 a4 be
       0.011597596 -0.009358758 -0.27999118 -0.32172674
000030 ca 8f 4b 3e 00 fc 46 be a5 11 36 bc 77 57 d2 bc
       0.1987907 -0.19432068 -0.011112605 -0.025676472
000040 57 68 27 3d c1 22 d5 bd 55 d9 16 3d f4 62 ef 3d
       0.04087099 -0.104070194 0.036828358 0.11688796
000050 44 f7 8b bf 9d e9 44 be 26 95 b0 3e 5d 24 0f be
       -1.0934834 -0.19229741 0.3448879 -0.13978715
000060 41 2c 95 bd 9d 71 26 be c0 bf a0 bd e9 32 d9 bd
       -0.072838314 -0.16254278 -0.078490734 -0.106054135
000070 f2 74 b9 3d ee 05 aa 3d 21 11 d5 3e 9a 4e d7 be
       0.09055509 0.08301912 0.4161463 -0.42052156

nns.0.1.running_var f4 [32]
000000 2b 5e 44 3f d0 16 4f 3f 8b fb 20 3e 3b 0e b3 3d
       0.7670619 0.80894184 0.15720956 0.087429486
000010 b9 90 17 3f 67 13 a4 3d 13 44 71 3e 93 c0 7e 3d
       0.59205204 0.08011513 0.23561125 0.06219537
000020 76 47 27 3d 4b 46 cb 3f 24 a4 43 3f c1 3a 4f 3f
       0.040839635 1.5880827 0.76422334 0.80949026
000030 48 7a 46 3e fe 3a 2f 3d 86 23 8f 3e 3f c3 9e 3f
       0.19382584 0.04278087 0.2795679 1.2403334
000040 89 56 18 3f cf 7f 1e 3e 8a fa f9 3e 86 6a d8 3d
       0.5950704 0.15478443 0.4882396 0.10567193
000050 1e a3 0a 40 62 4e 13 3f db 02 f2 3e 0f 2c 8a 3f
       2.166206 0.5754148 0.47267804 1.0794696
000060 27 1c d8 3d 3e 8b 2e 3e 7b f6 a6 3e df 57 00 3f
       0.10552245 0.17045304 0.32609925 0.5013408
000070 28 e8 58 3e 45 e4 1b 3d a9 8a 02 3f 76 6e a6 3e
       0.2118231 0.03805949 0.5099283 0.3250615

nns.0.3.weight f4 [32, 32]
000000 0d c4 9d 3c b3 a5 39 be b9 3b 91 be 30 19 67 be
       0.019258523 -0.18129615 -0.28365877 -0.22568202
000010 52 d6 b0 3d 67 1c 85 bc e7 25 07 be 93 03 b9 bd
       0.08634628 -0.016248895 -0.13198052 -0.09033885
000020 d2 48 32 be f6 3b b9 3d 69 c5 16 bc 8d d0 fb bb
       -0.17410591 0.0904464 -0.00920234 -0.0076847733
000030 51 78 de 3d c3 18 65 3d 55 a3 c8 bd d3 f1 f3 be
       0.10862792 0.055931818 -0.09796778 -0.47645435
000040 1a 72 44 3c b1 7e af 3d 82 e6 00 bd 76 03 65 be
       0.011990095 0.08569086 -0.03146983 -0.22364601
000050 04 b7 21 3e e8 db 8b be fd da 4b be b6 ea 2c bd
       0.15792471 -0.27316213 -0.19907756 -0.042216025
000060 55 d0 5c be a7 70 bc 3c 42 12 07 3e 21 e7 9a 3b
       -0.21563847 0.023002936 0.13190559 0.0047272597
000070 a0 23 79 be 28 b6 3b bd 0e 75 ea be 70 f2 db bd
       -0.24329996 -0.045828015 -0.4579243 -0.10739601
000080 88 fa 5b bd db 46 f7 bd b5 c9 8e 3c 9c d5 41 bb
       -0.053705722 -0.120740615 0.017430166 -0.0029576784
000090 f6 f2 d3 bd 67 76 0b be 00 c3 bc 3d 0a c6 69 3d
       -0.103490755 -0.13619386 0.09216881 0.05707363
0000a0 c8 a0 19 bd 37 8b bf bd c9 07 0c bd ce d5 fc bc
       -0.03750685 -0.09352725 -0.034187112 -0.030863669
0000b0 32 1c ae bd da cd 12 3d fa 6d 60 3d 92 19 ad bd
       -0.085014716 0.035840847 0.05479238 -0.08452143
0000c0 db de 80 3c a3 8e fc 3d 61 84 94 bd f6 14 17 3c
       0.015731266 0.12331893 -0.07251812 0.009221306
0000d0 88 70 a9 3d ad 1b 2c be da 21 6b be 9a 34 6e be
       0.08273417 -0.16807432 -0.22962132 -0.23262253
0000e0 df 36 a9 3d c9 c4 f6 3d 82 f5 03 3d bd ab ee bb
       0.08262419 0.120492525 0.032216556 -0.0072836564
0000f0 87 fe 41 be 82 06 3a be 69 46 67 be 9c c0 3a be
       -0.1894475 -0.18166545 -0.22585453 -0.18237537
000100 e0 84 0e be 8e d4 e6 bd 3d 7a 0b be 65 ff b2 3b
       -0.13917875 -0.1127101 -0.13620849 0.0054625743
000110 65 6e 99 bd 40 c3 11 3d 9f 15 a0 3d ab 76 2f 3d
       -0.07491759 0.035586596 0.07816624 0.04283778
000120 11 a8 8e bc cd ae 15 3e 5d 51 e8 3d 8c 77 50 be
       -0.017414125 0.14617462 0.11343644 -0.20358104
000130 95 13 00 3e 6c 7e 86 bd 9e b9 9d bd 75 ac 58 be
       0.1250747 -0.06567082 -0.07701419 -0.21159537
000140 04 a3 08 3d 3d ca 3d 3d 5a fa ac bd 88 9b 91 3c
       0.03335859 0.046335448 -0.08446188 0.017774358
000150 cc c3 e7 bd 62 25 80 be fc 2f 5c be 79 df 02 bb
       -0.11316642 -0.2502852 -0.2150268 -0.0019969626
000160 1a 62 c9 bd 4c 60 aa bd 37 f6 4c be 12 9b c4 bd
       -0.098331645 -0.083191484 -0.20015799 -0.0959989
000170 4f c7 0b bd e7 cc 71 3d 92 2d c5 3c 8e 6b 57 be
       -0.034125622 0.0590333 0.024069581 -0.21037123
000180 45 73 e0 3b e2 b3 14 bb a6 ff 78 3e a1 df 14 be
       0.0068496787 -0.0022690226 0.24316272 -0.14538433
000190 27 62 59 3c c6 c6 28 bd 3e 49 06 bd b4 ad 65 3d
       0.01326803 -0.04120519 -0.032784693 0.05607386
0001a0 15 aa 41 be 59 d4 27 bd 39 f7 01 be 3a bb 78 be
       -0.18912537 -0.040973995 -0.12691964 -0.24290171
0001b0 52 d9 31 be b6 81 91 3d 1a 70 1e 3d 21 e4 26 3c
       -0.17368057 0.071048185 0.038681127 0.010186226
0001c0 94 38 c1 3d 34 a4 12 be 90 4b 67 3d 3f 4e b2 bd
       0.094346195 -0.14320451 0.056468546 -0.087063305
0001d0 98 c7 92 3d 92 ba 33 3d ab 96 25 be 94 c9 4c bd
       0.07166976 0.0438791 -0.16170757 -0.049996927
0001e0 26 bc 05 bd 82 f8 50 bd 07 9e e0 3d 3f 4c 09 be
       -0.032650135 -0.051018246 0.10967641 -0.13407992
0001f0 2f 7b 26 be c8 07 c8 bd 85 9b 25 be 63 86 b6 bd
       -0.16257928 -0.09767109 -0.16172607 -0.08912351
000200 03 2a e5 bd b0 99 07 be 5d 96 1d bd 2f fc 45 bc
       -0.11189654 -0.13242221 -0.038473476 -0.012084051
000210 91 f2 9e be 75 3a 0b be da cd 9f bd cc 88 3b 3e
       -0.31044438 -0.13596518 -0.07802935 0.18313903
000220 9d 32 47 bd b6 ff 01 bd 4f 38 ab 3d 8b ea 08 3e
       -0.048632253 -0.031738006 0.083603494 0.13370721
000230 25 d6 66 3d 74 e9 23 3d 7c 88 b0 bc 30 e7 d3 bd
       0.056356568 0.04001756 -0.021549456 -0.1034683
000240 5d da b4 3d df 60 94 3d 61 1f 0e be bf cb c5 bd
       0.08830712 0.07245039 -0.13879158 -0.09658002
000250 3d dd b7 bc 20 6b a6 be be e5 e1 be 57 00 6a be
       -0.022444362 -0.32503605 -0.44120592 -0.22851692
000260 20 20 7b be 13 00 e3 3c ed ce c6 3c 2f 72 bc 3b
       -0.24523973 0.027709996 0.024268592 0.0057509164
000270 34 54 bd be 21 ea 13 be 12 0e 82 bb 5f 64 11 be
       -0.36978304 -0.14444782 -0.0039689625 -0.14198445
000280 06 bd 91 bd 81 ae d5 bd 4d db 2d 3d 73 87 4f be
       -0.071161315 -0.104336746 0.04244547 -0.20266514
000290 6c 32 83 bd ad 11 34 be 98 bf b6 3d 4e 31 b3 3d
       -0.064061016 -0.17584868 0.08923262 0.087496385
0002a0 53 df b2 bd 15 9e 35 3d 41 fd 2b bd 28 04 86 bd
       -0.08734002 0.044340212 -0.04198957 -0.065437615
0002b0 d7 57 cb 3d 76 40 44 3b 10 37 d6 bb 58 72 3b 3e
       0.099288635 0.0029945648 -0.0065373257 0.18305337
0002c0 9a 10 14 be 44 1d 76 3d 64 e0 62 be 40 e1 bd 3d
       -0.14459458 0.060086504 -0.2215591 0.09271479
0002d0 c9 e0 99 3d b1 9f 79 be b1 f1 2c be 90 ab 6d be
       0.075135775 -0.24377324 -0.16889073 -0.23209977
0002e0 7c ae 09 be ed 6a 19 bc ae 87 e4 3d c8 fe 55 3d
       -0.13445467 -0.009363872 0.11158691 0.05224493
0002f0 70 cc 9e be 48 1c c2 3d e3 26 b7 be 2d 36 89 3d
       -0.31015348 0.094780505 -0.35771856 0.06699786
000300 1e 86 3e 3e 01 7f b0 3d ff f6 4e bd b2 15 04 bd
       0.18605849 0.08617974 -0.050528523 -0.032247253
000310 ca 9c 91 3e c4 cf 91 3e eb 47 55 3e 87 87 17 be
       0.28439933 0.28478825 0.20828216 -0.14797793
000320 ac 01 a1 3e 6a 8c ad 3e df d8 c3 3e 38 8b fa 3c
       0.31446588 0.3389619 0.38251397 0.030583963
000330 fe ed 2e bd 8f 70 09 be aa 3e 60 3d 42 8f 40 bf
       -0.042707436 -0.13421844 0.05474726 -0.75218594
000340 1e 2d 33 3e aa 53 e3 3d 83 4a 3e 3e 4d 08 08 be
       0.1749768 0.11099942 0.18583111 -0.13284416
000350 8d ba b6 3e 4a 3d a5 bd 6f 65 63 bd 69 fb 3e 3e
       0.35689202 -0.080683306 -0.055516656 0.18650593
000360 e6 6d 6f 3e 3c 5d e9 bd 06 f6 33 3e 5f 68 82 bd
       0.23381767 -0.11394736 0.17574319 -0.063675635
000370 59 fe 98 be 6d 26 d3 bc 9d 32 6e 3e 09 59 35 3d
       -0.29881552 -0.025775159 0.23261495 0.044274364
000380 00 04 40 3e 02 ab 3f 3e b3 12 80 be c9 f8 89 3c
       0.18751526 0.18717578 -0.25014266 0.016842263
000390 1c 24 92 be 20 c4 85 bd d4 52 55 bd 90 3b dd 3c
       -0.28543174 -0.065315485 -0.052080944 0.02700594
0003a0 7d 88 c2 bd 06 f4 d2 3d fb a9 63 be bf fb e9 bd
       -0.09498689 0.1030045 -0.22232811 -0.1142497
0003b0 92 cf 77 3c bd 1c 16 3e aa d1 b0 3d 44 da d9 bd
       0.015125172 0.146594 0.0863374 -0.10637334
0003c0 13 61 00 3e c3 32 27 3e 4f c3 2b be 3b ff db bd
       0.12537031 0.16327958 -0.16773723 -0.10742041
0003d0 55 a9 0f 3e c8 21 e0 be 76 66 d5 be d0 6d 97 3c
       0.14029439 -0.43775773 -0.41679734 0.01848498
0003e0 8a a0 41 be e0 51 85 be 4d b2 a2 3e da 16 ff bd
       -0.18908897 -0.26039028 0.31776658 -0.124555305
0003f0 45 2f 97 be 8b 19 29 be ad 6a 2e be 7b 92 75 be
       -0.2952825 -0.1651365 -0.17032881 -0.23981659

nns.0.3.bias f4 [32]
000000 a2 f0 a5 3e 8d 35 2b bb e8 0c ab bc 46 3e 2d bd
       0.3241015 -0.0026124448 -0.020880178 -0.042295717
000010 e7 4a 1c 3e dc 96 a4 3c c6 79 59 be b4 e1 5a 3e
       0.15262948 0.020091467 -0.21237859 0.21375161
000020 2e cd 2d 3e 68 cc 79 be 2e d2 cc bc 06 a3 a1 3d
       0.16972801 -0.24394381 -0.025002565 0.078924224
000030 35 fb 22 3e 05 89 97 bd c9 77 8e bd e1 0e 5d bc
       0.1591614 -0.07399181 -0.06956441 -0.013492317
000040 6e 35 a5 3e de e2 f9 3d d3 27 ef bd 87 3d ea 3e
       0.32267326 0.122014746 -0.11677518 0.45750067
000050 64 bd 6d bd 30 bd e4 bc fa 55 b3 3d c5 27 99 be
       -0.058041945 -0.027922243 0.08756633 -0.29913154
000060 68 4d 49 bd 91 df ec 3e 13 ff 6e 3e 73 40 a3 bd
       -0.049146086 0.46264318 0.2333949 -0.07971277
000070 c5 10 8e 3d d5 90 06 be a2 12 0d be a8 9a 2e bd
       0.06936792 -0.13141187 -0.13776639 -0.04262796

nns.0.4.weight f4 [32]
000000 ce c1 3b 3f 0e b0 61 3f 4e b6 3d 3f ad d6 6a 3f
       0.733426 0.88159263 0.741063 0.9173382
000010 a9 8d 11 3f b8 f9 35 3f aa 22 00 3f 4c e4 25 3f
       0.5685678 0.71084166 0.50052893 0.6480148
000020 ab 5c 02 3f 55 1a 6a 3e 3c 26 75 3f e8 18 29 3f
       0.5092265 0.22861607 0.95761466 0.6605363
000030 2b 31 32 3f ff 11 86 3f d1 aa 2b 3f ab 5a 5b 3f
       0.69606274 1.0474242 0.6705752 0.85685223
000040 95 02 4a 3f 77 dd 29 3f 3d d0 9a 3e 8a 2f 73 3f
       0.7891019 0.66353554 0.30236998 0.94994414
000050 1f 9f 62 3f 06 78 08 3f 23 39 54 3f fe db 82 3f
       0.8852405 0.5330814 0.82899684 1.0223386
000060 31 ab 19 3f 69 5a 5e 3f f8 66 cc bb 3d a5 82 3f
       0.6002684 0.86856705 -0.006237861 1.0206677
000070 bb b6 59 3f c4 79 3a 3f 41 60 18 3f a1 3f e6 3d
       0.8504445 0.7284205 0.5952187 0.11242605

nns.0.4.bias f4 [32]
000000 cf 73 b6 be 64 f7 8d be 1d 61 44 be 42 c3 b3 be
       -0.3563523 -0.27727807 -0.19177671 -0.35109907
000010 9c 3d 89 be 92 bc 8f be 87 de 2d bf 7d 2b 81 be
       -0.26804817 -0.28073555 -0.67917675 -0.2522849
000020 5b fc cd be 4e d6 61 bf 2c a2 e5 be 71 bf 1c be
       -0.40231594 -0.8821763 -0.4485029 -0.15307404
000030 e1 9c 9a be 87 f1 c2 be 56 56 e7 be 9c f4 a8 be
       -0.30197814 -0.38074896 -0.45183057 -0.32999122
000040 29 03 88 bd a5 f1 5b be c6 dd 16 bf d8 32 de be
       -0.06641228 -0.21478899 -0.5893215 -0.43398166
000050 80 34 f9 be bc 31 7d be 15 eb 82 be ba 3f c1 be
       -0.48672867 -0.24726003 -0.25569978 -0.37743932
000060 82 ae 3d be d4 fa 11 be c5 b0 0c bf 3d 90 b8 be
       -0.185236 -0.1425584 -0.5495723 -0.36047545
000070 15 42 20 bf fe 4a 6b be d4 4c 38 be fb bd 63 be
       -0.62600833 -0.22977826 -0.17998058 -0.2224044

nns.0.4.running_mean f4 [32]
000000 12 e4 72 3e e2 e0 c8 bd 5a 35 e4 bd db 44 22 be
       0.23719814 -0.09808518 -0.111429885 -0.15846579
000010 92 6e ba 3c 60 90 b6 bd 8c de f8 3d c3 b2 d8 3c
       0.022757802 -0.08914256 0.121518224 0.026452428
000020 32 20 02 3e 1d c5 63 be d0 f6 3e be 61 08 12 bc
       0.12707594 -0.22243161 -0.18648839 -0.0089131305
000030 62 9d c3 3d a2 68 3f be f5 dd 02 3e 8d 86 10 3c
       0.09551503 -0.18692258 0.12779982 0.008821142
000040 49 27 74 3f a5 0e bc 3d 34 3e 40 3f 8c d0 a5 3e
       0.95372444 0.09182481 0.75094914 0.3238567
000050 0c 50 59 be f7 60 f9 bd 85 0f be 3d b3 2d c0 be
       -0.21221942 -0.12176698 0.09280304 -0.37534866
000060 a1 4f 89 be 06 d9 bb 3e f4 a1 fd 3e 0e af 81 bd
       -0.26818565 0.36689013 0.49537623 -0.06332217
000070 7b a8 c1 bb 58 4d 39 be 71 03 01 be 56 db a3 bd
       -0.005909977 -0.1809591 -0.12598969 -0.080008194

nns.0.4.running_var f4 [32]
000000 4e dd 12 40 9e e7 16 3f 13 40 20 3f 9e 42 03 3e
       2.2947574 0.5894717 0.6259777 0.12818381
000010 9e b5 80 3f 21 24 14 3f 1e 94 1c 3f 96 ce 04 40
       1.0055425 0.5786763 0.6116351 2.075109
000020 78 e5 13 3f 1c 9c eb 3e 12 5a 25 3f 4c 7a 77 40
       0.57772017 0.4601754 0.6459056 3.8668394
000030 53 d7 7a 3f ba fa e7 3e fb f2 97 3f 6e 23 b1 3e
       0.9798481 0.45308477 1.1871027 0.34597343
000040 bf 2a 98 40 c1 03 d5 3f d6 e0 e4 40 09 f0 54 3f
       4.755218 1.6641771 7.152446 0.83178765
000050 1d 94 02 3f 4e 28 38 3f 99 da f4 3e 3d 8f 06 3f
       0.5100725 0.719365 0.47823027 0.52562314
000060 a4 7d 0c 40 eb 77 68 3f 92 83 03 40 e9 04 34 3e
       2.1951685 0.9080798 2.0549054 0.17579998
000070 5f 7b 00 3f 9c 16 01 40 09 af 1e 40 35 7e 12 40
       0.5018825 2.017005 2.4794333 2.288953

nns.1.0.weight f4 [32, 32]
000000 72 cf ad 3d dd 69 b2 3d 88 b4 4d bd ee 95 a3 bd
       0.08486833 0.08711598 -0.050220996 -0.07987581
000010 61 a4 2b be 9a bd 75 be f6 95 61 3e 66 66 e3 bc
       -0.16761924 -0.23998109 0.22029862 -0.027758788
000020 03 d9 50 be 03 73 86 3e e4 02 ae 3e e9 40 34 3c
       -0.20395283 0.26259622 0.3398658 0.011001804
000030 59 ca 8d bd df 48 3b 3d 18 0f 06 be 78 48 f5 3d
       -0.069233604 0.045723792 -0.13091695 0.11976713
000040 d9 b5 a7 3e e4 93 9a bd c3 8a f7 3e 1b 92 85 bc
       0.32755926 -0.07547739 0.48348054 -0.01630502
000050 1a fd 89 bd 8e 7d cf 3d c4 86 2c bd bc ac 8f 3d
       -0.067377284 0.101313695 -0.04212071 0.07015368
000060 2a 18 19 be b9 39 c3 bc 84 40 14 3e 23 55 2e 3e
       -0.14950624 -0.023831235 0.14477736 0.17024665
000070 f8 a5 0d 3e 6b 5b 12 bc 20 a8 80 3d d7 bb 92 bd
       0.13832843 -0.008932929 0.06282067 -0.07164734
000080 33 b3 82 bd ed 2d 54 3c 75 00 d1 3d b2 43 02 3e
       -0.06381836 0.012950403 0.10205165 0.12721136
000090 dd 19 d7 bd 08 c7 53 be f9 f6 99 bb 70 8f ff bd
       -0.1050298 -0.20681393 -0.004698631 -0.124785304
0000a0 94 d1 2d be 87 68 f0 be ba 33 88 be 1a c6 05 be
       -0.16974479 -0.46954748 -0.26601964 -0.13063851
0000b0 65 28 17 be f6 e5 b8 be 66 1e 72 be 9e 2f 28 be
       -0.14761503 -0.36112946 -0.23644409 -0.16424415
0000c0 b6 b1 63 3e 3d e1 45 bd ce dd 57 bf 3b 6c 55 be
       0.2223576 -0.048310507 -0.8432282 -0.20842068
0000d0 76 35 6d be 06 28 17 be 0c b8 9d 3e 6d d2 74 be
       -0.23164925 -0.14761361 0.3080448 -0.23908396
0000e0 0e bc 48 3e b9 cc 5a be 12 76 36 bf 2d 62 45 be
       0.19602987 -0.21367158 -0.7127391 -0.19275732
0000f0 fc 19 0c bf c5 7f 37 3d 78 f3 27 3e 82 0c 9a be
       -0.5472715 0.044799585 0.1640147 -0.30087668
000100 a4 82 4c bc c4 b7 b5 bd 0b 6f 69 3c 1f b1 0b 3e
       -0.012482319 -0.08872941 0.014247666 0.13641785
000110 f2 f6 96 be 1b 0b 8d be 73 09 53 be e2 87 12 be
       -0.2948528 -0.27547535 -0.20609073 -0.14309648
000120 4a e0 dd bd ba 03 a3 be 07 f6 90 3e a9 ba 42 3e
       -0.10833795 -0.3183878 0.28312704 0.19016518
000130 97 f2 ff bd e9 80 25 3e da b1 7f 3d 35 b9 82 3d
       -0.12497442 0.16162457 0.06242547 0.06382982
000140 38 25 c9 3e 51 b7 0f be 92 3c b8 be 3f cf 91 3c
       0.39286208 -0.14034773 -0.3598371 0.017799018
000150 17 d5 6c 3e e1 5b 2b 3e af 9c bb bd d7 cc 37 bd
       0.23128162 0.16734268 -0.091607444 -0.044873085
000160 ee 7b 91 3d b3 f6 b9 bd e8 c0 f2 bd 86 0b e0 bc
       0.07103716 -0.09080257 -0.118532 -0.027349245
000170 d7 ef 69 be 27 98 ee bc a1 98 3d be 99 eb 8d be
       -0.22845398 -0.029125286 -0.18515255 -0.2771881
000180 75 82 20 be ec fd bd 3c 20 7c 40 be 75 2e 3d be
       -0.15674765 0.023192368 -0.1879735 -0.18474753
000190 72 91 67 be 73 cc 25 be b1 cc b9 bc de 53 de bc
       -0.22614077 -0.16191272 -0.022680612 -0.0271396
0001a0 41 63 23 bc 4d d8 52 be c0 73 b0 3c c5 b1 3c be
       -0.009972394 -0.20590325 0.021539569 -0.18427189
0001b0 65 50 5b be 68 58 2b be f3 d0 07 be e7 5a d9 bc
       -0.21417387 -0.16732943 -0.13263302 -0.026532603
0001c0 dd af 3c be 01 8b 6c 3c 11 90 a1 bd 09 68 72 be
       -0.18426462 0.014437438 -0.078888066 -0.23672499
0001d0 f1 91 68 bd 74 77 39 bd 87 d1 63 bd f8 e6 72 3d
       -0.056779806 -0.045279935 -0.055619743 0.0593023
0001e0 21 63 75 be 89 b1 f4 bd 78 7a 80 bd 11 2e 20 be
       -0.23963596 -0.11947925 -0.06273359 -0.15642573
0001f0 a7 6b 7a be 87 3f ca 3d a5 91 50 3e c9 2f a0 be
       -0.24455129 0.09875398 0.20368059 -0.31286457
000200 1c 3f 29 3e ba d6 10 be a6 50 df 3b be 2a 59 3e
       0.1652798 -0.14144412 0.006815034 0.21207711
000210 ac 99 a3 bd 7a 29 ae bd 2e 70 66 be 1b 3c 81 be
       -0.07988295 -0.08504005 -0.2250373 -0.2524117
000220 00 40 9c bd 3f ac 1a bd 09 3c ff 3d d6 42 98 bd
       -0.076293945 -0.037761923 0.12462623 -0.07434623
000230 81 26 c6 bc bc 26 17 bd f9 91 92 3e d0 60 04 be
       -0.024188282 -0.036902174 0.28626993 -0.12927556
000240 67 02 06 bd 41 f7 5a 3e 5e 5b 17 3d 10 94 b7 3d
       -0.032717135 0.21383382 0.03695237 0.089637876
000250 4d 06 ff bd 57 c0 fc bd 10 4b af 3d 66 2c 01 3d
       -0.12452374 -0.123413734 0.08559239 0.031536482
000260 ef 7f b9 bd 8c b0 8b bc a1 29 0a bd 53 f1 a3 bd
       -0.090576045 -0.017051958 -0.033731107 -0.08005013
000270 46 4a 95 be ee dd ff bd d5 b3 e4 3e 80 5c 47 bf
       -0.2915823 -0.124935016 0.4466845 -0.7787552
000280 b0 fe 6a be 7c 25 94 3d ee e3 03 be 31 99 a3 bd
       -0.22948718 0.07233712 -0.12879917 -0.07988203
000290 0f 9e 84 3d 35 4c 1c be 18 b1 da 3c 71 94 73 be
       0.0647546 -0.15263446 0.026695773 -0.23787095
0002a0 eb af f3 3d 78 81 20 be 87 ac 80 3d ef 3d b2 bd
       0.11898788 -0.15674388 0.06282907 -0.08703219
0002b0 ae ec 0a be 42 4e f0 3c d6 82 fa bd 51 73 10 be
       -0.13566849 0.029334191 -0.12231986 -0.1410649
0002c0 5b 0c ce bd 71 05 dc bd 3a f8 0d be a0 17 b5 bd
       -0.1006095 -0.10743225 -0.13864222 -0.08842397
0002d0 7f 2e 7b bd 56 ee e1 3d cc ba e2 3d d4 c6 52 3d
       -0.06132364 0.11031787 0.11070785 0.05145915
0002e0 6c 3d 01 3e d3 e4 1d bd 6e fc 83 3b 69 c2 b5 bc
       0.12621087 -0.038548302 0.0040278947 -0.022187429
0002f0 47 c1 51 be d9 38 72 3d dd 19 77 3e fa 2c 92 be
       -0.20483886 0.059136245 0.2413096 -0.2854994
000300 d0 60 8d be 4d 96 f4 3c de 4d a6 bd 18 09 d4 3d
       -0.27612925 0.029856825 -0.08120321 0.10353297
000310 41 de 16 be e6 0c 4e be ea f0 59 bd a4 d3 ef bd
       -0.1473322 -0.20122108 -0.05320827 -0.11710289
000320 bb 30 73 bd 8a bb de be f2 b4 6f 3d ab f7 8e be
       -0.059372645 -0.43502456 0.058522172 -0.2792333
000330 31 cf e7 3c 30 30 4d be 82 c2 02 be 12 15 1a be
       0.028297039 -0.20037913 -0.12769511 -0.150471
000340 40 c4 02 3e 80 e5 04 bd 93 11 0f bf b0 02 27 be
       0.12770176 -0.03244543 -0.5588619 -0.16309619
000350 25 e8 56 be 3f be 58 bd 9c c5 30 be b9 ed 9a bd
       -0.20986994 -0.052915808 -0.17262882 -0.07564873
000360 94 7c b8 3c 3b bc 53 3d 68 18 1e 3d 0c b2 b1 bb
       0.022520341 0.051693182 0.038597494 -0.005422836
000370 c0 9b 95 be 8c 9c ab 3e 67 fd 76 3d b0 2d 05 be
       -0.2922039 0.33517873 0.060300257 -0.1300571
000380 ad 73 0d 3e 6f 5b 9b bd 4b 8f 20 3d fe 3f d7 bd
       0.13813658 -0.07585799 0.039199155 -0.105102524
000390 f9 47 e6 3b 65 f9 ad bd 79 36 bb 3d 28 65 02 be
       0.007027623 -0.08494834 0.09141249 -0.127339
0003a0 9a 4a 9e bd 65 5d e1 be f3 bf 47 3e ed de 91 bd
       -0.07729073 -0.44016567 0.19506817 -0.07122598
0003b0 a3 f5 f5 bd 80 35 3f bf a4 b9 56 bd cd 9e 1e be
       -0.12009742 -0.7469101 -0.052423134 -0.15490265
0003c0 78 38 0b bc 38 32 40 bd b2 8b 7f 3e 6e 2c 88 3d
       -0.00849735 -0.046922892 0.24955633 0.06649099
0003d0 d0 f5 4a bd 46 af 0d 3e 1f ca e7 bd b3 2e c5 3d
       -0.04955083 0.13836393 -0.113178484 0.09628048
0003e0 03 24 f8 3c b6 9c ab bc 06 3c 0a 3e 25 5f 37 3e
       0.03029061 -0.020948749 0.1349946 0.17907389
0003f0 7c ce 14 3e 83 bc 5b 3e ea e7 b9 3d 63 cb c8 bb
       0.14531893 0.2145863 0.09077437 -0.006127761

nns.1.0.bias f4 [32]
000000 80 50 3b 3e 0c ce 86 bb 04 c8 4d 3b 82 b7 a6 bd
       0.18292427 -0.004113918 0.0031399736 -0.0814047
000010 7c 2b 98 3c a9 0a 07 3e 33 19 4e bd 39 b8 a9 bd
       0.018575422 0.1318766 -0.050317 -0.08287091
000020 fc 89 36 be 34 78 8d 3e 88 6d 23 be 52 c2 bc bd
       -0.17826074 0.2763077 -0.15959752 -0.09216751
000030 ec 08 6f bc b6 2d a5 3d 41 d3 e5 3d 2c 98 41 3e
       -0.0145895295 0.08065359 0.11221934 0.18905705
000040 a4 79 d2 be 74 5e 6e 3e db e8 1e bd 37 63 08 3e
       -0.4110843 0.23278219 -0.038796287 0.13319097
000050 de d8 97 3e 52 e1 21 3e df a8 25 be da 63 69 bd
       0.29657644 0.15808609 -0.161777 -0.05697999
000060 e2 56 36 be ae 05 6d bc aa 68 9e be 19 4a c4 bd
       -0.1780658 -0.014466686 -0.30939227 -0.095844455
000070 94 0a 10 be af c1 5c be f9 be 1b bd 23 ec 9d 3e
       -0.14066535 -0.2155826 -0.038023923 0.3084422

nns.1.1.weight f4 [32]
000000 4b 17 91 3f 52 4e d4 3e 4a 28 5b 3f 48 04 56 3f
       1.1335233 0.41466004 0.8560835 0.8360028
000010 3e 93 96 3f b6 d1 6e 3f 45 22 22 3f 87 4f 7a 3f
       1.1763685 0.93288743 0.6333354 0.977776
000020 5e fa 69 3f af 57 88 3f f3 31 38 3f 96 a2 5d 3f
       0.91397655 1.0651759 0.71951216 0.8657621
000030 28 8a 85 3f 33 47 75 3f be cb 6b 3f 66 4e 6f 3f
       1.0432787 0.95811766 0.9210776 0.93479
000040 98 0f 78 3f 32 c4 7b 3f 55 e3 7a 3f c6 9a 6a 3f
       0.96898794 0.98346245 0.9800313 0.91642416
000050 f5 33 50 3f b3 0b 94 3f 6f 96 80 3f b5 b1 61 3f
       0.8132928 1.156607 1.0045909 0.88161784
000060 03 06 71 3f 7e 80 21 3e 69 70 82 3f d9 8d 6a 3f
       0.941498 0.15771672 1.0190555 0.9162269
000070 70 85 32 3f e5 69 7a 3f 0d 59 7c 3f 8a ae 73 3f
       0.6973486 0.9781783 0.9857338 0.951882
