result/experiment_07.13.2022_07.48.20/12/fold_2_state_dict.pt (torch, 59548 bytes, 92 tensors)

first_h.0.weight f4 [32, 3]
0.67117834 0.22581649 1.004553 0.41170976 0.41274485 0.78658265 0.14009556 -0.32844073
0.08474599 0.54040563 0.30567887 0.42196515 0.698278 0.4590945 0.7452523 0.37610433
0.042364143 0.5290035 0.71349216 0.16774191 -0.14474161 0.3313046 0.71616405 1.4374335
0.30318105 -0.7292009 -0.44877294 0.1746439 -0.08949705 0.42763948 1.2610266 -0.0628211
0.012419964 0.30388433 1.3906717 3.6207862 0.44087443 1.757695 2.160692 0.7791001
-0.1283327 0.30316865 0.38713458 0.57491326 3.5636873 0.36360654 0.3589974 -0.81036633
-0.76633716 -0.35962826 -0.2050035 0.3379361 0.045424044 -0.3955634 0.5813589 1.0176182
0.8453255 -0.060832478 0.7636818 0.19066997 -0.317519 -1.3066039 -1.5318114 0.82046384
0.002561804 -0.102481395 0.98006827 -0.049086023 -0.4393962 0.31772965 2.8030195 0.94612145
-0.40495327 2.377411 1.5126936 -0.36294532 0.06523272 0.2849164 0.30893642 0.7415368
-2.064612 0.3974071 -0.8537442 0.045813926 0.59806156 0.7343446 0.15126236 0.33640766
0.09980604 1.0097395 -0.40790448 -0.51192015 -0.3507748 0.07869966 0.37260914 0.5070643
00000000: 58d2 2b3f 703c 673e 3195 803f 9fcb d23e
00000010: 4b53 d33e 7b5d 493f 3675 0f3e 6229 a8be
00000020: 4e8f ad3d 0658 0a3f f181 9c3e d10b d83e
00000030: 59c2 323f 6f0e eb3e dbc8 3e3f bf90 c03e
00000040: 0686 2d3d c66c 073f 6ca7 363f 89c4 2b3e
00000050: 2537 14be c2a0 a93e 8756 373f d2fd b73f
00000060: 8c3a 9b3e e9ac 3abf 91c5 e5be dad5 323e
00000070: 3b4a b7bd 90f3 da3e 5269 a13f 59a8 80bd
00000080: 1b7d 4b3c ba96 9b3e 8801 b23f f6ba 6740
00000090: 4bba e13e 26fc e03f c748 0a40 1b73 473f
000000a0: a669 03be ec38 9b3e 8136 c63e 842d 133f
000000b0: 7413 6440 a32a ba3e 82ce b73e 2b74 4fbf
000000c0: ac2e 44bf 3221 b8be 70ec 51be f605 ad3e
000000d0: 900e 3a3d 4987 cabe f0d3 143f 5041 823f
000000e0: 4167 583f 7a2b 79bd a780 433f fd3e 433e
000000f0: da91 a2be cc3e a7bf 6512 c4bf eb09 523f
00000100: f0e3 273b c4e1 d1bd c1e5 7a3f 6d0e 49bd
00000110: 8af8 e0be 76ad a23e ac64 3340 0435 723f
00000120: 0956 cfbe 8027 1840 f29f c13f f8d3 b9be
00000130: bb98 853d 90e0 913e ea2c 9e3e 5bd5 3d3f
00000140: 9a22 04c0 f278 cb3e fb8e 5abf 62a7 3b3d
00000150: 901a 193f 02fe 3b3f 85e4 1a3e a03d ac3e
00000160: 1c67 cc3d 253f 813f dbd8 d0be 330d 03bf
00000170: c198 b3be 4a2d a13d a0c6 be3e f7ce 013f

first_h.0.bias f4 [32]
0.4747034 -0.31403482 0.37595764 0.37556687 0.23175268 0.5475873 0.045941677 -0.069404006
-0.32651663 -0.12852158 0.20516449 -0.40770522 0.119260915 -0.15594321 -0.46263447 -0.07058684
-0.22211315 0.5153645 -0.2769461 0.5638926 0.33222428 0.5654989 -0.002245196 -0.018879538
-0.49083236 0.22346427 0.37364408 -0.053354386 -0.01838523 -0.040924534 0.30034676 -0.3342287
00000000: 530c f33e 2cc9 a0be 857d c03e 4d4a c03e
00000010: 9350 6d3e ae2e 0c3f 572d 3c3d b023 8ebd
00000020: 302d a7be 299b 03be a416 523e bdbe d0be
00000030: 113f f43d 94af 1fbe 6dde ecbe d58f 90bd
00000040: a171 63be eeee 033f e1cb 8dbe 445b 103f
00000050: 4d19 aa3e 89c4 103f 2324 13bb 43a9 9abc
00000060: 614e fbbe d1d3 643e 474e bf3e 218a 5abd
00000070: 9f9c 96bc 7ca0 27bd 0dc7 993e 0620 abbe

first_h.1.weight f4 [32]
0.63588786 0.0038992106 -0.10617955 -0.09033574 0.58494014 0.58551145 -0.11063792 -0.80874527
-0.022782821 -0.090159394 0.0017590931 5.944324 0.9331892 -0.07884443 5.9396415 0.09865552
0.12857854 -0.14748466 1.0974033 0.065084904 0.41208854 0.86204535 0.89242005 -0.0026577646
0.30137065 0.9039741 0.2588869 2.7892761 -0.14381668 1.433239 0.9984934 -0.08582323
00000000: 8cc9 223f e689 7f3b aa74 d9bd f201 b9bd
00000010: a3be 153f 14e4 153f 2296 e2bd ee09 4fbf
00000020: 0aa3 babc 7da5 b8bd 5f91 e63a e737 be40
00000030: 7de5 6e3f 3079 a1bd 8b11 be40 e80b ca3d
00000040: 18aa 033e 3806 17be b677 8c3f 3c4b 853d
00000050: 45fd d23e 01af 5c3f a475 643f e42d 2ebb
00000060: 414d 9a3e d96a 673f d38c 843e 8083 3240
00000070: ae44 13be 6074 b73f 439d 7f3f 17c4 afbd

first_h.1.bias f4 [32]
-2.5695806 -0.48005262 -0.6892122 -0.3252571 -2.3344693 -2.256402 -0.74018043 1.5926535
-0.9780559 -0.4309299 0.36263818 -0.34162128 -2.8146598 -0.22541626 -0.35731214 0.21707803
-0.19130473 -0.51385504 -0.06566211 -0.6128745 -0.727801 -1.655611 -1.4165289 0.49081042
1.127225 -0.41374528 1.4613508 -0.16714929 -0.22201376 -0.639619 -0.71409726 -0.13821054
00000000: 0274 24c0 75c9 f5be 3670 30bf 1988 a6be
00000010: f267 15c0 e468 10c0 777c 3dbf 12dc cb3f
00000020: df61 7abf d8a2 dcbe b6ab b93e fce8 aebe
00000030: 6323 34c0 85d3 66be 9ef1 b6be b449 5e3e
00000040: 63e5 43be 018c 03bf db79 86bd 58e5 1cbf
00000050: 2b51 3abf 10eb d3bf d250 b5bf 814b fb3e
00000060: e948 903f 6cd6 d3be 8b0d bb3f 2f29 2bbe
00000070: 9357 63be 12be 23bf 14cf 36bf 1087 0dbe

first_h.1.running_mean f4 [32]
515898.6 316719.03 107766.31 415714.4 537006.5 289398.22 548853.8 255173.08
233209.77 134347.88 970043.8 233525.69 338484.38 599323.9 297822.16 279553.62
-589510.3 259954.27 447113.75 -46785.145 -244279.28 631025.25 753857.0 244451.16
-311620.53 -279219.9 237705.05 305545.44 460067.47 258768.23 -313774.44 60548.074
00000000: 53e7 fb48 e1a5 9a48 287b d247 4dfc ca48
00000010: e81a 0349 c74e 8d48 5dff 0549 4531 7948
00000020: 71be 6348 f832 0348 bdd3 6c49 6c0d 6448
00000030: 8c46 a548 be51 1249 c56b 9148 3480 8848
00000040: 65ec 0fc9 91dc 7d48 3851 da48 25c1 36c7
00000050: d28d 6ec8 140f 1a49 100c 3849 cab8 6e48
00000060: 9128 98c8 7d56 88c8 4322 6848 2e31 9548
00000070: 6fa4 e048 0fb4 7c48 ce35 99c8 1384 6c47

first_h.1.running_var f4 [32]
5.5525727e+12 2.0931189e+12 2.4235963e+11 3.60621e+12 6.0174694e+12 1.7477568e+12 6.2862215e+12 1.3577284e+12
1.1350509e+12 3.76633e+11 1.9636307e+13 1.137638e+12 2.3895246e+12 7.49545e+12 1.8504458e+12 1.6308063e+12
7.251887e+12 1.4101998e+12 4.1704772e+12 4.5696393e+10 1.2449474e+12 8.3081413e+12 1.1858263e+13 1.2465998e+12
2.0269702e+12 1.6269731e+12 1.179177e+12 1.9483803e+12 4.416754e+12 1.3972101e+12 2.0544195e+12 7.64817e+10
00000000: e499 a154 ceab f353 0ab7 6152 b7e8 5154
00000010: a421 af54 3677 cb53 00f4 b654 760f 9e53
00000020: 2723 8453 2762 af52 79df 8e55 4170 8453
00000030: b116 0b54 7425 da54 956b d753 d1d9 bd53
00000040: c50e d354 3b2b a453 f4c0 7254 7a3b 2a51
00000050: 53ee 9053 7acc f154 798f 2c55 921f 9153
00000060: 6bf8 eb53 9467 bd53 3746 8953 42d2 e253
00000070: 628b 8054 1ba8 a253 792a ef53 5175 8e51

first_h.3.weight f4 [32, 32]
0.04603945 0.08326396 0.1384071 0.21709053 -0.09933095 0.0913483 0.10232822 -0.009415867
0.031159794 0.010255857 -0.076503865 -0.090583846 0.054341253 0.1675938 0.2253609 0.09004475
-0.05473735 0.00918289 0.08615681 0.10602794 0.09264806 -0.01398917 0.0944338 0.22449167
-0.045550022 -0.0042220885 -0.04484836 -0.038572818 0.2242273 0.13075066 0.03364374 0.043367878
0.14508429 0.05893583 0.05788756 0.13009773 -0.024885446 0.08049385 -0.0367811 0.00519296
-0.060744237 0.10433164 -0.004170762 0.018969981 -0.018001309 0.020041697 -0.08272385 0.15412453
0.23937403 -0.029461803 -0.14641134 0.092300035 0.2193104 0.17330955 -0.10507108 0.23017739
0.04565989 -0.08230302 0.08176179 -0.04967086 0.08629647 -0.008352532 -0.13153629 -0.10741468
1.6909268 0.27969518 -0.01961113 0.40616015 1.5445404 0.87343746 -0.4605735 -0.43961024
-0.046066526 0.26114276 0.36299095 -2.1360672 0.5588694 0.54441756 -2.220417 -0.15639167
-0.4240729 0.10161775 0.6027382 0.27822942 0.33887714 -0.28715992 -0.76689243 0.7337389
1.0612192 0.61148083 0.7436871 0.83845073 0.03964794 0.3185963 0.4457889 0.10683927
0.2233645 -0.07185398 -0.03185416 0.10644948 0.07875997 0.1446846 0.028428888 0.20715566
0.11708687 0.089856975 -0.021704711 0.5953759 0.061244562 0.06448225 0.31951582 0.044107694
0.23578313 0.24572034 -0.08668533 0.07084715 0.028077688 -0.051450647 0.057845213 0.06255549
0.017477026 0.094496466 -0.039857637 0.09797237 0.11837904 0.24546987 0.2566986 -0.1294543
-0.25229508 -0.14332922 -0.18868951 -0.36521626 -0.39884746 -0.11157451 -0.3131751 -0.28535226
-0.2695564 -0.27199435 -0.35406014 -0.1962566 -0.51217854 -0.011710597 -0.18357314 -0.40316582
-0.49927354 -0.27481666 -0.4785861 -0.20140605 -0.3947663 -0.53581476 -0.19250128 -0.16593233
-0.26193735 -0.18433294 -0.3115484 -0.3911311 -0.1956328 -0.212938 -0.6683844 -0.1711035
-0.8648008 -0.54765683 -0.25204432 -0.048999086 -0.9005746 -0.8033425 -0.12223763 0.29962102
-0.36370283 -0.55096626 0.54658276 -1.700671 -1.1836731 -0.46166337 -1.7096157 0.36264405
0.41209668 -0.056411285 -0.03554583 0.03007577 0.12323985 -0.5748584 -0.9288026 0.19846435
1.1487632 -0.93738633 -1.3742932 -1.5582631 0.043416638 -1.2354909 -0.9577106 -0.13180703
-0.5829968 -0.4381231 -0.64614844 -0.3433148 -0.6580459 -0.92513025 0.03029339 -1.2004185
-0.12218494 -0.411686 -0.36001137 -0.3726294 -1.725214 0.1602455 -0.5369087 0.21659051
-0.27874386 -0.69506437 -1.8754835 0.20494765 -0.7630508 -2.2010877 -2.6067865 -0.39593062
0.557519 -0.041929446 -1.1840949 -1.5382152 -0.37848008 -0.24653186 -0.2278369 -0.2781433
-0.6339517 -0.37550265 -0.16870762 -0.23780984 -0.5553516 -0.36534232 0.102466926 -0.50791895
-0.27988178 -0.094515145 -0.22045848 0.0044454047 -0.16028012 -0.6070618 -0.0076110563 -0.4218217
-0.06576544 0.06514679 -0.59825814 -0.02972871 -0.4888302 -0.7471997 -0.59601235 -0.42163876
-0.43139565 -0.3449725 0.044511065 -0.65758187 -0.014797927 -0.42779985 -0.41860303 -0.18770325
00000000: dd93 3c3d 4c86 aa3d 97ba 0d3e fb4c 5e3e
00000010: 066e cbbd d114 bb3d 7591 d13d 0245 1abc
00000020: d342 ff3c 2f08 283c 0fae 9cbd 0684 b9bd
00000030: ef94 5e3d b69d 2b3e 02c5 663e 6269 b83d
00000040: 4634 60bd d573 163c fb72 b03d 2d25 d93d
00000050: 44be bd3d d532 65bc 8266 c13d 25e1 653e
00000060: a992 3abd 7259 8abb eab2 37bd 88fe 1dbd
00000070: d79b 653e 80e3 053e 05ce 093d 84a2 313d
00000080: fa90 143e b266 713d 821b 6d3d 5738 053e
00000090: 90dc cbbc f6d9 a43d c7a7 16bd b529 aa3b
000000a0: f3ce 78bd d4ab d53d e3aa 88bb ef66 9b3c
000000b0: 7b77 93bc 7c2e a43c 1f6b a9bd d2d2 1d3e
000000c0: 771e 753e e159 f1bc dbec 15be cd07 bd3d
000000d0: e892 603e 0f78 313e 822f d7bd 9fb3 6b3e
000000e0: dd05 3b3d 7c8e a8bd ba72 a73d ac73 4bbd
000000f0: 34bc b03d 0fd9 08bc 73b1 06be 3afc dbbd
00000100: 4a70 d83f 3534 8f3e 85a7 a0bc 39f4 cf3e
00000110: 80b3 c53f 9999 5f3f 4ad0 ebbe 9814 e1be
00000120: 41b0 3cbd 81b4 853e f3d9 b93e 53b5 08c0
00000130: 1112 0f3f f35e 0b3f 501b 0ec0 2325 20be
00000140: 1520 d9be f81c d03d 0d4d 1a3f 1674 8e3e
00000150: 4e81 ad3e a006 93be 1053 44bf 50d6 3b3f
00000160: 08d6 873f 028a 1c3f 4762 3e3f b5a4 563f
00000170: e165 223d 0e1f a33e 713e e43e 8cce da3d
00000180: aab9 643e 2e28 93bd 8279 02bd 2f02 da3d
00000190: e84c a13d 3328 143e b3e3 e83c 9d20 543e
000001a0: 3ecb ef3d ef06 b83d 14ce b1bc 8e6a 183f
000001b0: 94db 7a3d 450f 843d 9497 a33e 45aa 343d
000001c0: 2271 713e 1d9e 7b3e 1488 b1bd 5018 913d
000001d0: 2e03 e63c eabd 52bd 1aef 6c3d 181d 803d
000001e0: fb2b 8f3c 5d87 c13d c341 23bd bda5 c83d
000001f0: b670 f23d 745c 7b3e 006e 833e ab8f 04be
00000200: d22c 81be e5c4 12be d337 41be a0fd babe
00000210: bc35 ccbe 2d81 e4bd 7d58 a0be b119 92be
00000220: 4c03 8abe d842 8bbe 5f47 b5be 7df7 48be
00000230: 221e 03bf cedd 3fbc 99fa 3bbe c06b cebe
00000240: c8a0 ffbe c5b4 8cbe 3d09 f5be 633d 4ebe
00000250: cf1e cabe 282b 09bf 0e1f 45be 2aea 29be
00000260: a71c 86be c6c1 3cbe 4683 9fbe 5642 c8be
00000270: f753 48be 6b0c 5abe 3d1b 2bbf c235 2fbe
00000280: 9663 5dbf 3d33 0cbf f40b 81be 44b3 48bd
00000290: 0f8c 66bf dba7 4dbf b957 fabd ed67 993e
000002a0: 4237 babe 200c 0dbf d9ec 0b3f 96af d9bf
000002b0: 9a82 97bf 245f ecbe b0d4 dabf 7bac b93e
000002c0: 56fe d23e 850f 67bd 8198 11bd 7661 f63c
000002d0: 2d65 fc3d ec29 13bf 02c6 6dbf 3d3a 4b3e
000002e0: ac0a 933f 8df8 6fbf d7e8 afbf 2a75 c7bf
000002f0: a5d5 313d 9124 9ebf 862c 75bf 6cf8 06be
00000300: 473f 15bf ac51 e0be fc69 25bf f5c6 afbe
00000310: b275 28bf 56d5 6cbf d829 f83c 50a7 99bf
00000320: 193c fabd 82c8 d2be 6953 b8be 48c9 bebe
00000330: d0d3 dcbf 6517 243e d972 09bf e7c9 5d3e
00000340: 84b7 8ebe bdef 31bf d80f f0bf ccdd 513e
00000350: 4c57 43bf 9fde 0cc0 97d5 26c0 6bb7 cabe
00000360: 91b9 0e3f 36be 2bbd 6c90 97bf 3ce4 c4bf
00000370: 24c8 c1be d972 7cbe 144e 69be cc68 8ebe
00000380: a94a 22bf e241 c0be b1c1 2cbe 6c84 73be
00000390: 862b 0ebf 260e bbbe 2eda d13d fa06 02bf
000003a0: aa4c 8fbe 2891 c1bd debf 61be c2aa 913b
000003b0: 7920 24be 6768 1bbf 2b66 f9bb 04f9 d7be
000003c0: 08b0 86bd ae6b 853d 7227 19bf a089 f3bc
000003d0: f447 fabe 7b48 3fbf 4494 18bf 09e1 d7be
000003e0: e4df dcbe 3ca0 b0be 3c51 363d 4957 28bf
000003f0: 0173 72bc 9508 dbbe 2353 d6be 4835 40be

first_h.3.bias f4 [32]
0.115631714 -0.09664005 0.12882496 0.16627584 0.25317904 0.06966991 0.7835714 0.21625936
-0.19915123 0.20835158 0.01763247 -0.5362633 -0.004011306 0.10182158 0.097629696 0.055806242
-0.48733217 0.4160747 -0.19609177 -0.17264965 -0.24976063 -0.2359687 0.07570814 -0.17755473
0.12949468 -0.19074565 0.07649474 0.031628795 0.36399454 -0.04842402 -0.026598617 0.03869759
00000000: 52d0 ec3d 38eb c5bd b1ea 033e 3744 2a3e
00000010: afa0 813e 19af 8e3d 2398 483f 1873 5d3e
00000020: 4dee 4bbe 1e5a 553e f871 903c 8d48 09bf
00000030: 4671 83bb d587 d03d 14f2 c73d 1695 643d
00000040: 9a83 f9be be07 d53e 48cc 48be 12cb 30be
00000050: 40c1 7fbe c7a1 71be df0c 9b3d e8d0 35be
00000060: 419a 043e d452 43be 46a9 9c3d 328d 013d
00000070: 7e5d ba3e 4458 46bd 58e5 d9bc 5d81 1e3d

first_h.4.weight f4 [32]
0.006487272 0.0052093524 0.73680025 0.01516483 0.31437215 0.38303176 0.30263767 -0.012300549
0.083122745 0.040531166 0.49881518 1.8700693 -0.042886656 -0.024334274 -0.01712335 -0.15147497
0.111925736 1.0925497 0.25055578 0.1316454 0.11097706 0.14940582 0.24191067 0.0010453059
0.31424895 0.57156986 0.07135137 0.16906437 0.3693342 0.008199942 -0.008247721 0.45014858
00000000: 2f93 d43b 37b3 aa3b f19e 3c3f e875 783c
00000010: 63f5 a03e bd1c c43e 53f3 9a3e 3e88 49bc
00000020: 423c aa3d 0204 263d b464 ff3e 6e5e ef3f
00000030: eba9 2fbd ac58 c7bc 4546 8cbc 411c 1bbe
00000040: 5239 e53d abd8 8b3f d948 803e 0dce 063e
00000050: f147 e33d d7fd 183e 6eb7 773e a502 893a
00000060: 3de5 a03e 6752 123f ab20 923d 361f 2d3e
00000070: 5f19 bd3e 0d59 063c 7321 07bc e079 e63e

first_h.4.bias f4 [32]
-0.3448028 -0.43143338 -0.4432989 -1.3203037 -0.6375582 -0.80616665 0.72453123 -0.73192126
-0.26378027 -0.35057256 -0.56975675 -0.5757731 -0.34881827 -0.785059 -0.39858583 -0.2656968
-0.98290086 0.04808016 -0.5751877 -1.2195075 -0.49755776 -0.34204397 -0.8922296 -0.51568377
-0.54831004 -0.7985759 -0.45764327 -0.6487359 -0.8027113 -0.59535205 -0.7658124 -0.48369685
00000000: fe89 b0be d6e4 dcbe 13f8 e2be b6ff a8bf
00000010: 0437 23bf f060 4ebf e17a 393f 315f 3bbf
00000020: 350e 87be 3f7e b3be 94db 11bf de65 13bf
00000030: 4f98 b2be a0f9 48bf 7113 ccbe 6909 88be
00000040: 649f 7bbf b4ef 443d 803f 13bf d218 9cbf
00000050: e4bf febe 6320 afbe 2969 64bf da03 04bf
00000060: 0c5e 0cbf 786f 4cbf 3850 eabe 8e13 26bf
00000070: 7d7e 4dbf fe68 18bf 480c 44bf 1da7 f7be

first_h.4.running_mean f4 [32]
0.30365235 0.081366956 -2.854259 1.8276968 -2.2850838 -5.782902 -5.7999053 -2.2492077
-5.482617 -2.7276213 -3.41139 19.23636 1.3763365 0.8229531 1.5946522 1.1844685
-5.5367346 -8.248061 -4.63332 -1.2156172 -3.9678953 -1.8487942 -1.7131568 0.35489035
-3.2023344 -5.4625864 -1.812307 -1.5618407 -5.6375213 -1.6531074 -0.05059418 -0.71148705
00000000: 5278 9b3e b8a3 a63d 2eac 36c0 f8f1 e93f
00000010: d03e 12c0 880d b9c0 d398 b9c0 05f3 0fc0
00000020: 9971 afc0 5991 2ec0 3754 5ac0 11e4 9941
00000030: cb2b b03f 0ead 523f 901d cc3f aa9c 973f
00000040: ee2c b1c0 0ff8 03c1 2844 94c0 5899 9bbf
00000050: fff1 7dc0 4aa5 ecbf b948 dbbf 30b4 b53e
00000060: 0cf3 4cc0 82cd aec0 adf9 e7bf 65ea c7bf
00000070: 9366 b4c0 0699 d3bf d83b 4fbd 0424 36bf

first_h.4.running_var f4 [32]
0.9275426 0.31517175 413.43588 30.031366 19.92007 699.57983 213.499 13.119185
13.0260725 198.83858 139.23283 8600.902 22.653557 0.016141595 1.0991414 8.21648
25.03237 2003.8677 16.44554 14.938556 213.8998 1.8755133 37.735264 2.5063424
25.07656 228.55244 8.043971 40.56491 514.24335 13.193163 2.239034 1.23732
00000000: 6f73 6d3f 315e a13e cbb7 ce43 3d40 f041
00000010: 4e5c 9f41 1ce5 2e44 be7f 5543 2fe8 5141
00000020: cb6a 5041 add6 4643 9b3b 0b43 9c63 0646
00000030: 7c3a b541 613b 843c aab0 8c3f b476 0341
00000040: 4b42 c841 c47b fa44 7790 8341 5304 6f41
00000050: 59e6 5543 d210 f03f e9f0 1642 ea67 2040
00000060: cb9c c841 6d8d 6443 1bb4 0041 7842 2242
00000070: 938f 0044 3217 5341 554c 0f40 8060 9e3f

nns.0.0.weight f4 [32, 32]
-0.07076295 -0.06321115 0.84753734 -0.097075135 -0.07200042 -0.00742651 1.4686718 0.33787137
0.34608692 0.64294195 0.0072819195 -1.2726887 0.24680524 -0.06600819 -0.007020993 -0.024211824
0.53475493 1.344137 0.17529233 0.52701867 0.024067385 0.07791948 0.038559914 0.0011253039
0.06711331 0.48608023 0.05015003 0.68160576 0.17696595 0.0003336477 -0.037022345 0.3208019
-0.023491656 -0.052449413 -0.23307595 -0.0969372 -0.24638014 0.84217274 -5.791809 -0.28218138
-1.3514812 -0.6506806 -0.89443433 -0.51165646 -0.36143744 -0.19168638 -0.18774392 -0.13489015
-0.78800666 -0.5602321 -0.7442472 -0.085346766 0.006252424 -0.35393798 -0.6862916 -0.34117138
0.1659299 0.26690108 -0.09529675 -0.3130029 0.6698146 0.08812279 0.005368297 0.10765608
0.11980087 0.20222044 -0.79179424 0.018137204 0.03162045 -0.082688116 -0.17990541 -0.009613524
0.08043306 0.14291653 0.0876041 -1.0149217 -0.81848586 0.10204746 -0.01782155 -0.4780399
0.40149993 -0.03423848 -0.07803425 -0.15073714 0.25360352 -0.08435799 -0.13839048 -0.9612243
0.28888837 0.08768715 0.27612823 0.20136906 0.24783038 0.2520509 0.20146312 0.13533331
-0.033856954 -0.07105155 -1.7076545 -0.20176165 0.39173648 -0.63544804 -2.437911 0.2337566
-0.74534416 -0.44218612 -0.78917664 -0.4502525 -0.5332552 -0.10740112 -0.072288856 -1.2871354
-0.1721379 0.18301591 -0.42378917 -0.032857478 0.019400667 -0.25277138 0.3227502 -0.8240576
-1.0820473 -0.84092325 -0.1148423 -0.346463 0.06174147 0.12580732 -0.24415801 0.037337873
-0.13047369 -0.14787604 -0.90221554 -0.2904257 -0.05477973 -0.2064716 -0.73570204 -0.30056334
-0.34811625 0.024553513 -0.08430178 -1.1070871 -0.661283 -0.10006237 -0.008027123 -0.2797098
0.7921665 0.14351638 0.2538425 -0.20143019 0.19944833 0.069199994 -0.1780145 -0.7428422
0.3216677 0.3856951 -0.15802023 -0.072597794 0.38012698 0.047000926 -0.24683987 -0.27858946
-0.06490524 -0.12574245 1.2027395 -0.018747574 0.33221015 -0.19715735 -0.5371081 -0.39087772
-0.1811683 0.34056818 -0.4427455 -3.41003 -0.06455567 -0.055122774 0.01402222 0.102380686
-0.26210213 0.88997805 0.053320467 0.52509356 -0.04086106 -0.09347584 -0.337359 0.3839004
-0.46047962 0.48266697 0.2826727 0.068414286 -0.0038899484 -0.13689302 0.040218756 0.010585089
-0.039848216 -0.21139619 -0.34778798 -0.26186195 -0.05692851 0.6545086 -3.4205213 -0.32551742
-0.4920214 -0.5717184 -1.2726276 -0.29287645 -0.31607088 -0.08939688 -0.060900245 -0.42512688
-0.6624888 -1.3227831 -0.20825279 0.23083842 -0.3710974 -0.17515448 -0.083247736 -0.1460714
-0.12941825 -0.50075835 0.015070127 -0.18480407 -0.41146147 -0.13360882 0.032353155 -0.0960229
0.073309615 -0.051539626 -0.33561066 0.04891346 -0.41171503 0.63901883 -2.5367274 -0.2784771
-0.46504635 0.10171877 -1.0714403 0.11801428 -0.50659657 0.25333768 0.06585866 0.18005186
-0.46118316 -0.8393098 -0.1402939 0.074444205 -0.19780998 -0.034949567 -0.2277377 -0.2690388
0.23344268 -0.87207866 0.133659 -0.019646317 -0.39564577 -0.15851411 0.0416241 0.21306862
00000000: 2aec 90bd d974 81bd 35f8 583f 54cf c6bd
00000010: f574 93bd 155a f3bb 70fd bb3f 7afd ac3e
00000020: 4e32 b13e d897 243f 2b9d ee3b 77e7 a2bf
00000030: 83ba 7c3e 4d2f 87bd 5c10 e6bb e057 c6bc
00000040: b3e5 083f ae0c ac3f d57f 333e b2ea 063f
00000050: f728 c53c 4094 9f3d 00f1 1d3d ef7e 933a
00000060: b472 893d 82df f83e 1e6a 4d3d b77d 2e3f
00000070: 9036 353e 70ed ae39 bea4 17bd 2640 a43e
00000080: 9371 c0bc 32d5 56bd 76ab 6ebe 0387 c6bd
00000090: 134b 7cbe a298 573f 8056 b9c0 147a 90be
000000a0: 56fd acbf 0193 26bf a6f9 64bf ebfb 02bf
000000b0: 540e b9be 6f49 44be f13f 40be a520 0abe
000000c0: ceba 49bf 5f6b 0fbf fc86 3ebf 49ca aebd
000000d0: 22e1 cc3b 5c37 b5be ceb0 2fbf 04ae aebe
000000e0: 87e9 293e 42a7 883e f12a c3bd eb41 a0be
000000f0: f878 2b3f b979 b43d 8ae8 af3b ca7a dc3d
00000100: 295a f53d e012 4f3e 07b3 4abf 7994 943c
00000110: 7284 013d 6358 a9bd 2039 38be 0b82 1dbc
00000120: 17ba a43d b658 123e c769 b33d f4e8 81bf
00000130: 4a88 51bf 42fe d03d 80fe 91bc a5c1 f4be
00000140: 6691 cd3e a63d 0cbd 6cd0 9fbd d65a 1abe
00000150: 52d8 813e e2c3 acbd 3cb6 0dbe cc12 76bf
00000160: 2de9 933e 5295 b33d ae60 8d3e b133 4e3e
00000170: 3fc7 7d3e d10c 813e 594c 4e3e d194 0a3e
00000180: 97ad 0abd 7a83 91bd 6c94 dabf 9b9a 4ebe
00000190: af91 c83e b9ac 22bf bc06 1cc0 e45d 6f3e
000001a0: e0ce 3ebf 3866 e2be 7b07 4abf 7f87 e6be
000001b0: 6a83 08bf 1ef5 dbbd 2e0c 94bd dac0 a4bf
000001c0: eb44 30be 8668 3b3e e5fa d8be 9095 06bd
000001d0: 26ee 9e3c 406b 81be 843f a53e 70f5 52bf
000001e0: 8780 8abf bf46 57bf 7132 ebbd 9963 b1be
000001f0: a0e4 7c3d a2d3 003e 8f04 7abe 99ef 183d
00000200: e59a 05be d16c 17be 99f7 66bf adb2 94be
00000210: b660 60bd 4b6d 53be f856 3cbf 70e3 99be
00000220: 4b3c b2be 7324 c93c 69a6 acbd 08b5 8dbf
00000230: d849 29bf 80ed ccbd 3284 03bc 1f36 8fbe
00000240: 6ccb 4a3f f5f5 123e a5f7 813e b743 4ebe
00000250: 2f3c 4c3e bab8 8d3d 6f49 36be e82a 3ebf
00000260: a1b1 a43e d479 c53e 0ed0 21be 27ae 94bd
00000270: 01a0 c23e 0b84 403d 97c3 7cbe 47a3 8ebe
00000280: 0aed 84bd a1c2 00be 5ef3 993f 8394 99bc
00000290: 7317 aa3e 9ee3 49be eb7f 09bf 2021 c8be
000002a0: 2f84 39be f45e ae3e 8aaf e2be ee3d 5ac0
000002b0: c335 84bd 6bc8 61bd 74bd 653c f7ac d13d
000002c0: 4032 86be 9ad5 633f 9066 5a3d 886c 063f
000002d0: ed5d 27bd 4370 bfbd 52ba acbe 988e c43e
000002e0: fcc3 ebbe 2020 f73e 7aba 903e ca1c 8c3d
000002f0: 81ee 7ebb af2d 0cbe 6cbc 243d 156d 2d3c
00000300: e237 23bd 3e78 58be 4411 b2be c512 86be
00000310: df2d 69bd e08d 273f d2e9 5ac0 38aa a6be
00000320: 3bea fbbe 235c 12bf 76e5 a2bf e7f3 95be
00000330: 0bd4 a1be b615 b7bd 8972 79bd 3baa d9be
00000340: de98 29bf f550 a9bf 3840 55be e860 6c3e
00000350: 7a00 bebe b25b 33be ca7d aabd be93 15be
00000360: 3886 04be b331 00bf b2e8 763c 473d 3dbe
00000370: 14ab d2be c0d0 08be be84 043d a7a7 c4bd
00000380: 5a23 963d 371b 53bd 29d5 abbe 7b59 483d
00000390: 50cc d2be bd96 233f be59 22c0 8d94 8ebe
000003a0: 8e1a eebe ee51 d03d f524 89bf 79b1 f13d
000003b0: 50b0 01bf 7ab5 813e e8e0 863d 845f 383e
000003c0: 3320 ecbe 02dd 56bf 34a9 0fbe 3476 983d
000003d0: b38e 4abe 4727 0fbd 1234 69be 74bf 89be
000003e0: 990b 6f3e 8c40 5fbf e8dd 083e 50f1 a0bc
000003f0: 1592 cabe 8651 22be 087e 2a3d a92e 5a3e

nns.0.0.bias f4 [32]
-0.15366457 0.27477312 0.08348842 -0.20096013 0.038048245 -0.63459677 0.44835612 -0.26291856
0.025897743 -2.2305147e-05 0.044161532 -0.82456136 -0.0044865906 0.87200564 0.19844401 -0.044806097
-0.14253463 -0.05743972 0.13713472 0.14656551 0.11257843 0.8398491 0.25577703 0.50764024
-0.25389662 0.118035026 -0.22464454 0.3850775 0.10892535 -0.41200313 0.9215931 -0.11214542
00000000: 3f5a 1dbe 10af 8c3e fafb aa3d 7ec8 4dbe
00000010: 7ad8 1b3d ef74 22bf ef8e e53e 439d 86be
00000020: 8127 d43c f01b bbb7 b9e2 343d 7416 53bf
00000030: 4004 93bb c33b 5f3f e834 4b3e 9986 37bd
00000040: 99f4 11be e945 6bbd 0b6d 0c3e 4515 163e
00000050: 858f e63d 5a00 573f 35f5 823e b6f4 013f
00000060: bdfe 81be 59bc f13d 3809 66be e128 c53e
00000070: 4114 df3d 13f2 d2be 87ed 6b3f 7fac e5bd

nns.0.1.weight f4 [32]
0.47540864 3.362761 0.2796471 4.923585 0.19699474 2.1187065 2.9764001 1.2831138
0.843288 1.1206605 1.1952723 2.633391 0.8796792 3.3492508 0.2846619 -0.013916879
-0.006370021 1.305394 1.5902823 -0.064975254 0.4254279 2.8511949 1.3437235 3.3651826
1.0978142 0.599855 3.1174848 2.126277 0.61749583 2.1789148 2.988087 0.6689424
00000000: c368 f33e 7a37 5740 e82d 8f3e 028e 9d40
00000010: fdb8 493e e398 0740 577d 3e40 133d a43f
00000020: b9e1 573f ce71 8f3f affe 983f 7a89 2840
00000030: a832 613f 205a 5640 34bf 913e 9f03 64bc
00000040: 9cbb d0bb 2717 a73f 5f8e cb3f bf11 85bd
00000050: b0d1 d93e fa79 3640 22ff ab3f 275f 5740
00000060: 2d85 8c3f 1990 193f df84 4740 ec14 0840
00000070: 3514 1e3f 5773 0b40 d13c 3f40 cf3f 2b3f

nns.0.1.bias f4 [32]
-3.003202 2.0508246 -1.0882348 0.30793294 -0.2347227 0.43238536 1.0301418 0.35537
-2.5327713 -2.0669773 -1.0632346 -0.76517254 -1.3786403 0.29517514 -0.9057457 -0.58535147
-0.25434163 -0.8835551 -0.45675927 -2.4844258 -0.60733664 0.12830588 -0.124433085 -0.3718739
0.7541212 -0.32141578 0.45016456 2.3087947 -1.7052228 1.1021597 0.6702115 -0.5696235
00000000: 7634 40c0 b640 0340 474b 8bbf 63a9 9d3e
00000010: 265b 70be 9d61 dd3e b0db 833f 0ef3 b53e
00000020: ed18 22c0 5b49 04c0 1218 88bf 59e2 43bf
00000030: 4977 b0bf 3221 973e f3de 67bf 98d9 15bf
00000040: 1139 82be ab30 62bf 5adc e9be d500 1fc0
00000050: 6a7a 1bbf 9e62 033e c6d6 febd 4166 bebe
00000060: 160e 413f 9c90 a4be f87b e63e 4bc3 1340
00000070: be44 dabf 9213 8d3f fb92 2b3f d8d2 11bf

nns.0.1.running_mean f4 [32]
2.484511 -11.234943 -1.0757998 -4.988614 -2.1086724 -3.7154827 -7.049055 -5.459885
0.27372125 5.919104 -2.4552958 -6.1658554 7.021325 -5.0141115 -0.1350895 -1.0320174
-0.7956926 0.61143726 -2.282582 3.8412287 -0.7615317 -4.1099453 -1.3358355 -3.9884036
0.24925295 -4.5029135 -3.646808 -5.14441 3.6929083 -4.7316246 -5.605518 -1.3824688
00000000: 3a02 1f40 54c2 33c1 cfb3 89bf baa2 9fc0
00000010: 7df4 06c0 78ca 6dc0 dc91 e1c0 61b7 aec0
00000020: 3125 8c3e 4d69 bd40 9123 1dc0 b04e c5c0
00000030: b2ae e040 9a73 a0c0 e754 0abe 2519 84bf
00000040: 83b2 4bbf 2787 1c3f d315 12c0 b1d6 7540
00000050: bef3 42bf ac84 83c0 a8fc aabf 0142 7fc0
00000060: 2a3c 7f3e de17 90c0 4d65 69c0 029f a4c0
00000070: 9c58 6c40 7869 97c0 6760 b3c0 bdf4 b0bf

nns.0.1.running_var f4 [32]
228.98132 1056.5063 83.97956 182.98221 115.470245 934.6266 451.12735 231.69441
25.160585 286.24515 117.72475 335.90314 393.86362 334.67606 1.2104461 8.059851
3.8430967 362.0487 626.8165 302.47052 6.1781664 199.88112 92.382904 164.72166
6.4079585 263.17722 1809.6691 243.64406 283.1649 190.77289 368.34842 12.88194
00000000: 38fb 6443 3410 8444 89f5 a742 72fb 3643
00000010: c4f0 e642 1aa8 6944 4d90 e143 c5b1 6743
00000020: e148 c941 611f 8f43 1273 eb42 9af3 a743
00000030: 8bee c443 8956 a743 e6ef 9a3f 26f5 0041
00000040: 4cf5 7540 3c06 b543 42b4 1c44 3a3c 9743
00000050: 8ab3 c540 91e1 4743 0cc4 b842 bfb8 2443
00000060: ff0d cd40 af96 8343 6935 e244 e1a4 7343
00000070: 1b95 8d43 dcc5 3e43 992c b843 6d1c 4e41

nns.0.3.weight f4 [32, 32]
0.34866706 -2.1997945 -0.17219502 0.45252338 0.46705127 1.0394088 -1.6652496 -0.8631459
-1.4798294 -2.6515832 0.42434558 -1.1378944 -1.8895266 0.85324293 -0.19944839 0.07486633
-0.012371158 -0.47643313 0.8710192 -1.1085473 -0.102102354 -0.75106883 -0.43759444 -0.6851049
-0.8360018 0.0060081286 0.30343813 -1.8729745 -1.5397719 2.115964 -1.2779016 -0.15854801
1.1155225 1.2645278 0.41665632 1.5045952 0.18736738 0.6588506 1.4956683 1.3615344
-0.3916353 -0.43775046 0.45980927 0.20312393 0.11182903 1.6253071 0.16836207 0.08504794
-0.09683687 2.0568018 -0.6691539 0.044437114 -0.27896938 1.1807522 -0.6131188 0.92964023
0.8750285 -0.18813382 2.2172935 1.0352398 0.6953871 0.04270208 1.1921997 -0.051680997
0.2983055 1.0079256 0.35985535 0.8785034 0.3619252 0.36861947 1.027203 0.8483713
-1.1127614 -1.5051519 0.38481086 0.23384328 -0.41168305 0.8341742 -0.053287655 0.025025036
-0.08126751 0.8312964 -0.1526417 -0.17764518 -0.19914669 0.9779729 -1.0278683 0.99271816
-0.5554414 -0.4867437 0.109123826 0.8909751 -0.51698565 0.5122384 0.9005059 -0.20247945
1.465806 1.6249964 0.82794935 1.270435 0.79657024 0.36973286 1.7222741 1.14277
-1.5408185 -0.7213782 0.38717797 0.6234615 0.8868852 1.534481 -0.069468886 0.37845576
0.06017209 1.6434182 -0.13959622 0.38232607 -0.28816107 1.6126277 -1.2369562 1.55867
0.021067087 -0.6428647 0.6909674 1.3649019 0.15686214 0.6774655 1.1049007 0.12688251
-0.45380074 0.36308953 0.1681984 0.4908655 0.15822054 -0.055527866 0.37423626 0.71185577
-0.06966413 -0.21148458 0.15164304 0.32158667 -0.08790266 0.32470474 0.053158306 -0.0030713454
-0.19613124 -0.7784987 -0.20435025 -0.14748111 0.4164611 -0.15453853 -0.5157858 -0.71145755
-0.6860984 -0.0011694207 0.29199886 0.45092642 -0.5891409 0.01928015 0.7540265 0.42407855
0.792835 0.19906946 0.2622333 0.23048583 0.46353495 0.27198654 0.21537594 0.549451
0.2760957 0.6689208 -0.082363516 0.041022483 0.36822438 0.3338151 -0.034065027 0.12458053
0.1474847 0.18851128 0.10650289 0.5476557 0.0943904 0.0036017364 0.48497263 0.014143978
0.19584286 0.4239241 0.20312817 0.2359938 0.2193565 0.46983534 -0.09815901 0.14646858
0.45949948 0.9297795 0.07563298 0.844782 0.45713288 -0.028368779 1.2368538 0.7069752
-1.0584722 -1.5410461 0.42849627 0.47413388 -0.33019796 1.1502444 -0.17770985 0.02439528
0.20763625 0.39284933 0.14328885 -0.42152783 -0.10261843 1.1123186 -0.43698025 1.1735525
-0.53781766 -0.64387476 0.4663552 0.79863685 -0.27589092 0.5443399 0.9753225 0.00093826256
-0.26340836 1.1009405 -0.29806003 0.8347162 -0.7265755 -0.49844587 0.45801014 0.6340117
-0.13697134 0.018662918 0.2449957 -0.015094152 -0.5478673 0.7477502 -0.26858962 -0.07536179
-0.08654852 -0.7088848 -1.355102 -0.060585793 0.09490468 -1.2279627 -0.27907163 -0.32882968
-0.42636585 0.081775814 -0.5309916 0.84722185 -0.051399015 -1.0216368 0.692153 -0.2288205
00000000: 7d84 b23e 6fc9 0cc0 e453 30be 25b1 e73e
00000010: 5821 ef3e 590b 853f e626 d5bf 21f7 5cbf
00000020: 0d6b bdbf 8ab3 29c0 d343 d93e 86a6 91bf
00000030: 02dc f1bf 216e 5a3f 333c 4cbe 8553 993d
00000040: 66b0 4abc 0bef f3be 1dfb 5e3f e1e4 8dbf
00000050: 0a1b d1bd 0c46 40bf 610c e0be 0963 2fbf
00000060: 3704 56bf d6df c43b 3e5c 9b3e a1bd efbf
00000070: 3f17 c5bf f46b 0740 4892 a3bf 695a 22be
00000080: 71c9 8e3f 0cdc a13f fa53 d53e 9396 c03f
00000090: 3cdd 3f3e 6faa 283f 0f72 bf3f c246 ae3f
000000a0: 6c84 c8be d420 e0be 1f6c eb3e b8ff 4f3e
000000b0: 9e06 e53d 100a d03f 1b67 2c3e 9d2d ae3d
000000c0: 6952 c6bd a4a2 0340 ac4d 2bbf b103 363d
000000d0: 13d5 8ebe e322 973f 5bf5 1cbf e7fc 6d3f
000000e0: de01 603f 27a6 40be 23e8 0d40 bd82 843f
000000f0: e404 323f 60e8 2e3d 009a 983f 74af 53bd
00000100: 80bb 983e b503 813f f63e b83e 99e5 603f
00000110: 434e b93e b1bb bc3e 637b 833f dd2e 593f
00000120: f76e 8ebf d1a8 c0bf ee05 c53e 9d74 6f3e
00000130: 1fc8 d2be 718c 553f 2844 5abd 4e01 cd3c
00000140: 956f a6bd d7cf 543f 1b4e 1cbe 9ee8 35be
00000150: 1ced 4bbe 6f5c 7a3f 3091 83bf c722 7e3f
00000160: 6831 0ebf 7836 f9be 507c df3d f216 643f
00000170: 2c59 04bf 0e22 033f 8e87 663f c656 4fbe
00000180: 889f bb3f e2ff cf3f 7df4 533f 9d9d a23f
00000190: 07ec 4b3f a04d bd3e 7a73 dc3f 4a46 923f
000001a0: 8a39 c5bf 3eac 38bf 313c c63e 2c9b 1f3f
000001b0: e90a 633f e069 c43f b445 8ebd f4c4 c13e
000001c0: 0277 763d 875b d23f 50f2 0ebe 3ec0 c33e
000001d0: d989 93be 966a ce3f 9554 9ebf 8082 c73f
000001e0: e294 ac3c c892 24bf 3de3 303f 1bb5 ae3f
000001f0: 78a0 203e 616e 2d3f 636d 8d3f 7ded 013e
00000200: 9258 e8be dfe6 b93e 343c 2c3e b952 fb3e
00000210: 9104 223e 3071 63bd e59b bf3e 2e3c 363f
00000220: 11ac 8ebd 6a8f 58be 5048 1b3e 02a7 a43e
00000230: 4f06 b4bd b33f a63e 86bc 593d a048 49bb
00000240: a1d6 48be b14b 47bf 3141 51be 4a05 17be
00000250: 643a d53e 593f 1ebe 8a0a 04bf 1522 36bf
00000260: 25a4 2fbf 3f47 99ba e080 953e d4df e63e
00000270: f0d1 16bf 68f1 9d3c e107 413f d320 d93e
00000280: 3cf7 4a3f ddd8 4b3e 7143 863e 7a04 6c3e
00000290: 7454 ed3e d241 8b3e 838b 5c3e d2a8 0c3f
000002a0: 6a5c 8d3e 653e 2b3f 34ae a8bd 3107 283d
000002b0: e887 bc3e d0e9 aa3e c587 0bbd 1424 ff3d
000002c0: 3b06 173e 1a09 413e 301e da3d 2a33 0c3f
000002d0: c14f c13d 1c0b 6c3b 554e f83e 25bc 673c
000002e0: 088b 483e 940c d93e d500 503e 5ca8 713e
000002f0: fe9e 603e 428e f03e 9707 c9bd dcfb 153e
00000300: 8443 eb3e 0806 6e3f 77e5 9a3d a243 583f
00000310: 520d ea3e a465 e8bc 3a51 9e3f 54fc 343f
00000320: 047c 87bf 0041 c5bf dd63 db3e adc1 f23e
00000330: b50f a9be 353b 933f 92f9 35be 9cd8 c73c
00000340: 999e 543e 8c23 c93e 50ba 123e 7fd2 d7be
00000350: 9d29 d2bd 7560 8e3f e0bb dfbe f836 963f
00000360: 6bae 09bf fad4 24bf 1cc6 ee3e 7773 4c3f
00000370: 9341 8dbe dc59 0b3f bcae 793f bcf5 753a
00000380: 76dd 86be 9eeb 8c3f 539b 98be f6af 553f
00000390: da00 3abf 4c34 ffbe 4e80 ea3e 974e 223f
000003a0: 3742 0cbe fae2 983c 27e0 7a3e 764d 77bc
000003b0: 0841 0cbf 8f6c 3f3f 9484 89be 4857 9abd
000003c0: 5a40 b1bd 7979 35bf fb73 adbf cf28 78bd
000003d0: 635d c23d e22d 9dbf 7ae2 8ebe 5d5c a8be
000003e0: a04c dabe 147a a73d 11ef 07bf 88e3 583f
000003f0: c687 52bd ffc4 82bf f030 313f ec4f 6abe

nns.0.3.bias f4 [32]
0.7087457 0.078790665 -0.23407207 0.016767846 0.06528731 -0.07022414 0.21914783 0.80514526
0.38136455 0.007285327 0.276921 -0.29863316 0.47833428 -0.13771994 -0.08678988 0.3496115
0.3127385 0.095056 0.3588788 0.11009131 0.0014802389 0.010897244 0.24790019 -0.13077931
-0.34744275 0.023904223 0.07440678 -0.11182226 -0.37216008 -0.120992586 -0.03516552 -0.10071028
00000000: 5c70 353f 005d a13d 97b0 6fbe b95c 893c
00000010: 5ab5 853d add1 8fbd 4a68 603e 001e 4e3f
00000020: 3742 c33e c1b9 ee3b 97c8 8d3e 72e6 98be
00000030: 3be8 f43e 7506 0dbe e5be b1bd 4700 b33e
00000040: 431f a03e b8ac c23d f6be b73e 8e77 e13d
00000050: 9304 c23a 5b8a 323c 8cd9 7d3e 03eb 05be
00000060: 04e4 b1be cad2 c33c 9562 983d 1203 e5bd
00000070: c48b bebe f6ca f7bd b809 10bd 3141 cebd

nns.0.4.weight f4 [32]
1.0901842 0.97725576 0.26392773 1.1586673 0.20023425 0.032077763 0.28917256 0.65369785
1.1700146 0.3456387 1.3281022 0.6523338 1.2335564 0.934916 0.1892956 0.29441288
1.0437698 0.070028834 0.19972761 0.17527495 0.97181326 0.29401934 0.18932639 0.29543975
1.6590266 0.33475196 0.37795222 0.19401515 0.63563085 0.0018866602 0.9836284 -0.009647863
00000000: 288b 8b3f 6f2d 7a3f 8921 873e 364f 943f
00000010: 350a 4d3e f963 033d 6d0e 943e be58 273f
00000020: 0ac3 953f 8ef7 b03e 41ff a93f 59ff 263f
00000030: 2de5 9d3f a856 6f3f b5d6 413e 49bd 963e
00000040: 409a 853f 476b 8f3d 6585 4c3e 477b 333e
00000050: c1c8 783f b489 963e c7de 413e e143 973e
00000060: fc5a d43f 9c64 ab3e f482 c13e e8ab 463e
00000070: b4b8 223f d049 f73a 12cf 7b3f 1212 1ebc

nns.0.4.bias f4 [32]
-0.60130167 -1.864541 -1.2668281 -2.011366 -0.5192286 -1.6802269 -1.8117683 -0.8030361
-0.5471822 -0.63133943 -0.48079675 -2.1776037 -2.1406033 -1.4445171 -1.2700325 -3.5286407
0.19820285 -1.1121575 -0.9013253 -1.4511368 -0.271187 -0.9643977 -1.6103083 -1.7051594
-0.5568423 -0.9355881 -1.2784959 -1.0593021 -0.9175199 -0.5918301 -0.28972408 -1.272288
00000000: e8ee 19bf 48a9 eebf 6c27 a2bf 38ba 00c0
00000010: 2aec 04bf ad11 d7bf 06e8 e7bf c693 4dbf
00000020: 2214 0cbf 769f 21bf fe2a f6be dc5d 0bc0
00000030: a5ff 08c0 f0e5 b8bf 6d90 a2bf 40d5 61c0
00000040: b0f5 4a3e 2d5b 8ebf 41bd 66bf dabe b9bf
00000050: 06d9 8abe c5e2 76bf 951e cebf aa42 dabf
00000060: 388d 0ebf b482 6fbf c1a5 a3bf 3697 87bf
00000070: 96e2 6abf 2d82 17bf b756 94be 55da a2bf

nns.0.4.running_mean f4 [32]
-11.007848 18.19075 11.283915 19.080564 4.0956335 3.530777 12.198423 5.7933345
1.9904305 0.803775 16.920422 -4.7791524 14.66037 5.482544 12.342721 13.091658
15.599696 11.141855 -3.1282322 8.303819 -1.8896341 1.1651603 12.049416 14.267491
18.419794 13.295949 -3.2427747 -3.4424336 2.6477778 -0.5992242 14.492155 6.8481236
00000000: 2520 30c1 a886 9141 ea8a 3441 ffa4 9841
00000010: 6e0f 8340 40f8 6140 be2c 4341 ff62 b940
00000020: 6dc6 fe3f 33c4 4d3f 065d 8741 d1ee 98c0
00000030: e090 6a41 0071 af40 c97b 4541 6e77 5141
00000040: 5b98 7941 0a45 3241 f534 48c0 71dc 0441
00000050: 88df f1bf f923 953f 68ca 4041 a547 6441
00000060: bd5b 9341 35bc 5441 9f89 4fc0 d550 5cc0
00000070: 3175 2940 c266 19bf dedf 6741 d423 db40

nns.0.4.running_var f4 [32]
24.699387 41.66541 37.864304 62.003044 7.6259346 2.5871756 38.66716 9.801919
35.19539 1.8532075 70.056854 17.050684 30.285652 15.676099 38.49423 24.844
67.69863 37.16313 3.0692434 19.651878 20.691362 2.5485022 36.087204 52.856037
95.531784 39.324608 6.1830187 1.9298402 24.423649 0.8517476 60.86046 17.466082
00000000: 5898 c541 61a9 2642 0c75 1742 1e03 7842
00000010: a807 f440 4994 2540 2cab 1a42 a9d4 1c41
00000020: 14c8 0c42 e735 ed3f 1c1d 8c42 cd67 8841
00000030: 0449 f241 4dd1 7a41 17fa 1942 83c0 c641
00000040: b365 8742 0ca7 1442 7c6e 4440 0c37 9d41
00000050: e987 a541 a91a 2340 4c59 1042 956c 5342
00000060: 4610 bf42 664c 1d42 4adb c540 0105 f73f
00000070: a263 c341 210c 5a3f 1c71 7342 89ba 8b41

nns.1.0.weight f4 [32, 32]
0.07626576 -0.22762 -0.33890453 -0.64552397 -0.7102444 -0.21162516 -0.2613393 0.39006308
-0.14707975 -0.04067462 6.1627445 -0.40733135 -1.5763415 -1.3753873 -0.72391045 0.15384205
0.83796054 -0.047029097 0.508464 -0.14067434 0.5278323 0.01920617 -0.07210341 -0.35194442
4.7552443 1.6044515 0.78499454 0.44919398 0.7462195 -0.18002239 4.4240937 -0.49825734
3.584732 -1.8487618 -0.3035824 -2.5798337 -0.19550328 0.32792953 -0.20780322 0.36346227
-0.45028538 0.4211981 0.5279907 0.22340047 -1.5566248 -0.5438041 -0.35385296 0.1748805
0.46475762 -0.3695901 0.16787744 -0.05773728 -1.9127294 -0.059957284 -0.22802086 -0.5525675
0.8535925 -0.5221251 -0.14801288 0.34155214 -0.09246191 0.47626954 0.593632 -0.45254046
0.60273737 -0.043109212 0.2156454 -0.011713755 -0.0349085 0.12239609 -0.11651028 -0.20005678
0.40697408 0.17887115 1.2922653 0.31598398 0.08785673 0.51615 0.076239996 0.24774295
1.141415 -0.0034060173 0.10161357 -0.16754735 0.42356843 0.14414972 -0.2655929 -0.14464027
1.4504617 -0.21570796 -0.67121214 0.27920145 0.25681672 -0.12711932 0.8797724 -0.1743788
0.92557377 -0.23414323 -0.1414111 -0.012210172 0.04842392 -0.069733925 0.14257213 0.96660715
0.2598413 -0.2558298 0.35587618 0.22684827 0.050510604 0.7210727 -0.21749786 -0.12212277
1.8145429 -0.06405488 0.02085696 -0.20522213 -0.098297924 -0.028722456 -0.012750979 -0.07048646
1.5760969 -0.042637285 -0.098779924 0.22083446 -0.10269257 0.19255556 1.7910501 -0.10954665
0.5742953 -0.18441512 -0.4094008 -0.4674488 -0.5423657 -0.13699237 -0.420584 1.0164963
0.44280583 0.034236904 3.3657908 1.6000813 0.20879747 1.0195862 -0.6146762 0.7099086
2.6066778 -0.19684845 0.25949228 -0.21502565 1.0666492 0.14891411 -0.26129138 -0.5561595
3.642192 0.42867017 0.37960064 0.22014901 0.1825814 -0.018930653 3.2022946 -0.7066548
-1.4565086 0.44193467 0.027302204 0.25850782 -0.6859501 0.2602914 0.46316653 0.7808036
-1.985858 0.36058703 1.520016 -1.8547138 -0.215382 -0.8367564 0.20450927 -0.6563363
2.2404714 0.25849336 -0.25356197 0.15512256 0.6868175 0.1721949 -0.063336805 0.36527023
1.2943963 1.13223 0.11335201 -0.24912365 0.30039543 0.08330142 1.0936718 -0.24108568
1.3653466 -1.1462971 -0.113412045 -1.8592359 -0.090659216 0.16436045 -0.42443335 0.2089439
0.81999797 -0.137198 -0.033920225 -0.73104817 -1.2138256 -1.067064 -0.0743385 3.1158612
1.6548414 -0.4246307 -0.2560303 -0.19566128 2.2053852 0.17087892 -0.21193135 0.27416506
-0.254472 -0.08575651 0.5386696 0.09187446 -0.5894268 0.26885253 -0.11951784 -0.5173898
0.27204204 1.944537 0.67175317 1.1599665 -0.37055638 0.3249666 0.53789437 -0.4262089
-4.247946 -0.19255075 -0.82515395 0.4913933 0.3830156 -0.6179994 0.76391554 -2.0091817
-3.0721207 0.42942792 -0.15602781 0.2445054 -0.120405 0.14030257 0.0450785 0.6414461
-1.4077206 0.654139 0.32774737 -0.16803853 0.08660117 0.22421385 -1.6806138 -0.33950695
00000000: 3931 9c3d 3815 69be e584 adbe 0f41 25bf
00000010: 94d2 35bf 44b4 58be 44ce 85be 59b6 c73e
00000020: 139c 16be 6e9a 26bd 3435 c540 bc8d d0be
00000030: 8fc5 c9bf b10c b0bf 3252 39bf c588 1d3e
00000040: 9584 563f 95a1 40bd b22a 023f ef0c 10be
00000050: 0520 073f 4256 9d3c f4aa 93bd 0f32 b4be
00000060: f62a 9840 ab5e cd3f 67f5 483f c1fc e53e
00000070: 3e08 3f3f ca57 38be 2d92 8d40 961b ffbe
00000080: 406c 6540 3aa4 ecbf 276f 9bbe ff1b 25c0
00000090: 0332 48be 61e6 a73e 5eca 54be ba17 ba3e
000000a0: ce8b e6be 47a7 d73e 662a 073f 18c3 643e
000000b0: 7b3f c7bf bf36 0bbf 372c b5be e013 333e
000000c0: b6f4 ed3e ea3a bdbe 10e8 2b3e ed7d 6cbd
000000d0: 51d4 f4bf c595 75bd 4d7e 69be 1075 0dbf
000000e0: 0a85 5a3f fea9 05bf b090 17be ecdf ae3e
000000f0: ab5c bdbd 9ad9 f33e 44f8 173f 62b3 e7be
00000100: ff4c 1a3f 4993 30bd 26d2 5c3e 0deb 3fbc
00000110: 37fc 0ebd cdaa fa3d f19c eebd afdb 4cbe
00000120: e85e d03e 002a 373e f368 a53f a7c8 a13e
00000130: 3bee b33d 6822 043f b723 9c3d 54b0 7d3e
00000140: e319 923f 7d37 5fbb c61a d03d 8891 2bbe
00000150: f6dd d83e fc9b 133e cbfb 87be 941c 14be
00000160: bba8 b93f 8ce2 5cbe 8fd4 2bbf 7ef3 8e3e
00000170: 7b7d 833e 912b 02be c438 613f 5b90 32be
00000180: 67f2 6c3f 3ec3 6fbe 12ce 10be 2c0d 48bc
00000190: 2958 463d a9d0 8ebd 6efe 113e 9173 773f
000001a0: eb09 853e 20fc 82be 6735 b63e ea4a 683e
000001b0: 35e4 4e3d 3898 383f c2b7 5ebe 811b fabd
000001c0: f142 e83f 342f 83bd 37dc aa3c c025 52be
000001d0: 6c50 c9bd 5b4b ebbc 7be9 50bc 355b 90bd
000001e0: 8bbd c93f 6fa4 2ebd 214d cabd 6e22 623e
000001f0: 7b50 d2bd 492d 453e 2141 e53f fe59 e0bd
00000200: 0405 133f 51d7 3cbe fb9c d1be 7355 efbe
00000210: 7ad8 0abf ba47 0cbe c956 d7be 8d1c 823f
00000220: 72b7 e23e ff3b 0c3d 1e69 5740 77cf cc3f
00000230: 01cf 553e cd81 823f 6b5b 1dbf 92bc 353f
00000240: cfd3 2640 a492 49be 2cdc 843e af2f 5cbe
00000250: f687 883f f17c 183e fcc7 85be 7860 0ebf
00000260: ac19 6940 a87a db3e 045b c23e be6e 613e
00000270: 9ef6 3a3e 7514 9bbc 65f2 4c40 54e7 34bf
00000280: e06e babf 4345 e23e dfa8 df3c 235b 843e
00000290: 6d9a 2fbf ea44 853e 2a24 ed3e bfe2 473f
000002a0: 9830 febf dd9e b83e e28f c23f 4367 edbf
000002b0: 198d 5cbe ab35 56bf e16a 513e a805 28bf
000002c0: e263 0f40 3e59 843e e0d2 81be 73d8 1e3e
000002d0: 46d3 2f3f dc53 303e bab6 81bd b304 bb3e
000002e0: c7ae a53f eaec 903f 1925 e83d 451a 7fbe
000002f0: 6ecd 993e ef99 aa3d 70fd 8b3f 2adf 76be
00000300: adc3 ae3f ddb9 92bf 9344 e8bd 71fb edbf
00000310: 8aab b9bd 1b4e 283e 544f d9be 64f5 553e
00000320: 63eb 513f a27d 0cbe efef 0abd f925 3bbf
00000330: a35e 9bbf 8e95 88bf c93e 98bd 456a 4740
00000340: d8d1 d33f 3269 d9be 6716 83be 6e5b 48be
00000350: 0825 0d40 e2fa 2e3e 8804 59be 5d5f 8c3e
00000360: 274a 82be 1ca1 afbd 40e6 093f ad28 bc3d
00000370: ade4 16bf 0aa7 893e c5c5 f4bd a873 04bf
00000380: 1849 8b3e 97e6 f83f 04f8 2b3f c879 943f
00000390: 91b9 bdbe 0662 a63e 72b3 093f 0e38 dabe
000003a0: 2cef 87c0 062c 45be 4a3d 53bf e797 fb3e
000003b0: 9f1a c43e 3535 1ebf f88f 433f 6f96 00c0
000003c0: a09d 44c0 fadd db3e c1c5 1fbe a05f 7a3e
000003d0: e696 f6bd 7aab 0f3e 3ca4 383d d035 243f
000003e0: 3030 b4bf a775 273f 81ce a73e 4b12 2cbe
000003f0: f45b b13d 5198 653e 5a1e d7bf dbd3 adbe

nns.1.0.bias f4 [32]
0.10505799 -0.1293211 -0.17212643 -0.1520048 -0.014545204 0.0412707 -0.05731177 0.06923726
0.04986265 0.12755926 -0.043600023 0.14170235 0.119753055 -0.06100903 -0.0018868777 -0.05023082
-0.088995226 0.13286176 -0.20948087 0.09600821 0.22013743 0.10821542 0.052585676 0.09679187
-0.19456127 -0.04523676 -0.19377059 -0.030409234 -0.10527755 -0.10226391 -0.1206509 0.07353157
00000000: a528 d73d c06c 04be e941 30be 25a7 1bbe
00000010: 024f 6ebc 770b 293d bfbf 6abd 44cc 8d3d
00000020: c73c 4c3d e59e 023e f095 32bd 6c1a 113e
00000030: 1741 f53d 9be4 79bd 1c51 f7ba d5be 4dbd
00000040: 2143 b6bd ea0c 083e 2782 56be f49f c43d
00000050: b56b 613e 0ca0 dd3d 1464 573d d13a c63d
00000060: 123b 47be 2e4a 39bd cc6b 46be c91c f9bc
00000070: c29b d7bd be6f d1bd d217 f7bd b897 963d

nns.1.1.weight f4 [32]
2.5885408 1.2580181 -0.006156593 0.027104668 1.922852 2.7501805 0.6252173 1.1527761
1.7491944 0.40725523 1.9839537 0.020463051 -0.016059535 1.4946952 0.40550062 -0.058517594
0.21691225 2.1331189 3.9520226 0.014632216 0.96361005 0.8714723 0.1176497 1.1652004
0.011266727 1.602729 1.0427237 1.7336512 1.3552161 1.9756392 0.0101270275 2.1877608
00000000: a7aa 2540 bd06 a13f 3fbd c9bb 9c0a de3c
00000010: 0420 f63f f502 3040 3e0e 203f 2b8e 933f
00000020: 9ae5 df3f c283 d03e 32f2 fd3f 21a2 a73c
00000030: 498f 83bc 2c52 bf3f c79d cf3e 25b0 6fbd
00000040: 3f1e 5e3e 0585 0840 f0ed 7c40 f6bb 6f3c
00000050: 26af 763f cf18 5f3f 53f2 f03d 4925 953f
00000060: 1498 383c 3926 cd3f f877 853f 48e8 dd3f
00000070: b977 ad3f bfe1 fc3f d5eb 253c 4604 0c40

nns.1.1.bias f4 [32]
1.5248405 1.260134 -0.27330846 -1.0695605 0.19525686 -0.28565654 -3.1481407 -0.24782428
0.6227803 -1.281529 0.29112598 -1.0533286 -0.5233538 -0.16256607 -0.5674777 1.346507
-1.1865741 0.49505925 -0.43164927 -0.6610037 1.510771 -1.166288 0.41941774 -0.33186248
-0.47014278 1.1984619 -7.17757 -0.74310493 -0.6349873 0.5135224 -0.6692759 1.088084
00000000: f92d c33f 124c a13f 16ef 8bbe 5ce7 88bf
00000010: 6af1 473e 9341 92be 237b 49c0 a6c5 7dbe
00000020: 886e 1f3f 2409 a4bf 770e 953e 79d3 86bf
00000030: 84fa 05bf b877 26be 3846 11bf 575a ac3f
00000040: a9e1 97bf 6878 fd3e 2201 ddbe 8a37 29bf
00000050: f260 c13f ed48 95bf ecbd d63e e1e9 a9be
00000060: 8eb6 f0be 3367 993f a7ae e5c0 203c 3ebf
00000070: 878e 22bf 3476 033f aa55 2bbf 5646 8b3f

nns.1.1.running_mean f4 [32]
21.533981 10.240243 8.8311205 11.045023 21.166214 7.9153533 7.500917 -12.02846
-15.499361 -4.2889075 2.3388915 -3.8862007 3.592923 -10.957244 -0.5205801 11.246286
-4.2717896 -12.95662 -14.354386 2.6829998 21.632368 -11.593058 14.347923 -16.579208
11.030407 -21.110226 9.3874 -12.366753 -12.429632 -13.5803385 -4.736763 -20.059317
00000000: 9845 ac41 09d8 2341 454c 0d41 6ab8 3041
00000010: 6854 a941 934a fd40 8307 f040 9274 40c1
00000020: 62fd 77c1 bb3e 89c0 66b0 1540 83b7 78c0
00000030: 73f2 6540 df50 2fc1 bd44 05bf caf0 3341
00000040: 80b2 88c0 514e 4fc1 91ab 65c1 45b6 2b40
00000050: 170f ad41 2a7d 39c1 1891 6541 38a2 84c1
00000060: 8c7c 3041 bee1 a8c1 ca32 1641 38de 45c1
00000070: c6df 46c1 1149 59c1 9093 97c0 7b79 a0c1

nns.1.1.running_var f4 [32]
775.6501 344.8981 96.719345 148.19939 625.5445 274.09824 83.70007 266.21527
262.1199 32.589165 63.572914 25.034395 13.547526 124.184525 1.2653433 170.83702
23.892889 365.8679 452.7817 10.011995 610.76855 153.41917 306.60965 522.9069
175.96954 851.1626 320.2812 179.57741 298.7806 204.69666 37.951424 704.7013
00000000: 9be9 4144 f572 ac43 4e70 c142 0b33 1443
00000010: d962 1c44 930c 8943 7066 a742 8e1b 8543
00000020: 590f 8343 4e5b 0242 aa4a 7e42 7146 c841
00000030: abc2 5841 7a5e f842 c5f6 a13f 47d6 2a43
00000040: a324 bf41 17ef b643 0f64 e243 2231 2041
00000050: 30b1 1844 4f6b 1943 094e 9943 0bba 0244
00000060: 34f8 2f43 68ca 5444 fe23 a043 d193 3343
00000070: eb63 9543 58b2 4c43 42ce 1742 e22c 3044
