result/experiment_07.13.2022_12.50.33/2/fold_4_state_dict.pt (torch, 59548 bytes, 92 tensors)

first_h.0.weight f4 [32, 3]
-0.48555234 -0.10102673 0.47453487 -0.4773098 0.110307015 0.23719385 0.108481735 -0.5010719
-0.014373093 0.5692555 -0.16913499 0.33235085 -0.37036532 -0.15454863 0.1784226 0.06344633
-0.55825365 0.21351133 0.18036622 0.5121479 0.568698 0.3279388 1.1702849 0.5360733
-0.2923797 -0.9710583 -0.7089389 -0.0029257825 -0.3517538 0.072546326 0.6192857 -0.18508273
-0.2049349 -0.10933642 0.3745158 -0.5621574 0.7102603 -0.25077313 -0.043959536 -0.15951286
-0.31919402 0.31184164 -0.10117967 -0.27176943 -0.23672004 -0.3217638 -0.001550055 -0.4694577
0.09925913 -0.39747965 -0.10013847 0.22422054 -0.14338839 -0.32486856 -0.09183369 0.27769858
-0.20988907 0.08048333 0.31957558 -0.104817785 0.37610555 -0.4699764 -0.46867365 -0.2860682
0.28047198 0.31758994 -0.45180926 0.2648128 -0.052339677 0.06863768 0.6967374 -0.52550125
0.17151308 0.31316075 -0.011295788 -0.39104322 -0.0693392 -0.13452801 0.4802457 0.5409514
-0.22156914 -0.57031935 -0.17935987 -0.31428683 0.4892833 0.76923114 0.44006643 0.050762102
-0.654176 -0.057068534 -0.1947767 -0.028503986 -0.3059723 0.02819831 0.40407056 0.64918095
00000000: 519a f8be 1ae7 cebd 3cf6 f23e f361 f4be
00000010: a5e8 e13d f2e2 723e ac2b de3d 3f46 00bf
00000020: 1f7d 6bbc baba 113f b931 2dbe e429 aa3e
00000030: 86a0 bdbe ff41 1ebe 6ab4 363e 26f0 813d
00000040: b6e9 0ebf b7a2 5a3e ecb1 383e 201c 033f
00000050: 3196 113f 98e7 a73e e5cb 953f 1a3c 093f
00000060: cbb2 95be 4797 78bf 057d 35bf 7cbe 3fbb
00000070: 1319 b4be 2b93 943d 8289 1e3f 5486 3dbe
00000080: 74da 51be c6eb dfbd 89c0 bf3e 8ce9 0fbf
00000090: 9ed3 353f 5665 80be ea0e 34bd 5757 23be
000000a0: 666d a3be b5a9 9f3e 4937 cfbd 5d25 8bbe
000000b0: bd66 72be 3abe a4be 372b cbba c25c f0be
000000c0: 5f48 cb3d 7482 cbbe 6615 cdbd 129a 653e
000000d0: 68d4 12be 2c55 a6be 4d13 bcbd 822e 8e3e
000000e0: 29ed 56be 72d4 a43d 699f a33e b5aa d6bd
000000f0: e890 c03e bfa0 f0be fef5 efbe 8877 92be
00000100: 069a 8f3e 269b a23e 8b53 e7be 8b95 873e
00000110: 2162 56bd e991 8c3d 625d 323f 4087 06bf
00000120: 20a1 2f3e 9b56 a03e f811 39bc d136 c8be
00000130: b601 8ebd b6c1 09be c4e2 f53e ca7b 0a3f
00000140: 05e3 62be 7300 12bf 1daa 37be 34ea a0be
00000150: 5783 fa3e 55ec 443f 6350 e13e eceb 4f3d
00000160: 1478 27bf b2c0 69bd 8b73 47be 3181 e9bc
00000170: 67a8 9cbe 2400 e73c 56e2 ce3e b930 263f

first_h.0.bias f4 [32]
0.4753228 -0.3160079 0.37589872 0.3755556 0.2318117 0.5493949 0.04595112 -0.06944352
-0.32653543 -0.12942271 0.20514955 -0.40708616 0.119252466 -0.15631911 -0.4737739 -0.0706388
-0.22210194 0.51530033 -0.27705935 0.5634734 0.3322526 0.56648034 -0.0020491683 -0.018906295
-0.49082974 0.2237179 0.3736722 -0.053597316 -0.018390462 -0.042601746 0.2968999 -0.33081946
00000000: 835d f33e cacb a1be cc75 c03e d348 c03e
00000010: 0c60 6d3e 25a5 0c3f 3e37 3c3d 6738 8ebd
00000020: a72f a7be 6387 04be b912 523e 996d d0be
00000030: a33a f43d 1e12 20be 7e92 f2be 13ab 90bd
00000040: b16e 63be b9ea 033f b9da 8dbe cb3f 103f
00000050: 031d aa3e db04 113f 574b 06bb 60e1 9abc
00000060: 094e fbbe 4e16 653e f651 bf3e dc88 5bbd
00000070: 98a7 96bc 2b7f 2ebd 4403 983e 2b61 a9be

first_h.1.weight f4 [32]
0.9000404 0.9927508 0.9191583 1.1535717 0.992419 1.0417613 1.0650687 1.0669284
1.0327983 0.66342115 0.9516843 0.95019025 1.1260046 0.9471606 1.0732703 0.89529014
1.0607451 1.0601267 1.2256453 0.95556927 0.9455078 1.0275968 1.0170845 0.9370964
0.96687496 0.99874276 0.93768793 0.98474145 1.0647118 0.93724287 0.97538215 0.9388871
00000000: 0c69 663f eb24 7e3f f54d 6b3f 3da8 933f
00000010: 2c0f 7e3f 6f58 853f 2c54 883f 1c91 883f
00000020: bc32 843f f8d5 293f 95a1 733f ab3f 733f
00000030: eb20 903f 1e79 723f ec60 893f bc31 653f
00000040: 7fc6 873f 3bb2 873f f2e1 9c3f 30a0 743f
00000050: cd0c 723f 4b88 833f d32f 823f 8de5 6f3f
00000060: 1e85 773f 9bad 7f3f 510c 703f 0418 7c3f
00000070: 7a48 883f 26ef 6f3f a5b2 793f e85a 703f

first_h.1.bias f4 [32]
-0.07388456 0.050713513 -0.17055134 -0.050278373 -0.009500958 -0.05707588 -0.27025843 0.031843074
-0.07459062 -0.24328044 -0.1865309 -0.043440014 -0.26186085 -0.27481782 0.038754866 -0.15274288
-0.05110212 -0.040618766 0.1290659 -0.31919003 -0.03414431 0.060942963 0.12061694 -0.4226059
-0.16929944 0.18375415 -0.07576877 -0.15939476 -0.021237057 -0.051336773 -0.03160442 0.025851225
00000000: ca50 97bd f9b8 4f3d 03a5 2ebe b2f0 4dbd
00000010: e8a9 1bbc 66c8 69bd 505f 8abe e26d 023d
00000020: f8c2 98bd 821e 79be f501 3fbe 28ee 31bd
00000030: a012 86be ecb4 8cbe 6cbd 1e3d a168 1cbe
00000040: 7550 51bd dd5f 26bd da29 043e e06c a3be
00000050: e7da 0bbd 549f 793d 0406 f73d cd5f d8be
00000060: d55c 2dbe 0c2a 3c3e a82c 9bbd 6138 23be
00000070: 56f9 adbc 8246 52bd a373 01bd f3c5 d33c

first_h.1.running_mean f4 [32]
-861047.3 -846414.4 192574.19 1.009631e+06 -656764.56 112493.734 319840.0 581710.56
-520467.53 -6622.9697 1.0982818e+06 -194345.88 1.2595186e+06 -282863.4 -179460.7 -570524.75
175962.28 397373.25 -162863.16 142760.52 666771.5 -507307.9 -801044.0 122890.72
304175.38 -693550.4 851985.06 -1.01193394e+06 867925.44 90018.04 -345570.16 50036.562
00000000: 7537 52c9 e6a4 4ec9 8c0f 3c48 f07d 7649
00000010: c957 20c9 deb6 db47 002c 9c48 e904 0e49
00000020: 7122 fec8 c2f7 cec5 4e11 8649 78ca 3dc8
00000030: f5bf 9949 ed1d 8ac8 2d41 2fc8 cc49 0bc9
00000040: 92d6 2b48 a807 c248 ca0b 1fc8 216a 0b48
00000050: 38c9 2249 7db5 f7c8 4091 43c9 5c05 f047
00000060: ec85 9448 e652 29c9 1101 5049 df0d 77c9
00000070: 57e5 5349 05d1 af47 45bc a8c8 9074 4347

first_h.1.running_var f4 [32]
3.2046708e+13 3.0967098e+13 1.6020105e+12 4.405436e+13 1.8644682e+13 5.470752e+11 4.428075e+12 1.4622697e+13
1.1661056e+13 1.7878473e+09 5.213018e+13 1.6281768e+12 6.856825e+13 3.4585033e+12 1.3917675e+12 1.4070724e+13
1.3384088e+12 6.829034e+12 1.14642e+12 8.807653e+11 1.9221008e+13 1.1124147e+13 2.7740867e+13 6.4815425e+11
3.9993763e+12 2.0788883e+13 3.1363936e+13 4.4237194e+13 3.2552736e+13 3.502858e+11 5.159125e+12 1.0813946e+11
00000000: a52b e955 b750 e155 a27f ba53 d244 2056
00000010: 6da8 8755 72c0 fe52 bbdf 8054 cbc9 5455
00000020: d2b0 2955 c520 d54e 03a6 3d56 738b bd53
00000030: 2973 7956 b74f 4954 e705 a253 88c1 4c55
00000040: b1cf 9b53 45c0 c654 fa75 8553 b411 4d53
00000050: ebd9 8b55 ade0 2155 64d7 c955 01e9 1653
00000060: 5acb 6854 5042 9755 e233 e455 19ef 2056
00000070: 32da ec55 521d a352 7a26 9654 ea6c c951

first_h.3.weight f4 [32, 32]
0.07783073 0.11637759 -0.012066286 0.06533878 -0.06525126 -0.051211417 -0.049962234 -0.14780468
-0.09233928 0.021651842 -0.22594386 -0.05676552 -0.098662265 0.18801989 0.2582396 -0.03524715
-0.2071139 -0.14226004 0.12344701 -0.04421509 -0.05837829 0.015659261 0.123111986 0.068024315
-0.20909768 0.03723946 -0.19207296 0.014076686 0.07326858 0.101019695 0.07551486 0.018100139
0.12936753 0.021905562 -0.07796826 -0.0044043344 -0.050406605 -0.043290976 -0.17272438 -0.13033503
-0.20054686 0.111254275 -0.13953894 -0.0017324457 -0.15367901 0.028166274 -0.12115597 0.014813966
0.104605734 -0.16354823 -0.19853435 -0.044219114 0.08435746 0.13526279 -0.14007121 0.093656704
-0.08942457 -0.124414764 -0.05327465 -0.050057825 -0.04834069 0.035245117 -0.15715946 -0.0610622
0.1557829 0.065866195 -0.091104224 -0.06255195 0.16238476 -0.17641187 -0.1465113 -0.19604205
-0.010931236 0.0336863 0.02316817 0.15810181 -0.16117586 0.17107403 0.03328495 -0.01967272
-0.1964959 0.016244788 0.05962203 0.017598322 -0.24376096 0.25321078 0.24970499 -0.21792005
0.087275244 0.18749854 -0.056529712 0.17062941 -0.1455571 -0.08030829 -0.050968707 -0.34989196
0.116345294 -0.16834338 -0.071315214 0.099878915 -0.033912327 0.14087875 0.01743832 0.1972101
0.107648395 -0.028746923 -0.025385104 0.12801832 0.017967977 -0.04137722 -0.12753889 0.03357496
0.19245033 0.21100737 -0.15233567 0.059512362 4.5398632e-05 -0.11635249 -0.054442756 0.06537083
0.01396928 -0.0427663 -0.087567545 -0.016128145 0.10877528 0.10314798 0.12670927 -0.2122638
0.22076197 0.1476469 -0.11033821 -0.38737383 0.08797165 -0.20253405 -0.17916399 -0.24174179
-0.274048 -0.0002410072 -0.07393997 0.12627818 -0.23276888 0.26185977 0.1622533 -0.33892238
-0.44647002 -0.33758572 0.08140086 -0.16948766 -0.20656769 0.057461157 0.29073003 -0.081120014
-0.23869221 0.37828374 -0.18505107 0.19052744 -0.19472119 -0.060042076 0.15978648 -0.090848096
-0.024682641 -0.10443605 -0.13220672 -0.3032363 -0.066289924 -0.030814493 0.012352106 -0.04749101
-0.25787804 -0.050724916 0.02858399 0.012219397 -0.05401765 -0.117239095 -0.10717741 -0.23644665
-0.10791288 -0.032732498 0.062414918 -0.23224965 -0.03403343 -0.18825445 -0.022650534 -0.20946169
0.0013231933 -0.01762627 -0.12233079 0.02305965 -0.10105422 -0.12761492 0.04020989 -0.1460447
-0.17232741 -0.14417814 0.035664696 -0.18026957 -0.1459564 -0.0045626755 -0.05927101 -0.0687436
0.08034192 -0.013146155 0.07034663 0.04115672 -0.06942921 -0.17509218 -0.1188264 0.0235259
-0.05779627 -0.1545245 -0.09785351 0.12020967 -0.17802781 -0.025102414 -0.008119776 -0.10925773
-0.15020356 0.062130738 -0.20733194 -0.12249798 -0.04110562 0.12002498 0.023542127 -0.06662431
-0.044397768 0.051563036 0.1486608 0.30078143 0.04838209 0.11464601 0.38631475 0.14765689
0.043078925 0.0018889188 0.3339439 -0.027083814 0.3318991 -0.027444059 0.004906635 0.31319338
0.17889422 0.3074159 0.18284392 0.32892552 0.04469831 -0.07913195 -0.09098815 0.359772
0.22992846 0.1422507 0.18311149 0.0617903 0.26431352 0.09305296 0.05960337 0.0725383
00000000: b865 9f3d 6057 ee3d acb1 45bc 57d0 853d
00000010: 74a2 85bd 10c3 51bd 33a5 4cbd 1c5a 17be
00000020: 601c bdbd 345f b13c d45d 67be f682 68bd
00000030: 710f cabd 4988 403e fb37 843e 515f 10bd
00000040: ab15 54be 9eac 11be c9d1 fc3d e21a 35bd
00000050: 131e 6fbd da47 803c 2322 fc3d 5550 8b3d
00000060: b41d 56be 6788 183d c6ae 44be e7a1 663c
00000070: d60d 963d 6ae3 ce3d 89a7 9a3d be46 943c
00000080: ec78 043e 4b73 b33c d3ad 9fbd 3c52 90bb
00000090: 2877 4ebd e151 31bd a9de 30be 8c76 05be
000000a0: 285c 4dbe 48d9 e33d 4ce3 0ebe 3b13 e3ba
000000b0: 085e 1dbe f5bc e63c 9f20 f8bd 47b6 723c
000000c0: 883b d63d 3079 27be 974c 4bbe 1a1f 35bd
000000d0: 9bc3 ac3d 5482 0a3e d46e 0fbe 16cf bf3d
000000e0: 3b24 b7bd 2bcd febd 8536 5abd 6f09 4dbd
000000f0: e300 46bd 2f5d 103d 69ee 20be 5c1c 7abd
00000100: 8d85 1f3e dbe4 863d da94 babd 3d1b 80bd
00000110: 3148 263e 50a5 34be 0f07 16be 3fbf 48be
00000120: ed18 33bc a5fa 093d 2dcb bd3c 71e5 213e
00000130: 490b 25be 082e 2f3e cd55 083d af28 a1bc
00000140: 3936 49be ca13 853c 3b36 743d 5b2a 903c
00000150: 799c 79be d8a4 813e aab2 7f3e 6f26 5fbe
00000160: 5dbd b23d 9eff 3f3e b38b 67bd 7ab9 2e3e
00000170: ec0c 15be ac78 a4bd 90c4 50bd 0a25 b3be
00000180: 7146 ee3d 3562 2cbe b60d 92bd 518d cc3d
00000190: a7e7 0abd 8542 103e cfda 8e3c 72f1 493e
000001a0: c376 dc3d ab7e ebbc 6cf4 cfbc 3c17 033e
000001b0: 9431 933c 297b 29bd 8e99 02be e685 093d
000001c0: b311 453e 5112 583e e2fd 1bbe 3cc3 733d
000001d0: 696a 3e38 374a eebd 5eff 5ebd 24e1 853d
000001e0: 68df 643c b72b 2fbd 9d56 b3bd 2c1f 84bc
000001f0: 93c5 de3d 403f d33d 13c0 013e ae5b 59be
00000200: 6d0f 623e c030 173e 00f9 e1bd dd55 c6be
00000210: 7b2a b43d 1665 4fbe c476 37be 298b 77be
00000220: 0550 8cbe e1b6 7cb9 d76d 97bd 114f 013e
00000230: f75a 6ebe 7c12 863e bb25 263e 3c87 adbe
00000240: b897 e4be 09d8 acbe 7eb5 a63d 2c8e 2dbe
00000250: 7b86 53be 645c 6b3d 91da 943e 4022 a6bd
00000260: bb6b 74be 68ae c13e 077e 3dbe a019 433e
00000270: fe64 47be aeee 75bd 119f 233e 910e babd
00000280: 4033 cabc 91e2 d5bd 3361 07be ca41 9bbe
00000290: 03c3 87bd ad6e fcbc 7d60 4a3c ef85 42bd
000002a0: 9708 84be eec4 4fbd f928 ea3c de33 483c
000002b0: 9d41 5dbd 0d1b f0bd d47f dbbd 121f 72be
000002c0: 6e01 ddbd 8312 06bd c9a6 7f3d dad2 6dbe
000002d0: a366 0bbd c6c5 40be 9d8d b9bc 207d 56be
000002e0: 006f ad3a f864 90bc 9188 fabd 97e7 bc3c
000002f0: 84f5 cebd 7cad 02be 20b3 243d be8c 15be
00000300: 9976 30be 6fa3 13be 2515 123d 9698 38be
00000310: 9875 15be 7f82 95bb 29c6 72bd 72c9 8cbd
00000320: 4e8a a43d f862 57bc e511 903d f393 283d
00000330: e730 8ebd 5d4b 33be 415b f3bd 63b9 c03c
00000340: c8bb 6cbd ac3b 1ebe 6c67 c8bd 7d30 f63d
00000350: ec4c 36be 94a3 cdbc cf08 05bc 84c2 dfbd
00000360: f6ce 19be cd7c 7e3d d34e 54be 39e0 fabd
00000370: 5e5e 28bd a8cf f53d 6bdb c03c 5472 88bd
00000380: 6fda 35bd c333 533d 893a 183e 0600 9a3e
00000390: 4c2c 463d 87cb ea3d 0ccb c53e 5e33 173e
000003a0: 8773 303d 9995 f73a b2fa aa3e e0de ddbc
000003b0: aeee a93e 5dd2 e0bc d6c7 a03b e25a a03e
000003c0: 0c30 373e 9e65 9d3e 703b 3b3e ed68 a83e
000003d0: 9315 373d ef0f a2bd ff57 babd 0934 b83e
000003e0: 5e72 6b3e 2baa 113e 9481 3b3e d317 7d3d
000003f0: 1a54 873e 8d92 be3d aa22 743d f68e 943d

first_h.3.bias f4 [32]
-0.14705256 -0.1070675 0.007633681 0.17088188 0.035072125 0.03475208 -0.22104752 0.20232034
-0.052115638 -0.022545198 -0.062311467 -0.24328907 0.2559837 -0.021118224 -0.25658262 0.08374751
0.12836902 0.04583162 -0.08617912 -0.17093752 -0.24602409 0.09482748 0.06611307 0.13012679
0.01227808 0.0061257607 0.25657478 0.4729066 -0.1446878 -0.16550328 0.006992253 -0.06722092
00000000: f294 16be 3546 dbbd f523 fa3b a9fb 2e3e
00000010: caa7 0f3d 3258 0e3d 485a 62be 102d 4f3e
00000020: 3577 55bd b5b0 b8bc 4f3a 7fbd c520 79be
00000030: 4c10 833e 2000 adbc cc5e 83be d183 ab3d
00000040: 2b73 033e f0b9 3b3d ae7e b0bd 3f0a 2fbe
00000050: bded 7bbe e934 c23d 4a66 873d f53f 053e
00000060: 002a 493c 9bba c83b c55d 833e d020 f23e
00000070: 0a29 14be b179 29be 451f e53b 1fab 89bd

first_h.4.weight f4 [32]
0.8933423 0.6775902 0.7934889 0.2867583 0.8566841 0.87145644 0.5600233 0.19993001
0.72515523 0.28020534 0.66635007 0.8203301 0.8164389 0.017385175 0.9428407 0.7118828
0.742947 0.5974337 0.34992588 0.19242683 0.70130056 0.78990775 0.74624324 0.20167784
0.7208623 -0.0032305806 0.5439793 0.27822906 0.4953278 0.6767475 0.5070671 0.19731103
00000000: 15b2 643f 8d76 2d3f 1722 4b3f fcd1 923e
00000010: a64f 5b3f c517 5f3f b05d 0f3f 74ba 4c3e
00000020: c6a3 393f 1377 8f3e eb95 2a3f 2701 523f
00000030: 2402 513f 5b6b 8e3c 025e 713f f43d 363f
00000040: c631 3e3f 6af1 183f 7c29 b33e 8a0b 453e
00000050: 6f88 333f 6537 4a3f cc09 3f3f a384 4e3e
00000060: 6f8a 383f 26b8 53bb 3a42 0b3f 0a74 8e3e
00000070: 9b9b fd3e 533f 2d3f 26cf 013f e70b 4a3e

first_h.4.bias f4 [32]
-0.17639966 -0.32576418 -0.21243526 -0.47945496 -0.2744963 -0.2803305 -0.35391843 -0.80299044
-0.23641394 -0.13075589 -0.23818503 -0.19257988 -0.06553847 -0.88375866 -0.26572064 -0.2499093
-0.2530044 -0.41327816 -0.5144976 -0.72488797 -0.21591318 -0.16616644 -0.31618446 -0.59062654
-0.32172212 -0.30251974 -0.6385819 -0.5619855 -0.36856425 -0.2142549 -0.48379344 -0.7897988
00000000: 1da2 34be 90ca a6be a188 59be 1f7b f5be
00000010: c78a 8cbe 7b87 8fbe cc34 b5be c890 4dbf
00000020: 7f16 72be dfe4 05be c7e6 73be a933 45be
00000030: 0939 86bd 023e 62bf 890c 88be 39e8 7fbe
00000040: cb89 81be 3299 d3be 1db6 03bf 4292 39bf
00000050: 5818 5dbe 8927 2abe eee2 a1be 4d33 17bf
00000060: c3b8 a4be dee3 9abe 1a7a 23bf 48de 0fbf
00000070: 74b4 bcbe a365 5bbe c6b3 f7be 4130 4abf

first_h.4.running_mean f4 [32]
-0.17096917 -0.4676264 -0.02766609 0.21441828 -0.23196328 -0.4019932 -0.5322948 1.0136355
-0.7501819 -0.43717036 -1.1539483 -0.86918086 0.028039727 0.8532989 -0.6996824 -0.45178005
-0.36853853 0.36071014 0.27034912 0.1482945 -0.4543621 -0.38017792 -0.31285548 0.2842658
-0.38139498 0.37943488 0.5371069 1.280467 -0.06012075 -0.39402118 0.4959132 1.1153075
00000000: 8b12 2fbe ba6c efbe ffa3 e2bc 7790 5b3e
00000010: c887 6dbe 0dd2 cdbe 7944 08bf cfbe 813f
00000020: ec0b 40bf cbd4 dfbe 94b4 93bf a382 5ebf
00000030: 92b3 e53c cc71 5a3f 631e 33bf b74f e7be
00000040: 15b1 bcbe 00af b83e 336b 8a3e 83da 173e
00000050: 26a2 e8be aea6 c2be 982e a0be 498b 913e
00000060: 3446 c3be 4a45 c23e d67f 093f 58e6 a33f
00000070: 2d41 76bd 25bd c9be 56e8 fd3e 65c2 8e3f

first_h.4.running_var f4 [32]
1.1726118 0.6448097 3.743257 0.7832015 11.700363 2.3029456 0.9186918 12.922485
6.8792734 6.045896 8.551426 4.2837124 3.059596 6.3993125 1.6134483 2.7922864
5.0583167 0.45395696 0.60920644 0.6474774 0.651858 2.115848 14.401785 1.5582846
9.139689 1.4153908 9.595343 13.404394 1.1519011 1.5141357 0.07993375 15.318657
00000000: 2518 963f 4012 253f 8691 6f40 e57f 483f
00000010: b034 3b41 7663 1340 632f 6b3f 80c2 4e41
00000020: 0223 dc40 fb77 c140 a4d2 0841 2c14 8940
00000030: 6cd0 4340 2bc7 cc40 7985 ce3f d2b4 3240
00000040: bbdd a140 0c6d e83e f4f4 1b3f 14c1 253f
00000050: 2ae0 263f 0e6a 0740 b66d 6641 df75 c73f
00000060: 2b3c 1241 872b b53f 8686 1941 6678 5641
00000070: 7f71 933f 33cf c13f 4eb4 a33d 3819 7541

nns.0.0.weight f4 [32, 32]
-0.26709035 -0.28019494 -0.14571916 -0.3760191 -0.37409362 -0.111436814 -0.18800001 -0.27764657
-0.29017985 -0.16291456 -0.1457272 0.017422765 0.067149185 -0.40888295 -0.23950174 -0.09831016
0.10107996 -0.2562727 -0.23897445 -0.4194383 -0.06210078 -0.06967405 -0.22284679 -0.35882026
-0.21717104 -0.259427 -0.35962644 -0.20179868 -0.48290253 -0.18466881 -0.40493298 -0.08813649
-6.0146143e-05 0.044248663 -0.0028574462 0.112859346 -0.012027365 0.19723953 -0.12988648 -0.11342963
-0.16451403 -0.24631582 -0.100919805 -0.24870546 0.09364953 -0.061063215 -0.11070296 -0.245388
0.06687402 -0.20007302 -0.072116286 -0.14741683 0.030862069 -0.14369905 0.15945578 -0.08688126
0.06333758 -0.107609555 0.15266293 0.042155143 0.05242645 0.092728846 0.1023095 0.1723162
-0.16809382 -0.06652707 -0.079974145 -0.3112478 -0.07930012 -0.012056441 -0.17122288 -0.3315728
0.011959629 -0.36200178 -0.0065276255 -0.23364545 -0.2838175 -0.08836328 -0.2496632 0.028087452
-0.1556996 -0.006732936 -0.49578118 -0.15868324 0.10897734 -0.21062249 -0.16037612 -0.15422781
-0.06958227 -0.12790921 0.053437166 -0.1798492 -0.054318607 -0.015080209 0.032896873 -0.072936155
-0.10044679 -0.070249096 -0.24870618 -0.07846788 0.08607819 0.0071961824 -0.12615187 0.11754954
-0.20694524 0.12896301 -0.2651155 -0.09224962 -0.3300034 -0.08179876 -0.09849482 -0.066388816
-0.036961503 0.012241771 -0.113505155 -0.060012087 -0.07814334 -0.011521043 0.06922673 0.036120918
-0.12196612 -0.16537218 -0.08825434 0.045256216 0.13286212 0.052340254 -0.17636299 0.15236051
-0.1922561 -0.15999967 0.009476926 -0.17722361 -0.30959502 -0.11914825 -0.15064764 -0.27679384
-0.049286462 -0.13611563 -0.25443882 0.07907709 0.045239426 -0.10677415 -0.04976748 -0.1618748
0.04440675 -0.13920268 -0.032166023 -0.28805012 0.120434664 0.10984785 -0.21730557 -0.18066142
-0.07818596 0.06581393 -0.1747471 -0.20030259 -0.25197062 -0.2084146 -0.21582955 -0.28211764
-0.1205158 -0.17015567 0.058076505 -0.15322763 0.22738963 0.19273351 -0.073656164 -0.090425365
-0.14079392 -0.14279379 -0.014582874 -0.2482993 0.002823605 0.04138312 0.041542128 -0.072896056
-0.17525283 -0.021716582 -0.05151183 -0.11944395 0.11530998 -0.16236947 -0.018918306 0.015493005
0.08358739 0.07104148 0.19708747 -0.013382149 0.069226794 -0.15298614 0.01974452 0.07392899
-0.11923289 -0.21074334 -0.04195922 -0.1762335 -0.1398599 0.031938195 -0.24604179 -0.10794025
0.11897746 -0.23230197 -0.012635478 0.06440318 -0.1383196 -0.1370008 -0.180893 -0.19331925
-0.06816113 -0.12324519 0.040026497 -0.086647674 -0.14538273 0.0048424713 0.091284215 0.07489698
-0.011513448 -0.18411177 0.0030324238 0.049028877 -0.1673958 -0.11068035 0.06109956 -0.22245398
-0.14212158 -0.16955183 0.118135385 0.35801056 -0.30729347 0.012883676 -0.06298713 -0.11041354
-0.1484027 0.21079768 -0.18748598 -0.20939651 -0.25806472 0.12961279 -0.18842304 0.13262217
-0.08476267 0.1863793 0.40242422 0.17855546 0.04749073 0.07799859 -0.17416786 0.15182191
0.1382078 -0.06605131 0.06472824 0.15615714 0.10318485 -0.16168389 -0.06976665 0.004911354
00000000: 11c0 88be b675 8fbe 6737 15be 9385 c0be
00000010: 3389 bfbe fc38 e4bd 1383 40be b127 8ebe
00000020: 7492 94be 13d3 26be 8339 15be 30ba 8e3c
00000030: 8385 893d 1b59 d1be f23f 75be d656 c9bd
00000040: 0303 cf3d 2d36 83be b8b5 74be 9ec0 d6be
00000050: 635d 7ebd 45b1 8ebd f331 64be 4ab7 b7be
00000060: 1662 5ebe 9ed3 84be f520 b8be 50a4 4ebe
00000070: 003f f7be d219 3dbe 6053 cfbe e780 b4bd
00000080: 6e45 7cb8 163e 353d fe43 3bbb cd22 e73d
00000090: 6d0e 45bc 29f9 493e f600 05be cb4d e8bd
000000a0: 5e76 28be 373a 7cbe 0baf cebd a5ac 7ebe
000000b0: 53cb bf3d 6c1d 7abd 3cb8 e2bd fe46 7bbe
000000c0: 3ff5 883d f1df 4cbe b4b1 93bd 70f4 16be
000000d0: 73d2 fc3c d825 13be 6048 233e cdee b1bd
000000e0: 22b7 813d 6662 dcbd ac53 1c3e dfaa 2c3d
000000f0: 1ebd 563d 9fe8 bd3d a587 d13d a873 303e
00000100: c920 2cbe 583f 88bd 7cc9 a3bd df5b 9fbe
00000110: 1a68 a2bd 6188 45bc 0d55 2fbe e9c3 a9be
00000120: 52f2 433c 4c58 b9be b1e5 d5bb c140 6fbe
00000130: 8750 91be cff7 b4bd b6a7 7fbe a817 e63c
00000140: b76f 1fbe f69f dcbb 08d7 fdbe dc7d 22be
00000150: 832f df3d 6cad 57be a339 24be e5ed 1dbe
00000160: 2681 8ebd a2fa 02be eee0 5a3d 642a 38be
00000170: 307d 5ebd fb12 77bc dfbe 063d 8d5f 95bd
00000180: 0cb7 cdbd c2de 8fbd d5ac 7ebe c5b3 a0bd
00000190: c349 b03d f4cd eb3b f52d 01be d0bd f03d
000001a0: 74e9 53be e10e 043e 38bd 87be 5eed bcbd
000001b0: 35f6 a8be 1c86 a7bd a7b7 c9bd dcf6 87bd
000001c0: f264 17bd b691 483c 6475 e8bd 3ccf 75bd
000001d0: 9e09 a0bd c2c2 3cbc bec6 8d3d 87f3 133d
000001e0: 60c9 f9bd 5357 29be b1be b4bd 955e 393d
000001f0: 020d 083e bc62 563d 8098 34be 6504 1c3e
00000200: c8de 44be f4d6 23be 1c45 1b3c 1b7a 35be
00000210: 3d83 9ebe ff03 f4bd 6043 1abe ecb7 8dbe
00000220: 9ae0 49bd e561 0bbe ce45 82be 2bf3 a13d
00000230: fa4c 393d 68ac dabd fcd8 4bbd 82c2 25be
00000240: dae3 353d 268b 0ebe 85c0 03bd 4e7b 93be
00000250: 73a6 f63d e9f7 e03d 5a85 5ebe 4fff 38be
00000260: f61f a0bd 74c9 863d e7f0 32be 1f1c 4dbe
00000270: 4b02 81be a36a 55be 6c02 5dbe b971 90be
00000280: fdd0 f6bd 4a3d 2ebe a1e1 6d3d b4e7 1cbe
00000290: d4d8 683e ef5b 453e 0bd9 96bd ef30 b9bd
000002a0: 482c 10be 8938 12be 02ed 6ebc 2c42 7ebe
000002b0: 3b0c 393b 5981 293d 1428 2a3d 874a 95bd
000002c0: 7a75 33be f9e6 b1bc 12fe 52bd 089f f4bd
000002d0: a427 ec3d 2f44 26be 90fa 9abc 5fd6 7d3c
000002e0: de2f ab3d 327e 913d 4cd1 493e cd40 5bbc
000002f0: c7c6 8d3d 66a8 1cbe 42bf a13c 1568 973d
00000300: 6030 f4bd 1acd 57be 6edd 2bbd 8e76 34be
00000310: 6f37 0fbe a0d1 023d 61f2 7bbe c70f ddbd
00000320: 74aa f33d 91e0 6dbe 0905 4fbc d0e5 833d
00000330: a7a3 0dbe f049 0cbe 043c 39be 7bf5 45be
00000340: 1098 8bbd f967 fcbd d3f2 233d 5674 b1bd
00000350: 36df 14be 98ad 9e3b 38f3 ba3d 9663 993d
00000360: e7a2 3cbc cc87 3cbe a1bb 463b 81d2 483d
00000370: ce69 2bbe 61ac e2bd 8843 7a3d faca 63be
00000380: 5288 11be ff9e 2dbe f7f0 f13d 294d b73e
00000390: 9255 9dbe 0e16 533c 65ff 80bd 7e20 e2bd
000003a0: e1f6 17be 59db 573e 53fc 3fbe 0a6c 56be
000003b0: 0f21 84be 37b9 043e f8f1 40be 1bce 073e
000003c0: 0d98 adbd 37da 3e3e 8c0a ce3e 3ed7 363e
000003d0: a485 423d babd 9f3d 0f59 32be 3477 1b3e
000003e0: 5886 0d3e e945 87bd 3d90 843d a8e7 1f3e
000003f0: 9452 d33d 7690 25be d1e1 8ebd 6cef a03b

nns.0.0.bias f4 [32]
-0.18046474 0.09839339 -0.08385269 -0.4105851 -0.5689971 -0.26839784 -0.29518974 0.015720982
-0.06324752 0.59872437 0.2304042 -0.26179478 0.013183737 -1.0040288 0.60314333 -0.18891312
0.35904947 -0.063605316 0.23859462 0.1567348 -0.39199975 -0.12642589 -0.08206445 -0.43569255
-1.0932692 0.076199904 -0.0041868403 0.24300718 -0.37179515 0.035422023 -0.28591576 -0.062389426
00000000: c0cb 38be 7982 c93d f6ba abbd 3638 d2be
00000010: cba9 11bf 716b 89be 1c23 97be 4ac9 803c
00000020: ea87 81bd 0046 193f 14ef 6b3e f709 86be
00000030: 9a00 583c 0484 80bf 9a67 1a3f 7172 41be
00000040: 55d5 b73e 8143 82bd 2652 743e 167f 203e
00000050: 31b4 c8be ca75 01be 6811 a8bd 1813 dfbe
00000060: 3ff0 8bbf b20e 9c3d c331 89bb e0d6 783e
00000070: ef5b bebe af16 113d 8d63 92be 0e8c 7fbd

nns.0.1.weight f4 [32]
0.7029955 1.0234593 0.7168438 0.96082157 0.7796587 1.0200421 0.92996067 -0.13658799
1.0120127 1.1719153 0.9310164 0.85065556 0.9158943 1.0126 1.0372444 1.0286413
0.95009553 1.0185715 1.0928475 0.9806334 1.331042 0.76434135 1.0131677 0.9262127
0.97654295 0.9697787 0.8044203 0.9416571 1.1904702 0.9818864 0.9868756 0.95604396
00000000: 83f7 333f b700 833f 1383 373f 67f8 753f
00000010: b697 473f bd90 823f e711 6e3f b9dd 0bbe
00000020: a289 813f 5201 963f 1757 6e3f 90c4 593f
00000030: 0d78 6a3f e09c 813f 6dc4 843f 85aa 833f
00000040: 7639 733f 8d60 823f 6de2 8b3f ca0a 7b3f
00000050: 965f aa3f e0ab 433f 7baf 813f 471c 6d3f
00000060: b8fe 793f 6b43 783f 7dee 4d3f 7110 713f
00000070: 5461 983f e85c 7b3f e1a3 7c3f 4cbf 743f

nns.0.1.bias f4 [32]
-0.11520867 -0.20940413 0.29000184 0.18286763 -0.14631177 -0.31415886 0.025643373 -0.36724895
-0.5897457 0.33809155 -0.061359867 -0.19179691 -0.08418261 0.0028060272 0.005829149 -0.03316173
0.51505494 -0.07790936 -0.31043783 -0.3708257 0.4291576 -0.26506722 -0.05726616 0.13179404
-0.07939976 -0.26452866 -0.5395338 0.4595044 0.078342855 0.40596032 0.4041349 0.43391714
00000000: 86f2 ebbd 096e 56be 1f7b 943e a741 3b3e
00000010: c1d2 15be 6ed9 a0be 0d12 d23c 0e08 bcbe
00000020: 93f9 16bf 561a ad3e 7c54 7bbd 6966 44be
00000030: ef67 acbd 53e5 373b 7202 bf3b 98d4 07bd
00000040: a4da 033f f18e 9fbd b5f1 9ebe dedc bdbe
00000050: 8cba db3e e4b6 87be ec8f 6abd 04f5 063e
00000060: 579c a2bd 4d70 87be e31e 0abf 2944 eb3e
00000070: 3872 a03d 08da cf3e c5ea ce3e 632a de3e

nns.0.1.running_mean f4 [32]
-0.29450154 0.08601211 -0.2903222 -0.55256355 -0.6285761 -0.31151608 -0.39549306 0.0444106
-0.06197511 0.46023372 0.11136733 -0.31818002 -0.07727758 -1.0823972 0.63080513 -0.1340298
0.2702393 0.01996335 0.059902277 0.20683964 -0.49536073 -0.20987763 -0.021721208 -0.46973678
-1.030539 0.044031113 0.05047622 0.18603688 -0.25413108 -0.060084976 -0.5178467 -0.10415658
00000000: e8c8 96be 1e27 b03d 1da5 94be ce74 0dbf
00000010: 5dea 20bf 097f 9fbe 117e cabe e4e7 353d
00000020: 9dd9 7dbd c1a3 eb3e 8e14 e43d 7ee8 a2be
00000030: b543 9ebd fe8b 8abf 727c 213f 1c3f 09be
00000040: ce5c 8a3e 2e8a a33c 175c 753d c5cd 533e
00000050: ec9f fdbe 29ea 56be adf0 b1bc 5781 f0be
00000060: b4e8 83bf f859 343d 27c0 4e3d 7480 3e3e
00000070: 781d 82be aa1b 76bd 9a91 04bf 0c50 d5bd

nns.0.1.running_var f4 [32]
3.9036138 0.19633065 5.5474415 0.1097893 1.6012279 0.34337792 0.4354813 3.0500224
0.7247102 0.9335722 0.41910017 0.9841774 0.6408923 0.17752595 0.18424706 0.6159242
0.6730216 0.33205763 4.910091 2.301858 3.0033739 1.8022913 1.0639744 0.0697941
0.24217243 0.30893153 1.2557774 0.18708746 2.3749733 0.7191675 4.0941014 0.12620108
00000000: cfd4 7940 e70a 493e a484 b140 36d9 e03d
00000010: 09f5 cc3f 3bcf af3e 68f7 de3e 9133 4340
00000020: 9c86 393f 96fe 6e3f 4c94 d63e 0df3 7b3f
00000030: 8511 243f 5dc9 353e 43ab 3c3e 35ad 1d3f
00000040: 254b 2c3f 7503 aa3e 771f 9d40 a451 1340
00000050: 4737 4040 7bb1 e63f 5030 883f 36f0 8e3d
00000060: 0dfc 773e 462c 9e3e 50bd a03f db93 3f3e
00000070: 90ff 1740 5c1b 383f e102 8340 db3a 013e

nns.0.3.weight f4 [32, 32]
-0.20613517 -0.07764149 -0.06815946 -0.029906943 -0.024760058 0.11612707 0.032418728 -0.28777555
-0.060810927 0.16172281 -0.061407544 -0.04893029 0.111297905 0.19489211 -0.02538916 -0.12437744
0.28639793 0.041247647 0.040701985 -0.14587681 0.29658768 -0.011935754 -0.19028653 0.07988839
-0.093497165 0.10634451 0.15497172 0.25433025 -0.20925792 0.09146814 0.2554664 0.10179769
-0.14971921 -0.034953155 0.31861585 0.048321463 -0.29918376 -0.04701731 0.14120103 -0.20672712
0.032491 0.3003467 -0.11206419 -0.2509814 -0.08903457 0.05433292 -0.037110906 -0.6002791
0.13072143 0.09959906 0.022751937 0.067525834 0.32520002 -0.21357901 -0.24654475 -0.17798741
0.052917153 0.20477831 0.08772637 0.09169879 -0.21719332 0.006070927 0.14245057 -0.1049067
-0.15495683 -0.07173035 0.059797596 0.17520349 -0.12610339 0.04426843 0.10013926 0.09903929
-0.039846256 0.4052566 0.08303844 -0.13729584 0.21323521 0.090155914 0.0007389874 -0.18313986
0.37754846 -0.076159775 -0.15848021 -0.008019343 0.13606621 -0.26898146 -0.32347417 0.12659012
0.0054577617 -0.12262198 -0.2406117 0.30748868 -0.2848122 0.2466898 0.27255934 0.03568132
0.023532977 -0.0034851886 0.25041714 -0.13495655 0.063055485 -0.048867393 -0.019237438 0.05415663
-0.19900846 0.31000328 -0.22747818 -0.1653847 -0.17161842 -0.016240416 0.020243803 0.0947161
0.10965089 -0.14478312 0.049839165 -0.12271742 0.12860502 0.05349022 -0.18219861 -0.051588245
-0.095846735 -0.05993819 0.08611746 -0.13134862 -0.17763245 0.0020492743 -0.037395988 -0.08236111
-0.007620418 -0.1602576 0.24540202 0.06930346 0.05750237 -0.08055441 -0.15534043 0.10731051
0.020795895 -0.07772291 0.080993816 -0.017205333 0.08295239 0.012577787 0.104944326 -0.069463044
-0.061052628 -0.11409663 -0.052178167 -0.18577631 0.11679289 -0.039963573 -0.23134992 -0.21867771
-0.22234064 0.039856493 -0.1449143 0.018982567 -0.17680544 0.023272296 0.13446999 0.013635791
-0.24366954 0.010393587 0.13476416 -0.085945405 -0.0054449695 -0.010687474 -0.051210728 0.019022303
0.04465736 0.08482432 -0.047738444 0.14964546 0.17228588 0.24087021 0.033848546 0.019440426
-0.0052204016 -0.18726136 -0.055326015 0.08530639 0.3058777 -0.08450718 -0.114051014 -0.11073555
0.009958286 0.07937842 0.068776645 0.2287599 -0.3857455 0.23978642 0.064282194 0.34590244
0.09875528 0.13094792 0.015040662 0.03067512 -0.12610143 0.2600609 0.15291029 -0.14231466
0.015799789 0.21985891 -0.012639853 -0.07734316 -0.051736627 0.01988342 -0.06704197 -0.36182463
0.20823574 -0.19331323 0.08048072 -0.05496917 0.20445342 -0.056904204 0.074815795 0.22118926
0.07905185 -0.1627212 0.09695791 -0.053759318 -0.049890287 0.11046068 0.3607997 0.06767673
0.22247551 0.077325955 0.093827926 -0.022377145 -0.09526908 -0.02766604 -0.24297187 0.06382709
-0.10823551 0.14945227 0.044651657 -0.06583106 -0.12102581 0.14444625 -0.09248545 -0.14052917
-0.11512483 -0.068657435 -0.15407556 -0.19817466 0.14030197 -0.13574584 -0.112432554 -0.12719107
-0.19673875 -0.034601673 0.120166525 0.08758023 -0.033466265 -0.19677125 0.102428846 -0.07705406
00000000: 1915 53be 8002 9fbd 3097 8bbd 68ff f4bc
00000010: 9bd5 cabc 07d4 ed3d 80c9 043d 5157 93be
00000020: e114 79bd aa9a 253e 7a86 7bbd 216b 48bd
00000030: 28f0 e33d cc91 473e edfc cfbc 99b9 febd
00000040: c0a2 923e 4bf3 283d 20b7 263d bb60 15be
00000050: 57da 973e 2e8e 43bc 79da 42be 869c a33d
00000060: 717b bfbd 27cb d93d e8b0 1e3e 9337 823e
00000070: b547 56be a653 bb3d 7ecc 823e 4f7b d03d
00000080: fe4f 19be 0a2b 0fbd 9e21 a33e baec 453d
00000090: 9d2e 99be 3995 40bd 0197 103e 46b0 53be
000000a0: 4815 053d 0bc7 993e e981 e5bd a280 80be
000000b0: c257 b6bd 328c 5e3d 9b01 18bd e4ab 19bf
000000c0: d7db 053e 98fa cb3d 4562 ba3c fc4a 8a3d
000000d0: 9e80 a63e 75b4 5abe 3a76 7cbe 5542 36be
000000e0: a8bf 583d 68b1 513e e2a9 b33d 93cc bb3d
000000f0: ed67 5ebe a0ee c63b 90de 113e 53d9 d6bd
00000100: 01ad 1ebe 5de7 92bd 53ee 743d 8b68 333e
00000110: 3f21 01be d052 353d d015 cd3d 1cd5 ca3d
00000120: d435 23bd cb7d cf3e 0f10 aa3d 4897 0cbe
00000130: 555a 5a3e aaa3 b83d 9bb8 413a 0489 3bbe
00000140: 084e c13e a8f9 9bbd a348 22be 9063 03bc
00000150: f154 0b3e f0b7 89be 689e a5be d7a0 013e
00000160: 06d7 b23b 3c21 fbbd ea62 76be 286f 9d3e
00000170: e8d2 91be 409c 7c3e e68c 8b3e 9326 123d
00000180: 3bc8 c03c c367 64bb ad36 803e 0d32 0abe
00000190: 3c23 813d 2d29 48bd d597 9dbc 58d3 5d3d
000001a0: e0c8 4bbe c0b8 9e3e 0af0 68be 9b5a 29be
000001b0: bdbc 2fbe 9f0a 85bc 55d6 a53c 84fa c13d
000001c0: a590 e03d 0742 14be 2724 4c3d 4553 fbbd
000001d0: 09b1 033e 9018 5b3d 4692 3abe 324e 53bd
000001e0: 4b4b c4bd bf81 75bd 5a5e b03d 4180 06be
000001f0: 48e5 35be 1e4d 063b 892c 19bd f1ac a8bd
00000200: b3b4 f9bb 911a 24be ab4a 7b3e f9ee 8d3d
00000210: 9b87 6b3d b6f9 a4bd 9011 1fbe 9dc5 db3d
00000220: 275c aa3c 302d 9fbd 16e0 a53d 33f2 8cbc
00000230: f1e2 a93d 1013 4e3c 0ded d63d a442 8ebd
00000240: 5212 7abd 7eab e9bd c6b8 55bd 253c 3ebe
00000250: 1c31 ef3d d8b0 23bd fee6 6cbe 0ded 5fbe
00000260: 44ad 63be 9040 233d 6a64 14be 5481 9b3c
00000270: 7c0c 35be 8ba5 be3c 80b2 093e a768 5f3c
00000280: 8284 79be dd49 2a3c 9eff 093e 2504 b0bd
00000290: b76b b2bb 841a 2fbc 57c2 51bd a9d4 9b3c
000002a0: a3ea 363d 60b8 ad3d 6389 43bd a93c 193e
000002b0: b66b 303e aea6 763e c6a4 0a3d 8741 9f3c
000002c0: e70f abbb 71c1 3fbe 889d 62bd 1eb5 ae3d
000002d0: 009c 9c3e 1a12 adbd 9493 e9bd 52c9 e2bd
000002e0: 1428 233c 2791 a23d c5da 8c3d 0940 6a3e
000002f0: 6f80 c5be 928a 753e 62a6 833d 201a b13e
00000300: 3540 ca3d 3617 063e 1c6d 763c 644a fb3c
00000310: bc20 01be b426 853e 8494 1c3e efba 11be
00000320: 8f6e 813c b222 613e 6317 4fbc 1766 9ebd
00000330: c9e9 53bd 8ee2 a23c 4d4d 89bd 1441 b9be
00000340: c03b 553e e7f3 45be 13d3 a43d 5a27 61bd
00000350: 3d5c 513e 6214 69bd 0639 993d 707f 623e
00000360: f0e5 a13d 63a0 26be de91 c63d bb32 5cbd
00000370: c259 4cbd 3639 e23d bdba b83e 199a 8a3d
00000380: 9fd0 633e 125d 9e3d db28 c03d 4650 b7bc
00000390: 6f1c c3bd e4a3 e2bc 9ecd 78be c7b7 823d
000003a0: 94aa ddbd 040a 193e a8e4 363d 6fd2 86bd
000003b0: 61dc f7bd b8e9 133e 0369 bdbd e1e6 0fbe
000003c0: 91c6 ebbd 459c 8cbd fcc5 1dbe 4cee 4abe
000003d0: 52ab 0f3e f500 0bbe 0a43 e6bd 603e 02be
000003e0: e275 49be 7cba 0dbd de19 f63d 435d b33d
000003f0: ec13 09bd 677e 49be 37c6 d13d 85ce 9dbd

nns.0.3.bias f4 [32]
-0.697476 0.01123132 -0.028272487 -0.04403708 -0.06551316 0.033378012 0.08938691 -0.03939619
0.10858437 -0.33803502 0.037571043 -0.07462346 0.2701173 -0.110831484 -0.16873883 -0.21197847
0.24031289 0.19357316 0.037576742 0.2489469 0.05444931 -0.004018542 0.2733795 0.16940749
0.0646845 0.7833248 -0.14158374 -0.4341186 0.08978708 -0.06768867 0.21361056 0.22861369
00000000: ca8d 32bf 9203 383c b49b e7bc 3a60 34bd
00000010: c32b 86bd 62b7 083d 7c10 b73d e65d 21bd
00000020: 7b61 de3d ed12 adbe 18e4 193d 2fd4 98bd
00000030: d14c 8a3e 9efb e2bd dfc9 2cbe e210 59be
00000040: 9514 763e 0b38 463e 12ea 193d f0eb 7e3e
00000050: 3d06 5f3d f9ad 83bb 66f8 8b3e 2879 2d3e
00000060: 4f79 843d f987 483f 54fb 10be cb44 debe
00000070: 4ae2 b73d 5ba0 8abd babc 5a3e b519 6a3e

nns.0.4.weight f4 [32]
0.7742181 0.88499326 0.5191726 0.8603198 0.84631497 0.8866144 0.6353657 0.79406154
0.8736304 0.2606713 0.93816906 0.3691384 0.73121935 0.7767059 0.7457719 0.52560586
0.7213111 0.63974303 0.6676519 0.63300073 0.87485147 0.5771198 0.7168282 0.6688082
0.76721877 0.49426115 0.83562994 0.95046103 0.9074336 0.7891684 0.2864777 0.8095165
00000000: 2833 463f eb8e 623f 7fe8 043f eb3d 5c3f
00000010: 19a8 583f 29f9 623f 54a7 223f 9e47 4b3f
00000020: 3ea6 5f3f b576 853e d92b 703f b5ff bc3e
00000030: 3131 3b3f 33d6 463f e8ea 3e3f 1b8e 063f
00000040: d8a7 383f 33c6 233f 3ceb 2a3f 560c 223f
00000050: 44f6 5f3f 20be 133f 0e82 373f 0437 2b3f
00000060: 7368 443f cc0f fd3e d8eb 553f 6a51 733f
00000070: 924d 683f f106 4a3f 35ad 923e 793c 4f3f

nns.0.4.bias f4 [32]
-0.40649787 -0.35586965 -0.25884923 -0.23269057 -0.21389829 -0.4070626 -0.42454678 -0.21174604
-0.25011387 -0.80170643 -0.36914927 -0.33784038 -0.23376456 -0.24864845 -0.47084296 -0.5119614
-0.21138479 -0.22186913 -0.32633555 -0.49585688 -0.1546213 -0.22836189 -0.39806002 -0.40059227
-0.17460899 -0.63512045 -0.37085792 -0.31200305 -0.29389876 -0.1845556 -0.0076737087 -0.22338267
00000000: 7d20 d0be 8c34 b6be e387 84be 7046 6ebe
00000010: 2708 5bbe 826a d0be 325e d9be f4d3 58be
00000020: ed0e 80be a23c 4dbf 2201 bdbe 6af9 acbe
00000030: fa5f 6fbe b39d 7ebe 5412 f1be e70f 03bf
00000040: 4175 58be a931 63be 7415 a7be f4e0 fdbe
00000050: 0c55 1ebe b3d7 69be 86ce cbbe 6e1a cdbe
00000060: b3cc 32be 4197 22bf 17e1 bdbe ddbe 9fbe
00000070: e679 96be 25fc 3cbe bc73 fbbb 6dbe 64be

nns.0.4.running_mean f4 [32]
0.002541233 0.48376215 0.92627347 0.033325665 -0.008920924 0.6405472 0.6770488 -0.08261716
0.07236184 0.8019901 0.33589125 0.98177594 0.4095367 0.8675203 0.59408844 0.53207546
0.12291983 0.22764091 0.2526403 1.3549728 -0.069299534 -0.30488858 0.9552572 0.6389761
-0.005013121 2.1683338 0.106223844 -0.15318279 0.17143747 -0.17448209 0.9569255 0.5176699
00000000: d18a 263b acaf f73e 4220 6d3f 7e80 083d
00000010: 1129 12bc e7fa 233f 1253 2d3f 3033 a9bd
00000020: 7232 943d 394f 4d3f f0f9 ab3e ab55 7b3f
00000030: cbae d13e cf15 5e3f 2e16 183f 1936 083f
00000040: 64bd fb3d b31a 693e 125a 813e c06f ad3f
00000050: eaec 8dbd 5b1a 9cbe bc8b 743f f093 233f
00000060: 1b45 a4bb fbc5 0a40 e38b d93d f3db 1cbe
00000070: 4e8d 2f3e 6fab 32be 12f9 743f 0486 043f

nns.0.4.running_var f4 [32]
0.60166776 0.71604854 1.3722793 0.6615625 1.1228335 0.41955298 0.2391831 0.54658693
0.44434696 0.380222 1.5626496 0.5549869 2.3535466 1.0629022 0.23985815 0.8796779
0.92574346 1.1732881 0.6146542 0.2935499 0.4846215 1.3931574 0.28517196 0.38710377
2.1110659 0.32437736 0.5338249 1.2315098 0.7016242 2.0878918 0.7043532 1.0248641
00000000: e606 1a3f f54e 373f d9a6 af3f 295c 293f
00000010: 02b9 8f3f a6cf d63e 6aec 743e 1fed 0b3f
00000020: 7281 e33e 75ac c23e e704 c83f 9f13 0e3f
00000030: 82a0 1640 2e0d 883f 609d 753e 9232 613f
00000040: 86fd 6c3f 4e2e 963f fa59 1d3f 2c4c 963e
00000050: 4f20 f83e fb52 b23f 0f02 923e 7732 c63e
00000060: b41b 0740 ca14 a63e c0a8 083f 1da2 9d3f
00000070: a59d 333f 05a0 0540 7e50 343f bf2e 833f

nns.1.0.weight f4 [32, 32]
0.009055155 0.006648697 -0.17325862 -0.07564571 -0.099425144 -0.12601788 0.055826675 -0.05435438
-0.08343857 -0.061440766 0.14067355 -0.19847281 -0.106162824 -0.20043616 -0.11913619 0.05059684
3.6779773e-05 0.032703985 -0.022358097 -0.28509918 -0.065325946 0.1299017 -0.0898741 -0.2656353
-0.22906184 -0.10667993 0.06688216 0.07033785 -0.06808898 0.01698429 -0.32121417 0.1053417
0.15788268 -0.087848775 0.2040211 0.09958634 -0.12349033 0.23788539 0.016500149 -0.086028546
-0.2767159 0.53720295 0.021938492 0.68546844 -0.16026287 0.21289344 -0.19937012 0.32700154
0.07827833 -0.02401605 0.099800885 0.08148992 -0.07666245 -0.40297556 0.034871243 0.046086643
-0.10426955 -0.33531228 -0.22372441 -0.12522638 0.28816915 -0.025049748 0.10620709 0.058848605
0.0005065991 0.10616443 0.16571374 0.24690403 -0.03721174 -0.10122179 -0.06553397 -0.083466515
-0.06005925 -0.20457366 0.23214377 -0.26087838 0.092099205 0.16238353 0.23220053 0.102193125
0.08862383 0.026620932 -0.091610424 -0.011030754 0.25293308 0.18563719 -0.10836866 -0.039654862
0.24424337 -0.06640587 -0.02874816 0.0010726481 0.10652525 0.0012807429 0.6976164 0.110329814
-0.039354347 0.011017789 -0.0015541484 -0.002476714 -0.16162156 0.054391723 0.22582377 0.07648296
0.022161381 0.29347104 0.14582819 0.30975002 -0.025791325 0.049864903 0.058629964 0.27980357
0.054156862 0.14146759 0.2827074 -0.0151481675 0.14989124 -0.24655686 0.08800594 0.29342046
-0.13314416 0.35060003 0.21969636 0.048108343 0.03291028 0.17580366 0.10119914 -0.10908544
0.264204 0.14461836 0.12684235 -0.10683999 0.09536496 0.30736074 0.027943289 -0.12927637
-0.20258345 0.48084885 -0.0368658 0.14723715 -0.031039556 0.3256637 0.20472032 0.0541693
-0.28378248 0.13946831 0.30366918 0.38735202 -0.17118336 0.049894366 0.15566228 0.30387884
0.03213369 0.14426486 -0.2009101 -0.24395287 -0.28898382 -0.080332056 -0.13766742 -0.11256552
-0.03163564 0.22727965 -0.061769947 0.002515263 0.20481305 0.015446878 0.21018937 -0.0871843
0.10753268 0.081555076 -0.25573826 -0.0016644021 -0.15398231 0.09998937 0.0479021 -0.06442135
-0.21471192 -0.004320846 0.06352412 0.107068576 -0.0543002 0.36207205 0.23317328 0.15777248
0.12324654 0.11071296 -0.036685847 -0.017231802 -0.10245389 0.2267181 -0.24169725 -0.024475152
-0.10114268 -0.045407083 -0.15364544 -0.10325744 -0.039333522 -0.14489014 0.055722833 0.40073875
0.17866914 -0.22628608 0.015264416 -0.3426103 0.045352224 0.014339 -0.15877745 -0.041029777
-0.23980153 0.18395492 -0.2084647 -0.23766011 -0.2543026 -0.10862834 -0.16335414 -0.31391397
0.067506105 -0.366968 -0.19524954 -0.22545598 -0.43793848 0.011258379 -0.29742646 0.027374636
-0.028011058 -0.24486981 -0.07862511 -0.09153972 0.19417857 -0.15759042 0.0027984437 -0.119755514
0.011488141 -0.04220031 0.13013954 0.17138588 -0.07419749 -0.2351578 -0.009284081 -0.21385288
0.14524442 0.0013706009 -0.020683615 0.032828268 -0.015639821 0.35744974 -0.33212873 0.07421464
0.13013445 -0.02588626 0.06309615 0.25168666 0.10911698 0.2205003 0.21407627 -0.14642954
00000000: 135c 143c 50dd d93b b56a 31be 23ec 9abd
00000010: 699f cbbd d50a 01be 83aa 643d b3a2 5ebd
00000020: d7e1 aabd 50a9 7bbd ba0c 103e 753c 4bbe
00000030: e56b d9bd 233f 4dbe adfd f3bd a23e 4f3d
00000040: fb43 1a38 9df4 053d 5428 b7bc 85f8 91be
00000050: 9cc9 85bd f404 053e ea0f b8bd 5a01 88be
00000060: 308f 6abe 027b dabd 84f9 883d 4a0d 903d
00000070: 3c72 8bbd a322 8b3c 2f76 a4be 64bd d73d
00000080: ffab 213e 0fea b3bd e8ea 503e ecf3 cb3d
00000090: 80e8 fcbd 3a98 733e 522b 873c bc2f b0bd
000000a0: b5ad 8dbe 2286 093f 5ab8 b33c dc7a 2f3f
000000b0: f31b 24be bd00 5a3e ae27 4cbe bf6c a73e
000000c0: 6450 a03d 4fbd c4bc 6864 cc3d 30e4 a63d
000000d0: 3401 9dbd d052 cebe 26d5 0e3d 59c5 3c3d
000000e0: 468b d5bd 0dae abbe 0318 65be 583b 00be
000000f0: e88a 933e 2135 cdbc 1a83 d93d 3c0b 713d
00000100: 4acd 043a bd6c d93d ddb0 293e 69d4 7c3e
00000110: 566b 18bd 5f4d cfbd ad36 86bd 7ef0 aabd
00000120: b000 76bd c27b 51be 19b7 6d3e da91 85be
00000130: 829e bc3d de47 263e fac5 6d3e a14a d13d
00000140: 6980 b53d 2414 da3c 3f9e bbbd 56ba 34bc
00000150: 7280 813e ad17 3e3e 63f0 ddbd 236d 22bd
00000160: ef1a 7a3e cdff 87bd 4381 ebbc 1998 8c3a
00000170: e929 da3d 9ade a73a fd96 323f 99f4 e13d
00000180: 0632 21bd f583 343c 91b4 cbba 5e50 22bb
00000190: 1f80 25be dbc9 5e3d 593e 673e 19a3 9c3d
000001a0: c98b b53c d641 963e fc53 153e 8e97 9e3e
000001b0: 5448 d3bc 243f 4c3d f925 703d 6a42 8f3e
000001c0: 96d3 5d3d e1dc 103e 06bf 903e 0530 78bc
000001d0: 177d 193e 6779 7cbe 753c b43d 353b 963e
000001e0: f156 08be d981 b33e 15f8 603e 410d 453d
000001f0: eecc 063d e005 343e 7f41 cf3d 3068 dfbd
00000200: bf45 873e d616 143e f6e2 013e edce dabd
00000210: b44e c33d 635e 9d3e 53e9 e43c 0661 04be
00000220: 0972 4fbe d231 f63e 9800 17bd 56c5 163e
00000230: ab46 febc 64bd a63e 34a2 513e a1e0 5d3d
00000240: f04b 91be c8d0 0e3e 877a 9b3e 0153 c63e
00000250: b14a 2fbe 095e 4c3d ef65 1f3e 0296 9b3e
00000260: 9e9e 033d 2bba 133e 61bb 4dbe c8ce 79be
00000270: b0f5 93be 2285 a4bd b0f8 0cbe c088 e6bd
00000280: 5f94 01bd ffbb 683e 7c02 7dbd 1cd7 243b
00000290: 83ba 513e e714 7d3c e23b 573e af8d b2bd
000002a0: 183a dc3d 5906 a73d 20f0 82be 1128 daba
000002b0: 8aad 1dbe 3ac7 cc3d fe34 443d 57ef 83bd
000002c0: 71dd 5bbe e295 8dbb ef18 823d c546 db3d
000002d0: e369 5ebd 8261 b93e fac4 6e3e 1c8f 213e
000002e0: af68 fc3d 7abd e23d e643 16bd b529 8dbc
000002f0: 58d3 d1bd ca28 683e 7c7f 77be 1d80 c8bc
00000300: e523 cfbd c7fc 39bd 3b55 1dbe a378 d3bd
00000310: 301c 21bd 155e 14be a03d 643d a12d cd3e
00000320: 0bf5 363e 8ab7 67be 9a17 7a3c 9e6a afbe
00000330: 41c3 393d 20ee 6a3c 8e96 22be d70e 28bd
00000340: 888e 75be ae5e 3c3e c577 55be 2c5d 73be
00000350: f333 82be 8978 debd 4f46 27be 55b9 a0be
00000360: a440 8a3d 3be3 bbbe 7fef 47be efdd 66be
00000370: 7939 e0be 1075 383c 4848 98be c640 e03c
00000380: 7277 e5bc 27bf 7abe 3406 a1bd 2d79 bbbd
00000390: bfd6 463e 625f 21be 1866 373b 6142 f5bd
000003a0: c138 3c3c 3bda 2cbd 4d43 053e c87f 2f3e
000003b0: dbf4 97bd 35cd 70be 421c 18bc 40fc 5abe
000003c0: f4ba 143e bca5 b33a af70 a9bc ef76 063d
000003d0: 151f 80bc a703 b73e c70c aabe d8fd 973d
000003e0: f741 053e 6c0f d4bc 8e38 813d 13dd 803e
000003f0: b978 df3d d5ca 613e cf36 5b3e a0f1 15be

nns.1.0.bias f4 [32]
0.060645085 -0.46692365 0.14759496 -0.22616911 -0.05281636 0.5480587 -0.3776539 0.25808904
0.13414706 0.57679164 0.32169712 0.10024155 0.6896241 0.15901355 -0.29333892 0.09051849
-0.10444045 0.13476878 -0.36745644 0.09971028 0.014743156 -0.36793345 -0.22578005 0.16931766
-0.200849 -0.55049163 -0.7843718 -0.19834703 0.019426374 -0.92935663 -0.7071854 -0.09316944
00000000: fb66 783d 9e10 efbe 2223 173e e098 67be
00000010: f855 58bd 934d 0c3f da5b c1be 3f24 843e
00000020: d95d 093e 9ea8 133f 7cb5 a43e 714b cd3d
00000030: 348b 303f 73d4 223e 8530 96be c261 b93d
00000040: e0e4 d5bd d400 0a3e 4023 bcbe e734 cc3d
00000050: 478d 713c c661 bcbe e332 67be 9c61 2d3e
00000060: 5cab 4dbe 05ed 0cbf 97cc 48bf 7c1b 4bbe
00000070: 0f24 9f3c 51ea 6dbf 1a0a 35bf 9fcf bebd

nns.1.1.weight f4 [32]
0.97855556 0.9713181 1.3013424 0.9228164 0.94066817 1.049701 1.0272107 0.86362034
0.97716844 0.7660319 1.2341137 0.9566358 1.2353839 0.8879572 0.9374081 1.1232731
0.9356328 1.049344 1.2928709 0.9094703 1.0801452 0.9470706 0.99115515 0.6980772
0.960498 0.86535627 1.2568685 0.99416405 0.85431165 1.3027017 0.94942063 0.9729365
00000000: 9e82 7a3f 4ea8 783f 6392 a63f b23d 6c3f
00000010: a1cf 703f 9a5c 863f a47b 833f 3916 5d3f
00000020: b627 7a3f ab1a 443f 70f7 9d3f 15e6 743f
00000030: 0f21 9e3f 2a51 633f faf9 6f3f 6ac7 8f3f
00000040: a285 6f3f e750 863f cb7c a53f 0cd3 683f
00000050: 3342 8a3f 3873 723f 58bc 7d3f 30b5 323f
00000060: 32e3 753f fd87 5d3f 11e1 a03f 8981 7e3f
00000070: 2bb4 5a3f eebe a63f 3b0d 733f 5e12 793f

nns.1.1.bias f4 [32]
-0.14737867 -0.49912968 0.13895841 -0.16710383 -0.66498035 -0.15923004 0.2675176 -0.07654863
-0.07414508 -0.29281572 0.2199938 -0.061011758 0.7330014 -0.16647477 0.11903814 -0.7227786
-0.29346323 -0.16384445 0.40406543 -0.16683497 -0.26876467 0.47730938 -0.1882846 -0.5290305
0.04733086 0.14402568 0.27708572 -0.31091315 -0.25941157 0.7825871 -0.28277794 -0.3635009
00000000: 6fea 16be ed8d ffbe 1d4b 0e3e 441d 2bbe
00000010: 273c 2abf 330d 23be 11f8 883e 87c5 9cbd
00000020: 60d9 97bd f1eb 95be 0e46 613e 77e7 79bd
00000030: fba5 3b3f 5d78 2abe 45ca f33d 0508 39bf
00000040: d040 96be d7c6 27be aae1 ce3e c9d6 2abe
00000050: 869b 89be e561 f43e aecd 40be 8b6e 07bf
00000060: 01de 413d 787b 133e 2ede 8d3e 0230 9fbe
00000070: 98d1 84be a157 483f 45c8 90be ca1c babe

nns.1.1.running_mean f4 [32]
0.075366385 -0.69912434 0.3511228 -0.2958404 0.03467609 0.81997997 -0.64015883 0.5734367
0.16308433 0.26758865 0.5592146 0.32866034 0.3614897 0.05370013 -0.40274635 -0.12719972
-0.26505584 0.09288543 -0.42894143 0.14194565 0.17183436 -0.62124485 -0.23946933 0.19409956
0.0983207 -0.72280383 -0.7401452 -0.13976064 0.1716567 -1.2244067 -0.52880335 -0.21783103
00000000: b159 9a3d d0f9 32bf 5ec6 b33e 6578 97be
00000010: 8408 0e3d 35ea 513f 73e1 23bf bfcc 123f
00000020: 94ff 263e 6101 893e b028 0f3f 2b46 a83e
00000030: 2e15 b93e abf4 5b3d c534 cebe a540 02be
00000040: 66b5 87be b73a be3d 369e dbbe 335a 113e
00000050: 59f5 2f3e e709 1fbf 7337 75be 09c2 463e
00000060: 5d5c c93d ac09 39bf 287a 3dbf 6a1d 0fbe
00000070: c6c6 2f3e 5cb9 9cbf a85f 07bf 190f 5fbe

nns.1.1.running_var f4 [32]
0.23077348 2.5329459 0.5492247 1.0632422 1.3677627 4.11448 3.240405 3.4413712
1.5988222 3.4902918 1.9856074 1.9800804 3.4693394 1.0150073 0.8707812 2.2699814
1.1903397 0.6628903 0.77569574 1.0781761 2.586469 4.0270014 0.18502162 0.27900735
4.189661 0.8058893 0.12571092 1.9424034 0.9953464 2.6714911 1.193684 1.3363774
00000000: e24f 6c3e c91b 2240 fd99 0c3f 5218 883f
00000010: d912 af3f d2a9 8340 cc62 4f40 6d3f 5c40
00000020: 35a6 cc3f f160 5f40 6228 fe3f 4673 fd3f
00000030: a809 5e40 c2eb 813f 84eb 5e3f 6047 1140
00000040: 0d5d 983f 2eb3 293f ff93 463f ad01 8a3f
00000050: b588 2540 32dd 8040 4f76 3d3e 0dda 8e3e
00000060: b411 8640 c34e 4e3f 5dba 003e ada0 f83f
00000070: 06cf 7e3f b6f9 2a40 a3ca 983f 6a0e ab3f
