result/08.22.2022_16.16.52/config_76fold_2_state_dict.pt (torch, 153628 bytes, 92 tensors)

first_h.0.weight f4 [64, 3]
000000 e0 b3 62 bf 65 a2 69 be 01 04 c3 3e b3 b7 fa be
       -0.8855572 -0.22815855 0.38088992 -0.48968276
000010 7b 8e a1 3d 09 20 56 3e 86 02 7f be 47 69 b0 be
       0.07888504 0.20910658 -0.24903306 -0.3445532
000020 3a 08 c0 bd d2 54 8c be cd 00 12 bf 82 5c be be
       -0.09376569 -0.27408463 -0.5703247 -0.37179953
000030 3f ea 0f bf 40 9a f6 bc 56 07 9e 3e 46 ed c5 3e
       -0.56216806 -0.030102849 0.30864972 0.38657588
000040 39 9b 81 be 27 89 e3 3e a0 c6 8f 3f 9a 7f a2 3f
       -0.25313738 0.44440576 1.123249 1.2695191
000050 47 24 85 3f 0e ea 82 3f fe e7 87 3f 34 d9 1a 3f
       1.0401696 1.0227678 1.0617673 0.60487676
000060 0b ed a4 bc a8 b8 41 3d 04 46 97 3e 76 12 52 be
       -0.020132562 0.047295243 0.29545605 -0.20514855
000070 6c 2d 8e be a4 a0 19 3e 36 d2 2a bd 20 ba 05 3f
       -0.2776903 0.15002686 -0.04170438 0.5223713
000080 44 23 da 3e 4d bf 19 bf 54 18 04 3f 7d e5 d0 be
       0.4260503 -0.60057527 0.5159962 -0.40800086
000090 d8 10 6a 3d 8c 9e f4 3e 98 0c 9c 3e da ed 7b 3e
       0.05714497 0.47777212 0.30478358 0.24602452
0000a0 f0 8b 02 bf 0e 31 04 bc 4d a7 cf bd 1d 63 c3 be
       -0.5099478 -0.008068336 -0.10139332 -0.38161555
0000b0 6c e7 ad be 9a 0c 8b be da 5f 12 3f 52 4d d2 bc
       -0.33965623 -0.27158052 0.5717751 -0.025671635
0000c0 d2 ac 58 3f 45 9b 0b 3e 95 ad a6 3e 1a f0 cb 3d
       0.846387 0.1363345 0.32554308 0.09957905
0000d0 d8 83 0a bf 08 35 4b bf 23 ef ed be 6f 31 67 3d
       -0.5410743 -0.79377794 -0.4647151 0.056443628
0000e0 ab b7 d3 be c3 69 3a 3e 59 8f 24 3f 03 50 84 3e
       -0.41351065 0.18204407 0.6428123 0.25842294
0000f0 27 e9 4a bd 41 9f 47 bf 56 3c 45 bf a4 64 84 be
       -0.049538758 -0.7797738 -0.7704519 -0.25858033
000100 e6 d1 45 3e 08 f3 e9 3d c5 90 48 bf 7e e4 75 3e
       0.19318351 0.11423308 -0.783459 0.24012944
000110 19 45 a0 bc 75 7a 0c 3f 09 07 8d 3f c2 d2 80 be
       -0.019564198 0.54874355 1.1017772 -0.25160795
000120 4d 74 5e bf b3 0d 12 3e de 2f c8 be 59 d6 5a be
       -0.8689621 0.14263038 -0.3909902 -0.2137083
000130 72 62 48 bf 43 c2 6d bf e7 ad 28 be c5 52 85 3f
       -0.78275216 -0.92874545 -0.16472588 1.0415884
000140 bf 4b d8 3b 8b 25 99 bd 94 78 82 be 1b 8d bb be
       0.0066008265 -0.07477864 -0.2548262 -0.36631092
000150 58 ae 02 3f 2f 19 42 3f b4 65 41 3e 5a d7 76 3e
       0.5104728 0.7581968 0.18886453 0.24105588
000160 82 58 70 bf ef ff be be 41 54 cc be d6 a1 02 bd
       -0.9388505 -0.37304637 -0.3990803 -0.03189262
000170 6f 25 97 be f1 07 20 bf a2 90 9e 3d b5 f1 b6 3e
       -0.29520747 -0.6251212 0.0774243 0.35731283
000180 7b aa 01 be 48 38 01 be bd af 79 3e 12 34 42 3f
       -0.1266269 -0.12619126 0.24383445 0.75860703
000190 54 4c 5e 3f 31 f4 49 3f fb cb ba 3e 3e ff f5 be
       0.8683522 0.7888823 0.3648375 -0.48046297
0001a0 4f c4 58 bf 77 9e e9 be c4 dd cf 3e 05 6a 44 be
       -0.84674543 -0.45628712 0.4059888 -0.19181068
0001b0 4d a6 08 bf 1e b7 d3 bd 32 92 1a bf 9b dc 87 3d
       -0.53378755 -0.10337661 -0.60379326 0.06633874
0001c0 95 0a 89 be 10 2d f3 3e b3 3f ec be c5 31 f0 3e
       -0.26765886 0.47495317 -0.4614235 0.4691297
0001d0 54 25 86 3e 31 b1 2a be ec f4 fd 3e 61 8d 37 3e
       0.26200354 -0.16669156 0.49600923 0.17925026
0001e0 fa f7 2d bf 44 be 98 3e 9d 23 ef 3e 1e 7a ae be
       -0.6795651 0.2983266 0.46706858 -0.34077543
0001f0 15 83 4b be ba 57 58 be 9b 12 ce 3e 3c ce 9d 3e
       -0.19874223 -0.21127215 0.4024857 0.30821407
000200 4a 5d d1 3e d0 ee 8b 3f d5 c7 a2 3f f2 2b 9c 3f
       0.40891486 1.0932255 1.2717234 1.2200911
000210 3f ca a1 be 10 62 fc bb 27 1b b4 3c 1d 40 10 bf
       -0.31599614 -0.0077021196 0.021985603 -0.5634783
000220 95 54 36 be 8a da c1 be 87 07 63 be e5 44 07 bf
       -0.17805703 -0.37862045 -0.2217084 -0.528395
000230 d3 ff a5 3d f5 1e c3 3e 1e b3 0c 3f fa d8 23 be
       0.08105435 0.38109556 0.5496081 -0.16000739
000240 4e 8c d6 be c1 aa e0 be 16 01 95 be 8d a7 2e 3f
       -0.4190392 -0.43880275 -0.2910239 0.6822441
000250 ef 6a b0 be 9b c6 48 bf 39 84 25 3e 2d 9b 85 3f
       -0.34456584 -0.7842805 0.1616372 1.0437981
000260 10 13 f7 ba 56 ab 72 bf 96 4d 29 bf 43 3a 0f bf
       -0.0018850286 -0.9479269 -0.6613401 -0.55948275
000270 c3 65 07 bf 5a 47 b1 3c 66 93 cf be 4c 4a e2 bd
       -0.5288965 0.021640468 -0.40542144 -0.11049327
000280 91 81 e7 3e fe 76 3b 3e df be 76 be 78 f8 88 3e
       0.4521604 0.1830711 -0.24096249 0.26752067
000290 38 45 d7 3c fe aa d7 3d 99 3b ec be 5a 6f 96 be
       0.026278123 0.10530661 -0.4613922 -0.2938183
0002a0 57 70 94 be bd bd b7 bb 6b a5 1e bf 90 f1 4f be
       -0.28991958 -0.0056073354 -0.6197116 -0.20306993
0002b0 76 e8 3a bd 21 76 b7 3c 0e 09 68 bf 26 d1 d3 bd
       -0.04563185 0.022395195 -0.90638816 -0.10342626
0002c0 fa d0 57 3d de 2f 4a bf df 7d 3f bf 24 55 b7 be
       0.05268953 -0.7897929 -0.7480144 -0.35807145
0002d0 52 f6 a3 be 6b a5 af 3f fb f4 51 3e 8a 9b 7e 3f
       -0.32023865 1.3722357 0.20503609 0.99456084
0002e0 85 a9 c3 3e c0 e7 dc bc 8d f9 4a 3f d1 05 95 3e
       0.3821527 -0.026965976 0.79287034 0.29106
0002f0 53 32 c2 3e 99 ba 1e bd 36 00 6d bf 91 0b 6a bf
       0.3792902 -0.038752172 -0.92578447 -0.914239

first_h.0.bias f4 [64]
000000 f1 9e 1a 3e 72 0a 7f bd 1a a2 a8 bc 0e f1 b8 3d
       0.15099694 -0.06226582 -0.020585109 0.090303525
000010 d9 10 14 3e db 92 97 be 3a a7 39 be fa 53 dd be
       0.14459552 -0.2960423 -0.18130198 -0.43228132
000020 1e 77 50 bd 8b 9b 86 bd 50 9a b6 3e 33 d0 20 3e
       -0.05089485 -0.06572636 0.35664606 0.15704422
000030 8a 71 67 be e9 5f b7 3e 75 14 2c be 20 eb a3 bd
       -0.22601905 0.3581536 -0.16804679 -0.08003831
000040 70 87 ba be 9c 63 ae 3e 82 4e e6 bd ae 03 a8 3e
       -0.36431456 0.3406037 -0.11245443 0.32815307
000050 ae d2 04 bf 1a b6 05 3f cb 6d 01 3f ea bc e2 be
       -0.5188397 0.5223099 0.50558156 -0.44284755
000060 d1 07 11 3f 0b 6e 97 3e 62 b1 bf 3d 79 1c a7 3e
       0.5665255 0.29576144 0.09360005 0.3263891
000070 04 11 42 be ef 10 c4 3e 3a c9 02 bf ba 5f 0c bf
       -0.18951803 0.3829417 -0.510883 -0.5483357
000080 e8 91 02 3f 8b 00 e6 be b8 24 e2 be 89 15 f6 3d
       0.51003885 -0.4492229 -0.4416864 0.12015826
000090 77 8e 58 3c 27 18 82 3e f3 4b 1d be 9a ca df 3e
       0.01321756 0.25409052 -0.15361004 0.4370926
0000a0 ac 90 14 3e b1 d1 24 3d 1a 7e 95 be a9 ce 0a 3f
       0.14508313 0.04023904 -0.2919777 0.5422159
0000b0 4a f8 1a be ab 82 34 3c 26 24 a1 be 4a 39 c7 bd
       -0.15133777 0.011017482 -0.31472892 -0.09727724
0000c0 7a 5b d8 3e ad 6c f7 3e 6e 8e d0 be 90 ac 81 bc
       0.4225729 0.483251 -0.40733665 -0.015829355
0000d0 c4 50 53 be c5 bb 8e be 9d ce 89 bd c1 f6 89 3a
       -0.20636278 -0.27877632 -0.067288615 0.0010525809
0000e0 dd a1 26 be ff 64 27 bd 27 84 fc be 32 05 b4 3d
       -0.16272683 -0.0408678 -0.49319574 0.087900534
0000f0 04 06 19 3e ba 6f ed 3e 6c 1a 09 3f 9d ae 0e bf
       0.14943701 0.46374303 0.5355594 -0.5573519

first_h.1.weight f4 [64]
000000 03 a2 e2 3f 1e 63 78 3f d6 09 13 3f 41 79 6c 3f
       1.7705692 0.9702624 0.57436883 0.9237252
000010 5d d4 f0 3e 75 9a c3 3f b8 db 28 40 ad b5 1b 40
       0.4703702 1.5281512 2.6384106 2.4329636
000020 3d f3 ae 3f af 5f 1c 3f 14 db 9c 3f 7d cf e0 3e
       1.366798 0.610835 1.2254357 0.439083
000030 d9 a5 71 3e da a9 39 be 5c d3 0a 3f 35 ad 76 3f
       0.23598422 -0.181312 0.5422876 0.9635804
000040 8c 36 6e bb 12 0c 5f 3f 61 cc bf 3f 0c cd ba 3e
       -0.003634843 0.8712779 1.4984246 0.36484563
000050 1b 4e ef 3f 32 a6 f4 3f 87 3d aa 3f b5 0b dc bd
       1.8695711 1.9113219 1.3300027 -0.107444204
000060 f7 86 d0 3f e9 e8 7a 3f fb 6e 42 3f af ab e4 3e
       1.6291188 0.9801164 0.7595059 0.44662234
000070 36 60 80 3f 7f 9e 87 bd b0 56 e2 3e d8 8f c4 3f
       1.0029361 -0.066220276 0.44206762 1.5356398
000080 89 ec 96 3f a1 9e a6 bd 93 68 f4 3f e0 2a 1a 3f
       1.1790935 -0.08135725 1.9094414 0.6022167
000090 ef 68 a2 3f 07 95 80 3f d7 28 2f 3f bf 25 a4 3f
       1.2688273 1.004548 0.6842169 1.2824019
0000a0 b4 e1 10 3f 36 3c d8 3e 91 11 0f 40 17 da db 3f
       0.56594396 0.42233437 2.2354472 1.7175931
0000b0 6c cf 7f 3f 57 d9 52 3f f9 32 62 3f a6 2c 8c 3f
       0.99925876 0.82362884 0.8835903 1.0951126
0000c0 fc 7c 3a 3f df a5 89 3f b0 34 25 40 5c 72 0b 40
       0.7284696 1.0753745 2.5813408 2.178855
0000d0 10 cf c6 3f cb 43 1c 3f 4f aa 0b 3f c6 64 fb 3f
       1.553194 0.61040944 0.54556745 1.9640129
0000e0 3c 86 06 40 60 0f 8b 3f 90 ec 68 3f 1c b6 47 3f
       2.101943 1.0864067 0.90985966 0.7801225
0000f0 51 ce c4 3f 3d 6d 30 be 70 8b 80 3f ab 53 5c 3f
       1.5375463 -0.17229171 1.0042553 0.8606517

first_h.1.bias f4 [64]
000000 6a 29 87 be d0 0f 77 bb dc 58 ab be b9 62 5b bf
       -0.26398784 -0.0037698634 -0.33466232 -0.85697514
000010 1e 21 e7 be d4 86 95 3e 14 c1 5c bf ad a1 44 bf
       -0.45142454 0.29204428 -0.86232114 -0.768092
000020 6d 42 71 bf bf 58 a9 be 88 80 2a bf ea 96 27 bf
       -0.9424198 -0.3307552 -0.66602373 -0.6546465
000030 1d d9 d8 bf 2c 98 0d 3d ab 71 09 bf e6 e1 10 bf
       -1.6941258 0.03456895 -0.5368907 -0.56594694
000040 19 46 3f bf ae 8d ee 3d d7 f3 04 3f 39 60 23 bf
       -0.74716336 0.11648117 0.5193457 -0.638187
000050 b7 72 e5 3e 61 44 57 3f 2d 2d 43 3f be 55 00 c0
       0.44814083 0.8408871 0.7624081 -2.0052333
000060 ee dd 74 3f 9c 48 0e 3f 75 bf 1c bf a9 e0 a3 be
       0.9565114 0.55579543 -0.6122964 -0.3200734
000070 e3 67 fe be 95 c6 b5 bf 61 2d c8 be 57 ca 30 3f
       -0.49688634 -1.4201227 -0.3909712 0.69058746
000080 f6 7c 39 bf 94 18 ea bf c0 cb 71 3f 89 e4 bc be
       -0.724563 -1.8288751 0.9445152 -0.36893108
000090 cd 03 25 3f fc 03 d3 3b d5 22 db be 09 29 04 3f
       0.64458925 0.006439684 -0.42800012 0.51625115
0000a0 3d 7d de be 0b fe 32 bf 0d 8c 0d bf 3a 4b bf be
       -0.43454924 -0.6991889 -0.55291826 -0.3736208
0000b0 6c 53 40 3c 50 53 f3 3e 6b 69 2e bf 61 16 81 3e
       0.011738639 0.475245 -0.68129605 0.25212386
0000c0 ec af 1c 3e dd 5e 85 bf ec 26 7d bf 0e f6 6d 3f
       0.15301484 -1.0419575 -0.98887515 0.92953575
0000d0 40 e0 2a 3f f7 d9 c0 be 94 43 9e be 48 c9 09 3f
       0.6674843 -0.37666294 -0.30910933 0.53822756
0000e0 23 cc 98 3f 8b dc b6 3e b9 31 14 3f f6 3a db 3e
       1.1937298 0.35715136 0.5788837 0.4281842
0000f0 80 01 26 bf b5 6a a7 bf 3d b3 1e be 9d 7a 7f bf
       -0.6484604 -1.3079439 -0.15498061 -0.9979647

first_h.1.running_mean f4 [64]
000000 98 be 93 c9 bf 61 23 c9 63 27 a6 c8 2f ef b6 c8
       -1.210323e+06 -669211.94 -340283.1 -374649.47
000010 78 7d 3b c9 4a ee 00 49 a7 54 bb 49 43 8d aa 49
       -767959.5 528100.6 1.5346129e+06 1.3971604e+06
000020 c9 d4 d6 c6 b8 e9 88 c8 34 a3 5e c7 ed 5b 48 c9
       -27498.393 -280397.75 -56995.203 -820670.8
000030 9e 90 98 47 f7 1c a4 48 5e 4a 07 c8 a0 22 b5 c8
       78113.234 336103.72 -138537.47 -370965.0
000040 e4 25 8d 49 a6 e8 04 48 8d fe 1a c9 44 e2 72 48
       1.1562845e+06 136098.6 -634856.8 248713.06
000050 30 38 84 c7 b9 80 ac c8 d3 b8 82 c9 3f 18 37 49
       -67696.375 -353285.78 -1.0708744e+06 749955.94
000060 c9 f9 90 c9 26 9f 8e c8 b6 bb 5b c8 6a 8e c7 c7
       -1.1876411e+06 -292089.2 -225006.84 -102172.83
000070 f1 39 2a 49 f6 d9 a0 48 a8 2a 05 c9 d2 80 50 c9
       697247.06 329423.7 -545450.5 -854029.1
000080 5a eb 28 c8 15 24 7d 49 56 5b f3 48 44 39 18 c9
       -172973.4 1.0368653e+06 498394.7 -623508.25
000090 6d 0b 32 c9 dc 11 b1 47 d3 ee 19 c9 83 81 5e c8
       -729270.8 90659.72 -630509.2 -227846.05
0000a0 11 bf 62 c9 d9 66 e3 c8 c1 4e 06 49 02 48 b6 49
       -928753.06 -465718.78 550124.06 1.4932482e+06
0000b0 dd c8 d2 c8 16 fb 3b c9 f5 e8 93 c8 78 47 fe 48
       -431686.9 -769969.4 -302919.66 520763.75
0000c0 bb c3 0b c9 61 8f 63 49 71 ae 57 48 07 17 9e c9
       -572475.7 932086.06 220857.77 -1.2950729e+06
0000d0 3c 6a 30 c9 b8 69 13 c8 59 c6 a0 c8 12 7d 0c 48
       -722595.75 -150950.88 -329266.78 143860.28
0000e0 5a 85 c1 c8 1e 87 87 c8 65 2a 97 c9 74 b3 83 c9
       -396330.8 -277560.94 -1.2383486e+06 -1.0788945e+06
0000f0 77 b5 d5 c8 6a e8 a5 49 4a 45 84 49 e9 f2 4e c7
       -437675.72 1.3591172e+06 1.0835612e+06 -52978.91

first_h.1.running_var f4 [64]
000000 9e 99 0e 56 58 62 2e 55 78 58 34 54 79 9b 5a 54
       3.919761e+13 1.1983588e+13 3.0983135e+12 3.755645e+12
000010 f3 a4 65 55 46 30 d9 54 db 3e 65 56 07 05 3e 56
       1.5781038e+13 7.4625424e+12 6.301453e+13 5.22322e+13
000020 86 c9 96 50 8b e9 f4 53 25 f6 a1 51 fe 1f 83 55
       2.0238316e+10 2.1037804e+12 8.695242e+10 1.8021679e+13
000030 f0 06 18 52 d2 f3 2f 54 85 1e ef 52 7c 58 56 54
       1.6323786e+11 3.0228396e+12 5.135046e+11 3.68243e+12
000040 41 26 02 56 9c d7 e6 52 a2 ef 1c 55 62 ad c0 53
       3.5775203e+13 4.957299e+11 1.0784564e+13 1.6550852e+12
000050 b7 4d e4 51 7d 66 42 54 71 44 df 55 30 ff 5a 55
       1.2256955e+11 3.3397725e+12 3.068563e+13 1.5049347e+13
000060 fb 4d 09 56 fd dd 04 54 74 b9 9d 53 a5 0f 82 52
       3.7742004e+13 2.28264e+12 1.3548425e+12 2.793041e+11
000070 5d 4b 3d 55 38 09 29 54 1b b1 e7 54 91 00 8e 55
       1.3008211e+13 2.9040166e+12 7.96087e+12 1.9516635e+13
000080 3e 68 3a 53 c9 4d d1 55 11 74 c1 54 db 60 17 55
       8.006128e+11 2.8766502e+13 6.6470077e+12 1.040264e+13
000090 5e 15 4f 55 f2 d0 4c 52 99 cc 1a 55 8a b9 a1 53
       1.4230667e+13 2.1991971e+11 1.0637721e+13 1.3892051e+12
0000a0 97 f0 a7 55 07 e8 a8 54 35 ad eb 54 82 0d 59 56
       2.308147e+13 5.803578e+12 8.097786e+12 5.966301e+13
0000b0 20 20 91 54 d0 d7 66 55 29 ea 0e 54 98 31 d3 54
       4.986474e+12 1.5863411e+13 2.4552556e+12 7.256561e+12
0000c0 94 37 ff 54 ff 25 a9 55 c4 ee 97 53 25 44 23 56
       8.769193e+12 2.3247582e+13 1.3050918e+12 4.487827e+13
0000d0 c0 4f 4b 55 cb f8 0d 53 6c dd 28 54 58 f3 00 53
       1.3971462e+13 6.0976444e+11 2.9010774e+12 5.5383844e+11
0000e0 5e a5 74 54 d6 fb ef 53 a3 47 15 56 52 9e e2 55
       4.2029857e+12 2.0614446e+12 4.1033727e+13 3.1146201e+13
0000f0 e8 30 95 54 c8 d0 33 56 b0 95 e4 55 d9 ca 8b 51
       5.126165e+12 4.9427323e+13 3.1416444e+13 7.505046e+10

first_h.3.weight f4 [64, 64]
000000 b0 47 b1 3e a1 c6 2e 3e 45 4f d9 bd 19 cf bb bd
       0.34625006 0.17067958 -0.106108226 -0.0917036
000010 09 11 80 3e ff c4 12 bd ac 15 94 bd a9 b2 8b 3c
       0.25012997 -0.0358324 -0.07230696 0.017052965
000020 e3 20 03 be 16 49 b8 3d 45 ba 5a bd 5a dc 2b 3e
       -0.12805514 0.08998315 -0.053400297 0.16783276
000030 4a af a8 bd e7 d7 a7 3e fa fe 89 3e b9 9a 37 be
       -0.08236559 0.32781908 0.26952344 -0.17930116
000040 99 41 57 be 83 e6 10 be 99 4e 43 be 21 c4 fd bd
       -0.21021117 -0.14150433 -0.19072951 -0.12390924
000050 55 6c 2c bd 7f ba 98 be dc 09 a6 3e c5 2c 83 bd
       -0.0420955 -0.29829785 0.32429397 -0.064050235
000060 2b 60 3d 3e 04 8d f5 3e d5 e4 27 3d f5 ba 8b 3e
       0.18493716 0.4795915 0.040989716 0.27291074
000070 70 16 53 3d 0a be 1f 3e 63 4e 6a 3e 02 a0 9c 3e
       0.05153507 0.15599838 0.22881465 0.30590826
000080 7b c7 f8 bd dd 31 d5 bd fa 8d 0f be 2d e1 c4 3d
       -0.12147423 -0.10409901 -0.14019004 0.09613261
000090 f0 3e 2a be 2f ea aa 3e a1 95 dd 3e 49 05 b5 bd
       -0.16625571 0.33381793 0.4327822 -0.08838899
0000a0 5b 57 0d 3e d1 d5 6e 3e aa 83 61 3d 94 94 c8 bd
       0.13802855 0.23323752 0.055057205 -0.09793964
0000b0 0b 1e a7 3e ba 92 84 3e 17 9f 96 3e d3 a1 79 be
       0.32640108 0.25893193 0.2941825 -0.24378137
0000c0 74 a3 ac 3e 34 72 ac 3c 45 65 dc bc 2a af 3f 3e
       0.33718455 0.02105055 -0.026903758 0.18719164
0000d0 db 55 df 3a e7 75 02 3e 21 10 6f 3e 46 10 5c 3e
       0.0017039137 0.12740289 0.23345996 0.21490583
0000e0 71 0d b0 3e 07 de 20 3e 2e da ad 3e f9 dd b7 3e
       0.34385255 0.15709697 0.3395552 0.3591154
0000f0 11 19 0b bd d0 41 56 bd d2 65 cb bd 70 ce 9e bd
       -0.033959452 -0.052308857 -0.0993153 -0.077542186
000100 34 18 c2 3e 26 6f ad bd 31 2b 37 bd 03 92 d8 bd
       0.3790909 -0.084684655 -0.044718925 -0.105747245
000110 6d 32 ce 3e 75 bc 11 bd e7 00 30 bd 03 73 62 bd
       0.40272847 -0.035580117 -0.04296961 -0.055285465
000120 6d b2 bc 3d 66 07 8e be d3 dc 2c ba a7 11 af 3d
       0.092137195 -0.2774002 -0.00065941847 0.08548289
000130 63 5b e7 3d 96 ed e9 be f8 9a cb 3e b8 a0 1a bd
       0.112967275 -0.45689076 0.3976667 -0.03775093
000140 ce c2 76 bd ba c6 7b be e0 9e 47 be fd 89 7d 3e
       -0.060244374 -0.24587527 -0.194942 0.2475967
000150 ec fd e1 bd 9d a0 87 be 4a 33 f5 3e 8a fd 81 bd
       -0.1103476 -0.26489726 0.47890693 -0.06347187
000160 84 7f 45 3e 7e c1 1d 3f 46 aa 04 bd 6b 6a 90 3e
       0.19286925 0.6162337 -0.032388948 0.2820619
000170 ec 1e da bc 47 c3 25 bd ee 67 e4 3e 84 4c c2 3e
       -0.026626073 -0.040469434 0.44610542 0.37949002
000180 70 b7 11 bd cc fd 8e 3c 26 1e 63 be 42 f0 65 3d
       -0.03557533 0.017455004 -0.2217947 0.05613733
000190 fc 99 9f 3e 5f 25 18 bd 89 fe 74 3e 9f 12 1c be
       0.31172168 -0.037145015 0.23925222 -0.15241478
0001a0 a8 a5 9e 3e 0b 13 d8 3e fc b4 b7 3c 1a b6 bb bd
       0.3098576 0.4220203 0.022425167 -0.091655925
0001b0 86 a9 a9 3d 05 c4 e6 3e 19 81 df 3e 98 33 ae bd
       0.08284287 0.45071426 0.4365318 -0.085059345
0001c0 0d cb f1 3e 09 59 d4 3d d8 8d 63 3d 5b 9e f3 3e
       0.47225228 0.103685446 0.055555195 0.47581753
0001d0 5a 2d 24 be 7f 41 c2 bd a5 ab 60 3e 92 24 9f 3e
       -0.16032925 -0.09485149 0.21940477 0.31082588
0001e0 ce 46 a2 3e 98 a6 9a 3e c0 bb f3 3e f5 5a 06 3f
       0.31694645 0.30205226 0.4760418 0.5248254
0001f0 e3 d2 2f 3d 27 8b b3 bd 6b 65 cc 3c 00 ca f9 bd
       0.042925727 -0.087667756 0.024950704 -0.121967316
000200 0e 99 95 3e d0 54 81 3d d1 42 1a bd 33 74 83 be
       0.29218334 0.06315005 -0.037661377 -0.2567459
000210 bd f6 ba 3d a8 de 8d bd 42 0f a6 be 19 02 d3 bd
       0.09129093 -0.06927234 -0.32433516 -0.103031345
000220 41 b0 57 be cf 4c a0 3d 1e 5c 5e bd 5c be c2 3c
       -0.2106333 0.0782715 -0.05428707 0.023772411
000230 f0 ad 55 be 80 a4 aa bb 26 f3 5f 3e 4f 40 68 3d
       -0.20867133 -0.005207598 0.21870098 0.056701954
000240 ce 97 d8 bd 64 a3 79 bc cf ec 2b 3e 28 65 89 bd
       -0.105758294 -0.015236709 0.16789554 -0.06708747
000250 af 8a a9 3d 94 ee b5 bd 3f 27 7e 3e d8 3a 0c be
       0.08278405 -0.08883396 0.24819659 -0.13694322
000260 6b c0 a0 3d 30 d2 36 3e 53 47 9b bd c4 f5 c7 bc
       0.07849201 0.17853618 -0.075819634 -0.024409182
000270 2d be a0 be 35 d4 c7 bd b4 53 10 3e f6 a7 d2 3e
       -0.31395093 -0.09757272 0.1409443 0.4114377
000280 cf 38 82 bd 92 f1 13 be 91 44 89 be bb 97 b3 3c
       -0.06358492 -0.1444762 -0.26810125 0.021922937
000290 96 a2 ab bc d4 9b 84 bd 37 af b8 3e 8c c9 4f 3e
       -0.02095155 -0.06475034 0.36071178 0.20291728
0002a0 f8 b9 a8 bd cb fb c3 3e 9f 5f e4 bd 4b 9b 6d be
       -0.08238596 0.3827804 -0.11151051 -0.23203771
0002b0 69 e6 e3 3d c5 c1 95 3e 09 23 0e bd 59 1a aa be
       0.111279316 0.29249397 -0.03470138 -0.33223227
0002c0 52 9e 80 3e 65 46 8e be 61 46 40 be 9e be 4a 3e
       0.2512079 -0.27788082 -0.18776847 0.19799277
0002d0 25 b5 49 3e 16 c8 f1 bc d3 e5 c3 bc d9 5f f0 3d
       0.19698007 -0.029514354 -0.0239133 0.117370315
0002e0 16 32 9e 3e a3 a2 0f 3e d0 d1 37 3e 86 f9 3a 3e
       0.30897588 0.14026885 0.17951131 0.18259248
0002f0 5a a2 cc bd f2 6c 1a bd 98 81 36 be 47 10 c0 bd
       -0.099919036 -0.037701555 -0.17822874 -0.09378105
000300 f8 7e c1 be ad cf 89 3d 6a f5 43 3e 08 2f b3 3e
       -0.37792182 0.06729064 0.19136587 0.3499682
000310 7f c4 6b be 60 76 47 3e 4f a9 6b 3e 0c a6 87 3e
       -0.23024176 0.1947875 0.23013805 0.2649387
000320 8f 03 c9 3e bf a2 d4 3d 98 7d 3e be 8e 9e 0d be
       0.39260527 0.10382604 -0.18602598 -0.13830015
000330 a1 0a a9 3e b9 8e e6 3e bf 0f ae be 97 9c 9b be
       0.33015922 0.45030764 -0.33996388 -0.30392906
000340 39 7a a4 3e 62 b9 96 3e f8 1c ce be aa ef 9e be
       0.32124498 0.2943831 -0.40256476 -0.31042224
000350 bb f9 83 3e 5f 13 b6 3e 20 25 b9 be 1a a9 a8 3e
       0.25776467 0.35561654 -0.36161137 0.32941514
000360 2e 46 e4 be 0e 3e 6a be 22 19 e6 3b eb 88 bf be
       -0.44584793 -0.22875234 0.007022039 -0.37409148
000370 f4 34 9f 3e eb eb f3 3e 35 ab d6 be b1 e8 bd be
       0.31095088 0.4764093 -0.41927496 -0.37091592
000380 d0 a0 87 3e 75 c4 f3 3e f9 5a df 3e 8d 76 89 bd
       0.26489878 0.47610822 0.43624094 -0.06712065
000390 e3 b0 82 be 8f 86 9a bd bb f1 da bd c4 e1 e5 be
       -0.2552558 -0.07545196 -0.10690638 -0.44898808
0003a0 9a 7d 8c be dc 2c 88 be 56 92 72 3e 54 19 a7 3e
       -0.27439576 -0.26596725 0.23688635 0.3263651
0003b0 3d f3 88 3c 96 c6 2e be 68 f0 96 be 23 3a 54 3e
       0.016717548 -0.17067942 -0.2948029 0.20725302
0003c0 7c 4f 82 be 1c 01 ce 3e bf 85 be 3e b1 07 9d be
       -0.25451267 0.4023522 0.37211415 -0.3066993
0003d0 bb 66 b5 3e 7d d6 f8 bd 50 6c ce be 53 66 08 bf
       0.3542994 -0.121502854 -0.4031701 -0.53281134
0003e0 81 2f e2 be 50 10 b4 be 33 ab 70 be 13 65 29 be
       -0.44176868 -0.35168695 -0.23502807 -0.16542463
0003f0 99 1d cc 3e 2b 7c 99 3e c3 96 e1 3e 3c cd ca 3e
       0.3986633 0.29977545 0.44060335 0.39609706

first_h.3.bias f4 [64]
000000 56 bb 61 bd 50 0a 42 be 99 26 45 3e e0 a1 c0 3d
       -0.055110298 -0.18949246 0.19253005 0.09405875
000010 d8 2f 04 be 6a 03 4c be 6b 14 ce 3d d9 3d 48 be
       -0.12908876 -0.19923177 0.10062488 -0.19554843
000020 77 25 c6 3d 63 2c fe bc 14 e0 81 be a4 69 aa be
       0.096751146 -0.031027025 -0.2536627 -0.33283722
000030 3d be 5d 3e c1 95 df bd a2 78 a0 3e 0a a6 60 be
       0.21654601 -0.10917235 0.31342036 -0.21938339
000040 23 6e 40 bd 2d d8 55 3d 85 5f 78 bd f6 cd 91 bd
       -0.046980035 0.052208114 -0.06063797 -0.07119362
000050 c8 79 9a 3d 81 4a 2c 3e e2 27 30 bd d8 d6 ca bd
       0.07542759 0.16825296 -0.043006785 -0.099042594
000060 cb af 84 bd ca 1a 61 bd 54 e2 97 bd 3a 7f 55 be
       -0.06478842 -0.05495719 -0.074162155 -0.20849314
000070 c8 5f b4 be 3a 7a 28 be 9a 89 74 bc 93 4a 47 be
       -0.35229325 -0.16452876 -0.014925385 -0.19462042
000080 94 86 00 bf b1 4f 9e 3d c8 5a 4b be b0 15 11 3e
       -0.5020535 0.07730044 -0.19858849 0.1416843
000090 c9 5f 00 3e 09 05 18 bd c9 41 8c be fe c3 4d 3c
       0.12536539 -0.037114177 -0.2739394 0.012558935
0000a0 ba d2 e5 bd 9e e3 9f bd 6a e0 27 be a4 b6 f1 3c
       -0.112218335 -0.078070864 -0.16394201 0.029506035
0000b0 e0 33 97 bc 5d 17 d4 bd e8 2b 17 be 65 79 47 bc
       -0.018457353 -0.10356019 -0.14762843 -0.012174939
0000c0 7d 5d 22 3e ec 0a 93 bd ac 1b 17 be cf 96 59 bd
       0.15855975 -0.071798176 -0.1475665 -0.053122338
0000d0 c0 ad 4b be 82 14 6b 3e 49 cd e9 3d 56 fc 74 be
       -0.19890499 0.22957042 0.11416108 -0.23924384
0000e0 6b fe f1 3c c0 f8 a2 bd 83 8a 72 be 75 31 6c be
       0.029540261 -0.079576015 -0.2368565 -0.23065741
0000f0 e2 94 5c be 15 dd 63 3d a5 f5 05 be 06 00 3f 3e
       -0.2154117 0.055630762 -0.13081987 0.18652353

first_h.4.weight f4 [64]
000000 1b 37 dc 3e 24 69 1a 3e 54 cf 49 3e 8c d6 2e be
       0.43010792 0.1507917 0.19707996 -0.1707403
000010 46 0b 31 3b e8 c3 a6 bc 7f 8e a5 3e b4 73 62 3e
       0.0027014776 -0.020357087 0.32335278 0.2211445
000020 20 c1 13 3f 56 bd 2f be 38 74 bd 3d ce 08 89 3c
       0.5771656 -0.1716207 0.092506826 0.016727831
000030 bd 08 d2 3e ad 11 25 3f fb 6a c8 3e 5a 0d 83 3e
       0.41022292 0.64480096 0.3914412 0.25596124
000040 fe 91 c1 bc 0f a9 3e be 62 78 48 bd 27 0d 20 be
       -0.023629185 -0.18619178 -0.04894293 -0.15630017
000050 a3 f4 d9 3e c0 7f 0d 3b e9 7f f7 3e 42 4a 81 bd
       0.42569456 0.0021591038 0.48339775 -0.06312992
000060 1e f8 13 3f 9c 89 17 bb 83 63 c6 3e 03 fc 54 3f
       0.5780047 -0.0023122793 0.38747796 0.8319704
000070 00 d1 51 bb 9d 25 1d 3e c0 98 43 3f 3f 88 01 bd
       -0.0032015443 0.1534638 0.76404953 -0.031624075
000080 9d bb f8 3b 4d a8 1b 3f 1f 0f 9a be df 55 da 3e
       0.0075907246 0.6080368 -0.3008966 0.4264364
000090 65 67 d7 3b 3e 25 35 3f 72 29 1c be 37 49 92 3e
       0.006573605 0.7075995 -0.15250185 0.28571483
0000a0 c2 16 81 3e 96 7a b0 bd 4f 3f 0c bd 69 b3 ce bc
       0.25212675 -0.086171314 -0.034240063 -0.025232034
0000b0 ae d4 a5 3e 4f 23 21 3f 2a b9 b3 bb c3 e5 91 3e
       0.32388824 0.629445 -0.0054847198 0.28495607
0000c0 8a 47 c7 3e e1 2e f7 3e e8 6a 03 ba 2d 62 fe 3e
       0.38921767 0.48277953 -0.00050131837 0.49684277
0000d0 32 0f 5a be e5 f2 33 3e 63 8b ce 3e 1a 4c 8a 3b
       -0.21294859 0.17573126 0.4034072 0.004220498
0000e0 44 fa d0 3e ba 83 b9 3e 22 9c 22 3f f1 2c 14 3f
       0.40815938 0.36233312 0.6351949 0.57881075
0000f0 3c 4c be bb 70 08 b2 bc 4a 6d 53 be dc 5e b6 3e
       -0.0058074277 -0.021732539 -0.20647159 0.35619247

first_h.4.bias f4 [64]
000000 54 a5 40 bf 52 f0 95 bf 2e 88 a2 be 10 47 09 bf
       -0.7525227 -1.1713965 -0.31744522 -0.5362406
000010 37 12 8b be b3 ac 63 bf 0c 31 e3 be 01 88 3e bf
       -0.27162334 -0.88935393 -0.44373357 -0.74426275
000020 89 c9 a4 be db 7e 24 bf ff f8 3f be 19 a4 56 bf
       -0.3218501 -0.64256066 -0.18747328 -0.83844143
000030 17 6a a0 be 76 63 01 bf e8 2b 0b bf a9 41 91 bf
       -0.3133094 -0.5054239 -0.5436387 -1.1348163
000040 02 00 2c be f3 55 d4 be e9 ea 32 bf aa db aa bf
       -0.16796878 -0.41471824 -0.69889694 -1.3348286
000050 15 8a d0 be a6 9f df be 4e 3b fa be 24 5b 8c bf
       -0.40730348 -0.4367649 -0.4887337 -1.0965314
000060 c2 d6 e2 be 05 31 55 bf 7b 46 be be 98 89 fd be
       -0.44304472 -0.8327792 -0.37163147 -0.49519038
000070 31 1a 06 bf 90 af 6a be 08 16 f1 be 3c 32 6c bf
       -0.52383715 -0.22918534 -0.4708712 -0.9226415
000080 58 e9 51 bf 46 b0 dd be 8c 73 88 bf e0 9c e5 be
       -0.8199668 -0.43298548 -1.0660262 -0.4484625
000090 5a 2a a9 be 3b 8e cb be 56 0a 2c bf 1f 15 2f bf
       -0.33040124 -0.3975695 -0.6720327 -0.68391603
0000a0 bf 84 05 bf ea e0 fb be cf 71 31 bf dc a2 b1 be
       -0.5215568 -0.49195033 -0.69314283 -0.34694564
0000b0 ef 8d 1b bf 1e 5c cc be d5 cd 05 bf b1 03 92 be
       -0.6076345 -0.3991403 -0.522672 -0.2851844
0000c0 55 9e 2b bf ea c6 d8 be 6a 02 62 be ee 2f a8 be
       -0.6703847 -0.4233926 -0.22071233 -0.32849067
0000d0 42 f2 8c bf fc 6a 25 bf 9a ee 0e bf 84 b6 0b bf
       -1.1011431 -0.6461637 -0.5583283 -0.5457537
0000e0 15 df ed be 1e 47 23 bf 75 b6 f0 be c1 1f 05 bf
       -0.4645926 -0.6378039 -0.47014204 -0.5200158
0000f0 ed b4 4b bf 1a 29 23 bf f8 89 82 bf 68 7e 00 bf
       -0.79572946 -0.6373459 -1.0198355 -0.5019288

first_h.4.running_mean f4 [64]
000000 a7 2f ff 3f 3a 44 3c 40 39 13 fb 3f ef c0 f0 bf
       1.9936417 2.9416642 1.9615241 -1.8808879
000010 62 43 51 3e 52 d4 a5 3f f9 3a 41 41 06 cd bf 3f
       0.20435861 1.295542 12.076898 1.4984443
000020 f1 30 c6 bd 52 55 c4 3f fa c9 42 3f 3a db 09 40
       -0.096773036 1.5338538 0.7608944 2.1540055
000030 f0 a6 fe 3e 97 91 90 3f c3 fd 68 bf 32 9e b8 40
       0.49736738 1.129443 -0.9101221 5.769311
000040 53 25 c1 3e 69 14 c3 be 4b 4a e4 3f b0 5f 8b c0
       0.3772379 -0.3810151 1.7835172 -4.3554306
000050 78 76 6e c0 c5 42 64 c0 6a a9 86 3f b2 c3 87 40
       -3.7259808 -3.5665753 1.0520451 4.2426386
000060 c1 e7 0d bf ba bd 06 3f 86 3c 7a bf 0f f5 9f bf
       -0.55431753 0.5263325 -0.977486 -1.2496661
000070 91 71 c2 3f 2a 51 22 c0 eb be 10 bf a0 22 2a 40
       1.5190908 -2.5362039 -0.5654132 2.6583633
000080 d7 1f ce 3f 65 d5 8f be f9 3c d4 40 5c af fa 3e
       1.6103467 -0.28092495 6.632443 0.48961914
000090 92 ea 00 40 8f bc 9e bf 55 73 49 3f cd d6 6e 3f
       2.014317 -1.2401294 0.7869161 0.9329651
0000a0 06 91 06 c0 29 07 39 3e 4c b8 fb 3f 15 d9 ab 3f
       -2.1026015 0.18069138 1.9665618 1.3425623
0000b0 95 15 c5 3f b7 27 8e be 70 ce 28 40 b7 12 ab be
       1.5397211 -0.27764675 2.6376 -0.33412716
0000c0 bc 36 ff 3f 49 f4 77 3c e3 2f f5 3e 44 a8 06 be
       1.9938579 0.015133926 0.47888097 -0.13150126
0000d0 d7 61 0e 40 fb 04 e6 3f 60 8a 9e 3f 4d 8d 3a 3f
       2.2247217 1.797027 1.2385979 0.7287186
0000e0 15 7e 47 3f 07 2b 4b bf 52 99 6c 3f 8f e1 90 3f
       0.7792676 -0.7936253 0.9242145 1.1318835
0000f0 dc f3 33 40 39 a5 ab 3f 27 f4 77 40 8a 8f 93 c0
       2.811759 1.3409797 3.8742769 -4.611272

first_h.4.running_var f4 [64]
000000 9a fd 69 3f cb 4f e8 3f 59 23 87 41 6e 76 cc 41
       0.9140259 1.8149351 16.89226 25.557827
000010 04 27 42 40 19 d6 27 3f 4b 8d b3 42 48 f4 64 42
       3.0336313 0.6556106 89.77596 57.238556
000020 77 13 f6 3f a5 6c e9 3f f7 d3 45 41 b8 71 8b 40
       1.922469 1.8236281 12.364249 4.3576317
000030 e9 a1 df 40 98 21 33 40 77 e3 17 42 fe af 2a 42
       6.9885144 2.7989254 37.972134 42.671867
000040 20 30 6a 40 a4 69 94 41 11 c8 4a 40 4e e5 08 42
       3.6591873 18.551582 3.168461 34.22393
000050 dd 05 e4 42 3a c8 da 40 59 47 2e 40 68 c9 ab 3f
       114.01145 6.8369417 2.7231047 1.3420839
000060 60 19 09 40 f8 23 00 3f 80 b0 97 40 88 07 99 41
       2.1421738 0.50054884 4.7402954 19.128677
000070 64 87 71 40 e6 f7 c5 41 54 cc 9a 40 03 d0 72 41
       3.7738886 24.746044 4.8374424 15.175784
000080 3d bf b6 3e cf a8 22 40 03 2b 7c 42 31 c2 c3 3f
       0.35692778 2.5415533 63.042004 1.5293638
000090 a9 42 cf 3f c7 e1 87 41 37 ff b2 3f 53 a8 45 42
       1.6192218 16.985243 1.3984135 49.41438
0000a0 df d8 93 40 a5 8a 9f 42 ad 8a b1 3f 94 e7 50 40
       4.6202235 79.77079 1.3870445 3.2641344
0000b0 3f b9 1b 42 30 54 d8 40 1d 23 57 3f 58 a0 79 40
       38.930904 6.760277 0.84037954 3.9004116
0000c0 81 2f 72 42 4d 54 5a 40 d3 56 53 40 c0 6c 13 40
       60.54639 3.4113953 3.3021743 2.3035126
0000d0 5b b9 0e 40 f3 43 95 42 f9 68 51 40 a0 c2 27 42
       2.2300632 74.63271 3.272032 41.940063
0000e0 06 95 81 41 ff e9 fa 41 ae be 10 41 47 d8 04 3f
       16.197765 31.364256 9.046553 0.51892513
0000f0 6f 06 e3 40 a7 dc 12 40 6f db b9 41 03 dd e5 41
       7.0945354 2.2947176 23.232145 28.732916

nns.0.0.weight f4 [64, 64]
000000 80 9d 8f 3d 1f 98 c5 3e 8e 05 dc bd 7f 88 38 be
       0.070124626 0.38592622 -0.10743247 -0.18020819
000010 e7 54 01 3d 19 51 a5 bb db 99 10 3f 98 84 ba 3e
       0.03157511 -0.005045068 0.56484765 0.36429286
000020 3d a6 c4 bd 8e 6c 1b 3d 0f 11 b5 3d 5f ce c4 3c
       -0.0960202 0.037945323 0.08841144 0.024024187
000030 72 bf 9a be c7 50 71 3c eb 1d 92 bd 12 59 c9 3e
       -0.30224186 0.0147287315 -0.07134613 0.39325768
000040 af 30 d1 3d 4d d9 c3 bc a2 de e6 3d 82 3b ad bd
       0.10214364 -0.023907328 0.112729326 -0.08458616
000050 c4 fa aa bd 73 f1 a4 be 75 22 94 3c 92 25 9e 3e
       -0.08348611 -0.3221546 0.018082837 0.3088804
000060 ea 41 08 3d f3 23 1d 3e 7c d2 ac 3d 71 f5 42 3e
       0.033265986 0.15345745 0.08438584 0.19038941
000070 3c aa 5e 3d b1 f2 b1 be 29 8f 94 3d 36 3d 59 3e
       0.054361567 -0.3475547 0.07253868 0.21214756
000080 59 42 dc bc 18 39 fd bc 97 5a dc bb 7a 73 3a 3d
       -0.026887106 -0.030911013 -0.0067246663 0.045520283
000090 b8 c8 bd 3d 5f 7b cf 3d 66 af 1b 3c 82 80 2a 3e
       0.092668 0.10130953 0.009502267 0.16650584
0000a0 6e 81 f4 bd c3 59 ac bc 1f 7c 43 3e 61 86 93 3d
       -0.11938749 -0.021038895 0.19090317 0.07203365
0000b0 00 06 bc 3e 0d c7 48 3e d1 6a 02 3d d3 2a 76 3d
       0.36723328 0.19607182 0.03184015 0.060099434
0000c0 23 e5 fa 3d 86 be 94 3d 95 4d 4f 3d 02 2a 63 3d
       0.122507356 0.07262902 0.050611097 0.055459984
0000d0 2b 23 33 3d 74 21 9e bd 4c 0e 2f 3d b5 c8 83 3d
       0.04373471 -0.077212244 0.042738244 0.06434766
0000e0 16 e4 4d bd 9e 3f 76 3c 00 ed 32 3d e1 5c 96 3b
       -0.050266348 0.015029816 0.043683052 0.0045887087
0000f0 32 6f 36 3e 35 c1 26 3c af 4d 3c 3e 0e 33 b0 3e
       0.17815855 0.0101779 0.18389009 0.34413952
000100 d6 a2 1e 3d aa fe 74 3d 4d ed 0e be 9c 81 0f be
       0.03872951 0.05981318 -0.1395771 -0.14014286
000110 71 d1 06 3d 21 5b ab 3b 8c 11 a1 3e 8c 2b 65 bb
       0.032914583 0.0052293693 0.314587 -0.0034968583
000120 9d 8a 75 3d ca 41 2d 3e 0c c2 f2 bd 89 d3 75 bc
       0.059946645 0.16919628 -0.11853418 -0.015004047
000130 4b a2 86 be 24 b8 e6 3b 1b 15 01 3e 80 09 4d ba
       -0.26295695 0.0070409942 0.12605707 -0.0007821545
000140 9b 04 22 3e 37 ea 50 be e2 10 05 3e f9 59 19 bd
       0.1582207 -0.20401846 0.12994722 -0.03743932
000150 35 87 29 be 63 4f 37 be 8b 93 d1 bd f8 65 c7 3e
       -0.16555484 -0.17901377 -0.1023322 0.38944983
000160 02 5d d0 bc e9 44 ff bc c0 63 78 bc 1d 6e ba 3d
       -0.025434975 -0.031160789 -0.015160501 0.09103034
000170 62 e3 2c 3e ac 07 ea bd 77 a9 bd 3d a8 26 a6 3d
       0.16883615 -0.114272445 0.092608385 0.08112842
000180 4a 19 1f 3e 66 94 c0 3d c3 ee ad 3c f4 7c fd bd
       0.15536991 0.09403305 0.021232015 -0.123773485
000190 2d 6f 3f bd eb 84 18 bd de c3 45 bc cf 0e b3 bd
       -0.046736885 -0.037236135 -0.012070624 -0.08743059
0001a0 7f 5c 2c bb 2d 7e d2 3e 61 eb b0 3c ac 04 b3 bd
       -0.002630025 0.4111189 0.021596612 -0.087411255
0001b0 77 10 98 bd d0 dd a1 bc 6c e4 40 bc 31 99 0c be
       -0.074250154 -0.019759089 -0.01177321 -0.13730313
0001c0 28 b3 ed 3c 62 e6 ad 3d dc f3 15 3e 77 30 03 3e
       0.029016092 0.08491208 0.14643806 0.12811457
0001d0 48 d7 c3 3d 0b d2 4c bd b8 74 90 3d 0a 39 7e bb
       0.09562546 -0.050005 0.07053512 -0.0038791322
0001e0 c6 18 7a bd 6e a8 a5 bd 8f 70 d8 3d 61 c7 7e bc
       -0.061058782 -0.08088766 0.10568344 -0.015550465
0001f0 0c 65 c5 3d 75 99 31 3e 46 0a af 3c f8 53 ad be
       0.09638414 0.17343695 0.021367203 -0.33853126
000200 67 a2 1d bd 7f 99 81 be 98 b6 79 be ce 48 0a be
       -0.038484957 -0.2531242 -0.2438606 -0.13504335
000210 68 4f a4 bd 86 1d c1 39 f8 41 d9 be 43 fd 3c 3f
       -0.08022958 0.00036833825 -0.42433143 0.73823947
000220 57 a8 16 bb 4e e3 4f be a4 0b 0b bd 06 a0 b5 bd
       -0.0022988522 -0.20301554 -0.03394665 -0.08868413
000230 98 cf 89 be bb 51 de 3d 9e 49 a0 bd 70 19 76 bd
       -0.26916194 0.108554326 -0.07826541 -0.060082853
000240 dc 19 b7 3d fa 6c 32 be 16 47 d0 3d f9 6c ec bd
       0.08940479 -0.17424384 0.101698086 -0.115442224
000250 58 fa 98 be b9 90 ba 3e 3d c8 23 3e a3 17 05 3e
       -0.29878497 0.3643854 0.15994354 0.12997298
000260 6e c8 a6 bd c1 08 d3 3d 63 66 c6 bd cb 70 3a 3d
       -0.08143698 0.10304404 -0.096874975 0.045517724
000270 08 ac 64 3e e0 fd e1 be 1a 0d 09 3e c9 55 ee bd
       0.2233125 -0.44139004 0.13383904 -0.11637456
000280 ea e0 5e be 21 6f 48 3d 7b a3 ca bc ca f8 8f bc
       -0.21765485 0.048934106 -0.024736157 -0.017574687
000290 c2 c0 f7 3c b1 27 ca 3d be ac 06 be e9 a3 c5 3d
       0.030243281 0.09870852 -0.13151833 0.09650404
0002a0 7b 9c 2a be 20 97 b1 be c5 34 da bd d0 6f 07 bb
       -0.16661255 -0.34685612 -0.10654596 -0.002066601
0002b0 47 ca 8f 3c 92 f5 07 3e 17 f6 11 3e 65 25 b2 bd
       0.017552508 0.13277271 0.14254032 -0.08698539
0002c0 99 1d 04 3e 36 92 d4 3d 90 2b 4c 3d 76 80 3b 3d
       0.12901916 0.1037945 0.049846232 0.045776807
0002d0 37 6e 0a bd 49 66 47 bd 5b 85 2b be b5 ba 17 be
       -0.033796515 -0.04868153 -0.1675009 -0.14817317
0002e0 4b 39 8a bd 4f cf a0 3d 7f ce ac 3d fb 0c 25 3e
       -0.06749209 0.07852041 0.084378235 0.16118233
0002f0 7d 9c 1f bd c6 7f 3a be d8 53 81 3e 77 56 4c 3e
       -0.0389676 -0.18212804 0.2525928 0.19954859
000300 4c a4 8a 3e dc 50 e5 bd 94 a7 94 3d fe e4 65 3e
       0.27078474 -0.11197063 0.072585255 0.22450635
000310 e1 51 93 3d 40 35 e0 3d 63 43 39 3f 8f 8d c6 3e
       0.071933515 0.10947657 0.7236845 0.38779876
000320 53 22 2d 3e f5 c9 6b 3d 27 e4 c2 3d 6c c2 7b 3e
       0.16907625 0.057565648 0.09516173 0.24585885
000330 9f 90 00 3e 48 61 2f 3e d5 03 bd bc 23 7f 09 3f
       0.12555169 0.17126954 -0.023073116 0.5370962
000340 37 5b 04 3e 75 3c 9d 3e ba d2 ee 3d 7c e8 c5 3e
       0.1292542 0.30710188 0.11661287 0.38653934
000350 8d ae f8 3d d4 cc 80 3e 83 b7 93 3d 51 7d ad be
       0.12142668 0.2515627 0.072127365 -0.3388467
000360 08 53 9d bd 3c d3 ba 3d c5 eb db 3d d1 4c 3e 3e
       -0.076818526 0.09122321 0.10738329 0.1858399
000370 9c 70 27 3f 11 12 8d bc 61 a1 5b 3e a7 da 9e 3e
       0.65406203 -0.017220529 0.2144828 0.31026193
000380 28 a8 29 3e d4 7c 1e 3d fd ff c6 bd 0f 86 b7 bd
       0.16568053 0.038693264 -0.09716795 -0.089611165
000390 b7 62 7f 3e ae 5e 5e 3d 15 1e 85 3e bf fd 91 3e
       0.2494 0.054289512 0.25999513 0.28513905
0003a0 b3 87 fc 3d ef cf 63 be da e5 ea 3d cc c7 a9 3d
       0.1233057 -0.22247289 0.11469622 0.08290061
0003b0 9a dc a6 3e 4d a4 8b 3e b2 17 00 3e 64 b0 82 bd
       0.3259018 0.2727379 0.12509039 -0.063813
0003c0 c7 fd 87 3d c3 4b 1c 3d 82 9f 9e 3d 66 66 b3 3d
       0.06640201 0.03815819 0.077452675 0.08759765
0003d0 32 f4 43 bd 88 04 21 be 3e 11 1d 3e f6 25 ac 3e
       -0.047840305 -0.15724385 0.15338609 0.33622712
0003e0 2e 61 2d 3e eb 35 80 3e 55 81 ce 3d 70 3c 07 3d
       0.16931602 0.25041136 0.10083262 0.033016622
0003f0 3f 31 bc 3e 74 11 15 3e 16 8a fb 3d 57 99 19 3e
       0.36756322 0.14557439 0.12282197 0.14999901

nns.0.0.bias f4 [64]
000000 12 bf 67 3f 06 fe 81 3e 3c 0d f5 3d 07 a9 4c bf
       0.90525925 0.25389117 0.11965415 -0.79945415
000010 03 41 db 3d b0 83 f1 3b f6 2e 09 3f c6 50 b0 3e
       0.107057594 0.0073704347 0.5358728 0.34436625
000020 ab bf 93 bd 1d 53 21 3e 1f 1c cb 3e f4 14 ee 3e
       -0.07214292 0.15754361 0.39669892 0.4650036
000030 9c b6 af 3d e8 cf 17 bc c8 3e f8 3e 70 91 27 bf
       0.08579752 -0.009265877 0.48485398 -0.65456295
000040 9b 34 e0 bc 19 3e 14 3e 67 c3 2c 3e ff 32 b3 3e
       -0.027368834 0.14476813 0.16871415 0.34999844
000050 85 ef 23 bf 42 ff 1a 3f a2 d1 82 be fb 3c f4 3f
       -0.6403735 0.6054574 -0.25550562 1.908111
000060 4f 56 21 bf 0e 2b 21 3a d2 c1 3b be 8d c8 25 3e
       -0.6302232 0.0006148078 -0.18335655 0.16189785
000070 75 23 2b 3f f8 de c2 be 7c 94 f2 bf 02 e1 2f 3f
       0.6685098 -0.38060737 -1.8951564 0.6870271
000080 16 79 86 3f a5 63 67 be 8d da 19 bf 5d 45 3e be
       1.0505702 -0.22596605 -0.6009911 -0.18581147
000090 5a a1 97 3d 77 9b 7a bf 8d ac 7f 3f 11 19 a0 bf
       0.07403822 -0.9789347 0.99872667 -1.250765
0000a0 14 da 80 be 0a 17 88 3f 4e 15 3b be ae 59 9a bf
       -0.2516638 1.0632031 -0.18269846 -1.2058618
0000b0 0c bf 8c bf 10 35 a6 3e f7 35 f1 3d 41 72 cb 3d
       -1.0995803 0.32462358 0.11777871 0.099339016
0000c0 ce d9 eb be 42 b2 2e be f1 8d 25 c0 fc ea bd 3c
       -0.4606461 -0.17060187 -2.5867884 0.023183338
0000d0 d4 ed 66 3e a7 21 6b 3d f1 ff 5f 3f 71 94 e3 bd
       0.22551662 0.05740514 0.8749991 -0.11112297
0000e0 19 f4 0f 3f 70 4b 8d bd 74 e2 6d 3f 36 89 2d 3f
       0.5623184 -0.06899154 0.92923665 0.6778749
0000f0 5a 28 0b be 9f c5 93 bf 02 1a 16 be c2 3e 3c bf
       -0.13589612 -1.1544684 -0.14658359 -0.7353326

nns.0.1.weight f4 [64]
000000 bf 1c c3 3f 2c b1 0f 3f 46 25 20 3c cd b1 c9 3f
       1.5243148 0.5612972 0.009774512 1.5757385
000010 b4 3a 8f 3f dc b5 21 3f 9e 15 5a 3f 91 42 a1 3e
       1.118979 0.6316812 0.85189235 0.314961
000020 03 4b 11 3f 01 40 ea 3e 7e 5b 6c 3f ee de 26 3f
       0.56755084 0.45751956 0.92327106 0.65183914
000030 ea 03 62 3f 9e df 7d 3c 65 e8 f2 3f ed 6c 86 3f
       0.8828722 0.015495209 1.8977171 1.0501992
000040 9d 1e aa 3f 50 b6 82 3f 77 99 14 3f c9 29 79 3f
       1.3290592 1.0211887 0.5804667 0.97329384
000050 26 5d b0 3e 19 77 5d 3f a3 53 db 3e 93 ed c3 3f
       0.34446067 0.86509854 0.42837247 1.5306877
000060 d3 6d 39 3f b8 62 c2 3f 1b ba a0 3f 62 c8 08 3f
       0.72433203 1.5186377 1.2556795 0.5343076
000070 6a 5e 6f 3f 19 ad 78 3f f7 c3 d4 3f b8 cd 28 3f
       0.9350344 0.97139126 1.6622304 0.659389
000080 ab a2 50 3f 09 dc 87 3f 72 d8 d2 3f 51 63 89 3f
       0.8149821 1.0614024 1.6472304 1.0733434
000090 97 2b 07 3f d6 15 e3 3f b5 93 c4 3f 6f b8 34 3f
       0.5280089 1.7741039 1.5357577 0.70593923
0000a0 de 57 9d 3f b6 cc cb 3f 3e e5 25 3f f4 78 d5 3f
       1.229244 1.5921848 0.6480292 1.6677537
0000b0 96 4f 82 3f 09 59 0d 3f 27 14 84 3f 75 3d c4 3f
       1.0180538 0.5521398 1.031865 1.5331255
0000c0 2c 12 8f 3f 5e 8d 96 be f9 27 54 3f 79 b2 30 3f
       1.1177421 -0.2940473 0.82873493 0.6902233
0000d0 5f fe 76 3f 2a 21 51 3f c9 50 b7 3f 9a 26 4e 3f
       0.9648189 0.8169123 1.4321529 0.8052765
0000e0 aa 27 97 3f 1f f0 55 3f c9 e2 91 3f 71 df cd 3e
       1.180898 0.8356952 1.1397334 0.40209535
0000f0 f7 19 94 3e 44 f6 c1 3f c2 5c cf 3f 90 be bb 3f
       0.2892606 1.5153279 1.6200182 1.466753

nns.0.1.bias f4 [64]
000000 6f 8b bd bd d9 3f 7d bf 52 2d 80 bf c9 d0 29 bf
       -0.092551105 -0.9892555 -1.0013831 -0.66334206
000010 e6 df f7 be 6b 8d d5 be ac f3 dd 3f 47 f9 af bf
       -0.48413008 -0.41709456 1.7339988 -1.3747948
000020 2d 15 bb be 65 06 d8 bd 48 e6 85 3f a5 3d bb 3f
       -0.36539593 -0.10548095 1.0460901 1.4628187
000030 f2 cf 4e be f5 4b 4c bf 40 4c ba 3f 40 98 52 bf
       -0.20196512 -0.798034 1.455452 -0.82263565
000040 f6 cf 69 bf e4 95 88 bf 4f 59 b8 be e3 2c 2c bf
       -0.9133295 -1.0670743 -0.36005637 -0.6725599
000050 da 64 cc be 8c e5 96 be 93 c0 8b be 13 92 9a bf
       -0.39920694 -0.29472005 -0.2729536 -1.2075828
000060 0a cc b5 be f8 ef 63 bf f9 d6 38 bf 23 9a 04 bf
       -0.35507232 -0.8903804 -0.7220302 -0.51797694
000070 e1 d7 61 bd 5f eb ab be 23 e7 1c bf d5 d2 3b bf
       -0.05513752 -0.3357801 -0.61290187 -0.7336858
000080 6b b7 8c 3c c0 9e 02 c0 ea 88 a8 3f ff 94 77 bf
       0.017177304 -2.0409393 1.3166783 -0.96711725
000090 d6 d1 57 be 26 cd 5a bf 1b e5 f9 3e 25 61 b7 be
       -0.2107614 -0.8546928 0.48807606 -0.35816303
0000a0 45 5a f2 be 0c 05 5e bf 03 fe 3d bf 8c 48 27 bf
       -0.47334495 -0.8672645 -0.74215716 -0.6534507
0000b0 cd 6d 35 bf d4 10 86 be c9 ba e5 be b0 b1 89 bf
       -0.7087067 -0.26184714 -0.44869068 -1.0757351
0000c0 0e f9 43 be 88 51 06 bf 0c 2a 34 bf 3d 0f 99 be
       -0.19137976 -0.52468157 -0.7037666 -0.29894438
0000d0 2c 7e e3 be 01 6e d8 be b4 56 24 3f bf 1f a8 be
       -0.444322 -0.42271426 0.641948 -0.3283672
0000e0 3e b1 ec be c6 d4 a0 bf 70 c0 4b bf ca 1d 25 3e
       -0.46228975 -1.2564933 -0.7959051 0.16124645
0000f0 47 07 f4 be 32 34 90 be c2 26 50 bf 9b 3e 27 bf
       -0.47661802 -0.28164822 -0.8130914 -0.65329903

nns.0.1.running_mean f4 [64]
000000 13 bf 67 3f 03 fe 81 3e 3f 0d f5 3d 04 a9 4c bf
       0.9052593 0.25389108 0.11965417 -0.799454
000010 fe 40 db 3d b3 83 f1 3b f3 2e 09 3f c5 50 b0 3e
       0.10705756 0.007370436 0.53587264 0.34436622
000020 ae bf 93 bd 1c 53 21 3e 23 1c cb 3e f3 14 ee 3e
       -0.072142944 0.1575436 0.39669904 0.46500358
000030 a0 b6 af 3d ea cf 17 bc c2 3e f8 3e 6f 91 27 bf
       0.08579755 -0.009265879 0.4848538 -0.6545629
000040 9b 34 e0 bc 17 3e 14 3e 65 c3 2c 3e 03 33 b3 3e
       -0.027368834 0.1447681 0.16871412 0.34999856
000050 83 ef 23 bf 44 ff 1a 3f a2 d1 82 be f8 3c f4 3f
       -0.6403734 0.60545754 -0.25550562 1.9081106
000060 50 56 21 bf 09 2b 21 3a d4 c1 3b be 85 c8 25 3e
       -0.6302233 0.00061480753 -0.18335658 0.16189773
000070 74 23 2b 3f f5 de c2 be 7a 94 f2 bf 03 e1 2f 3f
       0.6685097 -0.38060728 -1.8951561 0.68702716
000080 10 79 86 3f a2 63 67 be 90 da 19 bf 59 45 3e be
       1.0505695 -0.225966 -0.60099125 -0.18581142
000090 53 a1 97 3d 74 9b 7a bf 8c ac 7f 3f 0e 19 a0 bf
       0.07403817 -0.9789345 0.9987266 -1.2507646
0000a0 13 da 80 be 09 17 88 3f 4c 15 3b be ae 59 9a bf
       -0.25166377 1.063203 -0.18269843 -1.2058618
0000b0 0a bf 8c bf 12 35 a6 3e f7 35 f1 3d 45 72 cb 3d
       -1.09958 0.32462364 0.11777871 0.099339046
0000c0 d1 d9 eb be 46 b2 2e be ee 8d 25 c0 f5 ea bd 3c
       -0.46064618 -0.17060193 -2.5867877 0.023183325
0000d0 d2 ed 66 3e a4 21 6b 3d f3 ff 5f 3f 70 94 e3 bd
       0.22551659 0.05740513 0.8749992 -0.111122966
0000e0 15 f4 0f 3f 6b 4b 8d bd 72 e2 6d 3f 34 89 2d 3f
       0.56231815 -0.068991505 0.92923653 0.6778748
0000f0 5b 28 0b be 9e c5 93 bf 06 1a 16 be c1 3e 3c bf
       -0.13589613 -1.1544683 -0.14658365 -0.73533255

nns.0.1.running_var f4 [64]
000000 76 18 64 28 3a 2a 26 25 4f 21 0b 26 29 ef fd 27
       1.2661847e-14 1.4412512e-16 4.8270454e-16 7.0480904e-15
000010 7d 88 6b 25 98 82 8e 21 73 fb 84 27 59 7b 08 27
       2.0429245e-16 9.656862e-19 3.690998e-15 1.8940658e-15
000020 59 f7 e5 23 e6 f6 3f 25 07 f4 07 28 e3 e4 26 27
       2.4932986e-17 1.6650262e-16 7.54692e-15 2.3161207e-15
000030 68 1a f4 23 11 9d 3f 21 7b fa 03 27 f7 41 13 29
       2.6465716e-17 6.4921193e-19 1.8315688e-15 3.2697772e-14
000040 5f b6 8d 22 05 8d b2 25 10 54 de 25 b1 93 5e 27
       3.841122e-18 3.0973636e-16 3.8567824e-16 3.0888753e-15
000050 c4 bd 2b 28 b9 d5 a7 28 37 5d 88 26 53 8f f1 29
       9.533556e-15 1.8633412e-14 9.462162e-16 1.0727413e-13
000060 82 71 14 27 4f 66 5b 1d c6 6a 76 26 62 97 92 25
       2.0600659e-15 2.90373e-21 8.54931e-16 2.5429544e-16
000070 f1 40 1f 28 0c a3 83 26 e3 08 06 2a aa 60 93 28
       8.840355e-15 9.134145e-16 1.1904674e-13 1.63622e-14
000080 73 2e 0c 28 62 0e 54 26 76 77 8c 27 74 6d 5d 25
       7.781633e-15 7.357177e-16 3.8987326e-15 1.9205779e-16
000090 21 4a 3d 24 42 fc 39 28 46 33 fc 28 1c 04 67 29
       4.1045632e-17 1.0324263e-14 2.7999857e-14 5.1295868e-14
0000a0 7b 13 b5 25 05 5f 1c 28 12 63 ed 26 9e 72 44 28
       3.1411695e-16 8.680344e-15 1.6472032e-15 1.0905039e-14
0000b0 f3 c6 f8 27 92 a4 0b 28 ea 73 46 25 75 07 af 25
       6.904953e-15 7.7517355e-15 1.7213036e-16 3.0362714e-16
0000c0 54 3b 7f 27 7d d9 a8 26 f3 43 66 2a 3a a1 1c 22
       3.542052e-15 1.1716292e-15 2.0451678e-13 2.1227295e-18
0000d0 e3 f1 1c 26 5d a1 e9 23 4e 93 6e 28 b6 c8 67 25
       5.445119e-16 2.533025e-17 1.3243596e-14 2.010406e-16
0000e0 a5 d0 7f 27 24 f8 03 24 35 17 27 28 78 a5 96 27
       3.5501465e-15 2.861628e-17 9.2753945e-15 4.1812765e-15
0000f0 26 60 c4 24 2b c7 fa 27 53 76 8b 26 3e 58 c6 28
       8.516433e-17 6.9604877e-15 9.677134e-16 2.2020685e-14
