result/08.22.2022_16.16.52/config_41fold_0_optim_dict.pt (torch, 78057 bytes, 118 tensors)

first_h.0.weight f4 [32, 3]
-0.47770476 -0.10833931 0.46407187 -0.3493243 0.079724126 0.2026214 0.072920464 -0.379016
-0.1372739 0.2956953 -0.39353523 0.060783565 0.94726944 0.18041568 0.5426269 -0.07260263
-0.5839377 0.17503932 -0.055234388 0.770781 0.594445 0.67600614 0.08041037 -0.36751786
0.770486 -0.54946667 -0.17662214 -0.28268975 -0.42608708 -2.1339525e-05 -0.41966313 -0.23021063
-0.16717581 -0.21067144 0.34219435 -0.5919505 1.1154293 -0.6112276 -0.42595658 0.16569452
-0.6079488 -0.015028318 -0.08446278 -0.29671052 -0.26189455 -0.32658735 0.42535207 -0.020895202
0.32504487 -0.6083293 -0.29874045 0.5432318 -0.4026107 -0.6716321 -0.06706847 0.2557237
-0.23241103 -0.058342874 0.34948337 -0.33386835 0.6205664 -0.82000375 -0.85708696 -0.23971322
0.24103051 0.2692708 -0.7565556 0.15828295 -0.1695148 -0.38079175 0.75907016 -0.27039
0.2840948 0.45082286 0.14592132 -0.7837522 -0.012524484 -0.07586326 0.7835291 0.32062772
-0.44028172 -0.34278053 -0.39853847 -0.54930276 1.1050634 0.24579579 -0.03672491 0.14718527
-0.7072368 -0.106164485 -0.32467842 -0.16298045 -0.4336752 0.090438806 0.43432805 0.67610544
00000000: b895 f4be 00e1 ddbd d49a ed3e a2da b2be
00000010: 6746 a33d fc7b 4f3e 5357 953d 630e c2be
00000020: 8791 0cbe 6065 973e 737d c9be 30f8 783d
00000030: 4080 723f e3be 383e 99e9 0a3f b0b0 94bd
00000040: f17c 15bf 823d 333e 743d 62bd e751 453f
00000050: 8c2d 183f bd0e 2d3f 31ae a43d 4d2b bcbe
00000060: 923e 453f d9a9 0cbf 6fdc 34be b6bc 90be
00000070: 1628 dabe 4802 b3b7 16de d6be 56bc 6bbe
00000080: 2330 2bbe 41ba 57be 1934 af3e 118a 17bf
00000090: 63c6 8e3f 6979 1cbf fb16 dabe d3ab 293e
000000a0: 88a2 1bbf 5639 76bc d2fa acbd 71ea 97be
000000b0: 0b17 86be 7536 a7be bfc7 d93e 6a2c abbc
000000c0: 486c a63e 78bb 1bbf 82f4 98be 3d11 0b3f
000000d0: fd22 cebe 15f0 2bbf 325b 89bd 38ee 823e
000000e0: 28fd 6dbe f0f8 6ebd 7cef b23e cbf0 aabe
000000f0: 71dd 1e3f c4eb 51bf 0d6a 5bbf 6277 75be
00000100: b4d0 763e dddd 893e a1ad 41bf ed14 223e
00000110: 4a95 2dbe 23f7 c2be 6c52 423f 8f70 8abe
00000120: e074 913e 41d2 e63e 666c 153e fca3 48bf
00000130: 7e33 4dbc 325e 9bbd 5d95 483f 5129 a43e
00000140: 9b6c e1be ee80 afbe 3c0d ccbe 1b9f 0cbf
00000150: b872 8d3f e4b1 7b3e dc6c 16bd bcb7 163e
00000160: 790d 35bf c46c d9bd 403c a6be 59e4 26be
00000170: ad0a debe fb37 b93d 3f60 de3e 3f15 2d3f

first_h.0.bias f4 [32]
0.4747513 -0.31428647 0.37588468 0.37557748 0.2317586 0.55100757 0.045932055 -0.069339745
-0.32649845 -0.12850714 0.20514798 -0.4075113 0.11925817 -0.15599737 -0.46158734 -0.07062034
-0.22203892 0.515405 -0.2806224 0.56389767 0.33222052 0.5655571 -0.0022596342 -0.018911606
-0.49087024 0.22348228 0.37360415 -0.053360473 -0.018367846 -0.037377443 0.2999884 -0.33271676
00000000: 9a12 f33e 28ea a0be f573 c03e b14b c03e
00000010: 2052 6d3e d50e 0d3f 4023 3c3d ff01 8ebd
00000020: ce2a a7be 6097 03be 5012 523e 52a5 d0be
00000030: a13d f43d c6bd 1fbe 2d55 ecbe 66a1 90bd
00000040: 2c5e 63be 95f1 033f bdad 8fbe 995b 103f
00000050: cf18 aa3e 5ac8 103f 5f16 14bb 83ec 9abc
00000060: 5853 fbbe 8ad8 643e 0b49 bf3e 8390 5abd
00000070: 2a78 96bc 1719 19bd 1498 993e da59 aabe

first_h.1.weight f4 [32]
0.91122293 1.0914927 0.85521466 1.2336552 0.90758 1.0600926 1.1286398 0.9894776
1.1364878 0.9657227 1.0012211 0.9155244 0.8959485 0.7322889 1.1170418 1.0550544
0.9421933 1.0482244 1.1377275 0.8990555 0.771371 0.8812884 0.99752665 1.0683849
0.8317121 1.1123025 0.9237181 0.7854679 0.9204575 1.1577069 0.8943977 0.8781046
00000000: e845 693f 08b6 8b3f 59ef 5a3f 6ae8 9d3f
00000010: 2a57 683f 1db1 873f 4577 903f 674e 7d3f
00000020: 6f78 913f 9a39 773f 0328 803f cf5f 6a3f
00000030: e25c 653f 4977 3b3f 3afb 8e3f 060c 873f
00000040: 9533 713f 382c 863f 0ea1 913f 8028 663f
00000050: 9278 453f 1e9c 613f e85d 7f3f d6c0 883f
00000060: 16eb 543f ee5f 8e3f ca78 6c3f 6d14 493f
00000070: 1aa3 6b3f bd2f 943f 3ff7 643f 77cb 603f

first_h.1.bias f4 [32]
-0.2019232 0.021320788 -0.30092636 -0.60562265 -0.778353 0.14641325 -0.1623568 -0.14821729
-0.30229506 -0.68287456 -0.014128764 -0.25272217 -0.8038241 0.2081007 0.12586227 -0.19399588
-0.2755395 -0.18964073 0.11887018 -1.200391 -0.33323213 0.008627949 1.1775072 -0.23103862
-0.5262507 1.208278 -0.31220138 0.12013249 -0.5130541 0.017840642 -0.19868168 0.1489841
00000000: f5c4 4ebe efa8 ae3c 0513 9abe 160a 1bbf
00000010: 2442 47bf 5bed 153e dc40 26be 46c6 17be
00000020: 6bc6 9abe ded0 2ebf 557c 67bc cd64 81be
00000030: 6bc7 4dbf 5a18 553e 0ae2 003e dba6 46be
00000040: 8313 8dbe 2e31 42be 3572 f33d 6aa6 99bf
00000050: 679d aabe 3e5c 0d3c 8eb8 963f 6395 6cbe
00000060: 5eb8 06bf daa8 9a3f dcd8 9fbe 0608 f63d
00000070: 8357 03bf 8a26 923c 3673 4bbe 4a8f 183e

first_h.1.running_mean f4 [32]
-675681.1 -493723.44 101790.08 418673.8 1.3396751e+06 -102720.97 -78446.27 955692.5
1.0878819e+06 -399822.12 -593493.9 -297966.94 1.5778218e+06 236592.06 -119465.164 -461961.34
459882.97 768536.8 -94859.27 -82517.61 877648.94 -338903.56 -1.0701488e+06 -538596.8
402016.03 -1.1086835e+06 1.1083039e+06 -485010.3 1.563365e+06 208166.0 -459208.88 128003.516
00000000: 12f6 24c9 6e13 f1c8 0acf c647 3a6e cc48
00000010: d988 a349 7ca0 c8c7 2337 99c7 c852 6949
00000020: 4fcc 8449 c439 c3c8 5ee5 10c9 de7d 91c8
00000030: ee9a c049 040c 6748 9554 e9c7 2b91 e1c8
00000040: 5f8d e048 8da1 3b49 a345 b9c7 ce2a a1c7
00000050: 0f45 5649 f27a a5c8 26a2 82c9 4d7e 03c9
00000060: 014c c448 5c56 87c9 7f4a 8749 4ad2 ecc8
00000070: 28d7 be49 8049 4b48 1c39 e0c8 c201 fa47

first_h.1.running_var f4 [32]
1.3360972e+13 7.133542e+12 3.0310557e+11 5.1320796e+12 5.252255e+13 3.0877234e+11 1.8020973e+11 2.6729354e+13
3.4636166e+13 4.678141e+12 1.0308062e+13 2.5982313e+12 7.286218e+13 1.6390918e+12 4.1762695e+11 6.245517e+12
6.189654e+12 1.728605e+13 2.6333561e+11 1.9927466e+11 2.2542773e+13 3.361188e+12 3.3516033e+13 8.4895995e+12
4.7294406e+12 3.5975464e+13 3.5947396e+13 6.8840797e+12 7.152686e+13 1.26825e+12 6.1710564e+12 4.7940472e+11
00000000: 806d 4255 089d cf54 0025 8d52 f95c 9554
00000010: 7013 3f56 88c8 8f52 59d5 2752 4d7b c255
00000020: e302 fc55 de26 8854 8600 1655 aa3c 1754
00000030: 1989 8456 bed0 be53 0379 c252 bac4 b554
00000040: 8424 b454 8e8b 7b55 1a40 7552 c896 3952
00000050: 3005 a455 9ba5 4354 7adc f355 7214 f754
00000060: 14a5 8954 c3e0 0256 9fc6 0256 645a c854
00000070: 4a1b 8256 cca4 9353 f499 b354 7f3d df52

first_h.3.weight f4 [32, 32]
0.102389336 0.18671422 -0.004743311 0.042367343 -0.034298424 0.16606829 -0.016155979 -0.19183786
-0.15163873 0.037129685 -0.06262238 -0.034499075 -0.074502625 0.22232895 0.32955462 0.08925329
-0.2399723 -0.17434411 0.19263181 0.05770554 -0.050749112 0.08385881 0.21123795 0.08078108
-0.19766106 0.13097268 -0.18462232 0.03247265 0.050179355 0.18911348 0.098866746 -0.20936693
0.20743869 0.11134529 -0.08871129 -0.018610237 -0.14123175 -0.046939675 -0.17109361 -0.13949604
-0.20583764 0.06635634 -0.1341648 0.083362356 -0.16407491 0.065261796 -0.037711605 0.021727592
0.094081275 -0.17404184 -0.10548017 -0.047667578 0.07274704 0.22651224 -0.068299964 0.09957158
-0.10018277 -0.039898254 -0.0645777 0.0056489334 -0.061018113 0.05650482 -0.062835805 0.015611799
-0.33910188 -0.38941446 0.34359878 0.39957553 0.41136986 -0.41994965 -0.41721782 0.20302683
0.34075773 -0.10769836 -0.23298429 -0.33439758 0.3119689 -0.29165176 -0.40714505 -0.39131206
0.23508537 0.4453254 -0.39407608 -0.029941684 0.1858282 -0.22292663 -0.13230515 -0.5321733
0.52899396 -0.19025752 0.38245973 -0.22166787 0.29860333 -0.1305724 -0.48681268 -0.57194936
0.09727102 -0.19545394 -0.07436167 0.09757193 -0.054624353 0.13870266 0.014142725 0.19449303
0.105093814 -0.04608458 -0.028826956 0.10709739 0.0147449495 -0.05564555 -0.15420868 0.030838337
0.19006136 0.20863898 -0.18248582 0.05754588 -0.002302231 -0.14331852 -0.0773386 0.06134225
0.011118258 -0.06922444 -0.09013126 -0.032061357 0.10649528 0.08311145 0.10506423 -0.22919112
0.2770395 0.19313794 -0.087557115 -0.2569178 0.11270238 0.44270623 -0.12800652 -0.106556125
-0.25570148 0.070102274 -0.04475926 0.16511777 -0.17239892 0.3183229 0.2107581 -0.28965822
-0.32809666 -0.22939591 0.111806765 -0.089941956 -0.11606388 0.11045125 0.34535766 -0.10240669
-0.17809612 0.3878697 -0.10958539 0.28249392 -0.084673315 0.30282858 0.19205986 -0.11840187
0.72116065 0.7914381 -0.0682925 -0.2638608 -0.107552335 1.0725262 0.62156016 -0.058453053
-0.28551808 0.23953041 0.8475658 0.75921285 0.07187528 0.7149235 0.79641217 0.51527864
-0.110109106 -0.036986068 0.97234887 0.3310139 0.030010715 0.69990313 1.0850333 0.43798295
0.0831212 1.1270163 -0.061961677 0.8068758 -0.0811008 0.75356114 0.799746 0.3979482
0.13204108 0.12035569 -0.5672699 -0.84093755 -0.4414228 0.18847159 0.051854525 -0.5870916
-0.48297352 0.011985056 0.22738148 0.3522129 -0.47677323 0.068197384 0.13630734 0.19292468
-0.61953753 -0.69942325 0.16918968 0.021437583 -0.78574985 0.25021026 0.2502351 0.032702055
-0.77305466 0.32774085 -0.81962776 0.12463013 -0.6537532 0.37099382 0.33924073 0.21572052
0.25595993 0.42025656 0.23269182 0.3889934 1.1124885 0.36800733 0.093686156 0.21043035
0.10299129 0.2148833 0.13425744 0.29123244 0.51889384 0.11083287 0.37705588 0.089115456
0.24008435 0.3679732 0.53811747 0.1140988 0.15319474 0.28861398 0.34052268 -0.016887616
0.3364914 0.5853331 0.2974143 0.35578868 0.33330163 0.9129714 0.85851264 0.12897
00000000: 80b1 d13d 0332 3f3e c76d 9bbb 6189 2d3d
00000010: 817c 0cbd ce0d 2a3e 8b59 84bc 2571 44be
00000020: 2f47 1bbe 4c15 183d 2a40 80bd e74e 0dbd
00000030: d594 98bd 33aa 633e 62bb a83e 6eca b63d
00000040: 4cbb 75be 4387 32be 4641 453e a55c 6c3d
00000050: 4dde 4fbd 2bbe ab3d c34e 583e 8d70 a53d
00000060: a967 4abe b41d 063e a20d 3dbe 0b02 053d
00000070: de88 4d3d f7a6 413e a67a ca3d 4964 56be
00000080: cf6a 543e 0009 e43d 44ae b5bd 7f74 98bc
00000090: 0e9f 10be d143 40bd 2a33 2fbe 0dd8 0ebe
000000a0: 1ac7 52be d5e5 873d 7f62 09be e2b9 aa3d
000000b0: 4103 28be faa7 853d 7c77 1abd 10fe b13c
000000c0: afad c03d 0638 32be fd05 d8bd 143f 43bd
000000d0: 66fc 943d d3f2 673e dae0 8bbd 2fec cb3d
000000e0: a02c cdbd 5a6c 23bd 5041 84bd b01a b93b
000000f0: 21ee 79bd 9971 673d 0fb0 80bd a2c8 7f3c
00000100: c39e adbe 5561 c7be 2eec af3e 2a95 cc3e
00000110: 129f d23e a403 d7be 939d d5be 44e6 4f3e
00000120: cc77 ae3e f590 dcbd 6f93 6ebe 2936 abbe
00000130: 63ba 9f3e 6153 95be 5175 d0be 0e5a c8be
00000140: 38ba 703e b101 e43e 57c4 c9be 4348 f5bc
00000150: bf49 3e3e e146 64be 007b 07be 823c 08bf
00000160: 266c 073f ded2 42be c3d1 c33e e7fc 62be
00000170: 89e2 983e c5b4 05be 833f f9be 466b 12bf
00000180: 0736 c73d 1425 48be ee4a 98bd cbd3 c73d
00000190: c9bd 5fbd 1208 0e3e e3b6 673c 2e29 473e
000001a0: 6d3b d73d 2fc3 3cbd 8226 ecbc e055 db3d
000001b0: cd94 713c 97ec 63bd e1e8 1dbe aea0 fc3c
000001c0: 729f 423e 75a5 553e 90dd 3abe 3bb5 6b3d
000001d0: 07e1 16bb 17c2 12be b363 9ebd 0342 7b3d
000001e0: 5b29 363c 8bc5 8dbd bd96 b8bd c552 03bd
000001f0: 331a da3d 5636 aa3d ea2b d73d 14b1 6abe
00000200: 1fd8 8d3e f4c5 453e 2551 b3bd bb8a 83be
00000210: 81d0 e63d 64aa e23e 2414 03be 193a dabd
00000220: 4eeb 82be c891 8f3d 7c55 37bd a214 293e
00000230: 5889 30be 38fb a23e f9d0 573e 154e 94be
00000240: 49fc a7be c3e6 6abe f2fa e43d 7d33 b8bd
00000250: e6b2 edbd 4434 e23d b8d2 b03e 99ba d1bd
00000260: d45e 36be db96 c63e 4e6e e0bd 0ba3 903e
00000270: 3469 adbd 590c 9b3e 57ab 443e ae7c f2bd
00000280: fc9d 383f b09b 4a3f f0dc 8bbd c318 87be
00000290: 6644 dcbd 8a48 893f 911e 1f3f 786c 6fbd
000002a0: 6d2f 92be 7647 753e 13fa 583f c65b 423f
000002b0: 5933 933d 3a05 373f abe1 4b3f 4de9 033f
000002c0: e280 e1bd b47e 17bd dbeb 783f a77a a93e
000002d0: 08d9 f53c da2c 333f 5fe2 8a3f 4d3f e03e
000002e0: 733b aa3d 1242 903f 87cb 7dbd 6a8f 4e3f
000002f0: 2d18 a6bd 62e9 403f 27bc 4c3f debf cb3e
00000300: c735 073e 0b7d f63d 9a38 11bf af47 57bf
00000310: 2b02 e2be b2fe 403e 6965 543d a34b 16bf
00000320: 4e48 f7be f85c 443c b1d6 683e 4055 b43e
00000330: 9f1b f4be 12ab 8b3d 2794 0b3e 0c8e 453e
00000340: 039a 1ebf 670d 33bf 0f40 2d3e df9d af3c
00000350: e726 49bf 8f1b 803e d11e 803e 97f2 053d
00000360: e9e6 45bf a6cd a73e 20d3 51bf 153e ff3d
00000370: 5f5c 27bf e7f2 bd3e f6b0 ad3e d7e5 5c3e
00000380: 2e0d 833e de2b d73e c446 6e3e 252a c73e
00000390: 0666 8e3f 756b bc3e 87de bf3d 0e7b 573e
000003a0: 19ed d23d 5e0a 5c3e c87a 093e 6b1c 953e
000003b0: 3ad6 043f 58fc e23d 780d c13e 2a82 b63d
000003c0: acd8 753e fc66 bc3e 11c2 093f a2ac e93d
000003d0: 15df 1c3e 36c5 933e fd58 ae3e e657 8abc
000003e0: 9a48 ac3e 64d8 153f b046 983e ef29 b63e
000003f0: 83a6 aa3e 7eb8 693f 7cc7 5b3f b610 043e

first_h.3.bias f4 [32]
-0.16903679 -0.16740699 -0.20647429 0.049422536 0.38717815 -0.33927777 -0.22192872 0.17062952
0.26655537 0.12997021 -0.012698742 0.40250805 0.5571792 -0.091403104 -0.22266129 -0.011589826
0.3332886 -0.343237 -0.23315957 -0.096215926 -0.31722832 0.115841694 0.16874321 0.18210986
-0.40923235 0.30376983 -0.38173434 -0.19489239 -0.54092485 -0.14853363 0.08758768 0.42909768
00000000: fb17 2dbe bd6c 2bbe ff6d 53be 496f 4a3d
00000010: 373c c63e d1b5 adbe 4841 63be 81b9 2e3e
00000020: f279 883e e916 053e 620e 50bc 8915 ce3e
00000030: 4ca3 0e3f 8d31 bbbd 5201 64be 41e3 3dbc
00000040: cea4 aa3e c3bc afbe 62c1 6ebe db0c c5bd
00000050: c06b a2be 693e ed3d 05cb 2c3e 027b 3a3e
00000060: e786 d1be b887 9b3e af72 c3be df91 47be
00000070: 0d7a 0abf 3319 18be 2b61 b33d b1b2 db3e

first_h.4.weight f4 [32]
0.75832367 0.3290662 0.7131156 -0.009137371 0.78811264 -0.05944762 0.8361078 0.38176462
0.3769691 0.40543872 0.9547686 -0.08527669 0.015721533 0.72020274 0.34055635 0.66211843
0.45931232 0.64548755 0.260617 0.0021711597 0.3684193 0.35630304 0.60724235 0.73001313
0.18734021 0.46982938 0.75227416 0.569451 0.52356434 -0.051439095 0.2765446 0.5785404
00000000: 8021 423f 5d7b a83e be8e 363f e9b4 15bc
00000010: c0c1 493f 597f 73bd 290b 563f a776 c33e
00000020: 1802 c13e aa95 cf3e b76b 743f 8ca5 aebd
00000030: 72ca 803c 355f 383f 675d ae3e 9880 293f
00000040: fc2a eb3e ac3e 253f 976f 853e 044a 0e3b
00000050: 74a1 bc3e 5a6d b63e 3c74 1b3f 24e2 3a3f
00000060: 1dd6 3f3e 7a8d f03e 0a95 403f 8ac7 113f
00000070: 5008 063f cdb1 52bd 4197 8d3e 391b 143f

first_h.4.bias f4 [32]
-0.49507686 -0.4752467 -0.21113393 -0.24887547 -0.46897662 -0.8024994 -0.26516744 -1.4807049
-0.59546953 -0.6049588 -0.1285259 -0.34983972 -0.66574436 -0.50746405 -1.1849229 -0.49532202
-0.55280304 -0.49577013 -0.96010107 -0.25197512 -0.3696497 -0.52530605 -1.5950209 -0.5502946
-0.31261316 -0.2153792 -0.85591656 -0.7841272 -0.59636366 -0.5219286 -0.7774212 -0.66293216
00000000: b77a fdbe 8953 f3be 7e33 58be 36d9 7ebe
00000010: b41d f0be 9a70 4dbf 07c4 87be bd87 bdbf
00000020: b170 18bf 94de 1abf 4b9c 03be 311e b3be
00000030: 396e 2abf 2ae9 01bf 8eab 97bf d99a fdbe
00000040: 8084 0dbf 95d5 fdbe 2fc9 75bf e202 81be
00000050: ba42 bdbe 757a 06bf a529 ccbf 1be0 0cbf
00000060: d50e a0be 5d8c 5cbe 591d 5bbf 8fbc 48bf
00000070: 4aab 18bf 1d9d 05bf 1305 47bf ecb5 29bf

first_h.4.running_mean f4 [32]
0.43357345 -0.46433944 -0.9478607 -0.19035992 1.5466167 4.6021233 -0.1737802 3.0311716
-2.2596772 1.4880315 -0.2810175 0.06930239 -0.8940215 0.0059601814 2.617268 -0.28605777
-2.084703 0.82410693 0.37701768 1.6902826 -0.03576484 -0.82182634 3.9094806 0.61368227
0.5578099 -1.2709645 2.772633 3.6206512 0.5248374 0.65774417 -0.13269317 -1.6082206
00000000: 57fd dd3e e6bd edbe 00a7 72bf b6ed 42be
00000010: 89f7 c53f 9844 9340 70f3 31be b7fe 4140
00000020: 8d9e 10c0 d177 be3f 87e1 8fbe 69ee 8d3d
00000030: 98de 64bf a04d c33b 5281 2740 2a76 92be
00000040: c66b 05c0 acf8 523f 7608 c13e 2e5b d83f
00000050: 277e 12bd 3663 52bf ee34 7a40 481a 1d3f
00000060: a1cc 0e3f f7ae a2bf d272 3140 c0b8 6740
00000070: be5b 063f ec61 283f b8e0 07be 2cda cdbf

first_h.4.running_var f4 [32]
0.9872584 0.49810448 7.9372106 0.36657408 2.0081518 1.058131 36.75658 18.815588
15.000659 2.3879843 81.89564 4.0864916 15.512265 5.868258 0.57523835 1.2056687
6.613493 1.6587977 0.072196126 3.48347 19.725622 17.563234 20.944866 0.25897336
14.905822 29.100998 3.5333314 4.666729 7.3777523 6.0704665 23.497822 65.42799
00000000: f7bc 7c3f 8d07 ff3e a1fd fd40 99af bb3e
00000010: 8f85 0040 d670 873f bd06 1342 5386 9641
00000020: b302 7041 bcd4 1840 91ca a342 8ac4 8240
00000030: 3d32 7841 c5c8 bb40 d242 133f 5a53 9a3f
00000040: bca1 d340 7c53 d43f 90db 933d 2cf1 5e40
00000050: 13ce 9d41 8181 8c41 168f a741 2898 843e
00000060: 3f7e 6e41 d8ce e841 1a22 6240 d855 9540
00000070: 8c16 ec40 4341 c240 8afb bb41 22db 8242

nns.0.0.weight f4 [32, 32]
-0.3662145 -0.23480509 0.24302258 -0.31515488 -0.42193505 -0.49449393 -0.29199654 0.15428904
0.19162855 0.2585696 -0.20315877 -0.015510415 0.17504701 -0.53385353 -0.3193292 -0.19270834
0.5148787 -0.17193006 -0.07695335 -0.34481886 0.5932848 -0.10695608 -0.10391809 -0.27405363
-0.2598873 0.47949308 -0.3277255 -0.08829178 -0.37405038 -0.27374467 -0.10285801 0.17842284
0.26917174 0.04403283 0.50845486 0.30982375 0.0077130855 0.55904883 -0.1194466 0.17163204
-0.1303166 -0.15504575 0.015267782 -0.053945895 0.19540137 0.1011578 0.43558097 -0.23776054
-0.04008262 0.08189436 0.17702384 0.07048528 0.537188 0.5221043 1.4815118 -0.0302087
0.07386126 0.15704723 0.3747992 0.18793125 -0.024144372 0.4087692 0.13993908 -0.23053087
0.070537955 -0.020161672 -0.3834104 0.104151815 -0.08356473 -0.3118215 -0.012052079 -0.91745687
-0.23679699 -0.1159578 -0.75352603 -0.31038103 -0.15651052 -0.13469233 -0.12933868 0.05866773
-0.7142758 0.25719416 0.5294317 -0.27958566 -0.53687775 -0.7337122 -0.5393619 0.113095544
-1.9612759 -0.2574536 0.25575617 0.35579652 0.08335408 0.08272171 0.3046735 -0.6308204
0.22988787 0.06512521 -0.75630784 0.13170655 0.22056973 0.6319403 0.09816722 0.7344187
0.25996363 0.21607842 -0.0268487 0.36578363 0.050971575 0.11193717 0.45991197 0.018846583
-0.10138714 0.2874031 0.42789957 0.025818203 -0.3748243 0.5025363 1.509527 0.07460945
-0.041071534 0.09615376 0.25318903 0.4446034 0.2853361 0.33862025 0.018702826 0.068356186
0.14233844 -0.15549599 0.51033825 -0.04773619 -0.16711304 -0.4257757 -0.13277806 0.66343737
0.64619905 -0.01945799 -0.5625328 0.22599632 0.47590366 -0.22007254 0.5003024 -0.31004012
0.8188633 0.20410618 0.13368118 -0.73222595 0.251413 0.087575 0.57038623 0.19940497
-1.2486212 0.5601372 0.1807764 0.4326411 -0.032843217 -0.05188691 0.2452236 -0.678451
-0.2466681 -0.06075182 0.11049296 -0.5483157 0.34159827 -0.21634044 -0.113727614 0.02078884
-0.10682087 -0.04834967 -0.48450783 -0.23596993 0.11466181 -0.00017665456 -0.19504826 -0.027562011
0.21897003 -0.2028407 -0.36402258 -0.3569369 0.37412953 -0.3063142 0.07563993 -0.23913977
-0.16083236 0.44107598 -0.15090266 0.10120471 -0.06325609 -0.5790283 0.08107858 0.08449042
0.08663406 -0.4210204 -0.58346814 0.13042235 -0.004151397 0.5492749 0.40578574 0.51061845
0.12519349 0.060946234 -0.064189866 0.3633086 -0.032142363 0.07276255 0.6157955 -0.16771527
-0.0033061367 0.110521644 0.49022835 0.18033747 -0.10075804 0.2186356 1.6557279 0.18113694
-0.06034739 -0.1599771 0.2981976 0.3829853 0.05292449 0.23800437 -0.09771909 -0.5851005
-0.07862647 -0.078047715 0.3229357 -0.17268431 -0.16824336 -0.47896516 0.1558972 -0.015756847
0.09401018 0.39947504 -0.0389073 -0.3384323 0.34117162 0.11231714 -0.30227494 -0.07382836
0.34344515 -0.024924677 -0.11535727 -0.07730416 0.42572653 0.057564758 0.0020993839 -0.13919123
-0.36376563 0.31794146 -0.0753217 -0.254369 -0.029391749 -0.36422786 0.1736549 -0.05461986
00000000: 7880 bbbe bf70 70be e9da 783e fb5b a1be
00000010: df07 d8be 4f2e fdbe 9280 95be f2fd 1d3e
00000020: 463a 443e 3c63 843e da08 50be 651f 7ebc
00000030: 863f 333e a0aa 08bf 1e7f a3be 5655 45be
00000040: 17cf 033f 6f0e 30be b899 9dbd 198c b0be
00000050: 83e1 173f ca0b dbbd 02d3 d4bd c250 8cbe
00000060: f30f 85be 1e80 f53e a3cb a7be 52d2 b4bd
00000070: 8883 bfbe 4328 8cbe 38a7 d2bd 7ab4 363e
00000080: e1d0 893e c55b 343d 192a 023f 38a1 9e3e
00000090: 0dbe fc3b d31d 0f3f 6ba0 f4bd 4fc0 2f3e
000000a0: b771 05be 50c4 1ebe b825 7a3c 5ff6 5cbd
000000b0: 4c17 483e d22b cf3d 7804 df3e 8077 73be
000000c0: ac2d 24bd 3bb8 a73d bd45 353e 965a 903d
000000d0: 2785 093f a1a8 053f 2ea2 bd3f 3c78 f7bc
000000e0: 9344 973d fdd0 203e aee5 bf3e 0d71 403e
000000f0: 6bca c5bc 324a d13e 314c 0f3e 4910 6cbe
00000100: 3476 903d 172a a5bc 5e4e c4be 8c4d d53d
00000110: fc23 abbd 11a7 9fbe 1576 45bc 74de 6abf
00000120: e97a 72be 487b edbd 15e7 40bf 43ea 9ebe
00000130: 4b44 20be c9ec 09be 5c71 04be 934d 703d
00000140: c7da 36bf f4ae 833e d688 073f da25 8fbe
00000150: d270 09bf 90d4 3bbf 9f13 0abf a39e e73d
00000160: 170b fbbf f5d0 83be 79f2 823e f62a b63e
00000170: 8bb5 aa3d 006a a93d 2afe 9b3e 727d 21bf
00000180: ba67 6b3e 5e60 853d 649d 41bf 15de 063e
00000190: 08dd 613e d7c6 213f e50b c93d dd02 3c3f
000001a0: f419 853e a943 5d3e cef1 dbbc fe47 bb3e
000001b0: 92c7 503d 513f e53d 9579 eb3e 2664 9a3c
000001c0: 10a4 cfbd 8026 933e a715 db3e b280 d33c
000001d0: f8e8 bfbe 38a6 003f 2e38 c13f d7cc 983d
000001e0: a03a 28bd 43ec c43d fea1 813e 0fa3 e33e
000001f0: 9317 923e a25f ad3e ab36 993c 54fe 8b3d
00000200: 2bc1 113e 573a 1fbe 87a5 023f 0687 43bd
00000210: ae1f 2bbe 46ff d9be f9f6 07be 08d7 293f
00000220: 4d6d 253f 5d66 9fbc 2602 10bf 946b 673e
00000230: a5a9 f33e b25a 61be d113 003f 94bd 9ebe
00000240: 06a1 513f 3601 513e b8e3 083e 2973 3bbf
00000250: 34b9 803e 865a b33d d504 123f d130 4c3e
00000260: d2d2 9fbf 2765 0f3f 731d 393e 2283 dd3e
00000270: 9c86 06bd 5e87 54bd e51b 7b3e f7ae 2dbf
00000280: 9096 7cbe e7d6 78bd 224a e23d 6b5e 0cbf
00000290: f8e5 ae3e 5988 5dbe 06ea e8bd 5b4d aa3c
000002a0: e6c4 dabd 4e0a 46bd 6911 f8be 1aa2 71be
000002b0: d0d3 ea3d 593c 39b9 bbba 47be bac9 e1bc
000002c0: ae39 603e 79b5 4fbe 2b61 babe 6fc0 b6be
000002d0: e88d bf3e 37d5 9cbe 1ce9 9a3d 0ee1 74be
000002e0: 3db1 24be b6d4 e13e 3a86 1abe 6a44 cf3d
000002f0: 698c 81bd 333b 14bf 870c a63d 5009 ad3d
00000300: 336d b13d fc8f d7be 2b5e 15bf 708d 053e
00000310: 7108 88bb 489d 0c3f 26c3 cf3e e4b7 023f
00000320: b932 003e c2a2 793d fa75 83bd 9603 ba3e
00000330: b6a7 03bd 8804 953d c6a4 1d3f 8dbd 2bbe
00000340: c5ab 58bb 2c59 e23d 36ff fa3e 63aa 383e
00000350: 3b5a cebd 03e2 5f3e e4ee d33f f67b 393e
00000360: d32e 77bd 09d1 23be 5bad 983e a616 c43e
00000370: 5ac7 583d 6bb7 733e f220 c8bd 25c9 15bf
00000380: ea06 a1bd 7bd7 9fbd d457 a53e 28d4 30be
00000390: fd47 2cbe ec3a f5be 84a3 1f3e 8114 81bc
000003a0: 6988 c03d fe87 cc3e 435d 1fbd 0047 adbe
000003b0: 0cae ae3e 8706 e63d c8c3 9abe 5333 97bd
000003c0: 0bd8 af3e d62e ccbc 6f40 ecbd a551 9ebd
000003d0: d4f8 d93e 06c9 6b3d d195 093b 2588 0ebe
000003e0: 7d3f babe 39c9 a23e 4342 9abd a73c 82be
000003f0: f7c6 f0bc 137c babe 97d2 313e 13b9 5fbd

nns.0.0.bias f4 [32]
-0.4272843 -0.099021494 -0.7622103 0.10010961 0.09593446 0.10709267 -0.5865263 0.021137688
0.38913748 0.046183128 -0.1323425 0.13428769 0.025625663 -0.3972096 0.15524656 -0.40654862
-0.0050270725 0.111267045 -0.24920557 0.4460532 1.3320075 0.013464072 0.5650112 -0.20563972
-0.39471993 -0.16077998 0.08841624 0.06820354 -0.72414505 -0.06499539 -0.16726576 0.086268365
00000000: 02c5 dabe c8cb cabd 3720 43bf 4406 cd3d
00000010: 4979 c43d 6753 db3d 9626 16bf f228 ad3c
00000020: 073d c73e 852a 3d3d cb84 07be b682 093e
00000030: e9ec d13c 0f5f cbbe f4f8 1e3e 2427 d0be
00000040: 24ba a4bb fadf e33d bf2f 7fbe 1661 e43e
00000050: 397f aa3f 6998 5c3c 93a4 103f 3893 52be
00000060: bb18 cabe 82a3 24be 9313 b53d 4cae 8b3d
00000070: 9261 39bf 4e1c 85bd b747 2bbe 78ad b03d

nns.0.1.weight f4 [32]
0.7287033 0.51263124 2.764985 0.49179682 0.8783475 0.46126693 0.6247026 0.17146088
1.0660663 0.27523893 1.5556046 0.9014583 0.4873446 1.3328543 0.91332686 0.8875549
0.3784685 -0.04453926 1.7883116 0.8131786 1.5374141 0.2664274 0.8780293 0.42890537
0.27251992 0.47086498 0.3169149 0.85786265 0.89454085 0.84378815 0.47826368 0.27093628
00000000: 4d8c 3a3f cd3b 033f 84f5 3040 cbcc fb3e
00000010: 62db 603f 2e2b ec3e 82ec 1f3f 7193 2f3e
00000020: dc74 883f 1eec 8c3e 0d1e c73f f9c5 663f
00000030: 3b85 f93e f89a aa3f cacf 693f cc36 633f
00000040: a0c6 c13e cd6e 36bd 65e7 e43f 792c 503f
00000050: fcc9 c43f 2c69 883e 87c6 603f 7c99 db3e
00000060: bb87 8b3e 3715 f13e ab42 a23e e39c 5b3f
00000070: a100 653f 8002 583f fade f43e 29b8 8a3e

nns.0.1.bias f4 [32]
-0.4802995 -2.5663338 0.6439751 -1.9965096 -0.3654375 -0.46344545 -2.1314447 -0.29729965
-0.29517996 0.16155654 0.8815528 -0.39191064 -0.63656425 -0.46724018 -1.2937834 0.07287186
-0.754788 -0.13558394 0.25532696 -0.2168398 -1.4382235 -0.5027736 -0.008269665 0.79217327
-1.9252931 -1.1500797 0.16114073 -0.70678747 -0.4307789 -0.50680846 -0.51420075 0.3546448
00000000: d1e9 f5be d03e 24c0 8ddb 243f a08d ffbf
00000010: a01a bbbe b948 edbe 9769 08c0 a937 98be
00000020: d421 97be 146f 253e 72ad 613f 83a8 c8be
00000030: e0f5 22bf 1b3a efbe b29a a5bf d73d 953d
00000040: c939 41bf 84d6 0abe 37ba 823e 410b 5ebe
00000050: b517 b8bf c5b5 00bf 7d7d 07bc decb 4a3f
00000060: 0170 f6bf d035 93bf 1302 253e 06f0 34bf
00000070: 0d8f dcbe 33be 01bf a9a2 03bf 0194 b53e

nns.0.1.running_mean f4 [32]
-0.41522363 -0.017576871 -0.87625563 0.09034844 0.11049002 0.08858675 -0.5812454 0.046962455
0.40814912 -0.021343714 -0.16269867 0.10127773 -0.017084058 -0.4151175 0.18413436 -0.4604133
-0.045668345 0.08645402 -0.34660223 0.47622454 1.3373268 -0.014807773 0.60382384 -0.23990037
-0.3122474 -0.15390036 0.045635585 0.015595131 -0.80599207 -0.08859055 -0.19699045 0.055111002
00000000: 3198 d4be 5ffd 8fbc 4a52 60bf 9a08 b93d
00000010: 9748 e23d f86c b53d 80cc 14bf b45b 403d
00000020: ecf8 d03e 03d9 aebc 7b9a 26be b36a cf3d
00000030: def3 8bbc 488a d4be b88d 3c3e 4bbb ebbe
00000040: bb0e 3bbd ce0e b13d d975 b1be b4d3 f33e
00000050: 862d ab3f 4d9c 72bc 3394 1a3f 71a8 75be
00000060: e4de 9fbe 0e98 1dbe 61ec 3a3d b882 7f3c
00000070: 7f55 4ebf f66e b5bd ddb7 49be 13bc 613d

nns.0.1.running_var f4 [32]
3.5033314 34.190395 17.525045 0.7404501 16.082628 1.6030949 2.076809 3.81861
0.26026103 3.9825597 1.0348604 0.99412346 0.67184865 4.900742 9.4533415 4.9463468
1.2718793 0.07459644 9.075345 7.575488 9.795204 0.30770373 10.861764 1.7853352
34.430843 5.4606028 1.6960913 2.6144373 8.015033 0.37837622 0.98899573 2.0371556
00000000: 9536 6040 f7c2 0842 4b33 8c41 238e 3d3f
00000010: 39a9 8041 3732 cd3f 70ea 0440 1b64 7440
00000020: ef40 853e 42e2 7e40 4e76 843f e07e 7e3f
00000030: 46fe 2b3f e1d2 9c40 e340 1741 7948 9e40
00000040: f1cc a23f 05c6 983d 9d34 1141 666a f240
00000050: 28b9 1c41 588b 9d3e c9c9 2d41 dd85 e43f
00000060: 2fb9 0942 42bd ae40 8519 d93f f152 2740
00000070: 933d 0041 87ba c13e d32e 7d3f c260 0240

nns.0.3.weight f4 [32, 32]
-0.2552736 -0.478271 -0.38797417 -0.5098333 -0.58373696 -0.19151707 -0.08197561 -0.4986909
-0.2947718 0.32886726 -0.22867227 -0.2684976 -0.06035823 -0.06785319 -0.41151625 -0.17074442
0.041791204 -0.107730605 -0.09782771 -0.4628732 -0.1321475 -0.22235225 -0.3896677 -0.08850503
-0.37545595 -0.17065798 0.44377682 -0.023095796 -0.3645238 -0.22217838 -0.29234472 0.107419275
-0.24469556 -0.18212952 -0.087224394 -0.12285908 -0.31870845 0.0022108562 0.042997032 -0.09535403
0.09911515 0.26595178 0.35413554 -0.42498177 0.024288649 0.39884955 -0.069324225 -0.47978845
0.1155269 0.3311411 0.15430772 0.07564694 -0.258344 -0.4622494 -0.46314648 0.094839305
-0.060541473 -0.10814591 0.317006 -0.09943259 -0.27393678 -0.20614813 -0.08283436 0.18326853
-0.37898055 -0.2931261 -0.1478684 -0.11298735 -0.69081306 -0.049356632 -0.15596719 -0.12812655
-0.16951242 0.048685785 0.0038205741 -0.36549842 0.059424076 -0.39482322 -0.28398803 -0.16928673
0.016939422 -0.26042473 -0.033403974 -0.16201253 -0.46501434 -0.26949817 -0.4872805 0.025686614
-0.30231833 -0.07704106 0.043388106 -0.08391829 -0.21126913 -0.33720425 -0.026478045 0.06918939
-0.091755606 -0.04463089 0.032675378 -0.1956569 -0.16655338 -0.041678224 -0.07911233 0.022871256
-0.2003781 0.06479024 -0.05741383 -0.098778024 -0.15460946 0.019536195 0.0177986 -0.21550438
0.12790997 -0.11811722 0.06371034 -0.13057658 -0.17127815 0.06268484 -0.17515834 -0.03219265
-0.033362247 -0.03766153 0.04837698 -0.12111283 -0.18877684 -0.13576572 -0.0610775 -0.04730784
-0.23952037 -0.35572675 0.14684826 -0.15856044 -0.1963803 -0.09204664 -0.36433515 0.0013341622
0.01235955 -0.0924482 -0.09291762 -0.07697933 0.07044223 -0.1756838 -0.075123616 -0.36680046
-0.04396031 -0.06960646 -0.16602823 -0.2320637 -0.2907551 -0.08907715 -0.33424357 -0.25986302
-0.24378087 0.049414963 -0.12685516 0.040502816 -0.4517898 -0.29920694 0.075073406 -0.04469488
-0.7084421 -0.31057113 -0.28336442 -0.52458507 -0.46986267 -0.21376307 -0.38161996 -0.34886622
-0.12204259 -0.23853278 -0.17303254 0.33588794 0.017054224 -0.2175511 -0.32663608 0.26185146
-0.064368196 -0.3121238 -0.14938542 -0.09123988 -0.30901745 -0.1512881 -0.30200368 -0.38969442
-0.19450441 -0.043780092 0.17205928 0.17606662 -0.37995413 0.32542336 -0.0618507 -0.0992832
-0.69168574 -0.40280995 -0.020556686 -0.36030763 -0.36032304 -0.13111384 -0.13091254 -0.38986778
-0.19824664 -0.2012493 -0.08038641 -0.72341573 -0.37428927 -0.43513408 -0.020056214 -0.49638727
0.013584229 -0.27088302 -0.23635021 -0.32266247 -0.56189543 -0.23832728 -0.27623156 -0.015391588
-0.0014519534 -0.23324282 -0.033472512 -0.107079305 -0.4376865 -0.525515 -0.14085375 -0.09937126
0.13099423 -0.13246767 -0.11691997 -0.58734185 -0.45308578 -0.03990864 -0.70180523 -0.03586275
-0.12185521 -0.025762152 0.15098418 -0.2630317 -0.031351373 0.10696344 -0.29559776 -0.5295924
-0.04127255 0.056520995 -0.0038036604 -0.13237415 -0.449231 -0.4264331 -0.53931856 0.3462886
-0.6842524 -0.3154584 0.8896241 0.16812538 -0.070739895 -0.40391985 -0.15311505 0.6604627
00000000: 39b3 82be f0df f4be 8da4 c6be 6f84 02bf
00000010: c96f 15bf 0d1d 44be d4e2 a7bd 6a54 ffbe
00000020: 54ec 96be 4a61 a83e 1029 6abe 8478 89be
00000030: 313a 77bd 9df6 8abd 42b2 d2be a0d7 2ebe
00000040: 412d 2b3d dda1 dcbd e559 c8bd b7fd ecbe
00000050: ad51 07be 4fb0 63be 8682 c7be 2042 b5bd
00000060: c33b c0be f7c0 2ebe b736 e33e 6533 bdbc
00000070: dda2 babe bb82 63be 35ae 95be a3fe db3d
00000080: 7991 7abe 2980 3abe b4a2 b2bd 8b9d fbbd
00000090: c12d a3be 03e4 103b a81d 303d f948 c3bd
000000a0: e2fc ca3d d52a 883e 4151 b53e 3697 d9be
000000b0: fdf8 c63c 0236 cc3e dcf9 8dbd d5a6 f5be
000000c0: 5e99 ec3d 548b a93e d802 1e3e c8ec 9a3d
000000d0: aa45 84be f4ab ecbe 8921 edbe 1c3b c23d
000000e0: 56fa 77bd 9a7b ddbd 9c4e a23e 50a3 cbbd
000000f0: 7141 8cbe 7f18 53be 10a5 a9bd bfaa 3b3e
00000100: bd09 c2be a014 96be d06a 17be e965 e7bd
00000110: 20d9 30bf 2e2a 4abd ddb5 1fbe 9b33 03be
00000120: aa94 2dbe bf6a 473d 9962 7a3b 9c22 bbbe
00000130: a966 733d 4526 cabe e166 91be 8059 2dbe
00000140: 8bc4 8a3c 6456 85be 9bd2 08bd 9de6 25be
00000150: 5c16 eebe aafb 89be d47c f9be bc6c d23c
00000160: 78c9 9abe b4c7 9dbd bab7 313d 5add abbd
00000170: ef56 58be 09a6 acbe 7ce8 d8bc 2bb3 8d3d
00000180: 5dea bbbd e1ce 36bd 9ed6 053d 485a 48be
00000190: f88c 2abe c9b6 2abd a505 a2bd 805c bb3c
000001a0: eb2f 4dbe bfb0 843d c42a 6bbd 224c cabd
000001b0: f151 1ebe 5f0a a03c 5fce 913c 2ead 5cbe
000001c0: d5fa 023e 71e7 f1bd 917a 823d deb5 05be
000001d0: 8a63 2fbe e960 803d b55c 33be 71dc 03bd
000001e0: daa6 08bd fa42 1abd f126 463d 010a f8bd
000001f0: b74e 41be 2b06 0bbe 672c 7abd dec5 41bd
00000200: d444 75be d121 b6be 645f 163e ab5d 22be
00000210: eb17 49be f382 bcbd 238a babe 0edf ae3a
00000220: b67f 4a3c 7b55 bdbd 984b bebd 57a7 9dbd
00000230: 0444 903d 74e6 33be 69da 99bd 45cd bbbe
00000240: ba0f 34bd d58d 8ebd 4e03 2abe 1ba2 6dbe
00000250: dadd 94be 156e b6bd f921 abbe c40c 85be
00000260: b1a1 79be 5867 4a3d 52e6 01be 48e6 253d
00000270: fe50 e7be a731 99be 16c0 993d fa11 37bd
00000280: 765c 35bf 2e03 9fbe 2415 91be 354b 06bf
00000290: d791 f0be b5e4 5abe b163 c3be 989e b2be
000002a0: 77f1 f9bd f041 74be 712f 31be 81f9 ab3e
000002b0: 4db5 8b3c b7c5 5ebe d83c a7be 6511 863e
000002c0: 79d3 83bd b1ce 9fbe 7ef8 18be f9db babd
000002d0: 8937 9ebe 45eb 1abe 3aa0 9abe 0786 c7be
000002e0: 2a2c 47be c152 33bd 4f30 303e cf4a 343e
000002f0: 5989 c2be e49d a63e 2957 7dbd fe54 cbbd
00000300: 5112 31bf 1b3d cebe 7f66 a8bc 3e7a b8be
00000310: 437c b8be b542 06be f00d 06be c09c c7be
00000320: 2b01 4bbe 4c14 4ebe a1a1 a4bd c631 39bf
00000330: d8a2 bfbe e5c9 debe ee4c a4bc 7926 febe
00000340: 6390 5e3c 2eb1 8abe ca05 72be 0434 a5be
00000350: 61d8 0fbf 110c 74be 396e 8dbe 002d 7cbc
00000360: 794f beba 35d7 6ebe 791a 09bd 654c dbbd
00000370: 7218 e0be 2788 06bf f73b 10be 2983 cbbd
00000380: 5a23 063e 9ba5 07be bd73 efbd 095c 16bf
00000390: dcfa e7be 3e77 23bd 82a9 33bf d2e4 12bd
000003a0: 398f f9bd 260b d3bc 999b 1a3e 17ac 86be
000003b0: 4c6a 00bd a60f db3d 9758 97be 5e93 07bf
000003c0: 680d 29bd 8f82 673d d546 79bb 178d 07be
000003d0: 9b01 e6be 7055 dabe c810 0abf bd4c b13e
000003e0: 2a2b 2fbf c383 a1be 68be 633f 0f29 2c3e
000003f0: 14e0 90bd 95ce cebe 31ca 1cbe 1514 293f

nns.0.3.bias f4 [32]
-0.09515566 -0.2505676 0.1429252 0.050909713 0.19899753 0.11973798 -0.17055179 -0.031981904
-0.047320236 0.051901273 0.020936234 -0.69544363 0.15553612 -0.46104124 -0.35739827 -0.083838895
0.3319555 0.11459172 -0.19837786 -0.16980085 0.20014842 -0.02659305 0.017430928 -0.07918131
0.19369917 -0.26739162 -0.004461935 -0.15803814 0.22262481 -0.2663953 0.29984683 -0.06605958
00000000: f8e0 c2bd 654a 80be fc5a 123e b486 503d
00000010: 02c6 4b3e 3039 f53d 21a5 2ebe 75ff 02bd
00000020: ddd2 41bd 6e96 543d 7782 ab3c 9808 32bf
00000030: dc44 1f3e 990d ecbe e8fc b6be bab3 abbd
00000040: 12f6 a93e 10af ea3d 9123 4bbe 46e0 2dbe
00000050: b5f3 4c3e abd9 d9bc 4ecb 8e3c d029 a2bd
00000060: 1359 463e 8ee7 88be 6c35 92bb c0d4 21be
00000070: c2f7 633e f764 88be 8685 993e 3f4a 87bd

nns.0.4.weight f4 [32]
0.63100564 0.6563252 0.33467442 0.87621415 0.5863645 0.13445823 0.4101408 0.5141871
0.58894885 0.7270146 -0.1858665 0.3663295 0.3334569 0.008108332 0.13528077 0.951146
0.44192755 -0.2711198 -0.19083326 0.006124182 0.9784076 0.8752281 0.19495206 0.2870661
0.5535675 0.3056159 0.0778795 0.77661866 0.21126102 -0.05112892 0.45744526 0.5907499
00000000: 9689 213f ee04 283f 725a ab3e 924f 603f
00000010: fc1b 163f 6baf 093e fafd d13e c4a1 033f
00000020: 5ac5 163f a11d 3a3f ca53 3ebe 8a8f bb3e
00000030: ddba aa3e cfd8 043c 0b87 0a3e 4e7e 733f
00000040: 5444 e23e 37d0 8abe cb69 43be 5dad c83b
00000050: ec78 7a3f f30e 603f 83a1 473e 54fa 923e
00000060: 9ab6 0d3f b079 9c3e 4a7f 9f3d 7bd0 463f
00000070: cf54 583e 8f6c 51bd 4436 ea3e 633b 173f

nns.0.4.bias f4 [32]
-0.35165337 -0.504178 -0.38845623 -0.2961295 -0.5545449 -0.501272 -0.9429047 -0.40431535
-0.4107003 -0.44891134 -0.6909252 -0.31846836 -0.65870756 -1.2824899 -0.6256986 -0.49296573
-0.28404716 -0.24825735 -1.0667886 -1.0730951 -0.5247812 -0.45833772 -0.50073695 -0.4791905
-0.34900507 -1.1654996 -0.9655424 -0.6055539 -1.1911423 -0.4339022 -0.26282656 -0.34098008
00000000: e90b b4be cf11 01bf bce3 c6be 499e 97be
00000010: a8f6 0dbf 5d53 00bf 3462 71bf 6c02 cfbe
00000020: 4f47 d2be b5d7 e5be 79e0 30bf 490e a3be
00000030: 0fa1 28bf a128 a4bf c92d 20bf 0166 fcbe
00000040: a16e 91be 2d37 7ebe 878c 88bf 2e5b 89bf
00000050: 1058 06bf 3eab eabe 4c30 00bf 7558 f5be
00000060: cbb0 b2be 172f 95bf c92d 77bf 9505 1bbf
00000070: 5a77 98bf 6e28 debe 3491 86be f194 aebe

nns.0.4.running_mean f4 [32]
-0.71911216 0.17583647 -0.09528256 -0.06216714 -0.23134331 -0.7590069 -0.67400104 0.51095784
-0.10423729 -0.5419935 1.1986932 2.1219974 -0.2448082 -0.16999811 1.3479844 -0.71038496
0.10317333 0.501775 1.3373909 -0.6689033 0.4153089 -0.04231453 0.9976092 -0.53596985
1.1100552 0.74783146 0.5970334 -0.034563366 1.8423691 0.2734721 3.9953425 -1.2236152
00000000: bc17 38bf 7a0e 343e 8123 c3bd f9a2 7ebd
00000010: 43e5 6cbe 474e 42bf 558b 2cbf 22ce 023f
00000020: 5c7a d5bd 16c0 0abf c76e 993f cece 0740
00000030: 00af 7abe fc13 2ebe c18a ac3f cadb 35bf
00000040: 8a4c d33d 5474 003f a02f ab3f 3f3d 2bbf
00000050: 5ea3 d43e 0052 2dbd 5163 7f3f 5235 09bf
00000060: 4a16 8e3f e271 3f3f 2ed7 183f 5192 0dbd
00000070: c0d2 eb3f 8904 8c3e b1b3 7f40 6c9f 9cbf

nns.0.4.running_var f4 [32]
7.118888 2.1876688 7.9297843 0.7837675 3.3455935 4.8993545 8.848252 7.282659
0.4709938 2.9076347 4.171895 10.594461 11.57549 6.3080015 2.584635 1.8321091
3.826632 2.412468 3.1946754 2.6923172 3.746801 1.2226503 3.738734 0.90767586
7.4542046 0.60050946 1.2094707 3.7045095 2.917433 0.3294011 12.97953 4.495136
00000000: eecd e340 c402 0c40 cbc0 fd40 fda4 483f
00000010: 341e 5640 83c7 9c40 7192 0d41 8b0b e940
00000020: 1926 f13e b016 3a40 2a80 8540 ea82 2941
00000030: 3535 3941 26db c940 a96a 2540 8d82 ea3f
00000040: 8ae7 7440 e065 1a40 9075 4c40 ed4e 2c40
00000050: 96cb 6f40 ce7f 9c3f 6b47 6f40 725d 683f
00000060: d888 ee40 fdba 193f f0cf 9a3f af16 6d40
00000070: 39b7 3a40 43a7 a83e 28ac 4f41 27d8 8f40

nns.1.0.weight f4 [32, 32]
0.045076594 -0.038873717 -0.005583034 -0.1989211 -0.34825215 -0.15700656 0.0040673753 -0.28550962
-0.17167439 0.15965681 0.069588885 -0.1219632 -0.10403596 -0.15988123 -0.13191861 0.20319282
0.043034013 0.13519952 -0.107551105 -0.1851897 -0.20076099 0.13713987 -0.11215166 -0.058830142
-0.13593571 -0.058279153 -0.21658587 0.06536988 -0.2075134 -0.094213724 -0.19758604 -0.2595388
-0.31473526 0.15358698 0.066909656 0.23549365 0.20322283 0.52265716 -0.48987588 -0.11708074
0.02510693 -0.011767435 0.18719581 -0.09607322 -0.104224354 -0.20024306 -0.38587323 0.1384031
0.29806042 0.10454426 -0.051196594 -0.35439923 0.21512435 -0.079946004 -0.11275334 -0.31736323
0.24945036 -0.35360545 -0.610225 0.13362297 -0.92102367 0.012839218 0.21608785 -0.15901202
0.13537127 -0.010443285 0.38155803 0.10837042 0.23236889 -0.21226645 -0.14974336 -0.3685876
-0.17022426 -0.040693108 -0.08191181 0.45590276 0.3046637 -0.16301928 -0.0043358053 0.098511405
0.080813006 -0.10679851 -0.18719763 -0.07067885 0.113422096 0.17435157 -0.13527334 -0.14500983
0.31401488 -0.25153467 -0.11543325 -0.08178912 -0.25122246 -0.16899747 -0.15323539 -0.016724858
0.26618713 0.15373601 0.008312727 -0.19849558 0.17970775 0.1080058 0.02175162 0.00197927
0.12527275 0.14001268 0.124864504 0.7345826 0.22020327 -0.13575052 -0.500429 0.19537634
-0.17317301 -0.1996237 -0.28380904 0.15596977 0.23273696 0.040769983 -0.26617867 0.1653349
-0.042816304 0.15670742 0.04817676 0.030448515 -0.5000665 0.03452332 -0.24373165 -0.18129626
-0.1607408 -0.0041416753 -0.12092841 0.076077275 0.14793195 -0.64646125 -0.38242286 -0.033885133
0.15493967 0.055593837 -0.4654869 -0.73577917 0.34502274 -0.075177655 -0.36261517 -0.20781653
-0.4189743 -0.21598521 -0.40536183 -0.10879866 -0.26938355 -0.24797598 -0.2073896 -0.17298391
-0.24451782 -0.25903526 -0.2090998 -0.16296299 -0.66718924 -0.12576897 0.11788084 -0.4372455
-0.65806 0.1766168 -0.21091232 -0.14304861 -0.33431977 -0.04157471 0.45586756 -0.07195313
0.25991344 0.019251462 0.22222754 0.20990321 0.35942072 0.2583934 -0.1893347 -0.08860863
-0.04544601 0.12921064 0.06351836 0.34982213 0.07495479 0.08707133 0.29188272 0.60998344
0.312499 0.14187743 0.5639328 0.057900563 -0.45845675 0.14555487 0.30623853 -0.20623098
-1.0124434 0.26126632 -0.35891294 0.11497801 0.10994522 -0.6933239 0.307855 -0.42575094
0.061066177 -0.023227429 0.088914834 -0.18100534 0.27580288 0.3698074 0.04850285 0.15134518
0.23738587 0.21663213 0.33332315 0.08976939 -0.09123942 -0.23775718 0.043327056 0.15922613
0.17820849 0.6090237 0.31480378 -0.2861578 0.2995768 0.50841045 1.0813371 -0.5311672
0.39363897 -0.015555683 -0.07360767 -0.14155604 0.038214248 -0.25245088 0.2288566 -0.014895003
0.020417936 -0.1256142 0.36986405 0.43632808 0.01140455 0.14645538 0.10495859 -0.060917564
-0.014093192 0.08699033 0.13576996 0.20982459 0.055516995 0.1618146 -0.08705698 0.1581089
0.086477056 0.07541592 0.051970787 0.23988284 -0.11684824 0.262407 0.45608437 -0.45791945
00000000: 3ca2 383d 0c3a 1fbd e2f1 b6bb f9b1 4bbe
00000010: 1b4e b2be 54c6 20be 9e47 853b 512e 92be
00000020: 69cb 2fbe 137d 233e 9e84 8e3d d8c7 f9bd
00000030: ce10 d5bd e8b7 23be ac15 07be c711 503e
00000040: 6f44 303d be71 0a3e c143 dcbd 5ea2 3dbe
00000050: 4a94 4dbe 656e 0c3e c5af e5bd e0f7 70bd
00000060: bb32 0bbe 1fb6 6ebd b0c8 5dbe a5e0 853d
00000070: 657e 54be 20f3 c0bd ff53 4abe 45e2 84be
00000080: fb24 a1be e845 1d3e ee07 893d 3f25 713e
00000090: a519 503e dccc 053f 03d1 fabe 07c8 efbd
000000a0: 0cad cd3c 33cc 40bc 42b0 3f3e 09c2 c4bd
000000b0: 9473 d5bd 840c 4dbe 2d91 c5be 8bb9 0d3e
000000c0: 609b 983e 4d1b d63d 85b3 51bd d173 b5be
000000d0: 8f49 5c3e bbba a3bd 39eb e6bd 6f7d a2be
000000e0: ea6f 7f3e c60b b5be b537 1cbf 76d4 083e
000000f0: 35c8 6bbf 955b 523c 2246 5d3e 0cd4 22be
00000100: c49e 0a3e 501a 2bbc 935b c33e 50f1 dd3d
00000110: 1cf2 6d3e 605c 59be 5356 19be 84b7 bcbe
00000120: 454f 2ebe d1ad 26bd 61c1 a7bd 166c e93e
00000130: e1fc 9b3e 87ee 26be 5f13 8ebb 59c0 c93d
00000140: 4a81 a53d 2db9 dabd bcb0 3fbe 13c0 90bd
00000150: d849 e83d 3889 323e 1885 0abe 757d 14be
00000160: 8fc6 a03e 27c9 80be 4568 ecbd 0e81 a7bd
00000170: 3ba0 80be ac0d 2dbe bde9 1cbe 9202 89bc
00000180: ae49 883e f96c 1d3e 1b32 083c 6d42 4bbe
00000190: 4f05 383e 2532 dd3d 7430 b23c a4b6 013b
000001a0: 8047 003e 7c5f 0f3e f6b8 ff3d 9b0d 3c3f
000001b0: f77c 613e 2f02 0bbe 1d1c 00bf bc10 483e
000001c0: 4454 31be 286a 4cbe 6b4f 91be 8ab6 1f3e
000001d0: 9952 6e3e 6dfe 263d 9248 88be 8d4d 293e
000001e0: 2660 2fbd e977 203e ff54 453d 2a6f f93c
000001f0: 5c04 00bf 5368 0d3d ca94 79be baa5 39be
00000200: 3c99 24be e4b6 87bb 50a9 f7bd 67ce 9b3d
00000210: 797b 173e 7c7e 25bf eecc c3be 23cb 0abd
00000220: 81a8 1e3e 5db6 633d 4d54 eebe 065c 3cbf
00000230: d2a6 b03e bef6 99bd b2a8 b9be dbcd 54be
00000240: cd83 d6be 3a2b 5dbe 968b cfbe d5d1 debd
00000250: a4ec 89be 6aed 7dbe f05d 54be b222 31be
00000260: e162 7abe 45a0 84be 421e 56be c5df 26be
00000270: eacc 2abf 95c9 00be 836b f13d a4de dfbe
00000280: 9f76 28bf 09db 343e 66f9 57be 567b 12be
00000290: f62b abbe 3e4a 2abd 7967 e93e 2a5c 93bd
000002a0: 6013 853e 3eb5 9d3c 9e8f 633e def0 563e
000002b0: fe05 b83e 244c 843e f5e0 41be 7178 b5bd
000002c0: 9825 3abd cb4f 043e ea15 823d e31b b33e
000002d0: e681 993d 7452 b23d a771 953e e027 1c3f
000002e0: deff 9f3e 5148 113e e65d 103f 2429 6d3d
000002f0: d8ba eabe 560c 153e 4ccb 9c3e 372e 53be
00000300: bf97 81bf b3c4 853e 70c3 b7be 9779 eb3d
00000310: f62a e13d ad7d 31bf 2c9f 9d3e 07fc d9be
00000320: 8720 7a3d 7347 bebc fb18 b63d 7759 39be
00000330: 0936 8d3e 6557 bd3e edaa 463d 3bfa 1a3e
00000340: 4815 733e d0d4 5d3e 55a9 aa3e 04d9 b73d
00000350: bcdb babd 9e76 73be b677 313d 2d0c 233e
00000360: 497c 363e fae8 1b3f f62d a13e 4683 92be
00000370: 2162 993e 3027 023f 4169 8a3f 93fa 07bf
00000380: 0c8b c93e 43dd 7ebc 9ebf 96bd 11f4 10be
00000390: 8b86 1c3d 3e41 81be 6259 6a3e 2c0a 74bc
000003a0: 8443 a73c 02a1 00be d25e bd3e 6566 df3e
000003b0: 26da 3a3c 66f8 153e 87f4 d63d b284 79bd
000003c0: 22e7 66bc fc27 b23d 4807 0b3e 42dc 563e
000003d0: ca65 633d bab2 253e ee4a b2bd 4de7 213e
000003e0: e21a b13d a973 9a3d 52df 543d d9a3 753e
000003f0: 214e efbd 365a 863e e483 e93e 6b74 eabe

nns.1.0.bias f4 [32]
0.1916494 -0.16341442 -0.32700863 -0.11356935 0.4149889 -0.15446882 0.23774543 -0.02028033
-0.29380572 0.09311864 -0.15483396 0.19302236 -0.063362844 0.13417424 -0.06449632 -0.14758694
-0.1451818 0.08638849 -0.09244219 0.061283227 -0.24710645 0.046195667 -0.13777125 -0.0058922125
-0.21043585 0.16577324 -0.12412025 -0.06744533 -0.0048083393 0.076798886 -0.13037153 0.2968671
00000000: be3f 443e 1c56 27be ad6d a7be 0c97 e8bd
00000010: 6d79 d43e 132d 1ebe 8a73 733e ef22 a6bc
00000020: b46d 96be fcb4 be3d cb8c 1ebe a7a7 453e
00000030: 61c4 81bd f964 093e a616 84bd 0821 17be
00000040: 8aaa 14be 73ec b03d 5552 bdbd 1f04 7b3d
00000050: 7909 7dbe ab37 3d3d e813 0dbe 7613 c1bb
00000060: 7f7c 57be 76c0 293e c232 febd c720 8abd
00000070: 468f 9dbb bc48 9d3d 1d80 05be f7fe 973e

nns.1.1.weight f4 [32]
0.9332725 1.1192236 0.91949034 1.0727859 0.79436445 0.6833317 1.7403061 0.9958706
1.4966224 1.0466014 0.80752546 1.203874 0.40137845 0.8228372 1.415958 1.143812
0.8503579 0.3317347 0.6471231 0.6410029 1.3671508 0.7530644 0.34463727 0.6142101
0.69194883 0.27800813 -0.002465457 0.7477669 0.8425818 0.6682062 0.81847787 1.083659
00000000: f2ea 6e3f b842 8f3f b863 6b3f 0c51 893f
00000010: 785b 4b3f d4ee 2e3f 5ac2 de3f 60f1 7e3f
00000020: 5391 bf3f 09f7 853f fdb9 4e3f 8b18 9a3f
00000030: 7a81 cd3e 75a5 523f 1d3e b53f 6e68 923f
00000040: 0eb1 593f 21d9 a93e dca9 253f c418 243f
00000050: ccfe ae3f d4c8 403f 4c74 b03e e03c 1d3f
00000060: 8f23 313f 1557 8e3e 8193 21bb a76d 3f3f
00000070: 71b3 573f 900f 2b3f c487 513f 57b5 8a3f

nns.1.1.bias f4 [32]
-0.23848347 0.2908317 -0.26294583 -0.39420968 0.86263615 -0.6131829 0.8397252 -1.223426
-1.3653376 -0.35257646 -0.3034207 -0.97215 -0.37284517 -0.41984057 0.64563 -1.1032611
-0.6265826 -0.6067936 -0.75373554 0.027521202 -0.8390588 -0.35050583 0.82478225 -1.4481236
-0.39071798 -0.0010397746 1.3467629 -0.49465594 -0.36530572 0.8421051 -0.4963389 -0.07699723
00000000: 0335 74be e5e7 943e d6a0 86be dad5 c9be
00000010: b9d5 5c3f 8ef9 1cbf 3bf8 563f 3999 9cbf
00000020: 62c3 aebf e784 b4be f559 9bbe d3de 78bf
00000030: 90e5 bebe 58f5 d6be 0248 253f a937 8dbf
00000040: b867 20bf d356 1bbf d0f4 40bf 2574 e13c
00000050: 8fcc 56bf 8075 b3be ee24 533f 1d5c b9bf
00000060: 300c c8be 0c49 88ba ba62 ac3f 8b43 fdbe
00000070: 5a09 bbbe 3394 573f 2220 febe b9b0 9dbd

nns.1.1.running_mean f4 [32]
0.095406406 -0.19036214 -0.34595957 -0.11707792 0.29118145 -0.0464411 0.6067646 0.17711876
-0.16698028 -0.1395249 -0.2727769 0.12173512 0.082858965 0.0980797 -0.21253866 -0.26998773
-0.06834487 0.49219504 0.16385473 0.065367244 -0.08810033 -0.059803043 -0.50842583 -0.22513449
-0.3509549 0.18305899 -0.45966694 -0.20461948 -0.21197528 -0.044412196 -0.23303543 0.311034
00000000: 6f64 c33d 4bee 42be 9d21 b1be 8cc6 efbd
00000010: bc15 953e 0639 3ebd ed54 1b3f 9f5e 353e
00000020: e1fc 2abe 9edf 0ebe 6aa9 8bbe 4350 f93d
00000030: f6b1 a93d 02de c83d bca3 59be d53b 8abe
00000040: 65f8 8bbd fd00 fc3e 89c9 273e 43df 853d
00000050: f26d b4bd 09f4 74bd 3228 02bf a889 66be
00000060: 5cb0 b3be d173 3b3e 7759 ebbe c587 51be
00000070: 0c10 59be 90e9 35bd d7a0 6ebe d93f 9f3e

nns.1.1.running_var f4 [32]
1.0392082 0.41357157 0.24145602 0.57156557 2.0471797 0.9723252 15.379813 3.6246824
1.9295021 5.131381 2.0154305 0.6205635 2.3392673 0.75070745 2.229248 1.6481858
0.76666653 16.037249 6.1014943 0.07057728 3.038401 1.1911151 14.093868 4.670981
2.1107154 0.13817042 11.597368 1.9965422 4.5653048 2.0194414 1.134428 0.15242428
00000000: c604 853f a7bf d33e 3f40 773e 1f52 123f
00000010: fe04 0340 4eea 783f b713 7641 ccfa 6740
00000020: edf9 f63f 4634 a440 d0fc 0040 40dd 1e3f
00000030: 8eb6 1540 5d2e 403f 00ac 0e40 c1f7 d23f
00000040: 4244 443f 494c 8041 713f c340 d28a 903d
00000050: 2975 4240 7676 983f 7c80 6141 ad78 9540
00000060: f615 0740 8c7c 0d3e d28e 3941 b28e ff3f
00000070: fa16 9240 873e 0140 f034 913f 1c15 1c3e
