result/08.22.2022_16.16.52/config_18fold_2_optim_dict.pt (torch, 61084 bytes, 92 tensors)

first_h.0.weight f4 [32, 3]
0.6640089 -0.42360651 -0.42416814 0.2607189 0.38049522 0.69058794 0.7715908 0.0400233
-0.64964014 -0.32082555 -1.5115442 -2.7663724 0.2102177 1.0979186 1.7108841 0.17587496
0.23898005 0.94347745 -0.27975547 -0.9355361 -3.0895534 0.2269586 2.4379058 1.2284796
1.0734367 -0.3037667 0.08621662 -0.41788957 0.23257273 0.8450792 0.13150749 -2.5572944
-3.7687352 0.28557393 -0.78996176 -2.4973285 -0.40340066 -0.13356903 -0.53942364 -0.29289222
0.035902854 0.9022789 -0.3020842 -1.3591322 -2.3608646 -0.2067263 1.1497798 0.4888394
0.46885934 0.30383822 0.58849555 0.5684396 1.0852044 0.03154967 0.61397266 -0.18526974
-0.5686551 -0.25714025 1.5407389 1.1513582 0.190052 -1.3943458 -3.51683 -0.23894781
0.5605209 0.7149339 0.45354268 1.747688 1.6953366 -0.28691298 -0.16639192 -2.6932075
-0.37202236 1.134074 0.2735609 0.46276957 0.9929187 1.3283769 -0.31502265 1.0373439
-0.82218045 -0.41915578 1.0159931 1.1601295 -0.29423812 -1.2420514 -2.89508 0.1893256
-0.08147892 0.7874608 0.3561892 0.6313514 0.7032213 -0.48214084 0.5193281 1.171026
00000000: 7dfc 293f f4e2 d8be 912c d9be f37c 853e
00000010: 45d0 c23e 5fca 303f fa86 453f 79ef 233d
00000020: d14e 26bf 3f43 a4be 487a c1bf 3f0c 31c0
00000030: 4f43 573e 9988 8c3f 40fe da3f 9118 343e
00000040: 30b7 743e bd87 713f 1c3c 8fbe 4b7f 6fbf
00000050: 3ebb 45c0 d667 683e a606 1c40 d23e 9d3f
00000060: 6066 893f 4f87 9bbe 5792 b03d 9ff5 d5be
00000070: 8c27 6e3e 1c57 583f e6a9 063e b6aa 23c0
00000080: f532 71c0 bf36 923e ef3a 4abf 3bd4 1fc0
00000090: 888a cebe 52c6 08be ab17 0abf f8f5 95be
000000a0: df0e 133d c0fb 663f c8aa 9abe 0bf8 adbf
000000b0: 6818 17c0 0fb0 53be fc2b 933f 2849 fa3e
000000c0: 550e f03e af90 9b3e a5a7 163f 4285 113f
000000d0: fae7 8a3f 3a3a 013d 502d 1d3f 5ab7 3dbe
000000e0: 6193 11bf e3a7 83be ef36 c53f b55f 933f
000000f0: fe9c 423e ec79 b2bf be13 61c0 bcae 74be
00000100: 4c7e 0f3f e805 373f bf36 e83e 3eb4 df3f
00000110: ca00 d93f 42e6 92be a562 2abe 835d 2cc0
00000120: b779 bebe 5629 913f 2d10 8c3e 22f0 ec3e
00000130: ec2f 7e3f 4108 aa3f a64a a1be afc7 843f
00000140: 6b7a 52bf 969b d6be 100c 823f 207f 943f
00000150: 61a6 96be 8afb 9ebf fe48 39c0 92de 413e
00000160: 6cde a6bd 0897 493f 6e5e b63e 3fa0 213f
00000170: 5006 343f 2adb f6be b0f2 043f 2ee4 953f

first_h.0.bias f4 [32]
0.47466728 -0.3140289 0.37595713 0.37556714 0.23175602 0.5475355 0.045940958 -0.06939406
-0.3265163 -0.12852107 0.20516433 -0.40763894 0.11926305 -0.1559606 -0.46276838 -0.0705949
-0.22211404 0.51536417 -0.27677462 0.56389165 0.33222434 0.5654772 -0.0022473712 -0.01889737
-0.49081957 0.22346516 0.37364352 -0.053362023 -0.0183856 -0.04067957 0.30034855 -0.33418608
00000000: 9707 f33e 65c8 a0be 747d c03e 564a c03e
00000010: 7351 6d3e 492b 0c3f 962c 3c3d 791e 8ebd
00000020: 252d a7be 079b 03be 9916 523e 0db6 d0be
00000030: 3040 f43d 23b4 1fbe faef ecbe 0f94 90bd
00000040: dd71 63be e8ee 033f 67b5 8dbe 345b 103f
00000050: 4f19 aa3e 1dc3 103f a248 13bb a8ce 9abc
00000060: b44c fbbe 0dd4 643e 344e bf3e 2392 5abd
00000070: 669d 96bc 9f9f 26bd 49c7 993e 701a abbe

first_h.1.weight f4 [32]
1.1066909 0.3601957 1.3664634 1.454278 0.8217268 0.37168738 1.2851796 0.8328884
1.0751868 4.1778755 1.2844342 1.9236882 0.8609844 4.197693 0.94954896 1.2048571
1.359562 0.8555538 1.8249408 1.040582 1.8017868 0.9415759 2.0470767 1.1136011
0.8171479 1.1061211 1.1570762 3.0705717 0.7352318 0.1796761 0.577778 4.0121226
00000000: 0ca8 8d3f 926b b83e 46e8 ae3f c825 ba3f
00000010: b05c 523f cf4d be3e c480 a43f 2d38 553f
00000020: b99f 893f 28b1 8540 5768 a43f 6a3b f63f
00000030: 7969 5c3f 8053 8640 a415 733f c238 9a3f
00000040: 2106 ae3f 9305 5b3f a997 e93f ca31 853f
00000050: f3a0 e63f 1e0b 713f 4e03 0340 7b8a 8e3f
00000060: 9b30 513f 6095 8d3f 131b 943f 3f84 4440
00000070: 2738 3c3f 03fd 373e 42e9 133f 4f63 8040

first_h.1.bias f4 [32]
0.36056513 -0.21678111 0.46171516 0.1240992 -0.63442177 -0.62834984 0.51772714 -0.20892464
-0.83644307 -0.10768446 0.1891186 0.35440946 -0.3158064 -0.12982948 0.72534233 -0.56109065
-1.0376595 -0.17344712 0.20284732 -0.30244872 0.8057126 -0.5526559 0.13469069 0.20954067
0.35107064 -0.3186714 -0.5907739 -0.20279737 0.3262586 -0.37723845 -0.54745233 -0.10697265
00000000: fe9b b83e defb 5dbe ee65 ec3e b927 fe3d
00000010: 7769 22bf 89db 20bf c489 043f 57f0 55be
00000020: 2221 56bf ac89 dcbd 4ea8 413e 2875 b53e
00000030: 60b1 a1be 05f2 04be 09b0 393f a3a3 0fbf
00000040: 07d2 84bf 1f9c 31be 35b7 4f3e 8fda 9abe
00000050: 2e43 4e3f db7a 0dbf 5bec 093e d491 563e
00000060: 88bf b33e e628 a3be f53c 17bf 1daa 4fbe
00000070: 5e0b a73e 6625 c1be d625 0cbf 7a14 dbbd

first_h.1.running_mean f4 [32]
832182.9 330329.56 1.011954e+06 -402679.7 278782.4 227565.33 -363024.12 296856.28
1.3740334e+06 -520237.22 183542.47 374521.44 -521958.9 -367439.53 -391215.22 -268331.3
613248.3 728821.1 797242.44 -328073.53 255691.95 -309889.47 567510.1 -370960.84
-486442.94 609465.4 -408555.56 -532444.2 -380349.72 245230.64 461790.97 -613581.25
00000000: 6e2b 4b49 324b a148 200f 7749 f69e c4c8
00000010: cd1f 8848 553b 5e48 0442 b1c8 09f3 9048
00000020: 8bba a749 a705 fec8 9e3d 3348 2edf b648
00000030: dddc fec8 f169 b3c8 e705 bfc8 6a05 83c8
00000040: 05b8 1549 52ef 3149 a7a3 4249 3131 a0c8
00000050: fdb2 7948 2f50 97c8 628d 0a49 1b22 b5c8
00000060: 5e85 edc8 96cb 1449 727d c7c8 c3fd 01c9
00000070: b7b7 b9c8 a97b 6f48 df7b e148 d4cc 15c9

first_h.1.running_var f4 [32]
2.0614037e+13 3.2501206e+12 3.0573488e+13 4.8247813e+12 2.3255945e+12 1.5444456e+12 3.929529e+12 2.6372932e+12
5.6264655e+13 8.055475e+12 1.0162967e+12 4.1882776e+12 8.123359e+12 4.0193638e+12 4.5629246e+12 2.1477653e+12
1.1225647e+13 1.5827509e+13 1.8968627e+13 3.207444e+12 1.958258e+12 2.8643277e+12 9.615444e+12 4.1022595e+12
7.0644274e+12 1.1096028e+13 4.9782933e+12 8.4431135e+12 4.3124263e+12 1.7933571e+12 6.3605357e+12 1.1213036e+13
00000000: a3fc 9555 922e 3d54 8f73 de55 6c6b 8c54
00000010: 0f5e 0754 11cc b353 8cba 6454 bb82 1954
00000020: 8bb0 4c56 f771 ea54 01a0 6c53 33ca 7354
00000030: be6b ec54 30f5 6954 70cc 8454 6508 fa53
00000040: cb5a 2355 1152 6655 d203 8a55 a4b2 3a54
00000050: a3f8 e353 cfb9 2654 52ec 0b55 6ec8 6e54
00000060: 169a cd54 ed77 2155 2de3 9054 19ba f554
00000070: 2904 7b54 35c6 d053 af1d b954 d02b 2355

first_h.3.weight f4 [32, 32]
0.09502798 0.14504181 0.21694402 0.7206908 -0.11337409 0.009302724 0.6979798 0.2878835
-0.054382887 0.079313844 0.2370222 0.31071678 0.3052901 0.21595302 0.77507436 -0.0016917881
-0.21674922 -0.1227297 0.14839742 0.063272186 0.44884318 -0.114608906 0.07754361 0.76854664
0.4014187 -0.023952493 0.2871741 0.06296528 0.5952307 0.01829932 0.0018435671 0.117857955
-0.15855001 -0.16857234 0.021768544 0.084934 -0.30748847 0.052455857 -0.074664555 -0.028012803
-0.1017962 0.101452336 -0.037320826 -0.23323661 -0.04651838 0.0024773497 -0.22228074 0.13492349
0.1932156 -0.06623 -0.26291403 0.069278985 0.17599432 0.094139285 -0.32141662 0.18638477
0.018238975 -0.36630115 0.046276294 -0.07321966 0.051779736 -0.30422094 -0.4292604 -0.11753559
-0.08289069 -0.08991615 -0.10769073 -0.30003917 -0.07672867 -0.28224206 -0.26575354 -0.38658664
-0.35202435 0.1344568 -0.15987732 -0.12573043 -0.3932503 0.2632334 -0.23126931 0.05618499
-0.46387038 -0.22340795 0.1475501 0.06940308 -0.4770001 0.20173365 0.22669917 -0.44509876
-0.07390101 -0.020478666 -0.24928252 0.30887812 -0.3487344 0.007107694 -0.29637417 -0.030257056
0.17922248 -0.00744522 -0.20339477 -0.08474159 0.12230722 0.030838937 -0.15535808 0.11387418
-0.04281889 0.31839073 -0.19424099 0.11659403 -0.08059439 0.3230003 -0.18645999 -0.051610716
0.038853843 0.118911035 -0.27481392 -0.047111176 -0.18149848 0.015682127 -0.08148895 -0.12054541
-0.07105204 0.0745614 -0.17915604 0.33938748 -0.054902695 0.27366483 0.29814863 0.12171782
-0.35151476 -0.44523048 -0.3776387 -0.2206869 -0.16457406 -0.4646451 -0.21371926 -0.19025241
-0.5657433 -0.23455279 -0.12343375 -0.2542494 -0.23786378 0.044909175 -0.1422916 -0.021627098
-0.7317365 -0.45257273 -0.23160711 -0.16339846 -0.13726059 -0.18105018 0.013402824 -0.12781365
-0.21373282 0.07768405 -0.14901349 0.014786107 -0.10835005 0.0059265518 -0.11227816 0.005690906
-0.48073456 -0.5774986 -0.55227816 -0.66007257 -0.6714295 0.20690924 -0.4736075 -0.035027463
-0.27270013 -0.82137007 -0.1941735 -0.70463175 0.01814505 -0.7899523 -0.5793681 -0.39377895
-0.051191352 -0.08001318 -0.8693125 -0.15204805 -0.45272726 -0.43019655 -0.8831988 -0.3548657
0.064299755 -0.74892527 -0.23080738 -0.67657864 -0.36611623 -0.1689672 -0.15836513 -0.7230178
-0.52544355 -0.43020314 -0.34405208 -0.71623224 -0.337549 -0.25786507 -0.5612056 -0.19239183
-0.34706822 -0.26465344 -0.36129507 -0.8226551 -0.010600583 -0.39304805 -0.71790045 0.081939384
-0.54314446 -0.4160345 -0.24542122 0.061066657 -0.97108066 0.090036824 -0.22139552 -0.7333113
-0.28882745 -0.18339407 -0.63665897 -0.071617775 -0.2461308 0.020289125 -0.09970026 -0.33134964
-0.56399167 -0.3426024 -0.058356937 0.16836503 -0.6966494 -0.522919 0.117327675 -0.07622079
-0.43085757 -1.5557762 0.102712154 -0.09669615 0.14548382 -1.6362927 0.11204216 -0.013825874
-0.33783683 -0.043269068 -0.75332385 0.033514764 -0.09688341 -0.45478478 -0.8080797 0.12856433
-0.09649076 -0.50258553 -0.11179313 -0.85404754 0.056241892 -0.5587496 -0.41895062 -1.5484982
00000000: 089e c23d d785 143e 9326 5e3e 317f 383f
00000010: ad30 e8bd 746a 183c ceae 323f 7765 933e
00000020: 97c0 5ebd 4c6f a23d f3b5 723e 4516 9f3e
00000030: fc4e 9c3e ca22 5d3e 466b 463f fdbe ddba
00000040: 82f3 5dbe b559 fbbd 7ef5 173e d994 813d
00000050: c6ce e53e 13b8 eabd 2fcf 9e3d 79bf 443f
00000060: c086 cd3e 0538 c4bc 7c08 933e f1f3 803d
00000070: 0a61 183f 75e8 953c d9a3 f13a 835f f13d
00000080: ef5a 22be 3a9e 2cbe f253 b23c e1f1 ad3d
00000090: 216f 9dbe f4db 563d bbe9 98bd 1b7b e5bc
000000a0: 877a d0bd 3ec6 cf3d b9dd 18bd 94d5 6ebe
000000b0: 0f8a 3ebd 085b 223b 909d 63be 6229 0a3e
000000c0: 4fda 453e 98a3 87bd ab9c 86be 24e2 8d3d
000000d0: db37 343e 19cc c03d b890 a4be a6db 3e3e
000000e0: e769 953c d38b bbbe 368c 3d3d 30f4 95bd
000000f0: fd16 543d d9c2 9bbe 05c8 dbbe 80b6 f0bd
00000100: 98c2 a9bd f525 b8bd f58c dcbd bc9e 99be
00000110: ec23 9dbd 0882 90be d910 88be afee c5be
00000120: 893c b4be 0baf 093e e1b6 23be 7abf 00be
00000130: 1a58 c9be 87c6 863e ddd1 6cbe 3b22 663d
00000140: 6b80 edbe 0ec5 64be 6017 173e 3423 8e3d
00000150: 5b39 f4be 4493 4e3e d423 683e fce3 e3be
00000160: 6a59 97bd e0c2 a7bc eb43 7fbe 4625 9e3e
00000170: 518d b2be a9e7 e83b 5bbe 97be a5dd f7bc
00000180: 1986 373e 08f7 f3bb b846 50be 008d adbd
00000190: 357c fa3d f0a1 fc3c 3016 1fbe de36 e93d
000001a0: dc62 2fbd 1c04 a33e 1ce7 46be dac8 ee3d
000001b0: ac0e a5bd 4c60 a53e 5eef 3ebe c265 53bd
000001c0: 3525 1f3d a187 f33d 69b4 8cbe a6f7 40bd
000001d0: bdda 39be ce77 803c aee3 a6bd 83e0 f6bd
000001e0: bb83 91bd a6b3 983d ae74 37be 32c4 ad3e
000001f0: a6e1 60bd cc1d 8c3e f0a6 983e 3147 f93d
00000200: bef9 b3be 40f5 e3be dc59 c1be bffb 61be
00000210: 1a86 28be f6e5 edbe 39d9 5abe 87d1 42be
00000220: 8ed4 10bf 9b2e 70be d5ca fcbd fa2c 82be
00000230: 9092 73be aff2 373d e4b4 11be 502b b1bc
00000240: 1553 3bbf 9db7 e7be 6a2a 6dbe ed51 27be
00000250: 0a8e 0cbe 3865 39be 8597 5b3c 95e1 02be
00000260: c7dc 5abe d118 9f3d fe96 18be 6e41 723c
00000270: a2e6 ddbd 8533 c23b 18f2 e5bd c87a ba3b
00000280: d722 f6be f3d6 13bf 1a62 0dbf 84fa 28bf
00000290: cee2 2bbf 04e0 533e af7c f2be f578 0fbd
000002a0: 5a9f 8bbe 4f45 52bf 6bd5 46be bf62 34bf
000002b0: eea4 943c 503a 4abf 7851 14bf 659d c9be
000002c0: 06ae 51bd f3dd a3bd 448b 5ebf 7cb2 1bbe
000002d0: decb e7be b942 dcbe 5119 62bf f5b0 b5be
000002e0: 97af 833d 91b9 3fbf c558 6cbe 4234 2dbf
000002f0: 9673 bbbe bd05 2dbe 782a 22be b217 39bf
00000300: 7883 06bf 9643 dcbe 9827 b0be ff5a 37bf
00000310: 39d3 acbe e406 84be 2cab 0fbf 5d02 45be
00000320: edb2 b1be a880 87be abfb b8be 8699 52bf
00000330: 11ae 2dbc 983d c9be 53c8 37bf d6cf a73d
00000340: 840b 0bbf 7902 d5be b34f 7bbe 0821 7a3d
00000350: be98 78bf 3a65 b83d 82b5 62be 4aba 3bbf
00000360: 31e1 93be a8cb 3bbe 15fc 22bf 57ac 92bd
00000370: b609 7cbe 6135 a63c a62f ccbd a9a6 a9be
00000380: c261 10bf 9569 afbe af07 6fbd e267 2c3e
00000390: 9d57 32bf 05de 05bf 7e49 f03d a519 9cbd
000003a0: 5d99 dcbe ad23 c7bf c05a d23d a208 c6bd
000003b0: b6f9 143e 0a72 d1bf 5c76 e53d eb85 62bc
000003c0: f3f8 acbe e83a 31bd d5d9 40bf c746 093d
000003d0: cf6a c6bd 8dd9 e8be 50de 4ebf 5ea6 033e
000003e0: f39c c5bd 72a9 00bf ccf3 e4bd dca2 5abf
000003f0: e65d 663d 370a 0fbf b280 d6be 3035 c6bf

first_h.3.bias f4 [32]
-0.012171348 -0.20664042 0.09927983 0.17091586 0.16221315 0.0068873954 -0.12511064 0.19695184
-0.024553977 -0.15637769 0.021720765 -0.06743662 0.06788901 0.023092294 0.081189916 0.01731257
0.043319207 -0.13411492 -0.11029875 -0.10166906 -0.06167672 0.011746713 0.0070122858 0.12646718
-0.05471745 -0.047247536 0.115599096 -0.06677502 -0.1884042 -0.18866229 -0.02189903 0.012430621
00000000: 556a 47bc 8c99 53be 3953 cb3d 9104 2f3e
00000010: 341b 263e a9af e13b 011d 00be bead 493e
00000020: 6c25 c9bc 7921 20be bfef b13c 361c 8abd
00000030: 6509 8b3d 0d2c bd3c e646 a63d 17d3 8d3c
00000040: 7b6f 313d 6c55 09be 50e4 e1bd de37 d0bd
00000050: baa0 7cbd 4975 403c 51c7 e53b 9d80 013e
00000060: 681f 60bd a286 41bd 38bf ec3d 57c1 88bd
00000070: 08ed 40be b030 41be 9865 b3bc cea9 4b3c

first_h.4.weight f4 [32]
0.14708132 0.50852734 0.8447186 0.2573446 0.53127235 0.6799556 0.42466304 0.5661163
-0.045444876 1.4232371 1.4419823 0.88668257 1.2394317 0.7643319 -0.055689346 0.5133255
0.8258392 0.43180555 0.31129694 0.87670594 0.6583375 0.9720574 0.27375007 0.731425
0.2578741 1.9447626 1.1871456 0.80737966 0.60454744 0.7253472 0.0070638517 0.24938087
00000000: 7c9c 163e d92e 023f 7a3f 583f acc2 833e
00000010: 7701 083f 9211 2e3f 6f6d d93e ffec 103f
00000020: 6824 3abd a22c b63f e092 b83f a1fd 623f
00000030: b3a5 9e3f 41ab 433f 831a 64bd 4d69 033f
00000040: 336a 533f 9e15 dd3e 5062 9f3e cd6f 603f
00000050: ce88 283f c1d8 783f f828 8c3e ab3e 3b3f
00000060: 1308 843e fbed f83f 63f4 973f 6fb0 4e3f
00000070: 9fc3 1a3f 5bb0 393f e277 e73b b35d 7f3e

first_h.4.bias f4 [32]
-0.5142438 -0.45673507 -0.42169192 -0.26013434 -0.26425463 -0.38489342 -0.29924947 -0.07676489
-0.31943306 0.17742163 -0.24537316 -0.42631084 0.12570722 -0.45531467 -0.8105752 -0.47611988
-0.35045812 -0.30837646 -0.19598119 0.5067805 -0.3333761 0.07913971 -0.44066498 0.07631326
-1.0220983 -0.111337535 0.012578869 -0.40806893 -0.43230307 -0.29507196 -0.7960855 0.31535333
00000000: 7ba5 03bf 2ed9 e9be 01e8 d7be 5430 85be
00000010: 624c 87be c010 c5be 3a37 99be e936 9dbd
00000020: bb8c a3be 04ae 353e 1a43 7bbe 6a45 dabe
00000030: 65b9 003e 011f e9be db81 4fbf fcc5 f3be
00000040: 3f6f b3be 85e3 9dbe 4baf 48be 5ebc 013f
00000050: 46b0 aabe 0014 a23d d79e e1be 204a 9c3d
00000060: 1ed4 82bf ef04 e4bd 9a17 4e3c 69ee d0be
00000070: d456 ddbe ac13 97be 42cc 4bbf fe75 a13e

first_h.4.running_mean f4 [32]
3.0186803 -0.662565 -1.0446264 0.10383184 -1.3551539 -4.7076716 -4.330655 -3.5807607
0.60017675 -7.70136 -5.078463 -5.0776577 -5.285506 -0.49808228 0.44572 -1.7877419
-4.9024453 1.8903351 -1.0440948 0.24751891 -1.1146624 -3.8197086 2.8941412 -2.8105817
0.9167557 7.8810425 -4.15346 -1.5405672 -1.9516474 -4.7360697 0.20135278 -3.9643803
00000000: 0f32 4140 dc9d 29bf 51b6 85bf caa5 d43d
00000010: af75 adbf 3fa5 96c0 ba94 8ac0 2f2b 65c0
00000020: 2fa5 193f 8b71 f6c0 c582 a2c0 2c7c a2c0
00000030: dd22 a9c0 a404 ffbe 6935 e43e bad4 e4bf
00000040: d5e0 9cc0 80f6 f13f e6a4 85bf 9975 7d3e
00000050: 42ad 8ebf 1b76 74c0 9c39 3940 92e0 33c0
00000060: 80b0 6a3f 8031 fc40 25e9 84c0 4e31 c5bf
00000070: 95cf f9bf e28d 97c0 6c2f 4e3e 68b8 7dc0

first_h.4.running_var f4 [32]
4.3545938 5.0194902 5.899514 0.38151464 18.966244 68.61926 55.876816 37.263012
0.7722525 293.63388 78.66757 65.40816 217.7252 3.0478818 4.211154 11.227112
91.82051 31.254831 21.074808 41.702698 8.756665 155.94586 72.90185 6.2641788
37.84457 16.176874 142.48434 11.713312 18.561855 69.15711 1.2608006 83.54802
00000000: d558 8b40 aa9f a040 d2c8 bc40 e355 c33e
00000010: deba 9741 103d 8942 dc81 5f42 530d 1542
00000020: 57b2 453f 23d1 9243 cc55 9d42 fad0 8242
00000030: a7b9 5943 7f10 4340 c6c1 8640 40a2 3341
00000040: 1aa4 b742 e509 fa41 3599 a841 90cf 2642
00000050: 4d1b 0c41 24f2 1b43 bfcd 9142 2774 c840
00000060: d760 1742 3d6a 8141 fe7b 0e43 ba69 3b41
00000070: ae7e 9441 7150 8a42 ea61 a13f 9618 a742

nns.0.0.weight f4 [32, 32]
-0.24560855 -0.30850974 -0.0856354 -0.08264329 -0.32803938 -0.16292971 -0.048952963 -0.058246516
-0.19738682 0.042769153 -0.16397019 -0.029514553 0.14725693 -0.24764387 -0.3963497 -0.0949006
-0.09478702 -0.12046446 -0.13187099 -0.29813814 0.079568274 0.033232987 -0.2652176 -0.3119114
-0.099677496 -0.26327586 -0.32399818 -0.11785739 -0.29435152 -0.090423234 -0.37943476 -0.04212104
0.51069254 0.1324579 0.06656551 0.048912805 0.26322567 0.2945849 0.067761876 1.0672914
-0.2632113 0.17390326 0.77919364 -0.18618633 0.31185013 0.04118827 -0.027091999 -0.10027069
0.09715598 0.11576606 0.5896326 0.75066894 0.10408845 0.21047416 -0.13177387 0.9803143
0.28081086 -0.7459589 0.08090889 0.44102934 0.18597822 0.5358958 0.12836161 1.2128682
0.028201276 0.14264433 -0.42504698 -0.36272374 0.090422414 0.089183606 -0.800891 0.25570554
0.018336758 -1.157595 -0.010598528 -0.3249731 -1.3118477 -0.090837315 -0.09907249 -0.26690748
-0.19128779 0.24494399 0.34362933 0.011107266 -0.022664685 -0.9562889 -0.30744454 0.5487632
-0.39975125 -1.5780388 -0.19236583 0.24989426 -0.04849131 -0.6498484 0.12171407 -0.22767174
0.21340853 0.012561252 -0.3143134 0.01752261 0.03513565 -0.116123386 -1.0992213 -0.13611528
0.05160406 -2.6193135 -0.12961785 -0.86681163 -2.5346694 -0.13525237 -0.15828067 -0.2751402
-0.42323747 0.21372944 -0.14494428 6.769582e-05 -0.092385136 -2.1169736 0.43913233 0.19607128
0.16725186 0.014150372 -0.19217156 -0.09553054 0.1095157 -1.4653264 -0.1593356 -0.3169577
0.33805683 0.14671786 0.058997225 0.20990671 0.064955674 0.07430574 -0.1768492 -0.1474151
0.20414566 -0.1079135 -0.26035306 -0.021866897 0.06510501 0.1937643 0.51081 -0.021371115
-0.00374372 0.46102804 0.67601 0.46515462 0.0077631245 0.051699795 0.55327225 1.3142387
-0.3603724 -0.50004226 -0.6952012 0.17537765 -0.22077078 -0.013671136 0.4463541 0.57563317
-0.27785423 -0.3138451 0.04767586 -0.2085382 0.002838211 -0.3139306 -0.39246023 -1.4745871
-0.22048959 -0.32066905 -3.0269897 -0.37599486 -0.36428395 -0.129613 -0.52654326 -0.14568245
-0.5758649 -0.389302 -0.1816986 -0.89312774 0.071132734 -0.29597157 0.024136472 -1.7695
1.1246163 -0.038122453 -1.1510627 -0.16881461 -0.0006679227 -0.12254097 -0.2267822 -0.94393396
-0.21010023 -0.017004315 -0.08457906 -0.4151264 0.021784628 -0.012876872 0.10340642 0.76203257
0.07176947 -0.092382975 0.8396493 -0.022172136 -0.16116561 0.0069411322 0.034590054 -0.042337537
-0.29296607 -0.15446757 0.40023768 -0.16163273 -0.052478895 0.121445864 -0.14009197 0.04742979
-0.2486776 -1.3316957 0.6621299 0.20093796 0.00081625476 -0.13197315 0.18057624 -0.35000056
0.4286308 0.311045 0.1364943 0.7750821 -0.006885416 0.33416027 0.095939 -0.6541678
0.14852509 0.028046042 -0.19956039 0.035309725 -0.22332516 0.31888613 0.31975758 0.11461351
0.1647839 0.57419705 -0.023781098 0.3754886 0.0073077357 -0.0437506 1.0304496 0.49584046
0.16000675 0.1481523 -0.07927789 0.03010177 -0.07237495 -0.090291955 0.5213324 0.14595562
00000000: cf80 7bbe fdf4 9dbe 9d61 afbd e340 a9bd
00000010: c7f4 a7be 0cd7 26be e782 48bd e693 6ebd
00000020: c51f 4abe b52e 2f3d cde7 27be 81c8 f1bc
00000030: 85ca 163e 5b96 7dbe 59ee cabe 3f5b c2bd
00000040: b21f c2bd 12b6 f6bd 3009 07be 90a5 98be
00000050: b1f4 a23d 501f 083d 9aca 87be dab2 9fbe
00000060: b723 ccbd 18cc 86be 17e3 a5be 375f f1bd
00000070: 3eb5 96be d12f b9bd 4645 c2be 1d87 2cbd
00000080: bfbc 023f 0ba3 073e 8053 883d cb58 483d
00000090: 84c5 863e d5d3 963e bdc6 8a3d 019d 883f
000000a0: a2c3 86be b213 323e 3c79 473f a1a7 3ebe
000000b0: d2aa 9f3e 08b5 283d 0af0 ddbc b85a cdbd
000000c0: b7f9 c63d c216 ed3d 29f2 163f d72b 403f
000000d0: 532c d53d 8a86 573e bbef 06be e1f5 7a3f
000000e0: 71c6 8f3e 2af7 3ebf 8fb3 a53d 99ce e13e
000000f0: 1371 3e3e 7830 093f 3a71 033e 443f 9b3f
00000100: 5d06 e73c 5b11 123e c29f d9be edb6 b9be
00000110: 632f b93d e5a5 b63d 3107 4dbf d6eb 823e
00000120: f836 963c 132c 94bf 73a5 2dbc e062 a6be
00000130: a0ea a7bf ea08 babd 85e6 cabd 19a8 88be
00000140: f2e0 43be 99d2 7a3e 2ff0 af3e 40fb 353c
00000150: 4aab b9bc 59cf 74bf 5f69 9dbe bf7b 0c3f
00000160: 32ac ccbe 2dfd c9bf 8cfb 44be 48e4 7f3e
00000170: d39e 46bd 775c 26bf 3a45 f93d c822 69be
00000180: c487 5a3e b6cd 4d3c b0ed a0be 948b 8f3c
00000190: 66ea 0f3d 19d2 edbd 49b3 8cbf ce61 0bbe
000001a0: c75e 533d d5a2 27c0 8bba 04be 5ee7 5dbf
000001b0: 0638 22c0 997f 0abe 5414 22be 2ddf 8cbe
000001c0: 95b2 d8be e4db 5a3e 466c 14be ebf7 8d38
000001d0: 6b34 bdbd 7f7c 07c0 f4d5 e03e e9c6 483e
000001e0: 1244 2b3e f6d6 673c 9fc8 44be 84a5 c3bd
000001f0: c449 e03d d18f bbbf df28 23be 4848 a2be
00000200: c915 ad3e 353d 163e 13a7 713d c9f1 563e
00000210: 7b07 853d 9c2d 983d f517 35be fcf3 16be
00000220: 8f0b 513e c101 ddbd ff4c 85be 3522 b3bc
00000230: c755 853d 266a 463e 72c4 023f 7a12 afbc
00000240: 3359 75bb de0b ec3e fe0e 2d3f bf28 ee3e
00000250: cf61 fe3b 2ac3 533d 40a3 0d3f f938 a83f
00000260: bb82 b8be c502 00bf b5f8 31bf 3396 333e
00000270: bc11 62be e7fc 5fbc 8688 e43e b25c 133f
00000280: e942 8ebe 4eb0 a0be c347 433d 0a8b 55be
00000290: 4701 3a3b 83bb a0be 8cf0 c8be 45bf bcbf
000002a0: 06c8 61be bc2e a4be 33ba 41c0 6682 c0be
000002b0: 6d83 babe 45b9 04be 8acb 06bf c82d 15be
000002c0: e26b 13bf 9752 c7be 330f 3abe 05a4 64bf
000002d0: 0aae 913d 9689 97be dab9 c53c fa7e e2bf
000002e0: 6df3 8f3f 4a26 1cbd 0656 93bf bddd 2cbe
000002f0: 8917 2fba c3f6 fabd 9839 68be a8a5 71bf
00000300: 8424 57be a24c 8bbc c937 adbd 738b d4be
00000310: ad75 b23c 84f9 52bc bfc6 d33d 9114 433f
00000320: dffb 923d 4933 bdbd 42f3 563f 57a2 b5bc
00000330: 9908 25be 7072 e33b 4dae 0d3d 206a 2dbd
00000340: a6ff 95be bf2c 1ebe f4eb cc3e 0d83 25be
00000350: 1cf4 56bd 9cb8 f83d 4574 0fbe bd45 423d
00000360: 57a5 7ebe 0175 aabf 5881 293f aec2 4d3e
00000370: eef9 553a f823 07be fae8 383e 4633 b3be
00000380: 7f75 db3e 4a41 9f3e 29c5 0b3e c86b 463f
00000390: 0e9f e1bb 0e17 ab3e ab7b c43d 8a77 27bf
000003a0: f616 183e d0c0 e53c 8f59 4cbe eea0 103d
000003b0: 5aaf 64be 0b45 a33e 44b7 a33e 7dba ea3d
000003c0: 1cbd 283e 94fe 123f 94d0 c2bc 0b40 c03e
000003d0: bb75 ef3b d433 33bd c6e5 833f cdde fd3e
000003e0: cfd8 233e 3db5 173e 725c a2bd fd97 f63c
000003f0: 5139 94bd fdea b8bd 0a76 053f 6475 153e

nns.0.0.bias f4 [32]
-0.15262209 0.010214273 0.107168704 -0.06277586 0.0021540818 -0.06628197 -0.00019829451 -0.03885046
0.016206013 -0.013784416 0.15853895 -0.17184268 0.007669716 -0.09626394 0.13490525 0.13163736
-0.11717096 -0.19174796 0.1417718 0.15769354 0.1642841 -0.2017686 0.17236325 -0.13393958
0.12544268 0.060210988 -0.16919784 0.035503447 0.12461496 -0.03509835 0.1614198 -0.10853917
00000000: f748 1cbe c459 273c 447b db3d a190 80bd
00000010: 7f2b 0d3b d7be 87bd 47ed 4fb9 a921 1fbd
00000020: 79c2 843c 08d8 61bc 0958 223e 87f7 2fbe
00000030: 3e52 fb3b 0726 c5bd 9a24 0a3e f2cb 063e
00000040: 54f7 efbd 9459 44be a02c 113e 6a7a 213e
00000050: 173a 283e 6e9c 4ebe fe7f 303e 7527 09be
00000060: 0c74 003e cc9f 763d 3342 2dbe 106c 113d
00000070: 2136 ff3d 4ac3 0fbd 3b4b 253e c949 debd

nns.0.1.weight f4 [32]
0.7643681 0.20943181 1.1114365 1.5623819 0.3974885 2.0308554 0.3927133 0.0072383475
0.66424286 2.305647 3.222241 2.6542368 2.9025342 0.58165354 0.48776615 2.2284799
0.7762444 2.5465376 1.1069604 0.38927314 2.6726794 0.9225972 0.9818914 0.53546333
1.4299871 0.9371278 1.2983664 0.77106476 0.5165824 2.6804545 0.5961592 1.9551462
00000000: a1ad 433f 4b75 563e 8d43 8e3f 21fc c73f
00000010: 9d83 cb3e 89f9 0140 b811 c93e a92f ed3b
00000020: d20b 2a3f b88f 1340 3239 4e40 04df 2940
00000030: 1fc3 3940 3fe7 143f 7cbc f93e 6a9f 0e40
00000040: f4b7 463f 79fa 2240 e1b0 8d3f cf4e c73e
00000050: 2e0d 2b40 552f 6c3f 3c5d 7b3f 2014 093f
00000060: d109 b73f 9ce7 6f3f df30 a63f 8064 453f
00000070: bf3e 043f 918c 2b40 e49d 183f 3b42 fa3f

nns.0.1.bias f4 [32]
-0.41454527 -0.7810662 -0.22594216 -0.17335178 -0.91189474 -0.35954297 -0.33344126 -1.0400183
-0.63073677 0.2480728 -0.38557217 -0.08596707 1.004762 -0.33617604 -0.2948158 0.1982747
-0.19283155 -0.08286919 -0.71483094 -0.0033529142 -0.35902005 -1.2867923 0.12762992 -0.7092081
0.16069084 0.9369785 0.13599929 -0.39282876 0.35699773 -0.04216443 -0.7938776 -0.3682954
00000000: 473f d4be f4f3 47bf 625d 67be 2183 31be
00000010: ef71 69bf 0416 b8be d0b8 aabe 521f 85bf
00000020: f777 21bf cc06 7e3e b769 c5be 810f b0bd
00000030: 0b9c 803f 441f acbe 19f2 96be 8608 4b3e
00000040: a275 45be 52b7 a9bd 29ff 36bf 91bc 5bbb
00000050: 7ad1 b7be 9cb5 a4bf 6bb1 023e a98e 35bf
00000060: 248c 243e d3dd 6f3f 6643 0b3e da20 c9be
00000070: 68c8 b63e 9cb4 2cbd 903b 4bbf 3791 bcbe

nns.0.1.running_mean f4 [32]
-1.5427842 2.23839 -7.372085 -7.8015084 0.60919785 -5.806999 -3.6340141 1.2251968
-1.8518797 -8.796945 -7.069329 -9.894928 -6.9114323 -2.2916536 -1.3077041 -8.072751
-3.287201 -5.5259314 -5.4558415 1.5926181 -8.912993 2.518426 -1.4208703 5.192938
-3.463814 1.9582361 -4.319491 -2.7276824 4.937588 -8.441619 -4.2432375 -6.0910916
00000000: f479 c5bf c841 0f40 1fe8 ebc0 f5a5 f9c0
00000010: 64f4 1b3f f0d2 b9c0 b093 68c0 40d3 9c3f
00000020: 650a edbf 49c0 0cc1 f137 e2c0 a051 1ec1
00000030: 742a ddc0 74aa 12c0 d962 a7bf fd29 01c1
00000040: 8061 52c0 6ed4 b0c0 4196 aec0 e9da cb3f
00000050: 9f9b 0ec1 e42d 2140 14df b5bf 8c2c a640
00000060: 21af 5dc0 7ba7 fa3f 4539 8ac0 5992 2ec0
00000070: b900 9e40 df10 07c1 9ac8 87c0 39ea c2c0

nns.0.1.running_var f4 [32]
17.99683 75.45394 356.4746 320.06924 52.275314 221.48387 103.29913 41.65782
21.189283 372.07364 252.07758 578.1885 231.93434 27.655079 24.43489 444.47775
102.049545 229.57469 174.2182 154.16998 403.7135 52.538002 57.702114 198.80505
195.72385 174.0066 185.87244 38.480526 165.7181 371.45108 113.44252 226.25226
00000000: 82f9 8f41 6be8 9642 c03c b243 dd08 a043
00000010: ec19 5142 df7b 5d43 2899 ce42 9ca1 2642
00000020: a783 a941 6d09 ba43 dc13 7c43 108c 1044
00000030: 31ef 6743 9a3d dd41 a87a c341 273d de43
00000040: 5e19 cc42 1f93 6543 dc37 2e43 842b 1a43
00000050: 54db c943 ea26 5242 f7ce 6642 18ce 4643
00000060: 4eb9 4343 b101 2e43 58df 3943 0fec 1942
00000070: d5b7 2543 bdb9 b943 92e2 e242 9440 6243

nns.0.3.weight f4 [32, 32]
0.0917898 -0.32045177 0.1030078 -0.19224326 0.023531325 -0.12200225 -0.17212914 0.005918861
-0.18064283 0.4156128 0.5659725 0.15269892 0.53567404 0.25258636 -0.15100145 0.16273488
0.076467626 -0.052089144 -0.15730855 -0.24990414 0.045916837 -0.11956753 -0.10728282 -0.08798842
-0.19342457 0.0011959235 0.08116234 0.09503014 -0.22602864 0.27360076 -0.23175906 0.011881898
-0.035149027 -0.2562927 -0.11438837 -0.01774 -0.6488317 -0.12955196 0.03089474 -0.4391223
-0.030644262 0.14542103 0.007717845 -0.1993357 0.2225304 -0.31809413 0.07427078 -0.19468376
-0.102508865 0.21882953 -0.2696802 -0.15419114 0.08262557 -0.3153404 -0.3226671 -0.39527354
0.1170717 -0.015324498 0.25382957 -0.02631289 -0.32510564 0.017940637 -0.21353044 -0.21543553
0.0018550674 0.20011348 0.028861022 0.09897008 0.33175808 0.006484582 0.31507155 0.13911831
0.019290108 0.37915245 0.3798938 -0.30572137 0.15621795 -0.16764535 -0.07506598 -0.15179247
0.25810865 -0.16784564 0.27362427 0.60460865 -0.033390757 -0.051075317 -0.03831029 0.26920655
-0.25270787 -0.04595795 -0.23597474 0.060505655 0.13078448 0.0676194 0.26663807 -0.45081607
0.25058073 0.22143473 -0.14662872 0.13211437 -0.4408513 0.13684925 0.32381248 -0.33917388
0.031789307 -0.056261633 0.53715587 0.21467963 0.2993568 -0.38821658 0.45039386 1.1578507
0.62434727 0.8544019 0.6098539 -0.18799576 0.3168544 1.2004417 0.24187386 -0.10665423
0.05350282 -0.5115471 0.5072346 -0.3515667 -0.56751597 -0.12603006 0.23431054 0.5325133
-0.00889038 -0.37625962 -0.17700243 0.022535726 -0.72101307 -0.14446087 -0.3638208 -0.11543791
0.045750424 -0.0864747 0.16279235 0.41185376 0.276699 -0.4180041 0.013685399 0.105768144
-0.09474488 -0.21758048 -0.24074833 -0.38996026 -0.14444564 -0.15583245 -0.47075313 -0.3780638
-0.20462018 0.16414338 -0.035609804 0.027812403 -0.2878151 0.021154795 -0.09384018 0.08047198
-0.17201251 -0.30423036 1.3219886 0.054403845 0.14319909 -0.8459611 -0.1002815 0.44541076
-0.013314159 0.61182517 -0.6717064 1.6948117 0.41087717 0.341683 -0.12696743 1.2804477
-0.012479913 -1.7721109 -0.18537544 0.2070997 -0.018446546 -0.3511792 0.17492698 -0.35685343
-0.6517823 -0.43951708 -0.52375305 0.27226174 -0.3789591 1.6152436 -0.7967944 0.98077786
0.11740165 0.07192344 -0.17811544 -0.14727046 -0.5023554 0.14778227 0.3383596 -0.42896497
0.22485866 -0.5747719 -0.58746415 -0.0002081576 -0.91613895 -0.4227291 0.080440156 1.3026922
0.8287636 0.14400601 0.94490504 0.0015581636 -0.1832858 0.21892428 0.31606257 -0.17104919
0.42604384 -1.600262 0.18413472 0.14611435 -0.20794535 -0.29152256 0.4798675 -0.485738
0.0971202 0.039748006 0.028442997 0.07547977 -0.5705991 0.042301394 -0.27828312 -0.5174208
-0.014762638 0.32729873 0.11428974 -0.14271185 0.05778008 -0.26442924 -0.071671 0.06630649
-0.12067915 0.053582128 -0.18617599 -0.20716184 0.11832123 -0.25836208 -0.1234858 -0.27251378
-0.06577759 -0.1812303 -0.031199837 0.12938039 -0.12376828 0.009533067 0.044197254 -0.02102375
00000000: 4afc bb3d 4112 a4be c1f5 d23d 6bdb 44be
00000010: c4c4 c03c 51dc f9bd 9f42 30be 01f3 c13b
00000020: 6ffa 38be 33cb d43e 93e3 103f 1b5d 1c3e
00000030: ef21 093f 0053 813e 20a0 1abe f9a3 263e
00000040: 0f9b 9c3d 6d5b 55bd 7e15 21be dfe6 7fbe
00000050: 4b13 3c3d d2df f4bd 18b7 dbbd 4633 b4bd
00000060: 1711 46be 89c0 9c3a 7138 a63d 299f c23d
00000070: 0d74 67be 6615 8c3e 3f52 6dbe 4bac 423c
00000080: 6df8 0fbd cc38 83be 7344 eabd 7a53 91bc
00000090: d619 26bf 45a9 04be f716 fd3c a3d4 e0be
000000a0: ad09 fbbc 40e9 143e fae5 fc3b a81e 4cbe
000000b0: 02df 633e 3cdd a2be 471b 983d 2e5b 47be
000000c0: 2bf0 d1bd d914 603e 8613 8abe 48e4 1dbe
000000d0: 9837 a93d 4c74 a1be 9f34 a5be 4b61 cabe
000000e0: 4ac3 ef3d 9a13 7bbc f3f5 813e 218e d7bc
000000f0: 3f74 a6be 3ef8 923c b9a7 5abe 229b 5cbe
00000100: bc25 f33a 8cea 4c3e f36d ec3c d3b0 ca3d
00000110: 32dc a93e 9e7c d43b 0f51 a13e 0875 0e3e
00000120: 4a06 9e3c 4520 c23e 7181 c23e 8387 9cbe
00000130: 99f7 1f3e 39ab 2bbe 31bc 99bd 7c6f 1bbe
00000140: d126 843e badf 2bbe 7b18 8c3e a2c7 1a3f
00000150: bfc4 08bd 5a34 51bd 40eb 1cbd 71d5 893e
00000160: ed62 81be 673e 3cbd 5da3 71be c7d4 773d
00000170: 5eec 053e 0a7c 8a3d c984 883e 5dd1 e6be
00000180: 1e4c 803e c9bf 623e d725 16be fd48 073e
00000190: 43b7 e1be 3622 0c3e c0ca a53e 33a8 adbe
000001a0: 8135 023d 9972 66bd 0c83 093f fad4 5b3e
000001b0: 4b45 993e 53c4 c6be 069a e63e 7434 943f
000001c0: 39d5 1f3f 15ba 5a3f 631f 1c3f f681 40be
000001d0: bd3a a23e 13a8 993f c8ad 773e 886d dabd
000001e0: c625 5b3d c0f4 02bf 20da 013f 8d00 b4be
000001f0: ba48 11bf 060e 01be 1aef 6f3e cb52 083f
00000200: f5a8 11bc 1aa5 c0be 2040 35be d89c b83c
00000210: 5094 38bf 8ded 13be b846 babe b66a ecbd
00000220: cc64 3b3d a619 b1bd 0ab3 263e 7fde d23e
00000230: 7eab 8d3e a204 d6be b938 603c f89c d83d
00000240: 9b09 c2bd 6bcd 5ebe bb86 76be dfa8 c7be
00000250: 8fe9 13be 8b92 1fbe 8e06 f1be 9491 c1be
00000260: f487 51be 3415 283e 96db 11bd d6d6 e33c
00000270: 805c 93be d24c ad3c 482f c0bd 7ece a43d
00000280: 0c24 30be 15c4 9bbe ec36 a93f 91d6 5e3d
00000290: c8a2 123e e890 58bf 6360 cdbd e10c e43e
000002a0: a123 5abc 93a0 1c3f f3f4 2bbf 97ef d83f
000002b0: 7e5e d23e 13f1 ae3e c003 02be b6e5 a33f
000002c0: 8d78 4cbc 88d4 e2bf 0fd3 3dbe f211 543e
000002d0: 361d 97bc c3cd b3be 0f20 333e 7eb5 b6be
000002e0: 34db 26bf 6208 e1be ae14 06bf e465 8b3e
000002f0: ed06 c2be 4dc0 ce3f b8fa 4bbf 4214 7b3f
00000300: 4770 f03d 994c 933d e563 36be 11ce 16be
00000310: 5d9a 00bf 3c54 173e 783d ad3e 4ca1 dbbe
00000320: 5941 663e 4024 13bf 0d64 16bf e144 5ab9
00000330: 1588 6abf f36f d8be cfbd a43d 9ebe a63f
00000340: da29 543f 5076 133e 4ce5 713f 4b3b cc3a
00000350: 46af 3bbe b02d 603e f4d2 a13e 8527 2fbe
00000360: 6b22 da3e 63d5 ccbf d08d 3c3e 009f 153e
00000370: a0ef 54be 7242 95be 31b1 f53e a7b2 f8be
00000380: f5e6 c63d cece 223d 4a01 e93c 2395 9a3d
00000390: c812 12bf 3a44 2d3d 207b 8ebe b175 04bf
000003a0: fede 71bc b393 a73e bd10 ea3d 0e23 12be
000003b0: ceaa 6c3d 4563 87be 3fc8 92bd b2cb 873d
000003c0: a126 f7bd ef78 5b3d eba4 3ebe 3c22 54be
000003d0: 6752 f23d 0948 84be 20e6 fcbd ed86 8bbe
000003e0: 67b6 86bd 7094 39be cd96 ffbc 4b7c 043e
000003f0: 397a fdbd 9530 1c3c 2e08 353d 003a acbc

nns.0.3.bias f4 [32]
0.1504095 -0.009480978 -0.12260284 -0.094754204 0.061869908 -0.15713064 0.32364604 0.037104983
0.08844374 -0.021886544 -0.0748827 0.08258171 0.03961731 -0.086804055 -0.086454816 -0.10549977
0.15198302 0.0062861242 -0.006420219 0.11333995 0.1531967 -0.05528486 0.18276118 -0.19618699
0.21227926 0.999113 0.21033607 -0.13959447 -0.023198739 -0.13163209 0.28571326 0.08475289
00000000: f304 1a3e 1b56 1bbc 3317 fbbd 7e0e c2bd
00000010: 4d6b 7d3d dbe6 20be efb4 a53e 65fb 173d
00000020: fe21 b53d 694b b3bc 1a5c 99bd 9920 a93d
00000030: c345 223d 53c6 b1bd 390f b1bd 4310 d8bd
00000040: 70a1 1b3e d5fb cd3b b360 d2bb c71e e83d
00000050: 99df 1c3e 6172 62bd bf25 3b3e 3ee5 48be
00000060: bc5f 593e dfc5 7f3f 5762 573e daf1 0ebe
00000070: 480b bebc 90ca 06be 0249 923e ec92 ad3d

nns.0.4.weight f4 [32]
0.4455693 0.6064477 0.0022665728 0.7156339 0.32935387 1.3502702 1.1033078 0.5122796
0.33078682 1.0589628 1.1297557 1.7593375 1.7304373 1.0489128 0.39769337 -0.055864166
0.83908445 0.2027797 0.4100312 0.9134859 1.5587509 0.4772497 0.83327144 0.3931087
0.7541604 0.6710312 1.6346021 0.568404 0.7350584 0.3663772 1.5803888 1.0560519
00000000: a921 e43e 2840 1b3f c88a 143b c933 373f
00000010: 12a1 a83e a7d5 ac3f 3139 8d3f c224 033f
00000020: e45c a93e 188c 873f d69b 903f f931 e13f
00000030: f87e dd3f c642 863f 779e cb3e d3d1 64bd
00000040: 3dce 563f 7ba5 4f3e 9cef d13e 36da 693f
00000050: 2685 c73f 135a f43e 4751 553f 8b45 c93e
00000060: a810 413f b3c8 2b3f a43a d13f ed82 113f
00000070: ca2c 3c3f cb95 bb3e 2e4a ca3f b52c 873f

nns.0.4.bias f4 [32]
-0.71924424 -0.7008394 -0.23497652 -1.7872857 -0.38924056 -0.5487235 -0.99892336 -0.59855044
-0.32834303 -1.6583664 -0.85175925 0.1319589 -0.4861723 -0.6815939 -0.3105167 -0.51477796
-0.3509438 -0.23147127 -0.570341 -1.5756148 -0.48330018 -0.57387286 -0.44159418 -0.53161216
-1.3125758 -0.4209816 -0.59959584 -0.689523 -1.1671909 -0.5056429 0.081664845 0.5740337
00000000: 6420 38bf 366a 33bf af9d 70be c7c5 e4bf
00000010: 8a4a c7be 2579 0cbf 71b9 7fbf 9a3a 19bf
00000020: 941c a8be 5a45 d4bf e50c 5abf 3c20 073e
00000030: 93eb f8be f07c 2ebf 0bfc 9ebe 7dc8 03bf
00000040: e8ae b3be ce06 6dbe de01 12bf bfad c9bf
00000050: 1f73 f7be 55e9 12bf a218 e2be bc17 08bf
00000060: 7c02 a8bf e68a d7be 1d7f 19bf 9484 30bf
00000070: 8366 95bf d071 01bf e63f a73d dff3 123f

nns.0.4.running_mean f4 [32]
1.5740836 0.07464543 0.11691449 1.5073516 0.3782962 1.7944419 -2.4440315 0.100832485
0.49262905 3.3086762 2.0440414 8.295133 3.279071 2.8504856 -0.01399925 1.7969519
3.6533613 2.828178 3.1624818 3.9122462 0.22962333 3.3651152 3.539542 0.5969907
0.49061623 -4.8423376 0.09101444 0.2548846 3.1059422 -0.5137451 5.736666 -0.06008867
00000000: 927b c93f b4df 983d dd70 ef3d e6f0 c03f
00000010: 0ab0 c13e 46b0 e53f 036b 1cc0 4381 ce3d
00000020: e039 fc3e 5ac1 5340 93d1 0240 ddb8 0441
00000030: 4ddc 5140 5b6e 3640 1c5d 65bc 8502 e63f
00000040: acd0 6940 de00 3540 1a66 4a40 3e62 7a40
00000050: 6122 6b3e 0c5e 5740 db87 6240 62d4 183f
00000060: 0d32 fb3e 6ef4 9ac0 c765 ba3d 3c80 823e
00000070: c2c7 4640 cd84 03bf c592 b740 8a1f 76bd

nns.0.4.running_var f4 [32]
0.95575607 0.9842735 0.26816082 2.211147 1.103755 4.385741 1.2019404 0.5146372
1.9601724 4.306132 2.3675747 17.904041 9.314946 3.4130912 0.35417837 3.3268368
5.3931794 4.2471914 3.5515506 4.933426 1.618055 6.5108604 6.4222374 2.0169
6.0638175 5.111801 1.131788 0.24900739 3.1547344 0.4730399 7.9713097 10.544902
00000000: 6eac 743f 59f9 7b3f 604c 893e 6f83 0d40
00000010: d847 8d3f fe57 8c40 2fd9 993f 43bf 033f
00000020: eee6 fa3f d5cb 8940 5886 1740 7a3b 8f41
00000030: 050a 1541 1670 5a40 de56 b53e e5ea 5440
00000040: ed94 ac40 fee8 8740 9b4c 6340 a0de 9d40
00000050: 6d1c cf3f f858 d040 f882 cd40 e414 0140
00000060: cb0a c240 e093 a340 6ede 903f cbfb 7e3e
00000070: 2be7 4940 4932 f23e f814 ff40 ebb7 2841

nns.1.0.weight f4 [32, 32]
-0.009731884 -0.020917917 -0.05682089 -0.33135682 0.047373474 -0.2326374 -0.15407859 -0.07973534
-0.3048985 -0.018776268 -0.19214423 0.350953 -0.05968192 -0.2333342 -0.16356829 -0.02866838
-0.2007987 -0.035927318 -0.41254497 -0.5427416 -0.43241602 0.056193337 -0.1616083 -0.22423308
-0.21824132 -0.17184097 -0.2997167 0.14052115 -0.27395248 -0.057280555 -0.124979675 -0.5047892
0.1486592 0.029783431 0.19509724 0.14569362 -0.14099865 1.2505049 -0.25291276 0.1941741
0.110969655 0.062882334 -0.60817033 0.41623282 2.1991086 -0.33803922 -0.10410356 0.061733276
0.48617944 0.27080977 -0.15060045 -0.03404153 0.13777499 0.48785973 0.30293292 0.045630034
0.45503676 0.12849757 0.2927634 -0.102715954 -0.011335336 0.07181282 0.5806461 -0.025789784
-0.13952214 0.030625561 0.046170793 0.14078572 -0.19169995 -0.9102852 -1.6232436 -0.15120834
-0.545204 0.14883395 0.2512886 -0.5843693 -1.4874197 0.78998744 0.06473814 0.0800992
-0.062471975 -0.14623085 -0.7391608 -0.113064766 -0.46027675 0.26320228 -1.0417002 0.0012980222
-0.7671922 -0.4894484 -1.2593032 0.08095212 0.069530636 -0.095132224 -0.5385919 0.32995504
0.16398174 0.020941088 0.010571158 -0.85781 -0.17755796 0.25666013 0.30127257 -0.017369222
0.4862053 -0.6453808 0.3613399 -0.3933379 -0.27487233 -1.2090892 0.013725981 0.46708295
-0.8491412 -0.054452278 -0.864806 -0.79517734 0.056599926 -0.34555206 -1.1278402 0.053274363
0.6072213 0.40065914 0.6570396 -0.036013324 -0.72728056 0.10627331 -0.3654415 -2.507268
-0.04724391 0.11525835 0.18275467 0.111555085 0.015927492 1.1081167 -0.1530204 0.12535885
1.2068155 0.05563454 0.09826811 1.5132189 2.0051167 0.37689957 -0.035978563 -0.41565597
0.6189005 0.4529852 0.09831362 0.3061419 0.16653866 0.42770407 0.08859838 0.096212655
1.0488889 -1.0884527 0.84474784 -0.15393043 -0.25488257 -0.015038106 1.0996969 0.10475558
-0.2652928 0.013463139 -0.12181832 -0.2808136 0.05191303 -0.034361295 -0.2657049 -0.17729782
0.3307197 -0.3165884 -0.22525392 0.8558063 1.3227282 0.080256574 0.11407927 0.0028015587
0.6431651 0.22872245 -0.09660119 -0.14922269 0.19770885 1.1907368 0.36888355 0.296997
-0.16365488 0.24763061 0.32441726 -0.026179545 -0.2492223 -0.0030742348 0.84179676 0.14697045
-0.6802931 -0.019106494 -0.15227635 0.20601137 -0.31106192 1.6727587 0.32006663 -0.10376854
0.46292952 0.15132849 -0.051066794 1.1259507 1.5518874 0.1832838 0.013524167 -0.5901213
1.3817728 0.57101077 -0.09784657 0.04363684 -0.39712322 0.9641485 -0.2637926 0.7126187
-0.15020892 0.22715832 -0.35840353 -0.12306437 -0.19897828 0.045613952 1.3168222 -1.5086088
0.12459561 -0.10280274 -0.044430926 -0.22263166 0.02223301 0.030858265 -0.44220608 -0.08577552
-0.22904687 -0.15108287 0.1662451 -1.0052037 -1.0960448 -0.75891685 0.16936307 -0.6327684
-0.4135488 -0.2429446 0.08437668 0.14213179 0.26892984 -0.44152567 -0.48259023 -0.0734169
-0.25942743 -0.51375395 -0.4349155 0.023381537 0.21087267 0.22248575 -0.833709 1.0376534
00000000: 7b72 1fbc 0d5c abbc 06bd 68bd 9aa7 a9be
00000010: b00a 423d 8038 6ebe c7c6 1dbe 484c a3bd
00000020: a81b 9cbe b0d0 99bc 75c1 44be 1db0 b33e
00000030: 0775 74bd 29ef 6ebe 727e 27be f3d9 eabc
00000040: 2d9e 4dbe 8628 13bd 1839 d3be 1df1 0abf
00000050: a265 ddbe fc2a 663d a57c 25be 5b9d 65be
00000060: a77a 5fbe 14f7 2fbe 7874 99be c7e4 0f3e
00000070: 8043 8cbe 049f 6abd 58f5 ffbd dd39 01bf
00000080: 1e3a 183e 62fc f33c 92c7 473e b530 153e
00000090: f361 10be 8b10 a03f c87d 81be 93d5 463e
000000a0: 0f44 e33d 74c8 803d 0db1 1bbf 781c d53e
000000b0: 32be 0c40 7a13 adbe 3f34 d5bd 08dc 7c3d
000000c0: 83ec f83e 94a7 8a3e 0137 1abe 226f 0bbd
000000d0: e314 0d3e c0c8 f93e 061a 9b3e 8fe6 3a3d
000000e0: 94fa e83e de94 033e 16e5 953e be5c d2bd
000000f0: d8b7 39bc 9a12 933d 39a5 143f 1945 d3bc
00000100: e4de 0ebe 75e2 fa3c 961d 3d3d 222a 103e
00000110: fe4c 44be 7308 69bf 72c6 cfbf 5cd6 1abe
00000120: 7d92 0bbf ed67 183e e6a8 803e 3a99 15bf
00000130: c563 bebf 9e3c 4a3f 6e95 843d 0d0b a43d
00000140: 9de2 7fbd 8abd 15be a439 3dbf 808e e7bd
00000150: 65a9 ebbe 73c2 863e 6f56 85bf 6622 aa3a
00000160: b566 44bf fb98 fabe d930 a1bf 3aca a53d
00000170: 1466 8e3d afd4 c2bd 29e1 09bf deef a83e
00000180: d4ea 273e a58c ab3c a632 2d3c 7099 5bbf
00000190: c1d1 35be f568 833e 6640 9a3e e649 8ebc
000001a0: e7ef f83e ad37 25bf 8b01 b93e 9663 c9be
000001b0: 11bc 8cbe 6fc3 9abf f0e2 603c 7f25 ef3e
000001c0: 5161 59bf 5a09 5fbd ed63 5dbf be90 4bbf
000001d0: 53d5 673d 33ec b0be 115d 90bf 3836 5a3d
000001e0: db72 1b3f 3223 cd3e bf33 283f b582 13bd
000001f0: 0f2f 3abf d2a5 d93d 261b bbbe 1477 20c0
00000200: d582 41bd 920c ec3d 0a24 3b3e fe76 e43d
00000210: 5f7a 823c c5d6 8d3f 61b1 1cbe 125e 003e
00000220: ee78 9a3f 0be1 633d ca40 c93d 28b1 c13f
00000230: d553 0040 fbf8 c03e 425e 13bd dcd0 d4be
00000240: 4370 1e3f aded e73e a758 c93d a2be 9c3e
00000250: 1c89 2a3e 07fc da3e 1173 b53d 240b c53d
00000260: fe41 863f 6b52 8bbf 6541 583f f09f 1dbe
00000270: f87f 82be 6362 76bc dec2 8c3f 188a d63d
00000280: 75d4 87be 7f94 5c3c e27b f9bd cdc6 8fbe
00000290: c2a2 543d 6ebe 0cbd 790a 88be 8f8d 35be
000002a0: 1854 a93e e017 a2be f7a8 66be 1f16 5b3f
000002b0: 284f a93f 8f5d a43d 64a2 e93d 5b9a 373b
000002c0: 78a6 243f 3836 6a3e d8d6 c5bd d5cd 18be
000002d0: 3074 4a3e 106a 983f 4ede bc3e fe0f 983e
000002e0: 2595 27be e192 7d3e 051a a63e 7c76 d6bc
000002f0: 2134 7fbe 1a79 49bb fe7f 573f 6c7f 163e
00000300: b027 2ebf 3985 9cbc 55ee 1bbe a5f4 523e
00000310: 8243 9fbe f51c d63f c6df a33e 9a84 d4bd
00000320: 1905 ed3e dbf5 1a3e 6a2b 51bd 271f 903f
00000330: 3fa4 c63f c0ae 3b3e 7894 5d3c 3112 17bf
00000340: eedd b03f c32d 123f c863 c8bd 8bbc 323d
00000350: bc53 cbbe 70d2 763f d30f 87be 2e6e 363f
00000360: 5ed0 19be 319c 683e ab80 b7be 2c09 fcbd
00000370: f6c0 4bbe b2d5 3a3d a18d a83f 181a c1bf
00000380: fc2b ff3d 3e8a d2bd 34fd 35bd 8ef9 63be
00000390: 0022 b63c 79ca fc3c d668 e2be 13ab afbd
000003a0: 438b 6abe 78b5 1abe 283c 2a3e 84aa 80bf
000003b0: 324b 8cbf 6048 42bf 836d 2d3e 1cfd 21bf
000003c0: abbc d3be 78c6 78be aecd ac3d ff8a 113e
000003d0: 2cb1 893e a70f e2be 1116 f7be 9a5b 96bd
000003e0: acd3 84be 6185 03bf 3fad debe a38a bf3c
000003f0: 01ef 573e 4ed3 633e f46d 55bf d4d1 843f

nns.1.0.bias f4 [32]
0.122423075 -0.16746628 -0.11217025 -0.15710625 -0.007628446 0.065962926 -0.023251444 0.007843427
-0.16861863 0.13925175 -0.15953827 0.12078077 0.10992038 -0.05850702 -0.00054593355 -0.059462078
-0.09783448 0.10102471 -0.04367596 0.07702091 0.013408102 0.08673463 0.066253364 0.07205464
-0.17246775 -0.059012726 -0.16754036 -0.048682302 -0.11706272 -0.06830189 -0.14476153 0.13122985
00000000: f3b8 fa3d 487c 2bbe 84b9 e5bd 76e0 20be
00000010: 0bf8 f9bb 9217 873d d079 bebc b881 003c
00000020: 5daa 2cbe 0398 0e3e 005e 23be e95b f73d
00000030: f01d e13d 0fa5 6fbd fb1c 0fba 828e 73bd
00000040: 725d c8bd 0be6 ce3d 90e5 32bd 24bd 9d3d
00000050: a8ad 5b3c eda1 b13d d8af 873d 6291 933d
00000060: 639b 30be 54b7 71bd b38f 2bbe 1867 47bd
00000070: 94be efbd dce1 8bbd 5e3c 14be 1e61 063e

nns.1.1.weight f4 [32]
0.6617233 0.011196055 0.8534205 1.6557951 0.7855904 0.0069394973 0.8247425 1.6452271
1.018479 0.84047604 1.6865069 0.9730019 2.0191789 0.3164093 2.26601 0.86045927
0.9195184 1.601056 2.389427 0.70031154 0.9056053 0.84650695 3.3951526 1.5504975
1.3020555 0.7971179 1.1237962 1.5159793 0.46350655 -0.053944685 0.07906193 1.2632169
00000000: b366 293f a96f 373c c479 5a3f 18f1 d33f
00000010: 741c 493f b964 e33b 5322 533f cd96 d23f
00000020: 855d 823f 7029 573f 75df d73f a716 793f
00000030: 3a3a 0140 6600 a23e 4f06 1140 0f47 5c3f
00000040: 8f65 6b3f 67ef cc3f 5fec 1840 9e47 333f
00000050: c0d5 673f aeb4 583f 2e4a 5940 b476 c63f
00000060: c1a9 a63f eb0f 4c3f 8ed8 8f3f 9c0b c23f
00000070: bb50 ed3e 1af5 5cbd 39eb a13d 17b1 a13f

nns.1.1.bias f4 [32]
-0.42514935 0.21623491 2.169867 0.021142628 -0.71564287 0.5092791 -0.5314187 -0.099816285
-4.2805424 -1.3765373 0.95041114 -1.4215021 -1.0681314 -0.28967267 -0.29112455 -0.37847665
-1.5340545 -1.2310404 0.66968626 -0.41630226 1.0342307 1.0741347 -0.34883794 -0.24029197
-0.884527 -0.3858075 -0.7354654 -0.11917136 -0.2697102 -0.3463239 0.38746983 -0.6931447
00000000: 2dad d9be af6c 5d3e 1adf 0a40 4e33 ad3c
00000010: 5f34 37bf 1d60 023f 0e0b 08bf 7b6c ccbd
00000020: 34fa 88c0 6032 b0bf 254e 733f c8f3 b5bf
00000030: 88b8 88bf fa4f 94be 470e 95be b1c7 c1be
00000040: e65b c4bf bb92 9dbf 8f70 2b3f 9225 d5be
00000050: ac61 843f 3f7d 893f e39a b2be 190f 76be
00000060: 5d70 62bf 9088 c5be 7647 3cbf 1d10 f4bd
00000070: 7517 8abe 5e51 b1be 7262 c63e ee71 31bf

nns.1.1.running_mean f4 [32]
-1.5508798 3.6051993 -5.6407804 -4.1779995 5.7346854 3.8578215 2.964561 -3.0181966
3.3959386 -2.837447 7.881053 5.188507 -3.873244 0.9529394 -3.4951706 2.2610517
5.549765 1.2566723 -4.0012655 1.2197909 5.1063147 -3.54018 -3.7933135 2.9760466
0.43064958 3.5551717 -0.8644292 2.2410572 -1.7081205 4.1516824 5.122311 -5.2458615
00000000: 3b83 c6bf 96bb 6640 4681 b4c0 2cb2 85c0
00000010: 8b82 b740 8ce6 7640 5ebb 3d40 222a 41c0
00000020: 0f57 5940 bb98 35c0 9631 fc40 4008 a640
00000030: 3be3 77c0 d6f3 733f e0b0 5fc0 12b5 1040
00000040: ad97 b140 a3da a03f 5e0a 80c0 1c22 9c3f
00000050: ee66 a340 4f92 62c0 a6c5 72c0 8c77 3e40
00000060: 1a7e dc3e ef87 6340 3b4b 5dbf 7b6d 0f40
00000070: b1a3 dabf 95da 8440 f9e9 a340 19de a7c0

nns.1.1.running_var f4 [32]
20.006186 202.2998 386.37915 184.09206 509.1908 159.63123 165.7291 108.89443
181.46098 159.67609 728.3877 276.80145 427.15228 77.43204 103.32468 175.58377
241.93613 74.95171 338.6979 74.82666 354.78564 80.677055 149.6689 142.37971
189.81067 210.29681 80.23394 212.69792 105.85347 156.4136 378.35498 319.0196
00000000: ab0c a041 c04c 4a43 8830 c143 9117 3843
00000010: 6c98 fe43 98a1 1f43 a6ba 2543 f3c9 d942
00000020: 0376 3543 14ad 1f43 d018 3644 9666 8a43
00000030: 7e93 d543 34dd 9a42 3ca6 ce42 7295 2f43
00000040: a6ef 7143 47e7 9542 5559 a943 40a7 9542
00000050: 9064 b143 a75a a142 3dab 1543 3561 0e43
00000060: 88cf 3d43 fc4b 5243 c777 a042 abb2 5443
00000070: fab4 d342 e269 1c43 702d bd43 8282 9f43
