result/08.22.2022_16.16.52/config_125fold_0_state_dict.pt (torch, 196713 bytes, 118 tensors)

first_h.0.weight f4 [64, 3]
000000 9b 0c 4a be bd cb a6 be 01 88 8f 3e f3 ee f1 be
       -0.19731371 -0.32577315 0.2803345 -0.47252616
000010 4f 15 32 be 5c f1 92 bd ae 3d 0b be ef 94 b4 3c
       -0.17390941 -0.07174942 -0.13597748 0.022043673
000020 07 e6 05 3e 5f 2b 36 3f a3 61 fb 3e 68 21 81 3f
       0.1307603 0.7115993 0.49097928 1.008832
000030 33 c5 ad bd 9a ce c8 bd 71 92 84 3e 98 e9 80 3e
       -0.084848784 -0.09805031 0.25892976 0.25178218
000040 ac ad c1 be f4 89 c2 3e af 7d 69 be 58 f4 25 3e
       -0.37827814 0.37995875 -0.2280185 0.16206491
000050 07 25 f2 3d 94 92 11 3f 3b 44 7e 3f e9 5a e8 3e
       0.11823469 0.56864285 0.9932286 0.4538186
000060 36 e9 83 3f 21 12 29 3f b2 5a 16 3f dc 76 a2 be
       1.0305545 0.6604329 0.5873214 -0.31731308
000070 dc 8b fa bd 99 32 9b 3e 4e 7c 16 3f bf a4 91 3e
       -0.12233707 0.3031204 0.58783424 0.28446004
000080 d3 5c ee 3d f4 7d 3f bf 64 1f 0f 3f 40 55 c7 be
       0.116387986 -0.74801564 0.55907273 -0.38932228
000090 dc d6 77 bd b0 67 ae bd 49 56 37 be 7d 3c 06 be
       -0.06050764 -0.085158706 -0.17904009 -0.13109012
0000a0 9e 5b 9b be 5e 65 a8 3e 0c db d5 bd 24 a7 a1 be
       -0.30343336 0.32889837 -0.104421705 -0.3157283
0000b0 52 e1 92 be d4 54 35 3f b4 c4 50 3f f7 23 6c 3e
       -0.2868753 0.7083256 0.81550145 0.23060594
0000c0 0d 25 f1 3e ee 49 7f 3e 60 6b 01 3f 24 0d aa be
       0.4709858 0.24930546 0.50554466 -0.3321315
0000d0 bc fa 03 3f 84 0c 87 3e 45 d3 fa be 31 72 bc 3c
       0.51554465 0.26376736 -0.4898931 0.02300367
0000e0 4f ec f2 be 98 4d 38 be 55 a7 75 3f f0 10 d0 3e
       -0.47445914 -0.1799835 0.95958453 0.40637922
0000f0 be 94 01 3f 59 ad 32 3f 34 0c cf 3e 50 24 d4 bd
       0.5061759 0.6979576 0.40438998 -0.103584886
000100 31 23 7a 3e 17 c8 90 3e 87 9a a8 be 68 3c 9c 3d
       0.24427487 0.28277656 -0.32930395 0.07628709
000110 6c f3 6e be b2 b5 97 be e9 94 fd 3f 02 37 4a 3f
       -0.23335046 -0.2963081 1.9811069 0.78990185
000120 46 36 fd 3e 57 04 a2 3f d7 68 00 3f 95 d9 93 3e
       0.4945547 1.2657574 0.5015997 0.2887694
000130 8b 64 94 be 16 94 be be 4e 63 2f bd 1e 71 90 3f
       -0.28982958 -0.37222356 -0.042819314 1.1284521
000140 55 92 1a 3e 53 a7 11 bf 4b 39 21 be b1 aa 96 be
       0.15094884 -0.5689594 -0.15744512 -0.29427102
000150 84 91 c5 3e b9 63 c6 3f 81 f2 22 3f 04 ce a6 be
       0.38587582 1.5499183 0.6365128 -0.32579052
000160 13 31 b4 be d1 5c 76 3e 47 59 37 be 51 2c ea bc
       -0.3519369 0.24058844 -0.1790515 -0.028585585
000170 7d 55 9f be c5 89 77 be 40 43 b5 3e 2a 56 22 3f
       -0.3111991 -0.24173649 0.3540287 0.63412726
000180 28 02 21 3f 1e 74 aa 3d b1 7c bc 3e 7f 2f 4a bd
       0.62893915 0.08322929 0.36813882 -0.049361702
000190 9d f0 a7 3f 21 3b c5 3f fa 59 a1 bc ae 0d 1d 3f
       1.3120304 1.540867 -0.019696224 0.61349
0001a0 87 c7 3f 3b a0 51 33 be df 1b fe 3d 84 58 e8 be
       0.0029263215 -0.17511606 0.1240766 -0.45380032
0001b0 ec 4d 35 3e 7d 6a bb bd 09 51 1c bf 20 92 ee bd
       0.17705506 -0.091511704 -0.6106115 -0.11648965
0001c0 c6 7a 8d be cb 28 00 3f fe 85 b6 be 8e ba 86 3f
       -0.2763273 0.50062245 -0.35649103 1.0525682
0001d0 a2 95 55 3f c0 01 0d 3f 69 43 26 3f 30 88 82 3e
       0.83431447 0.55080795 0.6494661 0.25494528
0001e0 b6 35 2f bf c0 c0 d4 3e 9e 82 0f 3f 55 ee 27 3f
       -0.6844133 0.41553307 0.5605868 0.6559804
0001f0 26 fa b2 be c4 24 bc be 56 20 4f 3f 2a 6d 62 3e
       -0.34956473 -0.367468 0.80908716 0.22111955
000200 7f 92 c4 3e 89 de 8d be e7 8b e0 3e 7e 4f fc 3e
       0.38393018 -0.27708843 0.43856737 0.49279398
000210 b8 b4 0c bf 86 7f be 3d 16 8e d5 3d 64 00 f1 bd
       -0.54963255 0.09301667 0.10427491 -0.11767653
000220 18 f3 4f be 88 35 6c be 8a 8c 2e 3f 36 fe 18 bf
       -0.20307577 -0.23067296 0.68183196 -0.59762895
000230 82 54 15 be 51 92 9b bd 5d 77 7f 3f 94 5b 00 3e
       -0.14583018 -0.07596267 0.9979151 0.12534934
000240 2c f4 49 bf 9f 83 92 be 57 26 82 bc 96 81 a3 be
       -0.788882 -0.28616044 -0.015887422 -0.31934804
000250 37 91 b9 3f 7a 6c 66 3f 5f c2 b7 3e d7 a5 88 3f
       1.4497441 0.9000927 0.3589048 1.067561
000260 65 66 2f bd 3b a2 c0 be 3c de 7a be 4e f0 24 be
       -0.04282226 -0.37623772 -0.24498838 -0.16107294
000270 f4 87 0b bd e4 59 52 3f 63 06 b7 3e ae 86 af 3e
       -0.034065202 0.8216841 0.3574706 0.3428244
000280 13 6f 06 3f 81 6c 0a 3e bd 5a af be a7 33 fa 3d
       0.52513236 0.13517953 -0.34248915 0.12216883
000290 6e 06 36 be e8 1a a2 3e b4 16 2e be dc 45 63 be
       -0.1777589 0.31661153 -0.17000848 -0.22194618
0002a0 ec 3e 59 bf 89 92 c9 3d ee fd fc be f0 28 f0 bc
       -0.84861636 0.098424025 -0.49412483 -0.029316396
0002b0 06 3a 9d 3c d4 d4 66 3e aa bb 2e be 5a 93 13 3f
       0.019192707 0.22542125 -0.17063776 0.57646716
0002c0 8f 78 5a 3f c6 4c 71 be 05 6d 19 bf 2b 19 8a bd
       0.8534021 -0.23564443 -0.59931976 -0.06743082
0002d0 07 f4 da bc 0d 98 0a 40 4b 4c 5c 3f 65 fa 55 be
       -0.02672769 2.1655304 0.86053914 -0.20896299
0002e0 4a cc 16 3f 4b 11 3f 3e 34 54 a4 bd 28 cd 8c be
       0.5890547 0.1865894 -0.08023873 -0.27500272
0002f0 c2 79 b9 bd 09 6e d0 3e 00 c7 ef be a2 08 d3 be
       -0.090564266 0.4070895 -0.46831512 -0.41217524

first_h.0.bias f4 [64]
000000 91 a9 1a 3e dd 06 7f bd 0a e9 a8 bc c0 f0 b8 3d
       0.15103747 -0.062262405 -0.020618934 0.090302944
000010 af 19 14 3e 7d b0 96 be 77 a6 39 be 1c 52 dd be
       0.14462923 -0.29431525 -0.18129908 -0.43226707
000020 33 81 50 bd 0e 82 86 bd a9 99 b6 3e d1 81 20 3e
       -0.050904464 -0.06567775 0.35664108 0.15674521
000030 c9 6f 67 be 95 32 b7 3e 6c c0 2c be 86 f8 a3 bd
       -0.22601236 0.3578078 -0.16870278 -0.080063865
000040 6e 84 ba be 40 63 ae 3e c9 80 e2 bd cd 06 a8 3e
       -0.3642916 0.34060097 -0.1105972 0.3281769
000050 a3 d3 04 bf 03 b7 05 3f 46 6f 01 3f 4b bc e2 be
       -0.5188543 0.5223238 0.50560415 -0.4428428
000060 92 05 11 3f 41 70 97 3e e9 b3 bf 3d 87 15 a7 3e
       0.56649125 0.2957783 0.09360487 0.32633612
000070 29 10 42 be 37 19 c4 3e 01 c8 02 bf 6c 4c 0c bf
       -0.18951477 0.38300487 -0.5108643 -0.5480411
000080 e8 91 02 3f d5 01 e6 be 68 2c e2 be 4a 38 f5 3d
       0.51003885 -0.44923273 -0.44174504 0.11973627
000090 00 e0 58 3c 16 f3 81 3e 6d 50 1d be 8a c8 df 3e
       0.0132369995 0.25380772 -0.15362711 0.43707687
0000a0 28 9b 14 3e ba 6a 23 3d 9b 7d 95 be 24 cf 0a 3f
       0.14512312 0.039896704 -0.29197392 0.5422232
0000b0 63 fd 1a be 1e 98 33 3c 3b 26 a1 be 3c 3b c7 bd
       -0.15135722 0.0109615605 -0.3147448 -0.09728095
0000c0 53 61 d8 3e 3a 6b f7 3e 1b 89 d0 be a7 df 80 bc
       0.42261752 0.48323995 -0.40729603 -0.015731646
0000d0 06 4e 53 be fa 99 8e be 9c c0 8a bd cb 79 97 3a
       -0.20635232 -0.2785185 -0.067750186 0.0011556683
0000e0 c7 a4 26 be 66 be 27 bd 46 7e fc be b8 fc b3 3d
       -0.16273795 -0.040953062 -0.4931509 0.08788437
0000f0 e1 04 19 3e 61 70 ed 3e 13 0c 09 3f 15 d9 0e bf
       0.14943267 0.463748 0.5353405 -0.5579999

first_h.1.weight f4 [64]
000000 f1 12 9b 3f 57 59 0e 3f d5 7e 19 3f 45 5b 64 3f
       1.2115155 0.5560507 0.59959155 0.89201766
000010 01 43 89 3f 4a 93 2a 3f 72 8d 6d 3f dc 48 dd 3e
       1.0723573 0.66630995 0.92793953 0.4321965
000020 69 71 4b 3f 5c 04 b0 3e 54 ff 60 3f 39 3f 5c 3f
       0.79469925 0.34378326 0.878896 0.8603397
000030 ea 5e 86 3f 60 c8 2d 3f be 2c 8f 3f 72 e0 84 3f
       1.0497715 0.67883873 1.1185529 1.0380995
000040 4d 82 62 3f 3d 7c 3c 3f 4d e8 48 3f 6c 0d 87 3f
       0.88480073 0.7362707 0.7847946 1.0550971
000050 fa b1 5b 3f bd 4a b5 3e 6e 5c 98 3f b3 b4 ba 3f
       0.85818446 0.35408583 1.1903207 1.4586395
000060 c3 cb 6f 3f 5f 1e 91 3f d3 cc 81 3f 41 ba 71 3f
       0.9367029 1.1337394 1.0140632 0.94424826
000070 5e 39 32 3f 3e cb 1d 3f 50 2b 21 3f 6d 15 20 3f
       0.69618785 0.6163825 0.62956715 0.62532693
000080 8f 6b 87 3f 3b 1d 23 3f 10 c6 5d 3f fd 83 78 3f
       1.0579699 0.6371648 0.86630344 0.970764
000090 53 a3 ce 3e 34 a4 2f 3e 4e ae 3c 3f 24 31 22 3f
       0.40358981 0.17152482 0.7370347 0.6335623
0000a0 14 1a 54 3f 3f e5 23 3f 00 a1 07 3f f1 9a 66 3f
       0.8285229 0.64021677 0.5298004 0.9008017
0000b0 50 4f 70 3f ab 55 61 3f 34 1a 84 3f 52 6b 96 3f
       0.9387102 0.88021344 1.0320497 1.1751502
0000c0 d9 51 1f 3f d1 8b 8a 3f 91 90 60 3f b9 7e 06 3f
       0.62234265 1.0823919 0.8772059 0.52537113
0000d0 d3 45 86 3f 4d dd d6 3f 33 5a 6c 3f be 7f 2b 3f
       1.0490059 1.6786286 0.92325133 0.66991794
0000e0 2e 02 77 3f e2 e7 5c 3f 2a fa 0f 3f 65 e6 11 3f
       0.964877 0.86291325 0.56241095 0.5699218
0000f0 41 c9 29 3f 82 3e 86 3f 4c c5 9b 3f 92 0e 65 3f
       0.66322714 1.0487826 1.2169585 0.8947536

first_h.1.bias f4 [64]
000000 f7 a0 9a 3f 99 30 13 bf b8 ae a7 be 93 e5 d0 3d
       1.2080373 -0.5749603 -0.32750487 0.10200038
000010 5b 4d 0e 3f e5 0c d2 3e 60 03 19 bf 50 e3 a4 be
       0.55586785 0.41025463 -0.59770775 -0.32204676
000020 f1 14 9d bd 02 27 a7 be 4d 27 93 bd 8b ff 4c 3f
       -0.0767001 -0.32646948 -0.071852304 0.8007743
000030 9e a5 13 bf 85 cc 1d bf f5 db ba 3e f1 55 ba 3e
       -0.57674587 -0.616402 0.3649594 0.36393693
000040 96 7f 74 3e 47 8f d0 be 54 dd e7 3e 67 65 7f bf
       0.23876795 -0.40734312 0.45286047 -0.997641
000050 32 d7 c4 3d ff 08 0e be 6d 88 20 3f 79 77 fe 3d
       0.09611358 -0.13870619 0.6270817 0.12425131
000060 a5 a7 cf 3e 3a 52 e1 3e 11 1b 1b bf 91 98 03 bf
       0.4055759 0.44008046 -0.60588175 -0.5140467
000070 ab 65 3c c0 3c 21 a8 be 93 0b 17 3f ff 98 c0 3e
       -2.9437053 -0.32837856 0.59002036 0.37616727
000080 2e 49 d7 3e 96 a9 88 3b 3b 12 fc be b4 d3 f6 be
       0.4204802 0.004170607 -0.4923266 -0.48208392
000090 83 d5 2e c0 05 76 51 be 43 7b 85 be 01 d9 e1 be
       -2.7317817 -0.20455177 -0.26070604 -0.44110873
0000a0 65 0b a8 be 69 7e 05 bd 29 38 fb 3d a6 b0 c5 be
       -0.32821193 -0.032591257 0.12266571 -0.38611335
0000b0 03 03 e6 3e 48 a7 1d 3f 4f b9 15 3f 43 34 2c bf
       0.44924173 0.61583376 0.58485883 -0.67267245
0000c0 f0 02 1b bf f9 e6 d4 3e 37 26 62 3e 15 43 ee bd
       -0.6055136 0.41582468 0.2208489 -0.11633889
0000d0 5f e8 a7 bf 92 3d 28 3f 36 a0 37 3e db bf 7d bf
       -1.3117789 0.6571895 0.1793221 -0.99120873
0000e0 ca 44 2f 3f c5 4c 3c bf dc a6 92 be 4c 48 8e be
       0.6846434 -0.7355464 -0.2864293 -0.27789533
0000f0 b2 5d f2 be 61 12 f9 be cf e8 9c 3f c6 33 ff 3d
       -0.4733711 -0.48646834 1.2258548 0.12461047

first_h.1.running_mean f4 [64]
000000 50 52 82 c8 a2 09 1c c9 b1 a9 33 c8 91 ed 6a 49
       -266898.5 -639130.1 -183974.77 962265.06
000010 62 01 e3 c7 57 1d a6 48 06 a2 96 c8 4e 9e 3b 49
       -116226.766 340202.72 -308496.2 768484.9
000020 49 27 aa 49 4c a9 d1 c8 f6 6f 42 49 9f f9 76 c9
       1.3938971e+06 -429386.38 796415.4 -1.01160994e+06
000030 cc e9 9f c7 75 36 2d c8 d8 e5 09 c8 13 c1 69 49
       -81875.59 -177369.83 -141207.38 957457.2
000040 81 19 1c 49 b6 55 db c8 9c d9 21 c9 f5 b5 6d c8
       639384.06 -449197.7 -662937.75 -243415.83
000050 b0 b4 26 49 0c 7d 08 c8 e0 8b d9 c8 73 c7 c3 c8
       682827.0 -139764.19 -445535.0 -400955.6
000060 5f 9d 23 49 aa ad bf 48 ec 38 62 c7 fa e3 3b c9
       670165.94 392557.3 -57912.92 -769599.6
000070 48 ad fe 48 62 25 d7 c8 5a 2b 6c c8 85 ad 9f c8
       521578.25 -440619.06 -241837.4 -327020.16
000080 93 94 4f 49 31 40 83 c7 24 2a d0 c6 0c 70 67 c8
       850249.2 -67200.38 -26645.07 -236992.19
000090 dc d8 69 48 2a f0 19 c8 1d 75 eb c8 0d 6f 36 49
       239459.44 -157632.66 -482216.9 747248.8
0000a0 32 1c 62 c9 d7 94 58 49 f0 9e 85 49 de 0b b7 c8
       -926147.1 887117.44 1.094622e+06 -374878.94
0000b0 7e 99 35 c9 e9 92 1b c8 86 eb 5f 49 03 c5 c8 c7
       -743831.9 -159307.64 917176.4 -102794.02
0000c0 3b 50 82 c9 c5 f0 d2 c8 a7 2e ed 48 d7 97 f8 c8
       -1.0675274e+06 -432006.16 485749.22 -509118.72
0000d0 e6 f0 33 c7 31 70 e2 48 82 4e e2 c8 29 2d d1 48
       -46064.9 463745.53 -463476.06 428393.28
0000e0 9c 26 8c c9 1a e6 1a c7 36 74 61 c8 18 a3 9b c8
       -1.1481155e+06 -39654.1 -230864.84 -318744.75
0000f0 d7 28 0d c7 e4 0c 8a c8 3b df d3 c7 a9 71 06 49
       -36136.84 -282727.12 -108478.46 550682.56

first_h.1.running_var f4 [64]
000000 75 55 e5 53 62 6b 24 55 8a fb 59 53 cb 56 ba 55
       1.9699625e+12 1.129882e+13 9.36228e+11 2.5610242e+13
000010 fe fe ae 52 bd 36 3a 54 fe 3a 19 54 e5 a4 6d 55
       3.758012e+11 3.199129e+12 2.632479e+12 1.633078e+13
000020 38 83 43 56 e3 6c 94 54 a7 68 7f 55 5d e8 cd 55
       5.3742087e+13 5.099856e+12 1.7551559e+13 2.8299735e+13
000030 8d ad 2c 52 0d 9c 4a 53 1e 62 00 53 5f 6a b8 55
       1.8541152e+11 8.702015e+11 5.5140195e+11 2.5345875e+13
000040 5d c4 24 55 3c 71 a2 54 aa e5 30 55 10 d1 be 53
       1.1322705e+13 5.5814757e+12 1.2156278e+13 1.6391025e+12
000050 1e 6c 3b 55 56 76 fb 52 ce cc 9f 54 00 70 81 54
       1.2879565e+13 5.4001107e+11 5.490687e+12 4.4474386e+12
000060 c6 e7 34 55 40 5c 78 54 69 e0 ac 51 f9 65 6e 55
       1.2431722e+13 4.2667984e+12 9.281242e+10 1.6382609e+13
000070 dc e3 da 54 67 4a 9c 54 ba 28 bc 53 0c 31 2c 54
       7.5210057e+12 5.3701053e+12 1.6162743e+12 2.958229e+12
000080 07 6e 91 55 06 4d e9 51 90 60 92 50 51 da b4 53
       1.9987719e+13 1.2525245e+11 1.9646415e+10 1.5535137e+12
000090 46 a7 b8 53 d9 07 20 53 89 35 bb 54 24 fa 60 55
       1.5861607e+12 6.873264e+11 6.4324564e+12 1.5460309e+13
0000a0 65 a1 ac 55 22 63 9e 55 49 24 f1 55 43 47 62 54
       2.3726148e+13 2.1768576e+13 3.3142268e+13 3.8874327e+12
0000b0 dc b4 5e 55 02 80 23 53 84 03 a9 55 c3 21 88 52
       1.5304273e+13 7.022273e+11 2.322907e+13 2.92341e+11
0000c0 52 5a e5 55 f8 41 96 54 2e fc bd 54 f8 b3 d0 54
       3.152201e+13 5.162815e+12 6.5278375e+12 7.1709806e+12
0000d0 06 c4 5a 51 92 1f ad 54 2a f0 ac 54 b8 bd 93 54
       5.8724475e+10 5.948472e+12 5.9421093e+12 5.076345e+12
0000e0 b6 a4 04 56 82 0c 22 51 91 a5 ab 53 25 92 23 54
       3.646074e+13 4.349966e+10 1.4744343e+12 2.8101263e+12
0000f0 43 ca 06 51 be b4 00 54 79 81 97 52 63 27 f4 54
       3.6182438e+10 2.2111527e+12 3.2535613e+11 8.3890626e+12

first_h.3.weight f4 [64, 64]
000000 30 85 8c 3f 18 ee 61 3d ca 23 9b 3c a7 e3 3c 3e
       1.0978146 0.055158705 0.018937964 0.18446217
000010 dc c0 2f 3f 28 bf 64 3f 28 98 07 3e 2a 26 a7 3e
       0.68653655 0.8935418 0.13241637 0.32646304
000020 24 52 79 3e 27 ea 4a 3f df 8a 8c 3e 09 26 7a 3f
       0.2434774 0.7926354 0.274497 0.9771429
000030 c2 e4 fc 3d 08 2e f4 3e 19 0d 4d 3f fa fa e6 bb
       0.123483196 0.4769137 0.8009811 -0.0070489617
000040 a0 41 66 3e 62 22 21 3e 99 b8 83 3f a5 c9 40 3e
       0.22485971 0.15735772 1.029071 0.18826921
000050 5c 55 7b 3e 82 dc d8 3e 2c 11 bc 3f 77 09 8a 3e
       0.24544281 0.42355734 1.469274 0.26960346
000060 3e 1b d5 3d 6c 8f d3 3f 45 aa 28 3e 9a f8 83 3d
       0.10405587 1.6528144 0.16471203 0.06443901
000070 19 44 78 3f a9 50 a1 3e 05 b9 8d 3f d4 14 4b 3f
       0.9697891 0.3150685 1.1072088 0.79328656
000080 59 06 f6 3d c0 a9 b7 3e 70 d0 09 3e 60 1d 20 be
       0.120129295 0.35871696 0.13458419 -0.15636206
000090 b5 18 20 3f b9 7f 3e 3f b0 9e c2 3f f8 76 b4 3e
       0.625377 0.7441364 1.5204678 0.35247016
0000a0 d9 07 d8 3e 5c d2 0f 3e 30 b4 6b 3e 1a 59 0c 3e
       0.42193487 0.1404509 0.23017955 0.13705865
0000b0 70 99 4b 3f 4f ad ad 3f 77 03 83 3f 43 dd b4 3d
       0.79531 1.3568515 1.0235432 0.08831265
0000c0 71 7b a8 3e b3 7d 87 3e b5 29 8e 3e 68 4e 95 3e
       0.32906678 0.26463088 0.27766195 0.29161382
0000d0 3c c8 90 3e fa 06 14 bd 48 a6 2f 3f 7e a4 d9 3e
       0.28277767 -0.036139466 0.686131 0.4250831
0000e0 51 8e 84 3f c2 6d 26 3e 05 3c 8d 3e ce db 70 3d
       1.0355932 0.16252807 0.27584854 0.058803372
0000f0 b4 fa 6e 3e 9b c8 0c 3e bc 96 96 3f e2 39 02 3d
       0.23337823 0.137484 1.176475 0.031793483
000100 84 b4 a2 bd a1 07 9c bc fe 16 28 bc 9e 8b 29 be
       -0.07944587 -0.019046606 -0.010259388 -0.16557166
000110 1b 30 41 bd a9 b2 25 bd 89 86 9d bd b4 f0 ae bd
       -0.047165018 -0.040453587 -0.07691676 -0.08542004
000120 bd 5a d4 3c ab 8f 35 3d a1 58 50 3c f9 a1 aa 3d
       0.025922174 0.044326466 0.012716443 0.08331675
000130 1b 3d ac bd 92 12 8e bd 7c e6 f6 bc 67 72 6c bc
       -0.084100924 -0.06937136 -0.0301392 -0.0144315725
000140 dd e8 a3 bd 26 b6 15 be 93 d2 ee bb 0e ca 51 3d
       -0.080033995 -0.14620265 -0.007288286 0.051218085
000150 57 e7 27 be 28 50 7e 3d 59 64 4f 3d 94 c5 e6 bd
       -0.16396843 0.06208816 0.05063281 -0.11268154
000160 21 46 10 be a0 49 06 3e 15 9f 3b be a7 39 5b bc
       -0.14089252 0.13114023 -0.18322404 -0.013380445
000170 d0 d2 89 bd e9 be ee 3d 70 5a a2 3d b9 1c 0c bd
       -0.067296624 0.11657507 0.07927406 -0.03420708
000180 3c 60 dd bd 3c e1 8c bd 24 3f 03 be 0e c9 13 3e
       -0.10809371 -0.068788975 -0.12817055 0.14432165
000190 ca 4d 42 bd 4d 45 a7 3b a8 13 13 3e c5 92 ac bd
       -0.047437467 0.005104697 0.14362967 -0.084264316
0001a0 d3 97 7e bd ee a1 0c 3d 96 af 3e 3b 0b 36 d2 bd
       -0.06215651 0.034334116 0.0029096357 -0.10264214
0001b0 45 d5 c8 3d 7d a4 16 bc 17 ee 61 3c 09 e6 a3 3c
       0.09806303 -0.0091944905 0.013789675 0.02000715
0001c0 08 d7 51 3d e3 c3 bd 3c 10 3d a0 3c 1c e0 da 3d
       0.05123046 0.023164695 0.019560367 0.10687277
0001d0 10 d8 35 be 7d 6f 1c bd bf da 82 bd ac 6d 79 3b
       -0.17758203 -0.03819226 -0.06389379 0.0038059754
0001e0 27 0e f0 3c 1c 1a 56 3b b1 c3 f3 3c e6 4b c0 3d
       0.029303623 0.003266937 0.029756399 0.093894765
0001f0 58 d3 b0 bb de 48 09 be a8 78 4b bd 21 63 5b bc
       -0.005396288 -0.13406703 -0.049675614 -0.013390333
000200 d6 8a 94 3c e6 74 4e 3d 00 b1 a5 bd ed f2 40 be
       0.018132608 0.05040445 -0.08090401 -0.18842669
000210 6e ec 5c 3d fb 17 9b 3c 2c da 2d be cf c9 47 bc
       0.053936414 0.018932333 -0.16977757 -0.012194111
000220 2d 03 89 be 89 41 26 3d c3 34 0d be 85 f2 2d 3c
       -0.26760235 0.040589843 -0.13789658 0.010616903
000230 60 37 3a be 78 3d c5 3d 66 b2 2d bd 32 af 0f be
       -0.18185186 0.09630865 -0.042406462 -0.14031675
000240 f5 52 8f 3c 09 4b 58 be 80 b7 80 bc 55 d3 83 bd
       0.017495612 -0.21122374 -0.0157125 -0.06436793
000250 6a ac 78 be 4d a4 32 bc 84 34 50 bd 1e b0 00 be
       -0.24284521 -0.01090343 -0.050831333 -0.12567183
000260 05 a8 fa bd 84 98 a7 bd 4c 4a bf bd 7e d2 9a bd
       -0.122390784 -0.08183387 -0.09340343 -0.075596794
000270 b5 94 82 be f5 79 ed 3d f8 22 08 3e ec 48 07 3e
       -0.2550408 0.11595527 0.1329459 0.13211411
000280 84 ac 07 be ae 95 0e bc b5 61 36 be 75 dc 7f bc
       -0.13249403 -0.008702679 -0.1781071 -0.015616526
000290 75 de 7f be fb 30 ae bd 7b 03 18 3e d6 c0 30 bd
       -0.24987204 -0.08505436 0.14845078 -0.043152653
0002a0 5e 3c 3e bd 16 6d a2 3c d4 b7 28 bd bb f3 aa bd
       -0.04644429 0.019827407 -0.041190937 -0.08347269
0002b0 30 c4 da 3d fe 31 b3 3c 9c 3a 06 be da f0 57 be
       0.10681951 0.021874424 -0.13108295 -0.21087971
0002c0 c2 8e ae bc 9f 2a 54 be c8 43 89 bd f8 78 f7 3c
       -0.021308307 -0.20719384 -0.06702381 0.03020905
0002d0 20 ff 98 bd fc aa 63 be 85 04 71 bd f5 73 34 be
       -0.07470536 -0.22233194 -0.0588422 -0.17622359
0002e0 ab 56 66 3d 7e 21 6d bd 45 e9 94 bc 93 ed 1e bd
       0.056234997 -0.05789327 -0.018177638 -0.038800787
0002f0 64 0c aa 3c 0d 14 01 bd 57 b1 b8 bd ee 22 2d be
       0.020757861 -0.031513263 -0.090182 -0.16907856
000300 9b 16 b4 bb 91 3f 73 bd 84 55 45 bf fd ac 1d bf
       -0.005495859 -0.059386794 -0.7708361 -0.61592084
000310 08 18 07 3d eb e6 f2 bd 4b b4 db bd 15 c7 27 bf
       0.032981902 -0.1186045 -0.107277475 -0.6553815
000320 56 a1 15 bf 65 32 a5 3d 8b 66 a4 be f8 87 3c bd
       -0.58449304 0.080662526 -0.32109484 -0.046028107
000330 3e 45 70 be 4e 52 21 3d a5 71 86 bb 3a 67 7c be
       -0.23463914 0.039385132 -0.004102903 -0.24648753
000340 51 6c b4 3e b9 3f b8 be e4 4e 2e 3e a3 46 c4 be
       0.3523889 -0.35986117 0.17022282 -0.38335142
000350 3b 59 1d bf ca 06 01 be e3 b7 fa bc 07 3d bb be
       -0.6146428 -0.12600246 -0.030605262 -0.36569998
000360 3f a3 e2 be e1 f5 75 3d e0 1a 20 bf e5 ea 87 be
       -0.44265172 0.06004894 -0.6254101 -0.26546398
000370 70 a9 3e bf 55 4a 84 3e 05 41 b9 bd bb 5b 63 3c
       -0.7447729 0.2583796 -0.090456046 0.013876851
000380 14 41 d8 be 58 61 b4 3e b7 a8 68 bd 39 d1 27 be
       -0.4223715 0.35230517 -0.056801524 -0.16388406
000390 28 b0 15 bf f9 ae 0e be de 3c 3a bc 29 a1 d5 be
       -0.5847192 -0.13933934 -0.011367051 -0.41724518
0003a0 1d a4 a3 3d 14 5f 87 be d4 e3 17 bf cb 5b 11 3e
       0.079902865 -0.26439726 -0.59332013 0.14195172
0003b0 3c b9 1b 3d b8 34 01 3e 25 b4 43 3d d7 38 41 bf
       0.03801845 0.12617767 0.04777922 -0.75477356
0003c0 75 70 78 3b 2c 94 a0 be dc 3c 80 bc 06 07 9c 3e
       0.0037908826 -0.31363046 -0.01565402 0.30474108
0003d0 d2 7d c2 be 08 a7 fa be 1e 05 98 bd ba 90 02 bf
       -0.37986618 -0.4895556 -0.07422851 -0.51002085
0003e0 94 36 aa bd 0e 4b fe be 12 9d cf bd 8b fb a1 bd
       -0.08311191 -0.49666637 -0.10137381 -0.07909306
0003f0 ed b2 f7 be 05 d1 31 bf ac c8 5f bd 0a d9 c3 be
       -0.48378697 -0.69459563 -0.054634735 -0.38251525

first_h.3.bias f4 [64]
000000 cb 9e 90 3e 61 92 29 bc 1b f6 29 3e 64 08 ee 3d
       0.2824615 -0.010349841 0.16597788 0.11622694
000010 b5 a8 fc bd f0 b7 90 3e 00 72 7b bd dc e4 34 bd
       -0.12336866 0.28265333 -0.061388016 -0.04416357
000020 3b 3b 37 bd d3 ee 43 bc 15 19 9f 3d 22 09 69 bd
       -0.04473422 -0.011958796 0.07768456 -0.056893475
000030 1e 30 ed 3d ba b3 46 3e 24 93 6c be e1 6a 78 bd
       0.11581443 0.19404498 -0.23103005 -0.060648803
000040 82 57 99 bc 63 5d 50 3c a2 bf 58 3b 9e 9a 83 bd
       -0.018718485 0.012717578 0.0033073206 -0.06425975
000050 9b ca 4d 3b e8 66 ac 3b 4e b4 98 bd 2f 4a c1 bd
       0.003140128 0.005261291 -0.074562654 -0.094379775
000060 e2 a3 98 bd ee f4 e0 3b 2a 5b b9 bd a3 95 62 bd
       -0.07453133 0.0068651354 -0.09050591 -0.055318486
000070 da 95 96 bb 78 0d 4b 3d 48 7d 05 3e e3 85 ca bd
       -0.0045955004 0.04957339 0.13036072 -0.09888818
000080 b7 25 c3 3b 1d 0f a3 be c8 9f 4f be f3 85 96 bd
       0.0059554237 -0.31847468 -0.20275795 -0.073497675
000090 e4 a4 ce bd d0 9a 91 3d ff 2b cd 3c ba cc 41 be
       -0.10090044 0.07109606 0.025045393 -0.18925753
0000a0 02 ab 88 3d 90 77 69 3d b6 cb cd bd 83 09 e8 3c
       0.06673242 0.05699879 -0.100486204 0.028324848
0000b0 69 d4 42 be 27 37 3a bd c6 68 df bc 8b a6 ce bb
       -0.1902634 -0.045462754 -0.02727164 -0.0063064746
0000c0 99 f9 a3 3b c0 e5 ed bb a6 6d d9 bc 55 c1 3d 3e
       0.0050041196 -0.0072600543 -0.026541542 0.18530782
0000d0 9a a8 a1 bd b5 ef 58 3d f8 df 38 3e 5e b0 1c be
       -0.07893486 0.052962977 0.18054187 -0.15301654
0000e0 34 46 80 3d b7 ad d1 39 7b 1d 94 3d a2 de 6d 3d
       0.0626339 0.00039993014 0.072321855 0.058073647
0000f0 bf 79 aa be 6f 81 23 bd d7 7d 8b 3d 8d 5d ad 3d
       -0.3329601 -0.03991836 0.068111114 0.08465109

first_h.4.weight f4 [64]
000000 fb 6b cd 3e d7 89 27 3f 07 65 1a 3f 84 4b 1a 3f
       0.40121445 0.654447 0.60310405 0.6027148
000010 b0 c6 19 3f 7e aa f6 3e 2f 7c 02 3f 30 ed df 3e
       0.600688 0.4817695 0.5097074 0.43735647
000020 82 3a ff bd cd 0b 65 3f a7 9b 10 3f d9 a5 61 3f
       -0.12462331 0.8947113 0.56487507 0.8814369
000030 ae 74 70 ba 44 b4 38 3f 6a a8 53 bb 58 fa 22 3f
       -0.000917266 0.72150064 -0.0032296428 0.63663244
000040 d7 e4 1e 3e 26 1b 1d 3f a1 8c 17 3f 80 6d 3a 3e
       0.15516983 0.6136955 0.5919896 0.18205833
000050 4a 7b 24 3f 80 31 0f 3f 2f 7b 66 3f c4 0d 68 3f
       0.64250624 0.55934906 0.90031713 0.90646005
000060 c9 77 18 3f 42 ff 68 3f 75 6a 10 bc 35 6c 59 3c
       0.5955778 0.9101449 -0.008814444 0.0132704275
000070 23 05 27 3f d0 8e c6 3e 9d 4e e6 3e 66 99 4b 3f
       0.65242213 0.38780832 0.44981852 0.7953094
000080 59 80 2d 3f d7 7e ea 3d 92 55 cd 3b 59 69 13 3f
       0.6777397 0.11449974 0.0062663043 0.5758262
000090 d2 de 0b 3f 49 d8 df bc e3 5a 76 3f e8 b3 90 bc
       0.5463687 -0.027324812 0.9623243 -0.017663911
0000a0 d8 1b 11 3f 30 b7 2c 3f 49 83 5a 3f 58 55 28 3f
       0.5668311 0.6746702 0.85356575 0.65755224
0000b0 e2 a8 e3 bd a2 de 2c 3f 37 c8 ce 3e bf ca c8 bc
       -0.11116196 0.6752721 0.40387127 -0.02451074
0000c0 8b e2 28 3c fd 54 01 3f e7 6b a7 3e c0 9c 8a 3f
       0.010307918 0.50520307 0.3269951 1.0829086
0000d0 83 e0 14 3f 1f 51 1d 3f 6d 40 35 3f d4 a0 1c 3f
       0.5815508 0.61451906 0.7080143 0.61182904
0000e0 b8 4d 44 3e 3f 8a ce 3e 30 30 01 3f 7f c3 82 3f
       0.19170272 0.40339848 0.50464153 1.0215911
0000f0 0e 62 27 3f 18 d2 16 3f a4 98 77 3f 31 6c 59 3f
       0.65383995 0.5891433 0.96717286 0.8493071

first_h.4.bias f4 [64]
000000 ec 15 ba bf da b1 c5 be 47 64 b5 be 60 5d a9 be
       -1.453794 -0.38612252 -0.35428068 -0.33079052
000010 5b af 90 be b7 a1 46 bf 6a a1 a1 be 21 f8 db be
       -0.28258786 -0.7759051 -0.31568462 -0.42962745
000020 af 05 a8 bf 9f de 0f bf 20 63 8b be 13 b0 cb be
       -1.3126734 -0.5619907 -0.27224064 -0.3978277
000030 30 f0 18 be c3 59 42 bf 00 a2 8b bf 6a 58 c3 be
       -0.14935374 -0.75918216 -1.0908813 -0.38153392
000040 5d 31 4a be 1e 9d 97 be 07 01 da be 8e 48 90 bf
       -0.19745393 -0.29612058 -0.4257891 -1.1272142
000050 e1 cc 95 be a5 ae d7 be ec 91 c2 be 8b 18 f4 be
       -0.29257873 -0.4212543 -0.38001955 -0.47674975
000060 e7 12 86 be 27 91 f5 be e0 46 36 be aa 4f 98 bf
       -0.26186296 -0.47962305 -0.17800474 -1.1899312
000070 36 f0 89 be 56 bc d1 be 64 0e 77 bf 39 e8 f6 be
       -0.2694108 -0.40964 -0.96506333 -0.48224047
000080 ea b7 34 bf d5 59 a5 bf 8a d6 d9 be 77 85 ed be
       -0.7059313 -1.291804 -0.42546493 -0.46390888
000090 fd 2c ac be ea be 91 bf 76 94 26 bf 67 64 e1 be
       -0.33628073 -1.1386387 -0.65070283 -0.44021913
0000a0 c0 95 9d be ac 41 92 be c9 b0 16 bf 03 a6 9e be
       -0.30778313 -0.2856573 -0.588635 -0.30986032
0000b0 f8 8d 9c be 70 fe 89 be 15 3b 2d bf c7 b3 93 be
       -0.30577064 -0.26951933 -0.6766828 -0.28848097
0000c0 9b 0a 89 bf 3b 3c eb be 2d 07 8c be 71 1a 31 3e
       -1.0706362 -0.4594439 -0.27349225 0.17295243
0000d0 f4 0c 01 bf 86 6d 99 be 24 cf b7 be 0b 90 97 be
       -0.5041039 -0.29966372 -0.35900223 -0.29602084
0000e0 96 89 20 be 63 c6 8f be d6 e7 25 bf be cc da be
       -0.15677485 -0.28081045 -0.6480688 -0.4273433
0000f0 b7 50 aa be 11 c4 3d bf 1e b7 2a bf 43 56 1d bf
       -0.33264706 -0.741273 -0.66685665 -0.6145975

first_h.4.running_mean f4 [64]
000000 fd 24 53 41 2c 1b 76 be ae 0e 00 bf ea 28 cd bf
       13.19653 -0.24033803 -0.500224 -1.6028111
000010 a0 36 8e be 4d da 17 40 ad a2 fc be 3b 2d 7b bf
       -0.2777605 2.372699 -0.49342862 -0.9811589
000020 0e a3 0c bf eb cb 5a 3f ef 6c 9c 3e df ae 6b bf
       -0.549363 0.85467404 0.3055186 -0.9206371
000030 28 8f 68 3e ef f4 3c 40 f0 eb 8b 40 4f e9 95 3f
       0.2271086 2.9524496 4.372551 1.1711825
000040 d9 30 4b be 82 76 05 bd 8a 4c 88 be 72 8c 60 40
       -0.19842853 -0.03258372 -0.26620895 3.508572
000050 4b a3 a1 bf 4b e9 a3 3f aa 75 d5 be 2a 7e 71 3f
       -1.2627958 1.280557 -0.41691333 0.94333136
000060 b7 17 f1 be 1e 05 07 3f 05 2c 76 3e 59 28 db 3c
       -0.47088405 0.52742183 0.2404023 0.026752638
000070 ae f2 96 bf 89 33 c5 3f b4 d9 61 40 c0 47 0f 3f
       -1.179281 1.5406352 3.5289125 0.55968857
000080 a6 85 9f 3f 85 60 84 40 8b 69 5f 3f df a2 48 3f
       1.2462661 4.136782 0.8727042 0.7837352
000090 e2 05 0c bf dc 63 b1 40 ab f6 99 bf 5b 4b 9b 3f
       -0.54696476 5.54344 -1.2028402 1.2132372
0000a0 52 4f 25 be b2 57 b5 bf 43 ec 6a bd f5 74 5b bf
       -0.1614354 -1.4167387 -0.057354223 -0.8572534
0000b0 50 9e 13 40 e9 f0 f3 be 81 c4 c0 3f f7 9b 78 3e
       2.3065376 -0.47644737 1.5059968 0.24278246
0000c0 3f c0 1a 40 fe 67 bf 3f 2b db 85 3f d1 03 24 40
       2.4179838 1.4953611 1.045751 2.562733
0000d0 f1 8c aa 3f a9 a4 51 3e f7 14 6e 3d 42 bb 03 3f
       1.3324262 0.20472969 0.058125462 0.5145761
0000e0 4a d3 17 40 63 31 8f 3f d6 97 c6 bf 68 2a cb be
       2.372271 1.1186947 -1.5515087 -0.3968079
0000f0 c7 34 1d 3f 6b 4a dd 3e e6 a8 37 40 07 bc db be
       0.61408657 0.4322084 2.8696837 -0.4291689

first_h.4.running_var f4 [64]
000000 62 33 99 41 a3 36 a0 3e ab b8 84 40 a8 9d c5 41
       19.15009 0.31291685 4.1475425 24.70198
000010 02 91 19 3f f7 e4 19 41 90 3c 72 40 5f 8c 80 3f
       0.5998689 9.6184 3.7849464 1.0042838
000020 aa 62 86 3e 38 64 b3 3f 35 e8 c3 40 38 10 e2 3f
       0.2624715 1.4014959 6.1220956 1.76612
000030 36 17 70 3e 24 86 8b 40 90 4d f0 3f 04 83 0f 40
       0.23446354 4.3601246 1.877367 2.2423716
000040 25 90 15 3e cc 30 a6 40 98 3e 50 40 3d d8 17 40
       0.14605768 5.1934566 3.2538204 2.3725731
000050 0d 98 4d 40 e6 73 f3 40 93 ce 47 3f 50 d5 c3 40
       3.2124054 7.6078978 0.7804958 6.119789
000060 02 be 80 3f 41 19 2a 40 8d f4 b1 3e 86 1b 95 3f
       1.0057986 2.6577914 0.3475689 1.1649024
000070 5d 4a ae 40 75 64 df 40 fe 03 82 40 af 38 bd 40
       5.4465775 6.981013 4.0629873 5.9131694
000080 2a 2a e8 3e 5b 6d 2f 40 c5 0c a1 3e 2c a3 80 40
       0.4534467 2.7410495 0.31455055 4.0199184
000090 01 2c 33 40 2c 45 4e 41 41 be 19 41 9b 28 cf 3e
       2.7995608 12.891888 9.608949 0.40460667
0000a0 4d 8a 34 3f d4 85 36 40 eb 43 8d 40 5c da 2e 40
       0.7052353 2.8519182 4.414541 2.7320776
0000b0 f3 c9 3d 40 ba 06 2e 40 2a b4 15 40 6c 53 1d 3d
       2.965451 2.7191606 2.3391213 0.038409635
0000c0 06 f4 84 40 74 e8 d1 40 30 57 36 40 da 16 1b 42
       4.154788 6.5596256 2.8490715 38.772316
0000d0 95 66 b7 41 cd d9 ab 40 59 82 42 3f e3 be 05 40
       22.925089 5.370337 0.75980145 2.0897758
0000e0 44 bd 0a 40 f1 8b 78 3f 31 7d 4f 42 d8 eb a4 3f
       2.1678019 0.97088534 51.872257 1.2884474
0000f0 0d 94 df 3f ed 9f 80 40 13 4f 72 40 2d 16 cc 3f
       1.7467057 4.019522 3.7860763 1.5944268

nns.0.0.weight f4 [64, 64]
000000 1e 39 25 bd 15 5a 93 3d 8b 9d 9f bd 7e 34 0c be
       -0.040337674 0.07194916 -0.07793721 -0.13691899
000010 cf 57 cb bd b1 f6 1e be 78 fb 66 3d e5 4b 39 be
       -0.099288575 -0.15523793 0.056392163 -0.18095358
000020 f4 6c 8f be 8e 8b 7e bc c8 76 bf 3c 2c 46 e4 bd
       -0.28012812 -0.015536202 0.023372069 -0.11146197
000030 b9 51 1a be 76 0f f9 bd 4d 6e 0c be c5 d0 7d bd
       -0.15070237 -0.12161152 -0.13713951 -0.061966676
000040 5f 22 05 bd a5 e7 8e bb 3f 64 16 bd af fe 3d be
       -0.032503482 -0.0043611103 -0.036716696 -0.18554185
000050 74 5f 9a bc f7 9c 71 bd 64 ba a8 bc d5 0d 15 be
       -0.018844344 -0.058987584 -0.02059669 -0.14556058
000060 6c 80 ae bd a6 c9 98 bc df 73 53 3d e1 a4 46 3d
       -0.08520588 -0.018650841 0.051624175 0.048497085
000070 c9 dd 64 3c 81 98 2e be c3 37 94 bd 54 3d 76 3d
       0.013968893 -0.17050363 -0.07237198 0.06011708
000080 ef 8b 35 be ed ff fa bd 72 07 1a be fa a5 5c bd
       -0.17729162 -0.12255845 -0.15041903 -0.053869225
000090 09 af 2a 3d d4 aa 64 3e d2 0e 0c be d5 7a 66 3d
       0.041670833 0.22330791 -0.13677529 0.056269486
0000a0 1a 31 30 be fd 2b 3b 3d 72 2b 68 3d 4d b9 43 bd
       -0.17206231 0.045696247 0.056682058 -0.04778414
0000b0 76 47 56 3d 1a 64 74 3d 98 98 d0 bd 0e 74 75 3d
       0.052314244 0.059665777 -0.10185355 0.05992513
0000c0 9b 58 dd bc bd e0 61 bd f3 75 91 bd 22 1e a8 be
       -0.02701979 -0.055145968 -0.07102575 -0.3283549
0000d0 bc c1 b7 bd d1 92 0e be 34 77 8c be d9 c9 e3 bc
       -0.08972499 -0.13923194 -0.27434695 -0.02780621
0000e0 c1 ea 0d be 4d 9d e9 bd 68 dd c7 bd fa 9d 08 be
       -0.13859083 -0.11406956 -0.09759027 -0.13341513
0000f0 73 88 cc 3c d5 eb 0b be f4 9f ae bd 08 ac 50 bd
       0.024967408 -0.13664182 -0.085266024 -0.05094531
000100 72 ea 13 3f 85 bb af bd 17 0a d0 3c 35 5e 40 be
       0.5777961 -0.085806884 0.025395436 -0.18785937
000110 38 f9 8d be de 34 59 bd 70 2c be be a3 14 b4 bd
       -0.277292 -0.053028934 -0.37143278 -0.08792999
000120 5c b9 e4 bd 84 8c 4f 3e fb 60 1a bd 75 0c d1 3b
       -0.11168167 0.20268446 -0.037690144 0.006379659
000130 69 7d 94 be 84 fd b4 3d a8 29 83 3e 1b 9f c5 be
       -0.2900193 0.08837417 0.2561772 -0.3859795
000140 6b 42 f1 3d f1 47 a5 be 12 96 a1 3c 18 09 83 be
       0.11780246 -0.3228145 0.01972488 -0.25592875
000150 81 ab 8d bc 98 e4 20 bc 0f 01 3c ba 38 f6 95 3c
       -0.017293693 -0.009820126 -0.00071717886 0.018305883
000160 d0 02 f6 bd 29 2c cf 3a 25 2f 28 be b7 d7 d7 3d
       -0.12012255 0.0015806007 -0.16424234 0.10539191
000170 a2 a8 38 bd 8f 9e 4d be 6e 41 00 3e 5a d7 61 3d
       -0.045082696 -0.20080017 0.1252496 0.055137016
000180 2d 97 67 3e 80 02 39 3c 76 91 95 3d ad 28 41 be
       0.22616263 0.0112921 0.07303135 -0.18863173
000190 1a c1 0d be 1d 90 19 3f 8e 9b 7a 3d 70 55 4b bd
       -0.13843194 0.59985524 0.061183505 -0.049642026
0001a0 03 d1 15 3a 23 56 7e 3e 36 de 9f bc 8d e0 00 be
       0.0005715044 0.24837546 -0.019515138 -0.1258566
0001b0 62 05 63 3e b3 a3 f4 bd 32 f1 b8 3d 3a dd 1a 3d
       0.22170022 -0.11945286 0.09030379 0.037808634
0001c0 7b 25 2f 3e 09 dd cc 3d d7 9e ff 3b 10 01 e4 3e
       0.17104141 0.100030966 0.0078009176 0.4453206
0001d0 76 fc ef bd 04 6c 8b be a7 84 0a 3f 2e 5d 89 3d
       -0.11718075 -0.27230847 0.5410866 0.06707226
0001e0 01 fd d8 be 29 eb 83 be be e8 d1 3c cb 4d 70 3a
       -0.42380527 -0.2576535 0.025623675 0.00091668655
0001f0 fa 21 14 3e a7 df 74 3e 12 bd d7 3d 1a ff 46 bd
       0.14466086 0.23913442 0.10534109 -0.048583128
000200 59 64 61 3f 29 30 18 3e fd bd a9 bc d6 96 6c 3b
       0.88043743 0.14862122 -0.020720476 0.0036100647
000210 5a b8 85 be 04 73 2d 3f 6d 7c e7 3d d7 b8 85 3e
       -0.26117212 0.67753625 0.11303029 0.26117584
000220 0e c4 03 3e f3 61 19 3e 4c d2 dd bc a5 13 7e 3d
       0.12867758 0.14978771 -0.027077816 0.062030453
000230 61 32 ce bd e6 32 ef 3e 4a b5 01 3c 73 46 04 3f
       -0.10068203 0.4671852 0.007916758 0.51669997
000240 f6 30 4f bd 1f 4e 97 3c 74 ae 97 be 91 4c 86 3e
       -0.050583802 0.018469868 -0.29625285 0.2623029
000250 5b 76 b3 3c d1 a3 d1 bd 36 04 26 bd ee eb 3e 3e
       0.021907022 -0.102363236 -0.04053136 0.18644688
000260 0f af 8c be 9b 0c 56 3d 42 1b 39 be 1d 0f f4 3e
       -0.2747731 0.052258115 -0.18076804 0.4766778
000270 e3 90 ac 3d 90 2c 7e bd 79 54 9b bd 7e 83 2c 3d
       0.084260724 -0.062054217 -0.07584471 0.04211759
000280 06 b6 d1 3c 10 a2 02 3f 31 a4 ae 3e 81 a1 ac 3c
       0.02559949 0.5102854 0.34109643 0.021073105
000290 4e 40 2a be 70 b6 bb 3e 0a fb 9a bc 6c 93 6d 3e
       -0.16626093 0.36662626 -0.018918533 0.23200768
0002a0 ac e8 18 ba 18 68 29 3e c8 9b 52 bc 6a ad 39 3e
       -0.00058330107 0.16543615 -0.012854524 0.18132558
0002b0 68 67 68 3e 5e eb 36 be 20 d7 bc 3e 3f b1 a4 3d
       0.22695696 -0.17863223 0.36882877 0.080416195
0002c0 1a 2a 1d 3f a2 7d 04 3e bd 01 ec 3d 11 a1 c7 3e
       0.61392367 0.1293855 0.11523769 0.3899007
0002d0 c8 42 8e bd 01 ee b3 3d 8f f6 74 bd e7 05 4d 3b
       -0.06946331 0.0878563 -0.05980545 0.0031284036
0002e0 21 89 da bd 05 88 88 bd 25 e8 48 be 1f 85 cc 3d
       -0.106706865 -0.06666569 -0.19619806 0.09986328
0002f0 e1 51 04 3e f1 7c 77 3d db fa 99 3e 5f 35 00 3d
       0.1292186 0.060421888 0.300742 0.0313009
000300 5c ed af 3e 4f 25 a2 3d 39 96 34 3d 8f 04 38 3e
       0.34360778 0.07917272 0.044088576 0.17970489
000310 f2 c9 0d 3c 1c 24 be 3c 55 24 be 3d 58 8a 87 3d
       0.008654105 0.023210578 0.092842735 0.06618184
000320 67 7b 6e 3e 06 79 7a bc cc 08 93 3d 5a 54 00 3e
       0.23289262 -0.015287643 0.07179412 0.12532178
000330 ff f6 43 3e 0b 0f f4 3d f9 3f 07 3e eb 4d 35 be
       0.1913719 0.11916932 0.13207997 -0.17705505
000340 56 3c 02 3e c5 b7 53 3e 8f 1a 0e bd fa 81 37 3e
       0.12718329 0.20675571 -0.034693297 0.17920676
000350 45 14 e0 3d 3f 92 80 bb ad 00 da 3b 39 ab 68 bb
       0.10941366 -0.003923684 0.0066529126 -0.0035502447
000360 46 72 06 3e a7 21 71 3c 17 8d 42 3e 31 89 fe 3d
       0.1312953 0.014717496 0.18999134 0.12428511
000370 7b a0 61 3d a5 ca b8 3b ce 8b 58 3e 9c 12 0a 3e
       0.055084687 0.0056393915 0.21147081 0.13483661
000380 0c 40 92 3d a0 83 48 3e 42 c1 f5 3d 5b 54 53 bd
       0.07141122 0.19581461 0.119997516 -0.05159412
000390 01 9e b5 3d c3 d0 df 3e 59 ab 2c 3e 99 8e 2b 3e
       0.088680275 0.4371396 0.16862239 0.16753615
0003a0 dd 3c a2 bd 8e 44 07 bd c4 35 8d 3d f5 4a c3 bc
       -0.07921765 -0.033024363 0.068950206 -0.023839453
0003b0 8f c2 0c 3b 28 a4 1c 3e e7 23 9d bc 71 31 db 3d
       0.002147827 0.15296996 -0.019182159 0.107027896
0003c0 6a 77 fb 3d 79 9c 60 3d 26 81 b5 3d cb ff 59 be
       0.12278636 0.054836724 0.08862524 -0.21288984
0003d0 f8 d8 a9 bd 32 ba 75 3e c5 59 3e 3e e3 55 87 3d
       -0.08293337 0.23996809 0.18588932 0.066081785
0003e0 f2 c8 82 3e 7c 62 29 3d 95 73 a1 bc e9 38 74 bd
       0.25543934 0.041353688 -0.019708434 -0.059624586
0003f0 c2 21 40 3e 4a c3 20 3d b0 03 91 3c a7 ca ff 3d
       0.18762878 0.039248742 0.017701954 0.12489825

nns.0.0.bias f4 [64]
000000 cb dd 32 bd 08 ef 88 be 51 ac 12 be 73 ed 94 3c
       -0.04366855 -0.26744866 -0.14323546 0.01817963
000010 72 8c 5a bf 14 36 57 be 91 7a ab bd 8b 09 9f bf
       -0.8537055 -0.21016723 -0.08372987 -1.2424787
000020 ab 89 d1 be e7 a9 8b 3e 26 3a 6a 3e ff 3f 30 be
       -0.40925345 0.27278063 0.22873744 -0.17211913
000030 26 28 7e bd f5 6d ba be 01 da 37 be b0 3f 59 bf
       -0.062050007 -0.36412016 -0.17954256 -0.84862804
000040 b8 0d 86 3e ca 79 cd be bc c0 0c 3f d6 3f a4 3f
       0.26182342 -0.4013198 0.5498159 1.2831981
000050 bc c4 8a 3f f0 5c a5 bf d6 c9 91 bd 3b eb ad 3e
       1.0841289 -1.2918987 -0.07118575 0.3396853
000060 26 3b 69 3e ed 49 f7 bc e4 7d 0d 3e 06 6f 20 bf
       0.2277647 -0.030186618 0.13817555 -0.6266941
000070 24 d3 99 bd 47 7c ac 3e d4 50 c9 3d e7 fd 3d bf
       -0.07510975 0.33688566 0.0982987 -0.7421555
000080 b7 23 91 3e e1 d1 61 be a4 92 3f be c4 91 3a be
       0.2834756 -0.22052719 -0.18708283 -0.18219668
000090 ca 0d 25 3e 7a a3 ee be e3 62 6e be f0 e4 a9 be
       0.16118541 -0.46609098 -0.2327991 -0.33182478
0000a0 3e 63 85 3e f1 f9 fd bf de a0 1e be 71 6b 25 3e
       0.26052278 -1.9841901 -0.15491053 0.16154267
0000b0 a9 11 b2 be e3 b0 03 3f ef b6 80 3c 54 50 79 bd
       -0.347791 0.5144178 0.01571223 -0.060867622
0000c0 e7 66 1b bf fa 08 0e 3e d0 5c d1 be 4f 94 0e bf
       -0.6070389 0.13870612 -0.40891123 -0.5569505
0000d0 b4 b5 18 bf 92 c2 02 3e 04 74 84 be d7 77 5f be
       -0.59652257 0.12769535 -0.25869763 -0.21823059
0000e0 02 4b 0d bf 47 f7 09 3f 54 ca 39 bd 00 cb 46 3e
       -0.5519258 0.5389294 -0.04535897 0.19413376
0000f0 d2 e5 42 bf 5b 2b 11 3e 9d 33 f7 bc 9d 12 d8 bd
       -0.7613193 0.14176695 -0.030175978 -0.10550425

nns.0.1.weight f4 [64]
000000 ea 6f 0d 3f 42 fa aa 3f c2 35 c4 3e 87 a3 8d 3f
       0.5524889 1.3357623 0.38322264 1.106553
000010 6b d7 0e 40 fd 91 0e 3f 21 06 03 3f a1 c6 9f 3f
       2.231898 0.5569151 0.51181227 1.2482492
000020 02 ad 0d 40 d3 9e 7a 3f 4e 81 2e 3f 48 95 02 3f
       2.2136846 0.97898597 0.68166053 0.51009035
000030 16 6c 33 3f 3a 45 0c 3f 0d be 40 3f f9 b3 d8 3f
       0.700868 0.5479313 0.75289994 1.6929923
000040 d2 61 85 3f e4 c6 f2 3f 4b c8 57 3f b5 f6 d7 3f
       1.0420477 1.8966947 0.8429 1.6872164
000050 8a 12 b9 3f e6 f1 c5 3f 57 ec d7 3e a2 49 fa 3e
       1.4458783 1.5464447 0.421725 0.48884302
000060 f9 67 7e 3f f8 fc 23 3f a0 94 aa 3e 1e 73 de 3f
       0.993774 0.64057875 0.33316517 1.7378881
000070 b4 d1 c7 3f 47 f2 94 3f a3 93 d1 3f d0 31 86 3f
       1.5610871 1.1636437 1.637318 1.0483952
000080 48 d0 53 3f bf 3e 0b 3f e5 73 0a 40 ce e2 c9 3e
       0.82739687 0.5439262 2.1633236 0.3943085
000090 2c e3 88 3f c1 9e 78 3f 7b 26 9d 3f a5 ca 6a 3f
       1.0694327 0.9711724 1.2277368 0.9171546
0000a0 45 10 87 3f 96 12 8b 3f 35 e1 04 3f f7 8e b5 3f
       1.055184 1.0865047 0.5190614 1.4184254
0000b0 8b a7 7b 3f d1 e5 ba 3f af 92 57 3f 2a ee 00 3f
       0.98302525 1.4601384 0.84208196 0.5036341
0000c0 6b a9 c8 3e 7f eb 8a 3f af 1d ab 3f 74 00 ed 3f
       0.39191756 1.0853118 1.3368434 1.8515763
0000d0 86 1c 4b 3f 93 81 24 3f b5 c2 97 3f c1 f7 c3 3e
       0.793404 0.64260215 1.1856295 0.3827496
0000e0 b1 7a 9a 3f 88 1e 01 3f 0c c9 68 3f 98 46 a1 3f
       1.2068692 0.5043721 0.90931773 1.2599669
0000f0 20 04 21 3f fc 2c 59 3f 37 2f 46 3f 72 3c 49 3f
       0.6289692 0.84834266 0.77415794 0.7860786

nns.0.1.bias f4 [64]
000000 db 94 09 bf f0 8d ed 3d c7 b4 50 bf 71 9c 24 bf
       -0.5374276 0.11599338 -0.81525844 -0.6430121
000010 53 c2 4a bf bf 69 d7 be de 34 df be f4 b5 5a bf
       -0.79202765 -0.42072865 -0.43595022 -0.8543389
000020 c3 27 67 bf 13 7e c3 3e 95 3d ab be 79 ea 0d bf
       -0.90295047 0.38182124 -0.3344542 -0.554359
000030 b3 b4 b5 be 9f d7 b3 bd ef ea 09 bf 35 9c df 3e
       -0.35489425 -0.08781361 -0.53874105 0.43673864
000040 cc b9 97 3e 7c 4c 9d bf 78 5a db be 2a 92 3e bf
       0.2963394 -1.2288966 -0.4284246 -0.7444178
000050 f8 c6 3a be eb 89 e0 3c 93 cb fc be 92 9c 11 bf
       -0.18239963 0.027409514 -0.49374065 -0.5687953
000060 f1 38 a8 bc 7c b9 f0 3d 24 d5 cd be 1d ad 59 3f
       -0.020534964 0.11754128 -0.40201676 0.85029775
000070 bb c1 2e bf fa 4e 14 bf dc 85 80 be 4c 78 17 3f
       -0.6826436 -0.5793301 -0.25102127 0.59167933
000080 85 55 18 bf 09 ef dc 3d e3 69 2a 3f 0b 8c 02 3d
       -0.5950549 0.1078778 0.6656782 0.031871837
000090 5e 35 96 bf 07 da f7 3e 78 92 55 bf 99 ef 06 bf
       -1.1735036 0.4840853 -0.8342662 -0.52709347
0000a0 35 a6 1c 3e 63 8f 91 bf 01 6d e8 be 55 83 81 bf
       0.15297778 -1.1371883 -0.45395663 -1.0118204
0000b0 31 17 af 3e 9b 4c 92 3e ec 76 04 bf f8 25 04 bf
       0.3419738 0.2857407 -0.5174396 -0.51620436
0000c0 b2 b2 85 be 89 fc 22 bf 80 ac ee be af b8 1c 3f
       -0.26112896 -0.6366659 -0.46615982 0.61219305
0000d0 e6 cd 33 bf 12 d9 53 bf cb 96 e2 be d0 49 0e bf
       -0.7023605 -0.827531 -0.4425567 -0.5558138
0000e0 3d fa 28 bd 59 54 cb 3e db 2b 1b bf b0 ef bd bd
       -0.04125427 0.3971279 -0.60613793 -0.092742324
0000f0 3a 74 a0 be 9d 32 ed bd 6d 9c a4 bf 7b ce ec be
       -0.31338674 -0.11581919 -1.2860237 -0.46251282

nns.0.1.running_mean f4 [64]
000000 6f 3e fe be 2e 5d c0 3e 4c b8 e1 3e 40 d1 82 be
       -0.49657008 0.3757109 0.4408592 -0.2555027
000010 a6 fa 15 bf 2f 42 2f bf 41 fe 1b be e6 a0 8b bf
       -0.58585584 -0.68460363 -0.15233709 -1.0908477
000020 13 e5 cb 3e 16 46 b0 be 1a 0a 0f be 46 5d 9b be
       0.39823207 -0.3442847 -0.13968697 -0.303446
000030 9f 53 10 bf e2 33 7d bf 68 7d b8 be 10 52 80 bd
       -0.56377596 -0.9890729 -0.36033177 -0.06265652
000040 49 df f9 bb 04 2f 1e bf 85 e5 63 3e 79 95 dd 3f
       -0.0076254946 -0.6179049 0.22255524 1.731124
000050 15 90 11 40 a5 df f5 bf d9 85 56 bf 2a 4a cd be
       2.274419 -1.9208876 -0.83797985 -0.40095645
000060 55 6a 5c 3f 9f 93 7d bf e3 0c 22 be 62 f3 34 bc
       0.8609975 -0.99053377 -0.15825228 -0.011044355
000070 24 df fd be f2 85 62 bd fe 8c 42 be 10 7e 6a bf
       -0.49584305 -0.05530352 -0.18999097 -0.91598606
000080 ae d9 07 3e 25 ab 0d bf 1b b3 29 3e 54 bd 32 bf
       0.13266632 -0.5533927 0.1657223 -0.6982014
000090 38 d1 36 be 81 82 4c bf c6 0d 0a bf 83 d8 2e bf
       -0.17853248 -0.79886633 -0.53927267 -0.6829912
0000a0 84 52 70 3f 7a df d6 bf 92 22 d3 be 28 53 f5 bd
       0.9387591 -1.678695 -0.41237313 -0.119787514
0000b0 94 9b 55 bf d9 57 75 3f 91 a9 9c 3e 97 ea 4f bf
       -0.8344052 0.9583717 0.3059812 -0.8121733
0000c0 48 be 21 bf f8 18 bf bf bb b3 cc bd 59 f9 85 bf
       -0.6318097 -1.4929495 -0.09995218 -1.046672
0000d0 74 9a 9f be da ba b4 be d9 8d 32 bf 39 b3 b6 be
       -0.31172526 -0.35298806 -0.6974769 -0.3568361
0000e0 25 92 6c be f3 cd ed bd cc 1e b6 be 7c ea 29 3f
       -0.23102625 -0.11611547 -0.3557037 0.6637342
0000f0 28 f8 8c bf 2f ac 8a bd cb 22 f6 be 4e d0 9e be
       -1.1013231 -0.06771123 -0.4807342 -0.310183

nns.0.1.running_var f4 [64]
000000 ff 91 ad 3f 60 7c 33 40 eb 96 28 40 5f 0e 2e 3f
       1.356018 2.8044662 2.6342113 0.6799068
000010 b3 ed 4b 40 22 46 be 3f 34 be 1d 3e df 2e b6 3e
       3.186383 1.4865153 0.15404588 0.35582635
000020 f6 cb 96 40 82 eb 1f 40 06 c5 62 3f d7 21 e7 3d
       4.7123976 2.4987493 0.88581884 0.11285751
000030 a8 63 d4 3f 1c da 26 40 7a 40 8b 3e 08 08 81 40
       1.6592913 2.6070623 0.2719763 4.0322304
000040 fc 1d 01 3f 4b b0 c5 3f 5d 69 36 3f c7 69 e6 3f
       0.5043638 1.5444425 0.7125452 1.8001031
000050 5b a8 16 41 03 ee 25 40 75 ee 76 40 59 0a 6a 40
       9.416102 2.592652 3.8583043 3.6568816
000060 4c c0 27 40 d7 b2 c1 40 f7 af 14 3f 8d ce 38 40
       2.6211119 6.053081 0.58081 2.8876069
000070 13 b8 ce 3f 0f 24 d6 3f db 01 75 3f b0 d9 81 3e
       1.6149925 1.6729754 0.95705956 0.25361395
000080 48 a6 19 3e 3c 35 39 3f 3b c8 a6 3f 77 f6 de 3f
       0.15004838 0.72346854 1.3029855 1.7418965
000090 10 29 44 3f 59 00 3d 3f 10 ac 59 3f fa 52 5d 3f
       0.76625156 0.73828655 0.8502817 0.8645474
0000a0 54 12 51 40 95 e4 2f 3f 9a fa dd 3e d6 a1 5d 3f
       3.2667437 0.68708163 0.43355256 0.8657507
0000b0 93 dc c5 3f 64 5f 07 40 20 7b 64 3f 62 c0 6b 40
       1.5457939 2.1151972 0.89250374 3.683617
0000c0 bc 0d f6 3d a6 81 8b 41 19 22 2a 3f cb 48 c9 3f
       0.120143384 17.438305 0.6645828 1.572534
0000d0 b2 97 1d 3f fb d7 c3 3f d2 e9 a0 3f 33 37 0e 3e
       0.61559594 1.5300287 1.2571356 0.13888244
0000e0 a9 de 6e 3f 11 7b 33 40 99 6f 46 3f 41 69 cc 3f
       0.933085 2.8043864 0.77514035 1.5969621
0000f0 c1 08 49 3f a1 53 99 3e 28 45 e3 3f 38 e6 97 3e
       0.7852898 0.29946616 1.775548 0.2966783
