test/result/experiment_07.21.2022_13.00.57/4/fold_4_state_dict.pt (torch, 196713 bytes, 118 tensors)

first_h.0.weight f4 [64, 3]
-0.44839853 -0.053476732 0.5241739 -0.3969434 0.0840722 0.23852633 0.092171185 -0.7689948
-0.113252066 0.4778454 -0.47968546 -0.000944474 -0.2922927 -0.058887985 0.29454386 0.051819913
-0.42414734 0.34222206 0.5892636 0.07115738 0.039199308 0.42135993 0.26941738 -0.23746991
0.1607366 -0.6497909 -0.44809398 -0.12086511 -0.21020691 0.21918352 0.16005807 -0.50652844
-0.43932524 -0.27173442 0.5210066 -0.4062335 0.4455025 -0.45791754 -0.23506257 -0.12901619
-0.29867896 0.35057732 0.033641357 -0.4129693 -0.3771612 -0.08443526 0.94764 0.018472556
0.13567632 -0.28146946 0.04952872 -0.25646678 0.43451965 0.08770361 -0.08162248 0.26311055
-0.22360903 0.16633897 0.2586573 -0.0021705518 -0.32140875 -0.23267587 -0.698981 -0.30958763
0.27272478 0.30795208 -0.39275116 0.26386943 -0.048268415 0.092791185 0.6819997 -0.69522476
0.18563144 0.19906384 -0.12660111 -0.324756 -0.14590198 -0.19670524 -0.17720267 0.6755826
-0.45178285 -0.671765 -0.07568324 -0.19494563 0.7423646 0.39554596 -0.062955275 0.18030334
-0.76479745 -0.16767907 -0.3349999 0.13340147 -0.12386655 0.08115726 0.42099485 0.667553
0.5782868 -0.38444737 0.19367673 0.57452667 -0.016699616 0.18005714 0.103089005 -0.0067011286
-0.25769562 -0.19520874 0.28009295 -0.32957548 0.16735663 -0.11087344 -0.423309 -0.0995975
-0.22970194 0.55451876 -0.31729227 0.5309177 0.2975925 0.56758666 -0.07821943 -0.11434074
-0.26409817 0.40174794 0.58346313 -0.10683687 0.055106543 0.037582126 0.09678168 -0.47581315
-0.4261802 0.18425411 0.073800944 0.4094613 -0.4003971 0.19310051 0.21528861 -0.24012269
-0.14120497 -0.16400342 -0.5508949 -0.34494972 0.08647511 0.3837902 0.56323636 0.08728098
-0.39455855 -0.22199462 0.073533505 -0.1995728 0.3814005 -0.10259532 0.080448344 0.47728932
-0.9501925 -0.22328909 -0.28677222 -0.17620441 0.4005973 0.045323983 -0.47380978 0.0357942
0.5281159 0.2424648 -0.16352165 0.1242659 -0.12976949 -0.12948427 0.5613095 0.2341491
-0.4222459 0.3967658 -0.19340812 -0.1867112 0.35673407 0.39843842 -0.31902388 0.21772522
0.49701324 -0.33664814 -0.51427364 0.032321885 0.38853714 0.40213096 -0.57501316 -0.24608035
0.22645961 -0.3380318 0.05775604 -0.13197803 0.07838952 -0.09100204 -0.4559321 -0.38022143
00000000: 7e94 e5be 6b0a 5bbd 4330 063f 2a3c cbbe
00000010: 0c2e ac3d 3f40 743e 3fc4 bc3d d8dc 44bf
00000020: b3f0 e7bd 27a8 f43e 5599 f5be 9496 77ba
00000030: 64a7 95be 8734 71bd 74ce 963e 1e41 543d
00000040: d729 d9be bb37 af3e fbd9 163f f6ba 913d
00000050: 748f 203d 7dbc d73e 13f1 893e 502b 73be
00000060: 2398 243e b258 26bf 936c e5be 2088 f7bd
00000070: 7b40 57be a571 603e 43e6 233e d9ab 01bf
00000080: 3def e0be c620 8bbe b060 053f d6fd cfbe
00000090: e718 e43e 2b74 eabe 3eb4 70be d21c 04be
000000a0: 73ec 98be df7e b33e 85cb 093d b670 d3be
000000b0: 461b c1be 65ec acbd 8998 723f c253 973c
000000c0: bcee 0a3e c41c 90be a1de 4a3d 9d4f 83be
000000d0: 5c79 de3e f39d b33d b029 a7bd 6db6 863e
000000e0: c4f9 64be c354 2a3e bb6e 843e d13f 0ebb
000000f0: b08f a4be 9542 6ebe 6bf0 32bf 4582 9ebe
00000100: 95a2 8b3e e5ab 9d3e ae16 c9be e519 873e
00000110: 1ab5 45bd 4e09 be3d 8897 2e3f 40fa 31bf
00000120: 2b16 3e3e 64d7 4b3e b9a3 01be 6b46 a6be
00000130: 5467 15be 196d 49be 9e74 35be fbf2 2c3f
00000140: 1550 e7be cbf8 2bbf d1ff 9abd d49f 47be
00000150: 9b0b 3e3f 0085 ca3e b2ee 80bd 70a1 383e
00000160: c4c9 43bf 10b4 2bbe 1b85 abbe 659a 083e
00000170: bfad fdbd c735 a63d a38c d73e c1e4 2a3f
00000180: 9b0a 143f 49d6 c4be 3153 463e 2e14 133f
00000190: a2cd 88bc e660 383e 5420 d33d 2495 dbbb
000001a0: aef0 83be cde4 47be 5868 8f3e 1ebe a8be
000001b0: 895f 2b3e 9d11 e3bd f5bb d8be c6f9 cbbd
000001c0: fc36 6bbe f1f4 0d3f 2274 a2be 39ea 073f
000001d0: 0b5e 983e 5c4d 113f 8231 a0bd 7a2b eabd
000001e0: e037 87be e8b1 cd3e d75d 153f 4acd dabd
000001f0: 66b7 613d b7ef 193d 7935 c63d c89d f3be
00000200: 4b34 dabe 1cad 3c3e f324 973d e9a4 d13e
00000210: d900 cdbe 24bc 453e 9e74 5c3e b9e2 75be
00000220: 0998 10be 83f0 27be 7307 0dbf 409d b0be
00000230: dd19 b13d 2680 c43e 4230 103f 5fc0 b23d
00000240: 9403 cabe 8f52 63be bc98 963d d05c 4cbe
00000250: ed46 c33e 7f1d d2bd 1ac2 a43d 445f f43e
00000260: d13f 73bf e5a5 64be cfd3 92be ee6e 34be
00000270: 171b cd3e a4a5 393d 3297 f2be f09c 123d
00000280: 9b32 073f b148 783e 3872 27be 1f7f fe3d
00000290: 4be2 04be 8697 04be fbb1 0f3f c8c4 6f3e
000002a0: 9d30 d8be e324 cb3e c70c 46be 3931 3fbe
000002b0: d9a5 b63e 1f00 cc3e 1957 a3be 5cf3 5e3e
000002c0: 8578 fe3e 255d acbe 70a7 03bf f463 043d
000002d0: 57ee c63e 1ce4 cd3e 1034 13bf 7dfc 7bbe
000002e0: 07e5 673e 8112 adbe 9991 6c3d 4025 07be
000002f0: af8a a03d 475f babd ef6f e9be 62ac c2be

first_h.0.bias f4 [64]
0.15101613 -0.06227145 -0.02060473 0.09030918 0.1446172 -0.29602736 -0.18130338 -0.4322653
-0.050895773 -0.06580398 0.3566452 0.15702699 -0.22601858 0.35825062 -0.16839677 -0.08000792
-0.36431724 0.34060276 -0.11304652 0.32809073 -0.51884437 0.5223009 0.5056103 -0.44284436
0.5665054 0.29575646 0.093601756 0.32637987 -0.18951605 0.3829104 -0.51088643 -0.5482384
0.5100397 -0.4492213 -0.4417258 0.12015365 0.013210841 0.25404608 -0.15361018 0.4370798
0.14509837 0.040217638 -0.29197097 0.5422168 -0.1513355 0.0110020405 -0.31473005 -0.09728255
0.4225997 0.4832598 -0.4073069 -0.0157538 -0.20636433 -0.27886632 -0.06728704 0.0011001624
-0.16273506 -0.040949058 -0.4931945 0.08790567 0.14943719 0.46374404 0.53544146 -0.5573327
00000000: f9a3 1a3e 5910 7fbd 40cb a8bc 05f4 b83d
00000010: 8816 143e e690 97be 98a7 39be e151 ddbe
00000020: 1678 50bd 3dc4 86bd 339a b63e afcb 203e
00000030: 6a71 67be a06c b73e 3470 2cbe 31db a3bd
00000040: ca87 babe 7c63 ae3e ef84 e7bd 82fb a73e
00000050: fcd2 04bf 83b5 053f ad6f 013f 7fbc e2be
00000060: 7f06 113f 646d 973e 47b2 bf3d 431b a73e
00000070: 7f10 42be d50c c43e 74c9 02bf 5a59 0cbf
00000080: f691 023f 5600 e6be e229 e2be 1e13 f63d
00000090: 4972 583c 5412 823e fd4b 1dbe ecc8 df3e
000000a0: ab94 143e 40bb 243d 387d 95be b8ce 0a3f
000000b0: b1f7 1abe e741 343c 4c24 a1be 133c c7bd
000000c0: fd5e d83e d46d f73e 888a d0be 1d0e 81bc
000000d0: 2c51 53be 91c7 8ebe cacd 89bd 5333 903a
000000e0: 05a4 26be 33ba 27bd fd83 fcbe e307 b43d
000000f0: 1006 193e dc6f ed3e b112 093f 5bad 0ebf

first_h.1.weight f4 [64]
0.9943036 1.2442933 0.86919093 0.908892 1.0248336 1.044328 1.0789557 0.9020612
0.93156964 1.2064708 1.0142826 1.4085821 0.9439791 1.3875788 0.79448617 0.9401875
1.0036416 1.1014307 1.1159432 1.0600034 0.9440165 1.0363197 1.123388 1.0301793
0.91199654 1.0788838 1.0129824 1.187703 1.0056612 0.6502393 1.1519389 1.2757819
0.91262263 0.9857072 0.9777369 1.3106936 0.9259409 1.16089 1.1190181 1.03038
1.4676474 1.1720186 0.90272886 1.0413085 1.1711408 1.0313681 1.2257203 1.0254081
0.978552 0.91021556 0.9211142 1.0970726 1.0270051 0.89548373 1.2889087 0.9468821
1.1200745 1.096297 1.0505537 0.99201983 0.90101814 0.99963534 0.94543225 1.2046548
00000000: ae8a 7e3f 0145 9f3f 4c83 5e3f 25ad 683f
00000010: bf2d 833f 8aac 853f 381b 8a3f 7ced 663f
00000020: 597b 6e3f a36d 9a3f 03d4 813f 6b4c b43f
00000030: 9da8 713f 2f9c b13f 7263 4b3f 21b0 703f
00000040: 5477 803f aefb 8c3f 3ad7 8e3f 31ae 873f
00000050: 11ab 713f 20a6 843f 2ecb 8f3f eadc 833f
00000060: 9b78 693f dd18 8a3f 68a9 813f a706 983f
00000070: 82b9 803f 1576 263f bc72 933f d24c a33f
00000080: a3a1 693f 4f57 7c3f f74c 7a3f cfc4 a73f
00000090: 760a 6d3f 0b98 943f fc3b 8f3f 7ee3 833f
000000a0: dfdb bb3f b504 963f 3d19 673f 9949 853f
000000b0: f1e7 953f df03 843f 67e4 9c3f 9340 833f
000000c0: 6282 7a3f e303 693f 24ce 6b3f e06c 8c3f
000000d0: e774 833f 6c3e 653f f6fa a43f de66 723f
000000e0: 9a5e 8f3f 7653 8c3f 8b78 863f 03f5 7d3f
000000f0: 20a9 663f 1ae8 7f3f d907 723f 2132 9a3f

first_h.1.bias f4 [64]
-0.114417575 0.05027373 -0.053275455 0.09327805 -0.124026515 -0.009714068 0.10102221 0.092078164
0.08554126 0.062092006 0.03215067 0.06364261 0.109437995 0.043896254 -0.038763653 0.043996666
-0.05970835 -0.039252106 0.07106293 -0.03665687 0.10273133 -0.112218685 -0.014829199 0.108432546
0.007964876 -0.051430408 0.1036781 0.03631939 0.09397825 0.06538846 0.056165293 0.15780237
0.060128745 0.08351277 -0.04991686 -0.1770273 -0.043226704 0.04063137 -0.117413014 -0.013159417
-0.19873792 0.076178856 0.09213953 -0.023650704 0.05171848 -0.13866036 -0.1554357 -0.06273752
-0.1080199 0.10353825 0.09394898 0.058568 0.09668841 0.10755274 0.047128007 0.0670851
0.08986005 -0.1098243 -0.12671652 -0.12758914 0.088277794 0.0953508 -0.056938756 -0.049699575
00000000: c353 eabd d4eb 4d3d 5d37 5abd 9008 bf3d
00000010: 9d01 febd c127 1fbc bce4 ce3d 7a93 bc3d
00000020: 4230 af3d 3054 7e3d 6cb0 033d 0f57 823d
00000030: 0721 e03d 8fcc 333d a3c6 1ebd d935 343d
00000040: be90 74bd d1c6 20bd 7189 913d 8425 16bd
00000050: ce64 d23d e9d2 e5bd 2bf6 72bc e211 de3d
00000060: 1c7f 023c b1a8 52bd 2f55 d43d a4c3 143d
00000070: ab77 c03d 63ea 853d 940d 663d f296 213e
00000080: 8f49 763d be08 ab3d 9f75 4cbd a546 35be
00000090: 7c0e 31bd 146d 263d 3c76 f0bd 989a 57bc
000000a0: f481 4bbe a903 9c3d a6b3 bc3d 1fbf c1bc
000000b0: c2d6 533d fbfc 0dbe 892a 1fbe 877c 80bd
000000c0: 8a39 ddbd dd0b d43d 5368 c03d 00e5 6f3d
000000d0: 9304 c63d 9c44 dc3d 4c09 413d ea63 893d
000000e0: 8c08 b83d 90eb e0bd fac1 01be baa6 02be
000000f0: fdca b43d 4847 c33d 9d38 69bd c891 4bbd

first_h.1.running_mean f4 [64]
-705362.25 -615485.3 145213.31 758036.4 -460713.0 81448.89 923292.8 664863.75
269318.47 -190465.86 281355.7 -422782.78 708843.44 -203783.55 52818.285 -152712.66
213091.08 -412031.44 -128167.336 260103.78 -502670.2 -487326.75 -610626.9 146494.88
291996.75 -512714.3 -279811.97 -1.0564295e+06 1.1627612e+06 283233.94 -525329.8 127459.86
908651.56 898996.5 161479.44 -306104.97 263532.62 -153977.77 -499252.25 893058.7
-418172.47 -167066.4 230644.75 291473.4 -625735.8 -376833.78 -865453.94 596181.25
-619512.94 -310850.12 127415.26 -351142.72 657153.8 56244.504 -256386.02 -210115.27
-655012.5 -299665.25 -501812.2 -529098.3 626027.8 -386489.28 90772.47 -143533.94
00000000: 2435 2cc9 d543 16c9 54cf 0d48 4611 3949
00000010: 20f5 e0c8 7214 9f47 cd69 6149 fc51 2249
00000020: cf80 8348 7700 3ac8 7661 8948 d96f cec8
00000030: b70e 2d49 e301 47c8 4952 4e47 2a22 15c8
00000040: c518 5048 ee2f c9c8 ab53 fac7 f201 7e48
00000050: c671 f5c8 d8f3 edc8 2e14 15c9 b80f 0f48
00000060: 9893 8e48 4a59 fac8 7fa0 88c8 6cf5 80c9
00000070: 4af0 8d49 3e4c 8a48 1d41 00c9 eef1 f847
00000080: b9d6 5d49 487b 5b49 dcb1 1d48 1f77 95c8
00000090: 94ad 8048 715e 16c8 88c6 f3c8 2b08 5a49
000000a0: 8f2f ccc8 9a26 23c8 303d 6148 2d52 8e48
000000b0: 7dc4 18c9 3900 b8c8 df4a 53c9 548d 1149
000000c0: 8f3f 17c9 44c8 97c8 a1db f847 d774 abc8
000000d0: 1d70 2049 81b4 5b47 8160 7ac8 d130 4dc8
000000e0: 48ea 1fc9 2852 92c8 8606 f5c8 a52c 01c9
000000f0: bdd6 1849 29b7 bcc8 3c4a b147 7c2b 0cc8

first_h.1.running_var f4 [64]
1.6064428e+13 1.2219768e+13 6.809839e+11 1.8564126e+13 6.8541827e+12 2.1418928e+11 2.751688e+13 1.4275876e+13
2.361069e+12 1.1714514e+12 2.5987837e+12 5.767252e+12 1.6235653e+13 1.3411758e+12 9.009272e+10 7.6714036e+11
1.4660424e+12 5.492093e+12 5.303255e+11 2.1839206e+12 8.155379e+12 7.668453e+12 1.2029643e+13 6.9308776e+11
2.753078e+12 8.4905846e+12 2.5295074e+12 3.6034516e+13 4.3640395e+13 2.5902637e+12 8.908588e+12 5.2440547e+11
2.6655913e+13 2.6085698e+13 8.4172394e+11 3.0247339e+12 2.2424527e+12 7.644934e+11 8.048139e+12 2.5751361e+13
5.6445753e+12 9.007874e+11 1.8323833e+12 2.74379e+12 1.2635603e+13 4.5844073e+12 2.4182132e+13 1.146951e+13
1.2390787e+13 3.13094e+12 5.2447193e+11 3.9809746e+12 1.3995066e+13 1.0210525e+11 2.121935e+12 1.4294077e+12
1.3840441e+13 2.9046824e+12 8.1306116e+12 9.038615e+12 1.2679838e+13 4.8223586e+12 2.660215e+11 6.652908e+11
00000000: a8c4 6955 2fd2 3155 ce8d 1e53 6112 8755
00000010: a47b c754 b47a 4752 2f36 c855 c8bd 4f55
00000020: ab6e 0954 f95f 8853 e544 1754 60d9 a754
00000030: 8542 6c55 2722 9c53 8ecf a751 219d 3253
00000040: 78ab aa53 48d7 9f54 baf3 f652 e83d fe53
00000050: 4f5a ed54 6d2e df54 ea0d 2f55 405f 2153
00000060: 0f40 2054 c91b f754 993c 1354 c217 0356
00000070: 49c3 1e56 f0c5 1654 14a3 0155 0132 f452
00000080: 82f2 c155 66cc bd55 a8fa 4353 0c10 3054
00000090: 2687 0254 5cff 3153 4f3b ea54 a65d bb55
000000a0: 5d47 a454 1dbb 5153 4751 d553 a8b5 1f54
000000b0: 4adf 3755 7f6c 8554 bbf2 af55 41e7 2655
000000c0: 474f 3455 a43e 3654 ed39 f452 25b9 6754
000000d0: afa7 4b55 942f be51 9706 f753 ab67 a653
000000e0: a967 4955 2413 2954 c7a1 ec54 7787 0355
000000f0: 1484 3855 5f59 8c54 78c0 7752 6ce6 1a53

first_h.3.weight f4 [64, 64]
-0.013087328 -0.28748342 0.077147946 0.07190479 -0.10922065 0.13658518 0.091427356 0.17904511
0.072984226 -0.3636782 0.12676845 -0.3068178 0.051103078 -0.14769876 -0.096477665 -0.09363611
-0.030748382 0.04323648 -0.36449707 0.068464346 0.060304448 -0.15510538 -0.116234064 0.1213126
0.024856642 -0.012384983 0.095251076 -0.20159695 0.19427924 0.09926807 -0.2791796 0.048648015
0.085959144 0.032567926 0.035292942 -0.15907925 0.005023859 -0.14438865 0.06582353 0.09516089
-0.1473433 -0.26160553 0.19903904 0.06432033 -0.1741415 -0.093951434 -0.08285588 -0.06038849
-0.02362362 0.13840215 0.14194222 -0.29904094 0.15979303 -0.04124287 -0.23736353 -0.0547062
-0.15961988 0.05083676 -0.03700224 0.0037489163 0.1102927 0.0141191175 0.077620246 -0.13395396
-0.07754567 -0.02736707 -0.0075530875 -0.1657531 -0.051275622 -0.037083928 -0.07843369 -0.085656434
0.026647657 0.04085554 0.017034147 0.10479146 -0.08384863 -0.07336461 -0.0007835085 -0.011688003
-0.07472716 -0.14278547 0.013720848 0.05390175 -0.16242675 0.030621652 0.07444958 -0.111103386
-0.13927297 0.12334033 -0.18251315 -0.02987129 -0.0679398 0.09993324 0.090618625 -0.05050231
-0.10915977 -0.06749923 -0.1252933 0.11559309 -0.044334516 -0.0024401355 0.12260704 -0.079613045
-0.08069669 0.03328135 0.0017731612 -0.09940523 0.11554769 -0.013593034 -0.01525199 0.022883294
0.02477118 0.025884183 0.018543122 0.10843358 -0.17960826 -0.060730126 -0.048042208 0.007971607
0.048100915 0.002481856 0.0011222892 0.059599146 -0.006885454 -0.13201413 -0.04144921 -0.017551327
0.0295089 0.10709686 0.09028894 0.024792152 0.048311528 0.17267986 -0.03719023 0.18024889
-0.055546746 0.10287662 0.058559325 0.042856704 -0.03371346 0.17268841 -0.04308973 0.059918042
0.12989491 -0.059387267 -0.02533575 0.09254017 -0.032858424 0.0153950155 0.06596035 0.11394319
0.080027014 -0.011579343 0.067151114 0.007483353 -0.040097203 0.05758088 0.18427794 0.16900128
0.0697386 0.09835184 -0.032521777 0.06849516 -0.05863699 -0.03577482 0.126192 0.15004425
-0.044816658 0.16127369 0.14038123 0.011111532 0.13757306 0.10270938 -0.042369585 -0.035163634
0.018079448 -0.0047208252 0.10687537 -0.033045076 0.09432693 -0.075186424 -0.022217307 0.029643804
0.08646173 0.10031769 -0.006950489 0.012751473 0.18510872 0.14280072 0.062436692 -0.043687005
-0.38121182 -0.0046836752 -0.11209929 -0.034441806 -0.25290388 -0.117948435 -0.14013112 -0.10371422
-0.038311798 0.04046715 -0.05623648 -0.14036262 -0.060437873 -0.013572789 0.1828986 0.059342295
0.019497953 -0.044212937 -0.16731332 -0.004241532 -0.13505471 -0.40811974 -0.12854 -0.04530912
-0.11589657 -0.13310736 0.036110256 -0.11897352 -0.08494115 0.0727848 -0.15846361 -0.20590116
-0.15066285 0.0878509 0.11451436 -0.25956511 0.08683733 -0.13993178 -0.37111855 -0.105488576
-0.20659094 -0.016401041 -0.13170101 0.036695596 -0.042823505 -0.21090142 -0.3298675 -0.113198854
-0.25676817 -0.025734426 0.0007856193 -0.036408443 0.0095971245 -0.0880532 -0.16244276 -0.14477034
-0.1671198 -0.021160273 -0.2301753 -0.19847833 0.021253124 -0.046137985 0.082816035 -0.2841826
00000000: 3b6c 56bc 0731 93be beff 9d3d d242 933d
00000010: 13af dfbd fcdc 0b3e 443e bb3d 9a57 373e
00000020: c178 953d 0734 babe 97cf 013e 3917 9dbe
00000030: 7651 513d 583e 17be 1596 c5bd 4ac4 bfbd
00000040: 08e4 fbbc bc18 313d 5c9f babe 0937 8c3d
00000050: cc01 773d f2d3 1ebe 200c eebd be72 f83d
00000060: 28a0 cb3c 62ea 4abc ff12 c33d 6e6f 4ebe
00000070: 23f1 463e 0f4d cb3d a1f0 8ebe 2443 473d
00000080: 590b b03d f265 053d 558f 103d ace5 22be
00000090: 2f9f a43b 9eda 13be 7dce 863d b6e3 c23d
000000a0: 29e1 16be 29f1 85be e4d0 4b3e 61ba 833d
000000b0: 2652 32be 9c69 c0bd 58b0 a9bd ec59 77bd
000000c0: 5286 c1bc 4bb9 0d3e 4d59 113e e51b 99be
000000d0: c9a0 233e 49ee 28bd 6d0f 73be 9c13 60bd
000000e0: 6573 23be 353a 503d a98f 17bd 61b0 753b
000000f0: 24e1 e13d df53 673c 5df7 9e3d 3a2b 09be
00000100: 44d0 9ebd e830 e0bc e47f f7bb 2ebb 29be
00000110: 6306 52bd 51e5 17bd d8a1 a0bd a46c afbd
00000120: 304c da3c 2458 273d 328b 8b3c e89c d63d
00000130: d5b8 abbd 2f40 96bd 5e64 4dba 0a7f 3fbc
00000140: 8e0a 99bd 5b36 12be 68cd 603c 15c8 5c3d
00000150: 3353 26be 42da fa3c 0579 983d 2c8a e3bd
00000160: 939d 0ebe db99 fc3d bae4 3abe a3b4 f4bc
00000170: 0624 8bbd cca9 cc3d 4296 b93d 83db 4ebd
00000180: 288f dfbd 093d 8abd e34c 00be 12bc ec3d
00000190: 1c98 35bd aeea 1fbb 6619 fb3d 2a0c a3bd
000001a0: 4e44 a5bd 0652 083d 6b69 e83a f894 cbbd
000001b0: 44a4 ec3d 51b5 5ebc 7ce3 79bc bf75 bb3c
000001c0: eeec ca3c 110b d43c bfe7 973c 6d12 de3d
000001d0: 3aeb 37be 27c0 78bd e8c7 44bd 589b 023c
000001e0: 7705 453d a2a6 223b c719 933a 3c1e 743d
000001f0: 609f e1bb b62e 07be a6c6 29bd cdc7 8fbc
00000200: a6bc f13c 9955 db3d 68e9 b83d e918 cb3c
00000210: 4fe2 453d fdd2 303e c854 18bd 2a93 383e
00000220: fc84 63bd fab0 d23d e7db 6f3d 838a 2f3d
00000230: 2017 0abd 3bd5 303e db7e 30bd 9f6c 753d
00000240: 2c03 053e 1040 73bd eb8c cfbc b385 bd3d
00000250: 8e96 06bd 603b 7c3c 3816 873d 0c5b e93d
00000260: 34e5 a33d 49b7 3dbc 8686 893d ea36 f53b
00000270: f73c 24bd eed9 6b3d 5bb3 3c3e ac0e 2d3e
00000280: 1cd3 8e3d b16c c93d 8e35 05bd 3147 8c3d
00000290: 572d 70bd 9e88 12bd 7a38 013e 33a5 193e
000002a0: ac91 37bd ee24 253e 19c0 0f3e 250d 363c
000002b0: f4df 0c3e 4c59 d23d bb8b 2dbd be07 10bd
000002c0: 5a1b 943c 27b1 9abb 79e1 da3d 465a 07bd
000002d0: 7a2e c13d 57fb 99bd 1201 b6bc 90d7 f23c
000002e0: d912 b13d 5c73 cd3d edc0 e3bb 8eeb 503c
000002f0: 248d 3d3e 5a3a 123e 9ebd 7f3d 25f1 32bd
00000300: 322e c3be 8479 99bb 5094 e5bd da12 0dbd
00000310: 9e7c 81be f38e f1bd 887e 0fbe 1f68 d4bd
00000320: d5ec 1cbd e2c0 253d 3958 66bd 38bb 0fbe
00000330: b48d 77bd 6760 5ebc c549 3b3e e810 733d
00000340: 2cba 9f3c a018 35bd 2f54 2bbe 8dfc 8abb
00000350: c84b 0abe 12f5 d0be fd9f 03be 0e96 39bd
00000360: 2e5b edbd 4c4d 08be 59e8 133d 64a8 f3bd
00000370: a0f5 adbd 3210 953d 4944 22be c1d7 52be
00000380: 5d47 1abe 2ceb b33d 8186 ea3d b8e5 84be
00000390: c5d7 b13d 474a 0fbe 4003 bebe 650a d8bd
000003a0: 938c 53be 7a5b 86bc a1dc 06be 1f4e 163d
000003b0: b367 2fbd 8bf6 57be 65e4 a8be cdd4 e7bd
000003c0: 1e77 83be 01d1 d2bc 05f2 4d3a 0521 15bd
000003d0: 423d 1d3c 3c55 b4bd 6557 26be ad3e 14be
000003e0: 7421 2bbe 4f58 adbc 13b3 6bbe e73d 4bbe
000003f0: 081b ae3c 2ffb 3cbd 749b a93d 6280 91be

first_h.3.bias f4 [64]
-0.034258004 -0.032006506 0.067370474 0.09155308 -0.012461624 0.071226746 -0.11748025 -0.16438527
0.029737879 0.057232387 -0.080875926 0.011992644 0.003948899 0.10007326 -0.029135684 -0.052659884
-0.03367265 -0.05365432 0.1650306 0.20948876 -0.13690367 0.04993344 0.053927302 -0.02161796
-0.09964119 0.024683556 -0.07860507 -0.08110512 -0.06683586 -0.115453295 0.0514865 -0.06735928
0.028618248 0.0650369 -0.117597766 -0.027802777 0.11055348 -0.057395075 -0.05480576 -0.100637116
0.029862909 0.025234094 0.0013863472 -0.034852322 0.11202784 -0.18668886 -0.039785646 -0.06779263
0.06839211 0.049264003 -0.039624296 -0.16021425 0.08796929 0.11947784 0.0049331235 -0.025566712
0.11452876 -0.042312097 0.09670079 0.012088079 -0.10763324 -0.026924144 0.08803568 0.06682867
00000000: 1f52 0cbd 4119 03bd 88f9 893d 2e80 bb3d
00000010: d72b 4cbc 54df 913d 7c99 f0bd 9d54 28be
00000020: da9c f33c 826c 6a3d 47a2 a5bd cb7c 443c
00000030: c465 813b 36f3 cc3d f5ad eebc e4b1 57bd
00000040: 55ec 09bd a2c4 5bbd c8fd 283e 3984 563e
00000050: 7a30 0cbe 0287 4c3d e0e2 5c3d 2618 b1bc
00000060: ae10 ccbd 2b35 ca3c b2fb a0bd 711a a6bd
00000070: 3de1 88bd c772 ecbd 82e3 523d aaf3 89bd
00000080: d170 ea3c 1132 853d 19d7 f0bd a6c2 e3bc
00000090: dd69 e23d 1917 6bbd 017c 60bd d51a cebd
000000a0: 0fa3 f43c bbb7 ce3c 18b6 b53a 4fc1 0ebd
000000b0: da6e e53d 5d2b 3fbe 46f6 22bd ddd6 8abd
000000c0: 2a11 8c3d 0dc9 493d 164d 22bd 340f 24be
000000d0: 3e29 b43d ccb0 f43d 0aa6 a13b 4871 d1bc
000000e0: 0e8e ea3d 734f 2dbd 100b c63d 140d 463c
000000f0: d16e dcbd 0690 dcbc 0d4c b43d 78dd 883d

first_h.4.weight f4 [64]
0.92245525 0.9117325 0.87983465 0.9892701 1.0115665 0.9179432 1.0929728 1.0095084
0.86417747 0.94811916 0.8994043 0.84227043 0.8499065 0.8968458 0.92142427 1.0009297
1.003729 0.93726987 1.0611134 1.3157004 0.8783699 1.0411335 1.0560758 1.1105808
1.0457603 1.1028788 1.0813326 1.0560443 0.9395874 0.917604 0.93408674 0.92166764
0.8421313 0.91446763 1.0051237 0.93000513 1.0783312 0.9575957 0.8969932 1.0568419
1.0014944 0.94176155 1.0339164 1.0899117 1.0675921 1.0738896 0.95054626 1.0638326
0.7824007 0.9212489 1.0780523 0.93741 0.9469759 0.92253697 0.9951045 0.97122586
1.0029072 1.0637666 1.0186064 0.9013912 0.8148155 0.879427 0.9365896 0.94565547
00000000: 0726 6c3f 4d67 693f d83c 613f ce40 7d3f
00000010: 037b 813f 53fe 6a3f 88e6 8b3f 9237 813f
00000020: bc3a 5d3f f0b7 723f 5c3f 663f 099f 573f
00000030: 7993 593f b097 653f 76e2 6b3f 771e 803f
00000040: 317a 803f ebf0 6f3f 90d2 873f df68 a83f
00000050: dadc 603f dd43 853f 7e2d 873f 8327 8e3f
00000060: 79db 853f 222b 8d3f 1b69 8a3f 762c 873f
00000070: cd88 703f 19e8 6a3f 4f20 6f3f 69f2 6b3f
00000080: eb95 573f 8d1a 6a3f e5a7 803f d114 6e3f
00000090: c206 8a3f fe24 753f 59a1 653f 9846 873f
000000a0: f830 803f 4917 713f 5f57 843f 3a82 8b3f
000000b0: dca6 883f 3775 893f 0057 733f ab2b 883f
000000c0: 6a4b 483f f8d6 6b3f 9efd 893f 1afa 6f3f
000000d0: 036d 723f 622b 6c3f 2bbf 7e3f 42a2 783f
000000e0: 435f 803f 8129 883f b261 823f 93c1 663f
000000f0: c097 503f 2122 613f 56c4 6f3f 7a16 723f

first_h.4.bias f4 [64]
0.10942479 -0.07368172 0.03435967 -0.09159543 0.022801286 0.04283945 0.26144698 0.040727068
0.042125586 0.0055440934 -0.0056744628 0.110045806 -0.06321197 0.014639611 -0.005319984 0.03601859
-0.013649006 -0.09830578 0.055125136 0.11696336 -0.08343437 0.036982767 0.04372147 0.24352545
0.13655502 0.093925156 -0.07441229 -0.05312796 -0.100429125 -0.0836485 -0.01151739 0.044078913
-0.1447472 -0.11636222 -0.029766504 -0.06267241 0.008867191 -0.03144483 -0.040814836 0.043464635
-0.01070968 -0.10361198 0.0944503 -0.0060857055 0.0072930027 0.0651005 -0.090228766 -0.07543032
-0.089259125 -0.105069965 0.04627827 -0.1774052 -0.10564363 0.005690837 0.008740477 -0.10888241
-0.010172603 0.04576432 0.12830456 0.020819433 0.021821614 0.0291022 0.0017806784 -0.0788931
00000000: 1b1a e03d 71e6 96bd babc 0c3d 6396 bbbd
00000010: c3c9 ba3c 6b78 2f3d 61dc 853e 6dd1 263d
00000020: e18b 2c3d 3aab b53b d8f0 b9bb b25f e13d
00000030: 4775 81bd fbda 6f3c 4353 aebb 3b88 133d
00000040: 15a0 5fbc 8a54 c9bd e5ca 613d 7c8a ef3d
00000050: a4df aabd 3e7b 173d 4915 333d bc5e 793e
00000060: 14d5 0b3e d55b c03d 7865 98bd b49c 59bd
00000070: c9ad cdbd e84f abbd 6fb3 3cbc 178c 343d
00000080: 9c38 14be 514f eebd e2d8 f3bc 645a 80bd
00000090: b247 113c 4bcc 00bd 752d 27bd f907 323d
000000a0: a777 2fbc 8532 d4bd 296f c13d 996a c7bb
000000b0: 24fa ee3b 6953 853d dcc9 b8bd 367b 9abd
000000c0: 7dcd b6bd ec2e d7bd 498e 3d3d b5a9 35be
000000d0: b05b d8bd 337a ba3b 3834 0f3c befd debd
000000e0: fdaa 26bc 5e73 3b3d 4562 033e 848d aa3c
000000f0: 3ec3 b23c bd67 ee3c a765 e93a b592 a1bd

first_h.4.running_mean f4 [64]
-0.5656646 -0.28037274 0.6312934 -0.67340446 0.059466567 0.2875582 1.0913713 0.5259083
0.4367181 0.57735246 0.29006982 0.6223004 -0.1860496 0.22830929 1.0777642 0.60978585
-0.35903382 -0.26206505 0.85992634 1.9717916 0.17576206 0.12980954 -0.036998346 1.4157615
0.24220784 0.3567126 -0.83307993 -0.21438451 -0.67412543 -0.58887243 -0.10094303 0.31879976
0.5329864 0.4364998 0.8596728 -0.42960998 -0.09657597 0.27629584 -0.31697106 0.5158285
-0.11489056 -0.59055156 0.051730588 -0.34330228 0.1365406 0.04377908 -0.59324044 -0.9581437
0.72977155 -0.12140575 -0.105508335 -1.0252113 -0.11521569 1.3036011 -0.0073623206 -0.7111786
0.07445051 0.66542536 0.1948795 -0.0834449 -0.064665824 -0.11165834 0.04355908 -0.4942259
00000000: 65cf 10bf 048d 8fbe 729c 213f 3c64 2cbf
00000010: 3793 733d d43a 933e 0eb2 8b3f eda1 063f
00000020: 8499 df3e 5fcd 133f 0884 943e 144f 1f3f
00000030: c983 3ebe e9c9 693e 2df4 893f ed1a 1c3f
00000040: 48d3 b7be 642d 86be 2224 5c3f ab63 fc3f
00000050: f8fa 333e cbec 043e 948b 17bd ac37 b53f
00000060: 5505 783e 09a3 b63e ba44 55bf 9d87 5bbe
00000070: 7c93 2cbf 58c0 16bf 38bb cebd b939 a33e
00000080: cc71 083f e77c df3e 8413 5c3f d7f5 dbbe
00000090: 9fc9 c5bd a676 8d3e 084a a2be 560d 043f
000000a0: be4b ebbd 632e 17bf 74e3 533d 51c5 afbe
000000b0: 4dd1 0b3e b151 333d 9bde 17bf e848 75bf
000000c0: 4fd2 3a3f 94a3 f8bd c114 d8bd 203a 83bf
000000d0: 34f6 ebbd 67dc a63f 9f3f f1bb cd0f 36bf
000000e0: 8279 983d 5159 2a3f 7e8e 473e 29e5 aabd
000000f0: 846f 84bd 21ad e4bd 026b 323d 2d0b fdbe

first_h.4.running_var f4 [64]
3.5100803 2.0930538 2.4951437 1.0726365 1.9923589 12.72972 1.6448832 3.225336
3.789984 1.4018023 12.664688 14.503469 0.59670615 8.078271 4.6240926 2.4498186
4.773988 1.3822124 1.4588763 1.3931508 6.7786465 2.504806 3.376152 0.27574316
6.055962 0.20487113 0.5544488 1.5317202 1.1791291 1.7160014 3.942766 2.3324819
3.0264616 1.2954177 9.377564 0.47573146 2.655601 1.8194848 5.862118 2.4323702
2.9303577 4.0908566 4.699483 3.1692133 1.4319044 2.405504 3.1891813 6.887222
2.3721032 1.4078519 2.714823 5.7450323 1.3826476 81.84813 1.5344194 2.8209975
3.3617733 2.761103 2.136263 4.44683 11.287458 1.9115078 5.2327876 4.0860457
00000000: 28a5 6040 98f4 0540 6fb0 1f40 274c 893f
00000010: 9e05 ff3f efac 4b41 888b d23f e86b 4e40
00000020: 198f 7240 426e b33f 90a2 4a41 360e 6841
00000030: bcc1 183f 9940 0141 91f8 9340 d4c9 1c40
00000040: 82c4 9840 56ec b03f 75bc ba3f c452 b23f
00000050: acea d840 be4e 2040 e012 5840 352e 8d3e
00000060: 71ca c140 bdc9 513e 5bf0 0d3f 680f c43f
00000070: b4ed 963f efa5 db3f 4756 7c40 6247 1540
00000080: 8cb1 4140 3fd0 a53f 810a 1641 1393 f33e
00000090: 5ef5 2940 e1e4 e83f 7896 bb40 f4ab 1b40
000000a0: fb8a 3b40 4ce8 8240 2a62 9640 64d4 4a40
000000b0: a548 b73f c7f3 1940 8c1b 4c40 1f64 dc40
000000c0: 8ad0 1740 7e34 b43f a9bf 2d40 4ed7 b740
000000d0: 99fa b03f 3eb2 a342 db67 c43f 398b 3440
000000e0: 4b27 5740 e9b5 3040 88b8 0840 6e4c 8e40
000000f0: 6e99 3441 4aac f43f ff72 a740 e3c0 8240

nns.0.0.weight f4 [64, 64]
0.11988101 0.03378937 0.06091498 -0.052226916 0.028289545 0.00036684584 0.18861818 -0.03628246
0.005790957 0.112673596 0.13957183 0.042168826 0.018016443 0.02949029 -0.019897634 0.09788399
0.08734344 0.10334617 0.0988895 0.041079886 0.124608226 0.092359416 0.1368949 0.074658364
0.06636094 0.14721179 0.17454055 0.18203609 0.11406758 -0.07799083 0.08732767 0.20057148
-0.032678824 0.020453723 -0.006985316 0.10133307 0.16584614 0.098644614 0.020837096 0.196877
-0.048752263 0.15458998 0.21660212 0.058365114 0.16021976 0.21491885 0.009807087 0.20127213
0.11414206 -0.005449855 0.059947662 0.10307741 0.046947278 -0.045826964 0.11922721 0.08963431
-0.009069559 0.030124355 0.057209946 0.025217384 0.18038173 0.013908214 0.0767643 0.052021608
-0.10030413 -0.04242621 0.09537919 0.13695817 -0.25409207 -0.17605501 -0.3533998 0.14296733
0.12563679 0.058048286 -0.021739958 -0.16512273 -0.06820966 -0.10896944 -0.041190907 0.09492899
0.004195263 0.06619124 0.046982136 -0.5273922 0.08243511 -0.088486575 -0.172645 -0.4946359
-0.15404396 -0.39599445 0.5408281 -0.032865744 0.1958951 0.19870065 -0.10116222 -0.0221732
0.057362802 0.018608518 -0.075912274 -0.2616605 -0.055119913 -0.023215562 -0.13273275 0.04427108
-0.091795675 0.3486412 -0.1634604 -0.036764618 -0.1614147 -0.3292673 0.26156095 0.472848
0.03677258 0.0060917046 -0.039666746 -0.09104077 -0.17852966 -0.07436017 -0.13824268 0.51211953
-0.08587639 0.07021737 -0.055384524 -0.19162239 -0.06546888 0.022151066 -0.12856802 -0.032020036
-0.025570001 0.008334586 -0.38356087 0.02280307 -0.16422372 -0.08535734 -0.43721107 -0.17258155
-0.28421986 -0.5193468 -0.32264248 -0.18891026 -0.09028139 -0.17730542 -0.4165498 -0.15755875
-0.018825328 -0.058878757 -0.31121373 0.019224916 -0.41353458 -0.25385636 -0.13914707 -0.10819046
-0.3337005 0.015604406 0.34740195 -0.10322934 0.012045374 -0.10130324 -0.20880409 -0.38486996
-0.3796651 -0.17581722 -0.25085443 0.073353454 -0.01798304 -0.27004167 -0.34638876 -0.31090432
-0.05337445 -0.09698915 -0.18374279 -0.018090926 -0.12597711 -0.010869662 -0.029834924 0.41086143
-0.19416717 0.049528226 -0.023546442 0.492357 -0.07033497 -0.37063274 -0.24122146 -0.025505904
-0.16467485 -0.24416305 -0.21554582 -0.073799655 -0.08730482 -0.375759 -0.09141196 -0.02054038
-0.007920789 -0.051894415 -0.10002723 0.07413625 -0.16112307 -0.1698751 0.012246835 -0.05107075
0.05497688 -0.17773914 -0.14295699 -0.0016677763 -0.091668375 -0.04774818 -0.088366725 -0.023763223
-0.10532141 0.046169396 -0.14742514 0.005175551 -0.006620709 -0.12651028 -0.1283438 -0.1519395
0.03275086 -0.16399822 -0.011911835 -0.035375133 -0.07708012 -0.13864093 0.035480503 0.023702255
-0.084662914 0.027338875 -0.027663087 -0.15131305 -0.019436415 -0.112706676 0.027918775 -0.07278365
-0.19524823 -0.12648113 -0.087809704 -0.15800081 -0.13604204 0.057197373 -0.11978946 -0.08906036
-0.054028466 -0.054646406 -0.10664873 0.03867883 -0.17669575 0.043138593 0.016493013 -0.035967637
-0.0113186715 -0.11953563 -0.12703064 -0.1850048 0.052194074 -0.12265642 -0.12469412 0.010326505
00000000: 2d84 f53d b966 0a3d fc81 793d e4eb 55bd
00000010: 7abf e73c 3755 c039 2025 413e eb9c 14bd
00000020: 11c2 bd3b 6ac1 e63d ebeb 0e3e 38b9 2c3d
00000030: 3897 933c 9f95 f13c 5d00 a3bc 6777 c83d
00000040: 1ee1 b23d 28a7 d33d 9486 ca3d 6243 283d
00000050: 9932 ff3d ef26 bd3d 2d2e 0c3e 7ce6 983d
00000060: 3fe8 873d b0be 163e c2ba 323e ab67 3a3e
00000070: 439c e93d a8b9 9fbd d9d8 b23d 9c62 4d3e
00000080: 3bda 05bd 918e a73c 14e5 e4bb b687 cf3d
00000090: 92d3 293e 3006 ca3d 8fb2 aa3c 209a 493e
000000a0: 74b0 47bd d64c 1e3e f2cc 5d3e 4210 6f3d
000000b0: a610 243e b013 5c3e e7ad 203c 481a 4e3e
000000c0: 50c3 e93d b294 b2bb ae8b 753d 401a d33d
000000d0: ca4b 403d 0eb5 3bbd 652d f43d 3192 b73d
000000e0: 7d98 14bc 5ac7 f63c fa54 6a3d b094 ce3c
000000f0: fdb5 383e 47df 633c 9a36 9d3d 9c14 553d
00000100: 406c cdbd 1bc7 2dbd 2a56 c33d c33e 0c3e
00000110: 5b18 82be c447 34be d2f0 b4be 0766 123e
00000120: eea6 003e 0ac4 6d3d ff17 b2bc ef15 29be
00000130: 82b1 8bbd 5f2b dfbd ccb7 28bd 216a c23d
00000140: 6b78 893b 468f 873d 5770 403d 2d03 07bf
00000150: bdd3 a83d 7338 b5bd dac9 30be eb40 fdbe
00000160: b3bd 1dbe c9bf cabe b673 0a3f 3b9e 06bd
00000170: ba98 483e 2f78 4b3e 232e cfbd 92a4 b5bc
00000180: 42f5 6a3d e470 983c e577 9bbd 5df8 85be
00000190: 6bc5 61bd 902e bebc 18eb 07be 9855 353d
000001a0: 5fff bbbd 1981 b23e 2a62 27be 7f96 16bd
000001b0: e549 25be b995 a8be 51eb 853e 2219 f23e
000001c0: d89e 163d ec9c c73b 9979 22bd 9573 babd
000001d0: 7bd0 36be 254a 98bd 7d8f 0dbe 441a 033f
000001e0: f6df afbd 20ce 8f3d e2da 62bd a938 44be
000001f0: 8c14 86bd 2776 b53c 56a7 03be 7127 03bd
00000200: 2e78 d1bc ca8d 083c 1762 c4be 81cd ba3c
00000210: 432a 28be d4cf aebd 21da dfbe 38b9 30be
00000220: 4485 91be e9f3 04bf 6531 a5be b171 41be
00000230: 73e5 b8bd 8d8f 35be 0446 d5be 1557 21be
00000240: 9337 9abc da2a 71bd 6857 9fbe 927d 9d3c
00000250: ceba d3be 76f9 81be 927c 0ebe f692 ddbd
00000260: cbda aabe 9fa9 7f3c abde b13e e769 d3bd
00000270: f659 453c 1378 cfbd bdd0 55be ad0d c5be
00000280: 7763 c2be 6e09 34be fe6f 80be 563a 963d
00000290: 2b51 93bc e742 8abe de59 b1be da2e 9fbe
000002a0: 2b9f 5abd 3fa2 c6bd 1227 3cbe 6c33 94bc
000002b0: 2500 01be ab16 32bc 5f68 f4bc 6e5c d23e
000002c0: c2d3 46be 1cde 4a3d 78e4 c0bc 3716 fc3e
000002d0: c80b 90bd 93c3 bdbe c202 77be c2f1 d0bc
000002e0: 86a0 28be e105 7abe 0bb8 5cbe 4624 97bd
000002f0: dfcc b2bd 7c63 c0be 3236 bbbd 4d44 a8bc
00000300: 32c6 01bc 3d8f 54bd 14db ccbd bfd4 973d
00000310: 72fd 24be bdf3 2dbe f3a6 483c 902f 51bd
00000320: 702f 613d 4001 36be 5163 12be 4999 daba
00000330: a1bc bbbd 9893 43bd 9df9 b4bd 17ab c2bc
00000340: c0b2 d7bd 1f1c 3d3d 9ef6 16be ab97 a93b
00000350: 88f2 d8bb e98b 01be 8f6c 03be 0796 1bbe
00000360: c425 063d 26ef 27be db29 43bc 84e5 10bd
00000370: 2fdc 9dbd e3f7 0dbe 0154 113d 3b2b c23c
00000380: c063 adbd c7f5 df3c b39d e2bc cff1 1abe
00000390: 1e39 9fbc c2d2 e6bd eab5 e43c 980f 95bd
000003a0: 27ef 47be 4584 01be 93d5 b3bd f7ca 21be
000003b0: 9b4e 0bbe cb47 6a3d 2d54 f5bd 4765 b6bd
000003c0: f44c 5dbd e9d4 5fbd a66a dabd b16d 1e3d
000003d0: bbef 34be 18b2 303d 5b1c 873c cd52 13bd
000003e0: f371 39bc 19cf f4bd 5214 02be e671 3dbe
000003f0: 74c9 553d 4a33 fbbd a15f ffbd 8030 293c

nns.0.0.bias f4 [64]
-0.05934368 0.03323831 -0.06971166 -0.11366999 0.054873336 -0.043618493 -0.08283967 0.07289217
-0.110045746 -0.11975914 0.024430338 -0.07788809 0.016840285 -0.042748503 0.033688013 -0.10572737
0.04173416 0.005794371 -0.10721895 0.0390441 0.072055906 -0.07731167 0.07250813 -0.085816525
0.08216509 0.109137535 -0.10046374 -0.008853218 0.04868164 -0.110272646 0.01644423 -0.13151935
0.09003051 0.050913434 0.012850495 0.026426056 -0.037206672 0.08456842 -0.03296008 0.10367297
-0.038741067 0.013973878 -0.11038343 -0.0236973 0.09498831 0.065590985 0.01362032 0.067329794
-0.056327276 -0.02655842 -0.092477135 0.1176452 -0.11411386 -0.017738592 0.10357233 -0.019014474
-0.035138853 0.109044865 0.06340145 0.01088941 -0.051869083 0.04332358 -0.017200181 -0.10893305
00000000: 5c12 73bd e524 083d fdc4 8ebd d0cb e8bd
00000010: ddc2 603d 4ea9 32bd d8a7 a9bd 7d48 953d
00000020: aa5f e1bd 4844 f5bd 2222 c83c ca83 9fbd
00000030: a3f4 893c 0e19 2fbd 71fc 093d 9787 d8bd
00000040: 70f1 2a3d b5de bd3b 9c95 dbbd b5ec 1f3d
00000050: 0c92 933d 9555 9ebd 247f 943d 93c0 afbd
00000060: 2c46 a83d 8083 df3d efbf cdbd 160d 11bc
00000070: 6666 473d a0d6 e1bd 0db6 863c 02ad 06be
00000080: eb61 b83d 9b8a 503d e28a 523c 757b d83c
00000090: 0666 18bd 3532 ad3d 2601 07bd 7e52 d43d
000000a0: f4ae 1ebd b1f2 643c b510 e2bd d720 c2bc
000000b0: 3b89 c23d 9154 863d c327 5f3c 34e4 893d
000000c0: 6eb7 66bd 0b91 d9bc a764 bdbd f7ef f03d
000000d0: 87b4 e9bd 8650 91bc bb1d d43d 3ec4 9bbc
000000e0: c2ed 0fbd ea52 df3d 9fd8 813d 7f69 323c
000000f0: ad74 54bd 1174 313d 65e7 8cbc 4a18 dfbd

nns.0.1.weight f4 [64]
0.9363552 1.5483661 0.9353394 1.0227953 0.80167335 0.94474304 1.2029499 0.8921824
1.2168461 0.9594187 0.7802113 0.8429318 1.042944 1.1716789 0.9824401 0.86055565
1.0221957 1.4976764 1.3669091 1.1972446 0.97460717 1.2106304 0.713985 0.79215026
0.9131104 0.8712799 0.7917338 0.98562807 1.3454126 1.0279295 0.9696307 1.0285436
1.0847732 1.0637386 1.1209317 1.0404931 0.9895353 1.0281763 0.8606077 0.75657886
1.0176497 0.78126764 0.93610305 1.0328566 0.83736855 1.707133 1.0746392 1.2315482
0.91867876 1.0634892 1.2716808 1.1693792 0.92220736 0.9140334 0.7656483 1.181948
0.94510055 0.9073435 0.8032913 1.0372864 1.0341694 1.4927694 0.87820905 0.9034664
00000000: f9b4 6f3f dc30 c63f 6772 6f3f f5ea 823f
00000010: 773a 4d3f aeda 713f 43fa 993f 1166 643f
00000020: 9dc1 9b3f 779c 753f eebb 473f 61ca 573f
00000030: 307f 853f 93f9 953f 3281 7b3f 604d 5c3f
00000040: 4fd7 823f dcb3 bf3f e1f6 ae3f 503f 993f
00000050: db7f 793f f0f5 9a3f b9c7 363f 5cca 4a3f
00000060: 9ac1 693f 330c 5f3f 11af 4a3f 1f52 7c3f
00000070: 7b36 ac3f 3293 833f b839 783f 51a7 833f
00000080: d9d9 8a3f 9628 883f b17a 8f3f e12e 853f
00000090: 2f52 7d3f 489b 833f c950 5c3f 27af 413f
000000a0: 5842 823f 2801 483f 73a4 6f3f a534 843f
000000b0: c95d 563f 5683 da3f c78d 893f 5fa3 9d3f
000000c0: 882e 6b3f 6a20 883f 70c6 a23f 38ae 953f
000000d0: c815 6c3f 18fe 693f 8701 443f 124a 973f
000000e0: 1cf2 713f aa47 683f 80a4 4d3f cdc5 843f
000000f0: aa5f 843f 1113 bf3f 4fd2 603f 9349 673f

nns.0.1.bias f4 [64]
0.15729246 0.24129976 0.18397142 0.031714074 -0.05337889 -0.13311207 0.105475016 -0.14033772
-0.04638226 0.12970635 -0.12030015 0.16401596 0.15467966 0.43271253 0.22348696 -0.025156438
-0.0053499336 0.037290376 0.09782445 0.13074788 0.01798036 -0.09468396 -0.052119832 -0.14340058
-0.1370588 -0.14786054 -0.27412218 0.013174124 0.08626443 -0.06647441 0.13748892 0.11827046
0.0270582 0.08700131 -0.048460796 -0.05251285 0.18496345 -0.10631198 0.08329675 -0.033741217
-0.043402653 -0.08402791 -0.19723 0.0442257 0.082323596 0.117630646 -0.07848949 0.18770333
0.1165217 -0.16589944 0.19030507 0.34459698 -0.118972406 -0.09909162 -0.13144055 -0.13148084
0.110597394 0.12548436 0.016167521 -0.0058434256 0.17340626 0.1422505 0.2686393 0.0024897421
00000000: 4611 213e 4917 773e 0163 3c3e 9ee6 013d
00000010: d3a3 5abd 884e 08be 4903 d83d b1b4 0fbe
00000020: 53fb 3dbd bed1 043e ed5f f6bd cdf3 273e
00000030: 5864 1e3e 7f8c dd3e c4d9 643e e014 cebc
00000040: 7f4e afbb cbbd 183d 2f58 c83d c6e2 053e
00000050: 8c4b 933c aae9 c1bd 9b7b 55bd 9ad7 12be
00000060: 2459 0cbe c168 17be be59 8cbe 48d8 573c
00000070: 68ab b03d bc23 88bd e5c9 0c3e c837 f23d
00000080: 29a9 dd3c be2d b23d d47e 46bd b717 57bd
00000090: 0f67 3d3e 18ba d9bd 7d97 aa3d 3b34 0abd
000000a0: fbc6 31bd d316 acbd a9f6 49be 0226 353d
000000b0: 4699 a83d 56e8 f03d 19bf a0bd 4d35 403e
000000c0: eea2 ee3d 8be1 29be 55df 423e 046f b03e
000000d0: cea7 f3bd 8cf0 cabd 5a98 06be eaa2 06be
000000e0: e380 e23d f97e 003e c071 843c 357a bfbb
000000f0: 6991 313e 1daa 113e 178b 893e f12a 233b

nns.0.1.running_mean f4 [64]
2.7954278 -4.410504 -5.0843143 -2.521458 0.10746521 0.9486333 -3.2598934 -2.3704739
-5.0261025 0.8422131 3.7473269 1.9340304 1.9341261 -4.673605 2.4841943 0.613642
0.69894534 -6.145539 -3.0028868 -3.860281 0.14306954 -3.8489258 0.96957415 -2.3762639
-2.083762 0.43241856 1.3316247 -2.3907342 -3.6099534 0.37296024 -2.6967769 1.4424827
0.5049437 -1.8617101 -2.337614 -2.5755458 1.3937652 0.8629865 0.61687297 0.06322207
-1.5948871 0.9556464 -0.45285946 -2.6948116 0.6502654 -1.2482405 3.5032592 -4.3702927
-1.0795941 2.5639904 -1.6092587 -3.882354 -2.534024 0.58365405 1.0401305 -0.9886101
0.12068257 0.09609715 2.5388026 -2.5948026 -3.1206872 -3.9138503 -2.6370938 2.1461632
00000000: 4ae8 3240 d922 8dc0 b4b2 a2c0 915f 21c0
00000010: b816 dc3d a2d9 723f 18a2 50c0 d8b5 17c0
00000020: d5d5 a0c0 479b 573f 34d4 6f40 4f8e f73f
00000030: 7291 f73f 2c8e 95c0 0afd 1e40 a417 1d3f
00000040: 15ee 323f 41a8 c4c0 4c2f 40c0 d80e 77c0
00000050: d280 123e cd54 76c0 0336 783f b514 18c0
00000060: 5b5c 05c0 f765 dd3e ae72 aa3f ca01 19c0
00000070: 7a09 67c0 a5f4 be3e fe97 2cc0 46a3 b83f
00000080: fe43 013f 844c eebf 789b 15c0 bed5 24c0
00000090: e666 b23f afec 5c3f 63eb 1d3f 937a 813d
000000a0: 4325 ccbf 3ea5 743f 32dd e7be cb77 2cc0
000000b0: cb77 263f 58c6 9fbf 6635 6040 70d9 8bc0
000000c0: 2430 8abf 6b18 2440 30fc cdbf 7d78 78c0
000000d0: 732d 22c0 5a6a 153f ff22 853f 8d15 7dbf
000000e0: 6c28 f73d 95ce c43d be7b 2240 3f11 26c0
000000f0: 57b9 47c0 867c 7ac0 25c6 28c0 bd5a 0940

nns.0.1.running_var f4 [64]
371.64685 294.0564 3336.9458 284.41925 198.67427 531.2268 43.4353 291.57245
122.206474 91.61449 529.56946 275.85916 259.05368 1203.4558 238.47327 110.085945
156.45477 1298.2728 37.887344 635.2496 63.6257 220.31949 289.03677 465.56085
292.5943 83.12482 577.39 258.9995 56.394325 96.408325 223.52075 213.73569
75.44408 61.333168 80.00871 114.36829 229.96135 8.3100395 50.45775 38.13851
190.00652 243.12701 998.0953 168.52283 54.948368 513.6011 2062.2483 98.5253
512.73016 1134.3068 76.93681 1030.6952 721.52637 331.17993 338.51337 183.58395
41.325134 176.59901 212.05682 667.6365 1088.1908 326.7246 1127.2103 379.12497
00000000: ccd2 b943 3807 9343 228f 5045 aa35 8e43
00000010: 9dac 4643 84ce 0444 bfbd 2d42 46c9 9143
00000020: b769 f442 9e3a b742 7264 0444 f9ed 8943
00000030: df86 8143 966e 9644 2879 6e43 012c dc42
00000040: 6c74 1c43 bb48 a244 a48c 1742 f9cf 1e44
00000050: b880 7e42 ca51 5c43 b584 9043 cac7 e843
00000060: 124c 9243 e83f a642 f658 1044 f07f 8143
00000070: ca93 6142 10d1 c042 5085 5f43 56bc 5543
00000080: 5ee3 9642 2a55 7542 7604 a042 91bc e442
00000090: 1bf6 6543 ecf5 0441 bcd4 4942 d68d 1842
000000a0: ab01 3e43 8420 7343 1986 7944 d885 2843
000000b0: 21cb 5b42 7866 0044 f9e3 0045 f40c c542
000000c0: bb2e 0044 d1c9 8d44 a6df 9942 3fd6 8044
000000d0: b061 3444 0897 a543 b641 a943 7e95 3743
000000e0: f04c 2542 5999 3043 8c0e 5443 bce8 2644
000000f0: 1b06 8844 c05c a343 bbe6 8c44 ff8f bd43

nns.0.3.weight f4 [64, 64]
-0.11666774 -0.13686045 -0.06901725 0.036259994 0.018987572 -0.09547214 -0.008232424 -0.10286749
-0.008603422 -0.13719213 0.011006713 -0.15923263 0.004327377 0.06959886 0.08131738 -0.08172986
-0.15784891 -0.11583489 -0.17529865 0.12547137 -0.022400124 -0.0066372594 -0.21368109 -0.10411161
-0.15567943 -0.17912821 -0.1340718 -0.064393625 0.080982395 -0.10788013 0.109453596 0.022076542
-0.033257294 -0.04448025 0.1852573 0.13742118 -0.123805285 -0.09352553 0.027173545 -0.011257739
0.023163188 -0.18188275 0.0059203133 0.034463648 0.0012135637 -0.0031333053 -0.14089935 0.118019715
-0.01080644 -0.022059076 0.03664013 0.079022355 0.05066384 -0.029528834 -0.0006687686 0.021245308
-0.049904108 0.07800722 0.0024894853 0.08514426 0.024683457 -0.025397891 -0.0041163657 -0.07788861
0.004878699 -0.031960625 0.022928093 -0.0982066 0.081326164 -0.06676243 0.07804098 0.18450303
0.29328507 0.06390681 -0.14707965 0.09049289 0.05402369 0.054585353 0.066177435 0.07678858
-0.026972508 0.16295224 0.024268353 0.09127553 0.06342387 0.01952526 0.055644993 0.04046626
0.16195942 0.09923136 -0.066795245 -0.02517248 0.27060732 -0.124713436 0.09018669 -0.011223812
0.047263857 0.13088398 0.025655093 0.026942065 0.07416226 0.050491765 0.19457012 0.079806104
-0.018281108 -0.030832639 -0.17726825 0.07213745 0.122185566 0.19685018 -0.12652813 0.32144547
-0.10801889 0.002939992 0.07980792 0.23694938 0.20084679 -0.050914127 0.09206418 -0.19308089
0.041318968 0.2436532 -0.03817932 -0.025426835 0.11475893 -0.103897326 -0.032234132 0.02006912
-0.08857623 0.01925819 0.16117077 0.020189678 0.038430583 -0.08150403 -0.623033 -0.16674289
-0.20771971 0.04326533 -0.034260456 -0.10542038 -0.03665609 0.16114761 -0.22583877 0.19551232
0.15399922 -0.3628424 -0.4290426 0.10107965 -0.064699836 -0.106922 0.15260005 -0.12064398
-0.32026637 0.11173441 -0.060801096 -0.042380463 -0.4382286 0.07929411 -0.4214479 -0.013016467
0.23533545 -0.51577926 -0.069185294 -0.18543291 -0.030023195 -0.29428127 0.06177744 -0.117945045
-0.011623125 0.18935633 -0.47274572 0.01340609 0.017555544 0.19120148 0.39951262 -0.3558175
-0.29225564 0.24904737 -0.058660023 0.18296482 -0.058718946 -0.040208377 0.12358792 -0.09611899
0.0765151 -0.035516635 0.0120502245 0.0127861 0.039872304 -0.00070600625 -0.10793446 0.099032186
0.032455318 0.37347493 -0.05795631 -0.23484853 0.01456038 0.015500523 -0.28952116 0.0023621097
-0.23238647 0.06172438 0.12921931 -0.0021074116 0.0034417214 0.15706377 0.03832135 -0.22976921
-0.12640521 -0.042712294 -0.018844005 -0.007302451 -0.06984028 0.0034167466 -0.02465396 0.068135
-0.045966573 0.0976804 0.018119326 0.02170764 -0.18985909 0.03381212 -0.14609984 0.07454055
-0.006107213 0.114843965 -0.04420611 -0.06677791 -0.20708214 -0.18043308 -0.063762195 -0.058017932
0.18254353 -0.10548401 -0.029249663 0.166047 -0.09889322 -0.041153207 -0.038801696 -0.28598452
0.06318223 -0.24369286 0.12636273 0.017735027 -0.0017602359 0.058359295 -0.10723049 -0.27538362
-0.26186907 -0.06407633 -0.15370706 -0.069644496 0.24895266 0.2302596 0.06981521 -0.025637083
00000000: 7fef eebd 2525 0cbe ea58 8dbd 5c85 143d
00000010: d38b 9b3c e686 c3bd 4ae1 06bc 31ac d2bd
00000020: 5ef5 0cbc 187c 0cbe 8055 343c e10d 23be
00000030: abcc 8d3b d989 8e3d ba89 a63d fc61 a7bd
00000040: 25a3 21be d83a edbd 7d81 33be 917b 003e
00000050: 7780 b7bc 5e7d d9bb 37cf 5abe 7838 d5bd
00000060: 6e6a 1fbe 636d 37be 1e4a 09be cee0 83bd
00000070: 19da a53d 42f0 dcbd 3529 e03d ddd9 b43c
00000080: cd38 08bd ec30 36bd 17b4 3d3e 23b8 0c3e
00000090: a08d fdbd 508a bfbd 0e9b de3c 6172 38bc
000000a0: bac0 bd3c 793f 3abe 30ff c13b c129 0d3d
000000b0: 7110 9f3a 2458 4dbb eb47 10be 52b4 f13d
000000c0: 7f0d 31bc 3cb5 b4bc f613 163d 79d6 a13d
000000d0: e384 4f3d 74e6 f1bc 4d50 2fba a40a ae3c
000000e0: 4068 4cbd 40c2 9f3d a226 233b 1d60 ae3d
000000f0: f634 ca3c 3d0f d0bc 94e2 86bb 1084 9fbd
00000100: 7edd 9f3b 25e9 02bd b2d3 bb3c 8b20 c9bd
00000110: 558e a63d beba 88bd f3d3 9f3d 5dee 3c3e
00000120: 7629 963e 93e1 823d 0c9c 16be 5654 b93d
00000130: f247 5d3d e494 5f3d 0988 873d 5543 9d3d
00000140: 73f5 dcbc f4dc 263e 6dce c63c aaee ba3d
00000150: 60e4 813d 70f3 9f3c 01ec 633d f3bf 253d
00000160: b1d8 253e d039 cb3d f2cb 88bd 8436 cebc
00000170: 0b8d 8a3e c269 ffbd cdb3 b83d 14e4 37bc
00000180: bf97 413d 7306 063e a12a d23c 9bb5 dc3c
00000190: 62e2 973d 74d0 4e3d 643d 473e 6271 a33d
000001a0: 43c2 95bc bb94 fcbc cf85 35be cdbc 933d
000001b0: 6d3c fa3d 1893 493e 9790 01be 8094 a43e
000001c0: 0239 ddbd e1ac 403b 5672 a33d dca2 723e
000001d0: c8aa 4d3e 558b 50bd 258c bc3d ffb6 45be
000001e0: 143e 293d 3980 793e eb61 1cbd f04b d0bc
000001f0: bb06 eb3d 1fc8 d4bd f007 04bd ff67 a43c
00000200: 7467 b5bd 5ac3 9d3c f309 253e d364 a53c
00000210: 6369 1d3d 96eb a6bd 177f 1fbf a6be 2abe
00000220: 7ab4 54be fd36 313d b154 0cbd a4e6 d7bd
00000230: b224 16bd e103 253e 4742 67be 6234 483e
00000240: f9b1 1d3e 7bc6 b9be 79ab dbbe d902 cf3d
00000250: 5981 84bd ecf9 dabd 3043 1c3e 3114 f7bd
00000260: f4f9 a3be 03d5 e43d 920a 79bd 2397 2dbd
00000270: 805f e0be f364 a23d 05c8 d7be 0543 55bc
00000280: c7fb 703e 1c0a 04bf 05b1 8dbd 20e2 3dbe
00000290: 34f3 f5bc 09ac 96be 570a 7d3d 2c8d f1bd
000002a0: eb6e 3ebc a0e6 413e ba0b f2be 38a5 5b3c
000002b0: a5d0 8f3c 52ca 433e eb8c cc3e b62d b6be
000002c0: 88a2 95be 4606 7f3e 7e45 70bd 215b 3b3e
000002d0: 4783 70bd 8ab1 24bd aa1b fd3d 08da c4bd
000002e0: f3b3 9c3d e479 11bd 4e6e 453c ca7c 513c
000002f0: 2451 233d 4713 39ba be0c ddbd 63d1 ca3d
00000300: deef 043d 1b38 bf3e 9963 6dbd 227c 70be
00000310: a98e 6e3c e8f5 7d3c 1e3c 94be a0cd 1a3b
00000320: b8f6 6dbe b4d2 7c3d 1152 043e 801c 0abb
00000330: 818e 613b 53d5 203e d9f6 1c3d 9f48 6bbe
00000340: 5e70 01be 16f3 2ebd be5e 9abc 6649 efbb
00000350: 6c08 8fbd 7feb 5f3b 1af7 c9bc 5d8a 8b3d
00000360: 7247 3cbd a90c c83d fb6e 943c 38d4 b13c
00000370: 6c6a 42be 947e 0a3d 329b 15be b7a8 983d
00000380: 041f c8bb 5033 eb3d 7711 35bd dbc2 88bd
00000390: 570d 54be 73c3 38be c195 82bd 36a4 6dbd
000003a0: b1ec 3a3e 0008 d8bd fd9c efbc 3a08 2a3e
000003b0: 8788 cabd 4490 28bd 87ee 1ebd 906c 92be
000003c0: af65 813d 9f8a 79be 3b65 013e 0c49 913c
000003d0: b7b7 e6ba 280a 6f3d a99b dbbd 15ff 8cbe
000003e0: b413 86be 733a 83bd 6265 1dbe c6a1 8ebd
000003f0: 72ed 7e3e 2cc9 6b3e 47fb 8e3d dc04 d2bc

nns.0.3.bias f4 [64]
0.002484701 -0.12589993 -0.07468442 -0.05579672 0.057627887 0.037700057 0.06703678 0.01597088
-0.004022732 0.080251224 -0.0127484 -0.1366365 -0.032431845 0.08137484 0.14481021 -0.08847225
0.0063887173 -0.072315305 0.116527006 -0.058799554 -0.021727951 -0.12573177 -0.0057525816 -0.07113556
-0.09521374 0.11936252 -0.11564511 -0.11692103 -0.054183867 -0.0021980363 -0.010525037 -0.07932852
-0.079728745 0.10074499 -0.008508525 -0.043114416 -0.023047348 -0.08290222 0.068437174 0.023748139
0.035071597 -0.09795723 0.005723865 0.074959 0.10866004 -0.03266257 0.11113374 0.06519453
0.12503242 0.07272275 0.024555562 -0.121839575 -0.117188364 -0.024578786 -0.024981018 0.01780859
-0.01701396 0.08605241 0.054794673 0.02419049 0.012286477 0.018006379 0.021544864 -0.101638556
00000000: 5ed6 223b e9eb 00be 25f4 98bd 1a8b 64bd
00000010: 380b 6c3d 606b 1a3d 944a 893d 5dd5 823c
00000020: 1fd1 83bb c15a a43d aade 50bc 70ea 0bbe
00000030: 41d7 04bd daa7 a63d 2149 143e f030 b5bd
00000040: 7258 d13b 0c1a 94bd b6a5 ee3d cdd7 70bd
00000050: d1fe b1bc d4bf 00be 2780 bcbb 85af 91bd
00000060: 6cff c2bd 5674 f43d 58d7 ecbd 4b74 efbd
00000070: e7ef 5dbd ee0c 10bb 3471 2cbc fe76 a2bd
00000080: d348 a3bd 6453 ce3d 5767 0bbc be98 30bd
00000090: cbcd bcbc a4c8 a9bd ca28 8c3d 758b c23c
000000a0: 3ca7 0f3d cd9d c8bd 428f bb3b 1b84 993d
000000b0: 2889 de3d 30c9 05bd 169a e33d b684 853d
000000c0: 8008 003e aaef 943d bf28 c93c 0787 f9bd
000000d0: 7400 f0bd 7359 c9bc fea4 ccbc 52e3 913c
000000e0: dc60 8bbc 3f3c b03d 6170 603d 222b c63c
000000f0: 384d 493c 1d82 933c db7e b03c e027 d0bd

nns.0.4.weight f4 [64]
1.0476705 0.98231465 1.3258414 0.77985173 1.3369352 0.8292994 1.1451049 0.91051906
1.0769035 0.99959624 1.4985467 0.69471055 1.0050205 0.881719 0.66890717 0.8618383
0.86654717 0.76029783 0.96091264 0.99082935 1.0775323 0.9058442 0.7992331 0.7963174
1.4916968 1.2274239 1.2499101 1.0048957 1.180222 0.8767438 1.0553619 0.8193226
0.9621375 1.1710342 0.68428296 1.1700922 1.5424823 1.3562816 1.0118287 0.98350954
0.8933294 0.8257808 1.6959816 1.1439767 0.7452836 0.74764925 1.0646473 0.8547579
1.0298278 0.83046097 0.80433625 0.92357326 0.94757825 1.0321001 0.58619505 0.94416034
0.93603504 0.676936 0.763037 0.90237784 0.5473606 0.86283827 1.0770004 1.0135703
00000000: 111a 863f f978 7b3f 2cb5 a93f 5da4 473f
00000010: b120 ab3f f74c 543f cc92 923f c717 693f
00000020: f9d7 893f 8ae5 7f3f 61d0 bf3f 8dd8 313f
00000030: 83a4 803f 56b8 613f 803d 2b3f 6fa1 5c3f
00000040: 09d6 5d3f e1a2 423f 5ffe 753f fea6 7d3f
00000050: 94ec 893f 68e5 673f 8a9a 4c3f 75db 4b3f
00000060: ecef be3f 3a1c 9d3f 0efd 9f3f 6ca0 803f
00000070: 8411 973f 4872 603f 1916 873f 20bf 513f
00000080: a54e 763f 73e4 953f 2b2d 2f3f 95c5 953f
00000090: 0f70 c53f a39a ad3f 9a83 813f 48c7 7b3f
000000a0: 3cb1 643f 5f66 533f ed15 d93f d46d 923f
000000b0: e8ca 3e3f f165 3f3f 5d46 883f 6ad1 5a3f
000000c0: 66d1 833f 1799 543f fbe8 4d3f 4c6f 6c3f
000000d0: 7d94 723f db1b 843f e110 163f 7eb4 713f
000000e0: fe9f 6f3f ad4b 2d3f 6556 433f 3c02 673f
000000f0: d31f 0c3f f8e2 5c3f 26db 893f acbc 813f
