result/experiment_07.11.2022_19.19.59/11/fold_3_optim_dict.pt (torch, 26754 bytes, 40 tensors)

first_h.0.weight f4 [32, 3]
0	0x3f0cdcc5	0.5502437
1	0x3e03217d	0.12805744
2	0x3f295db8	0.6615863
3	0xbf805caf	-1.0028285
4	0xbf0301a8	-0.511744
5	0xbec551a5	-0.38538852
6	0x3f41988f	0.7562341
7	0x40078c27	2.1179292
8	0x40252001	2.5800784
9	0xbf0e3335	-0.55546886
10	0xbf1b3303	-0.6062471
11	0xbef0efbb	-0.470579
12	0xbf709fc2	-0.9399377
13	0xbf59a0a0	-0.8501072
14	0xbf09e7b2	-0.53869164
15	0xbf192458	-0.5982108
16	0xbf66d4c1	-0.90168387
17	0xbdd6608a	-0.10467632
18	0x3f774fcf	0.96606153
19	0x3ebd39fb	0.36958298
20	0x3e3140a5	0.17309816
21	0xbe90dd35	-0.28293768
22	0xbf3cdee6	-0.73777616
23	0xbf7a23c5	-0.9771083
24	0x3f69de27	0.913546
25	0xbede7866	-0.43451232
26	0xbf1a607e	-0.60303485
27	0xbf725cd5	-0.946729
28	0x3f45d421	0.7727681
29	0x3f89a371	1.0753003
30	0x3f751c50	0.95746326
31	0x40077387	2.1164262
32	0x4008c293	2.1368759
33	0xbf9041f5	-1.1270128
34	0x3f9ab2c0	1.20858
35	0x3e6b454c	0.22975653
36	0x3f1a8a16	0.6036695
37	0x401a1a14	2.4078417
38	0x400d003a	2.2031388
39	0xbede1b25	-0.43380085
40	0x3fb757e2	1.4323695
41	0x401b097a	2.4224534
42	0x3f135d03	0.575638
43	0xbf73fd74	-0.95308614
44	0xbf6afae8	-0.917891
45	0xbf21ea29	-0.63247925
46	0x3f85a4de	1.0440938
47	0x3f08b771	0.5340491
48	0xbf0f7826	-0.56042707
49	0x3deea8b6	0.11653273
50	0x3eef632b	0.46755347
51	0xbeb53f54	-0.35399878
52	0xbf16f803	-0.58972186
53	0xbf494fca	-0.78637373
54	0x3f140123	0.57814234
55	0xbecbc005	-0.39794937
56	0xbf62f59c	-0.8865602
57	0x3f80e28c	1.0069137
58	0xbed72136	-0.42017525
59	0xbfa4640e	-1.2843034
60	0x3fd8e4e4	1.6944852
61	0xbfe1cdbc	-1.764091
62	0xbfbfd898	-1.4987974
63	0xbf5b776c	-0.857291
64	0xbe8f5ae5	-0.27999035
65	0xbe7aa693	-0.24477606
66	0xc00c24fa	-2.1897569
67	0xbe9ab837	-0.3021867
68	0xbf5ccb83	-0.86248034
69	0x3f5ccf7c	0.86254096
70	0x3dd6fe4e	0.104977235
71	0xbfc70887	-1.5549477
72	0x3ebdcce5	0.37070385
73	0x40202d59	2.5027678
74	0x4020c8c7	2.5122545
75	0xbf416b62	-0.7555448
76	0xbf5474b3	-0.8299057
77	0xbf6bedd3	-0.92159766
78	0x3f1da514	0.61580014
79	0x405ec594	3.4808092
80	0x402e5aaa	2.7242837
81	0x3fb2cc1b	1.3968538
82	0xbfd6c33f	-1.6778334
83	0xbff488bb	-1.9104227
84	0x3f43f746	0.76549184
85	0xbe0ffea4	-0.14061981
86	0xbfb790b3	-1.4341034
87	0xbf28d4b7	-0.6594958
88	0x3de8b292	0.113621846
89	0x3f309e69	0.68991715
90	0xbd88c993	-0.06679072
91	0x3f55b0d9	0.83472973
92	0x3ef83dbe	0.48484606
93	0xbf28bb89	-0.65911156
94	0xbe896fe4	-0.26843178
95	0xbcc9f30c	-0.024652027

first_h.0.bias f4 [32]
0	0x3ef3486b	0.47516188
1	0xbea0d0bd	-0.31409255
2	0x3ec07c2d	0.3759474
3	0x3ec048ca	0.37555534
4	0x3e6d4a1b	0.231728
5	0x3f0bba37	0.54581016
6	0x3d3c1d2c	0.045926258
7	0xbd8e1b5e	-0.069388136
8	0xbea72e26	-0.32652396
9	0xbe037e5c	-0.12841171
10	0x3e5210fe	0.20514295
11	0xbed0be61	-0.40770248
12	0x3df456db	0.11930629
13	0xbe1ff454	-0.15620548
14	0xbeed3144	-0.4632665
15	0xbd92bf75	-0.07165424
16	0xbe60ec85	-0.21965225
17	0x3f03f178	0.5154033
18	0xbe8e42bb	-0.27785286
19	0x3f105bb9	0.5638996
20	0x3eaa1816	0.332215
21	0x3f10c900	0.565567
22	0xbb12cd50	-0.0022400208
23	0xbc9ac177	-0.01889108
24	0xbefb50d1	-0.49085096
25	0x3e64d592	0.22347096
26	0x3ebf4e3f	0.37364385
27	0xbd5a95a9	-0.053365383
28	0xbc96c705	-0.018405447
29	0xbd2aeb4f	-0.041728314
30	0x3e99d956	0.30048627
31	0xbeaaeccc	-0.33383787

first_h.1.weight f4 [32]
0	0x3fb276fa	1.3942559
1	0x3ed06db7	0.40708706
2	0x3fccf71b	1.6012911
3	0x3ea14808	0.31500268
4	0x3e30177a	0.17196456
5	0x3ee1b7bc	0.4408549
6	0x3fe3604e	1.7763765
7	0x3ebacf08	0.36486077
8	0xbedd9992	-0.43281227
9	0x404632e7	3.0968568
10	0x3fdb4662	1.7130854
11	0x403f8100	2.9922485
12	0x3fed5266	1.8540771
13	0x404292c1	3.0402071
14	0xbd3a0b16	-0.04542073
15	0x3fb1445d	1.3848988
16	0x3ed1c5d7	0.40971252
17	0x3ec28e1d	0.3799905
18	0x3f4b06e8	0.79307413
19	0xbef2c706	-0.47417468
20	0x4001cf84	2.0282907
21	0x3eb9cf98	0.36291194
22	0x3f9cf377	1.22618
23	0x3eb3cd24	0.35117447
24	0x4009162d	2.1419785
25	0x3da64fea	0.08120711
26	0x3fc30788	1.5236673
27	0xbf2d6a51	-0.6774035
28	0x3e9e97b7	0.30975124
29	0x4044de91	3.0760844
30	0x4043385f	3.0503156
31	0x3ed8750b	0.42276797

first_h.1.bias f4 [32]
0	0x3f21e6d7	0.6324286
1	0xbf004cab	-0.50116986
2	0xbe1614bd	-0.14656349
3	0xbf754aa9	-0.9581705
4	0xbf4b7715	-0.7947858
5	0xbe60e00c	-0.21960467
6	0xbeb4e0c9	-0.35327747
7	0xbf2c5b0c	-0.67326427
8	0xbfd3ec42	-1.6556475
9	0xbf1c3373	-0.61016005
10	0xbeb8fca5	-0.36130252
11	0xbe4cd34c	-0.20002478
12	0xbecaf491	-0.39639714
13	0xbf72087b	-0.9454419
14	0xbf3517bd	-0.70739347
15	0x3fec3e56	1.8456523
16	0xbedfcd6f	-0.4371142
17	0xbf2ebaca	-0.6825377
18	0xbf439623	-0.76400965
19	0xc04b1f35	-3.1737797
20	0xbefa1d79	-0.4885061
21	0xbebf6d24	-0.37387955
22	0xbdada08c	-0.084778875
23	0xbfd6582a	-1.6745656
24	0x3e6864f1	0.22694756
25	0xbf6dbe65	-0.92868644
26	0x3e2f76ab	0.17135112
27	0x3f3f1159	0.74635845
28	0xbf970d02	-1.1800845
29	0xbe4e8e51	-0.20171477
30	0xbe57e53a	-0.21083537
31	0xbf0437ad	-0.51647455

first_h.1.running_mean f4 [32]
0	0x4924ddec	675294.75
1	0xc9963c51	-1.2307301e+06
2	0x4962986a	928134.6
3	0xc9266ed3	-681709.2
4	0xc98cd07d	-1.1535516e+06
5	0xc9333d3a	-734163.6
6	0x4990ba1e	1.1856038e+06
7	0xc8a98e83	-347252.1
8	0x4988db92	1.1211382e+06
9	0xc98dd3f6	-1.1618548e+06
10	0x498f7185	1.1750886e+06
11	0xc9a8d641	-1.3831121e+06
12	0x4934e234	740899.25
13	0xc901f784	-532344.25
14	0x492c7809	706432.56
15	0xc93d801f	-776193.94
16	0xc927ea28	-687778.5
17	0xc8d42337	-434457.72
18	0x492d3883	709512.2
19	0x4996d834	1.2357185e+06
20	0x49fdd917	2.0795229e+06
21	0xc9806e90	-1.052114e+06
22	0xca240676	-2.6873895e+06
23	0x4981375a	1.0585392e+06
24	0x48de2a73	454995.6
25	0xc96261af	-927258.94
26	0x493885ad	755802.8
27	0x49d14266	1.7142528e+06
28	0x49655aa5	939434.3
29	0xc94598e3	-809358.2
30	0xc7a011b0	-81955.375
31	0xc9457c16	-808897.4

first_h.1.running_var f4 [32]
0	0x5582ba2c	1.7967014e+13
1	0x56591c63	5.9678986e+13
2	0x55f6ed37	3.3937336e+13
3	0x558538da	1.8309903e+13
4	0x563ebb4d	5.2427915e+13
5	0x559a8329	2.1236015e+13
6	0x56497b70	5.5383e+13
7	0x548a42b2	4.7505956e+12
8	0x56342c15	4.9525356e+13
9	0x56417fa8	5.3188506e+13
10	0x5645e92d	5.440132e+13
11	0x56891aed	7.537437e+13
12	0x559d5882	2.1625433e+13
13	0x5522812c	1.116723e+13
14	0x558f1277	1.9663684e+13
15	0x55acb907	2.3738836e+13
16	0x55879c5b	1.8638201e+13
17	0x54d86e81	7.436535e+12
18	0x559051df	1.9835164e+13
19	0x565ae1ae	6.0165705e+13
20	0x571af784	1.7038786e+14
21	0x561eaa33	4.361346e+13
22	0x578165f3	2.8454974e+14
23	0x56209d8a	4.414962e+13
24	0x54ed5721	8.154952e+12
25	0x55f67a28	3.3875565e+13
26	0x55a3bbab	2.2503303e+13
27	0x56d29e68	1.15788896e+14
28	0x55fd029c	3.4773456e+13
29	0x55bbcb45	2.5810214e+13
30	0x52768bd5	2.6472699e+11
31	0x55bb931e	2.5780067e+13

first_h.3.weight f4 [32, 32]
0	0x3f5432b0	0.82889843
1	0x3f2256de	0.634138
2	0x3ecd3125	0.40076557
3	0x3f45704f	0.77124494
4	0x3ee38724	0.44439042
5	0x3f2545bd	0.6455954
6	0x3ec09177	0.3761098
7	0x3f06c518	0.5264449
8	0x3f1997db	0.5999734
9	0x3f59be64	0.8505614
10	0x3e3eefa2	0.186461
11	0x3f40c18e	0.7529534
12	0x3ea61180	0.32435226
13	0x3f5eddd3	0.87057227
14	0x3f4e2134	0.80519414
15	0x3f5a7d63	0.85347575
16	0x3ef56e9d	0.47935954
17	0x3f0b9595	0.5452512
18	0x3f202962	0.62563145
19	0x3f010e84	0.50412774
20	0x3ecf254a	0.40458137
21	0x3f083280	0.53202057
22	0x3f326117	0.696794
23	0x3f476fb5	0.77904826
24	0x3e644d21	0.22295047
25	0x3f0c1a04	0.54727197
26	0x3e5c65ba	0.2152318
27	0x3f4699bb	0.77578324
28	0x3f4756c8	0.7786679
29	0x3f7c4a57	0.98550934
30	0x3f62666a	0.8843752
31	0x3f183810	0.59460545
32	0x3f314010	0.69238377
33	0x3f23e846	0.64026296
34	0xbf1f1202	-0.6213685
35	0xbf0d0a6e	-0.5509404
36	0x3f0f94ab	0.56086224
37	0xbf168993	-0.5880367
38	0xbf374f65	-0.7160552
39	0xbf2ce925	-0.6754325
40	0xbf3de142	-0.7417184
41	0x3f26b2f6	0.6511682
42	0xbf2ed5bd	-0.6829489
43	0x3f11356f	0.5672216
44	0xbf327676	-0.6971201
45	0x3f19bae0	0.60050774
46	0x3ef5db99	0.48019102
47	0xbf074d06	-0.52851903
48	0xbee145bc	-0.43998516
49	0xbf35c469	-0.71002823
50	0x3ed4c37e	0.415554
51	0xbf166b98	-0.58757925
52	0xbeeb8aaf	-0.46004245
53	0x3f417ead	0.75583917
54	0x3ef2a103	0.47388467
55	0xbee68d34	-0.45029604
56	0xbf221074	-0.63306355
57	0x3eff7e02	0.49900824
58	0xbf18e193	-0.597192
59	0x3effb2d8	0.49941134
60	0xbf184d70	-0.5949316
61	0x3f08244a	0.5318037
62	0x3ed3b467	0.41348574
63	0x3ef01346	0.46889704
64	0xbebd1259	-0.3692806
65	0xbe5daa96	-0.21647105
66	0xbebe29ff	-0.37141415
67	0xbefd9114	-0.49524748
68	0xbe8a46e0	-0.27007198
69	0xbea7ff78	-0.32812095
70	0xbed83116	-0.4222495
71	0xbf27c94f	-0.6554155
72	0xbf09f49b	-0.53888863
73	0xbedea133	-0.4348236
74	0xbe831f8a	-0.2561
75	0xbebb6c7a	-0.366062
76	0xbede6c5e	-0.43442053
77	0xbe635f62	-0.22204354
78	0xbf0d87a2	-0.55285084
79	0xbedeeebe	-0.4354152
80	0xbeae5c97	-0.34055015
81	0xbed67aee	-0.41890663
82	0xbf0a3e70	-0.5400152
83	0xbe863fce	-0.26220554
84	0xbf082492	-0.531808
85	0xbd21cd6c	-0.039502546
86	0xbd4879d6	-0.048944317
87	0xbf28a13a	-0.6587101
88	0xbe463d43	-0.19359307
89	0xbe33a0c5	-0.17541797
90	0xbeabda82	-0.33565146
91	0xbeae580e	-0.34051555
92	0xbf14be5e	-0.5810298
93	0xbe96c96b	-0.29450545
94	0xbf1241aa	-0.57131445
95	0xbebc2666	-0.36748046
96	0x3f3f2ebd	0.7468069
97	0x3eec439f	0.4614534
98	0xbf3c9df8	-0.7367854
99	0xbf10be47	-0.5654034
100	0x3f1a7320	0.60331917
101	0xbf05e761	-0.5230618
102	0xbf260b35	-0.6486085
103	0xbeefaf09	-0.4681323
104	0xbf0ecb29	-0.5577875
105	0x3f1a5a0d	0.60293657
106	0xbf30e191	-0.6909419
107	0x3f41b25a	0.7566277
108	0xbf25dca5	-0.647898
109	0x3f18e927	0.5973076
110	0x3efd1dc9	0.49436787
111	0xbf21cbcd	-0.632016
112	0xbef15b5c	-0.47140014
113	0xbee86f27	-0.45397303
114	0x3eee7cd9	0.46579626
115	0xbf1b4dc8	-0.6066556
116	0xbf2a38cb	-0.6649291
117	0x3f037cc2	0.5136224
118	0x3f13e56f	0.5777196
119	0xbf1a142d	-0.60187036
120	0xbf26c405	-0.6514285
121	0x3f163123	0.58668727
122	0xbf40a594	-0.7525265
123	0x3f1e33a8	0.6179757
124	0xbf0e7275	-0.556434
125	0x3f3b872d	0.73253137
126	0x3f412b3a	0.75456583
127	0x3edb542f	0.42837664
128	0x3f35ed36	0.7106508
129	0x3f06b64f	0.5262193
130	0xbf19a179	-0.6001201
131	0x3eb42e52	0.3519159
132	0x3f01e820	0.5074482
133	0x3f5e7e7f	0.8691177
134	0xbf2760f2	-0.653823
135	0x3f426e5f	0.7594966
136	0x3f01818b	0.5058829
137	0x3f870fbe	1.0551679
138	0xbf0fd71c	-0.56187606
139	0x3f93760d	1.1520401
140	0xbf318bea	-0.69354117
141	0x3f8a4b24	1.0804181
142	0x3eff2bfb	0.49838242
143	0x3fa80b7d	1.3128506
144	0x3f0c3b64	0.5477812
145	0x3f23ca02	0.63980114
146	0x3e59fd01	0.2128792
147	0xbee8cd1b	-0.45468983
148	0xbf159f7f	-0.58446497
149	0x3ee31fee	0.44360298
150	0x3f5901bf	0.8476829
151	0x3f015a04	0.5052798
152	0xbf2d51f1	-0.6770316
153	0x3f437edb	0.7636544
154	0xbf20d098	-0.6281829
155	0x3f9c9142	1.2231829
156	0x3f160e92	0.5861598
157	0x3fa715bb	1.3053507
158	0x3f970549	1.1798488
159	0x3f2eab33	0.6822998
160	0x3f3f5528	0.74739313
161	0x3f214345	0.6299327
162	0x3e8ff449	0.28116062
163	0x3ef31197	0.47474357
164	0x3f1fdbd7	0.62444824
165	0x3f9b24c9	1.2120601
166	0x3edffb82	0.43746573
167	0x3f463110	0.77418613
168	0x3f087f9e	0.5331973
169	0x3f2ab12c	0.6667659
170	0x3ee45938	0.44599319
171	0x3f3bb2aa	0.73319495
172	0x3ebc56a4	0.36784852
173	0x3e56e012	0.20983914
174	0x3f03950b	0.51399297
175	0x3f05f010	0.5231943
176	0x3f5cce1e	0.8625201
177	0x3f41f0c9	0.75758034
178	0x3f38ef7d	0.7224043
179	0x3e600fc5	0.21881016
180	0x3ecf3d3a	0.404764
181	0x3f0abb1b	0.5419175
182	0x3f3ad4e0	0.7298107
183	0x3f1f4b99	0.6222473
184	0x3ed8dd0f	0.42356154
185	0x3f2c60b5	0.67335063
186	0x3e93cacc	0.2886566
187	0x3f3b9e1f	0.7328815
188	0x3f330b76	0.69939363
189	0x3f31e213	0.69485587
190	0x3f425bef	0.7592153
191	0x3f2f03b7	0.68365043
192	0xbef35f17	-0.47533485
193	0xbf2d0843	-0.6759073
194	0x3f4624af	0.77399725
195	0x3f27b06d	0.6550358
196	0xbf2e0e83	-0.67990893
197	0x3f27f156	0.65602624
198	0x3f2eefde	0.6833476
199	0x3f388f22	0.72093403
200	0x3f6f2b91	0.9342585
201	0xbeb01b14	-0.3439566
202	0x3f4f30d6	0.8093389
203	0xbe820d9a	-0.25401002
204	0x3f2c00a6	0.6718849
205	0xbf0db6e9	-0.55357224
206	0xbebe3330	-0.37148428
207	0x3f5c6ccc	0.8610351
208	0x3f191983	0.5980455
209	0x3f231f61	0.63719755
210	0xbeac0ea2	-0.33604914
211	0x3f67320a	0.9031073
212	0x3f14d7c6	0.58141744
213	0xbf0e0402	-0.55474865
214	0xbf034c2b	-0.512881
215	0x3f3c8277	0.73636574
216	0x3f182ce0	0.59443474
217	0xbeea7cd3	-0.45798358
218	0x3f071e53	0.52780646
219	0xbeee319e	-0.4652223
220	0x3f4b620a	0.7944647
221	0xbe70dff1	-0.23522927
222	0xbe8ab599	-0.27091673
223	0xbf2b32cb	-0.6687438
224	0xbf117d65	-0.5683196
225	0xbddc2873	-0.107499026
226	0xbf2bf107	-0.67164654
227	0xbee477c8	-0.44622636
228	0xbdc8b9f6	-0.09801094
229	0xbe46e4af	-0.19423173
230	0xbedc3868	-0.43011785
231	0xbf116a19	-0.5680252
232	0xbf397ed9	-0.7245918
233	0xbf0357b8	-0.51305723
234	0xbef95edb	-0.4870518
235	0xbf0e4914	-0.5558026
236	0xbef54784	-0.47906125
237	0xbee6e16f	-0.45093867
238	0xbf1ba7bc	-0.6080282
239	0xbeae2f84	-0.34020627
240	0xbdd1bb91	-0.102408536
241	0xbedb8578	-0.42875266
242	0xbee7d07f	-0.45276257
243	0xbed65ae4	-0.4186622
244	0xbf3a7a26	-0.72842634
245	0xbe6ceff8	-0.23138416
246	0xbe5c8480	-0.2153492
247	0xbef478ce	-0.47748417
248	0xbf124574	-0.5713723
249	0xbba0376b	-0.004889419
250	0xbf1d25b6	-0.6138567
251	0xbef4f1e7	-0.47840807
252	0xbefb13a1	-0.49038413
253	0xbf174064	-0.5908263
254	0xbef25848	-0.47332978
255	0xbe398c50	-0.18119931

first_h.3.bias f4 [32]
0	0x3f8f713b	1.120643
1	0xbf429cac	-0.7602031
2	0xbe406ae1	-0.18790771
3	0xbefc4179	-0.49268702
4	0x3f664291	0.8994532
5	0x3dd8c7f6	0.105850145
6	0xbf2e634d	-0.6812027
7	0xbe848762	-0.2588454
8	0xbf2bc9e5	-0.6710494
9	0xbec11ad6	-0.37715787
10	0xbeee52f2	-0.46547657
11	0xbf0a2354	-0.53960156
12	0xbecf4360	-0.4048109
13	0xbe82e71f	-0.25566956
14	0x3f2e2dee	0.68038833
15	0xbf32b19c	-0.6980226
16	0x3f4038fe	0.75086963
17	0x3f08c57a	0.53426325
18	0xbf3fdf69	-0.7495027
19	0xbed738c2	-0.4203549
20	0xbf395a78	-0.7240367
21	0xbf0e633e	-0.5562018
22	0x3ed721ec	0.42018068
23	0x3e71a839	0.23599328
24	0x3d3fb9cc	0.04680805
25	0x3f4320e8	0.76222086
26	0xbdc3756c	-0.09543881
27	0x3eb70edd	0.35753527
28	0xbeff7bab	-0.4989904
29	0xbf6d932f	-0.9280271
30	0x3e855309	0.26039913
31	0xc020ff44	-2.5155802

first_h.4.weight f4 [32]
0	0xbdebcd55	-0.11513773
1	0xbc289748	-0.0102899745
2	0x3de9e394	0.1142036
3	0x3e43daa2	0.1912637
4	0x3e92c3d4	0.2866503
5	0xbe62d8da	-0.22153035
6	0xbf1bc1a6	-0.6084236
7	0x3f05aeda	0.5221993
8	0x3e7b6e02	0.24553683
9	0x3ed37551	0.41300443
10	0x3f8549e9	1.041318
11	0x3e66d97a	0.22543898
12	0x3ef0c6b4	0.47026598
13	0xbf926b1e	-1.143894
14	0x3e445654	0.19173557
15	0x3e3dcb0d	0.18534489
16	0xbefa1e1f	-0.48851106
17	0x3d3b021f	0.04565632
18	0xbed18cdf	-0.4092779
19	0x3f6f7bfe	0.9354857
20	0xbf0e923f	-0.55691904
21	0xbd85660d	-0.06513605
22	0xbe85f69e	-0.26164716
23	0xbe711223	-0.23542075
24	0x3deed883	0.1166239
25	0x3e942932	0.2893768
26	0xbefd07aa	-0.4941991
27	0x3dc63562	0.09678151
28	0x3eb7d614	0.35905516
29	0x3ea7d003	0.32775888
30	0x3ebef75a	0.3729809
31	0x3f20da58	0.62833166

first_h.4.bias f4 [32]
0	0xbf9c9ace	-1.2234743
1	0xbf6b781a	-0.91980135
2	0xbf4c7e6c	-0.79880404
3	0xbf3e2e4e	-0.74289405
4	0xbf8ef748	-1.1169214
5	0xbfcb2be4	-1.5872769
6	0xbf416f63	-0.7556059
7	0xbf0df359	-0.55449444
8	0xbf313a3c	-0.69229484
9	0xbf028c78	-0.5099559
10	0xbfbbbdbe	-1.466728
11	0xbf1ce629	-0.61288697
12	0xbef2a810	-0.47393847
13	0xc099a669	-4.8015637
14	0xbf02d799	-0.51110226
15	0xbf577ce7	-0.8417496
16	0xbfce8dec	-1.6137061
17	0xbf495252	-0.78641236
18	0xbf58771b	-0.8455674
19	0xbf11a893	-0.5689785
20	0xbf32b6e7	-0.69810337
21	0xbf9a9160	-1.2075615
22	0xbf45a59c	-0.77205825
23	0xbf1fc3d1	-0.6240817
24	0xbf53075a	-0.8243309
25	0xbf1cb264	-0.612097
26	0xbf41b915	-0.7567304
27	0xbf5b58e8	-0.85682535
28	0xbf4b3aa2	-0.7938634
29	0xbf21e0a5	-0.63233405
30	0xbf689c29	-0.9086328
31	0xbedfedf1	-0.43736222

first_h.4.running_mean f4 [32]
0	0x40bc9c96	5.8941145
1	0xbfcd4a46	-1.6038291
2	0xc03b1de7	-2.9237
3	0xbf9eb030	-1.2397518
4	0x40a6d89f	5.213943
5	0x40844409	4.133305
6	0x3faf3213	1.3687156
7	0xc06c0fad	-3.6884568
8	0xc03d318d	-2.9561493
9	0xc05728c9	-3.3618643
10	0xc10705ea	-8.438944
11	0xc061d942	-3.5288854
12	0xc0793063	-3.8935783
13	0xc1169ad0	-9.412796
14	0xbfae31e9	-1.3608981
15	0xc0a79884	-5.2373676
16	0x40eaa3fa	7.3325167
17	0xc08fccb8	-4.49374
18	0x3fc9742a	1.5738575
19	0x3faf3a11	1.3689595
20	0xbef77da3	-0.4833804
21	0x403fafe9	2.9951117
22	0xc05e05c8	-3.4691029
23	0x402509ea	2.57873
24	0xbff7a1db	-1.9346269
25	0xc055997b	-3.3374927
26	0xbf51a399	-0.81890255
27	0xc010049d	-2.2502816
28	0xc07ac09d	-3.9180062
29	0xc0bdc76e	-5.9305944
30	0xc08eeca9	-4.466389
31	0xc05810f0	-3.3760338

first_h.4.running_var f4 [32]
0	0x41bbfebd	23.499384
1	0x42254b2f	41.32342
2	0x41cca729	25.581621
3	0x42454b62	49.323616
4	0x4256cddc	53.701035
5	0x4206c0fb	33.688457
6	0x4246407e	49.56298
7	0x426c833e	59.128166
8	0x429604d7	75.00945
9	0x423c61f7	47.09567
10	0x441f5d48	637.4575
11	0x42884cd9	68.15009
12	0x42354731	45.319523
13	0x437f7dd7	255.49156
14	0x4267c722	57.944466
15	0x4281d5d8	64.91766
16	0x429be027	77.9378
17	0x40029085	2.0400708
18	0x428e16b6	71.04436
19	0x43015c24	129.35992
20	0x418fe706	17.987804
21	0x42be51b8	95.15961
22	0x4163446a	14.204203
23	0x4238b13e	46.173088
24	0x42287fd5	42.124836
25	0x426ca0dc	59.15709
26	0x429a24aa	77.07161
27	0x420d5f34	35.34297
28	0x42a2dca0	81.43091
29	0x42a391bf	81.78466
30	0x42b57402	90.72658
31	0x42cf1a62	103.55153

nns.0.0.weight f4 [32, 32]
0	0xbe7002da	-0.23438588
1	0xbed7e314	-0.42165434
2	0xbf502c5c	-0.8131769
3	0xbf020005	-0.5078128
4	0xbe850c1d	-0.25985804
5	0xbe253d28	-0.1613661
6	0xbf1f873e	-0.6231574
7	0xbec94fa9	-0.39318588
8	0xbf820d88	-1.016038
9	0xbf71d212	-0.94461167
10	0xbf293f77	-0.66112465
11	0xbf1d1846	-0.61365163
12	0xbf4a6e13	-0.7907421
13	0xbf88698a	-1.0657208
14	0xbf1eb9bc	-0.6200216
15	0xbf6eb54c	-0.9324539
16	0xbf093e09	-0.53610283
17	0xbee65835	-0.44989172
18	0xbf03e2b7	-0.51517814
19	0xbe76f4c9	-0.24116816
20	0xbefbdbbb	-0.4919108
21	0xbf076170	-0.5288305
22	0xbe08d4bb	-0.133624
23	0xbeaed404	-0.3414613
24	0xbf585d18	-0.8451705
25	0xbf872b52	-1.0560095
26	0xbea2824a	-0.31740028
27	0xbe9cd88d	-0.30633965
28	0xbf24dbf6	-0.64398134
29	0xbf840d28	-1.0316515
30	0x3f086f2a	0.5329462
31	0xbeab12b3	-0.33412704
32	0xbf161f2d	-0.5864132
33	0xbe04eb72	-0.1298044
34	0x3d8c163a	0.06840177
35	0xbe2ead54	-0.17058307
36	0xbf38eb41	-0.7223397
37	0xbef1f92f	-0.47260424
38	0xbf498f81	-0.78734595
39	0x3e64ce81	0.223444
40	0xbee5460b	-0.4478
41	0xbefb37d3	-0.49066028
42	0xbf7f1cab	-0.9965312
43	0x3e1a77bf	0.15084742
44	0xbe31943d	-0.17341705
45	0xc012a3b4	-2.2912416
46	0xbf1bf287	-0.6091694
47	0xbdacdedb	-0.08440944
48	0xbf0fc117	-0.56154007
49	0xbe79128e	-0.24323484
50	0xbf3f8d15	-0.7482465
51	0xbf40b64e	-0.75278175
52	0xbf1d2e68	-0.61398935
53	0xbf4591c2	-0.77175534
54	0x3ec9bbad	0.39400998
55	0xbf3c27e9	-0.734984
56	0x3e1f9611	0.1558459
57	0xbea69812	-0.32537895
58	0x3f094d8d	0.5363396
59	0x3e8b3965	0.27192226
60	0xbd03af9c	-0.032149896
61	0xbe18ecb4	-0.14934045
62	0x3e836472	0.2566257
63	0xbf0621e6	-0.52395475
64	0xbecf2cb1	-0.40463784
65	0x3f567a7b	0.8378064
66	0x3f04f5d3	0.519376
67	0x3f32797c	0.6971662
68	0xbece0392	-0.402371
69	0xbe8aed75	-0.2713429
70	0xbf59d34a	-0.85088027
71	0x3f39266f	0.7232427
72	0x3ecf3fb5	0.40478292
73	0x3f063abf	0.5243339
74	0xbf25d00d	-0.64770585
75	0x3ebf1327	0.373193
76	0x3e970a18	0.29499888
77	0xbec12606	-0.37724322
78	0x3f2aa2ad	0.66654474
79	0x3f5e31f4	0.8679497
80	0xbf561a26	-0.8363365
81	0x3f2f4975	0.6847146
82	0xbf51cd86	-0.8195423
83	0xbefbd541	-0.49186137
84	0xbf08b2a4	-0.53397584
85	0xbf4ee0db	-0.8081185
86	0x3f24d898	0.64392996
87	0xbe9d8182	-0.3076287
88	0x3f1b74b2	0.6072494
89	0x3eb2c13a	0.34913045
90	0x3f6d83fb	0.9277951
91	0x3f622972	0.8834449
92	0x3f3e99fc	0.7445371
93	0x3f1e85c1	0.6192284
94	0x3f709e61	0.9399167
95	0xbeb5d408	-0.3551333
96	0xbf405b3a	-0.751392
97	0x3f2ebc18	0.6825576
98	0xbf038072	-0.51367867
99	0xbe974e54	-0.29551947
100	0xbf2e5dbf	-0.68111795
101	0xbf3f20d8	-0.7465949
102	0xbf5a85d1	-0.8536044
103	0x3dd7b321	0.10532213
104	0xbefeab2a	-0.49739963
105	0xbd7718c8	-0.060326368
106	0xbf7fe98a	-0.9996573
107	0x3db50467	0.0883873
108	0xbe755ac8	-0.23960412
109	0xc02dff53	-2.7187088
110	0xbee32689	-0.44365337
111	0xbee7b161	-0.45252517
112	0xbf3ae851	-0.73010737
113	0x3e16356b	0.14668815
114	0xbf6f6e46	-0.9352764
115	0xbf51ecf3	-0.8200218
116	0xbf49e036	-0.78857744
117	0xbf1f698a	-0.62270415
118	0xbe8cef61	-0.27526382
119	0xbf5dc407	-0.8662724
120	0xbebcccac	-0.36874902
121	0xbe25915b	-0.1616873
122	0xbe975a7e	-0.29561228
123	0xbe7a7fd7	-0.2446283
124	0x3e8a57e2	0.27020174
125	0x3dbedc47	0.09319358
126	0xbf34ea39	-0.70669895
127	0xbf219389	-0.63115746
128	0xbf4f71f1	-0.81033236
129	0xbf134f3f	-0.57542795
130	0x3f3c8968	0.73647165
131	0x3f57ac36	0.8424715
132	0xbf69ceeb	-0.91331357
133	0xbf3fdfe7	-0.7495102
134	0xbf5e8370	-0.8691931
135	0x3dfa4b50	0.12221396
136	0x3f5f42c2	0.8721124
137	0x3f2a8eff	0.66624445
138	0x3f91085b	1.1330675
139	0x3f655b5c	0.8959253
140	0x3f8128fa	1.009063
141	0xbf7a57c8	-0.97790194
142	0x3e68424b	0.22681539
143	0x3f0c2274	0.5474007
144	0x3f0c38d7	0.5477423
145	0x3ec39e84	0.38206875
146	0xbe8519ce	-0.2599625
147	0xbf66f115	-0.9021161
148	0xbf2e3353	-0.68047065
149	0xbf22b70e	-0.6356057
150	0xbed1a957	-0.4094951
151	0xbf52f11e	-0.82399166
152	0x3f3972ed	0.7244099
153	0x3f3c0b36	0.73454607
154	0xbecb76d3	-0.39739093
155	0xbed0cb19	-0.4077995
156	0x3e8eda30	0.2790084
157	0x3f30b655	0.69028217
158	0x3e378482	0.17921641
159	0xbf8054ab	-1.0025839
160	0x3f18b969	0.59657913
161	0x3ed6f653	0.41984805
162	0x3f91d824	1.1394086
163	0xbe96a1d3	-0.29420337
164	0x3f510f74	0.81664205
165	0x3f4034b1	0.750804
166	0x3f02a105	0.51026946
167	0x3f553051	0.8327685
168	0x3e16fef7	0.14745699
169	0xbe1ba6a5	-0.15200289
170	0xbff4b28f	-1.9116992
171	0x3f4342db	0.7627389
172	0xbcbfe046	-0.023422372
173	0xbf31b46a	-0.69415915
174	0xbd9820ad	-0.074281074
175	0x3f54b5ae	0.8308972
176	0x3f14f3eb	0.5818469
177	0xbe5a3b55	-0.21311696
178	0x3f07535f	0.5286159
179	0x3e84c0e5	0.25928417
180	0x3f35c4a7	0.7100319
181	0x3f155f96	0.5834898
182	0x3f1210e7	0.5705704
183	0x3f1b601c	0.60693526
184	0x3f97d5b0	1.1862087
185	0x3d941771	0.072310336
186	0x3f74bfb4	0.95605016
187	0x3f2138db	0.6297738
188	0x3e165907	0.14682399
189	0xbe06689a	-0.1312584
190	0x3e87a84f	0.26495597
191	0x3def27e0	0.116775274
192	0xbf282048	-0.6567426
193	0xbf465c3c	-0.7748449
194	0xbf086949	-0.5328565
195	0xbf69e6b7	-0.9136767
196	0xbf293d27	-0.66108936
197	0xbef7fdfd	-0.48435965
198	0xbf0f1d37	-0.55903953
199	0xbf1da580	-0.6158066
200	0xbed4a013	-0.41528377
201	0xbf65b099	-0.8972259
202	0x3c683e35	0.014174988
203	0xbef2d123	-0.47425184
204	0xbf5699f8	-0.8382869
205	0xbf2cc57a	-0.67488825
206	0xbf2f633a	-0.6851078
207	0xbf40820e	-0.7519845
208	0xbeb42c58	-0.35190082
209	0xbf139697	-0.57651657
210	0xbec45505	-0.38346115
211	0xbf18b4be	-0.5965079
212	0xbef0f00f	-0.4705815
213	0xbeab7e2e	-0.33494705
214	0xbebfcab3	-0.37459335
215	0xbebe8e38	-0.3721788
216	0xbf074c13	-0.52850455
217	0xbf587b32	-0.8456298
218	0xbeef2c70	-0.4671359
219	0xbed77de3	-0.4208823
220	0xbf1fa06a	-0.6235415
221	0xbf5383c5	-0.8262294
222	0xbf020532	-0.5078918
223	0xbf3bc16a	-0.73342
224	0xbf34d94a	-0.70644057
225	0x3f4db921	0.8036061
226	0x3f78da7c	0.9720838
227	0x3f7276a1	0.94712263
228	0xbf57f3c5	-0.8435634
229	0xbf08cb0a	-0.53434813
230	0xbe7ea3c5	-0.2486716
231	0x3d3c8d1f	0.04603302
232	0x3f4cda96	0.80021036
233	0x3f86b09c	1.0522647
234	0x3f03d9f9	0.51504475
235	0x3eed27c1	0.46319392
236	0x3f3e7ead	0.7441204
237	0xbdf3edfd	-0.11910627
238	0x3ea05ab8	0.31319213
239	0x3f7a641d	0.9780901
240	0xbe8a249b	-0.26981053
241	0x3d932d36	0.07186358
242	0xbe8d35c7	-0.2758009
243	0xbf1ff811	-0.62487894
244	0xbe0db6e8	-0.13839304
245	0xbc2274f8	-0.009915583
246	0xbeb7bb63	-0.35885152
247	0xbf5b2ee3	-0.8561842
248	0x3f7e4955	0.99330646
249	0x3f3af6d8	0.73032904
250	0x3dcb798a	0.09935291
251	0xbde60a16	-0.112323925
252	0x3df24e97	0.11831396
253	0x3f4da051	0.8032275
254	0x3ea5573f	0.32293126
255	0xbf1f1943	-0.6214792

nns.0.0.bias f4 [32]
0	0x3fa7627d	1.3076931
1	0xbe8db5f7	-0.2767789
2	0x3f5c80bf	0.8613395
3	0xc0315d66	-2.7713256
4	0xbfa68b7f	-1.3011321
5	0xc078d772	-3.8881497
6	0xbfb5cb49	-1.4202663
7	0x3f3eff00	0.7460785
8	0xbf299a20	-0.662508
9	0xbfa5237a	-1.2901452
10	0x3f086c88	0.53290606
11	0xbdb2b204	-0.0872536
12	0xbfcd754a	-1.6051419
13	0x3e9643fa	0.29348737
14	0x3feb6e5e	1.8393056
15	0x3ede12a2	0.4337359
16	0xbf79917e	-0.9748763
17	0xbfa08338	-1.2540045
18	0xc008a0f4	-2.1348238
19	0x3ee14b5e	0.44002813
20	0x400587de	2.0864177
21	0x3f05b8a7	0.5223488
22	0xc0365bd3	-2.8493545
23	0xbe40a69b	-0.18813555
24	0x3fd5ea8c	1.6712203
25	0xbffb5376	-1.9634845
26	0x3feabb34	1.833838
27	0xbd87bce3	-0.06627824
28	0x40ae69d4	5.4504185
29	0xbf304284	-0.68851495
30	0xbef3d0c5	-0.47620216
31	0x4086e0ae	4.2149267

nns.0.1.weight f4 [32]
0	0xbdd12817	-0.10212725
1	0xc005fadd	-2.0934365
2	0x3c1ef37f	0.009701609
3	0xc0077768	-2.116663
4	0x3f941c95	1.1571223
5	0x3e1c3e74	0.15258199
6	0x3e5fab67	0.21842729
7	0xbec2ae5b	-0.38023648
8	0xbfa46197	-1.2842282
9	0x3fd7b3e4	1.6851773
10	0xc0731868	-3.7983646
11	0xbf70c75e	-0.9405421
12	0xc05bcb44	-3.4342813
13	0xbf4e9973	-0.80702895
14	0x3f90f3f2	1.1324446
15	0x3eb88459	0.36038473
16	0x3e2fc524	0.17165047
17	0xc0c3b8a6	-6.11629
18	0x3dbe7b7a	0.09300895
19	0x3f6a1e26	0.9145225
20	0xc04d1efe	-3.2050166
21	0x3f166895	0.5875333
22	0x3ee7f930	0.45307302
23	0xbf1a8af9	-0.60368305
24	0x3f7db60b	0.991059
25	0x3e132ff1	0.14373757
26	0x3ef2b16c	0.47400987
27	0x3f704a45	0.93863326
28	0x3ee17fc9	0.44042805
29	0xc0a95fee	-5.29296
30	0xbc2b030a	-0.010437736
31	0x3ffb29b0	1.9622097

nns.0.1.bias f4 [32]
0	0xbf35c736	-0.71007097
1	0xbf0c63ce	-0.5483979
2	0xbf38ca61	-0.72183806
3	0xbe94dff7	-0.29077122
4	0xbf5242d5	-0.8213323
5	0xbf4aac63	-0.7916929
6	0xbf0c516e	-0.5481175
7	0xbf33eb54	-0.7028096
8	0xbf27e4dd	-0.6558359
9	0xbf8a518f	-1.080614
10	0xbe8f5991	-0.2799802
11	0x3f3cecdc	0.7379892
12	0x3ef11c05	0.4709169
13	0xbfa16067	-1.2607545
14	0xbf99e3ba	-1.2022622
15	0xbf282a4f	-0.6568956
16	0xbf72c0c4	-0.94825387
17	0xbfbe9a37	-1.4890813
18	0xbe6bb95b	-0.23019926
19	0x3f0fab40	0.5612068
20	0xbf966e44	-1.17524
21	0x3e24b4a6	0.16084537
22	0x3e71fe06	0.23632059
23	0x3f4f7970	0.81044674
24	0xbea70fca	-0.32629234
25	0xbfb52c68	-1.4154177
26	0xbf54bff0	-0.83105373
27	0xc0717b0e	-3.7731357
28	0x3f2473e5	0.6423934
29	0xc06945e6	-3.6448913
30	0x3f125521	0.57161146
31	0xbf8aee9f	-1.0854071

nns.0.1.running_mean f4 [32]
0	0x3fa76160	1.3076591
1	0xbe8db621	-0.27678016
2	0x3f5c8019	0.8613296
3	0xc0315e9d	-2.7713997
4	0xbfa68b1e	-1.3011205
5	0xc078d4b5	-3.8879826
6	0xbfb5cb7c	-1.4202724
7	0x3f3effdf	0.7460918
8	0xbf299ac0	-0.66251755
9	0xbfa521ce	-1.2900941
10	0x3f086de9	0.5329271
11	0xbdb2b148	-0.0872522
12	0xbfcd7451	-1.6051122
13	0x3e96420e	0.2934727
14	0x3feb6fa0	1.839344
15	0x3ede1135	0.43372503
16	0xbf79904e	-0.97485816
17	0xbfa081d2	-1.2539618
18	0xc008a02c	-2.134776
19	0x3ee14c44	0.440035
20	0x400587e8	2.08642
21	0x3f05b83b	0.5223424
22	0xc0365b97	-2.8493402
23	0xbe40a581	-0.18813135
24	0x3fd5ebd4	1.6712594
25	0xbffb5159	-1.96342
26	0x3feabc62	1.833874
27	0xbd87bdf2	-0.06628026
28	0x40ae6a1d	5.4504533
29	0xbf304164	-0.6884978
30	0xbef3d019	-0.47619703
31	0x4086e026	4.214862

nns.0.1.running_var f4 [32]
0	0x30b15d07	1.2904885e-09
1	0x2c8ca889	3.9977505e-12
2	0x2eded631	1.0133439e-10
3	0x31d8fb7c	6.315018e-09
4	0x2f73d1d9	2.2175274e-10
5	0x330cd771	3.2792233e-08
6	0x2eba54b4	8.473347e-11
7	0x2f4682de	1.8054488e-10
8	0x2ef6be0c	1.1220544e-10
9	0x3150389a	3.0300158e-09
10	0x300d6e3b	5.145215e-10
11	0x2c33eced	2.556895e-12
12	0x3088be7d	9.949442e-10
13	0x2f8639b3	2.4415456e-10
14	0x30d48640	1.5463186e-09
15	0x2f1c734a	1.4229076e-10
16	0x2fbac06f	3.3969935e-10
17	0x311769a9	2.2033453e-09
18	0x3120f76c	2.3423707e-09
19	0x2e60b768	5.10946e-11
20	0x2ea83e96	7.650873e-11
21	0x2e4e71b3	4.6939962e-11
22	0x2ff64bad	4.480091e-10
23	0x2dbeecfd	2.1705743e-11
24	0x30e4df9d	1.6652738e-09
25	0x31a7e83a	4.886741e-09
26	0x30bdce63	1.3810219e-09
27	0x2cb18e7a	5.0464606e-12
28	0x3140dfeb	2.806696e-09
29	0x2fbcd94e	3.4351405e-10
30	0x2dee6ad2	2.7104905e-11
31	0x319ab600	4.502681e-09

nns.0.3.weight f4 [32, 32]
0	0xbfb0b90c	-1.3806472
1	0xbeed61da	-0.46363717
2	0x3f18c2e5	0.59672385
3	0x3e02cf2b	0.12774341
4	0xbf53b7a9	-0.8270212
5	0xbf248ee1	-0.64280516
6	0x3ec38c99	0.38193205
7	0xbf747db0	-0.95504284
8	0xbe40cdf8	-0.18828571
9	0xbeea842e	-0.4580397
10	0x3f262e64	0.64914536
11	0xbeef47c9	-0.46734455
12	0xbe9d6cc4	-0.30747044
13	0xbef6fd32	-0.48240048
14	0xbf47e5d2	-0.7808505
15	0xbf55eaeb	-0.8356158
16	0xbf223e4e	-0.6337632
17	0x3eb4dfb0	0.3532691
18	0xbf2dda75	-0.67911464
19	0xbf9e03bb	-1.2344888
20	0xbed997a7	-0.42498514
21	0xbf7daca5	-0.9909156
22	0xbf3a0934	-0.7267029
23	0xbf6963e5	-0.9116805
24	0xbf68fbd1	-0.9100924
25	0xbf2b8708	-0.67002916
26	0xbf05912d	-0.52174646
27	0xbf18163f	-0.59408945
28	0xbf483a3e	-0.7821387
29	0xbfbfc2c7	-1.4981316
30	0xbf050bed	-0.5197132
31	0xbed010f8	-0.40637946
32	0x3e92c67c	0.28667057
33	0xbf34dcf8	-0.7064967
34	0x3f067b7d	0.5253218
35	0xbf172701	-0.5904389
36	0x3edc7443	0.4305745
37	0xbf3b2d13	-0.7311565
38	0xbf0017b2	-0.50036156
39	0x3f079a37	0.5296969
40	0xbf1a3488	-0.60236406
41	0x3eb689f1	0.35652116
42	0x3c9fe2c7	0.019517316
43	0xbe93a7e3	-0.28839025
44	0xbf37b32a	-0.7175776
45	0x3e88deb0	0.26732397
46	0xbf054002	-0.52050793
47	0xbe9c485a	-0.3052395
48	0x3d428af8	0.047495812
49	0xbf2088f3	-0.6270897
50	0xbf271db6	-0.6527971
51	0xbf086200	-0.53274536
52	0x3f28544d	0.6575363
53	0xbf4bb4c6	-0.79572713
54	0xbf537d06	-0.82612646
55	0xbf395000	-0.72387695
56	0xbf02f4bb	-0.5115468
57	0xbf06e85f	-0.5269832
58	0xbe7181cb	-0.23584668
59	0xbf2f9bf1	-0.6859732
60	0xbf0f90bd	-0.5608023
61	0x3eed559a	0.4635437
62	0xbe5bb6e6	-0.21456489
63	0xbf4a26ec	-0.7896564
64	0x3eac5b70	0.3366351
65	0xbf7ca35b	-0.9868676
66	0x3e4d8c9e	0.20073172
67	0xbf227e20	-0.634737
68	0xbedd52e5	-0.43227306
69	0xbdfb271e	-0.122633204
70	0x3d80f9d2	0.062976494
71	0x3e9d2547	0.30692503
72	0x3e5833a6	0.21113452
73	0xbf5f7f64	-0.8730376
74	0xbf47c90a	-0.78041136
75	0xbb440183	-0.0029908128
76	0xbf4e1623	-0.8050253
77	0x3e6b1dd1	0.22960593
78	0xbf76c3b3	-0.96392363
79	0xbd181cba	-0.03713677
80	0x3f07b179	0.53005177
81	0xbf549f85	-0.8305591
82	0x3d6e8d1c	0.05824004
83	0x3ea3eba3	0.32015714
84	0xbf07e4ca	-0.5308348
85	0x3ea3afdc	0.31970108
86	0xbf204539	-0.62605625
87	0xbf70ba67	-0.9403443
88	0xbf671e4e	-0.90280616
89	0xbf7ba2cc	-0.98295283
90	0xbf7ae11b	-0.97999734
91	0xbf744ae0	-0.9542675
92	0x3ec98412	0.39358574
93	0xbef03e89	-0.4692271
94	0x3ec367ac	0.38165033
95	0xbf950eb4	-1.1645112
96	0x3ed35b80	0.41280746
97	0x3ebcf0d1	0.36902478
98	0x3e5ab8eb	0.21359603
99	0x3e88045c	0.26565826
100	0x3fbf242f	1.4932917
101	0x3ece0e90	0.40245485
102	0x3eb23bb1	0.34811166
103	0xbd7bb640	-0.061453104
104	0xbe810d31	-0.25205377
105	0x3f173bc6	0.5907558
106	0xbeeaa9a7	-0.4583256
107	0x3f41615e	0.75539196
108	0x3f91b2e1	1.1382715
109	0xbf3b6c69	-0.73212296
110	0x3f19a6cb	0.6002013
111	0x3f163d56	0.5868734
112	0xbe961f79	-0.29320887
113	0x3e6a1a56	0.22861609
114	0x3ed8ba9a	0.42329866
115	0x3ef8a487	0.48563024
116	0xbec49fe9	-0.38403252
117	0x3ee78fb4	0.45226824
118	0x3ea2f423	0.31826887
119	0xbe42d049	-0.19024767
120	0x3ef890ee	0.48548073
121	0x3f3c836f	0.7363805
122	0x3eabda97	0.33565208
123	0x3f1a05c0	0.60165024
124	0xbf778931	-0.9669371
125	0xbf4b2646	-0.79355276
126	0x3ea6087d	0.3242835
127	0x3f40e22c	0.7534511
128	0xbf3d560b	-0.73959416
129	0xbf08c63f	-0.534275
130	0xbe5fd64c	-0.21859092
131	0xbea92c47	-0.33041593
132	0xbf6a2c3a	-0.91473734
133	0xbee67d27	-0.4501736
134	0xbf0b6033	-0.54443663
135	0xbe500859	-0.20315684
136	0xbead9a4e	-0.33906788
137	0xbf29e4a0	-0.6636448
138	0xbe9fe86c	-0.3123201
139	0xbed05df2	-0.40696675
140	0xbe9be262	-0.30446154
141	0xbf02b951	-0.5106402
142	0xbf2c434c	-0.67290187
143	0xbf48f1b8	-0.78493834
144	0x3f29eeaf	0.6637983
145	0xbee109cd	-0.4395279
146	0xbeda2110	-0.4260335
147	0xbf0d0cbc	-0.55097556
148	0xbc08c200	-0.008347034
149	0xbeec3933	-0.4613739
150	0xbf1e708b	-0.61890477
151	0x3f020c14	0.5079968
152	0xbf5015f6	-0.8128351
153	0xbeaa4f59	-0.33263662
154	0xbf2ade86	-0.66745794
155	0xbf0f91da	-0.56081927
156	0x3f091020	0.5354023
157	0x3f06dff7	0.52685493
158	0xbf062abe	-0.5240897
159	0xbec3c27c	-0.38234317
160	0xbf364756	-0.712026
161	0x3f0f3038	0.5593295
162	0xbf1ca240	-0.61185074
163	0x3f069f8e	0.5258721
164	0xbefc9462	-0.49331957
165	0x3e3ae737	0.18252264
166	0x3f4df631	0.80453783
167	0xbf25fff3	-0.6484367
168	0x3f315d19	0.6928268
169	0x3f1cef17	0.6130232
170	0x3f84282d	1.0324761
171	0x3eae2f7e	0.3402061
172	0x3f3b07ec	0.7305896
173	0xbf814325	-1.0098616
174	0x3f1ea177	0.61965126
175	0xbd4c5550	-0.049886048
176	0x3ebcc5fc	0.368698
177	0x3f4e60bc	0.80616355
178	0x3e67533e	0.22590348
179	0x3e580bb2	0.21098211
180	0xbf120f89	-0.57054955
181	0xbf650db6	-0.89474046
182	0x3f282e61	0.6569577
183	0x3ee27f73	0.4423786
184	0x3f16079b	0.58605355
185	0x3f3850cb	0.7199828
186	0x3f1d03f0	0.61334133
187	0x3f58a28d	0.8462303
188	0xbe36cb57	-0.17851005
189	0xbedce1e3	-0.43141088
190	0xbef750fb	-0.4830397
191	0x3f4530b0	0.77027416
192	0x3f0131bd	0.5046652
193	0x3f4f020d	0.80862504
194	0xbf3955ac	-0.7239635
195	0x3f448c9a	0.7677704
196	0xbf2e6538	-0.681232
197	0x3ef77add	0.48335925
198	0x3ea32e6f	0.31871364
199	0xbeac7b78	-0.3368795
200	0x3ee235c1	0.44181636
201	0x3ec66934	0.3875214
202	0x3f0d4cdb	0.551954
203	0x3e4dffa0	0.20117044
204	0x3f2b38f8	0.668838
205	0x3ee2df11	0.4431081
206	0x3f532e7f	0.8249282
207	0x3f19d818	0.6009536
208	0x3f5b1059	0.8557182
209	0x3f5ea3e1	0.8696881
210	0x3f0f2ca0	0.5592747
211	0x3eabe140	0.3357029
212	0xbf01d634	-0.50717473
213	0xbe676f7d	-0.22601123
214	0x3f808da2	1.0043223
215	0x3ea065d1	0.3132768
216	0x3f657a2b	0.8963954
217	0x3f3a4c44	0.7277262
218	0x3f6c49a8	0.9229989
219	0x3f429eec	0.76023746
220	0xbef1c358	-0.47219348
221	0xbf06ec2d	-0.52704126
222	0x3f287b88	0.65813494
223	0x3f584510	0.8448038
224	0x3f9c2251	1.2197973
225	0xbeba9113	-0.36438808
226	0xbf040e43	-0.5158426
227	0xbee591ed	-0.44837895
228	0x3dabaaee	0.083822116
229	0xbe5113d2	-0.20417717
230	0xbf35c51b	-0.71003884
231	0xbee0d63c	-0.43913448
232	0xbf1cd310	-0.61259556
233	0x3fa4f626	1.2887619
234	0xbc6b3f90	-0.014358416
235	0x3fd44924	1.6584821
236	0x3f35557a	0.7083355
237	0x3dddd1ed	0.10831056
238	0x3f6b704b	0.9196822
239	0x3e5da7f1	0.21646096
240	0x3edce2d5	0.4314181
241	0x3fcd6735	1.6047121
242	0xbf119cda	-0.5687996
243	0xbed26cdf	-0.41098687
244	0xbed08828	-0.4072888
245	0xbf1ce1d0	-0.6128206
246	0xbeed26d4	-0.46318686
247	0x3f0fdcf1	0.56196505
248	0x3f23406c	0.63770175
249	0x3f517085	0.81812316
250	0x3f977545	1.1832663
251	0x3fab17e6	1.3366668
252	0xbefcf1fd	-0.49403372
253	0x3f3ffa48	0.74991274
254	0x3ee317ba	0.4435404
255	0x3f75bbd1	0.9598971

nns.0.3.bias f4 [32]
0	0xbf4472ff	-0.7673797
1	0xbf2ec662	-0.6827146
2	0x3f10b4b2	0.5652572
3	0x3f4c01ee	0.79690444
4	0x3ee399cd	0.44453278
5	0x3f041575	0.5159524
6	0x3f832d92	1.0248282
7	0x3f22024a	0.6328474
8	0x3f2e9f32	0.6821166
9	0xbf0ebf58	-0.5576072
10	0x3f146692	0.5796901
11	0x3d9844f4	0.07435027
12	0xbf003c84	-0.5009234
13	0xbf6a9b6b	-0.916434
14	0x3f07eab3	0.530925
15	0x3dfac6b9	0.122449346
16	0xbf048ec0	-0.5178032
17	0xbec9d3a8	-0.39419293
18	0xbf0241c5	-0.50881606
19	0xbf903549	-1.1266261
20	0x3f28e3e6	0.65972745
21	0xbf2c8a34	-0.6739838
22	0x3ecf7002	0.40515143
23	0xbf555c01	-0.8334351
24	0x3ba8d329	0.0051521254
25	0x3f464169	0.7744356
26	0x3f9b799b	1.2146486
27	0xbfb50302	-1.4141543
28	0xbeede194	-0.46461165
29	0xbe593a0e	-0.21213552
30	0xbf1e0b6c	-0.6173618
31	0xbf1f56c2	-0.62241757

nns.0.4.weight f4 [32]
0	0x3f4e3443	0.80548495
1	0x3e5c7aed	0.21531267
2	0x3eda6466	0.42654723
3	0xbf2e18ee	-0.6800679
4	0x3eafcebe	0.3433742
5	0xbf07df2b	-0.530749
6	0xbd70e6a0	-0.05881369
7	0xbf4808fe	-0.7813872
8	0xbed9f441	-0.42569163
9	0xbec94de4	-0.39317238
10	0x3ff9d9b1	1.9519559
11	0x3fb0aefd	1.3803402
12	0x3e18664f	0.14882778
13	0x3ec87815	0.39154115
14	0xbf146cef	-0.5797872
15	0xbdf485c4	-0.11939576
16	0x3eeffa25	0.46870533
17	0x3bb990db	0.00566302
18	0x3f31ba48	0.6942487
19	0xbf888458	-1.0665388
20	0x3ea82f2c	0.3284849
21	0x3f6b4f47	0.9191784
22	0x3eb89da9	0.36057785
23	0xbe03a41f	-0.12855576
24	0x3ea7b385	0.3275415
25	0xbe828261	-0.25490096
26	0xbcc7dd03	-0.024397379
27	0xbed0ae7b	-0.40758118
28	0x3ec475e0	0.3837118
29	0x3f432ade	0.76237285
30	0x3ee6ccb0	0.4507804
31	0xbe7beebc	-0.24602789

nns.0.4.bias f4 [32]
0	0xbfdf7a72	-1.7459242
1	0xbf4f76b7	-0.8104052
2	0xbf256dd3	-0.64620703
3	0xbff2e9ac	-1.8977561
4	0xbf28dc8e	-0.6596154
5	0xbf7d5f14	-0.989732
6	0xbf05d8bb	-0.5228383
7	0xbf769d99	-0.96334225
8	0xbf5d1ed9	-0.86375195
9	0xbf4aef12	-0.7927104
10	0xbfd2e641	-1.6476518
11	0xbf59d7f2	-0.8509513
12	0xbf562209	-0.83645684
13	0xbf171f12	-0.59031785
14	0xbfa1a5ed	-1.2628762
15	0xbf66a41d	-0.90094167
16	0xbf1235f7	-0.57113594
17	0xbf2a541b	-0.66534585
18	0xbf753f9d	-0.9580019
19	0xbfa50b9d	-1.2894169
20	0xbf56551d	-0.8372362
21	0xc0077d57	-2.1170251
22	0xbf49b083	-0.7878496
23	0xbf3185f4	-0.6934502
24	0xbf11c18e	-0.56935966
25	0xbf2e8d80	-0.6818466
26	0xbf560e9b	-0.83616036
27	0xc08244d1	-4.0709004
28	0xbf2cda59	-0.6752067
29	0xc0835925	-4.104632
30	0xbf7ea1c3	-0.9946558
31	0xbf28636b	-0.657767

nns.0.4.running_mean f4 [32]
0	0xc074b6e4	-3.8236628
1	0xc03c7324	-2.9445276
2	0xbd5342d0	-0.05157739
3	0x3fe17531	1.7613889
4	0xbdaa51cd	-0.083163835
5	0x3f9d84d1	1.2306157
6	0x400e7013	2.2255905
7	0x400aec24	2.1706629
8	0x3fb510ed	1.414579
9	0xbe2ccdf1	-0.16875435
10	0x3e2ed715	0.17074235
11	0xbe075b3a	-0.13218394
12	0xc007fde4	-2.1248713
13	0xc02dc1c9	-2.7149527
14	0x3fb4bb64	1.4119687
15	0x3f5adb96	0.8549131
16	0xc01c9ffe	-2.4472651
17	0xbf8091f2	-1.0044539
18	0xc0384d76	-2.8797278
19	0x4063f67c	3.5619192
20	0xbf9ca8d1	-1.2239019
21	0xc04ae9b8	-3.170515
22	0xbffe3bd0	-1.9862003
23	0xbf926b27	-1.143895
24	0xc06660fe	-3.59967
25	0x3ef0dcdf	0.4704351
26	0x3ff53a22	1.9158366
27	0xc01c4375	-2.4416173
28	0xc03db030	-2.9638786
29	0xc033c131	-2.8086665
30	0xbe4b8a16	-0.19876894
31	0xbec3d722	-0.3825007

nns.0.4.running_var f4 [32]
0	0x326808be	1.3506165e-08
1	0x31bcfece	5.500488e-09
2	0x2c3a877c	2.6507399e-12
3	0x312647fa	2.4197093e-09
4	0x2c9e0dc1	4.492157e-12
5	0x30a8f492	1.229312e-09
6	0x31122c88	2.127111e-09
7	0x317dbba5	3.692301e-09
8	0x3075dc23	8.9443314e-10
9	0x2d019713	7.366346e-12
10	0x2d1ea8f7	9.018778e-12
11	0x2d68a61c	1.3224557e-11
12	0x319407aa	4.308238e-09
13	0x31b90a64	5.38539e-09
14	0x30bc2c88	1.3691457e-09
15	0x2fe6d6d6	4.1989406e-10
16	0x3129caf6	2.4708107e-09
17	0x308a01f0	1.0041372e-09
18	0x31878995	3.9446584e-09
19	0x3267f1c9	1.3500945e-08
20	0x2ffe304d	4.623665e-10
21	0x31d11a34	6.0856795e-09
22	0x315b45f1	3.1908451e-09
23	0x2ff84b5a	4.5164478e-10
24	0x32541e1c	1.234687e-08
25	0x2f611b68	2.0473367e-10
26	0x3167ea68	3.3748169e-09
27	0x31990647	4.4535997e-09
28	0x31d98c13	6.331456e-09
29	0x32017fb5	7.5378255e-09
30	0x2e13c8f5	3.3602416e-11
31	0x2ee3eae4	1.036449e-10

convs.0.nn.0.weight f4 [32, 32]
0	0xbe7002da	-0.23438588
1	0xbed7e314	-0.42165434
2	0xbf502c5c	-0.8131769
3	0xbf020005	-0.5078128
4	0xbe850c1d	-0.25985804
5	0xbe253d28	-0.1613661
6	0xbf1f873e	-0.6231574
7	0xbec94fa9	-0.39318588
8	0xbf820d88	-1.016038
9	0xbf71d212	-0.94461167
10	0xbf293f77	-0.66112465
11	0xbf1d1846	-0.61365163
12	0xbf4a6e13	-0.7907421
13	0xbf88698a	-1.0657208
14	0xbf1eb9bc	-0.6200216
15	0xbf6eb54c	-0.9324539
16	0xbf093e09	-0.53610283
17	0xbee65835	-0.44989172
18	0xbf03e2b7	-0.51517814
19	0xbe76f4c9	-0.24116816
20	0xbefbdbbb	-0.4919108
21	0xbf076170	-0.5288305
22	0xbe08d4bb	-0.133624
23	0xbeaed404	-0.3414613
24	0xbf585d18	-0.8451705
25	0xbf872b52	-1.0560095
26	0xbea2824a	-0.31740028
27	0xbe9cd88d	-0.30633965
28	0xbf24dbf6	-0.64398134
29	0xbf840d28	-1.0316515
30	0x3f086f2a	0.5329462
31	0xbeab12b3	-0.33412704
32	0xbf161f2d	-0.5864132
33	0xbe04eb72	-0.1298044
34	0x3d8c163a	0.06840177
35	0xbe2ead54	-0.17058307
36	0xbf38eb41	-0.7223397
37	0xbef1f92f	-0.47260424
38	0xbf498f81	-0.78734595
39	0x3e64ce81	0.223444
40	0xbee5460b	-0.4478
41	0xbefb37d3	-0.49066028
42	0xbf7f1cab	-0.9965312
43	0x3e1a77bf	0.15084742
44	0xbe31943d	-0.17341705
45	0xc012a3b4	-2.2912416
46	0xbf1bf287	-0.6091694
47	0xbdacdedb	-0.08440944
48	0xbf0fc117	-0.56154007
49	0xbe79128e	-0.24323484
50	0xbf3f8d15	-0.7482465
51	0xbf40b64e	-0.75278175
52	0xbf1d2e68	-0.61398935
53	0xbf4591c2	-0.77175534
54	0x3ec9bbad	0.39400998
55	0xbf3c27e9	-0.734984
56	0x3e1f9611	0.1558459
57	0xbea69812	-0.32537895
58	0x3f094d8d	0.5363396
59	0x3e8b3965	0.27192226
60	0xbd03af9c	-0.032149896
61	0xbe18ecb4	-0.14934045
62	0x3e836472	0.2566257
63	0xbf0621e6	-0.52395475
64	0xbecf2cb1	-0.40463784
65	0x3f567a7b	0.8378064
66	0x3f04f5d3	0.519376
67	0x3f32797c	0.6971662
68	0xbece0392	-0.402371
69	0xbe8aed75	-0.2713429
70	0xbf59d34a	-0.85088027
71	0x3f39266f	0.7232427
72	0x3ecf3fb5	0.40478292
73	0x3f063abf	0.5243339
74	0xbf25d00d	-0.64770585
75	0x3ebf1327	0.373193
76	0x3e970a18	0.29499888
77	0xbec12606	-0.37724322
78	0x3f2aa2ad	0.66654474
79	0x3f5e31f4	0.8679497
80	0xbf561a26	-0.8363365
81	0x3f2f4975	0.6847146
82	0xbf51cd86	-0.8195423
83	0xbefbd541	-0.49186137
84	0xbf08b2a4	-0.53397584
85	0xbf4ee0db	-0.8081185
86	0x3f24d898	0.64392996
87	0xbe9d8182	-0.3076287
88	0x3f1b74b2	0.6072494
89	0x3eb2c13a	0.34913045
90	0x3f6d83fb	0.9277951
91	0x3f622972	0.8834449
92	0x3f3e99fc	0.7445371
93	0x3f1e85c1	0.6192284
94	0x3f709e61	0.9399167
95	0xbeb5d408	-0.3551333
96	0xbf405b3a	-0.751392
97	0x3f2ebc18	0.6825576
98	0xbf038072	-0.51367867
99	0xbe974e54	-0.29551947
100	0xbf2e5dbf	-0.68111795
101	0xbf3f20d8	-0.7465949
102	0xbf5a85d1	-0.8536044
103	0x3dd7b321	0.10532213
104	0xbefeab2a	-0.49739963
105	0xbd7718c8	-0.060326368
106	0xbf7fe98a	-0.9996573
107	0x3db50467	0.0883873
108	0xbe755ac8	-0.23960412
109	0xc02dff53	-2.7187088
110	0xbee32689	-0.44365337
111	0xbee7b161	-0.45252517
112	0xbf3ae851	-0.73010737
113	0x3e16356b	0.14668815
114	0xbf6f6e46	-0.9352764
115	0xbf51ecf3	-0.8200218
116	0xbf49e036	-0.78857744
117	0xbf1f698a	-0.62270415
118	0xbe8cef61	-0.27526382
119	0xbf5dc407	-0.8662724
120	0xbebcccac	-0.36874902
121	0xbe25915b	-0.1616873
122	0xbe975a7e	-0.29561228
123	0xbe7a7fd7	-0.2446283
124	0x3e8a57e2	0.27020174
125	0x3dbedc47	0.09319358
126	0xbf34ea39	-0.70669895
127	0xbf219389	-0.63115746
128	0xbf4f71f1	-0.81033236
129	0xbf134f3f	-0.57542795
130	0x3f3c8968	0.73647165
131	0x3f57ac36	0.8424715
132	0xbf69ceeb	-0.91331357
133	0xbf3fdfe7	-0.7495102
134	0xbf5e8370	-0.8691931
135	0x3dfa4b50	0.12221396
136	0x3f5f42c2	0.8721124
137	0x3f2a8eff	0.66624445
138	0x3f91085b	1.1330675
139	0x3f655b5c	0.8959253
140	0x3f8128fa	1.009063
141	0xbf7a57c8	-0.97790194
142	0x3e68424b	0.22681539
143	0x3f0c2274	0.5474007
144	0x3f0c38d7	0.5477423
145	0x3ec39e84	0.38206875
146	0xbe8519ce	-0.2599625
147	0xbf66f115	-0.9021161
148	0xbf2e3353	-0.68047065
149	0xbf22b70e	-0.6356057
150	0xbed1a957	-0.4094951
151	0xbf52f11e	-0.82399166
152	0x3f3972ed	0.7244099
153	0x3f3c0b36	0.73454607
154	0xbecb76d3	-0.39739093
155	0xbed0cb19	-0.4077995
156	0x3e8eda30	0.2790084
157	0x3f30b655	0.69028217
158	0x3e378482	0.17921641
159	0xbf8054ab	-1.0025839
160	0x3f18b969	0.59657913
161	0x3ed6f653	0.41984805
162	0x3f91d824	1.1394086
163	0xbe96a1d3	-0.29420337
164	0x3f510f74	0.81664205
165	0x3f4034b1	0.750804
166	0x3f02a105	0.51026946
167	0x3f553051	0.8327685
168	0x3e16fef7	0.14745699
169	0xbe1ba6a5	-0.15200289
170	0xbff4b28f	-1.9116992
171	0x3f4342db	0.7627389
172	0xbcbfe046	-0.023422372
173	0xbf31b46a	-0.69415915
174	0xbd9820ad	-0.074281074
175	0x3f54b5ae	0.8308972
176	0x3f14f3eb	0.5818469
177	0xbe5a3b55	-0.21311696
178	0x3f07535f	0.5286159
179	0x3e84c0e5	0.25928417
180	0x3f35c4a7	0.7100319
181	0x3f155f96	0.5834898
182	0x3f1210e7	0.5705704
183	0x3f1b601c	0.60693526
184	0x3f97d5b0	1.1862087
185	0x3d941771	0.072310336
186	0x3f74bfb4	0.95605016
187	0x3f2138db	0.6297738
188	0x3e165907	0.14682399
189	0xbe06689a	-0.1312584
190	0x3e87a84f	0.26495597
191	0x3def27e0	0.116775274
192	0xbf282048	-0.6567426
193	0xbf465c3c	-0.7748449
194	0xbf086949	-0.5328565
195	0xbf69e6b7	-0.9136767
196	0xbf293d27	-0.66108936
197	0xbef7fdfd	-0.48435965
198	0xbf0f1d37	-0.55903953
199	0xbf1da580	-0.6158066
200	0xbed4a013	-0.41528377
201	0xbf65b099	-0.8972259
202	0x3c683e35	0.014174988
203	0xbef2d123	-0.47425184
204	0xbf5699f8	-0.8382869
205	0xbf2cc57a	-0.67488825
206	0xbf2f633a	-0.6851078
207	0xbf40820e	-0.7519845
208	0xbeb42c58	-0.35190082
209	0xbf139697	-0.57651657
210	0xbec45505	-0.38346115
211	0xbf18b4be	-0.5965079
212	0xbef0f00f	-0.4705815
213	0xbeab7e2e	-0.33494705
214	0xbebfcab3	-0.37459335
215	0xbebe8e38	-0.3721788
216	0xbf074c13	-0.52850455
217	0xbf587b32	-0.8456298
218	0xbeef2c70	-0.4671359
219	0xbed77de3	-0.4208823
220	0xbf1fa06a	-0.6235415
221	0xbf5383c5	-0.8262294
222	0xbf020532	-0.5078918
223	0xbf3bc16a	-0.73342
224	0xbf34d94a	-0.70644057
225	0x3f4db921	0.8036061
226	0x3f78da7c	0.9720838
227	0x3f7276a1	0.94712263
228	0xbf57f3c5	-0.8435634
229	0xbf08cb0a	-0.53434813
230	0xbe7ea3c5	-0.2486716
231	0x3d3c8d1f	0.04603302
232	0x3f4cda96	0.80021036
233	0x3f86b09c	1.0522647
234	0x3f03d9f9	0.51504475
235	0x3eed27c1	0.46319392
236	0x3f3e7ead	0.7441204
237	0xbdf3edfd	-0.11910627
238	0x3ea05ab8	0.31319213
239	0x3f7a641d	0.9780901
240	0xbe8a249b	-0.26981053
241	0x3d932d36	0.07186358
242	0xbe8d35c7	-0.2758009
243	0xbf1ff811	-0.62487894
244	0xbe0db6e8	-0.13839304
245	0xbc2274f8	-0.009915583
246	0xbeb7bb63	-0.35885152
247	0xbf5b2ee3	-0.8561842
248	0x3f7e4955	0.99330646
249	0x3f3af6d8	0.73032904
250	0x3dcb798a	0.09935291
251	0xbde60a16	-0.112323925
252	0x3df24e97	0.11831396
253	0x3f4da051	0.8032275
254	0x3ea5573f	0.32293126
255	0xbf1f1943	-0.6214792

convs.0.nn.0.bias f4 [32]
0	0x3fa7627d	1.3076931
1	0xbe8db5f7	-0.2767789
2	0x3f5c80bf	0.8613395
3	0xc0315d66	-2.7713256
4	0xbfa68b7f	-1.3011321
5	0xc078d772	-3.8881497
6	0xbfb5cb49	-1.4202663
7	0x3f3eff00	0.7460785
8	0xbf299a20	-0.662508
9	0xbfa5237a	-1.2901452
10	0x3f086c88	0.53290606
11	0xbdb2b204	-0.0872536
12	0xbfcd754a	-1.6051419
13	0x3e9643fa	0.29348737
14	0x3feb6e5e	1.8393056
15	0x3ede12a2	0.4337359
16	0xbf79917e	-0.9748763
17	0xbfa08338	-1.2540045
18	0xc008a0f4	-2.1348238
19	0x3ee14b5e	0.44002813
20	0x400587de	2.0864177
21	0x3f05b8a7	0.5223488
22	0xc0365bd3	-2.8493545
23	0xbe40a69b	-0.18813555
24	0x3fd5ea8c	1.6712203
25	0xbffb5376	-1.9634845
26	0x3feabb34	1.833838
27	0xbd87bce3	-0.06627824
28	0x40ae69d4	5.4504185
29	0xbf304284	-0.68851495
30	0xbef3d0c5	-0.47620216
31	0x4086e0ae	4.2149267

convs.0.nn.1.weight f4 [32]
0	0xbdd12817	-0.10212725
1	0xc005fadd	-2.0934365
2	0x3c1ef37f	0.009701609
3	0xc0077768	-2.116663
4	0x3f941c95	1.1571223
5	0x3e1c3e74	0.15258199
6	0x3e5fab67	0.21842729
7	0xbec2ae5b	-0.38023648
8	0xbfa46197	-1.2842282
9	0x3fd7b3e4	1.6851773
10	0xc0731868	-3.7983646
11	0xbf70c75e	-0.9405421
12	0xc05bcb44	-3.4342813
13	0xbf4e9973	-0.80702895
14	0x3f90f3f2	1.1324446
15	0x3eb88459	0.36038473
16	0x3e2fc524	0.17165047
17	0xc0c3b8a6	-6.11629
18	0x3dbe7b7a	0.09300895
19	0x3f6a1e26	0.9145225
20	0xc04d1efe	-3.2050166
21	0x3f166895	0.5875333
22	0x3ee7f930	0.45307302
23	0xbf1a8af9	-0.60368305
24	0x3f7db60b	0.991059
25	0x3e132ff1	0.14373757
26	0x3ef2b16c	0.47400987
27	0x3f704a45	0.93863326
28	0x3ee17fc9	0.44042805
29	0xc0a95fee	-5.29296
30	0xbc2b030a	-0.010437736
31	0x3ffb29b0	1.9622097

convs.0.nn.1.bias f4 [32]
0	0xbf35c736	-0.71007097
1	0xbf0c63ce	-0.5483979
2	0xbf38ca61	-0.72183806
3	0xbe94dff7	-0.29077122
4	0xbf5242d5	-0.8213323
5	0xbf4aac63	-0.7916929
6	0xbf0c516e	-0.5481175
7	0xbf33eb54	-0.7028096
8	0xbf27e4dd	-0.6558359
9	0xbf8a518f	-1.080614
10	0xbe8f5991	-0.2799802
11	0x3f3cecdc	0.7379892
12	0x3ef11c05	0.4709169
13	0xbfa16067	-1.2607545
14	0xbf99e3ba	-1.2022622
15	0xbf282a4f	-0.6568956
16	0xbf72c0c4	-0.94825387
17	0xbfbe9a37	-1.4890813
18	0xbe6bb95b	-0.23019926
19	0x3f0fab40	0.5612068
20	0xbf966e44	-1.17524
21	0x3e24b4a6	0.16084537
22	0x3e71fe06	0.23632059
23	0x3f4f7970	0.81044674
24	0xbea70fca	-0.32629234
25	0xbfb52c68	-1.4154177
26	0xbf54bff0	-0.83105373
27	0xc0717b0e	-3.7731357
28	0x3f2473e5	0.6423934
29	0xc06945e6	-3.6448913
30	0x3f125521	0.57161146
31	0xbf8aee9f	-1.0854071

convs.0.nn.1.running_mean f4 [32]
0	0x3fa76160	1.3076591
1	0xbe8db621	-0.27678016
2	0x3f5c8019	0.8613296
3	0xc0315e9d	-2.7713997
4	0xbfa68b1e	-1.3011205
5	0xc078d4b5	-3.8879826
6	0xbfb5cb7c	-1.4202724
7	0x3f3effdf	0.7460918
8	0xbf299ac0	-0.66251755
9	0xbfa521ce	-1.2900941
10	0x3f086de9	0.5329271
11	0xbdb2b148	-0.0872522
12	0xbfcd7451	-1.6051122
13	0x3e96420e	0.2934727
14	0x3feb6fa0	1.839344
15	0x3ede1135	0.43372503
16	0xbf79904e	-0.97485816
17	0xbfa081d2	-1.2539618
18	0xc008a02c	-2.134776
19	0x3ee14c44	0.440035
20	0x400587e8	2.08642
21	0x3f05b83b	0.5223424
22	0xc0365b97	-2.8493402
23	0xbe40a581	-0.18813135
24	0x3fd5ebd4	1.6712594
25	0xbffb5159	-1.96342
26	0x3feabc62	1.833874
27	0xbd87bdf2	-0.06628026
28	0x40ae6a1d	5.4504533
29	0xbf304164	-0.6884978
30	0xbef3d019	-0.47619703
31	0x4086e026	4.214862

convs.0.nn.1.running_var f4 [32]
0	0x30b15d07	1.2904885e-09
1	0x2c8ca889	3.9977505e-12
2	0x2eded631	1.0133439e-10
3	0x31d8fb7c	6.315018e-09
4	0x2f73d1d9	2.2175274e-10
5	0x330cd771	3.2792233e-08
6	0x2eba54b4	8.473347e-11
7	0x2f4682de	1.8054488e-10
8	0x2ef6be0c	1.1220544e-10
9	0x3150389a	3.0300158e-09
10	0x300d6e3b	5.145215e-10
11	0x2c33eced	2.556895e-12
12	0x3088be7d	9.949442e-10
13	0x2f8639b3	2.4415456e-10
14	0x30d48640	1.5463186e-09
15	0x2f1c734a	1.4229076e-10
16	0x2fbac06f	3.3969935e-10
17	0x311769a9	2.2033453e-09
18	0x3120f76c	2.3423707e-09
19	0x2e60b768	5.10946e-11
20	0x2ea83e96	7.650873e-11
21	0x2e4e71b3	4.6939962e-11
22	0x2ff64bad	4.480091e-10
23	0x2dbeecfd	2.1705743e-11
24	0x30e4df9d	1.6652738e-09
25	0x31a7e83a	4.886741e-09
26	0x30bdce63	1.3810219e-09
27	0x2cb18e7a	5.0464606e-12
28	0x3140dfeb	2.806696e-09
29	0x2fbcd94e	3.4351405e-10
30	0x2dee6ad2	2.7104905e-11
31	0x319ab600	4.502681e-09
