result/experiment_07.11.2022_12.08.41/37/fold_2_optim_dict.pt (torch, 43151 bytes, 66 tensors)

first_h.0.weight f4 [32, 3]
0	0xbe99a6c0	-0.30010033
1	0x3f565ae2	0.83732426
2	0x3fce9d6a	1.6141789
3	0xbed276a9	-0.41106156
4	0x3f630149	0.88673836
5	0x3f92873c	1.144752
6	0x3e9af426	0.30264395
7	0xbec62f0c	-0.3870777
8	0xbe0fb409	-0.14033522
9	0x3ed0a36b	0.40749678
10	0xbf134cc6	-0.5753902
11	0xbe3b2033	-0.18274002
12	0x3e68a3f6	0.22718796
13	0xbf60d292	-0.87821305
14	0xbf7bf14b	-0.9841506
15	0x3de04e58	0.10952443
16	0xbf300f1f	-0.6877307
17	0xbe7b5c03	-0.24546818
18	0x3f2f62cf	0.68510145
19	0x3e91cd3a	0.28476888
20	0x3e396481	0.18104745
21	0x3e6023b0	0.21888614
22	0x3e5d0e33	0.21587448
23	0xbeb6bbc7	-0.35690138
24	0x3e272056	0.16320929
25	0xbf69ec77	-0.9137644
26	0xbf25bd59	-0.64742047
27	0x3e86164b	0.26188883
28	0xbf8faf02	-1.1225283
29	0xbf771f24	-0.9653189
30	0x3e906ffd	0.2821044
31	0xbf32ebc7	-0.6989102
32	0xbf843b37	-1.0330571
33	0x3e33c8c2	0.17557052
34	0x3f5b2359	0.8560081
35	0xbf16ee9d	-0.58957845
36	0x3eb627fe	0.35577387
37	0xbee175b8	-0.44035125
38	0xbeed82d1	-0.46388867
39	0x3e77cabc	0.24198431
40	0xbf82fef3	-1.0234054
41	0xbea14004	-0.31494153
42	0xbe59a8a4	-0.21255738
43	0x3f38d426	0.7219871
44	0x3f549dd9	0.83053356
45	0x3e7e6842	0.24844459
46	0xbd8c72ac	-0.068578094
47	0xbf10c024	-0.56543183
48	0x3e9ebe90	0.31004763
49	0x3fb4bcb0	1.4120083
50	0x3fa5fae0	1.2967186
51	0xbe867bdb	-0.2626637
52	0x3d4d6a29	0.05015007
53	0x3dd80e1f	0.105495684
54	0xbe461dfe	-0.19347379
55	0x3fb0c899	1.3811218
56	0x3f653f02	0.8954927
57	0xbe9c9965	-0.3058578
58	0x3bd7480a	0.006569867
59	0xbf278531	-0.6543761
60	0x3e6db3f3	0.23213176
61	0xbf7a025a	-0.9765984
62	0xbf816a6e	-1.0110605
63	0xbe902474	-0.28152812
64	0x3f84213b	1.0322641
65	0x3fa4ed12	1.2884848
66	0xbe7ad25d	-0.2449431
67	0x3f9c069c	1.2189517
68	0x3f80b825	1.0056196
69	0x3e84174e	0.2579903
70	0x3efbfab4	0.4921471
71	0xbf461e15	-0.7738965
72	0x3e828db3	0.25498733
73	0xbb98ce0a	-0.0046632336
74	0xbf0c7bc7	-0.5487637
75	0x3e6c34a2	0.23066953
76	0xbf1dcc0c	-0.61639476
77	0xbf1629fd	-0.5865782
78	0x3ef7d60d	0.48405495
79	0x3e656fce	0.22405931
80	0xbf446494	-0.7671597
81	0x3e1f2953	0.15543108
82	0xbf7e63c3	-0.99370974
83	0xbf9b2117	-1.2119473
84	0x3f5801f4	0.8437798
85	0x3ebbaa3f	0.36653325
86	0xbd65c2a9	-0.056093846
87	0x3eac6656	0.33671826
88	0xbf161262	-0.586218
89	0xbeeeafd7	-0.4661853
90	0x3dd3ad43	0.103357814
91	0xbec66093	-0.38745555
92	0xbf35d266	-0.7102417
93	0x3e3e1f40	0.18566608
94	0x3f3c6e6a	0.7360598
95	0x3f7be803	0.98400897

first_h.0.bias f4 [32]
0	0x3ef308d0	0.4746766
1	0xbea0c81d	-0.31402674
2	0x3ec07d78	0.37595725
3	0x3ec04a56	0.37556714
4	0x3e6d518f	0.23175643
5	0x3f0c2b58	0.5475364
6	0x3d3c2c73	0.045940828
7	0xbd8e1e59	-0.06939382
8	0xbea72d25	-0.3265163
9	0xbe039b85	-0.12852295
10	0x3e5216a0	0.20516443
11	0xbed0b592	-0.40763527
12	0x3df4402f	0.119263045
13	0xbe1fb482	-0.15596202
14	0xbeecef95	-0.46276537
15	0xbd90941c	-0.070594996
16	0xbe63721b	-0.22211497
17	0x3f03eebb	0.5153615
18	0xbe8db744	-0.27678883
19	0x3f105b39	0.56389195
20	0x3eaa1ba3	0.3322421
21	0x3f10c2e2	0.5654737
22	0xbb13753e	-0.0022500302
23	0xbc9acf2a	-0.018897612
24	0xbefb4cb8	-0.4908197
25	0x3e64d3f4	0.22346479
26	0x3ebf4e3a	0.3736437
27	0xbd5a92a2	-0.053362496
28	0xbc969d33	-0.018385505
29	0xbd26ad99	-0.0406929
30	0x3e99c7c5	0.30035225
31	0xbeab17d8	-0.3341663

first_h.1.weight f4 [32]
0	0x4039efbf	2.905258
1	0x4038c682	2.887116
2	0x3ed3fc07	0.4140322
3	0x3df2184d	0.11821041
4	0x3f613daa	0.87984717
5	0x3ec7c8b8	0.39020324
6	0x3ec05a7e	0.3756904
7	0x3eabe937	0.33576366
8	0x3e6e050d	0.23244114
9	0x3fa09134	1.2544312
10	0x3ed34414	0.41262877
11	0xbe028460	-0.1274581
12	0x3e8f2f2e	0.27965683
13	0x3ea5a5e2	0.3235312
14	0x4049d662	3.15371
15	0x3f08c95b	0.53432244
16	0x3f87ca69	1.0608646
17	0x3f981970	1.1882763
18	0x4044046b	3.0627697
19	0x3f1096f5	0.5648034
20	0x3de3ebad	0.11128936
21	0x403e6840	2.975113
22	0x4047c6a8	3.1215
23	0x3e81cea3	0.25352964
24	0x3ea5d20e	0.32386822
25	0xbc975be0	-0.018476427
26	0x3ea15e94	0.3151747
27	0x3b818c9c	0.0039535295
28	0x3ec02424	0.37527573
29	0x3f9a0842	1.203377
30	0x3c74bae5	0.014937137
31	0x3fdc3a8b	1.7205366

first_h.1.bias f4 [32]
0	0x3b486154	0.003057559
1	0xbe8bad1f	-0.27280518
2	0xbfebf68d	-1.8434616
3	0xbfa03455	-1.251597
4	0xbee38143	-0.44434556
5	0xbfe4597a	-1.7839806
6	0xbfd76519	-1.6827728
7	0xbfa4c78b	-1.2873396
8	0xbf96a557	-1.1769208
9	0xbed6238c	-0.41823995
10	0xbfe0c508	-1.7560129
11	0x3e7e9eda	0.24865285
12	0xbf8d2531	-1.1026975
13	0xbf10321e	-0.5632647
14	0xbc038128	-0.008026399
15	0xbf92ac08	-1.145875
16	0xbe57caf6	-0.21073517
17	0xbcb19492	-0.02167729
18	0xbd08de62	-0.033415206
19	0xbf749a7a	-0.9554821
20	0xbf82c5d2	-1.021662
21	0xbce9f3ee	-0.028558698
22	0x3bbbf6da	0.005736214
23	0xbf971f01	-1.1806337
24	0xbfab259c	-1.3370852
25	0xbf48c111	-0.78419596
26	0xbfacafa0	-1.3491096
27	0xbedca3a1	-0.4309359
28	0xbfce084f	-1.6096286
29	0xbd352178	-0.04422137
30	0xbedd4bc0	-0.43221855
31	0xbe925b69	-0.28585365

first_h.1.running_mean f4 [32]
0	0xc8d6c7a7	-439869.22
1	0xc9138c3d	-604355.8
2	0x48da7b7a	447451.8
3	0x4913dfc8	605692.5
4	0x48a4c0da	337414.8
5	0x481ebf3b	162556.92
6	0x497818f0	1.016207e+06
7	0x489f022e	325649.44
8	0x486cd477	242513.86
9	0x48bdff3a	389113.8
10	0x48cd0231	419857.53
11	0x487ebe3b	260856.92
12	0x4900d888	527752.5
13	0x48af927c	359571.88
14	0xc8984189	-311820.28
15	0x48b4465f	369202.97
16	0x48e0f595	460716.66
17	0xc8be8ddc	-390254.88
18	0xc88a6c4c	-283490.38
19	0xc8dde8a9	-454469.28
20	0x48a8682b	344897.34
21	0xc8c9403e	-412161.94
22	0xc8afac48	-359778.25
23	0x48bb2d13	383336.6
24	0x48bab938	382409.75
25	0x48a75981	342732.03
26	0x492f9a98	719273.5
27	0x486183e6	230927.6
28	0x49990917	1.2536669e+06
29	0x48f440c0	500230.0
30	0x4815f74a	153565.16
31	0x4886e232	276241.56

first_h.1.running_var f4 [32]
0	0x54bf72a7	6.5780984e+12
1	0x5534b510	1.2418109e+13
2	0x54c67603	6.8190675e+12
3	0x5535ade4	1.2484904e+13
4	0x546187ce	3.8745843e+12
5	0x535176ba	8.9964007e+11
6	0x55ffd2ca	3.51601e+13
7	0x54520fb1	3.6088256e+12
8	0x53e9087f	2.0017398e+12
9	0x5495fd6e	5.153616e+12
10	0x54ae8afd	5.997249e+12
11	0x5406cc67	2.3158197e+12
12	0x5509f3a4	9.47997e+12
13	0x5480127b	4.400527e+12
14	0x544068fd	3.3055805e+12
15	0x5486fdc7	4.6382664e+12
16	0x54d2383d	7.223093e+12
17	0x5496da4f	5.1832616e+12
18	0x541ef608	2.7309302e+12
19	0x54cc936b	7.0291727e+12
20	0x546bacf0	4.048875e+12
21	0x54a80c3e	5.774079e+12
22	0x54800ab6	4.399484e+12
23	0x54918dae	5.001178e+12
24	0x5490dc47	4.9773674e+12
25	0x5468b736	3.9980247e+12
26	0x558020be	1.7609764e+13
27	0x53d35332	1.8152678e+12
28	0x5642969c	5.348803e+13
29	0x54f7e224	8.5172075e+12
30	0x533ae478	8.02697e+11
31	0x54171fdb	2.596298e+12

first_h.3.weight f4 [32, 32]
0	0x3e8f4701	0.2798386
1	0x3eacb80a	0.3373416
2	0x3d7fcb64	0.062449828
3	0x3dfa91d7	0.12234848
4	0xbee5ff75	-0.4492146
5	0xbb9d0bdf	-0.004792675
6	0x3cc188f6	0.023624878
7	0xbe0fff04	-0.14062124
8	0xbd71f370	-0.05907005
9	0xbe93e284	-0.28883755
10	0xbe1b8335	-0.1518677
11	0xbedb83b4	-0.4287392
12	0xbccd3b78	-0.025052771
13	0xbdc7a54a	-0.09748323
14	0x3efc8b5a	0.49325067
15	0x3c37a86b	0.011209588
16	0x3d0d482d	0.03449266
17	0x3db8ba65	0.09019927
18	0x3ea7e237	0.32789776
19	0x3d27dc69	0.040981684
20	0xbd236d29	-0.039899025
21	0x3e54ae28	0.2076956
22	0x3ea3eba5	0.3201572
23	0x3de71cf6	0.11284821
24	0xbe0a8682	-0.13527873
25	0xbe92992f	-0.28632495
26	0xbe209d80	-0.15685081
27	0xbea0db8a	-0.31417495
28	0x3e10d8c6	0.14145193
29	0xbe240a58	-0.16019571
30	0xbe8f5e03	-0.28001413
31	0x3e85af17	0.26110145
32	0xbec2c7de	-0.38043112
33	0xbf03a3ab	-0.5142161
34	0xbd6a1602	-0.057149895
35	0x3d778369	0.060428057
36	0xbf52dee8	-0.8237138
37	0xbce755a3	-0.028239077
38	0xbdfa1878	-0.12211698
39	0xbe25ccdf	-0.16191433
40	0xbdf8b753	-0.12144341
41	0xbf2eca8e	-0.68277824
42	0xbdd2b75b	-0.102888785
43	0xbefde692	-0.49589974
44	0xbdb1f579	-0.08689398
45	0xbf0e2132	-0.555194
46	0xbf321bd2	-0.695737
47	0xbc6f3c19	-0.014601731
48	0xbef9cccd	-0.48789063
49	0xbd7bc61b	-0.061468225
50	0xbf3c7f0d	-0.73631364
51	0x3a827e21	0.0009955802
52	0x3def5ccc	0.116876215
53	0xbec3ec1a	-0.3826607
54	0xbf302043	-0.6879923
55	0x3dd83dc1	0.105586536
56	0xbd6ed6b3	-0.058310222
57	0xbec60883	-0.3867837
58	0xbd506c11	-0.05088431
59	0xbee37ee3	-0.44432744
60	0xb9d97287	-0.00041474795
61	0xbf3cb884	-0.7371905
62	0xbf055a2f	-0.52090734
63	0xbf7a6b9c	-0.9782045
64	0x3e904e0e	0.2818455
65	0x3e1fbade	0.15598628
66	0x3d001b8d	0.031276274
67	0x3d8b19b6	0.06792013
68	0x3eccfede	0.40038198
69	0xbcbb3809	-0.022853868
70	0xbc3825d1	-0.011239485
71	0xbd1bbe93	-0.038023543
72	0x3bf77cc2	0.007552714
73	0x3f3b73dd	0.7322367
74	0x3e1eee05	0.15520485
75	0x3e89c732	0.26909786
76	0xbc3d8500	-0.011567354
77	0x3ee2d43b	0.44302544
78	0x3da84572	0.08216371
79	0x3c4c8d05	0.012484794
80	0x3d3c8542	0.046025522
81	0x3c0fab7d	0.008768913
82	0x3e10e46f	0.1414964
83	0x3dbe5335	0.09293214
84	0xbd8061c7	-0.062686495
85	0x3eae3875	0.34027448
86	0x3ebdc98b	0.37067828
87	0xbdbc5fdc	-0.09197971
88	0x3e6394a9	0.22224678
89	0x3ea215b5	0.31657186
90	0x3ddbfc47	0.107414775
91	0x3ecb8c81	0.39755633
92	0xbd2ff537	-0.042958464
93	0x3f5ff01d	0.8747576
94	0x3d3dd4d6	0.046345554
95	0x3f219959	0.63124615
96	0x3d9c4b73	0.07631578
97	0xbe5642dd	-0.20923944
98	0xbd958006	-0.07299809
99	0x3dda8778	0.1067037
100	0xbaac9083	-0.0013165626
101	0x3e0f3a4d	0.13987084
102	0x3c62bf6d	0.013839585
103	0x3e4ac6c9	0.19802393
104	0x3ddf90e3	0.10916307
105	0x3cce9af9	0.025220381
106	0xbccd3339	-0.025048839
107	0x3e0e5a79	0.139017
108	0x3c8a73aa	0.016900856
109	0xbcd5b369	-0.026086526
110	0xbe30eca5	-0.17277773
111	0x3d02dcda	0.0319489
112	0x3e4fe227	0.20301114
113	0x3e5484cf	0.20753787
114	0xbe4f77f0	-0.20260596
115	0x3d7dc738	0.061957568
116	0x3b901095	0.004396508
117	0xbe26c5c3	-0.16286378
118	0xbdc94351	-0.09827293
119	0x3d83524a	0.0641218
120	0x3c5fd6a9	0.013662019
121	0xbd27aa08	-0.04093364
122	0xbdaed5d1	-0.08536876
123	0xbbafabcb	-0.0053610555
124	0x3dda2f70	0.10653579
125	0x3e1f9450	0.1558392
126	0x3e0095d3	0.12557153
127	0xbe346a8e	-0.17618772
128	0x3e057155	0.13031514
129	0xbc3eb302	-0.0116393585
130	0x3dc2a4fa	0.09504123
131	0x3d33166e	0.043722562
132	0x3df21618	0.1182062
133	0x3e4f42e3	0.20240359
134	0x3d58fc0c	0.052974746
135	0x3e50fc80	0.20408821
136	0x3d34d960	0.044152617
137	0x3e5c42fc	0.21509928
138	0x3e1fa77f	0.15591238
139	0x3d95a4fe	0.073068604
140	0x3cb252cb	0.021767994
141	0x3e8d75aa	0.27628833
142	0x3ca07f1a	0.019591857
143	0xbdba9538	-0.091104925
144	0x3c159229	0.009129086
145	0x3d5374d7	0.0516251
146	0xbdb34352	-0.08753075
147	0x3da55098	0.08072013
148	0x3ddfd837	0.109299116
149	0xbdab57ea	-0.08366378
150	0x3e2d54c8	0.16926873
151	0x3defc677	0.11707776
152	0x3cbfdec0	0.023421645
153	0x3e9f91e5	0.31165996
154	0x3ddb2e13	0.10702147
155	0x3e6d76ee	0.231899
156	0x3e42f4c5	0.19038685
157	0x3ee66d4e	0.45005268
158	0x3da3ef79	0.0800466
159	0x3e1b3198	0.15155637
160	0xbe8fd6af	-0.28093478
161	0xbe325c32	-0.17417982
162	0x3d8e3c51	0.06945098
163	0xbdb46d52	-0.08809914
164	0x3e55e430	0.20887828
165	0x3e340171	0.17578675
166	0x3e5d7149	0.21625246
167	0x3e0bda38	0.13657463
168	0xbdc92a88	-0.09822565
169	0x3f02899c	0.50991225
170	0x3e75e0c5	0.24011524
171	0x3e80a8fa	0.2512892
172	0x3e01635c	0.12635559
173	0xbdcee3e7	-0.10102063
174	0xbe9c9a0b	-0.30586275
175	0xbd675eaf	-0.05648678
176	0x3e3e2f19	0.18572654
177	0x3dd55b6e	0.104178295
178	0xbe2cb107	-0.16864406
179	0xbcf14c3c	-0.029455297
180	0x3e1924a2	0.1495538
181	0xbedc0ef2	-0.42980152
182	0xbe916f62	-0.2840529
183	0xbca6687d	-0.020313496
184	0x3e50c944	0.20389277
185	0x3e0843c3	0.13307099
186	0x3d8c1162	0.06839253
187	0x3de1b1a7	0.110202126
188	0x3dd4eb30	0.10396421
189	0x3f3fafe4	0.7487776
190	0x3e1f5f00	0.15563583
191	0x3f02153e	0.50813663
192	0xbe057255	-0.13031895
193	0xbd37d0d6	-0.044876896
194	0xbf523e3d	-0.8212622
195	0xbf4787f4	-0.77941823
196	0xbec70f83	-0.38879022
197	0xbf54e933	-0.83168334
198	0xbf5bfecc	-0.85935664
199	0xbf4a1539	-0.78938633
200	0xbf0d2edb	-0.5514962
201	0xbe97fc30	-0.2968459
202	0xbf3a5d40	-0.7279854
203	0xbe1d5df8	-0.15367877
204	0xbf3f4109	-0.7470861
205	0xbebfbef1	-0.37450364
206	0xbd95dcb2	-0.07317485
207	0xbf26c75a	-0.65147936
208	0xbe43e142	-0.19128898
209	0xbe77b7d4	-0.24191219
210	0xbd25c684	-0.040472522
211	0xbf047c08	-0.51751757
212	0xbf385e7f	-0.7201919
213	0x3c542696	0.012948653
214	0x3d1f244f	0.038852986
215	0xbf43d331	-0.7649413
216	0xbf4a7c33	-0.7909576
217	0xbc590d65	-0.013247822
218	0xbf5c696e	-0.8609837
219	0xbeae4cb0	-0.34042883
220	0xbf4c17e3	-0.7972395
221	0xbe0116f0	-0.12606406
222	0xbe1514a0	-0.14558649
223	0xbdfa088e	-0.12208663
224	0x3ea332d4	0.31874716
225	0x3ea13959	0.31489065
226	0x3cd2add2	0.02571765
227	0x3e69c291	0.22828127
228	0x3e488648	0.19582474
229	0x3d596b1b	0.05308066
230	0x3e855fe6	0.26049727
231	0x3d9c9a7b	0.07646652
232	0xbd3cbbea	-0.046077646
233	0x3e754154	0.23950702
234	0x3e6b838d	0.22999401
235	0x3dc0f53c	0.09421775
236	0x3e51fb51	0.20506026
237	0x3e0e3edf	0.13891171
238	0x3ea3f9c0	0.32026482
239	0x3e6aeac8	0.22941124
240	0x3cf63a21	0.030057015
241	0x3e6b0730	0.2295196
242	0x3eee9fda	0.46606332
243	0x3e3c6b29	0.18400253
244	0xbd81a87b	-0.06330963
245	0x3e605b38	0.21909797
246	0x3e73ba68	0.23801577
247	0x3e525a11	0.2054217
248	0x3e025a55	0.12729771
249	0x3e99febd	0.30077162
250	0x3dc23009	0.09481818
251	0x3e779796	0.24178919
252	0x3e4de200	0.20105743
253	0x3dd2df52	0.10296501
254	0x3e2ea8f2	0.17056635
255	0xbd8ab7db	-0.06773349

first_h.3.bias f4 [32]
0	0x3db5eee9	0.08883459
1	0xbe846378	-0.2585714
2	0x3e9facb6	0.31186455
3	0x3e2cf39d	0.16889806
4	0x3dad2ef3	0.084562205
5	0xbda6f8b8	-0.08152908
6	0x3e90af95	0.28258958
7	0x3e285806	0.16439828
8	0xbda989b1	-0.08278216
9	0xbe144f4c	-0.14483374
10	0x3d35871a	0.044318296
11	0xbeaabdf7	-0.33348057
12	0x3d0d1526	0.034443997
13	0xbb363bed	-0.0027806715
14	0xbe8003ad	-0.25002804
15	0xbc68e366	-0.014214372
16	0x3da257d0	0.07926905
17	0xbe5897b5	-0.21151622
18	0xbdb12c3a	-0.08651014
19	0x3d432464	0.047642127
20	0x3d4b358c	0.049611613
21	0xbdc84886	-0.09779458
22	0xbe8ce49b	-0.27518162
23	0x3d1a9cb0	0.037747085
24	0xbd074978	-0.03302905
25	0xbe9869ec	-0.29768312
26	0xbc942bab	-0.018087229
27	0xbd1f9ce2	-0.038967974
28	0xbe5c3e0b	-0.21508043
29	0x3d4ebbb7	0.050471988
30	0xbcfd13e6	-0.030893277
31	0xba8f8af8	-0.001095145

first_h.4.weight f4 [32]
0	0x3e383615	0.1798938
1	0x3efa1b0c	0.4884876
2	0x3ed61d53	0.41819248
3	0x3b91c84c	0.004448926
4	0x3c17b249	0.009258815
5	0x3e7578e6	0.239719
6	0x3ea72a01	0.32649234
7	0x3d385009	0.044998202
8	0x3f7b3cc7	0.98139614
9	0x3eec3666	0.46135253
10	0x3eefb551	0.4681802
11	0x3ec96fae	0.39343017
12	0x3e151f30	0.14562678
13	0xba612a76	-0.0008589396
14	0x3f0c1447	0.5471844
15	0x3e68a28d	0.22718258
16	0x3d27d528	0.040974766
17	0x3d3147b4	0.043281272
18	0x3c909eb7	0.017653806
19	0x3eb83274	0.35975993
20	0xbc6a5d28	-0.014304437
21	0x3be8be63	0.007102774
22	0x3f13e18d	0.5776604
23	0xbf08738d	-0.53301316
24	0x3ef032bc	0.46913707
25	0x3d3adcd1	0.045620743
26	0x3cadafe9	0.021202045
27	0xbd84c82f	-0.064834945
28	0x3ccf8116	0.025330108
29	0x3f241828	0.6409936
30	0x3bb54e61	0.005533025
31	0x3eaf2ded	0.34214726

first_h.4.bias f4 [32]
0	0xbf2cad39	-0.67451817
1	0xbeac61af	-0.33668277
2	0xbe60ce27	-0.21953641
3	0xbf3b830d	-0.7324684
4	0xbf10309f	-0.5632419
5	0xbe0ff1ab	-0.14057033
6	0xbe97da4b	-0.29658732
7	0xbf2a5720	-0.6653919
8	0xbe6f4081	-0.2336445
9	0xbeb39d38	-0.35080886
10	0xbec7d9b3	-0.3903328
11	0xbe4df237	-0.20111929
12	0x3f6fde7c	0.9369886
13	0xbf535dfb	-0.8256528
14	0x3d1e237a	0.03860805
15	0xbed143b0	-0.40871954
16	0xbf643e75	-0.891578
17	0xbf84ee5d	-1.0385243
18	0xbf664ed1	-0.89964014
19	0xbec87497	-0.3915145
20	0xbf417a7e	-0.75577533
21	0xbe839c7f	-0.25705335
22	0xbe36c2b2	-0.17847708
23	0x3e97b84e	0.296328
24	0xbefeda09	-0.49775723
25	0xbe14dc2d	-0.14537115
26	0xbf438368	-0.76372385
27	0xbf21d1cc	-0.6321075
28	0xbf82c26a	-1.021558
29	0xbeaae1c5	-0.33375373
30	0xbe83d523	-0.25748548
31	0xbe83ef88	-0.25768685

first_h.4.running_mean f4 [32]
0	0x3f8b2838	1.0871649
1	0xc055f47c	-3.3430471
2	0x3fee6ec6	1.8627555
3	0xbe1ae2b7	-0.15125547
4	0x3eeb2be8	0.45931935
5	0xbef0e652	-0.4705072
6	0xbea0f82d	-0.31439343
7	0x3fbca3d5	1.4737498
8	0xc0da9858	-6.8310966
9	0xbe8995f4	-0.26872218
10	0xbf8373ff	-1.0269774
11	0xc0e919c4	-7.284395
12	0xbf1e96d2	-0.61948884
13	0x3f29ba88	0.6630025
14	0xc0c79037	-6.2363544
15	0x3f704941	0.93861777
16	0x3eb5b5c1	0.3549023
17	0x3e0f95e3	0.14022021
18	0x3fa2b705	1.2712103
19	0xbf186e2e	-0.5954312
20	0xbe41b7d8	-0.18917787
21	0x4069b593	3.6517074
22	0xc0e50b07	-7.157596
23	0x3f007f00	0.50193787
24	0xbfb9f3f8	-1.4527578
25	0xbeb48295	-0.35255876
26	0x400be902	2.1860967
27	0x3ecfdc8e	0.40597957
28	0x3e1a8a85	0.15091904
29	0xbea0de0a	-0.31419402
30	0x3f7fdaa8	0.9994302
31	0xbfa33635	-1.2750918

first_h.4.running_var f4 [32]
0	0x3f2e8b3f	0.6818122
1	0x41821e4d	16.264795
2	0x411a1610	9.630386
3	0x3daf9b6e	0.08574568
4	0x3fbc394a	1.4704983
5	0x410191f4	8.098133
6	0x40b242b0	5.5706406
7	0x3f059b62	0.5219022
8	0x40e4e45a	7.152875
9	0x4090b49b	4.5220466
10	0x41051909	8.318612
11	0x40f98665	7.7976556
12	0x4207032c	33.753098
13	0x3ef3bda3	0.4760562
14	0x40f0836a	7.5160418
15	0x40dc3573	6.8815246
16	0x417a776b	15.654155
17	0x3fdf451f	1.7442969
18	0x40c0d6be	6.0262136
19	0x40703850	3.753437
20	0x40e88dac	7.267294
21	0x406b46b1	3.6761897
22	0x40f25590	7.5729446
23	0x420bc417	34.941494
24	0x4126b5e8	10.419411
25	0x4100d118	8.051048
26	0x40cd5369	6.416432
27	0x3d1dee61	0.038557414
28	0x3fd33e62	1.6503413
29	0x40393870	2.8940697
30	0x3eae59a4	0.34052765
31	0x41279cdd	10.475797

nns.0.0.weight f4 [32, 32]
0	0x3c8b5c6a	0.01701184
1	0xbd6828c9	-0.05667952
2	0xbf70b6bb	-0.94028825
3	0xbdc9b443	-0.09848835
4	0x3c883e4a	0.016631264
5	0xbe81f3f7	-0.25381443
6	0xbf4fcd0d	-0.8117226
7	0x3c27002c	0.010192912
8	0xbdea9a42	-0.114552036
9	0xbdc72119	-0.0972311
10	0x3e2a0e01	0.16606905
11	0xbe025642	-0.12728217
12	0xc01ed19c	-2.4815435
13	0x3dc018e9	0.09379751
14	0xbe0ab0fa	-0.13544074
15	0xbe116ad5	-0.1420091
16	0xbf45d040	-0.7727089
17	0x3e36d17a	0.17853346
18	0x3d688304	0.05676557
19	0x3d134797	0.035956945
20	0xbe2af58e	-0.16695234
21	0xbf09bd42	-0.5380441
22	0x3cb4930f	0.02204278
23	0xbfe9e71e	-1.8273656
24	0xbec6ab3b	-0.38802513
25	0xbf61ea1b	-0.8824784
26	0xbdcc89a7	-0.099871926
27	0x3e2a8470	0.16652083
28	0x3caecb35	0.021337131
29	0xbf03030d	-0.5117653
30	0xbed4540c	-0.41470373
31	0xbe0a4396	-0.13502344
32	0xbd53a055	-0.051666576
33	0xbd2afe1e	-0.04174625
34	0xbd2c143d	-0.04201149
35	0x3d2b4f72	0.04182381
36	0xbe516ec6	-0.20452413
37	0xbd668625	-0.056280274
38	0xbe3e6b23	-0.18595557
39	0xbe9c4389	-0.30520275
40	0xbee8911c	-0.4542321
41	0xbe67d8a3	-0.22641234
42	0xbe0554c4	-0.13020617
43	0xbe9b6f4c	-0.3035835
44	0xbd1fd4e7	-0.0390214
45	0xbe1b7828	-0.15182555
46	0xbe9403a6	-0.28909034
47	0xbea1ba5d	-0.31587496
48	0x3cfba194	0.030716695
49	0xbe69c53c	-0.22829145
50	0xbe142fc5	-0.14471348
51	0xbe082fe0	-0.13299513
52	0xbcf1365c	-0.029444866
53	0xbe4e586f	-0.20150922
54	0x3cf34ccd	0.029699707
55	0xbe964269	-0.29347542
56	0x3d00f7ff	0.031486508
57	0xbdec248d	-0.11530409
58	0x3c02bbe0	0.007979363
59	0xbc6629e5	-0.014048074
60	0x3cb2a6e9	0.021808105
61	0x3d78b1d1	0.060716454
62	0x3e22e6e5	0.15908392
63	0x3d41a8e4	0.047280207
64	0xbdb28aa7	-0.08717852
65	0x3d0d49a3	0.034494054
66	0xbf1dd20b	-0.61648625
67	0xbd18e08f	-0.03732353
68	0xbd5da27e	-0.054110043
69	0xbea7aa42	-0.32747084
70	0xbf2a043c	-0.6641271
71	0xbe4adf0d	-0.1981165
72	0x3e4dfce5	0.20116003
73	0x3e4be9cc	0.19913405
74	0x3e0320cc	0.1280548
75	0xbccd25e6	-0.025042485
76	0xc066b189	-3.604586
77	0xbd7f143d	-0.06227516
78	0xbe83700d	-0.25671425
79	0xbe72ccac	-0.23710889
80	0xbf4b9b7e	-0.7953414
81	0xbd2a13a1	-0.041522626
82	0xbeeef4be	-0.46671098
83	0x3ec1b879	0.37836054
84	0x3de36930	0.11104047
85	0xbec71927	-0.38886377
86	0x3c7b366f	0.015332802
87	0xbff35836	-1.9011295
88	0xbe1be127	-0.15222608
89	0xbf477a2a	-0.7792078
90	0xbbf8cc6e	-0.0075927293
91	0x3d1d3ed3	0.038389992
92	0xbdd21602	-0.10258104
93	0xbd539b60	-0.05166185
94	0xbdf250fe	-0.11831854
95	0xbee61625	-0.4493877
96	0xbe738b2c	-0.23783559
97	0x3f14382f	0.5789823
98	0x3d30ef25	0.043196816
99	0xbe1b923c	-0.15192503
100	0xbda038ae	-0.07823311
101	0x3df46e52	0.119351044
102	0xbe001d92	-0.1251128
103	0xbdca1499	-0.0986721
104	0x3fa944cf	1.3224124
105	0x3d753bf9	0.059871648
106	0x3c633bbf	0.013869225
107	0x3f1e812b	0.61915845
108	0xbf5fa765	-0.873648
109	0xbe9221e1	-0.28541473
110	0x3f557acd	0.83390504
111	0xbcac412e	-0.021027174
112	0xbe825cf0	-0.2546153
113	0xbe357ac7	-0.17722617
114	0xbda834d8	-0.08213204
115	0x3d8cc92d	0.06874309
116	0x3efd0c48	0.49423432
117	0xbebbb3ef	-0.36660716
118	0x3f854ff0	1.041502
119	0xbf20f32f	-0.6287107
120	0xbe2c680b	-0.16836564
121	0xbe4d505b	-0.20050184
122	0xbe00a99a	-0.12564698
123	0xbe3ce506	-0.1844674
124	0xbe025e15	-0.12731202
125	0x3e2c3d68	0.168203
126	0xbe9a4a18	-0.30134654
127	0x3e8d340a	0.27578765
128	0xbe3595df	-0.17732953
129	0xbe84fd9a	-0.25974733
130	0xbea79270	-0.3272891
131	0xbeb5050f	-0.35355422
132	0xbe84484c	-0.25836408
133	0xbe1fd782	-0.15609553
134	0xbe77ffc9	-0.24218668
135	0xbe908f7c	-0.2823447
136	0xbf2e72c0	-0.68143845
137	0xbc09aedf	-0.008403509
138	0xbd5cd2cb	-0.053911965
139	0xbda6c24c	-0.08142528
140	0xbdb672bb	-0.08908602
141	0xbdf15fc8	-0.11785847
142	0xbf05a3f3	-0.5220329
143	0xbef0cccf	-0.47031257
144	0xbd2219ad	-0.039575268
145	0xbe3f3f5a	-0.1867651
146	0xbeeaaf4f	-0.45836875
147	0xbe2e1a5d	-0.17002244
148	0x3e0b8866	0.1362625
149	0x3dbc37ef	0.09190356
150	0xbf06f4e9	-0.52717453
151	0xbe4f6800	-0.20254517
152	0xbd458ca0	-0.048229814
153	0x3c0dc5d5	0.008653124
154	0xbe985d81	-0.29758838
155	0xbe2ffb2c	-0.17185658
156	0xbe982902	-0.29718786
157	0xbe285745	-0.1643954
158	0xbdece28b	-0.11566647
159	0xbefa18de	-0.48847097
160	0xbe2d9091	-0.16949679
161	0xbf0adb45	-0.5424083
162	0xbee079e0	-0.43842983
163	0xbe773578	-0.2414149
164	0x3d84f8e8	0.064927876
165	0xbe443f28	-0.19164717
166	0xbe587ab7	-0.21140562
167	0xbe96fb04	-0.29488385
168	0xbe18c006	-0.14917001
169	0xbd2a7e25	-0.041624207
170	0xbc9bfa61	-0.019040288
171	0xbca0ea50	-0.019642979
172	0xbf9fd956	-1.2488201
173	0xbd29a79a	-0.041419603
174	0x3ea048dd	0.3130559
175	0xbeec6394	-0.46169722
176	0xbe89c450	-0.26907587
177	0xbddbdbd8	-0.10735291
178	0xbe96e453	-0.29471073
179	0xbe26aff8	-0.16278064
180	0x3d879f5d	0.06622193
181	0xbeefc1f9	-0.46827677
182	0x3e375a5f	0.17905568
183	0xbfa2f91e	-1.2732275
184	0x3dd940b5	0.10608045
185	0xbd91b055	-0.07113711
186	0xbe67761b	-0.22603647
187	0xbd2eb8e4	-0.042656794
188	0xbc53ec02	-0.012934687
189	0xbe1aec21	-0.15129139
190	0xbd35352e	-0.04424017
191	0xbec23ddb	-0.37937817
192	0x3bc242e3	0.0059283837
193	0xbee28ac7	-0.44246504
194	0xbf858af7	-1.0433034
195	0xbe4c0240	-0.19922733
196	0x3b9442d1	0.0045245667
197	0xbe767c7d	-0.24070926
198	0xbf9d11d7	-1.2271069
199	0xbdc2ae37	-0.09505885
200	0x3d9b7a2f	0.07591664
201	0xbeb3c2a2	-0.3510943
202	0xbe27ca2b	-0.16385715
203	0x3c43b218	0.011944316
204	0xc00461b8	-2.0684643
205	0x3d4ff7fd	0.05077361
206	0x3e055ffe	0.130249
207	0xbe85b5ef	-0.26115367
208	0xbfa0bb94	-1.2557244
209	0xbc1dba69	-0.009626963
210	0x3d3470f1	0.04405302
211	0x3d119b92	0.035548754
212	0xbf21c129	-0.63185364
213	0xbf2bf9ba	-0.6717793
214	0x3e1bd3d1	0.1521752
215	0xbfa691c1	-1.301323
216	0xbd424bf6	-0.047435723
217	0xbf94b5e4	-1.1618009
218	0xbda0515e	-0.078280196
219	0x3e2c3536	0.16817173
220	0xbcc9ae88	-0.024619356
221	0xbf17a004	-0.5922854
222	0xbe0f905a	-0.1401991
223	0xbf102d95	-0.5631955
224	0xbd300328	-0.04297176
225	0xbf45cd16	-0.7726606
226	0x3daed74e	0.0853716
227	0x3d8a4b6a	0.06752665
228	0xbde659c7	-0.112475924
229	0x3cee98ea	0.02912565
230	0xbf264e81	-0.6496354
231	0xbe662d96	-0.22478327
232	0xc01c2553	-2.439778
233	0xbeb6e9dc	-0.35725296
234	0xbe3b1b93	-0.18272237
235	0xbfa95c57	-1.3231305
236	0x3de23d64	0.110468656
237	0x3e3aa61d	0.1822743
238	0xbfa03e6a	-1.2519047
239	0x3d166fcc	0.03672771
240	0xbeb455e1	-0.3522177
241	0xbd0c52dc	-0.03425871
242	0x3db9e334	0.09076539
243	0xbda36098	-0.07977408
244	0xbda2f3d1	-0.079566605
245	0x3e96878c	0.2940029
246	0xbfc9a11c	-1.5752292
247	0x3e484fb7	0.19561659
248	0xbe679a62	-0.22617486
249	0xbf67364e	-0.9031724
250	0xbdd1448d	-0.10218153
251	0xbe241c8d	-0.16026516
252	0xbcd58601	-0.026064875
253	0xbf0243ad	-0.50884515
254	0xbdb0ad05	-0.08626751
255	0xbda7e981	-0.08198834

nns.0.0.bias f4 [32]
0	0x3d70b09e	0.058762185
1	0x3ca5e1fa	0.020249356
2	0xbf5962bf	-0.849163
3	0x3e108788	0.14114201
4	0xbd937371	-0.07199753
5	0x3b2249a3	0.002476313
6	0x3dcfd074	0.10147181
7	0x3e09fa70	0.1347444
8	0xbc9170c4	-0.017753966
9	0xbaff7a56	-0.0019491415
10	0x3eb1291d	0.3460168
11	0xbdfe89f1	-0.12428654
12	0x3c1fd124	0.009754453
13	0x3e08010b	0.13281648
14	0x3e2b4120	0.16724062
15	0x3ddabcef	0.106805675
16	0xbe0f30ba	-0.13983431
17	0xbe311939	-0.17294778
18	0x3d3f0a47	0.04664066
19	0x3e50648b	0.20350854
20	0x3da1197c	0.07866189
21	0xbe5df759	-0.21676387
22	0x3de3f7be	0.111312374
23	0xbe9dc1c3	-0.3081189
24	0x3dbb280d	0.091384985
25	0xbd93f00f	-0.07223522
26	0xbeff8aad	-0.4991049
27	0x3e345ae1	0.17612793
28	0x3dc860d8	0.097840965
29	0x3d8e56a4	0.06950119
30	0xbf1f92fc	-0.62333655
31	0x3f0fecb5	0.5622056

nns.0.1.weight f4 [32]
0	0x4007dfc7	2.1230333
1	0x3f53acf4	0.8268578
2	0x40514549	3.2698538
3	0x3f2c58b4	0.6732285
4	0x3f49c856	0.78821313
5	0x3f8475a7	1.0348405
6	0x3fb89650	1.4420872
7	0x40223e55	2.5350544
8	0x3fe52bd6	1.7904003
9	0x3efc83d0	0.49319315
10	0x3ed9f498	0.42569423
11	0x3f1e3bcd	0.6181
12	0x3eb4be6a	0.35301524
13	0x3e253d8a	0.16136757
14	0x3e2b37b9	0.16720475
15	0x3f444f30	0.7668333
16	0x3dccc837	0.099991255
17	0x3bdd9ee3	0.0067633255
18	0x3eb05502	0.34439856
19	0x3f3beeb4	0.7341111
20	0x3f29446e	0.6612004
21	0x3ed85298	0.42250514
22	0x3f854f8c	1.0414901
23	0x3e8c1d5e	0.27366155
24	0x3e387e99	0.18017043
25	0x3eca2e7b	0.39488587
26	0x402a07e1	2.656731
27	0x3e82ecc5	0.25571266
28	0x3f18d683	0.5970232
29	0x3cbad939	0.022808658
30	0x4026360f	2.5970495
31	0x403282d7	2.7892358

nns.0.1.bias f4 [32]
0	0xbe944cf0	-0.2896495
1	0xbedf068a	-0.43559676
2	0xbea01bad	-0.31271115
3	0x3ebaea26	0.36506766
4	0xbed6f09d	-0.41980448
5	0x3f26d091	0.65162
6	0x3f1bc1ce	0.608426
7	0xbdb79d5e	-0.08965562
8	0xbe13415d	-0.14380403
9	0xc005699b	-2.0845706
10	0xbfce2775	-1.6105791
11	0xbeaf1f69	-0.34203652
12	0xbff279fb	-1.8943475
13	0xbf3f8ad2	-0.748212
14	0xbead359a	-0.33829957
15	0x3ff94600	1.9474487
16	0xbef28950	-0.47370386
17	0xbf53349f	-0.8250217
18	0xbff41706	-1.9069526
19	0x3eaec958	0.34137988
20	0xbff8cc42	-1.9437335
21	0xbfd04991	-1.6272451
22	0xbef72896	-0.48273152
23	0xbfde51ce	-1.7368715
24	0xbf60fd4b	-0.87886494
25	0xbec5e732	-0.3865295
26	0x3f872b53	1.0560097
27	0xbedc01a8	-0.42970014
28	0xbefce22d	-0.49391308
29	0xbf86a3ec	-1.0518775
30	0xbea0f826	-0.31439322
31	0xbeaa8794	-0.33306563

nns.0.1.running_mean f4 [32]
0	0xc12f0464	-10.938572
1	0xbf92ddc7	-1.1473931
2	0xc1772df0	-15.448715
3	0xbf9a057e	-1.2032926
4	0xbffec945	-1.9905173
5	0xc0ba9cb7	-5.83163
6	0xc108a772	-8.54088
7	0xc0619474	-3.5246859
8	0x40575a46	3.3648849
9	0xbebe708a	-0.37195235
10	0xbf7293a3	-0.94756526
11	0xbf76dfca	-0.96435225
12	0xbda95ea3	-0.08270004
13	0x3f5f0d6c	0.87129855
14	0xbfca22cb	-1.5791868
15	0xbfbd8c28	-1.4808397
16	0xbf5a5878	-0.8529124
17	0xbf8b0a49	-1.0862514
18	0x3f20ca5c	0.62808776
19	0xbf4e1364	-0.8049834
20	0xbf147147	-0.5798535
21	0xbf88d1bd	-1.0689007
22	0x40730978	3.797453
23	0x4004d84d	2.075702
24	0xbfdf07ec	-1.7424293
25	0xbfd3d5f9	-1.6549674
26	0xc1178fdb	-9.472621
27	0xbd80e975	-0.062945284
28	0xc01bea19	-2.4361632
29	0xbf2a77e9	-0.6658922
30	0xc1204510	-10.016861
31	0xc14e1491	-12.880021

nns.0.1.running_var f4 [32]
0	0x4409a5e9	550.59235
1	0x4137abf8	11.479485
2	0x4474e7a1	979.6192
3	0x42f193d3	120.78872
4	0x4230f007	44.2344
5	0x431df0c8	157.94055
6	0x43ada3ad	347.27872
7	0x4398187a	304.19122
8	0x42d00291	104.00501
9	0x430ccaa7	140.79161
10	0x4209119d	34.2672
11	0x40792656	3.8929648
12	0x427a342d	62.550953
13	0x4174b61c	15.29446
14	0x41683b6d	14.514508
15	0x42b7e52b	91.94759
16	0x41511bdd	13.069303
17	0x40822606	4.0671415
18	0x42a3205f	81.563225
19	0x42908e0b	72.27743
20	0x42d4de94	106.43472
21	0x42acd994	86.42496
22	0x42fe4724	127.13895
23	0x4290f230	72.47302
24	0x4177d1f4	15.488758
25	0x420ab8c0	34.68042
26	0x43b8149c	368.161
27	0x425e0ca7	55.512356
28	0x4216d52f	37.708187
29	0x404dcdd4	3.2156878
30	0x43c977e6	402.9367
31	0x444e9db4	826.4641

nns.0.3.weight f4 [32, 32]
0	0x3ed67054	0.41882575
1	0xbd42aed2	-0.047530003
2	0x3e4867f8	0.19570911
3	0xbdf7dbed	-0.121024944
4	0x3c44d519	0.012013697
5	0x3e902096	0.2814986
6	0x3ed137da	0.40862924
7	0xbc9ed15b	-0.019386938
8	0xbe67c880	-0.22635078
9	0xbaaac6ac	-0.001302918
10	0xbe8aff52	-0.2714792
11	0x3e044e77	0.12920557
12	0x3e584d4f	0.21123241
13	0xbd3cd747	-0.046103742
14	0x3e280cbe	0.16411111
15	0xbe048fe4	-0.12945515
16	0x3e78eefb	0.24309914
17	0x3e5e3f1b	0.2170376
18	0x3e1d7367	0.15376054
19	0xbd01d85d	-0.03170048
20	0xbe91850c	-0.2842182
21	0xbd28747b	-0.04112671
22	0xbe350a20	-0.17679644
23	0xbe603dc2	-0.21898559
24	0x3d4aa963	0.049477946
25	0xbdc496b1	-0.095990546
26	0x3f8357ff	1.0261229
27	0x3e3fde6b	0.1873719
28	0x3cb5149a	0.02210455
29	0xbd2598fa	-0.040429093
30	0x3eb9b291	0.36269048
31	0x3e8dde25	0.27708545
32	0x3e3ace14	0.18242675
33	0x3dad784d	0.08470211
34	0x3dbde822	0.092727914
35	0x3e8b3c14	0.27194273
36	0xbd8fab5e	-0.070151076
37	0x3de2601d	0.110534884
38	0x3f0bbcd7	0.5458502
39	0x3bed8766	0.0072488068
40	0xbe431a82	-0.1905308
41	0xbe0add4c	-0.1356098
42	0x3c172f0f	0.009227528
43	0x3ca9a8ed	0.020710433
44	0xbd0a11e0	-0.033708453
45	0xbe9cf863	-0.30658254
46	0x3e1cba94	0.15305549
47	0x3e3339b3	0.1750248
48	0xbb39eda7	-0.0028370412
49	0x3e6dc2a6	0.23218784
50	0xbd95b290	-0.07309449
51	0xbdb93d61	-0.0904491
52	0x3dc0ab27	0.09407645
53	0xbe3e026d	-0.18555613
54	0xbe885537	-0.26627514
55	0xbf24a0a8	-0.6430764
56	0x3e192876	0.14956841
57	0xbcfba2cf	-0.030717282
58	0x3f8a4e11	1.0805074
59	0xbcd62330	-0.026139826
60	0x3c993e0e	0.018706348
61	0xbe8938d7	-0.26801178
62	0xbd886515	-0.06659905
63	0x3d610d51	0.05494434
64	0xbf2814cf	-0.6565675
65	0xbe72233b	-0.23646252
66	0xbea23462	-0.3168059
67	0xbe8473d3	-0.25869617
68	0xbc44f925	-0.012022291
69	0xbe702501	-0.23451616
70	0xbf15475e	-0.5831202
71	0xbe9c27d5	-0.3049914
72	0xbd9ba078	-0.07598966
73	0xbdd0564e	-0.10172711
74	0xbe301b4b	-0.17197911
75	0xbea8677d	-0.32891455
76	0xbe3d72b6	-0.1850079
77	0xbf5fe369	-0.87456375
78	0xbe65ee94	-0.22454292
79	0xbe07915b	-0.13239042
80	0x3ddd6fdf	0.10812353
81	0xbd60df71	-0.05490059
82	0xbe9e6acf	-0.30940863
83	0xbe81f331	-0.25380853
84	0xbf18037b	-0.5938031
85	0xbe988ddd	-0.29795733
86	0xbefa3c54	-0.48874152
87	0xbefea408	-0.4973452
88	0xbe97f3af	-0.29678103
89	0xbea297ff	-0.3175659
90	0xbef1ed1c	-0.47251213
91	0xbf303e65	-0.68845206
92	0xbeb03dc2	-0.34422117
93	0xbe67ae77	-0.22625147
94	0xbe561d3c	-0.2090959
95	0xbef0ba71	-0.47017244
96	0x3e877d93	0.26462993
97	0x3e020be2	0.12699845
98	0x3f0f3286	0.5593647
99	0x3e9b7393	0.30361614
100	0x3e1a460e	0.15065786
101	0x3e95d88f	0.29266784
102	0x3ed74bea	0.42050105
103	0x3e26433c	0.16236585
104	0xbedc3271	-0.43007234
105	0x3f601cd0	0.87543964
106	0x3f0cae0f	0.5495309
107	0xbdceb5b5	-0.100932516
108	0x3ea6759e	0.3251161
109	0x3f141afc	0.57853675
110	0x3e1ca030	0.15295482
111	0x3f140b57	0.57829803
112	0x3d510d68	0.051038176
113	0x3dfbb1a2	0.1228974
114	0x3f3d981a	0.74060214
115	0x3e82284b	0.25421366
116	0x3f396533	0.7242004
117	0x3f2e3fa3	0.6806585
118	0xbe075cba	-0.13218966
119	0x3ea247b0	0.31695318
120	0x3e1ade38	0.15123832
121	0x3ce36f46	0.02776302
122	0x3f254926	0.6456474
123	0x3d727da2	0.059201844
124	0xbe1800b4	-0.14844018
125	0xbcf95d14	-0.03043989
126	0x3e66d4e3	0.22542147
127	0x3ddb80fc	0.10717961
128	0x3d6bbfda	0.05755601
129	0xbe211754	-0.15731555
130	0x3f1724fd	0.59040815
131	0x3d936714	0.07197395
132	0xbd66882a	-0.0562822
133	0xbd70c234	-0.058778957
134	0x3ec71468	0.38882756
135	0x3e8392aa	0.25697833
136	0xbe1993fd	-0.1499786
137	0xbddb349c	-0.10703394
138	0xbde1b3d6	-0.11020629
139	0x3d0f9ccb	0.03506164
140	0x3a3a9407	0.00071173947
141	0xbe8afe6f	-0.27147242
142	0xbd95a759	-0.0730731
143	0xbc0cfd5a	-0.008605326
144	0x3d0c8cc8	0.034313947
145	0xbd8c6b0e	-0.068563566
146	0xbde89aae	-0.11357628
147	0xbe58a65d	-0.21157213
148	0xbe4ebdcd	-0.20189591
149	0xbe0a772f	-0.13522027
150	0xbedbd2a3	-0.4293414
151	0xbec9cd38	-0.39414382
152	0xbe749417	-0.23884617
153	0x3cc30689	0.023806827
154	0x3e855434	0.26040804
155	0x3df95e2a	0.121761635
156	0xbe2f7436	-0.17134175
157	0xbded5b85	-0.115897216
158	0x3e29b27e	0.16571996
159	0x3d737294	0.059435442
160	0xbdfbf6f8	-0.12302965
161	0x3cd12a7c	0.025532953
162	0x3e6a40c7	0.22876273
163	0xbe97b67f	-0.2963142
164	0x3db98667	0.09058838
165	0x3dc5b65a	0.096539214
166	0xbe146af2	-0.14493921
167	0xbd1d22d5	-0.038363297
168	0xbe9c6314	-0.3054434
169	0xbe51db6a	-0.20493856
170	0xbe7cdee8	-0.24694407
171	0x3e22bfb6	0.15893444
172	0xbd0aae19	-0.03385744
173	0xbe6c9957	-0.2310537
174	0x3d9fb344	0.07797864
175	0x3e849658	0.25895953
176	0xbe39e649	-0.18154253
177	0xbdc5be45	-0.09655432
178	0xbe24e5cc	-0.16103286
179	0x3c8c2ddf	0.017111717
180	0xbe1b66b6	-0.151759
181	0xbe1d72f8	-0.15375888
182	0xbe1141bd	-0.14185233
183	0xbf05d95e	-0.522848
184	0xbd30f82d	-0.04320543
185	0xbcb6bc3d	-0.022306556
186	0x3f34f6c6	0.70689046
187	0x3dc647f1	0.096816905
188	0xbe22c40a	-0.15895095
189	0x3e5d0c5a	0.21586743
190	0x3d8c63ba	0.06854959
191	0x3e8752dd	0.26430407
192	0x3ecdb4f0	0.40177107
193	0xbe1e0b8e	-0.15434095
194	0x3e21d638	0.15804374
195	0xbe6a6934	-0.22891694
196	0xbdb0c0e6	-0.086305425
197	0x3de2372d	0.1104568
198	0x3cac026f	0.020997254
199	0x3e9be581	0.30448535
200	0xbea1d74b	-0.31609568
201	0xbef552ef	-0.47914836
202	0xbe5425e4	-0.20717579
203	0xbe95c9c4	-0.29255497
204	0xbe82f1df	-0.25575158
205	0xbe9edec8	-0.31029344
206	0xbe01b2ec	-0.1266591
207	0xbc4aedee	-0.012385828
208	0x3de8eb64	0.11373022
209	0xbec45c23	-0.38351545
210	0xbe109960	-0.14121008
211	0xbeac5faa	-0.33666736
212	0xbec19df1	-0.37815812
213	0xbe4ae70f	-0.19814704
214	0xbe354ec6	-0.17705831
215	0x3cfd6bd9	0.030935215
216	0xbcc335ab	-0.023829302
217	0xbe955bc5	-0.29171577
218	0x3df03e83	0.11730673
219	0xbe7e16eb	-0.2481343
220	0xbd60b10c	-0.054856345
221	0xbeab5c17	-0.33468696
222	0x3ea2b670	0.31779814
223	0x3b05c9f2	0.0020414558
224	0xbf1c37f1	-0.6102286
225	0x3e7ea5e8	0.24867976
226	0xbf963a26	-1.1736495
227	0x3e9dfc3a	0.30856496
228	0xbeb4cbcc	-0.35311735
229	0xbfbede40	-1.4911575
230	0xbff2792b	-1.8943228
231	0x3da175b1	0.07883776
232	0xbf643c71	-0.89154726
233	0x3e6dedac	0.23235196
234	0x3d505b4a	0.05086831
235	0x3b4fc157	0.0031700933
236	0xbdef1873	-0.11674585
237	0xbd948641	-0.072521694
238	0x3d8603ed	0.065437175
239	0x3d066982	0.032815464
240	0xbecb6ff9	-0.39733866
241	0x3ce7b837	0.028286083
242	0xbe8c4a72	-0.27400547
243	0x3f528371	0.82231814
244	0x3ec24467	0.37942812
245	0x3d4bd460	0.049763083
246	0xbf540d80	-0.828331
247	0x3c47301e	0.012157468
248	0xbdf9396f	-0.12169158
249	0x3cb60f54	0.022224106
250	0xbfd24d5e	-1.642986
251	0x3f109271	0.5647345
252	0xbd5babca	-0.053630628
253	0x3dc54938	0.09633106
254	0xbf1f4df4	-0.6222832
255	0xbf85e324	-1.0459943

nns.0.3.bias f4 [32]
0	0x3e5f4104	0.21802145
1	0x3c2198b5	0.009863068
2	0x3d58599b	0.05281983
3	0x3daa6735	0.083204664
4	0x3d727921	0.05919755
5	0x3e8fc3bc	0.2807902
6	0x3e3dece0	0.18547392
7	0x3de5047e	0.111824974
8	0x3da2027a	0.079106286
9	0xbc332e36	-0.0109363105
10	0x3e60e011	0.21960475
11	0xbe59ce62	-0.21270135
12	0xbf497e70	-0.78708553
13	0x3decc166	0.11560325
14	0xbcf62e46	-0.030051362
15	0xbe0f8f6c	-0.14019555
16	0x3e1bda18	0.15219915
17	0x3ea0b098	0.3138473
18	0xbd158dc8	-0.036512166
19	0xbe4106e1	-0.1885028
20	0x3f75cd5e	0.9601649
21	0x3dbf1ead	0.09332023
22	0x3e48d138	0.1961106
23	0xbe4f89d2	-0.20267418
24	0xbbfc048f	-0.007690973
25	0x3d3c321b	0.04594622
26	0xbe05bd07	-0.1306039
27	0xbe1a342f	-0.15058969
28	0xbe0e2915	-0.13882859
29	0x3e87cfd7	0.26525757
30	0xbd667177	-0.056260552
31	0x3ddacbae	0.1068338

nns.0.4.weight f4 [32]
0	0x3ebf88bb	0.37409005
1	0x3eecca94	0.46248305
2	0x3e923bfa	0.28561383
3	0x3ef40dc3	0.4766675
4	0x3f06b6fa	0.5262295
5	0x3f15dc8b	0.58539647
6	0x3ece2696	0.40263814
7	0x3f4e7fee	0.80663955
8	0x3e45e5f2	0.19325998
9	0xbb4d8d9f	-0.003136493
10	0x3f8a1012	1.0786154
11	0x3e56d277	0.20978723
12	0x3fd23a45	1.6424032
13	0x3f8672f5	1.0503832
14	0xbd2d2564	-0.042271987
15	0x3f1b58e7	0.6068253
16	0x3ed550be	0.41663164
17	0xbca13974	-0.019680716
18	0x3ecbe612	0.39823967
19	0x3ee5fb7d	0.44918433
20	0x3f6f7ef9	0.9355312
21	0x3f885a7c	1.0652614
22	0x3e5cbf54	0.21557361
23	0x3ebe098d	0.37116662
24	0x3dd1652b	0.102243744
25	0x3f1b69c5	0.60708266
26	0x3ed0a52b	0.40751013
27	0x3f0e576b	0.5560214
28	0x3f18474e	0.594838
29	0x3fa34bc0	1.2757492
30	0x3d9bdaad	0.076100685
31	0x3f420897	0.7579436

nns.0.4.bias f4 [32]
0	0xbedc39fd	-0.43012992
1	0xbf0f73c0	-0.56035995
2	0xbf497000	-0.78686523
3	0xbfb013a8	-1.3755999
4	0xbf26a0bb	-0.65089005
5	0xbf0c9771	-0.5491858
6	0xbeb06550	-0.34452295
7	0xbe8d7b07	-0.27632925
8	0xbf137f14	-0.5761578
9	0xbebfa8e0	-0.3743353
10	0xbfc42790	-1.5324574
11	0xbe8e2d49	-0.27768925
12	0x3e98f8df	0.29877374
13	0xbfc2aee0	-1.5209618
14	0xbef994e6	-0.48746413
15	0xbeb0855e	-0.3447675
16	0xbeea42bb	-0.45754036
17	0xbe61b970	-0.22043395
18	0xbea80899	-0.3281906
19	0xbf0256d8	-0.50913763
20	0x3d70d1c4	0.058793798
21	0xbfe14a5e	-1.760082
22	0xbefd1e9f	-0.49437425
23	0xbfa75182	-1.3071749
24	0xbe2a9fde	-0.16662547
25	0xbfce9347	-1.6138695
26	0xbf3afeea	-0.7304522
27	0xbf6ac5d1	-0.91708094
28	0xbeb6dacd	-0.35713807
29	0x3d20e156	0.039277397
30	0xbe2a8b9b	-0.16654818
31	0xbe4b211c	-0.19836849

nns.0.4.running_mean f4 [32]
0	0x401a2f1c	2.4091253
1	0x4028df8a	2.6386437
2	0xc02f0436	-2.734632
3	0x406041a8	3.5040073
4	0x3f88b7f1	1.0681134
5	0x3fe249df	1.7678794
6	0x3efa1e64	0.4885131
7	0xc0d02099	-6.503979
8	0x3fdb3f64	1.712872
9	0x3f9c22c2	1.2198107
10	0x4085e094	4.1836643
11	0x3f9d7733	1.2302002
12	0x40da747b	6.826719
13	0x405e990b	3.478091
14	0x3f7f1b4d	0.9965103
15	0x3f874ed9	1.0570937
16	0x3fdef485	1.7418371
17	0x40473971	3.112881
18	0x3d30ffa2	0.04321254
19	0x40374f4a	2.8642144
20	0x3dd4e301	0.1039486
21	0x40a1d9c2	5.057832
22	0xbf5828fe	-0.8443755
23	0x4028a924	2.6353235
24	0x40046f93	2.06931
25	0x40a9dec2	5.308442
26	0x4081b70a	4.0535936
27	0x407309a5	3.7974637
28	0xbe1fa46b	-0.15590064
29	0xbe858879	-0.26080683
30	0x3faeb22a	1.3648121
31	0x3fe8a826	1.8176315

nns.0.4.running_var f4 [32]
0	0x401243da	2.2853913
1	0x4001b24f	2.026508
2	0x3fb48c45	1.4105307
3	0x408967fc	4.2939434
4	0x3f7efd43	0.99605197
5	0x3f9ac095	1.2090021
6	0x3f83424f	1.0254611
7	0x410b9bba	8.725519
8	0x40d1802e	6.546897
9	0x3e915ec2	0.28392607
10	0x40b276f4	5.5770206
11	0x406debbe	3.7175136
12	0x4189a0a0	17.20343
13	0x40999b18	4.8001823
14	0x3e283bd9	0.1642908
15	0x40ad7bb1	5.421349
16	0x3f9f915d	1.2466236
17	0x3fdbd682	1.7174838
18	0x3e3dee01	0.18547823
19	0x4037edb5	2.8738835
20	0x40e1b340	7.053131
21	0x410f9cac	8.97575
22	0x3fadd94e	1.3581941
23	0x40574024	3.3632898
24	0x40615841	3.5210116
25	0x40f81417	7.7524524
26	0x4068b6d4	3.636159
27	0x40a16a8b	5.0442557
28	0x3fc0de0e	1.5067766
29	0x410f4f71	8.956895
30	0x4007aa56	2.1197715
31	0x40ca41b9	6.320523

nns.1.0.weight f4 [32, 32]
0	0xbe642b1b	-0.22282068
1	0xbe740cf7	-0.2383307
2	0xbd9240cc	-0.07141265
3	0xbeb85636	-0.36003274
4	0xbf19b0bc	-0.600353
5	0xbe9c30ff	-0.3050613
6	0x3f094ee3	0.53635997
7	0x3f62cc55	0.88593036
8	0x3cd272a1	0.025689425
9	0xbd63bf98	-0.05560264
10	0xbeb1b75e	-0.3471021
11	0x3f51e242	0.8198587
12	0x3fe846e7	1.8146638
13	0xbee6197e	-0.44941324
14	0xbe8a3a10	-0.26997423
15	0x3e91ab38	0.28450942
16	0xbdffb807	-0.12486272
17	0x3d4aea3c	0.04953979
18	0x3e07925d	0.13239427
19	0xbf1c48c2	-0.6104852
20	0x3f7ec551	0.9951983
21	0xbefe61d8	-0.49684024
22	0x3e74aada	0.238933
23	0xbec9bc18	-0.39401317
24	0xbd9c628d	-0.076359846
25	0xbf06f706	-0.5272068
26	0x3ded097f	0.11574077
27	0xbef744e6	-0.48294753
28	0xbe8c3008	-0.27380395
29	0x3fa1f930	1.2654171
30	0x3d433ea5	0.047667164
31	0x3e39858d	0.18117352
32	0x3e2d4c4a	0.16923633
33	0x3e56e176	0.20984444
34	0x3d364ea8	0.044508606
35	0x3f6287e3	0.88488597
36	0xbe88d60a	-0.267258
37	0xbe3f9e17	-0.1871265
38	0xbabe5e5e	-0.0014523973
39	0x3e0f9561	0.14021827
40	0x3efed256	0.4976985
41	0x3e652e9c	0.22381061
42	0x3ef27fd4	0.4736315
43	0x3f073f37	0.52830833
44	0x3f8f7e63	1.1210445
45	0x3efee008	0.49780297
46	0x3cdd29b2	0.026997421
47	0xbddccb75	-0.10780994
48	0x3ec82ac2	0.39095122
49	0x3e6d1ada	0.23154774
50	0xbe9d6475	-0.30740705
51	0xbe5b8422	-0.21437123
52	0x3dc9ac38	0.09847301
53	0x3f2bcf66	0.6711334
54	0xbef2e7f7	-0.474426
55	0x3d43ccd1	0.04780275
56	0x3e9a354f	0.30118796
57	0x3ebc1814	0.3673712
58	0x3eeafd4a	0.4589637
59	0x3f6abc5a	0.9169365
60	0xbee02b8a	-0.43783218
61	0x3e1e534f	0.15461467
62	0x3f0251a2	0.5090581
63	0x3ef8c95b	0.48591122
64	0x3dd4b4f3	0.10386076
65	0x3dfb2967	0.12263756
66	0x3d288d64	0.041150466
67	0x3e65f71c	0.22457546
68	0xbd2d292a	-0.042275585
69	0x3ccc4d1f	0.024939118
70	0xbe694f36	-0.22784123
71	0xbf477627	-0.7791466
72	0x3dd57fb5	0.10424749
73	0x3b07c7f0	0.0020718537
74	0x3cfdeac1	0.030995728
75	0x3e2df202	0.1698685
76	0xbeeda12f	-0.46412036
77	0x3ddd9d88	0.10821062
78	0x3e3a1aff	0.1817436
79	0xbf02616c	-0.50929904
80	0x3e853d36	0.26023263
81	0x3dfe3908	0.124132216
82	0xbe0381ee	-0.12842533
83	0xbdc5673b	-0.0963883
84	0xbf880e70	-1.0629406
85	0xbb8df3a2	-0.004332022
86	0xbec6cfba	-0.38830358
87	0xbdb91ad2	-0.09038319
88	0x3ea92943	0.33039293
89	0x3dab1e38	0.08355373
90	0xbe811476	-0.25210923
91	0x3e90a5be	0.2825145
92	0x3e1f3ff7	0.15551744
93	0xbfde6cbc	-1.7376933
94	0x3e85b178	0.2611196
95	0xbf3f7b0b	-0.74797124
96	0x3ca824ec	0.020525418
97	0x3e2dbf7e	0.1696758
98	0xbc99d089	-0.018776195
99	0xbe49b8fa	-0.19699469
100	0xbe3acb1d	-0.18241544
101	0x3da2bcc8	0.079461634
102	0x3e1e2da4	0.15447098
103	0x3ef40585	0.4766046
104	0x3eb71dfc	0.35765064
105	0x3e5cebfe	0.21574399
106	0x3e1236d1	0.14278723
107	0x3d800eec	0.06252846
108	0x3c259ef0	0.010108694
109	0x3dc7aa53	0.09749284
110	0x3e102992	0.14078358
111	0x3dd0b120	0.10190034
112	0xbda68d10	-0.08132374
113	0x3e9d367f	0.3070564
114	0x3d915b3d	0.070974804
115	0xbdd2872b	-0.102796875
116	0x3eb5d55f	0.35514352
117	0x3e01d03f	0.12677096
118	0x3cc6ffe8	0.024291947
119	0x3e848487	0.2588236
120	0x3e85994a	0.26093513
121	0xbca09dff	-0.019606588
122	0x3e3b9044	0.18316752
123	0xbd8cc424	-0.06873348
124	0xbda68a6a	-0.08131869
125	0x3ef29cb7	0.4738519
126	0x3eb8f50e	0.36124462
127	0xbca3d57e	-0.019999262
128	0x3dcc643c	0.09980056
129	0x3d5b92ac	0.053606674
130	0x3e648f1b	0.22320215
131	0x3f1a2219	0.6020828
132	0x3e092d8e	0.13396284
133	0x3d49ab45	0.0492356
134	0xbe0ab737	-0.13546453
135	0x3eaf2f53	0.34215793
136	0x3e7e3cb5	0.24827845
137	0xb9ce4f96	-0.00039350678
138	0x3f275a8a	0.65372527
139	0xbdccdfdc	-0.10003635
140	0xbee76ecb	-0.45201716
141	0x3f04cb0c	0.51872325
142	0x3e2762b2	0.16346243
143	0xbf02b7e9	-0.51061875
144	0x3d175109	0.036942516
145	0x3ed6b2dd	0.41933337
146	0x3cc8dbd8	0.024518892
147	0x3ed38f20	0.41320133
148	0xbfa426c2	-1.2824328
149	0x3e90ac65	0.28256527
150	0x3e842c95	0.25815263
151	0x3e8d1cd7	0.27561066
152	0x3dfb36f2	0.12266339
153	0x3f2b0c63	0.66815776
154	0x3ed2c3f3	0.41165122
155	0x3ed453b2	0.41470104
156	0xbdf362a8	-0.118840516
157	0xbfc1bb83	-1.5135349
158	0xbcd64102	-0.026154045
159	0xbed79198	-0.42103267
160	0xbdb80241	-0.08984805
161	0xbcc3cd6c	-0.023901664
162	0xbe745ac5	-0.23862751
163	0x3e4cee53	0.20012788
164	0x3d660601	0.05615807
165	0xbe07ed46	-0.13274106
166	0x3e897237	0.26844952
167	0xbda564c7	-0.080758624
168	0x3e07ab62	0.13248971
169	0xbddf91a5	-0.10916451
170	0x3e3e39df	0.18576764
171	0x3dad0d0a	0.08449753
172	0xbeb30f29	-0.34972504
173	0x3ecd06d0	0.4004426
174	0xbe14c9f5	-0.14530165
175	0xbee4a990	-0.44660616
176	0x3dbeb667	0.09312134
177	0x3ea9d71e	0.33171934
178	0xbe5418ec	-0.20712632
179	0x3dff0ac9	0.12453229
180	0xbff18196	-1.8867671
181	0x3e30e0fa	0.17273322
182	0x3e727a53	0.23679475
183	0x3e4a0b5f	0.197309
184	0x3e0d04e2	0.13771394
185	0x3e6418db	0.22275107
186	0x3d9af9cb	0.075671755
187	0x3e2d3140	0.16913319
188	0xbe89d920	-0.26923466
189	0xbfda92a9	-1.7076007
190	0x3e8e1821	0.27752784
191	0xbf046aaa	-0.51725256
192	0xbdab347a	-0.083596185
193	0x3e25a41b	0.16175883
194	0xbe1b5dfb	-0.1517257
195	0xbf14c476	-0.58112276
196	0xbe4e62b7	-0.20154844
197	0xbe073faf	-0.13207887
198	0x3e9d199d	0.30683604
199	0x3f622bb8	0.8834796
200	0xbe073474	-0.13203603
201	0xbe0ad0ce	-0.13556215
202	0xbebc8f30	-0.36827993
203	0x3f150d20	0.5822315
204	0x3ffd3095	1.9780451
205	0xbed51b72	-0.41622502
206	0x3d848f5a	0.06472655
207	0x3db4751e	0.08811401
208	0x3d7ac39b	0.0612217
209	0xbdfa8a8e	-0.122334585
210	0xbc880517	-0.01660399
211	0x3d020133	0.031739425
212	0x3ef72d25	0.4827663
213	0xbefa1597	-0.48844597
214	0xbd6e2f44	-0.058150545
215	0xbea35aa5	-0.31905094
216	0x3e5f5e28	0.21813262
217	0xbeefbce8	-0.46823812
218	0x3d9c0d0e	0.076196775
219	0xbea213c1	-0.31655696
220	0xbd99d194	-0.07510677
221	0x3f1bbdec	0.6083667
222	0x3e441773	0.1914957
223	0x3e0c9e45	0.1373225
224	0x3e2b87e8	0.16751063
225	0xbe67ec37	-0.22648703
226	0xbe57b469	-0.21064915
227	0xbdb973b1	-0.090552695
228	0x3e0f8bf1	0.14018227
229	0x3b84a1d8	0.0040476136
230	0xbe2f231b	-0.17103235
231	0xc023c312	-2.5587811
232	0x3ef0c6a2	0.47026545
233	0xbdf7e4cc	-0.121041864
234	0xbca7d60c	-0.020487808
235	0x3e601f0c	0.21886843
236	0xbf442ed1	-0.76633936
237	0x3d224b17	0.039622393
238	0x3d466a40	0.04844117
239	0x3d115d89	0.035489593
240	0x3d51abf1	0.051189367
241	0xbddce0e5	-0.10785083
242	0x3da5b93c	0.08091971
243	0x3e4a9322	0.19782689
244	0xbeb7deb7	-0.35912105
245	0x3c8ced98	0.017203137
246	0xbed5938b	-0.4171413
247	0x3e013dd0	0.12621236
248	0x3df9b14b	0.12192019
249	0x3d84ef44	0.06490949
250	0xbf9c2539	-1.219886
251	0x3ebb65c8	0.3660109
252	0x3e6abc65	0.2292343
253	0x3e8637f0	0.26214552
254	0x3d97f7a9	0.07420284
255	0x3e3c9183	0.18414883

nns.1.0.bias f4 [32]
0	0x3e08fefe	0.13378522
1	0xbe56ece0	-0.20988798
2	0xbde50d4c	-0.11184177
3	0xbe3dce2a	-0.18535677
4	0xbd0d985c	-0.03456913
5	0x3e273eca	0.16332546
6	0xbd7bc44e	-0.061466508
7	0xbe9bcfd3	-0.30431995
8	0xbe8e3404	-0.2777406
9	0x3e0f2642	0.13979438
10	0xbe5beccf	-0.21477054
11	0x3e3a113f	0.18170641
12	0xbda9fe21	-0.08300424
13	0xbd5bf6fd	-0.053702343
14	0x3d2c09fe	0.042001717
15	0xbd888129	-0.0666526
16	0xbd9c7a15	-0.07640473
17	0x3dbcfa0d	0.09227381
18	0xbd508d23	-0.05091585
19	0x3dc1c4e8	0.09461385
20	0xbe0b3bcc	-0.1359703
21	0x3d96697d	0.07344339
22	0x3dad0610	0.08448422
23	0x3d6ec002	0.05828858
24	0xbe8c05f8	-0.27348304
25	0xbda67b31	-0.08128966
26	0xbe267abe	-0.1625776
27	0xbd818ecd	-0.06326065
28	0xbdf9769b	-0.12180825
29	0xbd8eb9ff	-0.0696907
30	0xbdf8e49c	-0.12152979
31	0x3db12b1b	0.086508

nns.1.1.weight f4 [32]
0	0x3ff4d621	1.9127847
1	0xbd0e4745	-0.034735937
2	0x3f4fd4c9	0.8118406
3	0x3c012d5d	0.007884351
4	0x3fb2e4ce	1.3976076
5	0x3f28c5c8	0.6592679
6	0x3f8c7b9c	1.0975223
7	0x405266d9	3.2875273
8	0x4023f5fb	2.5618885
9	0x3f6c838d	0.9238823
10	0x3ed17a73	0.40913734
11	0x40209118	2.5088558
12	0x40083415	2.1281788
13	0x3f85525a	1.0415757
14	0x3ea065c3	0.31327638
15	0x3fcc728e	1.5972459
16	0x3ebab275	0.36464277
17	0x3f6286d1	0.88486964
18	0x3f5698df	0.8382701
19	0x3f82af25	1.02097
20	0x3fd5f245	1.671456
21	0x3f591ede	0.84812725
22	0x3f0ec209	0.55764824
23	0x3f348173	0.70510024
24	0x3f4a0fce	0.78930366
25	0x3f1a77bd	0.60338956
26	0x3f840ef6	1.0317066
27	0x3f816d38	1.0111456
28	0x3fa31cd4	1.2743173
29	0x3f6b5ee9	0.91941696
30	0x3f31c115	0.69435245
31	0x3dc7d777	0.097578935

nns.1.1.bias f4 [32]
0	0x3ea19608	0.31559777
1	0xbeaf69a8	-0.34260297
2	0xbf3bdece	-0.7338685
3	0xbf13ae88	-0.5768819
4	0x3eea4be0	0.45761013
5	0x3e24ae45	0.16082104
6	0x3f21a551	0.6314288
7	0x3ef0c7ec	0.47027528
8	0x3f92d6aa	1.147176
9	0x3f167f1c	0.58787704
10	0x3eee6273	0.46559486
11	0x3f8b749d	1.0894963
12	0x3f20a6c7	0.6275448
13	0x3efd5fe2	0.49487215
14	0xbf8f47e0	-1.119381
15	0xbece6c38	-0.4031694
16	0xbe4dd8ec	-0.2010228
17	0xbeeaa181	-0.45826343
18	0xbf5f7d25	-0.8730033
19	0x3efcbc5c	0.49362457
20	0x3f589966	0.8460907
21	0xbf66246d	-0.8989933
22	0xbea28d45	-0.31748405
23	0x3f48fb10	0.7850809
24	0xbeb2b920	-0.34906864
25	0xbfdb923d	-1.7154003
26	0xc00101c2	-2.0157323
27	0xbeee79ee	-0.465774
28	0x3efe37b1	0.49651864
29	0x3e20d420	0.1570592
30	0xbde68f15	-0.112577595
31	0x3e43475d	0.19070192

nns.1.1.running_mean f4 [32]
0	0x40df7ea9	6.9842114
1	0x402a8ded	2.6649125
2	0xc0bfd997	-5.9953113
3	0x3fea9d92	1.8329337
4	0xc05a4bad	-3.410869
5	0xc0a3f9ba	-5.124234
6	0x40ad8f71	5.42376
7	0xc0b779cb	-5.7336173
8	0x40d3f268	6.6233406
9	0x4086dc98	4.214428
10	0xc0782f74	-3.8778963
11	0xc0d3278f	-6.598579
12	0xc10467a0	-8.275299
13	0xc06cbd11	-3.6990397
14	0x40564248	3.3477955
15	0xc0840b25	-4.1263604
16	0x408f06e6	4.469592
17	0xbfcd7d84	-1.6053929
18	0xc08d7f2d	-4.4217744
19	0x40ba56f1	5.823113
20	0x40a05345	5.0101647
21	0xc0a3a74a	-5.114171
22	0xbf80b5da	-1.0055497
23	0x409db75a	4.928632
24	0x3fc3a589	1.5284892
25	0x40a90a34	5.2824955
26	0x40c0b690	6.0222855
27	0xc019126e	-2.3917499
28	0xc0853805	-4.1630883
29	0xc00b36a3	-2.1752098
30	0x4083059f	4.094436
31	0x3fe35e45	1.7763144

nns.1.1.running_var f4 [32]
0	0x438bc5ca	279.54523
1	0x428c39b9	70.11274
2	0x438f0ad6	286.08466
3	0x4217ca1a	37.947365
4	0x42fa015e	125.00267
5	0x438b3ae1	278.46
6	0x432ad793	170.84209
7	0x431bbe0c	155.74237
8	0x4391ca18	291.57886
9	0x42bf2315	95.56852
10	0x4326663f	166.3994
11	0x4453b56a	846.8346
12	0x44876150	1083.041
13	0x43079df6	135.61703
14	0x42790581	62.255375
15	0x4329880b	169.53142
16	0x42f9a197	124.815605
17	0x41ac52a3	21.54035
18	0x433308ad	179.03389
19	0x4346ad1e	198.67624
20	0x4319e728	153.90295
21	0x4333687d	179.40816
22	0x41267a9c	10.404934
23	0x42f8ae65	124.340614
24	0x429a1066	77.03203
25	0x432052e2	160.32376
26	0x434e9869	206.59535
27	0x42057df2	33.372993
28	0x4320109e	160.06491
29	0x420e9fe4	35.656143
30	0x42e71f49	115.561104
31	0x421a689d	38.60216
