result/08.04.2022_10.15.30/config_8fold_1_state_dict.pt (torch, 78057 bytes, 118 tensors)

first_h.0.weight f4 [32, 3]
000000 cb 10 88 3e 2a d8 8a 3e 18 3d 69 3f c9 40 04 3f
       0.26575312 0.27118045 0.91108847 0.51661354
000010 79 63 82 3f 93 32 b2 3f a3 c4 67 3e 46 43 80 be
       1.0186607 1.3921684 0.22633605 -0.25051326
000020 6e 8f a6 3e f5 40 9c 3e e1 4c ba be da 14 b6 bf
       0.32531303 0.30518308 -0.3638678 -1.4225113
000030 e3 18 b7 3e 23 d9 c2 3e ca 9d d3 3e fd 5b a0 3e
       0.35761175 0.38056287 0.4133132 0.3132018
000040 78 90 c2 bf 99 3b 05 c0 cc 21 12 3f 7f bd e0 3e
       -1.5200338 -2.0817626 0.5708282 0.43894574
000050 c0 9d 44 bd f6 05 06 3f a9 60 e4 bc 97 69 b9 bf
       -0.048002005 0.52352846 -0.027878122 -1.4485348
000060 a2 db 9d be 1e 54 7f be fe 39 d5 bf 63 be 46 3f
       -0.3083163 -0.24934432 -1.6658323 0.7763426
000070 1f 9a bd be 6f ac 7b 3d fc b3 f4 bd 5e f1 f0 3d
       -0.37031648 0.061443742 -0.11948392 0.11764787
000080 f0 25 b0 3e 13 0c 9c be 7a a2 d2 3e 41 ec 05 bf
       0.34403944 -0.30477962 0.41139585 -0.5231362
000090 e4 05 a1 be b7 34 4f bf 61 9d a2 bf f6 40 8d 3e
       -0.31449807 -0.8093981 -1.2704278 0.27588624
0000a0 19 33 c3 3d 5c 30 5b 3f 18 39 9e be 24 a1 ca 3e
       0.095312305 0.85620666 -0.30902934 0.39576066
0000b0 1c 6f 0a 3f 4f af 96 3e 66 21 98 3e fb 1a 14 be
       0.5407579 0.29430625 0.2971298 -0.14463417
0000c0 da be e2 be 3a f9 ad 3e 63 d4 13 3f 1e 2c 88 be
       -0.44286233 0.33979207 0.5774595 -0.2659616
0000d0 82 09 81 3e 20 3a 7e bf 36 41 8e 3e a6 5e f5 3e
       0.25202566 -0.9930744 0.27784127 0.47923774
0000e0 65 ce 0a 3d 24 57 2d bd 9e 94 55 3f 1c 11 cc 3e
       0.03388824 -0.042319432 0.83429897 0.39856803
0000f0 e7 74 b2 be d6 83 3a bf 20 13 98 bf 3e 06 92 3e
       -0.34854814 -0.72857416 -1.1880836 0.28520387
000100 f9 d2 41 3f 49 d7 52 3f 19 8f ad 3e 08 5e 02 3f
       0.75712544 0.8235975 0.33898237 0.5092473
000110 a8 fc 1b 3e 27 ca 9e 3e 2f 8c 57 3f e2 28 e1 bf
       0.152331 0.31013605 0.8419828 -1.7590601
000120 6b 53 92 bd e5 04 77 3f e3 c1 0d 3f 4d ba 02 3f
       -0.07144817 0.96491843 0.5537397 0.5106552
000130 50 fe e8 3e ff b3 d9 3e 6e 86 df 3e 3f 8e 35 3f
       0.45506525 0.4252014 0.4365725 0.70920175
000140 98 13 20 be b6 b9 7d bf 09 c8 ba 3f b1 09 c9 3f
       -0.15632474 -0.991115 1.4592296 1.5706083
000150 3f f5 6d 3e be e7 33 3f 24 6e e7 3c d4 31 b7 be
       0.23238085 0.70275486 0.028250761 -0.35780203
000160 c0 49 82 3d b3 30 45 3f 32 51 28 3f 35 db 9b 3e
       0.06361723 0.77027434 0.65748894 0.3044068
000170 30 08 52 3e 1a b9 1a 3e 73 1e c8 3e 5d b3 25 3f
       0.20510936 0.15109673 0.3908573 0.6472681

first_h.0.bias f4 [32]
000000 35 07 f3 3e 62 c8 a0 be 84 7d c0 3e 56 4a c0 3e
       0.47466436 -0.3140288 0.3759576 0.37556714
000010 64 51 6d 3e 0c 2b 0c 3f 7c 2c 3c 3d 7d 1e 8e bd
       0.2317558 0.54753184 0.04594086 -0.06939409
000020 25 2d a7 be 28 9b 03 be a3 16 52 3e 87 b5 d0 be
       -0.3265163 -0.12852156 0.20516448 -0.40763494
000030 28 40 f4 3d 3f b4 1f be 57 f1 ec be 0f 94 90 bd
       0.11926299 -0.15596102 -0.46277878 -0.0705949
000040 f6 71 63 be e8 ee 03 3f 2a b2 8d be 34 5b 10 3f
       -0.22211441 0.51536417 -0.2767499 0.56389165
000050 43 19 aa 3e 39 c3 10 3f 89 40 13 bb be ce 9a bc
       0.33222398 0.56547886 -0.0022468886 -0.01889741
000060 b4 4c fb be 09 d4 64 3e 3a 4e bf 3e 15 92 5a bd
       -0.49081957 0.2234651 0.3736437 -0.05336197
000070 2f 9d 96 bc 6f 94 26 bd 9e c7 99 3e 88 1a ab be
       -0.018385498 -0.0406689 0.30035108 -0.3341868

first_h.1.weight f4 [32]
000000 0e 86 d9 3e d6 55 fb 3f 7f d9 f5 3e c0 f4 20 3f
       0.42485088 1.963557 0.480175 0.6287346
000010 7d 38 f2 3d 73 b1 28 3f 67 cb 80 3e 67 fd a3 3f
       0.118271805 0.65895766 0.25155184 1.2811707
000020 e2 a0 96 3e 88 12 1f 3f 88 86 76 3f 5b 00 48 3f
       0.2941962 0.6213765 0.9629903 0.7812554
000030 64 a1 a9 3e 16 d3 a3 3f f1 76 43 40 2c ff 04 3f
       0.33130944 1.2798793 3.0541346 0.5195186
000040 fe 1f 80 3f af 1b 4f 3f 96 94 ae 3f ab 36 69 3f
       1.0009763 0.80901617 1.3639095 0.9109904
000050 23 4a c4 bd 81 69 f7 3d 1c 32 7b 3f a9 49 fb 3e
       -0.09584453 0.1208067 0.98123336 0.49079636
000060 7e 67 83 3f ef f4 05 3f 9c 3d 00 3f 56 04 55 40
       1.0265958 0.52326864 0.5009401 3.3283896
000070 42 59 33 3f e3 da 3f 40 b4 a1 06 40 57 bd 5c 3f
       0.7005807 2.9977348 2.1036196 0.8622641

first_h.1.bias f4 [32]
000000 44 91 8c be c0 9f d8 3d 76 28 a0 be 0a c1 cd 3e
       -0.2745458 0.10577345 -0.3128087 0.4018634
000010 c9 0c 11 3e 73 cf d3 3e 50 6e 8f 3e 66 30 08 3e
       0.14165033 0.4136921 0.2801385 0.13299713
000020 68 ca 98 3e c3 2c 37 bf d2 ab 1a bf 51 85 d2 be
       0.29841924 -0.71552676 -0.60418427 -0.41117337
000030 99 71 8a be 50 86 8a 3c 4d 3e d0 be 55 58 0f bf
       -0.27039793 0.016909748 -0.40672532 -0.5599416
000040 c3 ed dd be 36 30 ca be 4a 68 14 3f be d3 08 bf
       -0.4334546 -0.39489907 0.5797163 -0.5344809
000050 73 17 a6 3e 77 c6 39 3e f4 ab db 3e d4 c7 0a 3f
       0.32439765 0.18142115 0.42904627 0.54211164
000060 c0 1d 32 bf 22 6a c3 3e 21 a0 dd bd c6 ea fa be
       -0.69576645 0.3816691 -0.10821558 -0.49007243
000070 4e 8e a2 bd 14 84 65 be 2b 94 9a 3e 17 90 0e bf
       -0.07937299 -0.22413665 0.30191168 -0.55688614

first_h.1.running_mean f4 [32]
000000 d0 ea b9 48 f6 1e 35 49 13 7e 9d 48 ea 83 d4 48
       380758.5 741871.4 322544.6 435231.3
000010 48 04 f9 48 2d 1c da 48 0b 9f 46 49 a2 3c 38 49
       509986.25 446689.4 813552.7 754634.1
000020 20 e3 d6 c8 80 e6 86 49 44 70 26 c8 6d 2d d4 c8
       -440089.0 1.105104e+06 -170433.06 -434539.4
000030 c5 fc da c8 5f 2a c0 48 9c 73 d3 c8 79 08 ce 48
       -448486.16 393554.97 -433052.88 421955.78
000040 62 2f 1a c9 fa 5b b9 c8 d2 59 c0 48 0b c2 6b c7
       -631542.1 -379615.8 393934.56 -60354.043
000050 46 c2 f2 c8 87 a6 c6 48 1c 37 ec 48 de f5 d7 48
       -497170.2 406836.22 483768.88 442286.94
000060 93 0e c7 c7 5b 8a 30 49 0c 25 18 49 eb 50 ab c9
       -101917.15 723109.7 623184.75 -1.4034214e+06
000070 14 18 9a 48 07 6b f2 c8 a1 b9 63 49 ce 79 53 48
       315584.62 -496472.22 932762.06 216551.22

first_h.1.running_var f4 [32]
000000 b8 f4 5d 54 28 b5 52 55 60 3c 1f 54 3f f6 90 54
       3.813174e+12 1.4479719e+13 2.735651e+12 4.980853e+12
000010 c7 05 c7 54 77 b4 98 54 9d 3f 7d 55 56 24 5a 55
       6.8383634e+12 5.246902e+12 1.7403104e+13 1.49906e+13
000020 b5 35 94 54 ea 92 e9 55 72 d3 31 53 af 7c 90 54
       5.0924497e+12 3.210215e+13 7.637567e+11 4.964537e+12
000030 c4 e5 99 54 fe 06 6d 54 ff 45 8f 54 62 51 88 54
       5.2878786e+12 4.0720982e+12 4.9228373e+12 4.6838474e+12
000040 9c 99 18 55 85 89 5c 54 f8 5b 6d 54 fa 76 b2 51
       1.0486595e+13 3.7888e+12 4.077801e+12 9.5812534e+10
000050 f9 1d bd 54 cc 4d 7d 54 b7 26 b3 54 c4 b3 95 54
       6.4980134e+12 4.3517278e+12 6.1555894e+12 5.143729e+12
000060 56 6a 7e 52 5e f2 47 55 ff 95 14 55 17 3f 3c 56
       2.7317643e+11 1.3740236e+13 1.0210747e+13 5.174479e+13
000070 2d 96 18 54 90 27 bc 54 f1 64 a6 55 e2 95 8f 53
       2.6214182e+12 6.464941e+12 2.2869059e+13 1.2333899e+12

first_h.3.weight f4 [32, 32]
000000 d1 4a 1e 3b b3 b7 91 3e 2f ef a1 3d 60 3c 5f 3e
       0.002415348 0.28460464 0.07906949 0.21800375
000010 85 bf c8 bd af 59 d5 3d e5 4a c8 3d f8 e8 d2 3c
       -0.098021545 0.104174964 0.0977991 0.025745854
000020 b3 b7 a2 bd 77 87 07 be 1c 10 9c bd 26 c2 a4 bd
       -0.07945194 -0.1323527 -0.0762026 -0.080448434
000030 56 47 6c 3d a8 30 63 3e a9 8f b3 3e 5a 4e 81 bb
       0.05768522 0.2218653 0.35070542 -0.003946108
000040 a6 72 29 bd 7c 06 95 bb da 1b 49 3e 05 1d d0 3d
       -0.041369103 -0.004547892 0.19639531 0.10161785
000050 c8 37 59 3d 09 94 9c 3c c9 71 29 3e 94 55 5e 3e
       0.053031713 0.019113557 0.16547312 0.21712333
000060 72 a3 3f bd 8d b7 80 3d 69 92 13 bd 0e ea 22 3e
       -0.046786733 0.062850095 -0.0360283 0.15909597
000070 c5 e8 65 3e d9 b7 49 3e 06 e4 7a 3e 6f 46 d9 bd
       0.22452076 0.19699039 0.24501047 -0.10609137
000080 06 71 df be 4a c8 59 bf 15 1c 29 bd 33 47 88 3d
       -0.43640918 -0.8507124 -0.041286547 0.06654205
000090 39 48 94 bd d4 fe f7 3c 15 bc b7 bd 48 ff 38 bd
       -0.07240338 0.030272879 -0.08971421 -0.04516533
0000a0 5b 65 e3 bd 11 23 e5 be f6 34 80 be 08 94 87 3c
       -0.111033164 -0.44753316 -0.25040406 0.016550079
0000b0 16 ca 69 bd df c2 ef bb ae 70 cf be 13 c5 37 bd
       -0.05707749 -0.0073169316 -0.40515655 -0.04486568
0000c0 c3 ef 34 3e a6 3c 88 bd 33 31 18 bf 4d 33 c1 3d
       0.17669587 -0.06652193 -0.5945007 0.09433613
0000d0 d9 b0 34 3e cb fc 99 3d d6 bd 2a be 07 c2 52 3e
       0.17645587 0.075189196 -0.16673979 0.20581828
0000e0 4c 6d 70 be 02 b5 2a be 79 38 a9 3b 77 05 cb be
       -0.23479193 -0.16670612 0.005164203 -0.39652607
0000f0 89 4f 02 3d d7 58 a5 be 81 bc 04 bf 74 d3 00 bf
       0.031814132 -0.32294342 -0.51850134 -0.5032265
000100 a5 10 3e 3e b8 77 3e 3e b7 d2 0e 3e aa 9a 22 3e
       0.18561037 0.18600357 0.13947569 0.15879312
000110 58 3f e4 3d b7 ff 27 3d 1b ca b0 3d fd a5 24 39
       0.11144894 0.041015353 0.086322986 0.00015702094
000120 59 34 ec 3d 20 31 be 3d db 39 83 3e 2c 5d 2f 3e
       0.11533422 0.092867136 0.25630078 0.17125386
000130 02 77 91 3d 37 1b 67 3e 45 3e 1d 3e 0e cd f4 3d
       0.07102777 0.22568975 0.15355785 0.119531736
000140 41 98 1d 3d 49 67 71 3e 64 bd 34 3e 10 2b 5b 3e
       0.03847528 0.23574556 0.17650372 0.21403146
000150 5b ed 6b bc 96 6b bb 3e 70 98 ac 3e ae 6b a6 3b
       -0.014399852 0.3660552 0.3371005 0.0050787544
000160 be 51 8c 3e 6a 0b 83 3e 52 92 33 3e d0 f2 74 3e
       0.27406114 0.25594646 0.17536286 0.2392075
000170 4b f7 93 3d e2 79 83 3e 82 90 93 bc 55 6e ce bd
       0.07224902 0.25678927 -0.018013243 -0.10079638
000180 76 a5 13 3b cc 90 76 be 63 de cb bd 1c 03 a6 3d
       0.0022529042 -0.24078673 -0.09954526 0.08106062
000190 b7 55 01 be 35 c1 f7 3d 84 be 97 bb 8a 35 34 3e
       -0.12630354 0.12097398 -0.0046308655 0.17598549
0001a0 8b c0 b5 3d f4 01 0f be 59 f6 69 bd bb 31 cf 3d
       0.08874615 -0.13965589 -0.0571197 0.10116907
0001b0 db dd 4d bb 05 d0 0f be 89 ee 8b be a3 ce 05 3c
       -0.0031412754 -0.14044197 -0.27330425 0.008166942
0001c0 f4 ae 30 3e 01 45 47 3e c0 fe 4a be bd 0a 5f 3d
       0.1725424 0.19459917 -0.19823742 0.0544536
0001d0 9f 12 b9 bc 88 79 86 be d2 29 5f be 17 c1 5d 3d
       -0.022591887 -0.26264596 -0.21793297 0.054139223
0001e0 fe cd a8 bc 6e bd 35 be 81 0f eb bd fb 11 11 be
       -0.020606037 -0.17748043 -0.114775665 -0.14167015
0001f0 7d 90 b3 3d 9e 75 41 bc 3e 49 a2 3d e4 78 a9 be
       0.08767793 -0.011807827 0.07924126 -0.33100045
000200 6a a6 3b 3d 0c e8 c9 bc d5 84 81 bd db 23 38 be
       0.045813 -0.024646781 -0.06324164 -0.17982428
000210 e6 a1 9e be 84 0f a4 bb 13 5c ff bd ed a9 91 bc
       -0.30982894 -0.0050067324 -0.12468734 -0.017781222
000220 da 69 37 be 5b 04 96 be a3 c8 d1 bc ee ee 26 be
       -0.17911473 -0.29300198 -0.025608366 -0.16302082
000230 2b 2a 25 be cc 7d 59 3b 02 fb ea 3b 60 a6 86 be
       -0.16129367 0.0033186553 0.0071710357 -0.2629881
000240 67 6a 53 be 77 01 13 be ca ba d5 bd f9 cf 20 bc
       -0.20646058 -0.14356028 -0.10436018 -0.00981521
000250 34 74 b4 bd 88 bc 2f be 71 31 a8 3d 5f 47 a8 bd
       -0.088112265 -0.17161763 0.08212555 -0.08216738
000260 70 ab 17 be 2c 54 3b 3e 30 6f af bd 68 b7 9f 3d
       -0.14811492 0.18293828 -0.08566129 0.07798654
000270 b4 b0 54 bc 60 1c 82 3d 92 d7 31 bd 2a b5 06 be
       -0.012981582 0.06353068 -0.043418474 -0.13155046
000280 01 00 f1 be bd ef 66 bf f5 76 2f be 99 0e 45 3e
       -0.47070315 -0.9020956 -0.17135222 0.1924385
000290 0c 47 54 3e 9d 01 cf 3e c6 9f e5 3e 4c 85 67 3e
       0.20730227 0.40430918 0.4484846 0.22609442
0002a0 72 a5 6b 3e a7 d8 4c bf a7 f4 e9 be ee 0e 7f 3c
       0.23012331 -0.80018085 -0.45694467 0.015567524
0002b0 cc 0f 5a 3e 45 8c 9b bc a4 0c 9d bf 7a 5d 49 bf
       0.21295089 -0.018987784 -1.2269483 -0.7865826
0002c0 e4 05 75 be 6e 12 35 3f d5 68 35 bf 17 68 aa bd
       -0.23928028 0.70731246 -0.70863086 -0.08320635
0002d0 69 29 6b 3e ac d2 2e 3d 31 75 92 3c 87 40 8e 3e
       0.22965015 0.04268138 0.017878147 0.27783605
0002e0 4b 24 62 be 9c 9e 92 3d e3 f7 23 bd c4 ca 72 bf
       -0.22084157 0.071591586 -0.040031325 -0.94840646
0002f0 29 0c 08 3e 63 e3 80 bf 28 1c 55 bf 3a d0 01 bf
       0.13285889 -1.0069393 -0.8324609 -0.50708354
000300 c8 8f 27 bf 1a c0 ec be 73 4a 46 3d 2d fc f7 be
       -0.6545377 -0.46240312 0.048410844 -0.48434582
000310 4e c9 c7 be 83 b9 ac be 40 7b 45 be 48 e2 d2 be
       -0.3902077 -0.33735284 -0.19285297 -0.41188264
000320 b7 35 5c be ae 6a 57 3e a7 74 4d 3e 27 28 11 be
       -0.21504866 0.21036789 0.2006403 -0.14175473
000330 f3 12 36 be e5 94 df be 00 3b cd be 65 bc 96 3d
       -0.17780666 -0.43668285 -0.40084076 0.07360152
000340 ab 51 ed be d1 02 ca be 84 11 37 bf a8 87 99 3c
       -0.4635137 -0.39455274 -0.715111 0.018741444
000350 01 d2 79 be e1 49 92 be 67 9c e2 be ce 9f 57 bd
       -0.24396516 -0.2857199 -0.4425995 -0.052642636
000360 dc 84 ac 3b 8c 38 48 be fa b4 7d be 67 12 55 bf
       0.0052648615 -0.19552821 -0.24776068 -0.83231205
000370 b8 fa be be 89 26 0e bf 34 bf dc be d5 f8 83 bd
       -0.37300658 -0.5552755 -0.43114626 -0.06443945
000380 4c 6e 23 bf 07 74 3a bf a1 2d 06 bf 17 52 62 3e
       -0.63840175 -0.72833294 -0.52413374 0.22101627
000390 e1 71 75 be 69 99 f5 3c 89 d6 21 be 53 53 31 3d
       -0.23969223 0.029980378 -0.15804495 0.043292355
0003a0 7a 53 38 bd 87 81 13 bf ea ff ec be 1c 70 16 bd
       -0.045001484 -0.5761952 -0.46288997 -0.03672801
0003b0 e8 31 fb bd 85 3e ac be 3f 04 2d bf 67 a3 af be
       -0.12265378 -0.3364145 -0.67584604 -0.34304354
0003c0 01 c7 42 be be 12 b2 3e f6 21 05 bf 5a 45 4b 3d
       -0.19021226 0.34779924 -0.52004945 0.049626686
0003d0 a0 59 e0 be b1 5a 3f bf e2 a1 3c bf e1 a8 da 3d
       -0.43818378 -0.7474776 -0.73684514 0.10676742
0003e0 3b 82 0f bf 83 86 3e bf 6d 9b e8 be a2 3a e3 be
       -0.5605809 -0.74424 -0.4543108 -0.4438067
0003f0 41 ba 38 3e 0d 26 05 bf 2b 42 eb be da 6f c8 be
       0.180398 -0.52011186 -0.4594892 -0.39147836

first_h.3.bias f4 [32]
000000 92 b7 c1 3d 60 bc 01 be b8 65 db 3d c4 78 4a 3d
       0.094588414 -0.12669516 0.10712761 0.049431577
000010 df d6 3c 3e 1b 6b 1a bd 1c 50 c5 bd 7d e2 3a 3e
       0.18441342 -0.0376998 -0.0963442 0.18250461
000020 7f 0c ae ba 02 2b 25 be 8c ae 1c be e0 bf 5c be
       -0.0013278871 -0.16129687 -0.1530096 -0.2155757
000030 ff 42 21 3e 41 c5 3f 3d 8e aa 87 3e ba 7a 5e bd
       0.15748213 0.046818975 0.2649731 -0.05431626
000040 4e 8b 03 3e b4 16 f3 bd 2d 9c 7f be 26 94 42 be
       0.1284611 -0.11869565 -0.2496192 -0.19001827
000050 ec 4d 11 3e bc ff 1c 3d 88 a9 b3 3c 90 04 06 3e
       0.14189881 0.038329825 0.021931425 0.13087678
000060 5c 3f 6b be 70 d3 01 be 36 c7 19 3d 7f 18 92 bd
       -0.22973388 -0.12678313 0.037543498 -0.071335785
000070 e1 e2 c7 bc 1a df b5 bd 82 a3 20 ba 8c e2 f2 3c
       -0.024400176 -0.08880444 -0.000612788 0.029649042

first_h.4.weight f4 [32]
000000 32 24 33 3f 66 3e 04 3f d3 e0 fe bb e6 c9 54 3f
       0.69977105 0.5165771 -0.007778266 0.8312057
000010 27 fd 42 3f 38 fa 78 3e 1d 6c 54 3f ff 55 1b 3f
       0.7616753 0.24314201 0.8297747 0.60678095
000020 de 1d 1f 3f 3a bd c6 3e 51 28 d1 3f 23 ce 02 3f
       0.6215495 0.38816243 1.6340429 0.5109579
000030 6d 66 93 3e 27 9d 07 3c 97 ef 15 40 f9 56 3e bc
       0.28789082 0.008277214 2.3427484 -0.011617416
000040 5a a6 0d 40 bd 61 57 3f ee 83 07 3f 6e a8 15 3e
       2.2132783 0.8413351 0.52935684 0.14615032
000050 ee 3d 0e 40 98 5f 38 3f 4a d4 5e 3f 06 7f 38 3f
       2.22253 0.72020864 0.8704268 0.7206882
000060 cc d8 20 3f 72 90 80 bb d4 e7 28 3f 5f ce 51 3f
       0.62830806 -0.003923469 0.6597874 0.8195552
000070 74 9e 7c 3f 00 7d 62 3f ce 49 84 3f 78 ee 59 3f
       0.9867928 0.88471985 1.0335023 0.851295

first_h.4.bias f4 [32]
000000 63 e6 56 bf dd 7a 8d be 7c d0 37 bf 9b 93 c5 be
       -0.8394529 -0.276328 -0.71802497 -0.38589177
000010 85 54 a7 be 42 ba 64 be 02 58 da be 39 79 8d be
       -0.3268167 -0.22336677 -0.4264527 -0.27631548
000020 96 38 a7 be 5e 6a cb 3e 42 08 78 3d 5a 1f ac be
       -0.3266036 0.3972959 0.06055475 -0.3361767
000030 f1 f1 91 be 04 10 00 bf 99 c2 65 be 6a de 4c bd
       -0.285049 -0.5002444 -0.22437514 -0.050016798
000040 2e 39 96 be c6 1e 0c bf 32 df f4 3e db c2 af be
       -0.293405 -0.54734457 0.47826535 -0.3432835
000050 62 ef c9 be 35 0b c1 be ea 91 cb be bb 2e a3 be
       -0.39440447 -0.37703863 -0.3975976 -0.3187159
000060 ca fb 86 be dc 89 2a bd e9 f8 d6 be d0 58 ab be
       -0.26363975 -0.04163538 -0.41986778 -0.33466196
000070 a4 5d 98 be 29 6c 71 be fb 24 df 3b 1b 35 a9 be
       -0.29758942 -0.23576416 0.0068098283 -0.3304833

first_h.4.running_mean f4 [32]
000000 92 92 82 3f 2c 20 b5 bf ec 2c 81 3f 43 9c b2 be
       1.020098 -1.4150443 1.0091834 -0.34884843
000010 4e 77 0d be eb cd ae bf be 34 24 c0 2a 85 05 c0
       -0.13815042 -1.3656591 -2.5657191 -2.0862527
000020 b7 6b 52 bf fc ec 21 40 29 ae ad c0 fa 5a 83 bf
       -0.8219561 2.5300894 -5.42751 -1.0262139
000030 e5 3d 6b 3f 85 f8 12 3f e7 d4 3f c0 dc f4 cc 3e
       0.9189132 0.5741046 -2.9973695 0.40030563
000040 88 5e 44 c0 2b 06 ee be 04 fc 57 40 62 55 02 40
       -3.0682697 -0.4648908 3.3747568 2.0364614
000050 72 4c 32 c0 ba 3f b2 bf ec 1f 6c bf 36 fd 4e bf
       -2.7859159 -1.3925698 -0.9223621 -0.8085512
000060 f3 6c d0 bf 99 23 96 3f c3 9b 34 bf 5b 26 84 bf
       -1.6283249 1.1729614 -0.70550174 -1.0324205
000070 06 71 55 c0 72 7e 48 bf 35 59 0b 40 b6 70 3a c0
       -3.3350234 -0.7831794 2.1773198 -2.9131293

first_h.4.running_var f4 [32]
000000 b8 44 92 40 2f 51 97 41 cf f4 40 40 28 20 8c 3f
       4.5708885 18.91464 3.014942 1.0947313
000010 67 b6 18 3f 78 3d a3 41 de 5c ec 41 a8 32 00 42
       0.59653324 20.405014 29.545345 32.04947
000020 9d d3 ee 3f 66 9b 5b 42 27 9c 05 43 cd 60 1b 40
       1.8658329 54.901756 133.60997 2.4277833
000030 55 a4 68 40 87 34 26 3f d2 11 c2 41 99 96 97 3f
       3.63503 0.649239 24.258701 1.1842834
000040 c8 91 8f 41 57 08 71 3f 26 50 80 42 bb 08 16 42
       17.946182 0.9415335 64.15654 37.508526
000050 63 6e 57 41 bd c4 ff 40 a8 33 b0 40 c1 db e1 40
       13.46445 7.992766 5.5063057 7.0580754
000060 e6 9e 1d 41 79 6e 2e 41 be 68 72 40 68 8e 93 40
       9.851294 10.901971 3.787643 4.6111336
000070 bd b9 7e 42 d8 08 a0 40 5a bd f6 41 59 5e 2e 42
       63.681385 5.0010796 30.842457 43.592136

nns.0.0.weight f4 [32, 32]
000000 ff 13 c2 3e 22 3c 73 3e 13 7c a1 3e cb 0c 16 3e
       0.3790588 0.23753408 0.31539974 0.14653318
000010 48 39 86 bc c6 a8 10 3f 22 b2 b0 bd 40 00 8e 3e
       -0.016384736 0.5650753 -0.08627726 0.27734566
000020 99 42 04 be 6a 89 d4 3e 91 2d a1 3d 92 ac 8c 3d
       -0.1291603 0.4151109 0.07870019 0.06868853
000030 eb ac ed 3e f1 4f 71 3d dc d1 ba 3e 9c b5 61 3e
       0.46420988 0.05891413 0.36488235 0.22041935
000040 7c 85 84 3f 88 ee aa 3e 47 87 0c 3f 2b 01 40 3e
       1.0353236 0.3338511 0.54893917 0.18750446
000050 ce 08 08 3f 62 0c 5b bc fa 4b e4 3d 03 fd f8 3d
       0.53138435 -0.0133696515 0.11147304 0.12157633
000060 ac 05 98 bd c9 a3 04 be 0d 3b f2 3d 68 2f 39 3e
       -0.07422957 -0.12953104 0.11827669 0.1808449
000070 7a b0 81 3d 9e 6a 14 be f3 28 67 3f 34 00 08 3e
       0.06332488 -0.14493796 0.9029686 0.13281327
000080 61 de 61 3e 99 c5 82 3e 07 ba 53 3e 3b 3e e0 3e
       0.22057487 0.2554138 0.20676433 0.43797478
000090 20 c2 32 be d3 d3 aa 3e 6f 8d 79 3c 2d 9b d5 bc
       -0.17456865 0.33364734 0.015231474 -0.02607497
0000a0 64 77 8d be e9 11 95 3c 13 c8 58 be 57 2c 9c be
       -0.2763015 0.018197017 -0.21170072 -0.3050258
0000b0 dd ac 37 3e e5 0d 6e bd 22 f9 40 3f 83 fd 4d be
       0.17937036 -0.05811872 0.75380147 -0.20116238
0000c0 0e 54 0f 3f 7b 38 3f be b2 b5 62 bc 3b aa ec be
       0.5598763 -0.1867389 -0.013837265 -0.46223626
0000d0 40 e6 2c 3f 54 78 d9 ba ab fc 48 3d 18 49 03 be
       0.67538834 -0.0016591647 0.049069088 -0.12820852
0000e0 59 c0 a4 be f0 73 5d 3d 06 c5 e3 3d 29 38 3c 3d
       -0.32178 0.054065645 0.111215636 0.045951996
0000f0 45 10 ea 3e 52 a4 9f bd f1 09 d7 3e e5 63 a8 3e
       0.45715538 -0.077950135 0.41999772 0.32888713
000100 ff be b6 be e6 15 e3 bd 86 1e a0 3e e1 3f a3 3d
       -0.35692593 -0.11088161 0.31273288 0.07971168
000110 5b 2f cf bd dd 2b 9c bd b8 4f 6a be 41 14 f8 bd
       -0.10116454 -0.07625554 -0.22881973 -0.12113238
000120 73 83 43 be 73 d6 8b bf 5f 7f 52 c0 b7 52 26 be
       -0.19093113 -1.092482 -3.289024 -0.1624249
000130 72 83 16 be 9b 09 15 3b a3 e5 d2 3d a8 38 64 3e
       -0.1469858 0.002274132 0.10297706 0.22287238
000140 99 ba ea 3c 7c a0 1b 3d 5a 4d 9d bf 94 01 31 be
       0.02865343 0.037994847 -1.2289231 -0.17285758
000150 a7 4c 84 3e f0 2f 8a bf 71 fb 11 be e1 9c 88 bd
       0.2583973 -1.0795879 -0.14256074 -0.06670547
000160 93 5e a2 bf b7 5c e7 be 87 6c 73 3d d3 b8 4b 3d
       -1.2685112 -0.45187923 0.05942967 0.04973681
000170 d1 ac 03 be d7 3b 8a bc 20 b6 61 bd 5e 4c ba 3c
       -0.12858893 -0.016874237 -0.05510533 0.022741493
000180 f7 b8 22 3f 19 fb a3 3d 0c b4 19 3d 2c ec cf 3c
       0.63563484 0.080068775 0.03752522 0.02538117
000190 9a 7d 21 3e 72 8a ca 3d 4b 2b d5 3e 62 3b 78 3e
       0.1577057 0.098896876 0.41634592 0.24241403
0001a0 e9 99 ec bd a6 12 56 bd a2 0f b3 be f8 8c c2 3c
       -0.115527935 -0.05226388 -0.34972864 0.02374886
0001b0 46 6b c6 3e a0 c0 3b 3e d6 b5 19 40 3c 41 e4 3d
       0.38753718 0.183352 2.4017234 0.11145255
0001c0 b1 56 33 40 d7 9f 8c 3e 0e 86 f7 be eb c4 63 be
       2.8021662 0.27465698 -0.48344463 -0.22243087
0001d0 34 52 11 40 1d 98 d0 3e 39 0c 0d 3e cb fe 83 3d
       2.2706423 0.40741053 0.13774194 0.06445082
0001e0 ae 09 11 bf 90 a8 4c be 24 76 0a 3d 51 c0 0b bc
       -0.56655395 -0.19986176 0.033804074 -0.0085297385
0001f0 2d 7d dc 3e 8d 4f 03 3d db f1 ea 3d 61 0e 2f 3d
       0.43064252 0.032058287 0.114719115 0.042738322
000200 90 1d a6 3c 88 be c8 3d f9 c9 9d 3e aa 78 e6 bd
       0.020277768 0.09801966 0.30818155 -0.112534836
000210 ef 16 9b be 5e e2 75 bb 01 63 09 bf df ed 1a be
       -0.30290934 -0.0037518959 -0.5366669 -0.15129803
000220 83 e2 ab be de 5a 3c be b7 64 e7 bd 9e 9b b5 3c
       -0.33571252 -0.18394038 -0.11298507 0.02216893
000230 0a 87 4e bd d6 e0 ac 3e 67 c6 0d c0 ec 3b 0e bd
       -0.050421752 0.33765286 -2.2152345 -0.034725115
000240 f5 cb 28 c0 89 90 39 3e a8 44 7c be ab e9 1b be
       -2.6374485 0.18121542 -0.24635565 -0.15225856
000250 c0 89 50 c0 1c 64 8b be 22 e1 63 3d 23 7a 89 bd
       -3.2584076 -0.27224815 0.055634625 -0.06712749
000260 82 7f c2 3e 81 b4 df be 1d 9a 07 bd 73 6f ba 3c
       0.37987906 -0.436924 -0.03310596 0.022758221
000270 12 74 06 bf dc 35 43 bf c7 3a 5e be e4 ba 80 bf
       -0.5252086 -0.7625406 -0.2170211 -1.0057034
000280 4f 70 b0 be 9a f8 c3 be d1 9d fe bd 07 d4 8b be
       -0.34460685 -0.38275605 -0.12432445 -0.27310202
000290 64 fc 06 3e 3c bb 9e be f4 43 95 3e 7d cc 5d be
       0.13182217 -0.31002223 0.29153407 -0.21660037
0002a0 bf 9f 40 3b fe 75 ae be e9 0c 74 bd c2 ac 5d bd
       0.002939209 -0.34074396 -0.059582625 -0.054119833
0002b0 f7 ce 50 be e0 e4 b7 be 27 93 87 3f 56 f0 41 be
       -0.20391451 -0.35916805 1.0591782 -0.18939337
0002c0 ea 30 3c 3f be fe 04 be 74 30 b2 be c4 11 e3 bd
       0.73512137 -0.12987801 -0.34802592 -0.11087373
0002d0 bf c8 bd 3f 15 3f bf 3e e8 42 4a be b8 99 bf bd
       1.4826888 0.37352815 -0.19752085 -0.093554914
0002e0 04 a9 fa 3d 8a 4c 97 3c 2a f8 88 bc 62 2f be bd
       0.122392684 0.018469114 -0.016719896 -0.09286381
0002f0 fe 51 fe 3d f0 1f 40 be aa 8d a1 be b8 63 0d be
       0.124179825 -0.18762183 -0.31553394 -0.13807571
000300 14 74 1d be 6b d9 d4 be 47 b3 79 bd df be 34 be
       -0.15376312 -0.41572127 -0.060961988 -0.17650937
000310 37 10 fb bd 0e b8 d8 bc f7 a6 d5 be 84 e4 f6 bd
       -0.12258952 -0.026454952 -0.41728947 -0.12055305
000320 b0 a0 fc 3d 37 2e a9 be f2 b6 35 be 25 2d 5d 3d
       0.12335336 -0.33043072 -0.1774557 0.05399813
000330 d8 b8 4a be 8e 3c 0a be c9 9c 69 be d3 16 54 be
       -0.19797075 -0.13499662 -0.22813715 -0.20711832
000340 95 90 61 be 8c 09 c7 bd f8 85 9e bd 73 c3 64 be
       -0.2202781 -0.09718618 -0.07740396 -0.22340183
000350 69 d1 7e be 00 e0 4d be 1f 29 d6 3d 61 0e a0 3d
       -0.24884571 -0.2010498 0.10457062 0.078152426
000360 5b a6 af bd 32 f1 75 be 4d 02 a4 3c 6b 9c 87 3d
       -0.08576652 -0.2401779 0.020020628 0.06621631
000370 7c 73 a8 be c9 b9 18 be 9b 56 c1 bc b2 f8 7b be
       -0.32900608 -0.14914621 -0.023600867 -0.24606588
000380 39 52 e8 be 7e 8e 01 bf 61 68 e4 bd f9 0d 02 bf
       -0.4537523 -0.5060805 -0.11152721 -0.5080257
000390 d1 0b 5f be fc cb bb be f3 fb 97 be 41 8c 39 bf
       -0.21781851 -0.36679065 -0.2968441 -0.72479635
0003a0 3a 91 f0 bd 37 f9 a8 bd b3 da 89 bc 9e fe ed bd
       -0.1174645 -0.08250659 -0.016827917 -0.1162083
0003b0 45 03 f5 be 19 3a 78 be 81 e2 13 bf 89 de 63 be
       -0.47854057 -0.24240912 -0.5776749 -0.22252859
0003c0 64 67 51 bd d5 93 4a be 95 21 eb bd 25 61 0e bd
       -0.05112399 -0.19782956 -0.11481015 -0.034760613
0003d0 5f 45 80 be bd d9 1f bd 77 f1 0c be 67 e8 d3 bd
       -0.25052926 -0.03902601 -0.13763987 -0.103470616
0003e0 a3 93 88 3d 91 eb 13 bf e7 e2 fa bd ea 99 5c be
       0.066687845 -0.5778132 -0.122503094 -0.21543089
0003f0 6f 94 28 bf d3 0d 02 be 12 04 19 bf 70 87 d7 be
       -0.6585149 -0.12700586 -0.59771836 -0.42095518

nns.0.0.bias f4 [32]
000000 ea ea 25 be 8f 69 ed 3b 6b a7 a6 3d 2a 07 27 bd
       -0.16202894 0.0072452496 0.08137401 -0.040778317
000010 80 2a 0d bd 7e 49 73 bd 98 35 9a 3c a7 87 97 bc
       -0.03446436 -0.05939626 0.018824384 -0.018497301
000020 13 10 a9 3c 85 25 d2 bc 3e 50 9f 3d 26 ae 42 be
       0.020637548 -0.025652656 0.07778977 -0.19011745
000030 f0 e9 d7 3d 9f 13 df bd 73 c7 19 3e 21 03 a6 3d
       0.10542667 -0.10892414 0.1501749 0.081060655
000040 19 56 b7 bd 34 aa 3d be 2c 3f 14 3e 0c 53 28 3e
       -0.08951969 -0.18521959 0.14477223 0.1643793
000050 4e 82 d1 3d 8c e8 0d be 36 68 31 3e 02 45 fa bd
       0.10229932 -0.13858241 0.1732491 -0.122201934
000060 e9 98 c9 3d 52 91 43 3d fa 7c 37 be 99 19 69 3d
       0.098436184 0.04774601 -0.17918769 0.056909177
000070 3b fe e9 3d cb dc 52 3d 80 87 27 3e d6 72 cc bd
       0.11425444 0.051480096 0.16360283 -0.09982841

nns.0.1.weight f4 [32]
000000 98 d3 d0 3e 24 87 f9 3a ba cc 2e 40 a9 86 f8 3f
       0.40786433 0.0019037467 2.7312455 1.9416095
000010 8d f0 14 40 b4 48 a8 3f c2 65 44 3f b3 58 15 3f
       2.327182 1.3147187 0.7671777 0.5833847
000020 e2 dc 3b 3f 7e b7 e0 3f 26 7c da 3f 18 69 45 3e
       0.73383915 1.7555997 1.7069137 0.19278371
000030 a7 03 c6 3f 7d 49 25 3c 49 77 eb 3d 7b 3b bd bc
       1.5469865 0.010088322 0.11497361 -0.023099652
000040 0f d7 ad 3e 36 17 e5 3f 86 90 d2 3f e0 32 3d 3f
       0.3395314 1.7897708 1.6450355 0.73905754
000050 6f df 70 40 ee 81 f3 3b 44 61 91 bd 8c f0 19 3f
       3.7636373 0.0074312603 -0.0709863 0.6013267
000060 7d 83 4f be cb c7 05 3e e3 6b 34 3f 34 c1 7c 3c
       -0.20265003 0.13064496 0.7047712 0.015426923
000070 d7 73 c4 bc b2 0a aa 3f 03 20 5a bb c1 26 2a 3f
       -0.023981018 1.3284514 -0.003328324 0.66465384

nns.0.1.bias f4 [32]
000000 ec 19 89 be 28 12 47 bf e2 0a 01 3f 1d 54 e4 bf
       -0.2677759 -0.7776208 0.5040723 -1.7838169
000010 aa e0 b5 bd 15 a9 4d bf 33 07 cf be ae 93 c1 be
       -0.08880742 -0.80336124 -0.4043518 -0.37807983
000020 36 5f b4 be 5d 2a ca 3e a6 31 dc 3e f7 e4 ad 3e
       -0.3522889 0.39485446 0.4300663 0.3396375
000030 14 09 2a bf 63 80 c9 be 7a 02 01 bf 07 f6 09 3f
       -0.664201 -0.39355764 -0.50394404 0.5389103
000040 7c f3 52 3e cb 5b 0b 3e 87 51 84 bf fa b6 a9 be
       0.20600694 0.13609235 -1.033738 -0.33147413
000050 f6 95 08 bf 98 39 dc be 82 d7 06 3f cd 9c 8c be
       -0.5335382 -0.4301269 0.5267259 -0.2746338
000060 bf 03 e4 3e 9d 25 ae 3e be 2c 23 3f e1 a4 af bf
       0.44534108 0.34013072 0.63740146 -1.3722192
000070 e1 63 81 bf 91 3d 77 bf 1a 0f 5c bf 43 88 05 bf
       -1.0108606 -0.9657832 -0.85960543 -0.52161044

nns.0.1.running_mean f4 [32]
000000 f6 48 1e 40 66 a8 49 3f ca fd c9 c0 8f f4 cc 3f
       2.4732032 0.7877258 -6.31223 1.6012133
000010 4d c7 69 c0 ba 3c 20 be 9b ed 78 bf 07 b5 8f bf
       -3.6527894 -0.15648165 -0.9723756 -1.122712
000020 b1 3f 4f bf 72 c4 a0 c0 96 dd 03 c0 d9 98 eb 3f
       -0.8095656 -5.02398 -2.0603995 1.840602
000030 8b 3d ca bf 3f 79 fa bf 5a fd 4f bf 7a ba 84 bf
       -1.5800031 -1.9568251 -0.8124596 -1.0369408
000040 3e e5 32 c0 fb 9d 89 c0 09 53 8c 40 60 ec d9 bf
       -2.7952418 -4.3005347 4.385136 -1.7025261
000050 63 c8 c6 c0 b4 06 b7 3e 10 b5 c2 bf 9b 00 1b c0
       -6.2119613 0.35747302 -1.5211506 -2.421912
000060 c6 83 05 c0 75 81 34 bf 08 1f 7f bf ad 90 00 40
       -2.0861678 -0.70510036 -0.99656725 2.0088303
000070 b0 aa c5 be 90 45 94 bd 9a 33 81 3e 89 77 a1 bf
       -0.38606787 -0.072398305 0.2523468 -1.2614604

nns.0.1.running_var f4 [32]
000000 03 d9 2f 43 45 19 e8 41 15 4b 9b 43 9f f4 33 43
       175.8477 29.012339 310.58658 179.95555
000010 65 11 85 43 58 9e 81 42 1e 1f 3d 41 d2 85 65 42
       266.1359 64.809265 11.820097 57.380684
000020 bf 52 2e 41 fc c4 6b 43 8b 4c a5 43 8a 5a d6 42
       10.895202 235.76947 330.598 107.176834
000030 b9 04 42 42 ed fa f0 41 bd 6c 0d 42 95 9e 4f 43
       48.504612 30.122522 35.35619 207.61946
000040 62 af ad 42 de 13 14 43 19 d8 dc 43 87 2f fc 42
       86.842545 148.0776 441.68826 126.09283
000050 aa 4d 72 43 56 99 80 40 bc ec 33 42 0f df 95 42
       242.30338 4.018718 44.981186 74.93566
000060 d5 9a 18 42 dd f8 35 43 0a 02 99 42 b6 d1 8d 42
       38.151203 181.97212 76.50398 70.90959
000070 2f b7 1c 42 25 05 61 42 6e f9 06 42 ce 20 12 41
       39.17889 56.255024 33.743584 9.133009

nns.0.3.weight f4 [32, 32]
000000 25 9a cd 3e ff 93 9c 3d 8a f8 16 3f 74 26 90 3e
       0.40156665 0.076454155 0.5897299 0.28154337
000010 5f 5a aa 3e 90 10 10 3d 51 8a d5 bc 7b 2c 8f 3a
       0.33272073 0.035172045 -0.026066931 0.001092329
000020 7a 1d 9b be 09 dd 02 3f 9e 7b a1 3e 9c 2e 00 be
       -0.30295926 0.5111852 0.31539625 -0.1251778
000030 2f 06 56 3f 79 b0 5a 3e 52 85 1c be 72 0f a4 bc
       0.83603185 0.21356381 -0.15285233 -0.020026896
000040 0a b6 e9 3e 8c 05 f4 3e 11 ca 08 3f 83 c1 65 be
       0.45646697 0.47660482 0.5343333 -0.224371
000050 16 fc 66 3f bb 78 65 3d c7 de 19 be 48 c9 c3 3d
       0.902284 0.05602334 -0.15026389 0.09559876
000060 fc 5a 98 be 74 ac e7 bd 29 80 9c 3e 9a 8f b0 3e
       -0.29756916 -0.1131219 0.30566528 0.3448456
000070 b8 d8 5b bd a6 79 cd 3e 87 27 92 3d 08 ce 2c 3e
       -0.053673476 0.40131873 0.071364455 0.1687547
000080 90 74 b4 be d3 31 a6 be 36 ce 37 3d 2e b3 97 be
       -0.3524518 -0.32459888 0.044874392 -0.2962889
000090 dc 57 c9 bc c3 7f 1e be 82 e5 2b 3e 51 fa 7f be
       -0.024578027 -0.15478425 0.16786769 -0.24997832
0000a0 ba bc 74 bd 67 35 53 3d a7 8f 0e 3e a2 13 c8 be
       -0.059750296 0.0515646 0.13921987 -0.3907748
0000b0 8f 16 25 3c 9f 54 73 be b9 6e 7f be e3 68 ce be
       0.010076179 -0.23762749 -0.24944581 -0.40314397
0000c0 9e c7 02 3e af f2 1f be 69 16 c1 be 63 0d 6d be
       0.1277146 -0.1561992 -0.3771241 -0.23149638
0000d0 3e 09 a6 3e 89 36 32 be 48 3c 06 bf 9c ba 42 be
       0.32428926 -0.17403616 -0.5243573 -0.19016498
0000e0 44 0e 23 be 3b 31 26 be de 02 40 3e 72 fc 8d be
       -0.1592341 -0.16229717 0.18751094 -0.27731663
0000f0 6a 29 df be 6b 57 ec be ad b2 02 bf ca d5 e4 be
       -0.43586284 -0.46160445 -0.5105389 -0.44694358
000100 34 8d ca be 0d f5 96 3e 36 2e a6 bd d6 ba 96 3f
       -0.39560854 0.29483834 -0.08114283 1.1775768
000110 5c 05 20 3f 5f 7f 4b 3f e9 5d 78 3e c6 a2 76 3d
       0.6250818 0.7949123 0.24254574 0.060213827
000120 4d 91 73 3d a2 60 c2 3e 00 14 66 3e d0 9f 8e bf
       0.05946474 0.3796435 0.22468567 -1.1142521
000130 d6 1f 9a 3e b5 5a 17 bf 6a e6 39 3e ce fc 60 be
       0.30102414 -0.5912278 0.18154302 -0.21971437
000140 2b 25 93 be c1 54 f5 3e f9 56 00 be b4 65 6c 3e
       -0.28739294 0.47916225 -0.12533177 0.23085672
000150 9f b7 ce 3e a4 f7 bc be 86 f1 13 be 46 22 bf bd
       0.40374467 -0.36907685 -0.14447603 -0.09332709
000160 3d cf 55 be 24 5e 49 3e a4 d0 1e be 6c 2d ce 3e
       -0.20879836 0.19664818 -0.15509278 0.4026903
000170 b1 61 a1 be 86 f0 39 3f 67 20 51 bd 8c 62 4a bd
       -0.31519845 0.72632635 -0.051056292 -0.049410388
000180 06 10 d2 bd 38 ef a1 bd 12 c5 e2 3f e1 3e dc be
       -0.102569625 -0.079069555 1.7716391 -0.43016723
000190 d1 b2 67 3d a9 f8 ad be 74 fd d7 bc bc 06 e9 3d
       0.056567017 -0.33978775 -0.026365973 0.113782376
0001a0 5f d2 4b be 1b b1 b5 3f 9c 1f 89 3f 88 0b c6 ba
       -0.19904469 1.4194673 1.0712771 -0.0015109638
0001b0 25 d0 1c 3d c0 a6 63 bd 91 9b 93 3d ab 13 66 bd
       0.03828444 -0.055578947 0.07207406 -0.0561711
0001c0 f5 16 0a 3e b3 ce 5c 3f 76 4a c2 be 7c d0 8c bc
       0.1348532 0.862529 -0.37947434 -0.017189257
0001d0 dc 4e 17 40 ad d9 62 3d f8 b5 9e be 86 23 7a bd
       2.3641882 0.055383373 -0.30998206 -0.061069034
0001e0 62 b0 b3 bd 93 dd 48 be c0 21 af 3d 4e 14 a3 be
       -0.08773877 -0.19615774 0.08551359 -0.3185143
0001f0 c6 e9 a4 be 83 e3 73 be 2b c0 84 be 24 7d a9 bd
       -0.32209605 -0.23817258 -0.25927863 -0.08275822
000200 9b 6e b1 3e 0c 81 fe 3d 34 21 8e 3f 8e fb f8 bb
       0.34654698 0.124269575 1.1103883 -0.007598347
000210 93 21 c2 3e fd 53 fb bd 53 e8 5e 3e 89 d7 19 3e
       0.3791624 -0.12271879 0.21768312 0.15023626
000220 86 da a3 3c da 04 1f 3f 26 13 99 3e e1 6d 87 3c
       0.020001661 0.6211678 0.29897422 0.016531887
000230 1c 06 34 3f 57 69 a6 3e fc d4 5f be 41 f5 3a be
       0.7032182 0.32502243 -0.21858591 -0.1825762
000240 f7 b0 ee 3e c6 81 bf 3e 03 a7 0d 3e 64 43 e1 be
       0.46619388 0.37403697 0.13833241 -0.43996727
000250 28 f9 33 3f 42 b1 44 3c 7c c5 90 be 32 25 0b b9
       0.7030206 0.012005152 -0.2827567 -0.0001326993
000260 ba d7 56 bd d3 23 6f bd 37 72 ab 3e 80 3d c3 3d
       -0.052451827 -0.058383774 0.33485577 0.095332146
000270 a4 2f a7 bd 2f df 8e 3e d7 84 ba 3d 9f 63 82 3e
       -0.081633836 0.2790465 0.091073684 0.2546663
000280 23 9d 49 3e aa c6 c1 3d a5 cd 85 3f 6d 12 74 3f
       0.19688849 0.0946172 1.0453383 0.95340616
000290 20 dc 71 3f e9 18 af 3c c4 df bd 3e 11 a9 6e 3d
       0.9447651 0.021374183 0.37084782 0.058266703
0002a0 f8 7e 28 3d 81 83 56 3f 3c b2 89 3f fa 5a 0f bf
       0.04113671 0.8379441 1.0757518 -0.55998194
0002b0 19 34 0a 3f 7e 9d a4 be e8 4c 38 be 87 fa dd be
       0.53985745 -0.32151407 -0.17998087 -0.433552
0002c0 60 d4 ba 3e 5b 85 51 3f 8d 42 87 3d 04 c7 29 be
       0.36490154 0.8184411 0.066044904 -0.16579825
0002d0 4d da 50 3f 8f 64 97 bd d5 88 91 be 43 36 0d be
       0.815831 -0.07392227 -0.28424707 -0.1379023
0002e0 2b cf f5 bd 00 2f 2e be 17 2a 11 be 56 40 a9 3e
       -0.12002405 -0.17010117 -0.14176212 0.33056897
0002f0 fb 94 73 be 90 c4 3d 3f 48 52 18 be 3e 9d b2 3e
       -0.237873 0.74128056 -0.14875138 0.3488559
000300 2b 92 34 3e 0e e2 fe 3d bb 40 61 3d bf 72 3b 3f
       0.17633884 0.1244546 0.054993372 0.73221964
000310 53 39 2b bb e3 57 ea 3e a1 c7 a3 3e db 75 74 3d
       -0.0026126697 0.45770177 0.31988242 0.05968271
000320 53 95 59 3d 8b ee 0d 3e d0 22 cc 3e 5d 29 e6 3e
       0.053120922 0.13860528 0.3987031 0.44953433
000330 45 6a 74 3d d9 e2 70 3d 0c 62 93 be 47 dc 24 bd
       0.05967166 0.05881009 -0.2878574 -0.040249135
000340 67 1f 1e 3e 9d 43 cb 3d a9 37 b3 3f 15 86 b2 be
       0.15441667 0.099250056 1.4001361 -0.3486792
000350 24 7d dd 3e 84 43 56 3d 49 5d 03 be 97 f0 86 3d
       0.43259537 0.05231048 -0.12828554 0.065888576
000360 d8 6b 8d 3e d2 9d 97 3c 19 e4 4d 3f 13 38 31 3d
       0.2762134 0.018507872 0.80426174 0.043266367
000370 7d 67 0f 3f 7f 45 84 3e b7 ee 0c 3d 9a 2d 7b 3d
       0.56017286 0.2583427 0.034407344 0.061322786
000380 55 24 94 bd c7 cf d8 3d 88 73 9d 3d 7f 86 56 be
       -0.07233492 0.105865054 0.076880515 -0.20949744
000390 b3 98 94 be 34 0d 09 be fa 57 0c be 9e 15 55 bb
       -0.2902275 -0.13383943 -0.13705435 -0.0032514106
0003a0 a9 fd 48 be 13 d2 9f 3e f4 4b 0b 3e 09 1a 81 be
       -0.19628014 0.3121496 0.13603193 -0.25215176
0003b0 79 26 26 bd de 23 d9 3c 36 52 06 bd ae 08 ff bd
       -0.040564034 0.02650636 -0.032793246 -0.124528274
0003c0 bc da 2b 3e 43 dc 06 3e 58 71 e2 be 87 8e 6b be
       0.1678266 0.1316996 -0.442271 -0.23003589
0003d0 13 d3 e9 3d af 14 3a be f5 43 74 be 92 76 44 be
       0.11417212 -0.18171953 -0.23854049 -0.19185856
0003e0 41 43 96 be a7 c7 56 3c 30 b9 5c bd 18 64 63 3d
       -0.29348186 0.013109124 -0.053887546 0.05551538
0003f0 1d e8 7f bd 5c ae 97 be 2c 9e 3f bd 18 d2 bb be
       -0.06247722 -0.29625213 -0.046781704 -0.36683726

nns.0.3.bias f4 [32]
000000 4f c2 38 3e 32 09 e6 3b 22 15 a2 bd 83 19 a3 3c
       0.18042873 0.007020139 -0.07914187 0.019909626
000010 74 89 b9 3c 9d 7d b6 bd 64 5c 32 3e 7e 71 21 3d
       0.02264855 -0.089106776 0.17418057 0.039414875
000020 01 f9 b4 3d e1 e2 d4 3c 0d ce 4e 3d 6d 54 42 be
       0.08836556 0.02598709 0.050489474 -0.18977518
000030 98 04 1b 3e a6 ca 0f be a1 f3 0a be 97 2c 9f bd
       0.15138471 -0.14042148 -0.135695 -0.07772177
000040 93 93 2b 3e 54 c5 31 3e 84 6d 9b 3d b1 12 04 3e
       0.16755514 0.17360431 0.07589248 0.12897755
000050 b1 5b 8f 3d 84 1e 2c bd cc bf 9d 3d 86 aa f8 3c
       0.069999106 -0.04202129 0.07702598 0.03035475
000060 53 49 c1 3e 4b e1 03 3e 6b 87 0b 3e ff 5a b7 bd
       0.37751254 0.12878911 0.13625877 -0.08952903
000070 e1 8e b2 3c e7 46 c3 bd c4 c8 a8 bc 59 08 38 bd
       0.021796646 -0.09535008 -0.020603545 -0.044929836

nns.0.4.weight f4 [32]
000000 b9 34 cc b8 84 73 19 3f bc 9a 7a 3f 70 60 c8 3f
       -9.7372984e-05 0.5994189 0.97892356 1.565443
000010 dc e4 6e 3d d4 ce 4c 3f b6 3e 2c 3f 06 4d 29 3f
       0.058323726 0.80003095 0.6728319 0.66133153
000020 ef a8 ba 3e 29 fe 78 3e fc 3f cb 3f 1c da 67 3f
       0.3645701 0.24315704 1.5878901 0.90567183
000030 b0 ba 4f 3e dd e4 05 3f 8b 84 a2 3e 23 5f 3c 3f
       0.2028606 0.5230234 0.31741747 0.7358267
000040 c1 2f 07 3f c9 a9 b5 3f 45 e6 c0 3e 24 31 3b 3f
       0.5280724 1.4192439 0.37675682 0.7312186
000050 bb 43 46 3f be 9a 02 3f 18 77 5f 3e b6 42 1e 3f
       0.774471 0.5101737 0.21822774 0.6182054
000060 b7 53 df 3f 3a bb 22 3e 6c 2e dc 3d b6 ab 33 3f
       1.7447423 0.15891734 0.10751042 0.70183885
000070 68 d5 81 3f 53 fe 96 3f 91 c7 bc 3d 20 77 9a 3f
       1.0143251 1.1796364 0.09217752 1.2067604

nns.0.4.bias f4 [32]
000000 f3 d5 96 be a8 cc b5 be cb ca cd bf c9 3e 1f 3e
       -0.29460105 -0.35507703 -1.6077513 0.15551294
000010 6f 46 90 be 51 e8 c5 bf d7 d9 b7 be f3 a3 a3 be
       -0.28178737 -1.5461522 -0.35908386 -0.3196102
000020 c2 36 95 bf 5e 4b 42 bf 2f 63 cc bf 2d 55 0b bf
       -1.1657336 -0.7589625 -1.5967768 -0.5442684
000030 db 9d 28 bf aa 34 85 bf f9 98 65 bf ed 3c 27 bf
       -0.6586587 -1.0406697 -0.8968654 -0.6532734
000040 e2 4c 35 bf 1c 30 22 3e 4e 32 16 bf 0c 4c 45 bf
       -0.7082044 0.15838665 -0.5867051 -0.77069163
000050 cd fc ef be b3 a1 19 bf a3 48 e3 be 54 b7 70 be
       -0.4687256 -0.6001236 -0.44391355 -0.23507434
000060 c9 a5 8f 3e 72 75 91 bf 4b 8f af bf bc 7a 25 bf
       0.28056172 -1.1363966 -1.3715605 -0.646404
000070 25 7e 0e bf 8b 78 82 be f5 79 c7 be d8 85 79 3f
       -0.5566123 -0.25482592 -0.38960233 0.97469854

nns.0.4.running_mean f4 [32]
000000 05 13 06 40 20 74 00 bf bc 0e 68 3e 44 c6 88 40
       2.0949109 -0.5017719 0.2266187 4.2742023
000010 be fe 14 40 30 18 24 40 ac b7 ec 3f 29 89 ca bd
       2.3280482 2.5639763 1.8493552 -0.098894425
000020 04 81 52 40 10 a2 29 bf 6a ef 52 40 b3 b2 6c bf
       3.2891245 -0.6626291 3.2958627 -0.92460173
000030 56 bc 2e be 8c 16 e1 3f 9d ba 90 3f a3 7d 8a 3e
       -0.17064032 1.7585006 1.130695 0.27048978
000040 65 cf aa 3e 80 30 9a 40 06 21 d8 3f 9b 0c 90 3f
       0.33361354 4.8184204 1.6885078 1.1253847
000050 09 46 cb 3d 2d 35 c9 3f cd 7c 04 40 af d3 f0 bf
       0.099254675 1.5719353 2.0701172 -1.8814601
000060 4f cb 8e 40 af 8e 1a 40 a2 33 35 40 8b 62 ac 3e
       4.462318 2.4149587 2.8312764 0.33668932
000070 41 57 88 3e 4d 80 08 3f 31 fd 7d 3f 5b be e0 bf
       0.2662907 0.5332077 0.99214464 -1.7558092

nns.0.4.running_var f4 [32]
000000 c8 48 19 40 ed 7b 18 40 55 9b da 40 91 dd 03 41
       2.3950672 2.3825638 6.8314614 8.241593
000010 e5 61 95 3f 2d fb ad 40 18 a4 3e 41 74 06 da 3f
       1.16705 5.436911 11.915062 1.7033219
000020 9e 1e cc 3f 2b 90 71 40 7e f2 1f 41 f4 98 b9 41
       1.5946844 3.7744243 9.996702 23.199684
000030 75 ed d3 3f be b6 86 40 80 3f 42 40 49 46 ab 3e
       1.6556841 4.2098074 3.0351257 0.3345206
000040 e8 8e 4e 41 bf c7 d4 40 b1 59 e0 3f fc 03 cb 3f
       12.909889 6.649383 1.7527372 1.5860591
000050 12 17 aa 3f 9b aa ac 3f 08 bb d1 40 e4 f5 3c 41
       1.328829 1.3489565 6.554081 11.810032
000060 a0 73 be 40 c3 38 17 40 ad 4b dd 3f f3 3e fe 3f
       5.9516144 2.3628395 1.728872 1.986296
000070 cc 2e 6b 3f fd 95 54 3f 42 ea aa 40 5b 33 95 41
       0.9186828 0.83041364 5.341096 18.650076

nns.1.0.weight f4 [32, 32]
000000 18 22 f5 3d 3c e3 82 3e 2a 4d 1e 3c f6 1d da 3e
       0.119693935 0.2556399 0.009661952 0.42600983
000010 b5 17 e4 3a 8f 5a bd be 52 d3 1d 3f b8 b8 d3 bd
       0.0017402085 -0.36983153 0.61650574 -0.10337967
000020 83 22 0a be 2d 52 52 bd 90 af ae 3d e1 d6 1b 3f
       -0.13489728 -0.0513479 0.0852958 0.60874754
000030 e5 f8 f6 be 7e 91 ef bd 36 43 df bd 0a 65 d0 3d
       -0.48236766 -0.11697672 -0.10901491 0.10175522
000040 1c 55 f4 3d 02 7c 37 3f 55 c8 20 3d 45 14 2d be
       0.11930296 0.71673596 0.03925355 -0.16902263
000050 ef 2a 94 be 8c 4f 34 3e 85 0a 5c 3f bb 24 b6 3e
       -0.28939006 0.1760847 0.8595355 0.35574898
000060 2c b6 86 3e 98 5f 83 bd 0f 08 3a be da 03 f3 3e
       0.2631086 -0.064147174 -0.18167137 0.47463876
000070 5b 00 68 bd 57 5a e9 3e 5c 68 08 be 67 96 93 c0
       -0.056640964 0.45576736 -0.1332106 -4.6121097
000080 4c 39 2d 3e a8 97 45 be 48 29 74 3f 99 10 e2 3f
       0.16916388 -0.19296134 0.9537549 1.7661315
000090 94 0e b2 3e 6e b9 91 3f 62 0d 3f bb 03 d4 a2 3d
       0.34776747 1.1384714 -0.0029152264 0.07950594
0000a0 29 88 92 bf ea 81 b5 3d de d8 d7 3f 3d f0 0f 3e
       -1.1447803 0.0886267 1.6863058 0.14056487
0000b0 36 be 61 be 15 0d 03 3f 75 75 5a 3f a1 6c ae 3d
       -0.22045216 0.51191837 0.85335475 0.08516813
0000c0 9c 4a 87 3d a7 ae d8 3f e3 18 b7 be 4f 13 bf bd
       0.066060275 1.69283 -0.35761175 -0.09329855
0000d0 04 cf 9d 3e 43 dd 44 3d e2 9a a2 3f 58 df df 3e
       0.30822003 0.048062574 1.2703516 0.43725085
0000e0 b8 1a dd 3f de a8 e4 be 65 85 13 3f eb 85 8a be
       1.7273779 -0.44660085 0.5762542 -0.27055296
0000f0 77 70 5f be c7 3a 4f bf 73 f1 87 bd 4a b0 5d bf
       -0.21820246 -0.8094906 -0.0663785 -0.8659712
000100 4c 51 79 be ec 28 8c 3e 1d ad 0a 3f f5 e8 3e c0
       -0.24347419 0.2737497 0.541704 -2.9829686
000110 2e ea fd be af 93 7d 3e c6 35 ba be 5b 11 b1 bd
       -0.49592727 0.24763368 -0.3636915 -0.086458884
000120 51 c4 36 3e de f3 2a 3d f2 0d 43 3f 8b 1e 35 3f
       0.17848326 0.041736476 0.76193154 0.7074973
000130 6f d2 13 3c c5 ee 0b 3f a6 aa f8 3e 60 95 2e 3e
       0.009022339 0.5466121 0.48567694 0.1704917
000140 2b 6e 05 3f 46 1e 0b c0 c1 91 bc be 8a be e8 bd
       0.5212123 -2.1737227 -0.3682995 -0.113644674
000150 7a e5 05 3e bd 35 ed 3e dc 98 c0 bf 04 23 9d bd
       0.1307582 0.46330062 -1.5046649 -0.07672694
000160 cb 76 d1 bf 55 fd ee bd 17 46 da 3d da 61 23 bc
       -1.6364378 -0.11669413 0.106579 -0.00997206
000170 f5 0a 08 3e 06 87 8c 3e 18 fe 38 3d 93 d2 6c 3e
       0.1328543 0.27446765 0.045164198 0.23127203
000180 41 f0 bf be 29 3f 20 bd e8 d8 0f bf 18 b2 46 be
       -0.37487987 -0.039122734 -0.5619035 -0.19403875
000190 a1 86 02 bf 33 eb 46 be 81 48 c5 bd dd b9 2f be
       -0.5098668 -0.19425659 -0.0963297 -0.17160745
0001a0 0d 8e d7 bd 3e 82 e9 bd f8 5e 40 be 74 9b b6 be
       -0.10525141 -0.11401795 -0.18786228 -0.35665476
0001b0 78 58 a1 be bd af 57 3c b4 07 40 be c3 2c 7d 3d
       -0.3151281 0.013164458 -0.18752939 0.061810266
0001c0 e6 ca f2 be 26 43 80 3d b0 ed 34 be b6 b2 27 be
       -0.47420424 0.062628075 -0.17668796 -0.16376767
0001d0 74 30 dd 3c ef 7f 08 be a7 7b 76 bd 88 76 bf bd
       0.027000643 -0.13330053 -0.060176518 -0.0934878
0001e0 50 58 95 be f5 a7 ef bd 8b 71 f8 bd 82 23 31 be
       -0.2916894 -0.11701957 -0.121310316 -0.17298701
0001f0 b6 78 4c be 07 bf 38 b9 f5 52 5c be a2 12 f5 b9
       -0.19967923 -0.0001761877 -0.2151602 -0.00046743924
000200 43 16 97 3d 18 3b 23 bb 89 25 ad 3e 6d 9b 21 40
       0.07377293 -0.0024907049 0.338177 2.5251114
000210 e6 72 a6 3d d5 77 01 be 0e 1d 1b bf 5a b5 00 3c
       0.08127384 -0.12643369 -0.6059121 0.007855738
000220 73 ed 89 3d 19 90 74 bd 1b 54 1a 3b cd 54 9e bd
       0.06734743 -0.059707735 0.0023548666 -0.07731018
000230 a7 2e 4e 3d 29 4c aa be 66 2a a9 bd 21 7d bc bd
       0.05033746 -0.3326123 -0.0826004 -0.09203554
000240 e0 67 dd bd c3 b0 c6 3f d4 10 86 be cb 52 c3 3d
       -0.10810828 1.5522693 -0.26184714 0.09537276
000250 57 44 2e bc ee be 8c 3e 12 2c 3a 3f 14 38 b0 be
       -0.010636411 0.27489418 0.72723496 -0.34417784
000260 54 b8 e8 3f 62 88 cd be 5c 49 27 bd fe 2a 09 bd
       1.8181252 -0.40143114 -0.040841445 -0.033488266
000270 26 6b 84 be 26 3c 96 3f 7b 38 ac be 82 ed 28 3f
       -0.25862998 1.1737106 -0.3363684 0.6598741
000280 28 f8 b8 be b0 5c a6 3e 6f d0 8d be 05 3b d9 be
       -0.36126828 0.3249259 -0.27698085 -0.4242784
000290 91 2f 0a 3e 91 55 be be 47 70 a5 be 15 c2 10 be
       0.13494708 -0.37174657 -0.32312223 -0.14136536
0002a0 97 5c e2 bc cd e3 d5 3d 3e 7d b1 be 8d f2 08 bf
       -0.02763204 0.1044384 -0.34665865 -0.53495103
0002b0 1e 68 21 bd 13 f2 c7 be 45 2e 20 be ba 4f fd bc
       -0.039405935 -0.39051875 -0.1564265 -0.030921806
0002c0 d3 7c 07 bf db c7 d0 be 9e c8 bd be 32 d8 48 be
       -0.5292484 -0.40777478 -0.3706712 -0.19613722
0002d0 05 67 a2 bc 3a 8e 9a 3e 3f 83 fd be 23 1f 97 bc
       -0.019824514 0.30186635 -0.49514195 -0.018447464
0002e0 9d 4b 44 be 38 84 c6 bd 52 1c 17 bd 11 a2 c5 bd
       -0.19169469 -0.096931875 -0.036892243 -0.09650052
0002f0 8e 4f 6d be 46 6e 45 be 90 3b bd bd 6a 24 84 be
       -0.23174879 -0.19280347 -0.09239876 -0.25809032
000300 27 21 14 bd 10 6c 51 3e 05 98 8b 3e e6 06 6e 40
       -0.03616443 0.20451379 0.2726442 3.719171
000310 c8 83 9a 3d b8 7d 2d bf 8f 10 06 bf 46 4d a5 3d
       0.075446665 -0.67769957 -0.52369016 0.08071379
000320 cd eb 06 3e 59 15 c7 bd a8 4b 9e 3d 10 ee 10 bf
       0.13175888 -0.097208686 0.07729274 -0.56613255
000330 80 5d 2f 3e 34 30 84 be 24 10 94 bd 16 f5 d4 be
       0.17125511 -0.25818026 -0.07229641 -0.41593236
000340 2d 95 17 bf a3 88 24 40 28 de 15 be b3 08 2b be
       -0.59212 2.5708396 -0.14635527 -0.16702537
000350 2e cf ac be 2b a6 14 3d be 1e 48 3f 07 20 06 3f
       -0.33751816 0.036291283 0.7817191 0.5239262
000360 24 11 38 40 14 29 35 bf 6c 59 80 be 73 b6 a0 be
       2.8760462 -0.70765805 -0.25068223 -0.31389198
000370 2a 3f b7 be d8 a6 5d be 7c 4c 4d be b1 11 b7 bd
       -0.35790378 -0.21645677 -0.20048708 -0.08938921
000380 fe ed f1 3d 7f 80 87 bd aa fb 5e be 67 de 21 be
       0.118129715 -0.066163056 -0.2177569 -0.15807496
000390 35 7d db be ac 7e 38 3e d4 fa 0f bd f4 bc be be
       -0.42868963 0.18017071 -0.035151318 -0.37253535
0003a0 61 0b 12 bd 2c fb d7 bd db 27 8c 3e ea 5b d2 bd
       -0.035655383 -0.10545954 0.27374157 -0.102714375
0003b0 e6 ab a1 be 9c a9 ac bd 52 de ff 3d 94 3d f5 bd
       -0.3157646 -0.08430788 0.12493576 -0.11974636
0003c0 ce de 1e be 5f 67 dd bf a3 8d 86 be a8 9f c9 3e
       -0.1551468 -1.7297171 -0.26279935 0.3937962
0003d0 68 ce 9a bc a3 7e 0b 3e c7 55 45 3e e8 9f 7f be
       -0.01889725 0.13622527 0.19271003 -0.24963343
0003e0 82 ca d3 bf 26 2d e9 bc 90 8c 86 3d 4e 86 d3 3d
       -1.6546175 -0.028463911 0.06569779 0.10328351
0003f0 f3 c2 31 3e 52 ec a7 3e 0b 5c c4 bd f4 27 d4 bf
       0.17359523 0.32797486 -0.09587868 -1.6574693

nns.1.0.bias f4 [32]
000000 3b e9 f3 3d 23 e6 29 be 9a 87 db bd e9 39 25 be
       0.119097196 -0.16591696 -0.10719223 -0.16135372
000010 1e 0b ec bb c8 c6 87 3d 27 97 a1 bc 1b 0d 71 3c
       -0.0072034737 0.066297114 -0.019725395 0.014712597
000020 b3 00 28 be 4f cd 0c 3e 40 ac 1e be fb 8f f9 3d
       -0.16406517 0.13750194 -0.15495396 0.12185665
000030 3a c0 e6 3d 7e 2a 66 bd 14 c6 17 3c 3b 81 51 bd
       0.11267133 -0.056192867 0.009263534 -0.051148634
000040 f9 08 b8 bd 6d 05 da 3d d6 69 3c bd 90 22 a2 3d
       -0.089860864 0.10645566 -0.04599937 0.079167485
000050 85 d4 9b 3c 4c 76 a7 3d 18 31 b0 3d 19 7f 97 3d
       0.019022236 0.0817686 0.08603114 0.07397289
000060 61 32 42 be 2c 0a 5e bd 57 c2 22 be 99 1e 61 bd
       -0.1896453 -0.05420892 -0.15894447 -0.05496082
000070 c1 bc f2 bd fa a9 85 bd 9c 06 16 be 51 62 03 3e
       -0.11852408 -0.06526561 -0.14650959 0.12830473

nns.1.1.weight f4 [32]
000000 53 25 b8 3f 0c 27 f7 3f ed 61 ac 3f 1f fd 23 3f
       1.438639 1.9308791 1.3467385 0.6405811
000010 f8 5c 43 3f e8 fb da 3e ef 48 eb 3f e5 a7 c3 3f
       0.76313734 0.42770314 1.8381633 1.5285612
000020 3d 77 b9 3e 62 8e bf 3e c0 ab d1 3f 88 80 1d 3f
       0.36223784 0.37413317 1.6380539 0.6152425
000030 46 5e f9 3f 3c cc 8b 3f e8 e0 aa 3e bb ef 64 3f
       1.9481895 1.0921702 0.33374715 0.894283
000040 94 0f 5a 3f f4 91 6c 3f 54 58 33 3f 8b 3c 35 3f
       0.8518002 0.92410207 0.70056653 0.70795506
000050 f4 0f 47 3f ff 4f 65 3f 4d a6 2b 3f 9a 2a 38 3f
       0.7775872 0.8957519 0.6705063 0.71940005
000060 99 e0 a2 3f f5 b3 83 3f 5f 43 5f 3f 22 87 01 40
       1.2724792 1.0289294 0.87212175 2.0238729
000070 22 78 d8 3e 77 8b b2 3f ae 76 14 3f 3b 39 bc 3f
       0.42279154 1.3948811 0.5799359 1.4704965

nns.1.1.bias f4 [32]
000000 4e 9b 81 3f 56 ff 6d 3f 4c 11 09 3f 78 16 90 be
       1.012552 0.92967737 0.5354202 -0.28142142
000010 9d 8c 44 bf 9b 71 a1 be 1a 02 5f 3f a1 81 2b 3e
       -0.7677706 -0.31531987 0.8711258 0.16748668
000020 16 ef 24 bf 1e d6 f1 3d 56 65 0c bf 5e 26 52 bf
       -0.64427316 0.11808418 -0.54842126 -0.82089794
000030 b2 7e 2e 3f 1a 8b 00 3e 64 18 1e bf 1e 7c d8 3f
       0.6816207 0.12553063 -0.6175597 1.6912878
000040 c4 39 95 bf a3 f5 a4 bf dd cc 92 bf e3 23 4c bd
       -1.1658254 -1.2887462 -1.1468769 -0.04983891
000050 5f bb c5 be 21 47 0b bf 08 b8 ba be 91 24 5e bf
       -0.38619515 -0.5440541 -0.3646853 -0.86774546
000060 83 f0 79 3f bc 90 7a 3f 19 47 0b 40 55 b9 fb 3e
       0.97632617 0.978771 2.1762145 0.49164835
000070 a7 89 aa bf 6d 69 09 c0 49 e2 b3 bf 47 09 60 bf
       -1.3323258 -2.1470597 -1.4053432 -0.87514156
