result/experiment_07.11.2022_19.19.59/40/fold_3_state_dict.pt (torch, 26754 bytes, 40 tensors)

first_h.0.weight f4 [32, 3]
00000000: f8fd 3a3e d749 4340 0332 4940 0202 533e
00000010: ef1f 8f3f 0ba0 623f c8ea 883e 4882 683f
00000020: 7c50 4f3f a99a 0f3f c5b7 f0bd 058f 013f
00000030: 5136 5e3e 6a20 713f 54c6 593f b09f 863e
00000040: eb11 d1bf 2968 eabf 6cf4 09bf 38ea 163e
00000050: c21f 143e dfa7 7b3e 3064 a0bf 33f6 12c0
00000060: fe3f 83be fd71 3bc0 b25c 5bc0 04c1 583e
00000070: 5e01 123f b42a 3e3f cece 32be 010b 8abf
00000080: ca1a 92bf 7f69 253e e59f a43f 9b16 b3be
00000090: 6cbb 983e b8d3 933f fbf4 493f 9e32 3e3e
000000a0: 73d6 0b3f 8f2f 753f 44ac 693e 4320 f43f
000000b0: 7f7f ae3f e783 90be b11d cabf 594d 55c0
000000c0: 6872 013f 385b ec3c 682b d23e 9790 86be
000000d0: bd51 a4bf 0353 1ec0 e1a1 89be fa0c 85bf
000000e0: 3ece 0ac0 3a46 b0be 150e dfbd 6508 92bf
000000f0: 11be 9d3e f09e c9bf 2468 14c0 c824 1f3e
00000100: e710 9d3f 404a 273f 87f2 8e3e eeee 8f3f
00000110: 0e09 993e c1ea 983e bb35 1b40 e12e 993e
00000120: 859c 98be ff6b 38bf 9468 32c0 bec8 973e
00000130: c27f 8040 b098 6140 e07c 87be 9f14 2ebf
00000140: f3f5 28c0 c55f 6c3e 1baf 883f aa27 13bd
00000150: c182 173f 320f 393f e79c e43e 1bd4 8a3e
00000160: 844b 033f a342 3d3f 28c4 4e3e e91a 633f
00000170: 52fc 8c3e 18fa ae3d 07e0 2b3f 365b 723f
0.18260944 3.0513818 3.1436775 0.20606235 1.118162 0.88525456 0.26741624 0.90823793
0.80982184 0.5609537 -0.11753801 0.50608855 0.21700408 0.94190085 0.8506825 0.26293707
-1.6333593 -1.8313037 -0.53888583 0.14737785 0.1446524 0.24575756 -1.2530575 -2.2962768
-0.2563476 -2.9288323 -3.4275327 0.2116738 0.57033336 0.7428391 -0.17461702 -1.0784608
-1.1414425 0.16153525 1.2861296 -0.34978184 0.29830492 1.1548986 0.78889436 0.18573996
0.546241 0.95775694 0.2281962 1.9072345 1.3632659 -0.28225634 -1.5790311 -3.332846
0.50565195 0.02885209 0.4104874 -0.26282188 -1.2837445 -2.4738166 -0.26881316 -1.0394585
-2.168838 -0.3442858 -0.10891358 -1.1408812 0.30809072 -1.5751629 -2.3188562 0.15541375
1.2270783 0.6534767 0.2791941 1.124479 0.2988972 0.29866603 2.4251544 0.29918578
-0.29806915 -0.7203979 -2.787633 0.29645342 4.0155954 3.5249443 -0.2646246 -0.68000215
-2.6400115 0.23083408 1.0678438 -0.0359265 0.5918389 0.7228881 0.44650957 0.2711495
0.512871 0.73929805 0.20192015 0.88712937 0.27536255 0.08543795 0.67138714 0.94670427

first_h.0.bias f4 [32]
00000000: f20e f33e 82c8 a0be c07f c03e 564a c03e
00000010: 474c 6d3e a82b 0c3f 582c 3c3d 901c 8ebd
00000020: 932d a7be 7c9c 03be 7916 523e 09b5 d0be
00000030: 303c f43d 72b5 1fbe cde7 ecbe ec98 90bd
00000040: df71 63be 29ef 033f cab3 8dbe 205b 103f
00000050: 4419 aa3e 41c3 103f f998 13bb 86d3 9abc
00000060: 7d4c fbbe 63f7 643e e04e bf3e 8689 5abd
00000070: 1b9d 96bc 6b98 26bd 9dc6 993e d51a abbe
0.4747234 -0.31402975 0.37597466 0.37556714 0.23173629 0.54754114 0.045940727 -0.069390416
-0.32651958 -0.12852663 0.20516385 -0.4076312 0.11925542 -0.1559656 -0.462706 -0.070604175
-0.22211407 0.51536804 -0.2767623 0.56389046 0.332224 0.56547934 -0.0022521599 -0.01889969
-0.49081793 0.22359996 0.37364864 -0.05335381 -0.01838546 -0.0406727 0.30034342 -0.3341891

first_h.1.weight f4 [32]
00000000: 35f7 2540 6680 693f 5ee6 953f aa52 f13e
00000010: 15ac 853f 6768 753f 1436 113f 5c96 883f
00000020: 8ecf 653f d2e1 3e3f cd5e e63e 1c18 873f
00000030: 25df b93f 36db 8c3f 0fd7 0540 c2e6 6e3f
00000040: 0982 203f 386d 1f3f c97f 673f 9a2a 723f
00000050: db30 523f 7dd5 a03f d357 a73f ed5b 903f
00000060: 968e 943f 40da 8440 43ea b33f 3770 b53f
00000070: 9d0b e13e 6290 a83f 7fd8 3d3f 5f9f 303f
2.5932133 0.91211545 1.1710927 0.4713338 1.044314 0.9586243 0.5672314 1.0670886
0.8976983 0.74563324 0.44994202 1.0554233 1.4521223 1.1004398 2.0912511 0.9332086
0.6269842 0.6227603 0.9042936 0.94596255 0.821058 1.2565151 1.3073677 1.1278054
1.1606014 4.151642 1.4055866 1.417487 0.43954173 1.3169062 0.7415847 0.6899318

first_h.1.bias f4 [32]
00000000: 2039 8bbe c6ce bcbe 6534 c9be 0ab2 86be
00000010: 2d6c 8dbe 9935 113f e4c7 a4be c064 323f
00000020: 1e66 84bd f5c9 8dbe 2396 343e 5522 d63d
00000030: 2513 153e 77d7 e1be dba2 e83d 45a4 da3e
00000040: c873 d3be d138 aebe 29df d83e f87c db3e
00000050: 65fc b9bd 795e aebe 091a adbe a341 c83d
00000060: 03ee 023f 311a 04bf 6acf b13e f6da 1b3e
00000070: 1d17 5abf c1b9 073e 5171 97be b5c7 88be
-0.2719202 -0.36876506 -0.39297786 -0.26307708 -0.27621594 0.5672241 -0.32183754 0.6968498
-0.0646479 -0.27693143 0.17635398 0.10455767 0.14558084 -0.441097 0.11359187 0.42703453
-0.41299272 -0.34027722 0.42357758 0.4286878 -0.090813436 -0.34056452 -0.33808926 0.09778144
0.5114443 -0.51602465 0.34728557 0.15220246 -0.8519152 0.13254453 -0.2957864 -0.26714864

first_h.1.running_mean f4 [32]
00000000: 47d2 7248 c7fe 8848 c4c3 b148 e28a 3a49
00000010: 6841 9048 57b6 ae48 441a 33c9 700f a348
00000020: 450f aac8 9cb5 8c48 6937 64c8 64b0 5648
00000030: e93f c648 650b 7748 55a5 9748 8026 bbc8
00000040: caf0 2749 55b8 aec8 a37c b2c8 4ff2 e3c8
00000050: 9dc7 cc48 ecd5 4e48 d899 b948 6889 c648
00000060: 8a04 c6c8 7018 c548 224f afc8 1170 9948
00000070: 8681 4449 2f20 b448 8940 8648 1f80 e347
248649.11 280566.22 364062.12 764078.1 295435.25 357810.72 -733604.25 333947.5
-348282.16 288172.88 -233693.64 219841.56 406015.28 252973.58 310570.66 -383284.0
687884.6 -357826.66 -365541.1 -466834.47 419388.9 211799.69 380110.75 406603.25
-405540.3 403651.5 -359033.06 314240.53 804888.4 368897.47 274948.28 116480.24

first_h.1.running_var f4 [32]
00000000: 2299 c453 1167 fa53 b1d0 5254 ba30 6855
00000010: e8d2 0a54 eeb0 4b54 cc05 5655 3a6a 3154
00000020: c3dc 4054 4716 0454 2483 ad53 b5bf 9953
00000030: c718 8354 b694 cb53 2365 1954 7c98 6954
00000040: da26 3c55 40a2 4b54 5081 5454 5c51 ad54
00000050: 2deb 8b54 03b4 8e53 f0d0 6554 9d79 8354
00000060: 0fc8 8254 058b 8154 9ffb 4c54 3711 1d54
00000070: 2ecb 8055 f670 5854 f57d f053 b8a0 ac52
1.6887655e+12 2.150942e+12 3.6217776e+12 1.5955999e+13 2.3849756e+12 3.499387e+12 1.4707524e+13 3.0479656e+12
3.31335e+12 2.2692377e+12 1.490459e+12 1.3206926e+12 4.5044513e+12 1.7487466e+12 2.6353072e+12 4.0131426e+12
1.2929691e+13 3.4984019e+12 3.6508103e+12 5.9551546e+12 4.8075684e+12 1.2258109e+12 3.9482116e+12 4.5174484e+12
4.4936174e+12 4.451065e+12 3.5215793e+12 2.6983947e+12 1.7701267e+13 3.7184324e+12 2.0658107e+12 3.707154e+11

first_h.3.weight f4 [32, 32]
00000000: 6724 763d 9042 013e c5ff e93d e3a9 423e
00000010: 6faa 9abd 589b d23d 716c a23d 3f5f c439
00000020: 4325 063d b621 433d 60bc bdbd c9d0 97bc
00000030: 0b2b 583d 8c86 583e 826a 823e 2a5e ad3d
00000040: 379e d7bd b9d6 ac3b 7c8e 123e 7a38 db3d
00000050: 3860 b63d 3cf8 443c 9446 0d3e 0b33 5a3e
00000060: 1408 6cbd 2c8e 693c 215a 2bbd 860f bd3c
00000070: 47b2 273e 906f 313e adb2 a03d 9a83 e63c
00000080: 1983 b9be 37d5 e53d c35e 15be ba82 40be
00000090: 24bb 9cbc 6f49 ebbd b01a a5be 596c a3be
000000a0: 18ad 93be 2dcc bf3d 8405 d6be 8db2 eebe
000000b0: eabd 63bf 4b4a 4a3d 1df7 f2be ddf9 11be
000000c0: e94e 763d a048 1abe 1e9d 75be 6a44 99be
000000d0: fd4a b8bc eba5 413e 9576 92bd eb0f 15bf
000000e0: 68d5 ecbe 5f2d 35bf 1a16 84be e845 04bf
000000f0: abac 62bd 4823 e6be 5563 05be 635e 87be
00000100: eca1 fcbf cca4 173f bf1c 08bf 01f9 b13e
00000110: bd2c 0e3f 2086 9d3e eee3 973c f8fb 5e3e
00000120: a1ed ac3e 5b2e 013f c59a c83e bcf1 813d
00000130: 128f 1ebf a1cf 3c3f 8c48 8ebf dfac 1c3e
00000140: 6a0c 923e bf6a 283e ea53 1b3e b559 bf3e
00000150: 7381 c83d bc0f 2e3f c02b 3d3f d633 4dbf
00000160: 742c 9e3e d672 74c0 fbf0 ac3e 3cde 66bf
00000170: d676 8f3e 8f0f 39bf b71e be3e 6e11 6c3e
00000180: 631b a7bf 7f93 163d f9e8 6ebd acce f23d
00000190: 1e02 1f3d e937 893e ba10 a6bd 3994 553e
000001a0: f11f 393d 6caa 9f3d b354 353d 9f1a 38be
000001b0: a04a adbd 04f9 5c3e c38d 58bf 0f24 f6bb
000001c0: 7c08 8f3e 8417 b33c 6006 ddbc dd75 123d
000001d0: 2b33 aaba 9e7b 8b3b ae09 e93d 5f4d 33be
000001e0: 48ac e3bd 33ec 4cc0 055b 7bbd d49a f9be
000001f0: c0da 383e 9b8d e6be 7c7c 4b3e dcdf 54bd
00000200: 8870 e73d 3da0 41bf 78da 14bf 25df 18bf
00000210: 72db 37bf 2aed fc3e c0b2 953d 58c5 4d3f
00000220: 80d2 2e3d 9481 4cbf 8fa2 47be a048 12bf
00000230: e79c 063f 9275 0fbf b758 cfbe e0a0 913d
00000240: abe0 66bf 513a ec3e 458e a5be 764e febe
00000250: 3f36 bc3e dce1 3fbf ce68 06bf 81d3 c43e
00000260: 5023 503d 288a 9f3e 9031 e43d e19c f2be
00000270: c7b6 3cbf 60e0 e0be 542f 29bf 5100 17bf
00000280: 5f0d 60be e4d2 3d3e f0bf c2bd 1c52 1b3d
00000290: 18d5 a13e d921 fd3f 868d a83d 4fd7 e93f
000002a0: f7fd 14be 4d49 883e 8f88 0e3f 4098 843f
000002b0: 24f3 243f e5ba 563e b118 663e 8b51 edbe
000002c0: fc67 333c 2699 fd3e a684 e9be 2b2f b63e
000002d0: cfa7 403f bd9f 583e 7c26 ba3e d31b 0b3f
000002e0: 3c53 653f 377b 80bf 2ad4 bfbe 5380 733f
000002f0: 0bcb 81be 055c 673f 6cdc b73e b927 003e
00000300: b86d 2fbe febc 6c3e 3b1f 333e 6371 923d
00000310: 665a 243e daa4 60bf 88e7 2dbe 26b4 b8bf
00000320: 391e babe 0fe0 5c3e 8a0c bfbb 7a48 67bf
00000330: 97ed 62bf f837 253e 4434 c2be e69d 18bf
00000340: 3c50 963e 4391 adbd 2937 99bd 073b 20bf
00000350: 9f78 a6be 0a59 9c3e 4334 a23e 85c0 50bf
00000360: 6484 d3bf 9664 fa3e a415 97bf 12f1 93bf
00000370: c4e5 9d3e 883c 5cbf 57ba a03e f4ea 053e
00000380: 9eab 3cbf bba2 c3bc e76b 83be 374a c1bc
00000390: e0ce 9cbc d60d 23be 851a e5bb 7fc0 14be
000003a0: 3a0f 92be df51 bfbd 71bb 53bd bb7d 6cbe
000003b0: 7ad2 16be 6b70 9fbd 6e96 e4be 9322 e6bc
000003c0: df4b 0ebe b559 24bd 3cee d1bc df98 b9bd
000003d0: 2112 93be c7aa 13be a915 1fbe 652e 08be
000003e0: 520b 35be f264 47bf f542 3bbe c64a 9fbe
000003f0: 3a7b 69bd 80e8 03bf bf2f 68bd 2645 13be
0.06009331 0.12623048 0.11425737 0.19010119 -0.07552039 0.10283536 0.0793084 0.00037454997
0.03275038 0.04763957 -0.09264445 -0.018532174 0.052775424 0.21145076 0.25471884 0.08465226
-0.10528224 0.0052746204 0.14312166 0.107041314 0.08905071 0.012022074 0.13796455 0.21308534
-0.05762489 0.014255088 -0.041834 0.023078691 0.16376601 0.17327714 0.0784658 0.028138924
-0.36232832 0.11222308 -0.1458693 -0.18799868 -0.019132204 -0.11488616 -0.32246923 -0.319186
-0.28842998 0.09365115 -0.41801083 -0.46620598 -0.8896166 0.049387258 -0.47454157 -0.14255472
0.06013385 -0.15066767 -0.23985717 -0.29935008 -0.022496695 0.18910949 -0.07151524 -0.58227414
-0.46256566 -0.70772356 -0.25798112 -0.5166917 -0.05534045 -0.44948792 -0.13026173 -0.264392
-1.9736915 0.59235835 -0.53168863 0.34760287 0.55537015 0.30766392 0.018541303 0.21775806
0.33775046 0.5046136 0.3918058 0.06344935 -0.6193706 0.73754317 -1.111589 0.1530032
0.28525096 0.1644697 0.1516873 0.3737313 0.097903155 0.6799276 0.7389488 -0.8015722
0.3089329 -3.819509 0.33777604 -0.9018285 0.28020352 -0.72289366 0.3713281 0.23053524
-1.3055233 0.036761757 -0.05832765 0.11855826 0.03882038 0.2680047 -0.08108659 0.20857324
0.045196477 0.07796177 0.04427023 -0.17978905 -0.08461499 0.21579367 -0.8459131 -0.0075116227
0.2793616 0.021861799 -0.026980579 0.035756934 -0.001298522 0.0042566797 0.113787994 -0.17509983
-0.111168444 -3.2019165 -0.0613661 -0.48750937 0.18052197 -0.4502991 0.19871706 -0.0519713
0.113007605 -0.7563513 -0.58145857 -0.5971549 -0.7181922 0.49399692 0.073094845 0.8037925
0.042681217 -0.7988522 -0.19495605 -0.57142067 0.52583164 -0.56038773 -0.40497372 0.071107626
-0.90186566 0.46138242 -0.32335106 -0.49669236 0.36760136 -0.7495401 -0.5250367 0.38442615
0.050814927 0.31160092 0.11142266 -0.47385314 -0.73716396 -0.43921185 -0.6608784 -0.5898486
-0.218801 0.1853748 -0.095092654 0.037920102 0.3160789 1.9775954 0.082301185 1.8268832
-0.14550005 0.26618424 0.5567712 1.0358963 0.64433503 0.20969732 0.22470357 -0.46351275
0.010950085 0.49530905 -0.45609015 0.3558286 0.75256056 0.21154685 0.36357486 0.5433933
0.8958013 -1.0037602 -0.37466556 0.9511768 -0.25350222 0.90374786 0.35910356 0.12515153
-0.17131698 0.2311897 0.17492382 0.07150533 0.1605011 -0.87751544 -0.16982853 -1.4429977
-0.36351183 0.21569847 -0.005830352 -0.90344965 -0.88643783 0.16134632 -0.379305 -0.59615934
0.2935809 -0.08474972 -0.07481224 -0.6259007 -0.32513902 0.3053668 0.31680498 -0.8154376
-1.6524777 0.48904866 -1.1803479 -1.1557944 0.3083936 -0.86029863 0.31392166 0.13077909
-0.7369937 -0.023881307 -0.2566826 -0.023594959 -0.019141614 -0.15923247 -0.0069916868 -0.14526556
-0.28527242 -0.093417875 -0.05169243 -0.23094837 -0.14728728 -0.07785114 -0.4464602 -0.028092658
-0.1389613 -0.040124614 -0.025626294 -0.09062361 -0.2872477 -0.14420615 -0.15535606 -0.13298948
-0.176801 -0.77888405 -0.18287261 -0.31111735 -0.057002284 -0.5152664 -0.05668616 -0.14381847

first_h.3.bias f4 [32]
00000000: 37b8 57bd 933c fdbc 31f5 d03e 8fdf 1b3e
00000010: 63a7 903e 21b6 55be f39e f33d fde1 6bbd
00000020: c7b6 1abf b0c0 21bf ad1f fdbd da6a 47be
00000030: 9a32 343c b383 abbd 2a4e 1b3e de6e 503e
00000040: 0d1c a73e b981 a4bd 86cb 9cbf c654 62be
00000050: 6629 07be 0bec 1d3e e94a debd 3ff4 813e
00000060: 2b51 aebd 8127 4a3c 6ab7 243d 9e8e 40be
00000070: 607f 563e efa1 aebe 2065 4e3f 2621 2bbd
-0.052665915 -0.030912673 0.40812066 0.15222 0.28252706 -0.20870258 0.118955515 -0.057588566
-0.60435146 -0.6318464 -0.12359557 -0.19474354 0.0109983925 -0.08374729 0.15166536 0.20354792
0.3263859 -0.08032555 -1.224961 -0.22102651 -0.13199386 0.15422074 -0.10854132 0.25381657
-0.08511575 0.01233852 0.04021398 -0.18804404 0.20947027 -0.3410792 0.80623055 -0.04177966

first_h.4.weight f4 [32]
00000000: 4aad 5f3d d643 873f 1fe7 3b3f 280f b53f
00000010: 27e8 213e 95dc 093f 128a c33f 7b68 6f3f
00000020: 0786 a33f cab7 ba3f b5b5 113f 3184 393f
00000030: 713f 2c3e dde6 6d3c 240b f23e 3254 9d3f
00000040: 2132 d73f d4f2 b83d 4303 643f 5c59 263e
00000050: 7f8e 853c 490b 293f abdd f03e 25b1 e83e
00000060: 9cec 963e be63 c43e 31b0 323f a6f7 ad3c
00000070: 8ad4 893f ae64 483f d9ae 5e3f 482c 0b3c
0.05460862 1.0567577 0.7339954 1.414525 0.15811215 0.53852206 1.5276511 0.935188
1.2775277 1.4587338 0.5691789 0.72467333 0.16821076 0.014520374 0.47274125 1.2291319
1.6812173 0.09030691 0.89067477 0.16245025 0.016303299 0.66032845 0.4704412 0.4544765
0.29477394 0.38357347 0.69800097 0.021236252 1.0767987 0.78278625 0.86985546 0.008494444

first_h.4.bias f4 [32]
00000000: 5f50 29bf 87d9 03be b148 49be 57b7 8ebe
00000010: c36a 513e eca9 c93d a39e 873e aacb ebbd
00000020: b4d4 d9bd bd23 bd3e 048e 0338 565b aabe
00000030: 78b6 b9bb 459f c4be 26e2 4dbe 2cae 333f
00000040: b5e7 a2be c41e e1be 502e 733d f49f e7bd
00000050: dab3 64be 7389 84be f0f7 6bbe b462 2bbe
00000060: cbfa 03bf 0662 813c 9240 8abe c0ca 97be
00000070: 79c4 09be b96c 53be cd8d dfbc 2c46 c8be
-0.6613826 -0.12875949 -0.19656636 -0.27874252 0.20450883 0.09846863 0.26488218 -0.11513455
-0.10636273 0.3694133 3.1365096e-05 -0.3327281 -0.005667504 -0.38402763 -0.201058 0.7018764
-0.31817403 -0.43968785 0.05937034 -0.113098055 -0.22334233 -0.25886115 -0.230438 -0.16736871
-0.51554555 0.015793812 -0.27002388 -0.29646873 -0.13453855 -0.20646943 -0.027289296 -0.39116037

first_h.4.running_mean f4 [32]
00000000: 04cd fc3e 0c0e 3cc0 f25c 23c0 0a62 47c0
00000010: ac96 7fbe d678 4640 972d 98c0 ea6f 0fc0
00000020: 93e9 75c0 1ac9 d1c0 7f6f 0040 e637 18c0
00000030: cc42 1d3f cf23 5f3f d4dc ccbe 9031 3a40
00000040: 683a 56c0 19c0 a63f 71e3 efbf 1969 0f40
00000050: 555a df3e 66b5 f7bf bbcf 9cbd d6d3 40bf
00000060: 4ed1 b33f 6545 7b3f 08c7 00bf 95cc 0840
00000070: a01d 05c0 25cc 78c0 c10c 67bf fa8e 973e
0.49375165 -2.9383574 -2.552548 -3.1153588 -0.2495982 3.1011252 -4.755565 -2.2412057
-3.8423812 -6.5557985 2.0068052 -2.3784118 0.6143005 0.87164015 -0.40012228 2.909275
-3.3473148 1.3027374 -1.8741285 2.2407897 0.43623605 -1.9352233 -0.07656809 -0.75323236
1.404825 0.9815276 -0.503037 2.1374867 -2.0799332 -3.88746 -0.90253836 0.2960127

first_h.4.running_var f4 [32]
00000000: 4c19 8f40 81cb 9a42 387c e643 67e8 9f43
00000010: 9ff2 a841 e17b 4c42 2d2c c541 cf90 9f42
00000020: db59 2f41 8818 8341 111b 2d42 fd87 eb42
00000030: 5e8d 6941 6987 763f d301 1741 ade8 4c44
00000040: a7fb a443 82fb e141 e551 9a42 398f 8541
00000050: 2b07 863e 9824 cb41 5eb4 cd3f 83bc 0d42
00000060: e9a2 3941 ac18 4b43 e2a0 1241 8633 6e41
00000070: c156 4b42 9fca 7942 e00d ec43 c9f7 9541
4.471838 77.39747 460.97046 319.81564 21.118467 51.120975 24.64657 79.78283
10.959437 16.386978 43.276432 117.7656 14.597013 0.9630037 9.437945 819.63556
329.96603 28.247807 77.15995 16.694933 0.26177344 25.392868 1.6070669 35.434093
11.602273 203.09637 9.164278 14.887579 50.83472 62.447872 472.1084 18.745989

nns.0.0.weight f4 [32, 32]
00000000: 9a14 12bd 6eef 57bf e914 33be 85ec b5be
00000010: f1a1 0cbf 9b45 7fbe 9506 a8bf 025c c3be
00000020: 2296 b0bf b2b0 a9bf c921 5ebc 8e22 b1be
00000030: d3cc 6dbe 0863 f5bc 8c50 eebd e0a2 9d3c
00000040: ee88 92bc 8198 533e 0536 1abf eff5 05be
00000050: f6f8 fd3d 438e febc 5031 d53b f58a 2dbc
00000060: 9dd0 8a3e 3d98 07bf b4db 52be 07b3 233e
00000070: 4422 9abe 6d9a 5fbf 92ce 0dbf 7eb8 523e
00000080: 3342 cebd 8c49 9fbd 9b57 63bd 4541 22be
00000090: a3fb 77be 8f9e 83bc 19ee 63be 63d2 0cbf
000000a0: d19b 3cbe c6da 8dbe 94d3 71be 734f e6be
000000b0: a670 e53c e0d5 8abe bf37 a8be c8da a4be
000000c0: 7677 b6be e7b9 babe 2337 b9bd 48d5 9bbe
000000d0: 080e 72be b510 06be d162 aebd 5ae7 49be
000000e0: 3182 2d3e c4f4 11be e8a3 82bd a5bf 36bd
000000f0: 181a c9bd 5ac3 343d b533 2d3e 8117 a93e
00000100: f84f e43c 6ade d33c 7142 a03d 359b 503e
00000110: 0464 953e 83b5 703e 7e85 25be 67b3 5c3d
00000120: 6412 1b3e 54ac fd3d 82ac 383e 6e6f 763e
00000130: e955 d6bd 4f92 9a3d 1f81 a83a 15b5 c2bc
00000140: fd81 253e d665 cf3d a67d c1bd ada8 683e
00000150: f3f3 893e dc1c 9bbd 1adb da3d 187a a8bb
00000160: c3c7 843e 3051 aabd b6a8 af3e d0a3 7b3e
00000170: edf0 283e 6528 6a3e 8012 f93e e43b 113d
00000180: a0d1 ee3d 99ac aebe cb24 80bc 8b5e 23be
00000190: e9ac 0f3e 9f4a 413e f266 e0be 9c43 3b3e
000001a0: 222f c4be 4ca5 d5be e01c b03e 0cfa 183e
000001b0: 31ad cebe b104 913d b22f 3d3e 921a 78be
000001c0: d308 96bd ca29 f1bb f705 b8be 0e15 343e
000001d0: b4a2 e93e 1676 263e 1ac7 943e bf8d dcbd
000001e0: 621d 2bbd 996a a8be d3aa 8a3e bdb7 733e
000001f0: 1dbd c73d dbb2 05be e31a 1bbf 8086 c93e
00000200: 41f0 113d 07a9 38bf c99d 92be 80c2 aebe
00000210: dca2 1bbf f949 8abe ffb6 a5bf 1eb8 d8be
00000220: b086 8ebf 5e5b a4bf e06a 06be bd95 d1be
00000230: 8e85 4fbe 0cc8 8a3d a8e0 c83d b5d9 b4bd
00000240: 8a37 4ebe 1f1f 863d a918 f0be 526b 28be
00000250: a730 293d c4a7 833c 162f d7bd f5d5 2ebe
00000260: 420b b03e 23da 8bbe ba3b d7bd 75a1 7abd
00000270: a5f6 9ebe e70a 5bbf c81b f1be c945 25be
00000280: d2c8 71be 3733 8fbe f3fe c23e 3fd7 883f
00000290: 3ca1 bebe 1967 89be 0335 b3be 3162 613e
000002a0: aaf5 31be d0e0 aebe a5eb 4fbe 9479 ff3e
000002b0: 4639 1cbe 30e5 5dbe 9dad 1abd 4498 a9bf
000002c0: 12d2 5f3f df4c bdbe a30f d8be 3e93 c4be
000002d0: ecd1 0dbd 2d7d 7cbd c707 c3bd 4638 65be
000002e0: c706 323d 1420 acbe dcf6 cf3d f62f bcbe
000002f0: daaf 393e eb48 5cbe b2ad 3a3f 515c 7ebc
00000300: 143e 4bbd c2d1 47bf aa7c 8ebe 9de3 c0be
00000310: f58e 11bf 5343 91be b2e9 bcbf 2319 aebe
00000320: 9334 89bf 926f c9bf 307f 26bc 7dac 2cbe
00000330: d13d e0be 5941 7bbd b3d7 28be 68aa f9bc
00000340: 8925 35be ff5b 39bd 7ec2 c6be feab 1abe
00000350: 501b 4bbe e151 88bd 9593 6d3d d24d 84bd
00000360: 8c00 f83e 4712 e9be af3b 61bd 3800 3b3d
00000370: 53e4 9ebe bb9d 6fbf f398 c4be a8c3 5dbe
00000380: 4216 4dbb d571 6abe a916 45be bcc1 b1be
00000390: 86a9 42be b4b0 52bd b80c ebbd 2ba6 06bf
000003a0: 6fa4 5bbe 08d8 e33d f032 54be 6472 07bf
000003b0: 29e1 1ebf 97bd 363e 4473 b8bd 9a33 263c
000003c0: b975 8cbe a2c2 d7bc 6a68 00bd 8569 6ebd
000003d0: 8a52 063e 4dd2 7a3d 47b5 88bd 5657 3cbf
000003e0: cc21 9d3c fddc 1cbe 3111 90bd 4887 32be
000003f0: 9914 a1bd 914e 36be d90f 6fbf 95ff d73c
-0.03566418 -0.84349716 -0.17488445 -0.35532013 -0.549346 -0.24928896 -1.3127009 -0.38156134
-1.3795817 -1.3257048 -0.01355786 -0.34596676 -0.23222665 -0.029954448 -0.11636457 0.019242704
-0.017887559 0.20663644 -0.6023868 -0.13082097 0.12401001 -0.031073695 0.0065061226 -0.010592212
0.27112284 -0.5296667 -0.20591623 0.15986262 -0.30104268 -0.8734501 -0.55393326 0.2057819
-0.1007122 -0.077777 -0.05550347 -0.15845211 -0.24217086 -0.016066818 -0.22258796 -0.55008525
-0.18418814 -0.27705973 -0.23615867 -0.4498249 0.028007817 -0.271163 -0.3285503 -0.32198167
-0.35638016 -0.36469957 -0.090437196 -0.30436158 -0.23638165 -0.1309231 -0.085149415 -0.1971716
0.16944195 -0.14253527 -0.06378919 -0.04461636 -0.0981943 0.044131614 0.16914256 0.33025745
0.027870163 0.025862891 0.07825173 0.20371707 0.29177868 0.23506741 -0.16164204 0.05388203
0.15143734 0.123863846 0.18034557 0.24065945 -0.10465605 0.075474374 0.0012855864 -0.023767987
0.16162868 0.101268455 -0.09447794 0.22720595 0.2694393 -0.07573864 0.106863216 -0.005141508
0.25933656 -0.083162665 0.34308404 0.24574208 0.16498156 0.22866972 0.48646927 0.035457507
0.116610765 -0.34116057 -0.015642544 -0.15954034 0.14030804 0.18876122 -0.4382854 0.1828751
-0.3831721 -0.41727674 0.3439703 0.14939135 -0.4036651 0.07080973 0.18475226 -0.24228886
-0.07325902 -0.007359718 -0.3594205 0.17586157 0.45631945 0.16255984 0.29058152 -0.107692234
-0.04177607 -0.32893828 0.27083454 0.2380056 0.09752867 -0.13056509 -0.605879 0.39360428
0.035629515 -0.72132915 -0.28636006 -0.34132767 -0.6079538 -0.27009562 -1.2946471 -0.4232797
-1.1134853 -1.2840383 -0.13126707 -0.40934554 -0.20265791 0.06776437 0.09808475 -0.08830587
-0.20138374 0.06548905 -0.46893814 -0.1644719 0.041306164 0.016071208 -0.10507028 -0.17073806
0.3438359 -0.27314863 -0.10509439 -0.061189134 -0.3104755 -0.8556351 -0.47091508 -0.16139902
-0.23611763 -0.2796876 0.38085136 1.0690688 -0.37232387 -0.2683647 -0.35001382 0.22010113
-0.1737887 -0.34155893 -0.20304735 0.49897444 -0.15256223 -0.2166946 -0.037763227 -1.3249593
0.87429917 -0.3697271 -0.4219943 -0.38393587 -0.034624025 -0.061642814 -0.09522968 -0.22384748
0.043463495 -0.33618224 0.101545066 -0.3675534 0.18133488 -0.21512191 0.7292129 -0.01552494
-0.04961975 -0.7805444 -0.27829486 -0.37673655 -0.5685876 -0.28371677 -1.4758818 -0.34003553
-1.0719169 -1.5737174 -0.01016216 -0.16862674 -0.43797162 -0.061341617 -0.16488533 -0.030476764
-0.176901 -0.04525375 -0.3882026 -0.15104672 -0.19834638 -0.06656242 0.058002073 -0.064601555
0.48437917 -0.45521757 -0.05498856 0.045654505 -0.31033573 -0.9360005 -0.3839794 -0.21656668
-0.0031293784 -0.22894986 -0.19246925 -0.3471812 -0.1900998 -0.05143805 -0.11477035 -0.525973
-0.21449445 0.11125189 -0.20722556 -0.5290892 -0.6206232 0.1784576 -0.0900636 0.010144139
-0.27433565 -0.026337925 -0.031349577 -0.0582061 0.13117424 0.061235715 -0.06675201 -0.73570764
0.019181155 -0.15318675 -0.07034529 -0.17434418 -0.07865257 -0.17803408 -0.93383557 0.026366988

nns.0.0.bias f4 [32]
00000000: 2ff9 0bbf 9cb1 763c 3198 8f3d 57ca 13bd
00000010: 6296 313d d4d7 58bd f537 d13c afdc 383d
00000020: 73d6 3a3c e424 efbc e00e 993d 14d3 11be
00000030: b34c 0cbc ee9c e3bc 4335 263e 9898 083d
00000040: 5b4d cebd a073 003e 0c2a e53d 403b 2c3e
00000050: 5fa4 c33d 5815 46be cda6 6a3e 29b8 3abe
00000060: bbb0 973e 7a2b 473d 86f0 d2bd 7e2f f0be
00000070: d7ac cc3e ed99 28be 3808 4b3d d76a 4ebe
-0.546771 0.015056994 0.0701145 -0.03608164 0.043356307 -0.052940205 0.025539378 0.045132335
0.011403668 -0.029192396 0.0747354 -0.14240676 -0.008563208 -0.02778479 0.16231255 0.03334865
-0.10073348 0.12544107 0.111896604 0.16819477 0.09552836 -0.1934408 0.22915192 -0.18234314
0.29627022 0.048625447 -0.102997825 -0.46911234 0.39975616 -0.16464968 0.049568385 -0.20157944

nns.0.1.weight f4 [32]
00000000: cdf5 d83f 4874 5b3f 0405 f7bb 3fa4 173f
00000010: 7658 e43f 7e6c 633f 2bcb cb3f b952 513f
00000020: 4555 6e3f c9d9 123f 176e d83f 5dd8 573f
00000030: e824 2a3f baf3 513f 7770 11bd 83ad c93f
00000040: a11f 493f 6ebd d83f 4b6a 273f c03a b93e
00000050: b38a 02ba 59c2 4dbd 93b0 b83f 4e56 a03f
00000060: 659b 513f eb63 823f c141 2a3f 0823 bd3f
00000070: 33e5 e03f 7787 c53f 5556 833f 445f b13f
1.6950012 0.85724306 -0.0075384397 0.59234995 1.7839496 0.8883742 1.5921377 0.8176685
0.9309886 0.57363564 1.6908597 0.8431452 0.66462564 0.8201252 -0.035507645 1.5756077
0.78563887 1.6932809 0.65396565 0.36177635 -0.0004979774 -0.050234172 1.4428886 1.2526338
0.8187774 1.0186743 0.6650658 1.4776316 1.7569946 1.5431966 1.0260721 1.3857198

nns.0.1.bias f4 [32]
00000000: 01bf 57be e500 cebe 43e0 f2be be42 e9be
00000010: da55 51be 6fda 2cbf 9a9a 62be 73d0 c9be
00000020: bd31 05bf 9196 29bf 999d 82be 52b2 d7be
00000030: a7d7 a4be 281d acbe 9e50 8c3e dfcc 64be
00000040: 5486 9ebe 112b 71be 0a9e 9abf 0df6 15bf
00000050: 4335 2fbf c3d8 a53e f984 fd3d ebe9 33be
00000060: b354 1ebf 9c3f 1bbf 8a51 5dbf 307a 303f
00000070: 200c 403f 5d54 35be 3f86 2b3f 51a8 53bf
-0.21068956 -0.40235057 -0.47436723 -0.45558733 -0.20442906 -0.67520803 -0.22129288 -0.39416847
-0.5202902 -0.6624537 -0.25510862 -0.42128235 -0.3219578 -0.33615994 0.27405256 -0.22343777
-0.3096186 -0.23551585 -1.207948 -0.5857857 -0.68440646 0.3239194 0.12378878 -0.17569701
-0.6184799 -0.60643935 -0.86452544 0.68936443 0.750185 -0.17707963 0.6700172 -0.82678705

nns.0.1.running_mean f4 [32]
00000000: 489f dec0 a950 01c0 7fae 193f 64b6 1dc0
00000010: aab7 cac0 6a47 90c0 8e63 dec0 d147 5ebf
00000020: b757 28c0 50e2 4bc0 692d c5c0 34e7 f4bf
00000030: bd4b 27c0 8171 40bf e4ab e93f 2d7a 5ac0
00000040: f6e1 eebf 6499 e1c0 4247 403e a6b2 56c0
00000050: d6e9 aabe 4028 7e3e aed0 b040 1ac8 95c0
00000060: fcb9 04c0 6d72 a940 4a34 50c0 41da c9c0
00000070: 30bd b640 0b99 8ec0 4758 c9c0 a955 87c0
-6.9569435 -2.020548 0.60031885 -2.4642572 -6.33492 -4.5087175 -6.9496527 -0.86828333
-2.6303537 -3.185688 -6.161793 -1.9133058 -2.6139977 -0.75173193 1.8255582 -3.413707
-1.8662708 -7.0499744 0.18777183 -3.3546538 -0.33381528 0.24820042 5.5254736 -4.6806765
-2.0738516 5.295218 -3.2531915 -6.3078923 5.710594 -4.456182 -6.292026 -4.2292066

nns.0.1.running_var f4 [32]
00000000: db4f 5f43 441f 1742 14a5 1a40 4804 0c42
00000010: d2ac 5c43 4222 ac43 9a6a 7f43 b009 c440
00000020: e78c 2743 5d47 3c43 bb66 4f43 3fa1 2142
00000030: 9eff 8542 2223 c140 755e 9042 9639 7f42
00000040: 030d 0842 909b 8943 1bfd 6e42 e6f0 4443
00000050: ec8d 9341 2862 c33f 9c62 2943 5adb e342
00000060: 550b 9842 3cdc 3b43 3104 3343 fdbc 4043
00000070: 8d8e 7843 1018 d142 db37 6043 72fa c043
223.31194 37.780533 2.4163256 35.00418 220.67508 344.26764 255.41641 6.1261826
167.5504 188.27876 207.40129 40.407467 66.99925 6.0355387 72.18449 63.806236
34.012707 275.21533 59.747173 196.94101 18.444298 1.526433 169.3852 113.92842
76.02213 187.86029 179.01637 192.73824 248.55684 104.547 224.21819 385.9566

nns.0.3.weight f4 [32, 32]
00000000: f396 393d d307 cfbe f162 d8be 0626 24bf
00000010: 5982 e43d 2538 bfbe 4d2d 10be 2652 50be
00000020: bbc4 b0be becd 15be dd7c 05be 0894 5bbe
00000030: 463d 6a3e 7a75 80bc 46e7 9dbe 587a 923d
00000040: f42c e23d db61 7d3d d5ec 60be 8031 1ebf
00000050: 2883 ecbe dacd e8be 5a4d c4be b3c1 56bd
00000060: 5ebc 90be 5bb6 c5bd aca0 e2bd c1a3 743d
00000070: a0c2 8abe ebb0 1bbe 591a 923d abdd 5dbe
00000080: 3936 58bf f58b 55be f786 32bd 1e2a e9bd
00000090: 8537 83bf a5de 09bf cdd8 10bf 9578 19be
000000a0: 8e94 42be f515 bbbd 657a 6dbf 6939 92be
000000b0: f14f e9bd 59fb 98bd ad5b 08bd 3918 63bf
000000c0: d29f d93d 4afd 41bf 78cf da3d fe6e 33be
000000d0: a2bb 27be c1bc 8abd d78f 73bf 35bf ffbe
000000e0: ae88 9abe 7a0e 8b3e eef9 533c e6e9 f43e
000000f0: 20d1 5fbf c7c1 3bbf 930b 8c3e 4db3 073e
00000100: 7e73 c5be 4039 9a3c d876 403d 644b 543d
00000110: 359f f8be 167b f23e ff15 c9be 5459 143e
00000120: 0063 fe3e b357 d03e 7585 91be ea8d 863c
00000130: 25c9 01bd 16cb 54bc 380d 003e 71f6 32bf
00000140: 4c36 113d ee00 89be 6b76 a73e b4ee a23e
00000150: 03be e2bd 8250 a23d 1b75 8b3e f907 9ebe
00000160: 725b 633e 9f7c 9ebf aa87 123e 7198 94bf
00000170: f6bf afbd 2704 96be 8bcb 88bf b3c6 273f
00000180: 8300 9c3e 923c cb3d 7bf6 ad3d 85ab 8abe
00000190: 9fd0 723e 1789 ce3e 8765 e63e 6d8e 213e
000001a0: 3129 cd3e 8cbc ab3c f6d3 1c3d 5367 bfbe
000001b0: b884 333e fe7d ecbd 4eb1 503d 1c4d 0b3e
000001c0: 062f af3d 195c 563e 9581 233f 935b 1a3e
000001d0: 5e48 5bbd d335 83bc 8f27 8e3d e9ce bf3e
000001e0: 2bb0 9b3e 97d4 13bf e23b 523f a90b 7c3e
000001f0: f69e 3ebf cd15 8b3e 8556 9d3e c9f2 823f
00000200: 6985 44bd 9552 93be 008c e1bd e334 39be
00000210: b6ef 7dbd e372 c6be b24a c6bd d3c5 b9bd
00000220: 66c1 10be ff38 37be e9fd 5f3d e37c 0ebe
00000230: 915e 803e 70ba 95be f58b b9be 6e3e 8abe
00000240: 4570 1bbe f143 373d fd1b 19be c7a3 e2be
00000250: 608f ccbe 05c1 97be cb5a 2fbf feb3 06be
00000260: 71fe 9ebe f1e3 1ebe 40a3 0dbe 4cc9 b4bd
00000270: 137c ddbe 64aa 95bd ae37 973d ec44 03be
00000280: f03a adbe 9309 04be 926b 0a3c 54e9 69bd
00000290: 6eb0 f9bc 1ba7 713e ade1 20be 62f4 973e
000002a0: 73ad 943e 1834 71be 20a7 97be ea2d 79bd
000002b0: 41f5 e93d a1ed 833d 652e cb3d a4b3 a6be
000002c0: c69e bcbd df5c ccbd 9eba 423e 7ec8 933e
000002d0: ebac c3bb fe03 0e3e 1e42 673e eaf6 c2bd
000002e0: 5132 e6bc e566 303d 69d6 4a3f 1881 253f
000002f0: 3508 0bbc b7c2 b73e 7a9c 2b3e 14c1 ad3d
00000300: 992f 303e 4cda bcbd 7e70 f3be 3840 abbe
00000310: 20d1 b3bd 238c 75be cf16 b33d bf7a a93c
00000320: ae82 54be 6a0e 7ebe ce38 163b 4956 d4be
00000330: 7f01 cabc 173a 30be ed27 17be 705a 4abe
00000340: f10d 363e 9b3b 02bd 4811 9cbe 11cc ccbe
00000350: 9556 b3be 099e 77be 0056 a1bd 42f8 2d3e
00000360: d1d7 76bd 2d6a d7be 6412 1fbd 73f2 653d
00000370: e268 8cbd f8ae 543e 0402 5f3e c0a2 a8be
00000380: 8990 37bf c1d2 7f3e e752 473e 8ff9 c63e
00000390: d8cf 4dbf 2601 ff3e 4b6f 78bf c6c6 693e
000003a0: 7a9e be3e 0139 5a3e dfab 37bf 2dfb 0e3e
000003b0: 0ca0 13be df41 9b3e 1ba7 803e c93a 0ebf
000003c0: 9024 1bbe 618c 15bf 17fa a83e 56cb 453e
000003d0: e372 ce3e b280 c33d 9bfe 10bf a492 ddbe
000003e0: 6405 dd3e 63af 073e c67d c83e 18b1 163f
000003f0: 64f9 abbe 7055 3cbf c007 853e 2c28 cd3e
0.045309972 -0.40435657 -0.42262986 -0.6412052 0.11157674 -0.37347522 -0.14079781 -0.20343837
-0.34525093 -0.14629266 -0.13035913 -0.21443188 0.22874936 -0.015681017 -0.3084051 0.071522415
0.110437304 0.0618609 -0.21965344 -0.6179428 -0.46193814 -0.45469552 -0.38340265 -0.05243082
-0.28268713 -0.09653922 -0.11065802 0.05972648 -0.27101612 -0.15204208 0.07133932 -0.21666591
-0.8445774 -0.2085417 -0.043585744 -0.11384986 -1.0251318 -0.53855354 -0.5658081 -0.14987405
-0.19001982 -0.09135047 -0.92764884 -0.28559425 -0.11392201 -0.07469816 -0.033290554 -0.88708836
0.106261864 -0.75777113 0.10684103 -0.17522809 -0.1638017 -0.06774283 -0.9514136 -0.49950567
-0.30182403 0.27159482 0.012938006 0.478347 -0.87428474 -0.73342556 0.2735258 0.13251992
-0.38564676 0.018826127 0.04698834 0.05182971 -0.48558965 0.47359532 -0.39274594 0.14487201
0.49684906 0.4069191 -0.28422132 0.016425092 -0.031685967 -0.012987873 0.12505043 -0.6990729
0.035452172 -0.26758522 0.32707533 0.3182274 -0.11071398 0.07925512 0.27237782 -0.30865458
0.22202852 -1.2381781 0.14309564 -1.1609021 -0.085815355 -0.29300043 -1.0687116 0.65537566
0.3046914 0.09923662 0.08494278 -0.27083984 0.23712395 0.40338966 0.44999334 0.15776987
0.4007049 0.02096393 0.03828808 -0.37383518 0.17531097 -0.115474686 0.05095034 0.13603634
0.08553891 0.2093357 0.638696 0.15073995 -0.05353581 -0.016016876 0.06941139 0.37462547
0.30407843 -0.5774626 0.82122624 0.24613823 -0.74461305 0.2716507 0.30730072 1.0230342
-0.047978792 -0.28773943 -0.11013031 -0.18086581 -0.061996184 -0.38759527 -0.09682216 -0.09070935
-0.14136276 -0.17892836 0.054685507 -0.13914828 0.25072148 -0.29243803 -0.3623959 -0.27000755
-0.15179546 0.04474253 -0.14952083 -0.44265577 -0.39953136 -0.2963945 -0.68497914 -0.13154599
-0.31053498 -0.1551664 -0.13831806 -0.08827457 -0.43258724 -0.0730789 0.07383667 -0.1281926
-0.33834028 -0.12894277 0.008448498 -0.057107285 -0.030479636 0.23598902 -0.15711088 0.29678637
0.2903858 -0.23555028 -0.29619694 -0.060834803 0.114237316 0.064418085 0.099209584 -0.3255893
-0.09209971 -0.09978651 0.19016501 0.288639 -0.005971541 0.1386871 0.22583815 -0.09519751
-0.028100165 0.043066878 0.79233414 0.64650106 -0.008485843 0.35890743 0.1675891 0.08484092
0.17205657 -0.09221324 -0.47546762 -0.33447433 -0.08780122 -0.23979239 0.08744585 0.020688413
-0.20752975 -0.24810186 0.0022922042 -0.4147208 -0.024658917 -0.1720966 -0.14761324 -0.19761062
0.17778756 -0.031795125 -0.30481935 -0.3999944 -0.35026994 -0.2418138 -0.07877731 0.16989234
-0.060264412 -0.42073193 -0.038835898 0.05613942 -0.06855942 0.2076987 0.21778113 -0.32936668
-0.7170492 0.2498274 0.19465218 0.38862273 -0.8039527 0.49805564 -0.9704482 0.22829732
0.37230283 0.21310808 -0.7174663 0.13963003 -0.14416522 0.30323693 0.2512749 -0.5555845
-0.15150666 -0.58417326 0.33003303 0.19315848 0.40322027 0.09546031 -0.566385 -0.4327594
0.43168175 0.13250498 0.39158458 0.58863974 -0.33588707 -0.7356787 0.25982475 0.4006971

nns.0.3.bias f4 [32]
00000000: 8359 8d3e ee31 57bf a288 b6be a4b6 34bd
00000010: adcc 38bd a679 673e d711 7f3e 4c20 d03e
00000020: 80bd 1ebf a267 a23b ac1a 56be 2390 b0bd
00000030: 5077 a5be b7ba bf3e abf8 adbe ac9d aa3d
00000040: b444 62bf 9a3d 603e f53e 52be f366 4a3c
00000050: 3774 533e 4048 71be 7512 2b3e 73c3 28be
00000060: 0ff6 dd3d 3236 103e 1590 2d3e fabe b0bd
00000070: 91f1 ba3e 1cb4 55bf b056 293e 0b1e febe
0.27607355 -0.8406056 -0.35651118 -0.044119492 -0.04511707 0.22604999 0.24909149 0.4064964
-0.62007904 0.0049562017 -0.20908612 -0.08621242 -0.3231759 0.3744714 -0.3397878 0.08330855
-0.8838608 0.21898499 -0.20531829 0.012353647 0.20649801 -0.23562717 0.1670626 -0.16480808
0.108379476 0.14083174 0.16949494 -0.08630176 0.36512426 -0.8347795 0.16536975 -0.49632296

nns.0.4.weight f4 [32]
00000000: 3d81 1b3f 3c00 b63f 5be7 6d3f 23a8 893f
00000010: 03b4 0e3f bff8 7bbd 86b6 023f 45b8 a33f
00000020: 1a78 9a3f 485e a53f 0c2e d93e 41af 853f
00000030: f9f6 913f 0c66 093f 69f8 853f 5404 3b3f
00000040: 94f2 9d3f 841a 1d3f d5b8 b23f 7100 fd3e
00000050: 5cfe 133f eb49 ce3e e2a2 7b3f dcb5 ac3e
00000060: d5b8 4f3f b121 3f3f 39a8 c13f 6cda 8f3f
00000070: 5b9e 9c3f 9687 c83f 7bc7 303f 3778 653f
0.60744077 1.4218822 0.92931145 1.0754436 0.55743426 -0.06151652 0.5105976 1.279061
1.2067902 1.2919397 0.42417943 1.0444108 1.1403495 0.53671336 1.0466434 0.7305348
1.2339654 0.61368585 1.3962656 0.494144 0.57809997 0.4029077 0.98295414 0.33732498
0.81141406 0.74660784 1.5129462 1.1238532 1.2235826 1.5666378 0.69054383 0.8963656

nns.0.4.bias f4 [32]
00000000: 6f76 babe 5b74 87be 086b d3be c688 8ebf
00000010: 8133 c2be 3023 75be afbe d8be b1e0 1bbe
00000020: 8f19 85be 67f3 8fbf 47e3 e5bd 2b4a e03c
00000030: c01f 9fbe 0f05 f3bd 8b4e 8cbe 539b 40c0
00000040: cd29 a03e 1308 c1be 8c9f 8bbf 8c2d cebf
00000050: db4b 72be 0ca9 8ebe ad06 b1be 8662 0cbe
00000060: d02a 3c3a 9b89 0abf d257 88bf 43c0 84bf
00000070: c526 88be 126b 63be 188e 52be bb33 64be
-0.36418483 -0.2645596 -0.41292596 -1.113549 -0.3792992 -0.23939204 -0.4233298 -0.15222432
-0.25996062 -1.1246156 -0.1122499 0.027379116 -0.3107891 -0.11866199 -0.27403674 -3.0094802
0.3128189 -0.37701473 -1.0908065 -1.610765 -0.23661749 -0.27863348 -0.34575406 -0.13709459
0.00071780104 -0.5411622 -1.0651801 -1.0371174 -0.2659208 -0.22208813 -0.20562017 -0.22285359

nns.0.4.running_mean f4 [32]
00000000: e727 5dbe e610 0cc0 c562 36c0 76dc 283e
00000010: 9d2f 6ebf 9603 703f d333 8a3e 273e cbbd
00000020: c4fd 03c0 c22e 833e de14 cbbe 34eb c23f
00000030: 0ae1 98bf d12e 8f3e 1806 8abf a4f5 6840
00000040: 5999 0040 cb7e d1be 71fc 57bf 5d5c e83d
00000050: 9939 81be 02a0 20be 6473 4cbf ce73 b3be
00000060: cd4a 1c40 3c98 bb3f 400e cbbe 3e7e 1b3e
00000070: 1639 03bd 7eae e3bf 0465 03bf e8c8 74bf
-0.21597253 -2.1885314 -2.8497784 0.16490349 -0.930414 0.9375547 0.26992664 -0.09923964
-2.0623636 0.2562161 -0.39664358 1.5228028 -1.1943676 0.27965406 -1.078311 3.6399927
2.0093596 -0.40917048 -0.8436957 0.11345742 -0.25239256 -0.15686038 -0.7986357 -0.3504929
2.4420655 1.4655833 -0.3965931 0.15184876 -0.032036863 -1.7787626 -0.5132601 -0.9561906

nns.0.4.running_var f4 [32]
00000000: e275 7f3f ab7f ac40 a281 d63f cd57 6c40
00000010: 2ef1 2a40 1e46 913d e632 ce3e bc76 b73f
00000020: 4d88 ea40 278f 7b40 79ba 483e 067d 5140
00000030: c285 0341 1bab f93e 2f93 9d40 e1a6 6940
00000040: 5db8 dc3f 7048 843f 2eec 4f40 4634 dd3f
00000050: de1c cb3f 7b2d 423f 874b d640 60e0 c73e
00000060: e83b e93f aabd 5a40 e583 7240 6615 b540
00000070: 7f06 5e40 1cf4 8f40 fadb 3940 95fa 4340
0.9978925 5.3905845 1.6758311 3.692859 2.6709704 0.07093452 0.40273207 1.433311
7.3291383 3.9306123 0.19602384 3.2732558 8.220156 0.48763356 4.9242167 3.6508105
1.7243763 1.0334606 3.2487903 1.7281578 1.5868185 0.7585065 6.6967196 0.39038372
1.8221407 3.4178262 3.7893002 5.658862 3.4691465 4.4985485 2.9040513 3.0621693

convs.0.nn.0.weight f4 [32, 32]
00000000: 9a14 12bd 6eef 57bf e914 33be 85ec b5be
00000010: f1a1 0cbf 9b45 7fbe 9506 a8bf 025c c3be
00000020: 2296 b0bf b2b0 a9bf c921 5ebc 8e22 b1be
00000030: d3cc 6dbe 0863 f5bc 8c50 eebd e0a2 9d3c
00000040: ee88 92bc 8198 533e 0536 1abf eff5 05be
00000050: f6f8 fd3d 438e febc 5031 d53b f58a 2dbc
00000060: 9dd0 8a3e 3d98 07bf b4db 52be 07b3 233e
00000070: 4422 9abe 6d9a 5fbf 92ce 0dbf 7eb8 523e
00000080: 3342 cebd 8c49 9fbd 9b57 63bd 4541 22be
00000090: a3fb 77be 8f9e 83bc 19ee 63be 63d2 0cbf
000000a0: d19b 3cbe c6da 8dbe 94d3 71be 734f e6be
000000b0: a670 e53c e0d5 8abe bf37 a8be c8da a4be
000000c0: 7677 b6be e7b9 babe 2337 b9bd 48d5 9bbe
000000d0: 080e 72be b510 06be d162 aebd 5ae7 49be
000000e0: 3182 2d3e c4f4 11be e8a3 82bd a5bf 36bd
000000f0: 181a c9bd 5ac3 343d b533 2d3e 8117 a93e
00000100: f84f e43c 6ade d33c 7142 a03d 359b 503e
00000110: 0464 953e 83b5 703e 7e85 25be 67b3 5c3d
00000120: 6412 1b3e 54ac fd3d 82ac 383e 6e6f 763e
00000130: e955 d6bd 4f92 9a3d 1f81 a83a 15b5 c2bc
00000140: fd81 253e d665 cf3d a67d c1bd ada8 683e
00000150: f3f3 893e dc1c 9bbd 1adb da3d 187a a8bb
00000160: c3c7 843e 3051 aabd b6a8 af3e d0a3 7b3e
00000170: edf0 283e 6528 6a3e 8012 f93e e43b 113d
00000180: a0d1 ee3d 99ac aebe cb24 80bc 8b5e 23be
00000190: e9ac 0f3e 9f4a 413e f266 e0be 9c43 3b3e
000001a0: 222f c4be 4ca5 d5be e01c b03e 0cfa 183e
000001b0: 31ad cebe b104 913d b22f 3d3e 921a 78be
000001c0: d308 96bd ca29 f1bb f705 b8be 0e15 343e
000001d0: b4a2 e93e 1676 263e 1ac7 943e bf8d dcbd
000001e0: 621d 2bbd 996a a8be d3aa 8a3e bdb7 733e
000001f0: 1dbd c73d dbb2 05be e31a 1bbf 8086 c93e
00000200: 41f0 113d 07a9 38bf c99d 92be 80c2 aebe
00000210: dca2 1bbf f949 8abe ffb6 a5bf 1eb8 d8be
00000220: b086 8ebf 5e5b a4bf e06a 06be bd95 d1be
00000230: 8e85 4fbe 0cc8 8a3d a8e0 c83d b5d9 b4bd
00000240: 8a37 4ebe 1f1f 863d a918 f0be 526b 28be
00000250: a730 293d c4a7 833c 162f d7bd f5d5 2ebe
00000260: 420b b03e 23da 8bbe ba3b d7bd 75a1 7abd
00000270: a5f6 9ebe e70a 5bbf c81b f1be c945 25be
00000280: d2c8 71be 3733 8fbe f3fe c23e 3fd7 883f
00000290: 3ca1 bebe 1967 89be 0335 b3be 3162 613e
000002a0: aaf5 31be d0e0 aebe a5eb 4fbe 9479 ff3e
000002b0: 4639 1cbe 30e5 5dbe 9dad 1abd 4498 a9bf
000002c0: 12d2 5f3f df4c bdbe a30f d8be 3e93 c4be
000002d0: ecd1 0dbd 2d7d 7cbd c707 c3bd 4638 65be
000002e0: c706 323d 1420 acbe dcf6 cf3d f62f bcbe
000002f0: daaf 393e eb48 5cbe b2ad 3a3f 515c 7ebc
00000300: 143e 4bbd c2d1 47bf aa7c 8ebe 9de3 c0be
00000310: f58e 11bf 5343 91be b2e9 bcbf 2319 aebe
00000320: 9334 89bf 926f c9bf 307f 26bc 7dac 2cbe
00000330: d13d e0be 5941 7bbd b3d7 28be 68aa f9bc
00000340: 8925 35be ff5b 39bd 7ec2 c6be feab 1abe
00000350: 501b 4bbe e151 88bd 9593 6d3d d24d 84bd
00000360: 8c00 f83e 4712 e9be af3b 61bd 3800 3b3d
00000370: 53e4 9ebe bb9d 6fbf f398 c4be a8c3 5dbe
00000380: 4216 4dbb d571 6abe a916 45be bcc1 b1be
00000390: 86a9 42be b4b0 52bd b80c ebbd 2ba6 06bf
000003a0: 6fa4 5bbe 08d8 e33d f032 54be 6472 07bf
000003b0: 29e1 1ebf 97bd 363e 4473 b8bd 9a33 263c
000003c0: b975 8cbe a2c2 d7bc 6a68 00bd 8569 6ebd
000003d0: 8a52 063e 4dd2 7a3d 47b5 88bd 5657 3cbf
000003e0: cc21 9d3c fddc 1cbe 3111 90bd 4887 32be
000003f0: 9914 a1bd 914e 36be d90f 6fbf 95ff d73c
-0.03566418 -0.84349716 -0.17488445 -0.35532013 -0.549346 -0.24928896 -1.3127009 -0.38156134
-1.3795817 -1.3257048 -0.01355786 -0.34596676 -0.23222665 -0.029954448 -0.11636457 0.019242704
-0.017887559 0.20663644 -0.6023868 -0.13082097 0.12401001 -0.031073695 0.0065061226 -0.010592212
0.27112284 -0.5296667 -0.20591623 0.15986262 -0.30104268 -0.8734501 -0.55393326 0.2057819
-0.1007122 -0.077777 -0.05550347 -0.15845211 -0.24217086 -0.016066818 -0.22258796 -0.55008525
-0.18418814 -0.27705973 -0.23615867 -0.4498249 0.028007817 -0.271163 -0.3285503 -0.32198167
-0.35638016 -0.36469957 -0.090437196 -0.30436158 -0.23638165 -0.1309231 -0.085149415 -0.1971716
0.16944195 -0.14253527 -0.06378919 -0.04461636 -0.0981943 0.044131614 0.16914256 0.33025745
0.027870163 0.025862891 0.07825173 0.20371707 0.29177868 0.23506741 -0.16164204 0.05388203
0.15143734 0.123863846 0.18034557 0.24065945 -0.10465605 0.075474374 0.0012855864 -0.023767987
0.16162868 0.101268455 -0.09447794 0.22720595 0.2694393 -0.07573864 0.106863216 -0.005141508
0.25933656 -0.083162665 0.34308404 0.24574208 0.16498156 0.22866972 0.48646927 0.035457507
0.116610765 -0.34116057 -0.015642544 -0.15954034 0.14030804 0.18876122 -0.4382854 0.1828751
-0.3831721 -0.41727674 0.3439703 0.14939135 -0.4036651 0.07080973 0.18475226 -0.24228886
-0.07325902 -0.007359718 -0.3594205 0.17586157 0.45631945 0.16255984 0.29058152 -0.107692234
-0.04177607 -0.32893828 0.27083454 0.2380056 0.09752867 -0.13056509 -0.605879 0.39360428
0.035629515 -0.72132915 -0.28636006 -0.34132767 -0.6079538 -0.27009562 -1.2946471 -0.4232797
-1.1134853 -1.2840383 -0.13126707 -0.40934554 -0.20265791 0.06776437 0.09808475 -0.08830587
-0.20138374 0.06548905 -0.46893814 -0.1644719 0.041306164 0.016071208 -0.10507028 -0.17073806
0.3438359 -0.27314863 -0.10509439 -0.061189134 -0.3104755 -0.8556351 -0.47091508 -0.16139902
-0.23611763 -0.2796876 0.38085136 1.0690688 -0.37232387 -0.2683647 -0.35001382 0.22010113
-0.1737887 -0.34155893 -0.20304735 0.49897444 -0.15256223 -0.2166946 -0.037763227 -1.3249593
0.87429917 -0.3697271 -0.4219943 -0.38393587 -0.034624025 -0.061642814 -0.09522968 -0.22384748
0.043463495 -0.33618224 0.101545066 -0.3675534 0.18133488 -0.21512191 0.7292129 -0.01552494
-0.04961975 -0.7805444 -0.27829486 -0.37673655 -0.5685876 -0.28371677 -1.4758818 -0.34003553
-1.0719169 -1.5737174 -0.01016216 -0.16862674 -0.43797162 -0.061341617 -0.16488533 -0.030476764
-0.176901 -0.04525375 -0.3882026 -0.15104672 -0.19834638 -0.06656242 0.058002073 -0.064601555
0.48437917 -0.45521757 -0.05498856 0.045654505 -0.31033573 -0.9360005 -0.3839794 -0.21656668
-0.0031293784 -0.22894986 -0.19246925 -0.3471812 -0.1900998 -0.05143805 -0.11477035 -0.525973
-0.21449445 0.11125189 -0.20722556 -0.5290892 -0.6206232 0.1784576 -0.0900636 0.010144139
-0.27433565 -0.026337925 -0.031349577 -0.0582061 0.13117424 0.061235715 -0.06675201 -0.73570764
0.019181155 -0.15318675 -0.07034529 -0.17434418 -0.07865257 -0.17803408 -0.93383557 0.026366988

convs.0.nn.0.bias f4 [32]
00000000: 2ff9 0bbf 9cb1 763c 3198 8f3d 57ca 13bd
00000010: 6296 313d d4d7 58bd f537 d13c afdc 383d
00000020: 73d6 3a3c e424 efbc e00e 993d 14d3 11be
00000030: b34c 0cbc ee9c e3bc 4335 263e 9898 083d
00000040: 5b4d cebd a073 003e 0c2a e53d 403b 2c3e
00000050: 5fa4 c33d 5815 46be cda6 6a3e 29b8 3abe
00000060: bbb0 973e 7a2b 473d 86f0 d2bd 7e2f f0be
00000070: d7ac cc3e ed99 28be 3808 4b3d d76a 4ebe
-0.546771 0.015056994 0.0701145 -0.03608164 0.043356307 -0.052940205 0.025539378 0.045132335
0.011403668 -0.029192396 0.0747354 -0.14240676 -0.008563208 -0.02778479 0.16231255 0.03334865
-0.10073348 0.12544107 0.111896604 0.16819477 0.09552836 -0.1934408 0.22915192 -0.18234314
0.29627022 0.048625447 -0.102997825 -0.46911234 0.39975616 -0.16464968 0.049568385 -0.20157944

convs.0.nn.1.weight f4 [32]
00000000: cdf5 d83f 4874 5b3f 0405 f7bb 3fa4 173f
00000010: 7658 e43f 7e6c 633f 2bcb cb3f b952 513f
00000020: 4555 6e3f c9d9 123f 176e d83f 5dd8 573f
00000030: e824 2a3f baf3 513f 7770 11bd 83ad c93f
00000040: a11f 493f 6ebd d83f 4b6a 273f c03a b93e
00000050: b38a 02ba 59c2 4dbd 93b0 b83f 4e56 a03f
00000060: 659b 513f eb63 823f c141 2a3f 0823 bd3f
00000070: 33e5 e03f 7787 c53f 5556 833f 445f b13f
1.6950012 0.85724306 -0.0075384397 0.59234995 1.7839496 0.8883742 1.5921377 0.8176685
0.9309886 0.57363564 1.6908597 0.8431452 0.66462564 0.8201252 -0.035507645 1.5756077
0.78563887 1.6932809 0.65396565 0.36177635 -0.0004979774 -0.050234172 1.4428886 1.2526338
0.8187774 1.0186743 0.6650658 1.4776316 1.7569946 1.5431966 1.0260721 1.3857198

convs.0.nn.1.bias f4 [32]
00000000: 01bf 57be e500 cebe 43e0 f2be be42 e9be
00000010: da55 51be 6fda 2cbf 9a9a 62be 73d0 c9be
00000020: bd31 05bf 9196 29bf 999d 82be 52b2 d7be
00000030: a7d7 a4be 281d acbe 9e50 8c3e dfcc 64be
00000040: 5486 9ebe 112b 71be 0a9e 9abf 0df6 15bf
00000050: 4335 2fbf c3d8 a53e f984 fd3d ebe9 33be
00000060: b354 1ebf 9c3f 1bbf 8a51 5dbf 307a 303f
00000070: 200c 403f 5d54 35be 3f86 2b3f 51a8 53bf
-0.21068956 -0.40235057 -0.47436723 -0.45558733 -0.20442906 -0.67520803 -0.22129288 -0.39416847
-0.5202902 -0.6624537 -0.25510862 -0.42128235 -0.3219578 -0.33615994 0.27405256 -0.22343777
-0.3096186 -0.23551585 -1.207948 -0.5857857 -0.68440646 0.3239194 0.12378878 -0.17569701
-0.6184799 -0.60643935 -0.86452544 0.68936443 0.750185 -0.17707963 0.6700172 -0.82678705

convs.0.nn.1.running_mean f4 [32]
00000000: 489f dec0 a950 01c0 7fae 193f 64b6 1dc0
00000010: aab7 cac0 6a47 90c0 8e63 dec0 d147 5ebf
00000020: b757 28c0 50e2 4bc0 692d c5c0 34e7 f4bf
00000030: bd4b 27c0 8171 40bf e4ab e93f 2d7a 5ac0
00000040: f6e1 eebf 6499 e1c0 4247 403e a6b2 56c0
00000050: d6e9 aabe 4028 7e3e aed0 b040 1ac8 95c0
00000060: fcb9 04c0 6d72 a940 4a34 50c0 41da c9c0
00000070: 30bd b640 0b99 8ec0 4758 c9c0 a955 87c0
-6.9569435 -2.020548 0.60031885 -2.4642572 -6.33492 -4.5087175 -6.9496527 -0.86828333
-2.6303537 -3.185688 -6.161793 -1.9133058 -2.6139977 -0.75173193 1.8255582 -3.413707
-1.8662708 -7.0499744 0.18777183 -3.3546538 -0.33381528 0.24820042 5.5254736 -4.6806765
-2.0738516 5.295218 -3.2531915 -6.3078923 5.710594 -4.456182 -6.292026 -4.2292066

convs.0.nn.1.running_var f4 [32]
00000000: db4f 5f43 441f 1742 14a5 1a40 4804 0c42
00000010: d2ac 5c43 4222 ac43 9a6a 7f43 b009 c440
00000020: e78c 2743 5d47 3c43 bb66 4f43 3fa1 2142
00000030: 9eff 8542 2223 c140 755e 9042 9639 7f42
00000040: 030d 0842 909b 8943 1bfd 6e42 e6f0 4443
00000050: ec8d 9341 2862 c33f 9c62 2943 5adb e342
00000060: 550b 9842 3cdc 3b43 3104 3343 fdbc 4043
00000070: 8d8e 7843 1018 d142 db37 6043 72fa c043
223.31194 37.780533 2.4163256 35.00418 220.67508 344.26764 255.41641 6.1261826
167.5504 188.27876 207.40129 40.407467 66.99925 6.0355387 72.18449 63.806236
34.012707 275.21533 59.747173 196.94101 18.444298 1.526433 169.3852 113.92842
76.02213 187.86029 179.01637 192.73824 248.55684 104.547 224.21819 385.9566
