result/experiment_08.04.2022_13.23.59/54/fold_3_state_dict.pt (torch, 61084 bytes, 92 tensors)

first_h.0.weight f4 [32, 3]
0	0xbef4f26b	-0.478412
1	0xbe41c84b	-0.18924062
2	0x3ec39167	0.3819687
3	0xbeb82120	-0.35962772
4	0xbdc521b5	-0.0962557
5	0x3cc1e074	0.023666598
6	0x3e97eac6	0.29671305
7	0x3dfc8e95	0.12331883
8	0x3f1a7349	0.6033216
9	0x3f0e4f40	0.55589676
10	0xbdb097a2	-0.08622672
11	0x3e8817a8	0.26580548
12	0xbe01dd40	-0.12682056
13	0xbeaf1ca1	-0.3420153
14	0x3b4f36db	0.003161839
15	0x3d8b9e82	0.06817342
16	0xbefb3c6a	-0.4906953
17	0x3e84f03e	0.2596454
18	0x3eb04488	0.34427285
19	0x3f180a46	0.59390676
20	0x3f179357	0.592092
21	0x3e497887	0.19674884
22	0x3f1d6daf	0.6149549
23	0x3e901ceb	0.28147063
24	0x3e8d43b9	0.2759073
25	0xbf25d2ff	-0.6477508
26	0xbe69499f	-0.2278199
27	0xbdf38344	-0.11890271
28	0xbed9b42d	-0.42520276
29	0xb91e25d0	-0.0001508214
30	0x3ef2f1b8	0.47450042
31	0xbd948e7a	-0.07253738
32	0xbd2fb850	-0.042900383
33	0xbe3abdf4	-0.18236524
34	0x3ebc4080	0.3676796
35	0xbf12455d	-0.5713709
36	0x3f807b78	1.003768
37	0xbe289f36	-0.16466984
38	0x3cc1e8df	0.023670612
39	0xbde08007	-0.10961919
40	0xbeb9e322	-0.363061
41	0x3e8868f8	0.26642585
42	0x3da07b5b	0.07836028
43	0xbed3be66	-0.413562
44	0xbec21d13	-0.37912807
45	0x3da6b2a8	0.08139545
46	0x3ebe143e	0.3712482
47	0x3d8f69f4	0.07002631
48	0x3e81e28a	0.25368148
49	0xbe963333	-0.29335937
50	0x3d05d182	0.032670505
51	0xbdbf7576	-0.09348576
52	0xbea833bf	-0.3285198
53	0xbf1fc9cd	-0.624173
54	0xbd1f7ea5	-0.038939137
55	0x3d875c17	0.066093616
56	0xbedaf9d1	-0.4276872
57	0xbe808701	-0.25103
58	0x3ec06f07	0.37584707
59	0xbe19af35	-0.15008242
60	0x3ecdef9b	0.40221867
61	0xbebc6074	-0.36792338
62	0xbeee40c1	-0.46533778
63	0xbeccb641	-0.399828
64	0x3e1cf1df	0.15326641
65	0x3e3d4d28	0.18486464
66	0xbe9b40ff	-0.30323026
67	0xbd969ee4	-0.07354525
68	0xbecb2552	-0.3967691
69	0x3e123fde	0.14282176
70	0x3f674609	0.9034124
71	0xbe9b38ec	-0.30316865
72	0x3e54ee71	0.20794083
73	0x3f50101a	0.8127457
74	0x3e872a21	0.2639933
75	0xbe3e67a2	-0.1859422
76	0xbecf11a5	-0.4044315
77	0xbef268ad	-0.47345486
78	0x3f103743	0.5633432
79	0x3f179954	0.59218335
80	0xbe971be6	-0.29513472
81	0xbf021a62	-0.50821507
82	0xbedb4139	-0.42823198
83	0xbf11ac61	-0.56903654
84	0x3efee86d	0.49786702
85	0x3f6d6148	0.92726564
86	0x3ee6aed1	0.4505525
87	0xbd94d49c	-0.072671145
88	0xbf1dd658	-0.6165519
89	0xbcc1711c	-0.023613505
90	0xbe4a06e1	-0.19729187
91	0xbdc53f2e	-0.09631191
92	0xbec25cd7	-0.37961456
93	0xbe12d7ff	-0.14340208
94	0x3e5b0ed1	0.21392371
95	0x3ee90bdf	0.4551687

first_h.0.bias f4 [32]
0	0x3ef314c8	0.47476792
1	0xbea0c698	-0.31401515
2	0x3ec07c7f	0.37594983
3	0x3ec04a7e	0.37556833
4	0x3e6d51d0	0.2317574
5	0x3f0c28ce	0.54749763
6	0x3d3c2bd5	0.04594024
7	0xbd8e1f87	-0.06939607
8	0xbea72d39	-0.3265169
9	0xbe038e26	-0.12847194
10	0x3e5215ca	0.20516124
11	0xbed0ba9b	-0.4076737
12	0x3df440d8	0.119264305
13	0xbe1faca9	-0.15593208
14	0xbeed06dd	-0.462943
15	0xbd9089a4	-0.07057503
16	0xbe637246	-0.2221156
17	0x3f03edfd	0.51535016
18	0xbe8d2f2c	-0.27575052
19	0x3f105dbd	0.56393033
20	0x3eaa194b	0.33222422
21	0x3f10c682	0.565529
22	0xbb12bb18	-0.0022389349
23	0xbc9acfd5	-0.01889793
24	0xbefb4db7	-0.4908273
25	0x3e64d536	0.22346959
26	0x3ebf4e5d	0.37364474
27	0xbd5aa1ce	-0.053376965
28	0xbc96a0a8	-0.018387154
29	0xbd27bf2b	-0.040953796
30	0x3e99c3cf	0.30032203
31	0xbeab0e65	-0.3340942

first_h.1.weight f4 [32]
0	0x3f52b713	0.823106
1	0x3f3a4e22	0.7277547
2	0x3f7c793c	0.9862249
3	0x3f824f5f	1.0180472
4	0x3f2e9626	0.6819786
5	0x3f95965e	1.1686513
6	0x3f8fd7dd	1.1237751
7	0x3f85aebf	1.0443953
8	0x3f839468	1.0279665
9	0x3f2cfb45	0.67570907
10	0x3f81ab7e	1.013046
11	0x3f540b82	0.8283006
12	0x3f9acd15	1.2093836
13	0x3f4261cc	0.75930476
14	0x3f5073d0	0.81426716
15	0x3f6918af	0.9105329
16	0x3f7180b3	0.94337004
17	0x3f7610d9	0.9611946
18	0x3f33e806	0.70275915
19	0x3f8706f3	1.0548996
20	0x3f81bdc0	1.0136032
21	0x3f5396d8	0.82652044
22	0x3f4b39de	0.79385173
23	0x3f80d3a8	1.0064592
24	0x3f86180c	1.0476089
25	0x3f5b42e4	0.8564894
26	0x3f89be94	1.0761285
27	0x3f3fb5cd	0.7488678
28	0x3f868fd0	1.0512638
29	0x3f588fb2	0.8459426
30	0x3f553600	0.8328552
31	0x3f429745	0.7601207

first_h.1.bias f4 [32]
0	0xbd929db4	-0.07158986
1	0xbe4b150d	-0.19832249
2	0xbe13e188	-0.14441502
3	0xbea31e20	-0.3185892
4	0xbe5b5495	-0.21418984
5	0xbdda53bf	-0.106605045
6	0xbef94271	-0.48683503
7	0xbdd59c44	-0.10430196
8	0xbdb23a3e	-0.08702515
9	0xbe714d3f	-0.23564623
10	0xbd0ad40b	-0.033893626
11	0xbdd8dfd1	-0.105895646
12	0xbf6c656b	-0.9234225
13	0xbe7d4559	-0.24733485
14	0xbe52f6f9	-0.20602025
15	0xbe4c6c71	-0.19963242
16	0xbdd0b3c4	-0.101905376
17	0xbe98af2e	-0.29821151
18	0xbe56fba3	-0.2099443
19	0xbdc9f022	-0.09860255
20	0x3d36ebb2	0.04465837
21	0xbd8a03b9	-0.06738991
22	0xbdf8bd4a	-0.12145479
23	0xbe1ed970	-0.15512633
24	0xbd809923	-0.062792085
25	0x3c9d0859	0.01916902
26	0x3cb04df0	0.021521538
27	0xbe6fc769	-0.23415913
28	0xbe5d3343	-0.21601586
29	0xbce71692	-0.028209005
30	0xbcf78357	-0.030213995
31	0xbe2da4c5	-0.16957386

first_h.1.running_mean f4 [32]
0	0xc92f0c4c	-716996.75
1	0xc9038e0f	-538848.94
2	0x48d90713	444472.6
3	0x494b4600	832608.0
4	0xc83964a2	-189842.53
5	0x47c7842e	102152.36
6	0x48fbcd8c	515692.38
7	0x4890179c	295100.88
8	0x48c9d613	413360.6
9	0xc82dd1fb	-177991.92
10	0x492d8d1d	710865.8
11	0xc8855ca5	-273125.16
12	0x49b7a6a2	1.5044682e+06
13	0xc8206732	-164252.78
14	0x47e554e3	117417.77
15	0x47ee448c	121993.09
16	0x48b98a2e	379985.44
17	0xc808d3c0	-140111.0
18	0xc763ef45	-58351.27
19	0xc8b79ee1	-376055.03
20	0x491329e6	602782.4
21	0xc9124a16	-599201.4
22	0xc8de0812	-454720.56
23	0x4850fc64	214001.56
24	0x48982ebe	311669.94
25	0xc8877d03	-277480.1
26	0x494e2152	844309.1
27	0xc939f251	-761637.06
28	0x49361751	745845.06
29	0xc7d4bfe8	-108927.81
30	0xc8904c9c	-295524.88
31	0xc851df89	-214910.14

first_h.1.running_var f4 [32]
0	0x5543e6fa	1.34623e+13
1	0x54dd4aa5	7.603521e+12
2	0x54968f2d	5.1731775e+12
3	0x5584159e	1.8153547e+13
4	0x535bb594	9.436442e+11
5	0x527e8139	2.7327242e+11
6	0x54caaa30	6.9635093e+12
7	0x5404bdc9	2.280479e+12
8	0x54823abd	4.4746497e+12
9	0x53412353	8.295213e+11
10	0x5540912a	1.3233107e+13
11	0x53e36476	1.953286e+12
12	0x5657a357	5.9274135e+13
13	0x53247d9b	7.0648195e+11
14	0x52a824db	3.6108642e+11
15	0x52b5767a	3.896884e+11
16	0x545c169c	3.7810885e+12
17	0x52ef5a86	5.1400796e+11
18	0x51a60e92	8.915113e+10
19	0x54578fce	3.7033224e+12
20	0x550a7766	9.515339e+12
21	0x5508d241	9.402288e+12
22	0x549d9726	5.4147657e+12
23	0x538b9aa1	1.1991894e+12
24	0x54140fea	2.5436886e+12
25	0x53eaa3a6	2.0155358e+12
26	0x5587d2a0	1.8667337e+13
27	0x555d0c59	1.5190319e+13
28	0x5553f98f	1.45668e+13
29	0x5290ab69	3.1067554e+11
30	0x54051e4f	2.2869566e+12
31	0x538ccf2d	1.2095425e+12

first_h.3.weight f4 [32, 32]
0	0x3d9c2b69	0.07625467
1	0x3dc396c6	0.09550242
2	0x3e2c8cf7	0.16850649
3	0x3e84c41f	0.2593088
4	0xbdc1d742	-0.09464885
5	0x3e031580	0.1280117
6	0x3e279daa	0.16368738
7	0x3ca3555f	0.019938169
8	0x3d74a968	0.05973187
9	0x3c1d8684	0.009614591
10	0xbd52a1d9	-0.05142388
11	0xbd77d034	-0.060501292
12	0x3e21458c	0.15749186
13	0x3e30a2fc	0.17249674
14	0x3e9f0859	0.31061056
15	0x3dfe9330	0.124304175
16	0xbcf1cf79	-0.029517876
17	0xbcddb01b	-0.027061513
18	0x3db9516c	0.09048733
19	0x3db29059	0.087189384
20	0x3ddaf969	0.106921025
21	0x3be30d07	0.006929043
22	0x3df6de7e	0.12054156
23	0x3e7faae8	0.2496754
24	0xbcf43fd3	-0.02981559
25	0x3d370c6e	0.04468959
26	0xbcbbd169	-0.022927003
27	0xbc6b55b1	-0.014363692
28	0x3e83003c	0.25586116
29	0x3e2bf80f	0.16793846
30	0x3d9ab59c	0.075541705
31	0x3d6273d9	0.055286262
32	0x3e39954c	0.18123358
33	0x3d5b9520	0.053609014
34	0x3d4c079c	0.049811944
35	0x3dfe6e15	0.1242334
36	0xbd0c6ff3	-0.03428645
37	0x3dab1ff6	0.083557054
38	0xbd1c651d	-0.038182367
39	0xbaf44a8e	-0.0018637942
40	0xbd8e8835	-0.06959573
41	0x3daec845	0.08534292
42	0xbc533d41	-0.012893022
43	0x3d536808	0.051612884
44	0xbc44dc56	-0.012015423
45	0x3c056198	0.008140944
46	0xbdc18373	-0.094489
47	0x3e1635f4	0.14669019
48	0x3e6c2d7b	0.23064224
49	0xbd133b4c	-0.03594522
50	0xbe1dc328	-0.15406477
51	0x3db08e75	0.086209215
52	0x3e54d536	0.20784459
53	0x3e3f6dab	0.18694179
54	0xbd92e3fa	-0.07172389
55	0x3e64a4bb	0.22328465
56	0x3d1cff39	0.038329337
57	0xbcf72c7f	-0.030172585
58	0x3d90e940	0.07075739
59	0xbd6b9146	-0.05751159
60	0x3da586c1	0.08082343
61	0x3ccf1c2d	0.02528199
62	0xbdcccddd	-0.10000203
63	0xbdef3310	-0.11679661
64	0x3d370dad	0.044690777
65	0x3cf298da	0.0296139
66	0xbd993458	-0.07480687
67	0xbd623bb0	-0.055232704
68	0x3ddc3da9	0.10753948
69	0xbe25e460	-0.162004
70	0xbe1d8af0	-0.15385032
71	0xbe53b914	-0.2067607
72	0xbda55429	-0.08072693
73	0x3d648eec	0.055800363
74	0x3d43fbe9	0.047847662
75	0x3d3c25ba	0.045934416
76	0xbe531dee	-0.20616886
77	0x3e304a37	0.1721581
78	0xbd6344db	-0.055485588
79	0xbdd5d193	-0.10440364
80	0xbe3713f2	-0.17878702
81	0x3dbd96a5	0.09257249
82	0x3cedeb29	0.029042797
83	0x3d59d843	0.05318476
84	0xbe3fa1f2	-0.18714121
85	0x3e2a84d7	0.16652237
86	0x3e211d9a	0.15733948
87	0xbe56ec85	-0.20988663
88	0x3dda92f2	0.10672559
89	0x3da8630b	0.08222016
90	0xbc17af95	-0.009258171
91	0x3e24b103	0.1608315
92	0xbe11b55d	-0.14229341
93	0x3ddeee39	0.10885281
94	0xbe267df7	-0.1625899
95	0xbdf04049	-0.117310114
96	0x3e54e4fb	0.20790474
97	0xbda77290	-0.08176148
98	0xbe496505	-0.19667442
99	0xbcccf2de	-0.025018152
100	0x3d78b0b4	0.060715392
101	0x3c8478b0	0.01617083
102	0xbddff0a3	-0.1093457
103	0x3d94246f	0.07233512
104	0xbc8ae671	-0.016955586
105	0x3d8f7c89	0.07006175
106	0xbe1a48b3	-0.15066795
107	0x3e5f8688	0.21828663
108	0xbddf26cd	-0.108960725
109	0x3d78c4af	0.060734447
110	0xbd2a49be	-0.041574232
111	0xbdbac4d0	-0.0911957
112	0x3d8b67b9	0.06806893
113	0x3db1ade0	0.08675742
114	0xbd8d7af5	-0.06908218
115	0xbd87a941	-0.066240795
116	0xbdfdf2e9	-0.12399847
117	0xbcfd5b07	-0.030927194
118	0x3cfe6b31	0.031056972
119	0xbd7ac6cd	-0.061224747
120	0xbde42488	-0.1113978
121	0x3d1a4b98	0.037669748
122	0xbe59275c	-0.2120642
123	0x3daabf0b	0.0833722
124	0xbc817cc5	-0.015806565
125	0x3e465175	0.19367011
126	0x3e5dba1d	0.21653028
127	0xbdeb6c58	-0.11495274
128	0x3d28dcbf	0.041226145
129	0xbdd5c10f	-0.10437214
130	0xbe714902	-0.23563007
131	0xbe834a18	-0.25642467
132	0xbe059e56	-0.13048682
133	0xbd99c09f	-0.07507443
134	0xbe8cdd3e	-0.27512544
135	0xbc6d6e18	-0.01449158
136	0xbe81ffdd	-0.2539052
137	0xbe527fe7	-0.20556603
138	0xbe2b2323	-0.16712622
139	0xbd8ad1aa	-0.067782715
140	0xbe428709	-0.18996824
141	0x3dd34d07	0.10317426
142	0xbd4efe6b	-0.0505356
143	0xbeb32c35	-0.34994665
144	0xbea5fa29	-0.3241742
145	0xbe4537ec	-0.19259614
146	0xbe54111e	-0.20709655
147	0xbebce0cf	-0.36890265
148	0xbea187bc	-0.3154887
149	0xbe3de145	-0.18542965
150	0x3db7f3cf	0.0898205
151	0xbe45bc6d	-0.1931016
152	0xbe81f191	-0.25379613
153	0x3e1c40c3	0.1525908
154	0xbeabd9c3	-0.33564577
155	0x3ce01ce3	0.027357524
156	0x3c960f08	0.018317714
157	0x3d9b8fc0	0.075957775
158	0xbd2369d3	-0.039895844
159	0x3d3592ca	0.044329442
160	0x3c91fbfb	0.017820349
161	0xbe28a3e0	-0.16468763
162	0x3ea8b2d8	0.32948947
163	0x3e413d82	0.1887112
164	0xbe1efea1	-0.1552682
165	0x3ee84fa9	0.45373276
166	0x3f0ff4df	0.5623302
167	0x3ee80ed8	0.45323825
168	0x3e34910f	0.1763346
169	0xbe2c0f01	-0.16802599
170	0x3ef71055	0.48254648
171	0x3d3bdeb8	0.045866698
172	0x3f1b0787	0.6055836
173	0xbe60390a	-0.21896759
174	0x3e2f340b	0.17109697
175	0x3e5ba42b	0.21449344
176	0x3eb94985	0.36188903
177	0xbdbac78f	-0.09120094
178	0xbc4bd757	-0.012441478
179	0xbe8e7598	-0.27824092
180	0x3ebbe329	0.36696747
181	0xbe5ac50b	-0.21364228
182	0x3c8833e5	0.016626308
183	0x3e8db449	0.2767661
184	0x3ef8e37f	0.48611066
185	0x3d69300b	0.056930583
186	0x3e8c0174	0.2734486
187	0xbd7dc5be	-0.06195616
188	0x3ee4ccf2	0.4468761
189	0x3d11554e	0.035481744
190	0x3d8d1238	0.068882406
191	0xbdded210	-0.1087991
192	0x3dc93944	0.09825376
193	0x3df825ae	0.12116562
194	0xbd564820	-0.052314878
195	0xbe8ab849	-0.27093723
196	0x3df130d6	0.11776893
197	0xbdc6a91b	-0.09700223
198	0xbdf1474a	-0.117811754
199	0xbe20596b	-0.1565911
200	0xbcb503f4	-0.022096612
201	0x3e57ce5b	0.21074812
202	0xbcbcdbf0	-0.023054093
203	0x3ea0f346	0.31435603
204	0xbde522bd	-0.111882664
205	0x3d15480c	0.036445662
206	0xbe9758e7	-0.29560015
207	0xbd83d508	-0.06437117
208	0xbe17ee5e	-0.14837024
209	0xbd7207d0	-0.05908948
210	0x3e433124	0.19061714
211	0x3e77d55a	0.24202481
212	0xbe986543	-0.29764757
213	0x3e78158b	0.24226968
214	0x3e8f9fb1	0.28051522
215	0xbe40c3b6	-0.18824658
216	0xbe692e58	-0.22771585
217	0x3eb5a965	0.354808
218	0xbeabe816	-0.33575505
219	0x3de09bf7	0.10967248
220	0xbdd405f2	-0.103526965
221	0x3ea80885	0.32819
222	0x3e96ed18	0.29477763
223	0x3e087eb9	0.13329591
224	0x3e603de4	0.2189861
225	0x3e217f89	0.15771307
226	0xbe9a664a	-0.30156165
227	0xbd95b18a	-0.073092535
228	0x3e1b416c	0.15161675
229	0xbe89e123	-0.26929578
230	0xbca54d8c	-0.020178579
231	0xbe59a754	-0.21255237
232	0xbebd856b	-0.37015852
233	0x3d823c88	0.06359202
234	0xbdf4d4e4	-0.11954668
235	0x3e5c47ba	0.21511737
236	0xbc87c9eb	-0.016575774
237	0x3d73fd43	0.0595677
238	0xbed08e2a	-0.40733463
239	0xbdae9341	-0.0852418
240	0xbe4fc9a0	-0.20291758
241	0xbd83b70a	-0.06431396
242	0x3e86fc52	0.2636438
243	0x3e24272e	0.16030571
244	0xbed009d3	-0.40632495
245	0x3d9327f6	0.07185356
246	0x3e19f378	0.15034282
247	0xbdcc1cd7	-0.09966438
248	0xbe4183ee	-0.18897983
249	0x3ed4fddd	0.41599932
250	0xbe948347	-0.29006407
251	0x3e3c9390	0.18415666
252	0xbd9f4522	-0.07776858
253	0x3e461603	0.19344334
254	0x3e95bc8e	0.29245418
255	0x3d977fd8	0.07397431

first_h.3.bias f4 [32]
0	0xbadda744	-0.0016910811
1	0xbe606ad0	-0.21915746
2	0x3d1b9eb9	0.037993167
3	0x3e2dc6ff	0.16970442
4	0x3d4f466f	0.05060428
5	0xbdb76d8f	-0.089564435
6	0xbe8767d6	-0.26446408
7	0x3e92494c	0.28571546
8	0xbe12e158	-0.14343774
9	0xbb49d70c	-0.0030798344
10	0xbd5dc159	-0.05413947
11	0xbdce62de	-0.10077451
12	0x3e2e2875	0.1700762
13	0xbcb0195a	-0.021496464
14	0xbe1c2551	-0.1524861
15	0x3d84c16d	0.064822055
16	0xbc1fd410	-0.0097551495
17	0xbe6b1a28	-0.22959197
18	0xbce2698f	-0.027638225
19	0xbe4358a9	-0.1907679
20	0xbeaccf96	-0.33752126
21	0xbd612024	-0.054962292
22	0xbdec63fc	-0.11542508
23	0x3e0ba694	0.13637763
24	0xbd927e9f	-0.07153057
25	0xbc8209ae	-0.015873756
26	0xbdacddea	-0.08440764
27	0xbec7f817	-0.39056465
28	0xbe884061	-0.26611617
29	0xbe194ec7	-0.14971457
30	0x3b6bfc8a	0.003600868
31	0xbe777d25	-0.24168833

first_h.4.weight f4 [32]
0	0x3f55c081	0.8349686
1	0x3f49acd7	0.7877936
2	0x3f61e485	0.8823932
3	0x3f1bc0bd	0.6084097
4	0x3f67d895	0.9056485
5	0x3f684c07	0.9074101
6	0x3f5ea189	0.86965233
7	0x3f817d30	1.0116329
8	0x3f3d154a	0.7386061
9	0x3f4a8c35	0.7912019
10	0x3f6b223b	0.91849107
11	0x3f557e0e	0.8339547
12	0x3ec83175	0.39100233
13	0x3f7d3868	0.98914194
14	0x3f738b6c	0.95134616
15	0x3f31ce1a	0.6945511
16	0x3f36c8f9	0.7140041
17	0x3f5df614	0.8670361
18	0x3ef9b110	0.487679
19	0x3f70eb23	0.9410879
20	0x3f42a7e2	0.7603742
21	0x3f5937ef	0.8485097
22	0x3f5bef77	0.8591227
23	0x3ea98ae5	0.3311378
24	0x3f09b4e4	0.5379164
25	0x3f76a546	0.9634594
26	0x3f6d7e47	0.9277081
27	0x3f1b8632	0.6075164
28	0x3f3d1686	0.73862493
29	0x3f240376	0.6406778
30	0x3f4f60ea	0.81007254
31	0x3f64a1cf	0.893094

first_h.4.bias f4 [32]
0	0xbf40936a	-0.75224936
1	0xbf754a36	-0.9581636
2	0xbdab0a80	-0.08351612
3	0xbe75f869	-0.24020542
4	0xbec6ca47	-0.388262
5	0xbf0d628b	-0.5522849
6	0xbd5e2285	-0.05423214
7	0xbf097a85	-0.53702575
8	0xbe644a44	-0.22293955
9	0xbd064eb3	-0.032789897
10	0xbe03e09c	-0.1287865
11	0xbe330fd5	-0.17486508
12	0xbe270d03	-0.16313557
13	0xbedfe243	-0.43727311
14	0xbeb39593	-0.35075054
15	0xbe4e7fdb	-0.2016596
16	0xbe6174d6	-0.22017226
17	0xbf028351	-0.5098162
18	0xbe9ebcd0	-0.31003428
19	0xbdf5884c	-0.11988887
20	0xbe5deb12	-0.21671703
21	0xbe8b99b8	-0.27265716
22	0xbf33957e	-0.7014998
23	0xbe0e721d	-0.13910718
24	0xbe37fcd6	-0.17967543
25	0x3c8e6090	0.017380029
26	0xbefc71c7	-0.49305555
27	0xbf6a9c60	-0.9164486
28	0xbf1c3334	-0.6101563
29	0xbe117392	-0.14204243
30	0xbed1c551	-0.40970853
31	0xbee8c653	-0.4546381

first_h.4.running_mean f4 [32]
0	0x3ea9efb2	0.33190686
1	0xbcdf7590	-0.027277738
2	0xbe429e39	-0.1900567
3	0x3d7e9f0d	0.0621634
4	0xbefbe583	-0.4919854
5	0x3f56ba6a	0.83878195
6	0xbeec085f	-0.46100137
7	0xbd3c2797	-0.045936193
8	0xbf302d30	-0.6881895
9	0xbf431677	-0.76206154
10	0xbfb5c3df	-1.42004
11	0xbea035fd	-0.3129119
12	0x3e996add	0.29964343
13	0xbed604c2	-0.41800505
14	0xbe87df99	-0.2653778
15	0x3f10e147	0.56593746
16	0xbe9246f6	-0.28569764
17	0x3f02d06f	0.51099294
18	0x3f583e52	0.84470093
19	0xbeb5c6f9	-0.35503367
20	0xbef460d8	-0.47730136
21	0xbe149380	-0.14509392
22	0xbeb77e55	-0.3583857
23	0x3e883c4b	0.266085
24	0x3e298cdb	0.16557638
25	0xbe2ab2c2	-0.16669753
26	0xbf94092f	-1.1565303
27	0xbf094b0e	-0.5363015
28	0x3f1f6852	0.62268555
29	0x3e1f900d	0.15582295
30	0xbe621ebe	-0.2208204
31	0xbeeeabb9	-0.4661539

first_h.4.running_var f4 [32]
0	0x40429483	3.0403144
1	0x3f79216b	0.97316617
2	0x402a25e3	2.6585624
3	0x3f98d6e7	1.1940583
4	0x411e6bbd	9.901303
5	0x42043f00	33.061523
6	0x40bf6210	5.9807205
7	0x41137992	9.21718
8	0x410d8283	8.844363
9	0x41cc78fd	25.559076
10	0x429c8712	78.26381
11	0x3f7bb03b	0.9831578
12	0x3f8c5f8a	1.0966656
13	0x413d02e9	11.8132105
14	0x404bd3ba	3.1847978
15	0x415c8fbe	13.785093
16	0x3fbff388	1.4996195
17	0x4149b0f0	12.605698
18	0x4202c8a3	32.695934
19	0x4076a69d	3.8539193
20	0x3f3a57d3	0.7279026
21	0x3eeb2864	0.45929253
22	0x3fc1803d	1.511726
23	0x3f0c4fb7	0.54809135
24	0x40d7b91f	6.741348
25	0x404a9dc0	3.1658783
26	0x41f83596	31.026165
27	0x4173c678	15.235954
28	0x41ed3fe0	29.656189
29	0x40d01c36	6.5034437
30	0x407a0e74	3.9071321
31	0x411735c4	9.450626

nns.0.0.weight f4 [32, 32]
0	0xbeee2f9c	-0.46520698
1	0xbef1b143	-0.47205552
2	0xbe63fa2a	-0.22263399
3	0xbeac8e49	-0.33702305
4	0xbe0d4933	-0.13797455
5	0xbe9df837	-0.30853435
6	0xbd2132f6	-0.03935524
7	0xbe3fa44c	-0.18715018
8	0xbd8ecb9f	-0.069724314
9	0x3db232b7	0.08701079
10	0x3e464a5b	0.19364302
11	0x3ea0b7de	0.3139028
12	0xbe00b5fa	-0.12569419
13	0xbec6e171	-0.38843873
14	0xbe8fd371	-0.28091004
15	0xbe8fe5a1	-0.2810488
16	0x3cd2a160	0.025711715
17	0xbe923558	-0.28556323
18	0xbe57e04b	-0.21081655
19	0xbc0cef6f	-0.008602007
20	0x3dc24b69	0.094870396
21	0x3cab9c58	0.020948574
22	0xbe05aa50	-0.1305325
23	0xbeb2e1e9	-0.3493798
24	0xbeef0ea7	-0.46690866
25	0xbcb809de	-0.022465643
26	0xbea93c50	-0.33053827
27	0xbd763c12	-0.06011588
28	0xbeee8763	-0.46587667
29	0xbe9b31a3	-0.30311307
30	0xbe9e518d	-0.30921593
31	0xbd4b64a5	-0.04965653
32	0x3f236bde	0.6383647
33	0x3f0e5082	0.55591595
34	0xbeb3c59c	-0.351117
35	0xbe686a48	-0.22696793
36	0xbe002a21	-0.12516071
37	0x3dff87de	0.124770865
38	0xbe6cfdd3	-0.23143701
39	0x3cc8eefa	0.024528015
40	0xbde20cb6	-0.11037581
41	0xbf11298f	-0.5670404
42	0xbec74f42	-0.38927656
43	0xbde89bf6	-0.11357872
44	0x3ecabe5e	0.39598364
45	0xbeb3c38c	-0.35110128
46	0xbea839c0	-0.3285656
47	0x3e161571	0.14656617
48	0x3da20e0f	0.07912838
49	0x3ea0a1b0	0.31373358
50	0xbe9a38c1	-0.30121425
51	0xbf13d995	-0.5775388
52	0x3e23ebfc	0.1600799
53	0xbd08602b	-0.033294838
54	0x3d2abb81	0.041682724
55	0x3e52a3d5	0.2057031
56	0x3e49df4a	0.19714084
57	0xbee58475	-0.4482762
58	0xbe52432c	-0.20533437
59	0xbdcea0a3	-0.10089233
60	0x3d6ade12	0.05734069
61	0x3e83b717	0.25725624
62	0x3e1ce84c	0.15322989
63	0x3e634507	0.221943
64	0xbeb869d8	-0.36018252
65	0xbeaff501	-0.3436661
66	0xbe0d04b9	-0.13771333
67	0x3d1fceae	0.039015464
68	0xbe15070f	-0.14553474
69	0xbe8cd830	-0.27508688
70	0xbdd5b74f	-0.10435354
71	0xbea24c61	-0.31698897
72	0x3e2466eb	0.16054885
73	0x3d31a57f	0.04337072
74	0x3dbbfef4	0.09179488
75	0xbdde395f	-0.108507864
76	0xbe9ad39b	-0.30239567
77	0xbe85f6a0	-0.26164722
78	0xbe8b85e4	-0.27250588
79	0xbd9cd8c2	-0.07658531
80	0xbd2a9e04	-0.0416546
81	0xbe8a7a9b	-0.27046666
82	0xbe932c3c	-0.28744686
83	0xbe2200dd	-0.15820642
84	0x3e30c7e5	0.17263754
85	0xbd846dda	-0.06466265
86	0xbe2fc3ee	-0.17164585
87	0xbe87e4f4	-0.26541865
88	0x3daa6f18	0.08321971
89	0xbe30e232	-0.17273787
90	0xbe20eef3	-0.15716152
91	0x3cc5b42d	0.024133766
92	0xbea95cd0	-0.33078623
93	0x3e66bca7	0.22532903
94	0x3c5eea6a	0.013605693
95	0xbd94c769	-0.07264597
96	0x3c47d96d	0.012197834
97	0xbd5e1425	-0.05421843
98	0xbe13418c	-0.14380473
99	0xbdd41788	-0.10356051
100	0x3e2f68c7	0.17129813
101	0x3d1e2b49	0.0386155
102	0xbdf4790c	-0.1193715
103	0x3dd7ea4f	0.10542738
104	0xbe2712f7	-0.16315828
105	0xbd5f4c70	-0.054516256
106	0xbe509d46	-0.20372495
107	0xbc92e34b	-0.017930647
108	0xbe84b348	-0.2591803
109	0xbdb1a3a5	-0.08673791
110	0xbdb7d80e	-0.08976756
111	0xbe67a394	-0.22620994
112	0xbb42a410	-0.002969984
113	0x3c1e48e9	0.009660938
114	0xbec6fe5c	-0.38865936
115	0xbd8521b8	-0.06500572
116	0xbd8382a0	-0.06421399
117	0x3da3455f	0.07972216
118	0xbcb8b3aa	-0.022546608
119	0xbd313ad5	-0.043268997
120	0xbcdd29a5	-0.026997397
121	0xbe511ac0	-0.2042036
122	0xbde64d01	-0.11245156
123	0x3cde9add	0.027173454
124	0x3e0ede14	0.13951904
125	0x3d2151c9	0.039384637
126	0xbe2adf10	-0.16686654
127	0x3e13c65c	0.14431137
128	0x3ef97397	0.48721
129	0x3e82bd1a	0.25534898
130	0xbf184a86	-0.59488714
131	0xbf15abb4	-0.58465123
132	0xbe527495	-0.20552285
133	0x3c963956	0.018337887
134	0xbe8cc180	-0.2749138
135	0xbdae4712	-0.08509649
136	0xbdbc9ff9	-0.092102
137	0xbf0195d1	-0.50619227
138	0xbf07d550	-0.53059864
139	0x3dd42b65	0.10359839
140	0x3de10a34	0.10988274
141	0xbd93392e	-0.071886405
142	0x3c0510b1	0.008121655
143	0x3f5c6b60	0.8610134
144	0xbde5ad63	-0.112147115
145	0x3eddf0af	0.4334769
146	0x3efc2db9	0.49253634
147	0xbf30624b	-0.68899983
148	0x3d8dc989	0.069232054
149	0x3dd1f9fb	0.10252758
150	0xbd7c6c96	-0.061626993
151	0x3e196d83	0.14983182
152	0xbe742ff1	-0.23846413
153	0xbebe8101	-0.37207797
154	0xbe33b69b	-0.17550127
155	0xbe45abe2	-0.1930385
156	0xbe32dd2b	-0.17467181
157	0xbe8be827	-0.27325556
158	0x3d225a0d	0.03963666
159	0xbc031b4f	-0.008002116
160	0x3d4208d2	0.047371693
161	0xbd4fdcba	-0.05074761
162	0xbda13e97	-0.07873266
163	0xbe9f357d	-0.31095496
164	0x3e51a44b	0.20472829
165	0x3e8035a3	0.25040922
166	0xbe1fcf59	-0.1560644
167	0x3dbca478	0.092110574
168	0xbdee56cc	-0.11637649
169	0xbe826da1	-0.25474265
170	0xbe02ef1e	-0.12786528
171	0xbecf391a	-0.40473253
172	0xbe485478	-0.19563472
173	0x3ddb759c	0.107157916
174	0x3e2e7f88	0.17040837
175	0x3afdcdb5	0.0019363674
176	0xbe9c92c8	-0.30580735
177	0x3cfc2f74	0.030784346
178	0xbe586276	-0.2113131
179	0xbe5153cc	-0.20442122
180	0x3e2e4e14	0.17021972
181	0xbcf1b692	-0.029506002
182	0x3c3de202	0.011589529
183	0xbe34e4b3	-0.17665367
184	0xbc51371d	-0.012769488
185	0xbd91e808	-0.071243346
186	0x3dfc4d57	0.12319439
187	0x3e89e819	0.2693489
188	0x3e41deab	0.18932597
189	0xbe99a943	-0.3001195
190	0x3d804ca0	0.06264615
191	0x3e56c66b	0.20974128
192	0xbde5c325	-0.112188615
193	0xbe4f01a0	-0.20215464
194	0xbe3e726c	-0.18598336
195	0xbe4c57de	-0.19955394
196	0xbdc499da	-0.09599657
197	0x3d5a7872	0.05333752
198	0xbe7c66ed	-0.24648638
199	0xbd50ee0b	-0.051008265
200	0x3dd9feae	0.106442794
201	0xbe80b973	-0.25141487
202	0xbcdb0902	-0.026737694
203	0x3ced808e	0.028991964
204	0xbe06dfcb	-0.13171308
205	0xbdc0cdce	-0.09414254
206	0xbdf06fcd	-0.11740074
207	0xbe89643e	-0.2683429
208	0xbdae61d1	-0.08514751
209	0xbdd0f730	-0.10203397
210	0xbc96d6c5	-0.018412957
211	0xbdaa11ee	-0.08304201
212	0xbe0d0644	-0.13771921
213	0x3adf28a7	0.0017025665
214	0x3d870d35	0.06594316
215	0x3db7f3ab	0.08982023
216	0xbdb20842	-0.08692981
217	0xbea5f043	-0.32409868
218	0x3cda321d	0.026635224
219	0x3dbf2b38	0.09334415
220	0xbe105d15	-0.14098008
221	0xbe1f885d	-0.15579362
222	0x3dc17bbd	0.09447429
223	0xbe283ed8	-0.16430223
224	0x3eca8358	0.39553332
225	0x3eb37b7f	0.35055158
226	0xbe61a14b	-0.22034185
227	0xbe8d5619	-0.2760475
228	0xbd29a895	-0.041420538
229	0x3d5e61ff	0.054292675
230	0x3d6330be	0.055466406
231	0xbce3f5c1	-0.027827146
232	0xbd14bf77	-0.036315408
233	0xbe55476f	-0.20828031
234	0xbe8c588f	-0.27411315
235	0x3e06695e	0.13126132
236	0x3e6ed5da	0.23323765
237	0xbd840bd7	-0.06447571
238	0xbe01342d	-0.1261756
239	0x3f1dc097	0.61621994
240	0x3d015198	0.031571954
241	0x3ef856f2	0.48503834
242	0x3e8207fc	0.25396717
243	0xbe9fbab9	-0.31197146
244	0x3e92a0ac	0.28638208
245	0x3e745814	0.23861724
246	0x3d9cf0db	0.07663127
247	0x3e85ad8f	0.26108977
248	0x3ecb522a	0.39711124
249	0xbf02305a	-0.5085503
250	0xbe5072d2	-0.203563
251	0xbe942d84	-0.28940976
252	0xbd31b24b	-0.043382924
253	0x3ea77732	0.32708126
254	0x3dffa20f	0.12482082
255	0x3dba8545	0.091074504

nns.0.0.bias f4 [32]
0	0xbe3915c0	-0.18074703
1	0x3dd04e18	0.10171145
2	0x3e089c06	0.13340768
3	0x3d00d184	0.03144981
4	0x3ce6c6fa	0.028171051
5	0xbbaeaa1f	-0.0053303386
6	0xbcd6f0c9	-0.026237862
7	0xbd8e6227	-0.06952315
8	0x3dc1d902	0.09465219
9	0xbd8d6f5b	-0.06906005
10	0x3ccc6c7e	0.024954077
11	0xbe1d9114	-0.15387374
12	0x3d3510ef	0.044205602
13	0xbe1434ac	-0.14473218
14	0x3dad4b1c	0.084615916
15	0xbd86efdf	-0.065887205
16	0xbd81373f	-0.063093655
17	0xbe121a81	-0.14267923
18	0x3df34500	0.11878395
19	0x3e2dfa8a	0.16990104
20	0xbcb209f1	-0.021733256
21	0xbe578309	-0.2104608
22	0x3e12d70a	0.14339843
23	0xbe4cd910	-0.20004678
24	0x3e5e97b2	0.21737555
25	0xbd746be0	-0.05967319
26	0xbe047510	-0.12935281
27	0x3deff515	0.117166676
28	0x3dd010ac	0.1015943
29	0xbd209e33	-0.03921337
30	0x3e97f95a	0.29682428
31	0xbc8dcf72	-0.017310832

nns.0.1.weight f4 [32]
0	0x3f4eac1c	0.8073137
1	0x3fa2e1e9	1.2725192
2	0x3f3cb488	0.7371297
3	0x3f67c0e0	0.9052868
4	0x3f70f104	0.9411776
5	0x3f88e1e9	1.0693942
6	0x3f67e024	0.90576386
7	0x3f3da58c	0.7408073
8	0x3f56fead	0.83982354
9	0x3f8d5ead	1.1044518
10	0x3f9d78f4	1.2302537
11	0x3f8b696c	1.0891547
12	0x3f84aec5	1.0365835
13	0x3f84046b	1.0313848
14	0x3f699c75	0.9125436
15	0x3f48ad5c	0.78389525
16	0x3f3fe985	0.749657
17	0x3f7c2009	0.9848638
18	0x3f761340	0.96123123
19	0x3f83a902	1.0285952
20	0x3fbee238	1.4912786
21	0x3f7408c9	0.95325905
22	0x3f8f4b03	1.1194767
23	0x3f40bc90	0.75287724
24	0x3f6b7c43	0.91986483
25	0x3f804a0e	1.00226
26	0x3f5194fb	0.8186795
27	0x3fbae2d2	1.460047
28	0x3f5a2088	0.8520589
29	0x3f7baceb	0.98310727
30	0x3f59a351	0.85014826
31	0x3f670784	0.9024584

nns.0.1.bias f4 [32]
0	0xbeaa933d	-0.3331546
1	0xbf145654	-0.57944226
2	0xbeb2e263	-0.34938344
3	0xbec3a76e	-0.38213676
4	0xbee24bb4	-0.44198382
5	0xbf04620f	-0.51712126
6	0xbed68453	-0.4189783
7	0xbee2dac1	-0.4430752
8	0xbd1027f9	-0.03519437
9	0xbf076c86	-0.5289997
10	0x3e444a0a	0.19168869
11	0xbf113bb8	-0.5673175
12	0x3be91459	0.0071130213
13	0x3e002275	0.12513144
14	0x3efedb54	0.4977671
15	0xbec13934	-0.37738955
16	0xbea391bc	-0.31947124
17	0x3e7c56ed	0.24642535
18	0xbf4d06f4	-0.80088735
19	0xbe428cc6	-0.18999013
20	0x3f0b1fdf	0.54345506
21	0xbe72622f	-0.23670267
22	0x3d5ccc8d	0.053906012
23	0xbec45ef3	-0.3835369
24	0xbe95b495	-0.29239336
25	0x3e67035a	0.22559872
26	0xbe963a37	-0.2934129
27	0xbe887771	-0.26653627
28	0xbea46b11	-0.32112935
29	0xbe298140	-0.16553211
30	0xbf76b378	-0.963676
31	0xbea05097	-0.31311485

nns.0.1.running_mean f4 [32]
0	0xbf91e372	-1.1397536
1	0x3e0e5d04	0.1390267
2	0xbf0b49f8	-0.5440974
3	0xbe9f2396	-0.31081837
4	0xbd9229c5	-0.07136873
5	0xbe7d111a	-0.24713555
6	0xbf2b5583	-0.66927356
7	0x3eb6cda2	0.3570376
8	0xbdfd567e	-0.12370013
9	0xbef28c13	-0.47372493
10	0xbefb7399	-0.49111632
11	0x3b8ff70e	0.004393465
12	0xbe2af47d	-0.16694827
13	0xbfb28061	-1.3945428
14	0xbe110017	-0.1416019
15	0xbf306473	-0.68903273
16	0xbe4120f0	-0.18860221
17	0xbef04310	-0.46926165
18	0x3e1f28b4	0.15542871
19	0x3f2fad11	0.68623453
20	0xbf91da30	-1.139471
21	0xbed08837	-0.40728924
22	0x3f29a15c	0.6626184
23	0xbe7eeacd	-0.24894257
24	0x398135cf	0.00024644888
25	0x3ee90694	0.4551283
26	0x3dc6fd9a	0.097163394
27	0x3eef402c	0.46728647
28	0xbe85f284	-0.26161587
29	0xbefb7619	-0.4911354
30	0x3eb6410d	0.35596505
31	0xbeb72daf	-0.3577704

nns.0.1.running_var f4 [32]
0	0x43869515	269.1647
1	0x430deddb	141.92912
2	0x42b5b886	90.8604
3	0x40ac3562	5.3815165
4	0x42c1dd29	96.93195
5	0x3ee35a9a	0.4440506
6	0x41c82c5b	25.021658
7	0x4350f6c4	208.96393
8	0x41c2daf2	24.356907
9	0x419fb4e3	19.963324
10	0x41eea98c	29.832787
11	0x42bc60ed	94.18931
12	0x3ef16529	0.47147492
13	0x439d88e6	315.06952
14	0x3fcacc47	1.584359
15	0x41b05253	22.040197
16	0x3fb05880	1.3777008
17	0x41ae094d	21.754541
18	0x426982cc	58.37773
19	0x430c4296	140.2601
20	0x41006d79	8.026727
21	0x3f5f9139	0.8733097
22	0x42160941	37.509037
23	0x41ebf29b	29.49346
24	0x401a8f74	2.4150057
25	0x404a805c	3.1640844
26	0x42d07cfb	104.2441
27	0x41e5bb2e	28.716396
28	0x4227999e	41.900017
29	0x411e13ea	9.879862
30	0x41dfc120	27.9693
31	0x41406911	12.025651

nns.0.3.weight f4 [32, 32]
0	0xbc8a0501	-0.01684809
1	0xbd840d46	-0.06447844
2	0xbe85019f	-0.259778
3	0xbd73dce6	-0.059536837
4	0x3e498132	0.1967819
5	0x3e2eb5db	0.1706156
6	0x3c0437d1	0.008069948
7	0xbe876a06	-0.26448077
8	0xbd488962	-0.048959143
9	0x3e01946d	0.12654276
10	0x3e999f3b	0.30004296
11	0x3e01e404	0.12684637
12	0x3e87f8fc	0.26557148
13	0x3e4e1ec8	0.2012893
14	0x3c90cb12	0.017674956
15	0xbe3b4cbb	-0.18290989
16	0x3e51ecf8	0.20500553
17	0x3e694645	0.22780712
18	0x3e1c2406	0.15248117
19	0xbde98be9	-0.11403639
20	0x3e226c35	0.1586159
21	0x3d9f185a	0.077683166
22	0xbc8badb8	-0.017050609
23	0x3d51175a	0.05104766
24	0xbdbb6ab9	-0.09151215
25	0xbc99da89	-0.018780963
26	0x3e4f137b	0.20222275
27	0x3e3b12c5	0.18268879
28	0xbd3456c4	-0.04402806
29	0x3d879e99	0.06622047
30	0xbd9240f9	-0.07141299
31	0x3e0a8130	0.13525844
32	0xbd46ec2d	-0.04856508
33	0xbe22d780	-0.15902519
34	0xbb781cd0	-0.003785897
35	0xbbebb056	-0.0071926517
36	0xbeece6d3	-0.46269855
37	0xbe162f61	-0.14666511
38	0x3dc52b3d	0.09627388
39	0xbea4f701	-0.322197
40	0xbd8e4deb	-0.069484554
41	0xbdc25b3b	-0.09490057
42	0x3e69cf8a	0.22833076
43	0xbedac144	-0.42725575
44	0xbd898818	-0.06715411
45	0x3d93d40e	0.072181806
46	0x3d434b3b	0.047679167
47	0xbe1fc501	-0.15602495
48	0xbc61f813	-0.013792056
49	0x3e3a4238	0.18189323
50	0xbdd9bef6	-0.10632126
51	0xbcd7d4bf	-0.026346562
52	0x3ea57667	0.32316896
53	0xbe3598fb	-0.17734139
54	0xbe9c4695	-0.305226
55	0xbe8c3677	-0.27385303
56	0x3d6485cf	0.055791672
57	0xbdd7b5b6	-0.105327055
58	0xbc43b1e3	-0.011944267
59	0xbde6e954	-0.112749726
60	0xbe4c5436	-0.19953999
61	0xbe3f6987	-0.18692599
62	0xbea64e21	-0.32481483
63	0xbe3ae564	-0.18251568
64	0x3d61caec	0.055125162
65	0x3e2ff111	0.17181803
66	0xbe39432e	-0.18092033
67	0x3e32c9fa	0.1745986
68	0x3e545186	0.20734224
69	0x3eb68617	0.35649177
70	0x3daf1db0	0.08550584
71	0x3df891a2	0.12137152
72	0x3e1c1bcb	0.15244977
73	0x3e9306c2	0.28716093
74	0x3f256bb2	0.64617455
75	0x3e04ec4f	0.1298077
76	0x3e78be22	0.2429128
77	0x3dca6fe8	0.09884626
78	0x3dae9835	0.08525125
79	0xbe05dbc2	-0.13072112
80	0x3dd33b02	0.10313989
81	0x3ee30468	0.443393
82	0x3ea3cd72	0.3199268
83	0xbd8e138b	-0.06937321
84	0x3da46ed6	0.08028953
85	0xbd53ea18	-0.05173692
86	0xbdceb7f5	-0.10093681
87	0x3d431a62	0.047632582
88	0xbca7d84f	-0.020488886
89	0xbd3b5399	-0.04573402
90	0xbd86dec6	-0.065854594
91	0x3dd6b850	0.104843736
92	0x3d92b8cf	0.07164156
93	0x3e8940dc	0.26807296
94	0x3e373f77	0.17895304
95	0xbd823a4d	-0.06358776
96	0x3da9da8a	0.08293636
97	0xbc82b4ae	-0.015955295
98	0x3c13d016	0.0090217795
99	0xbe15a807	-0.14614879
100	0x3ddb0d12	0.10695852
101	0xbd6c3978	-0.057671994
102	0xbc8a687a	-0.016895521
103	0xbd0eae4f	-0.034834202
104	0xbe2280e2	-0.15869477
105	0x3df1535b	0.11783477
106	0x3d54d28c	0.051958606
107	0xbe584b8d	-0.2112257
108	0xbe33344e	-0.17500421
109	0x3ca6b724	0.020351
110	0x3e08b731	0.13351132
111	0x3d94957c	0.072550744
112	0x3dc1a1f2	0.09454717
113	0x3bb972f0	0.0056594536
114	0x3d111a0a	0.035425223
115	0xbe427525	-0.1899
116	0x3d818855	0.063248314
117	0x3d077153	0.03306706
118	0xbe53d21b	-0.20685618
119	0xbd8deacd	-0.0692955
120	0xbd0b207a	-0.03396652
121	0x3ceb967f	0.028758286
122	0x3dc0eee8	0.09420568
123	0xbe119972	-0.14218691
124	0xbe247803	-0.16061406
125	0xbe5e088a	-0.21682945
126	0xbe31a7d4	-0.17349178
127	0xbdae4bc2	-0.085105434
128	0xbe8141f4	-0.2524563
129	0xbe8fefa1	-0.2811251
130	0xbd149889	-0.03627828
131	0x3d1c07c6	0.03809335
132	0xbed7c6a2	-0.42143732
133	0xbe22fa45	-0.15915783
134	0xbe3b0e7f	-0.18267249
135	0xbbd93d23	-0.0066296025
136	0x3d93108f	0.07180893
137	0xbdcc6d75	-0.09981815
138	0xbe0934a7	-0.13398992
139	0xbed09ee3	-0.4074622
140	0x3bfa4a02	0.007638217
141	0xbe209684	-0.15682417
142	0x3e231cdf	0.15928982
143	0xbe1f9182	-0.1558285
144	0x3db550ea	0.08853324
145	0xbd87f683	-0.06638815
146	0xbe1c3adc	-0.15256828
147	0xbe852e16	-0.26011723
148	0xbda66b9e	-0.08125995
149	0xbe6492c6	-0.22321615
150	0xbe89bdb6	-0.2690255
151	0xbec1674c	-0.37774122
152	0xbe47d1e4	-0.1951366
153	0xbe584e7d	-0.21123691
154	0xbe442492	-0.19154575
155	0xbc293e73	-0.01032983
156	0xbe3e361e	-0.18575332
157	0xbeb73054	-0.3577906
158	0xbcebe64e	-0.028796341
159	0x3ab256fc	0.0013606246
160	0xbe09d196	-0.13458857
161	0xbd0a42ba	-0.03375504
162	0xbe14f7cb	-0.1454765
163	0xbdc880e2	-0.097902074
164	0x3ef7c7a2	0.48394495
165	0x3c97622c	0.01847943
166	0xbdac6a2a	-0.08418687
167	0x3e270acd	0.16312714
168	0x3e33586d	0.175142
169	0xbe28832a	-0.16456285
170	0x3da28948	0.079363406
171	0x3e24116c	0.16022271
172	0x3e2631fa	0.16230002
173	0x3e2d366a	0.16915289
174	0x3e1b4cf0	0.15166068
175	0x3ddb4239	0.1070599
176	0xbcd20584	-0.025637396
177	0x3e86fa09	0.26362637
178	0x3d49b629	0.049245987
179	0x3dcbf7e2	0.09959389
180	0x3da9a345	0.08283094
181	0xbd1e2442	-0.038608797
182	0xbcf29817	-0.029613538
183	0xbdefeed6	-0.11715476
184	0x3d8f3685	0.06992821
185	0x3dc8196e	0.09770475
186	0x3d50a3de	0.050937526
187	0x3edfd765	0.4371902
188	0xbd629522	-0.055318005
189	0x3e2e8f27	0.17046796
190	0x3d729ceb	0.05923168
191	0x3e303063	0.17205958
192	0x3e2a97cf	0.16659473
193	0xbe11fcaa	-0.1425654
194	0xbea9cea3	-0.33165464
195	0xbe1b44e2	-0.15162995
196	0xbecc4eb7	-0.39903805
197	0x3cdea87e	0.027179953
198	0x3b91b9bb	0.0044471896
199	0xbe6a2e3b	-0.22869198
200	0x3d38b47c	0.045094
201	0xbe2fd571	-0.17171265
202	0x3e60ab45	0.21940334
203	0xbef63b33	-0.4809204
204	0xbe24e27e	-0.16102025
205	0x3de0ce62	0.109768644
206	0x3d798bc6	0.060924314
207	0xbe3cfb0c	-0.18455142
208	0x3decdd9e	0.115657076
209	0x3d1feff0	0.03904718
210	0xbdefa1a4	-0.117007524
211	0xbe8575a6	-0.2606632
212	0x3e0e7d9f	0.13915108
213	0xbdc92898	-0.09822196
214	0xbde549bf	-0.111957066
215	0x3de4898e	0.11159049
216	0x3d6a4d84	0.05720283
217	0xbe9779cb	-0.29585108
218	0x3d3e1a35	0.04641171
219	0xbdbe8fe3	-0.09304788
220	0x3db11bfe	0.08647917
221	0x3c85c127	0.016327454
222	0x3cc7178c	0.02430322
223	0xbd6dbf8d	-0.058044005
224	0x3e96c613	0.29447994
225	0x3dfa3fc9	0.12219197
226	0xbe2f0a04	-0.17093664
227	0x3de8de34	0.11370507
228	0x3e5eb715	0.21749528
229	0x3dd5253c	0.104074925
230	0xbe0387e4	-0.12844807
231	0xbe2a2532	-0.16615751
232	0x3e6705c4	0.22560793
233	0x3dea110e	0.11429034
234	0x3eb1eba7	0.347501
235	0x3e6da2fb	0.23206703
236	0x3e6ce2c9	0.23133387
237	0x3ebbbb40	0.36666298
238	0x3e9a2ea6	0.30113715
239	0xbb268c2c	-0.0025413139
240	0x3c9fb9a5	0.019497702
241	0x3eabfda2	0.33591944
242	0x3e6e8d88	0.23296177
243	0xbe7d9bb9	-0.24766435
244	0x3ec6b58a	0.38810378
245	0xbde810ae	-0.113313064
246	0xbe13b254	-0.14423496
247	0xbe463f7d	-0.19360156
248	0xbdca8b9b	-0.09889909
249	0x3e112d6c	0.14177483
250	0xbd44f315	-0.048083384
251	0x3f0c0b0f	0.54704374
252	0x3e164027	0.1467291
253	0xbd87bd63	-0.066279195
254	0x3ebcf291	0.36903813
255	0x3dac744f	0.084206216

nns.0.3.bias f4 [32]
0	0x3d96f616	0.07371156
1	0xbddca5d5	-0.107738174
2	0xbda03e5d	-0.07824395
3	0xbd259cef	-0.040432867
4	0x3e0a95ac	0.13533658
5	0xbe0a159d	-0.13484807
6	0x3e299f66	0.16564712
7	0xbe360173	-0.1777399
8	0xbdaae8e4	-0.083452016
9	0xbc5620eb	-0.013069372
10	0x3e115d3b	0.14195721
11	0xbcf06479	-0.029344784
12	0x3df1be44	0.118038684
13	0x3c0f6692	0.008752482
14	0xbd44c4dd	-0.048039306
15	0xbe50ff60	-0.20409918
16	0x3ea47cac	0.32126367
17	0x3df6683f	0.12031602
18	0x3e7b4bc5	0.24540623
19	0xbda0b113	-0.07846274
20	0xbc233a2e	-0.009962602
21	0x3e28d27e	0.16486546
22	0x3e03911f	0.12848328
23	0xbdb2e10d	-0.08734331
24	0x3e3434fc	0.17598337
25	0x3e597ceb	0.21239059
26	0x3e46d40c	0.19416827
27	0xbe2cd918	-0.1687969
28	0xbdd44475	-0.1036462
29	0xbe4bfe18	-0.19921148
30	0x3d21e020	0.039520383
31	0xbd7df993	-0.06200559

nns.0.4.weight f4 [32]
0	0x3f49b0fa	0.7878567
1	0x3f47f6fd	0.7811125
2	0x3efd07e4	0.49420083
3	0x3f6b8c5f	0.92011064
4	0x3f40381c	0.75085616
5	0x3f1caecb	0.6120421
6	0x3f78da41	0.9720803
7	0x3efe5b63	0.49679098
8	0x3f14655a	0.5796715
9	0x3f309295	0.68973666
10	0x3f62ba61	0.8856564
11	0x3f5eca76	0.8702768
12	0x3f4296d8	0.7601142
13	0x3f75a3bc	0.95952964
14	0x3f4f007f	0.8086013
15	0x3f84e670	1.0382824
16	0x3f2c67f4	0.6734612
17	0x3f7c4988	0.985497
18	0x3f477114	0.7790692
19	0x3f28396b	0.6571261
20	0x3f6bb889	0.92078453
21	0x3f73328f	0.9499902
22	0x3f7c63fb	0.9859006
23	0x3f4351e8	0.76296854
24	0x3f21aaaf	0.6315107
25	0x3ed12266	0.40846556
26	0x3f6443e6	0.89166105
27	0x3f627571	0.8846045
28	0x3f1e3bdf	0.61810106
29	0x3f426a4f	0.75943464
30	0x3f32b9b1	0.6981459
31	0x3f6b8a13	0.9200756

nns.0.4.bias f4 [32]
0	0xbf1d3cb6	-0.6142076
1	0xbec0173c	-0.37517726
2	0xbedfea13	-0.43733272
3	0xbec25c9c	-0.3796128
4	0xbebf0990	-0.37311983
5	0xbee787c3	-0.45220765
6	0xbe5ede78	-0.21764553
7	0xbed0cf0e	-0.4078297
8	0xbe86ca87	-0.2632639
9	0xbe9b30e3	-0.30310735
10	0xbe833938	-0.25629592
11	0xbe639f42	-0.22228721
12	0xbe875753	-0.2643381
13	0x3d4657b2	0.048423477
14	0xbe8fc9a3	-0.28083524
15	0xbf00a847	-0.5025677
16	0xbe1f7555	-0.15572102
17	0xbef992f5	-0.48744932
18	0xbe561499	-0.20906295
19	0xbe8442ad	-0.2583212
20	0xbe9ea9c1	-0.30988887
21	0xbf3a2fcc	-0.7272918
22	0xbe89c884	-0.26910794
23	0xbe585733	-0.21127014
24	0xbe2d662a	-0.16933504
25	0xbeb37c6c	-0.35055864
26	0xbeb4c360	-0.3530531
27	0xbea7f0a9	-0.32800797
28	0xbf5e2aac	-0.8678386
29	0xbeca8be5	-0.39559856
30	0xbe877d98	-0.26463008
31	0xbe74a63f	-0.23891543

nns.0.4.running_mean f4 [32]
0	0x3ee4e488	0.44705606
1	0x3e113006	0.14178476
2	0x3ed63e73	0.4184452
3	0x3cef3299	0.029198932
4	0xbda57c64	-0.08080366
5	0x3e84fa52	0.2597223
6	0x3e5fc969	0.21854176
7	0x3f29a0f5	0.66261226
8	0xbcc923d1	-0.024553211
9	0x3e8a9528	0.27066922
10	0xbac2a534	-0.001485026
11	0x3eecc5ae	0.46244568
12	0x3b697312	0.0035621566
13	0x3fbb7c0c	1.4647231
14	0xbe286b99	-0.16447295
15	0xbe67c019	-0.22631873
16	0x3d2da08c	0.042389438
17	0x3fb4be29	1.4120532
18	0x3e464a95	0.19364388
19	0x3db1ebcb	0.08687552
20	0xbd44a9f3	-0.04801364
21	0x3f5d6a4e	0.86490333
22	0x3d45d691	0.04830033
23	0xbd965aea	-0.07341559
24	0xbb5409d7	-0.0032354498
25	0x3f13ddff	0.57760614
26	0xbcf1f454	-0.02953545
27	0x3c6dba61	0.014509768
28	0x3e29a44b	0.16566579
29	0x3df2ecf0	0.118615985
30	0x3f183d16	0.5946821
31	0x3ecbfce6	0.39841384

nns.0.4.running_var f4 [32]
0	0x3e4389e8	0.19095576
1	0x40c6d8b7	6.2139544
2	0x3f6cd237	0.9250826
3	0x3f3d7a17	0.7401442
4	0x40c75f46	6.23038
5	0x400ed542	2.2317662
6	0x407606a7	3.844156
7	0x3fd03fab	1.626943
8	0x400478db	2.0698764
9	0x3fe0bd5c	1.7557788
10	0x3f782c27	0.9694237
11	0x40b159ec	5.542227
12	0x3fdfe446	1.7491539
13	0x40a89331	5.2679677
14	0x3f8debb9	1.1087562
15	0x3ede0dc1	0.43369868
16	0x3fcaa406	1.5831306
17	0x4005f0f7	2.0928323
18	0x3f3a8eea	0.7287432
19	0x3f2d5676	0.67710054
20	0x3f5da5c3	0.8658106
21	0x3ece06a0	0.4023943
22	0x3eb83522	0.35978037
23	0x3fbc42a9	1.4707843
24	0x400c4162	2.1914907
25	0x3fe1fc25	1.7655073
26	0x4018591d	2.380439
27	0x3f8f695b	1.1204027
28	0x40824683	4.0711074
29	0x40c3df7a	6.12103
30	0x4003faa6	2.0621734
31	0x3fa97993	1.3240227

nns.1.0.weight f4 [32, 32]
0	0x3e800aa1	0.2500811
1	0xbd0d67a3	-0.034522664
2	0x3e3219f1	0.17392708
3	0xbe3ecaed	-0.18632098
4	0xbcb64346	-0.022248875
5	0x3dcda20c	0.100406736
6	0x3e133830	0.14376903
7	0x3e831dd8	0.25608706
8	0x3e058254	0.13037997
9	0x3e2e9017	0.17047153
10	0x3dc7e7f5	0.09761039
11	0x3e9394da	0.28824502
12	0xbdd36d5f	-0.10323595
13	0x3e7b4142	0.24536613
14	0xbcd03ab0	-0.02541861
15	0x3eb67638	0.3563707
16	0x3e014d0b	0.12627046
17	0x3ec2d8b2	0.3805595
18	0x3e23259f	0.1593232
19	0x3daeef37	0.0854172
20	0xbe502e28	-0.20330107
21	0x3ee496a8	0.44646192
22	0x3d8c1c23	0.06841304
23	0xbdaccb3c	-0.084372014
24	0x3d6cc540	0.0578053
25	0x3e6a3bc1	0.22874357
26	0x3ded83d4	0.1159741
27	0x3e3f9195	0.18707879
28	0x3dc5fb2d	0.096670486
29	0x3e460e9c	0.1934151
30	0x3dbadbd9	0.09123964
31	0x3ea9423b	0.33058342
32	0xbcf4840e	-0.029848125
33	0xbdd6683c	-0.104691
34	0xbe2ab029	-0.16668762
35	0x3e2e61cf	0.17029499
36	0xbe70cebf	-0.23516367
37	0xbdeaf3a9	-0.11472256
38	0xbdf2b5c5	-0.11851076
39	0xbe2dc95e	-0.16971347
40	0xbe48f556	-0.19624838
41	0xbe57b66b	-0.2106568
42	0xbcd1df78	-0.025619254
43	0xbe201336	-0.15632328
44	0xbe54d512	-0.20784405
45	0xbf029879	-0.51013905
46	0xbe4eb9f2	-0.2018812
47	0x3d919d75	0.07110111
48	0x3cae2f82	0.021262888
49	0xbe6d6c68	-0.23185885
50	0xbe3ad513	-0.18245344
51	0xbe8cae37	-0.27476665
52	0xbc1efee6	-0.009704327
53	0xbddea9a1	-0.10872198
54	0xbe033b2d	-0.12815543
55	0xbd6e96af	-0.05824917
56	0xbdc212ba	-0.09476228
57	0xbe5174f8	-0.20454776
58	0xbe3eb128	-0.18622267
59	0xbdb663da	-0.08905764
60	0xbe4cafc1	-0.1998892
61	0x3d385698	0.045004457
62	0xbc8a8277	-0.016907914
63	0xbe46e52c	-0.1942336
64	0xbde7b6dd	-0.11314175
65	0x3c1e042c	0.009644549
66	0x3e5d54c8	0.21614373
67	0x3df3a4dd	0.118966796
68	0xbe362ab7	-0.17789732
69	0xbe1040c5	-0.14087208
70	0xbe1dceb1	-0.15410878
71	0x3db96a73	0.09053507
72	0xbd299c85	-0.041409034
73	0x3db6563e	0.08903168
74	0x3e2f0ace	0.17093965
75	0x3ecd875f	0.40142342
76	0x3d4c074d	0.04981165
77	0x3e6e79c0	0.23288631
78	0x3e5436d5	0.20724042
79	0x3e2121d5	0.15735562
80	0x3db97274	0.09055033
81	0x3e1c98b3	0.15292625
82	0xbd84a51f	-0.06476807
83	0xbd183e76	-0.037168942
84	0x3dfd3a4e	0.12364636
85	0x3e01fc8b	0.12693994
86	0xbe655449	-0.22395433
87	0xbe09fdc0	-0.13475704
88	0x3e1fa2ed	0.15589495
89	0xbd2de1d7	-0.042451706
90	0xbcd23e84	-0.025664575
91	0xbd13d0bf	-0.036087748
92	0x3e05783a	0.13034144
93	0xbdf61683	-0.120160125
94	0x3e92183f	0.28534123
95	0x3e087eec	0.13329667
96	0x3db17081	0.086640365
97	0x3dd0c026	0.101928994
98	0x3d11531d	0.035479654
99	0xbd172efe	-0.03691005
100	0xbd22b44f	-0.039722737
101	0x3dd86f0b	0.10568055
102	0x3e901afa	0.2814558
103	0x3e05815e	0.13037631
104	0x3dc1607c	0.09442231
105	0x3da20128	0.07910377
106	0x3e57c144	0.21069819
107	0x3d78e49c	0.060764894
108	0xbe200bc8	-0.15629494
109	0x3dc6407c	0.09680268
110	0xbe4bc888	-0.19900715
111	0x3eaf9d95	0.34299913
112	0xbe3c2fd9	-0.18377627
113	0x3e2fd386	0.17170534
114	0x3be97df2	0.0071256096
115	0xbd870dd9	-0.06594438
116	0x3dff6b86	0.1247168
117	0x3e348af8	0.17631137
118	0xbcdda67d	-0.027056927
119	0x3d3c1865	0.045921702
120	0xbd43b9d8	-0.047784656
121	0x3e223b92	0.15843037
122	0x3e252ade	0.16129634
123	0xbbdf7bfb	-0.0068201995
124	0x3cc59f67	0.02412386
125	0x3e7dfdad	0.24803801
126	0x3e59e630	0.21279216
127	0xbd8b5760	-0.06803775
128	0xbcdc3637	-0.02688132
129	0xbda156f0	-0.0787791
130	0xbe4d941f	-0.20076035
131	0x3d76d085	0.060257453
132	0x3edae9e2	0.42756563
133	0xbe0237ed	-0.12716646
134	0x3e2edac1	0.17075635
135	0xbe6fbb02	-0.23411182
136	0xbe0131f8	-0.12616718
137	0xbcbd8f82	-0.023139719
138	0x3e854507	0.26029226
139	0xbea068ef	-0.31330058
140	0x3ed60a18	0.41804576
141	0xbdc817e5	-0.097701825
142	0x3e745a9a	0.23862687
143	0xbe8f3acd	-0.2797455
144	0xbddd3245	-0.10800604
145	0x3c2e05d1	0.010621504
146	0x3e275247	0.1633998
147	0x3d0c5762	0.034263022
148	0xbbe67643	-0.007033141
149	0xbe7a484c	-0.24441642
150	0x3d6cdaa7	0.05782571
151	0x3c0a149f	0.008427768
152	0xbd82a8b8	-0.06379837
153	0xbe03626a	-0.1283051
154	0x3e10def8	0.14147556
155	0xbd86e4dc	-0.0658662
156	0xbe593f31	-0.21215512
157	0xbd8bcefa	-0.06826587
158	0xbe816959	-0.25275686
159	0xbe803682	-0.25041586
160	0xbe87320f	-0.2640538
161	0x3ccb2f9b	0.024802973
162	0xbe1e5599	-0.1546234
163	0x3cd7e266	0.026353072
164	0x3d5b6be6	0.053569697
165	0xbe2f7294	-0.17133552
166	0x3c7770b9	0.015102559
167	0xbe5cd10e	-0.21564123
168	0x3da9f11e	0.082979426
169	0xbe21c808	-0.15798962
170	0xbc1771d3	-0.009243446
171	0xbedfb089	-0.43689373
172	0xbdf514e2	-0.11966874
173	0xbe19e770	-0.15029693
174	0xbe0e8645	-0.13918407
175	0xbe34aab4	-0.17643243
176	0xbe0cbdb2	-0.13744238
177	0xbe469c01	-0.19395448
178	0xbdfd01ca	-0.12353857
179	0xbddd3336	-0.10800783
180	0xba4ad408	-0.00077372836
181	0xbc4ab021	-0.012371094
182	0x3e1b043e	0.15138337
183	0x3e01bc6e	0.12669536
184	0x3d94425a	0.07239218
185	0xbc519507	-0.012791879
186	0x3cac166a	0.021006782
187	0xbc4105d9	-0.011781179
188	0xbdc4be09	-0.09606559
189	0x3dd441c2	0.10364105
190	0xbb4397f1	-0.0029845203
191	0xbdd97777	-0.10618489
192	0xbe22e9ac	-0.15909451
193	0xbf08b49f	-0.53400606
194	0xbee3c560	-0.44486523
195	0xbe848f10	-0.25890398
196	0xbf0f1c55	-0.55902606
197	0xbea6244a	-0.3244956
198	0xbe66cc2f	-0.22538827
199	0xbe248213	-0.16065244
200	0xbd740c72	-0.05958218
201	0xbd343595	-0.043996412
202	0xbe8f3209	-0.2796786
203	0xbf0327c5	-0.5123256
204	0xbdd3d689	-0.10343654
205	0xbd03aef3	-0.032149266
206	0xbe9eb982	-0.31000906
207	0xbccb2086	-0.024795782
208	0x3df4f73e	0.1196122
209	0xbe9c0494	-0.30472243
210	0x3cdbc6b0	0.02682814
211	0xbd8433f4	-0.06455222
212	0xbf17d5c8	-0.5931058
213	0xbeb7bb6b	-0.35885176
214	0xbe1c684a	-0.15274158
215	0xbe3c5f2f	-0.18395685
216	0xbcae33ac	-0.021264873
217	0xbeb30f58	-0.34972644
218	0x3d93c600	0.072155
219	0xbca3d0d1	-0.019997032
220	0xbe4ec749	-0.20193209
221	0xbe814da4	-0.25254548
222	0xbe393225	-0.18085535
223	0xbe359a7a	-0.1773471
224	0x3e8d1530	0.27555227
225	0xbd8d0d30	-0.06887281
226	0x3da0672c	0.078321785
227	0xbdbb9c29	-0.091606446
228	0x3d5973ac	0.05308883
229	0xbd612237	-0.05496427
230	0x3e02ffef	0.12792943
231	0xbc4c7b0c	-0.012480509
232	0x3b093d94	0.0020941244
233	0xbd7cb626	-0.061697148
234	0x3e579be0	0.21055555
235	0x3ec0cdaf	0.37656924
236	0xbe0bcab4	-0.13651544
237	0xbdccf159	-0.10006971
238	0x3de4c6ae	0.11170708
239	0x3d7f65ce	0.062352948
240	0x3d8ebd24	0.069696695
241	0x3d1a3cc1	0.037655596
242	0x3e04ad8d	0.1295683
243	0x3e980066	0.29687804
244	0xbba79f3c	-0.0051154178
245	0x3eb514da	0.3536747
246	0xbe784140	-0.24243641
247	0x3dbe418a	0.09289844
248	0x3dceaeb3	0.10091915
249	0x3cc92993	0.024555957
250	0x3b8396c3	0.004015775
251	0x3e6394e0	0.2222476
252	0x3e707ebb	0.23485844
253	0x3db469df	0.08809256
254	0x3e096e52	0.1342099
255	0xbe4beced	-0.19914599

nns.1.0.bias f4 [32]
0	0xbd47b229	-0.04875389
1	0xbe36b5d7	-0.17842804
2	0xbd3e21d9	-0.046419
3	0xbe152c4c	-0.14567679
4	0x3d57a460	0.052646995
5	0x3cdd6253	0.027024424
6	0x3c3f4292	0.011673586
7	0xbd8505f4	-0.06495276
8	0xbe4a53f3	-0.19758587
9	0xbbde7549	-0.006788884
10	0xbe361cde	-0.1778445
11	0x3db9b13a	0.090670064
12	0x3dc7d002	0.09756471
13	0xbcc04d57	-0.023474379
14	0x3ddcf12e	0.10788189
15	0xbdd59278	-0.10428327
16	0xbd8072d9	-0.062719055
17	0x3e354fde	0.17706248
18	0xbcf8a6d5	-0.03035299
19	0x3dcfebc9	0.10152394
20	0xbc8b336f	-0.016992299
21	0x3d920f64	0.07131842
22	0x3d2ec893	0.04267175
23	0x3d0c8a46	0.034311555
24	0xbe8d5c10	-0.276093
25	0xbd29b91f	-0.04143631
26	0xbdbef787	-0.09324556
27	0xbcc47d1b	-0.023985436
28	0xbdb4728b	-0.0881091
29	0xbd8a7b82	-0.067618385
30	0xbe2a50de	-0.16632411
31	0x3e20370b	0.15645997

nns.1.1.weight f4 [32]
0	0x3f66938f	0.90068907
1	0x3f6055f3	0.8763115
2	0x3f8e0552	1.1095374
3	0x3f67c33f	0.90532297
4	0x3f6c224b	0.92239827
5	0x3f88dcc5	1.0692374
6	0x3fbe0122	1.4844096
7	0x3f31dd6f	0.69478506
8	0x3f674e16	0.90353525
9	0x3f8d7eba	1.1054299
10	0x3f8a25cd	1.0792786
11	0x3f5cb2e0	0.8621044
12	0x3f936339	1.1514655
13	0x3f92e5e1	1.1476403
14	0x3f96956f	1.1764354
15	0x3f74d62e	0.9563931
16	0x3f837db2	1.0272734
17	0x3f85403d	1.0410229
18	0x3f632337	0.8872561
19	0x3f871a22	1.055485
20	0x3fa61919	1.2976409
21	0x3f53d365	0.8274444
22	0x3f7e527b	0.99344605
23	0x3f4a6811	0.7906504
24	0x3f93756e	1.1520212
25	0x3f5fd1ff	0.87429804
26	0x3f749875	0.9554513
27	0x3f4df23c	0.80447745
28	0x3f741c85	0.9535602
29	0x3f333435	0.70001537
30	0x3f3fddfd	0.749481
31	0x3f7d61a5	0.9897712

nns.1.1.bias f4 [32]
0	0xbf064495	-0.524484
1	0x3dc7f055	0.097626366
2	0xbeb4a16f	-0.35279414
3	0xbd8b2d02	-0.06795694
4	0xbe0e2437	-0.13881002
5	0xbbc6489a	-0.0060511352
6	0x3ef647c7	0.48101637
7	0xbea6bb00	-0.32564545
8	0xbe6b452e	-0.22975609
9	0x3d0880d8	0.033326
10	0x3dfb3c46	0.122673556
11	0xbea397b9	-0.31951693
12	0x3e329228	0.17438567
13	0x3f156e3a	0.5837132
14	0xbe8c7945	-0.2743627
15	0xbea07940	-0.31342506
16	0xbde154d9	-0.110025115
17	0x3e3c6428	0.18397582
18	0xbf11fd46	-0.5702709
19	0x3e4b2eb1	0.1984203
20	0x3ea4565c	0.32097137
21	0xbe40214c	-0.18762702
22	0x3f2255a0	0.63411903
23	0xbef3988f	-0.4757733
24	0x3dcbe3ca	0.09955557
25	0xbe3d9aa2	-0.18516019
26	0xbf21277b	-0.6295087
27	0xbe13e11f	-0.14441346
28	0xbe4eab94	-0.2018264
29	0xbe62fc10	-0.22166467
30	0xbf06283d	-0.5240515
31	0xbda97ef5	-0.08276168

nns.1.1.running_mean f4 [32]
0	0x3f4772df	0.77909654
1	0xbf6624c9	-0.8989988
2	0x3ed3cec6	0.41368693
3	0x3e193b9b	0.14964144
4	0xbef2d72d	-0.4742979
5	0xbf06ae9a	-0.5261017
6	0xbf4df1c4	-0.8044703
7	0x3e8fbf5c	0.28075683
8	0xbedddf48	-0.43334413
9	0xbeac18a9	-0.33612564
10	0xbf2fb4ca	-0.6863524
11	0x3f32068e	0.6954125
12	0xbedbd544	-0.42936146
13	0xbf390f14	-0.7228863
14	0x3f483dae	0.78219116
15	0xbee7da11	-0.4528356
16	0xbe9bfd20	-0.30466557
17	0xbcaaf909	-0.020870702
18	0x3ef59a05	0.4796907
19	0xbeb3570b	-0.35027346
20	0xbf05f4a6	-0.5232643
21	0xbe6ef6ac	-0.23336285
22	0xbe96ffb3	-0.29491958
23	0xbe930af8	-0.28719306
24	0x3f50aabe	0.8151053
25	0xbeebbd57	-0.46042892
26	0x3ef9cb3a	0.48787862
27	0xbed53882	-0.41644675
28	0x3e7bab69	0.24577107
29	0xbf02351f	-0.50862306
30	0x3e356a81	0.1771641
31	0x3f434e88	0.76291704

nns.1.1.running_var f4 [32]
0	0x43052b69	133.16957
1	0x42ab9762	85.79567
2	0x4214c400	37.191406
3	0x41849a64	16.575386
4	0x425b2c0e	54.793022
5	0x4266e70e	57.72564
6	0x430a25e5	138.14803
7	0x41de25ba	27.768421
8	0x411fefea	9.996073
9	0x41bd2a4e	23.645657
10	0x422e9597	43.646084
11	0x428e4b14	71.14664
12	0x4259507f	54.32861
13	0x42ac96fa	86.294876
14	0x429e1e7d	79.05955
15	0x41c2066a	24.253132
16	0x41710f53	15.066241
17	0x40f78b42	7.7357492
18	0x423c2b69	47.042393
19	0x42240dc7	41.013454
20	0x424d7be3	51.370983
21	0x4168f2fa	14.55932
22	0x41a793d0	20.947174
23	0x41c55bc8	24.669815
24	0x435d704c	221.43866
25	0x4205adb4	33.419632
26	0x4277b070	61.922302
27	0x41e43022	28.523502
28	0x41b52b3f	22.646116
29	0x4213de6e	36.967216
30	0x41acbbd6	21.591717
31	0x428583dd	66.757545
