result/08.24.2022_20.26.17/config_21fold_1_state_dict.pt (torch, 61084 bytes, 92 tensors)

first_h.0.weight f4 [32, 3]
00000000: 1cf9 e93e abb9 1f3f 6928 fb3f b643 9bbe
00000010: f255 a03f 6d09 0340 81d8 3b3e 2e65 4f3f
00000020: a759 513e 07e3 41bf af76 3a40 0d1e ae3f
00000030: c71d a7be 8961 803e b00e fb3e 30b3 263e
00000040: 84dd 163f f250 a23f 32e4 fb3e 40af 153f
00000050: e4c1 0e3f f12b 99be 6288 0740 0b07 1540
00000060: f825 d43f c462 fcbe 006e 1cbe cab4 353f
00000070: 8fd4 f23e f0bc b13f 7edf 713e 5b5d b3be
00000080: 34fc c2be 7948 bebd dffb 0b3f 7cf7 05bf
00000090: 7886 d93f 44a8 ac3e 9dda 41be 0ace 8bbe
000000a0: e539 f63e 7f6f 0e40 7f52 c3bd 78a8 67be
000000b0: c42a 47be 3288 7d3e 5297 b03f 0dd5 bd3e
000000c0: 9a15 403f 89ce 84be 041f 38bd 2bc8 be3e
000000d0: 8a79 c63f f990 943f 2a24 91be 32c1 603f
000000e0: 747b 8f3f 9173 ad3e 0b51 b13f 8f0c 8c3f
000000f0: b7c8 4e3f 931b b73f 67f0 273f 5564 bf3c
00000100: 2a9c ec3e cac6 e63e 69e6 f7be cbe4 cc3f
00000110: eec4 1440 5aa0 2e3f 3e3a 1f3f 9859 18bf
00000120: 6e12 223f bb65 843f a7d3 283e b407 c73e
00000130: 8347 d73d b532 953c a747 f03e 2bf9 fc3f
00000140: c017 e4be 3326 a23e 5271 b03e 8fd3 123f
00000150: 5156 983e 5c07 6e40 4f52 0140 7825 8a3d
00000160: 64cf eebe f1f9 973d 550b 23be 83c9 bfbd
00000170: c9b2 b0be 73eb e9bd 283b de3e ba26 323f
0.45697868 0.6239268 1.9621707 -0.30325097 1.2526228 2.0474503 0.18344308 0.8101376
0.20444356 -0.7573704 2.9134939 1.3602921 -0.32639906 0.25074413 0.49034643 0.16279292
0.58931756 1.2680953 0.49197537 0.58470535 0.55764604 -0.29916337 2.1176991 2.3285549
1.6574087 -0.49294102 -0.15276337 0.7097899 0.47427794 1.3885784 0.23620412 -0.35032162
-0.3808304 -0.09291167 0.546812 -0.52330756 1.6994162 0.33722126 -0.1893105 -0.27305633
0.48091045 2.2255552 -0.09537219 -0.2262286 -0.19449908 0.24758986 1.3796179 0.37076607
0.7503296 -0.25938824 -0.044951454 0.3726209 1.5505841 1.1606742 -0.28347903 0.8779479
1.120955 0.33877233 1.3852857 1.0941333 0.80775017 1.430529 0.656012 0.023363272
0.46212894 0.4507354 -0.48417976 1.6007322 2.3245196 0.6821343 0.62198246 -0.5951171
0.6330937 1.0343546 0.16486989 0.38873065 0.10511687 0.018212656 0.46929666 1.976354
-0.4454937 0.3166977 0.34461457 0.5735406 0.29753354 3.7191992 2.0206487 0.06745428
-0.466426 0.074207194 -0.15922292 -0.09364607 -0.34511402 -0.114218615 0.43404508 0.6959034

first_h.0.bias f4 [32]
00000000: 9f07 f33e adc7 a0be 3d7d c03e 564a c03e
00000010: 6e51 6d3e 492b 0c3f 6e2c 3c3d 5f1e 8ebd
00000020: 252d a7be 3b9b 03be 9f16 523e 91b6 d0be
00000030: 3140 f43d ccb3 1fbe 1dee ecbe 3894 90bd
00000040: d971 63be e8ee 033f ceb4 8dbe 315b 103f
00000050: 4319 aa3e 2ec3 103f e158 13bb d0ce 9abc
00000060: b44c fbbe 18d4 643e 394e bf3e d495 5abd
00000070: fd9c 96bc 0796 26bd 5cc7 993e e119 abbe
0.47466752 -0.3140234 0.3759555 0.37556714 0.23175594 0.5475355 0.04594081 -0.069393866
-0.3265163 -0.12852184 0.20516442 -0.40764287 0.11926306 -0.15595931 -0.46275416 -0.070595205
-0.22211398 0.51536417 -0.27677006 0.5638915 0.33222398 0.5654782 -0.0022483396 -0.018897444
-0.49081957 0.22346532 0.37364367 -0.053365543 -0.018385405 -0.04067042 0.30034912 -0.33418182

first_h.1.weight f4 [32]
00000000: a61d 2740 6208 4c40 0e44 e43e d3a7 b33f
00000010: e3d3 063f 9f19 633f b25c 2d3f 44d2 ed3f
00000020: 0501 683f 783b 883f d464 9bbb f115 f63e
00000030: 0d62 b13f ce91 4d40 7017 983f d1fb a23e
00000040: d755 993f ca44 a6bd 04fa 6340 bb77 0540
00000050: 4269 9b3e 9d9b 093f f65a 5740 c375 0d3f
00000060: 9b7f d53e 9f4e 0a3f 0f8e 193f 0577 ba3f
00000070: aa7a 993e 3a7b 2f3f 48ba 273f a885 9f3f
2.6111846 3.1880116 0.44583172 1.4035591 0.52667063 0.8871097 0.67719567 1.8579793
0.90626556 1.0643148 -0.0047422443 0.48063615 1.3858048 3.2120242 1.1882153 0.31832746
1.1979321 -0.08118589 3.5621347 2.0854328 0.30353743 0.5375307 3.3649268 0.55257815
0.41698918 0.54026216 0.5998239 1.4567572 0.29976398 0.68547404 0.6551862 1.2462664

first_h.1.bias f4 [32]
00000000: bf0c 5bbe 984e dabe 702b c93e 2d19 9c3f
00000010: 322a bfbe 115b e33e 2bbb c5bf 1aab f9bd
00000020: 3c07 0cc0 662d 0c3f 0a13 a8be 353c 6bbf
00000030: 7eb5 023e cbaa 4fbe a5c9 ebbe 3263 eebe
00000040: 9fd6 32c0 2514 413e 3f3b 9abe ff41 4e3e
00000050: d402 f2be 0c58 7fbf f73a 85be f345 d7bf
00000060: ddcc 5abd 7583 123d d337 d13e ba27 1f3c
00000070: 5ecc 4ebf e227 6abf b401 abbe 2504 03bf
-0.21391581 -0.42638087 0.39290953 1.2195183 -0.3733688 0.44405416 -1.5447744 -0.12190838
-2.1879416 0.5475677 -0.32827026 -0.91888744 0.12764546 -0.20279996 -0.4605228 -0.46560055
-2.7943494 0.18855341 -0.30123326 0.20142363 -0.47267783 -0.99743724 -0.2602155 -1.6818222
-0.05341803 0.0357699 0.40862903 0.009714061 -0.8078059 -0.91467106 -0.33399737 -0.511782

first_h.1.running_mean f4 [32]
00000000: 879b 1249 6cdd c1c8 2b2c 6c48 87d4 77c9
00000010: 7fb2 d0c8 c1f1 5148 b5da 1849 5a0b b8c8
00000020: 32a5 034a cb52 6549 1505 9748 1c94 edc7
00000030: ae02 074a ec6e aec8 0fde f3c7 1315 9e48
00000040: e6d7 7149 81f6 ec48 1e4e b1c8 3fa9 d848
00000050: d411 8049 cf54 5347 8ac4 18c9 66d4 5849
00000060: acc8 4a49 e5ad f248 ad34 1549 2576 ca48
00000070: 40d3 bd48 d7d9 aa47 bd8d 4bc8 482d 12c8
600504.44 -397035.38 241840.67 -1.01511244e+06 -427411.97 214983.02 626091.3 -376922.8
2.1568765e+06 939308.7 309288.66 -121640.22 2.2120115e+06 -357239.38 -124860.12 323752.6
990590.4 485300.03 -363120.94 443721.97 1.0491465e+06 54100.81 -625736.6 888134.4
830602.75 497007.16 611146.8 414641.16 388762.0 87475.68 -208438.95 -149685.12

first_h.1.running_var f4 [32]
00000000: f372 1e55 5489 8a54 c0a4 cd53 24d8 e255
00000010: 0e87 a054 b529 a353 9103 2d55 34ff 7854
00000020: 7e89 ff56 43f7 c155 a41e 2854 7506 d052
00000030: fd50 0657 8244 6054 f328 db52 fe30 3854
00000040: f2b1 d755 81db ce54 826d 6754 e1fd ac54
00000050: 56f5 f155 70d6 4052 98e9 2b55 4d63 ad55
00000060: 6b91 9755 c6c6 d854 fa35 2455 e610 9754
00000070: 54bf 8454 5f48 5752 76b3 9853 6485 1d53
1.0888534e+13 4.760076e+12 1.7664647e+12 3.1177243e+13 5.515685e+12 1.4015588e+12 1.1889427e+13 4.277734e+12
1.40482995e+14 2.6658466e+13 2.8882743e+12 4.4673076e+11 1.476824e+14 3.8528882e+12 4.7064243e+11 3.1643837e+12
2.9644909e+13 7.1075674e+12 3.9758987e+12 5.94395e+12 3.3254502e+13 2.0705785e+11 1.1813735e+13 2.383025e+13
2.0831353e+13 7.4483824e+12 1.1284483e+13 5.1905886e+12 4.561165e+12 2.3115804e+11 1.3116918e+12 6.765478e+11

first_h.3.weight f4 [32, 32]
00000000: 1376 8e3d 8482 e03d d483 f13d f79d 493e
00000010: 2451 dfbd ff52 da3d 59ff bd3d c43a 5abc
00000020: 1b21 df3c 7fda 163d e55b babd f651 9abd
00000030: 9f83 de3c a52f 3d3e 0893 7a3e 7029 8b3d
00000040: 5644 56bd 0ffb 773c 047b d83d c810 f73d
00000050: 547a ae3d 0176 c7bc 21b6 e93d 1a4c 503e
00000060: b2be 9dbd efda 583c 200f 84bd 4f97 003c
00000070: dcf5 633e 7ddc 003e 58cb 843d 8f98 853d
00000080: 7c81 583e 6a59 193e 634b 383d 96ae ee3d
00000090: 3f50 85bc e170 c23d d5ed 25bd c505 efba
000000a0: cc55 60bd 616c 493e 6244 9dbc 8307 4f3d
000000b0: 5d65 28bd 81a4 a53d 480f 90bc ae23 0d3e
000000c0: f9b1 843e d698 f6bc c8ad 82bd b7ee bf3d
000000d0: 90a7 553e fba9 1e3e af63 653c 85d7 613e
000000e0: 7b7d e33c d4a0 1ebc e6f5 803d ca30 a33d
000000f0: 1d50 af3d 0597 96bc 594d 2bbd 1dda 31bd
00000100: fc2f 85bd ecec 26bd f607 72be 1b63 3fbe
00000110: 8e5e aebe e11d 08be a57f 52be ae75 98be
00000120: 22f4 23be 9c83 cdbd 2e51 7fbd ef8e 1bbe
00000130: ac01 cfbe 2e85 b23d 81dd 193e 65d5 70be
00000140: fe47 92be 5890 533e 4ae3 81bd f8d3 a83b
00000150: 9494 c9be e184 33be 6538 653e 0a7e a2be
00000160: 579f 8cbd 3ad7 58bd cdb0 6bbe f29b 843d
00000170: 1d6c 86be a054 94be b95a 87be b8e8 6c3d
00000180: 97f5 243d 66a1 c4bd e35b 76be 19f7 6abd
00000190: 20a2 40be b6fd 333c 7660 0abe db0e 903d
000001a0: b99d 2abd 64fb d1bd fcba 34be 6280 3f3d
000001b0: 4598 26be 3a71 c53c 7fa6 51be 31d0 04be
000001c0: d389 223d a057 b03d 6d88 28be e652 a4bd
000001d0: de0c 1bbe 80f0 86be a2c0 83bd 6e32 c6bd
000001e0: 47c1 0fbe 2cf9 46be e390 83be 4775 abbd
000001f0: c60b 4abd c923 32bb 864c 253c ed62 86be
00000200: 8f35 293f 6a6c e33f 2821 85bd dc6a 713f
00000210: d8a0 c23d 691e 223e 25dc 7a3f f19a 843f
00000220: 88c9 f03f 298f 69be d3d0 e43e 58cf 6abd
00000230: f2db dcbe c478 df3f acaf bc3e e6b5 8bbe
00000240: 4ce4 0f40 f242 c73d 33df c63f a36e b63e
00000250: 36e5 cb3d acc5 7f3e 71be e53f 70a9 a33f
00000260: 90c1 93be 530f e63e 7319 8ebe 3316 5b3e
00000270: 89f5 223f 8bb2 0a3f bedb 103f 9f24 133f
00000280: ea80 2fbf db23 6abf 355e aa3f 6b98 17bf
00000290: d90d 7bbf 1542 1d3f fd13 64bd 677e c7be
000002a0: 5955 d0be 40ef 1c3f 3f19 783e 0c59 243d
000002b0: 445f e93f dce2 81bf 6fe0 95be fc2b 873f
000002c0: 9c12 a7be 401a a53e 7b30 47bf 878f e73e
000002d0: 68c1 603f 5421 0fbf 8af9 42bf 17d3 04bd
000002e0: c32d c23f a44b 8d3f dff7 c33f f2cd ec3e
000002f0: fa3c e63e 4d73 0bbe e4b5 d3be c3b2 66be
00000300: d055 b1bd 7cc7 c9bb 761f dabd b077 9ebe
00000310: 8d67 2abe 0876 02bc 8499 24be e704 e3bd
00000320: 13d7 8cbc 15d7 a73c fedf 10bd c70f 923d
00000330: 9d4a 74be 8030 aabd 09f7 65bd 73cd e7bd
00000340: 4b67 34be f27f b8bd ff79 b93c f7ee ee3d
00000350: 213b a3be 2f10 5abd c518 173e fa9a 6ebe
00000360: 2650 96be 59a6 d23d 6d67 bfbe cd80 8bbd
00000370: 17d1 02be 9f52 403d 4142 7e3d c8ed c6bd
00000380: 08b6 b83e 0d66 e13e f3a5 c03c c5cb 5c3e
00000390: 2d3d 09be 12e2 9e3e 69e4 6a3e ee22 67be
000003a0: c03f 053d 17c0 e43e f4a9 413e 2e51 063f
000003b0: cf19 173e b49d 613e 7b9f 343e 7dbf 253e
000003c0: 0038 823e dda2 ac3e 1b64 de3e b15e cf3e
000003d0: 3a1f 16be ddf7 97be 97e9 383e 887c 3f3e
000003e0: a448 6c3c 6935 2f3f 535b 103c 55dc 0a3f
000003f0: 678a 35bd 5de2 83be 5ab0 003f 13a9 413e
0.069561146 0.10962394 0.11792722 0.19689165 -0.10904148 0.106603615 0.09277219 -0.013319675
0.027237466 0.036829468 -0.09099559 -0.07535164 0.027162371 0.18475206 0.2447015 0.06795013
-0.052311264 0.015135541 0.10570338 0.12063748 0.08519426 -0.02434826 0.114116915 0.2034153
-0.07702388 0.013235792 -0.06448197 0.007848575 0.22261757 0.1258411 0.06484097 0.06523239
0.21143144 0.14975515 0.04499377 0.116543934 -0.016273616 0.09494186 -0.040510017 -0.0018235972
-0.054769322 0.1967025 -0.019197647 0.050544273 -0.041112293 0.08088017 -0.017585412 0.13783142
0.25917032 -0.030102175 -0.063808024 0.09371703 0.20864701 0.1549453 0.014000817 0.2205487
0.027769795 -0.009681899 0.062969014 0.0796829 0.08560202 -0.018382559 -0.04182181 -0.0434209
-0.06503293 -0.04075329 -0.2363585 -0.1869015 -0.34056515 -0.13292648 -0.20556505 -0.29777282
-0.16011098 -0.10034868 -0.06233328 -0.15191244 -0.40430963 0.08716808 0.15025903 -0.23518904
-0.2857055 0.20660532 -0.0634218 0.005152222 -0.3937117 -0.17531158 0.22384794 -0.31736785
-0.06866329 -0.05293963 -0.23016663 0.06475057 -0.2625436 -0.28970814 -0.26436403 0.057839125
0.040273275 -0.09601097 -0.2405849 -0.057364557 -0.18811846 0.010985782 -0.1351336 0.070340835
-0.041654322 -0.10253027 -0.17649454 0.046753295 -0.16269024 0.024101842 -0.2047367 -0.12970044
0.03968222 0.08610463 -0.16458292 -0.08023624 -0.15141627 -0.26355362 -0.06433226 -0.096775874
-0.14038573 -0.19430989 -0.25696477 -0.08371978 -0.049327634 -0.0027181974 0.010089045 -0.2624735
0.6609735 1.776746 -0.06500465 0.9430368 0.09503335 0.15831913 0.97992164 1.0359784
1.8811502 -0.22808518 0.4469057 -0.057326645 -0.43136555 1.745873 0.36852777 -0.27287215
2.2483091 0.09729566 1.5536865 0.35631284 0.09955828 0.2497775 1.7948743 1.2786083
-0.28858614 0.44933566 -0.2775379 0.21395187 0.63655907 0.54178685 0.565853 0.57477754
-0.6855608 -0.9146096 1.331 -0.59216946 -0.98068005 0.6142896 -0.055683125 -0.38963625
-0.40690115 0.61302567 0.2422838 0.040123984 1.8232198 -1.0147357 -0.29272792 1.0560298
-0.32631385 0.3224659 -0.7780835 0.4522669 0.87795115 -0.5591023 -0.76162016 -0.032427873
1.5170215 1.1038709 1.5310019 0.46250874 0.44968396 -0.13618203 -0.4134971 -0.2252913
-0.086589456 -0.0061578136 -0.10650532 -0.3095069 -0.16641064 -0.007962711 -0.16074187 -0.110849194
-0.0171924 0.020488301 -0.035369866 0.071319155 -0.23856588 -0.08310032 -0.056143794 -0.11318483
-0.17617528 -0.09008779 0.02264118 0.11666673 -0.3188105 -0.05323809 0.14755543 -0.23301306
-0.29358023 0.102856345 -0.37383595 -0.06811676 -0.12775074 0.046953794 0.062074903 -0.09713322
0.3607638 0.4402317 0.02351663 0.21562107 -0.13402243 0.31031853 0.22938694 -0.22571918
0.0325315 0.44677803 0.18912488 0.5246762 0.14755939 0.22032815 0.17638962 0.16186328
0.2543335 0.33718005 0.4343575 0.4050193 -0.1466035 -0.29681292 0.18057857 0.18699849
0.014421616 0.6844087 0.008810836 0.5424245 -0.044321444 -0.2575864 0.5026909 0.18912153

first_h.3.bias f4 [32]
00000000: a20c c23b afed 48be 7f0b 093d 0ffc 2e3d
00000010: 91e5 013e 0a9b 8bbc fb3a d0bd da17 013e
00000020: 62a4 85bd 0c91 6abe fd8d d9bc 3550 26be
00000030: 7229 013e 8804 873e e931 b93d b3a2 c63c
00000040: e023 cd3d 83e6 13be 667d 08be fbb9 62be
00000050: 8817 06be 9e19 ce3d 536e 65bb a92e 103e
00000060: 9e4f abbd 4f20 aabd d0e2 f33c 0d7a 80bd
00000070: 97ca 3abe 5f17 e3bd 308f 03bd 4f38 303e
0.005921916 -0.19621919 0.03345823 0.04272085 0.12685229 -0.017041702 -0.101675 0.12606755
-0.06525494 -0.22906893 -0.026556963 -0.16241534 0.12613466 0.26370645 0.09042723 0.024247503
0.10016608 -0.14443402 -0.13329086 -0.22141258 -0.13094914 0.1006348 -0.0035008385 0.140803
-0.08364795 -0.083069436 0.029771239 -0.06273279 -0.18241344 -0.11088442 -0.032118976 0.1720898

first_h.4.weight f4 [32]
00000000: 0872 21ba 7eb1 e73b 361d 333f 7615 d03e
00000010: 3b57 083f add9 fc3d d4fd 2d3f a561 cdbc
00000020: 99ba 8fbb a4eb ae3e 55e4 c33e 1e8a 8dbb
00000030: f8bd 6a3f 98d8 a73f 1644 923d 223c 1c3f
00000040: bcbb 483e 3982 cf3b c42e f5bc c9b6 1b3f
00000050: 29c6 163c 6ef7 a93e 50be 3e3f 5ee7 85bd
00000060: b213 d63a 02b1 23bd 937e d43e ea32 f13b
00000070: 8e58 cfbb ac9a ea3e 5149 e53b 3faf dd3f
-0.00061586546 0.0070707193 0.6996645 0.40641373 0.53258103 0.12346206 0.67965436 -0.025070975
-0.004386258 0.34164155 0.3826014 -0.0043194434 0.9169612 1.3112974 0.071418926 0.61029255
0.19602865 0.0063326624 -0.029929526 0.60825783 0.0092025185 0.33196586 0.74509144 -0.065382704
0.0016332774 -0.03996373 0.41502818 0.0073608058 -0.006327695 0.4582113 0.0069972654 1.7319106

first_h.4.bias f4 [32]
00000000: 1467 40bf d5c7 69bf 2d26 e0be 3120 aebe
00000010: c609 e7bf 0082 94be 8fbd b2be fa76 54bf
00000020: 4171 b3be a5a9 85be eee5 a7be 7aa9 3fbe
00000030: 8d3e 273d d3db 79be e22a 97bf 686f adbe
00000040: 1383 d3be 7b40 2ebf 8c52 56bf 73fa 693e
00000050: 0e41 b1be 57f4 58be 20e2 1dbf 3414 90bf
00000060: ccf7 87be b9d6 203f ea59 9ebf c278 fabe
00000070: 0a25 7cbe c3bc 8bbe bc75 bbbe 9d8a 8ebe
-0.75157285 -0.91320544 -0.43779126 -0.34008935 -1.8049858 -0.29005432 -0.34910247 -0.82994044
-0.35047343 -0.2610599 -0.3279261 -0.18716994 0.040831137 -0.24400263 -1.1809962 -0.3387406
-0.4131094 -0.6806714 -0.83719707 0.22849445 -0.34619945 -0.21186958 -0.61673164 -1.1256166
-0.26556242 0.6282764 -1.237119 -0.48920256 -0.24623504 -0.2729245 -0.36613262 -0.2784013

first_h.4.running_mean f4 [32]
00000000: 818d 2c3f 1322 c83e 8646 34bf f49e 01bf
00000010: 9798 9d40 f0e2 9d3e 771d 5cbf 05e3 f23f
00000020: 0494 6ebe 86f1 09c0 f079 afc0 4c81 54be
00000030: 97d5 5ac0 1618 8cc0 cf3e 3e3c 4f3e 01c0
00000040: 17c6 b2bf af59 0d3c 7e52 c43e 4874 1d40
00000050: 3fe5 3dbf 4817 38bf 43eb 95bf 888f b93f
00000060: 382d 683e 2f3d 23c0 f80c 1440 2015 3f3f
00000070: 42b3 3d3e c57e bcbf 0ac4 75bf 07d1 a8c0
0.6740342 0.39088497 -0.7042011 -0.5063317 4.9248767 0.30837202 -0.8598246 1.8975531
-0.23298651 -2.1553664 -5.483635 -0.20752448 -3.4192865 -4.37794 0.011611654 -2.019428
-1.3966702 0.008627339 0.38344187 2.4602222 -0.74177927 -0.71910524 -1.1712421 1.4496927
0.226735 -2.5506094 2.3132915 0.7464161 0.18525413 -1.4726187 -0.96002257 -5.275516

first_h.4.running_var f4 [32]
00000000: 02f9 043f 081a 0440 e128 7d40 3ba8 a63f
00000010: b24d f141 5e2e 2c42 ce48 8c3f c300 6241
00000020: 829a 553f 2913 ae41 583e 2a43 dd0a 243e
00000030: aaf8 2143 aced da41 be7b 7241 5311 6141
00000040: f67d 5441 73af c33e 0132 9a41 b7aa 5542
00000050: fd07 383f a775 fb3f f483 4441 da61 2241
00000060: 7a4d ce3e 85a1 cb41 ce92 3e41 431b 883e
00000070: 1afe ed3f 3f38 0b41 08cc d040 23ff 6f42
0.51942456 2.0640888 3.95562 1.302009 30.162937 43.04528 1.0959718 14.125186
0.83438885 21.759356 170.24353 0.16019769 161.97134 27.36605 15.1552105 14.06673
13.280752 0.38219795 19.274416 53.416714 0.7188719 1.964528 12.282215 10.14889
0.40293485 25.453867 11.910841 0.265833 1.8593171 8.701232 6.524906 59.999157

nns.0.0.weight f4 [32, 32]
00000000: a914 fc3d d700 c2bd c0bf babd 322d 03bf
00000010: ae05 0dbf 0ae4 09be ec80 d93d a398 88be
00000020: c069 1d3e 82bb 8c3e 15fa 8e3e 3560 3a3e
00000030: 6f58 e6bf 68a7 afbe 8f64 163f 1692 8fbe
00000040: 39b7 89be 9e5e 923e 536d 153f 507f 76bf
00000050: 9b30 d73e 35ee 2cbf 85ac 203d 708c 503e
00000060: 9c33 8a3d c8b9 0ec0 9221 46bf ff2b d43e
00000070: 0921 d03d 845a 7abf 995d 32be ea31 103c
00000080: 413d d03c adeb 8e3d 976d a33d a5ba a03d
00000090: 71b6 03be f6f1 35be 0b85 e7bd 827b 0ebe
000000a0: 654f 11bf 8091 aebe a7e9 14be dc7b 80be
000000b0: efac 77bf 61ce 9e3d 7186 20bd 97f2 4dbe
000000c0: 6f20 5fbd 41aa 46be 8293 2abe 16cd 98be
000000d0: ce36 70be 147b e4bd 79c9 9e3d 2040 c6bd
000000e0: 6477 9dbd 012e 12bf 94e9 a0bb db83 793d
000000f0: c478 513d 2528 dd3d f152 20be f001 983f
00000100: 25f8 4ebe c4a8 153e 7d06 7cbe 891c f1bd
00000110: 68ef 1ebe 15dc c9bd b1bb 21be e279 a2be
00000120: f5b4 e4bc 904b 343e c9d3 47be 2ddd a8be
00000130: d661 95bd bdca 6cbe 5dc4 99be cc68 95bd
00000140: 21b7 53be 027a e2bd d16e 31be 7806 81be
00000150: e314 683e b560 d9bd 05a6 86be 20db 14be
00000160: 414f d3bd a9a3 803c b95e 3bbd 3749 45bd
00000170: 5000 1cbe 9e9e 443e 62de e3ba d6fb 89be
00000180: 5d96 62be 6ee6 f7bd fc7a cabe 157f 81bd
00000190: fd50 a2bf ca4e 28bf d499 183d 1a6c 843e
000001a0: 6358 333e 72cd 2d3f 8e71 9a3e 7f4a e6bd
000001b0: d3aa 82bf cd59 00bf 209b 1bbe 9f2a 09bd
000001c0: 0eb1 38be c88e 8dbd 7637 eabd 2364 00bf
000001d0: 4bc9 403e f1c1 8d3c a65e 86bc 91be 4cbd
000001e0: dc84 87be 03e9 88bf 48c5 29bf c5c8 f0bd
000001f0: f2a0 c23d c262 223c 27fe cdbe d1f4 833f
00000200: 5283 9dbe 85f5 67be 96dd e4bd a3d9 70bc
00000210: 6fa0 cabe 9038 5dbe 8ff7 19be cad0 d5be
00000220: add0 e63d 8a07 893d 25b5 dcbd daa0 063e
00000230: 8bac 0d3d 8869 edbc 6f99 27be 600e 61be
00000240: 2c06 233d b413 97be dd93 88be 982c cdbe
00000250: abe2 5f3e 3be6 eb3d e228 b7be 615f 9bbe
00000260: e9c6 3bbc 92cc b0bc 84c3 a2be 4753 9ebe
00000270: 0da3 c7be 18b4 4fbe a2c4 a5bd b905 f3bd
00000280: 2342 5fbd 7186 e4bd 7949 863c 51b9 aebd
00000290: 0f32 093e ae3d 443e a331 6a3d 56b4 8bbd
000002a0: 8638 723e 02fc 693e 23a5 5c3f e40c 45be
000002b0: eeed 02bf 5fa0 133f bf11 a73d bf49 36bd
000002c0: eb73 b9be a0ac bf3c aa2f 93bd 14c3 93be
000002d0: 1d45 0b3d 29ee 86be 1c10 62bd 993d 313d
000002e0: 6f33 64be d293 00bf d301 8a3d b581 693d
000002f0: 8162 dc3d 900a 99be 81d4 91be cb0d d93d
00000300: a975 2cbc c650 40be 0928 993e 5967 1dbe
00000310: fa83 3dbd b16c f8be 633e 50be bade a9bd
00000320: ecc6 493e 3a56 90be 30f7 47be 1ca6 9f3e
00000330: 28b9 963d d2ec 17c0 9b29 3fbf 18b3 9abe
00000340: 4cab 6d3e e0f1 e1bc 6bab 9c3e 0d3f f7bd
00000350: 9c08 c83c a501 cabd 82e7 0b3e c7de 583d
00000360: 198b 2d3e f1f8 1fbe d45e 7abe 473e 0c3e
00000370: ec51 dabd e747 9fbe c290 5b3e 60d1 bcc0
00000380: 4258 f93d b9f0 5fbe d840 6a3e cde3 d83c
00000390: 7bc6 e33e ba1f 523e 43e9 fc3c b2d9 753e
000003a0: f42e 343e 2b77 283f 2a67 133f 53e9 57bd
000003b0: be97 10bd 50c3 b43f a35e 89bb d927 273e
000003c0: 16a1 a0bd 5a8b 6a3d 5e6e c8bd 3aa0 07bf
000003d0: f9cc 4b3e 82e6 7b3d b9f8 b73d 0c99 1cbe
000003e0: df65 b0bd 2958 363e 08b9 923e 7189 acbe
000003f0: 1ac4 a93c a665 9bbd 9f1c 0cbd 410b fc3f
0.12308628 -0.094728164 -0.09118605 -0.5124084 -0.5508679 -0.13465896 0.10620293 -0.26678953
0.15372372 0.27486807 0.27925172 0.18200763 -1.7995738 -0.34307408 0.5874719 -0.28041142
-0.268976 0.28587812 0.5836994 -0.96288013 0.4202927 -0.67550975 0.039227027 0.20366073
0.06748125 -2.2300892 -0.77394974 0.41439816 0.10162551 -0.97794366 -0.17418517 0.008800963
0.025419833 0.06978545 0.07979887 0.078480996 -0.12862565 -0.17768082 -0.11304673 -0.13914302
-0.5676177 -0.34095383 -0.14542256 -0.25094497 -0.9674825 0.077542074 -0.039190713 -0.20112072
-0.05447429 -0.19400884 -0.16657832 -0.29843968 -0.23458406 -0.11156288 0.077532716 -0.096801996
-0.076887876 -0.57101446 -0.004910657 0.060916763 0.05114056 0.107986726 -0.1565664 1.1875591
-0.20211847 0.1461516 -0.2461185 -0.11773021 -0.15521014 -0.098564304 -0.15794255 -0.31733614
-0.027918318 0.1760695 -0.19514383 -0.32981244 -0.07294051 -0.23124214 -0.30032626 -0.07295379
-0.20675327 -0.110584274 -0.1732743 -0.25200248 0.22664218 -0.106141485 -0.26298538 -0.14536715
-0.10317851 0.01570304 -0.04574463 -0.048165526 -0.15234494 0.19201133 -0.0017385001 -0.26949948
-0.22127672 -0.12104498 -0.39546955 -0.06323067 -1.2680966 -0.6574522 0.037256077 0.25863725
0.17514186 0.6789161 0.3016476 -0.11244678 -1.0208381 -0.50137025 -0.15195894 -0.033487912
-0.18036291 -0.06911999 -0.114363596 -0.50152797 0.18826787 0.017304393 -0.016402554 -0.049986426
-0.2646855 -1.069611 -0.6631665 -0.11757044 0.09503354 0.009911241 -0.40232965 1.0309087
-0.30764252 -0.22652252 -0.11175077 -0.014700326 -0.39575526 -0.21603608 -0.15035842 -0.41760856
0.112702705 0.06690891 -0.10776738 0.13147298 0.034588378 -0.028980985 -0.16367124 -0.2197814
0.039800808 -0.2950722 -0.2667531 -0.40073085 0.2186381 0.11518522 -0.3577338 -0.30346206
-0.011460998 -0.021581922 -0.31789792 -0.3092291 -0.38991585 -0.20283544 -0.08094145 -0.11866326
-0.054506432 -0.11158455 0.016392456 -0.0853144 0.13398002 0.19164154 0.057176244 -0.06821506
0.23654374 0.2285004 0.8618948 -0.19243199 -0.511443 0.5766658 0.08157682 -0.044503924
-0.3622125 0.023397744 -0.071868256 -0.2885977 0.03400146 -0.26353577 -0.055191144 0.043271635
-0.22285245 -0.50225556 0.06738629 0.057008464 0.10760976 -0.2989087 -0.2848244 0.10598334
-0.010526099 -0.18780813 0.29913357 -0.15371455 -0.04626844 -0.48520425 -0.20336299 -0.08294435
0.19704789 -0.28190786 -0.19527888 0.3118142 0.073595345 -2.3738294 -0.7467286 -0.30214763
0.23209876 -0.027581155 0.30599532 -0.12072573 0.024418168 -0.09863595 0.13662532 0.052946832
0.16947593 -0.15622307 -0.24450237 0.13695632 -0.106601566 -0.31109545 0.2144194 -5.9005585
0.12175037 -0.21869172 0.22876298 0.026475811 0.44487366 0.20519915 0.030872947 0.24008825
0.17596036 0.65806836 0.5757929 -0.05271275 -0.035300963 1.4122105 -0.00419219 0.16323794
-0.07843225 0.057261802 -0.09786676 -0.5297886 0.1990241 0.061499126 0.08982987 -0.15292758
-0.0861318 0.17807068 0.28656793 -0.3369861 0.020723391 -0.07587747 -0.034206983 1.9690934

nns.0.0.bias f4 [32]
00000000: 7127 27be bdfa 9c3b d106 d53d 5480 97bd
00000010: 83b1 e5ba 21a9 8cbd 6c60 bc3d 68f3 3fbd
00000020: e015 9c3c f9db 27bc 3955 973d 35e8 34be
00000030: c30e 223e 8d22 f3bd ea33 0f3e 0c1f 133d
00000040: 495d 0abe 92eb 40be eee1 1b3e 150c 193e
00000050: f97a eb3d db8b 33be d592 143e dddf 0bbe
00000060: 8966 e53d 6410 c93c ab8e 16be 9450 eb3b
00000070: 5e1d f03d b287 a7be c2e4 243e 8e82 f8bd
-0.1632364 0.0047906325 0.10401691 -0.073975235 -0.0017524216 -0.06868196 0.091980785 -0.04686299
0.0190534 -0.010245317 0.07389302 -0.17666705 0.15825944 -0.118718244 0.13984647 0.03591828
-0.13512148 -0.18839863 0.15222904 0.14946015 0.114980645 -0.1753382 0.14509137 -0.13659616
0.11201198 0.024543948 -0.14702861 0.0071812365 0.11724351 -0.32720715 0.16102889 -0.12134276

nns.0.1.weight f4 [32]
00000000: f964 1c40 8c8a 6e3f 7222 423f 4275 ac3f
00000010: c170 1c3f 83cc 86bc c46f 6640 9292 2a3e
00000020: 7ce0 443c fcef 2140 b71b f13e c579 973d
00000030: 612f 0e40 3e9d 1f3f 72ca 183f a1eb 8c3f
00000040: 1a25 2b40 c567 0a3f c464 b23f 328b 663f
00000050: 2fe3 2e3f 38ff b83e 172b fc3e c8e0 d73e
00000060: b06b 46bd e375 493f 4c51 343f 57e1 5e3f
00000070: 3ac5 3f3f 9fb9 8e40 a0a0 cf3f b97e b2bd
2.443663 0.93180156 0.7583381 1.3473284 0.6110955 -0.01645494 3.6005716 0.16657475
0.012016412 2.5302725 0.47091457 0.073962726 2.2216418 0.6234931 0.5968391 1.1009408
2.6741395 0.5406459 1.3937001 0.90056145 0.68315405 0.36132216 0.49251625 0.42163682
-0.048442543 0.78695506 0.7043655 0.8706259 0.7491032 4.460159 1.6220894 -0.08715577

nns.0.1.bias f4 [32]
00000000: 0426 403f 02e6 57bf 7278 bdbe 6f06 333f
00000010: 1b09 a7be de2b 6cbf 4d13 2fbe f6ed eebf
00000020: e897 5abf 01aa 353f 1779 acbe 1648 1abf
00000030: 822b 99be 9d39 abbe a636 88bf 8cc6 5ebd
00000040: 1b5b 643f 88ac debe b619 523e f3b8 f3be
00000050: 72c7 f2bf 5659 59bf 1a0d af3e a315 d3be
00000060: 878f 8a3f f4b5 e33e 340b 603f 687b f4be
00000070: 65e9 9ebf 82b1 e2be be8e c5bd df4a 04c0
0.7505801 -0.8433534 -0.37005955 0.6993169 -0.32624134 -0.92254436 -0.17097206 -1.866637
-0.8538804 0.7096253 -0.33686134 -0.60266244 -0.29916006 -0.33442393 -1.0641677 -0.054388568
0.89201516 -0.43491006 0.2051762 -0.47602043 -1.8967116 -0.8490194 0.34189683 -0.41227445
1.0825051 0.44474757 0.87517095 -0.47750401 -1.2414976 -0.44276053 -0.096463665 -2.0670698

nns.0.1.running_mean f4 [32]
00000000: ef1b d9c0 a603 c4bf 0228 92be b98f 4bc0
00000010: 40d7 cfbe ca8b b5bf dc92 51c0 4cbe 903f
00000020: 99ae 3d3e d839 e2c0 5501 87bf 7e7e 1dc0
00000030: 112e d8c0 a8f4 24c0 bb62 9a40 8846 753f
00000040: c1f5 fbc0 d76c 29bf f3d6 a2c0 8a2d a0c0
00000050: a8ea 953f 3987 36c0 ed34 93bf 9de2 a6bf
00000060: cced d9bf 7711 0b40 09d4 07c0 22e8 89bf
00000070: e6f8 bb40 2c45 16c1 86ca 26c0 be40 0e3f
-6.78466 -1.5313613 -0.2854615 -3.1806471 -0.4059391 -1.4183285 -3.2745886 1.1308074
0.18523635 -7.069561 -1.0547282 -2.4608455 -6.7556233 -2.5774326 4.824552 0.9581075
-7.8737493 -0.661817 -5.088739 -5.005559 1.1712236 -2.8520033 -1.1500527 -1.3037907
-1.7025695 2.172941 -2.1223166 -1.0773966 5.874133 -9.391888 -2.606111 0.5556754

nns.0.1.running_var f4 [32]
00000000: 50b3 6243 cdf4 a041 193c 1e40 b0a6 7b42
00000010: acf8 9c40 e8bf 3141 77f2 5a43 5fe0 0742
00000020: e09b 0c40 dc9f 7f43 31f1 f440 a1b1 c841
00000030: 3892 6943 cac4 1142 b420 ee42 3140 6f42
00000040: e68a 9c43 c7b7 c440 ee2e 1343 5378 0143
00000050: 732a 0d42 c5c3 0942 08c5 3742 7348 d840
00000060: 3b0a c541 c303 2242 284a b441 b635 8141
00000070: f945 2243 fea3 ca43 4976 6242 6ea8 dc40
226.70044 20.119532 2.472418 62.91278 4.9053555 11.109352 218.94713 33.969112
2.1970139 255.62445 7.6544423 25.086733 233.57117 36.442177 119.06387 59.812687
313.08514 6.1474338 147.18332 129.47002 35.291454 34.44118 45.942413 6.758844
24.629995 40.503674 22.53621 16.151226 162.27333 405.2812 56.615513 6.8955603

nns.0.3.weight f4 [32, 32]
00000000: e678 903e 58a1 75be dc34 22be a702 2bbe
00000010: a61a 99bd f2a7 52be eabd 08be c31d 01bf
00000020: fa73 6cbe a74e 4b3e 5c87 5dbd 52d6 59bd
00000030: b58f 863e addd a5be 4f31 33be f272 f3be
00000040: 2d53 bf3e 6d52 57be 79bb 1d3e bcd5 17bd
00000050: d02d d1be 02da 92be 1ea5 5ebd d117 d9bd
00000060: 1091 b3bc fc24 9cbe 8059 393d b0ae 1f3e
00000070: f14d aabe 4b84 963e 4956 8b3d e0d8 63bd
00000080: 694a 75bd e71f 6839 f9df db3c e857 113e
00000090: d8e7 d8be e789 babe 90b0 fbbc 5cc7 98be
000000a0: 50fe 5abe 37fd 2d3e 4643 b8bb 94d4 1ebf
000000b0: 5359 153e 3ff5 723b 61cf 04be f61c 0dbf
000000c0: f5bd 823e 3402 8f3e 7d36 1cbd be57 09bd
000000d0: a643 96be cd99 c0be 92fd a2be 1345 bbbe
000000e0: c5ca 883e 9c16 483d 2ff2 923d 831b a13d
000000f0: 2cea 06bf ca02 6e3d 9ff7 bcbd bf8d 92be
00000100: 0836 9a3f 9f8e b13e c436 7e3e 585c fabc
00000110: 3d42 0ebe 0ad9 8dbd 0014 133e 3495 efbe
00000120: 80ec 71bd 0755 a43f 0da9 af3e 7bc1 8c3d
00000130: 44f4 e23f 4ae4 5dbd d872 f2bc db73 f4bd
00000140: 69e3 a03f bb40 513e 0f15 e73e e864 0c3f
00000150: e3fa f1be c92a f3be 2f38 b33e a1fa 87bd
00000160: 8006 83bd 6778 8abd 7e05 9a3e d4fc 493e
00000170: 1970 d73c 3069 8140 bafb cf3e 4957 53bd
00000180: 7905 ecbe 7bf2 153d a3b0 43bc da2c 6e3d
00000190: e519 32bd de91 633e d0e8 333e e848 0e3e
000001a0: 060f 8bbc 717d 083f de73 aabe be82 e8bb
000001b0: 2f68 dc3c 8a1c 633e 469f e63d 7e98 493f
000001c0: a1f3 8e3e 8daf fc3d 90b9 dd3d 9e1d 333e
000001d0: 8167 2b3e c8fa 213e 4dd7 0ebe 94bc f4bc
000001e0: 7d24 9dbd dc34 ccbb 955f 883d 970a bcbd
000001f0: 0ba6 a6bd 2987 053e ff6d ef3d 72c7 413d
00000200: f531 493f 7e3a 3abe 8eb9 b13d 6b34 313e
00000210: 6b1c a7bd 2800 183e 56de d63e 8e0d bf3e
00000220: 4ad6 973d 3c9b 603f fd01 f13d b5d5 793e
00000230: d2bb c03f 0741 103e 1831 35be 2488 0b3d
00000240: 3c60 5d3f a858 1bbe 04b1 6f3e 652c 2b3d
00000250: d86f 8c3e 9b24 0abc 5ef8 15be 9c2e cdbd
00000260: 88a6 04be baf5 6fbe 3221 56bc bd86 893d
00000270: c753 68be 0f19 9b3f 907c 25bc a533 d23d
00000280: 71bd 6e3f 5a51 d8bc b6d7 2d3e 2f4e ba3e
00000290: 6e6c 143e e139 8f3d 4607 493f cb21 9e3d
000002a0: 1c94 5e3e 5f91 663f 0a10 1cbe 6875 8f3e
000002b0: 6bf6 8d3f 7c29 e13d 98c7 a03d b1d0 dd3e
000002c0: f4a5 7f3f 7cf7 583d 5f5f e13e 8080 b53e
000002d0: a039 babc 29cd 04bc 5a3c c03e 412b 80be
000002e0: eb7f b63e 8fa7 803d cc58 843d 431a ea3d
000002f0: d265 6bbe cc89 983f 5ed9 253e bb14 033f
00000300: 8f2b ac3e 7e5e 07be a9d3 78bd 0f2e 073e
00000310: 3d63 21be ee8e fd3e a3ff 203e 01d7 ff3e
00000320: be68 563e e7dc ca3e d758 44bc 2d05 a43e
00000330: ed21 733e 14ff 663d 0ce6 c43e a9b6 753d
00000340: 9653 213f abea c2be f2d0 b13d e5cb bebd
00000350: 75c1 f33e 071f b53d 0451 febc aea6 923e
00000360: 7aa6 c63e e419 7abe 5be7 623d 5e0d 71be
00000370: b618 813e 7292 6d3f ccb7 0a3f acc6 fe3c
00000380: 8d19 813f f10e 1f3f d1ef 77be 0184 423f
00000390: d339 eabd 509f e43d 7b65 1e3e 1c7e 003f
000003a0: 75eb 103d 078d 1d3f ddfb ae3e 141a 33be
000003b0: 3953 0d40 be22 50be 8763 9fbd 3aa9 a3be
000003c0: 9803 1f3f 096e 1ebe 846b 783e a46e 403f
000003d0: d975 463e 60af adbe 4508 30bf 739a 2d3e
000003e0: 7fe6 5b3e 1aed 8cbe e83e e83e 7d3c 8dbc
000003f0: 07ae b13e 07fe 0940 2535 763f 5c47 fbbd
0.28217238 -0.23987329 -0.15840477 -0.1670023 -0.07475786 -0.20571879 -0.13353696 -0.5043604
-0.23091117 0.19854222 -0.054084167 -0.053182907 0.26281515 -0.32395688 -0.17499278 -0.47548634
0.37368146 -0.21027537 0.15403546 -0.037069067 -0.40855265 -0.28681952 -0.054356687 -0.10600246
-0.021919757 -0.30496967 0.04525137 0.15593982 -0.3326259 0.29397807 0.06803567 -0.05562675
-0.059885416 0.00022137129 0.026840197 0.1419369 -0.42364383 -0.36433336 -0.03072384 -0.298396
-0.21386075 0.16991125 -0.005623254 -0.6204312 0.14584856 0.0037072448 -0.12969734 -0.55122316
0.2553555 0.27931368 -0.0381379 -0.033530943 -0.29348487 -0.3761734 -0.31834084 -0.36576137
0.267172 0.048849687 0.07175099 0.078665756 -0.5270107 0.05810813 -0.092269175 -0.2862377
1.2047739 0.34679124 0.24825579 -0.030561611 -0.13892455 -0.069261625 0.14363098 -0.4679352
-0.059063435 1.2838448 0.34308663 0.06872841 1.7730794 -0.05417279 -0.029595777 -0.1193616
1.25694 0.20434849 0.45133254 0.5484147 -0.47261724 -0.4749358 0.35003802 -0.066396005
-0.06397724 -0.06761246 0.30082315 0.19725353 0.02629857 4.0440903 0.4062174 -0.051596913
-0.46097925 0.0366082 -0.011943969 0.058148243 -0.043481726 0.22223613 0.1756928 0.13894999
-0.016974937 0.5331641 -0.33291525 -0.007095664 0.026905147 0.22178856 0.11260848 0.7874831
0.2792025 0.12338171 0.10826409 0.17491767 0.16738702 0.15818322 -0.13949318 -0.029875077
-0.07672975 -0.0062318873 0.06658856 -0.09181707 -0.08137139 0.13039841 0.11690902 0.047309346
0.78591853 -0.18186375 0.0867797 0.17305152 -0.08159717 0.1484381 0.41966504 0.3731503
0.07413919 0.8773687 0.11767957 0.24397929 1.5057318 0.14087306 -0.17694509 0.03406538
0.86474967 -0.15170538 0.2340737 0.041790385 0.2742908 -0.008431579 -0.14645526 -0.10018656
-0.12954152 -0.23433581 -0.013069438 0.067151524 -0.22688209 1.2117022 -0.010100499 0.10263757
0.93257815 -0.026405979 0.16976818 0.36387774 0.14494488 0.069934614 0.78526723 0.07721289
0.21736187 0.9006557 -0.15240493 0.2801926 1.1090826 0.10994241 0.078505695 0.4332328
0.998626 0.052970394 0.44018075 0.354496 -0.022732556 -0.008105555 0.37546045 -0.25033
0.3564447 0.06281959 0.06462249 0.1143079 -0.2298806 1.1917052 0.161962 0.5120351
0.33626983 -0.1321964 -0.06074873 0.13201164 -0.15760513 0.4952311 0.15722518 0.49968722
0.20938393 0.3962166 -0.011984072 0.320352 0.2374341 0.056395605 0.38456762 0.05998865
0.63018167 -0.38069662 0.08682431 -0.093162335 0.47608534 0.088438086 -0.03104449 0.28642792
0.38798887 -0.24423939 0.05539642 -0.23540255 0.25214165 0.9280158 0.541867 0.031100594
1.0085922 0.62132174 -0.24212576 0.7598267 -0.1143681 0.11163199 0.15468399 0.5019243
0.0353808 0.61543316 0.3417653 -0.17490417 2.2082045 -0.20325753 -0.07782655 -0.31965047
0.6211486 -0.15471663 0.24259764 0.75168824 0.19380893 -0.33922863 -0.6876262 0.16953449
0.21474646 -0.27524644 0.45360494 -0.017240757 0.34703085 2.1561296 0.9617484 -0.1226947

nns.0.3.bias f4 [32]
00000000: 5569 123e 01bc 813c 4820 5cbe 17a8 afbd
00000010: 63c4 453d 284e e6bd eae5 213e 0e38 03bc
00000020: 1d9e eb3d 48e9 1b3c 80a6 bd3d dfb3 0ebe
00000030: 0ffa 203f 10ab 51bd c13f dabd 119d dbbd
00000040: 90e3 273e 9a80 503e 0be8 833d f928 da3d
00000050: aa2b 3e3d 22a6 23bd 036e f63d d2d0 21be
00000060: b483 233d c8e9 4c3d 3f76 cb3d 04d0 26be
00000070: 8fae 0abc 23a7 45be 5097 18bd 06c4 2cbe
0.14297993 0.015836718 -0.2149669 -0.085769825 0.048282992 -0.11245376 0.15810362 -0.00800897
0.11504767 0.009516068 0.09260273 -0.13935803 0.6288156 -0.05118853 -0.10656691 -0.107233174
0.16395402 0.20361558 0.06440743 0.10652346 0.04642836 -0.03995336 0.12032702 -0.15802315
0.039920524 0.05002764 0.09934663 -0.16290289 -0.00846447 -0.19302039 -0.037253678 -0.16871652

nns.0.4.weight f4 [32]
00000000: 3e74 a03e 3bb4 523e 7928 bf3f 20bb bbba
00000010: db4a a23e bead b43d 939a 033a 8b15 e43e
00000020: 9af9 e2bb 98aa d23e a38b ca3e 6a2b bc3b
00000030: 9b06 383f 0e46 d33b e546 063f 0e4a 7f3e
00000040: 27b0 eb3e 5365 9ebb d7ed b23c 27f4 1b3e
00000050: dc61 0fbd 5432 eb3e 7e99 0c3f 6647 dabc
00000060: f75a adbb f658 883e a226 b93e ca16 8b3f
00000070: 1970 cd3b e8dc dbbc 9f64 213f 6bfc bf3f
0.31338686 0.20576565 1.4934226 -0.0014322735 0.31697735 0.08822201 0.0005020287 0.44547686
-0.0069267275 0.41145778 0.3955966 0.00574248 0.7188508 0.00644756 0.52451926 0.24930593
0.4603283 -0.004833856 0.021841927 0.15229855 -0.035005435 0.45936835 0.5492171 -0.026645374
-0.005290385 0.26630372 0.36162287 1.086633 0.0062694666 -0.026838735 0.6304416 1.4998907

nns.0.4.bias f4 [32]
00000000: 0e33 dfbe 4ed9 efbe 3f0c f73d baa0 0ebe
00000010: 6e5a 88bf f7b7 9bbf 1f53 95be 7ae9 58bf
00000020: e9ab 41be 4d36 6ebf b2f7 01bf 9065 c8be
00000030: 31eb a5be cdca 2cbf 87fe cebe 4135 5dbf
00000040: 83f4 89bf 19e4 4ebd 6064 a3bf c965 92bf
00000050: 0458 32bf 893c e7bf 7133 b4be 4d73 55bf
00000060: 8388 5bbd d920 71bf 39de 23bf d0ef a1be
00000070: 34d1 0abf a155 cdbe 8592 90bf 03b7 e5be
-0.4359364 -0.46845478 0.12062883 -0.139285 -1.0652597 -1.2165517 -0.2916498 -0.84731257
-0.18913235 -0.93051606 -0.5076858 -0.39139986 -0.32406 -0.6749695 -0.40428564 -0.86409384
-1.0777744 -0.0505105 -1.2765007 -1.1437312 -0.6966555 -1.8065349 -0.35195497 -0.8337906
-0.053596985 -0.94190747 -0.6401096 -0.31628275 -0.5422547 -0.40104392 -1.1294714 -0.4486619

nns.0.4.running_mean f4 [32]
00000000: 96e2 813f 688f 393f 9f51 f340 e91a 383f
00000010: 9a61 8940 8d54 bc40 a89a 4c40 33fb b540
00000020: 67ae 0c3f 930e 8240 ddae 6b3f 8942 4240
00000030: 3aa2 d8c0 39be 2640 fbfc b43e 374d 9740
00000040: 2aca 7040 2680 8240 93b0 8340 9bfb 9740
00000050: 5661 6c40 9ddc 9f40 b30a b63e b3c3 2140
00000060: de37 0840 23c6 c240 7268 d740 9ee9 973f
00000070: 6d28 1040 366d 5440 b95b b83f d7f3 8f40
1.0147274 0.72484446 7.6037135 0.7191606 4.2931643 5.885321 3.1969395 5.686914
0.54953617 4.064279 0.92063695 3.035311 -6.769803 2.6053603 0.3534926 4.7281756
3.762339 4.078143 4.1153045 4.7494636 3.693441 4.9956803 0.35555038 2.5275695
2.1284099 6.0866866 6.7314997 1.1868169 2.2524674 3.3191657 1.4402992 4.4985156

nns.0.4.running_var f4 [32]
00000000: 0aa8 cc3f bc84 7b3f b11b 8b41 950f 543f
00000010: bdae b340 b518 c440 3afe fa3f a377 0a41
00000020: eded be3e 4067 ca40 c875 1340 0a37 2240
00000030: 2e40 1c41 e2d0 0740 b2dd 5a3f 3f6a 8940
00000040: 8ade c240 7b91 7040 0b31 7040 dc89 aa40
00000050: e4c1 5740 6ec3 ca40 c5bf 6c3f 723c f83f
00000060: d03c c83f 2ec8 b840 92d6 0941 14aa 6840
00000070: 1bce 923f 58d4 d83f 462f cd40 c7f1 f740
1.5988781 0.9824941 17.388521 0.82836276 5.6150804 6.128016 1.9608834 8.654208
0.37290898 6.3251038 2.3040638 2.5346093 9.765669 2.1221242 0.8549453 4.2942195
6.0896654 3.7588794 3.7529933 5.3293285 3.3712091 6.336356 0.9248012 1.9393446
1.5643559 5.774436 8.614885 3.6353807 1.1469148 1.6939802 6.4120207 7.748264

nns.1.0.weight f4 [32, 32]
00000000: f244 563d 05d3 a0be ac50 793e 576e 74be
00000010: 1328 febd c08b 39bd e220 263e ad81 08bf
00000020: 9e56 1d3e fc4b 823e 975a 133f 690c ce3d
00000030: d219 29c0 2636 43be 9b6b c03d ac3c ba3d
00000040: ae5d 273f 826d 893d 2d67 03be 5f93 a2bd
00000050: 0232 a0be 2e13 223e 97db 24bd f59f 79bd
00000060: 68a3 f7bd 364f 653d f1b3 98bd 39d7 27bf
00000070: 4a1f 4dbe 12cc 18bc 8211 4ebe 63a2 c2be
00000080: bdde f3bd d1e4 43be 4eb6 3e40 9067 473e
00000090: b3fc 8fbe aedb d5bd 438e 223e 5ab1 71bf
000000a0: bb40 dfbd 76a7 82be da75 093f f090 913d
000000b0: 6dd9 093f 1795 71bd 8f9a 93be e584 e1be
000000c0: 431b e5be 9add 9e3f 4bea dcbe d743 a9be
000000d0: b24c fbbd 53fb c4be eda9 443d 3c1c 89be
000000e0: cef7 883e f61e e5bd 0b2b 30bd 435d 083f
000000f0: 4a13 79be 4ffa acbd 1b12 97be 830c 0dbe
00000100: 1b80 83bd 6416 82bd 7c67 1540 43a5 c23c
00000110: f4c9 cebe 97fb abbe b572 2bbe 5ee4 bcbe
00000120: c4ff 31be 9230 c0bd af15 d63e 73fe 193e
00000130: 6d02 f93e 7f64 333e 311f 073e 6f08 87bd
00000140: a251 e13b 61f9 b43d 3464 93be b620 7fbe
00000150: 3c2f 7e3d 8ef2 62bd cd08 5f3e e666 58be
00000160: 40c1 843e 7263 4bbe 0433 7abe b43d 7d3e
00000170: ff43 5ebe a5e6 16bd bba1 b03e 40b0 b4be
00000180: 31d9 cbbd ebdb e43e 6463 90bf 1360 fd3d
00000190: d6aa 10be fda6 4f3e bdcc d53e 8f90 533e
000001a0: 0e44 22bd 2791 b53d 52e2 023e f918 463d
000001b0: 10b7 edbe fcf4 003e fcde 9f3d a837 613e
000001c0: 49b8 933d dfb0 4b3e 541a 513e 82ba ebbd
000001d0: 84e2 4e3e 7d9c c73e 5a70 273e c529 ac3d
000001e0: 1895 49bd f473 b0bc 80e5 273f f9d6 11bf
000001f0: 5520 ad3d ddab e93e ad2f b63e 0327 dbbf
00000200: c85c c43d dd6f b0be 969d c03f 21f9 1d3e
00000210: 86d2 aabd 2808 60be 59b6 4939 55e5 50bf
00000220: 224d ee3b 5054 9abe fb2c f03e 3e1f 683e
00000230: c36b 8a3f 22cb 7f3e 1073 fbbc 7e0c 883d
00000240: 17f7 9fbe 6e90 843e 14c0 b9bd d1ce 38bd
00000250: 4ced 99be 5116 033e 9dc4 d63e e7f2 893b
00000260: a28d a13e 0c78 e93d 317a c4be 90aa 593f
00000270: 0cec 27be 47a5 04be 9b70 023e 80c8 0240
00000280: a05a 30be 6424 a43d 2872 bb3e 0267 abbd
00000290: 4d96 bbbd 3122 59be a3a2 ab3d 09e8 8a3d
000002a0: 58ce 0a3e 2fba 12be 586c 813d 9c12 fbbe
000002b0: 7925 8cbe 1949 d9bb 097c ebbd 356d 45be
000002c0: 6d40 b5bd d5c5 38bd a546 81be 7a77 44be
000002d0: e89f 28be ecc6 023d 3cb0 dd3d 2bbe dd3c
000002e0: 7adb 56be f3fb b8bc 9946 893e facc 9a3e
000002f0: e5f2 26be 7214 c63d 135a 6bbe 8aca d53c
00000300: cb0e 393e dd93 e2be 5faa b03f 32b0 463e
00000310: c92e f9be bfbc d4be 1397 e0bd 17c4 85bf
00000320: d43b 01be 64f6 bfbe 0659 2f3f d478 8fbe
00000330: f0ce 80be 4413 45be 95a1 6ebe 4478 fbbd
00000340: bc8f 743c 88ed ba3e e14f 6bbc dbab c4be
00000350: 07fb 46be 549f f73d 942b 133e 2bbc aabe
00000360: aaec 463c 43bc 2ebf 24ae 28be eeb7 01c0
00000370: 6f04 f7bd 8144 81be 9ea6 15bf 271b 82be
00000380: 0509 e33b 9d03 5bbc dbdf 44bf 6f1f 253e
00000390: 5fc6 a4b9 7b35 e6be 3699 02be 300b 263e
000003a0: ebd2 f73c f203 c43d 3341 573e a069 d1bc
000003b0: ba66 1cc0 964e e7bd 6398 be3e 9db2 debd
000003c0: b204 c83c eb11 3dbe 18bc 19be ea87 d73c
000003d0: 6b5f 17bf 4ab5 dabd 7953 39be 9651 c03d
000003e0: 76eb b7bd 8eab 8ebe 4c9c eebe 3b55 a63c
000003f0: 651b bc3e bc62 63be 4cda cb3c 8f42 a43e
0.052311845 -0.31410995 0.2434718 -0.23870216 -0.12409987 -0.04529929 0.16223481 -0.5332287
0.15365073 0.25448596 0.57560104 0.10060961 -2.642201 -0.19063625 0.09395524 0.090936035
0.6537732 0.0671034 -0.12832327 -0.07938265 -0.31288153 0.15827629 -0.04024848 -0.060943563
-0.12091714 0.055983745 -0.07456196 -0.6556278 -0.20031467 -0.009325998 -0.20123866 -0.38014516
-0.11907718 -0.19130255 2.979877 0.194731 -0.28122482 -0.10442291 0.15874581 -0.9441124
-0.10901018 -0.25518388 0.5369545 0.07107723 0.5384739 -0.058980074 -0.28828856 -0.44046703
-0.44747362 1.2411377 -0.431475 -0.3305957 -0.12270488 -0.38472995 0.048013616 -0.26779354
0.2675156 -0.11187546 -0.0430098 0.53267306 -0.24323764 -0.0844618 -0.29506 -0.13774304
-0.064209186 -0.06351927 2.3344412 0.023760444 -0.40388453 -0.33590385 -0.16742976 -0.3689298
-0.17382723 -0.09384264 0.41813418 0.15038471 0.48634663 0.17518805 0.13195492 -0.065934055
0.0068761865 0.08836628 -0.28787386 -0.24914822 0.062056765 -0.0554071 0.21780701 -0.21133003
0.25928688 -0.19862154 -0.24433523 0.24730569 -0.21705626 -0.036841054 0.3449839 -0.35290718
-0.09953535 0.44699034 -1.1280332 0.1237184 -0.14127669 0.20278545 0.41757765 0.20660613
-0.039615683 0.08865576 0.12781647 0.04836366 -0.46428728 0.12593454 0.07806203 0.21993887
0.07212884 0.1989169 0.204202 -0.11510183 0.20203596 0.3898658 0.16351452 0.084064044
-0.049214453 -0.021539666 0.65584564 -0.5696865 0.084534325 0.45638934 0.3558325 -1.712128
0.09588009 -0.34460345 1.5048091 0.15427066 -0.083409354 -0.21878111 0.00019236784 -0.8159993
0.0072723785 -0.3014245 0.46909317 0.22668168 1.0814136 0.24979833 -0.030694515 0.06643008
-0.31243202 0.2589144 -0.09069839 -0.04511911 -0.30063856 0.12801482 0.4194688 0.0042098644
0.3155337 0.1139985 -0.38374475 0.8502588 -0.16398638 -0.12953673 0.12738268 2.0434875
-0.1722207 0.080147535 0.36610532 -0.083692566 -0.09159527 -0.21204449 0.0838063 0.067825384
0.13555276 -0.14328836 0.06319493 -0.49037635 -0.2737234 -0.0066310284 -0.11498267 -0.1927994
-0.08850179 -0.045110542 -0.2524921 -0.19186202 -0.1646725 0.031927988 0.1082463 0.027068218
-0.20982161 -0.022581076 0.26811674 0.3023451 -0.16303594 0.096718684 -0.2298358 0.026097555
0.1807205 -0.44253436 1.3801993 0.1940315 -0.48668507 -0.41550252 -0.10966315 -1.0450467
-0.12620479 -0.3749267 0.68495214 -0.28021872 -0.2515788 -0.1924563 -0.23303826 -0.12278798
0.014926847 0.36509347 -0.014362306 -0.38412365 -0.19431697 0.12090936 0.14372092 -0.33346686
0.012141386 -0.68256015 -0.1647268 -2.0268512 -0.120613925 -0.25247577 -0.5845736 -0.2541134
0.0069285654 -0.013367561 -0.76904076 0.16125272 -0.00031428316 -0.44962677 -0.12753758 0.16215205
0.03025194 0.09571065 0.21020965 -0.025563061 -2.44377 -0.11294286 0.37225637 -0.108739115
0.024416301 -0.18463866 -0.15013158 0.026309926 -0.5912997 -0.106791094 -0.18098249 0.09390561
-0.089804575 -0.2786526 -0.4660362 0.020304313 0.3673965 -0.22205633 0.024884365 0.3208203

nns.1.0.bias f4 [32]
00000000: 3ec9 f33d 4684 1cbe ad02 febd f256 1fbe
00000010: 2c71 e6bb a687 8a3d 7116 80bc 7d5a 113d
00000020: 5f10 30be 6ced 043e 2a5e 40be 1c1f 0a3e
00000030: 5f45 d73d acca 9cbd 7bbf 403c 2681 5fbd
00000040: 5dc6 c1bd 92c8 c93d c5db c3bc fab6 9d3d
00000050: fc3f af3c 5b73 943d b0c0 b63d 28ee 863d
00000060: 5a24 34be 8018 8cbd b3f2 28be 61b6 27bd
00000070: 6c49 f4bd 9c0b 8bbd eb32 20be aa89 023e
0.11903618 -0.15284833 -0.12402854 -0.15560511 -0.007032534 0.06764154 -0.0156357 0.035486687
-0.17193745 0.12981194 -0.1878592 0.1348843 0.10511278 -0.07655844 0.0117644025 -0.054566525
-0.09461663 0.09852709 -0.023908505 0.07700916 0.021392815 0.07248565 0.08923471 0.065883934
-0.17591992 -0.068406105 -0.16498832 -0.040945414 -0.119280666 -0.06789324 -0.15644424 0.12747827

nns.1.1.weight f4 [32]
00000000: e7e6 0540 9ef0 ba3f 79d6 fa3c 910f 553f
00000010: 4d23 423f 5405 083c 633e f63f c4cc 1b40
00000020: 3e44 c73e c67c d13e 0d37 2140 8713 9c3e
00000030: 22c5 e33f 57dc 0440 098c c53f 3248 aa3f
00000040: 6f8c a33e 0ff6 00bd 2361 1a40 6fb8 2e3e
00000050: 63f7 3a3f b667 863f 9d73 fa3f c65a 653f
00000060: 0c17 8f3f 8237 5f3f fa2c 9e3f e88e 5640
00000070: dadb 413f ee71 883e ea99 803f bad0 873f
2.0922182 1.460468 0.030619847 0.8322688 0.75835115 0.008302052 1.9237789 2.434373
0.38919252 0.40915507 2.518985 0.30483648 1.7794535 2.0759485 1.543336 1.3303282
0.3194308 -0.03148466 2.4121788 0.17062543 0.7303373 1.05004 1.9566532 0.89591634
1.1178908 0.87194073 1.2357476 3.3524723 0.7572609 0.2664942 1.0046971 1.0610573

nns.1.1.bias f4 [32]
00000000: c3f5 c73e bd05 873f 9ea8 443f b1f2 efbe
00000010: 3c8c 1cc0 62bd edbe 94c6 ac3f c59c 133f
00000020: 2e62 11c0 01d6 b8be fc0b 053e 6d71 333f
00000030: 3e50 9bbe b7bf 3d3f 7603 d4bf 2339 603f
00000040: c27c b4be 9b76 44bf a956 173d 27ad 32bf
00000050: 806e d3be fa7d 2b3f 42c8 a23e f1d5 0ebe
00000060: 19d5 60bf 8683 b7bf 7fad 0fbf 9b81 1e3f
00000070: ed40 aebf a14d eebf 98b9 3b3f a2f2 9dbd
0.3905469 1.0548626 0.7681979 -0.46864846 -2.4460592 -0.4643355 1.3498101 0.57661086
-2.2716174 -0.36100772 0.12992853 0.7009495 -0.30334657 0.7412066 -1.6563556 0.87587184
-0.35251433 -0.7674348 0.03694788 -0.6979546 -0.41295242 0.669891 0.3179341 -0.139488
-0.8782516 -1.4337013 -0.5612411 0.6191651 -1.3613564 -1.861744 0.7333007 -0.07712294

nns.1.1.running_mean f4 [32]
00000000: 1970 59c0 1219 8440 2454 5540 ff8c 35c0
00000010: 2bec 8a40 5abf 653e fd50 c03e 9747 7cc0
00000020: e6bf 1140 48cf 543f d3bb 78c0 cb6a 4b40
00000030: 1835 4bc0 ea4a 32c0 60b7 553f 7352 7540
00000040: 832e 5cbf fab5 1abf ad81 6bc0 cd84 9d3c
00000050: 38da 4ebf b954 a43f d4ac 74c0 5d9d 943e
00000060: 0311 53c0 cd58 fe3f aabe 8d3f 1b69 13c0
00000070: 2861 e03f 808c ff3f ec20 05c0 2794 d2bf
-3.397467 4.1280603 3.3332605 -2.8367307 4.341329 0.22436276 0.3756179 -3.9418695
2.2773376 0.83128786 -3.8864639 3.1783931 -3.1751156 -2.7858224 0.83482933 3.8331573
-0.8600847 -0.60433924 -3.6797898 0.019228363 -0.80801725 1.2838355 -3.8230486 0.2902631
-3.2979133 1.987085 1.1073811 -2.3032901 1.752965 1.9964752 -2.0801344 -1.6451463

nns.1.1.running_var f4 [32]
00000000: fa5e e742 7724 1a43 0bb0 b442 40c4 7242
00000010: 9706 fa42 81cc 8b40 4d57 f941 8ada d542
00000020: 5623 8442 493d f641 4d5d a942 7b49 6a42
00000030: f34c 6a42 2ebd f442 23b9 0a42 4798 b842
00000040: 714b f840 fb74 e441 7ff8 2843 c03c c240
00000050: 1ed9 a940 5556 ac41 c3b4 da42 3ba9 7142
00000060: b105 6242 4271 6942 086f 3f42 1a90 e942
00000070: 3ffc c741 170e 2a42 6e51 5e42 c0c3 0042
115.6855 154.14244 90.343834 60.69165 125.01287 4.368714 31.167627 106.926834
66.069016 30.779924 84.68223 58.57176 58.575146 122.36949 34.680798 92.29742
7.759209 28.55712 168.97069 6.069916 5.3077536 21.542154 109.35305 60.415264
56.505558 58.360603 47.85843 116.78145 24.998167 42.51376 55.57952 32.191162
