result/08.24.2022_20.26.17/config_127fold_3_optim_dict.pt (torch, 196713 bytes, 118 tensors)

first_h.0.weight f4 [64, 3]
000000 1f 2e ff be 19 c7 01 be 9f ad e3 3e 08 f6 bb be
       -0.49839875 -0.12673606 0.444684 -0.36711144
000010 7b ac 51 bd bd 00 a5 3d ec 38 23 be 27 d4 0e bf
       -0.05118988 0.080567814 -0.15939683 -0.5579247
000020 7e d3 44 3e ef d8 f1 3e 79 f7 78 3d 6e 9c 2b 3e
       0.19221303 0.4723582 0.060782883 0.16758892
000030 f8 66 a8 be e9 df 3d be 5c d0 24 3e 4f 52 de bd
       -0.3289106 -0.18542446 0.16095108 -0.10855543
000040 c9 18 d9 be 91 43 a9 3e 3a 85 f4 3e 25 2e 42 3f
       -0.42401722 0.33059362 0.47757894 0.7585166
000050 48 82 0b 3f 44 34 5f 3e 26 f7 81 3f bb 52 49 3f
       0.5449567 0.21797282 1.0153549 0.7864186
000060 fe 27 1a 3f c7 5f e9 bd 39 0c 6f 3d a1 3d ee bd
       0.60217273 -0.11395221 0.058361266 -0.116328485
000070 6a 32 81 be 5e 47 2d 3e 41 de bd 3e c5 45 39 be
       -0.25233775 0.16921756 0.3708363 -0.18093021
000080 57 7c fd be 7e d0 84 be ea 3d fb 3e 7d 87 e3 be
       -0.49508926 -0.25940317 0.49070674 -0.44439307
000090 8a 65 dc 3e 38 d4 02 be 29 b3 19 be 7b 32 8b bd
       0.43046218 -0.12776268 -0.1500975 -0.06796738
0000a0 ca e5 bc be 76 94 82 3e 52 04 a2 3d 21 bd cd be
       -0.36894065 0.25503892 0.0791098 -0.40183356
0000b0 33 de bf be 5b bd 90 bd a1 d1 b0 3e e5 bf 09 be
       -0.37474212 -0.07067367 0.34534934 -0.13452108
0000c0 48 c3 76 3e c0 6f 1a be 37 38 35 3d 37 30 ee 3e
       0.24097931 -0.15081692 0.044243064 0.4652116
0000d0 a5 ea 08 3e df cd e2 be dc ba a3 bd 75 09 83 3e
       0.1337076 -0.44297692 -0.07994625 0.25593153
0000e0 2e aa 6e be 2a fa 21 be 58 cc 2c 3f b5 ce 92 3e
       -0.23307106 -0.15818086 0.67499304 0.2867333
0000f0 e5 f7 e4 bc f4 c9 10 be 50 98 7e bd 88 8c aa be
       -0.027950237 -0.14139539 -0.062156975 -0.33310342
000100 53 a4 61 3e 55 76 82 3e b8 be 08 bf 66 d1 49 3e
       0.22035341 0.25480905 -0.53416014 0.19708785
000110 3e f0 03 be 38 84 c1 3d 71 98 55 3f 73 fb eb be
       -0.12884614 0.09449047 0.8343573 -0.46090278
000120 b1 77 19 3f 41 a9 ea 3e 05 7f 9b bd e3 a1 ac be
       0.5994826 0.45832255 -0.075925864 -0.3371726
000130 12 a3 52 be 9f 84 8b be a5 dc cb 3e 30 38 47 3f
       -0.20570019 -0.2724962 0.39816776 0.7782011
000140 8e 50 3b be 80 57 49 bf 04 bd c5 be 92 d4 0a bf
       -0.18292448 -0.7864914 -0.3862077 -0.54230607
000150 d8 e6 2c 3f 4e ae 40 3f 25 97 38 3e bf 7a 1f 3e
       0.6753974 0.7526597 0.18026407 0.15574168
000160 be b5 1d bf 5d ec a0 bc 2a 1c 4e be 0f 08 49 be
       -0.6160544 -0.019643957 -0.20127931 -0.1963198
000170 f1 70 f8 be e4 67 20 be a9 44 7a 3e b1 a6 f2 3e
       -0.48523667 -0.15664631 0.24440254 0.473928
000180 83 b5 3d 3f 06 3e f2 3d 76 28 d2 3e a8 db 8a 3f
       0.7410509 0.11828236 0.41046494 1.0848284
000190 21 5e 59 3e 84 6b c0 3e 73 37 0f be fc a7 86 3e
       0.21227314 0.37582028 -0.13985996 0.26300037
0001a0 db 0b 05 3d 44 f0 6b be 7d c7 69 3e c3 9c c6 be
       0.03248201 -0.23040873 0.22830005 -0.38791475
0001b0 cf cf 5b be 9d 7d d1 3d e0 b7 61 be 75 05 2b be
       -0.21465991 0.10229037 -0.22042799 -0.167013
0001c0 53 eb b6 be 44 7e bc 3e 7a 20 b6 be f9 bf f1 3e
       -0.35726413 0.36815083 -0.35571653 0.47216776
0001d0 e5 27 72 3e 10 df 86 3f e9 4e a1 3e f5 04 1b be
       0.23648031 1.0536823 0.31505516 -0.1513861
0001e0 0a b8 eb be 36 16 83 3e b1 24 cf 3e 2c 7d f0 bd
       -0.46038848 0.25602883 0.4045768 -0.11742625
0001f0 6c d7 80 bb 95 b6 ef bc db e8 43 3f 91 3c 14 be
       -0.0039319303 -0.029261867 0.76527184 -0.14476229
000200 08 e8 cf 3d 50 91 46 3f 2e d8 db 3e 53 38 ca 3e
       0.10151678 0.7756548 0.4293837 0.39496097
000210 7c 22 91 be cc 38 b7 3d cf 2f c2 3d df a9 89 be
       -0.28346622 0.0894638 0.09481775 -0.26887414
000220 43 bd 16 3d 35 cc 45 3b 29 d5 00 bf 21 ff e7 be
       0.036801588 0.0030181531 -0.50325257 -0.45311835
000230 3f da c7 bc 08 38 ca 3e 9f 0e 6f 3f ea 3c 9d 3c
       -0.02439606 0.39495873 0.93381685 0.019194085
000240 d3 99 ba be 83 fb 8c be 50 7f 80 3c 47 1c 8f be
       -0.36445484 -0.27535638 0.015685707 -0.2795126
000250 60 31 bf 3b bb fe c6 be 44 f9 1d be 29 bb 5d 3f
       0.0058347434 -0.3886622 -0.15427119 0.8661371
000260 f7 6c 18 be ca 93 5c be 0c f8 9d be c9 8d 4f be
       -0.14885317 -0.21540752 -0.30853307 -0.2026893
000270 ca 1b 88 bd 9e c9 84 3e cb bb 09 3b 87 7a 56 3d
       -0.06645925 0.25935072 0.0021016474 0.052362945
000280 b3 33 0b 3f 6c e5 83 3e ac c9 d7 bd 0b 1a 98 3d
       0.5437576 0.25760972 -0.10536513 0.07426842
000290 02 c4 41 be bd d5 a3 3e bd f4 91 be 31 9f 80 be
       -0.18922427 0.31999007 -0.28507033 -0.25121453
0002a0 cc ba a5 be 67 95 9e 3e 85 ee 98 be 39 06 98 bd
       -0.32369077 0.3097336 -0.29869476 -0.07423062
0002b0 56 c7 44 bd 89 b0 9d 3e c7 65 ae be 88 04 36 3e
       -0.048041664 0.30798748 -0.34062025 0.17775166
0002c0 c3 8e e8 3e c4 44 80 3e d0 87 54 bf 03 85 9d be
       0.4542142 0.25052464 -0.83019733 -0.30765542
0002d0 fb 4f 86 bd 69 0d f3 3e 55 34 0f bf f1 9a 01 3f
       -0.06558224 0.4747117 -0.5593923 0.50627047
0002e0 28 74 80 3e 4d fc 64 be 0f 16 8f bd b8 58 3f be
       0.2508862 -0.2236187 -0.06986629 -0.18686187
0002f0 e9 85 ec bb b0 b0 99 3c c9 dd 15 bf 5d 32 05 bf
       -0.007218112 0.018761009 -0.5854154 -0.52029973

first_h.0.bias f4 [64]
000000 c8 a8 1a 3e a9 0d 7f bd e6 cf a8 bc 23 f4 b8 3d
       0.15103447 -0.062268887 -0.020606946 0.090309404
000010 b6 16 14 3e 52 97 97 be 75 a7 39 be d3 51 dd be
       0.14461789 -0.29607636 -0.18130286 -0.4322649
000020 14 78 50 bd b7 9b 86 bd 2d 9a b6 3e 96 d1 20 3e
       -0.050895765 -0.06572669 0.35664502 0.1570495
000030 5f 71 67 be 9d 6a b7 3e 78 cb 2c be 7b cc a3 bd
       -0.22601841 0.35823527 -0.16874492 -0.07997986
000040 53 88 ba be a7 63 ae 3e 63 3e e7 bd e9 fa a7 3e
       -0.36432132 0.34060404 -0.11291196 0.32808617
000050 fc d2 04 bf bb b6 05 3f 05 71 01 3f 58 bc e2 be
       -0.51884437 0.5223195 0.5056308 -0.4428432
000060 40 06 11 3f 01 6f 97 3e ac b2 bf 3d 8f 1b a7 3e
       0.5665016 0.29576877 0.09360251 0.32638213
000070 45 10 42 be c0 0e c4 3e e0 c9 02 bf 5d 53 0c bf
       -0.18951519 0.38292503 -0.51089287 -0.548147
000080 05 92 02 3f 52 00 e6 be 4f 2a e2 be 3c 27 f6 3d
       0.5100406 -0.4492212 -0.44172904 0.12019202
000090 0a 71 58 3c 3c 0d 82 3e b8 41 1d be e9 c8 df 3e
       0.013210544 0.25400722 -0.15357101 0.4370797
0000a0 b0 97 14 3e f7 c9 24 3d ec 7c 95 be 09 cf 0a 3f
       0.14510989 0.04023167 -0.2919687 0.5422216
0000b0 14 f9 1a be 6a b7 34 3c 0d 23 a1 be bc 3b c7 bd
       -0.15134078 0.011030057 -0.31472054 -0.0972819
0000c0 0f 61 d8 3e d9 6d f7 3e 64 8a d0 be 80 1a 81 bc
       0.4226155 0.48325995 -0.40730584 -0.015759706
0000d0 23 51 53 be 12 47 8e be 87 f5 89 bd e3 ee 8f 3a
       -0.2063642 -0.27788597 -0.06736284 0.0010981228
0000e0 da a6 26 be 3f bf 27 bd ce 85 fc be 28 06 b4 3d
       -0.16274586 -0.04095387 -0.49320835 0.08790237
0000f0 0a 06 19 3e de 6f ed 3e 5d 12 09 3f 6d b9 0e bf
       0.1494371 0.4637441 0.53543645 -0.5575169

first_h.1.weight f4 [64]
000000 13 43 68 3f 5a 69 8a 3f 12 3a 4a 3f 95 38 79 3f
       0.9072735 1.0813401 0.7899486 0.9735196
000010 7b 68 75 3f e5 02 86 3f b2 21 87 3f 37 b0 6f 3f
       0.9586255 1.0469633 1.0557158 0.9362826
000020 6c f8 70 3f 4c ee 7d 3f 56 8b 85 3f 2c 38 78 3e
       0.9412906 0.9919174 1.0433147 0.24240178
000030 22 38 83 3f f5 db 83 3f ff 5f 42 3f 8d 38 73 3f
       1.0251505 1.03015 0.7592773 0.95008165
000040 2f b5 85 3f 73 54 88 3f 0b 19 86 3f ae 14 88 3f
       1.0445918 1.0650772 1.0476393 1.0631311
000050 6a e8 6a 3f 21 69 61 3f 1b aa 83 3f 18 48 87 3f
       0.91760886 0.8805104 1.0286287 1.0568876
000060 05 d1 6b 3f d9 dd 59 3f 6f b5 83 3f a8 13 48 3f
       0.92115813 0.8510414 1.0289744 0.78154993
000070 80 3d 88 3f e6 d0 03 3f 8b 1c 6f 3f ed 09 7e 3f
       1.0643768 0.5149063 0.9340293 0.99233896
000080 9c b3 77 3f 94 8c 69 3f ad e7 71 3f e1 17 88 3f
       0.9675844 0.9123013 0.94494134 1.0632287
000090 0d 63 83 3f 31 3f 70 3f cd 48 66 3f eb 97 7f 3f
       1.0264603 0.9384642 0.89954835 0.99841183
0000a0 3f 3b 4f 3f ca 3d 88 3f c0 09 65 3f 37 72 8e 3f
       0.8094978 1.0643857 0.89468 1.1128606
0000b0 03 14 7d 3f 41 de 4b 3f 9a 72 08 3f 81 8b 88 3f
       0.9885866 0.7963601 0.5329987 1.0667573
0000c0 14 cc 68 3f 80 8e 6c 3f 41 32 6f 3f 32 57 84 3f
       0.909364 0.9240494 0.93436056 1.033911
0000d0 f1 78 82 3f d1 28 f0 3e ac 4c 55 3f 97 4f 6e 3f
       1.0193158 0.4690614 0.83320117 0.93090194
0000e0 d3 4f 86 3f 46 14 8a 3f ed bc 6f 3f 1e 4e 1c 3f
       1.049311 1.0787437 0.9364765 0.610567
0000f0 a6 ea 6d 3f 54 32 86 3f bb 9e 6a 3f 56 bd 88 3f
       0.9293617 1.0484109 0.91648453 1.0682781

first_h.1.bias f4 [64]
000000 b3 09 c5 bd 6b 3e 49 3e e1 95 77 be 75 48 c2 bf
       -0.096209906 0.19652717 -0.24178268 -1.5178362
000010 59 cf 37 bc 48 11 fe 3f 7f b2 2c be 45 75 96 bd
       -0.011218869 1.9849024 -0.16864966 -0.07346586
000020 0e e4 1f be 74 32 4a 3d 9e 56 b3 be a0 49 06 be
       -0.1561434 0.049364522 -0.3502702 -0.13114023
000030 f1 6d a0 be d4 b8 cc 3d 2c 90 c2 bd a5 2a a3 3e
       -0.3133388 0.09996191 -0.09500155 0.31868473
000040 17 e4 9d be 68 18 33 bf 3b c5 20 3e e1 50 d3 3e
       -0.3083808 -0.69959116 0.15700237 0.41272643
000050 56 a5 55 bf 25 84 c7 be eb f0 f8 3d d8 27 65 be
       -0.8345541 -0.38968006 0.121553265 -0.2237848
000060 51 91 f3 be d9 78 f4 bd f3 a5 9c be 1f 8e 00 be
       -0.47571805 -0.11937112 -0.3059536 -0.12554215
000070 2c 3e 05 bf b8 d9 07 3d bb 43 91 be 15 b7 94 3d
       -0.5204799 0.033166617 -0.28371987 0.072614826
000080 88 1e 8e bf c0 95 a9 be 76 0d ed ba eb 29 0a 3e
       -1.1103067 -0.33122063 -0.0018085677 0.13492553
000090 b6 7c a0 3e de a3 e6 3d 0e 22 34 be 8d c2 6c bf
       0.31345147 0.11261724 -0.17591116 -0.9248436
0000a0 2e 6b bb be f1 10 11 3e 69 d5 fc bd e5 04 ac bf
       -0.3660521 0.14166619 -0.12345392 -1.3438994
0000b0 9a 32 65 3d bd c1 41 be 06 c8 67 be 60 62 8b be
       0.05595646 -0.18921562 -0.22634897 -0.27223492
0000c0 f6 14 e9 bd 88 e1 b6 be 46 63 81 be c0 ec ba 3d
       -0.11380951 -0.35718942 -0.25271052 0.09127188
0000d0 fc 6e 97 be 33 19 42 be e3 6e 3e bd 66 00 16 bf
       -0.29576862 -0.18954925 -0.04649247 -0.5859436
0000e0 e8 67 1c 3e b7 a7 06 bf 18 33 bd bd c1 19 a9 be
       0.15274012 -0.5259966 -0.09238261 -0.3302746
0000f0 f4 95 f3 be 45 d3 39 be 78 18 a0 be f4 5a 0a 3e
       -0.47575343 -0.18146999 -0.31268668 0.13511258

first_h.1.running_mean f4 [64]
000000 b2 48 1f c9 fe 43 ea c8 69 be 4b c8 e8 01 17 49
       -652427.1 -479775.94 -208633.64 618526.5
000010 e3 41 d2 c8 f0 c8 0a c8 b7 f1 19 49 17 21 8b 48
       -430607.1 -142115.75 630555.44 284936.72
000020 c0 5c 40 49 9d ac 14 c8 b5 d1 eb 48 a1 d0 a5 c8
       787916.0 -152242.45 482957.66 -339589.03
000030 d1 f6 0e 49 83 22 ad c7 0e db ca 47 7a b2 b4 c7
       585581.06 -88645.02 103862.11 -92516.95
000040 49 12 9a 48 d0 8c 14 49 48 69 cc c7 db 50 4a c8
       315538.28 608461.0 -104658.56 -207171.42
000050 17 f0 0e c7 fe e8 d4 c8 dc b0 2a c9 0a dd 07 48
       -36592.09 -436039.94 -699149.75 139124.16
000060 d7 1d 40 49 90 50 d7 c8 61 98 fd 48 55 4a 7b c9
       786909.44 -440964.5 519363.03 -1.0292853e+06
000070 69 48 58 49 a8 51 47 48 de a7 80 c8 a0 4b 48 c8
       885894.56 204102.62 -263486.94 -205102.5
000080 8f cd 6b 49 c0 4b ae 49 e0 d1 32 c8 ea 31 93 c8
       965848.94 1.427832e+06 -183111.5 -301455.3
000090 1d 46 89 c8 d6 83 55 c8 3d 61 e3 c8 24 e9 a7 49
       -281136.9 -218639.34 -465673.9 1.3755245e+06
0000a0 25 24 13 c9 0a e1 15 c8 34 87 73 49 61 10 78 49
       -602690.3 -153476.16 997491.25 1.01607006e+06
0000b0 d0 5a b6 c8 8a dc ab c8 fb d6 20 c9 ac 5f ff 48
       -373462.5 -351972.3 -658799.7 523005.38
0000c0 af a8 e8 c8 0a ab b2 c8 6f 31 45 c8 54 a3 89 c8
       -476485.47 -365912.3 -201925.73 -281882.62
0000d0 d1 f2 a9 c7 57 e6 85 47 c1 73 06 c8 22 e5 c5 48
       -87013.63 68556.68 -137679.02 405289.06
0000e0 6b 12 cf c8 54 c9 bd c7 e0 be d9 c8 06 f1 9f 48
       -424083.34 -97170.66 -445943.0 327560.2
0000f0 55 ad a7 c7 4b 1c 20 49 69 4e b3 c7 a2 cd c2 46
       -85850.664 655812.7 -91804.82 24934.816

first_h.1.running_var f4 [64]
000000 0f cf 31 55 f3 3d c0 54 20 72 91 53 cb d0 1f 55
       1.2218929e+13 6.6053845e+12 1.2493699e+12 1.0982444e+13
000010 43 e8 9a 54 cc fe 06 53 9c 6e 26 55 25 92 07 54
       5.3225733e+12 5.798004e+11 1.1437125e+13 2.32909e+12
000020 85 ab 81 55 81 e7 1a 53 a9 9b c2 54 72 ac 40 54
       1.7821709e+13 6.6530895e+11 6.6866816e+12 3.3101075e+12
000030 94 9c 10 55 bb 05 52 52 33 53 90 52 ab d4 64 52
       9.937636e+12 2.2550982e+11 3.0993557e+11 2.4570513e+11
000040 68 5e 26 54 1c a2 1a 55 d3 68 92 52 c1 79 8f 53
       2.8581938e+12 1.0626315e+13 3.1441194e+11 1.232446e+12
000050 de 28 0f 51 ce d8 9e 54 19 29 4c 55 ff 70 05 53
       3.8429123e+10 5.4579377e+12 1.4029805e+13 5.731264e+11
000060 33 69 81 55 8e 67 a2 54 ee 25 e1 54 80 44 dd 55
       1.7786103e+13 5.5801765e+12 7.736032e+12 3.0410784e+13
000070 70 fc a3 55 f6 40 8b 53 51 fa e7 53 af 97 8c 53
       2.2538076e+13 1.1961806e+12 1.9926741e+12 1.2076805e+12
000080 61 a3 c2 55 f5 2c 55 56 94 1a 60 53 b7 d1 17 54
       2.675087e+13 5.8597266e+13 9.625186e+11 2.608234e+12
000090 1f 0e 04 54 8e bf 9f 53 ab 2b b5 54 69 71 45 56
       2.2686904e+12 1.3722271e+12 6.2249737e+12 5.427272e+13
0000a0 72 ba 17 55 c4 65 1d 53 57 97 cf 55 a0 a4 d7 55
       1.042669e+13 6.760172e+11 2.8531113e+13 2.9637757e+13
0000b0 12 59 69 54 57 ff 4e 54 70 48 35 55 e6 23 e5 54
       4.008887e+12 3.5561886e+12 1.245767e+13 7.8731983e+12
0000c0 f9 a9 bd 54 78 b4 5f 54 ea 46 88 53 4a c0 04 54
       6.516804e+12 3.843222e+12 1.1706106e+12 2.280647e+12
0000d0 b8 78 4a 52 48 3c fb 51 5b 43 fd 52 86 26 88 54
       2.1740218e+11 1.3488102e+11 5.4387838e+11 4.678095e+12
0000e0 0b 4a 96 54 f4 6f 7c 52 c4 25 a6 54 1f 3c 33 54
       5.1638986e+12 2.710525e+11 5.7087854e+12 3.0792312e+12
0000f0 a7 0a 45 52 ab 29 33 55 9d 64 61 52 de f2 85 50
       2.1157182e+11 1.2311971e+13 2.4201391e+11 1.797829e+10

first_h.3.weight f4 [64, 64]
000000 d6 70 a3 3e bf 4f a4 3e 0d 1a 41 be 6b 2f 6f bd
       0.31922024 0.3209209 -0.18857594 -0.05839483
000010 79 f3 7e 3e c9 51 56 3f 6c b7 81 be ed 82 1a be
       0.24897565 0.83718544 -0.25335252 -0.15089007
000020 04 55 86 be 7d f4 82 3e 16 f4 11 be 7a 94 a5 3d
       -0.26236737 0.25577155 -0.14253268 0.0808496
000030 c7 e1 8a be ae bc f2 3e 03 a4 5a be 6e 37 5b 3e
       -0.2712538 0.47409576 -0.21351628 0.21407863
000040 58 db 88 be 06 4e 32 be e5 9c 88 3e ff 63 10 3f
       -0.26729846 -0.17412576 0.266822 0.5640258
000050 43 ad 15 be 9a 45 55 bb b3 6d f0 3e da 7a 54 be
       -0.14616875 -0.0032542706 0.46958694 -0.20749989
000060 05 51 52 be c2 ca d2 3e d6 f6 5d be b8 dd b1 3e
       -0.20538719 0.41170317 -0.21676192 0.3473947
000070 fc ee f1 bd eb 74 73 be 16 b7 af be a5 1d d9 3e
       -0.11813161 -0.2377507 -0.3431937 0.4240543
000080 da 7c 03 be 15 44 84 be 12 78 7c 3e 22 bf 84 3e
       -0.12840596 -0.25833192 0.24655178 0.25927073
000090 3b a0 3a 3e 89 2a f6 3e 01 ed a8 3e b2 0e a3 bd
       0.18225186 0.48079327 0.3299332 -0.07961787
0000a0 b5 da 8f 3d 99 12 c0 3e 0c 9e 07 be 9c 84 f2 bd
       0.07024137 0.3751419 -0.13243884 -0.118416995
0000b0 c7 f2 ea 3e 53 f7 9f be 17 1d d4 3d c4 c1 9c be
       0.4588835 -0.3124338 0.10357111 -0.3061658
0000c0 ec 55 a4 3e e0 37 ec bd d2 2d 39 be dd 67 ac 3e
       0.32096803 -0.11534095 -0.18083885 0.3367299
0000d0 ae 43 2c be d7 69 97 be 3b dc 91 3e 7b 15 90 be
       -0.16822693 -0.29572937 0.28488335 -0.28141388
0000e0 e5 b7 00 3f eb 5e 11 3e 19 c2 82 3e 1e 53 a2 be
       0.502806 0.14196365 0.2553871 -0.31704038
0000f0 01 e8 36 3e d9 15 74 be 05 46 1f be d8 1f a0 3e
       0.1786194 -0.23836459 -0.15554054 0.31274295
000100 14 8d f7 bd 6e 8c e9 bd 28 b9 32 bc 8d 77 2e be
       -0.120874554 -0.11403738 -0.0109084025 -0.17037793
000110 48 4a c5 bd ec 80 80 bd 57 d0 9c bd 01 33 ad bd
       -0.09633309 -0.0627459 -0.07656925 -0.08456994
000120 39 7f e1 3c b1 28 43 bd 76 74 4d 3c 06 0b 8f 3d
       0.027526485 -0.04764623 0.0125399735 0.069845244
000130 16 bf ac bd 4d 36 27 be 7d 8b ff bc 68 a5 db bc
       -0.08434884 -0.16329308 -0.031194443 -0.02681227
000140 bd 0e a3 bd 2c 8d 19 be c7 c8 93 bd 3b f2 14 3d
       -0.079617955 -0.14995259 -0.072160296 0.03636382
000150 9e 0f 2a be ef 71 b6 3c e0 57 86 bc f7 41 e3 bd
       -0.1660752 0.022271125 -0.016399324 -0.11096566
000160 3e de 13 be 70 8e 6d 3d 5d c3 3b be 57 33 ca bd
       -0.14440247 0.057997167 -0.18336244 -0.098730735
000170 54 51 8b bd f7 16 e3 3d e0 e5 7f 3d 60 0e e5 bd
       -0.068026215 0.110883646 0.062475085 -0.111843824
000180 6f c3 e8 bd c2 97 8b bd 3b ea 0c be 5f 6a 44 3d
       -0.11365401 -0.06816055 -0.13761227 0.047953006
000190 f3 2b 6d bd db fb bd bd 0b 69 9f 3d 5d c0 b2 bd
       -0.05790324 -0.09276553 0.07783707 -0.08728097
0001a0 9e c0 f1 bd 66 f4 60 bd 56 46 61 3b e3 a7 dc bd
       -0.11804317 -0.054920577 0.00343742 -0.10774209
0001b0 e3 75 d0 3c 39 2d 57 3a e0 39 49 bd 6f 35 94 3c
       0.025446838 0.0008208338 -0.04912746 0.018091885
0001c0 71 f1 b0 bc db e9 c8 3c fd 89 b1 3c 7e 90 99 3c
       -0.021599503 0.024525573 0.021672243 0.018745657
0001d0 90 00 36 be cd f5 91 bd 30 8b f4 bd b8 3f 9a 3b
       -0.17773652 -0.07126961 -0.119406104 0.004707303
0001e0 60 e3 2c bd f9 58 a2 ba b5 f4 24 bd f3 74 3c 3c
       -0.04220903 -0.0012386135 -0.040272433 0.011502492
0001f0 cf 9c 64 bb 91 ca 09 be 23 96 39 bd 7f e1 bb bd
       -0.0034883504 -0.13456179 -0.045309197 -0.09173869
000200 e0 91 52 bc 5a 97 0a 3d 70 57 5b bd 7d eb 01 be
       -0.012852162 0.033835746 -0.053550184 -0.12687488
000210 43 ff 9e 3a cb b8 44 bc 07 c7 31 be e2 e6 30 3d
       0.0012130517 -0.012006949 -0.17361079 0.043188937
000220 e9 fc 43 be 04 a9 ea 3c 82 1c ac bd 07 74 85 3c
       -0.19139446 0.028645046 -0.08403875 0.016290678
000230 c7 03 30 be 95 a0 c5 3d e3 1b fb bc 13 28 e4 bd
       -0.17188941 0.09649769 -0.030652946 -0.11140456
000240 ec 6b 56 bc 5b 3e 52 be af 9a ce bd 53 cc ae bd
       -0.013087254 -0.20531599 -0.10088097 -0.085350655
000250 4c 65 36 be a4 72 ef 3b 7b a7 32 bc 9b 06 c7 bc
       -0.17812079 0.0073073674 -0.010904188 -0.024295142
000260 7e d6 82 bd 28 7e 71 bd f2 0e 90 bd bc 9e 5a bd
       -0.063885674 -0.058958203 -0.070341006 -0.053374037
000270 00 68 3a be 7e 18 bd 3d f8 c5 1c 3e cb 96 c9 3d
       -0.18203735 0.09233187 0.15309894 0.098432146
000280 2d 8a a0 bd 55 10 2e bd c4 69 48 be e3 06 09 bb
       -0.07838855 -0.042496044 -0.19571596 -0.0020908646
000290 28 b4 68 be 37 0a e4 bd 5c 09 a7 3d 0a 40 21 3a
       -0.22724974 -0.11134761 0.08156082 0.0006151205
0002a0 98 5a a2 bd 5e 20 af 3d d7 e5 88 3b 8f 55 0f be
       -0.07927436 0.085510954 0.0041777897 -0.13997482
0002b0 d1 b3 7a 3d b9 8f ba 3d d8 10 91 bd 2d 89 35 be
       0.061206643 0.09109444 -0.07083291 -0.1772811
0002c0 ea e8 c5 bc ff b7 15 be f8 a9 ea bc a2 70 e2 bd
       -0.024158914 -0.1462097 -0.0286455 -0.11056639
0002d0 db 77 43 bd c7 b5 5c bd e8 3d a6 bd 31 32 e2 bd
       -0.047721725 -0.053884294 -0.081172764 -0.110447295
0002e0 46 30 10 3c c8 84 48 bd 07 bf 49 bd 84 44 cb bc
       0.008800572 -0.048954755 -0.049254443 -0.024812944
0002f0 84 53 65 3d f0 d2 cd 3b 24 29 a9 bd cc b3 9d bd
       0.05598785 0.006281249 -0.082598 -0.07700309
000300 1a eb 5c bc 19 31 c3 3d 74 30 86 be 71 2a ab be
       -0.013483787 0.09530849 -0.26208842 -0.33430818
000310 f6 31 dc 3d 9c ec a9 be 09 32 a3 be 57 7c 89 be
       0.10751717 -0.3318833 -0.3187411 -0.26852676
000320 6a 4d 49 be 4b 1b 03 3e b2 5b 86 be d3 1b 21 bd
       -0.19658437 0.1280338 -0.26241833 -0.039333176
000330 02 1d 73 be 70 f7 a3 3d 47 3f 92 3c 5d 49 ee bd
       -0.23741534 0.08006179 0.017852439 -0.11635087
000340 35 ba 46 be 54 e1 8e be f0 da 93 bd c4 72 62 be
       -0.1940697 -0.27906287 -0.072194934 -0.22114092
000350 b4 1a 9e be 1a 75 a4 3a 20 bb c4 bc 3a a3 57 be
       -0.30879748 0.0012547106 -0.02401501 -0.2105836
000360 46 73 ad be ad 2b 61 3d 2e da ef bd a5 20 09 bd
       -0.3387701 0.054973293 -0.11711536 -0.033478398
000370 b6 e3 89 be 6a c2 4d 3d 05 88 27 bd 8d b8 09 bd
       -0.26931542 0.050234236 -0.040901203 -0.033623267
000380 9c ba d3 be 8c 7a ba bd 60 66 80 bd e7 a9 7f bc
       -0.4135331 -0.09105405 -0.062695265 -0.015604473
000390 5b 72 b4 bd d9 ce 33 bd e1 f3 94 bb 84 c3 c9 be
       -0.08810874 -0.043898437 -0.004545674 -0.3940698
0003a0 ea 95 c7 3d f6 2b 98 3d 2c af 97 be 30 61 88 be
       0.09745391 0.0743026 -0.29625833 -0.26636648
0003b0 1d be 44 3d 18 65 21 3e 57 7d f7 3c 43 24 a1 be
       0.04803287 0.1576122 0.030211134 -0.31472978
0003c0 ab 41 a1 3d c7 8a 19 be 53 bf be 3b 08 5c 6e 3d
       0.07873853 -0.14994346 0.0058211475 0.058193237
0003d0 51 83 aa bd 82 99 b0 bd c2 52 8a bd 13 67 a8 be
       -0.08325828 -0.08623029 -0.06754066 -0.3289114
0003e0 26 af 95 bd 74 e2 3c be 0a 60 a6 3d 71 1f cf 3d
       -0.073087975 -0.1844576 0.08123787 0.10113419
0003f0 51 8a ab bd 75 8f 50 be a8 d7 c2 bd 0f c5 d6 bd
       -0.08375991 -0.20367225 -0.095137894 -0.10486805

first_h.3.bias f4 [64]
000000 3c 18 30 be 95 a0 46 bd 7d 0e 53 3e f3 89 24 3c
       -0.17196745 -0.048492987 0.20610996 0.010042655
000010 a8 84 ee bd 9f a2 9a 3e a2 b1 e3 bd 57 0f 70 be
       -0.11646396 0.30202195 -0.11117865 -0.23443352
000020 cd 5a b8 bc 85 cd 38 bd 78 01 2f bd 1f c3 3c bd
       -0.022504235 -0.045117874 -0.04272601 -0.04608452
000030 b2 ed 09 3e c0 04 c4 bd e5 57 87 be 76 f7 81 bd
       0.1346958 -0.095712185 -0.26434246 -0.063460276
000040 3a d0 03 3b 6a 0a 18 be b8 4b 2f 3d 51 26 32 bb
       0.0020113126 -0.14847723 0.04279682 -0.0027183483
000050 37 65 50 3d a1 b2 4f 3d d1 90 ae 3d d3 98 ee 3b
       0.050877776 0.050707463 0.08523715 0.0072814017
000060 b6 0e fc 3d 6e c8 ad bd 07 b6 60 be 2a 7f 53 be
       0.123074934 -0.084854946 -0.21944438 -0.20653978
000070 dc b2 f4 bd 80 83 16 bc e9 01 25 bc ac 02 8a be
       -0.11948177 -0.0091866255 -0.010071256 -0.26955163
000080 3d c9 36 3d 29 a7 1a be 71 82 02 be 2b 50 23 be
       0.04462551 -0.15102829 -0.12745072 -0.1594855
000090 68 c5 e4 3c dd 9c 97 bd 42 d4 0f be 22 13 c5 bd
       0.027926162 -0.07402966 -0.14045814 -0.0962279
0000a0 fd 7f 15 3e cd 9a 96 bd 62 fd ab bb b5 ed 48 3d
       0.14599605 -0.07353745 -0.0052487114 0.04905482
0000b0 87 2e e1 3a a3 e7 f8 3d 90 0a 00 bd ae 4c 30 be
       0.0017180004 0.12153556 -0.031260073 -0.17216751
0000c0 20 32 8f 3e 07 ba 7a be 90 cc 1e be e2 ed 6c be
       0.2796793 -0.24485026 -0.15507722 -0.2313762
0000d0 04 4f 2c 39 76 12 9b 3d e6 f1 fc 3d 72 9b d3 3c
       0.00016432634 0.075718805 0.12350826 0.025830958
0000e0 02 fd 18 3e 8d d8 6b be 71 ac 35 3d d8 49 04 be
       0.14940265 -0.23031826 0.044353906 -0.12918794
0000f0 d1 9d 0f be 8c e1 1e 3d 24 4b 7e be ea 30 1f bd
       -0.14025046 0.038789317 -0.24833351 -0.038865007

first_h.4.weight f4 [64]
000000 76 c3 66 3f 34 26 1e 3f d7 6e 21 3f b9 46 34 3f
       0.90142 0.61777043 0.63059753 0.70420414
000010 5b 0c 47 3f 61 34 2e 3f 07 d0 19 3f 40 a5 3a 3f
       0.7775323 0.68048674 0.6008305 0.729084
000020 25 34 fd 3e b1 0c 2d 3f 98 85 2a 3f 26 b3 27 3f
       0.49453846 0.6759749 0.666101 0.65507734
000030 20 c6 11 3f 55 a4 4e 3f ec dd 0f 3f 75 0f 08 3f
       0.5694294 0.807195 0.56198 0.53148586
000040 0f 3d 37 3f 5a fc 3c 3e 34 29 38 3f be 88 57 3f
       0.71577543 0.1845564 0.7193787 0.84193027
000050 07 85 1d 3f e9 90 44 3f 32 8a 49 3f f4 18 4b 3f
       0.6153111 0.76783615 0.78726494 0.7933495
000060 74 f2 02 3f 22 40 7d 3f 4f d1 22 3f 29 8e 67 3f
       0.51151204 0.98925984 0.6360063 0.90451294
000070 96 cc 34 3f 06 f5 c7 3e 0b 11 5f 3f 4a a4 60 3f
       0.70624673 0.39054126 0.8713538 0.87750685
000080 9d f7 46 3e 83 84 5b 3f fb 82 55 3f 9a 8f 7e 3f
       0.19430394 0.8574907 0.83402985 0.9943787
000090 0d 68 2b 3f 7d 5f d8 3e 73 b1 50 3f 6d de 3f 3f
       0.66955644 0.42260352 0.81520766 0.7494877
0000a0 ed 2d 0e 3e 58 e7 40 3f 9c 7b 6f 3f 30 53 46 3f
       0.13884707 0.75353 0.9354799 0.77470684
0000b0 80 d2 4e 3f e0 28 25 3f 61 9a 51 3f 76 51 aa 3e
       0.8078995 0.64515495 0.8187619 0.33265275
0000c0 d6 03 2d 3f d6 b8 45 3f 8b 6a 1d 3f de be 19 3f
       0.6758398 0.7723516 0.61490697 0.60056865
0000d0 f3 57 64 3f c2 49 39 3f ef bd 1a 3f 32 df 0b 3f
       0.891967 0.7237817 0.60446066 0.54637444
0000e0 7c 2b 38 3f 01 cf 1c 3f da ca 06 3f 77 10 6a 3f
       0.7194135 0.6125336 0.52653277 0.91431373
0000f0 d8 b5 76 3f 2b fc 57 3f b3 3f 72 3f 15 44 35 3f
       0.9637122 0.8436915 0.9462845 0.7080701

first_h.4.bias f4 [64]
000000 ef fe 28 bf fc d3 ba be 2c 13 6e be e2 af 6d be
       -0.66014 -0.36489856 -0.23249501 -0.23211625
000010 8f 24 9c be 18 8a 18 bf 60 28 8f be 5f f0 6f be
       -0.30496642 -0.59585714 -0.2796049 -0.23431538
000020 b2 51 c6 be cf 5f f9 be ff 97 d3 be 48 d2 2e bf
       -0.38734204 -0.4870591 -0.413269 -0.68289614
000030 7f 62 4b be e0 c3 10 bf 74 cb 52 bf af eb 50 be
       -0.19861792 -0.5654888 -0.82341695 -0.20402406
000040 76 29 50 be e5 e2 77 be 3f 46 9d be 74 f0 e2 be
       -0.20328316 -0.24207647 -0.30717656 -0.44324076
000050 dd 94 78 be d8 72 bd be 25 05 a5 be 37 f8 0d bf
       -0.24275537 -0.3700168 -0.32230487 -0.5545687
000060 44 81 8a bf 7c d4 ac be 3b de 68 be f2 df fd be
       -1.0820699 -0.33755863 -0.22741024 -0.4958492
000070 90 58 60 be 59 eb 38 be ba 81 b9 be d9 db e0 be
       -0.21908784 -0.18058528 -0.36231786 -0.4391773
000080 f9 ce 62 bf 3b 4a eb be b1 c9 be be 7b b7 f7 be
       -0.88597065 -0.4595507 -0.37263253 -0.48382172
000090 ee a6 7a be 3f ab 09 bf 17 66 de be e6 73 94 be
       -0.24477741 -0.53776926 -0.43437263 -0.28994673
0000a0 ec d3 0a bf 64 39 6e be 1b 0c 9f be 9d 58 45 be
       -0.5422962 -0.2326408 -0.31063923 -0.19272085
0000b0 db 6f bf be 7f 9f 6c bf 89 3e 7b be 7b be de be
       -0.37390026 -0.9243087 -0.24535574 -0.435047
0000c0 26 e6 5e bf d3 a9 a4 be 13 79 9c be 27 91 2f bf
       -0.8706993 -0.32160816 -0.30561122 -0.6858086
0000d0 fe fb a7 be 4b 1f 8a be e5 3e a8 be 5a 8c 03 bf
       -0.32809442 -0.26977 -0.32860485 -0.51386034
0000e0 97 f2 66 be 55 b2 a5 be b6 ea 2f bf 83 43 f5 be
       -0.22553478 -0.3236262 -0.68717515 -0.4790307
0000f0 15 74 ee be 91 37 75 bf a2 6b df be 95 47 10 bf
       -0.4657294 -0.9578791 -0.43636805 -0.56359226

first_h.4.running_mean f4 [64]
000000 7b c1 3f 40 d5 cc 2d bf fc 92 a7 be d0 e3 c9 bf
       2.996184 -0.67890674 -0.32729328 -1.5772648
000010 ee 9a 11 be 3f 48 09 40 d6 f9 f9 bf 96 14 28 3f
       -0.14219257 2.1450346 -1.9529369 0.6565641
000020 8d 5f d2 bf e4 af 49 3f 1b c5 16 40 e0 3f 72 40
       -1.643541 0.7878401 2.3557804 3.7851486
000030 ca 84 55 3f 66 84 e0 3f c9 52 3c 40 a1 40 66 3f
       0.83405745 1.7540405 2.9425528 0.89942366
000040 2b 6b 90 bf 12 f2 bc 3f 6e f2 51 bf 52 b7 8b bf
       -1.1282705 1.4761374 -0.82010543 -1.091532
000050 f2 07 f2 3e 9e 8f 16 bf d0 8b fa 3b 71 93 28 3f
       0.47271687 -0.5881289 0.0076460615 0.6584998
000060 c8 44 74 40 38 28 cc be e4 b5 fc bb c0 de da 3f
       3.816698 -0.39874434 -0.0077121127 1.7099228
000070 ae 6c 1a bf ff 46 fd 3e e7 1e aa bf f9 80 d7 3e
       -0.6032208 0.49468228 -1.3290681 0.42090586
000080 4b 01 04 40 e6 a0 13 40 b0 f4 d8 3d 54 69 75 3e
       2.062579 2.3066955 0.105935454 0.2396596
000090 d4 b8 12 bf 3b e6 8d 40 f6 20 94 bf 3d 89 b8 be
       -0.57313275 4.4343543 -1.1572559 -0.36042204
0000a0 41 0f 09 40 03 e9 29 bf 9f f7 98 be 94 95 b3 bf
       2.141556 -0.6637117 -0.2987642 -1.4030023
0000b0 40 d6 4b bf 71 e3 3e 3f 53 9d 5c bf bc f2 2c 3f
       -0.79623795 0.745658 -0.8617756 0.67557883
0000c0 7c e0 04 40 63 b1 1b bf 7f 30 c6 bf cf f6 ba 3f
       2.0762014 -0.60817546 -1.548355 1.460657
0000d0 00 a4 29 bf a2 4d a5 be d3 fb 84 be 77 0c 2d 3f
       -0.6626587 -0.32285792 -0.25973377 0.67597145
0000e0 1f 47 f1 be 13 7e 93 3f dd 29 40 40 76 f4 6c 40
       -0.47124574 1.152285 3.0025551 3.7024207
0000f0 79 79 9b bf 92 65 57 40 b4 26 bd 3f 1c ec 05 40
       -1.2146446 3.3655744 1.4777436 2.092536

first_h.4.running_var f4 [64]
000000 aa 9d 9d 41 83 c2 04 40 5c bd 32 40 70 4a ab 41
       19.701984 2.074372 2.7928076 21.411346
000010 08 99 5f 41 9a bf 39 42 7a f1 98 42 d0 b9 26 3f
       13.974861 46.43711 76.471634 0.6512728
000020 96 81 d0 40 2d ad e4 40 6c bb 17 41 d1 9c 07 41
       6.5158186 7.1461396 9.483257 8.475785
000030 24 28 79 41 df c6 2a 40 73 01 3d 3f d4 1c 11 40
       15.5723 2.6683881 0.73830336 2.2673845
000040 14 ba 8c 40 33 96 90 41 d7 a5 a1 3f 1e fc 94 40
       4.3977146 18.07334 1.2628735 4.655776
000050 8f b9 20 40 a0 5d 61 40 69 e6 be 3f 86 fc 9e 3f
       2.5113256 3.5213394 1.4914066 1.2420814
000060 dd 3e 38 41 71 63 98 40 09 26 9c 3f f5 00 63 40
       11.5153475 4.762139 1.2199107 3.5469334
000070 af 9e c2 40 74 59 df 3e ea 00 ed 41 06 04 52 40
       6.0818706 0.43622935 29.625446 3.2814956
000080 e4 16 86 41 45 a3 84 41 60 22 48 41 74 c8 a8 40
       16.761177 16.579721 12.508392 5.2744694
000090 01 58 42 41 ec 51 cf 3f 02 c0 e6 40 80 c7 10 40
       12.146485 1.6196876 7.2109385 2.2621765
0000a0 21 32 69 41 fb 85 66 40 24 f6 6b 40 bb 54 50 41
       14.5747385 3.6019275 3.6868982 13.020686
0000b0 59 7b 61 40 16 7b 90 41 c4 84 0f 40 db 0f 5b 41
       3.5231535 18.0601 2.2424784 13.691371
0000c0 e9 92 29 42 38 13 80 40 18 2f 76 40 a3 46 0c 41
       42.393467 4.002346 3.8466244 8.767245
0000d0 0b 6b 3b 40 6b f9 44 3f f3 3e 8a 3f 8d b7 c8 40
       2.9284084 0.7694308 1.080046 6.272406
0000e0 9f 1e 03 40 6a ec ad 3f 7f d4 4b 3f 62 96 b5 41
       2.048744 1.3587773 0.7962112 22.69843
0000f0 94 43 bc 40 56 61 e1 41 51 62 9d 41 bb 48 67 3f
       5.8832493 28.172527 19.673006 0.9034535

nns.0.0.weight f4 [64, 64]
000000 66 18 8b bd 47 36 2e bd 5d b8 e2 3d 96 8b 18 bd
       -0.06791763 -0.04253223 0.11070321 -0.037242495
000010 eb 42 ed bd d9 8d 38 be 3c c7 56 3e ab c6 41 be
       -0.11585029 -0.1802286 0.2097444 -0.18923442
000020 e4 5a 00 3d 3c 59 20 bd 51 77 0f 3d f7 86 f7 bd
       0.03133668 -0.0391476 0.0350259 -0.120862894
000030 50 25 3c be 22 48 06 be 57 b0 0e be 3b b0 3d bd
       -0.18373609 -0.13113454 -0.13934456 -0.046310645
000040 44 f1 b1 3d 38 01 93 bc ae 90 24 3d 13 b9 16 be
       0.08688596 -0.017944917 0.04017704 -0.14719038
000050 9e 9a 85 bc 40 48 bf 3b 28 b8 54 3d 7c 97 15 be
       -0.016309079 0.0058374703 0.051933438 -0.14608568
000060 8c bb cd bd e3 dd 9e bc 72 d5 35 3d 10 bd e1 3c
       -0.10045537 -0.019392913 0.04439301 0.027555972
000070 2b 14 84 3c d1 44 4b be 35 b8 d9 bc f3 97 3f 3d
       0.016122898 -0.1985047 -0.026577095 0.04677577
000080 e3 69 28 be 1c 09 fa bd eb 62 1f be 57 68 5c bd
       -0.16446643 -0.12208769 -0.15565078 -0.053810444
000090 a2 21 4b 3d b7 fb 69 bd 65 69 8f bd e1 0e 68 3d
       0.04959262 -0.05712482 -0.07002524 0.056654815
0000a0 eb f1 3b be 64 89 2d 3d 53 94 54 3d 11 41 13 3d
       -0.18354003 0.042367354 0.051899265 0.035950724
0000b0 cb f7 8c 3d 5e 5a ba 3d 42 76 ea bd 88 7d ee 3c
       0.068832 0.090992674 -0.11448337 0.029112592
0000c0 1a 91 10 bd 91 47 98 bd c9 ab 7b ba 76 21 d0 bd
       -0.03529463 -0.07435525 -0.0009600488 -0.10162632
0000d0 f2 f3 1e be c4 55 01 be 7f 9d 77 3e c1 e7 0d bd
       -0.15522745 -0.12630373 0.24181174 -0.034644846
0000e0 da 4a 8a bd 36 08 02 be a2 fd f1 bd 8b 8f 1d be
       -0.06752558 -0.12698445 -0.11815955 -0.15386789
0000f0 0a d7 43 3d ca 54 f5 bd 49 92 af bd 31 2c 9b bd
       0.0478125 -0.11979063 -0.085728236 -0.07576788
000100 db ae aa 3d d6 64 2d 3e 8f 40 df 3c 9c 40 98 bd
       0.08334132 0.16932997 0.027252464 -0.07434198
000110 61 0b 56 3d 24 1c 8d 3c c8 32 e7 bd fa c5 15 3e
       0.052256946 0.017225333 -0.11288983 0.14626303
000120 14 6d 0d 3e 8c 05 3e 3e 7c 57 a9 3b fb b9 ed 3b
       0.13811141 0.18556803 0.0051678997 0.0072548366
000130 68 36 0f 3d 57 9c 1e 3d 62 e2 34 3e ae ea ba 3d
       0.034963995 0.038723316 0.17664483 0.09126793
000140 4f 42 d4 3d 7b bc 31 3d 81 7e 28 3e f5 c7 b3 bc
       0.1036421 0.04339264 0.16454507 -0.021945933
000150 8c 15 ea 3d 7c ac cb 3d eb 18 3a 3c 73 8f 8c 3c
       0.11429891 0.09945008 0.01135848 0.017158246
000160 89 56 33 3c ea 0c d7 bc 5a 67 f0 3d df 9f e4 3d
       0.010945925 -0.026251275 0.11738463 0.111633055
000170 fb b7 2b 3e 5e cc 0d 3e 70 7a ef 3d 2b 19 c0 3d
       0.16769402 0.13847491 0.11693275 0.093798004
000180 b0 2e 2d 3e 9c 31 0a 3e bb dc 35 3d 7d 5d f3 bc
       0.16912341 0.13495487 0.044399958 -0.029707665
000190 c8 26 04 bd 7c 1b c1 3d 4d 61 fb 3c 08 0e a3 3c
       -0.032263547 0.0942907 0.030686045 0.019904152
0001a0 c9 f1 13 3e 30 47 42 3e 78 5c fd 3b db 18 9a bd
       0.14447702 0.18972468 0.0077319704 -0.07524272
0001b0 9d cd 69 3c 56 01 d6 3b 9e 41 b8 3b 9e e9 23 3d
       0.014270213 0.006530921 0.0056230566 0.040017717
0001c0 07 a8 29 3e ad 82 30 3e d2 be 92 3d 5a ca 46 3e
       0.16568004 0.17237349 0.07165302 0.19413128
0001d0 af e6 af 3d 4f 57 b2 3d c0 20 eb 3d c8 e3 54 3d
       0.08588921 0.08708059 0.11480856 0.05197504
0001e0 9c 9c fa bc 11 0e 17 bd 1a a4 f0 3d 80 9c 9a 3b
       -0.030592255 -0.03687865 0.1175005 0.0047183633
0001f0 77 60 dd 3d 34 2e 50 3e 53 69 81 3d 8d a9 d0 ba
       0.10809415 0.20330125 0.06318917 -0.0015919671
000200 36 4d 08 3e bd 07 f3 3c f5 66 3f be 1a dd 53 be
       0.13310704 0.029666776 -0.18691619 -0.20689812
000210 0b be f3 3b ee 2f 99 3e e1 3b 30 be db 60 c0 3d
       0.0074384264 0.2991938 -0.17210342 0.09393474
000220 70 46 eb bc d4 17 86 bd 83 16 41 3d b8 80 a0 3d
       -0.02872011 -0.065475136 0.04714061 0.07837051
000230 f0 d4 b1 3d fc a8 f5 3d 93 d0 ac 3c ba 58 f2 3d
       0.08683193 0.11995122 0.02109555 0.118333295
000240 4e 4c 15 bd 52 ff 7e be 2f 82 cd bc 85 18 74 3c
       -0.036449723 -0.24902084 -0.02508649 0.014898424
000250 eb d1 ad bd b7 0b 14 3d d4 f4 f2 3c 41 b5 91 3d
       -0.08487304 0.036143985 0.029657759 0.071146496
000260 a5 c0 9f 3d 79 97 f0 3d 94 cb 6c 3d e2 45 ec 3c
       0.07800416 0.11747641 0.057811335 0.028841916
000270 4d 69 c2 bc 7e 45 17 be 51 ad 9c bc e2 79 0f bd
       -0.023731852 -0.14772603 -0.019125612 -0.035028346
000280 3f 58 85 bc e9 65 10 3e 0e b3 bd 3d f2 c6 82 3d
       -0.01627743 0.14101376 0.092626676 0.06385602
000290 75 c4 c8 ba 5a b1 09 3e 8b 34 db bd a8 28 a1 bd
       -0.0015317338 0.1344656 -0.10703381 -0.07869083
0002a0 9f 5b 52 3d 5d 51 06 be 11 ca 41 3d 29 90 6e bc
       0.051356908 -0.13116975 0.047311846 -0.014560738
0002b0 1e 72 f2 bd 7b 74 01 3f c8 d6 45 bd ae 4f fd 3c
       -0.118381724 0.5056836 -0.048300534 0.030921783
0002c0 6e 7d 8a 3e 93 74 ac 3c b4 43 bd bc b0 f9 1e bb
       0.2704882 0.02105168 -0.023103572 -0.0024257712
0002d0 b5 41 b2 bd 72 ae 02 be 36 fc 6f be 98 2b d0 3d
       -0.08703939 -0.12761858 -0.23436055 0.10164565
0002e0 ca 33 6f bd e7 02 ec 3c de 95 96 3d 75 cd 23 3e
       -0.058399 0.028809978 0.07352804 0.15996344
0002f0 fe 9b c4 3d 69 72 8f 3c ea b5 f2 3d 07 a7 83 3d
       0.09600066 0.01751061 0.118511036 0.06428342
000300 1d 01 12 3e df 52 ae 3c 8e 9a 30 be bb ba 0a bd
       0.14258237 0.02127975 -0.17246458 -0.033869486
000310 ae 1f 0b bd 14 83 ac 3d 19 eb 57 bd 14 ae 20 bc
       -0.03396576 0.08423439 -0.05271444 -0.009807128
000320 60 5e f3 3d 10 d0 56 bd c1 47 93 bb 77 3d 1b 3e
       0.11883235 -0.052444518 -0.0044946377 0.15160166
000330 ae d5 7e 3d 8d 45 d3 3d 73 ff 9f 3d 48 51 d0 3c
       0.0622155 0.10316 0.07812395 0.025429383
000340 3f 08 3f be 03 4b 63 be 4f f9 b5 bc 8d 2b 03 3e
       -0.1865549 -0.22196583 -0.022213606 0.12809582
000350 de 6e 53 bd a3 4f 58 bc 27 98 96 3c c0 e2 b7 3a
       -0.051619403 -0.013202581 0.018383099 0.0014029369
000360 60 6e 80 3e 5a 72 c1 bc a3 9d b7 bd 91 70 de 3d
       0.2508421 -0.023614097 -0.08965614 0.10861314
000370 b1 de dd bd d9 77 2a be d6 12 0f 3e 1f 46 30 3e
       -0.10833491 -0.16647281 0.13972029 0.17214249
000380 ef 51 b1 3d 2b 30 31 3e 75 00 f4 3d 54 18 5f bc
       0.08658206 0.17303531 0.1191415 -0.01361664
000390 74 63 eb bc c6 58 56 3d b8 9f 08 3e 04 77 b9 bd
       -0.028733946 0.052330755 0.13342178 -0.090559036
0003a0 11 52 94 be 93 1c 35 be 08 ea 6f 3d f6 5e 7a be
       -0.28968862 -0.17686681 0.0585728 -0.24450287
0003b0 75 22 17 bd 3e 86 98 3e 39 82 ec bd 56 b6 59 bd
       -0.036898095 0.2978992 -0.115482755 -0.053152405
0003c0 27 32 44 3e 8a bd 2e 3d 83 81 25 be 98 3b 25 3d
       0.19159757 0.042661227 -0.16162686 0.040340036
0003d0 bc 66 89 bd 87 23 c3 3c 6c 9e 8c 3d 3e a0 df 3d
       -0.06709048 0.023820652 0.06866154 0.10919236
0003e0 a1 c3 c3 3d 5a 84 8d bd 6b 22 13 3d f9 71 04 bd
       0.09558798 -0.0691001 0.035921495 -0.032335255
0003f0 7a 47 4a 3e 06 44 da 3d a9 fc e4 3c 14 66 1b 3e
       0.19753829 0.10657506 0.027952509 0.15175658

nns.0.0.bias f4 [64]
000000 3f 40 8e bd a7 99 94 bd 18 dd 80 bd 94 5c f4 bd
       -0.06945848 -0.07255869 -0.0629217 -0.119317204
000010 c1 4a e5 3d e4 a7 b6 bd c7 96 1d be b6 1c 86 3d
       0.11195899 -0.08918741 -0.15389548 0.06548445
000020 b2 fe 0a be 9d c0 b0 bd 49 5b c6 3d 0b 44 78 bd
       -0.13573721 -0.08630488 0.0968538 -0.060611766
000030 c5 c9 09 bd ac 62 5f bc 6f fb e5 3d ed 8c 18 be
       -0.033639688 -0.013634365 0.11229598 -0.14897509
000040 59 cf 55 3d 18 4d d1 bc fa eb c7 bd ba b9 f7 bc
       0.052199695 -0.025549456 -0.09761806 -0.030239929
000050 7d 22 e3 3d b1 fa d2 bd 54 67 26 3d 25 64 c7 bd
       0.110905625 -0.10301722 0.040625885 -0.09735898
000060 49 a3 2b 3e e4 5e f4 3d bf cc c0 bd 6e 2b 95 3c
       0.16761507 0.119321615 -0.09414052 0.018209185
000070 1c 16 e7 bc b5 77 bb bd c6 7b 30 3d 2e 86 7d be
       -0.028208785 -0.09153692 0.04308679 -0.24758217
000080 24 c2 c3 3d 7f 62 77 3b 15 2c 06 3d 62 ab b7 3d
       0.09558514 0.0037747917 0.032756884 0.089682356
000090 09 32 be bd 8b d6 08 bc ae 7d 37 be f7 b8 df 3d
       -0.09286887 -0.008351932 -0.17919037 0.10923951
0000a0 de dd 60 bd c7 dc 1e 3c f9 ae 05 be 65 97 e2 bd
       -0.05489909 0.009696192 -0.13055028 -0.110640325
0000b0 d7 17 9e 3d 11 b1 9d 3d d9 de ac bc b4 45 e2 3d
       0.07719391 0.07699788 -0.021102356 0.11048451
0000c0 b9 1d 0a be 02 55 9e bd ee c6 8e be 60 8c e8 3d
       -0.13487901 -0.07731058 -0.27886146 0.113548994
0000d0 31 42 a5 bd 39 b8 84 3d c1 4d 23 3e d4 22 ae bb
       -0.08069266 0.0648045 0.1594763 -0.0053142104
0000e0 06 1c 8e 3b 80 02 0e 3e 36 29 ba 3d fb ec 9e 3c
       0.0043368367 0.13868141 0.090898916 0.01940011
0000f0 ad 54 ee bc 72 98 d6 bc 04 44 ef bb a1 2f 52 be
       -0.029093111 -0.026195738 -0.0073018093 -0.20525981

nns.0.1.weight f4 [64]
000000 d9 b4 86 3f 43 ca 85 3f 73 98 85 3f 35 a8 39 3f
       1.052394 1.045235 1.0437149 0.7252229
000010 af 96 40 3f 22 93 4b 3f 04 72 16 3f 72 3b 51 3f
       0.75229925 0.7952138 0.58767724 0.8173133
000020 a7 af 62 3f 82 dd 78 3f ad 00 95 3f 27 27 88 3f
       0.88549274 0.97212994 1.1640831 1.0636948
000030 5a f9 5b 3f db 6f 42 3f 87 8d 84 3f f6 69 81 3f
       0.85927355 0.7595193 1.0355691 1.0110462
000040 28 70 8e 3f bf c8 5f 3f 1d 66 77 3f 87 9a 77 3f
       1.1127977 0.8741569 0.9664019 0.96720165
000050 e6 97 8a 3f 1e 7d 2d 3f 0d 9f 55 3f 5e 28 33 3f
       1.0827606 0.6776904 0.8344582 0.6998347
000060 ea c6 81 3f c8 9f 87 3f fb 80 90 3f 4f dc 75 3f
       1.0138829 1.0595636 1.1289362 0.9603929
000070 de a1 1f 3f 43 04 56 3f 8d b2 82 3f c9 6b b5 3f
       0.62356365 0.8360025 1.0210739 1.4173518
000080 bc 1b 73 3f 89 8d 76 3f ac 2c 76 3f 00 d4 7d 3f
       0.94964194 0.96309716 0.96161914 0.9915161
000090 28 55 57 3f 99 08 83 3f c5 f6 47 3f ca b7 9a 3f
       0.84114313 1.0236999 0.78110915 1.2087338
0000a0 8b 10 70 3f f0 63 70 3f 2c f0 37 3f 24 e0 77 3f
       0.9377524 0.9390249 0.7185085 0.96826386
0000b0 9a f9 64 3f d4 7f 3e 3f be 83 83 3f 0e 19 50 3f
       0.8944336 0.744138 1.027458 0.8128823
0000c0 65 7d 98 3f 87 f3 75 3f 50 72 87 3f ac 87 90 3f
       1.1913267 0.9607472 1.058176 1.1291404
0000d0 a8 db 75 3f f8 57 97 3f 49 fc 9c 3f 7d 75 9d 3f
       0.96038294 1.1823721 1.2264491 1.230148
0000e0 90 b5 9a 3f de 16 8d 3f 0e 92 66 3f b4 d8 49 3f
       1.2086658 1.1022604 0.9006661 0.7884629
0000f0 da 64 8a 3f d8 5b 86 3f 69 d2 78 3f 26 64 88 3f
       1.0812027 1.0496778 0.9719606 1.0655563

nns.0.1.bias f4 [64]
000000 98 38 6f 3e 87 c2 92 be ad d0 3a bf 8e fe fc be
       0.23361433 -0.28664038 -0.72974664 -0.4941296
000010 d6 cd ed be bb 58 4a be 38 99 ce be 27 4a 0d bf
       -0.46446103 -0.1976041 -0.40351272 -0.5519127
000020 4f cc 65 be 6e 59 05 be 6a 14 35 bf d0 ca 27 bf
       -0.22441219 -0.13022396 -0.70734274 -0.6554384
000030 e3 98 e7 be 6c e4 99 be 7b 28 87 bc ed e9 39 be
       -0.4523383 -0.30057085 -0.016498795 -0.18155642
000040 9b 9a aa bd f0 6c f4 bd 19 13 b1 bd 5a 24 9d 3e
       -0.0833027 -0.11934841 -0.08646221 0.30691797
000050 ac 2c f0 3d 3f 0a 94 be dd 92 d2 be 9a a0 51 be
       0.117272705 -0.28914067 -0.41127673 -0.20471421
000060 b2 89 66 be 68 59 31 bf 81 f8 0a bf 02 d3 86 3e
       -0.22513464 -0.6927705 -0.54285437 0.2633286
000070 e6 fd 9c bf d8 97 10 be a4 18 8e 3e e7 b8 19 bf
       -1.2264984 -0.14120424 0.27753174 -0.60047764
000080 3d af 7e 3e 6e 9b ba 3c 87 29 c7 3e e6 4f f1 3e
       0.24871536 0.022779193 0.3889887 0.4713127
000090 6d 21 97 be f1 d7 d5 bd bf 3c b8 be 3a d2 a7 be
       -0.2951769 -0.10441578 -0.35983846 -0.32777578
0000a0 87 50 5d 3d da 57 1d bf a5 e2 85 be 8c de cf 3c
       0.054031875 -0.61462176 -0.2614948 0.025374673
0000b0 da 8f e0 3e a8 c7 1d bf f7 19 56 bf 73 ae 17 bd
       0.4385975 -0.61632776 -0.8363337 -0.037031602
0000c0 84 03 aa be 4c da 5a 3d 68 a5 ed bd e7 9d 76 be
       -0.33205807 0.05343084 -0.11603814 -0.24083672
0000d0 c1 21 eb 3e 7f f2 42 bf b8 ed 39 be e5 1b 65 be
       0.4592419 -0.7615127 -0.18157089 -0.22373922
0000e0 c8 df c4 be ca e2 dc 3e 1d 28 db be ee 55 85 be
       -0.38451982 0.43141776 -0.42804042 -0.26042122
0000f0 6f 28 27 3e 15 9e d9 3e 91 83 19 bc c2 32 d3 bd
       0.16324018 0.4250342 -0.009369747 -0.10312416

nns.0.1.running_mean f4 [64]
000000 6d e6 80 be 2d 13 f8 3d 98 8e 5f 3e 76 f6 14 3d
       -0.251758 0.121130325 0.21831739 0.036367856
000010 2e 7a 7a 3f ee 8d 94 be 37 51 d1 3d 2d c6 c0 3e
       0.9784268 -0.29014534 0.102205686 0.37651196
000020 77 ab 71 be 96 37 86 be 78 e8 5f be 80 61 f8 3d
       -0.23600565 -0.26214284 -0.21866024 0.12127972
000030 78 c4 18 3e 6e 27 85 bd 22 b5 a4 3e a8 c8 e4 bb
       0.14918697 -0.06501661 0.32169443 -0.006981928
000040 15 cd 21 3f 7c b8 81 be 2b b3 57 be f0 af 4e be
       0.63203555 -0.25336063 -0.21064441 -0.20184302
000050 b8 66 8b 3e ed 63 9a be 7c d6 87 be 23 db f8 be
       0.27226806 -0.30154362 -0.26530826 -0.48604688
000060 1b 99 9b bd 38 4f eb 3e 21 c6 a5 3e 35 a1 0c be
       -0.07597562 0.45958877 0.32377723 -0.1373337
000070 67 a8 8a 3e 66 e5 7b be f2 0b e2 bd ce ea f1 bd
       0.27081606 -0.24599227 -0.11037435 -0.118123636
000080 97 e4 29 bd d2 7c 3f be 3f de e1 bd 78 1f 8a bd
       -0.041477766 -0.18699959 -0.11028718 -0.067442834
000090 36 91 a0 be f0 9f a8 bd 48 87 a4 bd 82 c2 da bd
       -0.31360787 -0.08233631 -0.08033615 -0.10681631
0000a0 c1 e7 fe bd 08 b8 12 3e cc d2 54 bf 3f 83 48 be
       -0.12446547 0.14328015 -0.8313415 -0.19581316
0000b0 a9 fc db bc a4 5d 99 3e 1f 4b 4d 3f 38 b8 59 be
       -0.026853876 0.29954255 0.8019275 -0.2126168
0000c0 e8 d6 2d 3d 54 01 5b be e2 3c 3a be 95 bc 2f 3f
       0.04244128 -0.21387225 -0.18187287 0.6864713
0000d0 77 5a a1 be 6b c3 eb 3e 81 c3 c8 bd 91 df 37 be
       -0.31514332 0.4604753 -0.098029144 -0.17956378
0000e0 08 29 de 3e f1 29 06 bd 87 8a f0 be e0 f1 2a be
       0.4339068 -0.032754842 -0.46980688 -0.1669383
0000f0 d0 63 e6 3e 9c c5 5e be 05 0a 74 be d8 b0 2f bd
       0.44998026 -0.2175507 -0.23831947 -0.04289326

nns.0.1.running_var f4 [64]
000000 63 95 31 41 d4 aa 48 41 3f fd d0 41 ce 9a 0b 41
       11.098971 12.541706 26.123655 8.725294
000010 99 b8 7f 43 3c 35 54 41 8d 67 b8 41 db 4a 08 42
       255.72108 13.262997 23.050562 34.0731
000020 93 8b 52 40 51 c5 24 41 6e 53 fe 41 91 bd 30 41
       3.289769 10.298173 31.790737 11.046281
000030 ab 7d 31 41 73 ca 89 3f 03 cf 5f 41 b1 e2 d4 40
       11.093181 1.0764908 13.98804 6.6526723
000040 8c 50 dd 42 d5 ff 8d 41 32 2c 82 40 5d d9 22 41
       110.65732 17.749918 4.067895 10.178067
000050 ff a0 05 41 84 8a 56 41 11 25 fb 41 a3 6f 48 42
       8.351806 13.408817 31.393099 50.10902
000060 93 db 92 41 01 9f 2a 42 e9 6e 79 42 1d 34 f8 40
       18.357214 42.655277 62.35831 7.7563615
000070 0c 40 01 42 c0 ce 0e 41 bf eb fc 40 0b d1 c5 40
       32.312546 8.925476 7.9037776 6.181768
000080 c9 64 c4 40 dc 9d 4b 41 cb d9 d8 40 64 15 fb 40
       6.137303 12.72604 6.776586 7.846361
000090 e6 cb 82 41 10 3f 11 40 fa cf 61 40 c9 7c 60 41
       16.34956 2.269474 3.528319 14.030465
0000a0 48 d5 b7 3f ae 94 e7 40 e6 f9 21 43 b1 66 27 40
       1.4361963 7.2368994 161.97617 2.6156428
0000b0 5e 2c 7c 40 67 3b 8d 41 9a cd 64 43 ed 37 0f 42
       3.940208 17.654005 228.80313 35.804615
0000c0 29 72 27 41 13 36 c2 40 c7 49 2f 40 28 6b dd 42
       10.465371 6.069101 2.738878 110.70929
0000d0 e8 da 8e 41 f3 15 63 42 4b 2a aa 41 07 58 1a 41
       17.856888 56.771435 21.27065 9.646491
0000e0 81 d6 7c 42 5f 9c 10 41 e3 58 cc 42 a3 27 31 41
       63.209476 9.038177 102.17361 11.072177
0000f0 77 37 90 42 7d 37 45 41 ca 4c 87 41 d6 89 07 41
       72.10833 12.326047 16.912495 8.471151
