result/08.24.2022_20.26.17/config_55fold_3_state_dict.pt (torch, 78057 bytes, 118 tensors)

first_h.0.weight f4 [32, 3]
000000 05 6a be be 9a 27 8f be f5 82 b7 3e 1f 8e b0 be
       -0.3719026 -0.279599 0.358421 -0.3448343
000010 7a 85 41 3e 1d c0 8e 3e 99 f5 f5 3d 52 ec 2c 3e
       0.18898574 0.27880946 0.12009735 0.16887024
000020 c5 6f b6 3e 77 40 02 3f 77 ed 54 be 30 a7 c1 3e
       0.35632148 0.50879616 -0.2079371 0.37822866
000030 26 0a 2d bf 0d a9 c9 3c 7c af b8 3e 4e e9 81 bd
       -0.6759361 0.024616743 0.36071384 -0.063433275
000040 77 92 e0 3d 15 2d 03 3f cb e8 9a 3e d9 24 38 3f
       0.10965436 0.51240665 0.30255732 0.71931225
000050 65 8b 01 3f 93 2d c0 3e f2 e3 c7 3e e9 37 96 3d
       0.50603324 0.3753477 0.39041096 0.07334883
000060 97 2d f9 3e 59 22 8e be be e6 9a bd 93 fd 47 be
       0.48667595 -0.2776058 -0.07563542 -0.19530325
000070 fe 38 8f be 37 c1 93 3d b6 9c ba 3e 88 c4 a5 bd
       -0.2797317 0.07214587 0.36447686 -0.08094126
000080 0b 6e 33 be 9c 3d 86 be 2b 48 dd 3e ea 77 0a bf
       -0.17522447 -0.2621888 0.43219122 -0.54089224
000090 46 8b 18 3f ec 2b 64 be 9b e7 5a bd 38 0a 56 be
       0.59587514 -0.2228238 -0.053443532 -0.20902336
0000a0 80 1a cc be 70 d5 96 3e 1c 8c b6 bd ac 6e 8b be
       -0.39863968 0.29459715 -0.089134425 -0.27232873
0000b0 eb 4d 80 be 8f eb 19 3e e5 96 70 3f 4b 35 7e 3e
       -0.25059447 0.15031265 0.93980247 0.24825017
0000c0 7e 03 33 3e 54 33 c4 be fa 0f 4e bd f3 3e c7 3e
       0.17481801 -0.3832041 -0.050308205 0.38915214
0000d0 0e 51 3b bd 91 d1 38 be 3a 29 2e bd 3a 5f 9e 3e
       -0.045731597 -0.18048693 -0.042519785 0.30932027
0000e0 c3 7d 56 be 55 f0 ee 3d b3 0f 9f 3f a5 cf 15 3f
       -0.20946412 0.116669334 1.2426666 0.58519965
0000f0 d4 ba 99 3e 00 3f ad be 1c 3f ff be b9 2d 89 be
       0.3002535 -0.33837128 -0.49852836 -0.26792696
000100 9e 76 d0 3e 53 b1 d7 3e 9d c3 23 bf 30 f8 2b 3f
       0.40715498 0.42127475 -0.6397036 0.6717558
000110 51 04 f6 3d f1 27 86 3e 70 8e 17 3f c5 2d 1c bf
       0.12012542 0.26202348 0.5920172 -0.6100734
000120 97 4e 14 3e ae 40 75 3f db 8a a4 3e 32 bb 0c bf
       0.14483105 0.9580182 0.32137188 -0.5497314
000130 f5 af c1 3e 47 a9 5f 3c e4 d2 d3 3e 0b cc 3e 3f
       0.37829557 0.013651199 0.41371834 0.74530095
000140 6f 91 5f be a5 9a 1f bf 72 b3 8c bd 03 67 98 be
       -0.21832822 -0.62345344 -0.06870164 -0.29766092
000150 cf aa 5b 3e 67 67 21 3f 8d 8d b8 3e ae dd 28 bd
       0.21451877 0.63048404 0.36045495 -0.041227035
000160 a3 21 33 bf 10 be 58 bd a2 df 1d be ca 48 07 be
       -0.699732 -0.052915633 -0.1541734 -0.1321136
000170 72 a7 c4 be 36 e3 8e bd f7 98 d8 3e 14 28 2a 3f
       -0.38409 -0.06976931 0.42304203 0.66467404

first_h.0.bias f4 [32]
000000 d0 07 f3 3e 52 c8 a0 be 75 7d c0 3e 56 4a c0 3e
       0.47466898 -0.31402832 0.37595716 0.37556714
000010 74 51 6d 3e 22 2b 0c 3f 72 2c 3c 3d 6b 1e 8e bd
       0.23175603 0.54753315 0.045940824 -0.069393955
000020 25 2d a7 be 60 9b 03 be a0 16 52 3e 4f b6 d0 be
       -0.3265163 -0.1285224 0.20516443 -0.4076409
000030 30 40 f4 3d 47 b4 1f be f9 ef ec be 07 94 90 bd
       0.11926305 -0.15596114 -0.46276835 -0.07059484
000040 ce 71 63 be e8 ee 03 3f 2f b7 8d be 33 5b 10 3f
       -0.22211382 0.51536417 -0.2767882 0.5638916
000050 43 19 aa 3e 2c c3 10 3f 2b 45 13 bb b1 ce 9a bc
       0.33222398 0.5654781 -0.0022471647 -0.018897386
000060 b4 4c fb be 08 d4 64 3e 39 4e bf 3e 06 92 5a bd
       -0.49081957 0.22346509 0.37364367 -0.053361915
000070 2f 9d 96 bc b5 82 26 bd 46 c7 99 3e 32 1b ab be
       -0.018385498 -0.040651996 0.30034846 -0.33419186

first_h.1.weight f4 [32]
000000 3e a7 78 3f cd 9a 8f 3f 21 1e 89 3f dc d5 72 3f
       0.9713019 1.1219116 1.071232 0.94857574
000010 cc e3 85 3f 69 1a 75 3f 4a 21 88 3f e9 4c 6d 3f
       1.0460143 0.95743424 1.0635159 0.9269548
000020 da bc 78 3f f5 4b 83 3f 83 5b 86 3f 3d 7d 6e 3f
       0.97163165 1.0257555 1.0496677 0.9315985
000030 43 35 76 3f d1 2f 83 3f 69 d8 8c 3f 06 fd 7c 3f
       0.9617502 1.0248967 1.1003543 0.98823583
000040 ba 3d 6c 3f 2d 1a 6b 3f 34 d9 8f 3f 2b a6 7c 3f
       0.9228169 0.91836816 1.123816 0.9869105
000050 e1 ed 8b 3f 39 88 8b 3f 16 58 99 3f de 66 8d 3f
       1.093197 1.0900947 1.1980007 1.1047018
000060 ce b0 81 3f 17 24 a4 3f 08 f1 88 3f b7 49 7d 3f
       1.0132082 1.2823514 1.0698557 0.98940605
000070 d3 cb 62 3f fa 99 7d 3f 91 51 73 3f 97 cd 75 3f
       0.8859226 0.99063075 0.95046335 0.9601683

first_h.1.bias f4 [32]
000000 78 65 7d 3d 28 3d 04 be 56 f9 fb 3d 17 18 14 bd
       0.061864346 -0.12913954 0.123034164 -0.036155786
000010 b7 7c 77 3b 53 4d e4 bd 90 99 eb 3d 85 df c5 bd
       0.0037763545 -0.11147561 0.11503899 -0.096617736
000020 d9 a6 d6 3d 23 8d f0 bd 11 d2 f3 3d f7 e8 bd bd
       0.104810424 -0.1174567 0.11905301 -0.0927295
000030 3e b3 c8 3d 86 82 d6 bd 27 4d 03 be 42 ca 8d be
       0.09799813 -0.10474114 -0.128224 -0.27693373
000040 b0 0c 06 be 76 54 05 be 4f d7 05 be e9 11 e2 3d
       -0.13090777 -0.130205 -0.13070415 0.11038572
000050 a7 db f3 3d 85 5f 4a 3c 55 63 0f be 56 89 f1 3d
       0.1190713 0.012351875 -0.14002736 0.11793773
000060 5e d0 e5 3d 15 8f 19 be d3 30 ed 3d a4 1b f1 bd
       0.112213835 -0.14995988 0.11581578 -0.1177285
000070 a0 8b fb bd 53 19 22 3e 86 2c 97 3d f6 86 0b be
       -0.12282491 0.15829973 0.07381539 -0.13625702

first_h.1.running_mean f4 [32]
000000 f4 c4 fe c8 df aa ed c8 53 74 28 48 28 10 2e 49
       -521767.62 -486742.97 172497.3 712962.5
000010 8d 28 68 c9 49 f5 ae c7 f2 6e cf 48 a0 23 f8 48
       -950920.8 -89578.57 424823.56 508189.0
000020 7a 36 28 49 ed fa 86 c8 91 8f fc 48 8e ee b4 c8
       688999.6 -276439.4 517244.53 -370548.44
000030 ac 1e 4f 49 cc 31 90 c8 27 5d f6 c7 9b ae 4e 48
       848362.75 -295310.38 -126138.305 211642.42
000040 70 6e 73 48 f5 75 06 49 10 a6 70 c7 8f f8 21 48
       249273.75 550751.3 -61606.062 165858.23
000050 28 58 cf 48 2d a5 b9 c8 39 25 5b c9 c3 1a b4 48
       424641.25 -380201.4 -897619.56 368854.1
000060 24 1b 46 48 80 58 3d c9 65 0b 10 49 44 6d 56 c9
       202860.56 -775560.0 590006.3 -878292.25
000070 a7 bf 95 48 b1 26 66 c7 a1 02 59 c8 c1 1b c2 c7
       306685.22 -58918.69 -222218.52 -99383.51

first_h.1.running_var f4 [32]
000000 73 ae eb 54 93 f7 cc 54 34 a8 4d 53 18 02 5c 55
       8.0979527e+12 7.0426155e+12 8.832903e+11 1.5118847e+13
000010 96 9a c3 55 f4 39 5e 52 65 4b 9c 54 b7 aa e0 54
       2.6883589e+13 2.3861376e+11 5.3702385e+12 7.7194944e+12
000020 2d 4c 4d 55 5e 31 04 54 7d 61 e7 54 11 aa 6d 54
       1.4107941e+13 2.2710557e+12 7.950184e+12 4.083042e+12
000030 ed 8d 9b 55 f2 e1 16 54 73 2c dc 52 90 07 9b 53
       2.1379234e+13 2.5921433e+12 4.7281927e+11 1.3316936e+12
000040 38 e1 d6 53 f2 36 03 55 a4 08 d2 51 75 38 3e 53
       1.8458031e+12 9.017001e+12 1.1276101e+11 8.16991e+11
000050 a5 05 9c 54 a8 18 7a 54 6d 73 ae 55 da 83 6b 54
       5.360877e+12 4.296622e+12 2.3976347e+13 4.0461177e+12
000060 a2 f3 8e 53 30 21 82 55 46 88 16 55 0d ee a6 55
       1.2279457e+12 1.7884881e+13 1.0344502e+13 2.2942669e+13
000070 f1 da 22 54 30 f5 bf 51 23 8f aa 53 a2 a8 88 52
       2.7978317e+12 1.0305654e+11 1.4650918e+12 2.9347237e+11

first_h.3.weight f4 [32, 32]
000000 d9 54 58 3d 0b 6a 71 bb 0a db 27 be 34 1c 19 3d
       0.052815292 -0.0036836888 -0.1639215 0.037380412
000010 12 7c b2 bd de 01 8e bc 2f 84 28 be dd 79 42 be
       -0.08715071 -0.017334875 -0.16456674 -0.189918
000020 b7 b7 6f be 5b 1c 54 bd a4 b9 b8 be 74 7e d6 bd
       -0.23409925 -0.051784854 -0.36079133 -0.10473338
000030 27 f7 4a be d2 4e eb 3d e4 f4 0e 3e 4d fb f9 bd
       -0.19820844 0.11489643 0.13960606 -0.12206135
000040 11 27 77 be 8d d7 32 be 3a 83 85 bc 2a 5e b4 bd
       -0.24135996 -0.17465039 -0.016297925 -0.08807023
000050 d8 b2 2b be 23 ff 62 bb be 96 23 3c 01 b0 09 bc
       -0.16767442 -0.0034636937 0.00998467 -0.008403779
000060 93 71 ad be 75 72 a1 bd b9 6f 9e be 5f 9d 67 bd
       -0.33875713 -0.07883159 -0.30944613 -0.056546565
000070 bc 05 1a 3d 1c d6 01 3e f9 dd 3f 3d ad cc da bc
       0.037603125 0.12679332 0.04684255 -0.026708925
000080 bb d8 c2 3d cc 19 db b9 8e 61 23 3d f3 6e e7 3d
       0.09513994 -0.00041790155 0.039887957 0.11300459
000090 30 44 9a bd b9 8d 98 3d b0 38 60 bd 3d 79 3b bc
       -0.07532537 0.074489065 -0.05474156 -0.01144248
0000a0 e0 3f a1 bd f3 29 36 3d f3 66 b1 bc 1b 0a 09 bd
       -0.07873511 0.0444736 -0.021655535 -0.033456903
0000b0 c5 20 12 bd d8 fd 20 bd 3c 95 10 be d1 15 0d 3e
       -0.035675783 -0.039304584 -0.14119428 0.13777854
0000c0 58 c8 63 3e 5f 6d 3b bd 98 16 54 be 1a d2 98 3d
       0.22244394 -0.0457586 -0.20711744 0.07461949
0000d0 b3 62 4e 3e 63 ec fc 3d 7c 11 29 be e5 57 5a 3e
       0.20154838 0.12349775 -0.16510576 0.21322592
0000e0 af bd e7 3c 6b 30 13 be ea 4a 83 3d c0 2a dc bd
       0.02828869 -0.14373939 0.06410773 -0.107503414
0000f0 c0 e4 8d 3d cb 98 72 bd 70 a8 3c be a2 6c 2d be
       0.06928396 -0.059227746 -0.18423629 -0.16935971
000100 5a 00 1d 3e 6a 98 ba 3d f4 cd 3b bd 32 31 40 bc
       0.15332165 0.09111102 -0.04585071 -0.011730479
000110 b0 ef 1c 3e 29 96 82 3c b4 42 c0 bd 30 7d 2f be
       0.15325809 0.015940743 -0.093877226 -0.17137599
000120 fb b4 5b bd 76 a5 c4 3d ff 81 8f 3d 85 04 21 3e
       -0.053639393 0.09601872 0.07007217 0.1572438
000130 b6 e1 dc bd 12 94 5c 3e b8 1b 6b 3d b0 f0 80 bd
       -0.107852384 0.2154086 0.05739948 -0.062959075
000140 d4 51 1a be 97 1a 85 3d 10 1d 9d 3d 1a 2d 81 3d
       -0.15070277 0.06499212 0.07671559 0.063074306
000150 98 58 4a be fa dd 89 3e bc 38 88 3e 9d fe 33 be
       -0.19760358 0.26927167 0.26605785 -0.17577596
000160 db 26 0a 3e ee d6 54 3e d8 00 28 bc a7 a6 5f 3e
       0.13491385 0.20785114 -0.010254107 0.21840917
000170 8c b9 c7 bd 1a 8f 61 3e d3 f5 4c bd e5 c2 b7 bd
       -0.09752187 0.22027245 -0.050039124 -0.0897272
000180 93 ff da 3d 74 bd 48 be 11 ae 48 be 84 43 a8 bc
       0.10693278 -0.1960352 -0.19597651 -0.020540006
000190 68 a4 38 bd 9d cf 93 3c 92 0c db bd 7e 9b 9c 3d
       -0.045078665 0.018043334 -0.10695757 0.07646845
0001a0 d3 49 7f bc e2 93 37 bd 43 6b 19 be 2a 95 e5 3d
       -0.015581566 -0.044818766 -0.14982323 0.112100914
0001b0 28 6d d9 bd d6 cf 5c bd a5 78 1e be af 11 b4 bd
       -0.10616523 -0.053909145 -0.1547571 -0.087924354
0001c0 13 8b 93 3d ec 91 b9 3d 10 0e 3c be 28 7e 85 bd
       0.07204261 0.090610355 -0.1836474 -0.06518203
0001d0 87 10 fc bd 59 22 09 be 36 e1 a0 bd a7 51 70 bd
       -0.1230784 -0.13392009 -0.078554556 -0.05867162
0001e0 14 d7 e2 bd 8d 15 8f bd 43 25 58 be b5 98 ed bc
       -0.11076179 -0.06986532 -0.21107964 -0.02900348
0001f0 c9 11 3d bc 0c 69 be 3d 62 10 ea 3d 27 17 66 be
       -0.011539885 0.0929738 0.11428906 -0.2246977
000200 96 ae 63 3e 75 f3 2f 3c ee 04 89 be e6 c6 73 be
       0.22234568 0.010739197 -0.26761574 -0.23806342
000210 fa f6 8e 3d 3b 3e 7a 3e 8f 2e aa be d7 45 a6 bd
       0.06980701 0.24437802 -0.33238646 -0.0811879
000220 0f 11 ae be bc 80 aa bd 86 5b 6a be 1d f2 ac 3d
       -0.3399739 -0.083253354 -0.22886476 0.08444617
000230 73 39 b2 be 8f b9 86 3e 04 9d 04 3d 3e 87 9d be
       -0.34809455 0.26313445 0.032376304 -0.30767244
000240 72 a0 90 be 43 d1 1f be 11 7c a9 bd 59 98 10 3d
       -0.2824741 -0.15607171 -0.08275617 0.03530154
000250 e2 a4 9b be 74 01 53 3c 2c fa 39 3e 05 00 47 be
       -0.30399233 0.012878764 0.18161839 -0.19433601
000260 50 db b4 be aa 67 7b 3e c0 fc 93 be 62 69 0d 3e
       -0.35323572 0.24551263 -0.2890377 0.13809732
000270 39 c3 be bc fa f5 8c 3e 11 19 00 3e 37 35 77 bd
       -0.023286449 0.27531415 0.12509562 -0.060353484
000280 b7 50 dc 3d dd c4 96 3b 51 1d 34 be f9 58 98 be
       0.10757583 0.0046011047 -0.17589308 -0.2975538
000290 1c a8 87 3d 48 d7 3a 3e 5c f7 b1 bc ac 31 5b bd
       0.06623861 0.18246186 -0.021724395 -0.053514168
0002a0 b3 91 a3 be d8 17 98 3d 7d c0 00 bc d3 a8 0f 3e
       -0.31947097 0.07426423 -0.007858393 0.14029245
0002b0 74 c5 99 bd c0 72 8d 3c 44 81 19 3a 07 8f 05 be
       -0.07508364 0.017266631 0.0005855749 -0.13042842
0002c0 54 c8 d7 bd 99 94 8c bc 68 84 23 3e 5b b2 09 3d
       -0.105362564 -0.0171607 0.15968478 0.03361736
0002d0 9e 6a 85 bd 06 56 39 bd 63 60 ae 3d c8 fc 62 be
       -0.06514476 -0.045248054 0.08514478 -0.22166741
0002e0 52 1f f6 bc 7e bc b4 3d 1e 8b 29 be 0b 64 1d 3e
       -0.030044232 0.088250145 -0.16556975 0.15370195
0002f0 07 ec b6 bd f2 db 00 3e 6d 5d 2b 3e 9c 33 d8 bd
       -0.089317374 0.12583902 0.16734858 -0.10556719
000300 a0 bc 1a be e1 ff 2a be 1f 5e 00 bd dc a5 62 be
       -0.15111017 -0.16699173 -0.03133976 -0.22133583
000310 d2 a8 f5 bd 53 c4 a5 3d d1 df f4 bd 0a 99 d8 bd
       -0.119950905 0.080940865 -0.11956752 -0.10576065
000320 14 b3 f9 3c 99 41 6f bd 4a 1b e0 3b 28 a8 70 3d
       0.030480899 -0.05841217 0.0068391906 0.058754116
000330 86 8e f9 bd 90 97 4b be 9d 66 11 be 55 1c 3a bc
       -0.12185387 -0.19882035 -0.141993 -0.011359294
000340 39 ed c0 bd ad 39 41 be 21 74 ea bd 15 77 73 3d
       -0.09420247 -0.18869658 -0.11447931 0.059439737
000350 fd a3 77 be 39 05 ad 3b f4 9d 97 bc 5c 29 1b be
       -0.2418365 0.0052801636 -0.018507935 -0.15152496
000360 6d 6f 58 be a2 ac 69 3d 91 01 8c be c3 30 19 be
       -0.21136256 0.0570494 -0.27344945 -0.14960007
000370 a5 77 9b bd 7e 07 bc 3d 0f ea 38 3d 13 c4 20 bd
       -0.0759118 0.091811165 0.04514509 -0.03924949
000380 d5 62 a9 bb fe 02 96 3c 0e d9 74 3d 06 d2 9b 3e
       -0.0051692524 0.018311974 0.059777312 0.30433673
000390 e8 97 a0 3d 86 6d 78 bd b1 e6 97 3e 11 bf 18 3e
       0.07841474 -0.060651325 0.2966819 0.14916636
0003a0 b6 e6 dc bb 26 4a b6 bb d6 0d 7e 3e aa 9f 13 bc
       -0.00674137 -0.0055630384 0.24809965 -0.009010235
0003b0 40 5b 84 3e a0 33 1f bc 49 2a 01 bd de ba ab 3e
       0.25850868 -0.009716898 -0.031534467 0.33541006
0003c0 f8 d5 39 3e f1 2e 9f 3e 8e b3 08 3e 5f 5b 0e 3e
       0.18148029 0.310905 0.13349745 0.13902043
0003d0 31 a2 21 bc 5f 83 8a bd b7 66 e1 bd e7 0a 8c 3e
       -0.00986533 -0.06763338 -0.110059194 0.27352068
0003e0 c0 99 21 3e b5 e7 db 3d d3 55 f3 3d 9b 43 9a 3d
       0.15781307 0.10737554 0.11881604 0.07532426
0003f0 9f 9e 87 3e 18 69 e2 bc 98 01 9d 3d 81 ab c8 3d
       0.26488206 -0.027638003 0.076663196 0.09798337

first_h.3.bias f4 [32]
000000 ed e2 f5 3d 0d d2 4f be 3d a5 0c 3d 19 32 4b 3d
       0.12006173 -0.20294972 0.03433727 0.049608324
000010 c4 e2 1d 3e 0f 48 d8 bb 57 dc 9b bb 84 2e 32 3e
       0.15418535 -0.006600387 -0.004756491 0.17400557
000020 e4 4b 58 bd e7 6a ea bd d4 d6 f1 3d 0b de 0f be
       -0.05280675 -0.11446171 0.11808553 -0.14049546
000030 58 00 0d 3e dd 0a 38 3d 7f eb e9 3d 29 13 bc 3c
       0.13769662 0.044932235 0.114218704 0.022958355
000040 10 99 2a 3d 74 ca da bd 91 f5 d4 bd 21 fb a8 bd
       0.041649878 -0.10683146 -0.103984006 -0.08251024
000050 a2 04 a2 bd 1c 6d b0 3d d2 7a 06 3d 22 4e f3 3d
       -0.0791104 0.08614561 0.032831974 0.11880137
000060 81 44 6f bd 41 6e 02 be 31 aa 2b 3d 9a 31 47 bd
       -0.05841494 -0.12737371 0.041910354 -0.048631288
000070 0d 13 41 be c4 0d 12 bd 96 32 df 3b 3a 4d 22 3c
       -0.18854924 -0.03565766 0.0068114502 0.009906108

first_h.4.weight f4 [32]
000000 da 55 83 3f 16 32 50 3f 6d d5 6d 3f 0b 1f 82 3f
       1.0260575 0.81326425 0.92903787 1.0165724
000010 c9 43 7a 3f fb 6d 65 3f b3 6b 43 3f 5c f5 3f 3f
       0.9775968 0.8962094 0.7633621 0.74983764
000020 2a 2a 82 3f 4a 08 3c 3f a9 8a 69 3f c5 da 44 3f
       1.0169117 0.7345015 0.91227204 0.76896316
000030 13 c1 51 3f a3 8a 4e 3f 23 4b 90 3f d0 ad 78 3f
       0.8193523 0.8068029 1.127293 0.97140217
000040 f2 68 85 3f 85 d1 50 3f 56 3e 1a 3f 63 4b 21 3f
       1.0422652 0.815697 0.6025137 0.63005656
000050 37 ec 9f 3f 18 86 1e 3f 03 41 62 3f 98 e2 62 3f
       1.2493962 0.6192336 0.8838045 0.88627005
000060 ee bf 80 3f ae 74 29 3f e1 3e 64 3f d2 a7 8a 3f
       1.0058572 0.66193664 0.89158446 1.0832465
000070 a9 00 59 3f d8 bd 36 3f 07 91 5b 3f 5b 3d 87 3f
       0.8476663 0.7138343 0.8576817 1.0565599

first_h.4.bias f4 [32]
000000 ea 4d 16 3e 27 12 af bd 50 db 83 3d fe 89 73 bd
       0.1467816 -0.08548384 0.06438315 -0.05945777
000010 0e f8 c9 be 5b e3 91 be df 91 76 be a0 99 ea be
       -0.39447063 -0.2849377 -0.24079083 -0.45820332
000020 4e f6 bf bd 75 e3 7e 3d d2 61 0c be cb 19 e3 bd
       -0.09373151 0.06222864 -0.1370919 -0.11088904
000030 1c 17 8e bd 5f 71 a7 be 96 69 9c be 75 ad 8e bc
       -0.069380015 -0.32703683 -0.30549306 -0.017416695
000040 ba c0 41 bd 41 38 0e 3e 94 76 8d bd 02 5f 9e be
       -0.04730294 0.13888647 -0.069073826 -0.3093186
000050 c8 7b 50 be b6 c2 e9 bd 53 f3 c7 be 64 22 89 3e
       -0.20359719 -0.11414091 -0.3905283 0.2678405
000060 80 6d 92 3d 84 8e 37 bd 16 27 ca be 80 ae ff be
       0.07149792 -0.044813648 -0.39482945 -0.4993782
000070 0f 46 1a bd d0 60 53 be 4a a7 86 be 46 d7 71 be
       -0.03766447 -0.206424 -0.26299506 -0.23617277

first_h.4.running_mean f4 [32]
000000 61 d4 a6 be 24 23 0f be c9 79 2f 3e 91 11 3a be
       -0.32583907 -0.13978249 0.17136301 -0.18170764
000010 79 69 83 be e6 33 19 be a0 84 c7 be b1 9d 39 3f
       -0.25666407 -0.14961204 -0.38968372 0.72506243
000020 14 a1 22 bf aa 38 9b be 1e 00 19 bf 4b 73 17 bf
       -0.63527036 -0.3031667 -0.59765804 -0.591603
000030 76 bc c9 be 54 17 3d 3f 5e a6 80 bd 2e a6 59 3e
       -0.39401597 0.7386372 -0.06281732 0.21254799
000040 24 1f e7 be 61 2f b6 be 72 db 59 bd fa ae 4a 3d
       -0.45140946 -0.35583022 -0.053187795 0.049483277
000050 0d d7 ce be 34 d7 8b 3e bd b8 91 be 72 7b 38 bf
       -0.40398446 0.27312624 -0.28461257 -0.7206336
000060 63 1c 1a 3e e5 a3 36 bf e3 54 0d bf 6d df 6a 3f
       0.15049891 -0.71343833 -0.5520765 0.9174717
000070 f3 25 91 3d 5c 46 b2 be 0f d2 5d be d5 a0 cf bd
       0.07087316 -0.34819305 -0.21662162 -0.10138098

first_h.4.running_var f4 [32]
000000 23 3b d8 40 19 0b 59 3f 4d 69 46 3f 6e 31 93 3f
       6.757219 0.8478256 0.77504426 1.149946
000010 6c e1 5a 41 e1 ec 3f 40 8e 71 39 40 c8 52 09 41
       13.680035 2.998833 2.8975558 8.58271
000020 df dc 2b 41 df 89 8b 3f 1c a9 38 41 05 ba a2 40
       10.741424 1.090145 11.541286 5.0852075
000030 4a 3a 37 41 cf b0 b0 40 63 41 1a 41 9b a0 d8 3e
       11.451731 5.521583 9.640964 0.42310032
000040 fa 15 19 41 49 58 29 3f cf 05 87 3f 53 a9 e0 3f
       9.567865 0.6615034 1.0548648 1.7551674
000050 6e c2 70 3f fa 37 b7 3f 99 b8 e1 40 99 dd a8 3e
       0.94046676 1.4313958 7.053784 0.32981566
000060 21 c5 4d 3f 6c 1e 4e 3e 4f 16 99 41 4b 2c d7 40
       0.8037892 0.20128793 19.135893 6.724157
000070 e2 b4 d8 3f 6a f0 b4 3f 4b a7 a4 3f 5a 67 94 41
       1.6930201 1.4135869 1.2863554 18.550465

nns.0.0.weight f4 [32, 32]
000000 05 28 33 be 62 3a 40 3e 77 50 97 bc c9 a3 a4 be
       -0.17495735 0.18772271 -0.018470986 -0.32156208
000010 e3 be f6 3d 0e 84 13 3e 23 65 2f be 2d 58 f9 3e
       0.120481275 0.14405844 -0.17128424 0.48700085
000020 fa 74 81 be 1e ad 87 3e 37 9d 53 bd d1 6a dc 3d
       -0.2528456 0.26499265 -0.051663604 0.10762561
000030 d7 e2 c0 3d 5c 80 a1 3e 8c 86 06 3e 0f 8b 0f 3e
       0.09418266 0.31543243 0.13137263 0.1401789
000040 c8 cf 3e bd 30 85 73 3e a2 9e a3 3e 31 59 77 3e
       -0.046584874 0.23781276 0.31956965 0.24155118
000050 e5 20 fb be e5 94 b4 3e 9b 87 9e 3e f7 84 d1 3c
       -0.49048534 0.35269848 0.30962834 0.025576098
000060 01 7d 7f bd 68 15 a0 3d 21 64 63 3e 46 e9 32 3f
       -0.062375072 0.07816583 0.22206165 0.69887197
000070 9f 42 52 3e 06 f2 49 be 51 8e 93 3d 13 13 d0 3e
       0.20533226 -0.19721231 0.07204879 0.40639552
000080 b3 83 d3 bd 46 09 45 3e 13 dd c0 bd 57 b6 b5 3d
       -0.10327854 0.19241819 -0.094171666 0.08872669
000090 62 a6 25 3d 52 f4 7b 3e b0 75 05 be 0f 74 c6 3d
       0.04044188 0.2460492 -0.13033175 0.09690105
0000a0 10 bd 70 be 8e a5 db bb cf 8f a9 bb 41 c1 2f be
       -0.23509622 -0.0067030853 -0.005174614 -0.17163564
0000b0 01 cf 48 3c fc 22 13 3e f9 66 75 bc 97 62 40 be
       0.012256385 0.14368814 -0.014978164 -0.18787609
0000c0 12 b6 13 bd 2c 14 31 3d 00 f6 ba 3d f4 e8 9d 3d
       -0.036062308 0.043232128 0.09128952 0.07710448
0000d0 41 a3 9c 3e 1a 3e 77 3d 70 a5 5e 3e 42 b2 f8 3d
       0.30593303 0.06036196 0.21742797 0.12143375
0000e0 1b b3 6b 3d b6 43 81 3d 23 ba 66 3e 10 27 bd 3e
       0.057543855 0.06311743 0.22531943 0.36943865
0000f0 ba 9a 91 3e b2 83 0b 3e 3f 99 18 3e 7b 52 9f 3e
       0.2843836 0.13624457 0.14902209 0.31117615
000100 88 7e c0 be dc 9a 2b 3c 6c d5 3d be be f6 b1 be
       -0.37596536 0.010473933 -0.18538445 -0.34758562
000110 c8 1a 52 bd f7 cd 30 3d 5c a0 02 be 2e 17 df bd
       -0.05129507 0.043165173 -0.12756485 -0.10893093
000120 3a 7c c4 be c5 35 7e 3d 75 6d 89 bd b3 94 a7 be
       -0.38376027 0.062062997 -0.067103304 -0.32730636
000130 63 c7 b3 be b9 68 7c 3d 0d 93 3f be 18 90 7b be
       -0.35113057 0.06162331 -0.18708439 -0.24566686
000140 bd 5b fe be c5 f5 2a 3c 40 6e 1c be 5a e8 26 bd
       -0.49679366 0.010434573 -0.15276432 -0.04074893
000150 ed 97 28 3e f3 18 a4 bd 6d 9c eb bd da ac ad bd
       0.16464205 -0.08012571 -0.11504445 -0.084802344
000160 4d 93 ae be 2c ae 3a be df 58 df 3d 4a 26 5f 3e
       -0.34096757 -0.18230504 0.10905623 0.2179195
000170 d8 d3 a2 3c 38 8f 6d 3e 39 bb bd 3d 65 85 9f 3d
       0.019876406 0.23199165 0.092642255 0.07789115
000180 02 b4 f9 be a5 6b 8b bc a7 d2 d1 be 19 e2 ec be
       -0.48770148 -0.017019102 -0.40981027 -0.4626625
000190 af 21 12 3e 5c 45 f7 3b 70 7c bc bd d7 08 3f 3e
       0.14270662 0.00754611 -0.09203422 0.18655716
0001a0 47 48 fe be 83 5e ac bd d0 e7 ad be 88 1a 0a be
       -0.49664518 -0.08416464 -0.3396592 -0.13486683
0001b0 84 df ed be b3 86 01 3d c0 fd 98 bd ea 82 1e be
       -0.4645959 0.0316226 -0.07470274 -0.15479627
0001c0 b4 e0 de be c9 f0 37 bc 56 75 2d be 17 27 33 bd
       -0.4353081 -0.011226841 -0.16939291 -0.04373845
0001d0 0e 4d 47 be bc 4f a5 3d 73 e8 84 3d 2b d9 c9 bd
       -0.19462988 0.08071849 0.06489649 -0.09855875
0001e0 88 ff d4 be 4b e3 56 be 42 db 02 bd 87 bd c1 3d
       -0.41601205 -0.20985143 -0.03194738 0.094599776
0001f0 6b db 16 3e 18 06 b6 3d be 8e 2c be aa 20 79 3e
       0.14732139 0.08887881 -0.16851327 0.24328867
000200 89 b6 5f be c9 7a 01 3e 42 4a 8f bb 16 3e b8 be
       -0.21846975 0.12644495 -0.004372866 -0.35984868
000210 ed f0 c3 bd 75 2a 9b 3c 13 26 55 bd d7 31 97 3e
       -0.09567437 0.018941144 -0.052038264 0.29530212
000220 d1 2d 51 be e2 75 a0 3e ba 7a c7 bd fd 49 84 3d
       -0.20427634 0.31339937 -0.09740205 0.06459425
000230 23 ba 71 ba b4 ef 0e 3f 64 7d 05 3e 6d 5d ff bb
       -0.0009221157 0.5583451 0.13036114 -0.0077931196
000240 25 31 3a be 29 47 f2 3d 9e 8f a3 3e 1a 77 a3 3d
       -0.1818281 0.11829979 0.3194551 0.07981701
000250 3a f5 ad 3c 01 bd ee 3e 5b 4b db bd 5d 00 10 bd
       0.021235097 0.46628574 -0.10707732 -0.035156596
000260 22 d5 31 bd 20 f3 91 3e 30 fa 29 3d 99 d7 06 3f
       -0.04341615 0.28505802 0.041498363 0.52672726
000270 0f d7 43 3e e5 53 90 be 59 17 3e be 69 24 87 3e
       0.19125007 -0.28189006 -0.18563594 0.26394966
000280 39 41 04 bd 95 12 a7 bd 0a fd 43 3e 05 c6 bf bd
       -0.032288764 -0.08157841 0.19139495 -0.09363941
000290 f0 23 81 3e b6 2d 44 3e fd 4c ac bd a4 5c e1 bc
       0.2522273 0.19158062 -0.08413122 -0.027509995
0002a0 57 63 87 bd 46 0d ce 3d 4f 95 a3 3c 53 77 18 be
       -0.066107444 0.100611255 0.019968657 -0.14889269
0002b0 d5 b5 c0 3d a9 aa 88 3d 37 1e 04 3e 0d 3f 8b 3d
       0.09409682 0.06673176 0.12902151 0.06799135
0002c0 17 26 ea bd 1a 82 21 3d fb 0c 34 3c 9d 88 5c bd
       -0.11433046 0.039430715 0.010989423 -0.053841222
0002d0 cd 71 bd 3e b9 b1 e6 3c b1 82 b6 bc 99 51 08 3e
       0.37000886 0.028160917 -0.022279115 0.13312377
0002e0 79 22 4c 3e b8 c8 29 3e 4c 12 58 3e 9c 3f 13 3e
       0.19935025 0.16580474 0.2110073 0.14379734
0002f0 fd 00 22 3e b0 b5 bd bd 1c e9 eb bc 40 cc 41 3e
       0.1582069 -0.0926317 -0.028797679 0.18925571
000300 c5 2d 33 be c7 a1 27 be 08 e6 56 be 28 b2 76 be
       -0.17497928 -0.16370307 -0.20986187 -0.24091399
000310 6c 15 d8 bd 30 71 82 3d 96 37 44 be 18 e9 ae bc
       -0.10550961 0.06369245 -0.1916183 -0.021351382
000320 48 b3 dc 3c 9d a0 cf bd fe 5e 0c bd 0b 5b 1d bc
       0.026940957 -0.101380564 -0.03427028 -0.009604226
000330 50 b5 53 be c1 97 2a bd 6e 20 18 be 01 88 98 be
       -0.20674634 -0.04164863 -0.14856121 -0.29791263
000340 03 ff 4c be 0e 30 d1 bd e9 92 22 3e f9 aa 8b bb
       -0.20019154 -0.10214244 0.15876354 -0.004262325
000350 c6 18 23 be 39 9b e4 3d 15 69 fa 3d 29 eb 56 3d
       -0.15927419 0.11162419 0.12227074 0.05247036
000360 3d b1 53 be d5 8d 27 be 86 7d 26 3d 35 f4 1b 3e
       -0.2067308 -0.16362698 0.040647052 0.15229876
000370 9c ac c0 bd 1b d1 f7 bd 39 0d b8 3d 1a bb 23 be
       -0.094079226 -0.121004306 0.08986897 -0.15989342
000380 a7 36 9b 3d db 72 4e be 24 cc 8d 3e d3 90 ee 3d
       0.075787835 -0.20161001 0.2769481 0.11648717
000390 93 60 8d be 1b cf 91 3d ed 4d fb bd 45 4a 90 be
       -0.27612743 0.0711958 -0.122707225 -0.28181663
0003a0 72 8c f3 bc 61 c6 13 3d f4 c4 b5 bd d5 24 9f bd
       -0.029730055 0.03607786 -0.088754565 -0.07770697
0003b0 2a 73 65 bd 8a 6b 35 bb d8 d0 15 be ea ee b1 3e
       -0.056018032 -0.0027682506 -0.14630449 0.3475259
0003c0 a9 fb 15 3d 40 21 e5 bd 59 bd ab bd 1b 8e bd bd
       0.036616955 -0.111879826 -0.083857246 -0.0925562
0003d0 7a b0 89 be 47 52 9b 3d 27 70 d4 bd 28 9c 94 be
       -0.26892453 0.075840525 -0.10372954 -0.29025388
0003e0 19 ac a6 3e 4d 64 7e be e8 80 18 be 58 4f 8c be
       0.32553175 -0.24842949 -0.14892924 -0.27404284
0003f0 fd 85 f8 bd 9b 4c db bd d4 12 72 bd 2c 7e 3f be
       -0.12134931 -0.10707971 -0.059099987 -0.18700475

nns.0.0.bias f4 [32]
000000 20 bd 1c be 09 61 66 3c b7 2f 94 3d a9 08 77 bc
       -0.1530652 0.014061221 0.072356634 -0.015077748
000010 1a 6e 94 3c 7d 34 8b bd 1f eb d9 3c 59 60 02 bd
       0.018118907 -0.06797121 0.026601372 -0.031830166
000020 f6 96 29 3d 6c 1a 44 bc b0 c0 47 3a 61 5f 28 be
       0.041403733 -0.01196919 0.000761996 -0.16442634
000030 5a 2e 44 3d dd 0a d8 bd 8f 72 17 3e 77 f2 48 3d
       0.047895767 -0.10548947 0.14789794 0.049059357
000040 6b 3e dd bd 2c 72 37 be 7d 0c 12 3e e7 15 2b 3e
       -0.10802921 -0.17914647 0.14262576 0.16707574
000050 58 d5 eb 3d ed 74 1f be 5d db 35 3e 1d 61 16 be
       0.115153015 -0.15571947 0.17759462 -0.14685483
000060 a2 35 c5 3d e0 93 60 3d d5 55 12 be b3 1a 69 3d
       0.0962937 0.054828525 -0.14290555 0.056910228
000070 1d ca 00 3e a1 f9 14 3d ef d8 2a 3e 25 eb 97 bd
       0.125771 0.036370877 0.16684316 -0.07417897

nns.0.1.weight f4 [32]
000000 6f b5 c8 3f 3e 65 ad 3f 1b 3e b9 3f a6 17 63 3f
       1.5680369 1.3546522 1.4472078 0.8870796
000010 0f ca 88 3f 4e a3 8e 3f 60 e0 82 3f bc 53 60 3f
       1.0686663 1.1143587 1.0224724 0.8762777
000020 cd a0 80 3f 97 f3 a7 3f 7e 49 05 40 91 2c 72 3f
       1.0049073 1.3121213 2.0826106 0.9459925
000030 f0 c0 81 3f c8 b9 80 3f f7 97 6e 3f d9 e8 e6 3f
       1.0137005 1.0056696 0.9320063 1.803981
000040 d7 b8 6f 3f 57 08 4a 3f 3f 63 5c 3f c1 0d 78 3f
       0.9364142 0.78918976 0.8608894 0.96895987
000050 c8 9a 4f 3f a6 f7 a3 3f 2d 08 8c 3f b8 cf 70 3f
       0.8109555 1.2809951 1.0939995 0.94066954
000060 54 47 64 3f a4 af 54 3f 03 8b 53 3f 4b 17 71 3f
       0.8917134 0.83080506 0.8263399 0.9417617
000070 a9 30 90 3f ce 82 49 3f 8c 05 90 3f 10 14 80 3f
       1.126485 0.7871522 1.1251693 1.0006123

nns.0.1.bias f4 [32]
000000 19 52 f8 3d d5 9c fb be 3b 24 4c bd 91 0f 87 3e
       0.12125034 -0.4914309 -0.04983924 0.26379064
000010 65 19 6b bd 0b d1 9c be c4 c3 d6 bd f8 25 18 3f
       -0.057397265 -0.30628237 -0.10486558 0.59432936
000020 0b 97 88 3e 94 55 dc 3d c8 49 c0 3d 28 0b cc 3e
       0.26677737 0.1075851 0.09389073 0.39852262
000030 26 92 95 bc 64 34 a2 3e fe 84 45 be 48 4f 75 3e
       -0.018258166 0.31680596 -0.19289014 0.23956025
000040 5f d4 81 3c c6 25 4a be d2 64 6c be 71 3b 02 3e
       0.015848337 -0.19740972 -0.23085335 0.12717988
000050 e8 22 83 be 76 2c 92 bb 48 48 17 3e ee 4a f8 bd
       -0.2561257 -0.0044608666 0.14773667 -0.12123667
000060 63 b9 60 be bf 79 d0 bd 0d f6 0e be 73 c0 20 be
       -0.2194572 -0.10179471 -0.13961048 -0.15698414
000070 9e 4a 3e be 41 a4 a4 bd 76 99 1e be f3 9c 12 be
       -0.18583152 -0.080391414 -0.15488228 -0.14317684

nns.0.1.running_mean f4 [32]
000000 97 11 41 3f 9a 93 d5 3e 0d d0 ce bf 21 51 06 c0
       0.75417465 0.41714174 -1.6157242 -2.0987017
000010 5e b8 33 3f 49 38 27 3f 5a 69 87 bf 57 98 dd bd
       0.70203197 0.6532026 -1.0579026 -0.10820072
000020 01 c7 09 3e 12 e7 5b c0 24 41 5e c0 59 87 51 3e
       0.1345482 -3.4359784 -3.4727259 0.20461787
000030 08 43 cc bf 86 df b8 bf fa f7 2c bf 9e 35 67 c0
       -1.5957956 -1.4443214 -0.6756588 -3.6126475
000040 a6 c9 4b bf fe fc 61 bf ee 16 cf 3f 86 17 53 3f
       -0.79604566 -0.8827666 1.6178873 0.8245777
000050 c9 b0 ca be 66 dd 89 bf 18 9d cf 3f 61 7f 84 bf
       -0.39588 -1.077069 1.6219816 -1.0351373
000060 75 59 56 bf 81 e5 e1 be 44 08 53 3f bc 5f d5 3d
       -0.8373025 -0.4412041 0.8243449 0.104186505
000070 29 80 34 3f d3 a4 a5 3f 4e 3f 0a bf 19 85 26 bf
       0.70508057 1.2940925 -0.54002845 -0.6504684

nns.0.1.running_var f4 [32]
000000 1c 91 8d 43 e8 a4 7e 42 1b 66 74 41 ae 24 c2 41
       283.13367 63.66104 15.274928 24.26791
000010 67 d8 74 43 8d 97 49 41 83 33 d7 40 73 4b 87 42
       244.84532 12.5995 6.725038 67.64736
000020 d5 0a ca 41 32 03 75 42 95 19 75 42 0f 5e b0 42
       25.25529 61.25312 61.274982 88.18371
000030 24 a2 21 42 4c e7 1d 43 37 9a 01 42 28 3c 86 42
       40.40834 157.9035 32.4006 67.11749
000040 6b 40 1c 40 17 54 47 42 58 ba 75 43 cf 3e 97 42
       2.4414318 49.83212 245.7279 75.62267
000050 63 77 1d 42 5e 67 00 41 0c 8b 92 43 98 49 81 41
       39.36659 8.025236 293.0863 16.160934
000060 c6 e6 3b 42 3b dd 3f 41 50 6e 9c 42 23 52 0a 41
       46.975365 11.991511 78.215454 8.645053
000070 dd 84 5e 41 80 42 11 42 07 e3 47 42 5c 42 bc 40
       13.907437 36.31494 49.971706 5.8831005

nns.0.3.weight f4 [32, 32]
000000 29 32 af bd e9 95 87 be 87 2f 59 bd f3 62 20 be
       -0.08554489 -0.2648156 -0.05302384 -0.15662746
000010 b3 1c 1f 3e 9a 74 b8 b9 67 70 ea 3a c3 6a 6b bd
       0.15538292 -0.0003518209 0.0017886282 -0.057474863
000020 19 cf 42 be 1a d0 1a 3d 33 5b a6 3c fa 6e 7e be
       -0.19024314 0.037796117 0.020307159 -0.24847022
000030 66 7f 8a 3e 69 eb 89 3d b6 27 83 3c 14 ff 51 bd
       0.27050322 0.06734354 0.016010147 -0.051268652
000040 da a1 7f 3e 56 8b 44 3e 23 3d 43 bd 28 c1 5b be
       0.24964085 0.19193777 -0.047665726 -0.21460402
000050 bd df ca bc 96 03 f0 3d 1e 18 12 be fe 07 9e 3d
       -0.02476489 0.11719434 -0.14267012 0.07716368
000060 76 60 01 be 72 8c 08 3e 85 6b a4 3d d2 71 e5 3d
       -0.12634453 0.13334826 0.0802832 0.1120335
000070 da a5 1c be 56 90 e1 bd ae 3e c6 3d 61 95 aa 3d
       -0.15297642 -0.11013858 0.09679924 0.08329273
000080 3c f5 37 be d2 aa 69 be 80 b1 2b bd a6 ae 20 be
       -0.17964643 -0.22819069 -0.041917324 -0.15691623
000090 f5 a9 e2 bd 14 3b 53 be 49 b2 ca 3d e2 fe af be
       -0.11067573 -0.20628005 0.098972864 -0.34374148
0000a0 98 0a fd bc 21 4b 7a be 5d b7 c4 bd ec 98 35 bf
       -0.03088884 -0.24442722 -0.09605286 -0.70936465
0000b0 e2 06 04 be 39 54 d5 3e 16 8e 2d 3d 52 de 11 bf
       -0.1289325 0.4166582 0.04237183 -0.5697986
0000c0 a3 6f 4d bd be 68 25 3d 3c a4 a9 bc a3 74 aa 3d
       -0.050155293 0.040383093 -0.020708196 0.08323028
0000d0 9e c4 56 3d d4 52 7f be af 2c 6b be 68 96 60 be
       0.052433603 -0.2493394 -0.22966264 -0.21932375
0000e0 de ee 97 3d ca fc e5 3d bd 6f 82 3c 47 4f af bc
       0.07418607 0.11229856 0.015922422 -0.021400107
0000f0 da 20 0e be ae 84 01 bf a9 40 92 3d 22 d4 4e bc
       -0.1387972 -0.5059308 0.07141239 -0.012623819
000100 ff 3b 62 be 82 aa 9c be 07 80 4c 3f 80 98 ba 3e
       -0.22093199 -0.30598837 0.79882854 0.36444473
000110 f9 fe bb 3e 44 2c cf bd 54 a4 31 3f fc d2 90 3d
       0.36717966 -0.10115865 0.6939137 0.07071492
000120 84 2d 74 be f4 5c ca 3e e3 05 96 3f 1a fc 64 be
       -0.23845488 0.39524043 1.1720546 -0.22361794
000130 bf 50 31 3f 30 10 98 bd 7f 4b e4 3d 6a 74 94 3e
       0.69263834 -0.074249625 0.11147212 0.28995067
000140 f6 4f e9 3e c6 2a 37 3e e7 a5 79 be f5 0c 1e be
       0.45568818 0.1788741 -0.24379693 -0.1543463
000150 70 ce 16 be 88 92 29 3f a6 91 dc be eb 44 f1 3d
       -0.14727187 0.66239214 -0.4307987 0.11780723
000160 b0 31 a8 bd a4 ac db 3d d5 97 c7 be a6 87 92 be
       -0.08212602 0.10726288 -0.38983026 -0.28619117
000170 ac a4 8c be c9 69 0f be 16 c5 69 3f c0 ce d2 3d
       -0.27469385 -0.14005198 0.91316354 0.10293341
000180 17 e3 37 3e 05 63 f7 3d 8f cb fd 3e ec 5e ac bb
       0.17957722 0.12079433 0.49569365 -0.005260339
000190 18 7e 32 3f 7a 60 a8 3d f3 99 3c 3d 86 c6 21 bd
       0.69723654 0.082215264 0.046045255 -0.039495967
0001a0 db 1f 1c be f7 a4 27 3f 4d b3 4a 3f 91 9c 22 be
       -0.15246527 0.6548609 0.7917984 -0.15880038
0001b0 38 58 18 bb df 8d 63 bd 8b f2 34 3d 00 0f e8 3e
       -0.0023245942 -0.05555522 0.04417662 0.45323944
0001c0 86 cf 00 3e a8 34 fe bd 92 ae 0b 3e fd 1a cc bc
       0.12579164 -0.12412387 0.13640812 -0.024915213
0001d0 a5 fd 48 3d bb a6 87 3e 6f 1c ad bd 40 72 37 bd
       0.04907002 0.26494393 -0.08452689 -0.04478669
0001e0 e2 06 06 bd 0a f1 5c 3c b5 3c 22 3e bb fe ef bd
       -0.032721408 0.013485203 0.1584347 -0.11718508
0001f0 b4 76 09 be 50 d4 2d be 9c 6d dc 3e ca 3c 89 bd
       -0.13424188 -0.16975522 0.43052375 -0.06701048
000200 fb 03 e8 be 4b a4 c7 be 2a f7 08 3e ad 7e 08 be
       -0.45315537 -0.38992533 0.13375536 -0.13329573
000210 b4 ac 0d bf 8a f2 84 be bf 69 03 be 5f 27 64 3d
       -0.5534165 -0.25966293 -0.12833308 0.05570161
000220 b1 16 23 be 0d cd 00 bc 76 43 44 3e ad e0 74 3e
       -0.15926625 -0.007861388 0.1916636 0.23913832
000230 d8 31 f7 3c 2f 30 d2 bd 95 12 50 bd 91 39 0c bf
       0.030175135 -0.102630965 -0.05079897 -0.5477534
000240 67 19 26 3d 4c 88 7d bd a9 f6 6f be 02 b6 bd be
       0.04055157 -0.06189756 -0.23433937 -0.37052923
000250 e5 11 35 bd 77 f7 b0 bd 69 b3 ec be 65 b7 36 be
       -0.04420652 -0.0864095 -0.4623063 -0.17843397
000260 02 f2 5e be d0 61 97 3d d4 4e 47 be c0 d7 42 bd
       -0.21772006 0.07391703 -0.19463664 -0.047569036
000270 60 28 ac be b8 02 3e be 24 e2 27 3e f3 d8 07 3c
       -0.33624554 -0.18555725 0.1639486 0.008291471
000280 d4 9e 6d 3c b9 0c 29 3c 05 90 f6 3d 26 8d 24 bd
       0.0145032 0.010317975 0.12039188 -0.040173672
000290 46 a9 02 3e 87 82 d1 3d 38 ee 28 3d 04 11 e3 3d
       0.12759885 0.10229974 0.041242808 0.1108723
0002a0 c5 a1 45 3e a7 12 30 3e c0 31 01 bd 32 94 7a be
       0.19299991 0.17194615 -0.031541586 -0.24470595
0002b0 93 40 2e 3e 42 33 ce bd e8 d9 bf 3d 6c 30 b7 3e
       0.1701682 -0.100683704 0.09367734 0.3577913
0002c0 fe 20 94 3c 91 db 88 3d eb eb dc 3c b0 44 85 3e
       0.018082138 0.06682504 0.026967963 0.26028967
0002d0 aa df 33 be cd a5 98 3c 23 74 d8 3d ef 34 0c be
       -0.1756579 0.018633747 0.10569026 -0.13692068
0002e0 fe f0 92 3c a4 43 8a 3d 27 65 43 3e 66 14 73 3e
       0.01793718 0.06751183 0.19081555 0.2373825
0002f0 a6 c9 90 bc a9 84 5c 3d c6 aa 8e be 7f 5a 4a 3e
       -0.017674278 0.053837452 -0.27864665 0.19761084
000300 df 2d 9a 3e 0c 87 c8 3d 3c 55 0b be cb e0 9f 3b
       0.30113122 0.09791383 -0.13606733 0.0048790923
000310 01 12 9a bd 58 1d 6e 3e 5d 4a e6 3d c9 f1 5f bd
       -0.07522965 0.23253381 0.112446524 -0.054673944
000320 50 60 bf 3d 04 58 89 3e 6b ee 18 3c 7c 62 cc be
       0.09344542 0.26824963 0.009334187 -0.39918888
000330 b5 44 43 bd 6c a2 91 bd 10 03 b0 3c 18 90 e7 3d
       -0.047672946 -0.07111058 0.021485835 0.113067806
000340 d9 e9 5a 3e 1b 00 a7 bd 63 77 bd 3d a2 62 bf bc
       0.21378268 -0.08154317 0.09251287 -0.023362461
000350 77 72 81 bd c6 cb db 3d 78 77 57 3e b2 2c 48 3e
       -0.063206606 0.10732226 0.21041667 0.195483
000360 33 c3 0d 3e 03 04 10 be 36 23 18 3e 9f e4 29 bc
       0.13843994 -0.1406403 0.14857182 -0.010369449
000370 bd 91 40 3e 9d 84 13 bd 09 68 e2 3e 5e 45 b3 3c
       0.18805595 -0.03601514 0.44219998 0.021883663
000380 00 18 c8 3e 6c ca 93 3e 51 79 69 3b c7 16 0b 3e
       0.3908081 0.28865373 0.0035625289 0.13582908
000390 8b 0b bc be 15 71 b1 3d 0b cf 76 be 6d 7d 4b bd
       -0.36727557 0.08664147 -0.24102418 -0.049680162
0003a0 96 b7 63 3d 5b ed ae 3d ec ac 98 3d 60 13 e2 be
       0.055595003 0.08541366 0.07454857 -0.44155407
0003b0 aa 62 3c be f9 62 2b 3e 29 aa 2d bd b0 94 59 3c
       -0.18397012 0.16736974 -0.042398605 0.013280079
0003c0 f1 c4 c8 bd 60 47 08 be ae 1d da 3b fd fd e7 3c
       -0.098031886 -0.13308477 0.00665637 0.028319353
0003d0 10 bf 21 3d 37 d3 5b be 8c 98 96 ba c7 35 80 bc
       0.039488852 -0.21467291 -0.0011489554 -0.015650643
0003e0 63 ad 0d be b2 70 2e 3d 7f d2 5a 3e 43 98 5d 3e
       -0.13835673 0.042587943 0.2136936 0.21640114
0003f0 3a 8c 0a 3e bf 19 1e be 2a 43 85 3d 10 33 3e be
       0.13530055 -0.15439509 0.06506951 -0.18574166

nns.0.3.bias f4 [32]
000000 ab c0 07 3e 67 8e 50 3d b5 73 d1 bd 6f 36 57 bd
       0.13257091 0.050917055 -0.102271475 -0.052542146
000010 8b 1d 3d 3d 3c a6 4e bd 51 e1 43 3e 26 56 05 3d
       0.046170752 -0.050451502 0.1912892 0.03255286
000020 73 18 23 3e a9 22 14 bc 07 56 97 3d cd 75 08 be
       0.15927295 -0.009041467 0.07389455 -0.13326187
000030 4f b3 e9 3c b3 38 a1 bd ba 9c ed bd 66 3b b9 bd
       0.028527884 -0.07872143 -0.11602159 -0.090445325
000040 c5 21 39 3e 6d 89 08 3d 99 ff 8c 3d 70 12 cd 3d
       0.18079288 0.033334184 0.06884689 0.10013282
000050 fc d5 92 3d 68 25 e5 bc 62 5e 6f 3e d5 16 25 be
       0.071697205 -0.027971938 0.23375848 -0.16121991
000060 80 ae d8 3d d2 e1 3b 3e 80 03 fc 3d 3f 57 0c be
       0.10580158 0.18347862 0.12305355 -0.13705157
000070 8d 4b 12 bc 22 1a 17 be a8 77 73 3d ba ff 43 bc
       -0.0089291455 -0.14756063 0.059440285 -0.011962825

nns.0.4.weight f4 [32]
000000 9f a4 62 3f ed ba 79 3f ac 4b a8 3f 50 20 49 3f
       0.8853244 0.9755085 1.3148093 0.7856493
000010 a1 c2 2a 3f 1f 93 74 3f 51 35 9c 3f e0 95 41 3f
       0.6670323 0.9553699 1.2203771 0.75619316
000020 9b 53 4c 3f ca c9 86 3f 55 d7 3f 3f f1 93 8b 3f
       0.7981507 1.0530331 0.74937946 1.0904523
000030 5a a3 40 3f d7 e4 79 3f 9d 0d 5c 3f f5 76 73 3f
       0.75249255 0.97614807 0.8595827 0.9510339
000040 a1 ce 62 3f 83 ad 43 3f a2 95 68 3f ac 46 3d 3f
       0.8859654 0.7643663 0.9085332 0.7393596
000050 f3 ed 63 3f 2d 08 3d 3f 32 75 5a 3f d7 d7 55 3f
       0.89034957 0.738406 0.85335076 0.8353247
000060 85 bc 2c 3f 06 85 6f 3f dc 8f 7c 3f fd d6 73 3f
       0.6747516 0.9356235 0.9865701 0.9524992
000070 49 95 50 3f 73 80 4c 3f e7 0b 69 3f f5 2d 37 3f
       0.8147779 0.798835 0.91033787 0.715545

nns.0.4.bias f4 [32]
000000 bf e8 93 be 2a 83 52 be 97 d3 dd 3d a4 f2 77 3d
       -0.2888851 -0.20557848 0.10831373 0.060534135
000010 86 43 d3 be cd 2f 92 be 15 0c 73 be 22 c4 63 3a
       -0.41262454 -0.28552094 -0.23735078 0.0008688589
000020 0f 9d b1 bd 49 20 23 be 71 a0 ad be 07 d2 b6 3d
       -0.08672535 -0.15930285 -0.3391147 0.08926778
000030 86 26 80 3d 48 c5 d2 3b 0c 29 84 be 4c b9 8e be
       0.06257348 0.006432209 -0.25812566 -0.27875745
000040 87 21 7c 3d 9b 8a 48 be f2 32 8c be 37 fe d8 be
       0.06155541 -0.19584124 -0.27382618 -0.4238145
000050 d3 16 76 be 55 0b b7 bd 76 f6 83 3e ad 0a 3d be
       -0.24032144 -0.08937708 0.25773972 -0.18461104
000060 62 4b 95 bd 29 10 a6 be 7c 42 e0 3c 85 a9 61 be
       -0.07289769 -0.32434204 0.027375452 -0.22037323
000070 85 70 c4 be 23 6f 49 be 37 ff 99 3d 72 6c 4f be
       -0.38367096 -0.19671302 0.075193815 -0.20256212

nns.0.4.running_mean f4 [32]
000000 1a 89 ba bd 92 46 90 bf b9 45 ab 3f a2 a5 85 3f
       -0.09108181 -1.1271536 1.3380653 1.0441172
000010 88 cd 0b bf 85 2c b7 3e a3 91 bd 3e 82 57 23 bc
       -0.5461049 0.35776153 0.37025174 -0.009969594
000020 99 14 27 bf 4a 70 0c 3d ca 40 d5 3d 6a 26 3f 3f
       -0.65265805 0.034286775 0.10412748 0.7466799
000030 ff 29 d5 3f ae d4 2e 3f 7a 56 85 3e 95 0a 75 3e
       1.6653441 0.68293273 0.2604254 0.23929818
000040 1f 67 c5 3f 1b af fb 3e 28 bd d2 3e 00 0f 41 3f
       1.5422095 0.49157032 0.4115994 0.75413513
000050 4f 95 6b be c2 40 6d 3e 25 b1 33 bf 98 2a 4a 3e
       -0.23006175 0.23169234 -0.70192176 0.1974281
000060 87 bc 97 bc 14 57 9e bf 1d 8f 89 3f c8 2c 07 be
       -0.018522514 -1.2370324 1.07468 -0.13200676
000070 26 b7 05 3e fb d4 54 bf 5b d2 ad 3f 5f 12 9a be
       0.13058147 -0.8313748 1.357982 -0.3009214

nns.0.4.running_var f4 [32]
000000 8f ae 59 3f fd 5e 2b 40 2c 1b 66 40 91 ff 0a 40
       0.8503198 2.6776726 3.5954084 2.1718485
000010 e9 c1 64 41 e1 b8 71 3f d4 a8 5e 40 cc a4 d0 3f
       14.297341 0.9442273 3.4790545 1.6300292
000020 76 b7 50 40 5d 0b 1a 40 c5 4e e9 3f 72 bd a8 40
       3.2611976 2.4069436 1.8227164 5.2731256
000030 89 94 e4 3f 09 58 58 40 5f 4a ee 3f 91 f4 27 40
       1.7857829 3.3803732 1.8616446 2.6243021
000040 d0 72 02 40 f3 05 46 40 8a 0c a2 3f b4 42 e5 3f
       2.0382576 3.094113 1.2660077 1.7910981
000050 13 1a 7d 3f 09 fc 2c 40 b1 e4 8f 40 7e 77 fe 3f
       0.9886791 2.702883 4.4966664 1.9880216
000060 ab 95 33 41 d1 30 39 41 47 71 79 3f ff 46 e5 3f
       11.22404 11.574418 0.9743847 1.7912291
000070 5c 5d 8a 3f 9e 53 03 40 eb 37 ee 40 cd 5c 1d 40
       1.0809741 2.0519786 7.444326 2.458789

nns.1.0.weight f4 [32, 32]
000000 34 87 ba bd 3c 98 c9 3d db 50 03 be db 34 4a be
       -0.09107819 0.098434895 -0.12823813 -0.19746725
000010 09 d9 e7 3b b1 7d 70 bd a1 e9 22 3e c3 ed 48 3e
       0.007075433 -0.05871362 0.15909435 0.19621949
000020 cd d6 81 bd 33 c9 4a 3e 57 50 33 3e bb 72 7c 3e
       -0.06339798 0.19803314 0.17511116 0.24653141
000030 90 d3 65 3e 1f d3 cb 3d 83 19 24 3d a1 69 77 3e
       0.22443986 0.099523775 0.040063392 0.24161388
000040 5a 1c 2a be 9f df 43 3e 13 d0 16 3e c7 31 c2 bd
       -0.16612378 0.19128273 0.14727812 -0.094821505
000050 ed 9d f9 bd f9 4f 3a 3e dc 62 1a be 16 e1 2b bd
       -0.12188325 0.1819457 -0.15076774 -0.041962706
000060 db 26 dd bd 8b 54 18 ba 7c a3 cf 3c 3b ef 43 3d
       -0.10798427 -0.0005810938 0.02534651 0.04783557
000070 1f c8 ea bd da 9b 3f 3b 02 14 8e 3e a9 14 ee 3d
       -0.11463951 0.0029237182 0.2774964 0.11625034
000080 f5 8b 41 3d 27 6d 18 3e 70 db 98 3f 4e ec 10 3f
       0.047252614 0.14885388 1.1941967 0.5661057
000090 24 b3 04 bc a7 b2 92 3d 76 96 16 3e a4 ce 27 3e
       -0.008099351 0.071629815 0.14705834 0.16387421
0000a0 05 15 44 be 76 a5 aa 3d c3 d7 6c bd 8f 55 d3 3e
       -0.19148643 0.083323404 -0.057822954 0.41276214
0000b0 21 0e 07 3f c0 de d0 3d 36 6e b9 3b 43 bb 53 3e
       0.52755934 0.10198736 0.00565889 0.20676903
0000c0 6e 02 dc 3e 31 4f 79 3e a3 b9 10 3c 49 c0 bb bc
       0.42970604 0.24346615 0.008833322 -0.022918837
0000d0 5d bf 81 bc 26 a6 43 3d 05 ff a6 bd 0a 24 21 3d
       -0.01583832 0.047765873 -0.0815411 0.03934101
0000e0 39 6d 43 3d fb 4c b7 bd 35 92 e1 3e fc 10 14 3d
       0.047711585 -0.0895023 0.4405686 0.03614901
0000f0 14 87 53 bd 74 a6 fa 3d a7 90 93 3e 96 4d df 3d
       -0.051642492 0.1223878 0.28821298 0.1090347
000100 2e 15 dd bd b1 cf 81 bd d9 0c b0 3e 5d 81 35 3e
       -0.10795055 -0.06338442 0.34384802 0.1772513
000110 44 bc 7f be 43 9f ba be f7 fe 90 be b1 ec be be
       -0.24974161 -0.36449632 -0.28319523 -0.37289956
000120 26 b6 e6 bc 2b 5e 83 be 59 cc 13 3e d3 91 f0 bc
       -0.028163027 -0.25657782 0.14433421 -0.02936641
000130 e2 15 9b 3e 7b 99 0e 3d 61 73 54 3c 14 e1 89 bd
       0.30290133 0.03481434 0.012966962 -0.06732383
000140 bf df a0 3e 15 40 a4 be 4c 5e a4 be f3 b5 9b be
       0.31420705 -0.3208014 -0.32103193 -0.30412254
000150 e7 94 42 3e 10 b6 17 3e 7d 24 dd bc 2a a5 b0 be
       0.19002114 0.14815545 -0.026994938 -0.3450101
000160 43 83 15 be ee 97 63 be d3 d9 dc 3e 75 18 88 3d
       -0.14600854 -0.22225925 0.43134937 0.0664529
000170 af e0 ff bd a1 ee ca bc 3f ca 8f bd de 70 e4 3d
       -0.12494027 -0.02477199 -0.07020997 0.1115434
000180 62 54 a1 39 76 b2 e9 3d 28 3a c9 bd da 8c 04 be
       0.00030771183 0.11410992 -0.098255455 -0.12944356
000190 53 67 ab bd 18 05 60 3d 70 0d 2d 3e 7a 77 68 3e
       -0.08369317 0.054692358 0.16899657 0.22701827
0001a0 01 16 54 bd 89 64 5a bc 75 be 06 3e 59 49 44 3e
       -0.051778797 -0.0133296335 0.13158591 0.19168605
0001b0 30 12 e0 bc 84 6e d5 3e 45 a9 41 3d e0 6f 88 3c
       -0.027352422 0.4168588 0.04728057 0.016654909
0001c0 e3 4e 3d bd 82 12 8c 3e 5c b0 90 3d a5 4a ec 3c
       -0.04621781 0.2735787 0.07064888 0.028844187
0001d0 2d 31 2d 3e d9 29 95 bd 9e 9b a5 bc fc 77 97 3e
       0.1691329 -0.072833724 -0.020215806 0.29583728
0001e0 6b 88 a7 be e3 fe a7 bd 52 f2 c0 3e b8 f8 f8 bd
       -0.32721266 -0.08202913 0.37684876 -0.12156814
0001f0 76 15 cb bd 5b 20 32 bc 89 a6 21 3f 66 09 0c be
       -0.09916203 -0.010871972 0.6314474 -0.1367546
000200 13 34 c5 3e 75 44 0b bd 34 8e 38 3f d8 6a 3b 3f
       0.38516292 -0.034000833 0.72091985 0.73209906
000210 23 e0 59 be 3b 94 2b bd 3c 28 c2 bd 0c f0 20 bd
       -0.21276908 -0.04188941 -0.0948033 -0.039291427
000220 6b 92 f1 bc 3d 22 95 bc d2 96 04 3e 6d 03 8e bc
       -0.029488763 -0.018204803 0.12948158 -0.017335618
000230 d2 51 33 3f b6 09 d5 bd 08 e0 2f 3c 85 bb 3d be
       0.7004672 -0.10402243 0.010734566 -0.18528564
000240 d5 0d 3e 3f 22 11 22 bd 40 2a dd 3d 61 57 6a 3b
       0.74239856 -0.03956712 0.10799074 0.0035757648
000250 7c 2d 35 bd b4 b3 f0 3c 93 66 de be bc 2f 09 be
       -0.04423283 0.029382564 -0.43437633 -0.13397115
000260 ca 61 06 3e bb 83 2c 3e fa 56 70 3f 23 d4 3d 3e
       0.13123241 0.16847126 0.93882716 0.18537955
000270 62 dc 51 be 03 51 22 3e 00 54 3c 3e cd b4 ac 3d
       -0.20494226 0.15851216 0.18391418 0.084329225
000280 b6 df d0 bd e9 23 bf 3d 78 30 aa be bc d0 a0 be
       -0.101989195 0.09333021 -0.33240104 -0.31409252
000290 95 94 54 3d 1d c7 af bd d0 41 19 be 88 9d a8 be
       0.05189951 -0.085829 -0.14966512 -0.32932687
0002a0 c3 0f b1 bd 78 c1 ae be 0e ea 04 3e 6a db aa be
       -0.086455844 -0.3413198 0.1297991 -0.33370525
0002b0 ac 31 96 be 8b 72 5e be d4 4f 8e be 46 63 97 be
       -0.29334772 -0.21723382 -0.2779528 -0.29567927
0002c0 09 86 96 bd f4 e9 a8 be 1f 94 05 be 53 7f 8e be
       -0.07349784 -0.32990992 -0.13044785 -0.27831516
0002d0 2a 7e b4 3c 1a 74 0e be 92 e6 08 be c7 42 86 3c
       0.022032816 -0.13911477 -0.13369206 0.016389264
0002e0 2a 7c 68 be e8 88 94 bd 8c ed ca 3c 99 e9 67 3c
       -0.22703615 -0.07252675 0.024771474 0.014154815
0002f0 09 4e c5 bd 07 1f 3b 3e c8 f2 24 bd 84 1b fd bc
       -0.09634025 0.18273555 -0.040270597 -0.03089691
000300 b0 59 fa bd aa 41 a9 be 95 9a d3 3e da 9c d8 3e
       -0.12224138 -0.3305791 0.41328874 0.42307168
000310 8f e7 bb bd cf 61 44 be fb 08 14 be ca c2 28 be
       -0.09175026 -0.19177936 -0.14456551 -0.16480556
000320 ed f0 96 be a6 07 4a be ab 64 81 bd 58 6e bd be
       -0.29480687 -0.1972948 -0.06318029 -0.36998248
000330 40 9a 81 3e ab 4f 86 be 67 e3 c8 bd 41 68 ff bc
       0.25312996 -0.26232657 -0.098089986 -0.031177642
000340 cb 79 a5 bd b5 ea ab bd 1a 2f 9c be af 7a 6a bd
       -0.08079871 -0.08394376 -0.30504686 -0.057245906
000350 a7 4c 98 be 3b 31 ab bd 8b 40 b4 bf 1a eb 0a be
       -0.2974598 -0.08358999 -1.4082197 -0.13566247
000360 8f 8b ce be f6 6d ff bd 42 22 cf 3e 7e a3 b1 bd
       -0.4034085 -0.12472145 0.40455824 -0.08673762
000370 55 33 f1 bd c0 54 71 be 4b d9 e6 be 69 91 3d be
       -0.11777369 -0.23567486 -0.45087656 -0.18512501
000380 ed 3e 39 3d e9 b7 0c be 46 ca 26 3e 63 d9 0a 3e
       0.045226026 -0.13742031 0.16288099 0.13559489
000390 e1 b4 f3 3d 7b 42 a3 bd 01 a0 10 3e 79 f4 22 be
       0.11899734 -0.079716645 0.14123537 -0.15913571
0003a0 e9 d3 bb bd f4 99 52 bd ba 14 02 3e 3c 1c 88 3e
       -0.09171278 -0.051416352 0.12703219 0.2658404
0003b0 f5 98 50 3e 7e 09 43 bd 29 7d 42 3e 80 34 bb bd
       0.20370848 -0.047616474 0.18993057 -0.09140873
0003c0 fb c5 03 3d e6 2c 2d 3d 49 45 ba 3d b3 4a b9 3e
       0.03217123 0.042279147 0.09095246 0.36189803
0003d0 18 4c db bd 91 11 68 3e 14 99 4b be 2b 99 53 3d
       -0.10707873 0.22662951 -0.19882613 0.051659744
0003e0 bc bb ae 3d b8 f1 95 bd 37 b5 3f 3e 1a 86 5f 3e
       0.08531901 -0.07321495 0.18721472 0.218285
0003f0 56 83 8a 3d 8b 53 80 3e 66 0d 29 3e 31 17 1c be
       0.067633316 0.25063738 0.16509017 -0.15243222

nns.1.0.bias f4 [32]
000000 20 1b f4 3d b0 0b 2f be b1 ac d6 bd 1c c5 24 be
       0.11919236 -0.17094302 -0.10482157 -0.16090816
000010 c0 49 b6 3b e2 f9 8d 3d d8 37 8d bc a9 cd 63 3c
       0.005562991 0.06932427 -0.017238542 0.013904014
000020 41 fb 2e be b9 00 0e 3e 8b 40 20 be 23 a2 ec 3d
       -0.17088033 0.13867463 -0.15649621 0.115543626
000030 58 92 e0 3d 63 15 92 bd db 98 40 3c e2 7b 6a bd
       0.10965413 -0.071329854 0.011755194 -0.05724705
000040 07 d7 b9 bd 69 57 d4 3d 16 2d 35 bd 7e 54 a3 3d
       -0.09074216 0.10368235 -0.04423245 0.079751
000050 6e 9a ab 3c 85 4f b0 3d 9b f9 a8 3d 50 03 95 3d
       0.020947661 0.08608917 0.082507335 0.072760224
000060 de cd 30 be 53 65 79 bd 8e 52 27 be a7 ea 67 bd
       -0.17266032 -0.060887646 -0.16340086 -0.056620266
000070 b8 a5 ef bd 69 ea 8a bd 37 f8 11 be 71 74 03 3e
       -0.1170153 -0.067829914 -0.14254843 0.12837388

nns.1.1.weight f4 [32]
000000 9c a7 8b 3f 0d d2 91 3f a5 58 69 3f 95 a0 9e 3f
       1.0910525 1.1392227 0.91150886 1.2392756
000010 68 fe c0 3f 6f 41 22 3f 5a fb ee 3f 86 9f 5a 3f
       1.5077639 0.63381094 1.8670456 0.85399663
000020 fe e6 62 3f 44 aa 88 3f 53 b3 85 3f 07 3b 62 3f
       0.88633716 1.0676961 1.044535 0.8837132
000030 28 29 14 3f 1e 2f 81 3f d4 8a 76 3f 96 8f 2b 3f
       0.578753 1.0092504 0.96305585 0.6701597
000040 c9 1e 71 3f e2 31 59 3f 61 bc 82 3f c8 8b 88 3f
       0.941876 0.8484174 1.0213739 1.0667658
000050 7b d5 47 3f 3a 93 7a 3f 83 36 9b 3f 7b 2f 82 3f
       0.7806012 0.978809 1.2126011 1.017074
000060 70 a1 71 3f fc 7f 7d 3f b6 f6 52 3f 0d 49 8f 3f
       0.9438696 0.99023414 0.824077 1.1194168
000070 5f e8 d5 3f 7f 69 54 3f 7d ef 93 3f a6 82 78 3f
       1.6711539 0.82973474 1.1557461 0.97074354

nns.1.1.bias f4 [32]
000000 63 b6 af bd 22 d6 7d bf c3 2e cf 3c 9e e3 0d 3d
       -0.085797094 -0.99154866 0.025290852 0.0346409
000010 b8 e4 c3 3e e1 ec d2 be 1a fd 67 3f dd 6d bf be
       0.38260436 -0.4119635 0.9062058 -0.37388507
000020 3d b2 21 b7 05 66 38 3e 90 15 94 3e 8c bd d0 3e
       -9.637847e-06 0.18007667 0.289227 0.40769613
000030 e7 63 98 be b3 e7 50 3d 08 ff de 3c c0 b9 08 bd
       -0.2976372 0.051002216 0.027221218 -0.03338027
000040 5d 85 10 be 05 a6 c6 be 5f 7e 42 bc 64 44 b0 be
       -0.14113374 -0.38798538 -0.0118709495 -0.34427178
000050 c2 70 5d be d1 5c 6d be f2 12 08 3e 84 b8 94 be
       -0.21625045 -0.23179938 0.13288477 -0.29047024
000060 86 7e 99 be 3f 0c 9f 3e 12 45 68 3b 5e 65 84 3e
       -0.29979342 0.3106403 0.003544156 0.25858587
000070 91 5d 53 3f 0e b7 b7 be 67 95 71 be b7 cc 28 be
       0.82564646 -0.35881847 -0.23592149 -0.16484343
