result/08.24.2022_20.26.17/config_91fold_1_optim_dict.pt (torch, 153628 bytes, 92 tensors)

first_h.0.weight f4 [64, 3]
-0.51083374 -0.08480388 0.4949172 -0.39347717 0.13310844 0.24849477 0.2249551 -0.3123403
0.09104272 0.7667267 -0.13105682 0.39376196 -0.40603098 -0.061803974 0.28349695 0.04766022
-0.34424934 0.42915598 0.4517778 0.27008033 0.3381435 0.38297382 0.4432859 0.016539296
0.34349516 -0.7226669 -0.42231348 0.05375765 -0.3576422 0.065711625 0.50118965 -0.22982383
-0.20749772 -0.16566586 0.37782535 -0.5531465 0.8820492 -0.20859885 -0.024172049 -0.21817294
-0.27583343 0.3546861 -0.114891544 -0.26902646 -0.23943163 0.16513455 0.06557078 -0.51258975
-0.2298126 -0.05894068 0.1949714 -0.19157633 0.13436395 -0.047155257 -0.11478547 0.15258138
-0.3651764 -0.12864934 0.519571 0.13746804 -0.25155935 -0.47180226 -0.5252869 -0.28819153
0.31432587 0.34947994 -0.42861342 0.08161521 -0.24871881 0.6512067 0.51830554 -0.620648
0.2606259 0.4938108 0.29082775 -0.26431096 -0.09148334 -0.16809803 0.8527074 0.5421684
-0.2370421 -0.3850017 -0.25102225 -0.39322892 0.3156582 0.43214706 0.12860401 -0.103151314
-0.5058413 0.0910957 -0.42398763 0.03878994 -0.24034137 -0.12931776 0.24806887 0.49147165
0.3543523 -0.4087037 0.2565897 0.27657536 0.33167452 0.55279374 -0.07881131 -0.53944707
-0.9673521 -0.21229734 0.24477029 -0.36931187 -0.16208765 -0.5178087 -0.7886114 -0.17681049
-0.24235809 0.4904636 -0.29948 0.6307783 0.3952465 0.22077094 -0.0655971 -0.23610714
-0.568955 0.16288668 0.30966008 -0.19422309 0.048916064 0.021701071 0.09803692 -0.34295204
-0.121136695 0.38244155 0.222672 0.42903337 -0.43165004 0.011913873 0.026375616 -0.27495116
-0.08030822 -0.10969116 -0.35336012 -0.50656825 -0.07828352 0.4061328 0.73715043 0.21374461
-0.29766884 -0.12560898 0.15308078 0.16161557 0.4974568 0.18702911 0.25858837 0.5802507
-0.30250558 -0.11925933 -0.41414607 -0.30596924 0.6836342 0.23823328 -0.069462635 -0.07684441
0.4131935 0.12734497 0.08213915 0.2754091 0.024558794 -0.050660916 -0.24637958 -0.17838861
-0.24074826 0.2558468 -0.34728158 -0.11648074 -0.13673256 0.19378705 -0.33787343 0.23597689
0.5119944 -0.63182294 -0.4864604 0.04502507 0.6220601 0.56348455 -0.50162625 0.7260773
-0.14998414 -0.4800667 -0.14214288 0.051263414 0.23983541 -0.10675751 -0.4071968 -0.34352243
00000000: 00c6 02bf a8ad adbd ca65 fd3e d775 c9be
00000010: 944d 083e 6a75 7e3e a15a 663e 11eb 9fbe
00000020: 9b74 ba3d 3348 443f c233 06be 2b9b c93e
00000030: 4be3 cfbe 2a26 7dbd 8326 913e 5d37 433d
00000040: 7341 b0be 55ba db3e 6b4f e73e f847 8a3e
00000050: 2521 ad3e 2515 c43e 5ff6 e23e 6b7d 873c
00000060: 99de af3e b300 39bf 7939 d8be fb30 5c3d
00000070: e11c b7be d193 863d f74d 003f f056 6bbe
00000080: 487a 54be 50a4 29be 5372 c13e 029b 0dbf
00000090: facd 613f f09a 55be 7604 c6bc ba68 5fbe
000000a0: 0a3a 8dbe 6b99 b53e 424c ebbd d6bd 89be
000000b0: 912d 75be 0819 293e f949 863d 1539 03bf
000000c0: ff53 6bbe c86b 71bd 95a6 473e 962c 44be
000000d0: b496 093e df25 41bd a514 ebbd 4b3e 1c3e
000000e0: 67f8 babe a7bc 03be 9b02 053f 6cc4 0c3e
000000f0: 63cc 80be 1190 f1be 3479 06bf d78d 93be
00000100: 52ef a03e 09ef b23e 3873 dbbe e025 a73d
00000110: 25b0 7ebe 7bb5 263f acaf 043f cae2 1ebf
00000120: c270 853e c5d4 fc3e 60e7 943e c453 87be
00000130: 9e5b bbbd e421 2cbe 084b 5a3f 8ccb 0a3f
00000140: 2abb 72be f11e c5be fd85 80be 4d55 c9be
00000150: f49d a13e 6142 dd3e c5b0 033e ff40 d3bd
00000160: d17e 01bf 6290 ba3d e814 d9be 33e2 1e3d
00000170: 0c1c 76be e06b 04be c405 7e3e 2ca2 fb3e
00000180: aa6d b53e 9d41 d1be ba5f 833e 499b 8d3e
00000190: 3ed1 a93e e483 0d3f d367 a1bd 3419 0abf
000001a0: 63a4 77bf 7964 59be 10a5 7a3e 7216 bdbe
000001b0: 4efa 25be 1c8f 04bf 70e2 49bf cf0d 35be
000001c0: b82c 78be 0c1e fb3e 7155 99be b07a 213f
000001d0: c05d ca3e c711 623e c657 86bd 12c6 71be
000001e0: 09a7 11bf c4cb 263e c48b 9e3e 6be2 46be
000001f0: 365c 483d 72c6 b13c 95c7 c83d 6997 afbe
00000200: 8416 f8bd 61cf c33e 2104 643e 43aa db3e
00000210: 3c01 ddbe 6832 433c ad11 d83c 66c6 8cbe
00000220: a378 a4bd c2a5 e0bd 9eeb b4be 75ae 01bf
00000230: 1c53 a0bd a3f0 cf3e e4b5 3c3f dedf 5a3e
00000240: 0d68 98be a49f 00be 35c1 1c3e 8d7e 253e
00000250: a8b2 fe3e 8f84 3f3e b265 843e 4f8b 143f
00000260: 03e2 9abe 3c3e f4bd f40a d4be 00a8 9cbe
00000270: a702 2f3f 6df3 733e 6d42 8ebd 9a60 9dbd
00000280: 198e d33e b866 023e 9238 a83d 6c02 8d3e
00000290: 862f c93c d281 4fbd ee4a 7cbe 81ab 36be
000002a0: b686 76be 5afe 823e e4ce b1be 748d eebd
000002b0: 9f03 0cbe 1d70 463e bffd acbe eda3 713e
000002c0: 1112 033f 26bf 21bf 5611 f9be 356c 383d
000002d0: 553f 1f3f 8640 103f 946a 00bf 34e0 393f
000002e0: 7195 19be 4dcb f5be e78d 11be 96f9 513d
000002f0: 6a97 753e aea3 dabd 197c d0be 2ce2 afbe

first_h.0.bias f4 [64]
0.15101859 -0.062270116 -0.020606773 0.09030926 0.14461476 -0.29604253 -0.18130368 -0.43226492
-0.050895672 -0.06581724 0.35664523 0.15701944 -0.2260186 0.35825703 -0.16837175 -0.080010146
-0.3643192 0.34060267 -0.113098525 0.32808697 -0.51884425 0.522298 0.50561047 -0.44284484
0.56650823 0.29575652 0.09360192 0.32637945 -0.18951605 0.3829111 -0.51088506 -0.54823196
0.5100399 -0.44922101 -0.44172746 0.120153114 0.013210729 0.25405344 -0.15360461 0.43707988
0.14509608 0.04021324 -0.29197112 0.54221666 -0.15133491 0.011000525 -0.31473136 -0.09728203
0.42260128 0.4832606 -0.40730578 -0.015759304 -0.20636459 -0.27896792 -0.067275554 0.0011011855
-0.16273582 -0.04095123 -0.49318853 0.08790487 0.14943743 0.46374407 0.53545105 -0.5573266
00000000: 9ea4 1a3e f30e 7fbd 89cf a8bc 10f4 b83d
00000010: e415 143e e392 97be aca7 39be d451 ddbe
00000020: fb77 50bd 30cb 86bd 349a b63e b4c9 203e
00000030: 6b71 67be 776d b73e a569 2cbe 5cdc a3bd
00000040: 0c88 babe 7963 ae3e 33a0 e7bd 04fb a73e
00000050: fad2 04bf 52b5 053f b06f 013f 8fbc e2be
00000060: af06 113f 666d 973e 5db2 bf3d 351b a73e
00000070: 7f10 42be ec0c c43e 5dc9 02bf ee58 0cbf
00000080: fa91 023f 4c00 e6be 1a2a e2be d612 f63d
00000090: d071 583c 4b13 823e 874a 1dbe efc8 df3e
000000a0: 1194 143e a3b6 243d 3d7d 95be b6ce 0a3f
000000b0: 8af7 1abe 8c3b 343c 7824 a1be cd3b c7bd
000000c0: 325f d83e ef6d f73e 628a d0be a819 81bc
000000d0: 3d51 53be e2d4 8ebe c4c7 89bd a755 903a
000000e0: 38a4 26be 7abc 27bd 3583 fcbe 7807 b43d
000000f0: 2006 193e dd6f ed3e 5213 093f f5ac 0ebf

first_h.1.weight f4 [64]
0.87183785 0.83732027 0.927299 0.99788886 0.9380797 0.9225898 0.93366414 0.93311346
1.0005866 0.4787247 1.0715399 0.6849187 0.99278885 0.7980793 0.885684 0.97840595
0.93421036 0.91883147 0.8476647 0.92043394 1.0659161 0.6833586 0.84919274 0.922263
0.9524571 0.87200254 1.0814804 0.73587435 1.056034 0.7341595 0.79321575 0.551072
1.0682304 1.111769 0.92513114 0.7492375 0.9126724 0.76681244 0.59236306 1.05902
0.7461795 0.58496106 0.95186675 0.8573729 0.79865354 0.64925975 0.91738576 1.0233451
1.0986435 1.1098359 1.0416471 0.71682376 0.9289521 0.6296243 0.73690486 0.78216976
0.7062644 1.0092257 0.87584245 0.7407399 1.0653948 0.9909998 1.0681709 0.9455974
00000000: c430 5f3f 9f5a 563f 7863 6d3f a575 7f3f
00000010: fe25 703f d82e 6c3f 9d04 6f3f 86e0 6e3f
00000020: 3913 803f 671b f53e 3828 893f d556 2f3f
00000030: 6927 7e3f ed4e 4c3f 30bc 623f d078 7a3f
00000040: 6928 6f3f 8a38 6b3f 8e00 593f 8fa1 6b3f
00000050: f06f 883f 97f0 2e3f b264 593f 6e19 6c3f
00000060: 3ad4 733f 8f3b 5f3f f36d 8a3f 4362 3c3f
00000070: 1f2c 873f e1f1 3b3f 3010 4b3f 0e13 0d3f
00000080: c6bb 883f 724e 8e3f 65d5 6c3f 07ce 3f3f
00000090: e6a4 693f d24d 443f 1ba5 173f f88d 873f
000000a0: 9f05 3f3f 02c0 153f 8aad 733f ca7c 5b3f
000000b0: 8f74 4c3f e335 263f cbd9 6a3f f9fc 823f
000000c0: 5aa0 8c3f 1a0f 8e3f b154 853f c381 373f
000000d0: cecf 6d3f 0f2f 213f cca5 3c3f 473c 483f
000000e0: becd 343f 4f2e 813f 3637 603f 21a1 3d3f
000000f0: db5e 883f 2ab2 7d3f d3b9 883f ac12 723f

first_h.1.bias f4 [64]
0.26320827 0.24212468 -0.26781884 -0.42587847 0.17805815 -0.0103080245 -0.3066591 -0.5324443
-0.2551101 -0.27881333 -0.22777517 -0.24260664 -0.074107856 -0.10727879 0.2521709 -0.3411946
0.19070332 -0.06825495 0.06983844 -0.027623715 -0.30384195 0.27460006 0.13553526 -0.77217287
-0.63189596 0.3359717 -0.8672868 0.14423577 -0.45195165 -0.26502085 -0.041382737 -0.14522423
-0.5161716 -0.69151706 -0.33841932 0.33265588 -0.4087298 0.34928432 -0.30273432 -0.6983279
-0.16944085 -0.29937226 -0.2699033 -0.47009584 -0.38845485 0.6129984 0.16219704 -0.14701444
0.2393914 -0.09010144 -0.26606643 -0.20860901 -0.43138596 -0.23319933 0.05323453 -0.53279454
-0.31337076 0.1630692 0.42212355 0.5274112 -0.72782993 -0.7070198 0.3541643 0.29802677
00000000: 3cc3 863e 88ef 773e 8d1f 89be be0c dabe
00000010: e054 363e fde2 28bc 6c02 9dbe 454e 08bf
00000020: cb9d 82be 9fc0 8ebe e53d 69be e06d 78be
00000030: dcc5 97bd fbb4 dbbd 8b1c 813e 0fb1 aebe
00000040: bb47 433e 40c9 8bbd 7507 8f3d 214b e2bc
00000050: 2c91 9bbe 6198 8c3e c1c9 0a3e 1fad 45bf
00000060: efc3 21bf 7c04 ac3e 8206 5ebf 8bb2 133e
00000070: 3566 e7be d0b0 87be f280 29bd a9b5 14be
00000080: d223 04bf 4307 31bf 4c45 adbe df51 aa3e
00000090: 0845 d1be 65d5 b23e feff 9abe 9ec5 32bf
000000a0: e781 2dbe 5247 99be c430 8abe 67b0 f0be
000000b0: 8ee3 c6be 77ed 1c3f fb16 263e f48a 16be
000000c0: 0523 753e 1b87 b8bd dc39 88be 9a9d 55be
000000d0: 9fde dcbe cecb 6ebe 730c 5a3d 3965 08bf
000000e0: 2272 a0be 9dfb 263e 9420 d83e 6c04 073f
000000f0: 1053 3abf 40ff 34bf 0655 b53e f796 983e

first_h.1.running_mean f4 [64]
-722254.0 -556589.0 318582.56 1.0844191e+06 -574406.75 67464.7 638692.9 541342.06
485726.8 76053.914 709580.25 -234329.11 1.2470416e+06 -308579.12 -162493.23 233710.12
-324442.9 -270990.72 -162367.05 -181967.45 -355871.12 -407393.0 -606269.4 921502.25
368688.4 -373842.8 1.2065401e+06 -544130.5 445491.8 -145918.4 -599551.3 -182906.05
501204.1 391790.38 -111489.72 -300390.9 -229285.81 -250041.12 -423610.56 311743.06
-804812.25 -274721.78 135998.81 540945.06 -610557.1 -388498.66 -500098.94 575545.3
-421115.03 228339.97 365880.66 -168608.0 967237.1 -108689.2 116256.38 -71662.67
-340333.53 -164876.4 -477835.88 -893881.1 879862.3 1.02638156e+06 -201019.52 -151012.28
00000000: e054 30c9 d0e2 07c9 d28e 9b48 1960 8449
00000010: 6c3c 0cc9 5ac4 8347 4eee 1b49 e129 0449
00000020: da2b ed48 f58a 9447 c43c 2d49 47d6 64c8
00000030: 0d3a 9849 64ac 96c8 4faf 1ec8 883b 6448
00000040: 5d6b 9ec8 d751 84c8 c38f 1ec8 ddb3 31c8
00000050: e4c3 adc8 20ec c6c8 d603 14c9 e4f9 6049
00000060: 0d06 b448 5a8a b6c8 6148 9349 28d8 04c9
00000070: 7a86 d948 9a7f 0ec8 f55f 12c9 839e 32c8
00000080: 83ba f448 cc4d bf48 dcc0 d9c7 ddac 92c8
00000090: 74e9 5fc8 482e 74c8 52d7 cec8 e237 9848
000000a0: c47c 44c9 3924 86c8 b4cf 0448 1111 0449
000000b0: d20f 15c9 55b2 bdc8 5e30 f4c8 9583 0c49
000000c0: 619f cdc8 fefc 5e48 15a7 b248 00a8 24c8
000000d0: 5224 6c49 9a48 d4c7 3110 e347 56f7 8bc7
000000e0: b12d a6c8 1a03 21c8 7c51 e9c8 923b 5ac9
000000f0: 65cf 5649 d994 7a49 e14e 44c8 1279 13c8

first_h.1.running_var f4 [64]
1.4368632e+13 8.5329335e+12 2.795736e+12 3.2391293e+13 9.088314e+12 1.25359866e+11 1.1236025e+13 8.0717346e+12
6.498952e+12 1.5933412e+11 1.386923e+13 1.5124689e+12 4.283554e+13 2.6228532e+12 7.272297e+11 1.5045347e+12
2.899385e+12 2.0228217e+12 7.261208e+11 9.1211576e+11 3.488108e+12 4.571656e+12 1.0124375e+13 2.3389916e+13
3.743992e+12 3.8492764e+12 4.009717e+13 8.154926e+12 5.466628e+12 5.8646036e+11 9.901174e+12 9.215957e+11
6.9193286e+12 4.2278705e+12 3.4228932e+11 2.48541e+12 1.4478785e+12 1.7221395e+12 4.9428184e+12 2.6773385e+12
1.7841946e+13 2.0788581e+12 5.0967934e+11 8.059678e+12 1.0268049e+13 4.1572486e+12 6.8889194e+12 9.124038e+12
4.8847294e+12 1.4360423e+12 3.687256e+12 7.8298894e+11 2.5769395e+13 3.2542356e+11 3.722727e+11 1.4143924e+11
3.190253e+12 7.4877095e+11 6.2892713e+12 2.2008308e+13 2.1324116e+13 2.9017938e+13 1.1131145e+12 6.280829e+11
00000000: 5317 5155 4f57 f854 b6bb 2254 7cad eb55
00000010: 9c40 0455 3e80 e951 7481 2355 1ceb ea54
00000020: f724 bd54 3764 1452 e8d2 4955 1613 b053
00000030: b5d5 1b56 8fab 1854 4552 2953 a126 af53
00000040: 34c4 2854 c97c eb53 2c10 2953 565e 5453
00000050: dc08 4b54 7e0d 8554 3c54 1355 1d2f aa55
00000060: d4ed 5954 b00e 6054 66df 1156 ef56 ed54
00000070: 8d19 9f54 c38b 0853 bf14 1055 6293 5653
00000080: 0461 c954 2e18 7654 1164 9f52 7fab 1054
00000090: 248e a853 c27b c853 deda 8f54 74d7 1b54
000000a0: 37d1 8155 cd02 f253 8356 ed52 4891 ea54
000000b0: 776b 1555 d5fb 7154 737e c854 b1c5 0455
000000c0: 122a 8e54 652d a753 65a0 5654 c74d 3653
000000d0: 3d7f bb55 8389 9752 5d5a ad52 beb9 0352
000000e0: 79b2 3954 3a56 2e53 b90a b754 ab21 a055
000000f0: 4327 9b55 1f22 d355 6695 8153 a83c 1253

first_h.3.weight f4 [64, 64]
-0.080449104 -0.1662919 -0.06761972 -0.13752598 -0.18082325 0.029097673 -0.117976144 -0.033096254
-0.13077019 -0.19898397 -0.0337573 -0.08283055 -0.11664654 0.061733704 -0.16287717 -0.21264108
-0.18791711 -0.101365216 -0.20153469 -0.07100205 -0.09118499 -0.22723232 -0.030222641 -0.09676067
-0.15552892 -0.009018585 -0.11081583 -0.053253233 -0.011918509 0.011355619 -0.08681216 0.014608089
-0.12621877 -0.18805702 -0.116511114 -0.20928374 -0.14795288 -0.023423607 0.07866598 -0.07478005
-0.094979584 -0.059468955 0.0007694045 -0.0951669 0.015331677 -0.18342362 -0.14923404 -0.19358991
-0.062032532 -0.024752246 -0.063073374 -0.060460377 -0.042296547 -0.12622352 -0.09857079 -0.17789608
0.08007619 -0.10497259 -0.10859585 -0.08141966 -0.10900177 -0.12883861 -0.08959306 -0.12897663
0.08333479 0.10362986 0.073699616 -0.07100426 0.111971095 0.027821718 0.0150217 0.012811532
0.11456502 -0.23436499 0.0871929 0.06368934 -0.015971499 -0.04306601 0.15267682 0.0753751
0.086402215 -0.0012610807 0.11483819 0.20239991 -0.020258045 0.18309443 0.17984572 0.0031464715
-0.04226465 0.2826515 -0.07462768 0.061580002 0.015911043 0.15923962 0.15452836 -0.019324513
-0.01762286 0.02936291 -0.047284853 0.27907315 0.08906044 0.117254965 0.117758445 0.0142000355
-0.04940259 -0.039583128 0.084959246 -0.00085754064 0.041086547 0.19438346 0.1344921 0.091735765
0.18561004 0.09155566 0.10284968 0.12433677 -0.088168435 -0.06358563 -0.4562037 0.11106957
0.011110595 0.16719097 0.2081687 0.26481825 0.09582297 -0.028902628 0.12741074 0.15103155
0.06278332 0.12149397 -0.123292156 -0.241319 0.079476394 -0.030803965 -0.28852028 -0.087269105
-0.30368274 0.0771455 -0.15751688 0.065712735 -0.24302879 0.19156437 0.007705364 -0.1936934
0.054248776 -0.11579733 -0.009401053 -0.008095637 -0.13670775 0.044025045 0.083285145 -0.17262465
-0.1049107 0.010746665 -0.23131025 0.020228993 -0.26858747 0.12265943 0.19925389 0.1914842
-0.19714995 -0.1810851 -0.2520505 0.08260733 -0.2666177 -0.02627951 0.16070154 -0.11701504
-0.014764857 0.1605806 -0.08175787 -0.23408121 0.1261328 0.12467478 -0.0062668757 -0.24799618
0.045172345 -0.22468469 -0.14191397 -0.01318705 -0.12667614 -0.0006359286 -0.03519215 -0.22225983
0.113106616 -0.018718844 0.016587604 0.03375696 -0.1021561 -0.12704843 -0.021224333 -0.017303534
-0.030713646 0.0757641 -0.21666752 -0.14575487 0.09500803 -0.22305498 -0.23918068 -0.22464925
-0.13539241 0.035508096 -0.16983259 -0.0720647 -0.14652874 0.072451435 -0.005171538 -0.051566914
0.017682081 -0.033967707 -0.0877951 -0.015115573 -0.10744851 -0.036538504 -0.04085931 -0.19425231
-0.17975442 0.03865159 -0.10768074 -0.052209362 -0.18716003 0.027879506 -0.08207266 -0.04789139
-0.2757221 -0.05565923 0.0064670243 -0.04467753 -1.3101684e-05 -0.076283306 -0.022510262 -0.26723337
0.08211595 0.04128963 -0.21282226 -0.095840834 0.0066971616 0.10396882 0.027549496 -0.21393879
0.051778294 -0.09231739 -0.09242878 0.04026786 -0.0934365 -0.11053092 -0.118282296 -0.25347775
-0.101526834 -0.028077746 0.05288243 0.110585436 -0.12184473 -0.1760454 0.078502126 -0.09634208
00000000: 80c2 a4bd 6d48 2abe 357c 8abd 9cd3 0cbe
00000010: bb29 39be 3e5e ee3c 7a9d f1bd f08f 07bd
00000020: 9fe8 05be 74c2 4bbe 1845 0abd 10a3 a9bd
00000030: 62e4 eebd 7bdc 7c3d 46c9 26be 95be 59be
00000040: 586d 40be 9198 cfbd 1c5f 4ebe 8669 91bd
00000050: 32bf babd 97af 68be 7995 f7bc 752a c6bd
00000060: f942 1fbe b0c2 13bc 69f3 e2bd 1020 5abd
00000070: da45 43bc eb0c 3a3c 93ca b1bd c456 6f3c
00000080: 7e3f 01be 0592 40be 619d eebd 7a4e 56be
00000090: f680 17be dde2 bfbc a11b a13d 4826 99bd
000000a0: a884 c2bd b895 73bd ddb1 493a dde6 c2bd
000000b0: b731 7b3c 67d3 3bbe cfd0 18be 6f3c 46be
000000c0: d315 7ebd 39c5 cabc 9d2c 81bd 4da5 77bd
000000d0: 253f 2dbd bd40 01be 7bdf c9bd 642a 36be
000000e0: fcfe a33d dffb d6bd 8067 debd 5abf a6bd
000000f0: 523c dfbd 45ee 03be 917c b7bd 7312 04be
00000100: 6eab aa3d e43b d43d d3ef 963d ae6a 91bd
00000110: 1a51 e53d 5fea e33c 941d 763c 76e7 513c
00000120: 11a1 ea3d 60fd 6fbe 3192 b23d 8f6f 823d
00000130: a9d6 82bc fc65 30bd 5057 1c3e 435e 9a3d
00000140: a5f3 b03d d94a a5ba 4930 eb3d ec41 4f3e
00000150: 33f4 a5bc 1b7d 3b3e 7a29 383e 0835 4e3b
00000160: b31d 2dbd b3b7 903e 66d6 98bd 503b 7c3d
00000170: e057 823c b60f 233e af3c 1e3e 714e 9ebc
00000180: d15d 90bc 7c8a f03c c3ad 41bd ade2 8e3e
00000190: 5265 b63d 5f23 f03d 572b f13d 44a7 683c
000001a0: 5f5a 4abd eb21 22bd 1dff ad3d 94cc 60ba
000001b0: 5e4a 283d 750c 473e 4cb8 093e f6df bb3d
000001c0: 8f10 3e3e 8981 bb3d daa2 d23d 47a4 fe3d
000001d0: a791 b4bd 2f39 82bd 8893 e9be 7178 e33d
000001e0: 3709 363c 1c34 2b3e 2d2a 553e 4296 873e
000001f0: d53e c43d 34c5 ecbc f677 023e 04a8 1a3e
00000200: 8b94 803d d5d1 f83d 9980 fcbd 541c 77be
00000210: 85c4 a23d 9958 fcbc eeb8 93be 25ba b2bd
00000220: 4e7c 9bbe 76fe 9d3d 1b4c 21be 6694 863d
00000230: 8adc 78be 7329 443e 477d fc3b 9057 46be
00000240: f733 5e3d 2727 edbd e006 1abc 90a3 04bc
00000250: 1efd 0bbe 9b53 343d 6791 aa3d 84c4 30be
00000260: 6cdb d6bd c812 303c 98dc 6cbe 46b7 a53c
00000270: 4c84 89be de34 fb3d 3609 4c3e 6f14 443e
00000280: ade1 49be 5f6e 39be c30c 81be 082e a93d
00000290: 1d82 88be 2148 d7bc f28e 243e 95a5 efbd
000002a0: 4ce8 71bc 3e6f 243e ac70 a7bd fcb2 6fbe
000002b0: f528 013e 7e55 ff3d 5d5a cdbb b6f2 7dbe
000002c0: a306 393d be13 66be e551 11be 7f0e 58bc
000002d0: 64b7 01be 72b4 26ba a525 10bd 1598 63be
000002e0: 71a4 e73d 4358 99bc bae2 873c bd44 0a3d
000002f0: 3837 d1bd fc18 02be a7de adbc 24c0 8dbc
00000300: 2f9b fbbc 352a 9b3d 17de 5dbe c440 15be
00000310: 9293 c23d 8668 64be c8eb 74be 740a 66be
00000320: 4fa4 0abe f070 113d 98e8 2dbe a896 93bd
00000330: a10b 16be 6b61 943d 0176 a9bb d437 53bd
00000340: 03da 903c b921 0bbd ebcd b3bd 4fa7 77bc
00000350: f70d dcbd 66a9 15bd 185c 27bd 14ea 46be
00000360: 8b11 38be 2151 1e3d b887 dcbd 7cd9 55bd
00000370: e1a6 3fbe 9063 e43c b615 a8bd c329 44bd
00000380: 722b 8dbe effa 63bd 55e9 d33b c9ff 36bd
00000390: 4ecf 5bb7 6c3a 9cbd 7167 b8bc d0d2 88be
000003a0: 682c a83d 511f 293d 14ee 59be 3348 c4bd
000003b0: dd73 db3b 9bed d43d 7baf e13c c512 5bbe
000003c0: 7a15 543d e610 bdbd 4d4b bdbd e9ef 243d
000003d0: a35b bfbd 095e e2bd fd3d f2bd d6c7 81be
000003e0: 4ded cfbd 4d03 e6bc 3f9b 583d 9e7a e23d
000003f0: bb89 f9bd 3f45 34be b9c5 a03d ff4e c5bd

first_h.3.bias f4 [64]
0.06282821 -0.08646628 0.17948027 0.0847479 -0.00011616097 0.007592799 -0.004588544 -0.042571314
-0.033479284 -0.11112357 0.030371174 0.042837482 0.017916018 -0.0046245838 -0.06977429 0.04634502
-0.026042776 0.026270377 0.11009761 0.07194611 -0.15904623 0.061035786 0.04839663 0.029083276
-0.090172194 0.043285742 -0.21194667 -0.1819767 -0.017038664 -0.11638048 0.25976655 -0.15434377
0.10924004 0.12997921 -0.1033877 -0.06463247 -0.0025651061 -0.09800159 -0.04291149 -0.077828564
-0.07092195 -0.06739603 -0.028972888 0.0056570307 -0.14308345 -0.12045201 0.08411906 -0.11600355
0.2145514 -0.113319635 -0.010506505 -0.19249903 0.11017989 0.12361261 0.11430283 0.04496666
0.10643072 -0.032389734 0.0103996545 0.042302705 -0.050213538 -0.014821363 0.08510962 -0.061129335
00000000: 14ac 803d 3c15 b1bd adc9 373e 4f90 ad3d
00000010: 729b f3b8 04cd f83b 7f5b 96bb 425f 2ebd
00000020: 9321 09bd c194 e3bd f8cc f83c 5b76 2f3d
00000030: 9dc4 923c d289 97bb d3e5 8ebd 47d4 3d3d
00000040: a957 d5bc f934 d73c db7a e13d 7b58 933d
00000050: 04dd 22be a900 7a3d 8b3b 463d 0d40 ee3c
00000060: 33ac b8bd 644c 313d 8c08 59be 1a58 3abe
00000070: ab94 8bbc e458 eebd 1f00 853e 4b0c 1ebe
00000080: 3eb9 df3d 4519 053e eebc d3bd 075e 84bd
00000090: 571b 28bb 0fb5 c8bd f5c3 2fbd 9564 9fbd
000000a0: 873f 91bd ee06 8abd 8d58 edbc 9d5e b93b
000000b0: 7884 12be 8baf f6bd 9d46 ac3d 4593 edbd
000000c0: 5db3 5b3e 2014 e8bd 7a23 2cbc 771e 45be
000000d0: ffa5 e13d 9c28 fd3d 9a17 ea3d f62e 383d
000000e0: 59f8 d93d 19ab 04bd 5063 2a3c 9a45 2d3d
000000f0: b6ac 4dbd 4dd5 72bc f44d ae3d c162 7abd

first_h.4.weight f4 [64]
0.78412735 0.7855289 0.69241303 0.7517388 0.7634418 0.8023845 0.5119338 0.6100658
0.6530085 0.91484314 0.72514606 0.9286815 0.7308019 0.8799883 0.9159501 0.6391642
0.4296776 0.64508295 0.9471491 0.8665919 0.32128018 0.6557302 0.7823221 0.8338035
0.6118543 0.8157739 0.6289873 0.6989471 0.61374754 0.58525306 0.8092242 0.8329694
0.5273084 0.86585253 0.8799164 0.88105416 0.67693794 0.9525042 0.6494531 0.67529696
0.5733475 0.8294889 0.7263883 0.7520538 0.77839005 0.79890233 0.56309015 0.49377984
0.7477621 0.7227106 0.7006743 0.642532 0.5699535 0.6029716 0.6053196 0.815953
0.68037945 0.6851734 0.5733617 0.6276696 0.7993767 0.77244467 0.9243905 0.8301177
00000000: 92bc 483f 6c18 493f fb41 313f f471 403f
00000010: ec70 433f 1269 4d3f 180e 033f 462d 1c3f
00000020: 912b 273f 2933 6a3f 2ca3 393f 12be 6d3f
00000030: d515 3b3f ea46 613f b57b 6a3f 44a0 233f
00000040: b4fe db3e 2824 253f 5d78 723f f7d8 5d3f
00000050: d67e a43e efdd 273f 4346 483f 2574 553f
00000060: 7ca2 1c3f 8fd6 503f 5005 213f 32ee 323f
00000070: 8f1e 1d3f 25d3 153f 5129 4f3f 7c3d 553f
00000080: affd 063f 83a8 5d3f 3442 613f c48c 613f
00000090: ce4b 2d3f 51d7 733f 8f42 263f 43e0 2c3f
000000a0: e7c6 123f 6259 543f 95f4 393f 9986 403f
000000b0: 9244 473f dd84 4c3f ad26 103f b6d0 fc3e
000000c0: 566d 3f3f 9003 393f 645f 333f fa7c 243f
000000d0: 79e8 113f 595c 1a3f 3af6 1a3f 4ce2 503f
000000e0: 592d 2e3f 8667 2f3f d5c7 123f f4ae 203f
000000f0: f4a3 4c3f efbe 453f dba4 6c3f 9882 543f

first_h.4.bias f4 [64]
-0.19702868 -0.6275842 -0.23483731 -0.22547685 -0.54804957 -0.60940224 -0.36691353 -0.28385755
-0.3087514 -0.49505615 -0.2249358 -0.34866548 -0.2942924 -0.7971502 -0.9669799 -0.21751392
-0.37233913 -0.22695443 -0.50897557 -0.21517248 -0.22767223 -0.7715716 -0.5553215 -0.75880307
-0.30362695 -0.38393992 -0.341904 -0.30889067 -0.22228377 -0.3094434 -0.37808093 -0.92746365
-0.30345252 -0.38342905 -0.4865586 -0.29035246 -0.37264532 -0.9895679 -0.92748815 -0.25435892
-0.3929731 -0.33339888 -0.20144169 -0.20451187 -0.6398999 -0.31229922 -0.43816695 -0.18210721
-0.24972127 -0.8055235 -0.25597543 -0.2203036 -0.27702838 -0.39710322 -0.58780736 -0.22723775
-0.26529244 -0.26595333 -0.71680856 -0.6965057 -0.19377404 -0.22897896 -0.3873026 -1.0227913
00000000: e3c1 49be 5ca9 20bf 3179 70be 67e3 66be
00000010: fa4c 0cbf c901 1cbf 17dc bbbe c755 91be
00000020: aa14 9ebe 0078 fdbe 9255 66be 4884 b2be
00000030: 7ead 96be 0912 4cbf ff8b 77bf f8bb 5ebe
00000040: 3ca3 bebe be66 68be 394c 02bf 2d56 5cbe
00000050: e922 69be b785 45bf 8d29 0ebf eb40 42bf
00000060: fe74 9bbe c693 c4be 0b0e afbe eb26 9ebe
00000070: 5b9e 63be 5e6f 9ebe d393 c1be 426e 6dbf
00000080: 215e 9bbe d050 c4be 351e f9be 14a9 94be
00000090: 5ecb bebe 5254 7dbf dd6f 6dbf 553b 82be
000000a0: c533 c9be 42b3 aabe bb46 4ebe 8f6b 51be
000000b0: 7bd0 23bf afe5 9fbe 6b57 e0be 507a 3abe
000000c0: efb6 7fbe ca36 4ebf 360f 83be 4497 61be
000000d0: aad6 8dbe 1d51 cbbe 8b7a 16bf 03b1 68be
000000e0: 69d4 87be 092b 88be c480 37bf 334e 32bf
000000f0: b46c 46be 7679 6abe 874c c6be d3ea 82bf

first_h.4.running_mean f4 [64]
-1.2405233 1.3212028 -0.09203701 -0.3220459 0.8716186 1.9970403 -1.0319924 -0.7645681
-0.19593243 0.06724264 -0.9487067 -0.25896806 -0.36053675 4.541533 3.2610085 -0.68033624
0.68435645 -0.22966498 1.53655 -0.6807374 1.1252289 1.688035 2.2614825 2.1073842
-0.62693423 0.7025282 -0.59759396 0.058021653 -0.43920472 -0.19172455 -0.20682126 2.6991916
-0.44185063 0.58771276 0.1505196 -0.36910892 2.0698214 3.9311345 1.8605777 -0.041362893
-0.49323925 0.2648181 -0.49726883 -0.23632897 2.4872859 -0.04220014 1.7809988 1.5625108
-0.084272936 1.5957764 -0.21165252 -0.96807486 -0.60589707 -1.0460941 1.0298055 0.34369692
-0.14397222 -0.544582 1.0314384 0.76812375 1.3252721 0.3129724 -0.5621974 2.4013531
00000000: 78c9 9ebf 2c1d a93f e67d bcbd 33e3 a4be
00000010: 6622 5f3f 049f ff3f 5418 84bf bcba 43bf
00000020: 83a2 48be 82b6 893d 71de 72bf 7697 84be
00000030: 4698 b8be 3d54 9140 5db4 5040 842a 2ebf
00000040: fc31 2f3f 4c2d 6bbe acad c43f ce44 2ebf
00000050: 8007 903f 8811 d83f 21bc 1040 62df 0640
00000060: c37e 20bf e3d8 333f ebfb 18bf 1da8 6d3d
00000070: 71df e0be 7153 44be f4c8 53be 8ebf 2c40
00000080: 3f3a e2be 5874 163f cf21 1a3e d8fb bcbe
00000090: f477 0440 b597 7b40 6927 ee3f 236c 29bd
000000a0: db89 fcbe 3d96 873e 059a febe 3900 72be
000000b0: b12f 1f40 0eda 2cbd c5f7 e33f 5b00 c83f
000000c0: 4a97 acbd 6742 cc3f 70bb 58be c1d3 77bf
000000d0: 121c 1bbf 69e6 85bf abd0 833f 0bf9 af3e
000000e0: 746d 13be ba69 0bbf 2c06 843f c2a3 443f
000000f0: 84a2 a93f eb3d a03e 2bec 0fbf c5af 1940

first_h.4.running_var f4 [64]
4.253599 0.1465733 15.217454 13.13098 5.0879602 8.579839 59.042633 6.7742205
10.167277 30.016449 22.312675 6.7264085 16.257845 16.601719 1.2877473 22.289936
0.6158193 31.497145 8.460334 8.379157 12.367149 9.009078 1.500318 1.1837518
2.290723 7.7484555 24.541954 2.7948668 7.221385 26.791786 15.576181 9.778624
3.8057039 10.371665 5.05028 13.620671 1.6023443 35.734314 3.8191836 13.43717
75.09616 1.811429 2.7691686 4.684121 0.7353506 6.6886296 1.9873078 20.682838
6.35392 8.493372 1.3693076 12.109039 8.864136 78.23401 0.6419599 10.899123
6.903249 4.5736904 0.7745393 0.803388 2.2732258 1.640924 12.887118 7.5179477
00000000: 7c1d 8840 5017 163e b17a 7341 7e18 5241
00000010: 92d0 a240 0547 0941 a82b 6c42 6ac6 d840
00000020: 2bad 2241 b021 f041 5c80 b241 bd3e d740
00000030: 1110 8241 52d0 8441 e7d4 a43f ca51 b241
00000040: 55a6 1d3f 27fa fb41 875d 0741 0711 0641
00000050: d8df 4541 2f25 1041 6c0a c03f 2e85 973f
00000060: 359b 1240 59f3 f740 ec55 c441 19df 3240
00000070: 9615 e740 9455 d641 0a38 7941 3e75 1c41
00000080: a790 7340 57f2 2541 e59b a140 45ee 5941
00000090: 9e19 cd3f f0ef 0e42 816d 7440 a6fe 5641
000000a0: 3c31 9642 e8dc e73f 0f3a 3140 52e4 9540
000000b0: f03f 3c3f 4109 d640 1a60 fe3f 7476 a541
000000c0: 5053 cb40 dae4 0741 7945 af3f a0be 4141
000000d0: 80d3 0d41 d077 9c42 7c57 243f cf62 2e41
000000e0: 6ae7 dc40 ac5b 9240 3548 463f d6aa 4d3f
000000f0: 887c 1140 cc09 d23f a331 4e41 0793 f040

nns.0.0.weight f4 [64, 64]
-0.09200213 -0.049224608 -0.036960166 -0.09251596 -0.109680995 -0.15123671 0.09054505 -0.11483149
-0.07021242 -0.018161817 0.07217288 -0.12624128 -0.11012469 -0.043700814 -0.12112955 -0.012914073
0.113223836 0.03621521 -0.055117093 -0.23425 0.079499006 0.0072983876 0.08382687 -0.0313294
-0.047144093 0.0052210484 0.09157236 0.05240034 0.0496457 -0.1369483 -0.10245888 0.14503455
-0.16516574 -0.14816222 -0.16123551 -0.09052504 0.14813855 0.053227633 -0.056055237 0.09652207
-0.13104722 0.087640695 0.10866214 -0.012159212 0.101041734 0.043411836 -0.030517424 0.15957266
0.010267702 0.027871659 -0.032954156 -0.02024043 -0.094085395 -0.114404626 0.090997666 -0.084842145
-0.07771284 -0.06555589 0.03928093 -0.038751647 0.087428704 -0.1176807 -0.09575209 0.052538782
-0.04441158 0.1629688 -0.008459181 -0.06883031 0.031258598 -0.009881343 -0.10603915 0.109923325
0.10779085 0.17415315 0.0016279863 -0.03722106 -0.10998189 0.045835204 0.15514684 0.012839292
0.24953888 -0.035393454 0.14197953 -0.18657182 0.18961252 0.09042663 -0.008938812 -0.011708481
-0.059812192 -0.072771125 0.08992927 -0.10091701 0.077676065 0.08761996 -0.09544861 0.1103408
0.10077518 0.069838084 0.023043076 -0.10390922 -0.06710995 0.09880072 0.029433819 0.03159168
0.085374616 0.17211026 -0.07735493 -0.10932322 0.026443653 -0.076399975 -0.0040541654 0.12999743
-0.030181332 0.17943884 0.0055843564 0.09134568 0.055037636 -0.060916167 0.14162292 -0.02792821
-0.00491685 0.053823553 0.20220412 -0.0050573414 0.15249437 0.13551755 0.03613988 -0.00041002687
0.08684881 0.17948687 -0.11276072 -0.10811025 -0.011676695 0.2243564 -0.14156568 0.08814118
0.03936165 -0.030595304 0.0006151197 0.06338936 -0.080332145 0.21671453 0.022945737 0.09861783
0.1097186 -0.030997967 0.08360174 0.16863927 -0.08322894 0.20515388 0.033088204 -0.0122531345
0.024732193 -0.17739281 -0.043794967 -0.13926384 0.12817656 -0.10440566 -0.02725724 0.03796043
0.07485257 0.08083645 0.10402968 0.023462873 0.008400451 0.2274198 0.046908624 -0.08183845
-0.005736873 -0.13465835 0.06748647 0.1880367 0.036600173 0.1170886 0.047203258 -0.05748374
-0.018294824 0.20683485 0.14216301 0.17365919 0.28232548 -0.15567224 -0.08021382 -0.054349814
-0.108207226 6.437422e-05 0.06746075 0.096469864 0.11972837 -0.28164452 0.113772936 0.075710185
-0.13320999 0.109424144 -0.08347521 0.027616527 -0.0020085436 -0.0005887972 0.0022169242 -0.046348296
0.08320302 -0.007303914 -0.11188587 0.11908084 -0.16252498 0.14292598 0.09977931 -0.04601091
0.053279337 0.0750801 0.004825143 -0.14846689 0.1479645 0.04282222 0.004080084 0.0038755084
0.06986798 -0.09702633 -0.0039834827 -0.13462144 -0.049309116 -0.12965801 -0.13415667 0.19610481
-0.050545327 0.07828179 0.114525214 -0.09361038 0.06349258 0.08022889 0.20530209 -0.055365022
-0.16297619 -0.10473762 -0.040026415 -0.26553646 0.03502711 0.15874265 -0.04288544 0.032843623
-0.11712183 0.10849275 -0.06422431 0.06859301 -0.12015523 -0.025505358 0.16902095 -0.15566054
0.036559194 -0.09219273 0.060144402 -0.029136041 0.237251 -0.101879254 0.023764955 0.18483035
00000000: 9d6b bcbd be9f 49bd 8b63 17bd 0279 bdbd
00000010: 6ea0 e0bd ccdd 1abe af6f b93d c62c ebbd
00000020: 87cb 8fbd 17c8 94bc 60cf 933d 6545 01be
00000030: 0e89 e1bd a0ff 32bd c512 f8bd 8c95 53bc
00000040: e6e1 e73d 6656 143d 76c2 61bd 3bdf 6fbe
00000050: 60d0 a23d 5027 ef3b 6cad ab3d 4253 00bd
00000060: 2a1a 41bd 5415 ab3b 4a8a bb3d bda1 563d
00000070: 4a59 4b3d 2d3c 0cbe f6d5 d1bd f083 143e
00000080: 3521 29be d6b7 17be ec1a 25be 3165 b9bd
00000090: a2b1 173e 3805 5a3d 2d9a 65bd 5dad c53d
000000a0: 3e31 06be f77c b33d 428a de3d 6e37 47bc
000000b0: f8ee ce3d 9cd0 313d adff f9bc 0467 233e
000000c0: dd39 283c 1b53 e43c f0fa 06bd 42cf a5bc
000000d0: d8af c0bd f94c eabd fc5c ba3d b8c1 adbd
000000e0: e927 9fbd 2b42 86bd 0ae5 203d 0cba 1ebd
000000f0: d20d b33d 9402 f1bd ac19 c4bd e832 573d
00000100: ebe8 35bd 4be1 263e 6098 0abc e8f6 8cbd
00000110: 0409 003d 5be5 21bc 0e2b d9bd 7b1f e13d
00000120: 73c1 dc3d 3455 323e 2862 d53a 1c75 18bd
00000130: 2f3e e1bd b2bd 3b3d d0de 1e3e e55b 523c
00000140: 1f87 7f3e baf8 10bd 1563 113e af0c 3fbe
00000150: c929 423e 9931 b93d 1874 12bc eed4 3fbc
00000160: a1fd 74bd 0709 95bd d62c b83d 94ad cebd
00000170: a114 9f3d 1872 b33d 907a c3bd 5bfa e13d
00000180: 3863 ce3d 4507 8f3d d5c4 bc3c 5bce d4bd
00000190: f170 89bd 0858 ca3d 311f f13c 4766 013d
000001a0: e3d8 ae3d ac3d 303e 436c 9ebd dae4 dfbd
000001b0: 5ca0 d83c 9777 9cbd ced8 84bb 0c1e 053e
000001c0: d73e f7bc d1be 373e fafc b63b 7213 bb3d
000001d0: 256f 613d 3b83 79bd 9905 113e b4c9 e4bc
000001e0: 871d a1bb 1676 5c3d 990e 4f3e 0eb8 a5bb
000001f0: 7c27 1c3e 1dc5 0a3e 6907 143d e0f8 d6b9
00000200: cadd b13d 68cb 373e 18ef e6bd e868 ddbd
00000210: 9c4f 3fbc afbd 653e 98f6 10be 5d83 b43d
00000220: ae39 213d 01a3 fabc fc3f 213a 48d2 813d
00000230: 2e85 a4bd 6aea 5d3e b3f8 bb3c 25f8 c93d
00000240: 25b4 e03d 73ef fdbc 6437 ab3d c6af 2c3e
00000250: ef73 aabd dc13 523e 7f87 073d 5fc1 48bc
00000260: 2b9b ca3c 76a6 35be 5a62 33bd 2e9b 0ebe
00000270: b740 033e a2d2 d5bd 934a dfbc 657c 1b3d
00000280: 4e4c 993d 958d a53d 830d d53d 3635 c03c
00000290: 0ca2 093c bce0 683e 4223 403d eb9a a7bd
000002a0: 61fc bbbb e1e3 09be 5936 8a3d b18c 403e
000002b0: 10ea 153d 26cc ef3d 3458 413d 1274 6bbd
000002c0: 07df 95bc 84cc 533e 2e93 113e b7d3 313e
000002d0: f78c 903e 8b68 1fbe 2547 a4bd e99d 5ebd
000002e0: c09b ddbd a500 8738 dd28 8a3d fe91 c53d
000002f0: 2634 f53d b633 90be c901 e93d f10d 9b3d
00000300: 3368 08be c419 e03d 0df5 aabd 0e3c e23c
00000310: c5a1 03bb 8359 1aba d149 113b b6d7 3dbd
00000320: 5866 aa3d ac55 efbb 6b24 e5bd a8e0 f33d
00000330: f36c 26be 305b 123e 1859 cc3d f075 3cbd
00000340: 6f3b 5a3d 98c3 993d 3c1c 9e3b b407 18be
00000350: 0284 173e 5a66 2f3d 3ab2 853b 3efc 7d3b
00000360: f216 8f3d beb5 c6bd e087 82bb 34da 09be
00000370: 5bf8 49bd 12c5 04be 5e60 09be b3cf 483e
00000380: 9e08 4fbd 3452 a03d 328c ea3d cdb6 bfbd
00000390: 6608 823d 0b4f a43d b63a 523e 6fc6 62bd
000003a0: 3be3 26be ad80 d6bd bdf2 23bd 65f4 87be
000003b0: 9678 0f3d 6f8d 223e a5a8 2fbd 0987 063d
000003c0: 92dd efbd 7231 de3d 0988 83bd 7e7a 8c3d
000003d0: f213 f6bd 9df0 d0bc d413 2d3e 7a65 1fbe
000003e0: 18bf 153d 8bcf bcbd fa59 763d b5ae eebc
000003f0: edf1 723e 12a6 d0bd b9ae c23c 2b44 3d3e

nns.0.0.bias f4 [64]
-0.05800064 -0.0060157855 -0.05644651 -0.16586551 0.051459145 -0.02415132 -0.04869944 0.06026907
-0.11092247 -0.12151242 -0.06294242 -0.0910823 -0.06459948 -0.13337211 0.07542963 -0.09684875
-0.05036238 -0.030771038 -0.1016603 0.018187795 0.10758649 -0.05770032 0.0318578 -0.060930297
0.07064427 0.09325538 -0.05817573 -0.025577644 0.074354924 -0.13907441 0.039320923 -0.096485354
0.15340127 0.09622165 0.08645312 0.08595442 -0.014045172 -0.0038461422 -0.024889516 0.14314519
-0.019769616 0.0628625 -0.059101496 0.03494758 0.10949652 0.092691526 0.025094898 0.025754314
-0.02298176 0.0033171638 -0.071995854 0.10878186 -0.11693655 -0.021942293 0.061784327 -0.0013132782
-0.054993924 0.14737916 0.13048586 0.06577482 -0.06811437 0.12681022 0.09976234 -0.110891685
00000000: 1492 6dbd 1120 c5bb 7534 67bd a6d8 29be
00000010: d3c6 523d fdd8 c5bc 1079 47bd b3dc 763d
00000020: 522b e3bd 81db f8bd f5e7 80bd 5b89 babd
00000030: bb4c 84bd b392 08be da7a 9a3d a358 c6bd
00000040: c848 4ebd 8b13 fcbc 4633 d0bd 92fe 943c
00000050: 4e56 dc3d 2c57 6cbd 537d 023d 0c92 79bd
00000060: f1ad 903d adfc be3d ad49 6ebd 3588 d1bc
00000070: 6547 983d 8669 0ebe fa0e 213d 1d9a c5bd
00000080: 3915 1d3e db0f c53d 550e b13d df08 b03d
00000090: b91d 66bc 8f0f 7cbb 19e5 cbbc a794 123e
000000a0: e4f3 a1bc 0ebe 803d 6914 72bd 3225 0f3d
000000b0: b63f e03d 0ed5 bd3d d193 cd3c b6fa d23c
000000c0: 3e44 bcbc c664 593b 9072 93bd 06c9 de3d
000000d0: 6e7c efbd 53c0 b3bc 9011 7d3d 4e22 acba
000000e0: 4f41 61bd 90ea 163e 169e 053e f3b4 863d
000000f0: 8c7f 8bbd 8ada 013e 3350 cc3d 2e1b e3bd

nns.0.1.weight f4 [64]
1.1967947 1.2190417 0.78308386 1.0862976 0.7961145 0.8933312 1.0082476 0.80726486
0.69958013 0.8740273 0.9041833 0.72278875 1.0215681 1.0283794 0.9834553 1.021421
1.105752 0.7098019 1.2586474 0.9246929 1.1699818 1.0313728 0.850261 0.9688236
0.9102007 1.0682123 0.7008483 1.0624727 0.9391702 1.027726 0.8523303 0.93266696
1.2097577 1.0914041 0.90745074 0.96790284 0.6588215 0.95441186 1.0302042 1.2021642
0.6046646 1.184784 0.82323045 0.9158266 1.0353594 1.1698446 0.96529883 0.82009405
0.6609715 0.5548914 0.78431565 0.8155908 0.9294269 0.9342764 0.91850024 1.1488707
0.89588916 0.77592653 0.86716336 1.2217898 1.2394652 0.9421849 1.0487437 1.0311465
00000000: 9230 993f 8f09 9c3f 2f78 483f cd0b 8b3f
00000010: 29ce 4b3f 5bb1 643f 420e 813f e9a8 4e3f
00000020: af17 333f 41c0 5f3f 8f78 673f af08 393f
00000030: bec2 823f f0a1 833f bac3 7b3f ecbd 823f
00000040: 4889 8d3f 94b5 353f 5c1b a13f adb8 6c3f
00000050: f7c1 953f 0604 843f b4aa 593f d304 783f
00000060: ea02 693f 2ebb 883f cb6a 333f 1bff 873f
00000070: 756d 703f 878c 833f 5232 5a3f 43c3 6e3f
00000080: 57d9 9a3f 21b3 8b3f b14e 683f 7bc8 773f
00000090: 87a8 283f 5654 743f bbdd 833f 84e0 993f
000000a0: 4dcb 1a3f 01a7 973f 3bbf 523f 9d73 6a3f
000000b0: a886 843f 78bd 953f d31d 773f aff1 513f
000000c0: 6e35 293f 5d0d 0e3f e9c8 483f 8fca 503f
000000d0: ecee 6d3f bd2c 6f3f d522 6b3f 320e 933f
000000e0: fe58 653f 1fa3 463f 6bfe 5d3f 9c63 9c3f
000000f0: cca6 9e3f 0833 713f 3c3d 863f 9cfc 833f

nns.0.1.bias f4 [64]
-0.022216974 -0.1705318 -0.46640033 -0.27594978 -0.2113607 0.15145887 -0.06924162 -0.1614568
-0.040366244 -0.6682088 -0.56409645 0.24069619 0.4315114 -0.23661727 -0.013543566 -0.6106208
0.08150438 0.07311405 0.036060557 -0.108051606 -0.67633367 -0.5855669 -0.15130931 -0.07557307
-0.11224539 -0.38539523 -0.30169788 0.18936169 -0.09948281 -0.90188456 -0.29375347 0.24571238
-0.2615224 0.41910422 0.24453717 0.30941346 -0.35391894 -0.7855249 -0.5035143 -0.46342677
-0.34995753 -0.20301078 -0.17340948 -0.48528972 -0.34086385 0.266737 -0.02775904 -0.14144526
-0.32704645 -0.38006398 -0.35269466 -0.05872678 0.24646467 -0.5889766 0.5919104 -0.12933138
0.4322892 0.55042124 -0.1502484 -0.2694068 0.17442973 -0.21160263 0.27158028 0.29396272
00000000: 5f00 b6bc e39f 2ebe 06cc eebe 4a49 8dbe
00000010: f06e 58be 0918 1b3e 8dce 8dbd ee54 25be
00000020: 1357 25bd bb0f 2bbf a068 10bf 1079 763e
00000030: 10ef dc3e cc4b 72be d5e5 5dbc a551 1cbf
00000040: c5eb a63d d2bc 953d 3cb4 133d 294a ddbd
00000050: 3424 2dbf b6e7 15bf d4f0 1abe 0ec6 9abd
00000060: e9e0 e5bd 8652 c5be 2578 9abe 08e8 413e
00000070: a5bd cbbd e8e1 66bf db66 96be 079c 7b3e
00000080: 44e6 85be d494 d63e f467 7a3e 716b 9e3e
00000090: dd34 b5be 2918 49bf 50e6 00bf 4646 edbe
000000a0: a22d b3be 0fe2 4fbe 4192 31be e577 f8be
000000b0: b585 aebe c191 883e ed66 e3bc 07d7 10be
000000c0: a272 a7be bf97 c2be 6594 b4be 7e8b 70bd
000000d0: 3c61 7c3e 2cc7 16bf 7187 173f 726f 04be
000000e0: 0355 dd3e 68e8 0c3f b7da 19be b0ef 89be
000000f0: b59d 323e 5cae 58be 920c 8b3e 4882 963e

nns.0.1.running_mean f4 [64]
0.13553114 0.3099428 0.27702022 0.22512181 -1.0641893 -0.8025613 -0.25153655 -0.2050749
-1.2995266 0.29875928 0.46073818 -0.9586326 -0.526887 0.4548014 -0.28670585 0.25072393
0.51513153 -1.4307855 -0.54810333 0.3341261 0.60877335 0.30455858 0.171135 -0.3455924
-0.2386307 0.58014834 -0.6039147 -0.29669505 -0.11665847 0.41723526 0.43584025 -0.79536736
0.35482597 -0.32921743 -0.35397455 -0.24212404 -1.0476898 0.15266915 0.5554418 0.47100633
-0.23702209 -0.46074903 -0.48961914 -0.2654811 0.7978466 1.1665198 -0.19694877 -0.4499091
-0.7377122 -1.4136428 -0.37868476 1.3009126 -0.44262272 -0.2848504 -0.6295258 1.0349348
-0.38875213 -0.85776377 -0.18443102 0.5641141 1.2222911 -0.23918764 -0.103986986 -0.43735448
00000000: adc8 0a3e d3b0 9e3e 98d5 8d3e 5586 663e
00000010: 5b37 88bf a874 4dbf 66c9 80be 28ff 51be
00000020: e356 a6bf faf6 983e e0e5 eb3e f268 75bf
00000030: 11e2 06bf bbdb e83e 1ccb 92be e35e 803e
00000040: a9df 033f fb23 b7bf 8050 0cbf 9412 ab3e
00000050: 92d8 1b3f 1aef 9b3e 033e 2f3e 7df1 b0be
00000060: 9b5b 74be 9a84 143f 279a 1abf 6ae8 97be
00000070: a3ea eebd dc9f d53e 7426 df3e 329d 4bbf
00000080: c0ab b53e 308f a8be 273c b5be 5def 77be
00000090: b31a 86bf 4d55 1c3e 6f31 0e3f be27 f13e
000000a0: ebb5 72be 4ce7 ebbe 5caf fabe 24ed 87be
000000b0: ad3f 4c3f 8550 953f f0ac 49be 7c5a e6be
000000c0: b5da 3cbf 3ff2 b4bf f8e2 c1be 4e84 a63f
000000d0: 729f e2be e9d7 91be 9a28 21bf be78 843f
000000e0: 850a c7be 6896 5bbf 7cdb 3cbe c869 103f
000000f0: 0974 9c3f 9bed 74be 21f7 d4bd edec dfbe

nns.0.1.running_var f4 [64]
11.327708 30.045076 34.237225 47.787903 391.3283 184.21577 13.705595 19.8963
444.92587 57.288784 85.37855 236.09299 67.861694 110.27194 40.760536 38.172386
93.85896 628.66486 59.13403 30.612623 84.06821 44.67743 6.716554 25.15219
28.231272 76.2044 87.26548 22.725689 11.587055 99.191574 46.51211 152.02652
14.180052 57.76667 59.270042 33.197273 334.06766 9.241762 104.796875 38.400085
14.513673 85.65186 57.75427 25.619152 153.45497 348.698 14.6687975 72.87561
158.79425 621.132 29.93463 452.39832 33.228127 19.968365 156.70305 325.35287
36.166073 315.77505 30.723286 77.5831 503.82242 39.641533 12.442026 31.85651
00000000: 4b3e 3541 515c f041 ebf2 0842 d026 3f42
00000010: 06aa c343 3d37 3843 1e4a 5b41 9f2b 9f41
00000020: 8376 de43 b727 6542 d1c1 aa42 ce17 6c43
00000030: 30b9 8742 3c8b dc42 ca0a 2342 86b0 1842
00000040: cab7 bb42 8d2a 1d44 3f89 6c42 a7e6 f441
00000050: ec22 a842 b0b5 3242 03ee d640 af37 c941
00000060: a5d9 e141 a768 9842 ed87 ae42 36ce b541
00000070: 9464 3941 1662 c642 670c 3a42 ca06 1843
00000080: 7ee1 6241 1211 6742 8614 6d42 02ca 0442
00000090: a908 a743 42de 1341 0098 d142 b099 1942
000000a0: 0138 6841 c14d ab42 5f04 6742 06f4 cc41
000000b0: 7974 1943 5859 ae43 65b3 6a41 50c0 9142
000000c0: 54cb 1e43 7348 1b44 1f7a ef41 fc32 e243
000000d0: 9ae9 0442 36bf 9f41 fbb3 1c43 2bad a243
000000e0: 0faa 1042 35e3 9d43 4ac9 f541 8c2a 9b42
000000f0: 45e9 fb43 ee90 1e42 8a12 4741 22da fe41

nns.0.3.weight f4 [64, 64]
-0.13931973 -0.04990952 0.06323848 0.15076764 -0.07375216 -0.04924329 -0.013874902 -0.25205263
0.15748982 -0.012255047 0.15290919 -0.0010873374 0.123680696 -0.04978189 0.13612096 0.03867052
-0.246262 -0.2636071 -0.23049463 0.07026871 0.021677919 -0.052180752 -0.09675289 -0.07194663
-0.09993964 -0.04851262 0.025748782 0.07161696 0.088253744 0.016984625 0.047999304 0.20307943
0.005771145 0.093851574 0.075760305 0.07716032 -0.118475996 0.039031696 0.14122279 0.11927371
0.14317194 -0.07644128 -0.036740314 0.16840413 -0.034008775 -0.2822014 -0.17608985 -0.117247514
-0.16432631 -0.008717108 0.13587509 -0.301842 -0.07034273 0.13860743 0.03088769 -0.04661158
0.14338732 0.13186023 0.04057581 -0.050521914 -0.41162598 -0.14540657 0.083810925 -0.09084175
-0.32003605 0.051242877 0.06753103 -0.022822028 0.24680203 0.23465694 0.008296419 0.116205916
0.19363813 0.22176921 -0.06823769 0.17336184 -0.045951456 -0.13314341 -0.029499143 -0.01626658
-0.42247954 0.1628049 0.081182264 -0.09304411 0.22900763 0.05900775 0.029060397 0.16156566
0.015068492 0.1555546 0.03381301 0.14607082 0.1595859 -0.044224318 -0.06457957 0.13902254
-0.08546239 0.18903445 -0.07022529 -0.007086951 -0.07199223 0.0036066184 0.056327116 0.016456796
0.04035301 0.09693811 -0.046430364 0.25319603 0.013848585 -0.3908499 0.03097435 -0.07106332
-0.10566386 0.043550603 -0.010056832 -0.25424868 0.07923333 0.120393746 0.37651122 -0.10749542
0.21313038 0.18628499 -0.1694314 -0.050104648 -0.5972252 -0.13171685 0.103714116 -0.09691573
-0.16883887 0.17077157 0.24396028 0.1573298 -0.009875642 0.13224429 0.061404023 0.115805276
-0.01428306 0.1541705 0.21703468 -0.13059609 0.07580806 0.10595376 -0.16505636 0.26141983
-0.083716966 -0.1773893 -0.027172036 -0.0050344206 0.028107047 0.28121376 0.14265548 0.0076360055
-0.14930445 0.14371358 -0.09829755 0.12633012 -0.13624711 0.035753313 -0.075281225 0.050969113
0.2256326 0.03869049 0.06947083 -0.05257801 -0.11777747 0.050220456 0.22082615 0.009318706
0.0042476775 0.15937503 0.048728123 0.1297056 -0.017595232 -0.07166915 0.09116951 -0.1418509
-0.10307504 0.1295252 -0.02860955 0.23339634 0.027772337 -0.02029371 0.0958748 0.08413198
0.058433887 0.11899417 0.046986748 0.18336795 -0.056428183 -0.13670252 0.14716685 0.10007798
0.46278656 0.004054889 0.013833897 0.01609458 0.17627732 -0.009105598 0.08560673 0.19146377
-0.059795804 0.123869404 0.22219937 0.046958033 0.2289145 0.13636214 0.4518032 0.04439923
-0.083124086 0.21106382 0.15660825 -0.024036396 0.10879368 0.04503527 0.08412024 0.17305224
-0.03198072 0.17992291 0.057018455 0.042149708 0.026169041 0.14549334 -0.041037194 0.58271456
0.119683094 0.16871685 0.01697382 0.0036013336 -0.10191603 -0.01352279 0.094012454 0.23507528
0.11268164 0.27369928 -0.07514253 0.1639643 0.13540174 -0.16797963 0.19989881 0.27900866
0.035319533 0.13210623 0.017898452 -0.09229265 0.30811194 0.088100314 0.3742034 -0.127865
-0.04346396 0.7611185 -0.12080821 -0.025698677 -0.18700069 0.35784963 0.14262947 0.14705667
00000000: d5a9 0ebe ed6d 4cbd 2d83 813d d562 1a3e
00000010: 5f0b 97bd 55b3 49bd 8f53 63bc 0b0d 81be
00000020: 0345 213e 65c9 48bc 3a94 1c3e fd84 8eba
00000030: 4e4c fd3d 18e8 4bbd 4b63 0b3e fb64 1e3d
00000040: 1b2c 7cbe 83f7 86be c906 6cbe 0be9 8f3d
00000050: e495 b13c 7cbb 55bd 6126 c6bd c158 93bd
00000060: 27ad ccbd 2bb5 46bd 1cef d23c eaab 923d
00000070: 61be b43d 5723 8b3c eb9a 443d 0ef4 4f3e
00000080: e01b bd3b 4135 c03d 3828 9b3d 3b06 9e3d
00000090: 8ba3 f2bd b3df 1f3d b59c 103e c645 f43d
000000a0: aa9b 123e 3f8d 9cbd 037d 16bd 2272 2c3e
000000b0: c94c 0bbd b47c 90be e650 34be 771f f0bd
000000c0: 2845 28be 33d2 0ebc d722 0b3e 098b 9abe
000000d0: d90f 90bd 1bef 0d3e 2e08 fd3c c9eb 3ebd
000000e0: 20d4 123e 5e06 073e d232 263d 11f0 4ebd
000000f0: a4c0 d2be 76e5 14be 10a5 ab3d 3d0b babd
00000100: c4db a3be 0de4 513d b54d 8a3d 43f5 babc
00000110: acb9 7c3e e949 703e b4ed 073c 5efd ed3d
00000120: 1349 463e 7817 633e 34c0 8bbd c485 313e
00000130: 9837 3cbd bf56 08be 30a8 f1bc 7e41 85bc
00000140: 3d4f d8be 54b6 263e e342 a63d e98d bebd
00000150: fa80 6a3e 1cb2 713d 1210 ee3c 7871 253e
00000160: d6e1 763c b449 1f3e 837f 0a3d 9793 153e
00000170: 7c6a 233e 8f24 35bd 4b42 84bd ed5b 0e3e
00000180: e806 afbd 3f92 413e 47d2 8fbd a739 e8bb
00000190: aa70 93bd 045d 6c3b 43b7 663d 67d0 863c
000001a0: 3349 253d 7d87 c63d c42d 3ebd e9a2 813e
000001b0: 2de5 623c 7a1d c8be ecbd fd3c a589 91bd
000001c0: 4b66 d8bd 1e62 323d 69c5 24bc e22c 82be
000001d0: 1645 a23d ff90 f63d 14c6 c03e 8f26 dcbd
000001e0: da3e 5a3e 7ec1 3e3e 6d7f 2dbe 883a 4dbd
000001f0: c0e3 18bf c8e0 06be 1168 d43d c17b c6bd
00000200: 19e4 2cbe bede 2e3e b9d0 793e 101b 213e
00000210: 72cd 21bc 0c6b 073e c982 7b3d 512b ed3d
00000220: 7f03 6abc dfde 1d3e 573e 5e3e fbba 05be
00000230: 4241 9b3d 49fe d83d 8904 29be d2d8 853e
00000240: cd73 abbd 8aa5 35be e497 debc c8f7 a4bb
00000250: c040 e63c 40fb 8f3e 4714 123e 7537 fa3b
00000260: 44e3 18be a729 133e 3a50 c9bd af5c 013e
00000270: 5d84 0bbe 1172 123d 0b2d 9abd fdc4 503d
00000280: 3b0c 673e eb79 1e3d b946 8e3d 0a5c 57bd
00000290: 5035 f1bd f7b3 4d3d 4020 623e 7cad 183c
000002a0: 1a30 8b3b 3533 233e 2497 473d 8bd1 043e
000002b0: e023 90bc 46c7 92bd 14b7 ba3d 5d41 11be
000002c0: 0219 d3bd 41a2 043e 935e eabc 73ff 6e3e
000002d0: d082 e33c ff3e a6bc 025a c43d 634d ac3d
000002e0: 5f58 6f3d 37b3 f33d 2d75 403d cfc4 3b3e
000002f0: 3d21 67bd bffb 0bbe e8b2 163e aff5 cc3d
00000300: 5cf2 ec3e e0de 843b 92a7 623c c8d8 833c
00000310: 0b82 343e a52f 15bc 9552 af3d 140f 443e
00000320: 72ec 74bd 3eaf fd3d 3b88 633e 1157 403d
00000330: 9068 6a3e 84a2 0b3e c052 e73e f8db 353d
00000340: f63c aabd 1d21 583e ea5d 203e fae7 c4bc
00000350: 39cf de3d e776 383d 3b47 ac3d 9b34 313e
00000360: 37fe 02bd b63d 383e 2f8c 693d 2ca5 2c3d
00000370: 7560 d63c 35fc 143e 9e16 28bd c82c 153f
00000380: 691c f53d 1cc4 2c3e ae0c 8b3c 5a04 6c3b
00000390: 5ab9 d0bd b18e 5dbc 9a89 c03d 93b7 703e
000003a0: a2c5 e63d 5022 8c3e 54e4 99bd 42e6 273e
000003b0: c1a6 0a3e da02 2cbe 46b2 4c3e 39da 8e3e
000003c0: 37ab 103d db46 073e c69f 923c ee03 bdbd
000003d0: d9c0 9d3e f06d b43d 9797 bf3e 0bef 02be
000003e0: 4407 32bd a9d8 423f 4b6a f7bd 0886 d2bc
000003f0: 1c7d 3fbe 1138 b73e 760d 123e 0696 163e

nns.0.3.bias f4 [64]
0.018301448 -0.19509053 -0.09199397 -0.21550593 0.12670118 -0.0011491801 0.06407381 -0.07752872
0.07159849 -0.164023 0.093268536 -0.24259704 0.037705176 0.02547068 0.073164806 0.02931705
0.18924247 -0.040978618 0.07430131 -0.068327874 -0.024094267 -0.049696796 -0.012368387 -0.1526972
0.2372314 0.057108887 -0.03095705 -0.012981447 -0.002479502 0.019107103 -0.09409575 0.14092276
-0.015164887 0.091774724 0.09177799 -0.0718302 0.02970215 -0.06958718 0.0034442283 -0.018071203
0.10037484 -0.026210554 0.07056967 0.2074684 0.16505688 -0.034241613 0.12682661 0.15474385
0.0003787013 0.10864913 0.16298692 0.15136626 -0.1900909 -0.027298529 0.027455172 0.13167977
-0.03431824 0.053837076 -0.017685378 0.05388731 0.15435395 0.0034593656 -0.04071288 -0.10069086
00000000: ebec 953c d0c5 47be 5667 bcbd 96ad 5cbe
00000010: f4bd 013e 16a0 96ba 2139 833d 61c7 9ebd
00000020: 3ba2 923d a5f5 27be 9303 bf3d 5c6b 78be
00000030: be70 1a3d e3a7 d03c 6ed7 953d 4f2a f03c
00000040: c7c8 413e 32d9 27bd 492b 983d 7cef 8bbd
00000050: 5761 c5bc de8e 4bbd c6a4 4abc a85c 1cbe
00000060: caec 723e 02eb 693d a499 fdbc 23b0 54bc
00000070: 247f 22bb 8086 9c3c 46b5 c0bd 0e4e 103e
00000080: 2576 78bc 63f4 bb3d 19f6 bb3d b61b 93bd
00000090: ec51 f33c b983 8ebd 90b8 613b 0f0a 94bc
000000a0: 5391 cd3d 84b7 d6bc d586 903d 9972 543e
000000b0: ac04 293e ef40 0cbd d6de 013e 2c75 1e3e
000000c0: 6e8c c639 6f83 de3d 0be6 263e c2ff 1a3e
000000d0: 30a7 42be 2aa1 dfbc abe9 e03c 10d7 063e
000000e0: 4891 0cbd 4484 5c3d ede0 90bc f1b8 5c3d
000000f0: f60e 1e3e 86b6 623b 8dc2 26bd 0237 cebd

nns.0.4.weight f4 [64]
0.8847828 0.8908778 0.9915099 0.6584229 0.68225664 0.89134127 0.81970924 1.0227848
0.6511217 0.59513545 0.8011306 0.7896897 0.78910387 0.91434014 0.73474234 0.7034901
0.90040845 0.6828875 0.7390817 0.61818427 0.8427475 0.8170874 1.0359229 1.0086676
0.2872686 0.83624554 0.7748757 0.8832591 0.9667535 0.76469195 0.81152296 0.9417588
0.708641 0.66428435 0.72287625 0.8438418 0.81012267 0.8416774 0.9233579 0.8778521
0.78638655 0.7971798 0.72896546 0.8619833 0.7963909 0.97296256 0.96966255 0.6609528
0.88188845 0.72628117 0.9352943 0.8669319 0.88107395 0.60588795 0.8900996 0.81425256
0.9314615 0.72388726 0.8854232 0.73821956 0.5818264 0.69048643 0.8294614 0.93283457
00000000: 2081 623f 9110 643f 98d3 7d3f 678e 283f
00000010: 5fa8 2e3f f12e 643f 77d8 513f 9dea 823f
00000020: e9af 263f cc5a 183f e516 4d3f 1b29 4a3f
00000030: b602 4a3f 3212 6a3f 1318 3c3f ed17 343f
00000040: 2b81 663f b7d1 2e3f 7534 3d3f 5341 1e3f
00000050: 4dbe 573f a42c 513f 1f99 843f 051c 813f
00000060: df14 933e 3014 563f 415e 463f 451d 623f
00000070: 287d 773f dac2 433f f8bf 4f3f 1b17 713f
00000080: 7f69 353f 8a0e 2a3f 6b0e 393f 0406 583f
00000090: 3364 4f3f 2c78 573f 2f61 6c3f eaba 603f
000000a0: a150 493f fa13 4c3f 7b9d 3a3f f0aa 5c3f
000000b0: 46e0 4b3f 1314 793f ce3b 783f 3434 293f
000000c0: 71c3 613f 90ed 393f 726f 6f3f 40ef 5d3f
000000d0: 108e 613f 791b 1b3f 91dd 633f db72 503f
000000e0: 4374 6e3f ad50 393f 18ab 623f f5fb 3c3f
000000f0: 93f2 143f b8c3 303f 9557 543f 3fce 6e3f
