result/08.24.2022_20.26.17/config_66fold_1_optim_dict.pt (torch, 153628 bytes, 92 tensors)

first_h.0.weight f4 [64, 3]
-0.3112291 2.1386375 3.1303632 -1.0092087 0.18034202 0.69972277 -0.23393582 -0.0038496999
0.56363976 0.29267147 -0.5057856 0.0637833 -1.1833004 0.34026086 1.24044 -0.07404049
-0.5293586 0.27278566 0.47456938 0.9843058 0.9670791 -0.22727334 0.4331902 0.10446505
0.67596036 0.100585155 0.40582624 -0.197454 -0.21926023 0.23067994 -0.28559053 -0.64277357
-0.80385405 -0.7194031 -0.08158068 -0.7092381 0.32239684 -0.33482456 -0.4141301 -1.3094567
-0.9186257 -0.13754621 -0.7394071 -0.29391518 0.027564578 0.2078264 0.12470526 -0.6263189
0.23714532 0.4287843 0.62577206 0.9761673 -0.009890131 -0.15551811 0.3441839 0.0002625963
-0.3877729 0.29597414 1.111337 0.6277802 1.0122379 -0.4307785 -0.44811288 0.5126681
0.169188 0.60350597 -0.966036 0.33655304 0.9598615 1.0204544 1.25955 -0.006748392
1.0104601 1.2902253 0.79176766 -0.94420797 1.1893058 1.8575839 -0.09707016 0.64550537
-0.10462454 -1.080383 -0.37733763 -0.22875914 0.18231376 0.5812124 0.3005948 0.07407059
-0.6028797 -0.0070513166 -1.5381892 -0.14136253 -0.085694075 -0.031265043 0.48649248 0.7802609
1.1062315 -0.018125415 0.6650598 0.4005195 0.25725722 0.55392593 -0.20541023 1.1058875
0.89428574 -1.1399223 0.7909694 0.9634745 0.22521377 0.46838817 -0.17536166 -0.860597
-0.64956754 0.40362772 -1.2190509 0.027134553 0.09255878 -0.25651786 1.1375015 0.9702136
-0.8219736 0.5370734 1.2335603 0.16453703 0.20343402 0.31457052 -0.28391102 0.05230847
0.2296002 0.2793733 1.828908 2.1441724 -0.4021722 0.13932954 0.23568793 -0.3793043
-0.30783498 -0.32339865 -1.2274575 -1.9161588 -0.24467495 0.875022 0.6150989 0.131153
-1.0571775 -0.42423853 0.062557235 -0.16853195 0.4835408 0.054126207 0.2616867 1.1779422
0.18522322 -1.2423236 -0.9338002 0.19752596 -0.27174547 0.5956537 0.30046332 0.31801906
0.60065347 0.5598377 -0.6054377 0.08134028 -0.07112098 0.31073815 0.6641831 0.8866879
-0.61076605 0.018118417 0.35395652 -0.25050786 0.49733353 0.6211438 -0.5672489 0.7225127
1.8515097 -0.5677534 -0.9840004 0.021515423 0.97041315 0.6848139 -0.28812426 -0.38906854
-0.17204542 -0.51080984 0.27983496 0.18909156 0.4554253 0.4424641 -0.5180721 -0.44300222
00000000: 6c59 9fbe 70df 0840 df57 4840 c02d 81bf
00000010: 94ab 383e 0821 333f df8c 6fbe 3f4b 7cbb
00000020: b24a 103f 09d9 953e 2a7b 01bf d2a0 823d
00000030: 6376 97bf ac36 ae3e bdc6 9e3f 8aa2 97bd
00000040: 0c84 07bf 90aa 8b3e c2fa f23e 77fb 7b3f
00000050: 7f92 773f 58ba 68be 1bcb dd3e c6f1 d53d
00000060: bd0b 2d3f 97ff cd3d 75c8 cf3e 6231 4abe
00000070: c185 60be 5d37 6c3e ec38 92be cf8c 24bf
00000080: 61c9 4dbf cd2a 38bf c613 a7bd a190 35bf
00000090: 3311 a53e 206e abbe dc08 d4be 479c a7bf
000000a0: 0e2b 6bbf ead8 0cbe c949 3dbf 0d7c 96be
000000b0: 1ccf e13c 72d0 543e 7965 ff3d 6f56 20bf
000000c0: 39d6 723e 9e89 db3e 9932 203f 1ae6 793f
000000d0: 370a 22bc 2440 1fbe df38 b03e 14ad 8939
000000e0: 2b8a c6be ec89 973e 4a40 8e3f 34b6 203f
000000f0: 0391 813f 008f dcbe 0d6f e5be 373e 033f
00000100: 9e3f 2d3e 5e7f 1a3f 234e 77bf ae50 ac3e
00000110: 7cb9 753f 409e 823f ef38 a13f 9d21 ddbb
00000120: c256 813f 1a26 a53f 49b1 4a3f 9db7 71bf
00000130: 2c3b 983f 4fc5 ed3f b8cc c6bd d73f 253f
00000140: 6445 d6bd fd49 8abf 6632 c1be d63f 6abe
00000150: 75b0 3a3e 56ca 143f 90e7 993e 52b2 973d
00000160: 5356 1abf bb0e e7bb 62e3 c4bf 57c1 10be
00000170: 6080 afbd c60f 00bd 8b15 f93e 2ebf 473f
00000180: fe98 8d3f c07b 94bc 5c41 2a3f e410 cd3e
00000190: 38b7 833e 17ce 0d3f 0f57 52be b98d 8d3f
000001a0: e9ef 643f f9e8 91bf f87c 4a3f 44a6 763f
000001b0: 709e 663e 93d0 ef3e 0292 33be 1650 5cbf
000001c0: 0f4a 26bf 4ba8 ce3e dc09 9cbf 4849 de3c
000001d0: 758f bd3d 4f56 83be a699 913f eb5f 783f
000001e0: dd6c 52bf a47d 093f 4ee5 9d3f 657c 283e
000001f0: 0251 503e 630f a13e c95c 91be 6841 563d
00000200: 511c 6b3e 040a 8f3e a819 ea3f 1f3a 0940
00000210: 84e9 cdbe 67ac 0e3e 2d58 713e 2c34 c2be
00000220: 8c9c 9dbe 8294 a5be 541d 9dbf b144 f5bf
00000230: 128c 7abe 7101 603f 1f77 1d3f f94c 063e
00000240: 9851 87bf cb35 d9be 021e 803d a493 2cbe
00000250: a992 f73e 71b3 5d3d cdfb 853e cfc6 963f
00000260: 28ab 3d3e 7604 9fbf 880d 6fbf 3f44 4a3e
00000270: 3922 8bbe c37c 183f 54d6 993e 65d3 a23e
00000280: 6dc4 193f 8651 0f3f f7fd 1abf bc95 a63d
00000290: e0a7 91bd 1219 9f3e e707 2a3f fafd 623f
000002a0: 2a5b 1cbf 136d 943c ca39 b53e 9142 80be
000002b0: 80a2 fe3e 4803 1f3f 3937 11bf 98f6 383f
000002c0: 45fe ec3f 4958 11bf 73e7 7bbf 1d41 b03c
000002d0: ff6c 783f f74f 2f3f 0685 93be fe33 c7be
000002e0: ad2c 30be 6fc4 02bf 8746 8f3e 38a1 413e
000002f0: 812d e93e a88a e23e 60a0 04bf 30d1 e2be

first_h.0.bias f4 [64]
0.15101498 -0.062271014 -0.020604514 0.0903094 0.14461613 -0.29602775 -0.1813034 -0.4322653
-0.05089578 -0.06579132 0.3566452 0.15702458 -0.22601858 0.3582466 -0.16840291 -0.080008075
-0.36431774 0.34060276 -0.11300627 0.3280901 -0.51884437 0.522301 0.5056096 -0.44284436
0.5665054 0.2957568 0.09360173 0.3263798 -0.18951608 0.38291588 -0.51088727 -0.54824024
0.5100397 -0.4492213 -0.44172552 0.12015186 0.013210934 0.2540437 -0.15360898 0.4370798
0.14509818 0.040222585 -0.29197097 0.5422168 -0.15133569 0.011000682 -0.31473026 -0.09728252
0.4225994 0.48325986 -0.4073068 -0.01576036 -0.20636436 -0.2788857 -0.06728609 0.0011008887
-0.16273631 -0.040949937 -0.49319264 0.08790603 0.14943719 0.46374404 0.53543997 -0.55733716
00000000: aca3 1a3e e40f 7fbd ccca a8bc 22f4 b83d
00000010: 4016 143e f390 97be 99a7 39be e151 ddbe
00000020: 1878 50bd 99bd 86bd 339a b63e 0dcb 203e
00000030: 6a71 67be 196c b73e d071 2cbe 46db a3bd
00000040: db87 babe 7c63 ae3e d56f e7bd 6dfb a73e
00000050: fcd2 04bf 85b5 053f a16f 013f 7fbc e2be
00000060: 7f06 113f 6f6d 973e 44b2 bf3d 411b a73e
00000070: 8110 42be 8d0d c43e 82c9 02bf 7959 0cbf
00000080: f691 023f 5600 e6be d929 e2be 2e12 f63d
00000090: ac72 583c 0412 823e ac4b 1dbe ecc8 df3e
000000a0: 9e94 143e 70c0 243d 387d 95be b8ce 0a3f
000000b0: bef7 1abe 343c 343c 5324 a1be 0f3c c7bd
000000c0: f35e d83e d66d f73e 848a d0be df1b 81bc
000000d0: 2e51 53be 1bca 8ebe 4acd 89bd b24b 903a
000000e0: 59a4 26be 1fbb 27bd bf83 fcbe 1408 b43d
000000f0: 1006 193e dc6f ed3e 9812 093f a6ad 0ebf

first_h.1.weight f4 [64]
1.0857334 2.2858965 0.9904341 0.5184032 3.6559591 0.9838149 -0.06831031 0.35167164
-0.0729796 0.90260696 0.42789686 1.9457731 -0.037470933 2.4654617 2.06933 -0.02223195
-0.073004454 0.7078564 0.6713028 0.13508534 -0.1432315 0.8839447 3.5398538 0.34310505
0.21284485 3.9917858 1.0058585 2.0050235 0.284295 -0.01400103 2.143004 0.24325152
-0.074849136 -0.04783511 1.0644519 3.7302122 -0.03894766 2.1069698 1.8857424 0.7121775
3.0728946 -0.04915138 0.78462934 0.25072187 1.1113324 0.9552799 4.3537974 0.17021303
1.8768283 0.37673658 -0.09767298 3.7596045 0.9254607 0.6962104 1.7652658 0.35966706
3.5740721 0.16477479 3.209166 1.8677622 -0.014087134 0.048329268 -0.06361315 0.32576546
00000000: 50f9 8a3f 214c 1240 178d 7d3f 12b6 043f
00000010: 3cfb 6940 4bdb 7b3f 47e6 8bbd 4e0e b43e
00000020: 5476 95bd 4011 673f 4c15 db3e 180f f93f
00000030: 1f7b 19bd 20ca 1d40 e76f 0440 c71f b6bc
00000040: 5c83 95bd 1436 353f 80da 2b3f d053 0a3e
00000050: 47ab 12be 334a 623f f78c 6240 77ab af3e
00000060: 00f4 593e 6b79 7f40 f9bf 803f 4e52 0040
00000070: 1d8f 913e 9364 65bc fa26 0940 ed16 793e
00000080: 814a 99bd c0ee 43bd f63f 883f ccbb 6e40
00000090: 9587 1fbd 98d8 0640 0260 f13f 4451 363f
000000a0: 4eaa 4440 f552 49bd 78dd 483f 9e5e 803e
000000b0: 2440 8e3f 398d 743f 4f52 8b40 534c 2e3e
000000c0: e93b f03f 9ee3 c03e c508 c8bd 5c9d 7040
000000d0: feea 6c3f d83a 323f 3bf4 e13f 4826 b83e
000000e0: 99bd 6440 b9ba 283e fa62 4d40 d512 ef3f
000000f0: b9cd 66bc e9f4 453d 9c47 82bd bbca a63e

first_h.1.bias f4 [64]
0.38870665 -0.86350137 -0.4747855 -2.2051313 -0.85978776 -0.57702494 -0.17520647 -1.0831099
-0.058708295 -0.5558683 -0.20786071 -0.7216564 -0.06865342 -0.93594456 -0.7857533 -0.09901088
-0.23643148 -2.7174056 -0.7488963 0.30532867 -0.24165054 -0.081327006 -0.25324586 0.2773701
0.31705153 -0.3910171 -1.561456 -0.75381273 -2.025697 -0.31636325 -0.79125684 -1.2812904
-0.14347601 -0.78976643 -0.43025735 -0.6232353 -0.048971444 -0.74121314 -0.704856 -0.33697683
-0.8146941 -0.15192729 -0.40255007 0.36879176 -0.5322854 -0.60861635 0.32347494 -1.5558945
-0.74120533 -0.27615625 -0.1662493 -0.28749102 -0.5060353 -0.08649667 -0.7980163 -0.5126036
-0.3849628 -0.23531914 -0.7575412 -0.6952322 -0.7175457 -0.039369326 -0.11467433 -2.1647916
00000000: 8f04 c73e 6d0e 5dbf 1617 f3be df20 0dc0
00000010: 0d1b 5cbf e8b7 13bf 5369 33be 58a3 8abf
00000020: 1c78 70bd 634d 0ebf 70d9 54be 79be 38bf
00000030: 2a9a 8cbd 109a 6fbf 2127 49bf 37c6 cabd
00000040: 181b 72be f9e9 2dc0 abb7 3fbf 0a54 9c3e
00000050: 3d73 77be c68e a6bd 71a9 81be 7403 8e3e
00000060: 9454 a23e 6533 c8be cadd c7bf dff9 40bf
00000070: 05a5 01c0 5dfa a1be cf8f 4abf 5301 a4bf
00000080: 60eb 12be 222e 4abf b14a dcbe 598c 1fbf
00000090: 4896 48bd 25c0 3dbf 7171 34bf 3a88 acbe
000000a0: cb8f 50bf d492 1bbe 0b1b cebe 46d2 bc3e
000000b0: db43 08bf 48ce 1bbf 829e a53e 8d27 c7bf
000000c0: a2bf 3dbf 5a64 8dbe 423d 2abe 0632 93be
000000d0: 888b 01bf 2b25 b1bd cc4a 4cbf fd39 03bf
000000e0: d819 c5be 80f7 70be 38ee 41bf bdfa 31bf
000000f0: 13b1 37bf bb41 21bd 60da eabd f28b 0ac0

first_h.1.running_mean f4 [64]
-408373.44 -1.3253396e+06 -307179.16 384466.1 -1.5426924e+06 -97240.78 623366.75 -298522.03
887569.6 -259407.5 -375176.8 -923796.06 423573.66 -1.7149004e+06 -964804.75 273030.34
311523.44 1.2600035e+06 450822.44 384120.66 1.3300552e+06 679930.3 -1.2334366e+06 1.3395709e+06
1.3290235e+06 -1.1873994e+06 -127453.51 -1.4242134e+06 266120.72 97312.04 -2.0169241e+06 -41031.49
1.4532015e+06 526197.4 -272183.66 -1.5042899e+06 295804.56 -1.1386918e+06 -1.5975476e+06 -336983.84
-1.0686436e+06 216124.62 -372915.8 367758.62 -528110.25 -498299.47 -1.6159638e+06 1.1502945e+06
-1.3902039e+06 -221404.27 343752.3 -1.6408581e+06 -356876.9 421503.03 -795216.9 408201.66
-804978.5 -328977.94 -735877.75 -744475.6 1.2742754e+06 -511125.5 367474.03 577904.8
00000000: ae66 c7c8 ddc8 a1c9 65fd 95c8 43ba bb48
00000010: 2351 bcc9 64ec bdc7 6c30 1849 41c3 91c8
00000020: 1ab1 5849 e053 7dc8 1a31 b7c8 4189 61c9
00000030: b5d2 ce48 a356 d1c9 4c8c 6bc9 cb50 8548
00000040: 6e1c 9848 1ccf 9949 ce20 dc48 158f bb48
00000050: 3a5c a249 a5ff 2549 e590 96c9 9785 a349
00000060: fc3b a249 3bf2 90c9 c1ee f8c7 abda adc9
00000070: 17f1 8148 0510 be47 e134 f6c9 7d47 20c7
00000080: 8c64 b149 5677 0049 f5e6 84c8 0fa1 b7c9
00000090: 926f 9048 1e00 8bc9 5d03 c3c9 fb8a a4c8
000000a0: 1d73 82c9 280f 5348 7a16 b6c8 d491 b348
000000b0: e4ee 00c9 6f4f f3c8 de42 c5c9 b46a 8c49
000000c0: dfb3 a9c9 1137 58c8 0ad9 a748 d14c c8c9
000000d0: 9d41 aec8 e1cf cd48 0e25 42c9 3551 c748
000000e0: 2887 44c9 3ea2 a0c8 5ca8 33c9 bac1 35c9
000000f0: 1b8d 9b49 b092 f9c8 416e b348 0d17 0d49

first_h.1.running_var f4 [64]
4.3757354e+12 4.6090313e+13 2.4756573e+12 3.8782417e+12 6.2271854e+13 2.4806251e+11 1.0194173e+13 2.3380765e+12
2.0667672e+13 1.7654544e+12 3.6925905e+12 2.2446472e+13 4.7072265e+12 7.713288e+13 2.4417692e+13 1.9558189e+12
2.5459216e+12 4.133518e+13 5.325751e+12 3.8675764e+12 4.6412717e+13 1.2181861e+13 3.950549e+13 4.7231797e+13
4.64147e+13 3.6406303e+13 4.2621983e+11 5.3225055e+13 1.950634e+12 2.4847157e+11 1.0671283e+14 4.4195594e+10
5.5403744e+13 7.264013e+12 1.9437392e+12 5.9502968e+13 2.2955788e+12 3.4047282e+13 6.697533e+13 2.9796475e+12
2.986674e+13 1.2254038e+12 3.6485383e+12 3.5519002e+12 7.317229e+12 6.514205e+12 6.8747168e+13 3.4709833e+13
5.071069e+13 1.2861356e+12 3.0999105e+12 7.063727e+13 3.3415642e+12 4.6750273e+12 1.6590625e+13 4.3710826e+12
1.7039894e+13 2.8395802e+12 1.4140385e+13 1.4544571e+13 4.2600547e+13 6.8538734e+12 3.5426539e+12 8.7480714e+12
00000000: 8ab3 7e54 f3ac 2756 2b1a 1054 4ebe 6154
00000010: 2f8b 6256 b606 6752 4158 1455 0e18 0854
00000020: 8a60 9655 a486 cd53 e3ef 5654 d051 a355
00000030: 92ff 8854 cc4d 8c56 7fa9 b155 f2af e353
00000040: 3031 1454 6360 1656 f0ff 9a54 611f 6154
00000050: 36d9 2856 f844 3155 5bb8 0f56 0ad4 2b56
00000060: 0fdb 2856 0372 0456 5d79 c652 b2a1 4156
00000070: 6c15 e353 3d68 6752 091c c256 34a4 2451
00000080: c28e 4956 1d69 d354 f147 e253 7578 5856
00000090: ca9e 0554 01ba f755 a3a7 7356 3570 2d54
000000a0: 234f d955 e1a7 8e53 755f 5454 70bf 4e54
000000b0: 9bf5 d454 9c96 bd54 ca19 7a56 1a8c fc55
000000c0: 037c 3856 d4b9 9553 4470 3454 0b7d 8056
000000d0: 3081 4254 ab0f 8854 e56c 7155 356e 7e54
000000e0: 8df6 7755 0b49 2554 0ac5 4d55 c0a6 5355
000000f0: dafa 1a56 5679 c754 a835 4e54 369a fe54

first_h.3.weight f4 [64, 64]
-0.21359241 -0.7212828 -0.35838073 0.07016708 -0.7611198 0.056593727 0.09204315 0.1717262
-0.005458978 -0.12539041 0.25714204 -0.31101242 0.2210255 -0.39606488 -0.6327542 0.0687769
0.12888657 0.20355129 -0.7464478 0.0044127502 0.18601173 -0.5461079 -0.4284788 0.014883627
-0.09417861 -0.47767684 0.35938847 -0.6825713 0.19669418 0.17325859 -0.541594 0.27025768
-0.024864463 0.14685225 -0.6037914 -0.3068261 -0.022672324 -0.6388882 -0.29332545 0.10363295
-0.6179309 0.27256572 0.29558757 0.059123315 0.028394356 -0.060897883 -0.61627084 -0.061717197
-0.72301996 0.11806623 0.15841411 -0.58111537 0.37021673 -1.7052722 -0.42804196 -1.2469504
-0.11063566 0.24025624 -0.6992177 -0.29115823 -0.19765912 0.30311352 -0.11833388 0.09564222
-0.194544 -1.2874418 0.08406286 -0.3133459 -2.1158984 0.07416429 0.081706025 -0.23246972
0.031863533 -0.108897544 -0.16217577 0.015123273 -0.08321595 -1.6171582 -0.43526265 -0.0153513765
0.026291706 -0.3813272 -0.9020209 0.3158991 -0.058531884 -0.52258945 -2.1218886 0.3056012
0.2258038 -1.9696676 -0.20677526 -0.5207136 -0.48177448 -0.25607705 -0.40249202 -0.48543707
-0.05045275 -0.015216038 -0.22989623 -1.8653189 -0.05944929 -0.4891122 -0.013213472 -0.21559496
-1.9229922 -0.3662144 -0.021636518 0.31682354 -0.020355543 -0.1533049 -2.7610116 -0.22784545
-0.34564728 0.030521752 0.12206586 -2.236168 -0.1967224 -0.35415167 -0.78297484 0.46768123
-1.6768531 0.14838037 -2.2359428 -0.25040868 -0.19276614 -0.1579963 0.2222114 -0.8607003
-1.6744275 0.052676454 0.18292852 -0.7962358 -0.23063956 0.16995381 -0.8336543 -0.24104737
-0.8001418 0.27883995 -0.04817366 0.24239166 -0.39141023 -0.18709093 0.123558834 -0.15829805
-0.5115509 -0.96959156 -0.8871444 -0.9224937 -0.6971004 -1.5707371 -0.29353288 -1.1457021
-1.0431379 -0.3306524 -0.2129342 0.13840255 -0.5713055 -0.10632941 0.409701 -0.07184437
-0.55617493 -0.21178937 -0.017723553 -0.10493345 -0.24957146 -0.25061324 0.2874513 0.19117399
-0.13806112 -0.037648804 0.20915206 -1.1107751 0.40771046 0.16685398 0.05685471 -0.43657044
0.06704754 -0.3765344 -0.6459543 -0.28748965 0.15477161 -1.6670016 0.07063082 -0.8489858
-0.2324342 -0.42987618 -0.51558155 -0.16876477 -0.2597461 0.15648992 -0.32759964 -0.6579026
-0.06938869 -0.1153509 -0.08225326 -0.048572242 -0.13790995 -0.22363387 0.052821133 -0.061866347
0.14931865 0.024999527 1.7381835e-05 -0.22881247 0.100237146 -0.110074386 -0.1738497 0.22227804
0.17083988 -0.079764135 -0.2910646 0.14905089 0.036906227 -0.2182451 -0.20937136 0.13350464
0.042909317 -0.14077745 0.12747243 -0.2822141 -0.07590188 0.124450274 -0.29923627 -0.18022999
0.021290036 0.15236747 0.10765962 -0.17069004 0.2216997 -0.29338008 -0.20329067 0.03172227
-0.099633075 0.055253763 -0.006975404 0.19904597 -0.056831665 0.028835116 -0.14949718 -0.102199286
-0.16169399 0.13320744 0.18421914 -0.12862371 0.10236502 -0.4608331 -0.24796689 -0.1670935
-0.2295634 0.18638434 -0.15044592 -0.033486012 0.16025011 0.096598476 0.042410903 -0.27090228
00000000: f8b7 5abe fda5 38bf ae7d b7be c2b3 8f3d
00000010: bfd8 42bf d3ce 673d 1e81 bc3d fed8 2f3e
00000020: 3ae1 b2bb 5866 00be 1fa8 833e 053d 9fbe
00000030: 8254 623e 04c9 cabe 2efc 21bf e7da 8c3d
00000040: d7fa 033e c06f 503e 3417 3fbf d598 903b
00000050: dc79 3e3e bacd 0bbf 9361 dbbe 75da 733c
00000060: b7e0 c0bd 0f92 f4be c401 b83e febc 2ebf
00000070: 336a 493e b36a 313e e8a5 0abf 375f 8a3e
00000080: 8fb0 cbbc 7060 163e 1392 1abf 5018 9dbe
00000090: 4fbb b9bc 2d8e 23bf c12e 96be 833d d43d
000000a0: b830 1ebf bc8d 8b3e 4157 973e 4a2b 723d
000000b0: 489b e83c 0f70 79bd edc3 1dbf 2ccb 7cbd
000000c0: d617 39bf b5cc f13d 4f37 223e fac3 14bf
000000d0: 0c8d bd3e 5c46 dabf 5128 dbbe 129c 9fbf
000000e0: f394 e2bd bb05 763e eeff 32bf b112 95be
000000f0: 2767 4abe b231 9b3e 0959 f2bd 11e0 c33d
00000100: 8b36 47be e5ca a4bf 2629 ac3d e06e a0be
00000110: e16a 07c0 73e3 973d 7d55 a73d 8b0c 6ebe
00000120: 5683 023d ad05 dfbd 6811 26be 9bc7 773c
00000130: 206d aabd 0aff cebf bfda debe 5784 7bbc
00000140: b461 d73c 523d c3be d7ea 66bf 87bd a13e
00000150: 21bf 6fbd 6cc8 05bf 06cd 07c0 c377 9c3e
00000160: 1d39 673e 111e fcbf e5bc 53be 7d4d 05bf
00000170: 25ab f6be 881c 83be 6f13 cebe 358b f8be
00000180: 8ba7 4ebd b04c 79bc eb69 6bbe c5c2 eebf
00000190: 1981 73bd ea6c fabe 527d 58bc edc4 5cbe
000001a0: 9c24 f6bf 7480 bbbe 113f b1bc b236 a23e
000001b0: abc0 a6bc f6fb 1cbe 6ab4 30c0 5150 69be
000001c0: aef8 b0be c108 fa3c aafd f93d 601d 0fc0
000001d0: 9971 49be 5e53 b5be 0a71 48bf ea73 ef3e
000001e0: 1fa3 d6bf 06f1 173e b019 0fc0 9135 80be
000001f0: 7d64 45be c8c9 21be 638b 633e db56 5cbf
00000200: a453 d6bf 44c3 573d 9d51 3b3e 1cd6 4bbf
00000210: c72c 6cbe 5f08 2e3e 5e6a 55bf 1fd5 76be
00000220: 18d6 4cbf 1cc4 8e3e be51 45bd 8535 783e
00000230: ec66 c8be c494 3fbe 6a0c fd3d e218 22be
00000240: 00f5 02bf 2737 78bf e51b 63bf 8c28 6cbf
00000250: 2c75 32bf ea0d c9bf f149 96be 5ea6 92bf
00000260: 8b85 85bf 454b a9be 6c0b 5abe 66b9 0d3e
00000270: 1441 12bf 3cc3 d9bd 54c4 d13e 2423 93bd
00000280: 7b61 0ebf 50df 58be fc30 91bc 59e7 d6bd
00000290: a98f 7fbe 6150 80be d12c 933e 1dc3 433e
000002a0: e55f 0dbe a235 1abd f52b 563e e12d 8ebf
000002b0: 6dbf d03e c5db 2a3e 7ce0 683d 2986 dfbe
000002c0: 3850 893d 1ec9 c0be 435d 25bf d831 93be
000002d0: 737c 1e3e 4f60 d5bf e4a6 903d 2257 59bf
000002e0: 3b03 6ebe bb18 dcbe 27fd 03bf acd0 2cbe
000002f0: 71fd 84be e53e 203e 24bb a7be 4e6c 28bf
00000300: a81b 8ebd 183d ecbd 6674 a8bd b0f3 46bd
00000310: 4438 0dbe 4700 65be f95a 583d 9167 7dbd
00000320: fde6 183e cfcb cc3c 35cf 9137 d14d 6abe
00000330: 2249 cd3d ae6e e1bd a805 32be db9c 633e
00000340: a6f0 2e3e 615b a3bd 6b06 95be cca0 183e
00000350: fc2a 173d a57b 5fbe 7265 56be 71b5 083e
00000360: aec1 2f3d f727 10be 2288 023e 5e7e 90be
00000370: 7272 9bbd c9df fe3d 7f35 99be 368e 38be
00000380: 7168 ae3c 3806 1c3e a67c dc3d 5fc9 2ebe
00000390: 3f05 633e ea35 96be 6e2b 50be 36ef 013d
000003a0: 6d0c ccbd c551 623d ee91 e4bb b5d2 4b3e
000003b0: 52c8 68bd 9f37 ec3c ca15 19be dc4d d1bd
000003c0: 1c93 25be 8867 083e f1a3 3c3e efb5 03be
000003d0: c0a4 d13d 51f2 ebbe 08eb 7dbe 8f1a 2bbe
000003e0: ab12 6bbe 89db 3e3e 7f0e 1abe a128 09bd
000003f0: 9b18 243e 6cd5 c53d 0eb7 2d3d b4b3 8abe

first_h.3.bias f4 [64]
0.0092005525 -0.28093275 0.0879299 0.053656083 -0.06716234 0.09189692 -0.122369885 -0.13214642
0.0038811944 0.06655882 -0.035755754 0.017529357 0.09550685 0.116080254 -0.028692175 -0.014311805
-0.046851423 -0.0535416 0.15556526 0.078419045 -0.082662046 0.6407416 0.26134834 -0.034834303
-0.061916534 -0.028120926 -0.10080333 -0.1267376 -0.04652302 -0.07832511 0.111827716 0.07149974
0.016136684 0.09384772 -0.10325474 0.00571488 0.07644471 -0.027388144 0.009886521 0.50372183
-0.012065326 -0.010954407 0.029192451 0.012579148 -0.122357234 -0.10831054 -0.011267776 -0.029558966
0.11292686 0.058011964 -0.06817541 -0.12260964 0.10151619 0.071728624 0.1120551 -0.1580773
0.16826653 -0.1462403 0.01622725 -0.016721414 -0.10685451 0.025245037 0.08215369 0.07614701
00000000: eabd 163c 6bd6 8fbe 9714 b43d 7bc6 5b3d
00000010: 698c 89bd 7434 bc3d 109d fabd 6451 07be
00000020: a35b 7e3b fe4f 883d a074 12bd ba99 8f3c
00000030: 1899 c33d 7cbb ed3d da0b ebbc 107c 6abc
00000040: 47e7 3fbd 704e 5bbd 804c 1f3e 2a9a a03d
00000050: b84a a9bd a407 243f 73cf 853e 6aae 0ebd
00000060: 319c 7dbd db5d e6bc fa71 cebd 80c7 01be
00000070: ec8e 3ebd ea68 a0bd ee05 e53d 756e 923d
00000080: 1431 843c 3c33 c03d 3977 d3bd e343 bb3b
00000090: 0b8f 9c3d 1a5d e0bc 13fb 213c eaf3 003f
000000a0: a5ad 45bc 1d7a 33bc 0225 ef3c c518 4e3c
000000b0: 6e96 fabd ebd1 ddbd 7a9c 38bc a525 f2bc
000000c0: 3346 e73d f49d 6d3d 8d9f 8bbd c31a fbbd
000000d0: b8e7 cf3d 75e6 923d 257d e53d 04df 21be
000000e0: 104e 2c3e 04c0 15be 03ef 843c 59fb 88bc
000000f0: 8ad6 dabd aece ce3c 3240 a83d f7f2 9b3d

first_h.4.weight f4 [64]
0.13294075 0.8583997 0.053394802 0.008569769 0.0007052918 0.0007564158 0.68573385 0.50570875
0.06796204 0.637768 -0.154479 -0.016533848 0.25736907 0.15488365 0.5499532 0.3747322
-0.24286221 0.5827124 0.5611378 0.49248978 0.22334424 1.3502487 1.9388242 0.010153201
0.52479535 2.0702973e-05 0.00443114 0.9709057 0.21544847 0.71761584 0.008567388 1.1670547
0.0047498476 -0.0040790373 0.0017940908 0.8132033 0.03934332 0.01722131 0.18118101 0.9216558
0.8737494 0.6477867 0.19429542 -0.0015119902 1.2494888 0.03208186 0.4074887 0.35714078
0.38853085 0.6099969 0.46173227 0.054851886 0.02387758 0.005191214 0.43337607 -0.011201774
-0.008189076 -0.013851252 0.78508943 0.37179178 0.7154512 -0.013425823 0.41654176 1.4091203
00000000: 9f21 083e 15c0 5b3f 82b4 5a3d 3768 0c3c
00000010: 55e3 383a 344a 463a 418c 2f3f 2176 013f
00000020: af2f 8b3d c344 233f be2f 1ebe fe71 87bc
00000030: e1c5 833e d299 1e3e bcc9 0c3f e6dc bf3e
00000040: dfb0 78be a42c 153f baa6 0f3f 9f27 fc3e
00000050: 5ab4 643e f3d4 ac3f 642b f83f 9d59 263c
00000060: fd58 063f 4cab ad37 1933 913b 478d 783f
00000070: 869e 5c3e acb5 373f 3b5e 0c3c 0c62 953f
00000080: 9ca4 9b3b 72a9 85bb b327 eb3a 172e 503f
00000090: 7626 213d b413 8d3c 8487 393e a2f1 6b3f
000000a0: 0aae 5f3f 59d5 253f 61f5 463e f92d c6ba
000000b0: 40ef 9f3f 4568 033d 5ca2 d03e 28db b63e
000000c0: 84ed c63e c228 1c3f 2c68 ec3e 5fac 603d
000000d0: ea9a c33c 0f1b aa3b 78e3 dd3e a587 37bc
000000e0: 792b 06bc 5df0 62bc 9ffb 483f 7e5b be3e
000000f0: cf27 373f fcf7 5bbc f644 d53e 0e5e b43f

first_h.4.bias f4 [64]
-0.41642407 -0.94144434 0.07666777 -0.048726607 -0.24300143 -0.40484846 0.3976053 -0.33918655
-0.7041872 -0.33264235 -0.29873776 -0.52451605 -0.38282156 -0.4413168 -0.5274489 -0.262489
-0.34556937 -0.37002933 -0.59994054 -0.5000387 -0.37930763 0.34197527 -0.75679487 -0.83294946
-0.6897495 -0.3563868 -0.22894111 -0.25052342 -0.36685252 -0.8415396 -0.5714118 -0.10813154
-0.8959889 -0.66100806 -0.43473253 -0.9976908 -0.32390463 -0.62956494 -0.5765506 0.26795813
-0.391393 -0.34730354 -1.1537262 -0.08527781 -0.5890245 -0.12851946 -0.29174042 -0.6494215
-0.6617924 -0.38805154 -0.393481 -1.2116041 -1.2283717 -0.35568517 -0.43842417 -0.5274783
-0.027536394 -0.09961315 -0.8807405 0.16676627 -0.64867246 -0.48441792 -0.55162066 -0.15979019
00000000: 8935 d5be 7f02 71bf fe03 9d3d 8d95 47bd
00000010: 5ed5 78be 4c48 cfbe ec92 cb3e dca9 adbe
00000020: 9d45 34bf 1950 aabe 28f4 98be af46 06bf
00000030: 3001 c4be 47f4 e1be e406 07bf f564 86be
00000040: 78ee b0be 7c74 bdbe b495 19bf 8902 00bf
00000050: 9c34 c2be 6217 af3e 4fbd 41bf 2d3c 55bf
00000060: 6c93 30bf 5578 b6be 8a6f 6abe 9b44 80be
00000070: 18d4 bbbe 246f 57bf 0b48 12bf 1274 ddbd
00000080: 875f 65bf d337 29bf 4395 debe aa68 7fbf
00000090: d4d6 a5be 2b2b 21bf d298 13bf cf31 893e
000000a0: aa64 c8be c5d1 b1be 4dad 93bf 22a6 aebd
000000b0: 4fca 16bf 9b9a 03be 005f 95be 7d40 26bf
000000c0: 3a6b 29bf b1ae c6be 5776 c9be d815 9bbf
000000d0: 493b 9dbf 5e1c b6be 2279 e0be d108 07bf
000000e0: 0194 e1bc fb01 ccbd 3678 61bf c7c4 2a3e
000000f0: 660f 26bf a005 f8be 0337 0dbf 0aa0 23be

first_h.4.running_mean f4 [64]
-2.1698592 -7.7126307 -3.356457 -0.4912481 -0.22858535 0.7951329 -4.600596 -0.4423734
-0.6751545 -1.0193814 -0.6052703 0.22147466 -1.273519 3.3510265 -1.1152521 3.0675461
-0.31922504 -0.7736334 0.010268431 -1.8253721 -1.6131814 -5.1344023 6.8191524 0.77809834
0.4436303 -0.03416068 -0.5934269 0.95902646 -1.1509372 -7.6441207 -0.02030284 -2.455358
0.5710791 0.7116438 -0.33926085 1.828881 -0.75302833 -0.04963581 -1.8936852 8.99537
-6.712603 -0.29159182 -1.0829824 -0.20283057 5.878902 -1.0695806 -0.94118536 -2.964113
0.40325308 -0.78663564 -1.5456605 -2.3591385 1.2152468 -0.6507541 -0.02174459 -0.983
0.56702876 0.46986 -7.839632 -3.0614173 -0.41450554 0.38331002 -0.27839458 -2.934139
00000000: f9de 0ac0 dfcd f6c0 31d0 56c0 df84 fbbe
00000010: 4712 6abe d48d 4b3f 1538 93c0 c47e e2be
00000020: edd6 2cbf 177b 82bf fff2 1abf 41ca 623e
00000030: ac02 a3bf 3877 5640 95c0 8ebf ad52 4440
00000040: 7771 a3be d70c 46bf ec3c 283c cba5 e9bf
00000050: ba7c cebf 064d a4c0 7f36 da40 7431 473f
00000060: 8323 e33e 12ec 0bbd d3ea 17bf c282 753f
00000070: e951 93bf a39c f4c0 2452 a6bc 9624 1dc0
00000080: 3d32 123f 4a2e 363f 99b3 adbe c618 ea3f
00000090: 77c6 40bf eb4e 4bbd 4764 f2bf 09ed 0f41
000000a0: a5cd d6c0 864b 95be 2b9f 8abf d1b2 4fbe
000000b0: f71f bc40 04e8 88bf 86f1 70bf 07b4 3dc0
000000c0: 3077 ce3e f460 49bf 34d8 c5bf 20fc 16c0
000000d0: 358d 9b3f d297 26bf b621 b2bc e3a5 7bbf
000000e0: cc28 113f 7d91 f03e 44de fac0 43ee 43c0
000000f0: 123a d4be 3641 c43e bc89 8ebe efc8 3bc0

first_h.4.running_var f4 [64]
4.3953757 16.322721 20.58051 0.3784134 0.02075865 0.23975646 43.907684 0.508676
0.079692535 2.6684964 0.44491214 0.110136665 1.6095247 5.110883 2.0248144 3.124337
1.463732 1.5788653 1.8373095 5.106159 4.3168564 13.197834 19.392075 0.17676753
1.3316578 0.06187837 0.07812268 15.44832 2.3898408 15.783986 0.029771542 8.103898
0.20622027 0.12302427 0.10029846 3.7931337 2.865893 7.935826 1.2238659 27.386463
20.540564 0.24400112 3.2380927 0.087996095 13.426684 0.7310918 3.4036813 4.4279
0.13512117 1.1015016 4.171601 4.1107364 0.46813962 5.7268834 0.13077176 0.22882602
0.09564611 0.0429307 17.898003 25.972925 0.4220546 0.12245951 2.2655795 13.464333
00000000: eba6 8c40 ef94 8241 e2a4 a441 67bf c13e
00000010: 0b0e aa3c b882 753e 78a1 2f42 9738 023f
00000020: d735 a33d a5c8 2a40 86cb e33e 558f e13d
00000030: e804 ce3f 5b8c a340 8f96 0140 23f5 4740
00000040: 925b bb3f 4218 ca3f f52c eb3f a865 a340
00000050: b023 8a40 542a 5341 f822 9b41 8c02 353e
00000060: c373 aa3f 2c74 7d3d c9fe 9f3d 522c 7741
00000070: 27f3 1840 358b 7c41 73e3 f33c 91a9 0141
00000080: 682b 533e 26f4 fb3d 4769 cd3d b4c2 7240
00000090: ca6a 3740 49f2 fd40 a3a7 9c3f 7a17 db41
000000a0: 1353 a441 6edb 793e e93c 4f40 4c37 b43d
000000b0: b3d3 5641 d528 3b3f ead5 5940 5bb1 8d40
000000c0: 345d 0a3e 01fe 8c3f c17d 8540 278b 8340
000000d0: ffaf ef3e a142 b740 08e9 053e 5e51 6a3e
000000e0: 1ce2 c33d 1ad8 2f3d 1c2f 8f41 8dc8 cf41
000000f0: 8a17 d83e 0dcc fa3d 41ff 1040 e86d 5741

nns.0.0.weight f4 [64, 64]
-0.13659965 -0.1720379 -0.09728592 -0.19614819 -0.20329972 -0.23835342 0.028217351 -0.1578891
-0.21975215 0.054746706 0.06853132 -0.20020977 -0.2585137 -0.12953168 -0.04614778 -0.015154642
-0.13513252 0.010495331 0.037172154 -0.11529965 -0.014591013 -0.08854627 -0.0002227109 -0.2387424
-0.0906978 -0.10169356 0.031635597 -0.004895394 -0.091410555 -0.27294773 -0.14886123 -0.13528346
-0.25750694 -0.20852646 -0.24022382 -0.016798316 -0.06376891 -0.14028269 -0.21421796 -0.082168385
-0.2734111 0.074356616 -0.03297095 -0.0096866675 0.058473796 0.0950667 -0.12978844 0.05294738
-0.10774156 -0.005705213 -0.042356487 -0.09314256 -0.21654454 -0.12931952 0.07053559 -0.010046613
-0.24029715 -0.21758394 -0.1563409 -0.12222198 -0.06016571 -0.22291258 -0.07092659 -0.122031204
-0.051462803 0.54610574 -1.2328652 -0.07895186 -0.019010622 -0.09971272 -2.2875726 0.0018888558
0.09489444 0.00092878845 -0.1164089 -0.14672147 -0.15724665 -0.14452587 0.019576823 -0.22166425
0.1350806 0.0060531297 -0.064080074 -0.19569445 -0.09951884 -0.7173977 0.79741013 -0.15768929
-0.20899343 -0.17465 0.1039862 -0.60973215 -0.028889077 0.4776907 -0.03589095 -0.28141704
0.00056824094 -0.03476886 -0.15993951 -0.70856845 -0.10087954 -0.39904532 -0.08173859 -0.39665127
-0.08771808 0.05540695 -0.14868934 -0.1449723 0.6144258 -0.7897047 -0.1669238 -0.15686269
-0.057968844 -0.041236695 0.25530595 -0.08879231 -0.044403754 -0.16198134 0.07049204 0.00786406
-0.08065052 -0.044655852 0.098821044 -1.2948596 -0.08960254 0.05803351 -0.013418688 -0.94306135
-0.19207427 0.073176004 -0.11244948 -0.29622805 -0.31431586 -0.1528557 -0.1516929 0.025965897
-0.0013763171 -0.20886208 -0.09490432 -0.1355791 -0.20190531 -0.09570329 -0.09016054 -0.0041470644
-0.13792016 -0.084310636 -0.110315435 0.06838937 -0.10153172 -0.38243148 0.05674103 -0.2505472
-0.08047229 -0.094862185 0.044766758 -0.07014805 -0.21565443 -0.29180637 -0.25653452 -0.05021838
-0.12743576 0.0072607324 -0.053483576 -0.22605564 -0.1741322 -0.19954973 -0.25217336 -0.064282455
-0.25476533 -0.11091409 -0.09623863 -0.059689794 -0.13571884 0.039646305 -0.13493972 -0.0030997563
0.14724934 0.085076876 -0.017457854 0.06138241 -0.2258161 -0.13160865 -0.10620087 -0.3323753
-0.28651273 -0.14486617 -0.26463878 0.119352125 -0.03182783 -0.4080615 0.19622248 -0.053934693
0.084833115 -0.95035964 -0.3560405 -0.035145625 -0.18869808 -0.14826772 -0.274364 -0.06082365
0.037875682 -0.1543775 -0.19310936 0.07983579 -0.17635202 -0.17356767 0.22120053 -0.3912275
-0.271796 0.11514937 -0.2721823 -0.24291627 -0.04788628 -2.6826239 -0.00429243 -0.09140287
0.1733661 -0.0884703 0.033025827 -0.7805477 -0.19997379 -1.3117256 0.027195504 -1.393694
0.020498862 0.12598698 0.17365588 -0.37627897 -0.037597027 0.40771544 0.07015646 -0.017216804
-1.5808213 -0.13512933 -0.0031231937 -0.20754853 -0.7185031 0.23354247 -0.4276719 -0.08654325
0.04104635 0.0028009424 0.11198863 0.19035655 -0.2598188 0.019153109 -0.066965766 -0.15248828
-0.019079154 -0.15357922 -1.476927 -0.4144068 0.2311728 -0.095693804 0.20141464 -0.57523197
00000000: c7e0 0bbe b42a 30be d73d c7bd 12db 48be
00000010: cd2d 50be eb12 74be 1328 e73c aead 21be
00000020: b506 61be 153e 603d 265a 8c3d ca03 4dbe
00000030: e85b 84be f4a3 04be 7405 3dbd 2d4b 78bc
00000040: 2e60 0abe 9cf4 2b3c d441 183d 3922 ecbd
00000050: 250f 6fbc bf57 b5bd 8187 69b9 e378 74be
00000060: c5bf b9bd b744 d0bd 5494 013d 8b69 a0bb
00000070: 7535 bbbd cebf 8bbe 146f 18be bf87 0abe
00000080: f3d7 83be f687 55be 3cfd 75be 9f9c 89bc
00000090: 4699 82bd 44a6 0fbe f45b 5bbe e647 a8bd
000000a0: 8afc 8bbe 4848 983d 8c0c 07bd d4b4 1ebc
000000b0: 3882 6f3d 54b2 c23d 43e7 04be 5adf 583d
000000c0: 9ba7 dcbd ccf2 babb ff7d 2dbd 87c1 bebd
000000d0: dabd 5dbe 566c 04be f774 903d 8d9a 24bc
000000e0: 7510 76be 53ce 5ebe d417 20be 844f fabd
000000f0: 5270 76bd 3243 64be f641 91bd 7feb f9bd
00000100: a9ca 52bd 96cd 0b3f 87ce 9dbf 83b1 a1bd
00000110: 2abc 9bbc 2f36 ccbd 9767 12c0 7c93 f73a
00000120: 0458 c23d f079 733a ca67 eebd 273e 16be
00000130: 4405 21be 97fe 13be 935f a03c f4fb 62be
00000140: 9252 0a3e 5559 c63b 6a3c 83bd 2064 48be
00000150: 89d0 cbbd 60a7 37bf 1223 4c3f 4d79 21be
00000160: 6002 56be 73d7 32be b8f6 d43d 6817 1cbf
00000170: c9a8 ecbc e093 f43e 6402 13bd e515 90be
00000180: 01f6 143a cb69 0ebd 2fc7 23be be64 35bf
00000190: ef99 cebd ab4f ccbe 9066 a7bd e015 cbbe
000001a0: 89a5 b3bd 66f2 623d 0542 18be 9e73 14be
000001b0: 024b 1d3f 162a 4abf 13ee 2abe 9da0 20be
000001c0: bd70 6dbd cfe7 28bd 76b7 823e bed8 b5bd
000001d0: b6e0 35bd 70de 25be 215e 903d 42d8 003c
000001e0: 1a2c a5bd 0ee9 36bd b062 ca3d f6bd a5bf
000001f0: 8981 b7bd 8cb4 6d3d 0fda 5bbc 786c 71bf
00000200: 1eaf 44be 4ddd 953d ea4b e6bd 34ab 97be
00000210: 02ee a0be 3486 1cbe 6255 1bbe 6fb6 d43c
00000220: 8a65 b4ba f1df 55be 325d c2bd 3fd5 0abe
00000230: 44c0 4ebe 1600 c4bd 17a6 b8bd 19e4 87bb
00000240: f13a 0dbe 0eab acbd 0fed e1bd ba0f 8c3d
00000250: ddef cfbd 0fce c3be 4869 683d b947 80be
00000260: a8ce a4bd 1b47 c2bd 595d 373d c8a9 8fbd
00000270: 84d4 5cbe a567 95be 7e58 83be cab1 4dbd
00000280: 857e 02be 70eb ed3b 9811 5bbd 217b 67be
00000290: b64f 32be c456 4cbe de1c 81be 85a6 83bd
000002a0: 9a70 82be ed26 e3bd c218 c5bd 497d 74bd
000002b0: e1f9 0abe 2a64 223d a32d 0abe 4825 4bbb
000002c0: 88c8 163e c93c ae3d c603 8fbc 1f6c 7b3d
000002d0: 563c 67be 6bc4 06be d77f d9bd 182d aabe
000002e0: ccb1 92be cc57 14be bc7e 87be e36e f43d
000002f0: e65d 02bd 70ed d0be 8cee 483e a0ea 5cbd
00000300: fcbc ad3d c54a 73bf f14a b6be dcf4 0fbd
00000310: 123a 41be 7ed3 17be 7079 8cbe 3822 79bd
00000320: 8823 1b3d 2315 1ebe 76be 45be f280 a33d
00000330: a095 34be b9bb 31be 6482 623e f94e c8be
00000340: d828 8bbe 6fd3 eb3d 7a5b 8bbe 0bbf 78be
00000350: 6724 44bd 1cb0 2bc0 83a7 8cbb 6e31 bbbd
00000360: e286 313e eb2f b5bd 1746 073d f9d1 47bf
00000370: eec5 4cbe a0e6 a7bf 1bc9 de3c 9164 b2bf
00000380: 3bed a73c bb02 013e d9d2 313e a3a7 c0be
00000390: 57ff 19bd 14c0 d03e 31ae 8f3d 410a 8dbc
000003a0: 5a58 cabf 585f 0abe 7fae 4cbb 9a87 54be
000003b0: d2ef 37bf c225 6f3e d0f7 dabe 963d b1bd
000003c0: 3820 283d 0490 373b 4b5a e53d d4ec 423e
000003d0: f806 85be fbe6 9c3c 5925 89bd e325 1cbe
000003e0: e34b 9cbc df43 1dbe f20b bdbf 212d d4be
000003f0: 90b8 6c3e 1dfb c3bd a43f 4e3e 6742 13bf

nns.0.0.bias f4 [64]
-0.065384746 0.005548499 -0.07125478 -0.12582015 0.054416973 -0.041698176 -0.0546678 0.07592718
-0.11083893 -0.12065196 0.016364165 -0.07845652 0.012735153 -0.044399355 0.03277718 -0.09743812
0.035542134 0.006703918 -0.07490705 0.03134469 0.07180306 -0.077914596 0.070902474 -0.05796948
0.08883311 0.109300286 -0.0994408 -0.044711836 0.08733856 -0.1073758 0.004582152 -0.122876324
0.08925601 0.049215443 0.0365556 0.039434165 -0.026987486 0.07895759 -0.050345387 0.09132956
-0.030769592 0.018625919 -0.13161561 -0.030751966 0.12727481 0.07311069 0.01533944 0.070100054
-0.02024626 -0.05872934 -0.11087641 0.11299874 -0.115950644 -0.016270673 0.10781411 -0.01906505
-0.037583936 0.10612495 0.077992 0.018734636 -0.05238001 0.012729531 -0.013445269 -0.10462668
00000000: 70e8 85bd 2fd0 b53b 07ee 91bd ffd6 00be
00000010: 55e4 5e3d b5cb 2abd 58eb 5fbd b67f 9b3d
00000020: 85ff e2bd 6018 f7bd 240e 863c d0ad a0bd
00000030: 1aa7 503c 19dc 35bd 5d41 063d a38d c7bd
00000040: a194 113d 8aac db3b de68 99bd 4a63 003d
00000050: 7c0d 933d b091 9fbd 5135 913d 6871 6dbd
00000060: 22ee b53d d4d8 df3d 9ea7 cbbd c223 37bd
00000070: 8fde b23d d8e7 dbbd e025 963b 95a6 fbbd
00000080: dbcb b63d 2296 493d 53bb 153d b885 213d
00000090: dc14 ddbc 84b4 a13d f736 4ebd fe0a bb3d
000000a0: 8310 fcbc 6295 983c 3ec6 06be 8ceb fbbc
000000b0: 5454 023e 0fbb 953d 4652 7b3c 9e90 8f3d
000000c0: 7cdb a5bc 2d8e 70bd 2c13 e3bd e26b e73d
000000d0: 8877 edbd 134a 85bc a5cd dc3d 4f2e 9cbc
000000e0: 9df1 19bd 0a58 d93d 45ba 9f3d 6179 993c
000000f0: 6c8c 56bd 868f 503c 8c49 5cbc 8346 d6bd

nns.0.1.weight f4 [64]
0.8527631 2.1231844 0.7621609 0.7451059 1.0214934 0.540094 0.4188088 0.7569055
1.6037093 0.6758682 0.28052288 0.5979029 1.7167515 0.06227941 0.9384535 0.79254603
0.35940886 0.81337863 0.44383124 1.1105065 0.8870311 0.68518174 0.38335717 1.7067163
-0.013121139 0.8369378 0.04171544 2.0197155 2.5212033 0.5153028 1.7265838 2.303942
0.90273017 0.9251407 2.2125297 1.9347962 2.9596784 1.1014416 1.258761 0.45301825
0.87136495 0.66310513 2.5674865 0.74148786 2.053371 2.9178903 0.014108988 0.7868363
2.6737845 3.2016103 0.6986595 0.5315516 1.3502932 0.46534997 1.0542688 0.6921121
0.8799809 0.8937037 0.5215612 2.1966665 0.69506013 3.645045 -0.002861681 0.3959912
00000000: af4e 5a3f 41e2 0740 fa1c 433f 43bf 3e3f
00000010: 4cc0 823f 9a43 0a3f 1b6e d63e 8fc4 413f
00000020: 5946 cd3f b305 2d3f b2a0 8f3e 2a10 193f
00000030: 83be db3f b218 7f3d 7d3e 703f 4ce4 4a3f
00000040: 7004 b83e 9539 503f d93d e33e 1425 8e3f
00000050: 7814 633f 1268 2f3f 6447 c43e ae75 da3f
00000060: 0cfa 56bc 8e41 563f cfdd 2a3d 0543 0140
00000070: 655b 2140 e2ea 033f b300 dd3f c973 1340
00000080: 5319 673f 05d6 6c3f 169a 0d40 67a7 f73f
00000090: 5f6b 3d40 0afc 8c3f 151f a13f 02f2 e73e
000000a0: c611 5f3f 42c1 293f b351 2440 26d2 3d3f
000000b0: 6e6a 0340 b7be 3a40 6329 673c 1b6e 493f
000000c0: 491f 2b40 2fe7 4c40 59db 323f c413 083f
000000d0: 68d6 ac3f 5a42 ee3e 48f2 863f 422e 313f
000000e0: 6e46 613f c4c9 643f 0985 053f 2f96 0c40
000000f0: 76ef 313f 6b48 6940 0a8b 3bbb 5cbf ca3e

nns.0.1.bias f4 [64]
-0.40625533 0.315632 -0.41758123 0.38872933 -0.6288448 -0.5044534 -0.44216225 -0.4809403
-1.2439005 -0.45841482 -1.5647616 -1.5001621 0.5055792 -1.2738506 -0.15914874 -0.45638916
-0.099786825 -0.43366924 -1.1465485 0.7005435 -2.2959309 -0.5416469 -0.84586394 1.097312
-0.7098859 -0.4149152 -0.9601317 0.56327134 0.5290013 -0.5222049 1.0644783 0.24229558
1.0755856 0.7816194 0.6562834 0.81842285 -0.303277 -1.3702284 0.8194897 -0.7510507
-0.4218085 -0.29656333 -0.039843567 -0.3682961 -0.10137822 0.17532732 -2.1904056 -0.47054598
-0.32653946 0.7974219 -1.6146816 -1.3992938 -0.21021573 -0.774817 -1.1993408 -0.62695926
-0.5735682 -0.44773167 0.5922464 0.21221767 -0.30561718 0.6404583 -0.48735 -1.1878643
00000000: b300 d0be 849a a13e 35cd d5be 8807 c73e
00000010: f9fb 20bf dc23 01bf 1763 e2be cf3d f6be
00000020: 2238 9fbf 59b5 eabe 1c4a c8bf 5005 c0bf
00000030: a36d 013f 890d a3bf e3f7 22be d7ab e9be
00000040: 095d ccbd e509 debe 1ac2 92bf d256 333f
00000050: 88f0 12c0 5fa9 0abf 8a8a 58bf b874 8c3f
00000060: 15bb 35bf c46f d4be 31cb 75bf 8d32 103f
00000070: a16c 073f 38af 05bf d340 883f 551c 783e
00000080: caac 893f 3618 483f 3002 283f 2984 513f
00000090: 1f47 9bbe a563 afbf 14ca 513f dc44 40bf
000000a0: 49f7 d7be 26d7 97be 0233 23bd 4e91 bcbe
000000b0: 629f cfbd 0189 333e 9b2f 0cc0 67eb f0be
000000c0: 2e30 a7be d723 4c3f e3ad cebf 0f1c b3bf
000000d0: cb42 57be 685a 46bf 0084 99bf 6780 20bf
000000e0: 5ed5 12bf 163d e5be 769d 173f 974f 593e
000000f0: db79 9cbe 13f5 233f f085 f9be f00b 98bf

nns.0.1.running_mean f4 [64]
-0.53981143 -3.875432 -0.88759387 -5.5913863 -1.1232386 -1.3391994 -1.0968028 -0.564801
-2.762055 -2.0158696 1.900116 -0.89564663 -4.5292897 -0.68368524 -3.6202588 -0.57828844
2.9786792 -1.5377867 -3.5181553 -4.1463966 -1.773483 0.96163046 -2.1438713 -4.9178553
0.19146818 -1.1625323 -2.1058924 -4.401825 -6.0047255 1.3590957 -2.4792633 -3.4645703
-3.5404408 -3.5315993 -4.964712 -4.5709867 -5.6643806 5.7198157 -4.8758826 4.008284
-1.4106864 -0.8407286 -6.738116 0.61999094 -3.4774861 -3.3212295 0.14259885 -0.9167552
-5.243626 -7.0992227 4.605719 1.5549529 -2.3515158 -3.8416448 -1.0217416 -2.5114758
-1.0983351 -0.8694522 -4.944939 -5.7037053 -1.2315704 -7.3386364 1.5697778 1.918139
00000000: 1531 0abf 1407 78c0 5a39 63bf a3ec b2c0
00000010: 48c6 8fbf e36a abbf 0964 8cbf cc96 10bf
00000020: 82c5 30c0 0204 01c0 0037 f33f 1949 65bf
00000030: f1ef 90c0 ff05 2fbf 52b2 67c0 b60a 14bf
00000040: aea2 3e40 32d6 c4bf 7529 61c0 48af 84c0
00000050: 7e01 e3bf 6a2d 763f 3035 09c0 125f 9dc0
00000060: 3c10 443e dccd 94bf f1c6 06c0 c0db 8cc0
00000070: b626 c0c0 d9f6 ad3f 40ac 1ec0 85bb 5dc0
00000080: 9596 62c0 b905 62c0 ecde 9ec0 8645 92c0
00000090: 9b42 b5c0 bb08 b740 3b07 9cc0 dd43 8040
000000a0: 5f91 b4bf fd39 57bf a59e d7c0 bab7 1e3f
000000b0: 228f 5ec0 068f 54c0 6f05 123e 78b0 6abf
000000c0: c9cb a7c0 d52c e3c0 0d62 9340 b208 c73f
000000d0: 3c7f 16c0 82dd 75c0 6ec8 82bf 05bc 20c0
000000e0: 3f96 8cbf 6b94 5ebf f13c 9ec0 c184 b6c0
000000f0: 19a4 9dbf 1cd6 eac0 7bee c83f 9485 f53f

nns.0.1.running_var f4 [64]
7.519355 225.83965 21.63593 1154.0819 52.80137 55.383335 177.48796 6.329437
299.14304 48.45922 201.22246 193.72435 281.41693 91.4389 317.34497 7.066356
277.28134 57.140427 268.39233 243.27179 303.21677 47.65317 93.28987 916.2352
55.18658 21.264187 98.249626 257.61038 497.63907 353.1276 110.2195 295.8059
296.09387 209.08374 338.70135 315.78418 425.6933 422.99103 965.08826 464.31323
36.070004 10.483943 629.03253 201.47105 180.17215 309.0394 160.06308 16.33347
364.7939 663.9341 329.8089 237.41582 136.22316 194.04303 134.1319 312.62164
15.789294 17.172499 469.36047 670.3024 88.710144 1147.177 49.59969 190.15175
00000000: 8e9e f040 f3d6 6143 6216 ad41 9f42 9044
00000010: 9a34 5342 8988 5d42 eb7c 3143 bf8a ca40
00000020: 4f92 9543 3ed6 4142 f338 4943 6fb9 4143
00000030: 5eb5 8c43 b8e0 b642 28ac 9e43 971f e240
00000040: 03a4 8a43 cc8f 6442 3832 8643 9445 7343
00000050: bf9b 9743 d99c 3e42 6a94 ba42 0e0f 6544
00000060: 0fbf 5c42 0e1d aa41 cf7f c442 21ce 8043
00000070: cdd1 f843 5590 b043 6270 dc42 28e7 9343
00000080: 040c 9443 7015 5143 c659 a943 60e4 9d43
00000090: bed8 d443 da7e d343 a645 7144 1828 e843
000000a0: af47 1042 3bbe 2741 1542 1d44 9778 4943
000000b0: 122c 3443 0b85 9a43 2610 2043 f2aa 8241
000000c0: 9f65 b643 c8fb 2544 8ae7 a443 736a 6d43
000000d0: 2139 0843 040b 4243 c421 0643 924f 9c43
000000e0: f3a0 7c41 4761 8941 24ae ea43 5b93 2744
000000f0: 986b b142 aa65 8f44 1566 4642 d926 3e43

nns.0.3.weight f4 [64, 64]
0.1863445 -0.014021321 0.052925784 0.26802692 0.21086498 0.14626683 0.03633018 0.119509056
0.014300638 -0.05964621 1.0003101 0.08066524 0.40059492 0.5633949 0.46832973 0.21378507
-0.24516818 0.054185644 0.12911493 0.232602 0.23410986 -0.37994307 0.008985053 -0.40299258
0.07455706 -0.0033867299 0.036226407 0.42142776 0.39639127 0.66589594 0.37405068 0.31866294
0.5177167 0.18082477 0.3794582 0.5052243 0.20382798 0.066893004 0.19345017 0.042526882
0.06988115 0.08466523 0.45636797 0.5417302 0.29964703 0.2881977 0.14613041 0.12617193
0.12586829 0.2918755 0.36632696 0.08012766 0.14510156 0.18434489 0.4431654 0.09264651
0.10840604 0.018611636 0.52847445 0.4069065 -0.021687673 0.3303302 0.015618681 0.34813341
-0.036671218 0.3850528 0.038257327 0.11322428 0.15016015 -0.066169344 -0.28839102 0.2485885
0.7229546 0.12961848 -0.22847417 -0.25979963 0.17441508 -0.65259665 -0.4767056 0.19262701
0.006130068 0.11070739 -0.20962176 0.23382482 -0.30593333 -0.5573646 0.37020195 0.6714075
0.06934609 0.15040155 0.15105204 0.28517222 0.4848825 -0.16395132 0.18408944 0.04294186
-0.17823395 0.20270835 0.32569495 0.07604737 0.3567788 0.15510264 0.42397663 0.25340608
-0.08895413 0.021256873 0.16160326 0.0448377 0.16380638 0.17926916 -0.028208883 -0.046675675
0.22691074 0.4331355 -0.052770253 0.2951009 -0.25420713 -0.012747001 0.11251407 -0.04710392
0.0703335 0.13767453 -0.1478724 0.29702672 0.0023929547 2.586418 0.031535935 -0.24440385
0.18603136 0.3869339 0.0072392416 -0.8006613 0.07926798 0.19168536 -0.12681581 -0.09154563
-0.23902483 -0.21300828 -0.3970281 0.53882176 0.78364426 -0.4035961 0.11399752 -0.10969072
-0.27837816 -0.33300185 -0.25015777 0.72440654 0.80480325 -0.047108438 -0.28145984 -0.95728135
0.0026978848 -0.12605393 -0.084871285 0.6269456 0.344554 -0.49135414 0.9934517 -0.9199251
0.5042097 0.69280154 0.8134592 0.20254225 -1.8960114 -1.1982737 -0.73995185 -0.2906866
0.52828354 -0.034318935 0.6197724 -0.51334774 0.6526443 -1.126021 -0.20708285 0.4564238
-1.3436956 0.709149 -0.9753821 0.12132518 0.24375959 0.013815047 0.15298192 -0.7270898
-0.023042293 0.12022694 0.68813086 1.0228249 0.19432968 1.263368 -0.3877681 -0.55081034
0.09286323 -0.10933142 0.05193417 -0.13335586 0.13061003 -0.07547348 -0.07116372 -0.17572318
-0.9565923 0.005867166 0.011122741 -0.06610799 0.09239523 0.038000826 -0.17887068 -0.07115316
-0.18830001 0.073144585 -0.305285 0.04176695 -0.34752914 -0.07817888 -0.11281198 -0.1313358
0.03650111 -0.032478433 -0.14819786 0.04070375 0.1427911 -0.346864 0.040772233 -0.1291499
-0.06806543 0.3084245 0.06731279 -0.03824464 -0.08126291 -0.30098814 -0.14714183 -0.6318365
0.051711835 0.12006995 -0.06810224 -0.11237883 -0.03695188 -0.27071646 -0.17252317 0.03211508
0.004754339 0.019355584 -0.25950867 -0.66566294 -0.16070582 -0.057858255 -0.57548946 -0.16711032
-0.2481268 -0.100763 0.0054170396 -0.36211434 0.029892612 0.12352824 -0.009658341 -0.56859183
00000000: 18d1 3e3e afb9 65bc b5c8 583d d33a 893e
00000010: fdec 573e f9c6 153e f4ce 143d 2ac1 f43d
00000020: 394d 6a3c 964f 74bd 290a 803f d133 a53d
00000030: c71a cd3e a63a 103f eac8 ef3e 79ea 5a3e
00000040: 5e0d 7bbe c4f1 5d3d b436 043e 382f 6e3e
00000050: 7fba 6f3e e687 c2be 0b36 133c 0b55 cebe
00000060: 5fb1 983d e6f3 5dbb 2462 143d 61c5 d73e
00000070: ccf3 ca3e 2878 2a3f 9283 bf3e ca27 a33e
00000080: 1589 043f 212a 393e 5848 c23e 6156 013f
00000090: 48b8 503e 33ff 883d cd17 463e ab30 2e3d
000000a0: d91d 8f3d f764 ad3d 10a9 e93e d5ae 0a3f
000000b0: 566b 993e a68e 933e 36a3 153e 3733 013e
000000c0: 9ee3 003e b570 953e 358f bb3e f819 a43d
000000d0: 8195 143e e8c4 3c3e 93e6 e23e 74bd bd3d
000000e0: fc03 de3d 6e77 983c 1a4a 073f 0c56 d03e
000000f0: 59aa b1bc 0a21 a93e 7fe5 7f3c 8b3e b23e
00000100: 8f34 16bd a425 c53e b7b3 1c3d 22e2 e73d
00000110: 95c3 193e cb83 87bd fda7 93be fc8d 7e3e
00000120: 8d13 393f b5ba 043e 22f5 69be 7504 85be
00000130: de99 323e 9310 27bf c212 f4be 0440 453e
00000140: bdde c83b 8eba e23d 16a7 56be c66f 6f3e
00000150: 4ba3 9cbe 72af 0ebf 1c8b bd3e 5de1 2b3f
00000160: 5305 8e3d dd02 1a3e 63ad 1a3e 1802 923e
00000170: 8542 f83e dbe2 27be f181 3c3e cee3 2f3d
00000180: f682 36be c792 4f3e 7dc1 a63e b9be 9b3d
00000190: b6ab b63e 3ad3 1e3e 7713 d93e 71be 813e
000001a0: 952d b6bd e522 ae3c 537b 253e bca7 373d
000001b0: dcbc 273e 5692 373e 5116 e7bc fe2e 3fbd
000001c0: 4a5b 683e f0c3 dd3e 9f25 58bd 7717 973e
000001d0: 7027 82be ccd8 50bc c76d e63d 0af0 40bd
000001e0: 030b 903d 8dfa 0c3e dd6b 17be e313 983e
000001f0: 1ed3 1c3b df87 2540 d32b 013d 0145 7abe
00000200: 017f 3e3e 331c c63e 2937 ed3b 24f8 4cbf
00000210: 4057 a23d 2b49 443e 01dc 01be 467c bbbd
00000220: edc2 74be d81e 5abe 4447 cbbe 39f0 093f
00000230: e99c 483f 26a4 cebe 8877 e93d 87a5 e0bd
00000240: 9587 8ebe 387f aabe ae14 80be b572 393f
00000250: 9607 4e3f c7f4 40bd 811b 90be 6410 75bf
00000260: ffce 303b 4814 01be ffd0 adbd 827f 203f
00000270: 6269 b03e c592 fbbe da52 7e3f 3680 6bbf
00000280: e313 013f 715b 313f dd3e 503f 3c67 4f3e
00000290: 80b0 f2bf 0861 99bf 7c6d 3dbf e0d4 94be
000002a0: 973d 073f 0392 0cbd 67a9 1e3f c26a 03bf
000002b0: b213 273f 7521 90bf 870d 54be 61b0 e93e
000002c0: 38fe abbf ca8a 353f a4b2 79bf 5679 f83d
000002d0: 1d9c 793e 8258 623c 4ba7 1c3e 8f22 3abf
000002e0: 31c3 bcbc 8b39 f63d 5829 303f edeb 823f
000002f0: 5cfe 463e 0bb6 a13f 8a89 c6be e801 0dbf
00000300: 142f be3d 27e9 dfbd edb8 543d 708e 08be
00000310: a3be 053e d791 9abd 49be 91bd c7f0 33be
00000320: 3ce3 74bf 5b41 c03b 283c 363c a063 87bd
00000330: b639 bd3d c1a6 1b3d e029 37be bfb8 91bd
00000340: b8d1 40be d4cc 953d 514e 9cbe d213 2b3d
00000350: 57ef b1be 401c a0bd f809 e7bd e47c 06be
00000360: 3082 153d 1b08 05bd 2ec1 17be fab8 263d
00000370: d537 123e 2998 b1be c900 273d df3f 04be
00000380: e365 8bbd d1e9 9d3e 4adb 893d 69a6 1cbd
00000390: 2b6d a6bd 1e1b 9abe 59ac 16be 09c0 21bf
000003a0: cacf 533d 3ce7 f53d 3079 8bbd df26 e6bd
000003b0: db5a 17bd 599b 8abe eaa9 30be 1a8b 033d
000003c0: 49ca 9b3b 9a8f 9e3c 52de 84be e368 2abf
000003d0: 1190 24be c7fc 6cbd 4753 13bf f81e 2bbe
000003e0: f414 7ebe d55c cebd 6c81 b13b 0d67 b9be
000003f0: 5ae1 f43c 60fc fc3d 053e 1ebc 3c8f 11bf

nns.0.3.bias f4 [64]
-0.108101346 -0.12413168 -0.17667177 -0.069446795 0.07200878 0.04109634 0.014017223 0.047187548
0.05943168 0.09029831 0.07631289 -0.13933164 0.05436824 0.06984301 0.09458006 0.01052106
-0.04328735 -0.15319854 0.09109328 -0.07793751 -0.0109356465 -0.09342912 0.0021147279 -0.05758274
0.16131352 0.27820364 0.05788034 -0.12302638 -0.077878475 0.0432235 -0.09766188 -0.07234786
-0.05343774 0.094480194 0.015735634 -0.06411898 -0.047803756 -0.0026971165 0.10375041 0.0047444934
0.022053009 -0.1305544 0.09550083 0.14774904 0.09063617 -0.05865109 0.10774041 0.04878493
0.11683428 0.098375455 0.006395772 -0.07168344 -0.120821275 -0.058224663 -0.031812705 0.02466256
-0.033424437 0.12252454 0.03722793 -0.018424964 0.015891334 -0.00018455663 0.011200218 -0.091772765
00000000: 3d64 ddbd c038 febd 72e9 34be 1f3a 8ebd
00000010: 5779 933d a354 283d 7fa8 653c bb47 413d
00000020: a26e 733d 52ee b83d ef49 9c3d f4ac 0ebe
00000030: 3bb1 5e3d da09 8f3d 31b3 c13d 8660 2c3c
00000040: 144e 31bd 14e0 1cbe 1d8f ba3d b49d 9fbd
00000050: 6d2b 33bc c457 bfbd 3f97 0a3b e1db 6bbd
00000060: 5f2f 253e b570 8e3e ef13 6d3d 41f5 fbbd
00000070: c07e 9fbd 200b 313d f402 c8bd 1d2b 94bd
00000080: 88e1 5abd d57e c13d 04e8 803c d050 83bd
00000090: dfcd 43bd 1bc2 30bb 187b d43d b277 9b3b
000000a0: 83a8 b43c 0db0 05be f095 c33d 864b 173e
000000b0: 759f b93d 203c 70bd 01a7 dc3d b5d2 473d
000000c0: d046 ef3d 1279 c93d a093 d13b c4ce 92bd
000000d0: 2571 f7bd fc7c 6ebd 0a4e 02bd 2309 ca3c
000000e0: 10e8 08bd 25ee fa3d 507c 183d f3ef 96bc
000000f0: 8b2e 823c 8b85 41b9 1f81 373c 5cf3 bbbd

nns.0.4.weight f4 [64]
0.24648474 0.62630534 1.4281346 0.28319946 0.19248465 0.26215714 0.27542856 1.6993406
0.8203798 -0.009008132 0.23038219 0.28357622 0.96913844 0.30847877 -0.002487986 1.355003
0.8974529 0.6676423 0.015172992 0.35131004 0.14520794 0.5939118 0.40817827 0.3831596
1.850253 1.2710057 1.7862169 0.26590812 0.36852807 0.28503612 -0.007095435 0.42956507
0.27824745 0.009879828 1.0323699 1.1933092 0.045436606 0.1697373 1.1619799 0.713673
0.6240023 0.40455392 1.1324085 -0.033935715 0.32885 0.22945324 0.25329372 1.0172455
0.018613594 0.8411199 -0.021899147 0.26768368 -0.1026472 0.9179562 0.3388429 0.00024453207
0.671238 -0.07521135 1.3127449 0.297547 0.33679202 0.37719604 0.10437855 0.21723601
00000000: 7f66 7c3e 8c55 203f 1dcd b63f 85ff 903e
00000010: b21a 453e 7639 863e f904 8d3e fe83 d93f
00000020: 6904 523f d896 13bc 4fe9 6b3e e730 913e
00000030: 7519 783f eef0 9d3e 7b0d 23bb bd70 ad3f
00000040: 79bf 653f 9bea 2a3f 2498 783c e9de b33e
00000050: 64b1 143e 9b0a 183f befc d03e 7f2d c43e
00000060: 17d5 ec3f 51b0 a23f c1a2 e43f 1c25 883e
00000070: b6af bc3e 41f0 913e d380 e8bb f4ef db3e
00000080: 7376 8e3e 01df 213c b224 843f 5bbe 983f
00000090: bc1b 3a3d 9dcf 2d3e c2bb 943f 46b3 363f
000000a0: 9dbe 1f3f b121 cf3e c3f2 903f 2d00 0bbd
000000b0: 075f a83e caf5 6a3e b7af 813e 1a35 823f
000000c0: 897b 983c a253 573f d765 b3bc d60d 893e
000000d0: b238 d2bd 2dff 6a3f d17c ad3e 8a34 8039
000000e0: 41d6 2b3f 6908 9abd 0608 a83f 1558 983e
000000f0: 0170 ac3e d71f c13e 6cc4 d53d 1e73 5e3e
