result/08.24.2022_20.26.17/config_79fold_0_state_dict.pt (torch, 153628 bytes, 92 tensors)

first_h.0.weight f4 [64, 3]
0	0xbf12436f	-0.57134145
1	0xbdf4ea1d	-0.11958716
2	0x3ee2ce28	0.4429791
3	0xbf0fa9d2	-0.561185
4	0xba1dae03	-0.00060150045
5	0x3dd7e25a	0.1054122
6	0x3ef5ff6c	0.48046434
7	0xbe353c33	-0.17698745
8	0x3e0f2af6	0.13981232
9	0xbe193b4f	-0.1496403
10	0x3e7f115c	0.24908966
11	0x3f5d74e2	0.86506474
12	0xbeac14f1	-0.33609727
13	0xbe2209d4	-0.15824062
14	0x3e350135	0.17676242
15	0xbe6a7c0a	-0.2289888
16	0xbe683b76	-0.22678933
17	0x3eeae3a9	0.45876816
18	0x3f871cff	1.0555724
19	0x3f3eaedc	0.74485564
20	0x3f42e668	0.7613282
21	0xbde82ef7	-0.11337083
22	0x3f0945ec	0.5362232
23	0x3e77dc35	0.24205096
24	0xbcc3a0e9	-0.023880439
25	0x3db63558	0.08896893
26	0x3e91bf89	0.28466442
27	0xbe03b986	-0.1286374
28	0xbe7d5d77	-0.24742685
29	0x3e2947b4	0.16531259
30	0x3f934e78	1.1508322
31	0xbe8ba3eb	-0.27273497
32	0xbebc1d55	-0.3674113
33	0xbe731a43	-0.23740487
34	0x3ee269e4	0.44221413
35	0xbf03e870	-0.51526546
36	0x3eca1f68	0.39477086
37	0xbde63497	-0.112404995
38	0x3b8bade2	0.004262672
39	0xbe280016	-0.16406283
40	0xbe9f43b4	-0.3110634
41	0x3e9fa987	0.31184027
42	0x3e1c4314	0.15259963
43	0xbf0edb66	-0.55803525
44	0xbf1261e2	-0.5718061
45	0xbd66a33e	-0.056308024
46	0x3e8c18f6	0.27362794
47	0xbec4e3e0	-0.38455105
48	0xbd614c5d	-0.055004466
49	0x3f4ebf21	0.8076039
50	0x3f76c461	0.963934
51	0x3ebc01e3	0.3672019
52	0x3de488a2	0.11158873
53	0xbe53e593	-0.20693044
54	0xbd91008e	-0.07080184
55	0x3e820d20	0.2540064
56	0xbe784132	-0.2424362
57	0x3e6ef209	0.23334517
58	0x3f25eab5	0.6481126
59	0x3e3d3d10	0.18480325
60	0xbe8fc0a8	-0.28076673
61	0xbec2c396	-0.38039845
62	0xbf167634	-0.58774114
63	0xbe87f9b5	-0.265577
64	0x3e07864c	0.13234824
65	0x3e0a632b	0.13514392
66	0xbe63ce78	-0.2224673
67	0x3e247a50	0.16062284
68	0xbe462c4b	-0.19352834
69	0x3f0b8990	0.5450678
70	0x3f42f365	0.7615264
71	0xbef0ce56	-0.47032422
72	0xbd98c0dd	-0.07458661
73	0x3da7b175	0.08188144
74	0xbec86a7c	-0.3914374
75	0xbe830fde	-0.25598043
76	0xbe6e801b	-0.23291056
77	0xbeab84ef	-0.33499858
78	0xbdf18769	-0.117934056
79	0x3e7bdb79	0.24595441
80	0xbf370ebb	-0.7150685
81	0xbf056fc6	-0.5212368
82	0xbe929e48	-0.28636384
83	0xbef5d0d4	-0.48010886
84	0xbe676493	-0.2259696
85	0x3f413b9e	0.75481594
86	0x3ed01238	0.406389
87	0x3d14d302	0.036334045
88	0xbf1e413f	-0.6181831
89	0xbcb49efc	-0.022048466
90	0x3e061ca2	0.1309686
91	0xbdff0201	-0.12451554
92	0xbed82224	-0.42213547
93	0xbe322e1c	-0.17400402
94	0x3e33649f	0.17518853
95	0x3ecbd855	0.39813486
96	0xbe2580df	-0.16162442
97	0x3c52c380	0.012863994
98	0x3f1bdbc2	0.608822
99	0x3f17746b	0.59162015
100	0x3f23f9c8	0.6405301
101	0x3f6394f8	0.88899183
102	0xbdf8d25d	-0.121494986
103	0xbe4fa978	-0.20279491
104	0xbf05b635	-0.5223115
105	0x3ee21e37	0.44163677
106	0x3dee7703	0.116437934
107	0xbefe12c1	-0.49623683
108	0x3f2c40cd	0.6728638
109	0xbe576f1d	-0.2103848
110	0xbf208a39	-0.6271091
111	0xbe0077db	-0.12545721
112	0xbe76c6f0	-0.24099326
113	0x3ef4e3e0	0.47830105
114	0xbec99d60	-0.3937788
115	0x3ee89d25	0.45432392
116	0x3e46f068	0.19427645
117	0x3f03180e	0.5120858
118	0x3f1b9e1e	0.6078814
119	0x3ef3683a	0.47540456
120	0xbf3b4e68	-0.73166513
121	0x3d1c57d8	0.03816971
122	0x3d961129	0.07327492
123	0xbe4a99f3	-0.1978529
124	0xbd80f151	-0.062960275
125	0xbdaf1884	-0.08549598
126	0xbe63671e	-0.22207305
127	0xbf062164	-0.523947
128	0xbebc6717	-0.367974
129	0x3dfe6fa5	0.12423638
130	0x3f254d00	0.6457062
131	0x3f55749e	0.8338107
132	0xbefba368	-0.49148107
133	0x3cb9f4cf	0.022699742
134	0xbba30106	-0.0049744872
135	0x3e824cb2	0.2544914
136	0xbeb1ccee	-0.3472666
137	0xbecd1a8b	-0.40059313
138	0xbe11ebec	-0.14250153
139	0xbf22fb83	-0.63665026
140	0xbe866075	-0.26245466
141	0x3ebc1cf7	0.36740848
142	0x3f3f72f3	0.74784774
143	0x3d524e71	0.05134434
144	0xbe615a81	-0.22007181
145	0xbe97dd4d	-0.29661027
146	0xbcd65502	-0.026163582
147	0xbd6d96d9	-0.058005188
148	0x3f80c593	1.0060295
149	0x3eefc868	0.46832585
150	0x3ea699a4	0.32539093
151	0x3f5cdbce	0.86272895
152	0xbe549c8d	-0.20762844
153	0xbe48923a	-0.19587031
154	0xbeaad48c	-0.33365285
155	0xbe70750b	-0.23482148
156	0x3e6e042f	0.23243783
157	0x3d29db91	0.04146916
158	0xbeb44aa7	-0.35213205
159	0x3d50f2ee	0.051012926
160	0x3f08630b	0.5327613
161	0x3e7d01cc	0.24707717
162	0xbd47fd9e	-0.048825853
163	0x3da84c28	0.08217651
164	0xbe34e2b6	-0.17664608
165	0x3ecd054b	0.400431
166	0x3d9001de	0.07031606
167	0xbd05f6c8	-0.032706052
168	0xbe648a3c	-0.22318357
169	0x3dcab1cd	0.09897194
170	0xbf118591	-0.5684443
171	0xbe78b1be	-0.24286553
172	0xbe503591	-0.20332934
173	0x3d9e50a8	0.07730228
174	0xbec2bc57	-0.38034317
175	0x3e19aa60	0.15006399
176	0x3ed4a698	0.4153335
177	0x3dd0a61d	0.101879336
178	0xbf5a2cf6	-0.85224855
179	0xbedcb511	-0.43106893
180	0x3fa4ef05	1.2885443
181	0x3f63934c	0.8889663
182	0xbe0e26d5	-0.13882
183	0x3e1dc59e	0.15407416
184	0xbd5fa15d	-0.054597247
185	0xbeb89ed0	-0.36058664
186	0x3e9318cd	0.2872986
187	0xbe8badf8	-0.27281165
188	0xbe026b33	-0.12736206
189	0x3d8275ac	0.063701004
190	0xbf00861b	-0.5020463
191	0xbee0ba1a	-0.43891984

first_h.0.bias f4 [64]
0	0x3e1aa505	0.15102012
1	0xbd7f0da6	-0.062268876
2	0xbca8c898	-0.020603463
3	0x3db8f39e	0.09030841
4	0x3e141574	0.14461309
5	0xbe97a0ad	-0.29614773
6	0xbe39a7b2	-0.18130377
7	0xbedd51ec	-0.43226564
8	0xbd507784	-0.05089523
9	0xbd86bdf5	-0.065792
10	0x3eb69a31	0.35664514
11	0x3e20c8ca	0.15701595
12	0xbe67716a	-0.22601858
13	0x3eb76b26	0.35823935
14	0xbe2c7a42	-0.16843513
15	0xbda3da59	-0.08000631
16	0xbeba8803	-0.36431894
17	0x3eae6357	0.34060165
18	0xbde6b833	-0.11265602
19	0x3ea7fcd3	0.32810077
20	0xbf04d2f7	-0.51884407
21	0x3f05b4a4	0.5222876
22	0x3f017168	0.5056367
23	0xbee2bc5e	-0.44284338
24	0x3f11068a	0.566506
25	0x3e976cf4	0.29575312
26	0x3dbfb25d	0.09360192
27	0x3ea71b25	0.32637897
28	0xbe421036	-0.18951496
29	0x3ec405d6	0.38285702
30	0xbf02c95f	-0.5108852
31	0xbf0c586e	-0.54822433
32	0x3f0291f5	0.5100396
33	0xbee6008c	-0.44922292
34	0xbee228f3	-0.44171867
35	0x3df60c5a	0.120140746
36	0x3c5872e1	0.013210983
37	0x3e820bb1	0.25399545
38	0xbe1d4d23	-0.15361457
39	0x3edfc8e8	0.43707967
40	0x3e14949f	0.1450982
41	0x3d24a33a	0.040194727
42	0xbe957d27	-0.29197046
43	0x3f0aceab	0.542216
44	0xbe1af58c	-0.15132731
45	0x3c3430c2	0.010997953
46	0xbea1241b	-0.3147286
47	0xbdc73b62	-0.09728123
48	0x3ed85e71	0.42259553
49	0x3ef76d9a	0.48325807
50	0xbed08a68	-0.40730596
51	0xbc8181bf	-0.015808938
52	0xbe5350e4	-0.20636326
53	0xbe8ed236	-0.27894753
54	0xbd89ced4	-0.067289025
55	0x3a908d6e	0.0011028477
56	0xbe26a2cb	-0.16273038
57	0xbd27b2a4	-0.04094185
58	0xbefc82d9	-0.4931858
59	0x3db405d4	0.08790174
60	0x3e1905e9	0.14943661
61	0x3eed6fd3	0.46374378
62	0x3f090f05	0.53538543
63	0xbf0eafb9	-0.5573688

first_h.1.weight f4 [64]
0	0x3f8370ba	1.0268776
1	0x3f4d5eb6	0.8022264
2	0x3f822084	1.0166173
3	0x3f8ebd03	1.1151432
4	0x3f6a9e28	0.9164758
5	0x3f5bbae2	0.85832036
6	0x3f88cf69	1.0688297
7	0x3f8d5150	1.104044
8	0x3f8f1a7b	1.1179956
9	0x3f6679da	0.9002968
10	0x3f860300	1.0469666
11	0x3f78bc6e	0.9716252
12	0x3f821dfd	1.0165402
13	0x3f57adcc	0.8424957
14	0x3f5b24e5	0.8560317
15	0x3f81b5f9	1.0133659
16	0x3f5fdb62	0.87444127
17	0x3f622eb1	0.88352495
18	0x3f55aa2c	0.83462787
19	0x3f859660	1.0436516
20	0x3f842799	1.0324584
21	0x3f82a9bc	1.0208049
22	0x3f5b3c17	0.85638565
23	0x3f767c6a	0.9628359
24	0x3f428b3b	0.759937
25	0x3f4b9446	0.7952312
26	0x3f6aa0bc	0.9165151
27	0x3f78ef8e	0.9724053
28	0x3f719d56	0.943807
29	0x3f4184f6	0.7559351
30	0x3f29e5c8	0.66366243
31	0x3f5e66f8	0.8687587
32	0x3f7ddefb	0.99168366
33	0x3f5e48b8	0.8682971
34	0x3f80cc3d	1.0062329
35	0x3f49f35e	0.78886974
36	0x3f62aa8d	0.8854149
37	0x3f81d19e	1.0142095
38	0x3f847c1e	1.0350378
39	0x3f72c3fc	0.948303
40	0x3f743251	0.95389277
41	0x3f2ba12f	0.6704282
42	0x3f735bbf	0.9506187
43	0x3f6b4329	0.91899353
44	0x3f557828	0.8338647
45	0x3f2ff09a	0.68726504
46	0x3f819b37	1.0125493
47	0x3f588fe0	0.84594536
48	0x3f69cb6d	0.9132603
49	0x3f7ca17a	0.98683894
50	0x3f852cb2	1.0404265
51	0x3f6530e3	0.8952772
52	0x3f74457f	0.9541854
53	0x3f41b02d	0.7565945
54	0x3f123177	0.5710673
55	0x3f6e483d	0.93078977
56	0x3f4e18f5	0.8050683
57	0x3f854195	1.0410639
58	0x3f71deca	0.94480574
59	0x3f3af4f3	0.7303001
60	0x3f4b27d9	0.7935768
61	0x3f47389d	0.7782076
62	0x3f61343a	0.87970316
63	0x3e56f133	0.20990448

first_h.1.bias f4 [64]
0	0xbbcca4e6	-0.0062452434
1	0xbe4e8988	-0.20169652
2	0xbf8aee76	-1.0854023
3	0x3c4b9de5	0.012427782
4	0xbd4ef526	-0.05052676
5	0xbd45bf80	-0.04827833
6	0xbe677849	-0.22604479
7	0xbe251b2b	-0.16123645
8	0xbede78fd	-0.43451682
9	0x3dde488a	0.108536795
10	0xbfb4ee3d	-1.4135205
11	0x3ef24f3e	0.47326082
12	0xbf1a12f0	-0.60185146
13	0xbe055922	-0.13022283
14	0xbde83738	-0.11338657
15	0xbe4c75f0	-0.19966865
16	0xbea0502a	-0.3131116
17	0xbec644a6	-0.3872425
18	0xbec1911e	-0.37806028
19	0xbed7452e	-0.42044967
20	0xbf4d47ee	-0.8018788
21	0x3f8b4019	1.0878936
22	0x3ee07a4a	0.438433
23	0xbe79f95a	-0.24411526
24	0xbf160871	-0.5860663
25	0xbd49762e	-0.04918497
26	0xbee8bb51	-0.4545541
27	0x3e045eb6	0.12926754
28	0xbe4a7d04	-0.19774252
29	0xbe2344c6	-0.15944204
30	0xbe7bb141	-0.24579336
31	0xbe379676	-0.1792849
32	0xbea0080d	-0.31256142
33	0xbcf5a039	-0.029983627
34	0xbc4524c8	-0.012032695
35	0xbdc0645f	-0.09394144
36	0xbeeda8a7	-0.46417734
37	0x3ddbfd2f	0.1074165
38	0x3f46d6cf	0.7767152
39	0xbebe14e7	-0.37125322
40	0x3e336fd2	0.17523125
41	0xbe1c94df	-0.15291165
42	0xbf551898	-0.8324065
43	0xbedee69d	-0.4353532
44	0xbe360186	-0.17774019
45	0x3e90f569	0.28312233
46	0x3e7eb8bc	0.24875158
47	0xbe6ed3ce	-0.23322985
48	0xbe80eddb	-0.2518147
49	0xbe183fe3	-0.14868121
50	0xbf2aa2c4	-0.6665461
51	0x3df0f4bb	0.11765429
52	0xbfa7131a	-1.3052704
53	0xbabb7bd2	-0.0014303869
54	0xbe2723b9	-0.16322221
55	0xbe0e17f4	-0.13876325
56	0x3c873577	0.016504986
57	0xbe2379e5	-0.15964468
58	0xbd217d3c	-0.039426073
59	0x3ef9e76c	0.48809373
60	0xbed1f26d	-0.4100527
61	0xbf1cd8cd	-0.6126831
62	0x3e803a16	0.25044316
63	0xbee124b9	-0.4397333

first_h.1.running_mean f4 [64]
0	0xc95afd96	-896985.4
1	0xc95711cd	-880924.8
2	0x493822d9	754221.56
3	0xc8656c06	-234928.1
4	0xc900de6a	-527846.6
5	0xc8af8e07	-359536.22
6	0x49ca563f	1.6575439e+06
7	0xc82dd851	-178017.27
8	0xc712e819	-37608.098
9	0xc84547fe	-202015.97
10	0x49dc7bdc	1.8062035e+06
11	0xc8b747ba	-375357.8
12	0x491702dd	618541.8
13	0xc87b8911	-257572.27
14	0x4869f561	239573.52
15	0xc7ad2482	-88649.016
16	0xc7a88974	-86290.91
17	0x490cb15a	576277.6
18	0xc7d92166	-111170.8
19	0x48b2dd05	366312.16
20	0xc8d740c0	-440838.0
21	0xc8cc1f37	-418041.72
22	0xc8aa8ba7	-349277.22
23	0x4950ddd3	855517.2
24	0xc7e4bada	-117109.7
25	0xc8c40f58	-401530.75
26	0xc834d3d8	-185167.38
27	0xc94740ea	-816142.6
28	0xc8ad3b2a	-354777.3
29	0x475fa1af	57249.684
30	0x484901d7	205831.36
31	0xc8856093	-273156.6
32	0xc877d846	-253793.1
33	0x4962b52c	928594.75
34	0xc83a7bb7	-190958.86
35	0x492938ef	693134.94
36	0x4980f142	1.0562962e+06
37	0xc8406601	-197016.02
38	0xc916ffd3	-618493.2
39	0x49445327	804146.44
40	0xc98c4133	-1.1489664e+06
41	0xc897ae91	-310644.53
42	0xc8aa4084	-348676.12
43	0x483e73e6	195023.6
44	0xc93c395f	-770965.94
45	0x48c2e404	399136.12
46	0xc858a4dd	-221843.45
47	0x490cb65a	576357.6
48	0xc8a8fb73	-346075.6
49	0xc7b1a952	-90962.64
50	0x48f95f77	510715.72
51	0xc8963c0a	-307680.3
52	0x48b239e7	365007.22
53	0x479c782d	80112.35
54	0xc79598b1	-76593.38
55	0x491964c7	628300.44
56	0xc8ab1657	-350386.72
57	0xc8ba41e1	-381455.03
58	0xc911c8aa	-597130.6
59	0x481d6883	161186.05
60	0x49f6e650	2.022602e+06
61	0x486f0e4c	244793.19
62	0x48dc4350	451098.5
63	0x47c351d3	100003.65

first_h.1.running_var f4 [64]
0	0x558f69a0	1.9710477e+13
1	0x558a5365	1.9011348e+13
2	0x554ac91f	1.3935322e+13
3	0x539d68f5	1.3521415e+12
4	0x54c6a4e4	6.8253594e+12
5	0x54385355	3.1666882e+12
6	0x5674d94e	6.730354e+13
7	0x5334c576	7.7640696e+11
8	0x51011a96	3.465605e+10
9	0x5368c61a	9.99756e+11
10	0x5691616c	7.9923805e+13
11	0x5448eb01	3.4517447e+12
12	0x55086377	9.372549e+12
13	0x53bd33b0	1.625232e+12
14	0x53a3b469	1.4062129e+12
15	0x52334a26	1.9251079e+11
16	0x5229f4c6	1.8248902e+11
17	0x54ecc6b1	8.135566e+12
18	0x528cfc7f	3.027658e+11
19	0x543f52f5	3.2869222e+12
20	0x548a8d11	4.7605775e+12
21	0x547931c5	4.2811274e+12
22	0x542df6c1	2.9886767e+12
23	0x558275f9	1.79304e+13
24	0x529c71c1	3.359617e+11
25	0x5465e63c	3.9496408e+12
26	0x53438f0e	8.399187e+11
27	0x556d75d7	1.6318148e+13
28	0x54337e05	3.0836536e+12
29	0x51959c04	8.0320954e+10
30	0x5371a928	1.0379251e+12
31	0x53d4ceb0	1.8280014e+12
32	0x53b7b391	1.5779833e+12
33	0x5599afc4	2.1122523e+13
34	0x534ff819	8.932206e+11
35	0x552b44d7	1.176951e+13
36	0x55c6e156	2.733389e+13
37	0x535d64ac	9.5087677e+11
38	0x55085f1a	9.371377e+12
39	0x556681b1	1.5840293e+13
40	0x55eb4b6c	3.2338646e+13
41	0x54099936	2.363924e+12
42	0x542d5a46	2.9781755e+12
43	0x5358e8e1	9.3162e+11
44	0x5553e434	1.4561067e+13
45	0x54632dec	3.902912e+12
46	0x538c54fd	1.2054426e+12
47	0x54ecd473	8.1374127e+12
48	0x542ac614	2.9338706e+12
49	0x523cd630	2.0276183e+11
50	0x54b9f4fd	6.3894334e+12
51	0x5406fb46	2.3189651e+12
52	0x543dfc4e	3.2639272e+12
53	0x521264f6	1.5718977e+11
54	0x5205d96a	1.4371956e+11
55	0x550cbad2	9.670876e+12
56	0x542f0fd4	3.0075393e+12
57	0x544f7acd	3.564474e+12
58	0x54fe3919	8.735037e+12
59	0x5314396e	6.366187e+11
60	0x56b64c97	1.0022003e+14
61	0x53aaf5b9	1.468534e+12
62	0x54911464	4.984899e+12
63	0x5264342d	2.4503198e+11

first_h.3.weight f4 [64, 64]
0	0x3ed367d3	0.4129015
1	0x3e5fdf5d	0.2186255
2	0x3ee0e70f	0.43926284
3	0x3cfde951	0.030995043
4	0x3e8f1d35	0.2795197
5	0x3e55386f	0.20822309
6	0x3d5de5f1	0.054174367
7	0x3e8b040c	0.27151525
8	0x3e251717	0.1612209
9	0x3edc9e73	0.43089637
10	0x3f1f7863	0.6229307
11	0x3f32901c	0.69751143
12	0x3df696a8	0.12040454
13	0x3ec088e7	0.37604448
14	0x3ec7fade	0.39058584
15	0xbd510170	-0.05102676
16	0x3e1463ac	0.14491147
17	0x3e2aed2c	0.16692036
18	0x3e35f9e5	0.17771108
19	0x3e83590f	0.25653884
20	0x3e19d526	0.15022716
21	0x3f838ea3	1.0277904
22	0x3f49991b	0.78749245
23	0x3dc83b8e	0.09776984
24	0x3dd9aad0	0.10628283
25	0x3edf5922	0.4362269
26	0x3e33d446	0.17561445
27	0x3f167a34	0.5878022
28	0x3e91e035	0.2849137
29	0x3e1f5a2f	0.15561746
30	0x3e0cef14	0.13763076
31	0x3ea95754	0.3307444
32	0x3e1b80fb	0.15185921
33	0xbd4dc72c	-0.050238773
34	0x3f0965f5	0.536712
35	0xbe765c3d	-0.24058624
36	0x3e0a9b3d	0.13535781
37	0x3f2401c4	0.64065194
38	0x3f833e90	1.0253468
39	0x3e12a8f7	0.14322267
40	0x3ef7bb23	0.4838496
41	0x3e07e527	0.13271008
42	0x3e91f73f	0.28508946
43	0x3e00a074	0.12561208
44	0x3eb3257d	0.3498954
45	0x3e123463	0.14277796
46	0x3f15fadd	0.5858591
47	0x3d107618	0.035268873
48	0x3eaf7d1a	0.34275132
49	0x3b52a91d	0.0032144256
50	0x3e838732	0.25689083
51	0x3efd5cba	0.49484807
52	0x3f0e6f55	0.5563863
53	0xbd938fec	-0.07205185
54	0x3cba210f	0.022720842
55	0xbc1d7887	-0.0096112555
56	0x3efb1e75	0.49046674
57	0x3d4bc034	0.049743846
58	0x3ec3847f	0.38187024
59	0x3e8a9b6a	0.27071697
60	0x3e10f1aa	0.14154688
61	0x3e5b0f54	0.21392566
62	0x3f6a40ba	0.91505015
63	0x3e602957	0.2189077
64	0xbe19a861	-0.15005638
65	0xbe0124e6	-0.12611732
66	0x3e0acb8b	0.13554208
67	0xbd185bf1	-0.037197057
68	0xbdfc10b8	-0.12307876
69	0x3dabd480	0.083901405
70	0x3d71ef9c	0.0590664
71	0x3d2194a9	0.039448414
72	0x3e2cce26	0.16875514
73	0xbcd6a869	-0.026203351
74	0x3e2a4b65	0.16630323
75	0x3d1ca455	0.038242657
76	0x3d5bb673	0.053640794
77	0xbe336914	-0.17520553
78	0xbd477c98	-0.048702806
79	0x3df850e1	0.121248014
80	0x3d7b0878	0.061287373
81	0xbbdc9ffe	-0.0067329397
82	0xbdb7a80f	-0.089676015
83	0x3e437904	0.19089133
84	0xbc9bd28b	-0.019021293
85	0x3cea0a88	0.028569475
86	0x3be7ad87	0.0070702466
87	0x3ccc86e6	0.024966668
88	0xbc5ef8dd	-0.013609138
89	0x3d0997be	0.03359198
90	0xbd57658c	-0.052587077
91	0xbdcb9481	-0.09940434
92	0x3d83dd44	0.064386874
93	0x3da1a026	0.07891874
94	0x3d4c6535	0.049901206
95	0xbdfb1c62	-0.12261273
96	0x3cad94d5	0.021189133
97	0x3d8711e5	0.0659521
98	0xbba57ed8	-0.0050505213
99	0x3dd77be6	0.105216786
100	0x3dbb68b8	0.09150833
101	0xbd9180f6	-0.071046755
102	0x3d97c26a	0.074101284
103	0x3d562589	0.05228189
104	0xbe030fc4	-0.12798983
105	0xbb167ab9	-0.0022961332
106	0x3e0e858b	0.1391813
107	0x3d095ec8	0.033537656
108	0x3c905f57	0.017623587
109	0xbd1dfcb4	-0.038571075
110	0xbd5718a1	-0.052513722
111	0x3e21585a	0.1575636
112	0xbd35784d	-0.04430418
113	0x3e22a6d0	0.15883946
114	0x3e258bcb	0.16166608
115	0x3d35440d	0.04425435
116	0xbcfae001	-0.030624392
117	0xbde03d92	-0.109492436
118	0xbdb365bc	-0.08759639
119	0x3e0ffd97	0.1406158
120	0xbd63f656	-0.055654846
121	0x3dfcd4b3	0.12345257
122	0xbda1e01e	-0.07904075
123	0x3d249662	0.04018248
124	0x3e0320cb	0.12805478
125	0x3ada058c	0.0016633733
126	0x3da74e99	0.08169288
127	0xbd9aa88c	-0.07551679
128	0xbd541c41	-0.051784758
129	0xbc1d3b56	-0.009596666
130	0xbcbab5a1	-0.022791686
131	0xbd72a616	-0.059240423
132	0xbd2a21b3	-0.041536044
133	0x3da960fc	0.082704514
134	0xbe136829	-0.14395203
135	0x3dc9e782	0.0985861
136	0xbe2272ad	-0.15864058
137	0xbafa4cb1	-0.0019096342
138	0xbd652094	-0.055939272
139	0xbd81eef2	-0.06344403
140	0xbe14b56d	-0.14522333
141	0x3d7121aa	0.058869995
142	0xbe208569	-0.15675892
143	0xbd188137	-0.037232604
144	0x3ccc0045	0.024902472
145	0xbe2abb1b	-0.16672938
146	0xbe19c0cf	-0.15014957
147	0xbc95ef88	-0.018302694
148	0xbe0977e0	-0.13424635
149	0xbd96ae75	-0.07357494
150	0xbd306d26	-0.043072842
151	0x3bc1e5f2	0.005917304
152	0xbc9de665	-0.0192749
153	0xbdd64a64	-0.10463408
154	0xbcfb9e99	-0.030715274
155	0xbdc8f7cf	-0.09812891
156	0xbe0b6310	-0.13612008
157	0xbd6660fc	-0.056244835
158	0x3d1bc8b8	0.038033217
159	0x3d720210	0.059084
160	0xbd010994	-0.031503275
161	0xbbbfae2d	-0.005849621
162	0xbde17913	-0.11009421
163	0xbd9ef743	-0.07762005
164	0xbe2d6653	-0.16933565
165	0xbe0e2b27	-0.13883649
166	0x3d267be3	0.04064549
167	0x3d25a8b3	0.040444087
168	0xbe0e87c3	-0.13918976
169	0xb9f40b66	-0.000465478
170	0x3d22e857	0.039772358
171	0xbdc9019d	-0.09814761
172	0x3cc16e55	0.02361218
173	0xbd519e55	-0.051176388
174	0xbe02af7c	-0.12762254
175	0xbe11e25c	-0.14246505
176	0xbd9e5c95	-0.07732502
177	0xbdc8124f	-0.09769117
178	0xbbb981c1	-0.00566122
179	0xbe0f7836	-0.140107
180	0xbc89d8fd	-0.0168271
181	0xbe584c38	-0.21122825
182	0xbe122f2e	-0.1427581
183	0xbd9f1d8c	-0.077693075
184	0xbcb4afb6	-0.022056442
185	0x3b83f9ae	0.004027567
186	0xbdc787f9	-0.097427316
187	0xbe17f61d	-0.14839979
188	0x3da369d0	0.079791665
189	0x3d19b2e9	0.037524138
190	0x3c3a2806	0.011362081
191	0xbe3b1482	-0.18269542
192	0xbdd7d0b0	-0.10537851
193	0xbc2d0b63	-0.010561797
194	0xbf10c602	-0.56552136
195	0x3e10e8af	0.14151262
196	0x3c86f3bf	0.01647365
197	0x3b7bcbe9	0.00384211
198	0xbe83c06c	-0.25732744
199	0xbe8f3359	-0.27968863
200	0xbe8feff2	-0.2811275
201	0x3c63d6c1	0.013906182
202	0xbf19981f	-0.59997743
203	0xbe3568db	-0.1771578
204	0xbe93932f	-0.2882323
205	0xbc651691	-0.013982431
206	0xbe85aa8f	-0.26106688
207	0xbc6dedad	-0.014521998
208	0xbe83bcef	-0.25730082
209	0xbe789fb3	-0.2427967
210	0xbe3bebc9	-0.18351664
211	0xbe69c101	-0.22827531
212	0xbee04eed	-0.43810216
213	0xbe43c37c	-0.1911754
214	0xbe149041	-0.14508153
215	0xbe0890d5	-0.13336499
216	0xbecae955	-0.39631143
217	0xbd062e98	-0.03275928
218	0xbe2b8eb1	-0.16753651
219	0xbe1bcf25	-0.15215738
220	0xbe97df11	-0.29662374
221	0x3bb4969e	0.005511119
222	0xbe45b0e3	-0.19305758
223	0xbe044868	-0.12918246
224	0xbe49ddea	-0.1971356
225	0x3cf91ed8	0.030410215
226	0xbe9a6609	-0.30155972
227	0xbd50db1f	-0.05099022
228	0xbe064650	-0.1311276
229	0xbe264f73	-0.16241245
230	0xbe225ee9	-0.15856518
231	0xbe864ad7	-0.26228973
232	0xbb71ae1b	-0.0036877457
233	0x3d46f1be	0.048570387
234	0xbe9b5dd8	-0.30345035
235	0xbe238e92	-0.15972355
236	0xbd4a3626	-0.049368046
237	0xbe2a196f	-0.16611265
238	0xbd9617ca	-0.07328756
239	0xbe917e26	-0.28416556
240	0xbd20d9d2	-0.03927023
241	0xbd95ab9e	-0.07308124
242	0xbe78a7b7	-0.24282728
243	0xbd725df7	-0.059171643
244	0xbeeb4601	-0.45951846
245	0xbdacd4ad	-0.08439002
246	0xbda9b733	-0.082868956
247	0xbe6b3e3e	-0.22972962
248	0xbe3bfdbc	-0.1835851
249	0x3d4febf3	0.050762128
250	0xbc49e77a	-0.012323255
251	0xbe4ba63b	-0.1988763
252	0xbe06d970	-0.13168883
253	0xbe974a01	-0.29548648
254	0xbeb8a1df	-0.36060998
255	0xbda60732	-0.08106841

first_h.3.bias f4 [64]
0	0xbd8cb6ac	-0.068707794
1	0xbdef4e11	-0.11684812
2	0x3e17db2f	0.14829706
3	0x3c85dede	0.016341623
4	0xbe05afab	-0.13055293
5	0x3e168e36	0.14702687
6	0xbe222a73	-0.15836506
7	0xbe282a45	-0.16422375
8	0x3dc70e2e	0.097195014
9	0x3dae6d3e	0.0851693
10	0x3d1428c7	0.0361717
11	0x3d7216c9	0.05910376
12	0xbc8ba5bf	-0.017046807
13	0xbca31505	-0.019907484
14	0xbdf4f66b	-0.11961063
15	0x3dad8350	0.084723115
16	0x3cc94612	0.024569545
17	0xbe85108c	-0.25989187
18	0x3e07daaa	0.13267007
19	0x3de4d666	0.11173706
20	0xbe25a7e7	-0.16177331
21	0x3da5621a	0.08075352
22	0x3ca7bc78	0.020475611
23	0xbdf8dbd4	-0.12151304
24	0xbe173c89	-0.14769186
25	0xbd92e9b1	-0.07173479
26	0xbcb6d8e4	-0.022320218
27	0xbe6b90e5	-0.23004492
28	0xbdf7b799	-0.12095565
29	0xbe00b0d2	-0.12567452
30	0x3c0d8253	0.008637029
31	0x3e0fb2e2	0.14033082
32	0x3d2c9304	0.042132393
33	0x3d999736	0.07499544
34	0x3db77f88	0.089598715
35	0x3e8f3f27	0.2797787
36	0x3e2129c2	0.15738586
37	0xbea1836a	-0.31545573
38	0xbe0f1b5c	-0.1397528
39	0x3cb5d03c	0.02219402
40	0xbb94122e	-0.0045187688
41	0xbe8be4cd	-0.27323
42	0xbdfc5ea7	-0.12322741
43	0x3a45a3d6	0.0007539367
44	0x3db8dd4c	0.09026584
45	0xbd96ac9a	-0.0735714
46	0xbd04a627	-0.032385018
47	0x3bc52014	0.006015787
48	0x3e30e969	0.17276539
49	0xbc0586c7	-0.008149809
50	0xbe426616	-0.18984255
51	0xbe07ff8e	-0.1328108
52	0xbdaaa23c	-0.08331725
53	0x3e4b4895	0.19851907
54	0x3ce0fdc8	0.027464762
55	0xbe838a82	-0.2569161
56	0x3d61a6c1	0.05509067
57	0xbd1cea1b	-0.038309198
58	0xbdcb8cda	-0.09938975
59	0xbe20d46a	-0.1570603
60	0xbe3c2586	-0.18373689
61	0x3cb9635f	0.022630392
62	0xbd980c52	-0.07424225
63	0xbc85a76a	-0.01631518

first_h.4.weight f4 [64]
0	0x3f4f4747	0.80968136
1	0x3db2fad3	0.08739247
2	0x3ef534eb	0.47891936
3	0x3f27626d	0.6538456
4	0x3f3799e1	0.71719176
5	0x3f2d245e	0.67633617
6	0x3f2788eb	0.65443295
7	0x3f208284	0.6269915
8	0x3f1f2b95	0.62175876
9	0x3f36be4b	0.71384114
10	0x3f30e334	0.69096684
11	0x3f3e1e56	0.7426504
12	0x3f577b05	0.8417209
13	0x3f5442b7	0.829143
14	0x3f4454a0	0.7669163
15	0x3f2659aa	0.64980567
16	0x3f3daa57	0.7408804
17	0x3f0e9513	0.5569622
18	0x3f5302b5	0.82426006
19	0x3eaa6f41	0.33288005
20	0x3f368620	0.7129841
21	0x3f0e0694	0.5547879
22	0x3f4c3a7e	0.7977675
23	0x3f11fbcb	0.5702483
24	0x3f1da401	0.61578375
25	0x3f442dc9	0.7663236
26	0x3f190d7b	0.59786195
27	0x3f68a86a	0.9088198
28	0x3f55cf27	0.83519214
29	0x3f2a1354	0.6643574
30	0x3f4d9373	0.80303115
31	0x3f2f7008	0.6853032
32	0x3f320eb1	0.6955367
33	0x3f39af90	0.7253351
34	0x3f1652fc	0.58720374
35	0x3f28d4b4	0.6594956
36	0x3f3daa7c	0.74088264
37	0x3f43efa8	0.7653756
38	0x3ecbf0f6	0.39832276
39	0x3f43c1dc	0.7646768
40	0x3f29982f	0.6624784
41	0x3ec1e991	0.3787351
42	0x3edef009	0.43542507
43	0x3f3430d6	0.7038702
44	0x3f53b66c	0.8270023
45	0x3f5da2ae	0.86576355
46	0x3f323a33	0.69620055
47	0x3f2ec89b	0.6827485
48	0x3f3f1ff6	0.74658144
49	0x3f23cf87	0.63988537
50	0x3e87e87b	0.26544556
51	0x3f7038d8	0.93836737
52	0x3f19846d	0.5996769
53	0x3f32afa4	0.69799256
54	0x3f146689	0.57968956
55	0x3e6acc9b	0.22929613
56	0x3f392ccb	0.72333974
57	0x3f323a85	0.69620544
58	0x3e52d1af	0.205878
59	0x3f606366	0.8765167
60	0x3f010ea3	0.5041296
61	0x3eb72113	0.3576742
62	0x3f584797	0.8448424
63	0x3f1c00bb	0.60938615

first_h.4.bias f4 [64]
0	0xbeb85582	-0.36002737
1	0xbf1c4a32	-0.61050713
2	0xbe9c27fc	-0.30499256
3	0xbe885048	-0.2662375
4	0xbe6a5965	-0.22885664
5	0xbe89e922	-0.2693568
6	0xbe77f10b	-0.24213044
7	0xbe894c6b	-0.26816115
8	0xbe9fec54	-0.31234992
9	0xbe820966	-0.25397795
10	0xbe88b160	-0.26697826
11	0xbee984fe	-0.45609277
12	0xbec4b6ef	-0.38420817
13	0xbee2c7a6	-0.44292945
14	0xbe581bdc	-0.21104378
15	0xbe7c1e0f	-0.24620841
16	0xbe4c6c60	-0.19963217
17	0xbebe4594	-0.3716246
18	0xbecc0563	-0.3984786
19	0xbf78e472	-0.9722358
20	0xbdbdd000	-0.092681885
21	0xbf28d142	-0.659443
22	0xbea04d75	-0.31309095
23	0xbf203a9f	-0.6258945
24	0xbf5a8dad	-0.8537243
25	0xbe95438a	-0.2915309
26	0xbe9ac62b	-0.30229315
27	0xbea33065	-0.3187286
28	0xbf27c049	-0.6552778
29	0xbe4d9fa3	-0.20080428
30	0xbe828be9	-0.25497368
31	0xbe7d1e71	-0.24718644
32	0xbe622e84	-0.22088057
33	0xbe8f0d41	-0.279398
34	0xbee46d71	-0.44614747
35	0xbeb934d8	-0.3617313
36	0xbe84e7c1	-0.25958064
37	0xbf148ec3	-0.5803034
38	0xbebb25e5	-0.3655235
39	0xbe83fbc2	-0.25778013
40	0xbe6ca1ec	-0.23108643
41	0xbea6c8e2	-0.32575136
42	0xbf72dd24	-0.94868684
43	0xbe5b9347	-0.214429
44	0xbe9a892a	-0.30182773
45	0xbeedd1d1	-0.4644914
46	0xbe74665a	-0.23867169
47	0xbe3b49de	-0.18289897
48	0xbe6ddedd	-0.23229547
49	0xbe5d2143	-0.2159472
50	0xbf4b92fb	-0.7952115
51	0xbeca6ea3	-0.39537534
52	0xbf1b68e4	-0.60706925
53	0xbe6b5a51	-0.22983672
54	0xbeb8f801	-0.36126712
55	0xbf13695b	-0.57582635
56	0xbe83b419	-0.2572334
57	0xbeb5cc4e	-0.35507435
58	0xbf257d26	-0.64644086
59	0xbf0aacc0	-0.54169846
60	0xbeafab40	-0.3431034
61	0xbf426ee9	-0.75950485
62	0xbefc899d	-0.4932374
63	0xbea40564	-0.32035363

first_h.4.running_mean f4 [64]
0	0x40a9c567	5.305347
1	0x3db2e756	0.0873553
2	0xbf04089f	-0.51575655
3	0xbfd5583a	-1.666755
4	0xbe1f68ea	-0.15567365
5	0x3d8d61d6	0.06903426
6	0xbf054401	-0.5205689
7	0xbf844620	-1.03339
8	0xbe916c60	-0.28402996
9	0xbf5108c0	-0.81653976
10	0xbf191c6b	-0.5980899
11	0x3ef93e67	0.48680422
12	0x3dc7ef69	0.09762461
13	0x3e638bd3	0.22221307
14	0xbf3f2512	-0.7466594
15	0xbf2661e6	-0.6499313
16	0xbef5f9a2	-0.48042017
17	0xc01175d5	-2.272817
18	0xbe287e8a	-0.16454521
19	0x3f8681c5	1.0508353
20	0xbf9f49b5	-1.2444369
21	0x3fbfc454	1.498179
22	0xbe96b206	-0.29432696
23	0x3f9d4eb4	1.2289643
24	0x3f85c29c	1.0450015
25	0xbf1356b0	-0.5755415
26	0xbfa50ef9	-1.2895194
27	0xbfa1e470	-1.2647839
28	0x3fbaf09a	1.4604676
29	0xbfb18768	-1.3869448
30	0xbf2f766b	-0.68540066
31	0xbe63a7a1	-0.22231914
32	0xbf06cd81	-0.52657324
33	0xbf36b0a5	-0.7136329
34	0x4014a3f6	2.3225074
35	0x409bae6d	4.865042
36	0xbe0e9792	-0.13925007
37	0x3ea50195	0.3222777
38	0x4091605f	4.543014
39	0xbeedbe9e	-0.46434492
40	0xbf7ae978	-0.98012495
41	0x3f52cf65	0.8234771
42	0x3f10786f	0.5643377
43	0xbf4a6e30	-0.7907438
44	0xbea4e937	-0.3220918
45	0xbfe29470	-1.770155
46	0xbf0ec29d	-0.55765706
47	0xbef59595	-0.47965685
48	0xbeccabe6	-0.39974898
49	0xbf39643c	-0.7241857
50	0x3fe58e56	1.7934062
51	0x3dee3d0e	0.11632739
52	0x4001aa29	2.0260108
53	0xbf35ec66	-0.7106384
54	0x3ee8a261	0.45436385
55	0x40183cab	2.3787029
56	0x3d5e8051	0.05432159
57	0xbf821602	-1.0162966
58	0x405f0dca	3.4852166
59	0xbe92537a	-0.28579313
60	0x3f03eea8	0.51536036
61	0x403d92d0	2.9620857
62	0x3f6c7fad	0.9238232
63	0xbf80a146	-1.0049217

first_h.4.running_var f4 [64]
0	0x413c9eae	11.78874
1	0x3fdbd429	1.7174121
2	0x3fbf1e05	1.4931036
3	0x41a41146	20.508434
4	0x4003ba25	2.0582364
5	0x3fe4ba96	1.7869442
6	0x3fe4aaef	1.7864665
7	0x3fc92173	1.5713333
8	0x3f6f1d2a	0.93403876
9	0x4178a594	15.540424
10	0x40d2beca	6.5857897
11	0x41ce1749	25.76137
12	0x407b2afe	3.924499
13	0x40d1131c	6.5335827
14	0x3ff94ea1	1.9477121
15	0x4045671e	3.0844188
16	0x409b28be	4.8487234
17	0x41077fa0	8.468658
18	0x40a224ea	5.067006
19	0x4195d2e1	18.727968
20	0x41e3ca5a	28.473804
21	0x412a98cf	10.662307
22	0x3fd8909c	1.6919131
23	0x4172cf74	15.175648
24	0x41288db4	10.5345955
25	0x403ade74	2.9198275
26	0x401e8a75	2.4772007
27	0x411e158f	9.880263
28	0x3ffe67bd	1.9875408
29	0x41118e71	9.097276
30	0x4103836e	8.219587
31	0x40770044	3.8593912
32	0x4051763d	3.2728417
33	0x403745f7	2.8636453
34	0x404a0aa9	3.1569006
35	0x4136e6c2	11.431337
36	0x40b54785	5.6649804
37	0x41798bcc	15.59663
38	0x4058df3f	3.3886259
39	0x3fd0ed5a	1.6322434
40	0x40f158ac	7.542074
41	0x41107429	9.028359
42	0x40c2e122	6.089982
43	0x4088e429	4.2778516
44	0x411cfdde	9.811979
45	0x40967198	4.7013664
46	0x40571fe6	3.361322
47	0x3f9be85d	1.2180287
48	0x408d1d00	4.40979
49	0x404a34f0	3.159481
50	0x4132bac9	11.170602
51	0x408daaaa	4.427083
52	0x4083ce31	4.11892
53	0x40e4b12c	7.1466274
54	0x3f3f9012	0.7482921
55	0x3f9ef78e	1.2419298
56	0x401c33ef	2.4406698
57	0x3f83ca4d	1.0296112
58	0x40b3e376	5.621516
59	0x416d0ddc	14.815884
60	0x3f445d6a	0.7670504
61	0x410c1754	8.755695
62	0x40c439d8	6.132061
63	0x3fe4e48e	1.7882249

nns.0.0.weight f4 [64, 64]
0	0x3e081bbd	0.13291831
1	0x3d851f93	0.06500163
2	0xbbe242a5	-0.0069049173
3	0x3d1c7810	0.038200438
4	0x3e2c9d33	0.16856842
5	0x3e22e87e	0.15909001
6	0x3e889117	0.26673195
7	0xbd98aa8c	-0.07454404
8	0x3e0bc9a3	0.13651137
9	0x3e8e870f	0.27837417
10	0x3e0f444a	0.13990894
11	0x3dcf35cb	0.10117682
12	0xbbfb6ca1	-0.0076728617
13	0x3c35908a	0.011081824
14	0x3df10eb3	0.11770382
15	0x3d56432b	0.05231015
16	0x3e83c961	0.25739577
17	0x3e03bf29	0.1286589
18	0x3df0c946	0.1175714
19	0xbc7934c8	-0.015210338
20	0x3d26cf03	0.040724766
21	0x3dcd7053	0.1003119
22	0x3e6bc5e9	0.23024715
23	0x3c25a8f4	0.010111082
24	0x3d8e8ace	0.06960069
25	0x3d1157ca	0.035484113
26	0x3e0a1f6a	0.13488546
27	0x3e8cb258	0.27479815
28	0x3e19cd69	0.15019764
29	0x3da71acb	0.08159407
30	0x3e127dbf	0.14305781
31	0x3e872932	0.26398617
32	0xbc362505	-0.011117225
33	0xbbd0a1d4	-0.0063669477
34	0xbbc9246a	-0.006138374
35	0x3ded937e	0.116003975
36	0x3e37fa6f	0.17966627
37	0x3ded66be	0.11591862
38	0x3dc56060	0.09637523
39	0x3e62f42f	0.22163461
40	0x3dd02b72	0.101645365
41	0x3e460cf5	0.1934088
42	0x3e606c04	0.21916205
43	0x3e138f1b	0.14410059
44	0x3e630b93	0.22172384
45	0x3e4252a0	0.18976831
46	0x3d2d807b	0.042358857
47	0x3eb53374	0.35390818
48	0x3e6824b1	0.22670247
49	0x3e4e10b9	0.20123567
50	0x3ddd11c8	0.10794407
51	0x3dbc9746	0.092085406
52	0x3b7a9229	0.003823409
53	0xbbe1bb3c	-0.006888775
54	0x3e6c52f1	0.23078515
55	0x3e0122ff	0.12611006
56	0x3bd6b01b	0.006551755
57	0x3bc5001c	0.006011976
58	0x3df6673c	0.12031409
59	0x3d9338ff	0.071886055
60	0x3e2f3a85	0.17112167
61	0x3df0097e	0.117205605
62	0x3db77b8c	0.089591116
63	0xbbd32d1e	-0.0064445874
64	0x3e4bfbb8	0.19920242
65	0x3e89b493	0.2689558
66	0x3d8f3a49	0.06993539
67	0xbe459338	-0.19294441
68	0xbe8092ff	-0.2511215
69	0xbd8fbd51	-0.07018531
70	0xbe8e4ee9	-0.2779458
71	0xbcf02c39	-0.029317962
72	0x3b7b06b2	0.0038303551
73	0x3d59e908	0.05320075
74	0xbd5bdd77	-0.053678002
75	0xbd9cc174	-0.07654086
76	0x3e0415c5	0.1289893
77	0x3d40c63f	0.047064062
78	0xbddf7e91	-0.109128125
79	0x3d270bc8	0.04078272
80	0xbd449125	-0.047989983
81	0xbdb2a76a	-0.08723338
82	0x3e21e97a	0.1581172
83	0x3d61e26e	0.05514758
84	0xbe9fcc06	-0.31210345
85	0x3e8be9e6	0.27326888
86	0xbdb53147	-0.088472895
87	0x3e8ded9e	0.2772035
88	0x3e4d462b	0.20046298
89	0x3c5a4e5f	0.013324349
90	0x3cb89598	0.02253227
91	0xbdeec186	-0.116580054
92	0x3e9a7c78	0.30173087
93	0xbe765bd1	-0.24058463
94	0xbe2a1ef5	-0.16613372
95	0xbd585efd	-0.052824963
96	0x3d3a989b	0.045555692
97	0x3bbfb266	0.005850124
98	0x3e9c14a9	0.30484512
99	0x3c5537b5	0.01301377
100	0xbe4d2cef	-0.20036672
101	0x3debdefc	0.1151714
102	0x3dd9bd06	0.106317565
103	0xbe232c14	-0.15934783
104	0xbda9365a	-0.0826232
105	0x3efab133	0.48963317
106	0x3e22c636	0.15895924
107	0xbe8909c5	-0.26765266
108	0xbd9cc4a3	-0.07654693
109	0xbd8f2d18	-0.06991023
110	0xbe1b53da	-0.15168706
111	0xbe5de227	-0.21668302
112	0x3d4807bb	0.048835497
113	0xbd5e1f3c	-0.054229006
114	0x3e69235e	0.22767398
115	0x3e3f5544	0.1868487
116	0xbc35da1f	-0.011099367
117	0xbdc6f129	-0.097139664
118	0x3d7446a5	0.059637684
119	0x3dd2baa4	0.10289505
120	0xbe247dc2	-0.16063598
121	0x3a5d4b97	0.0008441745
122	0x3d964651	0.073376305
123	0xbd60b5c7	-0.054860856
124	0x3ca628d1	0.020283135
125	0x3e565591	0.20931078
126	0x3d6d5ee6	0.05795183
127	0xbca445e9	-0.020052867
128	0x3e4442d9	0.19166125
129	0x3e668b0e	0.22513983
130	0xbdb05e6f	-0.08611762
131	0xbe2d56c7	-0.16927634
132	0xbe19a0f9	-0.15002812
133	0x3db67e3a	0.089107946
134	0xbd713ffe	-0.05889892
135	0x3e5f295e	0.21793124
136	0x3dff6035	0.12469522
137	0xbdd03799	-0.101668544
138	0x3d3581a6	0.044313096
139	0x3d89bf48	0.06725937
140	0x3c7b2079	0.015327566
141	0x3dc79562	0.097452894
142	0x3dd30e4f	0.103054635
143	0x3ea5fe85	0.32420745
144	0x3db83883	0.08995154
145	0xbd984898	-0.07435721
146	0x3d1f7f94	0.038940027
147	0x3e56fb7e	0.20994374
148	0x3cb8f882	0.022579435
149	0x3e86e893	0.26349315
150	0x3dd506ff	0.10401725
151	0x3e84bea4	0.25926697
152	0x3e04150b	0.12898652
153	0x3d095eff	0.03353786
154	0x3c99789b	0.018734267
155	0xbd71db34	-0.05904694
156	0x3e48d2e5	0.196117
157	0xbcc62c1a	-0.024190951
158	0x3cb2918e	0.021797922
159	0xbdc16652	-0.09443344
160	0xbd135014	-0.03596504
161	0x3dac6eb6	0.08419554
162	0x3e8fec28	0.2810986
163	0x3ddbd8c7	0.10734706
164	0xbd9ae9c3	-0.07564118
165	0x3dccf622	0.100078836
166	0x3e04eab6	0.1298016
167	0x3d49a87a	0.049232937
168	0x3dea17ae	0.11430298
169	0x3df6781e	0.12034629
170	0x3e337925	0.17526682
171	0x3e0b00cb	0.13574521
172	0xbe0d330c	-0.13789004
173	0x3bf2a732	0.007405185
174	0x3e1c3c97	0.15257488
175	0xbc4fe3d4	-0.012688596
176	0xbc44e922	-0.012018474
177	0x3ead2baf	0.3382239
178	0x3e50702c	0.2035529
179	0x3db2928c	0.08719358
180	0xbda697b7	-0.08134406
181	0x3d2e61f6	0.04257389
182	0xbd439b7c	-0.047755703
183	0x3d45d7c8	0.04830149
184	0xbea93a17	-0.33052132
185	0x3b534e24	0.003224262
186	0x3d9719d2	0.07377972
187	0x3e310cf3	0.17290096
188	0x3e036c17	0.12834202
189	0xbd0686e4	-0.032843485
190	0x3de6cc6d	0.1126946
191	0x3db986f8	0.09058946
192	0xbea6ba98	-0.32564235
193	0xbd763fe4	-0.060119525
194	0xbdf67724	-0.12034443
195	0x3d389d39	0.045071814
196	0xbe0075b1	-0.12544896
197	0xbe5ea325	-0.21741922
198	0xba8b2268	-0.0010615112
199	0xbd9e5d8a	-0.07732685
200	0x3d421e93	0.04739244
201	0xbe93c189	-0.28858593
202	0xbe17a24b	-0.14808004
203	0xbdc3342a	-0.09531434
204	0xbd995300	-0.07486534
205	0xbd8faf18	-0.07015818
206	0xbe5721c8	-0.2100898
207	0xbd543f8a	-0.051818408
208	0xbe0858c3	-0.1331511
209	0x3cf6953f	0.030100463
210	0xbe594d94	-0.21221
211	0x399b554e	0.0002962746
212	0x3bc92dd5	0.006139497
213	0xbd6bc9d5	-0.05756553
214	0xbdf28e34	-0.11843529
215	0xbe8a57cf	-0.27020118
216	0xbe040690	-0.12893128
217	0xbe24c487	-0.16090594
218	0xbda87848	-0.08226067
219	0xbcb8b854	-0.022548832
220	0xbd3f5224	-0.046709195
221	0xbe1d3f46	-0.15356168
222	0x3d0dcf4a	0.034621514
223	0xbe013d31	-0.12620999
224	0xbe65d1c9	-0.22443308
225	0xbd463fc4	-0.048400655
226	0xbe32f352	-0.17475632
227	0xbefe9789	-0.49724987
228	0xbd09258c	-0.033483073
229	0xbe2c8c41	-0.16850378
230	0x3ce64adc	0.028111868
231	0xbdc4ee0b	-0.096157156
232	0xbe4642f7	-0.19361483
233	0xbe4e2b78	-0.2013377
234	0xbe13ceea	-0.144344
235	0xbe3532f5	-0.1769522
236	0xbe23de95	-0.16002877
237	0x3ce235c8	0.027613536
238	0xbe1bcc17	-0.15214573
239	0xbe304bed	-0.17216463
240	0xbe1d749c	-0.15376514
241	0xbe3b91cc	-0.18317336
242	0xbdbda19a	-0.09259339
243	0xbcc9dc41	-0.024641158
244	0xbe55077c	-0.20803636
245	0x3cc7356f	0.024317471
246	0x3cb80d82	0.022467379
247	0xbd93d480	-0.072182655
248	0xbcc012ed	-0.023446525
249	0xbe125f61	-0.14294197
250	0xbea5357b	-0.32267365
251	0xbe74e1b7	-0.23914228
252	0x3dbfb806	0.093612716
253	0xbea1b8af	-0.31586215
254	0xbe239244	-0.15973765
255	0xbd855f8c	-0.06512365

nns.0.0.bias f4 [64]
0	0xbd38bfbc	-0.045104727
1	0x3d3c448c	0.04596381
2	0xbdc6c6b6	-0.0970587
3	0xbe1120d9	-0.14172687
4	0x3df659a0	0.12028813
5	0xbd65c595	-0.056096632
6	0x3dbae8fa	0.09126468
7	0x3c3e54b1	0.011616872
8	0xbdd3b2e2	-0.103368536
9	0xbc8781ff	-0.01654148
10	0xbc3d33fc	-0.011548039
11	0xbe58a163	-0.21155314
12	0xbd5045cd	-0.050847817
13	0xbd98283c	-0.07429549
14	0x3c5f77c4	0.013639394
15	0xbdf79492	-0.120888844
16	0x3d18e771	0.037330095
17	0x3c5bf2c2	0.013424577
18	0xbcdbf7b8	-0.02685152
19	0xbdc922c7	-0.098210864
20	0x3c8ac182	0.016937975
21	0xbc6b79ae	-0.014372272
22	0x3c42e968	0.011896469
23	0xbe03bda5	-0.12865312
24	0x3da7dd59	0.081965156
25	0x3dff9efc	0.12481496
26	0xbdc2716a	-0.09494288
27	0x3c6e3adb	0.014540399
28	0x3dd2def2	0.1029643
29	0xbd89a29b	-0.06720468
30	0xbd276be9	-0.040874396
31	0xbe0602d9	-0.13087024
32	0x3cf4e112	0.029892478
33	0x3d9b8a2b	0.07594713
34	0x3c9c2965	0.019062707
35	0xbd50bc00	-0.05096054
36	0xbdaf16d9	-0.0854928
37	0x3e0341a5	0.1281801
38	0x3d3f5495	0.046711523
39	0x3de0c7d5	0.10975615
40	0xbd5f7010	-0.05455023
41	0x3d4408dc	0.04786001
42	0xbe29800f	-0.16552757
43	0xbd62409e	-0.055237405
44	0x3dff669d	0.12470744
45	0xbbc85f9d	-0.0061149136
46	0x3de1ed92	0.11031641
47	0x3d040cfb	0.03223894
48	0xbd363577	-0.04448458
49	0xbdfbc9ca	-0.122943476
50	0xbd9a9ec9	-0.07549817
51	0x3da3b036	0.07992594
52	0xbdd11979	-0.10209937
53	0xbd63ff17	-0.055663195
54	0x3dd846d4	0.105603844
55	0xbd4bdba9	-0.04977003
56	0xbda37cb4	-0.079827696
57	0x3e4d3ab1	0.2004192
58	0x3d800e24	0.06252697
59	0x3d88d933	0.066820525
60	0xbd77ab8b	-0.06046633
61	0x3c9fe4d3	0.019518292
62	0x3d9c14d0	0.07621157
63	0xbdb9a60a	-0.090648726

nns.0.1.weight f4 [64]
0	0x3f82dea7	1.0224198
1	0x3f41551d	0.755205
2	0x3f65edd6	0.89816034
3	0x3fa153bc	1.2603679
4	0x3f83303e	1.0249097
5	0x3f549dc0	0.8305321
6	0x3f4cabdc	0.79949737
7	0x3f9c71e1	1.2222253
8	0x3f369dd4	0.71334577
9	0x3fb11412	1.383425
10	0x3f8a4884	1.080338
11	0x3fa24e42	1.2680132
12	0x3f837b55	1.0272013
13	0x3f652863	0.8951475
14	0x3f6bee56	0.92160547
15	0x3f79a8d7	0.97523254
16	0x3f52d05d	0.8234919
17	0x3f2482fb	0.6426236
18	0x3f4502cb	0.76957387
19	0x3f20291f	0.62562746
20	0x3f6877f2	0.9080802
21	0x3f28d5ff	0.6595153
22	0x3f8559f8	1.0418081
23	0x3f6f9744	0.9359019
24	0x3f62ba84	0.8856585
25	0x3f826670	1.0187511
26	0x3dfe7675	0.12424938
27	0x3f806b0e	1.003267
28	0x3f74f781	0.9569016
29	0x3f7e3e21	0.9931355
30	0x3f79c686	0.9756855
31	0x3e6e2c7d	0.23259158
32	0x3f9557b9	1.1667396
33	0x3f6ce91b	0.9254319
34	0x3f52da26	0.8236412
35	0x3f8fb584	1.1227269
36	0x3f89a17a	1.0752404
37	0x3f647430	0.8923979
38	0x3f861a0b	1.0476698
39	0x3f82d38c	1.0220809
40	0x3f57e952	0.84340394
41	0x3f5c9e9c	0.8617952
42	0x3f40b8f6	0.7528223
43	0x3f7c4684	0.985451
44	0x3f37203a	0.7153355
45	0x3f9cf1ae	1.2261255
46	0x3f602499	0.87555844
47	0x3f97f530	1.18717
48	0x3f734178	0.9502177
49	0x3fadae8b	1.3568891
50	0x3f1cc62d	0.6123989
51	0x3f7feaaf	0.99967474
52	0x3f7f21d0	0.9966097
53	0x3f74986a	0.95545065
54	0x3f3e382b	0.74304456
55	0x3f79b983	0.97548693
56	0x3f7016ea	0.93784964
57	0x3f33e5b8	0.702724
58	0x3f70e446	0.9409832
59	0x3f41b253	0.75662726
60	0x3f8a90dd	1.0825459
61	0x3f33846b	0.7012393
62	0x3f75e12e	0.9604672
63	0x3f7a6d46	0.9782299

nns.0.1.bias f4 [64]
0	0xbe0f8cba	-0.14018527
1	0xbf870573	-1.0548538
2	0xbf2124d7	-0.6294684
3	0x3f5164f4	0.8179467
4	0x3dbb112a	0.09134133
5	0xbf59b6a0	-0.8504429
6	0xbecdf10c	-0.40222967
7	0x3f11090a	0.5665442
8	0xbda774f0	-0.08176601
9	0xbefd583a	-0.49481374
10	0x3e90ad03	0.28256997
11	0x3d983660	0.07432246
12	0x3f2a71a1	0.66579634
13	0xbf222c45	-0.633488
14	0x3cc8a3b1	0.024492117
15	0xbebfe5ad	-0.37479916
16	0xbe706246	-0.23474988
17	0xbea30c76	-0.31845444
18	0xbea8c7fa	-0.3296507
19	0xbf6a7100	-0.91578674
20	0xbe5aad75	-0.21355231
21	0xbe2bfc4f	-0.16795467
22	0xbf3d95a4	-0.7405646
23	0xbf3de0f2	-0.74171364
24	0xbf13c23c	-0.57718253
25	0xbeec93ea	-0.462066
26	0x3dec21d8	0.11529893
27	0x3f114f6f	0.5676183
28	0xbecc4a08	-0.3990023
29	0xbeea4b78	-0.45760703
30	0x3e8a6ecd	0.2703766
31	0xbe6c7737	-0.23092352
32	0x3ed26966	0.41096038
33	0x3f196030	0.59912395
34	0xbe4fee28	-0.20305693
35	0x3f076ceb	0.5290057
36	0xbe9187e7	-0.28423998
37	0xbe542f27	-0.20721112
38	0x3eacac19	0.3372505
39	0xbf112abe	-0.56705844
40	0xbd4a0d93	-0.04932935
41	0xbf4c730d	-0.79863054
42	0xbf8b32d5	-1.0874888
43	0x3e5dfef1	0.21679284
44	0xbf52aeed	-0.82298166
45	0xbe70716c	-0.23480767
46	0x3e29314b	0.1652271
47	0xbf770b27	-0.9650139
48	0xbe55d4ec	-0.20882004
49	0x3f490b60	0.7853298
50	0xbf361aed	-0.71134835
51	0x3eef9996	0.46796864
52	0xbe687e89	-0.2270452
53	0xbd676e71	-0.05650181
54	0xbe2e17a5	-0.17001207
55	0x3cfd4808	0.030918136
56	0xbd03a9a9	-0.032144222
57	0xbf8d1949	-1.1023341
58	0xbb085c0e	-0.0020806822
59	0xbe82c798	-0.25542903
60	0xbdcf3c9f	-0.101189844
61	0xbf8be62c	-1.0929618
62	0xbf706f61	-0.9391995
63	0x3e67b03c	0.22625822

nns.0.1.running_mean f4 [64]
0	0x3e1492fe	0.14509198
1	0x3ed09ae8	0.40743184
2	0x3e6a584b	0.22885244
3	0xbf0f9c2f	-0.5609769
4	0xbe7c30cf	-0.24627994
5	0x3ea40bd2	0.32040268
6	0xbd206d41	-0.039166693
7	0xbeac1511	-0.33609822
8	0xbf06abc0	-0.5260582
9	0x3d4ef6f9	0.0505285
10	0xbe136c4e	-0.14396784
11	0x3e3afe75	0.1826113
12	0xbe662ce5	-0.22478063
13	0x3ebc4eaf	0.3677878
14	0x3e9deb0a	0.30843383
15	0xbebe54ac	-0.37173975
16	0xbdcc26e9	-0.09968359
17	0xbe7e596a	-0.24838796
18	0xbe81bac7	-0.25337812
19	0x3d1c1153	0.03810246
20	0xbd92b889	-0.071641035
21	0xbeb8d2a6	-0.36098212
22	0x3f323135	0.69606334
23	0x3ee75702	0.4518357
24	0x3f0fa56e	0.561118
25	0x3f64d437	0.89386314
26	0x3c5a9393	0.0133408485
27	0xbe0484dd	-0.12941308
28	0x3d6a9716	0.057272993
29	0x3ea7c35f	0.32766244
30	0xbe1a8196	-0.15088496
31	0xbd76fbe4	-0.060298815
32	0xbda24661	-0.0792358
33	0xbea2f973	-0.3183094
34	0x3ecfd7fb	0.40594468
35	0xbe8919b1	-0.26777413
36	0x3c8f0a3c	0.017460935
37	0xbcee2eab	-0.029074987
38	0xbd767679	-0.060171578
39	0x3d712754	0.058875397
40	0x3e251b21	0.1612363
41	0x3f11735a	0.5681664
42	0x3d619635	0.05507489
43	0xbeea6aaa	-0.45784503
44	0x3eaf2e82	0.3421517
45	0x3f358dbf	0.7091941
46	0xbe2f5023	-0.17120413
47	0x3f2a4983	0.6651842
48	0x3e0fbd88	0.14037144
49	0xbf0f4b90	-0.55974674
50	0x3c6ab89d	0.014326242
51	0xbe52fef6	-0.20605072
52	0x3eb4e95b	0.35334286
53	0xbe94d407	-0.29068014
54	0xbe4c3648	-0.19942582
55	0xbe3e23d9	-0.18568362
56	0xbe161b2a	-0.146588
57	0x3ed0d3d6	0.40786618
58	0x3e0def9a	0.13860932
59	0xbdd96f39	-0.10616917
60	0x3ed8c79f	0.423398
61	0x3e951efe	0.29125208
62	0x3ee5357a	0.44767362
63	0xbe4d0911	-0.2002299

nns.0.1.running_var f4 [64]
0	0x4124a3a8	10.289955
1	0x423af250	46.736633
2	0x42045964	33.087296
3	0x424fac9a	51.918556
4	0x42163120	37.547974
5	0x424ac04d	50.687794
6	0x4044906e	3.0713153
7	0x4208ff16	34.249107
8	0x42632328	56.784332
9	0x402ec995	2.7310536
10	0x40b01655	5.502726
11	0x421d79ea	39.369057
12	0x4106fd35	8.436818
13	0x427e75ea	63.61515
14	0x41daf1bd	27.368036
15	0x419536f3	18.65183
16	0x40bdce1d	5.9314103
17	0x41b167ae	22.175625
18	0x41794ae0	15.58078
19	0x41021596	8.13027
20	0x401852a8	2.380045
21	0x420391d7	32.89242
22	0x43215bc4	161.35846
23	0x42e27d06	113.24419
24	0x42a14e2c	80.65268
25	0x4340bfc9	192.74916
26	0x411f8106	9.969
27	0x40f5d0fc	7.681761
28	0x3f0a14be	0.539379
29	0x426a4aa0	58.572876
30	0x4081705d	4.044966
31	0x4066c91a	3.6060243
32	0x40400fa6	3.000955
33	0x423d086d	47.25823
34	0x422e0138	43.50119
35	0x416c4452	14.76668
36	0x4073912a	3.805735
37	0x40dcc8a8	6.899494
38	0x4060851e	3.5081248
39	0x3f0429ed	0.51626474
40	0x419e147c	19.760002
41	0x42b42f15	90.09196
42	0x418967c6	17.17567
43	0x422801e4	42.001846
44	0x4186734c	16.806297
45	0x431efbc5	158.98347
46	0x4197729b	18.93096
47	0x43072f36	135.18442
48	0x41263a8e	10.389296
49	0x426571ce	57.361137
50	0x403d0245	2.9532635
51	0x41bf25f4	23.893532
52	0x427b3b44	62.807877
53	0x418665bf	16.79968
54	0x41d69a8b	26.82546
55	0x409f3d36	4.976222
56	0x400fc8cf	2.2466314
57	0x417562f1	15.336656
58	0x406a8b18	3.6647396
59	0x41180ed0	9.503616
60	0x4261da95	56.46346
61	0x41d1ca80	26.223877
62	0x424d5f3e	51.34301
63	0x405f1ffb	3.486327

nns.0.3.weight f4 [64, 64]
0	0xbdff0169	-0.12451441
1	0xbe37b7cd	-0.17941208
2	0xbd10de06	-0.035367988
3	0x3df6dd51	0.120539315
4	0x3da09c17	0.07842272
5	0xbe30cb65	-0.17265089
6	0xbcf46a7e	-0.029835936
7	0xbd6b3d36	-0.057431422
8	0x3e05bb16	0.13059649
9	0xbdc4369b	-0.09580728
10	0x3e09c11a	0.13452569
11	0xbe0f4df5	-0.13994582
12	0xbcf9e579	-0.030504929
13	0x3b3c5725	0.0028738466
14	0x3d02952b	0.03188054
15	0xbd4a39fa	-0.049371697
16	0xbe2007e1	-0.15628006
17	0x3b09f3f8	0.0021049958
18	0xbc9dc9bf	-0.01926124
19	0x3a68dd8d	0.00088831113
20	0xbc471992	-0.0121520925
21	0x3ad96379	0.0016585431
22	0xbe3d750f	-0.18501686
23	0xbe452f63	-0.19256358
24	0xbe3b2bdf	-0.18278454
25	0xbe401c02	-0.18760684
26	0xbdacf2f6	-0.084447786
27	0x3d5debb4	0.054179862
28	0xbd5ac111	-0.05340678
29	0xbdbb6d28	-0.09151679
30	0x3e0d0c8e	0.1377432
31	0x3e352af2	0.17692164
32	0xbbe619ac	-0.0070221033
33	0x3d7f4831	0.062324706
34	0x3d5554ee	0.05208295
35	0x3e12a1cc	0.14319533
36	0xbe13babe	-0.14426705
37	0xbd0c853b	-0.034306746
38	0x3d49d301	0.049273495
39	0xbcb01cd2	-0.021498118
40	0x3b8fab90	0.0043844655
41	0xbe3e3da1	-0.18578197
42	0xbd809c66	-0.06279831
43	0x3e2cb6d5	0.1686662
44	0x3c73bfbc	0.014877256
45	0x3db1bfb1	0.0867914
46	0xbaccf86b	-0.0015637999
47	0xbda89e3b	-0.08233305
48	0xbdeb103d	-0.114777066
49	0x3d2777be	0.04088568
50	0x3c268651	0.010163859
51	0xbca1f22f	-0.019768802
52	0xbd77da89	-0.060511146
53	0x3bec0460	0.00720267
54	0x3daa3ccc	0.08312377
55	0x393de7c9	0.00018110791
56	0xbcf063a2	-0.029344384
57	0x3c550f15	0.013004084
58	0xbd882862	-0.066483274
59	0xbbd675e3	-0.006544815
60	0x3e177a0c	0.14792651
61	0x3c9e5f9e	0.019332703
62	0xbb83678f	-0.004010148
63	0x3c4f4e8e	0.012653006
64	0xbd9537ee	-0.07286058
65	0x3cea4937	0.028599365
66	0xbdd71faf	-0.1050409
67	0xbbaf1e0a	-0.005344157
68	0x3e3dc958	0.18533838
69	0xbcdad9dd	-0.026715213
70	0xbd963cf7	-0.07335847
71	0x3e43430f	0.1906855
72	0xbd513652	-0.051077195
73	0x3dd6123a	0.10452695
74	0xbe11dd10	-0.14244485
75	0xbc820fec	-0.015876733
76	0x3d534df7	0.051588025
77	0xbd530243	-0.05151583
78	0xbc88ec50	-0.016714245
79	0x3c0bde63	0.008536908
80	0xbd4d6dc4	-0.05015351
81	0xbd536277	-0.051607575
82	0xbd2c325b	-0.04204021
83	0xbbb8a706	-0.005635145
84	0x3d439bb3	0.04775591
85	0x3e346543	0.17616753
86	0x3bb19700	0.005419612
87	0x3a56ffc4	0.0008201564
88	0x3d7fbd60	0.06243646
89	0x3bfa39ed	0.0076363
90	0xbda3b9ca	-0.07994421
91	0x3b7c5e42	0.003850833
92	0x3c782224	0.0151448585
93	0xbe4e9bd5	-0.20176633
94	0x3dbaa20a	0.09112938
95	0xbd484bd2	-0.048900433
96	0x3e1e232f	0.15443109
97	0x3d668e16	0.056287847
98	0xbdbdbfd4	-0.09265104
99	0x3d7821fa	0.060579278
100	0x3d663757	0.05620512
101	0x3db4d48b	0.08829602
102	0x3e4d624d	0.2005703
103	0x3ca05335	0.019570926
104	0xbdf6ccd3	-0.12050786
105	0xbe1fa849	-0.1559154
106	0xbe31f04b	-0.1737682
107	0x3dc23b11	0.09483922
108	0x3c6631e8	0.0140499845
109	0xbc79c93d	-0.015245733
110	0x3e0aabdb	0.1354212
111	0xbe26f396	-0.16303858
112	0xbe2c272c	-0.16811818
113	0x3dac46a8	0.08411914
114	0xbe52d02e	-0.20587227
115	0x3dc17796	0.09446637
116	0x3d7cfa7e	0.061762325
117	0xbe01d1b4	-0.12677652
118	0xbd681c56	-0.05666765
119	0xbda9f492	-0.08298601
120	0x3cb6ba3e	0.022305604
121	0x3e1d78f3	0.1537817
122	0xbde71281	-0.11282826
123	0x3d874269	0.066044636
124	0x3d188d7d	0.03724431
125	0xbe0ee380	-0.13953972
126	0xbdafe485	-0.085885085
127	0x3c56006b	0.013061623
128	0xbea8effd	-0.32995597
129	0x3bbe6c01	0.005811215
130	0xbdab7d72	-0.08373536
131	0x3e5ae5d6	0.21376738
132	0x3e1a69b1	0.1507938
133	0xbd72e523	-0.059300553
134	0xbd73a9fb	-0.059488278
135	0x3e5956d5	0.2122453
136	0xbdca9b4a	-0.098929
137	0xbd274d09	-0.04084495
138	0x3e797260	0.24360037
139	0xbe27a874	-0.16372854
140	0x3e96d7d8	0.2946155
141	0xbe4b4fd6	-0.19854674
142	0xbdfc7594	-0.12327114
143	0x3b055a7e	0.0020348127
144	0x3d75180e	0.059837393
145	0xbe4af743	-0.19820885
146	0xbdbff509	-0.093729086
147	0xbda05fdc	-0.07830784
148	0x3d410387	0.047122505
149	0x3e91b7ea	0.28460628
150	0x3e4d35d3	0.20040064
151	0x3defcb22	0.117086664
152	0xbe0ef1b2	-0.13959387
153	0xbe536188	-0.20642674
154	0xbcc15380	-0.023599386
155	0x3e3f153b	0.18660443
156	0xbdb3cb89	-0.087790556
157	0xbdab6f1f	-0.08370804
158	0x3de7f93f	0.11326837
159	0x3d942bdb	0.07234927
160	0x3eba1428	0.36343503
161	0x3d99bb9b	0.07506486
162	0x3c91a5ab	0.017779192
163	0x3e137d6e	0.14403316
164	0xbeb6ac14	-0.3567816
165	0x3e40b4f0	0.18819022
166	0x3e9fb551	0.3119302
167	0xbe39dba2	-0.1815019
168	0x3e2293c8	0.15876687
169	0xbdaeabd2	-0.08528866
170	0xbdca2584	-0.09870437
171	0x3d8e4d07	0.069482855
172	0xbe0d8043	-0.13818459
173	0xbdd109d7	-0.10206955
174	0x3e706234	0.23474962
175	0xbdf503fe	-0.11963652
176	0xbe7e7550	-0.24849439
177	0x3e62ee58	0.22161233
178	0xbe1d46ab	-0.15358989
179	0x3d826714	0.06367317
180	0xbe43dd4d	-0.19127388
181	0xbd925d05	-0.07146648
182	0x3e0c0f2d	0.13677664
183	0x3ddf9ff5	0.10919181
184	0xbe99c19b	-0.30030522
185	0xbe73680f	-0.23770164
186	0x3e89ff3f	0.2695255
187	0x3e615c43	0.22007851
188	0xbea73cd7	-0.32663605
189	0xbe793bee	-0.24339268
190	0xba97bdae	-0.0011576915
191	0x3e8f5407	0.27993795
192	0x3d55543d	0.05208229
193	0x3e238ede	0.15972468
194	0x3e07f70b	0.13277833
195	0x3ef2f882	0.4745522
196	0x3f00e08e	0.50342643
197	0x3e574552	0.21022537
198	0x3d9489f6	0.072528765
199	0x3e4adca5	0.19810732
200	0x3bc8b867	0.006125498
201	0x3dd0d0d6	0.10196082
202	0x3ed46a57	0.4148738
203	0x3c9a75a8	0.018854931
204	0x3d86a457	0.06574314
205	0x3e4482b8	0.1919049
206	0x3d9af53b	0.07566305
207	0xbcd0cde1	-0.025488796
208	0xbd60346f	-0.054737505
209	0xbbe22b73	-0.006902152
210	0x3d9bf8e1	0.07615829
211	0x3d956026	0.072937295
212	0xbe096b15	-0.13419755
213	0x3e8173dd	0.2528371
214	0x3eadc86d	0.33941975
215	0x3e35c96a	0.17752615
216	0x3d34fcd2	0.04418642
217	0x3e383b98	0.17991483
218	0x3e9c0307	0.3047106
219	0x3eb8289a	0.35968477
220	0x3df7d69c	0.1210148
221	0xbdbc321a	-0.091892436
222	0xbdbd4870	-0.09242332
223	0x3e7bfb41	0.24607565
224	0x3ece71af	0.4032111
225	0x3ea50438	0.3222978
226	0xbcb60b2e	-0.022222128
227	0x3e2af071	0.16693284
228	0xbdbf7002	-0.09347536
229	0xbe0dae0a	-0.13835922
230	0xbc6766cf	-0.014123633
231	0xbba5cf4a	-0.005060111
232	0x3e9ad3bf	0.30239674
233	0xbd8a6b9f	-0.06758808
234	0x3df561cc	0.11981544
235	0x3f034a72	0.5128547
236	0xbccdd44e	-0.025125649
237	0x3e953792	0.2914396
238	0x3ec9303d	0.39294615
239	0x3ed34448	0.41263032
240	0x3dd07207	0.10177999
241	0x3ee011e8	0.4376366
242	0x3cb3993c	0.021923654
243	0x3dfe9fba	0.12432809
244	0x3cb92e93	0.022605216
245	0x3e310937	0.17288671
246	0x3dc67bf6	0.096916124
247	0x3e36520d	0.17804737
248	0xbe386f07	-0.18011104
249	0xbd15c444	-0.036564127
250	0xbe11962c	-0.14217442
251	0xbcd89769	-0.026439385
252	0xbdac7117	-0.08420008
253	0x3dd5971c	0.104292125
254	0xbd32af0b	-0.043623965
255	0x3a067e05	0.0005130473
