result/experiment_07.11.2022_12.08.41/49/fold_1_state_dict.pt (torch, 59548 bytes, 92 tensors)

first_h.0.weight f4 [32, 3]
0	0xbebacbe4	-0.3648368
1	0x3cfe742a	0.03106125
2	0x3f1acae1	0.6046582
3	0xbee5ecf8	-0.44907355
4	0x3cabc4ab	0.020967802
5	0x3e15f34e	0.14643595
6	0x3dadaca8	0.08480197
7	0xbf24385d	-0.64148504
8	0xbd85d979	-0.0653562
9	0x3f4fe4d1	0.8120852
10	0xbe56e166	-0.2098442
11	0x3e969a23	0.29414472
12	0xbebc0758	-0.36724353
13	0xbdffa044	-0.1248174
14	0x3e6593f7	0.22419725
15	0x3d8b3f72	0.067992106
16	0xbec9eb4c	-0.3943733
17	0x3eb95ea1	0.3620501
18	0x3eea5582	0.45768362
19	0x3ea4fc25	0.3222362
20	0x3e382b82	0.17985347
21	0x3e98453a	0.29740316
22	0x3ea75583	0.32682428
23	0xbd546ecb	-0.051863473
24	0x3f058853	0.5216114
25	0xbf092396	-0.53569925
26	0xbe0ee783	-0.13955502
27	0xbe00cc09	-0.12577833
28	0xbe87b213	-0.26503047
29	0x3e26a8be	0.16275308
30	0x3e9ef2e4	0.31044686
31	0xbf097941	-0.53700644
32	0xbeeed92c	-0.46650064
33	0xbe82ceed	-0.25548497
34	0x3efdfcd9	0.4960697
35	0xbee0305f	-0.43786904
36	0x3e9162dc	0.28395736
37	0xbf13b81c	-0.57702804
38	0xbebb1d75	-0.3654591
39	0x3d94c10e	0.07263385
40	0xbe1657f0	-0.14681983
41	0x3ef7e8a5	0.4841968
42	0xbd2d1f9e	-0.04226648
43	0xbecc6214	-0.39918578
44	0xbeb985e6	-0.3623497
45	0x3e274fb1	0.16338994
46	0x3d87ce2a	0.066311195
47	0xbeb8485c	-0.35992706
48	0x3e3081e3	0.17237048
49	0xbee6b851	-0.45062497
50	0xbdce05f7	-0.100597315
51	0x3e17c404	0.14820868
52	0xbe0a9876	-0.13534722
53	0xbe8d66f7	-0.27617618
54	0xbcee60d9	-0.029098915
55	0x3e15f7e2	0.14645341
56	0xbeae33a2	-0.34023768
57	0xbd72aca9	-0.059246693
58	0x3e9c272a	0.3049863
59	0xbda9a7e9	-0.082839794
60	0x3ed0fc08	0.40817285
61	0xbee85590	-0.4537778
62	0xbf05394b	-0.5204055
63	0xbead3870	-0.3383212
64	0x3e6fd05c	0.23419327
65	0x3e89f1ad	0.26942196
66	0xbef60fa1	-0.480588
67	0x3e05dcfd	0.13072582
68	0xbe43a9d7	-0.19107758
69	0xbe7641f6	-0.240486
70	0x3f4a360d	0.78988725
71	0xbefc3073	-0.49255714
72	0x3e3cc00b	0.18432634
73	0x3e7069ea	0.23477903
74	0xbdcfda9f	-0.101491205
75	0x3e8aed43	0.2713414
76	0xbeaf2a3c	-0.3421191
77	0xbed9dfb2	-0.42553478
78	0xbeb58592	-0.3545347
79	0x3f43ea9e	0.7652987
80	0xbe1c1ab3	-0.1524456
81	0xbf125d5c	-0.57173705
82	0xbe457946	-0.19284543
83	0xbea88c12	-0.32919365
84	0x3f00088d	0.5001305
85	0x3f112f46	0.5671276
86	0x3e7c357b	0.24629776
87	0xbde19a02	-0.11015703
88	0xbeff5826	-0.4987194
89	0x3dca27fb	0.09870907
90	0xbe8cbf31	-0.27489617
91	0x3d49b501	0.049244884
92	0xbe69f5ac	-0.22847623
93	0xbdfaaf39	-0.12240452
94	0x3e86d389	0.26333264
95	0x3f01c5fc	0.50692725

first_h.0.bias f4 [32]
0	0x3ef2a29d	0.4738969
1	0xbea01cb1	-0.3127189
2	0x3ec055ec	0.37565553
3	0x3ec0463a	0.3755358
4	0x3e6d2895	0.23160012
5	0x3f0b8772	0.5450355
6	0x3d3c5792	0.04598195
7	0xbd8ea448	-0.06964928
8	0xbea72c32	-0.32650906
9	0xbe046a1f	-0.12931107
10	0x3e52195f	0.20517491
11	0xbed27250	-0.4110284
12	0x3df4572f	0.119306915
13	0xbe1f77e5	-0.1557308
14	0xbee9f982	-0.45698172
15	0xbd903d33	-0.07042923
16	0xbe638fee	-0.22222874
17	0x3f03eeee	0.5153645
18	0xbe92e4f9	-0.28690317
19	0x3f10b03b	0.56518906
20	0x3eaa1786	0.33221072
21	0x3f1081c5	0.5644801
22	0xbb2d9818	-0.002648836
23	0xbc9a6e85	-0.018851528
24	0xbefb5901	-0.49091342
25	0x3e64e45d	0.22352739
26	0x3ebf3c98	0.37350917
27	0xbd5b712f	-0.053574737
28	0xbc96ecc1	-0.01842344
29	0xbcfebbf3	-0.03109548
30	0x3e9c1db6	0.30491418
31	0xbeadb3b2	-0.3392616

first_h.1.weight f4 [32]
0	0x3f85715b	1.0425218
1	0x3f7263ca	0.94683516
2	0x3f75ade4	0.9596846
3	0x3f81b0c0	1.0132065
4	0x3f8497ab	1.0358785
5	0x3f84b37b	1.0367273
6	0x3f8da8b8	1.1067114
7	0x3f7e34ba	0.99299204
8	0x3f752df1	0.95773226
9	0x3f719307	0.9436497
10	0x3f8afbba	1.0858071
11	0x3f85c7c0	1.0451584
12	0x3f6cac52	0.9245044
13	0x3f9b79ab	1.2146505
14	0x3f684104	0.90724206
15	0x3f84bb9e	1.0369756
16	0x3f622088	0.8833089
17	0x3f559281	0.8342667
18	0x3f6c5470	0.9231634
19	0x3f872970	1.0559521
20	0x3f86f67c	1.0543971
21	0x3f6cce35	0.92502147
22	0x3f59e206	0.8511051
23	0x3f8b1644	1.086617
24	0x3f890a00	1.0706177
25	0x3f537178	0.82595015
26	0x3f7cd7eb	0.98766965
27	0x3f847c7c	1.035049
28	0x3f61963d	0.8811987
29	0x3f89434f	1.0723666
30	0x3f878dff	1.0590209
31	0x3f71bd85	0.9442981

first_h.1.bias f4 [32]
0	0x3d2703ee	0.040775232
1	0xbd33b599	-0.043874357
2	0xbd52afc3	-0.05143715
3	0xbe2f67ff	-0.17129515
4	0x3db7f748	0.08982712
5	0xbdfb5880	-0.122727394
6	0xbd9ba159	-0.07599134
7	0xbe1e673a	-0.15469065
8	0xbe0d29e3	-0.1378551
9	0xbc2f8523	-0.010712895
10	0xbd9e46a2	-0.07728316
11	0x3d727f26	0.05920329
12	0xbde6950e	-0.11258899
13	0x3e5676d0	0.20943761
14	0xbe02b23b	-0.12763302
15	0xbe2585e6	-0.1616436
16	0xbe1fa8a7	-0.1559168
17	0xbe0c203c	-0.13684171
18	0xbdcbd657	-0.099529915
19	0x3e71275c	0.2355017
20	0xbca77879	-0.020443188
21	0xbd6fca02	-0.05854226
22	0xbe66764c	-0.22506064
23	0x3bd06b3b	0.006360439
24	0xbd9f8e2e	-0.077907905
25	0xbde703be	-0.11280011
26	0xbbab8f08	-0.0052355565
27	0x3de4972d	0.11161647
28	0xbe6921cf	-0.22766803
29	0x3dc97fc5	0.09838823
30	0x3dc97355	0.09836451
31	0xbd725376	-0.059161626

first_h.1.running_mean f4 [32]
0	0xc8df2da1	-457069.03
1	0xc9095b1b	-562609.7
2	0x47cf7da1	106235.26
3	0x497861b9	1.01737156e+06
4	0xc8e0a788	-460092.25
5	0x47a65f13	85182.15
6	0x490bfb50	573365.0
7	0x48b5e0f7	372487.72
8	0x491f8951	653461.06
9	0xc819e615	-157592.33
10	0x48bde6d6	388918.7
11	0xc89c4b56	-320090.7
12	0x48adbcf7	355815.72
13	0x47b1bda2	91003.266
14	0xc74ee0b4	-52960.703
15	0x4847e533	204692.8
16	0x4852e312	215948.28
17	0x48353164	185541.56
18	0xc70e6826	-36456.15
19	0xc790f7a1	-74223.26
20	0x48f9a73d	511289.9
21	0xc8cef5c2	-423854.06
22	0xc912fe26	-602082.4
23	0xc8931c83	-301284.1
24	0x48617c98	230898.38
25	0x48a5f94c	339914.38
26	0xc8d8e635	-444209.66
27	0xc92ee1e4	-716318.25
28	0x4918fd86	626648.4
29	0xc806c6e4	-138011.56
30	0xc8a82a02	-344400.06
31	0xc815c01e	-153344.47

first_h.1.running_var f4 [32]
0	0x548c6f64	4.825314e+12
1	0x54d4c5e7	7.3108265e+12
2	0x5272cc2f	2.6070193e+11
3	0x55adef0a	2.3905272e+13
4	0x548e4bbf	4.8892493e+12
5	0x521c146c	1.6758938e+11
6	0x54dcf6f5	7.5922885e+12
7	0x543a837e	3.20428e+12
8	0x550f85ac	9.862767e+12
9	0x53058fd4	5.736437e+11
10	0x544b600b	3.4939588e+12
11	0x5409bff2	2.3665233e+12
12	0x542a4546	2.9252266e+12
13	0x523221fb	1.9126857e+11
14	0x517142bc	6.476292e+10
15	0x5361539d	9.6777044e+11
16	0x537acbeb	1.077163e+12
17	0x53392836	7.952436e+11
18	0x50e4ac25	3.0691895e+10
19	0x51ed0687	1.27252095e+11
20	0x54afbc50	6.038229e+12
21	0x5471886a	4.149503e+12
22	0x54f3abb5	8.3724626e+12
23	0x53f412fd	2.0965812e+12
24	0x538f5860	1.231326e+12
25	0x541b57bd	2.6687677e+12
26	0x5484a80a	4.5580393e+12
27	0x552c75c1	1.1851359e+13
28	0x5503f9f9	9.069353e+12
29	0x52ccd83c	4.3990057e+11
30	0x541f75f9	2.7395162e+12
31	0x52fcedb8	5.4316e+11

first_h.3.weight f4 [32, 32]
0	0x3d887554	0.066630036
1	0x3dd5055f	0.10401415
2	0xbda7f174	-0.082003504
3	0x3c2a9811	0.010412232
4	0xbd6d3e76	-0.057920896
5	0xbe034826	-0.12820491
6	0xbe099dc9	-0.13439097
7	0xbe5815e6	-0.21102104
8	0xbe1c921a	-0.15290108
9	0x3c873f8e	0.016509797
10	0xbea3184b	-0.31854472
11	0xbd58b6d4	-0.052908733
12	0xbe080550	-0.13283277
13	0xbe26e182	-0.16296962
14	0x3e6273e2	0.22114518
15	0xbe22dd27	-0.15904675
16	0xbe5e2230	-0.21692729
17	0xbe1faca9	-0.15593208
18	0x3dba3ad5	0.090932526
19	0x3ea619c3	0.3244153
20	0xbe1d0121	-0.15332462
21	0xbd2b7ef1	-0.041869108
22	0x3d4acf86	0.049514316
23	0x3e75dac7	0.24009238
24	0xbea1d257	-0.3160579
25	0x3b0bdbf8	0.0021340828
26	0xbe93020a	-0.28712493
27	0x3cfcfba8	0.030881718
28	0x3d923303	0.07138636
29	0x3e356e59	0.17717876
30	0x3dbf5e9a	0.09344216
31	0x3cf2f3d6	0.029657286
32	0x3ecaa3fc	0.39578235
33	0x3e93e9eb	0.28889403
34	0xbd204c90	-0.039135516
35	0x3d35a1a3	0.044343602
36	0x3e888df6	0.26670808
37	0xbb75451b	-0.0037425223
38	0xbe0af17e	-0.13568684
39	0xbda60fab	-0.08108457
40	0xbe1117e5	-0.14169271
41	0x3e9d00d8	0.30664706
42	0xbddbd58c	-0.1073409
43	0x3e9b66be	0.30351824
44	0xbdd46766	-0.10371284
45	0xbe8cd60a	-0.2750705
46	0x3dad7c61	0.08470989
47	0x3d57ff49	0.052733693
48	0x3e282cfa	0.16423407
49	0xbdd83062	-0.10556103
50	0x3d30e1db	0.043184143
51	0x3e0fc396	0.14039454
52	0x3de9a6f8	0.114088
53	0x3e97e9ea	0.2967065
54	0xbd460418	-0.048343748
55	0x3e627dae	0.22118255
56	0xbd829fdf	-0.06378149
57	0x3d6985a1	0.057012204
58	0xbc65bd50	-0.014022186
59	0x3e8c3408	0.27383447
60	0x3c87a066	0.016555976
61	0x3e94b346	0.29043025
62	0x3e3a10a2	0.18170407
63	0x3d09d2e1	0.033648375
64	0xbd87067e	-0.06593035
65	0xbe067c43	-0.1313334
66	0xbe14769a	-0.14498368
67	0xbdf23e27	-0.11828261
68	0xbd94a085	-0.07257179
69	0xbe720d1e	-0.23637816
70	0xbe4a06b2	-0.19729117
71	0xbe90eaf0	-0.28304243
72	0xbe29b6ea	-0.16573682
73	0xbe06042f	-0.13087533
74	0xbd08dc3d	-0.03341316
75	0xbd896e00	-0.06710434
76	0xbe596471	-0.21229722
77	0xbc98f7ca	-0.018672843
78	0xbe1ff066	-0.15619048
79	0xbe2a2a77	-0.16617762
80	0xbe847b60	-0.25875378
81	0xbd23462c	-0.039861843
82	0xbe13a32b	-0.14417712
83	0xbce70b91	-0.028203757
84	0xbe97e115	-0.2966391
85	0x3d56b364	0.052417174
86	0x3d6c28b2	0.057655998
87	0xbe503dc1	-0.20336057
88	0x3d129d20	0.035794377
89	0x3cb52f27	0.02211721
90	0xbe0c144b	-0.13679616
91	0xbc95e290	-0.01829651
92	0xbe4f640c	-0.20253009
93	0xba5f6fec	-0.00085234526
94	0xbe8d3cf2	-0.2758556
95	0xbe8cdb57	-0.27511093
96	0x3e590d7f	0.21196555
97	0xbda68769	-0.08131296
98	0xbe4f0d13	-0.20219831
99	0xbcfd6571	-0.03093216
100	0x3d73b5f9	0.059499715
101	0x3c2661ef	0.010155185
102	0xbdeabd6a	-0.11461909
103	0x3d87785f	0.06614756
104	0xbcbe5679	-0.023234593
105	0x3d8c4670	0.068493724
106	0xbe209432	-0.15681532
107	0x3e62df10	0.22155404
108	0xbde840ec	-0.11340508
109	0x3d782c26	0.06058898
110	0xbd22960c	-0.039693877
111	0xbdc6d209	-0.0970803
112	0x3d7e41c0	0.062074423
113	0x3da5bb5c	0.080923766
114	0xbd8bb393	-0.068213604
115	0xbd978a87	-0.07399469
116	0xbe056322	-0.13026097
117	0xbce91c9b	-0.028456023
118	0x3d1836a3	0.03716148
119	0xbd8aaf58	-0.067717254
120	0xbdef5a43	-0.11687138
121	0x3d34e2b8	0.04416153
122	0xbe5f9521	-0.21834232
123	0x3da85a2f	0.08220326
124	0xbcb242f0	-0.021760434
125	0x3e4a17e5	0.19735678
126	0x3e6088b3	0.21927147
127	0xbde94252	-0.11389603
128	0x3e26e005	0.16296394
129	0x3cdbdca4	0.026838608
130	0xbd6e8346	-0.05823066
131	0xbde4880d	-0.11158762
132	0x3d11496e	0.03547042
133	0x3d2795f7	0.040914502
134	0xbe069bd1	-0.13145377
135	0x3d2b290b	0.04178719
136	0xbdce38e1	-0.100694425
137	0xbd7d85ef	-0.061895307
138	0xbd1f736a	-0.038928427
139	0x3d75b270	0.059984624
140	0xbe079603	-0.13240819
141	0xbd405a05	-0.04696085
142	0x3ce573fb	0.028009405
143	0xbe825511	-0.25455526
144	0xbe1b1132	-0.15143278
145	0xbd6003ae	-0.05469101
146	0xbd88cbd6	-0.066795036
147	0x3e50a537	0.20375524
148	0xbdd72aeb	-0.10506233
149	0xbdad4f57	-0.084623985
150	0x3e220000	0.15820312
151	0x3dc70cd7	0.09719246
152	0xbe3279af	-0.17429231
153	0x3e82c4a3	0.25540647
154	0xbdc1bc55	-0.094597496
155	0x3e465766	0.19369277
156	0x3db9c2de	0.09070371
157	0x3e51cdf8	0.20488727
158	0x3dc88425	0.097908296
159	0x3e23e2ef	0.16004537
160	0x3eb2d297	0.34926292
161	0x3e8945b9	0.26811007
162	0xbe042d4a	-0.12907901
163	0xbe86fdb7	-0.26365444
164	0x3ea0f75b	0.31438717
165	0xbcbe153b	-0.023203483
166	0x3b3d6e99	0.0028905033
167	0xbcb45b2a	-0.022016127
168	0xbe746db6	-0.23869976
169	0x3e9ec008	0.31005883
170	0x3c3d16e1	0.011541099
171	0x3ece10d5	0.40247217
172	0xbcb4c5b1	-0.022066923
173	0xbeaa6ccd	-0.33286133
174	0x3e70711a	0.23480645
175	0xbe851ac7	-0.25996992
176	0xbd355b40	-0.044276476
177	0x3cf6ef0b	0.030143281
178	0x3ed2921e	0.41127104
179	0x3e2f849e	0.17140433
180	0xbd4e13e9	-0.050311957
181	0x3e014f8c	0.12628001
182	0x3e69b0bb	0.22821324
183	0x3d016e49	0.031599317
184	0xbcea604d	-0.028610373
185	0x3eac30b2	0.33630902
186	0xbe0a5e36	-0.13512501
187	0x3ee08f4e	0.43859333
188	0xbccc13b7	-0.024911745
189	0x3ec3ccb9	0.38242128
190	0x3ee20c26	0.44149894
191	0x3e966e9d	0.29381266
192	0xbc8b72a8	-0.017022446
193	0xbbd60b62	-0.0065321187
194	0x3e1b197e	0.15146443
195	0xbd64da2b	-0.055872124
196	0x3d23de96	0.040007196
197	0x3de9abcb	0.1140972
198	0x3d66b376	0.05632349
199	0x3d6aeba3	0.057353627
200	0x3e5bc5e4	0.21462208
201	0x3db7964c	0.08964214
202	0x3e3c40a0	0.18384027
203	0x3e5895b4	0.21150857
204	0x3d5bfbd5	0.053706963
205	0xbe9741c7	-0.29542372
206	0xbc450360	-0.01202473
207	0x3e18f9f8	0.14939106
208	0x3d90b9d3	0.07066693
209	0xbcdbd395	-0.026834289
210	0x3d0244cf	0.031803902
211	0x3e99643e	0.2995929
212	0xbd8d2ad1	-0.06892932
213	0x3dadc935	0.08485643
214	0x3d293ef7	0.041319814
215	0x3d65194e	0.055932336
216	0xbd1e46a5	-0.03864159
217	0x3da6f6f5	0.08152572
218	0xbd764e0b	-0.06013302
219	0x3d3a30ac	0.045456573
220	0x3dba686b	0.091019474
221	0x3e71446f	0.23561262
222	0x3e54d915	0.20785935
223	0xbc9fdbcb	-0.019513985
224	0x3db2feab	0.0873998
225	0x3e10644e	0.14100763
226	0xbe3443f9	-0.17604055
227	0x3d51e848	0.05124691
228	0x3e439ee2	0.19103578
229	0xbe18c7c8	-0.1491996
230	0x3d51a553	0.051183056
231	0xbdcb27d2	-0.099197045
232	0xbe5bfd7f	-0.2148342
233	0x3ded2311	0.11578954
234	0xbb4ed71e	-0.0031561325
235	0x3de367f4	0.11103812
236	0x3cfb3c56	0.030668419
237	0xbe9e40bc	-0.30908763
238	0x3d9240f2	0.071412936
239	0x3cf7f3ba	0.030267585
240	0xbd4eba85	-0.050470848
241	0x3d93b109	0.07211501
242	0x3e7e5ba9	0.24839653
243	0x3e54c7e1	0.20779373
244	0xbe84ab98	-0.25912166
245	0xbcc4d376	-0.024026614
246	0xbd58017f	-0.0527358
247	0x3e0ce398	0.13758695
248	0xbdc66718	-0.09687632
249	0x3e5b9136	0.21442112
250	0xbe01f747	-0.12691985
251	0x3e68fc1b	0.2275242
252	0x3cfdd8e9	0.03098722
253	0x3d98fe23	0.07470348
254	0x3e52ce2a	0.20586458
255	0x3cf8c89b	0.030369094

first_h.3.bias f4 [32]
0	0x3d8c1946	0.06840758
1	0xbe0c1487	-0.13679706
2	0xbda22e6b	-0.0791901
3	0x3e2f8f5b	0.1714453
4	0x3d26c509	0.04071525
5	0x3e64624d	0.22303124
6	0xbdbef51e	-0.09324096
7	0x3d33c761	0.043891314
8	0xbdf17d98	-0.11791533
9	0xbc9344fc	-0.01797723
10	0x3de1597e	0.110033974
11	0xbe9dc78a	-0.308163
12	0x3d40bb11	0.0470534
13	0x3eaae4c0	0.33377647
14	0x3e5306f0	0.20608115
15	0x3ea4986a	0.32147533
16	0x3e27f6dc	0.16402763
17	0xbe2af490	-0.16694856
18	0xbdd95cb5	-0.106133856
19	0xbe92505f	-0.28576943
20	0x3d53b63f	0.051687475
21	0xbc6e78b2	-0.014555143
22	0xbde7cff6	-0.11318962
23	0x3e1d63cd	0.15370102
24	0xbe58fa28	-0.21189177
25	0xbd71d4ca	-0.059040822
26	0x3e181cc5	0.14854725
27	0x3d28ddfd	0.04122733
28	0x3d2d069d	0.042242635
29	0xbdcf0442	-0.10108234
30	0x3e84a479	0.25906733
31	0x3e12ea86	0.14347276

first_h.4.weight f4 [32]
0	0x3f2866b3	0.65781707
1	0x3f22bbe6	0.6356796
2	0x3f153edb	0.58299035
3	0x3f1d8400	0.6152954
4	0x3e8adbff	0.2712097
5	0x3f0ea762	0.55724156
6	0xbdf5644b	-0.1198202
7	0x3f25e9ab	0.64809674
8	0x3f09325e	0.5359248
9	0x3e25d7ca	0.16195598
10	0x3edf4b22	0.4361201
11	0x3f1cbc97	0.61225265
12	0xbdea2275	-0.114323534
13	0x3f41cf2a	0.7570673
14	0x3f2d75b9	0.67757756
15	0x3ee90dbf	0.455183
16	0x3ecf9600	0.40544128
17	0x3f288384	0.65825677
18	0x3cc95488	0.02457644
19	0x3f090908	0.53529406
20	0x3f2a87cc	0.6661346
21	0xbda491eb	-0.08035644
22	0x3f48827b	0.783241
23	0x3b67bf98	0.0035362002
24	0x3f137557	0.5760092
25	0x3f277b5f	0.65422624
26	0x3efe7785	0.4970056
27	0x3e33cbca	0.17558208
28	0xbc9da31d	-0.019242818
29	0x3c88b255	0.016686598
30	0x3f1bac7c	0.60810065
31	0x3f05283d	0.52014524

first_h.4.bias f4 [32]
0	0xbf130897	-0.5743498
1	0xbf1fbb40	-0.62395096
2	0xbea61ea7	-0.3244526
3	0xbea903fe	-0.33010858
4	0xbed66673	-0.41875038
5	0xbf22c934	-0.6358826
6	0xbf4537f9	-0.7703853
7	0xbec2bddb	-0.38035473
8	0xbe912cb3	-0.28354415
9	0xbec0c3d1	-0.37649396
10	0xbeb61d6b	-0.3556932
11	0xbeb2f20b	-0.3495029
12	0xbed0978e	-0.40740627
13	0xbeba6b0d	-0.36409798
14	0xbec992b3	-0.39369735
15	0xbefdc69b	-0.49565586
16	0xbee097bd	-0.43865767
17	0xbf2a1310	-0.6643534
18	0xbed571cc	-0.41688383
19	0xbed9410d	-0.42432442
20	0xbec96aed	-0.3933939
21	0xbf4caee6	-0.79954374
22	0xbefde20e	-0.4958653
23	0xbe5e1698	-0.21688306
24	0xbeac72a2	-0.33681208
25	0xbed1c9ff	-0.40974423
26	0xbf267f54	-0.6503804
27	0xbef05039	-0.46936205
28	0xbf381966	-0.71913755
29	0xbebd4164	-0.36963952
30	0xbf00873c	-0.5020635
31	0xbf037eb1	-0.5136519

first_h.4.running_mean f4 [32]
0	0xbe1e6354	-0.15467578
1	0x3f07b116	0.53004587
2	0xbf71f6ca	-0.94517195
3	0x3e3d921b	0.18512766
4	0x3e22506b	0.1585099
5	0x3f80de5e	1.0067861
6	0x3eda92e0	0.42690182
7	0x3e8f7d38	0.28025222
8	0xbec2a1e4	-0.38014138
9	0x3e577209	0.21039595
10	0xbf9b5e00	-1.2138062
11	0xbe878692	-0.26469857
12	0x3e7b5d22	0.24547246
13	0xbedc1bee	-0.4299006
14	0xbe3b12ce	-0.18268892
15	0xbeb7df53	-0.3591257
16	0xbf3ad804	-0.72985864
17	0xbf5be63c	-0.85898185
18	0x3e32c2b3	0.17457084
19	0xbf6008af	-0.8751325
20	0xbd8ad911	-0.067796834
21	0x3f1b6dcd	0.6071442
22	0xbeda682b	-0.426576
23	0x3eeefc7c	0.46677005
24	0xbf965ca8	-1.1747026
25	0xbf04213d	-0.5161322
26	0x3fce0856	1.6096294
27	0x3f028882	0.50989544
28	0x402a57eb	2.661616
29	0x3cce9716	0.025218528
30	0xbd2563d6	-0.040378414
31	0x3ec22550	0.37919092

first_h.4.running_var f4 [32]
0	0x40986c0f	4.7631907
1	0x3f5bff2e	0.8593625
2	0x40808996	4.016795
3	0x3f00c549	0.50301033
4	0x3f826504	1.0187078
5	0x40047116	2.0694022
6	0x3e84aee1	0.25914672
7	0x3f953e94	1.1659722
8	0x4000eb31	2.014355
9	0x41b50eb5	22.632181
10	0x4211b264	36.42421
11	0x3ebafc8a	0.36520797
12	0x3e77b91e	0.2419171
13	0x411025d4	9.009235
14	0x40897192	4.2951136
15	0x3fb0092b	1.3752798
16	0x420fccd9	35.950047
17	0x4113b6ca	9.232126
18	0x3f56599d	0.8373049
19	0x40c3ccab	6.118734
20	0x3f35bfb0	0.70995617
21	0x3ea5a0da	0.32349283
22	0x409131ee	4.537345
23	0x3f49a871	0.78772646
24	0x413d1173	11.81676
25	0x3f6443eb	0.89166135
26	0x3f7c53ae	0.98565185
27	0x3e1d8d8d	0.15386029
28	0x3f8de379	1.1085044
29	0x3f2d2158	0.67629004
30	0x3f4a0214	0.7890942
31	0x4083cb7a	4.1185884

nns.0.0.weight f4 [32, 32]
0	0xbe4d2111	-0.20032145
1	0xbe828d81	-0.25498584
2	0xbe3e004f	-0.18554805
3	0xbe57c7c7	-0.21072303
4	0xbe3bd52d	-0.18343039
5	0xbe6c672e	-0.23086235
6	0xbe521899	-0.20517196
7	0xbda2409f	-0.07922482
8	0xbe18c4c1	-0.14918806
9	0xbe8cd979	-0.27509668
10	0xbc85c656	-0.016329926
11	0xbdc2c0ab	-0.09509405
12	0xbe024c2c	-0.1272437
13	0xbe4fbb54	-0.20286304
14	0xbe2e8ada	-0.17045155
15	0xbe391869	-0.18075718
16	0x3e8fba16	0.2807166
17	0xbb4e0da7	-0.0031441243
18	0xbe8feaf2	-0.28108937
19	0xbe3724d8	-0.17885149
20	0x3d880783	0.06642058
21	0xbdd33167	-0.10312157
22	0xbc18384f	-0.009290769
23	0xbe59a100	-0.21252823
24	0xbe6e60c3	-0.23279099
25	0x3c2d8bea	0.01059244
26	0xbe1f825b	-0.1557707
27	0x3d06cc15	0.03290947
28	0xbe72cc30	-0.23710704
29	0xbea46f93	-0.32116374
30	0xbdf6c850	-0.12049925
31	0xbdf5b698	-0.119977176
32	0x3e0aae09	0.13542952
33	0x3e20886b	0.1567704
34	0xbc18289c	-0.009287026
35	0x3dfad5b9	0.122477956
36	0xba77d8c6	-0.0009454604
37	0x3e771943	0.2413073
38	0x3b1587a6	0.0022816448
39	0xbd0b0b58	-0.033946365
40	0xbe2aec2c	-0.16691655
41	0xbeba4c77	-0.36386463
42	0xbdefec1f	-0.117149584
43	0xbe00b759	-0.12569942
44	0x3e2f47a5	0.17117174
45	0xbb931414	-0.0044884775
46	0xbdba3e23	-0.09093883
47	0xbe6849a5	-0.22684343
48	0xbd33bac3	-0.04387928
49	0xbdb284b2	-0.08716716
50	0x3d8b3dc6	0.06798892
51	0xbe56276b	-0.20913474
52	0x3d04f199	0.032456968
53	0xbb039d54	-0.0020082789
54	0x3e4562f4	0.19276029
55	0xbd0c86a9	-0.03430811
56	0x3da4d30a	0.08048065
57	0xbd873f67	-0.0660389
58	0x3e46259e	0.19350287
59	0x3e5598eb	0.20859115
60	0x3e6a67c2	0.22891143
61	0x3e2aa71f	0.16665314
62	0x3d88ce75	0.066800036
63	0x3ea6e440	0.32596016
64	0xbe1bac92	-0.15202549
65	0xbe40ee66	-0.18840942
66	0xbd3fc682	-0.04682017
67	0x3ccaface	0.024777796
68	0xbe246788	-0.16055119
69	0xbd65d18e	-0.05610805
70	0xbe428f92	-0.1900008
71	0xbe9b08df	-0.30280206
72	0x3da8f7fb	0.082504235
73	0x3efc2d9e	0.49253553
74	0xbbc89667	-0.006121445
75	0xbe0979a0	-0.13425303
76	0xbe07d1e0	-0.13263655
77	0xbde013bc	-0.10941264
78	0xbe933f4d	-0.28759232
79	0x3d0b385c	0.033989295
80	0xbdc31835	-0.095261015
81	0xbd7d70b5	-0.061875064
82	0xbe51b57e	-0.2047939
83	0xbd168859	-0.036751125
84	0x3e00adcb	0.12566297
85	0xbe6b7dc8	-0.229972
86	0xbe5abf4c	-0.21362036
87	0xbdd289fd	-0.102802254
88	0x3dd4fb92	0.10399546
89	0xbe2e550f	-0.17024635
90	0x3ab59f0e	0.0013856606
91	0x3d170174	0.03686662
92	0xbd18b90b	-0.037285846
93	0x3dc14e22	0.09438731
94	0x3dfb29d7	0.1226384
95	0xbdb207b5	-0.08692876
96	0x3caf4dbe	0.021399375
97	0x3e3de51b	0.18544428
98	0xbdec7844	-0.11546376
99	0xbe23ed24	-0.1600843
100	0x3e6f4fba	0.23370257
101	0x3e460a73	0.19339924
102	0x3e76ee6f	0.24114393
103	0x3e2e064f	0.16994594
104	0xbd9c4e91	-0.07632173
105	0x3e387ea2	0.18017057
106	0xbebcaf02	-0.3685227
107	0xbd317553	-0.04332478
108	0x3e80b3ae	0.25137085
109	0x3c1ba92d	0.009500784
110	0xbe1070d7	-0.14105545
111	0x3d1457a2	0.036216386
112	0xbdfea287	-0.124333434
113	0x3e0c719b	0.13715212
114	0x3c919a7c	0.01777386
115	0xbd666d21	-0.056256417
116	0x3b99154d	0.0046717287
117	0x3e14d73b	0.14535229
118	0x3e49b8bd	0.19699378
119	0x3e177dc9	0.14794077
120	0x3c954958	0.01822345
121	0xbded75b0	-0.11594713
122	0x3d21c23b	0.039491873
123	0x3e296445	0.16542156
124	0x3f0b24bc	0.5435293
125	0x3e4e379c	0.20138401
126	0xbdb65f3f	-0.089048855
127	0x3eb964ee	0.36209816
128	0xbe941262	-0.28920275
129	0xbe7fa77f	-0.24966238
130	0x3e648130	0.22314906
131	0xbe3c84e9	-0.18410076
132	0xbe9f4185	-0.31104675
133	0xbe1a2bc5	-0.15055759
134	0xbea66291	-0.32497075
135	0xbea12e10	-0.31480455
136	0xbd3e7256	-0.046495758
137	0xbe952df0	-0.2913661
138	0xbddd4f2f	-0.10806119
139	0x3c0cda99	0.00859704
140	0xbd52fd04	-0.051510826
141	0xbdf41b12	-0.11919226
142	0xbdf0424e	-0.117313966
143	0xbe1d3d0b	-0.15355317
144	0xbcd334fc	-0.0257821
145	0xbe6932fb	-0.22773354
146	0xbe4b0870	-0.19827437
147	0xbe361bca	-0.17784038
148	0x3d56ae5b	0.052412372
149	0x3dea4b98	0.114401996
150	0xbe8a62ef	-0.27028605
151	0xbe51c33d	-0.20484634
152	0xbd009a9a	-0.03139744
153	0x3e0fa7df	0.14028881
154	0xbe60c19f	-0.2194886
155	0xbe66333c	-0.22480482
156	0xbebccd7f	-0.3687553
157	0xbe9be3c6	-0.30447215
158	0xbe0c5ecc	-0.13708037
159	0xbecd5873	-0.40106544
160	0xbe4391d0	-0.19098592
161	0xbe408024	-0.18798882
162	0xbcf6cafd	-0.03012609
163	0xbe1322b9	-0.14368714
164	0x3d92ce92	0.071683064
165	0x3d8a803b	0.06762739
166	0xbe3a111a	-0.18170586
167	0xbe5c19bf	-0.21494196
168	0xbdd71550	-0.10502112
169	0xbe0472c7	-0.12934409
170	0x3d808be7	0.06276684
171	0xbf0d24a2	-0.5513402
172	0xbeb6d51b	-0.35709462
173	0xbe2df1bf	-0.1698675
174	0xbda649ab	-0.0811952
175	0x3ddbcf5e	0.107329115
176	0xbcb5769f	-0.02215129
177	0xbde5b77e	-0.11216639
178	0xbd3cb1bb	-0.046067934
179	0xbeb8ea62	-0.3611632
180	0x3dc544a3	0.09632232
181	0xbe3ee292	-0.18641117
182	0xbe61c2a9	-0.22046913
183	0xbc8d088d	-0.017215991
184	0x3e5c0d7d	0.2148952
185	0x3d322f9e	0.043502443
186	0xbbc27264	-0.0059340466
187	0xbdc4e382	-0.09613706
188	0xbe427159	-0.18988551
189	0xbe7142ba	-0.2356061
190	0xbe803456	-0.2503993
191	0xbeb66a49	-0.35627964
192	0xbe184808	-0.14871228
193	0xbea1030f	-0.31447646
194	0x3d1bddbd	0.038053263
195	0xbdb7acee	-0.089685306
196	0xbe1cc2be	-0.15308663
197	0x3c398a91	0.011324541
198	0xbeb83692	-0.35979134
199	0xbde65541	-0.1124673
200	0x3e433c14	0.19065887
201	0xbe11b217	-0.14228092
202	0x3d221815	0.039573748
203	0x3d86a07f	0.06573581
204	0xbe8a25db	-0.26982006
205	0xbdfd980e	-0.12382518
206	0xbe69d0c5	-0.22833546
207	0xbe0281dc	-0.1274485
208	0xbc92f9fb	-0.017941466
209	0xbdf7e8ab	-0.12104925
210	0xbd48e0e6	-0.049042605
211	0x3b1d805c	0.0024032807
212	0xbd4ce225	-0.050020356
213	0xbd9895c3	-0.0745044
214	0x3de05597	0.10953825
215	0x3d6a9323	0.057269227
216	0x3d5b2c38	0.053508967
217	0xbe67a4fc	-0.2262153
218	0xbaf07ecc	-0.0018348335
219	0x3d033573	0.032033395
220	0xbe523cb7	-0.20530973
221	0xbe6f9c46	-0.23399457
222	0x3e235dfc	0.15953821
223	0xbe8bb4aa	-0.27286273
224	0xbd9fc5a0	-0.07801366
225	0xbe60f663	-0.21968989
226	0x3d3073c5	0.043079156
227	0xbd049185	-0.03236534
228	0xbe47ff73	-0.1953104
229	0x3cb89722	0.022533003
230	0xbeed1a24	-0.46309006
231	0xbe35cc1d	-0.17753644
232	0xbe3a77ab	-0.18209712
233	0xbe466314	-0.19373733
234	0xbe4207c1	-0.1894827
235	0xbe2ba090	-0.16760468
236	0xbf057345	-0.5212901
237	0x3dbc24b7	0.0918669
238	0xbe0ee1c5	-0.13953312
239	0x3dc7e148	0.09759766
240	0xbe1d8ffc	-0.15386957
241	0xbc4be6ea	-0.012445191
242	0xbd8fa423	-0.070137285
243	0x3e0f06fa	0.13967505
244	0x3e01c7cf	0.12673877
245	0x3e8137f4	0.25238
246	0xbda0c899	-0.07850761
247	0xbe1ffd58	-0.15623987
248	0x3debe4cf	0.11518251
249	0xbee29d7e	-0.44260782
250	0xbd93211c	-0.071840495
251	0xbe2b6713	-0.16738538
252	0xbe623cb7	-0.22093473
253	0xbdccb6e9	-0.09995825
254	0xbea23589	-0.3168147
255	0xbd8d1bd6	-0.06890075

nns.0.0.bias f4 [32]
0	0x3ef1ba23	0.47212324
1	0x3f8d3f71	1.1034986
2	0x3bf9eb46	0.0076269237
3	0xbf819feb	-1.0126928
4	0xbe86bf6c	-0.26317918
5	0x3e7543a2	0.23951581
6	0x3f11b662	0.5691892
7	0x3fa67532	1.3004515
8	0xbf9c4131	-1.2207395
9	0xbdff1e22	-0.12456919
10	0x3f1f625d	0.62259465
11	0x3c90329f	0.017602263
12	0x3efbe560	0.49198437
13	0x3f938666	1.152539
14	0x3f5b2a26	0.8561119
15	0x3e4514ae	0.1924617
16	0xbf83d389	-1.029893
17	0xbf86e7be	-1.0539472
18	0xbf0eb174	-0.5573952
19	0xbeaa0aeb	-0.33211455
20	0x3e1aefa3	0.15130477
21	0x3e968ef8	0.29405951
22	0xbb9a6a55	-0.004712383
23	0xbf9711f1	-1.180235
24	0xbf9b5e1a	-1.2138093
25	0x3f2e0199	0.6797119
26	0x3f37feed	0.7187336
27	0xbe1f0ab2	-0.15531424
28	0x3e05f536	0.13081822
29	0x3f5f07a7	0.8712105
30	0xbb9482a8	-0.004532177
31	0xbf1f431d	-0.6221178

nns.0.1.weight f4 [32]
0	0x3f270c19	0.65252835
1	0x3f8cd771	1.1003247
2	0x3f69af6b	0.9128329
3	0x3f65396e	0.89540756
4	0x3f2ef9f4	0.6835015
5	0x3f8352ef	1.0259684
6	0x3f443f5b	0.7665917
7	0x3f96214b	1.172891
8	0x3f7817eb	0.96911496
9	0x3f708698	0.93955374
10	0x3f626901	0.88441473
11	0x3f8ce942	1.1008685
12	0x3f62a481	0.88532263
13	0x3fb01713	1.3757042
14	0x3f93bcdf	1.1542014
15	0x3ec969cd	0.39338532
16	0x3f6ba292	0.9204494
17	0x3f21b2ad	0.6316326
18	0x3f705dad	0.9389294
19	0x3f93cc17	1.1546658
20	0x3f60a79a	0.8775574
21	0x3f475f97	0.77880234
22	0x3f93a09b	1.1533388
23	0x3f779b1f	0.9672107
24	0x3f7380ff	0.9511871
25	0x3f8e3f87	1.1113137
26	0x3f7124eb	0.9419696
27	0x3f28eca7	0.659861
28	0x3f9946c4	1.1974721
29	0x3f390999	0.7228027
30	0x3f84ea8a	1.0384076
31	0x3f5f4ebe	0.87229526

nns.0.1.bias f4 [32]
0	0x3d8502e8	0.06494695
1	0xbf1fb151	-0.6237994
2	0xbeac74b9	-0.33682802
3	0xbf51e66c	-0.8199222
4	0x3b9d5c3d	0.0048022554
5	0x3ec00a06	0.37507647
6	0xbe610a4d	-0.21976586
7	0x3ef65b93	0.4811674
8	0xbebb57ff	-0.36590573
9	0xbf3c705d	-0.7360895
10	0xbe9ecc3e	-0.310152
11	0xbe8f0c12	-0.27938896
12	0xbdafcd78	-0.08584112
13	0xbda2645b	-0.079292975
14	0xbedd52d3	-0.43227252
15	0xbec41dda	-0.38304025
16	0xbe8cf496	-0.27530354
17	0xbe25e699	-0.16201247
18	0xbe193a9d	-0.14963765
19	0xbf0217c5	-0.5081752
20	0x3ba175c9	0.004927371
21	0xbee2e024	-0.4431163
22	0xbea3ac1f	-0.31967255
23	0xbea11a8c	-0.31465566
24	0xbe957338	-0.29189467
25	0x3df036d8	0.117292106
26	0xbe9ccd68	-0.30625463
27	0xbf590dc2	-0.8478662
28	0xbe1b6e6f	-0.15178846
29	0x3ea5fc4b	0.32419047
30	0x3ea33179	0.31873682
31	0xbec05fd2	-0.37573105

nns.0.1.running_mean f4 [32]
0	0x3eeece90	0.4664197
1	0x3f8c44eb	1.0958532
2	0x3c925fb9	0.01786791
3	0xbf812547	-1.0089501
4	0xbe89e46e	-0.2693209
5	0x3e727e40	0.23680973
6	0x3f10f360	0.5662136
7	0x3fa5f143	1.2964252
8	0xbf9c9f17	-1.223605
9	0xbe099b7d	-0.1343822
10	0x3f1f1692	0.62143815
11	0x3cfacf8d	0.030616546
12	0x3effad66	0.4993698
13	0x3f93f1bc	1.1558146
14	0x3f58efd0	0.84740925
15	0x3e4c0536	0.19923863
16	0xbf84056d	-1.0314156
17	0xbf87a067	-1.0595826
18	0xbf110607	-0.5664982
19	0xbea7ad2a	-0.327493
20	0x3e11da19	0.14243354
21	0x3e95fd8e	0.2929501
22	0x3b28fbc2	0.0025784825
23	0xbf9565d9	-1.1671706
24	0xbf9ba89a	-1.2160828
25	0x3f2c4cae	0.67304504
26	0x3f3a1db0	0.7270155
27	0xbe21e2b3	-0.15809135
28	0x3e0a15a7	0.13484822
29	0x3f5e0227	0.86722034
30	0xbc7fd819	-0.015615487
31	0xbf2065c4	-0.6265528

nns.0.1.running_var f4 [32]
0	0x3c2b9291	0.010471956
1	0x3c95dceb	0.018293818
2	0x3d0953ad	0.033527065
3	0x3b931bd4	0.0044894014
4	0x3c414e28	0.011798419
5	0x3b186c90	0.0023258068
6	0x3b37c0cb	0.0028038498
7	0x3baa5481	0.005198062
8	0x3b29abdd	0.0025889792
9	0x3cfb9371	0.030709954
10	0x39ed39e7	0.00045247303
11	0x3d5cc5f0	0.053899705
12	0x3c8d1d7e	0.017225977
13	0x3b5edc7f	0.0034005938
14	0x3cc4bef5	0.024016837
15	0x3c6ea2c0	0.01456517
16	0x3a45b22b	0.0007541503
17	0x3c269648	0.010167666
18	0x3cd71fdf	0.026260315
19	0x3bda21c8	0.006656859
20	0x3ccfb177	0.025353177
21	0x39ca894f	0.00038630745
22	0x3c8b4769	0.017001824
23	0x3d5e56d7	0.054282036
24	0x3ad9abf3	0.0016607031
25	0x3c7db85b	0.015485848
26	0x3cb1823b	0.021668544
27	0x3b274102	0.0025520925
28	0x3b9e5987	0.00483245
29	0x3ba34fb9	0.004983869
30	0x3d227033	0.039657783
31	0x3bcbf43c	0.0062241834

nns.0.3.weight f4 [32, 32]
0	0x3d833703	0.06406977
1	0xbe9b6e75	-0.3035771
2	0xbee0f270	-0.43934965
3	0xbe9fe3a7	-0.31228372
4	0x3e5f4ba1	0.21806194
5	0x3e9250c9	0.2857726
6	0xbe142b9d	-0.14469762
7	0xbe8f4583	-0.2798272
8	0xbe27c57f	-0.16383933
9	0xbd8364e8	-0.06415731
10	0xbd1bc567	-0.038030054
11	0xbe669f2f	-0.22521661
12	0x3dd587e2	0.10426308
13	0xbdf8606a	-0.121277645
14	0xbd9d752e	-0.07688366
15	0xbddf3d5b	-0.109003745
16	0x3e00b909	0.12570585
17	0x3e09af95	0.13445885
18	0xbc64e81b	-0.013971354
19	0xbe8309a4	-0.25593293
20	0xbcc1f8a1	-0.023678126
21	0xbdb4de8e	-0.088315114
22	0xbea399f4	-0.31953394
23	0xbe085a40	-0.13315678
24	0xbe4799c1	-0.19492246
25	0x3e1c5ac4	0.15269
26	0xbcd58b5b	-0.026067426
27	0x3d74ea86	0.05979397
28	0xbeb46224	-0.35231125
29	0xbd7b58f2	-0.06136412
30	0x3e367f3c	0.17821974
31	0xbd151d47	-0.036404874
32	0xbdba4d51	-0.09096778
33	0xbe466935	-0.19376071
34	0x3cfeee0a	0.031119365
35	0xbd42bd95	-0.04754408
36	0xbed97a86	-0.4247629
37	0xbe0532c2	-0.13007644
38	0x3e4722d7	0.19446884
39	0x3e41fe64	0.18944699
40	0xbe0fcecd	-0.14043732
41	0xbe0eb78d	-0.13937207
42	0xbd85656c	-0.06513485
43	0x3dfd43b4	0.12366429
44	0xbe0e381f	-0.13888596
45	0xbb90fef7	-0.0044249254
46	0xbc69b139	-0.014263445
47	0xbe4961e8	-0.19666255
48	0x3d1ded87	0.0385566
49	0x3daa7c5a	0.083244994
50	0xbe1e3b4f	-0.15452312
51	0xbd93afaf	-0.07211243
52	0xbdf7968f	-0.12089264
53	0xbdebe33a	-0.115179494
54	0xbe990ce0	-0.29892635
55	0xbe32583a	-0.17416468
56	0x3de9c786	0.11415009
57	0x3e5c5d28	0.21519911
58	0xbe1b6024	-0.15173393
59	0xbd5aa493	-0.053379606
60	0xbe56dce2	-0.20982698
61	0xbe0d9d28	-0.13829482
62	0xbbdb74fe	-0.006697296
63	0xbe2a4789	-0.16628851
64	0xbd556fa1	-0.05210841
65	0xbe068a09	-0.13138594
66	0xbe910d9e	-0.28330702
67	0x3d01bdb0	0.03167504
68	0xbe31a9cd	-0.1734993
69	0x3d53fdd7	0.051755752
70	0xbe71f65e	-0.23629138
71	0x3e144c65	0.14482267
72	0x3da20479	0.07911009
73	0x3e13b9e9	0.14426388
74	0x3c049e67	0.008094407
75	0xbef0bb21	-0.47017768
76	0xbd170a82	-0.036875255
77	0xbeca040a	-0.39456207
78	0xbe870075	-0.26367536
79	0xbd92a24d	-0.07159863
80	0xbdde73e7	-0.1086195
81	0xbd63b1ba	-0.055589415
82	0x3dbff78e	0.09373389
83	0xbda5ceca	-0.080960825
84	0xbe768b23	-0.24076514
85	0xbe4614d2	-0.1934388
86	0xbe8a17db	-0.26971325
87	0xbe03c2ae	-0.12867233
88	0xbe9b6885	-0.3035318
89	0xbd9b6d45	-0.07589201
90	0xbee0a162	-0.43873125
91	0xbc296cae	-0.010340853
92	0xbe0d4e08	-0.13799298
93	0x3c53458e	0.012895001
94	0xbc83ce77	-0.016089661
95	0xbeaaa7ea	-0.33331233
96	0x3d8fdafe	0.07024191
97	0x3e431ef2	0.19054773
98	0x3cf4f86e	0.029903617
99	0x3d29889e	0.041390054
100	0x3c306577	0.010766379
101	0x3e5d5efa	0.21618262
102	0x3caab0cc	0.020836256
103	0x3e0876c2	0.13326553
104	0x3ad81b4e	0.001648763
105	0x3e8ed74c	0.27898633
106	0xbdfc2d05	-0.12313274
107	0xbe8217db	-0.25408825
108	0xbd7e8562	-0.062138923
109	0xbd614d3a	-0.05500529
110	0x3e6b0be0	0.22953749
111	0x3d09006c	0.033447668
112	0x3e439048	0.19098008
113	0xbe1c7534	-0.15279084
114	0x3e6ee8c7	0.23330985
115	0x3dc0448c	0.09388074
116	0x3d898111	0.067140706
117	0x3e2fb08d	0.17157193
118	0x3c831a98	0.016003892
119	0x3cf96a66	0.030446243
120	0x3d8509f2	0.064960375
121	0x3e1a39fa	0.15061179
122	0x3e52763b	0.20552914
123	0x3d1dd523	0.03853334
124	0xbd045caf	-0.032314952
125	0xbd62e67d	-0.055395592
126	0x3ca4dc22	0.020124499
127	0x3caddd66	0.021223735
128	0x3cea3056	0.028587501
129	0x3d6e723b	0.058214407
130	0xbb1c31fb	-0.0023833502
131	0x3e8700cf	0.26367804
132	0x3c9fc536	0.019503217
133	0x3e36c37e	0.17848012
134	0xbe388438	-0.18019187
135	0x3edbb7f9	0.42913797
136	0x3e538f9d	0.20660253
137	0x3e0a5262	0.13507989
138	0x3e38c7d3	0.18044977
139	0xbd823fa1	-0.063597925
140	0x3e1fca6b	0.1560456
141	0xbe761629	-0.24031891
142	0x3df704f3	0.12061491
143	0xbe12f1b3	-0.14350013
144	0x3d613557	0.05498251
145	0xbd3598f5	-0.044335324
146	0x3e2082d2	0.15674904
147	0x3d61969b	0.05507527
148	0x3cd0bd8c	0.025481008
149	0xbdb965ae	-0.09052597
150	0xbd141efa	-0.036162354
151	0xbdb8a3af	-0.09015595
152	0xbe09dc1d	-0.13462873
153	0x3e51fbdc	0.20506233
154	0x3d866c84	0.065636665
155	0x3e7ba039	0.24572839
156	0x3ce96efa	0.0284953
157	0xbc74609d	-0.0149156125
158	0x3ec3bd14	0.38230193
159	0x3da539b7	0.08067649
160	0xbd4defeb	-0.05027763
161	0xbe1020ed	-0.1407506
162	0x3cecaf79	0.028892266
163	0xbe7a1d59	-0.24425258
164	0xbc16240b	-0.009163867
165	0x3df1045e	0.11768411
166	0x3caeb65a	0.021327186
167	0xbbf065c0	-0.0073363483
168	0x3bb09bb2	0.005389654
169	0xbec5a8ee	-0.38605446
170	0xbe886858	-0.26642108
171	0x3e5372e9	0.20649303
172	0xbdc72122	-0.097231165
173	0xbd48ad8d	-0.048993636
174	0xbe3f700f	-0.1869509
175	0xbcda9650	-0.026683003
176	0xbe0ffe6b	-0.14061897
177	0xbc827845	-0.01592649
178	0xbdd1f250	-0.102512956
179	0xbd754351	-0.05987865
180	0xbc59b87f	-0.013288616
181	0xbe815a29	-0.252641
182	0xbdc3e277	-0.09564679
183	0xbe626816	-0.22110018
184	0xbd620ab8	-0.055186003
185	0x3ab1340d	0.0013519541
186	0x3c8fcd98	0.01755409
187	0x3d6b949a	0.057514764
188	0xbe774196	-0.24146113
189	0x3e07b6d8	0.13253343
190	0xbcf1d9c7	-0.02952279
191	0x3d78cbfe	0.060741417
192	0x3db6139c	0.08890459
193	0xbde72ec5	-0.112882175
194	0x3f01e181	0.50734717
195	0xbe72b905	-0.23703392
196	0xbd982400	-0.074287415
197	0x3f0e4264	0.55570054
198	0x3ea09bff	0.31369016
199	0xbcf3d979	-0.029766785
200	0xbb0a6c24	-0.0021121586
201	0xbee8f7b9	-0.45501497
202	0xbc976de8	-0.018485025
203	0x3f57e897	0.8433928
204	0x3e767f49	0.24071993
205	0xbe6e1d44	-0.23253351
206	0xbe8eefb6	-0.2791726
207	0x3d05e21f	0.03268635
208	0x3eaee919	0.34162214
209	0xbe4a5aa5	-0.1976114
210	0x3e0e5091	0.13897921
211	0xbcbf206f	-0.023330895
212	0x3d06bd15	0.032895166
213	0x3d923f7e	0.071410164
214	0x3ee7b413	0.45254573
215	0x3e87695c	0.2644757
216	0x3e9c0b83	0.30477533
217	0xbe0f63df	-0.14002942
218	0x3e8cb55c	0.27482116
219	0xbdc176bd	-0.09446476
220	0xbb02d02b	-0.0019960504
221	0x3deac5ff	0.11463546
222	0x3f305137	0.68873924
223	0x3d242413	0.040073466
224	0x3e7c355f	0.24629734
225	0x3d4a3f92	0.04937703
226	0x3f1d3aab	0.61417645
227	0x3e82dfa7	0.25561258
228	0x3df21dd8	0.118220985
229	0x3de4d26d	0.11172948
230	0xbe1be0ff	-0.15222548
231	0x3f2fed6e	0.68721664
232	0xbc874ec6	-0.016517054
233	0xbc2baa5f	-0.010477631
234	0x3e4307d2	0.19045952
235	0x3f3d611a	0.7397629
236	0x3f0f3367	0.5593781
237	0xbe3c9219	-0.18415107
238	0xbe36a38e	-0.17835829
239	0x3e91c5ef	0.28471324
240	0x3c92f767	0.017940236
241	0xbdde8333	-0.10864868
242	0x3d699cf0	0.057034433
243	0x3d58f074	0.05296369
244	0x3ee4eb1d	0.44710627
245	0x3e073276	0.13202843
246	0x3db47b4d	0.0881258
247	0x3ee7f835	0.45306554
248	0xbe247e21	-0.1606374
249	0x3e9d8f0c	0.307732
250	0x3e213d15	0.15745957
251	0xbe261289	-0.16218008
252	0x3e73344f	0.23750423
253	0xbe009c92	-0.12559727
254	0x3e99bbc9	0.3002608
255	0xbe2812f9	-0.16413487

nns.0.3.bias f4 [32]
0	0x3e44819f	0.19190072
1	0x3e54139e	0.20710608
2	0xbdb487ea	-0.08814986
3	0xbe28cec4	-0.16485125
4	0x3ef3f008	0.47644067
5	0xbd921559	-0.07132978
6	0x3f15d903	0.5853426
7	0xbf03a2d5	-0.51420337
8	0x3d85b6e8	0.06529027
9	0x3f0bb6e8	0.5457597
10	0x3e1c8fb9	0.15289201
11	0xbe0f0c32	-0.13969496
12	0xbd1052be	-0.03523516
13	0x3a68d706	0.00088821386
14	0xbd1576f6	-0.036490403
15	0x3ebcd1cf	0.3687882
16	0x3dc50e81	0.09621907
17	0x3d92eecc	0.07174453
18	0xbf35c314	-0.7100079
19	0xbef1debb	-0.47240242
20	0xbebf45ea	-0.37358028
21	0x3d71315d	0.058884967
22	0x3ebd721d	0.37001124
23	0xbd5a77a5	-0.05333676
24	0xbdbba85b	-0.09162971
25	0xbe9d6df9	-0.30747965
26	0xbb4beb13	-0.0031115457
27	0x3cfda7d0	0.030963808
28	0xbdaa4cd3	-0.08315434
29	0x3deb2b71	0.11482895
30	0x3daa650d	0.08320055
31	0xbd131f9f	-0.035918828

nns.0.4.weight f4 [32]
0	0x3f0525c6	0.5201076
1	0x3f561034	0.83618474
2	0x3f3f476c	0.74718356
3	0xbc9d5e2b	-0.019209942
4	0x3befa2d6	0.0073131127
5	0x3f37c28a	0.7178122
6	0x3d0346db	0.032049995
7	0xbbd58c9b	-0.0065170056
8	0xbb252e6b	-0.002520467
9	0x3f5fb94d	0.8739212
10	0x3e6dd2cf	0.23224948
11	0x3f23e45a	0.6402031
12	0x3f27a401	0.65484625
13	0x3ef84a80	0.4849434
14	0xbc4190ec	-0.011814337
15	0x3f4c3547	0.79768795
16	0x3f03643d	0.51324826
17	0x3ef9393d	0.48676482
18	0x3f1f6bbd	0.6227377
19	0xba2c3f14	-0.00065706787
20	0xbd497de9	-0.049192343
21	0x3f3ea0b7	0.7446398
22	0x3f136b92	0.57586014
23	0x3f427e98	0.75974417
24	0x3f3b283c	0.7310827
25	0x3f2aa3c6	0.6665615
26	0x3f5008ce	0.81263435
27	0x3f39ce0c	0.7258003
28	0x3f2ed0d4	0.68287396
29	0x3f018e79	0.5060802
30	0x3f265448	0.64972353
31	0x3ba9cdca	0.0051820027

nns.0.4.bias f4 [32]
0	0xbf01ddc2	-0.50729
1	0xbe6e1913	-0.23251753
2	0xbf0eb460	-0.5574398
3	0xbf2b984f	-0.6702928
4	0xbf049900	-0.5179596
5	0xbe888886	-0.2666666
6	0xbf16e323	-0.58940333
7	0xbf14f2c9	-0.5818296
8	0xbf02ed76	-0.51143587
9	0xbf0687e5	-0.5255111
10	0xbf086ac7	-0.5328793
11	0xbe472116	-0.19446215
12	0xbec08327	-0.3760006
13	0xbeb9ccbb	-0.3628901
14	0xbf3c67bb	-0.7359578
15	0xbf0fd55c	-0.56184936
16	0xbe536afb	-0.20646279
17	0xbf029826	-0.5101341
18	0xbee640d9	-0.4497135
19	0xbf48ddb2	-0.7846328
20	0xbf27608c	-0.65381694
21	0xbea128f7	-0.31476566
22	0xbe5f1bcc	-0.21787947
23	0xbe7ce100	-0.24695206
24	0xbe644436	-0.22291645
25	0xbf18ce81	-0.596901
26	0xbe9adbcd	-0.3024582
27	0xbeb474cb	-0.35245356
28	0xbead4be0	-0.3384695
29	0xbe888094	-0.26660597
30	0xbe8c4003	-0.27392587
31	0xbe84192b	-0.25800452

nns.0.4.running_mean f4 [32]
0	0x3dfa2c32	0.12215461
1	0x3e105723	0.1409574
2	0xbe35097c	-0.17679399
3	0x3cd554f0	0.026041478
4	0x3f772566	0.9654144
5	0xbd1eae92	-0.038740702
6	0x3f9bd074	1.217299
7	0x3e883d5a	0.26609308
8	0x3e4d2333	0.20032959
9	0x3f8187ff	1.0119628
10	0x3f55bb5e	0.83489025
11	0xbe4b81ba	-0.19873706
12	0x3e3e2d82	0.18572047
13	0x3d8d96ac	0.06913504
14	0x3eeb0574	0.45902598
15	0x3e6dc15c	0.23218292
16	0x3c9a4165	0.01883001
17	0x3e744f77	0.23858438
18	0xbf018631	-0.50595385
19	0x3eb23143	0.3480321
20	0x3eef2b4b	0.46712717
21	0x3dacaee0	0.08431792
22	0xbd9daedc	-0.076993674
23	0xbe4d3412	-0.20039394
24	0xbe4a549e	-0.19758841
25	0xbebd1c56	-0.3693568
26	0x3e0ae774	0.13564855
27	0x3d94174c	0.07231006
28	0xbc3fdf0d	-0.011710894
29	0x3e13aa4e	0.14420435
30	0x3e62adb4	0.22136575
31	0xbd292de8	-0.041303545

nns.0.4.running_var f4 [32]
0	0x409d868b	4.9226737
1	0x3f8adbde	1.0848348
2	0x40b9689a	5.7940187
3	0x3b47007b	0.0030365277
4	0x3c808b41	0.015691401
5	0x3f18b68f	0.5965356
6	0x4082ed72	4.091485
7	0x41043dce	8.265089
8	0x3f10d732	0.5657836
9	0x40f2f059	7.5918393
10	0x4032a086	2.7910476
11	0x3fea5af7	1.830901
12	0x40b83922	5.756974
13	0x40b6e05b	5.714887
14	0x40bb5271	5.8538136
15	0x4001de69	2.0291998
16	0x400a95f6	2.165403
17	0x4009d724	2.1537561
18	0x4018492f	2.3794668
19	0x3fac647c	1.3468165
20	0x3fb04b64	1.3773007
21	0x3f4bdaa5	0.796305
22	0x40116660	2.2718735
23	0x3f59aad7	0.85026306
24	0x3f96c388	1.1778421
25	0x4009d363	2.153527
26	0x3f497908	0.78700304
27	0x3f9ad522	1.2096293
28	0x405d5b38	3.4586926
29	0x3fb86a61	1.4407464
30	0x4016d927	2.357004
31	0x3dfa98a9	0.12236149

nns.1.0.weight f4 [32, 32]
0	0xbce75dfe	-0.028243061
1	0xbd9120d3	-0.07086339
2	0xbdf7111b	-0.120638095
3	0xbe4a5a0e	-0.19760916
4	0xbe1ae25b	-0.1512541
5	0xbe4cc7ed	-0.1999814
6	0xbdc7ded3	-0.09759297
7	0xbe90032c	-0.2812742
8	0xbe86b316	-0.26308507
9	0xbd46efeb	-0.048568647
10	0x3ca5f773	0.020259595
11	0xbe8957ac	-0.268247
12	0xbe0698f4	-0.13144284
13	0xbe111486	-0.14167985
14	0xbe35e131	-0.17761685
15	0x3d1ec8db	0.03876577
16	0xbe0d7abf	-0.13816355
17	0x3bcfd41f	0.0063424255
18	0xbdccbcd6	-0.09996955
19	0xbe80e8ee	-0.2517771
20	0xbe11c5a3	-0.14235549
21	0x3df46ffc	0.11935422
22	0xbe5d7f5c	-0.21630615
23	0xbe358f32	-0.17730406
24	0xbecfc3c0	-0.40579033
25	0xbdf31971	-0.11870087
26	0xbd455b35	-0.048182685
27	0x3da099c1	0.07841826
28	0xbe4d5b9a	-0.20054474
29	0xbe229d28	-0.15880263
30	0xbe071264	-0.13190609
31	0xbd5f58e6	-0.05452814
32	0xbbb8c490	-0.0056386665
33	0x3d0f74ca	0.035023488
34	0xbdd01363	-0.10159948
35	0x3dc55ad8	0.09636468
36	0xbea5ba73	-0.32368812
37	0xbde970d8	-0.11398476
38	0xbd259808	-0.04042819
39	0xbe3d5749	-0.18490328
40	0xbea7350c	-0.3265766
41	0xbdf65fe5	-0.12030009
42	0xbe73947f	-0.23787116
43	0x3e3c2641	0.18373968
44	0xbe2fe3b2	-0.17176703
45	0xbec3c45a	-0.38235742
46	0xbedd6c3a	-0.43246633
47	0x3ba4ae3a	0.0050256522
48	0x3c14d560	0.009084076
49	0xbd7d6869	-0.06186715
50	0xbe752862	-0.23941186
51	0xbef7edb1	-0.48423532
52	0xbd48cc43	-0.049022924
53	0xbe2b0c38	-0.1670388
54	0xbdb8c85d	-0.09022591
55	0xbe458e5d	-0.19292589
56	0xbce89870	-0.028393
57	0xbe2327d6	-0.15933165
58	0xbe4568d7	-0.19278274
59	0xbdd7bca7	-0.105340295
60	0xbe2921ce	-0.16516802
61	0xbc6fb14e	-0.014629675
62	0xbcf5c9d2	-0.030003462
63	0x3d7fb017	0.06242379
64	0xba7bf269	-0.0009611012
65	0x3e84a60b	0.2590793
66	0xbd026b71	-0.031840745
67	0x3dddac16	0.108238384
68	0xbef13663	-0.47111806
69	0xbe55c3a7	-0.20875417
70	0xbd35fc53	-0.04443009
71	0xbeb996d2	-0.3624788
72	0xbec9a25f	-0.39381692
73	0xbe3e81a3	-0.1860414
74	0x3ce42a96	0.027852338
75	0x3c4de386	0.012566453
76	0xbd4f7061	-0.050644282
77	0xbe28cee3	-0.16485171
78	0xbe029f8c	-0.12756175
79	0xbd7509fa	-0.059823968
80	0x3d6f09f3	0.058359098
81	0xbe7cfed5	-0.24706586
82	0xbe9e8cab	-0.30966696
83	0xbee859a9	-0.45380905
84	0x3e07dd47	0.13268004
85	0x3d519c78	0.05117461
86	0xbe034de8	-0.12822688
87	0xbd4577ca	-0.048209943
88	0x3d43130f	0.047625598
89	0xbe153217	-0.14569889
90	0xbd274212	-0.040834494
91	0x3d31f10a	0.043442763
92	0x3bc22109	0.0059243483
93	0xbd39b9b8	-0.04534313
94	0x3e9bdb6a	0.30440837
95	0xbea241ec	-0.3169092
96	0xbe1f3e90	-0.1555121
97	0x3acc8fba	0.0015606799
98	0xbe0c2ee0	-0.13689756
99	0xbe46abeb	-0.19401519
100	0xbe7a3567	-0.24434434
101	0xbdb2053a	-0.08692403
102	0x3e324b23	0.17411475
103	0x3e7ca64f	0.24672817
104	0xbe1065dd	-0.14101358
105	0x3d47c784	0.048774257
106	0x3cf6307b	0.030052414
107	0xbe89291f	-0.26789185
108	0xbe50e798	-0.20400846
109	0x3c87fea0	0.016600907
110	0xbdda6b90	-0.10665047
111	0x3d4b7751	0.049674336
112	0xbe35d2c5	-0.17756183
113	0xbdb7586d	-0.08952413
114	0x3d2970f7	0.041367497
115	0xbe5e43f1	-0.21705605
116	0x3d73652a	0.05942265
117	0xbd9e8cfe	-0.07741736
118	0xbd7f8d34	-0.06239052
119	0x3d66c134	0.056336597
120	0xbe50068e	-0.20315
121	0xbdae4f8f	-0.08511268
122	0xbd8b7657	-0.06809681
123	0xbe1e07f4	-0.15432721
124	0xbe42b83d	-0.19015594
125	0x3d90001f	0.07031273
126	0x3c999033	0.018745517
127	0xbe8e27c1	-0.27764705
128	0xbe046da1	-0.12932445
129	0xbd71dbd6	-0.059047543
130	0x3dfc74cb	0.12326964
131	0x3de1a453	0.110176705
132	0x3db5dda7	0.088801675
133	0xbc51affd	-0.0127983065
134	0x3ddf62a9	0.1090749
135	0x3e2a2ef8	0.1661948
136	0xbe3d1d32	-0.18468168
137	0x3e489cbc	0.1959104
138	0xbd15cd36	-0.036572658
139	0xbe0606d7	-0.13088547
140	0x3dc5f87d	0.09666536
141	0x3e27ba2c	0.16379613
142	0xbc97911d	-0.018501813
143	0x3caabcf3	0.020842051
144	0xbeb208e9	-0.34772423
145	0x3ef7142b	0.48257574
146	0x3e665dd4	0.2249673
147	0x3e0ac67a	0.13552275
148	0xbe969212	-0.29408318
149	0xbd824f2c	-0.06362757
150	0xbe8204a2	-0.2539416
151	0x3dc02fc1	0.09384108
152	0x3e20c916	0.15701708
153	0x3e1b5fe8	0.15173304
154	0x3d984804	0.07435611
155	0xbdead8b6	-0.114671156
156	0xbe75a55e	-0.23988864
157	0xbd48d2bc	-0.049029097
158	0xbe02335c	-0.12714905
159	0xbeb192c5	-0.3468229
160	0x3bd4626c	0.0064814594
161	0x3d8432a9	0.06454975
162	0xbe247380	-0.16059685
163	0xbe26c91a	-0.16287652
164	0x3c1a11cb	0.009403656
165	0xbe109671	-0.14119889
166	0x3deff3b4	0.117164046
167	0xbec81cf6	-0.39084595
168	0xbadd5f6e	-0.0016889402
169	0xbde7d920	-0.1132071
170	0x3cd739d9	0.026272701
171	0xbe9ff3a9	-0.31240585
172	0xbdadde1a	-0.08489628
173	0xbdb588ad	-0.088639595
174	0xbe610286	-0.21973619
175	0xbe061ae8	-0.13096201
176	0xbe20ab32	-0.15690306
177	0xbe4e0e79	-0.20122708
178	0xbe0e5f3f	-0.13903521
179	0xbdc8a84f	-0.09797727
180	0xbd18b54e	-0.03728228
181	0x3d6bbaf1	0.057551328
182	0x3de89e4c	0.11358318
183	0x3e0e6a44	0.13907725
184	0xbd8d84f8	-0.069101274
185	0xbb84ff0a	-0.0040587233
186	0x3ca07286	0.019585859
187	0x3ca261a0	0.019821942
188	0xbd8fef05	-0.07028011
189	0x3de3df6b	0.11126598
190	0x3e82ca01	0.25544742
191	0xbe84e7ab	-0.25958
192	0xbdf5aa7c	-0.11995408
193	0xbe4b29c5	-0.19840153
194	0xbdea5cb8	-0.11443466
195	0xbd923f9c	-0.07141039
196	0xbe9915b5	-0.29899374
197	0xbe8c83ad	-0.2744421
198	0xbe23dc5e	-0.16002032
199	0xbe9e2196	-0.30885
200	0xbc5698da	-0.013097966
201	0xbe4f93c0	-0.20271206
202	0xbe843b59	-0.2582653
203	0xbd8bc649	-0.06824929
204	0x3e4183fb	0.18898003
205	0xbe12d63f	-0.14339541
206	0xbe902c90	-0.28158998
207	0xbdc2600b	-0.09490975
208	0x3c95294c	0.018208168
209	0xbc3a0948	-0.011354752
210	0xbe3f5045	-0.18682964
211	0xbea67e6b	-0.32518324
212	0xbe96fe0a	-0.2949069
213	0xbdd4cb09	-0.103902884
214	0xbed18d8e	-0.4092831
215	0xbe44e7ed	-0.19229098
216	0x3e8f79c0	0.28022575
217	0xbdd46857	-0.10371464
218	0x3d3ce835	0.046119887
219	0xbe0e07d5	-0.13870175
220	0xbe65e353	-0.22449999
221	0xbe057c8d	-0.13035794
222	0xbe78b035	-0.24285968
223	0xbdc39429	-0.09549744
224	0xbceeeca0	-0.029165566
225	0xbe7e178a	-0.24813667
226	0xbdc0a534	-0.0940651
227	0xbe8af63f	-0.27140996
228	0xbea27d1c	-0.31736076
229	0xbdd40b46	-0.10353713
230	0xbe611b35	-0.21983035
231	0xbdeb4e2c	-0.114895195
232	0xbebf3fb0	-0.37353277
233	0xbe729dbf	-0.23692988
234	0xbd7ddee7	-0.061980154
235	0xbdd3d3ff	-0.103431694
236	0xbe4fe1c7	-0.20300971
237	0xbdffb790	-0.12486184
238	0xbdb9709e	-0.09054683
239	0xbe6c6fed	-0.23089571
240	0x3ea71240	0.3263111
241	0xbe06a37d	-0.13148303
242	0xbe83fb57	-0.25777695
243	0xbddde6fd	-0.10835073
244	0xbe2fd3c5	-0.17170627
245	0x3a90ea9a	0.0011056245
246	0xbf202905	-0.6256259
247	0xbd8abb39	-0.06773991
248	0x3e3e3dfb	0.18578331
249	0xbe2cd6bb	-0.16878788
250	0x3c84f1b4	0.016228534
251	0x3e02937a	0.1275157
252	0xbe6bdd04	-0.2303353
253	0xbe9c9c49	-0.30587986
254	0x3e1633e8	0.14668238
255	0xbeb48daa	-0.3526433

nns.1.0.bias f4 [32]
0	0x3f933174	1.1499467
1	0xbf083594	-0.53206754
2	0x3ecb9bee	0.39767402
3	0xbf9b2ee1	-1.2123681
4	0xbf381b65	-0.719168
5	0x3e1727ff	0.14761351
6	0x3e6a65c2	0.2289038
7	0xbe490fd4	-0.19634944
8	0xbdd72f43	-0.10507061
9	0x3f5a14a5	0.8518775
10	0xbe2b1944	-0.16708857
11	0x3f166a28	0.5875573
12	0x3dcad482	0.09903814
13	0xbeb34ed8	-0.3502109
14	0xbc66d28d	-0.014088285
15	0xbeaaf646	-0.33391017
16	0xbe28e03b	-0.16491787
17	0x3e8e1fcf	0.27758643
18	0x3e80371c	0.25042045
19	0x3e67d51c	0.22639889
20	0x3e3a7043	0.18206887
21	0xbeb66fbd	-0.35632125
22	0x3d966aa1	0.073445566
23	0xbddc80c7	-0.1076675
24	0xbf28ec12	-0.65985215
25	0xbe9ab99d	-0.30219737
26	0x3fd9f7b7	1.7028722
27	0xbf2fe532	-0.687091
28	0xbdb07fef	-0.086181514
29	0xbeebb926	-0.46039695
30	0xbe7e56df	-0.24837826
31	0x3dad7425	0.084694184

nns.1.1.weight f4 [32]
0	0x3f579bd7	0.8422217
1	0x3f3802af	0.71879095
2	0x3f6c877e	0.92394245
3	0x3f5811e5	0.84402305
4	0x3f9439a7	1.1580094
5	0x3f7de489	0.9917684
6	0x3f86ea46	1.0540245
7	0x3f980358	1.187602
8	0x3fa354fc	1.276031
9	0x3f845927	1.0339707
10	0x3f3da5ca	0.740811
11	0x3f4368eb	0.7633197
12	0x3f69bbc7	0.9130215
13	0x3f40905f	0.7522029
14	0x3f3638a0	0.7118015
15	0x3f513f82	0.8173753
16	0x3f6d226c	0.9263065
17	0x3f6aac15	0.91668826
18	0x3f7a9a3b	0.97891587
19	0x3f7ff1a3	0.99978083
20	0x3f58e8ae	0.8473004
21	0x3f7e97a0	0.9945011
22	0x3f65e8cb	0.8980834
23	0x3f89e101	1.0771791
24	0x3f5e9863	0.86951274
25	0x3f357ac7	0.7089047
26	0x3f8572d3	1.0425667
27	0x3f27a74a	0.6548964
28	0x3fd7afa6	1.6850479
29	0x3f8ba5eb	1.0910009
30	0x3fa64e5a	1.2992661
31	0x3f59c8b4	0.85071874

nns.1.1.bias f4 [32]
0	0x3e540203	0.20703892
1	0xbe33a7c3	-0.17544465
2	0xbee03bc7	-0.43795606
3	0xbe422da9	-0.1896273
4	0xbec60395	-0.38674608
5	0xbc5acd49	-0.013354608
6	0x3e227ba0	0.15867472
7	0x3f0f84d5	0.5606206
8	0xbe822f64	-0.2542678
9	0xbf2e25b4	-0.6802628
10	0xbec46c22	-0.3836375
11	0xbe9df41a	-0.30850297
12	0x3ec3d0a1	0.3824511
13	0x3edc4172	0.4301868
14	0xbeb03717	-0.3441703
15	0xbea310ec	-0.31848848
16	0xbe30c7b8	-0.17263687
17	0x3e82c3a4	0.25539887
18	0xbf03a34a	-0.51421034
19	0xbe9d600b	-0.30737337
20	0xbebd7d4b	-0.37009653
21	0xbbf28765	-0.007401394
22	0xbda53107	-0.08065992
23	0xbf3f1a38	-0.7464938
24	0xbea277a8	-0.31731915
25	0xbec2a218	-0.38014293
26	0x3db9a78a	0.09065159
27	0x3e16fd3a	0.14745036
28	0x3d688a86	0.05677273
29	0xbebe6343	-0.37185106
30	0xbe39303c	-0.18084806
31	0xbeae1d7c	-0.3400687

nns.1.1.running_mean f4 [32]
0	0x3f92f396	1.1480587
1	0xbf086a0a	-0.532868
2	0x3ecc28c4	0.39874852
3	0xbf9afe22	-1.2108805
4	0xbf38b4a1	-0.7215062
5	0x3e1759d0	0.14780354
6	0x3e669284	0.22516829
7	0xbe4bf680	-0.19918251
8	0xbdd0d729	-0.101972885
9	0x3f5b2550	0.8560381
10	0xbe2df713	-0.16988783
11	0x3f1690e9	0.58814865
12	0x3dc110a0	0.09426999
13	0xbeb2e4dc	-0.3494023
14	0xbc697496	-0.014248988
15	0xbeaa400a	-0.33251983
16	0xbe2984a6	-0.16554508
17	0x3e8c813d	0.2744235
18	0x3e7ebd32	0.2487686
19	0x3e68eef8	0.2274741
20	0x3e37834d	0.17921181
21	0xbeb712d9	-0.35756567
22	0x3d95e8f8	0.07319826
23	0xbdde7b03	-0.108633064
24	0xbf27b312	-0.65507615
25	0xbe9bbc2b	-0.30416998
26	0x3fd98f7d	1.6996914
27	0xbf307115	-0.6892255
28	0xbdabaac4	-0.0838218
29	0xbeee0605	-0.46488968
30	0xbe7c9d70	-0.24669433
31	0x3da66644	0.08124974

nns.1.1.running_var f4 [32]
0	0x3a1f106b	0.0006067815
1	0x38a83d04	8.022229e-05
2	0x3943864e	0.00018646682
3	0x39c71ef7	0.00037979308
4	0x3a64c6c4	0.0008727128
5	0x374e961e	1.2313509e-05
6	0x3b17c6c4	0.0023159245
7	0x3ab126a0	0.001351554
8	0x3ad57662	0.0016285891
9	0x3b3f4f84	0.0029191682
10	0x3aaef799	0.0013348936
11	0x3890d35e	6.905825e-05
12	0x3b744966	0.0037275194
13	0x38f678cf	0.000117526964
14	0x369b0420	4.61984e-06
15	0x39c22803	0.00037032375
16	0x36eb5816	7.0138003e-06
17	0x3adec443	0.0016995746
18	0x39eb4bc0	0.0004487913
19	0x3957e457	0.00020589061
20	0x3ab189ab	0.0013545057
21	0x39840def	0.00025187383
22	0x37205b19	9.5579535e-06
23	0x392374fc	0.00015588471
24	0x3b84c42c	0.004051706
25	0x3a26c776	0.00063621195
26	0x3ae1e72d	0.0017235033
27	0x3a46fbb0	0.0007590605
28	0x3a795f89	0.0009512832
29	0x3b60706f	0.0034246703
30	0x39f0c992	0.0004592655
31	0x3b028589	0.001991602
