result/experiment_07.11.2022_19.19.59/91/fold_1_state_dict.pt (torch, 43151 bytes, 66 tensors)

first_h.0.weight f4 [32, 3]
-0.9606761 -0.6092652 -0.0029937052 -0.6547529 0.029870458 0.015457369 -0.5733276 -0.51988894
0.06909241 0.46863 0.52531505 0.9889828 -0.8179993 -0.8455836 -0.4545709 -0.60359573
-0.9647689 -0.21408775 -0.62061495 1.1770163 1.4513248 1.0308819 0.25655967 -0.04723361
-0.99706763 0.60443795 1.1278409 0.665954 -0.5197115 0.8521617 1.0612379 0.06654747
0.09900922 -0.78833884 -0.15265533 -0.98345 0.571269 -0.55091274 -0.33764052 -0.66017365
-0.7705899 -0.14997391 -0.6128945 0.13945593 -1.2351978 -0.7495208 -0.40522578 -0.8390172
0.66038096 0.32310504 0.68668085 0.5840747 1.0144622 0.754819 0.5813099 0.80213684
0.30959982 0.63130534 -0.18815246 -0.5827037 0.9441029 0.21805473 0.23970546 0.5048937
1.1469984 0.374847 -0.7216559 0.15133955 -0.60664326 0.74875045 1.2920763 0.183636
0.6923402 -0.24914071 -0.5553852 -1.2155551 -0.27239498 -0.584103 -0.437648 1.4371659
0.7080113 -0.6642156 -1.1702843 -0.46781343 -0.44573063 1.3870765 1.1994959 0.5520134
-1.1560994 -0.54591453 -0.80880475 -0.5930023 -0.8492481 0.501908 0.97147274 1.4787831
00000000: deee 75bf cef8 1bbf 0a32 44bb e39d 27bf
00000010: e4b2 f43c e840 7d3c 99c5 12bf 7117 05bf
00000020: 5280 8d3d 45f0 ef3e 0c7b 063f fa2d 7d3f
00000030: 6768 51bf 2b78 58bf 84bd e8be 4085 1abf
00000040: 18fb 76bf d239 5bbe 9fe0 1ebf 78a8 963f
00000050: 03c5 b93f f0f3 833f ca5b 833e 0878 41bd
00000060: d33f 7fbf 72bc 1a3f 175d 903f f67b 2a3f
00000070: d00b 05bf 4527 5a3f a5d6 873f 0a4a 883d
00000080: 59c5 ca3d 93d0 49bf ae51 1cbe 61c3 7bbf
00000090: af3e 123f 9e08 0dbf 38df acbe 2401 29bf
000000a0: 6145 45bf c392 19be a7e6 1cbf 89cd 0e3e
000000b0: f61a 9ebf 98e0 3fbf c179 cfbe d5c9 56bf
000000c0: ba0e 293f 066e a53e 51ca 2f3f eb85 153f
000000d0: e6d9 813f d13b 413f bad0 143f d758 4d3f
000000e0: de83 9e3e 3a9d 213f 0aab 40be 122c 15bf
000000f0: bab0 713f bd49 5f3e 5975 753e b740 013f
00000100: d8d0 923f f2eb bf3e 71be 38bf c1f8 1a3e
00000110: f94c 1bbf 1cae 3f3f c262 a53f 130b 3c3e
00000120: 353d 313f be1e 7fbe b92d 0ebf 4f97 9bbf
00000130: 5b77 8bbe c687 15bf 6613 e0be 0df5 b73f
00000140: 3b40 353f 090a 2abf e0cb 95bf 3e85 efbe
00000150: ce36 e4be b98b b13f 1589 993f c050 0d3f
00000160: 11fb 93bf 0ec1 0bbf d40d 4fbf 00cf 17bf
00000170: 5368 59bf 0b7d 003f 70b2 783f c448 bd3f

first_h.0.bias f4 [32]
0.47470257 -0.3140553 0.37598354 0.37555996 0.23176338 0.54730934 0.04594368 -0.06939373
-0.32651836 -0.12849616 0.20516358 -0.4076753 0.11926003 -0.15596502 -0.462866 -0.07056362
-0.22210619 0.5153654 -0.27643463 0.56390536 0.33222306 0.56547517 -0.0022429125 -0.018899893
-0.49082512 0.22346592 0.37364513 -0.053357214 -0.018379396 -0.040385406 0.30028203 -0.33416578
00000000: 370c f33e dbcb a0be ea80 c03e 6549 c03e
00000010: 6153 6d3e 771c 0c3f 712f 3c3d 4d1e 8ebd
00000020: 6a2d a7be 7f94 03be 6716 523e d1ba d0be
00000030: 9a3e f43d 4bb5 1fbe c6fc ecbe a983 90bd
00000040: ce6f 63be fdee 033f d788 8dbe 1a5c 103f
00000050: 2419 aa3e fbc2 103f d4fd 12bb f3d3 9abc
00000060: 6e4d fbbe 40d4 643e 6a4e bf3e 188d 5abd
00000070: 6390 96bc 2b6b 25bd 91be 993e c717 abbe

first_h.1.weight f4 [32]
0.3633599 1.3834363 0.3890452 1.5390185 1.1765056 1.9651352 1.0360287 2.6969748
2.767533 2.1619565 0.2013058 0.32973975 0.5314467 0.38191825 1.4147223 0.5877744
2.2535892 2.049658 0.6447691 0.64521194 1.3273219 0.6231832 1.6318187 2.2772446
0.42141777 1.6643244 0.9528886 0.42938593 1.6243101 0.58280826 0.51926965 1.9679042
00000000: 4f0a ba3e 7114 b13f ef30 c73e 8ffe c43f
00000010: bc97 963f 8d89 fb3f 979c 843f 3c9b 2c40
00000020: 431f 3140 7f5d 0a40 1c23 4e3e a6d3 a83e
00000030: e40c 083f ca8a c33e 9f15 b53f 6278 163f
00000040: ce3a 1040 992d 0340 960f 253f 9c2c 253f
00000050: afe5 a93f ef88 1f3f 6fdf d03f 60be 1140
00000060: 12c4 d73e 9508 d53f 82f0 733f 79d8 db3e
00000070: 65e9 cf3f ec32 153f dbee 043f 49e4 fb3f

first_h.1.bias f4 [32]
-0.64492905 0.1678987 -0.62858796 -0.21669284 1.0476238 0.10673775 0.3480633 -0.20701036
-0.18865985 1.4276584 -1.3084563 -0.6503734 -1.2661519 -0.6557432 0.3381667 -0.5272737
-0.07907364 -0.19162214 -1.2381225 -1.7359332 -0.712079 -0.120420985 0.60251516 -0.17892216
-0.9153031 1.1968522 -0.6212581 -0.60044205 -0.27136818 -0.85955703 -0.8419307 0.7583564
00000000: 121a 25bf a3ed 2b3e 24eb 20bf bae4 5dbe
00000010: 8918 863f 5299 da3d 5a35 b23e 86fa 53be
00000020: 0c30 41be 83bd b63f 7f7b a7bf df7e 26bf
00000030: 4411 a2bf c9de 27bf 3024 ad3e 69fb 06bf
00000040: 5cf1 a1bd 9838 44be cc7a 9ebf 0f33 debf
00000050: cf4a 36bf 479f f6bd 6f3e 1a3f 5f37 37be
00000060: 4e51 6abf 7432 993f c50a 1fbf 92b6 19bf
00000070: c5f0 8abe ee0b 5cbf c588 57bf a523 423f

first_h.1.running_mean f4 [32]
-1.6948845e+06 -1.1551516e+06 -1.0115008e+06 826798.94 -1.4431728e+06 -1.0649091e+06 -1.0948976e+06 1.8187419e+06
-1.759066e+06 1.1749159e+06 1.8722976e+06 -1.3908431e+06 1.0078559e+06 -1.1647249e+06 -1.081314e+06 -1.322359e+06
1.165091e+06 1.03047556e+06 1.0255907e+06 1.1137775e+06 1.665645e+06 890777.75 -1.2731904e+06 1.3210025e+06
1.2214572e+06 -2.1445585e+06 -772101.25 -1.1718626e+06 -786357.25 973875.8 -1.4269524e+06 885518.56
00000000: 24e5 cec9 7d02 8dc9 cdf2 76c9 efda 4949
00000010: 262b b0c9 69fe 81c9 8da7 85c9 af03 de49
00000020: d0ba d6c9 1f6c 8f49 4d8d e449 d9c7 a9c9
00000030: fe0e 7649 a72d 8ec9 10ff 83c9 b86b a1c9
00000040: 1839 8e49 b994 7b49 6b63 7a49 8cf5 8749
00000050: 6853 cb49 9c79 5949 336b 9bc9 5441 a149
00000060: 8a1a 9549 bae4 02ca 5480 3cc9 b50c 8fc9
00000070: 54fb 3fc9 3dc3 6d49 4330 aec9 e930 5849

first_h.1.running_var f4 [32]
8.051185e+13 3.7399107e+13 2.8675492e+13 1.915864e+13 5.837289e+13 3.1783205e+13 3.3600859e+13 9.270925e+13
8.67272e+13 3.868951e+13 9.824958e+13 5.421651e+13 2.8469992e+13 3.8020888e+13 3.2770076e+13 4.9008685e+13
3.8044854e+13 2.976068e+13 2.9479596e+13 3.4768448e+13 7.775789e+13 2.223848e+13 4.543249e+13 4.8908013e+13
4.181626e+13 1.2890053e+14 1.6709188e+13 3.8487798e+13 1.7332094e+13 2.6583058e+13 5.7068074e+13 2.1976268e+13
00000000: 4073 9256 a20e 0856 44a4 d055 bf65 8b55
00000010: fd5b 5456 d540 e755 7a7a f455 1ca3 a856
00000020: 80c1 9d56 6ac0 0c56 07b7 b256 0f3d 4556
00000030: 7e25 cf55 b651 0a56 066f ee55 e54a 3256
00000040: 0868 0a56 9689 d855 077e d655 48f9 fc55
00000050: d770 8d56 66ce a155 4e48 2556 23ed 3156
00000060: 6d20 1856 fd77 ea56 9326 7355 8e04 0c56
00000070: 1537 7c55 ce6a c155 c99c 4f56 fde5 9f55

first_h.3.weight f4 [32, 32]
0.5928164 0.702779 0.67401415 0.7225391 0.5889202 0.7146684 0.65281105 0.45162353
0.5146711 0.4478654 0.44803497 0.45713586 0.5761664 0.71508795 0.85711133 0.624536
0.39969966 0.48160204 0.64443713 0.6548922 0.58278954 0.5218619 0.76025766 0.68656105
0.47633213 0.75606334 0.47450373 0.5262691 0.8275351 0.68736136 0.58833975 0.4609772
-0.44520417 -0.6828921 0.5824258 0.68415356 -0.9997907 0.5831434 0.40359357 0.5912069
0.5094429 -0.060095273 0.4881556 -0.5689132 0.47778744 -0.57312745 -0.8447281 0.6798531
0.8332114 0.5479039 -0.9384866 0.55584127 0.76949567 -0.20011508 -0.94312316 0.81155497
0.5410986 -1.0044165 0.5960887 -0.6400202 0.5761047 -0.79511786 -0.70947206 -0.22717242
-0.7039617 -0.97551745 -0.7453136 0.63935035 -1.2858795 -0.87263507 -1.8587518 0.6240864
0.057026163 0.5663872 -1.1170175 -0.69039804 -1.0460073 -0.6472359 -1.0059382 -0.68028146
0.6065084 0.81092614 -1.190347 -0.9824285 0.70126605 0.33725584 -0.82641256 0.6081339
-0.9529523 -0.97545373 -1.1706662 -0.58979017 0.3433713 -0.8932901 -0.8538644 0.4275413
-0.45781863 -0.7417975 0.46273097 0.6333841 -0.655816 0.673341 0.54858243 0.7298311
0.63928205 -0.6013417 0.501656 -0.44774613 0.5465933 -0.61072487 -0.7049488 0.5685519
0.7260239 0.744469 -0.7853864 0.58935255 0.5355787 -0.7102351 -0.62996364 0.5969794
0.5423508 -0.62524503 0.4454183 -0.58697295 0.6406754 -0.5018069 -0.45537102 -0.78442746
-0.613993 -1.1642497 -0.6374376 0.37422144 -1.1791073 -0.895612 -0.06958053 0.5430488
0.38652962 0.07521961 -0.16563341 -0.7276874 -0.20261507 -0.53378594 -1.1665989 -0.8633356
0.3162797 0.40791917 -0.66441137 0.1865129 0.3905888 -0.11956698 -1.0066835 0.4529059
-0.22191408 -0.9443086 -0.1266463 -0.6079495 0.4862106 -0.35041586 -0.7234571 0.31634837
0.63362527 0.24731006 0.6808986 0.44127232 0.38465768 0.8439761 -0.10205651 0.6729483
0.43168685 0.72103 0.4700403 0.67277634 0.48230657 0.5434804 0.2568883 0.548118
0.6196914 0.69901645 0.5316227 1.1196027 0.7611631 0.7084029 0.34033015 0.5248084
0.6955375 0.39785564 0.1717433 0.67660105 0.8422092 0.5840117 0.7123546 0.71896243
0.3920465 0.4083908 -0.57317346 -0.7713399 0.41036013 -0.6270556 -0.64108086 -0.65795124
-0.5000412 0.5551764 -0.5235216 0.61111814 -0.6628602 0.3603544 0.41593423 -0.57855856
-0.6484475 -0.74557716 0.51039785 -0.47737044 -0.7690946 0.51113576 0.5361161 -0.69525003
-0.7445164 0.61228794 -0.8028411 0.42384234 -0.63240135 0.6500132 0.5754189 0.46640137
-0.6045832 -0.61763257 -0.63350236 -0.55235845 -0.580092 -0.79035044 -0.9581146 -0.55069834
-0.85759574 -0.33573166 -0.8503877 -0.58840334 -0.8444137 -0.5952006 -0.5766216 -0.3691608
-0.38554585 -0.42375594 -0.79646987 -0.90594375 -1.3116444 0.27622443 -0.68393797 -0.4296391
-0.9354592 -0.4587755 -0.98285943 -0.47417074 -0.9430442 -1.0288748 -0.4097493 -0.37662336
00000000: d1c2 173f 53e9 333f 318c 2c3f 53f8 383f
00000010: 79c3 163f 82f4 363f a01e 273f 333b e73e
00000020: 7cc1 033f 9d4e e53e d764 e53e b60d ea3e
00000030: a47f 133f 0110 373f a66b 5b3f 97e1 1f3f
00000040: 6fa5 cc3e 8b94 f63e d5f9 243f 04a7 273f
00000050: b231 153f be98 053f 3fa0 423f 77c2 2f3f
00000060: cee1 f33e 5e8d 413f 27f2 f23e 92b9 063f
00000070: 57d9 533f eaf6 2f3f 6f9d 163f 3405 ec3e
00000080: cdf1 e3be 04d2 2ebf db19 153f b024 2f3f
00000090: 49f2 7fbf e348 153f d1a3 ce3e 5659 173f
000000a0: da6a 023f 7626 76bd 88ef f93e 4ca4 11bf
000000b0: 8ea0 f43e 7bb8 12bf 1a40 58bf da0a 2e3f
000000c0: 584d 553f 6e43 0c3f a840 70bf 9d4b 0e3f
000000d0: abfd 443f f8ea 4cbe 8570 71bf 11c2 4f3f
000000e0: 7085 0a3f b890 80bf 4599 183f 5dd8 23bf
000000f0: 997b 133f d88c 4bbf f69f 35bf e39f 68be
00000100: d536 34bf 83bb 79bf dfcc 3ebf 77ac 233f
00000110: b397 a4bf 0365 5fbf 94eb edbf 20c4 1f3f
00000120: 4494 693d c0fe 103f 6efa 8ebf edbd 30bf
00000130: 91e3 85bf 40b1 25bf 95c2 80bf ed26 2ebf
00000140: 2244 1b3f db98 4f3f 4a5d 98bf 6f80 7bbf
00000150: 2c86 333f ccac ac3e c68f 53bf aaae 1b3f
00000160: aff4 73bf 56b7 79bf 64d8 95bf 7dfc 16bf
00000170: 5dce af3e a9ae 64bf db96 5abf b1e6 da3e
00000180: 3467 eabe 71e6 3dbf 13eb ec3e 7625 223f
00000190: 8fe3 27bf 1360 2c3f e66f 0c3f 36d6 3a3f
000001a0: fda7 233f 88f1 19bf 876c 003f fb3e e5be
000001b0: 8aed 0b3f 7758 1cbf 8677 34bf 9e8c 113f
000001c0: b4dc 393f 8595 3e3f 150f 49bf cfdf 163f
000001d0: b01b 093f f8d1 35bf 4c45 21bf a4d3 183f
000001e0: 81d7 0a3f 0f10 20bf de0d e43e dc43 16bf
000001f0: 4e03 243f 6b76 00bf 6426 e9be 3dd0 48bf
00000200: a52e 1dbf 2206 95bf 1c2f 23bf f499 bf3e
00000210: fdec 96bf d446 65bf 3d80 8ebd 3f05 0b3f
00000220: 36e7 c53e bd0c 9a3d ce9b 29be b949 3abf
00000230: 537a 4fbe 32a6 08bf 1d53 95bf 9003 5dbf
00000240: 6aef a13e c8da d03e dd16 2abf 3dfd 3e3e
00000250: 41fb c73e 88df f4bd 01db 80bf 48e3 e73e
00000260: 723d 63be 35be 71bf 91af 01be 94a2 1bbf
00000270: 99f0 f83e b569 b3be 7c34 39bf 6af8 a13e
00000280: 4435 223f d93e 7d3e 5f4f 2e3f 72ee e13e
00000290: daf1 c43e d10e 583f 0103 d1bd 5746 2c3f
000002a0: 0f06 dd3e 6c95 383f 1fa9 f03e 123b 2c3f
000002b0: e3f0 f63e 8821 0b3f dd86 833e 7651 0c3f
000002c0: 18a4 1e3f bef2 323f 6d18 083f 244f 8f3f
000002d0: 96db 423f e459 353f c13f ae3e d859 063f
000002e0: bf0e 323f bcb3 cb3e 7add 2f3e ba35 2d3f
000002f0: 069b 573f ca81 153f df5c 363f ec0d 383f
00000300: 52ba c83e 9918 d13e 7fbb 12bf 8876 45bf
00000310: b91a d23e b786 20bf e01d 24bf 7e6f 28bf
00000320: b302 00bf 0a20 0e3f 8305 06bf 3d72 1c3f
00000330: 35b1 29bf 5f80 b83e 55f5 d43e 6a1c 14bf
00000340: a800 26bf 25de 3ebf 6fa9 023f e669 f4be
00000350: 62e3 44bf cbd9 023f e83e 093f e8fb 31bf
00000360: a098 3ebf e7be 1c3f ff86 4dbf dd01 d93e
00000370: 0ee5 21bf 4467 263f a74e 133f 29cc ee3e
00000380: f7c5 1abf 2b1d 1ebf 362d 22bf 5d67 0dbf
00000390: e980 14bf 6854 4abf 0047 75bf 91fa 0cbf
000003a0: 658b 5bbf 05e5 abbe 02b3 59bf 9aa1 16bf
000003b0: 7f2b 58bf 115f 18bf 799d 13bf a502 bdbe
000003c0: 4466 c5be 8af6 d8be 73e5 4bbf eeeb 67bf
000003d0: f7e3 a7bf 4a6d 8d3e 8f16 2fbf a8f9 dbbe
000003e0: 417a 6fbf 9fe4 eabe ad9c 7bbf 82c6 f2be
000003f0: 586b 71bf 2bb2 83bf a9ca d1be c7d4 c0be

first_h.3.bias f4 [32]
0.38615668 -0.73741186 0.117068216 0.70891535 0.8242887 0.38253316 -0.79370046 -0.6807787
-0.077868536 -0.4511548 -0.046960033 -0.05278103 0.5964697 0.11145548 0.20987128 0.1738017
0.18787503 0.08810164 0.46435565 0.50341815 0.63351625 -0.13045777 0.17495807 -0.5594317
0.2852287 0.02358276 -0.7477352 -0.2623284 -0.5123071 0.115893275 -0.06543274 -0.026610969
00000000: 54b6 c53e 06c7 3cbf 76c1 ef3d 7a7b 353f
00000010: 9604 533f 63db c33e f42f 4bbf 8347 2ebf
00000020: 8a79 9fbd c3fd e6be 2a59 40bd ec30 58bd
00000030: 3db2 183f c542 e43d 7fe8 563e 13f9 313e
00000040: 5062 403e a26e b43d 06c0 ed3e 03e0 003f
00000050: 1f2e 223f b996 05be 3528 333e ea36 0fbf
00000060: 7f09 923e a230 c13c 936b 3fbf e84f 86be
00000070: 8f26 03bf 7459 ed3d 9a01 86bd 3fff d9bc

first_h.4.weight f4 [32]
-0.100557655 -0.07172347 -0.31302032 -0.9413498 -0.10959863 -0.16121493 0.15025133 0.38549086
-0.2017075 0.21389714 -0.23995213 0.4195399 0.30289036 0.4399334 -0.054427516 -0.030574398
-0.48756588 -0.005046448 0.3404789 0.2456925 0.25493035 0.39202866 0.08930285 -0.13439108
-0.05622417 0.20895676 -0.080101445 -0.0986785 -0.15770043 -0.22637892 0.810619 0.31875136
00000000: 2cf1 cdbd c1e3 92bd 3344 a0be 4dfc 70bf
00000010: 3f75 e0bd 8715 25be 7cdb 193e 0f5f c53e
00000020: 698c 4ebe da07 5b3e 03b6 75be efcd d63e
00000030: 7214 9b3e f33e e13e 63ef 5ebd 2977 fabc
00000040: 3ca2 f9be ad5c a5bb 4053 ae3e d196 7b3e
00000050: 3b86 823e fbb7 c83e 6ae4 b63d d19d 09be
00000060: 514b 66bd c3f8 553e 3a0c a4bd f417 cabd
00000070: 397c 21be e0cf 67be ba84 4f3f 6133 a33e

first_h.4.bias f4 [32]
-1.0171983 -0.6029856 -0.36645716 -1.8254943 -0.695611 -1.0553274 -0.8354471 -0.804441
-0.38316768 -0.7978245 -1.5413584 -0.4066968 -0.7532821 -0.908443 -0.8233045 -0.36310613
-1.2420732 -0.7329178 -0.53684723 -0.7601826 -0.76243365 -0.6309354 -0.81083375 -0.8636157
-0.3191218 -0.77921534 -0.46985427 -0.9299248 -1.0872629 -0.9152099 -0.74477077 -0.7530098
00000000: 8e33 82bf 445d 1abf 46a0 bbbe cca9 e9bf
00000010: 9013 32bf f814 87bf dcdf 55bf d8ef 4dbf
00000020: 8e2e c4be 3a3e 4cbf 3b4b c5bf 903a d0be
00000030: 19d7 40bf b88f 68bf 15c4 52bf 0ce9 b9be
00000040: 41fc 9ebf 80a0 3bbf d26e 09bf 549b 42bf
00000050: da2e 43bf fb84 21bf cd92 4fbf eb15 5dbf
00000060: ef63 a3be a87a 47bf bd90 f0be 8d0f 6ebf
00000070: 6e2b 8bbf 324b 6abf 4ca9 3ebf 40c5 40bf

first_h.4.running_mean f4 [32]
7.1178885 -2.919512 -3.457473 -1.2778698 -3.0448537 5.870607 0.110662065 -6.818664
-1.748601 -1.8054554 5.039899 -6.328895 -0.021341275 5.410112 7.160807 -1.1106596
1.9177945 6.5743256 1.451188 2.5239143 1.124023 1.3985904 -9.497477 5.343894
2.8646922 -0.092229225 -0.028006209 6.2176375 6.675832 4.601216 -0.5862528 -4.948452
00000000: bec5 e340 49d9 3ac0 3d47 5dc0 3d91 a3bf
00000010: e2de 42c0 03dc bb40 cba2 e23d 7f32 dac0
00000020: 28d2 dfbf 2a19 e7bf da46 a140 4f86 cac0
00000030: e6d3 aebc a31f ad40 5525 e540 182a 8ebf
00000040: 4a7a f53f e060 d240 87c0 b93f d087 2140
00000050: fcdf 8f3f 0305 b33f aaf5 17c1 2e01 ab40
00000060: 1e57 3740 ade2 bcbd 476d e5bc e3f6 c640
00000070: 6aa0 d540 293d 9340 aa14 16bf b859 9ec0

first_h.4.running_var f4 [32]
71.13562 59.3606 90.12618 22.428236 39.333157 120.21055 34.180325 68.93509
138.14305 48.427128 83.13082 118.68167 35.002983 576.0601 18.649853 187.5161
129.42398 89.91966 26.211111 23.631134 18.514948 15.368986 1455.506 82.91594
50.223076 12.609465 215.23119 72.9828 34.762306 744.0602 246.10847 50.40559
00000000: 7045 8e42 4171 6d42 9b40 b442 076d b341
00000010: 2755 1d42 cd6b f042 a7b8 0842 c4de 8942
00000020: 9f24 0a43 61b5 4142 fb42 a642 045d ed42
00000030: 0e03 0c42 d903 1044 e632 9541 1f84 3b43
00000040: 8a6c 0143 ded6 b342 5bb0 d141 900c bd41
00000050: 9d1e 9441 5ee7 7541 31f0 b544 f6d4 a542
00000060: 6ee4 4842 5ec0 4941 2f3b 5743 32f7 9142
00000070: 9a0c 0b42 da03 3a44 c51b 7643 539f 4942

nns.0.0.weight f4 [32, 32]
-0.5894005 -0.58885443 -0.7891816 -0.82381856 -0.5648643 -0.44138578 -0.47740683 -0.43285298
-0.7953797 -0.40508497 -0.6469105 -0.587364 -0.5103709 -0.6119945 -0.5371876 -0.7740654
-0.6075353 -0.38892788 -0.6342348 -0.53535944 -0.3308727 -0.37590662 -0.3984122 -0.485518
-0.7776825 -0.49129814 -0.5436969 -0.32729667 -0.577214 -0.72515345 -0.55378574 -0.28393975
1.082644 0.4364451 -0.4255314 1.2568016 -0.67675817 1.2657897 0.16793773 -0.8094461
0.728808 -0.6494795 1.0665153 0.26584077 -0.40742692 1.0012494 0.98145884 -0.32760307
1.2321761 0.9135415 0.3188774 0.10946521 0.09490776 -0.4421096 -0.57282573 1.0558996
0.18479231 -0.46381626 0.39492214 1.2581908 1.1325544 -0.41545278 1.2210644 -0.5017726
0.86077917 0.78708524 -0.9071153 -0.34162593 0.38873807 0.9852428 -0.043880697 0.18471248
-0.288037 -0.24394563 0.36782384 -0.8411537 -0.7638918 0.8378255 0.6559644 0.0806275
0.13557568 0.8809882 -0.85109687 0.4449832 0.5708437 0.3599626 0.29277718 0.8932956
0.41052327 -0.43599263 0.3816738 0.9972253 0.8946153 -1.0643216 0.9069497 0.39433038
-0.36667612 -0.55297357 -0.98097813 -0.56027603 -0.68742025 -0.14024459 0.15163279 -0.615757
-0.70215434 -0.5301163 -0.5266219 -0.5940732 -0.74830025 -0.13647401 -0.43521082 -0.69231313
-0.3226285 -0.4172297 -0.6911071 0.3564618 -0.6781144 -0.4788421 -0.72296983 0.16036585
-0.77319527 -0.68822885 -0.90611213 -0.17785062 -0.19581978 -1.2858096 0.76628596 -0.60722125
-0.45710558 -0.7660656 -0.4749582 -0.8000433 0.5984783 -0.3688478 0.2038898 0.651972
-1.080311 0.59355414 -0.74492586 0.27496338 0.6752652 -0.37486982 -0.29351702 -0.9745112
-0.6519992 -0.44349977 0.5472021 0.6773226 0.4840731 0.5400676 0.7051044 -0.45321435
-0.8376572 0.67272717 0.2984837 -0.46438396 -0.5510251 -0.8741503 -0.5391488 0.6918873
0.98095226 0.8748912 -0.67208534 0.7503866 0.09224327 1.1514914 -0.7011076 -0.2111023
-0.93741393 -0.5522183 0.9895177 -0.4537657 -0.60275024 1.0537351 0.99380636 -0.58198553
0.7208429 0.91042495 -0.43406594 0.14940934 -0.04419276 -0.06211497 -0.47539866 1.0065548
0.12948582 -0.3861201 0.16655107 0.9266351 1.1612025 -0.8815237 0.98829406 -0.20939018
1.1462708 0.73058254 0.81794804 0.16089085 0.7560729 1.3706733 -0.47529373 0.67726266
0.3165622 -0.038228367 0.7510433 -0.36245632 -0.04571314 1.0033991 1.0446477 0.025035271
0.61686313 1.0985605 -0.14191623 0.545601 0.47134766 0.6324747 0.97627234 1.308743
0.61688465 -0.03774461 0.6783925 1.3608279 1.1257944 0.5033237 0.92198265 0.6225764
-0.9310111 0.19986095 -1.4745 -0.875638 -0.3833774 -0.76247877 0.63523865 -0.3562064
0.18269764 0.47850266 -0.44223213 -0.4648768 0.07340993 -0.71708935 -0.95653653 -0.5448563
-0.3464268 -0.8619626 0.20035183 -0.45212236 0.7404582 0.8150356 -0.3241977 -0.97856444
-0.6129033 0.23384106 -0.17182854 -0.9788069 -0.87697756 -1.3238803 -0.90677357 -0.33451614
00000000: f3e2 16bf 2abf 16bf ce07 4abf c6e5 52bf
00000010: f29a 10bf 51fd e1be ab6e f4be e89e ddbe
00000020: 019e 4bbf 4c67 cfbe ed9b 25bf 7d5d 16bf
00000030: aba7 02bf acab 1cbf 2085 09bf 2629 46bf
00000040: 6f87 1bbf 8e21 c7be 365d 22bf 510d 09bf
00000050: 2668 a9be d576 c0be affc cbbe d195 f8be
00000060: 3316 47bf 6e8b fbbe b82f 0bbf 6e93 a7be
00000070: 4cc4 13bf a8a3 39bf e7c4 0dbf 8d60 91be
00000080: 1494 8a3f bb75 df3e 40df d9be e0de a03f
00000090: 0640 2dbf 6605 a23f def7 2b3e dc37 4fbf
000000a0: 2993 3a3f 4a44 26bf 9383 883f 481c 883e
000000b0: 439a d0be f128 803f e340 7b3f 97bb a7be
000000c0: f2b7 9d3f dbdd 693f e643 a33e 4c2f e03d
000000d0: 005f c23d 315c e2be b5a4 12bf b827 873f
000000e0: 323a 3d3e 5379 edbe 3c33 ca3e 650c a13f
000000f0: 8bf7 903f 3ab6 d4be d74b 9c3f 2b74 00bf
00000100: 065c 5c3f 6b7e 493f b538 68bf 98e9 aebe
00000110: ad08 c73e df38 7c3f 3fbc 33bd 4525 3d3e
00000120: 9679 93be e2cc 79be 6853 bc3e d955 57bf
00000130: 6a8e 43bf bb7b 563f 48ed 273f 0820 a53d
00000140: 5ad4 0a3e 7188 613f 7ce1 59bf d7d4 e33e
00000150: d022 123f 054d b83e e4e6 953e 05af 643f
00000160: 1b30 d23e 6d3a dfbe c06a c33e 284a 7f3f
00000170: 8205 653f b13b 88bf db2d 683f ace5 c93e
00000180: f9bc bbbe ad8f 0dbf 6221 7bbf 406e 0fbf
00000190: c6fa 2fbf 479c 0fbe a045 1b3e 40a2 1dbf
000001a0: 63c0 33bf b4b5 07bf b1d0 06bf 2e15 18bf
000001b0: 9b90 3fbf d8bf 0bbe f4d3 debe 6f3b 31bf
000001c0: 902f a5be 229f d5be 65ec 30bf 2982 b63e
000001d0: e898 2dbf cb2a f5be 8d14 39bf f236 243e
000001e0: 20f0 45bf c42f 30bf f7f6 67bf 791e 36be
000001f0: fb84 48be 6995 a4bf 512b 443f da72 1bbf
00000200: be09 eabe e01c 44bf b92d f3be a3cf 4cbf
00000210: e035 193f 9ed9 bcbe 7dc8 503e a3e7 263f
00000220: a147 8abf 2af3 173f 76b3 3ebf 00c8 8c3e
00000230: 2ede 2c3f f0ee bfbe dd47 96be 9179 79bf
00000240: 6be9 26bf 6712 e3be 7015 0c3f 0465 2d3f
00000250: 6ed8 f73e df41 0a3f b981 343f b60b e8be
00000260: b470 56bf d937 2c3f dbd2 983e bcc3 edbe
00000270: fb0f 0dbf 50c8 5fbf a805 0abf 871f 313f
00000280: b01f 7b3f dff8 5f3f c90d 2cbf 5619 403f
00000290: 0aea bc3d 1264 933f ca7b 33bf 342b 58be
000002a0: 5cfa 6fbf 2e5e 0dbf 0851 7d3f fa53 e8be
000002b0: d74d 1abf cbe0 863f 186a 7e3f 01fd 14bf
000002c0: 2989 383f 9c11 693f e43d debe c3fe 183e
000002d0: 7803 35bd 446c 7ebd 7467 f3be cad6 803f
000002e0: ee97 043e 89b1 c5be 5d8c 2a3e f537 6d3f
000002f0: 49a2 943f 8aab 61bf d700 7d3f 616a 56be
00000300: 00b9 923f 7507 3b3f 0b65 513f 92c0 243e
00000310: fe8d 413f 3972 af3f b359 f3be 1661 2d3f
00000320: 7114 a23e 5995 1cbd 6044 403f e093 b9be
00000330: b43d 3bbd 626f 803f 04b7 853f c516 cd3c
00000340: beea 1d3f a19d 8c3f 7d52 11be 82ac 0b3f
00000350: 7b54 f13e dde9 213f fcec 793f e484 a73f
00000360: 27ec 1d3f 189a 1abd 22ab 2d3f 9c2f ae3f
00000370: 081a 903f d2d9 003f 0e07 6c3f 2b61 1f3f
00000380: be56 6ebf 59a8 4c3e 6abc bcbf d029 60bf
00000390: 0b4a c4be cf31 43bf 009f 223f af60 b6be
000003a0: 1715 3b3e 4dfe f43e 406c e2be 5504 eebe
000003b0: f257 963d 2b93 37bf 94df 74bf b47b 0bbf
000003c0: db5e b1be 95a9 5cbf 0829 4d3e 957c e7be
000003d0: ab8e 3d3f 2ca6 503f 3efd a5be 3383 7abf
000003e0: 3be7 1cbf 0874 6f3e d2f3 2fbe 1793 7abf
000003f0: 9a81 60bf e974 a9bf 5022 68bf b345 abbe

nns.0.0.bias f4 [32]
0.23103626 0.59385204 -0.55602854 -0.44308496 1.2414578 0.13330615 4.3745813 0.19088721
0.7227417 -0.80455625 -2.1049879 -1.4232252 -0.51726586 -0.7561594 1.2637758 -3.1013384
-1.5573004 -5.633762 0.29573688 0.33953053 -2.399508 0.5493759 -0.44125575 3.172786
-0.51416534 0.3565317 -0.16720207 0.6429395 0.29449037 1.0517813 -0.6658789 0.0024263107
00000000: c594 6c3e b006 183f e357 0ebf 08dc e2be
00000010: 17e8 9e3f 6881 083e 92fc 8b40 f077 433e
00000020: 9a05 393f 66f7 4dbf 1fb8 06c0 3e2c b6bf
00000030: 896b 04bf aa93 41bf 68c3 a13f 547c 46c0
00000040: 9f55 c7bf c747 b4c0 d36a 973e f2d6 ad3e
00000050: 8a91 19c0 e6a3 0c3f 46ec e1be ed0e 4b40
00000060: 57a0 03bf 538b b63e 0537 2bbe af97 243f
00000070: 71c7 963e c5a0 863f 0a77 2abf bd02 1f3b

nns.0.1.weight f4 [32]
0.531499 0.6661148 0.29713076 0.96637195 1.5217843 1.8470633 0.66319764 -2.8278973
0.4199013 1.1813582 0.6355458 0.034109663 1.5494044 1.9245485 0.9640299 2.0778537
2.1898394 1.4817679 1.6211234 1.2863659 1.3724475 2.442686 0.98581463 0.27969307
2.0148287 2.5067532 0.20923734 1.3329933 0.20995906 0.910713 0.28736544 0.8120175
00000000: 5210 083f 8086 2a3f 8621 983e 2764 773f
00000010: d4c9 c23f 926c ec3f 52c7 293f 45fc 34c0
00000020: 4efd d63e bf36 973f 21b3 223f 93b6 0b3d
00000030: e252 c63f 9b57 f63f aaca 763f 8efb 0440
00000040: 5426 0c40 92aa bd3f f980 cf3f a3a7 a43f
00000050: 5cac af3f f854 1c40 595e 7c3f ee33 8f3e
00000060: f4f2 0040 a56e 2040 5042 563e 869f aa3f
00000070: 82ff 563e 7d24 693f 9021 933e 61e0 4f3f

nns.0.1.bias f4 [32]
-0.7267902 -0.7741729 -0.42142987 0.52026653 0.47580564 -0.7964765 0.14791346 -1.4160928
-0.49306807 -0.22206494 1.0527782 -0.6666531 0.24567348 -0.11661191 -0.19890946 -0.97420585
0.674998 1.0174236 -0.43951488 0.47642475 -0.83014953 0.6867171 -0.81180274 -1.0833274
0.052242212 0.50176185 -0.67181265 -0.45910642 -0.18130854 -0.021924868 0.054939996 0.06924681
00000000: ec0e 3abf 3230 46bf a8c5 d7be 3030 053f
00000010: cc9c f33e e2e5 4bbf a076 173e 8742 b5bf
00000020: 6b73 fcbe fe64 63be 70c1 863f c7a9 2abf
00000030: d491 7b3e 3ad2 eebd ecae 4bbe 8e65 79bf
00000040: abcc 2c3f f03a 823f 1808 e1be f2ed f33e
00000050: ae84 54bf b1cc 2f3f 4ed2 4fbf 79aa 8abf
00000060: eefb 553d 7773 003f eafb 2bbf ff0f ebbe
00000070: f2a8 39be c89b b3bc c308 613d 46d1 8d3d

nns.0.1.running_mean f4 [32]
0.23103443 0.5938505 -0.5560299 -0.4430849 1.2414558 0.13330661 4.374557 0.19088736
0.7227384 -0.8045616 -2.1049802 -1.423219 -0.51727104 -0.75616336 1.263784 -3.1013231
-1.5572901 -5.6337843 0.29573548 0.33952963 -2.3995152 0.5493771 -0.4412542 3.1727898
-0.5141617 0.35653463 -0.16720428 0.642943 0.29449204 1.0517724 -0.6658875 0.0024263046
00000000: 4a94 6c3e 9606 183f fa57 0ebf 06dc e2be
00000010: 06e8 9e3f 8781 083e 5ffc 8b40 fa77 433e
00000020: 6205 393f c0f7 4dbf ffb7 06c0 0a2c b6bf
00000030: e06b 04bf ec93 41bf adc3 a13f 147c 46c0
00000040: 4855 c7bf f647 b4c0 a46a 973e d4d6 ad3e
00000050: a891 19c0 faa3 0c3f 12ec e1be fd0e 4b40
00000060: 1aa0 03bf b58b b63e 9937 2bbe ea97 243f
00000070: a9c7 963e 7aa0 863f 9a77 2abf a302 1f3b

nns.0.1.running_var f4 [32]
3.3671377e-12 6.693217e-12 2.589856e-12 4.4882314e-14 6.270247e-12 3.2180234e-13 6.204049e-10 4.998603e-14
1.6093855e-11 2.8374606e-11 4.7805756e-11 4.4148397e-11 2.6605784e-11 1.6381202e-11 6.872889e-11 2.4689123e-10
1.2277922e-10 5.853809e-10 2.8122268e-12 1.755298e-12 1.505335e-10 2.0461686e-12 2.6136424e-12 5.906859e-11
1.2998503e-11 8.310133e-12 4.9459278e-12 1.272202e-11 2.8363238e-12 8.394507e-11 7.3934685e-11 1.105162e-16
00000000: f6f0 6c2c 247f eb2c b33e 362c c921 4a29
00000010: 5d9d dc2c 9b28 b52a 1d89 2a30 f81d 6129
00000020: 2490 8d2d ef95 f92d 7f40 522e ad2a 422e
00000030: e606 ea2d 3017 902d ed22 972e daba 872f
00000040: 47ff 062f 85e8 2030 93e4 452c 4609 f72b
00000050: 6a83 252f 7ffc 0f2c 32eb 372c a9e4 812e
00000060: 0eac 642d 8331 122d f504 ae2c e2ce 5f2d
00000070: ab96 472c e098 b82e 8795 a22e 40d5 fe24

nns.0.3.weight f4 [32, 32]
-0.45905888 0.50532 0.6114994 0.6491515 0.9270746 0.9427093 0.73181343 1.1636796
0.49405333 0.24406381 0.72425914 0.2577091 0.9891094 0.30835503 -0.5582809 -1.028957
0.86835784 0.588999 0.9759033 0.73174024 0.60882825 0.17216721 0.6288606 0.34948444
0.5276757 0.66647255 -0.22803295 0.23879814 -0.3921174 0.43599346 -0.008158019 0.8918712
-0.53937006 0.34451896 0.7723934 0.076603875 0.5701164 0.65602285 0.9889208 0.6299704
0.47820106 0.09758886 0.72249997 0.03358805 0.3560935 0.49852553 0.13762042 -0.7390576
1.0541743 1.0551461 0.7060677 0.7559095 0.98024994 0.112984106 0.25720638 0.46515498
1.1446853 0.41827527 0.78249633 0.29960296 0.21432477 0.71954435 0.00033051628 0.4570642
-0.74646634 0.64671504 0.6337937 0.7858503 0.39758104 0.3663683 0.45660472 -0.10567466
-0.5241493 0.075521566 0.77625376 -0.01670457 0.85440946 0.32453105 0.058937926 -1.0398177
0.5577775 0.8271814 1.102126 1.2572539 0.598608 -1.0966148 0.68406373 0.6382634
0.99844736 -0.0634342 0.64432245 0.056730103 -0.38907373 1.2157699 -0.10930909 0.7415235
-0.69818294 0.4673922 0.723598 0.17546628 0.47367746 0.71430886 0.63679075 0.7803669
-1.0272903 0.04016859 0.3444202 -0.295413 0.31772366 0.68218726 0.12348695 -0.98630494
1.1547759 0.8795731 0.8294136 0.8706356 0.8797241 0.3718386 0.5241336 0.6259479
0.9917337 0.32697952 0.9894848 0.20479879 0.18135504 0.6879681 -0.116724074 0.5569468
0.20205061 -0.5571988 0.3173086 -0.107592106 -0.036156613 -0.34612796 -2.1291208 -0.77469885
-0.48713678 -2.0826101 0.7290812 -0.5908492 -0.37162414 -1.9155942 -1.1880374 -0.6425892
0.3602318 -0.11499433 0.07079152 -0.37400168 0.8175005 -0.5172534 -0.54495484 0.4394856
0.50393516 0.21628872 0.5919018 -2.1821272 -0.7305191 -1.88548 -0.4362516 -1.5153475
-0.7299512 0.7134677 0.57986253 0.5685968 -0.45773065 1.0619526 0.35836267 -0.6067848
-0.5050856 -0.04786279 0.35821646 -0.96892047 0.63945836 -0.8645114 -0.3630818 -1.2519951
0.4488255 -0.2307194 1.0157181 1.2691704 0.40917274 -0.46930692 0.74439514 0.37074363
0.96092755 -0.43470678 -0.61532354 0.15387669 -0.79324293 0.6024254 -0.5134558 0.92325187
-0.5832658 0.5463729 0.34352383 0.8291788 0.27798957 0.9584351 0.7503792 1.2482636
0.5981972 -0.31688347 0.4192183 -0.17526661 0.55631816 1.1699756 0.09180266 -0.23880441
1.1486597 0.81256384 0.87643886 0.6781255 0.54845995 0.25199518 0.7624597 0.79062814
0.98400605 -0.8461464 0.9433982 0.35679984 0.49381024 0.79259855 0.17926227 0.9135125
-0.6787034 -0.5958779 -0.60882485 -0.49154237 -0.3016792 -0.7280196 -0.87478924 -0.54623866
-0.64962244 0.0051595005 -0.92200845 0.29836333 0.6592413 0.23097508 0.6237036 -0.62424666
0.087896265 0.64217114 -0.82151186 -0.7719367 -0.5248798 -0.6994745 -0.60324955 0.33668205
-0.9786818 -0.72016156 0.82917756 0.513634 0.7381792 -0.43577403 0.1419883 -0.95827657
00000000: c409 ebbe a75c 013f 3a8b 1c3f cb2e 263f
00000010: c354 6d3f 6655 713f 2058 3b3f 74f3 943f
00000020: 8ff4 fc3e ddeb 793e 0c69 393f 72f2 833e
00000030: 4636 7d3f b6e0 9d3e 7feb 0ebf ddb4 83bf
00000040: b34c 5e3f a3c8 163f ccd4 793f 5453 3b3f
00000050: 2bdc 1b3f 9a4c 303e 02fd 203f a0ef b23e
00000060: c115 073f f29d 2a3f 7881 69be 8087 743e
00000070: 9dc3 c8be 893a df3e 36a9 05bc ac51 643f
00000080: 2814 0abf ca64 b03e 93bb 453f 7ee2 9c3d
00000090: 26f3 113f 1df1 273f ea29 7d3f bd45 213f
000000a0: c5d6 f43e abdc c73d c2f5 383f a093 093d
000000b0: e351 b63e bd3e ff3e 5eec 0c3e e132 3dbf
000000c0: 2fef 863f 070f 873f dac0 343f 4983 413f
000000d0: a9f1 7a3f 3664 e73d 8eb0 833e cb28 ee3e
000000e0: 0c85 923f 2d28 d63e ae51 483f 8f65 993e
000000f0: f477 5b3e 0f34 383f 2549 ad39 5204 ea3e
00000100: 6b18 3fbf 1e8f 253f 4e40 223f 7c2d 493f
00000110: be8f cb3e a094 bb3e 18c8 e93e f56b d8bd
00000120: a62e 06bf 0dab 9a3d 91b8 463f 06d8 88bc
00000130: 94ba 5a3f ef28 a63e e568 713d bf18 85bf
00000140: 82ca 0e3f 29c2 533f 7712 8d3f b2ed a03f
00000150: 603e 193f e05d 8cbf cd1e 2f3f 3b65 233f
00000160: 3f9a 7f3f cae9 81bd 51f2 243f d35d 683d
00000170: ac34 c7be 599e 9b3f 72dd dfbd 7cd4 3d3f
00000180: 1ebc 32bf 084e ef3e b83d 393f 6fad 333e
00000190: da85 f23e f2dc 363f b804 233f 20c6 473f
000001a0: 407e 83bf d287 243d d857 b03e 5f40 97be
000001b0: adac a23e d3a3 2e3f bae6 fc3d 7b7e 7cbf
000001c0: b2cf 933f b42b 613f 7354 543f fae1 5e3f
000001d0: 9935 613f a161 be3e 9f2d 063f 1f3e 203f
000001e0: 42e2 7d3f dc69 a73e e04e 7d3f c6b6 513e
000001f0: 23b5 393e ad1e 303f 080d efbd 1194 0e3f
00000200: 5be6 4e3e 95a4 0ebf 4676 a23e 4059 dcbd
00000210: f518 14bd af37 b1be 8443 08c0 aa52 46bf
00000220: fe69 f9be 7c49 05c0 11a5 3a3f e541 17bf
00000230: 8545 bebe 3132 f5bf 9c11 98bf ba80 24bf
00000240: 4d70 b83e 2682 ebbd 25fb 903d 267d bfbe
00000250: b647 513f b86a 04bf 2982 0bbf 4204 e13e
00000260: e501 013f ca7a 5d3e e086 173f f9a7 0bc0
00000270: 4d03 3bbf 6957 f1bf 5f5c dfbe e8f6 c1bf
00000280: 15de 3abf d2a5 363f df71 143f 8f8f 113f
00000290: ac5b eabe 10ee 873f 507b b73e 4056 1bbf
000002a0: 4a4d 01bf c60b 44bd 2668 b73e 2c0b 78bf
000002b0: 8bb3 233f 9e50 5dbf dce5 b9be 6041 a0bf
000002c0: 75cc e53e b541 6cbe 0d03 823f 2d74 a23f
000002d0: 177f d13e ff48 f0be ae90 3e3f 1cd2 bd3e
000002e0: 59ff 753f e391 debe d885 1dbf da91 1d3e
000002f0: f811 4bbf 8d38 1a3f d771 03bf 3c5a 6c3f
00000300: e850 15bf 18df 0b3f 5be2 af3e 1045 543f
00000310: a654 8e3e 015c 753f da18 403f 1ac7 9f3f
00000320: 7423 193f 8d3e a2be c8a3 d63e 1779 33be
00000330: de6a 0e3f c3c1 953f 0803 bc3d 2589 74be
00000340: 4807 933f 2f04 503f 4c5e 603f a299 2d3f
00000350: df67 0c3f 8305 813e 8f30 433f 9b66 4a3f
00000360: d2e7 7b3f 0d9d 58bf 8b82 713f 78ae b63e
00000370: b2d4 fc3e bde7 4a3f 8790 373e f5db 693f
00000380: 82bf 2dbf 748b 18bf f2db 1bbf 71ab fbbe
00000390: b275 9abe 7e5f 3abf 30f2 5fbf 4cd6 0bbf
000003a0: a84d 26bf 0711 a93b bf08 6cbf 14c3 983e
000003b0: 0ac4 283f bb84 6c3e 0aab 1f3f a1ce 1fbf
000003c0: f502 b43d 5465 243f 9a4e 52bf a59d 45bf
000003d0: 865e 06bf c310 33bf 906e 1abf 9761 ac3e
000003e0: e48a 7abf 825c 38bf fb44 543f 857d 033f
000003f0: 50f9 3c3f c61d dfbe 6265 113e 9d51 75bf

nns.0.3.bias f4 [32]
-0.30352455 -0.005912795 0.5511689 0.94249314 -0.22169265 -1.381019 0.95073974 0.31868494
-0.07580388 0.16983853 -0.3886252 0.13689369 1.0593501 -0.16970493 -0.12565129 0.19140556
0.49283585 0.62906605 -0.18520878 -0.7229395 -2.1042786 -0.52972174 -0.2142998 -0.61518455
0.268253 -0.41163737 -1.0703001 0.81722105 -0.82514066 1.6580613 0.12701541 -0.1998724
00000000: 9267 9bbe 1fc0 c1bb 6819 0d3f 3b47 713f
00000010: 6603 63be 3bc5 b0bf ae63 733f ac2a a33e
00000020: 113f 9bbd 27ea 2d3e e2f9 c6be dc2d 0c3e
00000030: c998 873f 21c7 2dbe bbaa 00be d2ff 433e
00000040: fb54 fc3e 790a 213f 5fa7 3dbe 9012 39bf
00000050: 80ac 06c0 d89b 07bf 6871 5bbe bc7c 1dbf
00000060: 7558 893e 22c2 d2be 98ff 88bf 6635 513f
00000070: 6b3c 53bf 5a3b d43f 5410 023e 5aab 4cbe

nns.0.4.weight f4 [32]
-0.052205145 -0.07975815 0.07885222 -0.19535723 0.011782296 0.3989112 -0.4309433 0.29936343
0.31648016 0.0023095536 -0.025760965 1.0467075 -0.661121 0.026099253 0.4235707 0.18408586
-0.157883 0.6232147 0.4252373 -0.24819726 -0.8748725 0.7310915 0.0006980852 0.013490358
0.4324676 -0.045401957 -0.05242199 -0.09284356 0.704716 0.28530166 0.010729425 0.3994513
00000000: 10d5 55bd 3e58 a3bd 467d a13d ba0b 48be
00000010: 880a 413c 173e cc3e 9aa4 dcbe 2a46 993e
00000020: b009 a23e e15b 173b a908 d3bc 83fa 853f
00000030: 3a3f 29bf 1ace d53c 42de d83e 0181 3c3e
00000040: 15ac 21be 008b 1f3f b4b8 d93e 6c27 7ebe
00000050: a5f7 5fbf d028 3b3f b4ff 363a aa06 5d3c
00000060: 656c dd3e 67f7 39bd 71b8 56bd c424 bebd
00000070: 4568 343f 0f13 923e 78ca 2f3c e184 cc3e

nns.0.4.bias f4 [32]
-1.0798651 -0.99424875 -0.85269386 -0.7432887 -1.4998189 -2.5384667 -0.72388864 -0.77600133
-0.847631 -0.8527764 -0.8435992 -0.57856804 -0.74148273 -0.99924684 -0.67326534 -2.1248548
-0.7618743 -0.5348756 -0.8258283 -0.8437857 -0.92942953 -0.47179487 -1.0751492 -1.1436299
-0.6807699 -0.9095023 -0.74683225 -0.9936805 -1.3191515 -1.9930797 -1.4590392 -0.60055
00000000: 0539 8abf 1687 7ebf 254a 5abf 2b48 3ebf
00000010: 11fa bfbf 3d76 22c0 c450 39bf 06a8 46bf
00000020: 58fe 58bf 8e4f 5abf 1ef6 57bf 091d 14bf
00000030: d0d1 3dbf a4ce 7fbf 1e5b 2cbf 9ffd 07c0
00000040: 320a 43bf 9bed 08bf 7c69 53bf 5702 58bf
00000050: 18ef 6dbf 198f f1be 7d9e 89bf 7762 92bf
00000060: f046 2ebf 25d5 68bf 6630 3fbf d861 7ebf
00000070: f5d9 a8bf 3c1d ffbf ccc1 babf a5bd 19bf

nns.0.4.running_mean f4 [32]
3.6687975 3.8304965 3.3822734 4.389317 -0.3530688 -0.50141114 4.0073647 -1.6158825
-3.4454815 2.9852612 2.582105 1.7445426 -0.2575637 3.5012302 0.31104192 1.6784351
2.7865222 0.054217517 2.7086284 2.8392649 -1.2163228 -1.1010054 -0.39776832 -0.23723121
-0.44638273 2.1959527 2.2683635 4.4730954 1.4391981 -0.29034558 1.8151869 -1.8419539
00000000: 94cd 6a40 db26 7540 2b77 5840 4975 8c40
00000010: 6fc5 b4be 7b5c 00bf 553c 8040 3dd5 cebf
00000020: c582 5cc0 850e 3f40 3541 2540 2c4d df3f
00000030: 64df 83be 2814 6040 e340 9f3e f6d6 d63f
00000040: 6156 3240 3013 5e3d 2b5a 2d40 84b6 3540
00000050: 77b0 9bbf bfed 8cbf 4aa8 cbbe bdec 72be
00000060: 478c e4be 7d8a 0c40 de2c 1140 9923 8f40
00000070: a537 b83f 2da8 94be 0b58 e83f 25c5 ebbf

nns.0.4.running_var f4 [32]
9.444328e-10 7.948336e-10 6.43165e-10 1.027007e-09 4.2300655e-12 1.7595052e-11 9.2550917e-10 9.833877e-11
8.3144136e-10 5.610339e-10 1.9490316e-10 1.4685932e-10 3.169561e-12 4.4371426e-10 3.721638e-12 1.6641963e-10
2.0244263e-10 1.2280872e-13 3.5287512e-10 3.061348e-10 9.4544074e-11 5.2665077e-11 9.647686e-12 3.2477e-12
1.2887074e-11 2.8318337e-10 3.357531e-10 1.3174632e-09 9.187873e-11 4.1625813e-12 2.334392e-10 2.3787486e-10
00000000: 46cd 8130 717b 5a30 b7ca 3030 9926 8d30
00000010: 0bd5 942c 89c4 9a2d eb66 7e30 ce3f d82e
00000020: 7c8b 6430 4037 1a30 5d4c 562f 3979 212f
00000030: bc09 5f2c 3bef f32f 89f1 822c f6fa 362f
00000040: 8996 5e2f 3445 0a2a c2fe c12f a54c a82f
00000050: 95e7 cf2e 9b9f 672e 51b9 292d 5d89 642c
00000060: 39b6 622d 84ae 9b2f 0c95 b82f 1e12 b530
00000070: 200b ca2e 3375 922c a655 802f e9c5 822f

nns.1.0.weight f4 [32, 32]
-0.74548674 0.61134905 -0.7849959 0.4159341 0.53317475 0.9238798 -0.5237778 0.6009482
-0.73510927 0.8848956 -0.5015985 0.3660115 -0.63797826 0.8080986 -0.8247787 -0.48658067
-0.49074134 0.71894145 0.07906199 0.4900673 -0.73629797 -0.45028588 -0.68022287 0.5798293
-0.39535317 -0.5922028 -0.6387027 -0.70452195 -0.53192294 -0.69944936 0.58406305 -0.5055528
0.37819108 0.122216046 0.035382725 -0.3871553 -1.1896583 0.9151314 -0.3867883 -0.36669284
0.40605485 -0.53582954 -1.1287632 0.28808492 -0.57158136 0.8670216 -0.38517654 -0.36086357
0.44135812 -0.5705932 0.21476914 -0.6244857 -0.4438408 -0.82971233 0.31274557 -0.1986251
-0.6728093 0.16241592 -0.65531635 -0.15050586 0.516208 0.24989359 1.1570464 0.74294084
0.79411256 0.57699037 -0.8863471 0.1306841 -0.71794826 -1.1435257 -0.20489964 0.4907944
0.47415352 -0.97098345 0.009720932 1.2090923 0.54703146 -0.70256543 -0.007099625 0.5458267
0.7633617 -0.6353179 -0.55215377 -0.9505041 0.8523584 0.68624824 0.3973151 -0.39528868
0.9835449 -0.20740813 -0.18151855 -0.061960246 -0.35159755 -0.045468558 1.0280161 0.6620639
-0.93209714 -0.5564782 0.33110484 -0.4525546 -0.753082 -0.7064967 0.82391393 -0.56305295
0.58628607 -0.42393383 -0.44588888 -1.0649332 0.63390666 -0.6454168 -0.70126617 -0.59899175
0.15008637 -0.38514128 -0.5851492 -0.5974524 0.9442258 -0.4673677 -0.62809926 -0.4428132
0.64318603 -0.1763395 -0.37138283 -0.70907164 -0.90735286 -0.90536594 0.98768187 0.45904627
-0.4942373 -0.66424304 -0.64893067 -0.38726997 -0.5660767 -0.6720981 -0.58259594 -0.6576737
-0.7460715 -0.6587294 -0.48952463 -0.7406494 -0.25468943 -0.5909027 -0.5828042 -0.7308681
-0.8182361 -0.43811306 -0.5471248 -0.5120738 -0.6003748 -0.7075646 -0.64739716 -0.57245725
-0.5089257 -0.56269205 -0.5188581 -0.7239719 -0.7526715 -0.56154394 -0.8329652 -0.7390531
-0.36736187 0.27527845 -0.8996157 -0.101035334 -0.5158222 -0.6852234 0.22869384 0.24257663
0.7569715 -0.7089576 -0.66343325 -0.5617724 0.7246817 -0.7870245 -0.72346765 -0.8968877
-0.39746207 -0.6267247 -0.87483466 -0.81887513 0.26384538 -0.20572755 -0.6172928 -0.58754575
-0.26279017 -0.64429206 -0.50446546 -0.67441624 -0.75580317 0.7755703 -0.18118188 0.57310295
-0.17138192 -0.008360196 -0.38207456 -0.12913759 -0.7011674 -1.0897517 -0.47718653 0.7301107
0.70087934 -0.9594882 -0.38961253 -0.061029352 -0.6062714 -0.7684421 -0.6553076 -0.1378071
-0.83797574 -0.7782231 -0.503687 -0.78017235 0.53744274 -0.3823524 0.19176286 -0.77315974
0.18325482 -0.037500266 -0.79817873 -0.5558321 -0.41174746 -0.15619154 -0.76710767 0.64807177
1.070492 0.80108607 -0.12388496 -0.21145281 0.71380085 0.7605672 0.0351698 0.5333472
0.5208032 -0.30901322 0.13775222 1.1234484 -0.5227226 0.7091413 0.7618975 0.41513646
0.7973209 0.41867757 0.01629368 0.13062766 0.51425254 0.6263845 0.40756395 0.85348564
0.19243532 -0.22828211 -0.095130704 0.75613433 -0.1530378 1.1290545 1.0013045 0.50483495
00000000: 38d8 3ebf 5f81 1c3f 7ef5 48bf 50f5 d43e
00000010: 247e 083f 6383 6c3f 4d16 06bf bed7 193f
00000020: 1f30 3cbf 8588 623f c268 00bf dc65 bb3e
00000030: 8b52 23bf 8ddf 4e3f b224 53bf 1a21 f9be
00000040: 7342 fbbe 8c0c 383f 41eb a13d 1aea fa3e
00000050: 067e 3cbf df8b e6be 1623 2ebf b16f 143f
00000060: bb6b cabe 9a9a 17bf 0582 23bf 8d5b 34bf
00000070: 1a2c 08bf 1d0f 33bf 2885 153f e96b 01bf
00000080: 43a2 c13e 684c fa3d 7aed 103d 3839 c6be
00000090: b946 98bf 0d46 6a3f 1e09 c6be 2abf bbbe
000000a0: 6ce6 cf3e 202c 09bf 507b 90bf de7f 933e
000000b0: 2853 12bf 21f5 5d3f dc35 c5be 1cc3 b8be
000000c0: b1f9 e13e 6512 12bf 71ec 5b3e 4bde 1fbf
000000d0: 1a3f e3be 0768 54bf 3020 a03e 6164 4bbe
000000e0: 3b3d 2cbf 5c50 263e d0c2 27bf 351e 1abe
000000f0: 3526 043f 1be4 7f3e 191a 943f 5f31 3e3f
00000100: f64a 4b3f a4b5 133f a5e7 62bf 0dd2 053e
00000110: 75cb 37bf 0d5f 92bf 36d1 51be 6749 fb3e
00000120: 40c4 f23e 5f92 78bf 8b44 1f3c 89c3 9a3f
00000130: 410a 0c3f 54db 33bf f9a3 e8bb 4cbb 0b3f
00000140: ac6b 433f 32a4 22bf f359 0dbf 3d54 73bf
00000150: 2934 5a3f f7ad 2f3f e36c cb3e 4763 cabe
00000160: 99c9 7b3f cc62 54be 00e0 39be 07ca 7dbd
00000170: 9804 b4be 3d3d 3abd 0896 833f 057d 293f
00000180: eb9d 6ebf 5b75 0ebf 9386 a93e 3db5 e7be
00000190: fbc9 40bf f8dc 34bf 06ec 523f 3d24 10bf
000001a0: d816 163f db0d d9be 8c4b e4be bb4f 88bf
000001b0: b547 223f 093a 25bf 2e86 33bf 8657 19bf
000001c0: 3eb0 193e 3d31 c5be 57cc 15bf a4f2 18bf
000001d0: c8b8 713f d24a efbe 1dcb 20bf 69b8 e2be
000001e0: d7a7 243f 5892 34be e425 bebe b885 35bf
000001f0: 4748 68bf 10c6 67bf b8d8 7c3f 1d08 eb3e
00000200: ac0c fdbe d50b 2abf 5220 26bf 4048 c6be
00000210: 67ea 10bf 9f0e 2cbf 0225 15bf 4e5d 28bf
00000220: 8bfe 3ebf 7da2 28bf f9a2 fabe 339b 3dbf
00000230: a766 82be 6645 17bf a832 15bf 2c1a 3bbf
00000240: ec77 51bf 5b50 e0be 5f10 0cbf 4517 03bf
00000250: 2ab2 19bf f422 35bf d2bb 25bf 8f8c 12bf
00000260: f448 02bf 960c 10bf e2d3 04bf 3956 39bf
00000270: 14af 40bf 58c1 0fbf 353d 55bf 9532 3dbf
00000280: db16 bcbe 4cf1 8c3e 374d 66bf 9deb cebd
00000290: ec0c 04bf cd6a 2fbf b82e 6a3e 0266 783e
000002a0: e2c8 413f 3f7e 35bf c3d6 29bf 51d0 0fbf
000002b0: bd84 393f 707a 49bf 2d35 39bf 6f9a 65bf
000002c0: 2680 cbbe 0871 20bf 2af5 5fbf cda1 51bf
000002d0: be16 873e 3eaa 52be e706 1ebf 6669 16bf
000002e0: 6f8c 86be 53f0 24bf a624 01bf 8ba6 2cbf
000002f0: 517c 41bf c68b 463f be87 39be e0b6 123f
00000300: be7e 2fbe 34f9 08bc 479f c3be a53c 04be
00000310: b57f 33bf fc7c 8bbf cb51 f4be 89e8 3a3f
00000320: d46c 333f 05a1 75bf 4b7b c7be eaf9 79bd
00000330: 9a34 1bbf 9fb8 44bf 3dc2 27bf 4e1d 0dbe
00000340: 9485 56bf a139 47bf a2f1 00bf 60b9 47bf
00000350: d995 093f b2c3 c3be 7c5d 443e cced 45bf
00000360: 27a7 3b3e e199 19bd 7155 4cbf 034b 0ebf
00000370: 90d0 d2be adf0 1fbe 2b61 44bf 08e8 253f
00000380: e205 893f fa13 4d3f 66b7 fdbd 1687 58be
00000390: a7bb 363f 88b4 423f 350e 103d 7189 083f
000003a0: 5c53 053f fb36 9ebe eb0e 0d3e 28cd 8f3f
000003b0: 26d1 05bf 498a 353f b70b 433f c48c d43e
000003c0: 391d 4c3f e85c d63e 537a 853c 42c3 053e
000003d0: 0ea6 033f bc5a 203f 39ac d03e 097e 5a3f
000003e0: c40d 453e c9c2 69be e3d3 c2bd 0592 413f
000003f0: f1b5 1cbe dc84 903f bf2a 803f dd3c 013f

nns.1.0.bias f4 [32]
-0.035903405 0.37149402 0.61090463 -2.230738 0.2733497 -0.65388817 -0.19968183 1.7062187
-0.34505484 0.116583385 -0.61808413 -0.059276562 -3.3705757 2.5745013 -3.0064394 -1.5663879
0.10369048 0.048959028 -0.37647292 0.082906805 -0.37635294 -2.8832147 1.2830786 -0.47483933
-1.6334565 -0.5591831 -1.2294148 -1.7061436 0.105039194 -0.897292 2.5719092 -0.07336185
00000000: 730f 13bd 7734 be3e 3f64 1c3f 69c4 0ec0
00000010: 7ef4 8b3e 3765 27bf 6579 4cbe 6065 da3f
00000020: 07ab b0be 45c3 ee3d c33a 1ebf fbcb 72bd
00000030: 83b7 57c0 a1c4 2440 8169 40c0 667f c8bf
00000040: ad5b d43d 4389 483d 0fc1 c0be 0bcb a93d
00000050: 55b1 c0be 9786 38c0 eb3b a43f 241e f3be
00000060: 1a15 d1bf a026 0fbf 775d 9dbf ea62 dabf
00000070: ca1e d73d eeb4 65bf 299a 2440 bd3e 96bd

nns.1.1.weight f4 [32]
-0.37658432 0.14327016 1.2707683 -0.013286658 0.20098217 0.9572539 0.8023118 0.30869064
-0.24099164 0.253831 0.4238801 0.3507508 0.8823546 0.3650653 1.2961437 2.8504653
0.62076676 0.17697744 -0.060946126 -0.14342491 0.28529412 1.752341 0.75224024 -0.45379868
0.5909935 2.0362823 0.4071032 1.1873949 1.0982662 0.89957327 1.6245382 0.089410596
00000000: a9cf c0be 6ab5 123e 89a8 a23f 48b0 59bc
00000010: 45ce 4d3e 970e 753f 4e64 4d3f b30c 9e3e
00000020: 83c6 76be 23f6 813e d006 d93e 9c95 b33e
00000030: fee1 613f d7e9 ba3e 09e8 a53f 066e 3640
00000040: 92ea 1e3f 9339 353e a5a2 79bd fbdd 12be
00000050: 1212 923e b64c e03f d192 403f 4d58 e8be
00000060: 5a4b 173f 7352 0240 d56f d03e 8efc 973f
00000070: fd93 8c3f 6f4a 663f def0 cf3f e71c b73d

nns.1.1.bias f4 [32]
-1.7582235 -0.30998763 -1.1905625 0.53150904 -0.7194297 -0.96671176 -0.908681 -0.9954739
-0.6752782 -0.8540227 -0.5462924 -0.4049396 -0.03619339 -0.99600244 -1.345477 1.3664743
-0.943753 -1.4981731 -0.98271513 -1.0240151 -0.5680924 0.96284676 -1.2325402 0.87530875
-0.5691601 1.4046499 -1.1008642 -1.1720765 0.90890294 -1.1568352 -1.6459779 -1.0271444
00000000: 780d e1bf b3b6 9ebe 5a64 98bf fa10 083f
00000010: 8b2c 38bf 6c7a 77bf 519f 68bf 61d7 7ebf
00000020: 08df 2cbf 3ba1 5abf d2d9 0bbf 3e54 cfbe
00000030: 853f 14bd 04fa 7ebf 9738 acbf a1e8 ae3f
00000040: cc99 71bf 23c4 bfbf 3893 7bbf ed12 83bf
00000050: 816e 11bf 207d 763f e1c3 9dbf 3c14 603f
00000060: 7ab4 11bf 91cb b33f 1ee9 8cbf 9a06 96bf
00000070: ddad 683f 2d13 94bf 67af d2bf 7879 83bf

nns.1.1.running_mean f4 [32]
-0.0359036 0.3714912 0.61090124 -2.23072 0.2733469 -0.6538887 -0.19968063 1.7062076
-0.3450593 0.116584286 -0.6180829 -0.05927654 -3.3706002 2.5744834 -3.0064287 -1.5663983
0.10369097 0.04895886 -0.37647295 0.08290786 -0.37635142 -2.883228 1.2830813 -0.47484508
-1.6334528 -0.5591814 -1.229413 -1.7061481 0.10503966 -0.89728254 2.5719218 -0.07336154
00000000: a70f 13bd 1834 be3e 0664 1c3f 1ec4 0ec0
00000010: 20f4 8b3e 4065 27bf 1479 4cbe 0365 da3f
00000020: 9dab b0be bec3 ee3d ae3a 1ebf f5cb 72bd
00000030: eab7 57c0 56c4 2440 5469 40c0 bd7f c8bf
00000040: ee5b d43d 1689 483d 10c1 c0be 99cb a93d
00000050: 22b1 c0be cf86 38c0 023c a43f e51e f3be
00000060: fb14 d1bf 8326 0fbf 685d 9dbf 1063 dabf
00000070: 091f d73d 4fb4 65bf 5e9a 2440 933e 96bd

nns.1.1.running_var f4 [32]
3.8450898e-14 8.150401e-12 1.0993867e-11 3.2352013e-10 7.910559e-12 4.2473195e-12 1.6592307e-12 1.3466002e-10
2.0110972e-11 8.269739e-13 5.8162845e-12 8.4906015e-15 6.238735e-10 3.3100153e-10 1.9252773e-10 1.0817315e-10
2.4163332e-13 4.0505044e-14 7.5883543e-13 1.139288e-12 3.2076206e-12 2.362509e-10 5.132787e-12 3.3872148e-11
2.368048e-11 5.623651e-12 2.3238293e-11 2.9472667e-11 2.5175866e-13 9.091216e-11 2.6874125e-10 1.5677852e-13
00000000: de2a 2d29 2562 0f2d fa67 412d 69db b12f
00000010: fe29 0b2d 7470 952c 1684 e92b 6d0f 142f
00000020: e2e5 b02d c0c5 682b 6fa4 cc2c fdf3 1828
00000030: 327d 2b30 53f8 b52f bdaf 532f 12e0 ed2e
00000040: 0807 882a 236b 3629 db97 552b 2d57 a02b
00000050: 5bb7 612c 5ce1 812f 0998 b42c a6f8 142e
00000060: b34b d02d 58dd c52c fc67 cc2d 469f 012e
00000070: 3fba 8d2a ffea c72e f8bd 932f 5584 302a
