result/experiment_07.11.2022_19.19.59/51/fold_1_state_dict.pt (torch, 43151 bytes, 66 tensors)

first_h.0.weight f4 [32, 3]
00000000: 994b 80bf 6824 1cbf e99f 0abd a28f 25bf
00000010: 7874 0e3f 82f4 343f 4b2f 6c3f f5cd de3f
00000020: 4b94 843f a2aa 4440 4708 0b3e ea0e 1ebe
00000030: ec11 80bf 8216 3c3e 81c1 db3e d125 28bf
00000040: 502f 22be a2a2 b03e ad1a 113e 3276 1940
00000050: 7e6d a33f 45ba db3f 79c1 da3f 42f2 1f3f
00000060: 8e55 a23f 8159 953e e2cd 05bf d3f5 e73e
00000070: 3410 5dbf d652 e3be 8d25 acbe c927 203f
00000080: a71d 3b3f 34af 0a3f 9a12 00be aa9e 87bf
00000090: 14df 8a3f 3f97 3540 db77 a83f 54f1 2cbf
000000a0: ed59 59bf 6636 60be 1f2a 20bf e6ef 753e
000000b0: 6144 8d3e 7bc2 343f 2ccc df3e 0728 10bf
000000c0: 27c4 0d3f f5c1 5ebf 6314 3abf ed05 f23e
000000d0: 8670 983f b361 403f a40a 1fbf 8304 4c3f
000000e0: f1c4 9e3e 6674 fe3e 397b 1140 b64e fabd
000000f0: d6ec 313e 479c 963f 54ff 063f 55f5 13bf
00000100: ac61 2a3f d828 2c3f 65c0 29bf 519c 9fbe
00000110: 37dc 11bf 2e35 d53e 1c04 3f40 6a06 86be
00000120: 3b41 0d3f 0da6 4e3e 4d2f 4dbe 6cc6 24c0
00000130: 435c 023e 0c2e c83d c992 c6be be33 e03f
00000140: 3f70 7b3f 6c30 d43e 7db5 4ebf a8bf 72bf
00000150: 0561 c63f 626e a63f d7ac 14bd b620 0d3f
00000160: d505 94bf 45fc 0ebf 33b3 cb3e 0b01 19bf
00000170: 0679 60bf 9429 0d3f 901b 653f 6f45 913f
-1.002307 -0.6099305 -0.03384391 -0.6467229 0.5564647 0.7068559 0.92259663 1.7406603
1.0357755 3.0729146 0.13577376 -0.15435377 -1.0005469 0.18367961 0.4292107 -0.65682703
-0.15838361 0.3449908 0.14170332 2.397839 1.2767789 1.716622 1.7090293 0.6247903
1.2682359 0.2916985 -0.5226728 0.45304736 -0.8635285 -0.44399136 -0.336224 0.6256071
0.7309212 0.5417359 -0.12507096 -1.0595295 1.0849328 2.8373563 1.3161577 -0.6755574
-0.8490284 -0.21895751 -0.6256427 0.24017295 0.2759123 0.70609254 0.43710458 -0.56311077
0.5537743 -0.87014705 -0.7268736 0.47270146 1.190934 0.7514908 -0.6212561 0.79694384
0.3100963 0.4969818 2.273146 -0.12222044 0.17375502 1.1766442 0.5273335 -0.5779622
0.66555285 0.6724982 -0.66309196 -0.31173947 -0.56976646 0.41642135 2.9846258 -0.2617677
0.5517766 0.20180531 -0.20037575 -2.5746107 0.12730508 0.09774408 -0.38783863 1.751579
0.9821815 0.41443193 -0.8074568 -0.94823694 1.5498358 1.3002436 -0.036297645 0.5512804
-1.156428 -0.5585368 0.39785156 -0.59767216 -0.8768467 0.5514157 0.8949518 1.1349314

first_h.0.bias f4 [32]
00000000: 2a39 f53e 38d1 a1be 8881 c03e 0d48 c03e
00000010: fe12 6d3e e1ae 0b3f 602e 3c3d 0736 8ebd
00000020: 962d a7be ce39 01be 5924 523e 6856 d2be
00000030: 2a3b f43d 76c5 1ebe 40bc edbe e68c 90bd
00000040: a26f 64be 6a30 043f 4f3e 90be 115a 103f
00000050: d815 aa3e 3e96 113f efb9 95ba 0f88 9abc
00000060: 2e46 fbbe 0d8c 643e 7c4f bf3e 5e76 5ebd
00000070: 51c9 96bc e904 62bd f911 a13e a74a bebe
0.47895175 -0.31604934 0.37598825 0.3755497 0.23151776 0.5456372 0.045942664 -0.06943899
-0.32651967 -0.12619707 0.20521678 -0.41081548 0.11925347 -0.15505013 -0.46432686 -0.07058124
-0.2230821 0.51636374 -0.28172538 0.5638743 0.3321979 0.56869876 -0.001142321 -0.018863706
-0.4907698 0.2231905 0.3736533 -0.054312102 -0.018406542 -0.055180464 0.31459025 -0.3716633

first_h.1.weight f4 [32]
00000000: a6e1 df3e 5518 953f 2e8d 34bd 5bde 3ebf
00000010: 5529 503f 66f1 b33f 4735 023d a997 843f
00000020: a94c 56bf 88ec 6ebf 9ed0 c33e 2f31 e9be
00000030: 1afd ef3e 279a 073f 5301 063f 2419 82bc
00000040: 125f 873f b4bb 883f 7ad8 8f3f 0dfc 85be
00000050: 3e14 323d c034 12c0 7a33 b6c0 2729 2cbe
00000060: 62ec e63e 0338 c0c0 6c86 ca3e dd7f 44bd
00000070: 0d60 18bf 3900 4abd c6e1 8dbe 048e a13e
0.43726844 1.164805 -0.044079952 -0.7455804 0.8131307 1.4058044 0.03178909 1.0358783
-0.83710724 -0.9332967 0.382451 -0.45545337 0.4687279 0.5296959 0.5234577 -0.015881129
1.0575888 1.0682282 1.1237938 -0.26168862 0.043476336 -2.2844696 -5.6937838 -0.16812573
0.4510222 -6.0068374 0.3955568 -0.047973502 -0.5952156 -0.04931662 -0.27711314 0.31553662

first_h.1.bias f4 [32]
00000000: 2a7d 0abf 9053 fdbd 01ad a5bf a1b5 82c0
00000010: 8d54 09bf 3058 883f ce3f d8bf fb64 123e
00000020: 6a5a 3ec0 efa2 f1bf fbf0 28bf e3b8 40bf
00000030: bad9 c9bf 99b0 94be d610 de3e 2946 eabf
00000040: 8f1a 3d3f cfa4 2f3f f63a b3bd 7995 8fc0
00000050: e9c6 c9bf 7c54 e43f 417b e13f a457 83c0
00000060: 728b cdbf d798 943f b572 20bf c83e 01bf
00000070: 8599 6dc0 89ce 3cbf 04f9 58bf 6e87 1a3f
-0.54097235 -0.12369454 -1.2943422 -4.0846715 -0.5364464 1.0651913 -1.6894472 0.14296333
-2.9742684 -1.8877848 -0.65992707 -0.75282115 -1.576957 -0.29040983 0.4337222 -1.8302661
0.7386865 0.6861085 -0.0875148 -4.486996 -1.5763828 1.7838283 1.7615739 -4.1044483
-1.605818 1.1609143 -0.6267503 -0.5048642 -3.712495 -0.7375265 -0.8475497 0.603629

first_h.1.running_mean f4 [32]
00000000: 12d4 e7c9 ea94 95c9 fd64 d549 ccaf b14a
00000010: 796b e7c9 7feb 97c9 561e 8348 1086 464a
00000020: e4aa 124a 3492 5149 a787 1bc9 0599 7a49
00000030: 92f1 fa49 f440 9cc9 f7b4 90c9 9a50 a349
00000040: 3015 8049 c5ab 5a49 0bb1 8fc9 42e7 6549
00000050: 31c3 a048 73ad 85c9 cc5e 99c9 6ca3 4049
00000060: c23e 7f49 7adf 94ca 1c67 33c9 ffb4 3f49
00000070: 143c 334a f402 7f49 b909 3849 4715 7f49
-1.8991382e+06 -1.2253732e+06 1.7481276e+06 5.822438e+06 -1.8957911e+06 -1.2445279e+06 268530.7 3.252612e+06
2.403001e+06 858403.25 -637050.44 1.0264483e+06 2.0557302e+06 -1.2800305e+06 -1.1854389e+06 1.3378752e+06
1.049254e+06 895676.3 -1.1771214e+06 941684.1 329241.53 -1.0950864e+06 -1.2564095e+06 789046.75
1.0454841e+06 -4.878269e+06 -734833.75 785231.94 2.936581e+06 1.04452725e+06 753819.56 1.04482044e+06

first_h.1.running_var f4 [32]
00000000: 0a62 e456 142a 3e56 a880 c156 9e2a 8658
00000010: f094 e356 2a27 4456 f312 1254 c779 a757
00000020: f0d2 3657 60a4 ba55 fa97 4d55 346f 0556
00000030: 5fcb 0557 d47f 4f56 34f8 3156 79ae 6256
00000040: 416e 0b56 ee2f cb55 8f7b 2f56 cd98 e055
00000050: c6a0 5b54 70e0 1756 96e9 4756 38af 9d55
00000060: 2c6d 0a56 fd5c 3c58 d9c7 8855 6a2e 9c55
00000070: 5483 8857 782d 0a56 31ef 8f55 d63e 0a56
1.2555486e+14 5.2271983e+13 1.0637916e+14 1.1801408e+15 1.2511441e+14 5.391812e+13 2.5095326e+12 3.6828294e+14
2.0101709e+14 2.5651894e+13 1.4128289e+13 3.6678165e+13 1.4710852e+14 5.703698e+13 4.8919896e+13 6.2309746e+13
3.8326413e+13 2.792584e+13 4.8236304e+13 3.086836e+13 3.7731807e+12 4.174755e+13 5.4951514e+13 2.1671986e+13
3.8050374e+13 8.284303e+14 1.879899e+13 2.1465395e+13 3.0019526e+14 3.7981973e+13 1.9782185e+13 3.800062e+13

first_h.3.weight f4 [32, 32]
00000000: 1ad1 1b3f 1996 3e3f d754 2d3f 87e9 2e3f
00000010: 30d3 f13e 085e 393f ceef 263f 203b cc3e
00000020: b350 fa3e 38a7 103f fd6e e93e 75d5 f43e
00000030: 87b6 183f 0b34 3b3f 3f8f 623f 82ac 233f
00000040: e2cd cd3e fbfa d33e 019e 3e3f d08e 2a3f
00000050: 3fc4 223f 1465 253f 9218 3c3f b744 3c3f
00000060: 07df f83e 4ecc 253f a89c fa3e a587 0a3f
00000070: cfed 303f 1224 2d3f 8cf8 1b3f 5cc9 cd3e
00000080: 76f6 ecbe 20e8 743f 728e 203f 7f3a 113f
00000090: 9790 12bf c9a5 563f 0c48 0f3f b492 603e
000000a0: c687 aa3e 6c03 7b3e f6da 043f 593c 96be
000000b0: 79c5 123f c1f2 1dbf bf66 4e3f a8bf 413f
000000c0: 4b49 e83e bf7e 3c3e 4814 3b3f 3fc7 493f
000000d0: 5564 4e3f 1649 923f d169 083f e372 683f
000000e0: f4b9 223f a395 213f 8c1d 1b3f 974d 02bf
000000f0: 70cf 063f a123 a1be 34a9 e3be aba1 3fc0
00000100: f589 193f bf2b e83e 75da 563f 9e99 a33f
00000110: 336f 003f ac08 d33e 3b57 3b3f 6f91 723f
00000120: aeb1 983f b6ca 623f 2f06 383f 2e7e 453f
00000130: e54c 3d3f f05e 223f b7b0 d53e 3704 443f
00000140: b47b 483f 39e4 d63f 0028 df3e 1cb6 7e3f
00000150: 28ef 203f 0ca7 1c3f cf9a fd3e 207a 6b3f
00000160: faeb 783f d20c c83e e32e 253f 741a 253f
00000170: c11a 9a3f bd9d 793f 1412 183f bc29 683f
00000180: 0979 e3be b4a2 3bbf 4df7 ed3e f1fd 223f
00000190: 1283 18bf 4422 2d3f 40fe 0d3f 4be8 3a3f
000001a0: 28e4 243f 1cea 14bf e2db 023f fb6f debe
000001b0: 0a0f 0e3f 4fec 18bf f02b 32bf 596e 123f
000001c0: 3eeb 393f 11ba 3e3f 490b 38bf db19 193f
000001d0: 9ed4 093f 660a 30bf 8cff 24bf a063 1a3f
000001e0: 7f26 0d3f d97f 23bf 1c3f e63e e26f 12bf
000001f0: e929 253f 3ca2 e8be 20f3 e0be 1615 49bf
00000200: 9d03 72bf e289 073e 35cd 843f 165f 3a3f
00000210: d31c 96be a6bf 053f 09cc 7c3f 2f32 353f
00000220: fd96 2e3f 1386 4a3f 2f7c 4d3f 07e9 253e
00000230: fc21 763f b169 0bbe 095c 183e 9211 5e3f
00000240: e917 493d 3a92 873e 1eb6 433d 9460 9c3f
00000250: 8589 823f 6816 733d 8690 603e 7d2c 8d3f
00000260: ccd2 773f 43c5 8b3e ad62 313f 2447 84bf
00000270: 77c6 693f af34 743f 04ec 983e a9c4 1a3f
00000280: fd3b 2abf b725 3cbf 3a97 f23e dc85 bf3e
00000290: ba03 2fbf c910 08bf 9014 1e3f ebd5 1e3f
000002a0: a05f c83e eeb2 cb3e 93c7 1b3f da38 a5be
000002b0: 930e 0e3f ee47 3ebf d46b 3dbf d054 ad3e
000002c0: 67f0 ebbe 40e3 e13e 735d 13bf b15d bd3e
000002d0: cc8c 123f 0d1e 52bf 4dc1 29bf 6600 f03e
000002e0: b2c6 1a3f bc18 28bf 59f4 e73e fbde 1cbf
000002f0: d07f 133f fd26 e23e f767 a3be bf80 fd3e
00000300: a158 f93e 38b2 ea3e a05b 153f 63a9 bb3f
00000310: f9d3 073f 6d5a e2be bdcb 1fbf 0ca5 0340
00000320: b731 c73f e0d6 163f 638f fdbe 8d70 d23f
00000330: 8c73 22bf 4e1d e93e d6c8 003f 8903 09bf
00000340: 5f79 0640 3637 fb3f 1e22 0f3f 490a e3be
00000350: 3ff3 3ebf 6f72 2140 bd7e 6140 a7b9 28bf
00000360: 145b 37bf 7991 6240 0149 46bf 58d1 043f
00000370: 4d80 bd3f 3524 313f a5b0 2340 5a59 5640
00000380: 966f 453f 71c4 b63e 6ca9 0e3f 52eb fa3e
00000390: b0c7 b83e 1cba 953e f869 4c3f 53e8 ab3e
000003a0: 8941 593e 1c47 2d3f 579a 0f3f 03f8 483f
000003b0: 3e55 3f3f af5e 9e3e 159e 9f3e 0e4e 473f
000003c0: 29e6 2a3f f84b 843f 50d1 f43e f8d4 473f
000003d0: 39da f53e 3cfb 693e 3b0d 643e 4b03 f13e
000003e0: 8794 283f 5e36 e53e 7a85 1b3f 20ff 7e3f
000003f0: 9ae1 e33e a2be 093f 20db 673f 31c3 873e
0.6086594 0.7444778 0.6770758 0.68325084 0.47231436 0.72409105 0.6520966 0.3988886
0.48889694 0.56505156 0.4559249 0.47819105 0.59653515 0.73126286 0.88499826 0.639351
0.4019614 0.4140242 0.74459845 0.66624165 0.635807 0.6460736 0.7347499 0.7354235
0.48607656 0.6476487 0.48947644 0.5411323 0.6911287 0.67633164 0.6092613 0.40192688
-0.46281785 0.95666695 0.62717354 0.5672988 -0.57251877 0.8384672 0.5596931 0.21930963
0.33306712 0.24513024 0.5189661 -0.29342917 0.5733257 -0.6169854 0.8062553 0.7568307
0.45368418 0.18407725 0.7307782 0.7881965 0.80621845 1.1428554 0.53286463 0.90800303
0.6356499 0.6311895 0.6059196 -0.5089964 0.52660275 -0.31472495 -0.4446503 -2.9942424
0.5997613 0.45345876 0.8392709 1.2781255 0.50169677 0.41217554 0.7317998 0.94753164
1.1929224 0.8859056 0.71884435 0.7714566 0.73945457 0.63426113 0.41736385 0.7656893
0.78313756 1.6788398 0.43585205 0.99496627 0.62864923 0.61192393 0.49532172 0.9198322
0.9723507 0.3907228 0.6452467 0.6449349 1.2039415 0.97506315 0.59402585 0.9068868
-0.4442828 -0.7329514 0.46477738 0.63668734 -0.59575 0.6763041 0.5546608 0.730107
0.6441064 -0.5816972 0.51116765 -0.4344481 0.554917 -0.5973558 -0.69598293 0.5719963
0.72624576 0.74502665 -0.7189222 0.5980508 0.53840053 -0.68765867 -0.64452434 0.60308266
0.55136865 -0.63866955 0.44970024 -0.5720197 0.64517075 -0.45436275 -0.4393549 -0.785478
-0.94536763 0.13236192 1.0375124 0.7280134 -0.29318866 0.5224556 0.9874883 0.707797
0.6819914 0.7911083 0.80267614 0.16202174 0.96145606 -0.13614537 0.14878859 0.8674556
0.049095068 0.2647875 0.047781102 1.2216973 1.0198218 0.05934754 0.21930131 1.1029202
0.96806026 0.27298936 0.6929119 -1.033421 0.9131846 0.9539289 0.29867566 0.6045633
-0.66497785 -0.7349505 0.47381002 0.37406814 -0.6836506 -0.5315061 0.61750126 0.6204516
0.39135456 0.3978495 0.608514 -0.32269937 0.5549099 -0.74328506 -0.7399266 0.3385377
-0.4608185 0.4411869 -0.5756447 0.36985543 0.5724609 -0.82077104 -0.6631058 0.46875304
0.60459435 -0.6566274 0.4530361 -0.6127774 0.576169 0.4417037 -0.31915256 0.49512288
0.4870043 0.45839095 0.58342934 1.4661068 0.5305782 -0.44209614 -0.62420255 2.0569487
1.5562047 0.58921623 -0.49523458 1.6440598 -0.6345756 0.4553017 0.5030645 -0.5352102
2.101158 1.9626224 0.55911434 -0.44343784 -0.74589914 2.5226095 3.5233605 -0.65908283
-0.7162335 3.540129 -0.77455145 0.51881933 1.4804779 0.6919587 2.5576565 3.3492036
0.7712339 0.35696748 0.5572727 0.4900766 0.3608985 0.29243553 0.79849195 0.33575687
0.21216406 0.6768663 0.5609488 0.78503436 0.74739444 0.30931613 0.31175295 0.77853477
0.66757447 1.0335684 0.47815943 0.7805934 0.48018053 0.22849745 0.22270672 0.47072825
0.65851635 0.4476804 0.60750544 0.9960804 0.44508058 0.5380651 0.90568733 0.26516107

first_h.3.bias f4 [32]
00000000: 375b eabe 485c 18bf 5832 003f 8508 fcbe
00000010: df2b 3c3e d1a7 0fbf 9bf7 08c0 c75e 1a3f
00000020: 7d4f 1a3f 18cf 32c0 58b9 b43e 2198 39bf
00000030: c2fa a0be e7af 2340 66c9 69bf ce3f 2a3f
00000040: 59a1 533f e001 9cbf be0f e03e 8fb6 7c3f
00000050: 333f 683e 816e 503f 92af b9be 0cde fabe
00000060: 6c24 443f 16b9 3e3f cb6a f8be 6e35 db3e
00000070: 4370 53c0 f969 34bf a938 2cbe 838d 1bbf
-0.45772716 -0.5951581 0.5007682 -0.4922525 0.1837611 -0.5611544 -2.1401126 0.6030087
0.6027754 -2.79389 0.35297656 -0.72497755 -0.31441313 2.5576112 -0.91322935 0.6650361
0.8266807 -1.2188072 0.4376201 0.9871606 0.22680359 0.81418616 -0.36266762 -0.48997533
0.76618075 0.7450117 -0.48518977 0.428142 -3.303727 -0.704742 -0.16818489 -0.60762805

first_h.4.weight f4 [32]
00000000: 05e4 b2bd bc74 8c3a 0c59 48bd 3b59 b23f
00000010: 7dd7 50bd 4957 1ebc 734e 0ac0 b2cc 82bd
00000020: 8636 a1ba dfed e13f fbfb eabe 284e 57bf
00000030: 1952 f73e 962b ac3d b361 11c0 1692 70bc
00000040: 47cc 9f3e 8311 22be 3bf2 ab3d 96b6 1fbe
00000050: 3825 963e 7073 af3e f6e4 7cbd 8b49 343b
00000060: c316 5d3c 6901 3b3f 3b6d 193b 4ace 693c
00000070: fc30 94bf b5db 0b3c aea1 16be bd03 8b3e
-0.087348975 0.0010715942 -0.048913047 1.3933481 -0.050986756 -0.009664365 -2.1610382 -0.06386699
-0.0012299574 1.7650717 -0.4589537 -0.8410363 0.48304823 0.08406751 -2.271588 -0.014683267
0.3121054 -0.15826993 0.08395811 -0.15596995 0.2932527 0.3426776 -0.06174179 0.0027509655
0.013494196 0.73049027 0.0023411054 0.014270375 -1.1577449 0.008536269 -0.14710113 0.2715129

first_h.4.bias f4 [32]
00000000: 0ba4 c1bf 1e89 9dbf fed0 1cbe 075a 14c0
00000010: dead 91be f36b 02bf 1388 8abf 1f44 10bf
00000020: de20 41bf 0ee4 26c0 fa77 fdbf 722b 33c0
00000030: 1fec 02bf cc99 b9be 19bb d3bf 18d3 49be
00000040: bcaf 32bf 1eb0 1fc0 25a8 afbf fc09 cbbe
00000050: c1d5 eebe c794 59bf 5890 42bf 5bed 15c0
00000060: af45 0ebf 2706 44bf a3f0 2abf abd6 76bf
00000070: 1134 06c0 49a5 bbbf 81e5 fcbf 5077 56bf
-1.5128187 -1.230747 -0.15314099 -2.3179948 -0.28452963 -0.5094597 -1.0822777 -0.56353945
-0.75440776 -2.6076694 -1.9802239 -2.7995267 -0.5114154 -0.3625015 -1.6541473 -0.19709432
-0.697994 -2.4951243 -1.3723189 -0.39656055 -0.46647456 -0.8499264 -0.760015 -2.342612
-0.5557508 -0.7657189 -0.6677343 -0.9642131 -2.096928 -1.4659816 -1.9757539 -0.83775806

first_h.4.running_mean f4 [32]
00000000: 8db4 ad40 80da 6d40 0549 cd40 ac35 2dc0
00000010: ad44 2740 b9dc 9dc0 60d4 9641 a708 8540
00000020: faf0 89c0 1b7c 693f 1fad 4641 a880 b441
00000030: 76b7 95c0 8de0 24c1 1cd3 9341 8c26 f340
00000040: ccf8 40c0 c3f3 1741 6cc5 40bf 5a94 8c40
00000050: db59 bcbf ef80 a3c0 7a50 c63f c0db 2d40
00000060: 085c 6bc0 8509 7abf d585 5bc0 5869 18c0
00000070: 575a c040 30d4 4bbf 6ae6 7d40 788a a4c0
5.42829 3.7164612 6.4151635 -2.7064009 2.6135666 -4.9331937 18.853699 4.157306
-4.310666 0.91204995 12.417266 22.56282 -4.678645 -10.304822 18.47808 7.5984554
-3.0151854 9.497012 -0.7530124 4.3931093 -1.4714922 -5.109489 1.549331 2.7165375
-3.6774921 -0.97670776 -3.4300435 -2.3814297 6.011028 -0.7962065 3.9671884 -5.141903

first_h.4.running_var f4 [32]
00000000: e95c e742 691d a942 4586 dd42 16cc 3a42
00000010: 4cf7 9d41 dbb4 8942 30af 3645 c8bd 3842
00000020: da61 c942 f75b 9541 958f f043 38eb 9c45
00000030: c553 8742 d0df ae44 7fbc 5a45 8e82 2943
00000040: 577b 5242 5418 0444 8dc4 e841 69d7 3642
00000050: 820f 7e40 9fae 7643 18cf 4541 69ee 1642
00000060: 560b 6742 e04a c13f 6868 d941 835f ec41
00000070: 8299 b743 af70 b440 bd11 1d42 0d56 4342
115.681465 84.55744 110.762245 46.699303 19.74575 68.85323 2922.9492 46.185333
100.69112 18.669905 481.12173 5021.4023 67.66361 1398.9941 3499.781 169.50998
52.62045 528.3801 29.095972 45.71036 3.9696965 246.68211 12.36306 37.732822
57.76107 1.5100975 27.17598 29.546637 367.19928 5.6387553 39.267323 48.834034

nns.0.0.weight f4 [32, 32]
00000000: 5be1 4cbf 0d52 15bf 61a6 13bf 597e 1bbf
00000010: 1fec 4abf 0fca 25bf 5655 f3be 80ca 24bf
00000020: 60f9 0fbf 8589 cbbe c80e e6be 9ae2 65be
00000030: b655 9dbe c545 54bf fd14 3fbf 66b8 05bf
00000040: ccae cbbe 4f7d 19bf 5e20 d7be 3f57 41bf
00000050: bc31 b1be d46a cabe 80f5 1bbf 6dac 31bf
00000060: b8de 12bf 589f fabe 89aa 3fbf 45b3 08bf
00000070: adcc 49bf 438c 04bf a259 43bf 66cc fcbe
00000080: 3dfb 3d3f dc80 c23e 0111 223f 5a12 383f
00000090: a296 133f 0848 8fbe 14b7 4cbf e151 0c3f
000000a0: b485 62bf a7c0 fd3e bda9 bb3e dcd8 d73f
000000b0: 829e 05bf 1643 53bf a2f4 283f a8ea 9c3e
000000c0: 5ab1 18bf 9aa1 093f ed03 d03e 4f71 cfbe
000000d0: 2b8a 1abf c0fa 40bf 167a 473f eb45 203f
000000e0: 4895 0cbf 8f4d 39bf 103e acbe 5d37 9bbe
000000f0: 178e 4d3f 2fe5 173f 365a 553f b2d3 a03f
00000100: d9b7 9b3e 1e1d 89bf 47dd dbbe 0ef6 783f
00000110: 2fa7 70be 26bc aebe 6dfc 55bf 36b2 a63e
00000120: 8a7d adbe c425 81bf 2fac 4a3f 0481 58bf
00000130: 3265 49bf b1f5 70be 125a 50be 272b 60be
00000140: b7ff 45bf dbf3 003f c504 25be 44ed 14bf
00000150: e443 00bf 6ca4 40bf 19ea e33e ff56 033f
00000160: 0724 b5be c86b 3cbf bd76 6bbe ba83 5abe
00000170: 1af0 cb3e 937f 6b3e 014f 2b3f 03d4 bfbe
00000180: 3cca 5abe 399b d4bc cd89 d4be 8003 56c0
00000190: 132e ccbe 745e 49bf 7adc 62bf 9cd8 3ebe
000001a0: 4d1f 78bf 7e89 5dbf 9c41 edbe 46de babf
000001b0: 2dd3 38bf 32e1 9ebe 7d62 75bf 2c69 95be
000001c0: a80f 4dbf 7575 933f 78f1 c3be 0907 b6be
000001d0: 6e11 06bf 2fbf a4be ca6e 4cbe 663a 77be
000001e0: 7af1 17bf cf38 aebe 73b2 97bf 99e6 90bf
000001f0: 9014 15be 2653 f1bb d596 e2be c061 4fbf
00000200: 3050 38bf 491e 55bf 99d4 e4be 8259 32bf
00000210: ffd8 47bf eb01 1abf 299b 1abf 4db4 52bf
00000220: 3597 05bf 1b58 e2be 9eb2 10bf 999c 19be
00000230: 22a9 b4be 5f37 20bf 29dc 12bf f5a9 10bf
00000240: d70e f1be 6d70 31bf 52ea e0be e136 4abf
00000250: c891 abbe 585f f7be 0b4f 40bf 0f07 34bf
00000260: 1b38 06bf 3e99 b9be f061 31bf 1d87 32bf
00000270: 34aa 50bf 48f7 18bf dbb8 44bf 6a3a 4bbf
00000280: f3cb 173f c24e e63e 9bca 473f b825 2c3f
00000290: 21b9 41be 1a10 8ebe eca3 ebbe a75b 0e3f
000002a0: 828d fabe 6c81 3c3f 83a5 353f 0337 e5bf
000002b0: af56 bfbe ef2a ddbe 71c8 343f b0f0 263f
000002c0: 2e72 10bf c64f 2b3f 4a7e 1d3f 7dff 0abf
000002d0: 5ae4 8fbe 2784 07bf ee30 0f3f 8432 303f
000002e0: 3238 96be 19f9 a2be 123f a6be e8b4 dfbe
000002f0: 8b47 fc3e 2291 153f 93ed 2e3f faf7 cfbe
00000300: 1462 1d3f 109a f03e f8a1 2d3f 01c1 333f
00000310: fc5e 00bf 09cc a7be d8bd 1bbf 61f9 223f
00000320: 096e 81be 4312 0e3f 5d1f 383f a452 ef3e
00000330: e653 07bf 8abb e4be e909 283f 2f37 033f
00000340: bace e5be 6f47 1f3f cc0b 473f 8a73 edbe
00000350: 8c2a 07bf b459 c6be 553d 573f 1ee3 513f
00000360: 8a1d d0be 2bb9 0fbf c16c b6be 308c a2be
00000370: c183 233f 5e2d 173f 534d 4f3f c6e1 1cbf
00000380: a924 34bf 6c65 0dbf 2716 a3be 2fc1 debe
00000390: 04f4 56bf 7ff8 0abf 4962 03bf 34c8 4fbf
000003a0: a3b0 13bf 9233 a6be 519c 19bf 893d 0abf
000003b0: f398 1ebf 050d 05bf d167 40bf 7ecf 9abe
000003c0: 8bd2 08bf fa16 26bf fbd5 dbbe 5a53 19bf
000003d0: e046 c4be 23c4 91be 1a6c 39bf 57f0 44bf
000003e0: 8de7 9bbe 8217 1dbf c613 31bf cbc9 49bf
000003f0: b176 28bf b9e9 0bbf d9ef 2dbf 5a56 31bf
-0.80031365 -0.58328325 -0.5767575 -0.60739666 -0.7926654 -0.6476144 -0.47526044 -0.6437149
-0.5623989 -0.39753357 -0.44933152 -0.22449723 -0.30729455 -0.8291896 -0.746414 -0.52234495
-0.39781797 -0.5995683 -0.42016882 -0.7552375 -0.34608257 -0.39534628 -0.6092148 -0.69403726
-0.5737109 -0.48949695 -0.7486959 -0.53398544 -0.78827935 -0.5177652 -0.76308644 -0.49374694
0.74211484 0.37988937 0.63307196 0.71903 0.5765172 -0.27984643 -0.79966855 0.5481244
-0.88485265 0.49561045 0.36652938 1.6863055 -0.5219499 -0.8252424 0.6599828 0.3064778
-0.59645617 0.5376221 0.40627995 -0.40516135 -0.6036708 -0.75382614 0.77920663 0.62606686
-0.54915285 -0.7238397 -0.336411 -0.30315676 0.80294937 0.5933408 0.83340776 1.2564604
0.30413702 -1.0712011 -0.4294226 0.9725045 -0.23501275 -0.3412792 -0.83588296 0.3255784
-0.3388484 -1.008965 0.7916898 -0.8457186 -0.78670037 -0.23531224 -0.20346859 -0.21891461
-0.77343315 0.50372094 -0.161151 -0.5817454 -0.5010359 -0.7525089 0.4451454 0.5130462
-0.3537905 -0.7360196 -0.22994514 -0.21339312 0.3983162 0.22997884 0.66917425 -0.3746644
-0.21366209 -0.025952922 -0.41511384 -3.3439636 -0.39878902 -0.7865975 -0.8861767 -0.18637317
-0.9692276 -0.8653792 -0.46339118 -1.4599082 -0.7219723 -0.31031185 -0.95853406 -0.29181802
-0.80102015 1.152022 -0.38270164 -0.35552242 -0.52370346 -0.32177112 -0.19964138 -0.24143371
-0.5935284 -0.34027717 -1.1851333 -1.1320373 -0.14558625 -0.0073646484 -0.442557 -0.8100853
-0.71997356 -0.83249336 -0.4469345 -0.6966783 -0.78065485 -0.60159177 -0.60393006 -0.8230637
-0.5218385 -0.44207844 -0.5652255 -0.15001144 -0.35285288 -0.6258449 -0.5736719 -0.56509334
-0.47081634 -0.69312173 -0.43928772 -0.7898999 -0.3350966 -0.4831493 -0.7512061 -0.7032327
-0.5242936 -0.36249727 -0.69290066 -0.69737417 -0.8150971 -0.5975232 -0.7684457 -0.7938601
0.59295577 0.44981962 0.78043526 0.67245054 -0.18918277 -0.2774666 -0.460235 0.556086
-0.48936087 0.7363498 0.70955676 -1.7907413 -0.37370822 -0.43196818 0.7061835 0.6521101
-0.56424224 0.669186 0.61520827 -0.54296094 -0.28103906 -0.52936023 0.55934036 0.6882708
-0.2933975 -0.3183067 -0.32469994 -0.43692708 0.49273333 0.5842458 0.6833126 -0.4061888
0.6147778 0.4699254 0.6782527 0.70216376 -0.50144935 -0.32772854 -0.60836554 0.6366177
-0.25279263 0.55496615 0.71922857 0.46742737 -0.52862394 -0.4467433 0.6564012 0.5125608
-0.44884282 0.62218374 0.77752376 -0.46377212 -0.52799296 -0.38740313 0.8407796 0.8198718
-0.40647537 -0.5614192 -0.35629848 -0.3174758 0.63872916 0.590536 0.8097736 -0.61282
-0.7036844 -0.5523288 -0.31852838 -0.43506762 -0.8396609 -0.54285425 -0.51321846 -0.8116486
-0.576914 -0.3246122 -0.60004145 -0.54000145 -0.6195213 -0.5197299 -0.7515841 -0.3023643
-0.53446263 -0.6487881 -0.42936692 -0.5989281 -0.38335323 -0.28469953 -0.72430575 -0.7692923
-0.30450097 -0.61363995 -0.69170797 -0.78823537 -0.6580611 -0.5465351 -0.67944103 -0.6927239

nns.0.0.bias f4 [32]
00000000: 6c48 c240 47a7 c43f ca79 d940 6e36 a2c0
00000010: 956f da3f 6ad3 3740 bf21 96c0 fc7d f240
00000020: 3c73 c03e ed30 a0c0 60dd c440 b453 a7bf
00000030: b824 e5c0 4f1c 8240 b669 f0be ebef 0c40
00000040: 109b 3dbd d4fe 04c1 e541 afbd 0eb3 e240
00000050: 1159 d8c0 57a3 a540 d829 df40 cca1 86be
00000060: 701a a3bf cba8 9f40 1ce0 3440 e1ad af40
00000070: b90a f63f d9c3 94c0 decf 0a41 fcff b6c0
6.0713406 1.5363549 6.796117 -5.0691442 1.7065302 2.8722787 -4.6916194 7.577879
0.37587917 -5.0059724 6.1520233 -1.3072419 -7.1607323 4.0659556 -0.4695565 2.2021434
-0.046290457 -8.312214 -0.0855749 7.0843573 -6.7608724 5.176189 6.973858 -0.26295316
-1.2742443 4.9893546 2.8261786 5.4899755 1.9222022 -4.648907 8.675749 -5.718748

nns.0.1.weight f4 [32]
00000000: 1399 193f f592 dc3f 8985 523f 5dbc b83f
00000010: 6282 bb3e a6aa 1c3f e834 343f 161a 633f
00000020: 430b 4d3e fbaf 9a3f 34d6 b83e 3d77 0040
00000030: 905f 1040 ec39 ddc0 338d dc3e 7c53 6940
00000040: 8fbb ea3f cf18 ce3e d691 1f3f 13e3 5c3d
00000050: 7729 353f 3723 06c0 6a96 7a3f 2923 1940
00000060: db98 0740 5b20 be3f 9168 c83f fc3e d73f
00000070: 4598 8a3f 96bc 3b40 c7bc 7b3f 53f6 36c0
0.599992 1.7232348 0.8223501 1.4432484 0.36622912 0.6119789 0.7039323 0.8871168
0.20023827 1.2084955 0.36100924 2.0072777 2.2558327 -6.9133205 0.43076476 3.6457205
1.8338488 0.40253302 0.62331903 0.053927492 0.70766395 -2.0958993 0.97885764 2.392771
2.1187046 1.4853624 1.5656911 1.6816096 1.0827719 2.9333854 0.98334926 -2.8587844

nns.0.1.bias f4 [32]
00000000: 07b8 1abf 33dc 1dbf d2d7 33bf 1e59 bdbf
00000010: 3a73 29bf 2b08 dfbf b354 8cbf 9b49 fbbe
00000020: c950 99be f10d 2ac0 9025 47bf 0d91 3dbf
00000030: ad32 b1bf f2a5 16c0 74c6 4dbe 909c f73e
00000040: 36b6 9abe 3e02 8fbf 17aa ecbf 2d9c b43e
00000050: d817 443f 417f 11bf a49e d8bf 4f95 11c0
00000060: b84a 8abf 1023 02bf aa41 a6be 1ea5 0cbf
00000070: ea11 c4bf fb48 73bf b463 b13f f82a 35bf
-0.60437053 -0.6166412 -0.7025119 -1.4792821 -0.66191447 -1.7424368 -1.0963348 -0.49079594
-0.29944447 -2.657101 -0.7779169 -0.74049455 -1.384359 -2.3538785 -0.20095235 0.48361635
-0.3021714 -1.1172559 -1.8489407 0.35275403 0.7659888 -0.568348 -1.6923413 -2.274738
-1.0804052 -0.5083475 -0.32471973 -0.5493945 -1.5317967 -0.95033234 1.3858552 -0.7076869

nns.0.1.running_mean f4 [32]
00000000: 0f48 c240 d8a7 c43f af78 d940 2237 a2c0
00000010: f36f da3f e0d2 3740 f420 96c0 3b7e f240
00000020: b872 c03e 3c30 a0c0 c4dd c440 3a53 a7bf
00000030: 9f25 e5c0 231c 8240 a468 f0be 02f0 0c40
00000040: bf9a 3dbd 29ff 04c1 da40 afbd 5cb2 e240
00000050: 8558 d8c0 20a3 a540 ab28 df40 14a1 86be
00000060: 7b1a a3bf 39a8 9f40 06e0 3440 b6ad af40
00000070: f209 f63f 9ac3 94c0 f8cf 0a41 0400 b7c0
6.071296 1.5363722 6.795982 -5.06923 1.7065414 2.8722458 -4.6915226 7.577909
0.37587523 -5.005888 6.152071 -1.3072274 -7.1608424 4.0659347 -0.46954834 2.202149
-0.046290156 -8.312295 -0.08557291 7.0842724 -6.7608056 5.1761627 6.9737144 -0.26294768
-1.2742456 4.989285 2.8261733 5.489955 1.9221785 -4.648877 8.675774 -5.718752

nns.0.1.running_var f4 [32]
00000000: ea3e 1131 c124 a62f d76d a332 d2c8 1232
00000010: 9f50 112f 89b8 e030 c1a3 3a32 8f49 4b31
00000020: 4bb3 d32d 2cf4 f831 8164 6931 7e3a af2f
00000030: cc0d 8732 79d8 5c30 125e 992e d810 c62d
00000040: e9c0 772a 440b 2532 5975 952c a9fc 3632
00000050: fd08 a731 4347 0e31 1568 b832 609e 1c2e
00000060: ca8e 2b2e feae a831 f3f2 342e ebb2 8730
00000070: 1cea 4330 7c34 1231 dba1 6930 8e0a 102c
2.113604e-09 3.022134e-10 1.9025647e-08 8.54398e-09 1.3216316e-10 1.6350593e-09 1.0863858e-08 2.9582201e-09
2.4067545e-11 7.245509e-09 3.3963092e-09 3.1873876e-10 1.5722343e-08 8.034316e-10 6.974345e-11 2.2517474e-11
2.2004936e-13 9.606826e-09 4.247863e-12 1.06512426e-08 4.8613615e-09 2.0704227e-09 2.146775e-08 3.561096e-11
3.900772e-11 4.909338e-09 4.1143044e-11 9.873394e-10 7.1273276e-10 2.127563e-09 8.4994917e-10 2.046949e-12

nns.0.3.weight f4 [32, 32]
00000000: d380 dc3e 6b65 063f fe9b 26bf a28c f2bd
00000010: a3a6 093f 543e 803f 7a17 233f 1675 b03e
00000020: c097 0cbf fcac 4b3f 36e2 8dbe 765e 7ebe
00000030: 32dc f3be 3b04 72be 059e 323f 0681 323e
00000040: ec17 b2bd dbf7 7fbd ca7c 223e db6e 0dbf
00000050: 9384 f03e 9fd3 0c3d 192c 533f ad9f 3b3f
00000060: 75ff 813f abcb 533f 3a4f 12bf 9ea0 153f
00000070: 7b84 433f 10aa 03bd 0780 3ebf b16c a8be
00000080: 7003 0cbf 0c73 f4be 00b3 203f 4421 6a3f
00000090: 8848 13bf 6307 d9be eab8 813f 0d51 f4be
000000a0: 3a43 2a3f b0ee 99be d7fe 3d3f 6649 213f
000000b0: 7cf6 373f 6ba1 3b3f 2c60 3d3d eb2e d33e
000000c0: 57b1 5d3f f6e2 5a3f e0c4 863f 5e2c 3b3f
000000d0: 9b9a bebe 74bc 3f3f 1d11 04bf 1fe6 143f
000000e0: 8fe7 c63e b9e6 7bbe 2696 06be cf60 803e
000000f0: 846a ffbe 37fb a83f 19b8 0e3f be3a 3d3f
00000100: f303 a7be 61e3 dbbe 16a8 3ebf 329d efbe
00000110: be27 a03c 764a 39bf d1bb 44bf 951c a3be
00000120: b25c 28bf bf94 19be b42f 0a3f 3930 3c3e
00000130: aa79 383f e179 31bf ce9c 17bf 0daf c3bd
00000140: a7ae aabe ec8a 0cbf df4d 51bf d36f 25bf
00000150: cc45 30bf ccdd 4ebf c4a9 73bf b11e 393f
00000160: 1f9f 62bf 01e2 8abc c692 b2be 85be 27bf
00000170: b889 53bf 0497 4d3e 915c 6cbe 4d68 ea3e
00000180: 2d63 d03e 4153 48bf 9fa2 a53f 4082 41bf
00000190: 9636 f3bd 3977 39bf da26 2dbf 3010 373f
000001a0: 1c49 38bf d1e0 b5be 53f6 a7bf 2fd5 b8bf
000001b0: 0f17 7bbf ffc1 54bf 1715 08bf 0c13 e53e
000001c0: f174 ffbe f637 57bf cb23 1dbf 4564 1abf
000001d0: ce69 8bbe ddf4 1cbf b329 31bf aa8e 1bbf
000001e0: aa50 29bf 108a dfbe 1056 f23d 64f8 efbe
000001f0: d358 42bf e813 ec3e 42d8 20bf 4fd2 49bf
00000200: f294 1bc0 ce0e 11c0 429d 0f3e cbc0 313f
00000210: 44bd 33c0 bafb 57c0 4248 66c0 fd3b ecbf
00000220: 15ac 8abf 5ea5 78c0 7471 a3bf 01e8 d33f
00000230: cc5f fd3f e77f b2bf 39b0 5e3f 2888 9cc0
00000240: 86ca fd3e 2178 1bc0 289e 50c0 8da9 26bf
00000250: 1f30 b33f ce56 5ec0 e414 82c0 1b02 673e
00000260: e2ac 51c0 5a52 493f 240a f83e 2e65 553f
00000270: eacc 6dc0 3105 3ec0 8113 293f c3b7 57c0
00000280: 16e0 dfbe 6712 27bf 6a3c 39bf 687b 2ebf
00000290: c263 f1be 2871 2ebf 64bc 39bf 12f7 92be
000002a0: 3be1 15bf b047 76bf 186d 05bf 9f27 c0be
000002b0: 9397 f7be c1e6 043f 5285 1c3f 2087 01bf
000002c0: 5a75 54be 75f1 0a3f c6da 3ebf b1fb 10bf
000002d0: e9aa 9cbe 9ee0 26bf 2dc1 1cbf 698b f33e
000002e0: 9494 6cbf 67d7 8c3d 9a6d 67be 400f da3e
000002f0: fcd1 5bbf a615 b8be 9e32 8dbf 0a2c eabe
00000300: 8f44 1bbf bdd0 c2be 8c85 813e c2f3 343f
00000310: 9664 7bbf 3c97 443e fcee 623f 79d7 34bf
00000320: 0696 4d3f cef6 50bf 6710 363f b1c1 2a3f
00000330: 2f31 2c3f 753c 2e3f 53d4 003f b8a3 18be
00000340: 5872 783f 2c16 343f 03ac 573f ab58 203f
00000350: b2f9 48bf fc9a 4b3f 7b68 9b3e e146 403f
00000360: cddb 393f 1107 463e f1e0 553f 8f8a 203f
00000370: ab48 f23d 8622 9fbe 7dd9 4e3f dc27 503f
00000380: 0999 203f e8de 233f 846c ff3e 69af 14bf
00000390: 4e31 933e 60ce 013f d0f3 9a3e c61e fa3e
000003a0: d52f d23e 1470 0c3f 3c71 18bf 412d 42bf
000003b0: 0af9 15bf 3c5f 28bf 8307 303f 2a3f fa3e
000003c0: b5e9 163f e3a7 05bf 3ccb cd3e 599e b73e
000003d0: 80cf 0f3f 3816 4dbf 872b d13e 3697 873e
000003e0: abad 023f 11ed 2a3f 697a 513f 2bf9 493f
000003f0: 4a23 003f 1c96 673c 9eff 463f 6b08 47bf
0.43067035 0.524985 -0.65081775 -0.1184323 0.5376989 1.0019021 0.637077 0.3446433
-0.5491905 0.7956083 -0.27711648 -0.24840721 -0.47628933 -0.23634426 0.6977237 0.17432031
-0.08695969 -0.062492233 0.15867916 -0.5524728 0.46976146 0.034381505 0.8248916 0.7329052
1.0156084 0.8273265 -0.5715214 0.5844821 0.76374024 -0.032144606 -0.74414104 -0.32895425
-0.54692745 -0.47744024 0.6277313 0.9145701 -0.5753255 -0.42388448 1.0134556 -0.47718087
0.6650883 -0.30064917 0.7421698 0.6300262 0.7186048 0.7329318 0.046234295 0.41246733
0.86598724 0.85502565 1.0528831 0.73114574 -0.3722733 0.7489693 -0.5158861 0.58163637
0.3884854 -0.24599732 -0.13143215 0.2507386 -0.49885952 1.3201665 0.5574966 0.7391776
-0.326202 -0.42946914 -0.7447523 -0.46799618 0.0195502 -0.72379243 -0.76849085 -0.31857744
-0.6576644 -0.14998148 0.5397904 0.1837777 0.72060645 -0.693266 -0.5922364 -0.09554873
-0.33336374 -0.5489948 -0.81759447 -0.64623755 -0.688565 -0.80807185 -0.95180917 0.72312456
-0.8852405 -0.01695347 -0.34877604 -0.65525085 -0.8263202 0.20077139 -0.23082186 0.457827
0.40700665 -0.78252035 1.2940253 -0.7558937 -0.11875646 -0.72447544 -0.6763741 0.71509075
-0.71986556 -0.35523084 -1.3122047 -1.4440058 -0.9808206 -0.83108515 -0.5315718 0.44741094
-0.49893907 -0.84069765 -0.6138274 -0.6030925 -0.2722916 -0.6131113 -0.6920425 -0.60764563
-0.6613871 -0.4366002 0.11832821 -0.46869195 -0.75916785 0.46108937 -0.62829983 -0.7883653
-2.430966 -2.2665286 0.14024833 0.69434804 -2.8084269 -3.3747392 -3.5981603 -1.8455807
-1.0833765 -3.8850932 -1.2768998 1.6555177 1.979486 -1.3945283 0.86987644 -4.8916206
0.49568576 -2.429207 -3.259653 -0.65102464 1.399906 -3.4740481 -4.06505 0.22559397
-3.276177 0.78641284 0.48445237 0.8335751 -3.715632 -2.9690669 0.66045386 -3.370591
-0.43725652 -0.65262455 -0.7235781 -0.68157053 -0.47146422 -0.6814141 -0.72553086 -0.28704125
-0.585468 -0.96203136 -0.5211959 -0.37530228 -0.4835783 0.519146 0.6114093 -0.5059681
-0.20747891 0.54274684 -0.7455257 -0.5663405 -0.30599144 -0.6518649 -0.6123226 0.475673
-0.9241421 0.06877022 -0.22600403 0.4258976 -0.85867286 -0.35954016 -1.1031072 -0.45736724
-0.6065149 -0.3804988 0.252972 0.70684445 -0.98200357 0.19198316 0.8864591 -0.70641285
0.8030704 -0.81626594 0.7111878 0.667018 0.6726255 0.68061 0.5032398 -0.14906204
0.97049475 0.7034633 0.84246844 0.62635297 -0.78506005 0.7953336 0.3035315 0.7510815
0.72601014 0.19338633 0.8354636 0.62711424 0.118302666 -0.31081027 0.8080061 0.8131082
0.62733513 0.64012 0.49887478 -0.58080155 0.28748554 0.5070553 0.3026414 0.48851603
0.41052118 0.5485852 -0.5954778 -0.758503 -0.5858313 -0.65770316 0.6876146 0.48876315
0.5895036 -0.522093 0.40194118 0.35862997 0.56175995 -0.8011203 0.4085352 0.26482552
0.51046246 0.66767985 0.8182741 0.78895825 0.50053847 0.01413491 0.7773379 -0.7774722

nns.0.3.bias f4 [32]
00000000: bff0 5abf 70d2 1440 2dae 30bf bac9 ff3f
00000010: b4c1 a3bd f49b 21bf c073 1e3f 0c05 a4bf
00000020: c0a1 25bf d098 3f40 2cfc 29be 0960 103f
00000030: 9b85 c9be cb5d 00c0 e400 063f ac04 c43e
00000040: e2a5 f4bf feef a33f 7a26 3ebf 187e 2640
00000050: 3c86 9e3e 223b dfbe 2377 07bf 51e2 cebe
00000060: 27a0 a3bf c1ae 983f f92d 1ebf 76ed 853f
00000070: ed75 363f ce81 4abf 7b6b 383f fa46 283f
-0.855236 2.325344 -0.6901577 1.9983437 -0.0799593 -0.6312859 0.6189537 -1.281404
-0.64699936 2.993702 -0.16600102 0.5639654 -0.39359745 -2.0057247 0.5234511 0.38284814
-1.9113123 1.2807615 -0.7427746 2.6014462 0.30961788 -0.43599802 -0.52916163 -0.4040704
-1.278325 1.1928331 -0.617889 1.0463092 0.7127369 -0.79104316 0.72039 0.657333

nns.0.4.weight f4 [32]
00000000: e834 ed3b 91ce b4bd c307 693e ba38 213e
00000010: 26e2 8b3e 8785 45b9 a926 a6bc 08ba 0fbe
00000020: 117b b43d 3f64 0d40 a473 4d3e 0611 1040
00000030: d273 313e 31b6 7e3f c169 3a3e a69f 08bf
00000040: a6f6 e63e d229 b53e 974f 143c fc45 bfbf
00000050: b20d 813e e00c 0ebe 68b7 1f40 8649 933f
00000060: a18c 2b3f d90d 28bd 8075 463e 3463 993c
00000070: f4b8 1fbf 82c6 4b3b d4ab 0bbb 7dda dbbe
0.007238973 -0.08828462 0.22756867 0.15744296 0.27320975 -0.00018837127 -0.020282106 -0.14035809
0.088125356 2.2092435 0.20063645 2.251039 0.17329338 0.9949675 0.18204404 -0.53368604
0.45110053 0.3538347 0.009052179 -1.4943233 0.2520576 -0.13872099 2.4955692 1.1506813
0.6701146 -0.04102883 0.1938076 0.018724062 -0.6239159 0.0031093662 -0.0021312134 -0.4294013

nns.0.4.bias f4 [32]
00000000: 636a 0fbf 314d 4abf 8a13 42bf 6874 56bf
00000010: 2b50 2cc0 d8d4 83bf b67e 23bf e49c 1bbf
00000020: 89dc d2bf d243 96bf 63d4 3fbf 93bc a5be
00000030: f94c 83bf d25e c7be 3650 55bf 5907 8fbf
00000040: acd3 e7be 8ae8 cebe b844 8ebf bb6d 4dbf
00000050: e578 1cbf cadd 82bf 0880 9ebf 5c63 92bf
00000060: 8aef 06bf 1800 49bf ab2e 41bf 81ff bcbf
00000070: 4280 95bf f1ee 41bf d5e1 fcbe 1695 3cbf
-0.5602171 -0.79024035 -0.75811064 -0.8377137 -2.692393 -1.029933 -0.6386522 -0.6078627
-1.6473552 -1.1739447 -0.7493345 -0.32370433 -1.0257865 -0.3893953 -0.8332552 -1.1174117
-0.4527868 -0.40411788 -1.1114721 -0.8024556 -0.6112197 -1.0223935 -1.2382822 -1.1436572
-0.5270926 -0.7851577 -0.75461835 -1.4765474 -1.1679766 -0.7575522 -0.49391046 -0.7366499

nns.0.4.running_mean f4 [32]
00000000: 66ce d1bf af3c 5140 c55b e6bf 31de 6d3f
00000010: 5534 30bf 1e9e 34c0 e665 a53f ed41 123f
00000020: 7c0e 19bf 92c5 133f c389 c6bf 9e37 25c0
00000030: c141 dabf 22ef 32c0 5b12 53bf ca4a 8f3f
00000040: 36c6 52c0 0050 d73f 56d8 83bf 8a80 6c40
00000050: 0243 b0be ae32 3d3f 220f 65c0 50d7 6fc0
00000060: cd86 0fc0 bb7a 3a40 97ba 823e e479 2c40
00000070: 558a d83f eabf 72be 40bf ff3f 89e4 f03f
-1.6391113 3.2693288 -1.7996756 0.9291716 -0.6882985 -2.8221507 1.2921722 0.57131845
-0.59787726 0.57723343 -1.5510792 -2.5815196 -1.7051316 -2.7958455 -0.82449883 1.1194699
-3.2933478 1.6821289 -1.0300395 3.6953454 -0.34426123 0.73905456 -3.5790486 -3.7475166
-2.2426026 2.9137409 0.25532982 2.6949396 1.6917216 -0.23706022 1.998024 1.8819743

nns.0.4.running_var f4 [32]
00000000: fdda e42f 3c28 4e31 8e2b 2130 f229 932f
00000010: bf94 c02e 54c4 c230 7a43 bc2f 081b 4d2e
00000020: 91a1 b52e 36d2 8c2e 1b90 e62f 57e3 d330
00000030: 4156 2d30 339f c530 3192 0b2f 4f4e 6e2f
00000040: 8074 1431 f283 4d30 c598 232f 288f 8131
00000050: 5706 b32d bb06 c22e 1a0d d330 da04 8431
00000060: 2238 2930 ed3b a830 aaa0 8c2d 93e1 7c30
00000070: fc92 5230 0d3f 3c2d 2dbf 9330 9e6e 7030
4.162856e-10 2.9999816e-09 5.8633354e-10 2.6768948e-10 8.757572e-11 1.4171158e-09 3.4244946e-10 4.6635612e-11
8.259627e-11 6.403804e-11 4.193915e-10 1.5416884e-09 6.305961e-10 1.4378884e-09 1.2693914e-10 2.1673795e-10
2.1603057e-09 7.476607e-10 1.4879038e-10 3.770669e-09 2.035276e-11 8.823294e-11 1.5355994e-09 3.842257e-09
6.156161e-10 1.2240641e-09 1.5987506e-11 9.1997626e-10 7.660643e-10 1.0700563e-11 1.0749993e-09 8.746869e-10

nns.1.0.weight f4 [32, 32]
00000000: 9804 18bf 7d4b bfbe 4a6d 70bd 27cb 2a3f
00000010: 72ef 663d bcd4 48be c254 afbe a611 eabe
00000020: 2f78 483f 6d3d bfbe 8f42 ea3e 2961 0440
00000030: 096b 3a3f a27f abbe 97cc 09bf ee98 95be
00000040: 2598 23be 34cf 3fbd 57f1 debe e1c2 4dbf
00000050: 04fa fa3e 0b41 99be 9e63 0dbe d058 3abf
00000060: 79e0 1dbf cb29 d4be 0a88 353f a60a 04bf
00000070: 6d18 3cbf bff6 dcbe d207 0ebf 3dea 133f
00000080: daaf 823f 7a61 3d3f 5b43 8c3b f955 183f
00000090: 57e4 423f 5261 313f 8e38 3d3f 888c 30be
000000a0: 5c95 55bd a85d 0d40 39b5 843f e996 1a3f
000000b0: 2260 813f 801e a43c 3b65 0c3f 5124 ee3e
000000c0: 57bb 013f c3e3 0d3f f591 3d3f 1283 393e
000000d0: 5944 1e3f e7fd 2f3f c4e6 413f 4f9a 0fbf
000000e0: 106b 2b3f 754f e73e fa43 2d3f be57 a63e
000000f0: 833d febe 206b 1e3f 1db2 d7be e749 583f
00000100: c041 dd3e 28eb b33d 1fb2 3f3f 0bb5 ae3f
00000110: 16d4 413f 38c4 5e3f 731c 6abf 5db0 18bf
00000120: c032 80be 6cde 09bf de66 643f b5ff 3b40
00000130: 2b62 693f a4cd 673f 2346 7b3f 036c dbbe
00000140: 7de8 383f 33c9 423f 1f20 6bbf 9ea4 9abf
00000150: c8ef 603f fd16 633f aeae 10c0 1649 f0be
00000160: a929 1c3e e751 a5be f0df 813f aefa a83e
00000170: 51df 19bf dd04 2cbe b297 f3be 8e6b 313f
00000180: d5b1 3cbf 3fe0 07bf 5487 243e 5177 743e
00000190: c5f8 e43e 6b77 263f 10a7 88be 8554 b0be
000001a0: 1e93 553f b97a 0d40 3279 ac3e e867 633e
000001b0: 8e1f 373f 4144 df3e bad4 953e 9519 f2be
000001c0: c238 f63e 79d8 383f fe8e 1f3d 9a82 42bf
000001d0: 09d1 133f af62 0bbf 4877 ef3e b882 06bf
000001e0: eee9 123f faca 36bf 043f e93e 5c38 6ebf
000001f0: 33ed 45bf 7f9f 04bf a5d3 99be 9962 723e
00000200: 7580 a2be 197a 53bf 3c3d 313f 8ce9 d9bd
00000210: 7f48 653f e344 3c3f 25f4 3dbf ee9c 10bf
00000220: 7ce3 00bf 036b 703f cd35 823f 2ac8 11bf
00000230: 6054 593f 7cd9 833f af39 353f 6725 e1be
00000240: 8598 3c3f a3c7 953f e1e4 92be 5dca 85be
00000250: c943 bd3c 396c 2f3f a85d 323f 7926 773f
00000260: ef2e 233f 6cbc 98be 6a51 843f 5bbb d9be
00000270: daea 29bf a09e 34bf 998f 10bf 1ee0 9b3e
00000280: c84a 1e3e 777b 1f3f 974e e83e 57fc a03e
00000290: 6e98 453f e459 183f b1d8 5a3e 47f1 dbbe
000002a0: cd39 2d3f e47d 2140 1cbc 513e 1cfd 8d3f
000002b0: beb6 46be ab7a 433f 8b5e 063f eb85 f0be
000002c0: 9119 2c3f a9b6 403f 9f26 7a3e 8826 193e
000002d0: 4947 1abf 7417 383f 030f 813f 07c2 85be
000002e0: 374c 363f 31f5 1c3f 613b 643f 6613 b93f
000002f0: 343e d5be 13d6 353f f39b 49bc 36fc 033f
00000300: ad11 683f 4576 c23e 470e 103f 7a0d 813f
00000310: bd8a 053f 7c24 9b3e 88fa 5e3e 31bd 783f
00000320: 61b7 0bbf d2a8 aabf b3f6 663f 5243 9abe
00000330: c75d b13f 9661 203f 433e bfbd 8f00 093f
00000340: 9c77 203f 92fe 2f3f 6951 463d f24a 9c3e
00000350: c5b6 3a3f 5cc2 3b3f e01f 2d3f 5f2f 443f
00000360: e8f9 4a3f a5bf c83d c22b 6e3f 2a59 253d
00000370: 6237 c63e 0b9b fe3d fd6c 973e 6d08 423f
00000380: 820d b2be 6546 d83e 3793 063f 557c e93e
00000390: 9007 40bf 9ad3 67bf c80a 193f 816b e5bd
000003a0: 906b 22bf b798 013f 0de9 313f 8ada bb3f
000003b0: 1006 b7bf 57c6 5fbf f372 ddbe b3a9 e13e
000003c0: e39b 0f3f d556 9c3e 8b25 80bc ecbc 593f
000003d0: e3b3 053f 02f7 1a3f 5917 5dbf 6934 3d3f
000003e0: bbe8 e5be e936 043f e805 073f 54f9 483f
000003f0: 8f16 423f 791b 443f 61aa bd3f 4ab5 00bf
-0.5938201 -0.3736228 -0.058697976 0.66716236 0.056380697 -0.19612402 -0.34244353 -0.4571659
0.78308386 -0.37351552 0.45753905 2.0684302 0.7281957 -0.33495814 -0.53827804 -0.2921824
-0.15976007 -0.046828464 -0.43543503 -0.80375487 0.49018872 -0.29932436 -0.13807532 -0.7279177
-0.61670643 -0.41438136 0.70910704 -0.5157875 -0.7347477 -0.43157002 -0.5548068 0.57779294
1.0209916 0.7397686 0.0042804903 0.59506184 0.7612967 0.69289124 0.7391442 -0.17241108
-0.052144393 2.2088413 1.0367805 0.6038652 1.0107462 0.020034075 0.54841965 0.46512082
0.5067648 0.5542566 0.7405084 0.18116406 0.6182304 0.687468 0.75742745 -0.5609483
0.6696024 0.45177808 0.6768185 0.32488817 -0.49656305 0.6188221 -0.42128077 0.84487766
0.43214226 0.08785087 0.74881166 1.3649 0.7571424 0.87018156 -0.9144966 -0.5964411
-0.2503872 -0.53855014 0.8921946 2.937482 0.9116542 0.9054816 0.98153895 -0.42855844
0.7222975 0.76088256 -0.9184589 -1.2081487 0.8786588 0.8870695 -2.2606616 -0.4693076
0.15250267 -0.3228905 1.0146465 0.33003753 -0.6010638 -0.1679873 -0.47576672 0.6930474
-0.7370885 -0.5307655 0.16067249 0.2387364 0.44721046 0.6502597 -0.2668996 -0.34439483
0.8342761 2.2106154 0.33686215 0.22207606 0.71532524 0.4360676 0.2926386 -0.47285143
0.48090178 0.7220531 0.038954727 -0.7598053 0.5774084 -0.54447454 0.46770692 -0.5254321
0.573882 -0.7140347 0.4555589 -0.9305475 -0.7731506 -0.5180587 -0.30044284 0.23670425
-0.3173863 -0.8260818 0.6923406 -0.10640249 0.89563745 0.7354261 -0.7420066 -0.56489456
-0.50347114 0.93913287 1.0172669 -0.5694605 0.8489437 1.0300746 0.70791143 -0.43973848
0.73670226 1.1701549 -0.28690246 -0.26130953 0.023103612 0.6852451 0.6967416 0.9654308
0.6374349 -0.29831254 1.0337346 -0.42525753 -0.6637398 -0.7055454 -0.5646911 0.30444425
0.15458214 0.6229777 0.4537246 0.3144252 0.77185714 0.5951216 0.21371724 -0.42957518
0.6766632 2.5233088 0.20481914 1.1092868 -0.19405648 0.7635905 0.5248801 -0.4697717
0.6722651 0.7527872 0.24428795 0.14956105 -0.6026502 0.71910787 1.0082706 -0.26124594
0.71210045 0.6131163 0.89153105 1.4459045 -0.4164902 0.71029776 -0.012305248 0.5155672
0.9065197 0.37980857 0.56271785 1.0082238 0.5216482 0.30301273 0.21775258 0.97163683
-0.5457669 -1.333277 0.90220183 -0.30129486 1.3856744 0.62648904 -0.09338047 0.5351648
0.6268251 0.6874782 0.048417483 0.3052593 0.72935134 0.73343444 0.6762676 0.7663478
0.79287577 0.09802178 0.9303552 0.040368237 0.3871413 0.12431916 0.2957534 0.75794107
-0.3477593 0.42241207 0.5256838 0.4560267 -0.7501154 -0.90557253 0.59782076 -0.11202145
-0.6344538 0.5062365 0.6949623 1.4676068 -1.4298725 -0.8741202 -0.43251762 0.44074783
0.5609724 0.30534998 -0.015642902 0.85053897 0.5222761 0.60533154 -0.8636375 0.73908097
-0.44904122 0.51646286 0.5274339 0.78505445 0.7581567 0.7660442 1.481762 -0.50276625

nns.1.0.bias f4 [32]
00000000: 3ef4 23c0 c593 62bf e1e9 1b3f c9d0 7ec0
00000010: 8d3c 8fc0 e79f 90c0 c011 8fbf b3c8 3f40
00000020: ad75 60c0 203c d4c0 cdb5 b540 6ff0 cd3f
00000030: 5548 593d b70c 80c0 a8e6 b6bf ff7c 94c0
00000040: 5600 013f c857 58c0 9536 2940 bb17 ecbe
00000050: 4768 d2bf fd3f 6940 77e9 803e 85c5 d4c0
00000060: fc9e 2940 c6ed 2e3f 920b 00c0 2648 9ebf
00000070: 33a3 44c0 6ab4 22c0 af5a 79c0 bea4 3840
-2.5617824 -0.8850673 0.60903746 -3.9814932 -4.4761415 -4.5195193 -1.1177292 2.9966247
-3.5071824 -6.6323395 5.6784425 1.6089 0.053047497 -4.001552 -1.4289141 -4.6402583
0.5039114 -3.3803577 2.6439564 -0.46111855 -1.6438073 3.6445305 0.2517812 -6.6491113
2.6503286 0.68331563 -2.0007062 -1.2365768 -3.072461 -2.5422616 -3.89616 2.885055

nns.1.1.weight f4 [32]
00000000: fd9b fd3f 269a d33e b198 f03f 4fc7 4ebf
00000010: 2fb7 18bf a20d de3e e427 733f 6b65 eb3f
00000020: fe4d 513f 1ab8 ce3f 0e35 2a3f 8f15 783f
00000030: f544 803f 6d1b 3b3f e2fc 843f 97e0 8d3d
00000040: d2d1 033e 11ab e73f a846 cc3f 068a 243f
00000050: 9058 6940 94b1 223f ab79 c23e 9e30 dd3f
00000060: c92b 173f fc74 91bf 433d 343f da5e c83f
00000070: 950a 63bf 2069 d33f 974a 673f f348 9e3f
1.9813229 0.41328543 1.8796598 -0.8077287 -0.59654516 0.43369776 0.94982743 1.8390325
0.8175963 1.6149933 0.66487205 0.96907896 1.0021044 0.73088723 1.0389674 0.06927603
0.12873009 1.809908 1.5959063 0.6427311 3.6460304 0.6355221 0.3798345 1.7280462
0.59051186 -1.1363826 0.7040598 1.5653946 -0.8868802 1.6516457 0.9034819 1.2366012

nns.1.1.bias f4 [32]
00000000: 1cb2 25bf 3d87 75bf 08f4 0abf 6bab 3fbe
00000010: a327 75bf 9e03 c5be 0c0e 733f f99f 5cbd
00000020: b842 16bf ae4d 70bf e972 ecbf f7cc 573f
00000030: ce7d e0be 4dee 903c 6e00 39bf 04aa 52bf
00000040: c657 68bf 8537 773f c46d 77be 849e 61be
00000050: 4037 d63f d6d0 75bf 21f1 89bf 8418 4cbf
00000060: fcff aa3d dae0 20bf b586 17bf e83d a63f
00000070: 5d65 81bf ff4f 3abf 9944 42be daee c13d
-0.647249 -0.9590948 -0.5427861 -0.18717735 -0.95763606 -0.38479322 0.9494331 -0.0538635
-0.58695555 -0.9386853 -1.8472568 0.84297127 -0.4384598 0.017691756 -0.7226628 -0.82290673
-0.9075893 0.9656909 -0.24162966 -0.22033125 1.6735611 -0.96021783 -1.0776712 -0.7972491
0.083496064 -0.62843096 -0.5918992 1.2987642 -1.0109059 -0.72778314 -0.1897148 0.094693854

nns.1.1.running_mean f4 [32]
00000000: aff4 23c0 8592 62bf f5e8 1b3f 26d0 7ec0
00000010: 7a3c 8fc0 fb9f 90c0 0811 8fbf 29c8 3f40
00000020: 1776 60c0 543d d4c0 c3b5 b540 0ff0 cd3f
00000030: 0c48 593d 4e0c 80c0 57e7 b6bf a17c 94c0
00000040: 1100 013f f857 58c0 4837 2940 ed17 ecbe
00000050: 0c68 d2bf fa3f 6940 eae8 803e ffc5 d4c0
00000060: 569f 2940 b2ed 2e3f dd0b 00c0 0548 9ebf
00000070: aca2 44c0 b3b4 22c0 f259 79c0 26a5 3840
-2.5618093 -0.8850482 0.6090234 -3.9814544 -4.4761324 -4.519529 -1.1177073 2.9965918
-3.5072076 -6.6324863 5.6784377 1.6088885 0.053047225 -4.001502 -1.4289349 -4.6402135
0.50390726 -3.3803692 2.643999 -0.46112004 -1.6438003 3.6445298 0.251777 -6.6491694
2.65035 0.68331444 -2.000724 -1.2365729 -3.0724287 -2.542279 -3.8961148 2.8850799

nns.1.1.running_var f4 [32]
00000000: 33aa 9f30 5d31 ed2f af4b 732f 3fe8 d430
00000010: a6ec 7430 67d1 0e2f d859 2030 635b 9630
00000020: 79a0 8d30 a5e9 d932 9b9b 3430 c2b4 1a2f
00000030: 8988 b329 8d3a 4231 1154 0430 4d34 4831
00000040: a9bd 9d2d 8852 2d2f 9fb7 0b31 050b 542c
00000050: e0be 6e2e 5cc9 6e2a b823 b52d 1895 9e31
00000060: 563b 3030 0d8a 372d d81a d72f 772f 962d
00000070: 50ea e030 4dfa 3f30 e5f8 3631 f252 9d30
1.1617146e-09 4.3145124e-10 2.212761e-10 1.5491038e-09 8.910298e-10 1.298922e-10 5.8335337e-10 1.093991e-09
1.0304709e-09 2.5368374e-08 6.5704747e-10 1.4070436e-10 7.972882e-14 2.8263998e-09 4.8140786e-10 2.913356e-09
1.793306e-11 1.576358e-10 2.0331539e-09 3.013313e-12 5.4284466e-11 2.1208507e-13 2.059318e-11 4.615355e-09
6.411275e-10 1.0432999e-11 3.9127346e-10 1.7074104e-11 1.6364741e-09 6.9841094e-10 2.6625966e-09 1.1446828e-09
