result/experiment_07.11.2022_12.08.41/119/fold_1_optim_dict.pt (torch, 76073 bytes, 118 tensors)

first_h.0.weight f4 [32, 3]
00000000: 116b 583f 8594 403f 8197 993f 0c4b 60bf
00000010: 7f14 fcbe c982 bbbe 7782 1abf 73a3 133f
00000020: 2997 a13f 7beb fe3f 7170 49be 993f 14be
00000030: 087c f4be badf c0bf 0054 a6bf 87f8 19bf
00000040: 2d7a b83d c752 5b3f 27b0 d1bf 457b 4a40
00000050: 327c 5140 1a66 a03f c0ea 7540 2471 5040
00000060: c7ce a63f 37c5 8b40 484f 9040 548a e13e
00000070: 9232 e5bf bac0 afbf ddd4 a4bf 6d12 0040
00000080: 02fe 0a40 76e4 3e3f 3aec a43f 4e32 693e
00000090: 60fe 7ebf 8331 b13f 9eaf db3f 9bf3 59bf
000000a0: 94a0 2ac0 ffb2 0dc0 ce68 133f e51b 74bf
000000b0: 592b 6bbf e490 413f 063a 0d40 d73c bf3f
000000c0: 0ac6 113f 7186 a23e 3607 163f a36d ed3f
000000d0: ea0b 4840 2f2e 2740 7152 143f 65bc cbbe
000000e0: 3dd4 62bf f62b 2fbf b7f9 0cbf a356 8dbf
000000f0: a144 dc3f c411 cf3f 6da9 d13f 4dd9 5dbf
00000100: f8e6 84be 20fc 61be ab19 92bf d329 86be
00000110: 42f4 14bf 8ef0 083f 8f92 283f 6db2 f5be
00000120: 5425 83bf 4b92 8640 da3b 7d40 f196 c6be
00000130: 93af 54bf c8fd 66bf 19e8 adbf 6251 2740
00000140: 314f f43f 42a9 afbf e672 9cbf 6535 c0bf
00000150: 874a a83f 38dc 1e40 d655 ee3f d11b 2bbf
00000160: 4f76 96be 4dc6 813e 1d72 a9bf b639 27be
00000170: c80f 0fbf 7646 29bf 16ca 8cbe 3f12 00bd
0.8453837 0.7522662 1.199936 -0.8761451 -0.49234387 -0.3662322 -0.60355324 0.5767128
1.2624255 1.9915613 -0.19671799 -0.14477386 -0.47750878 -1.5068276 -1.2994385 -0.6014485
0.09007678 0.85673183 -1.6381882 3.1637738 3.2732053 1.2531159 3.842453 3.2569056
1.3031853 4.367824 4.509678 0.44050848 -1.7906058 -1.373069 -1.2877461 2.0011246
2.1717534 0.74567354 1.2884591 0.22773096 -0.99606895 1.3843235 1.7162969 -0.8513734
-2.666051 -2.21405 0.57581794 -0.95355064 -0.9186302 0.7561171 2.2066665 1.4940442
0.5694281 0.31743196 0.58604753 1.8549083 3.1257272 2.6121938 0.57938296 -0.3979217
-0.886051 -0.68426454 -0.55068535 -1.1042064 1.7208444 1.6177297 1.637983 -0.866597
-0.25957465 -0.22068834 -1.1414083 -0.26203784 -0.5818521 0.5349206 0.6584863 -0.4798769
-1.0245767 4.205358 3.956778 -0.38787034 -0.83080405 -0.9023099 -1.3586456 2.6143422
1.9086667 -1.3723528 -1.2222564 -1.5016295 1.3147744 2.482191 1.8619945 -0.6683932
-0.29387137 0.25346604 -1.323795 -0.16330609 -0.55883455 -0.6612314 -0.2749793 -0.0312674

first_h.0.bias f4 [32]
00000000: 5c08 f33e e3c7 a0be 837f c03e 034b c03e
00000010: 9257 6d3e 573c 0c3f cc38 3c3d c01c 8ebd
00000020: 8427 a7be d59d 03be d403 523e 93b2 d0be
00000030: 6e50 f43d 89c7 1fbe 55f6 ecbe bcb5 90bd
00000040: ff7e 63be 25ef 033f 9dad 8dbe 3a5b 103f
00000050: 681e aa3e d3c3 103f 33e4 12bb c48d 9bbc
00000060: 2c57 fbbe 8ed3 643e 9151 bf3e f79a 5abd
00000070: b89a 96bc 4d39 29bd 51bd 993e 0d34 abbe
0.47467315 -0.314025 0.37597284 0.3755723 0.23177937 0.5477957 0.045952603 -0.069390774
-0.32647336 -0.12853177 0.20509273 -0.4076124 0.11929403 -0.1560346 -0.46281686 -0.07065913
-0.22216414 0.5153678 -0.2767152 0.563892 0.33226323 0.56548804 -0.002241385 -0.018988498
-0.49089944 0.22346327 0.37366918 -0.053370442 -0.018384323 -0.041314412 0.3002725 -0.3343815

first_h.1.weight f4 [32]
00000000: 1c99 3240 f703 aa3e 2f2b e43f 945d b6bf
00000010: f0d8 8fbd f625 dd3e 83e4 0440 1b9d fd3f
00000020: 2601 a740 44c2 00bf 674c 3940 0a43 2440
00000030: b72d d13f e32f 293f afd6 8bbe 6329 523f
00000040: e7d0 bc3f 2628 fd3f 6a9f 02bd b5b4 ff3f
00000050: c967 a43f 3e27 aa3e a933 763e 6696 a9bf
00000060: 4f7a 5640 8580 1e3f 3758 ea3f 8cfb d3bd
00000070: bb78 0240 4d33 a33f bb6e 983f ba50 c83e
2.790595 0.3320615 1.7825679 -1.4247308 -0.070237994 0.43193024 2.0764472 1.981357
5.21889 -0.50296426 2.8952882 2.5665917 1.6342076 0.66088694 -0.27312228 0.820944
1.4751252 1.9777877 -0.03189031 1.9977022 1.2844173 0.33233064 0.24043144 -1.3249023
3.3512151 0.61914855 1.8308171 -0.10350713 2.0386188 1.2750031 1.1908792 0.3912409

first_h.1.bias f4 [32]
00000000: d980 0e3f 34d0 3dbf d149 9f3e 81c0 22c0
00000010: f443 913f effe bdbe aad9 5d40 b0cb a33e
00000020: 4c94 e5bf d77c 3bbf cbc2 46be a480 6b3f
00000030: e945 303e 8526 e73e 4b3c 98bf 3e72 0f3f
00000040: a8ac 943e 631e d13e 0923 7fbf eb51 1dbf
00000050: 8901 203f f491 3dbf 2f4f 5abf 31e7 40c0
00000060: ba03 4ebf f5a8 9dbf 9e15 ce3e c49b 5e3f
00000070: d150 37bd 0160 e23e 8f99 1e3f 9cfa 20bf
0.55665356 -0.7414582 0.31111005 -2.5429995 1.1348863 -0.3710856 3.4664102 0.3199134
-1.7935882 -0.73237365 -0.19410245 0.91993165 0.17214169 0.45146576 -1.18934 0.56033695
0.29037976 0.40843496 -0.99662834 -0.6145312 0.6250234 -0.7405083 -0.85277075 -3.0141108
-0.80474436 -1.2317187 0.40250868 0.8695643 -0.044754807 0.4421387 0.6195306 -0.628824

first_h.1.running_mean f4 [32]
00000000: d11a ac49 a25d b2c9 afbc 75c9 48b8 4a4a
00000010: 9c6d 42c9 d5e1 74c9 18bf 26ca d91d ff49
00000020: eca7 044a 4c59 3349 9413 03ca 25ce 9749
00000030: 67c6 cac9 dc53 adc9 b471 6a49 1cef 9949
00000040: 69d9 6749 4bd0 3c4a b2e5 6b49 c44d 8bc9
00000050: 6f2a 2f4a e26b b0c9 225e e8c9 33cc 5949
00000060: 8b92 d0c9 b6ed 1dc9 044b 0aca 55b1 0bca
00000070: 31d5 054a 1f12 88c9 afbf 06ca fb9c 86c9
1.4098821e+06 -1.4611722e+06 -1.00653894e+06 3.321362e+06 -796377.75 -1.0030373e+06 -2.731974e+06 2.0899151e+06
2.173435e+06 734612.75 -2.147557e+06 1.2435886e+06 -1.6611329e+06 -1.4198995e+06 960283.25 1.2610275e+06
949654.56 3.0935228e+06 966235.1 -1.1411765e+06 2.8699158e+06 -1.4452442e+06 -1.9035562e+06 892099.2
-1.7086254e+06 -646875.4 -2.265793e+06 -2.2887252e+06 2.1927162e+06 -1.1146919e+06 -2.2077238e+06 -1.1027514e+06

first_h.1.running_var f4 [32]
00000000: dc87 7156 a8b6 8156 bf38 f655 7e8e a757
00000010: 801e 9a55 d681 f455 f0bd 6257 9eac 0457
00000020: ef7c 0f57 3529 8355 c21b 0c57 56ea 3b56
00000030: 54a7 a756 2bf7 7456 b01c e055 6637 4156
00000040: 6c2a db55 195a 9157 36e5 e255 273d 1e56
00000050: 5033 7a57 03ce 7d56 2726 dc56 6e68 c155
00000060: 4a63 b156 2060 4b55 2df6 1b57 de1f 1f57
00000070: 580d 1257 aafb 1656 1b10 1457 d5c3 1356
6.6391453e+13 7.131075e+13 3.3840448e+13 3.6846088e+14 2.1181973e+13 3.360481e+13 2.493054e+14 1.4587692e+14
1.5776675e+14 1.8026626e+13 1.5405085e+14 5.1653785e+13 9.2168555e+13 6.7335604e+13 3.0801727e+13 5.311092e+13
3.0121906e+13 3.196323e+14 3.118426e+13 4.349637e+13 2.750983e+14 6.9765314e+13 1.2102821e+14 2.6581783e+13
9.752e+13 1.3975857e+13 1.7148162e+14 1.7495922e+14 1.6058601e+14 4.150191e+13 1.627969e+14 4.0617325e+13

first_h.3.weight f4 [32, 32]
00000000: 229e 093f bd89 213f f6c1 303f 5f47 453f
00000010: cf15 e83e c8fa 213f 3511 1b3f 4470 0a3f
00000020: 4d2a 0f3f 2943 153f b3cf db3e d9e5 ce3e
00000030: 692c 1d3f 5c18 3b3f 9b9a 493f ad0f 193f
00000040: 1168 fa3e fd19 0f3f e39d 253f 9d77 253f
00000050: 82e3 173f d66e 073f e827 233f 267c 443f
00000060: 7bcd e23e dd60 0f3f 7fc7 073f 47a6 0a3f
00000070: ab47 453f a6f5 313f 1ff9 1a3f 9c8c 173f
00000080: 545b bb3e 1dbd 273f 4176 1bbf d7d7 0bbf
00000090: 3a29 e33e 8622 16bf fc34 26bf c3b5 3bbf
000000a0: ae87 5cbf 08f9 303f a5e1 2fbf db84 8f3e
000000b0: 8323 2fbf edb8 213f 67d2 013f b6ea 0abf
000000c0: 7565 f8be 0a1f 44bf 45a8 e23e 3126 15bf
000000d0: e4ac f9be bf36 453f 9834 fb3e a3dd e3be
000000e0: 3109 21bf fd61 033f 5228 14bf bf52 e13e
000000f0: 1c02 26bf b5b0 313f fdc8 143f 8fee f73e
00000100: 135d 1fbf c0f9 27bf d1cb 28bf 2c9b 0dbf
00000110: 3182 16bf 5e13 38bf 61f8 1cbf 2491 36bf
00000120: c789 17bf 1b65 30bf 0386 e5be 28e6 1ebf
00000130: 5450 20bf 6b20 0fbf 4f22 20bf 2fde 14bf
00000140: dd13 3ebf 03f9 f3be 01cb 1bbf 938f 0bbf
00000150: d24c 37bf 5e22 f4be e90e f7be f864 37bf
00000160: cad1 c4be 3e21 0cbf 4744 07bf e7a4 11bf
00000170: 218a 23bf 0330 0dbf b33f 53bf fb2f 4ebf
00000180: 2acb 263f e920 ec3e 3351 3dbf 8eef 17bf
00000190: 7388 203f 5116 06bf ce7d 35bf 8311 febe
000001a0: c12c 14bf e0c1 113f e1df 24bf 54fb 273f
000001b0: 7f5b 26bf 4938 193f 8c1f ef3e 9fdf 2cbf
000001c0: fa49 febe 338d f6be 90a4 de3e 767c 19bf
000001d0: 73a5 35bf e668 033f 0002 143f 4e1c 22bf
000001e0: d0b1 21bf cba0 0c3f 9fa0 41bf 1b5e 1f3f
000001f0: a87d 17bf f4b0 393f 2ab8 3f3f 6234 db3e
00000200: 93a2 fcbe dc4e 0a3f 2d17 f93f 470a abbe
00000210: d960 1340 b015 4e3f f448 61bf 112d 013d
00000220: 05d1 863f 1b78 543f 1d86 3040 2e76 08bf
00000230: cdd1 a73f 86d5 ff3f 3d6a cd3f 3486 88bf
00000240: cec7 b73d 3d14 ff3a 1162 b03f 3b52 7a3f
00000250: 4a0d 84bf 7ab7 eb3e 370d 373f 7c35 03bf
00000260: df8e e63f bd4e f33f 23d0 cf3f ee59 f73f
00000270: 6751 ecbe 899f ed3f 1eeb e43f 505c 313f
00000280: ec7f aa3f eb5d 073f 7ec8 bd3e 83db af3d
00000290: a4c0 92bf 7e65 363f cd1f 923f 0e09 b43e
000002a0: ac98 c73e 3930 fb3e 4372 a93e 7ef1 bd3f
000002b0: 9f00 dc3e 3cc2 bb3e 06ec 493f b95d 663e
000002c0: be2d 133e 4bda d53e 328a 723f 68a6 9b3e
000002d0: 744b 003f 0240 e33e d08c 193f e559 b4bb
000002e0: 735c bb3e 745a 903f 70d7 9fbe 63d1 963e
000002f0: cf8f 403e f910 f43e 3046 1a3f 47cb 153f
00000300: 5f0f dfbf a24d 3fbf c38c 0f3f db49 7bbd
00000310: 1516 7bbf b809 193f c129 99be 37d9 4a3d
00000320: eb74 bfbe eb7e aabf 14af 25be ff1e c3bf
00000330: 236d 3dbe 8f16 6abf b0da 99bf 360c 95bd
00000340: 12b1 7d3e 14e0 37bd 5852 9abf b43b 2b3f
00000350: 1282 7ebe fbd5 1fbf 6f1c 1abf c9ce 8b3c
00000360: 73cb dabe f9a0 78bf b244 963e 22cb 59bf
00000370: 9cb0 a4bc 6d27 1fbf dad4 26bf 8ad5 3dbf
00000380: b9ec 21bf c188 1bbf f5e4 29bf 1681 0abf
00000390: 95e4 19bf cfc9 27bf c420 f2be 163a 32bf
000003a0: 5506 4abf 4b79 15bf c3d5 07bf 1061 1cbf
000003b0: 087b 06bf 2186 1ebf ec73 37bf 6c58 02bf
000003c0: 420d cabe 32ff 0abf 3f88 0cbf c90b fabe
000003d0: 180e 49bf e1c2 3dbf 2107 3abf 8624 12bf
000003e0: 7a30 1cbf 1353 efbe 1f8b 28bf d55c 04bf
000003f0: 4575 16bf def8 2abf 3d83 0abf 42ef 2abf
0.53756917 0.63100797 0.6904596 0.7706203 0.4532914 0.63273287 0.6057313 0.54077554
0.5592392 0.58305603 0.429319 0.40409735 0.6139589 0.73084044 0.78751534 0.59789544
0.4890752 0.5589903 0.6469404 0.6463564 0.59331524 0.529035 0.6373277 0.76751935
0.44297394 0.56007177 0.5303878 0.5415997 0.7706248 0.69515455 0.6053638 0.5919893
0.36593115 0.6552294 -0.60727316 -0.5462622 0.4436739 -0.5864643 -0.649246 -0.7332422
-0.8614453 0.6912999 -0.6870368 0.28031048 -0.6841356 0.631728 0.50711673 -0.5426439
-0.48514906 -0.7660986 0.44269004 -0.582614 -0.48764718 0.7703666 0.49063563 -0.44505033
-0.6290465 0.51321393 -0.57874024 0.44008443 -0.6484697 0.6941026 0.58119184 0.48424193
-0.62251395 -0.65615463 -0.65936 -0.553149 -0.58792406 -0.7190455 -0.61316496 -0.71315217
-0.59194607 -0.68904275 -0.44828805 -0.6206994 -0.6262257 -0.5590884 -0.6255235 -0.58151525
-0.7424906 -0.47650918 -0.60856634 -0.5451595 -0.71601593 -0.4768247 -0.48253563 -0.7163844
-0.38441306 -0.54738224 -0.5283856 -0.56892246 -0.63882643 -0.55151385 -0.8251907 -0.8054196
0.65153754 0.46118858 -0.73952025 -0.59349906 0.62708205 -0.523778 -0.7089509 -0.49622735
-0.5788079 0.56936455 -0.6440411 0.6561787 -0.6498336 0.5985151 0.46703756 -0.6752872
-0.49665815 -0.481546 0.43484926 -0.5995554 -0.7095558 0.5133194 0.5781555 -0.6332444
-0.63161945 0.5493285 -0.75635713 0.6225297 -0.5917611 0.72535634 0.7489039 0.42813402
-0.49342784 0.5402658 1.9460198 -0.33406278 2.302786 0.8050184 -0.8800194 0.03153712
1.0532538 0.82995766 2.7581856 -0.5330533 1.3110901 1.9987037 1.6048046 -1.0665956
0.089736566 0.0019460988 1.3779927 0.97781724 -1.0316556 0.4603842 0.7150454 -0.51253486
1.8012351 1.9008404 1.6235393 1.9324319 -0.46155855 1.8564311 1.7884252 0.6928148
1.3320289 0.5287768 0.37067026 0.085867904 -1.1465039 0.71248615 1.1415955 0.35163158
0.38983667 0.49060228 0.33094987 1.4839323 0.42969224 0.36671627 0.7887577 0.2249669
0.14372918 0.41768107 0.9474212 0.30400395 0.5011513 0.44384772 0.5998049 -0.0055038803
0.3659397 1.1277604 -0.31219053 0.29456624 0.18804859 0.476692 0.6026335 0.585133
-1.7426566 -0.74727833 0.5607416 -0.06134973 -0.9808057 0.59780455 -0.29914668 0.04952356
-0.3739389 -1.3319982 -0.16180068 -1.5243834 -0.18498664 -0.9144067 -1.2019863 -0.0727772
0.24774578 -0.044891432 -1.2056379 0.66887975 -0.24854305 -0.62435883 -0.60199636 0.017066376
-0.42733344 -0.97120625 0.29349285 -0.8507558 -0.020103745 -0.62169534 -0.65168536 -0.7415396
-0.63251835 -0.60755545 -0.66364986 -0.5410322 -0.60114413 -0.6554231 -0.47290623 -0.6961988
-0.7891591 -0.58388203 -0.5306055 -0.61085606 -0.5253148 -0.61923414 -0.7166126 -0.5091617
-0.3946324 -0.5429565 -0.54895395 -0.48837116 -0.7853713 -0.74125487 -0.7266713 -0.5708698
-0.6101147 -0.46743068 -0.6583728 -0.5170415 -0.5877269 -0.6678599 -0.54106504 -0.6677133

first_h.3.bias f4 [32]
00000000: b07c 213f f2af f93e aa5c a0be e297 f9be
00000010: 19e5 31bf a240 cebf 8ea8 9e3e 19a7 81be
00000020: ab9f 46bf a30d c43e 185a 11bf 7446 68bf
00000030: ad56 523f ab53 473f b659 1a3f 76fa f3be
00000040: deae 01bf 9a53 0ebf 00ce 3abf ccdb d43e
00000050: de43 d83e 01e4 1fbf 93b9 a1be 4d2b 8bbf
00000060: 5ebb 1fbf 9aa1 83bf 5451 7b3e 28e2 8ebf
00000070: 0f82 debd 0c37 21bf 01f3 dfbf 90c1 19bf
0.63080883 0.48767048 -0.31320697 -0.4874869 -0.694902 -1.6113474 0.30987972 -0.25322798
-0.77587384 0.38291654 -0.567781 -0.907325 0.82163507 0.7786204 0.6029314 -0.47652024
-0.5065745 -0.55596316 -0.7297058 0.41573942 0.4223928 -0.6245728 -0.31586894 -1.0872589
-0.62395275 -1.0283692 0.24542743 -1.1162767 -0.108646505 -0.6297462 -1.7496034 -0.6006098

first_h.4.weight f4 [32]
00000000: 381e f8be 1f9b ca3e e7eb cc3e ea71 b53e
00000010: 2d99 7c3f cd76 10bd d451 283e eb4c b43d
00000020: 3412 173f c400 10bf dc50 12bd a797 8dbf
00000030: 06b4 a4bd e9c9 60bd 2cce 843d ec54 d23e
00000040: 2e92 323e e2c5 1b3e 7336 843e 541e a43e
00000050: 48a7 83bd ccf3 e9bd df8b 80be 5d3f 07bd
00000060: 4e76 69be f805 22be 08a2 aa3f 5cfd 65bf
00000070: b519 ab3e a4ca 87bf 9115 3bbf 95f6 613e
-0.48460555 0.39571473 0.4002373 0.35438472 0.9867123 -0.035269547 0.16437465 0.088037334
0.5901215 -0.5625117 -0.035721645 -1.1061906 -0.08042149 -0.054880057 0.06484637 0.41080415
0.17438576 0.15212205 0.2582279 0.3205439 -0.06428391 -0.11423454 -0.25106713 -0.033019412
-0.22799036 -0.1582259 1.3330698 -0.8983972 0.3341805 -1.0608716 -0.7307978 0.2206672

first_h.4.bias f4 [32]
00000000: 870e b4bf c1e8 a6bf 6a8a 33bf 97bf 31bf
00000010: e2fd f1bf 13f3 c2bf cb0d 46bf ac26 47bf
00000020: 42c7 10c0 3dc3 1bc0 8726 1ac0 3fa6 d2bf
00000030: efd4 3bc0 c63e 35bf 0d41 04bf 668c 19bf
00000040: 4e5f d2bf 6238 2cbf 091b 58bf 2419 41bf
00000050: 4a9b 33c0 9ee5 c3bf f659 85bf eb3e 05bf
00000060: d9b4 81bf 5ece babf c65a 3bbf 01f8 3fc0
00000070: eab9 67bf 346f cdbf 55bf 95bf 8cc0 2dbf
-1.4066933 -1.3039781 -0.7013308 -0.6943297 -1.8905604 -1.523043 -0.77364796 -0.77793384
-2.2621617 -2.4337914 -2.4086015 -1.6456984 -2.9348714 -0.7079891 -0.5166176 -0.59979856
-1.6435335 -0.67273533 -0.8441625 -0.75428987 -2.806353 -1.5304449 -1.0418079 -0.5204913
-1.0133315 -1.4594228 -0.73185384 -2.999512 -0.9051806 -1.6049562 -1.1699015 -0.6787193

first_h.4.running_mean f4 [32]
00000000: 0c9f 0f41 9d9a 33c0 1305 14c1 c533 3bc0
00000010: 2fb6 ca40 ca12 c340 714f cfc0 bd66 0ac1
00000020: ccfd 5f40 61b7 3441 df68 4dc1 20c0 1541
00000030: 4e22 5941 8a7f 0841 aa30 fac0 84d1 11c1
00000040: dce9 8bc0 5db1 11c1 32e3 5fc0 22aa f1c0
00000050: f258 b140 0643 9540 ad47 db40 98fa f641
00000060: ed0a fb40 6a6a bd3f 7a02 8fc0 e3ac c741
00000070: 9de6 00c1 7c5a 0941 8007 0640 e703 6bc0
8.97633 -2.8063118 -9.251239 -2.9250348 6.334739 6.0960436 -6.4784474 -8.650083
3.4998655 11.29477 -12.838103 9.3594055 13.570875 8.531137 -7.8184404 -9.113651
-4.3722973 -9.105802 -3.498242 -7.552018 5.5421076 4.6644316 6.8524995 30.87236
7.8450837 1.47981 -4.4690523 24.959417 -8.056302 8.584591 2.0942078 -3.6721132

first_h.4.running_var f4 [32]
00000000: b6e7 ce42 4f47 7b42 5d82 0543 d055 8341
00000010: e083 c040 1606 0143 2ecd d742 f951 1243
00000020: fd64 fe41 6908 4543 4bcc 0344 135e a542
00000030: c19f 8244 e4d4 8343 0145 e242 2aa0 ff42
00000040: 3618 5e40 9028 dc42 14a0 fb41 8d80 f842
00000050: 7c46 d042 71ef 3143 ed9a 7a43 ded1 bc44
00000060: 490f e242 cccd 2740 ad52 fa42 6539 cd44
00000070: 2462 d942 4d24 5a42 1cb8 fb43 c672 c041
103.45256 62.819637 133.50923 16.4169 6.016098 129.02377 107.90074 146.3202
31.79931 197.03285 527.1921 82.68374 1044.9923 263.6632 113.13477 127.81282
3.4702277 110.07922 31.453163 124.251076 104.137665 177.93532 250.60518 1510.5583
113.029854 2.6219358 125.161476 1641.7936 108.69168 54.53545 503.43835 24.056042

nns.0.0.weight f4 [32, 32]
00000000: 6f15 11bf d2d1 0fbe a271 5abf b273 dfbe
00000010: 0c2b 0dbf c478 52bf 729c 2dbf 43ce f5be
00000020: 5ab5 44bf 3054 e9be 68fc 1140 e2e8 0fbf
00000030: 2ad0 f6be bfad 15bf 3c45 31bf 1fcf 62bf
00000040: 2100 1abf 3a1c e2be 8d05 c73e c870 b8be
00000050: 6798 0bbf e6e2 16bf 68ee bfbe 0f45 c2bf
00000060: 565d 45bf 8c62 2fbf 27df 03bf ff4e 7bbf
00000070: d207 27bf 4180 d6be 47a0 f8bd 966f 78be
00000080: 50ed 1bbf 1bb5 e0be abe1 20bf b7d6 e5be
00000090: 5c4c 39bf af72 ac3f 5bc2 8bbf 56a9 293f
000000a0: 69fd b2bf 239e 0abf 7135 1c3f f30a 4fbf
000000b0: 0dca 82bf 1ebb 3fbf d858 023f c344 3cbf
000000c0: 0e8e 61bf 5fb7 453f 2380 c0bc f88f df3e
000000d0: 6413 d1bf 2ac0 96bf 8026 f8be 4fcd 2940
000000e0: b92e 5bbf 4fff 81bf 5f4e e8be 4ae8 80bf
000000f0: b55e 893f d16a da3d e802 d7bd 298d 3d3d
00000100: af3d 36bf 797a 12bf 2303 b0be 06dd aabe
00000110: 0dbc 40bf 2107 23c0 8892 2fbe 52de 1abf
00000120: 7ce5 88be 243d 813f 4e87 5f3f 18e7 73bf
00000130: 8c52 52be aae2 3bbf db8f 18bf 3589 f0be
00000140: 6915 82be 2db7 bebe ca56 363f 3a4f 26bf
00000150: 05fe 9a3e 8efc 85bc 0312 4fbf fad9 3ebf
00000160: 8494 22bf 5904 05be 249b 18bf acb3 b0bf
00000170: 7f93 d0be e654 723f 54df 7abe 818c 06bf
00000180: 6020 24be 009d 173f 3459 333f 576c 92be
00000190: 039a d3be 94b5 36c0 7d45 3abe aa6f 463f
000001a0: 2c26 9dbe 9345 7e3e 4201 6bc0 dbcf b0be
000001b0: 0f4a 75be 6820 f9be db58 9e3d 3ff7 543f
000001c0: 376d d9bd 9c2e 3f3f e882 133f 4ab5 01bf
000001d0: 92e8 7fbd e379 be3d 312a b5be d313 d7bf
000001e0: f87b 5dbe 8372 933d a98e 01bf 940d 16c0
000001f0: b0bb 393f 17d1 b73e 8a83 87bf c69c 493e
00000200: f906 ab3e a29f 263f 4ae4 363f c10f 273f
00000210: 1128 8c3e 01b3 df3e 6916 063f d7e9 203e
00000220: 7aba 0c3f a6ff 463f 1fd7 253f cfef 3f3f
00000230: 10e5 4c3f fa4b d83e ee70 f23e fce0 0d3f
00000240: 6949 263f dc84 943e b552 453f ce26 02bf
00000250: a19f 4a3f 7c8e 603f a1af 933e a865 e43e
00000260: 29ee 113f ed65 6b3f 07e8 b53e 6ab8 bb3e
00000270: 1c8c 5d3e 33d8 323f 5f01 c93d ea96 18bf
00000280: aef5 30bf e92d 38bf d1c4 f4be d64d 2dbf
00000290: a151 e6be 03b8 3cbf bbef 27bf 1c50 30bf
000002a0: 9360 3dbf f897 16bf e3c4 f9be b779 54bf
000002b0: 3056 0fbf 02a4 23bf fa39 05bf 5ad5 19bf
000002c0: d04c 44bf 8578 15bf 8b89 22bf 6b8b 36bf
000002d0: 23ca e8be 8d17 33bf 2d45 3abf 526c e4be
000002e0: a718 00bf 26d4 fbbe 5b61 02bf 69e1 06bf
000002f0: 8630 f5be 57e2 20bf f50b 10bf 8c12 0cbf
00000300: 0c81 793f 4ead ff3e 4bb6 1f3f 9939 f2bd
00000310: 6e1f e13f d2fe ef3e d0c4 0a3f cfaa 4db8
00000320: b874 2540 5879 1740 f3e0 563f b12f c53f
00000330: 2866 d33f 4dc1 823f 33f2 9cbe 99df fa3e
00000340: c023 583f e66a 0d3e 7407 583f 0351 193f
00000350: 335d b53e 9349 bf3f 2586 b43f a1cb 96bf
00000360: 94fe 8f3f b71c 583f 9832 e33e 6495 ec3f
00000370: 5546 34be b8f2 703a f6f8 a7bf 6c34 be3e
00000380: 1b42 a53f c6a4 13bf 5d5d 13bf 2270 48bc
00000390: 6864 403f fcbd 953f 0d5d 853e 3b99 f83e
000003a0: fb72 a1be 2b55 eb3f aba2 c7bf ff78 0e3f
000003b0: 9352 4bbf 1209 6c3f 94c1 563f da60 03bf
000003c0: 03fa 083e a757 3d3f 52f8 ddbe d357 f93e
000003d0: 60dc 763f 82c8 a63d 47a3 c23e f10f 91bf
000003e0: 3563 283f 74f9 8ebe 4510 0c3f 2c7f 9140
000003f0: b764 2f3f 5c54 503f 344c b83f eec8 efbc
-0.5667333 -0.14044884 -0.8532964 -0.43642956 -0.5514381 -0.82215524 -0.6781684 -0.48008928
-0.7683922 -0.45572042 2.2810307 -0.56214726 -0.48205692 -0.5846824 -0.6924627 -0.8859729
-0.60156447 -0.4416216 0.38871422 -0.36023545 -0.5452942 -0.5893997 -0.37486577 -1.5177325
-0.77095544 -0.68509746 -0.5151238 -0.98167413 -0.6524631 -0.41894725 -0.121399455 -0.24261317
-0.60908985 -0.43888173 -0.6284434 -0.44890377 -0.7238214 1.3472499 -1.0918688 0.6627401
-1.3983585 -0.5414755 0.61019045 -0.8087608 -1.0217911 -0.74894893 0.50916815 -0.7354242
-0.88107383 0.7723293 -0.0234986 0.43664527 -1.6334043 -1.1777394 -0.48466873 2.653156
-0.8561817 -1.0156039 -0.45372292 -1.0070889 1.0732027 0.10664905 -0.10498601 0.0462772
-0.7118787 -0.5721813 -0.34377393 -0.33371753 -0.7528694 -2.54731 -0.17145741 -0.60495484
-0.26737583 1.0096784 0.87315834 -0.95274496 -0.20539302 -0.73392737 -0.59594506 -0.4697968
-0.2540696 -0.37249127 0.7122618 -0.6496464 0.30271927 -0.016355779 -0.8088686 -0.74551356
-0.63507867 -0.1298994 -0.59611726 -1.3804832 -0.4073753 0.94660795 -0.24499255 -0.5255814
-0.16027975 0.5922394 0.7005799 -0.28598282 -0.4132844 -2.8548326 -0.1819057 0.77514136
-0.30693185 0.24831228 -3.6719518 -0.3453358 -0.23954032 -0.48657537 0.077317916 0.8318977
-0.10616534 0.74680495 0.5762162 -0.5066725 -0.062477656 0.09300592 -0.35383752 -1.6802925
-0.21629322 0.07199576 -0.5060831 -2.3445787 0.72552013 0.3590171 -1.0587018 0.1968871
0.33403757 0.6508733 0.7144209 0.65258414 0.27374318 0.43691257 0.52377945 0.15714203
0.5497204 0.7773384 0.64781374 0.74975294 0.8003702 0.42245466 0.47351784 0.55421424
0.64955765 0.29007614 0.77079326 -0.5084046 0.79149824 0.87717414 0.28844932 0.44608808
0.5700403 0.919524 0.35528585 0.36664134 0.21635479 0.69861144 0.09814715 -0.59605277
-0.6912488 -0.71945053 -0.4780641 -0.67696893 -0.44984153 -0.7371828 -0.65600175 -0.6887224
-0.73975486 -0.58825636 -0.48783025 -0.8299822 -0.55990887 -0.6392213 -0.5204159 -0.60091174
-0.76679707 -0.58387023 -0.63491124 -0.71306485 -0.45466718 -0.6995781 -0.72761804 -0.44613892
-0.50037616 -0.49185294 -0.509298 -0.526877 -0.47888583 -0.6284537 -0.56268245 -0.547158
0.97462535 0.49936908 0.6238753 -0.11827392 1.7587717 0.468741 0.5420656 -4.9034887e-05
2.585249 2.3667812 0.83936995 1.5405179 1.6515551 1.0215241 -0.30653533 0.48998716
0.8442955 0.1381031 0.8438637 0.5988924 0.35422668 1.4944328 1.4103438 -1.1780893
1.1249566 0.84418815 0.44374537 1.848309 -0.17604955 0.00091914413 -1.3122852 0.3714937
1.2910799 -0.576733 -0.57564336 -0.012233766 0.7515321 1.1698604 0.26047555 0.48554406
-0.31533036 1.8385366 -1.5596517 0.55653375 -0.79422873 0.9220134 0.83889127 -0.5131966
0.13376622 0.7396187 -0.43353516 0.48699817 0.96430016 0.081437126 0.38015196 -1.133299
0.6577638 -0.27924693 0.54712325 4.546774 0.68513054 0.8137872 1.4398255 -0.029270615

nns.0.0.bias f4 [32]
00000000: 96fe ab3f dac1 6b3e 1207 25be a877 b53d
00000010: 9ff8 4e3e 8b10 583e 8941 a73f be81 3ebf
00000020: efab 9b3e 7042 09bf 882f 633f 50d2 69be
00000030: db44 e8bd 3c2c 8c3f c35c 8fba d979 0dbd
00000040: d574 82bd d947 d7bd 7f3d 323f 55f9 0bbf
00000050: 8493 f8be f2aa 803f d43f 7fbd 0de3 333f
00000060: 90be 11bd 72ef 1340 db63 903c d59f 8cbd
00000070: ea3e 9a3d d114 343f 6ca3 093f c021 b6bc
1.3437068 0.23023167 -0.16115978 0.08860713 0.20212029 0.2110006 1.3066875 -0.7441672
0.30404612 -0.53617 0.887444 -0.22834134 -0.11341258 1.0950999 -0.0010937679 -0.03454003
-0.0636994 -0.10511751 0.69625086 -0.54677325 -0.48550045 1.0052168 -0.06231673 0.70268327
-0.035582125 2.3114896 0.01762574 -0.06866423 0.07531531 0.70344263 0.53764987 -0.02223289

nns.0.1.weight f4 [32]
00000000: 9c61 0f3f 890b 4540 8e67 f43f 3f47 3540
00000010: 9bd2 0abc 1811 843f 3623 ac3f 6813 3140
00000020: 96d3 2b3f e92d d3be f3ef 653f d6b1 013f
00000030: b443 0640 f3ea 943f 35ea 1040 afca 4d3e
00000040: 9053 69bf f6e6 96be 45e7 9f3f ad08 d2be
00000050: d655 75be db6f 1740 41f8 b83f 814b 7f3f
00000060: 4ed5 9b3f 518b 4040 8156 e43f 4fb9 c73f
00000070: 09c8 4fbf be6e 713c 64a6 e340 bdf1 8e40
0.56008315 3.078829 1.9094102 2.8324735 -0.008473064 1.0317717 1.3448246 2.7668095
0.6711973 -0.41245964 0.8981926 0.5066198 2.0978823 1.1634201 2.2642949 0.20096849
-0.9114313 -0.29473084 1.2492453 -0.41022244 -0.23958525 2.366202 1.4450761 0.99724585
1.217447 3.0085032 1.7838899 1.5603427 -0.81164604 0.014735876 7.1140614 4.467009

nns.0.1.bias f4 [32]
00000000: c350 d23f 5d4b 1040 55ce c43d 19b5 45c0
00000010: 8f9e 41bf 4c32 cebf ac3b be3f 4b89 00bf
00000020: 8fde 6cc0 8320 19c0 2534 28c0 18a3 7bbf
00000030: 0ac1 29c0 9a6b 3c40 5c98 16c0 06ec eabe
00000040: 3e01 41c0 831c 12bf 153f a2bf a25a 7e40
00000050: eafd 18c0 fa91 ed3f e307 f3bf 8d28 cebf
00000060: 293f d4bf 93f1 a6bf 23e6 30c0 fde7 09c0
00000070: 0543 0dc0 1613 14bf de8c 13c0 664a fabf
1.6430897 2.2545998 0.09609667 -3.0891783 -0.75632566 -1.6109099 1.486196 -0.5020949
-3.701084 -2.3926094 -2.6281826 -0.98295736 -2.6524072 2.9440675 -2.3530493 -0.45883197
-3.0157008 -0.57074755 -1.2675501 3.9742818 -2.3904977 1.8560174 -1.8986782 -1.6106125
-1.6581775 -1.3042473 -2.7640464 -2.1547844 -2.2072155 -0.5784162 -2.3054729 -1.9553955

nns.0.1.running_mean f4 [32]
00000000: 91ff ab3f 62c0 6b3e 9306 25be 2a76 b53d
00000010: 8cfa 4e3e 1810 583e 8440 a73f 7680 3ebf
00000020: eeaa 9b3e 9441 09bf f52f 633f 1dd1 69be
00000030: a443 e8bd d82d 8c3f 055e 8fba f978 0dbd
00000040: d875 82bd 5c45 d7bd 9f3e 323f ccf8 0bbf
00000050: 6d91 f8be d4a9 803f fb3f 7fbd abe1 333f
00000060: 7dbf 11bd e0ef 1340 1c62 903c fa9f 8cbd
00000070: 8e3f 9a3d 9014 343f 12a2 093f 8020 b6bc
1.3437368 0.23022607 -0.16115789 0.08860429 0.20212764 0.2109989 1.3066564 -0.74414766
0.30403847 -0.5361569 0.8874505 -0.22833677 -0.113410264 1.095149 -0.0010938054 -0.034539197
-0.06370133 -0.10511276 0.696268 -0.5467651 -0.4854845 1.0051827 -0.062316876 0.70266217
-0.035583008 2.3115158 0.017624907 -0.068664506 0.07531653 0.70343876 0.53762925 -0.022232294

nns.0.1.running_var f4 [32]
00000000: 4970 8830 5487 0f2e 000c f32c 3f25 452d
00000010: 2ecf 8d2e 52ec 612c f47a 9730 78e4 e32f
00000020: eb65 9a2e 7e94 472f b2a9 512e ca87 f02d
00000030: a318 ce2c 188a 4131 d08d 5a2a debb 922b
00000040: fc26 a22c 8573 e62d ef69 bf2f 3d69 e02e
00000050: de22 a62f c73e a830 17e0 342a aa41 1b30
00000060: ebf7 f52b dc53 4b30 6485 a42b d0f4 6e2a
00000070: 1bf8 0b2c 97db ce2d 4d4d 0930 ae41 702b
9.927216e-10 3.263463e-11 6.9078077e-12 1.1206424e-11 6.44874e-11 3.2105607e-12 1.1021641e-09 4.1453396e-10
7.0212135e-11 1.81517e-10 4.7671818e-11 2.7345144e-11 5.8576074e-12 2.8163694e-09 1.941149e-13 1.0426068e-12
4.608645e-12 2.6199274e-11 3.4817968e-10 1.0205035e-10 3.022e-10 1.2241451e-09 1.6064958e-13 5.6481986e-10
1.7477108e-12 7.397014e-10 1.1689924e-12 2.1223583e-13 1.9890814e-12 2.3517006e-11 4.995016e-10 8.5356277e-13

nns.0.3.weight f4 [32, 32]
00000000: f6b8 753f b864 fb3e 0b11 be3f 173f be3f
00000010: 2d55 0d3e a890 2040 c0d7 6ebf 59b3 2ec0
00000020: dcf1 0040 2044 853f 70d7 cc3e b5c6 073f
00000030: 0272 a4bf 3b71 8fbf b838 eb3f 195d 503f
00000040: 35bd 9a3f 8afa 2e3f 9fba da3f 2af0 d53e
00000050: 7a13 1f3f 38d1 69bf 7ade b33e eafe 1fbf
00000060: b87d 6cbf 7caf 2940 8df5 94bf 1f72 2e40
00000070: a1fe 7f3f a588 153f 20a0 d4bf a98e 4f40
00000080: 4c4d 1d40 711c 87be f512 d03f 68ae 213f
00000090: 34c3 9b3e a2e5 1b3f bff3 103d 2bfc 16c0
000000a0: 9f9a 7f3f cabb 1040 9e92 f73e 1dd1 09be
000000b0: 1baa c8be 3102 f2bf 04be 8c3f f818 44bf
000000c0: 5a36 f13f 1582 b3be 1451 ff3e df48 3a3f
000000d0: 896f 9a3f d54c 6bbf 481f afbc 883c 26bf
000000e0: 2582 2ebf b396 673f a67d 69bf df9c 8a3f
000000f0: 1ba4 f93f 131f 69bf d995 86bf 4c87 af3f
00000100: 6e03 9e3e c6bb e0be b33a 73bf 58c6 ecbe
00000110: b5fa 383e c104 f9be 7c6e 0dbf c011 25bf
00000120: 314c 31bf a060 98be d353 b2be aa0a d53e
00000130: 4d5f 80be b012 37bf 0485 8abe 099d 83bf
00000140: 9211 2bbf bc79 14bf e346 d4be 5168 10bf
00000150: 5439 77bf adc9 72bf d0b8 53bf 634d 3bbf
00000160: dfd9 5ebf bd7c f8be 5ca8 4fbf 99f7 30bf
00000170: 451c 3abf cbcc e43e 959f 62bf af20 053e
00000180: 29d0 f0b9 fa82 83bd dc8b bebf 96fd cb3e
00000190: c74d 833e 0604 0d3f 5c75 163f f3e1 50c0
000001a0: 3d03 6f3f eec3 273f 98c4 a33e 06d3 cabf
000001b0: dba9 23bf 9cc4 023f 19dc 293f 41b0 0cbf
000001c0: ed9a 983f f3bb 303f b8b8 9e3e e7ed 423f
000001d0: 99fe e33e 467e c2be 0076 26be 9b0d bf3e
000001e0: 965c 0a3f 29fd 79bf 263f a43d 75eb db3e
000001f0: 096f 453f 4fd1 f8bd 081b 50c0 8143 133d
00000200: 28e8 6d3e daf6 353f d002 b9bd 3069 783f
00000210: 9068 0f3d 1c3f 433f 37ee 9dbf ef5a 89c0
00000220: 15f6 2a3f 09fb 9a3e df23 673f bcf1 323f
00000230: 86f4 8cbf 9a1c 9bbf a657 6c3b fa81 153f
00000240: c366 8a3f 5850 573f 8003 893f 8082 a03e
00000250: 96c5 053e 08ff 963e ea5b 4a3f 2290 913f
00000260: f75c 813f 5fac 583f 8c73 9ebf 9b7f 093f
00000270: c1dd 243f ffde 0e3f 4064 15c0 28cb fc3e
00000280: 6159 d23e 7478 23bf 02ee 383f 24ad 36bf
00000290: 9f5d 123f 8cac 16bf ff1b 33bf 5e1e 773e
000002a0: cb99 04bf 7e8a c63e 2e29 153e af8e 2f3f
000002b0: c30f 0cbf 6e4e 033f eb57 17bf 49a3 f03e
000002c0: b677 3bbf a805 3dbf a998 25bf 5e7c efbe
000002d0: 7556 f73e 059f 2bbf 4b04 08bf 13e9 43bf
000002e0: 9b32 21bf 6638 09bf 33d4 0abf 4a73 dfbe
000002f0: 90ae 4dbf d55b 493f bc94 39bf 063a 383f
00000300: ab05 263f 117e 69bf 5e6e 42bf 0844 00be
00000310: 1a62 783e 0959 efbe d243 66bf 67b0 a8be
00000320: afae b4be a34b 6fbf 40d8 9fbb 9b8f 82be
00000330: 1555 48bf 71d7 89bc f5b8 1bbf a019 07bf
00000340: abf9 cbbe 8045 1abf e930 a0ba 87fb 4abf
00000350: 8dc2 4c3f a069 67bf a76b 19be 4198 02bf
00000360: 2538 05bf f819 38bf 71d1 f4be 6d9c 2abf
00000370: f9fb 20bf 0fc2 b13e ec97 dfbe 8262 51bf
00000380: 267e 533f b36a 0b3f 3fde 0fbf 4776 9abe
00000390: 24b7 383f f154 293f 5bef a43f 9bf1 db3e
000003a0: 6321 e93e 7499 663f 9be1 b23f 1e50 b43e
000003b0: 59da ae3f 5520 c23f 0086 433f 64ad 40be
000003c0: 609d 0e40 8c35 963f c90d 613f 4f2f c73c
000003d0: 7d6d 9b3f 15ec 133f 254d 97be 74d6 c03f
000003e0: 604b ad3f dbe9 1a3f a301 1240 65e1 3b3f
000003f0: 95d3 843f c74a 00bb 4ccb f9be 9711 56bf
0.95985353 0.4910028 1.4848951 1.4863003 0.13802023 2.508829 -0.9329796 -2.7296965
2.014762 1.0411415 0.40008116 0.5303758 -1.2847292 -1.120643 1.8376684 0.81392056
1.2088991 0.6835104 1.7088202 0.41784793 0.62139094 -0.9133487 0.35130674 -0.62498343
-0.9237933 2.6513357 -1.1637436 2.7257154 0.9999791 0.5841163 -1.6611366 3.2430823
2.4578428 -0.26388887 1.6255785 0.6315675 0.30422366 0.60897267 0.035388704 -2.359141
0.9984531 2.2614617 0.48354048 -0.13458677 -0.3919228 -1.8906919 1.0995488 -0.766006
1.8844712 -0.35060182 0.49866545 0.7276744 1.2065288 -0.9191411 -0.02137722 -0.64936113
-0.68167335 0.90464324 -0.9120735 1.0829123 1.9503206 -0.9106304 -1.051448 1.3713164
0.30861992 -0.4389326 -0.9501144 -0.46245074 0.18064387 -0.4863644 -0.5524671 -0.6448021
-0.69256884 -0.2976122 -0.34829578 0.416097 -0.2507271 -0.7151289 -0.27054608 -1.0282298
-0.66823685 -0.5799825 -0.41460332 -0.56409174 -0.9657185 -0.9483898 -0.82703876 -0.7316496
-0.87051195 -0.48532668 -0.8111627 -0.69127804 -0.72699386 0.44687495 -0.8852475 0.13000749
-0.0004593146 -0.06421466 -1.4886432 0.39841908 0.25645277 0.55084264 0.58772826 -3.2637908
0.93364316 0.6553334 0.31985927 -1.5845649 -0.63931054 0.5108125 0.6635147 -0.5495644
1.192228 0.6903679 0.31000304 0.7614426 0.4453018 -0.37986964 -0.16255951 0.37315068
0.54047525 -0.97651917 0.08019857 0.42953077 0.7712255 -0.121492974 -3.2516499 0.03595305
0.23233092 0.7107979 -0.090337396 0.97035503 0.035011828 0.7626817 -1.2338322 -4.2923503
0.6678174 0.3026965 0.9028911 0.6990011 -1.1012123 -1.2118104 0.0036062985 0.58401453
1.081261 0.8410697 1.0704193 0.31349564 0.13063654 0.29491448 0.790465 1.1372111
1.0106496 0.8463802 -1.2379012 0.53710335 0.6440087 0.55809015 -2.3342438 0.49373746
0.41083816 -0.6385567 0.7223817 -0.7135794 0.57174104 -0.58857036 -0.69964594 0.24132678
-0.5179717 0.38777536 0.1456649 0.6857709 -0.5471155 0.5129155 -0.5911853 0.46999577
-0.7322954 -0.73836756 -0.64686066 -0.46774572 0.4830815 -0.6703952 -0.5313155 -0.7652752
-0.6296784 -0.5360168 -0.5423004 -0.43642646 -0.80344486 0.7865575 -0.72492576 0.71963537
0.648524 -0.9120799 -0.75949657 -0.12525952 0.24256173 -0.46747616 -0.89947236 -0.32947084
-0.35289523 -0.9347479 -0.004878074 -0.25500187 -0.78254825 -0.016826363 -0.608291 -0.52773476
-0.3983892 -0.602623 -0.0012221608 -0.7929005 0.7998436 -0.90395546 -0.14982472 -0.5101357
-0.52038795 -0.71914625 -0.4781604 -0.66644937 -0.6288448 0.34718367 -0.43670595 -0.81790936
0.8261436 0.54459685 -0.56198496 -0.30168363 0.7215445 0.66145235 1.2885545 0.42957768
0.45533285 0.900779 1.3975099 0.35217375 1.3660384 1.5166117 0.7637634 -0.18816143
2.2283554 1.1735091 0.8791166 0.02431455 1.2142788 0.5778211 -0.29551044 1.5065446
1.3538628 0.60513085 2.28135 0.733908 1.037707 -0.001957582 -0.48787916 -0.8362059

nns.0.3.bias f4 [32]
00000000: e5ae 57be 2962 e4be 0f0c 86be 9b20 4b3f
00000010: d752 96bf 04fd a0be 8a70 f5bd 9834 abbf
00000020: f212 15be 71ea 443f bcf6 1240 d0f8 97bf
00000030: f622 f0be 59c2 16be ab2f 243f c497 c33e
00000040: 6602 203f 8c8b 973e 3430 dcbe 89b5 013f
00000050: f563 1c3f c706 22c0 1e74 4ebf 552e b93f
00000060: 0c1a 8abf 543a 373f 0c5b 823f 3025 0540
00000070: 0f45 c7bd a439 973f 4dad 043f 08c5 823f
-0.2106281 -0.4460614 -0.26181075 0.79346627 -1.1744031 -0.31443036 -0.11984356 -1.3375425
-0.14558008 0.7692023 2.2963095 -1.1872807 -0.46901673 -0.14722575 0.64135236 0.38201725
0.6250366 0.29598653 -0.43005526 0.50667626 0.6109002 -2.5316637 -0.8064593 1.4467264
-1.0789199 0.71573377 1.0184035 2.0803947 -0.09729969 1.1814466 0.51826936 1.0216379

nns.0.4.weight f4 [32]
00000000: 8612 a53f 13e5 a83f c506 443e 8768 8b3f
00000010: ad27 013d f5ba 813d b85f cb3e 070c 76be
00000020: 0dc8 613f 9a53 c83e a239 73be 6ff3 f5bf
00000030: 0e03 a63f 854a 133b 487d 14bd 6394 dabe
00000040: 00ec 1b3e e37b 91be ac16 cb3c a758 8a3f
00000050: 32eb c13e 59bf 6a3f 83c3 273f 08f4 0240
00000060: dc95 753d ef74 a83f 320b c63c 436f 733f
00000070: e8fe c43f 3218 21bf 766e b43e 0ff0 30be
1.2896278 1.3194908 0.19143207 1.0891274 0.03153198 0.06334487 0.39721465 -0.24028026
0.8819588 0.39126283 -0.23752454 -1.9214915 1.2969682 0.0022474837 -0.03625229 -0.42691335
0.15226746 -0.2841483 0.024791084 1.0808305 0.37874752 0.91698223 0.655327 2.0461445
0.05995737 1.3160685 0.02417526 0.95091647 1.5390291 -0.62927544 0.35240525 -0.17279075

nns.0.4.bias f4 [32]
00000000: b7db 08c0 349a 13c0 eaa4 02bf 3f2b 68bf
00000010: eeec 0fc0 499b 6bbf a9d4 24bf 02df d3bf
00000020: 9615 1ebf fc2e dfbe effe 09c0 695b 8abf
00000030: 1aff aabf 07fb 25bf cf28 c0bf 2946 53bf
00000040: e67c 33bf 3900 9dbf 7ff0 2ebf 71bd 36bf
00000050: beac 6bbf 3a4e 0fc0 bfbe d7be 6391 6abf
00000060: 4aaf 02c0 e24b 07bf 8f87 6dbf fb9d dbbf
00000070: e6ff 04bf 8d99 7fc0 5237 36bf 00cb 6dbf
-2.1384103 -2.3062868 -0.5103289 -0.9069099 -2.248836 -0.9203382 -0.64386994 -1.6552432
-0.6175169 -0.43590534 -2.156185 -1.0809146 -1.3359101 -0.6483616 -1.5012454 -0.8252893
-0.70112455 -1.2265693 -0.6833572 -0.71382815 -0.9206046 -2.2391496 -0.42137715 -0.9162809
-2.0419488 -0.52850163 -0.9278497 -1.7157587 -0.5195297 -3.993747 -0.7117816 -0.9288788

nns.0.4.running_mean f4 [32]
00000000: 2ae2 07c0 1ad4 96bf c829 f9c0 1338 a640
00000010: 529b 32c0 7bda 6bc0 4924 eec0 2af1 0b41
00000020: f06d 8a40 ccf5 1b41 79a6 7641 3a4a 033e
00000030: 6181 b8bf 76eb 33c1 94f1 e33f 91cd 0f40
00000040: 6bf8 0bc1 4bb0 a140 22f7 1bc1 d5c3 28c1
00000050: a050 25c0 a531 f140 a20f e640 cb33 84c1
00000060: 4c67 02c2 3bd7 e0c0 ec8c 9b40 5cec 28c0
00000070: c4d0 fbbe a76a fabf d4a4 a2c0 0b85 3441
-2.123179 -1.1783478 -7.7863503 5.194345 -2.79073 -3.68521 -7.4419293 8.746378
4.32592 9.747509 15.415643 0.12821284 -1.4414483 -11.244986 1.7808099 2.2469218
-8.748149 5.05277 -9.747835 -10.547811 -2.583046 7.53731 7.1894083 -16.52529
-32.600876 -7.0262733 4.8609524 -2.6394262 -0.49182713 -1.9563798 -5.0826206 11.282481

nns.0.4.running_var f4 [32]
00000000: 4a6b 8331 f082 5030 71d8 c933 a636 4832
00000010: 9f36 ac31 1fa7 9532 5794 4833 2f10 7932
00000020: 4c42 3e32 085a 2533 2663 a034 c82b 022e
00000030: 27da 8030 cea4 b533 5b87 5031 d9a8 7831
00000040: c2c7 ea32 f5f8 8f32 1f8f 0132 88ba 9633
00000050: 154a 8c31 afb2 8433 2a47 2833 ff80 a834
00000060: 9e30 5035 2493 b532 46c6 2632 e770 4731
00000070: 6738 672f d2e6 b931 6bcb 0432 4a78 d033
3.824799e-09 7.585603e-10 9.399162e-08 1.1653958e-08 5.0120685e-09 1.742188e-08 4.6701043e-08 1.4497387e-08
1.107453e-08 3.849894e-08 2.9874462e-07 2.9597463e-11 9.375228e-10 8.458447e-08 3.0344924e-09 3.6184729e-09
2.7332025e-08 1.6760604e-08 7.54133e-09 7.018849e-08 4.0829584e-09 6.179231e-08 3.918027e-08 3.1386296e-07
7.7556786e-07 2.1138085e-08 9.707554e-09 2.9022489e-09 2.1029366e-10 5.41045e-09 7.729663e-09 9.707635e-08

nns.1.0.weight f4 [32, 32]
00000000: 020f b7bf a0d9 b2bf c246 113f 85e8 c4bf
00000010: 43b5 b9bf 5023 39bf 4203 02bf 44c0 76be
00000020: 1e83 c0bf 95ba f4bb 9400 adbf bd3c 7ebd
00000030: e718 99bf a0bc 30bf 0e28 9abf 47d1 673d
00000040: e932 23bf d597 02bf 7cb2 1fbf fb97 e23e
00000050: 4574 51bf 7294 a7bf b953 a1bf 4cff 31bf
00000060: 1677 c43e da9f 14bf 1e45 0cbf dbba 9dbf
00000070: b156 bfbe a2be 1bbf 1b30 ff3e 39ed a4bf
00000080: 473b 44bf 957a 11bf 6d02 3c3f 381b dabe
00000090: 8632 1a3f 4bac 11bf d9b8 0fbf 5c14 66bf
000000a0: 5297 50bf 8310 f3be 68f5 2bbf fc95 18bf
000000b0: 90cf 89bf bd63 a13e c2e5 ad3e d5a4 f3be
000000c0: 28d1 08bf ac63 3abe e504 043e de89 7b3e
000000d0: 5f9e 16bf 691b 39bf 54a3 9dbf 2133 05bf
000000e0: 7533 0ebf d879 2ebf b5aa 44bf 5230 3bbf
000000f0: 51d4 b2bd edd4 0dbf f106 f4be 87d2 04bf
00000100: f116 69bf 3b89 73bf 1146 09bd e5ed b7be
00000110: cc39 4dbf 2309 4abf bf19 fd3e 04d1 87bf
00000120: c7d2 2ebf 8cff 49bf 3aa2 24bf 0ace 43bf
00000130: da6b 79bf 1517 683e 9c0f 47bf 072e e5be
00000140: 8e05 0fbf 4398 b2be 802c 8b3e 7a08 88be
00000150: 2be1 8dbe c2e1 2abf 8306 73bf 523e 0cbf
00000160: cdd4 8bbe d6e8 09bf 7a2d 24bf db08 6dbf
00000170: 2ccb 34bf 71e4 32bf d4fa f8be 4df0 f7be
00000180: 6df5 f9be 446a fc3b 667a 3e3f 4d10 2abf
00000190: 6d07 24bf d6b5 1d3f df06 4ebe d225 28bf
000001a0: 8a7e 69bf 8b17 52bf e9f9 bdbe ac0d 42bf
000001b0: 6a1f 1abf ab6e 713f 3383 1abf e6bf 933f
000001c0: c940 35bf b9a9 32bf 70a2 ad3e aba3 073e
000001d0: b0d4 1dbf c388 d5be 97d3 e8be bc0e a53f
000001e0: 2a08 eebe b978 443f 141d 163f d45b 543d
000001f0: fc59 1bbf 965a 75bd 309f e3be 3672 82bf
00000200: f247 25bd 03f5 c8be feef 9d3d 3e3c a2be
00000210: 32ee aabf b2ae 083f 66d3 023f 2160 cfbe
00000220: 18e8 79bf a806 5c3f cabc 7bbf cc4c 4cc0
00000230: bbeb 09bf 1139 183d 00e4 17c0 c9f7 9ebe
00000240: a495 e23e 320b cd3e f35d 1c3f f909 183f
00000250: adae f53e 1d19 13be 661b af3d 9a41 0440
00000260: ec43 15c0 5d7c ec3e fdb9 2a3f e3f0 67bf
00000270: e565 d33e 6f57 90bf 93eb 40bf b9d1 0dc0
00000280: 5e0c 92bf 6beb 51bf e858 2e3f 8b71 77bf
00000290: 71fb 843f 7b75 0b3f 1a2f 4f3f 6ab5 77bf
000002a0: 43b4 69be c8f5 093e cb19 17be f894 5fbf
000002b0: 2066 72bf 65a2 4d3e df74 11bf 99fa 863f
000002c0: f5a2 0d3f d414 abbe 6c17 193f 0ca5 2f3f
000002d0: e8c1 dbbd 0241 52be ba64 f1be e5a6 b83f
000002e0: 1244 15bf 42ca 423f f3f4 193f bdc0 7cbf
000002f0: 585a 67bf 3409 febe dcf6 f2be 0315 71be
00000300: 8f76 be3d 8ccb 023f ce28 4a3e 72e8 e73e
00000310: 2a94 9fbf 4a38 08bf 0221 433f a0e7 ee3c
00000320: 1e60 423f 42ce 01bf 67d8 62be df7b fc3f
00000330: 172d b23e 61ce 763e e03d d8be 9e5a 303f
00000340: d433 1fbf baea 873d d919 093f 98e0 97bd
00000350: d958 be3d da19 e23e f460 edbd 1094 b7bc
00000360: 07ab 3a3f 695e 343f f469 373f 8a0d 283f
00000370: e0c1 87be afd6 1d3f 5fa8 153f 683f 39bf
00000380: 15a8 dfbe 9fcc 39bf 425a 003f faf8 4fbf
00000390: 0abb 5b3d d9a7 23bf f6f7 16bf bab5 e0bd
000003a0: 0a0a 37bf 17cc d4bf 1e34 9bbf 4fa9 7cbf
000003b0: 670f 3dbe 52b4 8a3c 8c0f 53bf 7848 7fbf
000003c0: fc95 213f 328c ebbe 1478 0f3f 5489 313f
000003d0: 4df7 4dbf 241d f1be 6353 88bf 863a 04bf
000003e0: 779e f13e e869 31bf 6e3d 1fbf b77f fabe
000003f0: 98e1 85bf 46b0 e8be 568a 2a3f fcc4 ddbf
-1.4301455 -1.3972664 0.5674859 -1.5383459 -1.4508442 -0.7231951 -0.5078622 -0.24096781
-1.5040014 -0.0074685314 -1.3515801 -0.062069643 -1.1960725 -0.6903782 -1.2043474 0.056596067
-0.6374956 -0.5101293 -0.6238172 0.44256577 -0.8181804 -1.3092177 -1.2603675 -0.6953018
0.38372105 -0.58056414 -0.54792964 -1.2322649 -0.37370828 -0.6083776 0.4984139 -1.2884895
-0.7665295 -0.5682767 0.734412 -0.4259889 0.6023334 -0.56903523 -0.5614143 -0.89874816
-0.81480896 -0.47473535 -0.67171335 -0.5960386 -1.0766468 0.31521407 0.33964354 -0.47586694
-0.5344415 -0.18202084 0.12892492 0.24564311 -0.58835405 -0.7230745 -1.2315469 -0.5203114
-0.5554727 -0.6815467 -0.7682298 -0.73120606 -0.087319024 -0.55403024 -0.47661546 -0.5188374
-0.9105063 -0.9513127 -0.033514086 -0.35923687 -0.80166316 -0.7892019 0.49433705 -1.0610662
-0.6829037 -0.7890556 -0.6431004 -0.76486266 -0.97430193 0.22665055 -0.77758193 -0.4476168
-0.5586785 -0.3488179 0.27182388 -0.26568967 -0.27710852 -0.6675073 -0.9493181 -0.54782593
-0.27310792 -0.53870904 -0.6413189 -0.9259164 -0.70622516 -0.69879824 -0.48628867 -0.48425522
-0.48820058 0.0077030975 0.74405515 -0.66431123 -0.6407383 0.61605585 -0.20119809 -0.6568271
-0.9120871 -0.82067174 -0.3710473 -0.7580211 -0.60204184 0.9430949 -0.60356444 1.1542938
-0.7080198 -0.69790226 0.33912992 0.13246028 -0.6165266 -0.41705903 -0.4547393 1.2895122
-0.46490604 0.7674671 0.5863812 0.051845387 -0.6068418 -0.059900843 -0.44457388 -1.0191104
-0.040351816 -0.3924943 0.077117905 -0.31686586 -1.3353941 0.53391564 0.5110382 -0.40503028
-0.9761977 0.85947657 -0.98334944 -3.1921873 -0.5387532 0.037163798 -2.373291 -0.3104842
0.44254792 0.40047604 0.61080855 0.5939022 0.4798483 -0.14365049 0.08550148 2.066504
-2.3322706 0.46188632 0.66690046 -0.9060194 0.41288677 -1.1276683 -0.7535946 -2.2159255
-1.1410024 -0.81999844 0.6810441 -0.9665763 1.0389234 0.54476136 0.80931246 -0.9676119
-0.2282267 0.13472664 -0.14755933 -0.87336683 -0.9468708 0.2008148 -0.56818956 1.0545226
0.5532678 -0.33414328 0.59801364 0.68611217 -0.10730344 -0.20532611 -0.4714716 1.4425932
-0.5830699 0.7608987 0.6013939 -0.98731595 -0.9037223 -0.49616396 -0.47453964 -0.23543172
0.09299957 0.5109184 0.19742128 0.4529453 -1.2467091 -0.5321089 0.7622224 0.029163182
0.75927913 -0.5070535 -0.22152863 1.9725302 0.34800026 0.24102165 -0.42234707 0.6888827
-0.6218846 0.066365674 0.53555065 -0.07415885 0.0929429 0.44160348 -0.11590758 -0.022409469
0.72917217 0.7045656 0.71646047 0.6564566 -0.26515102 0.61655706 0.5846004 -0.72362375
-0.43682924 -0.7257785 0.5013772 -0.81239283 0.05364517 -0.6392799 -0.5897211 -0.109721616
-0.71499693 -1.6624783 -1.212528 -0.98695844 -0.18462907 0.016931687 -0.824456 -0.99719954
0.63119483 -0.46005398 0.560426 0.6935017 -0.80455476 -0.47092545 -1.0650448 -0.516518
0.47191212 -0.69302225 -0.6220311 -0.48925564 -1.0459471 -0.45446986 0.66617334 -1.732574

nns.1.0.bias f4 [32]
00000000: 8d64 17bf 4a6c 6cbe 8269 52be 751b 3f3c
00000010: bb8b 033e e311 3cbe 96a8 00bf 9ec3 cc3c
00000020: 5aa2 fa3e 250a 883f 7957 f8be f782 343e
00000030: 1fd6 ff3e e3be 083d a716 ec3f 6750 1d3f
00000040: bef2 423f 6841 a73f ee18 8cbf 4b61 263f
00000050: 30cf 12be cac5 963f c9ac dcbf 73c8 54bf
00000060: a28f 2d3c b950 6f3d 5d9e e6bd 30a1 40bd
00000070: ef0d 323e 9dd5 8cbf b3b7 eb3f 5343 723e
-0.59137803 -0.23088184 -0.2054806 0.011664261 0.12846272 -0.18366198 -0.5025724 0.024995621
0.4895199 1.0628096 -0.48504236 0.17628084 0.4996805 0.03338517 1.8444413 0.6145081
0.76151645 1.3066835 -1.0945108 0.6499221 -0.14336848 1.177911 -1.724023 -0.8311836
0.010593327 0.058426592 -0.11260674 -0.04702872 0.17388128 -1.100269 1.8415436 0.23658495

nns.1.1.weight f4 [32]
00000000: 2559 023d 8eb4 ff3e 8186 ed3e edda 9f3f
00000010: 3eb7 c63f 436f 993f 1536 f0be 3f44 2d3f
00000020: 676f 12bf 12e7 733f 8b68 943f fe15 963f
00000030: 988f 693e 5e31 38bf 7e6e af3f 1ae7 1540
00000040: bdf6 383f 93b0 0040 86ab fa3f a772 c23f
00000050: 6b6f d0bd 8e0c d83f 9c80 103f dcea b93f
00000060: 0710 4340 f748 9abe 256d 8dbf 4266 d93d
00000070: 8875 7dbe d925 3640 0c7b 5f40 625d 4d40
0.031823296 0.4994244 0.4639168 1.2488686 1.5524671 1.1987079 -0.4691626 0.6768226
-0.57201236 0.9527446 1.1594404 1.1725461 0.22808683 -0.7195033 1.3705595 2.3422303
0.7225149 2.0107772 1.9583595 1.5191239 -0.10177501 1.6878831 0.5644624 1.4524798
3.0478532 -0.30133793 -1.1048933 0.10615207 -0.24751866 2.84606 3.4918852 3.2088246

nns.1.1.bias f4 [32]
00000000: 623e 6b3f 1d3b 93be faf7 65bf 8cf3 15bf
00000010: ba4b b03e 0196 4bbf ae39 23bf 3c48 c93f
00000020: 78e7 e93f 70f5 d9bf 2615 4ebf 628c 55bf
00000030: f349 9f3f 0a0e c0bf b57b 943f 2de6 e13f
00000040: 9aac cfbf 125e bdbe f157 9a3f ade9 0240
00000050: 98dc 9ebf 51d6 0540 934a ed3f fcab 9a3e
00000060: d944 283f e21d 92bf 7f77 683f c2f6 15c0
00000070: 7dab a5bf 608d d53f bd6e 8d3f ee78 46c0
0.91892064 -0.28756037 -0.8983151 -0.5857475 0.34432775 -0.7952576 -0.6375989 1.5725169
1.8273764 -1.7028027 -0.8050102 -0.8341733 1.2444443 -1.5004284 1.1600252 1.7648369
-1.6224549 -0.36985832 1.2058088 2.0455124 -1.241107 2.0912058 1.8538383 0.3020934
0.65730053 -1.141537 0.90807337 -2.343186 -1.2942959 1.6683769 1.104942 -3.101131

nns.1.1.running_mean f4 [32]
00000000: 4f65 17bf 8b6e 6cbe f26a 52be b21b 3f3c
00000010: 498a 033e 7c10 3cbe 2ba8 00bf 9bc1 cc3c
00000020: 13a1 fa3e b009 883f ba54 f8be 6781 343e
00000030: 5bd4 ff3e 80bf 083d aa14 ec3f 0e50 1d3f
00000040: 4ff1 423f 7240 a73f 7118 8cbf 7160 263f
00000050: d9cf 12be d1c5 963f 8dae dcbf 9eca 54bf
00000060: f58f 2d3c 1750 6f3d 9f9f e6bd 5da0 40bd
00000070: b60e 323e 27d6 8cbf f6b4 eb3f 5e41 723e
-0.5913896 -0.23089044 -0.20548609 0.011664318 0.1284572 -0.18365663 -0.50256604 0.024994662
0.48951015 1.0627956 -0.4850214 0.17627488 0.49966702 0.033385754 1.8443806 0.6145028
0.7614946 1.3066542 -1.0944959 0.6499091 -0.143371 1.1779119 -1.7240769 -0.8312167
0.010593404 0.05842599 -0.11260914 -0.047027934 0.17388424 -1.1002854 1.84146 0.23657748

nns.1.1.running_var f4 [32]
00000000: 6eed 472f 7920 ce2e 615f 4c2e 2c5f 992c
00000010: c089 612e 8382 122e 5f39 572e 9186 632d
00000020: c720 192f c188 882f f4b6 1130 bdac 372e
00000030: 3a9f 8c2f bc92 0a2d 9e53 9831 ea9e 382e
00000040: 4bc4 1930 2215 8630 9a87 b62f b4b1 5d2f
00000050: 5aa2 592d d1c7 7e2e 2fa1 7231 95d0 b430
00000060: 7e0b 232e e16d 332d 3947 192e 60d3 7c2d
00000070: 2d14 742d 71d7 d82f 4495 0b32 3002 012f
1.8183297e-10 9.373564e-11 4.6468943e-11 4.3590877e-12 5.1281424e-11 3.3312474e-11 4.8936296e-11 1.2933336e-11
1.3926914e-10 2.4835425e-10 5.3010685e-10 4.1762805e-11 2.557899e-10 7.876973e-12 4.4332884e-09 4.19779e-11
5.5940025e-10 9.75579e-10 3.3201958e-10 2.0162966e-10 1.2371071e-11 5.7930386e-11 3.5307257e-09 1.3156006e-09
3.7072116e-11 1.019937e-11 3.485143e-11 1.4371476e-11 1.3874274e-11 3.9443251e-10 8.124804e-09 1.1733259e-10
